I0917 10:21:14.662046 32258 net.cpp:53] Initializing net from parameters: 
state {
  phase: TEST
  level: 0
}
layer {
  name: "data"
  type: "ImageData"
  top: "data"
  top: "label"
  include {
    phase: TEST
  }
  transform_param {
    crop_size: 224
    mean_value: 104
    mean_value: 117
    mean_value: 123
  }
  image_data_param {
    source: "file_lists/val.txt"
    batch_size: 25
    root_folder: "/share4/public/classification_data/imagenet1k/val/"
    short_edge: 256
  }
}
layer {
  name: "data_fixed_point"
  type: "Quantize"
  bottom: "data"
  top: "data"
  param {
    lr_mult: 0
    decay_mult: 0
  }
  quantize_param {
    precision: 8
    frozen: true
    positive: false
    tolerance: 1.5
  }
}
layer {
  name: "conv1/3x3_s2"
  type: "Convolution"
  bottom: "data"
  top: "conv1/3x3_s2/bn"
  param {
    lr_mult: 1
    decay_mult: 1
  }
  param {
    lr_mult: 2
    decay_mult: 0
  }
  convolution_param {
    num_output: 32
    bias_term: true
    pad: 1
    kernel_size: 3
    stride: 2
    weight_filler {
      type: "msra"
    }
    bias_filler {
      type: "constant"
      value: 0
    }
    engine: CAFFE
    fp16_accumulation: true
  }
  quantize_param {
    precision: 8
    channel_shared: false
  }
}
layer {
  name: "conv1/3x3_s2/relu"
  type: "ReLU"
  bottom: "conv1/3x3_s2/bn"
  top: "conv1/3x3_s2/bn"
}
layer {
  name: "conv1/3x3_s2/bn_fixed_point"
  type: "Quantize"
  bottom: "conv1/3x3_s2/bn"
  top: "conv1/3x3_s2/bn"
  param {
    lr_mult: 0
    decay_mult: 0
  }
  quantize_param {
    precision: 8
    frozen: true
    positive: true
    tolerance: 1.5
  }
}
layer {
  name: "conv2_0/3x3_dwconv"
  type: "Convolution"
  bottom: "conv1/3x3_s2/bn"
  top: "conv2_0/3x3_dwconv/bn"
  param {
    lr_mult: 1
    decay_mult: 1
  }
  param {
    lr_mult: 2
    decay_mult: 0
  }
  convolution_param {
    num_output: 32
    bias_term: true
    pad: 1
    kernel_size: 3
    group: 32
    stride: 1
    weight_filler {
      type: "msra"
    }
    bias_filler {
      type: "constant"
      value: 0
    }
    engine: CAFFE
    fp16_accumulation: true
  }
  quantize_param {
    precision: 8
    channel_shared: false
  }
}
layer {
  name: "conv2_0/3x3_dwconv/relu"
  type: "ReLU"
  bottom: "conv2_0/3x3_dwconv/bn"
  top: "conv2_0/3x3_dwconv/bn"
}
layer {
  name: "conv2_0/3x3_dwconv/bn_fixed_point"
  type: "Quantize"
  bottom: "conv2_0/3x3_dwconv/bn"
  top: "conv2_0/3x3_dwconv/bn"
  param {
    lr_mult: 0
    decay_mult: 0
  }
  quantize_param {
    precision: 8
    frozen: true
    positive: true
    tolerance: 1.5
  }
}
layer {
  name: "conv2_0/1x1_decrease"
  type: "Convolution"
  bottom: "conv2_0/3x3_dwconv/bn"
  top: "conv2_0/1x1_decrease/bn"
  param {
    lr_mult: 1
    decay_mult: 1
  }
  param {
    lr_mult: 2
    decay_mult: 0
  }
  convolution_param {
    num_output: 16
    bias_term: true
    kernel_size: 1
    stride: 1
    weight_filler {
      type: "msra"
    }
    bias_filler {
      type: "constant"
      value: 0
    }
    engine: CAFFE
    fp16_accumulation: true
  }
  quantize_param {
    precision: 8
    channel_shared: false
  }
}
layer {
  name: "conv2_0/1x1_decrease/bn_fixed_point"
  type: "Quantize"
  bottom: "conv2_0/1x1_decrease/bn"
  top: "conv2_0/1x1_decrease/bn"
  param {
    lr_mult: 0
    decay_mult: 0
  }
  quantize_param {
    precision: 8
    frozen: true
    positive: false
    tolerance: 1.5
  }
}
layer {
  name: "conv3_0/1x1_increase"
  type: "Convolution"
  bottom: "conv2_0/1x1_decrease/bn"
  top: "conv3_0/1x1_increase/bn"
  param {
    lr_mult: 1
    decay_mult: 1
  }
  param {
    lr_mult: 2
    decay_mult: 0
  }
  convolution_param {
    num_output: 48
    bias_term: true
    kernel_size: 1
    stride: 1
    weight_filler {
      type: "msra"
    }
    bias_filler {
      type: "constant"
      value: 0
    }
    engine: CAFFE
    fp16_accumulation: true
  }
  quantize_param {
    precision: 8
    channel_shared: false
  }
}
layer {
  name: "conv3_0/1x1_increase/relu"
  type: "ReLU"
  bottom: "conv3_0/1x1_increase/bn"
  top: "conv3_0/1x1_increase/bn"
}
layer {
  name: "conv3_0/1x1_increase/bn_fixed_point"
  type: "Quantize"
  bottom: "conv3_0/1x1_increase/bn"
  top: "conv3_0/1x1_increase/bn"
  param {
    lr_mult: 0
    decay_mult: 0
  }
  quantize_param {
    precision: 8
    frozen: true
    positive: true
    tolerance: 1.5
  }
}
layer {
  name: "conv3_0/3x3_dwconv"
  type: "Convolution"
  bottom: "conv3_0/1x1_increase/bn"
  top: "conv3_0/3x3_dwconv/bn"
  param {
    lr_mult: 1
    decay_mult: 1
  }
  param {
    lr_mult: 2
    decay_mult: 0
  }
  convolution_param {
    num_output: 48
    bias_term: true
    pad: 2
    kernel_size: 5
    group: 48
    stride: 2
    weight_filler {
      type: "msra"
    }
    bias_filler {
      type: "constant"
      value: 0
    }
    engine: CAFFE
    fp16_accumulation: true
  }
  quantize_param {
    precision: 8
    channel_shared: false
  }
}
layer {
  name: "conv3_0/3x3_dwconv/relu"
  type: "ReLU"
  bottom: "conv3_0/3x3_dwconv/bn"
  top: "conv3_0/3x3_dwconv/bn"
}
layer {
  name: "conv3_0/3x3_dwconv/bn_fixed_point"
  type: "Quantize"
  bottom: "conv3_0/3x3_dwconv/bn"
  top: "conv3_0/3x3_dwconv/bn"
  param {
    lr_mult: 0
    decay_mult: 0
  }
  quantize_param {
    precision: 8
    frozen: true
    positive: true
    tolerance: 1.5
  }
}
layer {
  name: "conv3_0/1x1_decrease"
  type: "Convolution"
  bottom: "conv3_0/3x3_dwconv/bn"
  top: "conv3_0/1x1_decrease/bn"
  param {
    lr_mult: 1
    decay_mult: 1
  }
  param {
    lr_mult: 2
    decay_mult: 0
  }
  convolution_param {
    num_output: 32
    bias_term: true
    kernel_size: 1
    stride: 1
    weight_filler {
      type: "msra"
    }
    bias_filler {
      type: "constant"
      value: 0
    }
    engine: CAFFE
    fp16_accumulation: true
  }
  quantize_param {
    precision: 8
    channel_shared: false
  }
}
layer {
  name: "conv3_0/1x1_decrease/bn_fixed_point"
  type: "Quantize"
  bottom: "conv3_0/1x1_decrease/bn"
  top: "conv3_0/1x1_decrease/bn"
  param {
    lr_mult: 0
    decay_mult: 0
  }
  quantize_param {
    precision: 8
    frozen: true
    positive: false
    tolerance: 1.5
  }
}
layer {
  name: "conv3_1/1x1_increase"
  type: "Convolution"
  bottom: "conv3_0/1x1_decrease/bn"
  top: "conv3_1/1x1_increase/bn"
  param {
    lr_mult: 1
    decay_mult: 1
  }
  param {
    lr_mult: 2
    decay_mult: 0
  }
  convolution_param {
    num_output: 96
    bias_term: true
    kernel_size: 1
    stride: 1
    weight_filler {
      type: "msra"
    }
    bias_filler {
      type: "constant"
      value: 0
    }
    engine: CAFFE
    fp16_accumulation: true
  }
  quantize_param {
    precision: 8
    channel_shared: false
  }
}
layer {
  name: "conv3_1/1x1_increase/relu"
  type: "ReLU"
  bottom: "conv3_1/1x1_increase/bn"
  top: "conv3_1/1x1_increase/bn"
}
layer {
  name: "conv3_1/1x1_increase/bn_fixed_point"
  type: "Quantize"
  bottom: "conv3_1/1x1_increase/bn"
  top: "conv3_1/1x1_increase/bn"
  param {
    lr_mult: 0
    decay_mult: 0
  }
  quantize_param {
    precision: 8
    frozen: true
    positive: true
    tolerance: 1.5
  }
}
layer {
  name: "conv3_1/3x3_dwconv"
  type: "Convolution"
  bottom: "conv3_1/1x1_increase/bn"
  top: "conv3_1/3x3_dwconv/bn"
  param {
    lr_mult: 1
    decay_mult: 1
  }
  param {
    lr_mult: 2
    decay_mult: 0
  }
  convolution_param {
    num_output: 96
    bias_term: true
    pad: 1
    kernel_size: 3
    group: 96
    stride: 1
    weight_filler {
      type: "msra"
    }
    bias_filler {
      type: "constant"
      value: 0
    }
    engine: CAFFE
    fp16_accumulation: true
  }
  quantize_param {
    precision: 8
    channel_shared: false
  }
}
layer {
  name: "conv3_1/3x3_dwconv/relu"
  type: "ReLU"
  bottom: "conv3_1/3x3_dwconv/bn"
  top: "conv3_1/3x3_dwconv/bn"
}
layer {
  name: "conv3_1/3x3_dwconv/bn_fixed_point"
  type: "Quantize"
  bottom: "conv3_1/3x3_dwconv/bn"
  top: "conv3_1/3x3_dwconv/bn"
  param {
    lr_mult: 0
    decay_mult: 0
  }
  quantize_param {
    precision: 8
    frozen: true
    positive: true
    tolerance: 1.5
  }
}
layer {
  name: "conv3_1/1x1_decrease"
  type: "Convolution"
  bottom: "conv3_1/3x3_dwconv/bn"
  top: "conv3_1/1x1_decrease/bn"
  param {
    lr_mult: 1
    decay_mult: 1
  }
  param {
    lr_mult: 2
    decay_mult: 0
  }
  convolution_param {
    num_output: 32
    bias_term: true
    kernel_size: 1
    stride: 1
    weight_filler {
      type: "msra"
    }
    bias_filler {
      type: "constant"
      value: 0
    }
    engine: CAFFE
    fp16_accumulation: true
  }
  quantize_param {
    precision: 8
    channel_shared: false
  }
}
layer {
  name: "conv3_1/elt_sum"
  type: "Eltwise"
  bottom: "conv3_0/1x1_decrease/bn"
  bottom: "conv3_1/1x1_decrease/bn"
  top: "conv3_1/elt_sum"
  eltwise_param {
    operation: SUM
  }
}
layer {
  name: "conv3_1/elt_sum_fixed_point"
  type: "Quantize"
  bottom: "conv3_1/elt_sum"
  top: "conv3_1/elt_sum"
  param {
    lr_mult: 0
    decay_mult: 0
  }
  quantize_param {
    precision: 8
    frozen: true
    positive: false
    tolerance: 1.5
  }
}
layer {
  name: "conv4_0/1x1_increase"
  type: "Convolution"
  bottom: "conv3_1/elt_sum"
  top: "conv4_0/1x1_increase/bn"
  param {
    lr_mult: 1
    decay_mult: 1
  }
  param {
    lr_mult: 2
    decay_mult: 0
  }
  convolution_param {
    num_output: 96
    bias_term: true
    kernel_size: 1
    stride: 1
    weight_filler {
      type: "msra"
    }
    bias_filler {
      type: "constant"
      value: 0
    }
    engine: CAFFE
    fp16_accumulation: true
  }
  quantize_param {
    precision: 8
    channel_shared: false
  }
}
layer {
  name: "conv4_0/1x1_increase/hardswish"
  type: "HardSwish"
  bottom: "conv4_0/1x1_increase/bn"
  top: "conv4_0/1x1_increase/bn"
}
layer {
  name: "conv4_0/1x1_increase/bn_fixed_point"
  type: "Quantize"
  bottom: "conv4_0/1x1_increase/bn"
  top: "conv4_0/1x1_increase/bn"
  param {
    lr_mult: 0
    decay_mult: 0
  }
  quantize_param {
    precision: 8
    frozen: true
    positive: false
    tolerance: 1.5
  }
}
layer {
  name: "conv4_0/1x1_increase/slice"
  type: "Slice"
  bottom: "conv4_0/1x1_increase/bn"
  top: "conv4_0/1x1_increase/split1"
  top: "conv4_0/1x1_increase/split2"
  top: "conv4_0/1x1_increase/split3"
  slice_param {
    slice_point: 32
    slice_point: 64
  }
}
layer {
  name: "conv4_0/3x3_dwconv/slice_0"
  type: "Convolution"
  bottom: "conv4_0/1x1_increase/split1"
  top: "conv4_0/3x3_dwconv/slice_0/bn"
  param {
    lr_mult: 1
    decay_mult: 1
  }
  param {
    lr_mult: 2
    decay_mult: 0
  }
  convolution_param {
    num_output: 32
    bias_term: true
    pad: 1
    kernel_size: 3
    group: 32
    stride: 2
    weight_filler {
      type: "msra"
    }
    bias_filler {
      type: "constant"
      value: 0
    }
    engine: CAFFE
    fp16_accumulation: true
  }
  quantize_param {
    precision: 8
    channel_shared: false
  }
}
layer {
  name: "conv4_0/3x3_dwconv/slice_0/hardswish"
  type: "HardSwish"
  bottom: "conv4_0/3x3_dwconv/slice_0/bn"
  top: "conv4_0/3x3_dwconv/slice_0/bn"
}
layer {
  name: "conv4_0/3x3_dwconv/slice_1"
  type: "Convolution"
  bottom: "conv4_0/1x1_increase/split2"
  top: "conv4_0/3x3_dwconv/slice_1/bn"
  param {
    lr_mult: 1
    decay_mult: 1
  }
  param {
    lr_mult: 2
    decay_mult: 0
  }
  convolution_param {
    num_output: 32
    bias_term: true
    pad: 2
    kernel_size: 5
    group: 32
    stride: 2
    weight_filler {
      type: "msra"
    }
    bias_filler {
      type: "constant"
      value: 0
    }
    engine: CAFFE
    fp16_accumulation: true
  }
  quantize_param {
    precision: 8
    channel_shared: false
  }
}
layer {
  name: "conv4_0/3x3_dwconv/slice_1/hardswish"
  type: "HardSwish"
  bottom: "conv4_0/3x3_dwconv/slice_1/bn"
  top: "conv4_0/3x3_dwconv/slice_1/bn"
}
layer {
  name: "conv4_0/3x3_dwconv/slice_2"
  type: "Convolution"
  bottom: "conv4_0/1x1_increase/split3"
  top: "conv4_0/3x3_dwconv/slice_2/bn"
  param {
    lr_mult: 1
    decay_mult: 1
  }
  param {
    lr_mult: 2
    decay_mult: 0
  }
  convolution_param {
    num_output: 32
    bias_term: true
    pad: 3
    kernel_size: 7
    group: 32
    stride: 2
    weight_filler {
      type: "msra"
    }
    bias_filler {
      type: "constant"
      value: 0
    }
    engine: CAFFE
    fp16_accumulation: true
  }
  quantize_param {
    precision: 8
    channel_shared: false
  }
}
layer {
  name: "conv4_0/3x3_dwconv/slice_2/hardswish"
  type: "HardSwish"
  bottom: "conv4_0/3x3_dwconv/slice_2/bn"
  top: "conv4_0/3x3_dwconv/slice_2/bn"
}
layer {
  name: "conv4_0/3x3_dwconv/concat"
  type: "Concat"
  bottom: "conv4_0/3x3_dwconv/slice_0/bn"
  bottom: "conv4_0/3x3_dwconv/slice_1/bn"
  bottom: "conv4_0/3x3_dwconv/slice_2/bn"
  top: "conv4_0/3x3_dwconv/concat"
}
layer {
  name: "conv4_0/3x3_dwconv/concat_fixed_point"
  type: "Quantize"
  bottom: "conv4_0/3x3_dwconv/concat"
  top: "conv4_0/3x3_dwconv/concat"
  param {
    lr_mult: 0
    decay_mult: 0
  }
  quantize_param {
    precision: 8
    frozen: true
    positive: false
    tolerance: 1.5
  }
}
layer {
  name: "conv4_0/3x3_dwconv/SE_global_pool"
  type: "Pooling"
  bottom: "conv4_0/3x3_dwconv/concat"
  top: "conv4_0/3x3_dwconv/SE_global_pool"
  pooling_param {
    pool: AVE
    engine: CAFFE
    global_pooling: true
  }
}
layer {
  name: "conv4_0/3x3_dwconv/SE_bn"
  type: "Scale"
  bottom: "conv4_0/3x3_dwconv/SE_global_pool"
  top: "conv4_0/3x3_dwconv/SE_bn"
  param {
    lr_mult: 1
    decay_mult: 0
  }
  param {
    lr_mult: 2
    decay_mult: 0
  }
  scale_param {
    axis: 1
    num_axes: 1
    bias_term: true
  }
}
layer {
  name: "conv4_0/3x3_dwconv/SE_fc1"
  type: "Convolution"
  bottom: "conv4_0/3x3_dwconv/SE_bn"
  top: "conv4_0/3x3_dwconv/SE_fc1"
  param {
    lr_mult: 1
    decay_mult: 1
  }
  convolution_param {
    num_output: 6
    bias_term: false
    kernel_size: 1
    stride: 1
    weight_filler {
      type: "gaussian"
      std: 0.01
    }
    engine: CAFFE
    fp16_accumulation: true
  }
  quantize_param {
    precision: 8
    channel_shared: false
  }
}
layer {
  name: "conv4_0/3x3_dwconv/SE_fc1/relu"
  type: "ReLU"
  bottom: "conv4_0/3x3_dwconv/SE_fc1"
  top: "conv4_0/3x3_dwconv/SE_fc1"
}
layer {
  name: "conv4_0/3x3_dwconv/SE_fc2"
  type: "Convolution"
  bottom: "conv4_0/3x3_dwconv/SE_fc1"
  top: "conv4_0/3x3_dwconv/SE_fc2"
  param {
    lr_mult: 1
    decay_mult: 1
  }
  convolution_param {
    num_output: 96
    bias_term: false
    kernel_size: 1
    stride: 1
    weight_filler {
      type: "gaussian"
      std: 0.01
    }
    engine: CAFFE
    fp16_accumulation: true
  }
  quantize_param {
    precision: 8
    channel_shared: false
  }
}
layer {
  name: "conv4_0/3x3_dwconv/SE_weights"
  type: "Sigmoid"
  bottom: "conv4_0/3x3_dwconv/SE_fc2"
  top: "conv4_0/3x3_dwconv/SE_fc2"
}
layer {
  name: "conv4_0/3x3_dwconv/SE_weights/reshape"
  type: "Reshape"
  bottom: "conv4_0/3x3_dwconv/SE_fc2"
  top: "conv4_0/3x3_dwconv/SE_weights/reshape"
  reshape_param {
    shape {
      dim: 0
      dim: 0
    }
  }
}
layer {
  name: "conv4_0/3x3_dwconv/scale"
  type: "Scale"
  bottom: "conv4_0/3x3_dwconv/concat"
  bottom: "conv4_0/3x3_dwconv/SE_weights/reshape"
  top: "conv4_0/3x3_dwconv/scale"
  scale_param {
    axis: 0
    bias_term: false
  }
}
layer {
  name: "conv4_0/3x3_dwconv/scale_fixed_point"
  type: "Quantize"
  bottom: "conv4_0/3x3_dwconv/scale"
  top: "conv4_0/3x3_dwconv/scale"
  param {
    lr_mult: 0
    decay_mult: 0
  }
  quantize_param {
    precision: 8
    frozen: true
    positive: false
    tolerance: 1.5
  }
}
layer {
  name: "conv4_0/1x1_decrease"
  type: "Convolution"
  bottom: "conv4_0/3x3_dwconv/scale"
  top: "conv4_0/1x1_decrease/bn"
  param {
    lr_mult: 1
    decay_mult: 1
  }
  param {
    lr_mult: 2
    decay_mult: 0
  }
  convolution_param {
    num_output: 40
    bias_term: true
    kernel_size: 1
    stride: 1
    weight_filler {
      type: "msra"
    }
    bias_filler {
      type: "constant"
      value: 0
    }
    engine: CAFFE
    fp16_accumulation: true
  }
  quantize_param {
    precision: 8
    channel_shared: false
  }
}
layer {
  name: "conv4_0/1x1_decrease/bn_fixed_point"
  type: "Quantize"
  bottom: "conv4_0/1x1_decrease/bn"
  top: "conv4_0/1x1_decrease/bn"
  param {
    lr_mult: 0
    decay_mult: 0
  }
  quantize_param {
    precision: 8
    frozen: true
    positive: false
    tolerance: 1.5
  }
}
layer {
  name: "conv4_1/1x1_increase"
  type: "Convolution"
  bottom: "conv4_0/1x1_decrease/bn"
  top: "conv4_1/1x1_increase/bn"
  param {
    lr_mult: 1
    decay_mult: 1
  }
  param {
    lr_mult: 2
    decay_mult: 0
  }
  convolution_param {
    num_output: 120
    bias_term: true
    kernel_size: 1
    stride: 1
    weight_filler {
      type: "msra"
    }
    bias_filler {
      type: "constant"
      value: 0
    }
    engine: CAFFE
    fp16_accumulation: true
  }
  quantize_param {
    precision: 8
    channel_shared: false
  }
}
layer {
  name: "conv4_1/1x1_increase/hardswish"
  type: "HardSwish"
  bottom: "conv4_1/1x1_increase/bn"
  top: "conv4_1/1x1_increase/bn"
}
layer {
  name: "conv4_1/1x1_increase/bn_fixed_point"
  type: "Quantize"
  bottom: "conv4_1/1x1_increase/bn"
  top: "conv4_1/1x1_increase/bn"
  param {
    lr_mult: 0
    decay_mult: 0
  }
  quantize_param {
    precision: 8
    frozen: true
    positive: false
    tolerance: 1.5
  }
}
layer {
  name: "conv4_1/1x1_increase/slice"
  type: "Slice"
  bottom: "conv4_1/1x1_increase/bn"
  top: "conv4_1/1x1_increase/split1"
  top: "conv4_1/1x1_increase/split2"
  slice_param {
    slice_point: 60
  }
}
layer {
  name: "conv4_1/3x3_dwconv/slice_0"
  type: "Convolution"
  bottom: "conv4_1/1x1_increase/split1"
  top: "conv4_1/3x3_dwconv/slice_0/bn"
  param {
    lr_mult: 1
    decay_mult: 1
  }
  param {
    lr_mult: 2
    decay_mult: 0
  }
  convolution_param {
    num_output: 60
    bias_term: true
    pad: 1
    kernel_size: 3
    group: 60
    stride: 1
    weight_filler {
      type: "msra"
    }
    bias_filler {
      type: "constant"
      value: 0
    }
    engine: CAFFE
    fp16_accumulation: true
  }
  quantize_param {
    precision: 8
    channel_shared: false
  }
}
layer {
  name: "conv4_1/3x3_dwconv/slice_0/hardswish"
  type: "HardSwish"
  bottom: "conv4_1/3x3_dwconv/slice_0/bn"
  top: "conv4_1/3x3_dwconv/slice_0/bn"
}
layer {
  name: "conv4_1/3x3_dwconv/slice_1"
  type: "Convolution"
  bottom: "conv4_1/1x1_increase/split2"
  top: "conv4_1/3x3_dwconv/slice_1/bn"
  param {
    lr_mult: 1
    decay_mult: 1
  }
  param {
    lr_mult: 2
    decay_mult: 0
  }
  convolution_param {
    num_output: 60
    bias_term: true
    pad: 2
    kernel_size: 5
    group: 60
    stride: 1
    weight_filler {
      type: "msra"
    }
    bias_filler {
      type: "constant"
      value: 0
    }
    engine: CAFFE
    fp16_accumulation: true
  }
  quantize_param {
    precision: 8
    channel_shared: false
  }
}
layer {
  name: "conv4_1/3x3_dwconv/slice_1/hardswish"
  type: "HardSwish"
  bottom: "conv4_1/3x3_dwconv/slice_1/bn"
  top: "conv4_1/3x3_dwconv/slice_1/bn"
}
layer {
  name: "conv4_1/3x3_dwconv/concat"
  type: "Concat"
  bottom: "conv4_1/3x3_dwconv/slice_0/bn"
  bottom: "conv4_1/3x3_dwconv/slice_1/bn"
  top: "conv4_1/3x3_dwconv/concat"
}
layer {
  name: "conv4_1/3x3_dwconv/concat_fixed_point"
  type: "Quantize"
  bottom: "conv4_1/3x3_dwconv/concat"
  top: "conv4_1/3x3_dwconv/concat"
  param {
    lr_mult: 0
    decay_mult: 0
  }
  quantize_param {
    precision: 8
    frozen: true
    positive: false
    tolerance: 1.5
  }
}
layer {
  name: "conv4_1/3x3_dwconv/SE_global_pool"
  type: "Pooling"
  bottom: "conv4_1/3x3_dwconv/concat"
  top: "conv4_1/3x3_dwconv/SE_global_pool"
  pooling_param {
    pool: AVE
    engine: CAFFE
    global_pooling: true
  }
}
layer {
  name: "conv4_1/3x3_dwconv/SE_bn"
  type: "Scale"
  bottom: "conv4_1/3x3_dwconv/SE_global_pool"
  top: "conv4_1/3x3_dwconv/SE_bn"
  param {
    lr_mult: 1
    decay_mult: 0
  }
  param {
    lr_mult: 2
    decay_mult: 0
  }
  scale_param {
    axis: 1
    num_axes: 1
    bias_term: true
  }
}
layer {
  name: "conv4_1/3x3_dwconv/SE_fc1"
  type: "Convolution"
  bottom: "conv4_1/3x3_dwconv/SE_bn"
  top: "conv4_1/3x3_dwconv/SE_fc1"
  param {
    lr_mult: 1
    decay_mult: 1
  }
  convolution_param {
    num_output: 7
    bias_term: false
    kernel_size: 1
    stride: 1
    weight_filler {
      type: "gaussian"
      std: 0.01
    }
    engine: CAFFE
    fp16_accumulation: true
  }
  quantize_param {
    precision: 8
    channel_shared: false
  }
}
layer {
  name: "conv4_1/3x3_dwconv/SE_fc1/relu"
  type: "ReLU"
  bottom: "conv4_1/3x3_dwconv/SE_fc1"
  top: "conv4_1/3x3_dwconv/SE_fc1"
}
layer {
  name: "conv4_1/3x3_dwconv/SE_fc2"
  type: "Convolution"
  bottom: "conv4_1/3x3_dwconv/SE_fc1"
  top: "conv4_1/3x3_dwconv/SE_fc2"
  param {
    lr_mult: 1
    decay_mult: 1
  }
  convolution_param {
    num_output: 120
    bias_term: false
    kernel_size: 1
    stride: 1
    weight_filler {
      type: "gaussian"
      std: 0.01
    }
    engine: CAFFE
    fp16_accumulation: true
  }
  quantize_param {
    precision: 8
    channel_shared: false
  }
}
layer {
  name: "conv4_1/3x3_dwconv/SE_weights"
  type: "Sigmoid"
  bottom: "conv4_1/3x3_dwconv/SE_fc2"
  top: "conv4_1/3x3_dwconv/SE_fc2"
}
layer {
  name: "conv4_1/3x3_dwconv/SE_weights/reshape"
  type: "Reshape"
  bottom: "conv4_1/3x3_dwconv/SE_fc2"
  top: "conv4_1/3x3_dwconv/SE_weights/reshape"
  reshape_param {
    shape {
      dim: 0
      dim: 0
    }
  }
}
layer {
  name: "conv4_1/3x3_dwconv/scale"
  type: "Scale"
  bottom: "conv4_1/3x3_dwconv/concat"
  bottom: "conv4_1/3x3_dwconv/SE_weights/reshape"
  top: "conv4_1/3x3_dwconv/scale"
  scale_param {
    axis: 0
    bias_term: false
  }
}
layer {
  name: "conv4_1/3x3_dwconv/scale_fixed_point"
  type: "Quantize"
  bottom: "conv4_1/3x3_dwconv/scale"
  top: "conv4_1/3x3_dwconv/scale"
  param {
    lr_mult: 0
    decay_mult: 0
  }
  quantize_param {
    precision: 8
    frozen: true
    positive: false
    tolerance: 1.5
  }
}
layer {
  name: "conv4_1/1x1_decrease"
  type: "Convolution"
  bottom: "conv4_1/3x3_dwconv/scale"
  top: "conv4_1/1x1_decrease/bn"
  param {
    lr_mult: 1
    decay_mult: 1
  }
  param {
    lr_mult: 2
    decay_mult: 0
  }
  convolution_param {
    num_output: 40
    bias_term: true
    kernel_size: 1
    stride: 1
    weight_filler {
      type: "msra"
    }
    bias_filler {
      type: "constant"
      value: 0
    }
    engine: CAFFE
    fp16_accumulation: true
  }
  quantize_param {
    precision: 8
    channel_shared: false
  }
}
layer {
  name: "conv4_1/elt_sum"
  type: "Eltwise"
  bottom: "conv4_0/1x1_decrease/bn"
  bottom: "conv4_1/1x1_decrease/bn"
  top: "conv4_1/elt_sum"
  eltwise_param {
    operation: SUM
  }
}
layer {
  name: "conv4_1/elt_sum_fixed_point"
  type: "Quantize"
  bottom: "conv4_1/elt_sum"
  top: "conv4_1/elt_sum"
  param {
    lr_mult: 0
    decay_mult: 0
  }
  quantize_param {
    precision: 8
    frozen: true
    positive: false
    tolerance: 1.5
  }
}
layer {
  name: "conv4_2/1x1_increase"
  type: "Convolution"
  bottom: "conv4_1/elt_sum"
  top: "conv4_2/1x1_increase/bn"
  param {
    lr_mult: 1
    decay_mult: 1
  }
  param {
    lr_mult: 2
    decay_mult: 0
  }
  convolution_param {
    num_output: 120
    bias_term: true
    kernel_size: 1
    stride: 1
    weight_filler {
      type: "msra"
    }
    bias_filler {
      type: "constant"
      value: 0
    }
    engine: CAFFE
    fp16_accumulation: true
  }
  quantize_param {
    precision: 8
    channel_shared: false
  }
}
layer {
  name: "conv4_2/1x1_increase/hardswish"
  type: "HardSwish"
  bottom: "conv4_2/1x1_increase/bn"
  top: "conv4_2/1x1_increase/bn"
}
layer {
  name: "conv4_2/1x1_increase/bn_fixed_point"
  type: "Quantize"
  bottom: "conv4_2/1x1_increase/bn"
  top: "conv4_2/1x1_increase/bn"
  param {
    lr_mult: 0
    decay_mult: 0
  }
  quantize_param {
    precision: 8
    frozen: true
    positive: false
    tolerance: 1.5
  }
}
layer {
  name: "conv4_2/1x1_increase/slice"
  type: "Slice"
  bottom: "conv4_2/1x1_increase/bn"
  top: "conv4_2/1x1_increase/split1"
  top: "conv4_2/1x1_increase/split2"
  slice_param {
    slice_point: 60
  }
}
layer {
  name: "conv4_2/3x3_dwconv/slice_0"
  type: "Convolution"
  bottom: "conv4_2/1x1_increase/split1"
  top: "conv4_2/3x3_dwconv/slice_0/bn"
  param {
    lr_mult: 1
    decay_mult: 1
  }
  param {
    lr_mult: 2
    decay_mult: 0
  }
  convolution_param {
    num_output: 60
    bias_term: true
    pad: 1
    kernel_size: 3
    group: 60
    stride: 1
    weight_filler {
      type: "msra"
    }
    bias_filler {
      type: "constant"
      value: 0
    }
    engine: CAFFE
    fp16_accumulation: true
  }
  quantize_param {
    precision: 8
    channel_shared: false
  }
}
layer {
  name: "conv4_2/3x3_dwconv/slice_0/hardswish"
  type: "HardSwish"
  bottom: "conv4_2/3x3_dwconv/slice_0/bn"
  top: "conv4_2/3x3_dwconv/slice_0/bn"
}
layer {
  name: "conv4_2/3x3_dwconv/slice_1"
  type: "Convolution"
  bottom: "conv4_2/1x1_increase/split2"
  top: "conv4_2/3x3_dwconv/slice_1/bn"
  param {
    lr_mult: 1
    decay_mult: 1
  }
  param {
    lr_mult: 2
    decay_mult: 0
  }
  convolution_param {
    num_output: 60
    bias_term: true
    pad: 2
    kernel_size: 5
    group: 60
    stride: 1
    weight_filler {
      type: "msra"
    }
    bias_filler {
      type: "constant"
      value: 0
    }
    engine: CAFFE
    fp16_accumulation: true
  }
  quantize_param {
    precision: 8
    channel_shared: false
  }
}
layer {
  name: "conv4_2/3x3_dwconv/slice_1/hardswish"
  type: "HardSwish"
  bottom: "conv4_2/3x3_dwconv/slice_1/bn"
  top: "conv4_2/3x3_dwconv/slice_1/bn"
}
layer {
  name: "conv4_2/3x3_dwconv/concat"
  type: "Concat"
  bottom: "conv4_2/3x3_dwconv/slice_0/bn"
  bottom: "conv4_2/3x3_dwconv/slice_1/bn"
  top: "conv4_2/3x3_dwconv/concat"
}
layer {
  name: "conv4_2/3x3_dwconv/concat_fixed_point"
  type: "Quantize"
  bottom: "conv4_2/3x3_dwconv/concat"
  top: "conv4_2/3x3_dwconv/concat"
  param {
    lr_mult: 0
    decay_mult: 0
  }
  quantize_param {
    precision: 8
    frozen: true
    positive: false
    tolerance: 1.5
  }
}
layer {
  name: "conv4_2/3x3_dwconv/SE_global_pool"
  type: "Pooling"
  bottom: "conv4_2/3x3_dwconv/concat"
  top: "conv4_2/3x3_dwconv/SE_global_pool"
  pooling_param {
    pool: AVE
    engine: CAFFE
    global_pooling: true
  }
}
layer {
  name: "conv4_2/3x3_dwconv/SE_bn"
  type: "Scale"
  bottom: "conv4_2/3x3_dwconv/SE_global_pool"
  top: "conv4_2/3x3_dwconv/SE_bn"
  param {
    lr_mult: 1
    decay_mult: 0
  }
  param {
    lr_mult: 2
    decay_mult: 0
  }
  scale_param {
    axis: 1
    num_axes: 1
    bias_term: true
  }
}
layer {
  name: "conv4_2/3x3_dwconv/SE_fc1"
  type: "Convolution"
  bottom: "conv4_2/3x3_dwconv/SE_bn"
  top: "conv4_2/3x3_dwconv/SE_fc1"
  param {
    lr_mult: 1
    decay_mult: 1
  }
  convolution_param {
    num_output: 7
    bias_term: false
    kernel_size: 1
    stride: 1
    weight_filler {
      type: "gaussian"
      std: 0.01
    }
    engine: CAFFE
    fp16_accumulation: true
  }
  quantize_param {
    precision: 8
    channel_shared: false
  }
}
layer {
  name: "conv4_2/3x3_dwconv/SE_fc1/relu"
  type: "ReLU"
  bottom: "conv4_2/3x3_dwconv/SE_fc1"
  top: "conv4_2/3x3_dwconv/SE_fc1"
}
layer {
  name: "conv4_2/3x3_dwconv/SE_fc2"
  type: "Convolution"
  bottom: "conv4_2/3x3_dwconv/SE_fc1"
  top: "conv4_2/3x3_dwconv/SE_fc2"
  param {
    lr_mult: 1
    decay_mult: 1
  }
  convolution_param {
    num_output: 120
    bias_term: false
    kernel_size: 1
    stride: 1
    weight_filler {
      type: "gaussian"
      std: 0.01
    }
    engine: CAFFE
    fp16_accumulation: true
  }
  quantize_param {
    precision: 8
    channel_shared: false
  }
}
layer {
  name: "conv4_2/3x3_dwconv/SE_weights"
  type: "Sigmoid"
  bottom: "conv4_2/3x3_dwconv/SE_fc2"
  top: "conv4_2/3x3_dwconv/SE_fc2"
}
layer {
  name: "conv4_2/3x3_dwconv/SE_weights/reshape"
  type: "Reshape"
  bottom: "conv4_2/3x3_dwconv/SE_fc2"
  top: "conv4_2/3x3_dwconv/SE_weights/reshape"
  reshape_param {
    shape {
      dim: 0
      dim: 0
    }
  }
}
layer {
  name: "conv4_2/3x3_dwconv/scale"
  type: "Scale"
  bottom: "conv4_2/3x3_dwconv/concat"
  bottom: "conv4_2/3x3_dwconv/SE_weights/reshape"
  top: "conv4_2/3x3_dwconv/scale"
  scale_param {
    axis: 0
    bias_term: false
  }
}
layer {
  name: "conv4_2/3x3_dwconv/scale_fixed_point"
  type: "Quantize"
  bottom: "conv4_2/3x3_dwconv/scale"
  top: "conv4_2/3x3_dwconv/scale"
  param {
    lr_mult: 0
    decay_mult: 0
  }
  quantize_param {
    precision: 8
    frozen: true
    positive: false
    tolerance: 1.5
  }
}
layer {
  name: "conv4_2/1x1_decrease"
  type: "Convolution"
  bottom: "conv4_2/3x3_dwconv/scale"
  top: "conv4_2/1x1_decrease/bn"
  param {
    lr_mult: 1
    decay_mult: 1
  }
  param {
    lr_mult: 2
    decay_mult: 0
  }
  convolution_param {
    num_output: 40
    bias_term: true
    kernel_size: 1
    stride: 1
    weight_filler {
      type: "msra"
    }
    bias_filler {
      type: "constant"
      value: 0
    }
    engine: CAFFE
    fp16_accumulation: true
  }
  quantize_param {
    precision: 8
    channel_shared: false
  }
}
layer {
  name: "conv4_2/elt_sum"
  type: "Eltwise"
  bottom: "conv4_1/elt_sum"
  bottom: "conv4_2/1x1_decrease/bn"
  top: "conv4_2/elt_sum"
  eltwise_param {
    operation: SUM
  }
}
layer {
  name: "conv4_2/elt_sum_fixed_point"
  type: "Quantize"
  bottom: "conv4_2/elt_sum"
  top: "conv4_2/elt_sum"
  param {
    lr_mult: 0
    decay_mult: 0
  }
  quantize_param {
    precision: 8
    frozen: true
    positive: false
    tolerance: 1.5
  }
}
layer {
  name: "conv4_3/1x1_increase"
  type: "Convolution"
  bottom: "conv4_2/elt_sum"
  top: "conv4_3/1x1_increase/bn"
  param {
    lr_mult: 1
    decay_mult: 1
  }
  param {
    lr_mult: 2
    decay_mult: 0
  }
  convolution_param {
    num_output: 120
    bias_term: true
    kernel_size: 1
    stride: 1
    weight_filler {
      type: "msra"
    }
    bias_filler
I0917 10:21:14.664767 32258 layer_factory.hpp:77] Creating layer data
I0917 10:21:14.664829 32258 net.cpp:86] Creating Layer data
I0917 10:21:14.664841 32258 net.cpp:382] data -> data
I0917 10:21:14.664877 32258 net.cpp:382] data -> label
I0917 10:21:14.664897 32258 image_data_layer.cpp:43] Opening file file_lists/val.txt
I0917 10:21:14.678472 32258 image_data_layer.cpp:68] A total of 50000 images.
I0917 10:21:14.714406 32258 image_data_layer.cpp:95] output data size: 25,3,224,224
I0917 10:21:14.767663 32258 net.cpp:124] Setting up data
I0917 10:21:14.767750 32258 net.cpp:131] Top shape: 25 3 224 224 (3763200)
I0917 10:21:14.767765 32258 net.cpp:131] Top shape: 25 (25)
I0917 10:21:14.767772 32258 net.cpp:139] Memory required for data: 15052900
I0917 10:21:14.767784 32258 layer_factory.hpp:77] Creating layer label_data_1_split
I0917 10:21:14.767825 32258 net.cpp:86] Creating Layer label_data_1_split
I0917 10:21:14.767837 32258 net.cpp:408] label_data_1_split <- label
I0917 10:21:14.767874 32258 net.cpp:382] label_data_1_split -> label_data_1_split_0
I0917 10:21:14.767895 32258 net.cpp:382] label_data_1_split -> label_data_1_split_1
I0917 10:21:14.767906 32258 net.cpp:382] label_data_1_split -> label_data_1_split_2
I0917 10:21:14.768015 32258 net.cpp:124] Setting up label_data_1_split
I0917 10:21:14.768029 32258 net.cpp:131] Top shape: 25 (25)
I0917 10:21:14.768040 32258 net.cpp:131] Top shape: 25 (25)
I0917 10:21:14.768048 32258 net.cpp:131] Top shape: 25 (25)
I0917 10:21:14.768054 32258 net.cpp:139] Memory required for data: 15053200
I0917 10:21:14.768059 32258 layer_factory.hpp:77] Creating layer data_fixed_point
I0917 10:21:14.768080 32258 net.cpp:86] Creating Layer data_fixed_point
I0917 10:21:14.768088 32258 net.cpp:408] data_fixed_point <- data
I0917 10:21:14.768100 32258 net.cpp:369] data_fixed_point -> data (in-place)
I0917 10:21:14.768154 32258 net.cpp:124] Setting up data_fixed_point
I0917 10:21:14.768167 32258 net.cpp:131] Top shape: 25 3 224 224 (3763200)
I0917 10:21:14.768173 32258 net.cpp:139] Memory required for data: 30106000
I0917 10:21:14.768201 32258 layer_factory.hpp:77] Creating layer conv1/3x3_s2
I0917 10:21:14.768239 32258 net.cpp:86] Creating Layer conv1/3x3_s2
I0917 10:21:14.768246 32258 net.cpp:408] conv1/3x3_s2 <- data
I0917 10:21:14.768260 32258 net.cpp:382] conv1/3x3_s2 -> conv1/3x3_s2/bn
I0917 10:21:14.773181 32258 net.cpp:124] Setting up conv1/3x3_s2
I0917 10:21:14.773208 32258 net.cpp:131] Top shape: 25 32 112 112 (10035200)
I0917 10:21:14.773217 32258 net.cpp:139] Memory required for data: 70246800
I0917 10:21:14.773236 32258 layer_factory.hpp:77] Creating layer conv1/3x3_s2/relu
I0917 10:21:14.773250 32258 net.cpp:86] Creating Layer conv1/3x3_s2/relu
I0917 10:21:14.773260 32258 net.cpp:408] conv1/3x3_s2/relu <- conv1/3x3_s2/bn
I0917 10:21:14.773279 32258 net.cpp:369] conv1/3x3_s2/relu -> conv1/3x3_s2/bn (in-place)
I0917 10:21:15.598220 32258 net.cpp:124] Setting up conv1/3x3_s2/relu
I0917 10:21:15.598255 32258 net.cpp:131] Top shape: 25 32 112 112 (10035200)
I0917 10:21:15.598259 32258 net.cpp:139] Memory required for data: 110387600
I0917 10:21:15.598266 32258 layer_factory.hpp:77] Creating layer conv1/3x3_s2/bn_fixed_point
I0917 10:21:15.598284 32258 net.cpp:86] Creating Layer conv1/3x3_s2/bn_fixed_point
I0917 10:21:15.598291 32258 net.cpp:408] conv1/3x3_s2/bn_fixed_point <- conv1/3x3_s2/bn
I0917 10:21:15.598299 32258 net.cpp:369] conv1/3x3_s2/bn_fixed_point -> conv1/3x3_s2/bn (in-place)
I0917 10:21:15.598336 32258 net.cpp:124] Setting up conv1/3x3_s2/bn_fixed_point
I0917 10:21:15.598345 32258 net.cpp:131] Top shape: 25 32 112 112 (10035200)
I0917 10:21:15.598347 32258 net.cpp:139] Memory required for data: 150528400
I0917 10:21:15.598369 32258 layer_factory.hpp:77] Creating layer conv2_0/3x3_dwconv
I0917 10:21:15.598385 32258 net.cpp:86] Creating Layer conv2_0/3x3_dwconv
I0917 10:21:15.598389 32258 net.cpp:408] conv2_0/3x3_dwconv <- conv1/3x3_s2/bn
I0917 10:21:15.598395 32258 net.cpp:382] conv2_0/3x3_dwconv -> conv2_0/3x3_dwconv/bn
I0917 10:21:15.599114 32258 net.cpp:124] Setting up conv2_0/3x3_dwconv
I0917 10:21:15.599161 32258 net.cpp:131] Top shape: 25 32 112 112 (10035200)
I0917 10:21:15.599165 32258 net.cpp:139] Memory required for data: 190669200
I0917 10:21:15.599175 32258 layer_factory.hpp:77] Creating layer conv2_0/3x3_dwconv/relu
I0917 10:21:15.599184 32258 net.cpp:86] Creating Layer conv2_0/3x3_dwconv/relu
I0917 10:21:15.599189 32258 net.cpp:408] conv2_0/3x3_dwconv/relu <- conv2_0/3x3_dwconv/bn
I0917 10:21:15.599192 32258 net.cpp:369] conv2_0/3x3_dwconv/relu -> conv2_0/3x3_dwconv/bn (in-place)
I0917 10:21:15.599747 32258 net.cpp:124] Setting up conv2_0/3x3_dwconv/relu
I0917 10:21:15.599757 32258 net.cpp:131] Top shape: 25 32 112 112 (10035200)
I0917 10:21:15.599761 32258 net.cpp:139] Memory required for data: 230810000
I0917 10:21:15.599762 32258 layer_factory.hpp:77] Creating layer conv2_0/3x3_dwconv/bn_fixed_point
I0917 10:21:15.599772 32258 net.cpp:86] Creating Layer conv2_0/3x3_dwconv/bn_fixed_point
I0917 10:21:15.599776 32258 net.cpp:408] conv2_0/3x3_dwconv/bn_fixed_point <- conv2_0/3x3_dwconv/bn
I0917 10:21:15.599779 32258 net.cpp:369] conv2_0/3x3_dwconv/bn_fixed_point -> conv2_0/3x3_dwconv/bn (in-place)
I0917 10:21:15.599828 32258 net.cpp:124] Setting up conv2_0/3x3_dwconv/bn_fixed_point
I0917 10:21:15.599849 32258 net.cpp:131] Top shape: 25 32 112 112 (10035200)
I0917 10:21:15.599853 32258 net.cpp:139] Memory required for data: 270950800
I0917 10:21:15.599856 32258 layer_factory.hpp:77] Creating layer conv2_0/1x1_decrease
I0917 10:21:15.599874 32258 net.cpp:86] Creating Layer conv2_0/1x1_decrease
I0917 10:21:15.599879 32258 net.cpp:408] conv2_0/1x1_decrease <- conv2_0/3x3_dwconv/bn
I0917 10:21:15.599884 32258 net.cpp:382] conv2_0/1x1_decrease -> conv2_0/1x1_decrease/bn
I0917 10:21:15.600380 32258 net.cpp:124] Setting up conv2_0/1x1_decrease
I0917 10:21:15.600391 32258 net.cpp:131] Top shape: 25 16 112 112 (5017600)
I0917 10:21:15.600410 32258 net.cpp:139] Memory required for data: 291021200
I0917 10:21:15.600417 32258 layer_factory.hpp:77] Creating layer conv2_0/1x1_decrease/bn_fixed_point
I0917 10:21:15.600426 32258 net.cpp:86] Creating Layer conv2_0/1x1_decrease/bn_fixed_point
I0917 10:21:15.600430 32258 net.cpp:408] conv2_0/1x1_decrease/bn_fixed_point <- conv2_0/1x1_decrease/bn
I0917 10:21:15.600435 32258 net.cpp:369] conv2_0/1x1_decrease/bn_fixed_point -> conv2_0/1x1_decrease/bn (in-place)
I0917 10:21:15.600469 32258 net.cpp:124] Setting up conv2_0/1x1_decrease/bn_fixed_point
I0917 10:21:15.600476 32258 net.cpp:131] Top shape: 25 16 112 112 (5017600)
I0917 10:21:15.600478 32258 net.cpp:139] Memory required for data: 311091600
I0917 10:21:15.600497 32258 layer_factory.hpp:77] Creating layer conv3_0/1x1_increase
I0917 10:21:15.600507 32258 net.cpp:86] Creating Layer conv3_0/1x1_increase
I0917 10:21:15.600510 32258 net.cpp:408] conv3_0/1x1_increase <- conv2_0/1x1_decrease/bn
I0917 10:21:15.600517 32258 net.cpp:382] conv3_0/1x1_increase -> conv3_0/1x1_increase/bn
I0917 10:21:15.601027 32258 net.cpp:124] Setting up conv3_0/1x1_increase
I0917 10:21:15.601037 32258 net.cpp:131] Top shape: 25 48 112 112 (15052800)
I0917 10:21:15.601055 32258 net.cpp:139] Memory required for data: 371302800
I0917 10:21:15.601060 32258 layer_factory.hpp:77] Creating layer conv3_0/1x1_increase/relu
I0917 10:21:15.601066 32258 net.cpp:86] Creating Layer conv3_0/1x1_increase/relu
I0917 10:21:15.601070 32258 net.cpp:408] conv3_0/1x1_increase/relu <- conv3_0/1x1_increase/bn
I0917 10:21:15.601078 32258 net.cpp:369] conv3_0/1x1_increase/relu -> conv3_0/1x1_increase/bn (in-place)
I0917 10:21:15.601784 32258 net.cpp:124] Setting up conv3_0/1x1_increase/relu
I0917 10:21:15.601796 32258 net.cpp:131] Top shape: 25 48 112 112 (15052800)
I0917 10:21:15.601799 32258 net.cpp:139] Memory required for data: 431514000
I0917 10:21:15.601802 32258 layer_factory.hpp:77] Creating layer conv3_0/1x1_increase/bn_fixed_point
I0917 10:21:15.601831 32258 net.cpp:86] Creating Layer conv3_0/1x1_increase/bn_fixed_point
I0917 10:21:15.601836 32258 net.cpp:408] conv3_0/1x1_increase/bn_fixed_point <- conv3_0/1x1_increase/bn
I0917 10:21:15.601840 32258 net.cpp:369] conv3_0/1x1_increase/bn_fixed_point -> conv3_0/1x1_increase/bn (in-place)
I0917 10:21:15.601883 32258 net.cpp:124] Setting up conv3_0/1x1_increase/bn_fixed_point
I0917 10:21:15.601891 32258 net.cpp:131] Top shape: 25 48 112 112 (15052800)
I0917 10:21:15.601908 32258 net.cpp:139] Memory required for data: 491725200
I0917 10:21:15.601914 32258 layer_factory.hpp:77] Creating layer conv3_0/3x3_dwconv
I0917 10:21:15.601924 32258 net.cpp:86] Creating Layer conv3_0/3x3_dwconv
I0917 10:21:15.601928 32258 net.cpp:408] conv3_0/3x3_dwconv <- conv3_0/1x1_increase/bn
I0917 10:21:15.601934 32258 net.cpp:382] conv3_0/3x3_dwconv -> conv3_0/3x3_dwconv/bn
I0917 10:21:15.603695 32258 net.cpp:124] Setting up conv3_0/3x3_dwconv
I0917 10:21:15.603708 32258 net.cpp:131] Top shape: 25 48 56 56 (3763200)
I0917 10:21:15.603726 32258 net.cpp:139] Memory required for data: 506778000
I0917 10:21:15.603732 32258 layer_factory.hpp:77] Creating layer conv3_0/3x3_dwconv/relu
I0917 10:21:15.603739 32258 net.cpp:86] Creating Layer conv3_0/3x3_dwconv/relu
I0917 10:21:15.603744 32258 net.cpp:408] conv3_0/3x3_dwconv/relu <- conv3_0/3x3_dwconv/bn
I0917 10:21:15.603749 32258 net.cpp:369] conv3_0/3x3_dwconv/relu -> conv3_0/3x3_dwconv/bn (in-place)
I0917 10:21:15.604303 32258 net.cpp:124] Setting up conv3_0/3x3_dwconv/relu
I0917 10:21:15.604315 32258 net.cpp:131] Top shape: 25 48 56 56 (3763200)
I0917 10:21:15.604317 32258 net.cpp:139] Memory required for data: 521830800
I0917 10:21:15.604319 32258 layer_factory.hpp:77] Creating layer conv3_0/3x3_dwconv/bn_fixed_point
I0917 10:21:15.604328 32258 net.cpp:86] Creating Layer conv3_0/3x3_dwconv/bn_fixed_point
I0917 10:21:15.604332 32258 net.cpp:408] conv3_0/3x3_dwconv/bn_fixed_point <- conv3_0/3x3_dwconv/bn
I0917 10:21:15.604337 32258 net.cpp:369] conv3_0/3x3_dwconv/bn_fixed_point -> conv3_0/3x3_dwconv/bn (in-place)
I0917 10:21:15.604364 32258 net.cpp:124] Setting up conv3_0/3x3_dwconv/bn_fixed_point
I0917 10:21:15.604368 32258 net.cpp:131] Top shape: 25 48 56 56 (3763200)
I0917 10:21:15.604372 32258 net.cpp:139] Memory required for data: 536883600
I0917 10:21:15.604374 32258 layer_factory.hpp:77] Creating layer conv3_0/1x1_decrease
I0917 10:21:15.604387 32258 net.cpp:86] Creating Layer conv3_0/1x1_decrease
I0917 10:21:15.604390 32258 net.cpp:408] conv3_0/1x1_decrease <- conv3_0/3x3_dwconv/bn
I0917 10:21:15.604395 32258 net.cpp:382] conv3_0/1x1_decrease -> conv3_0/1x1_decrease/bn
I0917 10:21:15.605016 32258 net.cpp:124] Setting up conv3_0/1x1_decrease
I0917 10:21:15.605027 32258 net.cpp:131] Top shape: 25 32 56 56 (2508800)
I0917 10:21:15.605046 32258 net.cpp:139] Memory required for data: 546918800
I0917 10:21:15.605056 32258 layer_factory.hpp:77] Creating layer conv3_0/1x1_decrease/bn_fixed_point
I0917 10:21:15.605062 32258 net.cpp:86] Creating Layer conv3_0/1x1_decrease/bn_fixed_point
I0917 10:21:15.605067 32258 net.cpp:408] conv3_0/1x1_decrease/bn_fixed_point <- conv3_0/1x1_decrease/bn
I0917 10:21:15.605073 32258 net.cpp:369] conv3_0/1x1_decrease/bn_fixed_point -> conv3_0/1x1_decrease/bn (in-place)
I0917 10:21:15.605101 32258 net.cpp:124] Setting up conv3_0/1x1_decrease/bn_fixed_point
I0917 10:21:15.605108 32258 net.cpp:131] Top shape: 25 32 56 56 (2508800)
I0917 10:21:15.605110 32258 net.cpp:139] Memory required for data: 556954000
I0917 10:21:15.605114 32258 layer_factory.hpp:77] Creating layer conv3_0/1x1_decrease/bn_conv3_0/1x1_decrease/bn_fixed_point_0_split
I0917 10:21:15.605120 32258 net.cpp:86] Creating Layer conv3_0/1x1_decrease/bn_conv3_0/1x1_decrease/bn_fixed_point_0_split
I0917 10:21:15.605123 32258 net.cpp:408] conv3_0/1x1_decrease/bn_conv3_0/1x1_decrease/bn_fixed_point_0_split <- conv3_0/1x1_decrease/bn
I0917 10:21:15.605127 32258 net.cpp:382] conv3_0/1x1_decrease/bn_conv3_0/1x1_decrease/bn_fixed_point_0_split -> conv3_0/1x1_decrease/bn_conv3_0/1x1_decrease/bn_fixed_point_0_split_0
I0917 10:21:15.605134 32258 net.cpp:382] conv3_0/1x1_decrease/bn_conv3_0/1x1_decrease/bn_fixed_point_0_split -> conv3_0/1x1_decrease/bn_conv3_0/1x1_decrease/bn_fixed_point_0_split_1
I0917 10:21:15.605170 32258 net.cpp:124] Setting up conv3_0/1x1_decrease/bn_conv3_0/1x1_decrease/bn_fixed_point_0_split
I0917 10:21:15.605186 32258 net.cpp:131] Top shape: 25 32 56 56 (2508800)
I0917 10:21:15.605190 32258 net.cpp:131] Top shape: 25 32 56 56 (2508800)
I0917 10:21:15.605193 32258 net.cpp:139] Memory required for data: 577024400
I0917 10:21:15.605196 32258 layer_factory.hpp:77] Creating layer conv3_1/1x1_increase
I0917 10:21:15.605206 32258 net.cpp:86] Creating Layer conv3_1/1x1_increase
I0917 10:21:15.605211 32258 net.cpp:408] conv3_1/1x1_increase <- conv3_0/1x1_decrease/bn_conv3_0/1x1_decrease/bn_fixed_point_0_split_0
I0917 10:21:15.605233 32258 net.cpp:382] conv3_1/1x1_increase -> conv3_1/1x1_increase/bn
I0917 10:21:15.605798 32258 net.cpp:124] Setting up conv3_1/1x1_increase
I0917 10:21:15.605839 32258 net.cpp:131] Top shape: 25 96 56 56 (7526400)
I0917 10:21:15.605842 32258 net.cpp:139] Memory required for data: 607130000
I0917 10:21:15.605849 32258 layer_factory.hpp:77] Creating layer conv3_1/1x1_increase/relu
I0917 10:21:15.605854 32258 net.cpp:86] Creating Layer conv3_1/1x1_increase/relu
I0917 10:21:15.605857 32258 net.cpp:408] conv3_1/1x1_increase/relu <- conv3_1/1x1_increase/bn
I0917 10:21:15.605862 32258 net.cpp:369] conv3_1/1x1_increase/relu -> conv3_1/1x1_increase/bn (in-place)
I0917 10:21:15.606398 32258 net.cpp:124] Setting up conv3_1/1x1_increase/relu
I0917 10:21:15.606426 32258 net.cpp:131] Top shape: 25 96 56 56 (7526400)
I0917 10:21:15.606429 32258 net.cpp:139] Memory required for data: 637235600
I0917 10:21:15.606431 32258 layer_factory.hpp:77] Creating layer conv3_1/1x1_increase/bn_fixed_point
I0917 10:21:15.606437 32258 net.cpp:86] Creating Layer conv3_1/1x1_increase/bn_fixed_point
I0917 10:21:15.606441 32258 net.cpp:408] conv3_1/1x1_increase/bn_fixed_point <- conv3_1/1x1_increase/bn
I0917 10:21:15.606446 32258 net.cpp:369] conv3_1/1x1_increase/bn_fixed_point -> conv3_1/1x1_increase/bn (in-place)
I0917 10:21:15.606475 32258 net.cpp:124] Setting up conv3_1/1x1_increase/bn_fixed_point
I0917 10:21:15.606482 32258 net.cpp:131] Top shape: 25 96 56 56 (7526400)
I0917 10:21:15.606484 32258 net.cpp:139] Memory required for data: 667341200
I0917 10:21:15.606503 32258 layer_factory.hpp:77] Creating layer conv3_1/3x3_dwconv
I0917 10:21:15.606516 32258 net.cpp:86] Creating Layer conv3_1/3x3_dwconv
I0917 10:21:15.606520 32258 net.cpp:408] conv3_1/3x3_dwconv <- conv3_1/1x1_increase/bn
I0917 10:21:15.606526 32258 net.cpp:382] conv3_1/3x3_dwconv -> conv3_1/3x3_dwconv/bn
I0917 10:21:15.607165 32258 net.cpp:124] Setting up conv3_1/3x3_dwconv
I0917 10:21:15.607177 32258 net.cpp:131] Top shape: 25 96 56 56 (7526400)
I0917 10:21:15.607195 32258 net.cpp:139] Memory required for data: 697446800
I0917 10:21:15.607201 32258 layer_factory.hpp:77] Creating layer conv3_1/3x3_dwconv/relu
I0917 10:21:15.607206 32258 net.cpp:86] Creating Layer conv3_1/3x3_dwconv/relu
I0917 10:21:15.607211 32258 net.cpp:408] conv3_1/3x3_dwconv/relu <- conv3_1/3x3_dwconv/bn
I0917 10:21:15.607215 32258 net.cpp:369] conv3_1/3x3_dwconv/relu -> conv3_1/3x3_dwconv/bn (in-place)
I0917 10:21:15.607923 32258 net.cpp:124] Setting up conv3_1/3x3_dwconv/relu
I0917 10:21:15.607934 32258 net.cpp:131] Top shape: 25 96 56 56 (7526400)
I0917 10:21:15.607954 32258 net.cpp:139] Memory required for data: 727552400
I0917 10:21:15.607956 32258 layer_factory.hpp:77] Creating layer conv3_1/3x3_dwconv/bn_fixed_point
I0917 10:21:15.607964 32258 net.cpp:86] Creating Layer conv3_1/3x3_dwconv/bn_fixed_point
I0917 10:21:15.607969 32258 net.cpp:408] conv3_1/3x3_dwconv/bn_fixed_point <- conv3_1/3x3_dwconv/bn
I0917 10:21:15.607975 32258 net.cpp:369] conv3_1/3x3_dwconv/bn_fixed_point -> conv3_1/3x3_dwconv/bn (in-place)
I0917 10:21:15.608003 32258 net.cpp:124] Setting up conv3_1/3x3_dwconv/bn_fixed_point
I0917 10:21:15.608011 32258 net.cpp:131] Top shape: 25 96 56 56 (7526400)
I0917 10:21:15.608016 32258 net.cpp:139] Memory required for data: 757658000
I0917 10:21:15.608019 32258 layer_factory.hpp:77] Creating layer conv3_1/1x1_decrease
I0917 10:21:15.608033 32258 net.cpp:86] Creating Layer conv3_1/1x1_decrease
I0917 10:21:15.608047 32258 net.cpp:408] conv3_1/1x1_decrease <- conv3_1/3x3_dwconv/bn
I0917 10:21:15.608054 32258 net.cpp:382] conv3_1/1x1_decrease -> conv3_1/1x1_decrease/bn
I0917 10:21:15.608559 32258 net.cpp:124] Setting up conv3_1/1x1_decrease
I0917 10:21:15.608568 32258 net.cpp:131] Top shape: 25 32 56 56 (2508800)
I0917 10:21:15.608587 32258 net.cpp:139] Memory required for data: 767693200
I0917 10:21:15.608592 32258 layer_factory.hpp:77] Creating layer conv3_1/elt_sum
I0917 10:21:15.608603 32258 net.cpp:86] Creating Layer conv3_1/elt_sum
I0917 10:21:15.608605 32258 net.cpp:408] conv3_1/elt_sum <- conv3_0/1x1_decrease/bn_conv3_0/1x1_decrease/bn_fixed_point_0_split_1
I0917 10:21:15.608609 32258 net.cpp:408] conv3_1/elt_sum <- conv3_1/1x1_decrease/bn
I0917 10:21:15.608614 32258 net.cpp:382] conv3_1/elt_sum -> conv3_1/elt_sum
I0917 10:21:15.608649 32258 net.cpp:124] Setting up conv3_1/elt_sum
I0917 10:21:15.608656 32258 net.cpp:131] Top shape: 25 32 56 56 (2508800)
I0917 10:21:15.608675 32258 net.cpp:139] Memory required for data: 777728400
I0917 10:21:15.608678 32258 layer_factory.hpp:77] Creating layer conv3_1/elt_sum_fixed_point
I0917 10:21:15.608683 32258 net.cpp:86] Creating Layer conv3_1/elt_sum_fixed_point
I0917 10:21:15.608686 32258 net.cpp:408] conv3_1/elt_sum_fixed_point <- conv3_1/elt_sum
I0917 10:21:15.608692 32258 net.cpp:369] conv3_1/elt_sum_fixed_point -> conv3_1/elt_sum (in-place)
I0917 10:21:15.608717 32258 net.cpp:124] Setting up conv3_1/elt_sum_fixed_point
I0917 10:21:15.608722 32258 net.cpp:131] Top shape: 25 32 56 56 (2508800)
I0917 10:21:15.608724 32258 net.cpp:139] Memory required for data: 787763600
I0917 10:21:15.608728 32258 layer_factory.hpp:77] Creating layer conv4_0/1x1_increase
I0917 10:21:15.608739 32258 net.cpp:86] Creating Layer conv4_0/1x1_increase
I0917 10:21:15.608744 32258 net.cpp:408] conv4_0/1x1_increase <- conv3_1/elt_sum
I0917 10:21:15.608752 32258 net.cpp:382] conv4_0/1x1_increase -> conv4_0/1x1_increase/bn
I0917 10:21:15.609447 32258 net.cpp:124] Setting up conv4_0/1x1_increase
I0917 10:21:15.609458 32258 net.cpp:131] Top shape: 25 96 56 56 (7526400)
I0917 10:21:15.609477 32258 net.cpp:139] Memory required for data: 817869200
I0917 10:21:15.609484 32258 layer_factory.hpp:77] Creating layer conv4_0/1x1_increase/hardswish
I0917 10:21:15.609499 32258 net.cpp:86] Creating Layer conv4_0/1x1_increase/hardswish
I0917 10:21:15.609503 32258 net.cpp:408] conv4_0/1x1_increase/hardswish <- conv4_0/1x1_increase/bn
I0917 10:21:15.609509 32258 net.cpp:369] conv4_0/1x1_increase/hardswish -> conv4_0/1x1_increase/bn (in-place)
I0917 10:21:15.609536 32258 net.cpp:124] Setting up conv4_0/1x1_increase/hardswish
I0917 10:21:15.609545 32258 net.cpp:131] Top shape: 25 96 56 56 (7526400)
I0917 10:21:15.609563 32258 net.cpp:139] Memory required for data: 847974800
I0917 10:21:15.609566 32258 layer_factory.hpp:77] Creating layer conv4_0/1x1_increase/bn_fixed_point
I0917 10:21:15.609571 32258 net.cpp:86] Creating Layer conv4_0/1x1_increase/bn_fixed_point
I0917 10:21:15.609575 32258 net.cpp:408] conv4_0/1x1_increase/bn_fixed_point <- conv4_0/1x1_increase/bn
I0917 10:21:15.609580 32258 net.cpp:369] conv4_0/1x1_increase/bn_fixed_point -> conv4_0/1x1_increase/bn (in-place)
I0917 10:21:15.609603 32258 net.cpp:124] Setting up conv4_0/1x1_increase/bn_fixed_point
I0917 10:21:15.609608 32258 net.cpp:131] Top shape: 25 96 56 56 (7526400)
I0917 10:21:15.609611 32258 net.cpp:139] Memory required for data: 878080400
I0917 10:21:15.609614 32258 layer_factory.hpp:77] Creating layer conv4_0/1x1_increase/slice
I0917 10:21:15.609624 32258 net.cpp:86] Creating Layer conv4_0/1x1_increase/slice
I0917 10:21:15.609627 32258 net.cpp:408] conv4_0/1x1_increase/slice <- conv4_0/1x1_increase/bn
I0917 10:21:15.609634 32258 net.cpp:382] conv4_0/1x1_increase/slice -> conv4_0/1x1_increase/split1
I0917 10:21:15.609642 32258 net.cpp:382] conv4_0/1x1_increase/slice -> conv4_0/1x1_increase/split2
I0917 10:21:15.609647 32258 net.cpp:382] conv4_0/1x1_increase/slice -> conv4_0/1x1_increase/split3
I0917 10:21:15.609700 32258 net.cpp:124] Setting up conv4_0/1x1_increase/slice
I0917 10:21:15.609732 32258 net.cpp:131] Top shape: 25 32 56 56 (2508800)
I0917 10:21:15.609737 32258 net.cpp:131] Top shape: 25 32 56 56 (2508800)
I0917 10:21:15.609740 32258 net.cpp:131] Top shape: 25 32 56 56 (2508800)
I0917 10:21:15.609742 32258 net.cpp:139] Memory required for data: 908186000
I0917 10:21:15.609745 32258 layer_factory.hpp:77] Creating layer conv4_0/3x3_dwconv/slice_0
I0917 10:21:15.609755 32258 net.cpp:86] Creating Layer conv4_0/3x3_dwconv/slice_0
I0917 10:21:15.609760 32258 net.cpp:408] conv4_0/3x3_dwconv/slice_0 <- conv4_0/1x1_increase/split1
I0917 10:21:15.609764 32258 net.cpp:382] conv4_0/3x3_dwconv/slice_0 -> conv4_0/3x3_dwconv/slice_0/bn
I0917 10:21:15.610229 32258 net.cpp:124] Setting up conv4_0/3x3_dwconv/slice_0
I0917 10:21:15.610240 32258 net.cpp:131] Top shape: 25 32 28 28 (627200)
I0917 10:21:15.610258 32258 net.cpp:139] Memory required for data: 910694800
I0917 10:21:15.610268 32258 layer_factory.hpp:77] Creating layer conv4_0/3x3_dwconv/slice_0/hardswish
I0917 10:21:15.610273 32258 net.cpp:86] Creating Layer conv4_0/3x3_dwconv/slice_0/hardswish
I0917 10:21:15.610277 32258 net.cpp:408] conv4_0/3x3_dwconv/slice_0/hardswish <- conv4_0/3x3_dwconv/slice_0/bn
I0917 10:21:15.610281 32258 net.cpp:369] conv4_0/3x3_dwconv/slice_0/hardswish -> conv4_0/3x3_dwconv/slice_0/bn (in-place)
I0917 10:21:15.610311 32258 net.cpp:124] Setting up conv4_0/3x3_dwconv/slice_0/hardswish
I0917 10:21:15.610318 32258 net.cpp:131] Top shape: 25 32 28 28 (627200)
I0917 10:21:15.610335 32258 net.cpp:139] Memory required for data: 913203600
I0917 10:21:15.610338 32258 layer_factory.hpp:77] Creating layer conv4_0/3x3_dwconv/slice_1
I0917 10:21:15.610348 32258 net.cpp:86] Creating Layer conv4_0/3x3_dwconv/slice_1
I0917 10:21:15.610352 32258 net.cpp:408] conv4_0/3x3_dwconv/slice_1 <- conv4_0/1x1_increase/split2
I0917 10:21:15.610358 32258 net.cpp:382] conv4_0/3x3_dwconv/slice_1 -> conv4_0/3x3_dwconv/slice_1/bn
I0917 10:21:15.611016 32258 net.cpp:124] Setting up conv4_0/3x3_dwconv/slice_1
I0917 10:21:15.611027 32258 net.cpp:131] Top shape: 25 32 28 28 (627200)
I0917 10:21:15.611045 32258 net.cpp:139] Memory required for data: 915712400
I0917 10:21:15.611052 32258 layer_factory.hpp:77] Creating layer conv4_0/3x3_dwconv/slice_1/hardswish
I0917 10:21:15.611063 32258 net.cpp:86] Creating Layer conv4_0/3x3_dwconv/slice_1/hardswish
I0917 10:21:15.611066 32258 net.cpp:408] conv4_0/3x3_dwconv/slice_1/hardswish <- conv4_0/3x3_dwconv/slice_1/bn
I0917 10:21:15.611070 32258 net.cpp:369] conv4_0/3x3_dwconv/slice_1/hardswish -> conv4_0/3x3_dwconv/slice_1/bn (in-place)
I0917 10:21:15.611097 32258 net.cpp:124] Setting up conv4_0/3x3_dwconv/slice_1/hardswish
I0917 10:21:15.611104 32258 net.cpp:131] Top shape: 25 32 28 28 (627200)
I0917 10:21:15.611117 32258 net.cpp:139] Memory required for data: 918221200
I0917 10:21:15.611121 32258 layer_factory.hpp:77] Creating layer conv4_0/3x3_dwconv/slice_2
I0917 10:21:15.611133 32258 net.cpp:86] Creating Layer conv4_0/3x3_dwconv/slice_2
I0917 10:21:15.611136 32258 net.cpp:408] conv4_0/3x3_dwconv/slice_2 <- conv4_0/1x1_increase/split3
I0917 10:21:15.611141 32258 net.cpp:382] conv4_0/3x3_dwconv/slice_2 -> conv4_0/3x3_dwconv/slice_2/bn
I0917 10:21:15.611831 32258 net.cpp:124] Setting up conv4_0/3x3_dwconv/slice_2
I0917 10:21:15.611843 32258 net.cpp:131] Top shape: 25 32 28 28 (627200)
I0917 10:21:15.611846 32258 net.cpp:139] Memory required for data: 920730000
I0917 10:21:15.611851 32258 layer_factory.hpp:77] Creating layer conv4_0/3x3_dwconv/slice_2/hardswish
I0917 10:21:15.611857 32258 net.cpp:86] Creating Layer conv4_0/3x3_dwconv/slice_2/hardswish
I0917 10:21:15.611860 32258 net.cpp:408] conv4_0/3x3_dwconv/slice_2/hardswish <- conv4_0/3x3_dwconv/slice_2/bn
I0917 10:21:15.611868 32258 net.cpp:369] conv4_0/3x3_dwconv/slice_2/hardswish -> conv4_0/3x3_dwconv/slice_2/bn (in-place)
I0917 10:21:15.611898 32258 net.cpp:124] Setting up conv4_0/3x3_dwconv/slice_2/hardswish
I0917 10:21:15.611905 32258 net.cpp:131] Top shape: 25 32 28 28 (627200)
I0917 10:21:15.611920 32258 net.cpp:139] Memory required for data: 923238800
I0917 10:21:15.611923 32258 layer_factory.hpp:77] Creating layer conv4_0/3x3_dwconv/concat
I0917 10:21:15.611946 32258 net.cpp:86] Creating Layer conv4_0/3x3_dwconv/concat
I0917 10:21:15.611949 32258 net.cpp:408] conv4_0/3x3_dwconv/concat <- conv4_0/3x3_dwconv/slice_0/bn
I0917 10:21:15.611953 32258 net.cpp:408] conv4_0/3x3_dwconv/concat <- conv4_0/3x3_dwconv/slice_1/bn
I0917 10:21:15.611956 32258 net.cpp:408] conv4_0/3x3_dwconv/concat <- conv4_0/3x3_dwconv/slice_2/bn
I0917 10:21:15.611961 32258 net.cpp:382] conv4_0/3x3_dwconv/concat -> conv4_0/3x3_dwconv/concat
I0917 10:21:15.611999 32258 net.cpp:124] Setting up conv4_0/3x3_dwconv/concat
I0917 10:21:15.612005 32258 net.cpp:131] Top shape: 25 96 28 28 (1881600)
I0917 10:21:15.612008 32258 net.cpp:139] Memory required for data: 930765200
I0917 10:21:15.612010 32258 layer_factory.hpp:77] Creating layer conv4_0/3x3_dwconv/concat_fixed_point
I0917 10:21:15.612017 32258 net.cpp:86] Creating Layer conv4_0/3x3_dwconv/concat_fixed_point
I0917 10:21:15.612021 32258 net.cpp:408] conv4_0/3x3_dwconv/concat_fixed_point <- conv4_0/3x3_dwconv/concat
I0917 10:21:15.612025 32258 net.cpp:369] conv4_0/3x3_dwconv/concat_fixed_point -> conv4_0/3x3_dwconv/concat (in-place)
I0917 10:21:15.612049 32258 net.cpp:124] Setting up conv4_0/3x3_dwconv/concat_fixed_point
I0917 10:21:15.612056 32258 net.cpp:131] Top shape: 25 96 28 28 (1881600)
I0917 10:21:15.612058 32258 net.cpp:139] Memory required for data: 938291600
I0917 10:21:15.612063 32258 layer_factory.hpp:77] Creating layer conv4_0/3x3_dwconv/concat_conv4_0/3x3_dwconv/concat_fixed_point_0_split
I0917 10:21:15.612068 32258 net.cpp:86] Creating Layer conv4_0/3x3_dwconv/concat_conv4_0/3x3_dwconv/concat_fixed_point_0_split
I0917 10:21:15.612071 32258 net.cpp:408] conv4_0/3x3_dwconv/concat_conv4_0/3x3_dwconv/concat_fixed_point_0_split <- conv4_0/3x3_dwconv/concat
I0917 10:21:15.612077 32258 net.cpp:382] conv4_0/3x3_dwconv/concat_conv4_0/3x3_dwconv/concat_fixed_point_0_split -> conv4_0/3x3_dwconv/concat_conv4_0/3x3_dwconv/concat_fixed_point_0_split_0
I0917 10:21:15.612082 32258 net.cpp:382] conv4_0/3x3_dwconv/concat_conv4_0/3x3_dwconv/concat_fixed_point_0_split -> conv4_0/3x3_dwconv/concat_conv4_0/3x3_dwconv/concat_fixed_point_0_split_1
I0917 10:21:15.612128 32258 net.cpp:124] Setting up conv4_0/3x3_dwconv/concat_conv4_0/3x3_dwconv/concat_fixed_point_0_split
I0917 10:21:15.612135 32258 net.cpp:131] Top shape: 25 96 28 28 (1881600)
I0917 10:21:15.612138 32258 net.cpp:131] Top shape: 25 96 28 28 (1881600)
I0917 10:21:15.612141 32258 net.cpp:139] Memory required for data: 953344400
I0917 10:21:15.612143 32258 layer_factory.hpp:77] Creating layer conv4_0/3x3_dwconv/SE_global_pool
I0917 10:21:15.612154 32258 net.cpp:86] Creating Layer conv4_0/3x3_dwconv/SE_global_pool
I0917 10:21:15.612156 32258 net.cpp:408] conv4_0/3x3_dwconv/SE_global_pool <- conv4_0/3x3_dwconv/concat_conv4_0/3x3_dwconv/concat_fixed_point_0_split_0
I0917 10:21:15.612160 32258 net.cpp:382] conv4_0/3x3_dwconv/SE_global_pool -> conv4_0/3x3_dwconv/SE_global_pool
I0917 10:21:15.612193 32258 net.cpp:124] Setting up conv4_0/3x3_dwconv/SE_global_pool
I0917 10:21:15.612200 32258 net.cpp:131] Top shape: 25 96 1 1 (2400)
I0917 10:21:15.612202 32258 net.cpp:139] Memory required for data: 953354000
I0917 10:21:15.612205 32258 layer_factory.hpp:77] Creating layer conv4_0/3x3_dwconv/SE_bn
I0917 10:21:15.612215 32258 net.cpp:86] Creating Layer conv4_0/3x3_dwconv/SE_bn
I0917 10:21:15.612219 32258 net.cpp:408] conv4_0/3x3_dwconv/SE_bn <- conv4_0/3x3_dwconv/SE_global_pool
I0917 10:21:15.612223 32258 net.cpp:382] conv4_0/3x3_dwconv/SE_bn -> conv4_0/3x3_dwconv/SE_bn
I0917 10:21:15.612287 32258 layer_factory.hpp:77] Creating layer conv4_0/3x3_dwconv/SE_bn
I0917 10:21:15.612396 32258 net.cpp:124] Setting up conv4_0/3x3_dwconv/SE_bn
I0917 10:21:15.612402 32258 net.cpp:131] Top shape: 25 96 1 1 (2400)
I0917 10:21:15.612406 32258 net.cpp:139] Memory required for data: 953363600
I0917 10:21:15.612411 32258 layer_factory.hpp:77] Creating layer conv4_0/3x3_dwconv/SE_fc1
I0917 10:21:15.612426 32258 net.cpp:86] Creating Layer conv4_0/3x3_dwconv/SE_fc1
I0917 10:21:15.612430 32258 net.cpp:408] conv4_0/3x3_dwconv/SE_fc1 <- conv4_0/3x3_dwconv/SE_bn
I0917 10:21:15.612435 32258 net.cpp:382] conv4_0/3x3_dwconv/SE_fc1 -> conv4_0/3x3_dwconv/SE_fc1
I0917 10:21:15.612740 32258 net.cpp:124] Setting up conv4_0/3x3_dwconv/SE_fc1
I0917 10:21:15.612749 32258 net.cpp:131] Top shape: 25 6 1 1 (150)
I0917 10:21:15.612751 32258 net.cpp:139] Memory required for data: 953364200
I0917 10:21:15.612756 32258 layer_factory.hpp:77] Creating layer conv4_0/3x3_dwconv/SE_fc1/relu
I0917 10:21:15.612761 32258 net.cpp:86] Creating Layer conv4_0/3x3_dwconv/SE_fc1/relu
I0917 10:21:15.612764 32258 net.cpp:408] conv4_0/3x3_dwconv/SE_fc1/relu <- conv4_0/3x3_dwconv/SE_fc1
I0917 10:21:15.612769 32258 net.cpp:369] conv4_0/3x3_dwconv/SE_fc1/relu -> conv4_0/3x3_dwconv/SE_fc1 (in-place)
I0917 10:21:15.613271 32258 net.cpp:124] Setting up conv4_0/3x3_dwconv/SE_fc1/relu
I0917 10:21:15.613281 32258 net.cpp:131] Top shape: 25 6 1 1 (150)
I0917 10:21:15.613284 32258 net.cpp:139] Memory required for data: 953364800
I0917 10:21:15.613287 32258 layer_factory.hpp:77] Creating layer conv4_0/3x3_dwconv/SE_fc2
I0917 10:21:15.613296 32258 net.cpp:86] Creating Layer conv4_0/3x3_dwconv/SE_fc2
I0917 10:21:15.613299 32258 net.cpp:408] conv4_0/3x3_dwconv/SE_fc2 <- conv4_0/3x3_dwconv/SE_fc1
I0917 10:21:15.613304 32258 net.cpp:382] conv4_0/3x3_dwconv/SE_fc2 -> conv4_0/3x3_dwconv/SE_fc2
I0917 10:21:15.613616 32258 net.cpp:124] Setting up conv4_0/3x3_dwconv/SE_fc2
I0917 10:21:15.613626 32258 net.cpp:131] Top shape: 25 96 1 1 (2400)
I0917 10:21:15.613629 32258 net.cpp:139] Memory required for data: 953374400
I0917 10:21:15.613633 32258 layer_factory.hpp:77] Creating layer conv4_0/3x3_dwconv/SE_weights
I0917 10:21:15.613641 32258 net.cpp:86] Creating Layer conv4_0/3x3_dwconv/SE_weights
I0917 10:21:15.613644 32258 net.cpp:408] conv4_0/3x3_dwconv/SE_weights <- conv4_0/3x3_dwconv/SE_fc2
I0917 10:21:15.613649 32258 net.cpp:369] conv4_0/3x3_dwconv/SE_weights -> conv4_0/3x3_dwconv/SE_fc2 (in-place)
I0917 10:21:15.614157 32258 net.cpp:124] Setting up conv4_0/3x3_dwconv/SE_weights
I0917 10:21:15.614167 32258 net.cpp:131] Top shape: 25 96 1 1 (2400)
I0917 10:21:15.614171 32258 net.cpp:139] Memory required for data: 953384000
I0917 10:21:15.614172 32258 layer_factory.hpp:77] Creating layer conv4_0/3x3_dwconv/SE_weights/reshape
I0917 10:21:15.614183 32258 net.cpp:86] Creating Layer conv4_0/3x3_dwconv/SE_weights/reshape
I0917 10:21:15.614187 32258 net.cpp:408] conv4_0/3x3_dwconv/SE_weights/reshape <- conv4_0/3x3_dwconv/SE_fc2
I0917 10:21:15.614190 32258 net.cpp:382] conv4_0/3x3_dwconv/SE_weights/reshape -> conv4_0/3x3_dwconv/SE_weights/reshape
I0917 10:21:15.614230 32258 net.cpp:124] Setting up conv4_0/3x3_dwconv/SE_weights/reshape
I0917 10:21:15.614235 32258 net.cpp:131] Top shape: 25 96 (2400)
I0917 10:21:15.614238 32258 net.cpp:139] Memory required for data: 953393600
I0917 10:21:15.614240 32258 layer_factory.hpp:77] Creating layer conv4_0/3x3_dwconv/scale
I0917 10:21:15.614245 32258 net.cpp:86] Creating Layer conv4_0/3x3_dwconv/scale
I0917 10:21:15.614248 32258 net.cpp:408] conv4_0/3x3_dwconv/scale <- conv4_0/3x3_dwconv/concat_conv4_0/3x3_dwconv/concat_fixed_point_0_split_1
I0917 10:21:15.614253 32258 net.cpp:408] conv4_0/3x3_dwconv/scale <- conv4_0/3x3_dwconv/SE_weights/reshape
I0917 10:21:15.614257 32258 net.cpp:382] conv4_0/3x3_dwconv/scale -> conv4_0/3x3_dwconv/scale
I0917 10:21:15.614325 32258 net.cpp:124] Setting up conv4_0/3x3_dwconv/scale
I0917 10:21:15.614333 32258 net.cpp:131] Top shape: 25 96 28 28 (1881600)
I0917 10:21:15.614352 32258 net.cpp:139] Memory required for data: 960920000
I0917 10:21:15.614354 32258 layer_factory.hpp:77] Creating layer conv4_0/3x3_dwconv/scale_fixed_point
I0917 10:21:15.614361 32258 net.cpp:86] Creating Layer conv4_0/3x3_dwconv/scale_fixed_point
I0917 10:21:15.614363 32258 net.cpp:408] conv4_0/3x3_dwconv/scale_fixed_point <- conv4_0/3x3_dwconv/scale
I0917 10:21:15.614368 32258 net.cpp:369] conv4_0/3x3_dwconv/scale_fixed_point -> conv4_0/3x3_dwconv/scale (in-place)
I0917 10:21:15.614403 32258 net.cpp:124] Setting up conv4_0/3x3_dwconv/scale_fixed_point
I0917 10:21:15.614410 32258 net.cpp:131] Top shape: 25 96 28 28 (1881600)
I0917 10:21:15.614413 32258 net.cpp:139] Memory required for data: 968446400
I0917 10:21:15.614418 32258 layer_factory.hpp:77] Creating layer conv4_0/1x1_decrease
I0917 10:21:15.614428 32258 net.cpp:86] Creating Layer conv4_0/1x1_decrease
I0917 10:21:15.614434 32258 net.cpp:408] conv4_0/1x1_decrease <- conv4_0/3x3_dwconv/scale
I0917 10:21:15.614439 32258 net.cpp:382] conv4_0/1x1_decrease -> conv4_0/1x1_decrease/bn
I0917 10:21:15.614948 32258 net.cpp:124] Setting up conv4_0/1x1_decrease
I0917 10:21:15.614956 32258 net.cpp:131] Top shape: 25 40 28 28 (784000)
I0917 10:21:15.614975 32258 net.cpp:139] Memory required for data: 971582400
I0917 10:21:15.614980 32258 layer_factory.hpp:77] Creating layer conv4_0/1x1_decrease/bn_fixed_point
I0917 10:21:15.614989 32258 net.cpp:86] Creating Layer conv4_0/1x1_decrease/bn_fixed_point
I0917 10:21:15.614991 32258 net.cpp:408] conv4_0/1x1_decrease/bn_fixed_point <- conv4_0/1x1_decrease/bn
I0917 10:21:15.614996 32258 net.cpp:369] conv4_0/1x1_decrease/bn_fixed_point -> conv4_0/1x1_decrease/bn (in-place)
I0917 10:21:15.615025 32258 net.cpp:124] Setting up conv4_0/1x1_decrease/bn_fixed_point
I0917 10:21:15.615032 32258 net.cpp:131] Top shape: 25 40 28 28 (784000)
I0917 10:21:15.615046 32258 net.cpp:139] Memory required for data: 974718400
I0917 10:21:15.615051 32258 layer_factory.hpp:77] Creating layer conv4_0/1x1_decrease/bn_conv4_0/1x1_decrease/bn_fixed_point_0_split
I0917 10:21:15.615056 32258 net.cpp:86] Creating Layer conv4_0/1x1_decrease/bn_conv4_0/1x1_decrease/bn_fixed_point_0_split
I0917 10:21:15.615058 32258 net.cpp:408] conv4_0/1x1_decrease/bn_conv4_0/1x1_decrease/bn_fixed_point_0_split <- conv4_0/1x1_decrease/bn
I0917 10:21:15.615064 32258 net.cpp:382] conv4_0/1x1_decrease/bn_conv4_0/1x1_decrease/bn_fixed_point_0_split -> conv4_0/1x1_decrease/bn_conv4_0/1x1_decrease/bn_fixed_point_0_split_0
I0917 10:21:15.615069 32258 net.cpp:382] conv4_0/1x1_decrease/bn_conv4_0/1x1_decrease/bn_fixed_point_0_split -> conv4_0/1x1_decrease/bn_conv4_0/1x1_decrease/bn_fixed_point_0_split_1
I0917 10:21:15.615108 32258 net.cpp:124] Setting up conv4_0/1x1_decrease/bn_conv4_0/1x1_decrease/bn_fixed_point_0_split
I0917 10:21:15.615114 32258 net.cpp:131] Top shape: 25 40 28 28 (784000)
I0917 10:21:15.615118 32258 net.cpp:131] Top shape: 25 40 28 28 (784000)
I0917 10:21:15.615120 32258 net.cpp:139] Memory required for data: 980990400
I0917 10:21:15.615123 32258 layer_factory.hpp:77] Creating layer conv4_1/1x1_increase
I0917 10:21:15.615134 32258 net.cpp:86] Creating Layer conv4_1/1x1_increase
I0917 10:21:15.615139 32258 net.cpp:408] conv4_1/1x1_increase <- conv4_0/1x1_decrease/bn_conv4_0/1x1_decrease/bn_fixed_point_0_split_0
I0917 10:21:15.615144 32258 net.cpp:382] conv4_1/1x1_increase -> conv4_1/1x1_increase/bn
I0917 10:21:15.615720 32258 net.cpp:124] Setting up conv4_1/1x1_increase
I0917 10:21:15.615731 32258 net.cpp:131] Top shape: 25 120 28 28 (2352000)
I0917 10:21:15.615743 32258 net.cpp:139] Memory required for data: 990398400
I0917 10:21:15.615751 32258 layer_factory.hpp:77] Creating layer conv4_1/1x1_increase/hardswish
I0917 10:21:15.615757 32258 net.cpp:86] Creating Layer conv4_1/1x1_increase/hardswish
I0917 10:21:15.615761 32258 net.cpp:408] conv4_1/1x1_increase/hardswish <- conv4_1/1x1_increase/bn
I0917 10:21:15.615765 32258 net.cpp:369] conv4_1/1x1_increase/hardswish -> conv4_1/1x1_increase/bn (in-place)
I0917 10:21:15.615794 32258 net.cpp:124] Setting up conv4_1/1x1_increase/hardswish
I0917 10:21:15.615800 32258 net.cpp:131] Top shape: 25 120 28 28 (2352000)
I0917 10:21:15.615803 32258 net.cpp:139] Memory required for data: 999806400
I0917 10:21:15.615810 32258 layer_factory.hpp:77] Creating layer conv4_1/1x1_increase/bn_fixed_point
I0917 10:21:15.615831 32258 net.cpp:86] Creating Layer conv4_1/1x1_increase/bn_fixed_point
I0917 10:21:15.615834 32258 net.cpp:408] conv4_1/1x1_increase/bn_fixed_point <- conv4_1/1x1_increase/bn
I0917 10:21:15.615854 32258 net.cpp:369] conv4_1/1x1_increase/bn_fixed_point -> conv4_1/1x1_increase/bn (in-place)
I0917 10:21:15.615883 32258 net.cpp:124] Setting up conv4_1/1x1_increase/bn_fixed_point
I0917 10:21:15.615890 32258 net.cpp:131] Top shape: 25 120 28 28 (2352000)
I0917 10:21:15.615892 32258 net.cpp:139] Memory required for data: 1009214400
I0917 10:21:15.615896 32258 layer_factory.hpp:77] Creating layer conv4_1/1x1_increase/slice
I0917 10:21:15.615902 32258 net.cpp:86] Creating Layer conv4_1/1x1_increase/slice
I0917 10:21:15.615906 32258 net.cpp:408] conv4_1/1x1_increase/slice <- conv4_1/1x1_increase/bn
I0917 10:21:15.615911 32258 net.cpp:382] conv4_1/1x1_increase/slice -> conv4_1/1x1_increase/split1
I0917 10:21:15.615916 32258 net.cpp:382] conv4_1/1x1_increase/slice -> conv4_1/1x1_increase/split2
I0917 10:21:15.615955 32258 net.cpp:124] Setting up conv4_1/1x1_increase/slice
I0917 10:21:15.615962 32258 net.cpp:131] Top shape: 25 60 28 28 (1176000)
I0917 10:21:15.615965 32258 net.cpp:131] Top shape: 25 60 28 28 (1176000)
I0917 10:21:15.615968 32258 net.cpp:139] Memory required for data: 1018622400
I0917 10:21:15.615972 32258 layer_factory.hpp:77] Creating layer conv4_1/3x3_dwconv/slice_0
I0917 10:21:15.615996 32258 net.cpp:86] Creating Layer conv4_1/3x3_dwconv/slice_0
I0917 10:21:15.616000 32258 net.cpp:408] conv4_1/3x3_dwconv/slice_0 <- conv4_1/1x1_increase/split1
I0917 10:21:15.616006 32258 net.cpp:382] conv4_1/3x3_dwconv/slice_0 -> conv4_1/3x3_dwconv/slice_0/bn
I0917 10:21:15.616487 32258 net.cpp:124] Setting up conv4_1/3x3_dwconv/slice_0
I0917 10:21:15.616498 32258 net.cpp:131] Top shape: 25 60 28 28 (1176000)
I0917 10:21:15.616500 32258 net.cpp:139] Memory required for data: 1023326400
I0917 10:21:15.616508 32258 layer_factory.hpp:77] Creating layer conv4_1/3x3_dwconv/slice_0/hardswish
I0917 10:21:15.616515 32258 net.cpp:86] Creating Layer conv4_1/3x3_dwconv/slice_0/hardswish
I0917 10:21:15.616520 32258 net.cpp:408] conv4_1/3x3_dwconv/slice_0/hardswish <- conv4_1/3x3_dwconv/slice_0/bn
I0917 10:21:15.616526 32258 net.cpp:369] conv4_1/3x3_dwconv/slice_0/hardswish -> conv4_1/3x3_dwconv/slice_0/bn (in-place)
I0917 10:21:15.616554 32258 net.cpp:124] Setting up conv4_1/3x3_dwconv/slice_0/hardswish
I0917 10:21:15.616559 32258 net.cpp:131] Top shape: 25 60 28 28 (1176000)
I0917 10:21:15.616561 32258 net.cpp:139] Memory required for data: 1028030400
I0917 10:21:15.616564 32258 layer_factory.hpp:77] Creating layer conv4_1/3x3_dwconv/slice_1
I0917 10:21:15.616575 32258 net.cpp:86] Creating Layer conv4_1/3x3_dwconv/slice_1
I0917 10:21:15.616581 32258 net.cpp:408] conv4_1/3x3_dwconv/slice_1 <- conv4_1/1x1_increase/split2
I0917 10:21:15.616586 32258 net.cpp:382] conv4_1/3x3_dwconv/slice_1 -> conv4_1/3x3_dwconv/slice_1/bn
I0917 10:21:15.617236 32258 net.cpp:124] Setting up conv4_1/3x3_dwconv/slice_1
I0917 10:21:15.617250 32258 net.cpp:131] Top shape: 25 60 28 28 (1176000)
I0917 10:21:15.617254 32258 net.cpp:139] Memory required for data: 1032734400
I0917 10:21:15.617259 32258 layer_factory.hpp:77] Creating layer conv4_1/3x3_dwconv/slice_1/hardswish
I0917 10:21:15.617265 32258 net.cpp:86] Creating Layer conv4_1/3x3_dwconv/slice_1/hardswish
I0917 10:21:15.617269 32258 net.cpp:408] conv4_1/3x3_dwconv/slice_1/hardswish <- conv4_1/3x3_dwconv/slice_1/bn
I0917 10:21:15.617274 32258 net.cpp:369] conv4_1/3x3_dwconv/slice_1/hardswish -> conv4_1/3x3_dwconv/slice_1/bn (in-place)
I0917 10:21:15.617303 32258 net.cpp:124] Setting up conv4_1/3x3_dwconv/slice_1/hardswish
I0917 10:21:15.617310 32258 net.cpp:131] Top shape: 25 60 28 28 (1176000)
I0917 10:21:15.617312 32258 net.cpp:139] Memory required for data: 1037438400
I0917 10:21:15.617314 32258 layer_factory.hpp:77] Creating layer conv4_1/3x3_dwconv/concat
I0917 10:21:15.617321 32258 net.cpp:86] Creating Layer conv4_1/3x3_dwconv/concat
I0917 10:21:15.617324 32258 net.cpp:408] conv4_1/3x3_dwconv/concat <- conv4_1/3x3_dwconv/slice_0/bn
I0917 10:21:15.617327 32258 net.cpp:408] conv4_1/3x3_dwconv/concat <- conv4_1/3x3_dwconv/slice_1/bn
I0917 10:21:15.617348 32258 net.cpp:382] conv4_1/3x3_dwconv/concat -> conv4_1/3x3_dwconv/concat
I0917 10:21:15.617375 32258 net.cpp:124] Setting up conv4_1/3x3_dwconv/concat
I0917 10:21:15.617381 32258 net.cpp:131] Top shape: 25 120 28 28 (2352000)
I0917 10:21:15.617383 32258 net.cpp:139] Memory required for data: 1046846400
I0917 10:21:15.617388 32258 layer_factory.hpp:77] Creating layer conv4_1/3x3_dwconv/concat_fixed_point
I0917 10:21:15.617394 32258 net.cpp:86] Creating Layer conv4_1/3x3_dwconv/concat_fixed_point
I0917 10:21:15.617399 32258 net.cpp:408] conv4_1/3x3_dwconv/concat_fixed_point <- conv4_1/3x3_dwconv/concat
I0917 10:21:15.617421 32258 net.cpp:369] conv4_1/3x3_dwconv/concat_fixed_point -> conv4_1/3x3_dwconv/concat (in-place)
I0917 10:21:15.617444 32258 net.cpp:124] Setting up conv4_1/3x3_dwconv/concat_fixed_point
I0917 10:21:15.617449 32258 net.cpp:131] Top shape: 25 120 28 28 (2352000)
I0917 10:21:15.617452 32258 net.cpp:139] Memory required for data: 1056254400
I0917 10:21:15.617455 32258 layer_factory.hpp:77] Creating layer conv4_1/3x3_dwconv/concat_conv4_1/3x3_dwconv/concat_fixed_point_0_split
I0917 10:21:15.617465 32258 net.cpp:86] Creating Layer conv4_1/3x3_dwconv/concat_conv4_1/3x3_dwconv/concat_fixed_point_0_split
I0917 10:21:15.617468 32258 net.cpp:408] conv4_1/3x3_dwconv/concat_conv4_1/3x3_dwconv/concat_fixed_point_0_split <- conv4_1/3x3_dwconv/concat
I0917 10:21:15.617472 32258 net.cpp:382] conv4_1/3x3_dwconv/concat_conv4_1/3x3_dwconv/concat_fixed_point_0_split -> conv4_1/3x3_dwconv/concat_conv4_1/3x3_dwconv/concat_fixed_point_0_split_0
I0917 10:21:15.617478 32258 net.cpp:382] conv4_1/3x3_dwconv/concat_conv4_1/3x3_dwconv/concat_fixed_point_0_split -> conv4_1/3x3_dwconv/concat_conv4_1/3x3_dwconv/concat_fixed_point_0_split_1
I0917 10:21:15.617528 32258 net.cpp:124] Setting up conv4_1/3x3_dwconv/concat_conv4_1/3x3_dwconv/concat_fixed_point_0_split
I0917 10:21:15.617534 32258 net.cpp:131] Top shape: 25 120 28 28 (2352000)
I0917 10:21:15.617537 32258 net.cpp:131] Top shape: 25 120 28 28 (2352000)
I0917 10:21:15.617540 32258 net.cpp:139] Memory required for data: 1075070400
I0917 10:21:15.617543 32258 layer_factory.hpp:77] Creating layer conv4_1/3x3_dwconv/SE_global_pool
I0917 10:21:15.617548 32258 net.cpp:86] Creating Layer conv4_1/3x3_dwconv/SE_global_pool
I0917 10:21:15.617552 32258 net.cpp:408] conv4_1/3x3_dwconv/SE_global_pool <- conv4_1/3x3_dwconv/concat_conv4_1/3x3_dwconv/concat_fixed_point_0_split_0
I0917 10:21:15.617558 32258 net.cpp:382] conv4_1/3x3_dwconv/SE_global_pool -> conv4_1/3x3_dwconv/SE_global_pool
I0917 10:21:15.617581 32258 net.cpp:124] Setting up conv4_1/3x3_dwconv/SE_global_pool
I0917 10:21:15.617589 32258 net.cpp:131] Top shape: 25 120 1 1 (3000)
I0917 10:21:15.617591 32258 net.cpp:139] Memory required for data: 1075082400
I0917 10:21:15.617594 32258 layer_factory.hpp:77] Creating layer conv4_1/3x3_dwconv/SE_bn
I0917 10:21:15.617600 32258 net.cpp:86] Creating Layer conv4_1/3x3_dwconv/SE_bn
I0917 10:21:15.617604 32258 net.cpp:408] conv4_1/3x3_dwconv/SE_bn <- conv4_1/3x3_dwconv/SE_global_pool
I0917 10:21:15.617609 32258 net.cpp:382] conv4_1/3x3_dwconv/SE_bn -> conv4_1/3x3_dwconv/SE_bn
I0917 10:21:15.617650 32258 layer_factory.hpp:77] Creating layer conv4_1/3x3_dwconv/SE_bn
I0917 10:21:15.617753 32258 net.cpp:124] Setting up conv4_1/3x3_dwconv/SE_bn
I0917 10:21:15.617759 32258 net.cpp:131] Top shape: 25 120 1 1 (3000)
I0917 10:21:15.617763 32258 net.cpp:139] Memory required for data: 1075094400
I0917 10:21:15.617767 32258 layer_factory.hpp:77] Creating layer conv4_1/3x3_dwconv/SE_fc1
I0917 10:21:15.617779 32258 net.cpp:86] Creating Layer conv4_1/3x3_dwconv/SE_fc1
I0917 10:21:15.617784 32258 net.cpp:408] conv4_1/3x3_dwconv/SE_fc1 <- conv4_1/3x3_dwconv/SE_bn
I0917 10:21:15.617789 32258 net.cpp:382] conv4_1/3x3_dwconv/SE_fc1 -> conv4_1/3x3_dwconv/SE_fc1
I0917 10:21:15.618118 32258 net.cpp:124] Setting up conv4_1/3x3_dwconv/SE_fc1
I0917 10:21:15.618142 32258 net.cpp:131] Top shape: 25 7 1 1 (175)
I0917 10:21:15.618147 32258 net.cpp:139] Memory required for data: 1075095100
I0917 10:21:15.618176 32258 layer_factory.hpp:77] Creating layer conv4_1/3x3_dwconv/SE_fc1/relu
I0917 10:21:15.618183 32258 net.cpp:86] Creating Layer conv4_1/3x3_dwconv/SE_fc1/relu
I0917 10:21:15.618186 32258 net.cpp:408] conv4_1/3x3_dwconv/SE_fc1/relu <- conv4_1/3x3_dwconv/SE_fc1
I0917 10:21:15.618191 32258 net.cpp:369] conv4_1/3x3_dwconv/SE_fc1/relu -> conv4_1/3x3_dwconv/SE_fc1 (in-place)
I0917 10:21:15.618813 32258 net.cpp:124] Setting up conv4_1/3x3_dwconv/SE_fc1/relu
I0917 10:21:15.618822 32258 net.cpp:131] Top shape: 25 7 1 1 (175)
I0917 10:21:15.618840 32258 net.cpp:139] Memory required for data: 1075095800
I0917 10:21:15.618844 32258 layer_factory.hpp:77] Creating layer conv4_1/3x3_dwconv/SE_fc2
I0917 10:21:15.618855 32258 net.cpp:86] Creating Layer conv4_1/3x3_dwconv/SE_fc2
I0917 10:21:15.618860 32258 net.cpp:408] conv4_1/3x3_dwconv/SE_fc2 <- conv4_1/3x3_dwconv/SE_fc1
I0917 10:21:15.618865 32258 net.cpp:382] conv4_1/3x3_dwconv/SE_fc2 -> conv4_1/3x3_dwconv/SE_fc2
I0917 10:21:15.619220 32258 net.cpp:124] Setting up conv4_1/3x3_dwconv/SE_fc2
I0917 10:21:15.619230 32258 net.cpp:131] Top shape: 25 120 1 1 (3000)
I0917 10:21:15.619232 32258 net.cpp:139] Memory required for data: 1075107800
I0917 10:21:15.619237 32258 layer_factory.hpp:77] Creating layer conv4_1/3x3_dwconv/SE_weights
I0917 10:21:15.619242 32258 net.cpp:86] Creating Layer conv4_1/3x3_dwconv/SE_weights
I0917 10:21:15.619246 32258 net.cpp:408] conv4_1/3x3_dwconv/SE_weights <- conv4_1/3x3_dwconv/SE_fc2
I0917 10:21:15.619249 32258 net.cpp:369] conv4_1/3x3_dwconv/SE_weights -> conv4_1/3x3_dwconv/SE_fc2 (in-place)
I0917 10:21:15.619911 32258 net.cpp:124] Setting up conv4_1/3x3_dwconv/SE_weights
I0917 10:21:15.619923 32258 net.cpp:131] Top shape: 25 120 1 1 (3000)
I0917 10:21:15.619926 32258 net.cpp:139] Memory required for data: 1075119800
I0917 10:21:15.619928 32258 layer_factory.hpp:77] Creating layer conv4_1/3x3_dwconv/SE_weights/reshape
I0917 10:21:15.619935 32258 net.cpp:86] Creating Layer conv4_1/3x3_dwconv/SE_weights/reshape
I0917 10:21:15.619938 32258 net.cpp:408] conv4_1/3x3_dwconv/SE_weights/reshape <- conv4_1/3x3_dwconv/SE_fc2
I0917 10:21:15.619944 32258 net.cpp:382] conv4_1/3x3_dwconv/SE_weights/reshape -> conv4_1/3x3_dwconv/SE_weights/reshape
I0917 10:21:15.619985 32258 net.cpp:124] Setting up conv4_1/3x3_dwconv/SE_weights/reshape
I0917 10:21:15.619992 32258 net.cpp:131] Top shape: 25 120 (3000)
I0917 10:21:15.619995 32258 net.cpp:139] Memory required for data: 1075131800
I0917 10:21:15.619997 32258 layer_factory.hpp:77] Creating layer conv4_1/3x3_dwconv/scale
I0917 10:21:15.620004 32258 net.cpp:86] Creating Layer conv4_1/3x3_dwconv/scale
I0917 10:21:15.620007 32258 net.cpp:408] conv4_1/3x3_dwconv/scale <- conv4_1/3x3_dwconv/concat_conv4_1/3x3_dwconv/concat_fixed_point_0_split_1
I0917 10:21:15.620012 32258 net.cpp:408] conv4_1/3x3_dwconv/scale <- conv4_1/3x3_dwconv/SE_weights/reshape
I0917 10:21:15.620015 32258 net.cpp:382] conv4_1/3x3_dwconv/scale -> conv4_1/3x3_dwconv/scale
I0917 10:21:15.620085 32258 net.cpp:124] Setting up conv4_1/3x3_dwconv/scale
I0917 10:21:15.620091 32258 net.cpp:131] Top shape: 25 120 28 28 (2352000)
I0917 10:21:15.620093 32258 net.cpp:139] Memory required for data: 1084539800
I0917 10:21:15.620096 32258 layer_factory.hpp:77] Creating layer conv4_1/3x3_dwconv/scale_fixed_point
I0917 10:21:15.620101 32258 net.cpp:86] Creating Layer conv4_1/3x3_dwconv/scale_fixed_point
I0917 10:21:15.620105 32258 net.cpp:408] conv4_1/3x3_dwconv/scale_fixed_point <- conv4_1/3x3_dwconv/scale
I0917 10:21:15.620110 32258 net.cpp:369] conv4_1/3x3_dwconv/scale_fixed_point -> conv4_1/3x3_dwconv/scale (in-place)
I0917 10:21:15.620136 32258 net.cpp:124] Setting up conv4_1/3x3_dwconv/scale_fixed_point
I0917 10:21:15.620141 32258 net.cpp:131] Top shape: 25 120 28 28 (2352000)
I0917 10:21:15.620143 32258 net.cpp:139] Memory required for data: 1093947800
I0917 10:21:15.620147 32258 layer_factory.hpp:77] Creating layer conv4_1/1x1_decrease
I0917 10:21:15.620157 32258 net.cpp:86] Creating Layer conv4_1/1x1_decrease
I0917 10:21:15.620160 32258 net.cpp:408] conv4_1/1x1_decrease <- conv4_1/3x3_dwconv/scale
I0917 10:21:15.620179 32258 net.cpp:382] conv4_1/1x1_decrease -> conv4_1/1x1_decrease/bn
I0917 10:21:15.620740 32258 net.cpp:124] Setting up conv4_1/1x1_decrease
I0917 10:21:15.620750 32258 net.cpp:131] Top shape: 25 40 28 28 (784000)
I0917 10:21:15.620769 32258 net.cpp:139] Memory required for data: 1097083800
I0917 10:21:15.620774 32258 layer_factory.hpp:77] Creating layer conv4_1/elt_sum
I0917 10:21:15.620780 32258 net.cpp:86] Creating Layer conv4_1/elt_sum
I0917 10:21:15.620784 32258 net.cpp:408] conv4_1/elt_sum <- conv4_0/1x1_decrease/bn_conv4_0/1x1_decrease/bn_fixed_point_0_split_1
I0917 10:21:15.620788 32258 net.cpp:408] conv4_1/elt_sum <- conv4_1/1x1_decrease/bn
I0917 10:21:15.620792 32258 net.cpp:382] conv4_1/elt_sum -> conv4_1/elt_sum
I0917 10:21:15.620826 32258 net.cpp:124] Setting up conv4_1/elt_sum
I0917 10:21:15.620832 32258 net.cpp:131] Top shape: 25 40 28 28 (784000)
I0917 10:21:15.620836 32258 net.cpp:139] Memory required for data: 1100219800
I0917 10:21:15.620837 32258 layer_factory.hpp:77] Creating layer conv4_1/elt_sum_fixed_point
I0917 10:21:15.620851 32258 net.cpp:86] Creating Layer conv4_1/elt_sum_fixed_point
I0917 10:21:15.620854 32258 net.cpp:408] conv4_1/elt_sum_fixed_point <- conv4_1/elt_sum
I0917 10:21:15.620858 32258 net.cpp:369] conv4_1/elt_sum_fixed_point -> conv4_1/elt_sum (in-place)
I0917 10:21:15.620885 32258 net.cpp:124] Setting up conv4_1/elt_sum_fixed_point
I0917 10:21:15.620889 32258 net.cpp:131] Top shape: 25 40 28 28 (784000)
I0917 10:21:15.620893 32258 net.cpp:139] Memory required for data: 1103355800
I0917 10:21:15.620896 32258 layer_factory.hpp:77] Creating layer conv4_1/elt_sum_conv4_1/elt_sum_fixed_point_0_split
I0917 10:21:15.620901 32258 net.cpp:86] Creating Layer conv4_1/elt_sum_conv4_1/elt_sum_fixed_point_0_split
I0917 10:21:15.620904 32258 net.cpp:408] conv4_1/elt_sum_conv4_1/elt_sum_fixed_point_0_split <- conv4_1/elt_sum
I0917 10:21:15.620910 32258 net.cpp:382] conv4_1/elt_sum_conv4_1/elt_sum_fixed_point_0_split -> conv4_1/elt_sum_conv4_1/elt_sum_fixed_point_0_split_0
I0917 10:21:15.620915 32258 net.cpp:382] conv4_1/elt_sum_conv4_1/elt_sum_fixed_point_0_split -> conv4_1/elt_sum_conv4_1/elt_sum_fixed_point_0_split_1
I0917 10:21:15.620949 32258 net.cpp:124] Setting up conv4_1/elt_sum_conv4_1/elt_sum_fixed_point_0_split
I0917 10:21:15.620956 32258 net.cpp:131] Top shape: 25 40 28 28 (784000)
I0917 10:21:15.620959 32258 net.cpp:131] Top shape: 25 40 28 28 (784000)
I0917 10:21:15.620962 32258 net.cpp:139] Memory required for data: 1109627800
I0917 10:21:15.620965 32258 layer_factory.hpp:77] Creating layer conv4_2/1x1_increase
I0917 10:21:15.620973 32258 net.cpp:86] Creating Layer conv4_2/1x1_increase
I0917 10:21:15.620977 32258 net.cpp:408] conv4_2/1x1_increase <- conv4_1/elt_sum_conv4_1/elt_sum_fixed_point_0_split_0
I0917 10:21:15.620981 32258 net.cpp:382] conv4_2/1x1_increase -> conv4_2/1x1_increase/bn
I0917 10:21:15.621541 32258 net.cpp:124] Setting up conv4_2/1x1_increase
I0917 10:21:15.621551 32258 net.cpp:131] Top shape: 25 120 28 28 (2352000)
I0917 10:21:15.621569 32258 net.cpp:139] Memory required for data: 1119035800
I0917 10:21:15.621574 32258 layer_factory.hpp:77] Creating layer conv4_2/1x1_increase/hardswish
I0917 10:21:15.621582 32258 net.cpp:86] Creating Layer conv4_2/1x1_increase/hardswish
I0917 10:21:15.621584 32258 net.cpp:408] conv4_2/1x1_increase/hardswish <- conv4_2/1x1_increase/bn
I0917 10:21:15.621590 32258 net.cpp:369] conv4_2/1x1_increase/hardswish -> conv4_2/1x1_increase/bn (in-place)
I0917 10:21:15.621618 32258 net.cpp:124] Setting up conv4_2/1x1_increase/hardswish
I0917 10:21:15.621624 32258 net.cpp:131] Top shape: 25 120 28 28 (2352000)
I0917 10:21:15.621626 32258 net.cpp:139] Memory required for data: 1128443800
I0917 10:21:15.621629 32258 layer_factory.hpp:77] Creating layer conv4_2/1x1_increase/bn_fixed_point
I0917 10:21:15.621634 32258 net.cpp:86] Creating Layer conv4_2/1x1_increase/bn_fixed_point
I0917 10:21:15.621637 32258 net.cpp:408] conv4_2/1x1_increase/bn_fixed_point <- conv4_2/1x1_increase/bn
I0917 10:21:15.621652 32258 net.cpp:369] conv4_2/1x1_increase/bn_fixed_point -> conv4_2/1x1_increase/bn (in-place)
I0917 10:21:15.621676 32258 net.cpp:124] Setting up conv4_2/1x1_increase/bn_fixed_point
I0917 10:21:15.621681 32258 net.cpp:131] Top shape: 25 120 28 28 (2352000)
I0917 10:21:15.621685 32258 net.cpp:139] Memory required for data: 1137851800
I0917 10:21:15.621696 32258 layer_factory.hpp:77] Creating layer conv4_2/1x1_increase/slice
I0917 10:21:15.621702 32258 net.cpp:86] Creating Layer conv4_2/1x1_increase/slice
I0917 10:21:15.621706 32258 net.cpp:408] conv4_2/1x1_increase/slice <- conv4_2/1x1_increase/bn
I0917 10:21:15.621709 32258 net.cpp:382] conv4_2/1x1_increase/slice -> conv4_2/1x1_increase/split1
I0917 10:21:15.621716 32258 net.cpp:382] conv4_2/1x1_increase/slice -> conv4_2/1x1_increase/split2
I0917 10:21:15.621755 32258 net.cpp:124] Setting up conv4_2/1x1_increase/slice
I0917 10:21:15.621762 32258 net.cpp:131] Top shape: 25 60 28 28 (1176000)
I0917 10:21:15.621764 32258 net.cpp:131] Top shape: 25 60 28 28 (1176000)
I0917 10:21:15.621767 32258 net.cpp:139] Memory required for data: 1147259800
I0917 10:21:15.621769 32258 layer_factory.hpp:77] Creating layer conv4_2/3x3_dwconv/slice_0
I0917 10:21:15.621779 32258 net.cpp:86] Creating Layer conv4_2/3x3_dwconv/slice_0
I0917 10:21:15.621783 32258 net.cpp:408] conv4_2/3x3_dwconv/slice_0 <- conv4_2/1x1_increase/split1
I0917 10:21:15.621793 32258 net.cpp:382] conv4_2/3x3_dwconv/slice_0 -> conv4_2/3x3_dwconv/slice_0/bn
I0917 10:21:15.622325 32258 net.cpp:124] Setting up conv4_2/3x3_dwconv/slice_0
I0917 10:21:15.622334 32258 net.cpp:131] Top shape: 25 60 28 28 (1176000)
I0917 10:21:15.622349 32258 net.cpp:139] Memory required for data: 1151963800
I0917 10:21:15.622354 32258 layer_factory.hpp:77] Creating layer conv4_2/3x3_dwconv/slice_0/hardswish
I0917 10:21:15.622361 32258 net.cpp:86] Creating Layer conv4_2/3x3_dwconv/slice_0/hardswish
I0917 10:21:15.622364 32258 net.cpp:408] conv4_2/3x3_dwconv/slice_0/hardswish <- conv4_2/3x3_dwconv/slice_0/bn
I0917 10:21:15.622368 32258 net.cpp:369] conv4_2/3x3_dwconv/slice_0/hardswish -> conv4_2/3x3_dwconv/slice_0/bn (in-place)
I0917 10:21:15.622397 32258 net.cpp:124] Setting up conv4_2/3x3_dwconv/slice_0/hardswish
I0917 10:21:15.622402 32258 net.cpp:131] Top shape: 25 60 28 28 (1176000)
I0917 10:21:15.622404 32258 net.cpp:139] Memory required for data: 1156667800
I0917 10:21:15.622407 32258 layer_factory.hpp:77] Creating layer conv4_2/3x3_dwconv/slice_1
I0917 10:21:15.622417 32258 net.cpp:86] Creating Layer conv4_2/3x3_dwconv/slice_1
I0917 10:21:15.622421 32258 net.cpp:408] conv4_2/3x3_dwconv/slice_1 <- conv4_2/1x1_increase/split2
I0917 10:21:15.622427 32258 net.cpp:382] conv4_2/3x3_dwconv/slice_1 -> conv4_2/3x3_dwconv/slice_1/bn
I0917 10:21:15.623102 32258 net.cpp:124] Setting up conv4_2/3x3_dwconv/slice_1
I0917 10:21:15.623126 32258 net.cpp:131] Top shape: 25 60 28 28 (1176000)
I0917 10:21:15.623129 32258 net.cpp:139] Memory required for data: 1161371800
I0917 10:21:15.623136 32258 layer_factory.hpp:77] Creating layer conv4_2/3x3_dwconv/slice_1/hardswish
I0917 10:21:15.623140 32258 net.cpp:86] Creating Layer conv4_2/3x3_dwconv/slice_1/hardswish
I0917 10:21:15.623144 32258 net.cpp:408] conv4_2/3x3_dwconv/slice_1/hardswish <- conv4_2/3x3_dwconv/slice_1/bn
I0917 10:21:15.623148 32258 net.cpp:369] conv4_2/3x3_dwconv/slice_1/hardswish -> conv4_2/3x3_dwconv/slice_1/bn (in-place)
I0917 10:21:15.623179 32258 net.cpp:124] Setting up conv4_2/3x3_dwconv/slice_1/hardswish
I0917 10:21:15.623184 32258 net.cpp:131] Top shape: 25 60 28 28 (1176000)
I0917 10:21:15.623188 32258 net.cpp:139] Memory required for data: 1166075800
I0917 10:21:15.623189 32258 layer_factory.hpp:77] Creating layer conv4_2/3x3_dwconv/concat
I0917 10:21:15.623194 32258 net.cpp:86] Creating Layer conv4_2/3x3_dwconv/concat
I0917 10:21:15.623198 32258 net.cpp:408] conv4_2/3x3_dwconv/concat <- conv4_2/3x3_dwconv/slice_0/bn
I0917 10:21:15.623201 32258 net.cpp:408] conv4_2/3x3_dwconv/concat <- conv4_2/3x3_dwconv/slice_1/bn
I0917 10:21:15.623208 32258 net.cpp:382] conv4_2/3x3_dwconv/concat -> conv4_2/3x3_dwconv/concat
I0917 10:21:15.623242 32258 net.cpp:124] Setting up conv4_2/3x3_dwconv/concat
I0917 10:21:15.623250 32258 net.cpp:131] Top shape: 25 120 28 28 (2352000)
I0917 10:21:15.623252 32258 net.cpp:139] Memory required for data: 1175483800
I0917 10:21:15.623255 32258 layer_factory.hpp:77] Creating layer conv4_2/3x3_dwconv/concat_fixed_point
I0917 10:21:15.623261 32258 net.cpp:86] Creating Layer conv4_2/3x3_dwconv/concat_fixed_point
I0917 10:21:15.623265 32258 net.cpp:408] conv4_2/3x3_dwconv/concat_fixed_point <- conv4_2/3x3_dwconv/concat
I0917 10:21:15.623271 32258 net.cpp:369] conv4_2/3x3_dwconv/concat_fixed_point -> conv4_2/3x3_dwconv/concat (in-place)
I0917 10:21:15.623293 32258 net.cpp:124] Setting up conv4_2/3x3_dwconv/concat_fixed_point
I0917 10:21:15.623298 32258 net.cpp:131] Top shape: 25 120 28 28 (2352000)
I0917 10:21:15.623301 32258 net.cpp:139] Memory required for data: 1184891800
I0917 10:21:15.623304 32258 layer_factory.hpp:77] Creating layer conv4_2/3x3_dwconv/concat_conv4_2/3x3_dwconv/concat_fixed_point_0_split
I0917 10:21:15.623311 32258 net.cpp:86] Creating Layer conv4_2/3x3_dwconv/concat_conv4_2/3x3_dwconv/concat_fixed_point_0_split
I0917 10:21:15.623314 32258 net.cpp:408] conv4_2/3x3_dwconv/concat_conv4_2/3x3_dwconv/concat_fixed_point_0_split <- conv4_2/3x3_dwconv/concat
I0917 10:21:15.623318 32258 net.cpp:382] conv4_2/3x3_dwconv/concat_conv4_2/3x3_dwconv/concat_fixed_point_0_split -> conv4_2/3x3_dwconv/concat_conv4_2/3x3_dwconv/concat_fixed_point_0_split_0
I0917 10:21:15.623323 32258 net.cpp:382] conv4_2/3x3_dwconv/concat_conv4_2/3x3_dwconv/concat_fixed_point_0_split -> conv4_2/3x3_dwconv/concat_conv4_2/3x3_dwconv/concat_fixed_point_0_split_1
I0917 10:21:15.623374 32258 net.cpp:124] Setting up conv4_2/3x3_dwconv/concat_conv4_2/3x3_dwconv/concat_fixed_point_0_split
I0917 10:21:15.623380 32258 net.cpp:131] Top shape: 25 120 28 28 (2352000)
I0917 10:21:15.623384 32258 net.cpp:131] Top shape: 25 120 28 28 (2352000)
I0917 10:21:15.623386 32258 net.cpp:139] Memory required for data: 1203707800
I0917 10:21:15.623389 32258 layer_factory.hpp:77] Creating layer conv4_2/3x3_dwconv/SE_global_pool
I0917 10:21:15.623394 32258 net.cpp:86] Creating Layer conv4_2/3x3_dwconv/SE_global_pool
I0917 10:21:15.623396 32258 net.cpp:408] conv4_2/3x3_dwconv/SE_global_pool <- conv4_2/3x3_dwconv/concat_conv4_2/3x3_dwconv/concat_fixed_point_0_split_0
I0917 10:21:15.623402 32258 net.cpp:382] conv4_2/3x3_dwconv/SE_global_pool -> conv4_2/3x3_dwconv/SE_global_pool
I0917 10:21:15.623423 32258 net.cpp:124] Setting up conv4_2/3x3_dwconv/SE_global_pool
I0917 10:21:15.623428 32258 net.cpp:131] Top shape: 25 120 1 1 (3000)
I0917 10:21:15.623430 32258 net.cpp:139] Memory required for data: 1203719800
I0917 10:21:15.623432 32258 layer_factory.hpp:77] Creating layer conv4_2/3x3_dwconv/SE_bn
I0917 10:21:15.623440 32258 net.cpp:86] Creating Layer conv4_2/3x3_dwconv/SE_bn
I0917 10:21:15.623443 32258 net.cpp:408] conv4_2/3x3_dwconv/SE_bn <- conv4_2/3x3_dwconv/SE_global_pool
I0917 10:21:15.623450 32258 net.cpp:382] conv4_2/3x3_dwconv/SE_bn -> conv4_2/3x3_dwconv/SE_bn
I0917 10:21:15.623492 32258 layer_factory.hpp:77] Creating layer conv4_2/3x3_dwconv/SE_bn
I0917 10:21:15.623596 32258 net.cpp:124] Setting up conv4_2/3x3_dwconv/SE_bn
I0917 10:21:15.623602 32258 net.cpp:131] Top shape: 25 120 1 1 (3000)
I0917 10:21:15.623605 32258 net.cpp:139] Memory required for data: 1203731800
I0917 10:21:15.623610 32258 layer_factory.hpp:77] Creating layer conv4_2/3x3_dwconv/SE_fc1
I0917 10:21:15.623616 32258 net.cpp:86] Creating Layer conv4_2/3x3_dwconv/SE_fc1
I0917 10:21:15.623620 32258 net.cpp:408] conv4_2/3x3_dwconv/SE_fc1 <- conv4_2/3x3_dwconv/SE_bn
I0917 10:21:15.623626 32258 net.cpp:382] conv4_2/3x3_dwconv/SE_fc1 -> conv4_2/3x3_dwconv/SE_fc1
I0917 10:21:15.623944 32258 net.cpp:124] Setting up conv4_2/3x3_dwconv/SE_fc1
I0917 10:21:15.623953 32258 net.cpp:131] Top shape: 25 7 1 1 (175)
I0917 10:21:15.623971 32258 net.cpp:139] Memory required for data: 1203732500
I0917 10:21:15.623977 32258 layer_factory.hpp:77] Creating layer conv4_2/3x3_dwconv/SE_fc1/relu
I0917 10:21:15.623991 32258 net.cpp:86] Creating Layer conv4_2/3x3_dwconv/SE_fc1/relu
I0917 10:21:15.623996 32258 net.cpp:408] conv4_2/3x3_dwconv/SE_fc1/relu <- conv4_2/3x3_dwconv/SE_fc1
I0917 10:21:15.624001 32258 net.cpp:369] conv4_2/3x3_dwconv/SE_fc1/relu -> conv4_2/3x3_dwconv/SE_fc1 (in-place)
I0917 10:21:15.624529 32258 net.cpp:124] Setting up conv4_2/3x3_dwconv/SE_fc1/relu
I0917 10:21:15.624538 32258 net.cpp:131] Top shape: 25 7 1 1 (175)
I0917 10:21:15.624541 32258 net.cpp:139] Memory required for data: 1203733200
I0917 10:21:15.624544 32258 layer_factory.hpp:77] Creating layer conv4_2/3x3_dwconv/SE_fc2
I0917 10:21:15.624553 32258 net.cpp:86] Creating Layer conv4_2/3x3_dwconv/SE_fc2
I0917 10:21:15.624557 32258 net.cpp:408] conv4_2/3x3_dwconv/SE_fc2 <- conv4_2/3x3_dwconv/SE_fc1
I0917 10:21:15.624564 32258 net.cpp:382] conv4_2/3x3_dwconv/SE_fc2 -> conv4_2/3x3_dwconv/SE_fc2
I0917 10:21:15.624900 32258 net.cpp:124] Setting up conv4_2/3x3_dwconv/SE_fc2
I0917 10:21:15.624910 32258 net.cpp:131] Top shape: 25 120 1 1 (3000)
I0917 10:21:15.624912 32258 net.cpp:139] Memory required for data: 1203745200
I0917 10:21:15.624917 32258 layer_factory.hpp:77] Creating layer conv4_2/3x3_dwconv/SE_weights
I0917 10:21:15.624922 32258 net.cpp:86] Creating Layer conv4_2/3x3_dwconv/SE_weights
I0917 10:21:15.624924 32258 net.cpp:408] conv4_2/3x3_dwconv/SE_weights <- conv4_2/3x3_dwconv/SE_fc2
I0917 10:21:15.624930 32258 net.cpp:369] conv4_2/3x3_dwconv/SE_weights -> conv4_2/3x3_dwconv/SE_fc2 (in-place)
I0917 10:21:15.625425 32258 net.cpp:124] Setting up conv4_2/3x3_dwconv/SE_weights
I0917 10:21:15.625435 32258 net.cpp:131] Top shape: 25 120 1 1 (3000)
I0917 10:21:15.625453 32258 net.cpp:139] Memory required for data: 1203757200
I0917 10:21:15.625456 32258 layer_factory.hpp:77] Creating layer conv4_2/3x3_dwconv/SE_weights/reshape
I0917 10:21:15.625463 32258 net.cpp:86] Creating Layer conv4_2/3x3_dwconv/SE_weights/reshape
I0917 10:21:15.625468 32258 net.cpp:408] conv4_2/3x3_dwconv/SE_weights/reshape <- conv4_2/3x3_dwconv/SE_fc2
I0917 10:21:15.625475 32258 net.cpp:382] conv4_2/3x3_dwconv/SE_weights/reshape -> conv4_2/3x3_dwconv/SE_weights/reshape
I0917 10:21:15.625507 32258 net.cpp:124] Setting up conv4_2/3x3_dwconv/SE_weights/reshape
I0917 10:21:15.625512 32258 net.cpp:131] Top shape: 25 120 (3000)
I0917 10:21:15.625515 32258 net.cpp:139] Memory required for data: 1203769200
I0917 10:21:15.625517 32258 layer_factory.hpp:77] Creating layer conv4_2/3x3_dwconv/scale
I0917 10:21:15.625524 32258 net.cpp:86] Creating Layer conv4_2/3x3_dwconv/scale
I0917 10:21:15.625526 32258 net.cpp:408] conv4_2/3x3_dwconv/scale <- conv4_2/3x3_dwconv/concat_conv4_2/3x3_dwconv/concat_fixed_point_0_split_1
I0917 10:21:15.625530 32258 net.cpp:408] conv4_2/3x3_dwconv/scale <- conv4_2/3x3_dwconv/SE_weights/reshape
I0917 10:21:15.625535 32258 net.cpp:382] conv4_2/3x3_dwconv/scale -> conv4_2/3x3_dwconv/scale
I0917 10:21:15.625604 32258 net.cpp:124] Setting up conv4_2/3x3_dwconv/scale
I0917 10:21:15.625612 32258 net.cpp:131] Top shape: 25 120 28 28 (2352000)
I0917 10:21:15.625614 32258 net.cpp:139] Memory required for data: 1213177200
I0917 10:21:15.625617 32258 layer_factory.hpp:77] Creating layer conv4_2/3x3_dwconv/scale_fixed_point
I0917 10:21:15.625622 32258 net.cpp:86] Creating Layer conv4_2/3x3_dwconv/scale_fixed_point
I0917 10:21:15.625625 32258 net.cpp:408] conv4_2/3x3_dwconv/scale_fixed_point <- conv4_2/3x3_dwconv/scale
I0917 10:21:15.625630 32258 net.cpp:369] conv4_2/3x3_dwconv/scale_fixed_point -> conv4_2/3x3_dwconv/scale (in-place)
I0917 10:21:15.625655 32258 net.cpp:124] Setting up conv4_2/3x3_dwconv/scale_fixed_point
I0917 10:21:15.625660 32258 net.cpp:131] Top shape: 25 120 28 28 (2352000)
I0917 10:21:15.625663 32258 net.cpp:139] Memory required for data: 1222585200
I0917 10:21:15.625667 32258 layer_factory.hpp:77] Creating layer conv4_2/1x1_decrease
I0917 10:21:15.625676 32258 net.cpp:86] Creating Layer conv4_2/1x1_decrease
I0917 10:21:15.625679 32258 net.cpp:408] conv4_2/1x1_decrease <- conv4_2/3x3_dwconv/scale
I0917 10:21:15.625686 32258 net.cpp:382] conv4_2/1x1_decrease -> conv4_2/1x1_decrease/bn
I0917 10:21:15.626283 32258 net.cpp:124] Setting up conv4_2/1x1_decrease
I0917 10:21:15.626293 32258 net.cpp:131] Top shape: 25 40 28 28 (784000)
I0917 10:21:15.626312 32258 net.cpp:139] Memory required for data: 1225721200
I0917 10:21:15.626318 32258 layer_factory.hpp:77] Creating layer conv4_2/elt_sum
I0917 10:21:15.626325 32258 net.cpp:86] Creating Layer conv4_2/elt_sum
I0917 10:21:15.626328 32258 net.cpp:408] conv4_2/elt_sum <- conv4_1/elt_sum_conv4_1/elt_sum_fixed_point_0_split_1
I0917 10:21:15.626332 32258 net.cpp:408] conv4_2/elt_sum <- conv4_2/1x1_decrease/bn
I0917 10:21:15.626338 32258 net.cpp:382] conv4_2/elt_sum -> conv4_2/elt_sum
I0917 10:21:15.626369 32258 net.cpp:124] Setting up conv4_2/elt_sum
I0917 10:21:15.626374 32258 net.cpp:131] Top shape: 25 40 28 28 (784000)
I0917 10:21:15.626377 32258 net.cpp:139] Memory required for data: 1228857200
I0917 10:21:15.626379 32258 layer_factory.hpp:77] Creating layer conv4_2/elt_sum_fixed_point
I0917 10:21:15.626386 32258 net.cpp:86] Creating Layer conv4_2/elt_sum_fixed_point
I0917 10:21:15.626389 32258 net.cpp:408] conv4_2/elt_sum_fixed_point <- conv4_2/elt_sum
I0917 10:21:15.626394 32258 net.cpp:369] conv4_2/elt_sum_fixed_point -> conv4_2/elt_sum (in-place)
I0917 10:21:15.626421 32258 net.cpp:124] Setting up conv4_2/elt_sum_fixed_point
I0917 10:21:15.626426 32258 net.cpp:131] Top shape: 25 40 28 28 (784000)
I0917 10:21:15.626428 32258 net.cpp:139] Memory required for data: 1231993200
I0917 10:21:15.626432 32258 layer_factory.hpp:77] Creating layer conv4_2/elt_sum_conv4_2/elt_sum_fixed_point_0_split
I0917 10:21:15.626437 32258 net.cpp:86] Creating Layer conv4_2/elt_sum_conv4_2/elt_sum_fixed_point_0_split
I0917 10:21:15.626442 32258 net.cpp:408] conv4_2/elt_sum_conv4_2/elt_sum_fixed_point_0_split <- conv4_2/elt_sum
I0917 10:21:15.626446 32258 net.cpp:382] conv4_2/elt_sum_conv4_2/elt_sum_fixed_point_0_split -> conv4_2/elt_sum_conv4_2/elt_sum_fixed_point_0_split_0
I0917 10:21:15.626451 32258 net.cpp:382] conv4_2/elt_sum_conv4_2/elt_sum_fixed_point_0_split -> conv4_2/elt_sum_conv4_2/elt_sum_fixed_point_0_split_1
I0917 10:21:15.626489 32258 net.cpp:124] Setting up conv4_2/elt_sum_conv4_2/elt_sum_fixed_point_0_split
I0917 10:21:15.626495 32258 net.cpp:131] Top shape: 25 40 28 28 (784000)
I0917 10:21:15.626499 32258 net.cpp:131] Top shape: 25 40 28 28 (784000)
I0917 10:21:15.626502 32258 net.cpp:139] Memory required for data: 1238265200
I0917 10:21:15.626504 32258 layer_factory.hpp:77] Creating layer conv4_3/1x1_increase
I0917 10:21:15.626518 32258 net.cpp:86] Creating Layer conv4_3/1x1_increase
I0917 10:21:15.626520 32258 net.cpp:408] conv4_3/1x1_increase <- conv4_2/elt_sum_conv4_2/elt_sum_fixed_point_0_split_0
I0917 10:21:15.626528 32258 net.cpp:382] conv4_3/1x1_increase -> conv4_3/1x1_increase/bn
I0917 10:21:15.627318 32258 net.cpp:124] Setting up conv4_3/1x1_increase
I0917 10:21:15.627329 32258 net.cpp:131] Top shape: 25 120 28 28 (2352000)
I0917 10:21:15.627348 32258 net.cpp:139] Memory required for data: 1247673200
I0917 10:21:15.627355 32258 layer_factory.hpp:77] Creating layer conv4_3/1x1_increase/hardswish
I0917 10:21:15.627363 32258 net.cpp:86] Creating Layer conv4_3/1x1_increase/hardswish
I0917 10:21:15.627367 32258 net.cpp:408] conv4_3/1x1_increase/hardswish <- conv4_3/1x1_increase/bn
I0917 10:21:15.627372 32258 net.cpp:369] conv4_3/1x1_increase/hardswish -> conv4_3/1x1_increase/bn (in-place)
I0917 10:21:15.627399 32258 net.cpp:124] Setting up conv4_3/1x1_increase/hardswish
I0917 10:21:15.627404 32258 net.cpp:131] Top shape: 25 120 28 28 (2352000)
I0917 10:21:15.627408 32258 net.cpp:139] Memory required for data: 1257081200
I0917 10:21:15.627409 32258 layer_factory.hpp:77] Creating layer conv4_3/1x1_increase/bn_fixed_point
I0917 10:21:15.627416 32258 net.cpp:86] Creating Layer conv4_3/1x1_increase/bn_fixed_point
I0917 10:21:15.627419 32258 net.cpp:408] conv4_3/1x1_increase/bn_fixed_point <- conv4_3/1x1_increase/bn
I0917 10:21:15.627425 32258 net.cpp:369] conv4_3/1x1_increase/bn_fixed_point -> conv4_3/1x1_increase/bn (in-place)
I0917 10:21:15.627460 32258 net.cpp:124] Setting up conv4_3/1x1_increase/bn_fixed_point
I0917 10:21:15.627466 32258 net.cpp:131] Top shape: 25 120 28 28 (2352000)
I0917 10:21:15.627468 32258 net.cpp:139] Memory required for data: 1266489200
I0917 10:21:15.627472 32258 layer_factory.hpp:77] Creating layer conv4_3/1x1_increase/slice
I0917 10:21:15.627480 32258 net.cpp:86] Creating Layer conv4_3/1x1_increase/slice
I0917 10:21:15.627482 32258 net.cpp:408] conv4_3/1x1_increase/slice <- conv4_3/1x1_increase/bn
I0917 10:21:15.627486 32258 net.cpp:382] conv4_3/1x1_increase/slice -> conv4_3/1x1_increase/split1
I0917 10:21:15.627493 32258 net.cpp:382] conv4_3/1x1_increase/slice -> conv4_3/1x1_increase/split2
I0917 10:21:15.627533 32258 net.cpp:124] Setting up conv4_3/1x1_increase/slice
I0917 10:21:15.627540 32258 net.cpp:131] Top shape: 25 60 28 28 (1176000)
I0917 10:21:15.627544 32258 net.cpp:131] Top shape: 25 60 28 28 (1176000)
I0917 10:21:15.627547 32258 net.cpp:139] Memory required for data: 1275897200
I0917 10:21:15.627548 32258 layer_factory.hpp:77] Creating layer conv4_3/3x3_dwconv/slice_0
I0917 10:21:15.627559 32258 net.cpp:86] Creating Layer conv4_3/3x3_dwconv/slice_0
I0917 10:21:15.627563 32258 net.cpp:408] conv4_3/3x3_dwconv/slice_0 <- conv4_3/1x1_increase/split1
I0917 10:21:15.627570 32258 net.cpp:382] conv4_3/3x3_dwconv/slice_0 -> conv4_3/3x3_dwconv/slice_0/bn
I0917 10:21:15.628046 32258 net.cpp:124] Setting up conv4_3/3x3_dwconv/slice_0
I0917 10:21:15.628057 32258 net.cpp:131] Top shape: 25 60 28 28 (1176000)
I0917 10:21:15.628069 32258 net.cpp:139] Memory required for data: 1280601200
I0917 10:21:15.628074 32258 layer_factory.hpp:77] Creating layer conv4_3/3x3_dwconv/slice_0/hardswish
I0917 10:21:15.628080 32258 net.cpp:86] Creating Layer conv4_3/3x3_dwconv/slice_0/hardswish
I0917 10:21:15.628083 32258 net.cpp:408] conv4_3/3x3_dwconv/slice_0/hardswish <- conv4_3/3x3_dwconv/slice_0/bn
I0917 10:21:15.628087 32258 net.cpp:369] conv4_3/3x3_dwconv/slice_0/hardswish -> conv4_3/3x3_dwconv/slice_0/bn (in-place)
I0917 10:21:15.628118 32258 net.cpp:124] Setting up conv4_3/3x3_dwconv/slice_0/hardswish
I0917 10:21:15.628123 32258 net.cpp:131] Top shape: 25 60 28 28 (1176000)
I0917 10:21:15.628125 32258 net.cpp:139] Memory required for data: 1285305200
I0917 10:21:15.628129 32258 layer_factory.hpp:77] Creating layer conv4_3/3x3_dwconv/slice_1
I0917 10:21:15.628139 32258 net.cpp:86] Creating Layer conv4_3/3x3_dwconv/slice_1
I0917 10:21:15.628141 32258 net.cpp:408] conv4_3/3x3_dwconv/slice_1 <- conv4_3/1x1_increase/split2
I0917 10:21:15.628149 32258 net.cpp:382] conv4_3/3x3_dwconv/slice_1 -> conv4_3/3x3_dwconv/slice_1/bn
I0917 10:21:15.628854 32258 net.cpp:124] Setting up conv4_3/3x3_dwconv/slice_1
I0917 10:21:15.628865 32258 net.cpp:131] Top shape: 25 60 28 28 (1176000)
I0917 10:21:15.628880 32258 net.cpp:139] Memory required for data: 1290009200
I0917 10:21:15.628885 32258 layer_factory.hpp:77] Creating layer conv4_3/3x3_dwconv/slice_1/hardswish
I0917 10:21:15.628893 32258 net.cpp:86] Creating Layer conv4_3/3x3_dwconv/slice_1/hardswish
I0917 10:21:15.628897 32258 net.cpp:408] conv4_3/3x3_dwconv/slice_1/hardswish <- conv4_3/3x3_dwconv/slice_1/bn
I0917 10:21:15.628903 32258 net.cpp:369] conv4_3/3x3_dwconv/slice_1/hardswish -> conv4_3/3x3_dwconv/slice_1/bn (in-place)
I0917 10:21:15.628932 32258 net.cpp:124] Setting up conv4_3/3x3_dwconv/slice_1/hardswish
I0917 10:21:15.628937 32258 net.cpp:131] Top shape: 25 60 28 28 (1176000)
I0917 10:21:15.628940 32258 net.cpp:139] Memory required for data: 1294713200
I0917 10:21:15.628942 32258 layer_factory.hpp:77] Creating layer conv4_3/3x3_dwconv/concat
I0917 10:21:15.628948 32258 net.cpp:86] Creating Layer conv4_3/3x3_dwconv/concat
I0917 10:21:15.628952 32258 net.cpp:408] conv4_3/3x3_dwconv/concat <- conv4_3/3x3_dwconv/slice_0/bn
I0917 10:21:15.628954 32258 net.cpp:408] conv4_3/3x3_dwconv/concat <- conv4_3/3x3_dwconv/slice_1/bn
I0917 10:21:15.628962 32258 net.cpp:382] conv4_3/3x3_dwconv/concat -> conv4_3/3x3_dwconv/concat
I0917 10:21:15.628986 32258 net.cpp:124] Setting up conv4_3/3x3_dwconv/concat
I0917 10:21:15.629003 32258 net.cpp:131] Top shape: 25 120 28 28 (2352000)
I0917 10:21:15.629005 32258 net.cpp:139] Memory required for data: 1304121200
I0917 10:21:15.629009 32258 layer_factory.hpp:77] Creating layer conv4_3/3x3_dwconv/concat_fixed_point
I0917 10:21:15.629014 32258 net.cpp:86] Creating Layer conv4_3/3x3_dwconv/concat_fixed_point
I0917 10:21:15.629016 32258 net.cpp:408] conv4_3/3x3_dwconv/concat_fixed_point <- conv4_3/3x3_dwconv/concat
I0917 10:21:15.629022 32258 net.cpp:369] conv4_3/3x3_dwconv/concat_fixed_point -> conv4_3/3x3_dwconv/concat (in-place)
I0917 10:21:15.629050 32258 net.cpp:124] Setting up conv4_3/3x3_dwconv/concat_fixed_point
I0917 10:21:15.629055 32258 net.cpp:131] Top shape: 25 120 28 28 (2352000)
I0917 10:21:15.629058 32258 net.cpp:139] Memory required for data: 1313529200
I0917 10:21:15.629062 32258 layer_factory.hpp:77] Creating layer conv4_3/3x3_dwconv/concat_conv4_3/3x3_dwconv/concat_fixed_point_0_split
I0917 10:21:15.629066 32258 net.cpp:86] Creating Layer conv4_3/3x3_dwconv/concat_conv4_3/3x3_dwconv/concat_fixed_point_0_split
I0917 10:21:15.629070 32258 net.cpp:408] conv4_3/3x3_dwconv/concat_conv4_3/3x3_dwconv/concat_fixed_point_0_split <- conv4_3/3x3_dwconv/concat
I0917 10:21:15.629073 32258 net.cpp:382] conv4_3/3x3_dwconv/concat_conv4_3/3x3_dwconv/concat_fixed_point_0_split -> conv4_3/3x3_dwconv/concat_conv4_3/3x3_dwconv/concat_fixed_point_0_split_0
I0917 10:21:15.629078 32258 net.cpp:382] conv4_3/3x3_dwconv/concat_conv4_3/3x3_dwconv/concat_fixed_point_0_split -> conv4_3/3x3_dwconv/concat_conv4_3/3x3_dwconv/concat_fixed_point_0_split_1
I0917 10:21:15.629127 32258 net.cpp:124] Setting up conv4_3/3x3_dwconv/concat_conv4_3/3x3_dwconv/concat_fixed_point_0_split
I0917 10:21:15.629132 32258 net.cpp:131] Top shape: 25 120 28 28 (2352000)
I0917 10:21:15.629135 32258 net.cpp:131] Top shape: 25 120 28 28 (2352000)
I0917 10:21:15.629137 32258 net.cpp:139] Memory required for data: 1332345200
I0917 10:21:15.629140 32258 layer_factory.hpp:77] Creating layer conv4_3/3x3_dwconv/SE_global_pool
I0917 10:21:15.629148 32258 net.cpp:86] Creating Layer conv4_3/3x3_dwconv/SE_global_pool
I0917 10:21:15.629151 32258 net.cpp:408] conv4_3/3x3_dwconv/SE_global_pool <- conv4_3/3x3_dwconv/concat_conv4_3/3x3_dwconv/concat_fixed_point_0_split_0
I0917 10:21:15.629155 32258 net.cpp:382] conv4_3/3x3_dwconv/SE_global_pool -> conv4_3/3x3_dwconv/SE_global_pool
I0917 10:21:15.629179 32258 net.cpp:124] Setting up conv4_3/3x3_dwconv/SE_global_pool
I0917 10:21:15.629184 32258 net.cpp:131] Top shape: 25 120 1 1 (3000)
I0917 10:21:15.629187 32258 net.cpp:139] Memory required for data: 1332357200
I0917 10:21:15.629190 32258 layer_factory.hpp:77] Creating layer conv4_3/3x3_dwconv/SE_bn
I0917 10:21:15.629194 32258 net.cpp:86] Creating Layer conv4_3/3x3_dwconv/SE_bn
I0917 10:21:15.629197 32258 net.cpp:408] conv4_3/3x3_dwconv/SE_bn <- conv4_3/3x3_dwconv/SE_global_pool
I0917 10:21:15.629204 32258 net.cpp:382] conv4_3/3x3_dwconv/SE_bn -> conv4_3/3x3_dwconv/SE_bn
I0917 10:21:15.629245 32258 layer_factory.hpp:77] Creating layer conv4_3/3x3_dwconv/SE_bn
I0917 10:21:15.629349 32258 net.cpp:124] Setting up conv4_3/3x3_dwconv/SE_bn
I0917 10:21:15.629356 32258 net.cpp:131] Top shape: 25 120 1 1 (3000)
I0917 10:21:15.629359 32258 net.cpp:139] Memory required for data: 1332369200
I0917 10:21:15.629364 32258 layer_factory.hpp:77] Creating layer conv4_3/3x3_dwconv/SE_fc1
I0917 10:21:15.629371 32258 net.cpp:86] Creating Layer conv4_3/3x3_dwconv/SE_fc1
I0917 10:21:15.629375 32258 net.cpp:408] conv4_3/3x3_dwconv/SE_fc1 <- conv4_3/3x3_dwconv/SE_bn
I0917 10:21:15.629379 32258 net.cpp:382] conv4_3/3x3_dwconv/SE_fc1 -> conv4_3/3x3_dwconv/SE_fc1
I0917 10:21:15.629689 32258 net.cpp:124] Setting up conv4_3/3x3_dwconv/SE_fc1
I0917 10:21:15.629699 32258 net.cpp:131] Top shape: 25 7 1 1 (175)
I0917 10:21:15.629701 32258 net.cpp:139] Memory required for data: 1332369900
I0917 10:21:15.629705 32258 layer_factory.hpp:77] Creating layer conv4_3/3x3_dwconv/SE_fc1/relu
I0917 10:21:15.629711 32258 net.cpp:86] Creating Layer conv4_3/3x3_dwconv/SE_fc1/relu
I0917 10:21:15.629721 32258 net.cpp:408] conv4_3/3x3_dwconv/SE_fc1/relu <- conv4_3/3x3_dwconv/SE_fc1
I0917 10:21:15.629727 32258 net.cpp:369] conv4_3/3x3_dwconv/SE_fc1/relu -> conv4_3/3x3_dwconv/SE_fc1 (in-place)
I0917 10:21:15.630407 32258 net.cpp:124] Setting up conv4_3/3x3_dwconv/SE_fc1/relu
I0917 10:21:15.630419 32258 net.cpp:131] Top shape: 25 7 1 1 (175)
I0917 10:21:15.630422 32258 net.cpp:139] Memory required for data: 1332370600
I0917 10:21:15.630425 32258 layer_factory.hpp:77] Creating layer conv4_3/3x3_dwconv/SE_fc2
I0917 10:21:15.630437 32258 net.cpp:86] Creating Layer conv4_3/3x3_dwconv/SE_fc2
I0917 10:21:15.630441 32258 net.cpp:408] conv4_3/3x3_dwconv/SE_fc2 <- conv4_3/3x3_dwconv/SE_fc1
I0917 10:21:15.630447 32258 net.cpp:382] conv4_3/3x3_dwconv/SE_fc2 -> conv4_3/3x3_dwconv/SE_fc2
I0917 10:21:15.630776 32258 net.cpp:124] Setting up conv4_3/3x3_dwconv/SE_fc2
I0917 10:21:15.630786 32258 net.cpp:131] Top shape: 25 120 1 1 (3000)
I0917 10:21:15.630789 32258 net.cpp:139] Memory required for data: 1332382600
I0917 10:21:15.630793 32258 layer_factory.hpp:77] Creating layer conv4_3/3x3_dwconv/SE_weights
I0917 10:21:15.630798 32258 net.cpp:86] Creating Layer conv4_3/3x3_dwconv/SE_weights
I0917 10:21:15.630802 32258 net.cpp:408] conv4_3/3x3_dwconv/SE_weights <- conv4_3/3x3_dwconv/SE_fc2
I0917 10:21:15.630810 32258 net.cpp:369] conv4_3/3x3_dwconv/SE_weights -> conv4_3/3x3_dwconv/SE_fc2 (in-place)
I0917 10:21:15.631314 32258 net.cpp:124] Setting up conv4_3/3x3_dwconv/SE_weights
I0917 10:21:15.631323 32258 net.cpp:131] Top shape: 25 120 1 1 (3000)
I0917 10:21:15.631326 32258 net.cpp:139] Memory required for data: 1332394600
I0917 10:21:15.631330 32258 layer_factory.hpp:77] Creating layer conv4_3/3x3_dwconv/SE_weights/reshape
I0917 10:21:15.631335 32258 net.cpp:86] Creating Layer conv4_3/3x3_dwconv/SE_weights/reshape
I0917 10:21:15.631338 32258 net.cpp:408] conv4_3/3x3_dwconv/SE_weights/reshape <- conv4_3/3x3_dwconv/SE_fc2
I0917 10:21:15.631345 32258 net.cpp:382] conv4_3/3x3_dwconv/SE_weights/reshape -> conv4_3/3x3_dwconv/SE_weights/reshape
I0917 10:21:15.631374 32258 net.cpp:124] Setting up conv4_3/3x3_dwconv/SE_weights/reshape
I0917 10:21:15.631379 32258 net.cpp:131] Top shape: 25 120 (3000)
I0917 10:21:15.631382 32258 net.cpp:139] Memory required for data: 1332406600
I0917 10:21:15.631384 32258 layer_factory.hpp:77] Creating layer conv4_3/3x3_dwconv/scale
I0917 10:21:15.631392 32258 net.cpp:86] Creating Layer conv4_3/3x3_dwconv/scale
I0917 10:21:15.631394 32258 net.cpp:408] conv4_3/3x3_dwconv/scale <- conv4_3/3x3_dwconv/concat_conv4_3/3x3_dwconv/concat_fixed_point_0_split_1
I0917 10:21:15.631398 32258 net.cpp:408] conv4_3/3x3_dwconv/scale <- conv4_3/3x3_dwconv/SE_weights/reshape
I0917 10:21:15.631404 32258 net.cpp:382] conv4_3/3x3_dwconv/scale -> conv4_3/3x3_dwconv/scale
I0917 10:21:15.631474 32258 net.cpp:124] Setting up conv4_3/3x3_dwconv/scale
I0917 10:21:15.631480 32258 net.cpp:131] Top shape: 25 120 28 28 (2352000)
I0917 10:21:15.631484 32258 net.cpp:139] Memory required for data: 1341814600
I0917 10:21:15.631486 32258 layer_factory.hpp:77] Creating layer conv4_3/3x3_dwconv/scale_fixed_point
I0917 10:21:15.631494 32258 net.cpp:86] Creating Layer conv4_3/3x3_dwconv/scale_fixed_point
I0917 10:21:15.631496 32258 net.cpp:408] conv4_3/3x3_dwconv/scale_fixed_point <- conv4_3/3x3_dwconv/scale
I0917 10:21:15.631500 32258 net.cpp:369] conv4_3/3x3_dwconv/scale_fixed_point -> conv4_3/3x3_dwconv/scale (in-place)
I0917 10:21:15.631525 32258 net.cpp:124] Setting up conv4_3/3x3_dwconv/scale_fixed_point
I0917 10:21:15.631530 32258 net.cpp:131] Top shape: 25 120 28 28 (2352000)
I0917 10:21:15.631532 32258 net.cpp:139] Memory required for data: 1351222600
I0917 10:21:15.631536 32258 layer_factory.hpp:77] Creating layer conv4_3/1x1_decrease
I0917 10:21:15.631546 32258 net.cpp:86] Creating Layer conv4_3/1x1_decrease
I0917 10:21:15.631549 32258 net.cpp:408] conv4_3/1x1_decrease <- conv4_3/3x3_dwconv/scale
I0917 10:21:15.631553 32258 net.cpp:382] conv4_3/1x1_decrease -> conv4_3/1x1_decrease/bn
I0917 10:21:15.632108 32258 net.cpp:124] Setting up conv4_3/1x1_decrease
I0917 10:21:15.632119 32258 net.cpp:131] Top shape: 25 40 28 28 (784000)
I0917 10:21:15.632122 32258 net.cpp:139] Memory required for data: 1354358600
I0917 10:21:15.632128 32258 layer_factory.hpp:77] Creating layer conv4_3/elt_sum
I0917 10:21:15.632135 32258 net.cpp:86] Creating Layer conv4_3/elt_sum
I0917 10:21:15.632138 32258 net.cpp:408] conv4_3/elt_sum <- conv4_2/elt_sum_conv4_2/elt_sum_fixed_point_0_split_1
I0917 10:21:15.632143 32258 net.cpp:408] conv4_3/elt_sum <- conv4_3/1x1_decrease/bn
I0917 10:21:15.632148 32258 net.cpp:382] conv4_3/elt_sum -> conv4_3/elt_sum
I0917 10:21:15.632177 32258 net.cpp:124] Setting up conv4_3/elt_sum
I0917 10:21:15.632184 32258 net.cpp:131] Top shape: 25 40 28 28 (784000)
I0917 10:21:15.632186 32258 net.cpp:139] Memory required for data: 1357494600
I0917 10:21:15.632189 32258 layer_factory.hpp:77] Creating layer conv4_3/elt_sum_fixed_point
I0917 10:21:15.632196 32258 net.cpp:86] Creating Layer conv4_3/elt_sum_fixed_point
I0917 10:21:15.632200 32258 net.cpp:408] conv4_3/elt_sum_fixed_point <- conv4_3/elt_sum
I0917 10:21:15.632203 32258 net.cpp:369] conv4_3/elt_sum_fixed_point -> conv4_3/elt_sum (in-place)
I0917 10:21:15.632230 32258 net.cpp:124] Setting up conv4_3/elt_sum_fixed_point
I0917 10:21:15.632236 32258 net.cpp:131] Top shape: 25 40 28 28 (784000)
I0917 10:21:15.632237 32258 net.cpp:139] Memory required for data: 1360630600
I0917 10:21:15.632241 32258 layer_factory.hpp:77] Creating layer conv5_0/1x1_increase
I0917 10:21:15.632251 32258 net.cpp:86] Creating Layer conv5_0/1x1_increase
I0917 10:21:15.632254 32258 net.cpp:408] conv5_0/1x1_increase <- conv4_3/elt_sum
I0917 10:21:15.632262 32258 net.cpp:382] conv5_0/1x1_increase -> conv5_0/1x1_increase/bn
I0917 10:21:15.632941 32258 net.cpp:124] Setting up conv5_0/1x1_increase
I0917 10:21:15.632951 32258 net.cpp:131] Top shape: 25 240 28 28 (4704000)
I0917 10:21:15.632964 32258 net.cpp:139] Memory required for data: 1379446600
I0917 10:21:15.632970 32258 layer_factory.hpp:77] Creating layer conv5_0/1x1_increase/hardswish
I0917 10:21:15.632977 32258 net.cpp:86] Creating Layer conv5_0/1x1_increase/hardswish
I0917 10:21:15.632980 32258 net.cpp:408] conv5_0/1x1_increase/hardswish <- conv5_0/1x1_increase/bn
I0917 10:21:15.632985 32258 net.cpp:369] conv5_0/1x1_increase/hardswish -> conv5_0/1x1_increase/bn (in-place)
I0917 10:21:15.633014 32258 net.cpp:124] Setting up conv5_0/1x1_increase/hardswish
I0917 10:21:15.633019 32258 net.cpp:131] Top shape: 25 240 28 28 (4704000)
I0917 10:21:15.633023 32258 net.cpp:139] Memory required for data: 1398262600
I0917 10:21:15.633024 32258 layer_factory.hpp:77] Creating layer conv5_0/1x1_increase/bn_fixed_point
I0917 10:21:15.633029 32258 net.cpp:86] Creating Layer conv5_0/1x1_increase/bn_fixed_point
I0917 10:21:15.633033 32258 net.cpp:408] conv5_0/1x1_increase/bn_fixed_point <- conv5_0/1x1_increase/bn
I0917 10:21:15.633038 32258 net.cpp:369] conv5_0/1x1_increase/bn_fixed_point -> conv5_0/1x1_increase/bn (in-place)
I0917 10:21:15.633064 32258 net.cpp:124] Setting up conv5_0/1x1_increase/bn_fixed_point
I0917 10:21:15.633069 32258 net.cpp:131] Top shape: 25 240 28 28 (4704000)
I0917 10:21:15.633071 32258 net.cpp:139] Memory required for data: 1417078600
I0917 10:21:15.633074 32258 layer_factory.hpp:77] Creating layer conv5_0/1x1_increase/slice
I0917 10:21:15.633086 32258 net.cpp:86] Creating Layer conv5_0/1x1_increase/slice
I0917 10:21:15.633090 32258 net.cpp:408] conv5_0/1x1_increase/slice <- conv5_0/1x1_increase/bn
I0917 10:21:15.633095 32258 net.cpp:382] conv5_0/1x1_increase/slice -> conv5_0/1x1_increase/split1
I0917 10:21:15.633100 32258 net.cpp:382] conv5_0/1x1_increase/slice -> conv5_0/1x1_increase/split2
I0917 10:21:15.633111 32258 net.cpp:382] conv5_0/1x1_increase/slice -> conv5_0/1x1_increase/split3
I0917 10:21:15.633165 32258 net.cpp:124] Setting up conv5_0/1x1_increase/slice
I0917 10:21:15.633172 32258 net.cpp:131] Top shape: 25 80 28 28 (1568000)
I0917 10:21:15.633175 32258 net.cpp:131] Top shape: 25 80 28 28 (1568000)
I0917 10:21:15.633188 32258 net.cpp:131] Top shape: 25 80 28 28 (1568000)
I0917 10:21:15.633190 32258 net.cpp:139] Memory required for data: 1435894600
I0917 10:21:15.633193 32258 layer_factory.hpp:77] Creating layer conv5_0/3x3_dwconv/slice_0
I0917 10:21:15.633216 32258 net.cpp:86] Creating Layer conv5_0/3x3_dwconv/slice_0
I0917 10:21:15.633221 32258 net.cpp:408] conv5_0/3x3_dwconv/slice_0 <- conv5_0/1x1_increase/split1
I0917 10:21:15.633229 32258 net.cpp:382] conv5_0/3x3_dwconv/slice_0 -> conv5_0/3x3_dwconv/slice_0/bn
I0917 10:21:15.633694 32258 net.cpp:124] Setting up conv5_0/3x3_dwconv/slice_0
I0917 10:21:15.633707 32258 net.cpp:131] Top shape: 25 80 14 14 (392000)
I0917 10:21:15.633719 32258 net.cpp:139] Memory required for data: 1437462600
I0917 10:21:15.633725 32258 layer_factory.hpp:77] Creating layer conv5_0/3x3_dwconv/slice_0/hardswish
I0917 10:21:15.633730 32258 net.cpp:86] Creating Layer conv5_0/3x3_dwconv/slice_0/hardswish
I0917 10:21:15.633734 32258 net.cpp:408] conv5_0/3x3_dwconv/slice_0/hardswish <- conv5_0/3x3_dwconv/slice_0/bn
I0917 10:21:15.633738 32258 net.cpp:369] conv5_0/3x3_dwconv/slice_0/hardswish -> conv5_0/3x3_dwconv/slice_0/bn (in-place)
I0917 10:21:15.633767 32258 net.cpp:124] Setting up conv5_0/3x3_dwconv/slice_0/hardswish
I0917 10:21:15.633772 32258 net.cpp:131] Top shape: 25 80 14 14 (392000)
I0917 10:21:15.633775 32258 net.cpp:139] Memory required for data: 1439030600
I0917 10:21:15.633778 32258 layer_factory.hpp:77] Creating layer conv5_0/3x3_dwconv/slice_1
I0917 10:21:15.633788 32258 net.cpp:86] Creating Layer conv5_0/3x3_dwconv/slice_1
I0917 10:21:15.633791 32258 net.cpp:408] conv5_0/3x3_dwconv/slice_1 <- conv5_0/1x1_increase/split2
I0917 10:21:15.633798 32258 net.cpp:382] conv5_0/3x3_dwconv/slice_1 -> conv5_0/3x3_dwconv/slice_1/bn
I0917 10:21:15.634328 32258 net.cpp:124] Setting up conv5_0/3x3_dwconv/slice_1
I0917 10:21:15.634341 32258 net.cpp:131] Top shape: 25 80 14 14 (392000)
I0917 10:21:15.634344 32258 net.cpp:139] Memory required for data: 1440598600
I0917 10:21:15.634351 32258 layer_factory.hpp:77] Creating layer conv5_0/3x3_dwconv/slice_1/hardswish
I0917 10:21:15.634356 32258 net.cpp:86] Creating Layer conv5_0/3x3_dwconv/slice_1/hardswish
I0917 10:21:15.634359 32258 net.cpp:408] conv5_0/3x3_dwconv/slice_1/hardswish <- conv5_0/3x3_dwconv/slice_1/bn
I0917 10:21:15.634363 32258 net.cpp:369] conv5_0/3x3_dwconv/slice_1/hardswish -> conv5_0/3x3_dwconv/slice_1/bn (in-place)
I0917 10:21:15.634392 32258 net.cpp:124] Setting up conv5_0/3x3_dwconv/slice_1/hardswish
I0917 10:21:15.634397 32258 net.cpp:131] Top shape: 25 80 14 14 (392000)
I0917 10:21:15.634400 32258 net.cpp:139] Memory required for data: 1442166600
I0917 10:21:15.634403 32258 layer_factory.hpp:77] Creating layer conv5_0/3x3_dwconv/slice_2
I0917 10:21:15.634413 32258 net.cpp:86] Creating Layer conv5_0/3x3_dwconv/slice_2
I0917 10:21:15.634415 32258 net.cpp:408] conv5_0/3x3_dwconv/slice_2 <- conv5_0/1x1_increase/split3
I0917 10:21:15.634423 32258 net.cpp:382] conv5_0/3x3_dwconv/slice_2 -> conv5_0/3x3_dwconv/slice_2/bn
I0917 10:21:15.635167 32258 net.cpp:124] Setting up conv5_0/3x3_dwconv/slice_2
I0917 10:21:15.635179 32258 net.cpp:131] Top shape: 25 80 14 14 (392000)
I0917 10:21:15.635182 32258 net.cpp:139] Memory required for data: 1443734600
I0917 10:21:15.635188 32258 layer_factory.hpp:77] Creating layer conv5_0/3x3_dwconv/slice_2/hardswish
I0917 10:21:15.635196 32258 net.cpp:86] Creating Layer conv5_0/3x3_dwconv/slice_2/hardswish
I0917 10:21:15.635200 32258 net.cpp:408] conv5_0/3x3_dwconv/slice_2/hardswish <- conv5_0/3x3_dwconv/slice_2/bn
I0917 10:21:15.635205 32258 net.cpp:369] conv5_0/3x3_dwconv/slice_2/hardswish -> conv5_0/3x3_dwconv/slice_2/bn (in-place)
I0917 10:21:15.635236 32258 net.cpp:124] Setting up conv5_0/3x3_dwconv/slice_2/hardswish
I0917 10:21:15.635243 32258 net.cpp:131] Top shape: 25 80 14 14 (392000)
I0917 10:21:15.635246 32258 net.cpp:139] Memory required for data: 1445302600
I0917 10:21:15.635248 32258 layer_factory.hpp:77] Creating layer conv5_0/3x3_dwconv/concat
I0917 10:21:15.635253 32258 net.cpp:86] Creating Layer conv5_0/3x3_dwconv/concat
I0917 10:21:15.635267 32258 net.cpp:408] conv5_0/3x3_dwconv/concat <- conv5_0/3x3_dwconv/slice_0/bn
I0917 10:21:15.635270 32258 net.cpp:408] conv5_0/3x3_dwconv/concat <- conv5_0/3x3_dwconv/slice_1/bn
I0917 10:21:15.635273 32258 net.cpp:408] conv5_0/3x3_dwconv/concat <- conv5_0/3x3_dwconv/slice_2/bn
I0917 10:21:15.635280 32258 net.cpp:382] conv5_0/3x3_dwconv/concat -> conv5_0/3x3_dwconv/concat
I0917 10:21:15.635305 32258 net.cpp:124] Setting up conv5_0/3x3_dwconv/concat
I0917 10:21:15.635313 32258 net.cpp:131] Top shape: 25 240 14 14 (1176000)
I0917 10:21:15.635316 32258 net.cpp:139] Memory required for data: 1450006600
I0917 10:21:15.635320 32258 layer_factory.hpp:77] Creating layer conv5_0/3x3_dwconv/concat_fixed_point
I0917 10:21:15.635325 32258 net.cpp:86] Creating Layer conv5_0/3x3_dwconv/concat_fixed_point
I0917 10:21:15.635329 32258 net.cpp:408] conv5_0/3x3_dwconv/concat_fixed_point <- conv5_0/3x3_dwconv/concat
I0917 10:21:15.635334 32258 net.cpp:369] conv5_0/3x3_dwconv/concat_fixed_point -> conv5_0/3x3_dwconv/concat (in-place)
I0917 10:21:15.635358 32258 net.cpp:124] Setting up conv5_0/3x3_dwconv/concat_fixed_point
I0917 10:21:15.635362 32258 net.cpp:131] Top shape: 25 240 14 14 (1176000)
I0917 10:21:15.635365 32258 net.cpp:139] Memory required for data: 1454710600
I0917 10:21:15.635370 32258 layer_factory.hpp:77] Creating layer conv5_0/3x3_dwconv/concat_conv5_0/3x3_dwconv/concat_fixed_point_0_split
I0917 10:21:15.635376 32258 net.cpp:86] Creating Layer conv5_0/3x3_dwconv/concat_conv5_0/3x3_dwconv/concat_fixed_point_0_split
I0917 10:21:15.635380 32258 net.cpp:408] conv5_0/3x3_dwconv/concat_conv5_0/3x3_dwconv/concat_fixed_point_0_split <- conv5_0/3x3_dwconv/concat
I0917 10:21:15.635383 32258 net.cpp:382] conv5_0/3x3_dwconv/concat_conv5_0/3x3_dwconv/concat_fixed_point_0_split -> conv5_0/3x3_dwconv/concat_conv5_0/3x3_dwconv/concat_fixed_point_0_split_0
I0917 10:21:15.635388 32258 net.cpp:382] conv5_0/3x3_dwconv/concat_conv5_0/3x3_dwconv/concat_fixed_point_0_split -> conv5_0/3x3_dwconv/concat_conv5_0/3x3_dwconv/concat_fixed_point_0_split_1
I0917 10:21:15.635439 32258 net.cpp:124] Setting up conv5_0/3x3_dwconv/concat_conv5_0/3x3_dwconv/concat_fixed_point_0_split
I0917 10:21:15.635445 32258 net.cpp:131] Top shape: 25 240 14 14 (1176000)
I0917 10:21:15.635448 32258 net.cpp:131] Top shape: 25 240 14 14 (1176000)
I0917 10:21:15.635450 32258 net.cpp:139] Memory required for data: 1464118600
I0917 10:21:15.635453 32258 layer_factory.hpp:77] Creating layer conv5_0/3x3_dwconv/SE_global_pool
I0917 10:21:15.635458 32258 net.cpp:86] Creating Layer conv5_0/3x3_dwconv/SE_global_pool
I0917 10:21:15.635462 32258 net.cpp:408] conv5_0/3x3_dwconv/SE_global_pool <- conv5_0/3x3_dwconv/concat_conv5_0/3x3_dwconv/concat_fixed_point_0_split_0
I0917 10:21:15.635466 32258 net.cpp:382] conv5_0/3x3_dwconv/SE_global_pool -> conv5_0/3x3_dwconv/SE_global_pool
I0917 10:21:15.635491 32258 net.cpp:124] Setting up conv5_0/3x3_dwconv/SE_global_pool
I0917 10:21:15.635495 32258 net.cpp:131] Top shape: 25 240 1 1 (6000)
I0917 10:21:15.635499 32258 net.cpp:139] Memory required for data: 1464142600
I0917 10:21:15.635500 32258 layer_factory.hpp:77] Creating layer conv5_0/3x3_dwconv/SE_bn
I0917 10:21:15.635506 32258 net.cpp:86] Creating Layer conv5_0/3x3_dwconv/SE_bn
I0917 10:21:15.635509 32258 net.cpp:408] conv5_0/3x3_dwconv/SE_bn <- conv5_0/3x3_dwconv/SE_global_pool
I0917 10:21:15.635514 32258 net.cpp:382] conv5_0/3x3_dwconv/SE_bn -> conv5_0/3x3_dwconv/SE_bn
I0917 10:21:15.635553 32258 layer_factory.hpp:77] Creating layer conv5_0/3x3_dwconv/SE_bn
I0917 10:21:15.635653 32258 net.cpp:124] Setting up conv5_0/3x3_dwconv/SE_bn
I0917 10:21:15.635660 32258 net.cpp:131] Top shape: 25 240 1 1 (6000)
I0917 10:21:15.635663 32258 net.cpp:139] Memory required for data: 1464166600
I0917 10:21:15.635668 32258 layer_factory.hpp:77] Creating layer conv5_0/3x3_dwconv/SE_fc1
I0917 10:21:15.635676 32258 net.cpp:86] Creating Layer conv5_0/3x3_dwconv/SE_fc1
I0917 10:21:15.635680 32258 net.cpp:408] conv5_0/3x3_dwconv/SE_fc1 <- conv5_0/3x3_dwconv/SE_bn
I0917 10:21:15.635690 32258 net.cpp:382] conv5_0/3x3_dwconv/SE_fc1 -> conv5_0/3x3_dwconv/SE_fc1
I0917 10:21:15.636080 32258 net.cpp:124] Setting up conv5_0/3x3_dwconv/SE_fc1
I0917 10:21:15.636090 32258 net.cpp:131] Top shape: 25 15 1 1 (375)
I0917 10:21:15.636093 32258 net.cpp:139] Memory required for data: 1464168100
I0917 10:21:15.636097 32258 layer_factory.hpp:77] Creating layer conv5_0/3x3_dwconv/SE_fc1/relu
I0917 10:21:15.636102 32258 net.cpp:86] Creating Layer conv5_0/3x3_dwconv/SE_fc1/relu
I0917 10:21:15.636106 32258 net.cpp:408] conv5_0/3x3_dwconv/SE_fc1/relu <- conv5_0/3x3_dwconv/SE_fc1
I0917 10:21:15.636111 32258 net.cpp:369] conv5_0/3x3_dwconv/SE_fc1/relu -> conv5_0/3x3_dwconv/SE_fc1 (in-place)
I0917 10:21:15.636620 32258 net.cpp:124] Setting up conv5_0/3x3_dwconv/SE_fc1/relu
I0917 10:21:15.636628 32258 net.cpp:131] Top shape: 25 15 1 1 (375)
I0917 10:21:15.636631 32258 net.cpp:139] Memory required for data: 1464169600
I0917 10:21:15.636633 32258 layer_factory.hpp:77] Creating layer conv5_0/3x3_dwconv/SE_fc2
I0917 10:21:15.636642 32258 net.cpp:86] Creating Layer conv5_0/3x3_dwconv/SE_fc2
I0917 10:21:15.636646 32258 net.cpp:408] conv5_0/3x3_dwconv/SE_fc2 <- conv5_0/3x3_dwconv/SE_fc1
I0917 10:21:15.636652 32258 net.cpp:382] conv5_0/3x3_dwconv/SE_fc2 -> conv5_0/3x3_dwconv/SE_fc2
I0917 10:21:15.637039 32258 net.cpp:124] Setting up conv5_0/3x3_dwconv/SE_fc2
I0917 10:21:15.637048 32258 net.cpp:131] Top shape: 25 240 1 1 (6000)
I0917 10:21:15.637051 32258 net.cpp:139] Memory required for data: 1464193600
I0917 10:21:15.637056 32258 layer_factory.hpp:77] Creating layer conv5_0/3x3_dwconv/SE_weights
I0917 10:21:15.637061 32258 net.cpp:86] Creating Layer conv5_0/3x3_dwconv/SE_weights
I0917 10:21:15.637064 32258 net.cpp:408] conv5_0/3x3_dwconv/SE_weights <- conv5_0/3x3_dwconv/SE_fc2
I0917 10:21:15.637069 32258 net.cpp:369] conv5_0/3x3_dwconv/SE_weights -> conv5_0/3x3_dwconv/SE_fc2 (in-place)
I0917 10:21:15.637742 32258 net.cpp:124] Setting up conv5_0/3x3_dwconv/SE_weights
I0917 10:21:15.637753 32258 net.cpp:131] Top shape: 25 240 1 1 (6000)
I0917 10:21:15.637754 32258 net.cpp:139] Memory required for data: 1464217600
I0917 10:21:15.637758 32258 layer_factory.hpp:77] Creating layer conv5_0/3x3_dwconv/SE_weights/reshape
I0917 10:21:15.637765 32258 net.cpp:86] Creating Layer conv5_0/3x3_dwconv/SE_weights/reshape
I0917 10:21:15.637769 32258 net.cpp:408] conv5_0/3x3_dwconv/SE_weights/reshape <- conv5_0/3x3_dwconv/SE_fc2
I0917 10:21:15.637775 32258 net.cpp:382] conv5_0/3x3_dwconv/SE_weights/reshape -> conv5_0/3x3_dwconv/SE_weights/reshape
I0917 10:21:15.637809 32258 net.cpp:124] Setting up conv5_0/3x3_dwconv/SE_weights/reshape
I0917 10:21:15.637814 32258 net.cpp:131] Top shape: 25 240 (6000)
I0917 10:21:15.637817 32258 net.cpp:139] Memory required for data: 1464241600
I0917 10:21:15.637820 32258 layer_factory.hpp:77] Creating layer conv5_0/3x3_dwconv/scale
I0917 10:21:15.637826 32258 net.cpp:86] Creating Layer conv5_0/3x3_dwconv/scale
I0917 10:21:15.637830 32258 net.cpp:408] conv5_0/3x3_dwconv/scale <- conv5_0/3x3_dwconv/concat_conv5_0/3x3_dwconv/concat_fixed_point_0_split_1
I0917 10:21:15.637833 32258 net.cpp:408] conv5_0/3x3_dwconv/scale <- conv5_0/3x3_dwconv/SE_weights/reshape
I0917 10:21:15.637837 32258 net.cpp:382] conv5_0/3x3_dwconv/scale -> conv5_0/3x3_dwconv/scale
I0917 10:21:15.637905 32258 net.cpp:124] Setting up conv5_0/3x3_dwconv/scale
I0917 10:21:15.637910 32258 net.cpp:131] Top shape: 25 240 14 14 (1176000)
I0917 10:21:15.637913 32258 net.cpp:139] Memory required for data: 1468945600
I0917 10:21:15.637917 32258 layer_factory.hpp:77] Creating layer conv5_0/3x3_dwconv/scale_fixed_point
I0917 10:21:15.637928 32258 net.cpp:86] Creating Layer conv5_0/3x3_dwconv/scale_fixed_point
I0917 10:21:15.637930 32258 net.cpp:408] conv5_0/3x3_dwconv/scale_fixed_point <- conv5_0/3x3_dwconv/scale
I0917 10:21:15.637936 32258 net.cpp:369] conv5_0/3x3_dwconv/scale_fixed_point -> conv5_0/3x3_dwconv/scale (in-place)
I0917 10:21:15.637959 32258 net.cpp:124] Setting up conv5_0/3x3_dwconv/scale_fixed_point
I0917 10:21:15.637964 32258 net.cpp:131] Top shape: 25 240 14 14 (1176000)
I0917 10:21:15.637975 32258 net.cpp:139] Memory required for data: 1473649600
I0917 10:21:15.637979 32258 layer_factory.hpp:77] Creating layer conv5_0/1x1_decrease
I0917 10:21:15.637990 32258 net.cpp:86] Creating Layer conv5_0/1x1_decrease
I0917 10:21:15.637993 32258 net.cpp:408] conv5_0/1x1_decrease <- conv5_0/3x3_dwconv/scale
I0917 10:21:15.637998 32258 net.cpp:382] conv5_0/1x1_decrease -> conv5_0/1x1_decrease/bn
I0917 10:21:15.639907 32258 net.cpp:124] Setting up conv5_0/1x1_decrease
I0917 10:21:15.639919 32258 net.cpp:131] Top shape: 25 80 14 14 (392000)
I0917 10:21:15.639932 32258 net.cpp:139] Memory required for data: 1475217600
I0917 10:21:15.639937 32258 layer_factory.hpp:77] Creating layer conv5_0/1x1_decrease/bn_fixed_point
I0917 10:21:15.639953 32258 net.cpp:86] Creating Layer conv5_0/1x1_decrease/bn_fixed_point
I0917 10:21:15.639956 32258 net.cpp:408] conv5_0/1x1_decrease/bn_fixed_point <- conv5_0/1x1_decrease/bn
I0917 10:21:15.639961 32258 net.cpp:369] conv5_0/1x1_decrease/bn_fixed_point -> conv5_0/1x1_decrease/bn (in-place)
I0917 10:21:15.639993 32258 net.cpp:124] Setting up conv5_0/1x1_decrease/bn_fixed_point
I0917 10:21:15.639998 32258 net.cpp:131] Top shape: 25 80 14 14 (392000)
I0917 10:21:15.640002 32258 net.cpp:139] Memory required for data: 1476785600
I0917 10:21:15.640004 32258 layer_factory.hpp:77] Creating layer conv5_0/1x1_decrease/bn_conv5_0/1x1_decrease/bn_fixed_point_0_split
I0917 10:21:15.640012 32258 net.cpp:86] Creating Layer conv5_0/1x1_decrease/bn_conv5_0/1x1_decrease/bn_fixed_point_0_split
I0917 10:21:15.640015 32258 net.cpp:408] conv5_0/1x1_decrease/bn_conv5_0/1x1_decrease/bn_fixed_point_0_split <- conv5_0/1x1_decrease/bn
I0917 10:21:15.640019 32258 net.cpp:382] conv5_0/1x1_decrease/bn_conv5_0/1x1_decrease/bn_fixed_point_0_split -> conv5_0/1x1_decrease/bn_conv5_0/1x1_decrease/bn_fixed_point_0_split_0
I0917 10:21:15.640024 32258 net.cpp:382] conv5_0/1x1_decrease/bn_conv5_0/1x1_decrease/bn_fixed_point_0_split -> conv5_0/1x1_decrease/bn_conv5_0/1x1_decrease/bn_fixed_point_0_split_1
I0917 10:21:15.640065 32258 net.cpp:124] Setting up conv5_0/1x1_decrease/bn_conv5_0/1x1_decrease/bn_fixed_point_0_split
I0917 10:21:15.640071 32258 net.cpp:131] Top shape: 25 80 14 14 (392000)
I0917 10:21:15.640075 32258 net.cpp:131] Top shape: 25 80 14 14 (392000)
I0917 10:21:15.640077 32258 net.cpp:139] Memory required for data: 1479921600
I0917 10:21:15.640080 32258 layer_factory.hpp:77] Creating layer conv5_1/1x1_increase
I0917 10:21:15.640094 32258 net.cpp:86] Creating Layer conv5_1/1x1_increase
I0917 10:21:15.640098 32258 net.cpp:408] conv5_1/1x1_increase <- conv5_0/1x1_decrease/bn_conv5_0/1x1_decrease/bn_fixed_point_0_split_0
I0917 10:21:15.640105 32258 net.cpp:382] conv5_1/1x1_increase -> conv5_1/1x1_increase/bn
I0917 10:21:15.640982 32258 net.cpp:124] Setting up conv5_1/1x1_increase
I0917 10:21:15.640992 32258 net.cpp:131] Top shape: 25 240 14 14 (1176000)
I0917 10:21:15.640995 32258 net.cpp:139] Memory required for data: 1484625600
I0917 10:21:15.641000 32258 layer_factory.hpp:77] Creating layer conv5_1/1x1_increase/hardswish
I0917 10:21:15.641012 32258 net.cpp:86] Creating Layer conv5_1/1x1_increase/hardswish
I0917 10:21:15.641016 32258 net.cpp:408] conv5_1/1x1_increase/hardswish <- conv5_1/1x1_increase/bn
I0917 10:21:15.641021 32258 net.cpp:369] conv5_1/1x1_increase/hardswish -> conv5_1/1x1_increase/bn (in-place)
I0917 10:21:15.641049 32258 net.cpp:124] Setting up conv5_1/1x1_increase/hardswish
I0917 10:21:15.641057 32258 net.cpp:131] Top shape: 25 240 14 14 (1176000)
I0917 10:21:15.641060 32258 net.cpp:139] Memory required for data: 1489329600
I0917 10:21:15.641062 32258 layer_factory.hpp:77] Creating layer conv5_1/1x1_increase/bn_fixed_point
I0917 10:21:15.641068 32258 net.cpp:86] Creating Layer conv5_1/1x1_increase/bn_fixed_point
I0917 10:21:15.641072 32258 net.cpp:408] conv5_1/1x1_increase/bn_fixed_point <- conv5_1/1x1_increase/bn
I0917 10:21:15.641075 32258 net.cpp:369] conv5_1/1x1_increase/bn_fixed_point -> conv5_1/1x1_increase/bn (in-place)
I0917 10:21:15.641115 32258 net.cpp:124] Setting up conv5_1/1x1_increase/bn_fixed_point
I0917 10:21:15.641122 32258 net.cpp:131] Top shape: 25 240 14 14 (1176000)
I0917 10:21:15.641125 32258 net.cpp:139] Memory required for data: 1494033600
I0917 10:21:15.641129 32258 layer_factory.hpp:77] Creating layer conv5_1/1x1_increase/slice
I0917 10:21:15.641135 32258 net.cpp:86] Creating Layer conv5_1/1x1_increase/slice
I0917 10:21:15.641139 32258 net.cpp:408] conv5_1/1x1_increase/slice <- conv5_1/1x1_increase/bn
I0917 10:21:15.641142 32258 net.cpp:382] conv5_1/1x1_increase/slice -> conv5_1/1x1_increase/split1
I0917 10:21:15.641149 32258 net.cpp:382] conv5_1/1x1_increase/slice -> conv5_1/1x1_increase/split2
I0917 10:21:15.641188 32258 net.cpp:124] Setting up conv5_1/1x1_increase/slice
I0917 10:21:15.641194 32258 net.cpp:131] Top shape: 25 120 14 14 (588000)
I0917 10:21:15.641197 32258 net.cpp:131] Top shape: 25 120 14 14 (588000)
I0917 10:21:15.641199 32258 net.cpp:139] Memory required for data: 1498737600
I0917 10:21:15.641203 32258 layer_factory.hpp:77] Creating layer conv5_1/3x3_dwconv/slice_0
I0917 10:21:15.641214 32258 net.cpp:86] Creating Layer conv5_1/3x3_dwconv/slice_0
I0917 10:21:15.641217 32258 net.cpp:408] conv5_1/3x3_dwconv/slice_0 <- conv5_1/1x1_increase/split1
I0917 10:21:15.641224 32258 net.cpp:382] conv5_1/3x3_dwconv/slice_0 -> conv5_1/3x3_dwconv/slice_0/bn
I0917 10:21:15.641719 32258 net.cpp:124] Setting up conv5_1/3x3_dwconv/slice_0
I0917 10:21:15.641728 32258 net.cpp:131] Top shape: 25 120 14 14 (588000)
I0917 10:21:15.641742 32258 net.cpp:139] Memory required for data: 1501089600
I0917 10:21:15.641748 32258 layer_factory.hpp:77] Creating layer conv5_1/3x3_dwconv/slice_0/hardswish
I0917 10:21:15.641757 32258 net.cpp:86] Creating Layer conv5_1/3x3_dwconv/slice_0/hardswish
I0917 10:21:15.641760 32258 net.cpp:408] conv5_1/3x3_dwconv/slice_0/hardswish <- conv5_1/3x3_dwconv/slice_0/bn
I0917 10:21:15.641765 32258 net.cpp:369] conv5_1/3x3_dwconv/slice_0/hardswish -> conv5_1/3x3_dwconv/slice_0/bn (in-place)
I0917 10:21:15.641796 32258 net.cpp:124] Setting up conv5_1/3x3_dwconv/slice_0/hardswish
I0917 10:21:15.641808 32258 net.cpp:131] Top shape: 25 120 14 14 (588000)
I0917 10:21:15.641811 32258 net.cpp:139] Memory required for data: 1503441600
I0917 10:21:15.641814 32258 layer_factory.hpp:77] Creating layer conv5_1/3x3_dwconv/slice_1
I0917 10:21:15.641825 32258 net.cpp:86] Creating Layer conv5_1/3x3_dwconv/slice_1
I0917 10:21:15.641829 32258 net.cpp:408] conv5_1/3x3_dwconv/slice_1 <- conv5_1/1x1_increase/split2
I0917 10:21:15.641835 32258 net.cpp:382] conv5_1/3x3_dwconv/slice_1 -> conv5_1/3x3_dwconv/slice_1/bn
I0917 10:21:15.642555 32258 net.cpp:124] Setting up conv5_1/3x3_dwconv/slice_1
I0917 10:21:15.642567 32258 net.cpp:131] Top shape: 25 120 14 14 (588000)
I0917 10:21:15.642570 32258 net.cpp:139] Memory required for data: 1505793600
I0917 10:21:15.642576 32258 layer_factory.hpp:77] Creating layer conv5_1/3x3_dwconv/slice_1/hardswish
I0917 10:21:15.642582 32258 net.cpp:86] Creating Layer conv5_1/3x3_dwconv/slice_1/hardswish
I0917 10:21:15.642587 32258 net.cpp:408] conv5_1/3x3_dwconv/slice_1/hardswish <- conv5_1/3x3_dwconv/slice_1/bn
I0917 10:21:15.642592 32258 net.cpp:369] conv5_1/3x3_dwconv/slice_1/hardswish -> conv5_1/3x3_dwconv/slice_1/bn (in-place)
I0917 10:21:15.642622 32258 net.cpp:124] Setting up conv5_1/3x3_dwconv/slice_1/hardswish
I0917 10:21:15.642629 32258 net.cpp:131] Top shape: 25 120 14 14 (588000)
I0917 10:21:15.642632 32258 net.cpp:139] Memory required for data: 1508145600
I0917 10:21:15.642635 32258 layer_factory.hpp:77] Creating layer conv5_1/3x3_dwconv/concat
I0917 10:21:15.642642 32258 net.cpp:86] Creating Layer conv5_1/3x3_dwconv/concat
I0917 10:21:15.642647 32258 net.cpp:408] conv5_1/3x3_dwconv/concat <- conv5_1/3x3_dwconv/slice_0/bn
I0917 10:21:15.642649 32258 net.cpp:408] conv5_1/3x3_dwconv/concat <- conv5_1/3x3_dwconv/slice_1/bn
I0917 10:21:15.642653 32258 net.cpp:382] conv5_1/3x3_dwconv/concat -> conv5_1/3x3_dwconv/concat
I0917 10:21:15.642680 32258 net.cpp:124] Setting up conv5_1/3x3_dwconv/concat
I0917 10:21:15.642696 32258 net.cpp:131] Top shape: 25 240 14 14 (1176000)
I0917 10:21:15.642699 32258 net.cpp:139] Memory required for data: 1512849600
I0917 10:21:15.642702 32258 layer_factory.hpp:77] Creating layer conv5_1/3x3_dwconv/concat_fixed_point
I0917 10:21:15.642709 32258 net.cpp:86] Creating Layer conv5_1/3x3_dwconv/concat_fixed_point
I0917 10:21:15.642712 32258 net.cpp:408] conv5_1/3x3_dwconv/concat_fixed_point <- conv5_1/3x3_dwconv/concat
I0917 10:21:15.642717 32258 net.cpp:369] conv5_1/3x3_dwconv/concat_fixed_point -> conv5_1/3x3_dwconv/concat (in-place)
I0917 10:21:15.642745 32258 net.cpp:124] Setting up conv5_1/3x3_dwconv/concat_fixed_point
I0917 10:21:15.642750 32258 net.cpp:131] Top shape: 25 240 14 14 (1176000)
I0917 10:21:15.642752 32258 net.cpp:139] Memory required for data: 1517553600
I0917 10:21:15.642756 32258 layer_factory.hpp:77] Creating layer conv5_1/3x3_dwconv/concat_conv5_1/3x3_dwconv/concat_fixed_point_0_split
I0917 10:21:15.642761 32258 net.cpp:86] Creating Layer conv5_1/3x3_dwconv/concat_conv5_1/3x3_dwconv/concat_fixed_point_0_split
I0917 10:21:15.642765 32258 net.cpp:408] conv5_1/3x3_dwconv/concat_conv5_1/3x3_dwconv/concat_fixed_point_0_split <- conv5_1/3x3_dwconv/concat
I0917 10:21:15.642771 32258 net.cpp:382] conv5_1/3x3_dwconv/concat_conv5_1/3x3_dwconv/concat_fixed_point_0_split -> conv5_1/3x3_dwconv/concat_conv5_1/3x3_dwconv/concat_fixed_point_0_split_0
I0917 10:21:15.642776 32258 net.cpp:382] conv5_1/3x3_dwconv/concat_conv5_1/3x3_dwconv/concat_fixed_point_0_split -> conv5_1/3x3_dwconv/concat_conv5_1/3x3_dwconv/concat_fixed_point_0_split_1
I0917 10:21:15.642832 32258 net.cpp:124] Setting up conv5_1/3x3_dwconv/concat_conv5_1/3x3_dwconv/concat_fixed_point_0_split
I0917 10:21:15.642839 32258 net.cpp:131] Top shape: 25 240 14 14 (1176000)
I0917 10:21:15.642843 32258 net.cpp:131] Top shape: 25 240 14 14 (1176000)
I0917 10:21:15.642845 32258 net.cpp:139] Memory required for data: 1526961600
I0917 10:21:15.642848 32258 layer_factory.hpp:77] Creating layer conv5_1/3x3_dwconv/SE_global_pool
I0917 10:21:15.642855 32258 net.cpp:86] Creating Layer conv5_1/3x3_dwconv/SE_global_pool
I0917 10:21:15.642858 32258 net.cpp:408] conv5_1/3x3_dwconv/SE_global_pool <- conv5_1/3x3_dwconv/concat_conv5_1/3x3_dwconv/concat_fixed_point_0_split_0
I0917 10:21:15.642863 32258 net.cpp:382] conv5_1/3x3_dwconv/SE_global_pool -> conv5_1/3x3_dwconv/SE_global_pool
I0917 10:21:15.642886 32258 net.cpp:124] Setting up conv5_1/3x3_dwconv/SE_global_pool
I0917 10:21:15.642890 32258 net.cpp:131] Top shape: 25 240 1 1 (6000)
I0917 10:21:15.642894 32258 net.cpp:139] Memory required for data: 1526985600
I0917 10:21:15.642895 32258 layer_factory.hpp:77] Creating layer conv5_1/3x3_dwconv/SE_bn
I0917 10:21:15.642904 32258 net.cpp:86] Creating Layer conv5_1/3x3_dwconv/SE_bn
I0917 10:21:15.642907 32258 net.cpp:408] conv5_1/3x3_dwconv/SE_bn <- conv5_1/3x3_dwconv/SE_global_pool
I0917 10:21:15.642913 32258 net.cpp:382] conv5_1/3x3_dwconv/SE_bn -> conv5_1/3x3_dwconv/SE_bn
I0917 10:21:15.642953 32258 layer_factory.hpp:77] Creating layer conv5_1/3x3_dwconv/SE_bn
I0917 10:21:15.643061 32258 net.cpp:124] Setting up conv5_1/3x3_dwconv/SE_bn
I0917 10:21:15.643069 32258 net.cpp:131] Top shape: 25 240 1 1 (6000)
I0917 10:21:15.643070 32258 net.cpp:139] Memory required for data: 1527009600
I0917 10:21:15.643075 32258 layer_factory.hpp:77] Creating layer conv5_1/3x3_dwconv/SE_fc1
I0917 10:21:15.643081 32258 net.cpp:86] Creating Layer conv5_1/3x3_dwconv/SE_fc1
I0917 10:21:15.643085 32258 net.cpp:408] conv5_1/3x3_dwconv/SE_fc1 <- conv5_1/3x3_dwconv/SE_bn
I0917 10:21:15.643091 32258 net.cpp:382] conv5_1/3x3_dwconv/SE_fc1 -> conv5_1/3x3_dwconv/SE_fc1
I0917 10:21:15.643471 32258 net.cpp:124] Setting up conv5_1/3x3_dwconv/SE_fc1
I0917 10:21:15.643481 32258 net.cpp:131] Top shape: 25 15 1 1 (375)
I0917 10:21:15.643483 32258 net.cpp:139] Memory required for data: 1527011100
I0917 10:21:15.643487 32258 layer_factory.hpp:77] Creating layer conv5_1/3x3_dwconv/SE_fc1/relu
I0917 10:21:15.643492 32258 net.cpp:86] Creating Layer conv5_1/3x3_dwconv/SE_fc1/relu
I0917 10:21:15.643505 32258 net.cpp:408] conv5_1/3x3_dwconv/SE_fc1/relu <- conv5_1/3x3_dwconv/SE_fc1
I0917 10:21:15.643509 32258 net.cpp:369] conv5_1/3x3_dwconv/SE_fc1/relu -> conv5_1/3x3_dwconv/SE_fc1 (in-place)
I0917 10:21:15.644083 32258 net.cpp:124] Setting up conv5_1/3x3_dwconv/SE_fc1/relu
I0917 10:21:15.644093 32258 net.cpp:131] Top shape: 25 15 1 1 (375)
I0917 10:21:15.644096 32258 net.cpp:139] Memory required for data: 1527012600
I0917 10:21:15.644100 32258 layer_factory.hpp:77] Creating layer conv5_1/3x3_dwconv/SE_fc2
I0917 10:21:15.644110 32258 net.cpp:86] Creating Layer conv5_1/3x3_dwconv/SE_fc2
I0917 10:21:15.644114 32258 net.cpp:408] conv5_1/3x3_dwconv/SE_fc2 <- conv5_1/3x3_dwconv/SE_fc1
I0917 10:21:15.644120 32258 net.cpp:382] conv5_1/3x3_dwconv/SE_fc2 -> conv5_1/3x3_dwconv/SE_fc2
I0917 10:21:15.644507 32258 net.cpp:124] Setting up conv5_1/3x3_dwconv/SE_fc2
I0917 10:21:15.644516 32258 net.cpp:131] Top shape: 25 240 1 1 (6000)
I0917 10:21:15.644520 32258 net.cpp:139] Memory required for data: 1527036600
I0917 10:21:15.644524 32258 layer_factory.hpp:77] Creating layer conv5_1/3x3_dwconv/SE_weights
I0917 10:21:15.644528 32258 net.cpp:86] Creating Layer conv5_1/3x3_dwconv/SE_weights
I0917 10:21:15.644532 32258 net.cpp:408] conv5_1/3x3_dwconv/SE_weights <- conv5_1/3x3_dwconv/SE_fc2
I0917 10:21:15.644537 32258 net.cpp:369] conv5_1/3x3_dwconv/SE_weights -> conv5_1/3x3_dwconv/SE_fc2 (in-place)
I0917 10:21:15.645049 32258 net.cpp:124] Setting up conv5_1/3x3_dwconv/SE_weights
I0917 10:21:15.645059 32258 net.cpp:131] Top shape: 25 240 1 1 (6000)
I0917 10:21:15.645061 32258 net.cpp:139] Memory required for data: 1527060600
I0917 10:21:15.645064 32258 layer_factory.hpp:77] Creating layer conv5_1/3x3_dwconv/SE_weights/reshape
I0917 10:21:15.645071 32258 net.cpp:86] Creating Layer conv5_1/3x3_dwconv/SE_weights/reshape
I0917 10:21:15.645076 32258 net.cpp:408] conv5_1/3x3_dwconv/SE_weights/reshape <- conv5_1/3x3_dwconv/SE_fc2
I0917 10:21:15.645081 32258 net.cpp:382] conv5_1/3x3_dwconv/SE_weights/reshape -> conv5_1/3x3_dwconv/SE_weights/reshape
I0917 10:21:15.645112 32258 net.cpp:124] Setting up conv5_1/3x3_dwconv/SE_weights/reshape
I0917 10:21:15.645117 32258 net.cpp:131] Top shape: 25 240 (6000)
I0917 10:21:15.645118 32258 net.cpp:139] Memory required for data: 1527084600
I0917 10:21:15.645123 32258 layer_factory.hpp:77] Creating layer conv5_1/3x3_dwconv/scale
I0917 10:21:15.645128 32258 net.cpp:86] Creating Layer conv5_1/3x3_dwconv/scale
I0917 10:21:15.645130 32258 net.cpp:408] conv5_1/3x3_dwconv/scale <- conv5_1/3x3_dwconv/concat_conv5_1/3x3_dwconv/concat_fixed_point_0_split_1
I0917 10:21:15.645134 32258 net.cpp:408] conv5_1/3x3_dwconv/scale <- conv5_1/3x3_dwconv/SE_weights/reshape
I0917 10:21:15.645144 32258 net.cpp:382] conv5_1/3x3_dwconv/scale -> conv5_1/3x3_dwconv/scale
I0917 10:21:15.645211 32258 net.cpp:124] Setting up conv5_1/3x3_dwconv/scale
I0917 10:21:15.645217 32258 net.cpp:131] Top shape: 25 240 14 14 (1176000)
I0917 10:21:15.645220 32258 net.cpp:139] Memory required for data: 1531788600
I0917 10:21:15.645222 32258 layer_factory.hpp:77] Creating layer conv5_1/3x3_dwconv/scale_fixed_point
I0917 10:21:15.645229 32258 net.cpp:86] Creating Layer conv5_1/3x3_dwconv/scale_fixed_point
I0917 10:21:15.645232 32258 net.cpp:408] conv5_1/3x3_dwconv/scale_fixed_point <- conv5_1/3x3_dwconv/scale
I0917 10:21:15.645236 32258 net.cpp:369] conv5_1/3x3_dwconv/scale_fixed_point -> conv5_1/3x3_dwconv/scale (in-place)
I0917 10:21:15.645260 32258 net.cpp:124] Setting up conv5_1/3x3_dwconv/scale_fixed_point
I0917 10:21:15.645264 32258 net.cpp:131] Top shape: 25 240 14 14 (1176000)
I0917 10:21:15.645267 32258 net.cpp:139] Memory required for data: 1536492600
I0917 10:21:15.645270 32258 layer_factory.hpp:77] Creating layer conv5_1/1x1_decrease
I0917 10:21:15.645279 32258 net.cpp:86] Creating Layer conv5_1/1x1_decrease
I0917 10:21:15.645282 32258 net.cpp:408] conv5_1/1x1_decrease <- conv5_1/3x3_dwconv/scale
I0917 10:21:15.645289 32258 net.cpp:382] conv5_1/1x1_decrease -> conv5_1/1x1_decrease/bn
I0917 10:21:15.646167 32258 net.cpp:124] Setting up conv5_1/1x1_decrease
I0917 10:21:15.646188 32258 net.cpp:131] Top shape: 25 80 14 14 (392000)
I0917 10:21:15.646203 32258 net.cpp:139] Memory required for data: 1538060600
I0917 10:21:15.646209 32258 layer_factory.hpp:77] Creating layer conv5_1/elt_sum
I0917 10:21:15.646216 32258 net.cpp:86] Creating Layer conv5_1/elt_sum
I0917 10:21:15.646219 32258 net.cpp:408] conv5_1/elt_sum <- conv5_0/1x1_decrease/bn_conv5_0/1x1_decrease/bn_fixed_point_0_split_1
I0917 10:21:15.646224 32258 net.cpp:408] conv5_1/elt_sum <- conv5_1/1x1_decrease/bn
I0917 10:21:15.646229 32258 net.cpp:382] conv5_1/elt_sum -> conv5_1/elt_sum
I0917 10:21:15.646263 32258 net.cpp:124] Setting up conv5_1/elt_sum
I0917 10:21:15.646268 32258 net.cpp:131] Top shape: 25 80 14 14 (392000)
I0917 10:21:15.646271 32258 net.cpp:139] Memory required for data: 1539628600
I0917 10:21:15.646275 32258 layer_factory.hpp:77] Creating layer conv5_1/elt_sum_fixed_point
I0917 10:21:15.646291 32258 net.cpp:86] Creating Layer conv5_1/elt_sum_fixed_point
I0917 10:21:15.646293 32258 net.cpp:408] conv5_1/elt_sum_fixed_point <- conv5_1/elt_sum
I0917 10:21:15.646298 32258 net.cpp:369] conv5_1/elt_sum_fixed_point -> conv5_1/elt_sum (in-place)
I0917 10:21:15.646327 32258 net.cpp:124] Setting up conv5_1/elt_sum_fixed_point
I0917 10:21:15.646332 32258 net.cpp:131] Top shape: 25 80 14 14 (392000)
I0917 10:21:15.646333 32258 net.cpp:139] Memory required for data: 1541196600
I0917 10:21:15.646337 32258 layer_factory.hpp:77] Creating layer conv5_1/elt_sum_conv5_1/elt_sum_fixed_point_0_split
I0917 10:21:15.646343 32258 net.cpp:86] Creating Layer conv5_1/elt_sum_conv5_1/elt_sum_fixed_point_0_split
I0917 10:21:15.646347 32258 net.cpp:408] conv5_1/elt_sum_conv5_1/elt_sum_fixed_point_0_split <- conv5_1/elt_sum
I0917 10:21:15.646350 32258 net.cpp:382] conv5_1/elt_sum_conv5_1/elt_sum_fixed_point_0_split -> conv5_1/elt_sum_conv5_1/elt_sum_fixed_point_0_split_0
I0917 10:21:15.646355 32258 net.cpp:382] conv5_1/elt_sum_conv5_1/elt_sum_fixed_point_0_split -> conv5_1/elt_sum_conv5_1/elt_sum_fixed_point_0_split_1
I0917 10:21:15.646395 32258 net.cpp:124] Setting up conv5_1/elt_sum_conv5_1/elt_sum_fixed_point_0_split
I0917 10:21:15.646400 32258 net.cpp:131] Top shape: 25 80 14 14 (392000)
I0917 10:21:15.646404 32258 net.cpp:131] Top shape: 25 80 14 14 (392000)
I0917 10:21:15.646407 32258 net.cpp:139] Memory required for data: 1544332600
I0917 10:21:15.646410 32258 layer_factory.hpp:77] Creating layer conv5_2/1x1_increase
I0917 10:21:15.646420 32258 net.cpp:86] Creating Layer conv5_2/1x1_increase
I0917 10:21:15.646423 32258 net.cpp:408] conv5_2/1x1_increase <- conv5_1/elt_sum_conv5_1/elt_sum_fixed_point_0_split_0
I0917 10:21:15.646445 32258 net.cpp:382] conv5_2/1x1_increase -> conv5_2/1x1_increase/bn
I0917 10:21:15.647554 32258 net.cpp:124] Setting up conv5_2/1x1_increase
I0917 10:21:15.647565 32258 net.cpp:131] Top shape: 25 240 14 14 (1176000)
I0917 10:21:15.647580 32258 net.cpp:139] Memory required for data: 1549036600
I0917 10:21:15.647600 32258 layer_factory.hpp:77] Creating layer conv5_2/1x1_increase/hardswish
I0917 10:21:15.647608 32258 net.cpp:86] Creating Layer conv5_2/1x1_increase/hardswish
I0917 10:21:15.647611 32258 net.cpp:408] conv5_2/1x1_increase/hardswish <- conv5_2/1x1_increase/bn
I0917 10:21:15.647616 32258 net.cpp:369] conv5_2/1x1_increase/hardswish -> conv5_2/1x1_increase/bn (in-place)
I0917 10:21:15.647646 32258 net.cpp:124] Setting up conv5_2/1x1_increase/hardswish
I0917 10:21:15.647653 32258 net.cpp:131] Top shape: 25 240 14 14 (1176000)
I0917 10:21:15.647655 32258 net.cpp:139] Memory required for data: 1553740600
I0917 10:21:15.647660 32258 layer_factory.hpp:77] Creating layer conv5_2/1x1_increase/bn_fixed_point
I0917 10:21:15.647665 32258 net.cpp:86] Creating Layer conv5_2/1x1_increase/bn_fixed_point
I0917 10:21:15.647667 32258 net.cpp:408] conv5_2/1x1_increase/bn_fixed_point <- conv5_2/1x1_increase/bn
I0917 10:21:15.647675 32258 net.cpp:369] conv5_2/1x1_increase/bn_fixed_point -> conv5_2/1x1_increase/bn (in-place)
I0917 10:21:15.647703 32258 net.cpp:124] Setting up conv5_2/1x1_increase/bn_fixed_point
I0917 10:21:15.647719 32258 net.cpp:131] Top shape: 25 240 14 14 (1176000)
I0917 10:21:15.647722 32258 net.cpp:139] Memory required for data: 1558444600
I0917 10:21:15.647727 32258 layer_factory.hpp:77] Creating layer conv5_2/1x1_increase/slice
I0917 10:21:15.647732 32258 net.cpp:86] Creating Layer conv5_2/1x1_increase/slice
I0917 10:21:15.647734 32258 net.cpp:408] conv5_2/1x1_increase/slice <- conv5_2/1x1_increase/bn
I0917 10:21:15.647740 32258 net.cpp:382] conv5_2/1x1_increase/slice -> conv5_2/1x1_increase/split1
I0917 10:21:15.647747 32258 net.cpp:382] conv5_2/1x1_increase/slice -> conv5_2/1x1_increase/split2
I0917 10:21:15.647788 32258 net.cpp:124] Setting up conv5_2/1x1_increase/slice
I0917 10:21:15.647792 32258 net.cpp:131] Top shape: 25 120 14 14 (588000)
I0917 10:21:15.647795 32258 net.cpp:131] Top shape: 25 120 14 14 (588000)
I0917 10:21:15.647797 32258 net.cpp:139] Memory required for data: 1563148600
I0917 10:21:15.647800 32258 layer_factory.hpp:77] Creating layer conv5_2/3x3_dwconv/slice_0
I0917 10:21:15.647832 32258 net.cpp:86] Creating Layer conv5_2/3x3_dwconv/slice_0
…
I0917 10:21:15.726393 32258 layer_factory.hpp:77] Creating layer conv7_1/3x3_dwconv/slice_2
I0917 10:21:15.726404 32258 net.cpp:86] Creating Layer conv7_1/3x3_dwconv/slice_2
I0917 10:21:15.726408 32258 net.cpp:408] conv7_1/3x3_dwconv/slice_2 <- conv7_1/1x1_increase/split3
I0917 10:21:15.726414 32258 net.cpp:382] conv7_1/3x3_dwconv/slice_2 -> conv7_1/3x3_dwconv/slice_2/bn
I0917 10:21:15.727370 32258 net.cpp:124] Setting up conv7_1/3x3_dwconv/slice_2
I0917 10:21:15.727381 32258 net.cpp:131] Top shape: 25 192 7 7 (235200)
I0917 10:21:15.727385 32258 net.cpp:139] Memory required for data: 2261179400
I0917 10:21:15.727391 32258 layer_factory.hpp:77] Creating layer conv7_1/3x3_dwconv/slice_2/hardswish
I0917 10:21:15.727399 32258 net.cpp:86] Creating Layer conv7_1/3x3_dwconv/slice_2/hardswish
I0917 10:21:15.727403 32258 net.cpp:408] conv7_1/3x3_dwconv/slice_2/hardswish <- conv7_1/3x3_dwconv/slice_2/bn
I0917 10:21:15.727408 32258 net.cpp:369] conv7_1/3x3_dwconv/slice_2/hardswish -> conv7_1/3x3_dwconv/slice_2/bn (in-place)
I0917 10:21:15.727442 32258 net.cpp:124] Setting up conv7_1/3x3_dwconv/slice_2/hardswish
I0917 10:21:15.727447 32258 net.cpp:131] Top shape: 25 192 7 7 (235200)
I0917 10:21:15.727449 32258 net.cpp:139] Memory required for data: 2262120200
I0917 10:21:15.727452 32258 layer_factory.hpp:77] Creating layer conv7_1/3x3_dwconv/concat
I0917 10:21:15.727457 32258 net.cpp:86] Creating Layer conv7_1/3x3_dwconv/concat
I0917 10:21:15.727459 32258 net.cpp:408] conv7_1/3x3_dwconv/concat <- conv7_1/3x3_dwconv/slice_0/bn
I0917 10:21:15.727463 32258 net.cpp:408] conv7_1/3x3_dwconv/concat <- conv7_1/3x3_dwconv/slice_1/bn
I0917 10:21:15.727468 32258 net.cpp:408] conv7_1/3x3_dwconv/concat <- conv7_1/3x3_dwconv/slice_2/bn
I0917 10:21:15.727473 32258 net.cpp:382] conv7_1/3x3_dwconv/concat -> conv7_1/3x3_dwconv/concat
I0917 10:21:15.727501 32258 net.cpp:124] Setting up conv7_1/3x3_dwconv/concat
I0917 10:21:15.727506 32258 net.cpp:131] Top shape: 25 576 7 7 (705600)
I0917 10:21:15.727509 32258 net.cpp:139] Memory required for data: 2264942600
I0917 10:21:15.727511 32258 layer_factory.hpp:77] Creating layer conv7_1/3x3_dwconv/concat_fixed_point
I0917 10:21:15.727516 32258 net.cpp:86] Creating Layer conv7_1/3x3_dwconv/concat_fixed_point
I0917 10:21:15.727519 32258 net.cpp:408] conv7_1/3x3_dwconv/concat_fixed_point <- conv7_1/3x3_dwconv/concat
I0917 10:21:15.727525 32258 net.cpp:369] conv7_1/3x3_dwconv/concat_fixed_point -> conv7_1/3x3_dwconv/concat (in-place)
I0917 10:21:15.727550 32258 net.cpp:124] Setting up conv7_1/3x3_dwconv/concat_fixed_point
I0917 10:21:15.727560 32258 net.cpp:131] Top shape: 25 576 7 7 (705600)
I0917 10:21:15.727562 32258 net.cpp:139] Memory required for data: 2267765000
I0917 10:21:15.727566 32258 layer_factory.hpp:77] Creating layer conv7_1/3x3_dwconv/concat_conv7_1/3x3_dwconv/concat_fixed_point_0_split
I0917 10:21:15.727571 32258 net.cpp:86] Creating Layer conv7_1/3x3_dwconv/concat_conv7_1/3x3_dwconv/concat_fixed_point_0_split
I0917 10:21:15.727574 32258 net.cpp:408] conv7_1/3x3_dwconv/concat_conv7_1/3x3_dwconv/concat_fixed_point_0_split <- conv7_1/3x3_dwconv/concat
I0917 10:21:15.727578 32258 net.cpp:382] conv7_1/3x3_dwconv/concat_conv7_1/3x3_dwconv/concat_fixed_point_0_split -> conv7_1/3x3_dwconv/concat_conv7_1/3x3_dwconv/concat_fixed_point_0_split_0
I0917 10:21:15.727583 32258 net.cpp:382] conv7_1/3x3_dwconv/concat_conv7_1/3x3_dwconv/concat_fixed_point_0_split -> conv7_1/3x3_dwconv/concat_conv7_1/3x3_dwconv/concat_fixed_point_0_split_1
I0917 10:21:15.727624 32258 net.cpp:124] Setting up conv7_1/3x3_dwconv/concat_conv7_1/3x3_dwconv/concat_fixed_point_0_split
I0917 10:21:15.727643 32258 net.cpp:131] Top shape: 25 576 7 7 (705600)
I0917 10:21:15.727646 32258 net.cpp:131] Top shape: 25 576 7 7 (705600)
I0917 10:21:15.727648 32258 net.cpp:139] Memory required for data: 2273409800
I0917 10:21:15.727651 32258 layer_factory.hpp:77] Creating layer conv7_1/3x3_dwconv/SE_global_pool
I0917 10:21:15.727668 32258 net.cpp:86] Creating Layer conv7_1/3x3_dwconv/SE_global_pool
I0917 10:21:15.727670 32258 net.cpp:408] conv7_1/3x3_dwconv/SE_global_pool <- conv7_1/3x3_dwconv/concat_conv7_1/3x3_dwconv/concat_fixed_point_0_split_0
I0917 10:21:15.727676 32258 net.cpp:382] conv7_1/3x3_dwconv/SE_global_pool -> conv7_1/3x3_dwconv/SE_global_pool
I0917 10:21:15.727705 32258 net.cpp:124] Setting up conv7_1/3x3_dwconv/SE_global_pool
I0917 10:21:15.727710 32258 net.cpp:131] Top shape: 25 576 1 1 (14400)
I0917 10:21:15.727712 32258 net.cpp:139] Memory required for data: 2273467400
I0917 10:21:15.727715 32258 layer_factory.hpp:77] Creating layer conv7_1/3x3_dwconv/SE_bn
I0917 10:21:15.727720 32258 net.cpp:86] Creating Layer conv7_1/3x3_dwconv/SE_bn
I0917 10:21:15.727723 32258 net.cpp:408] conv7_1/3x3_dwconv/SE_bn <- conv7_1/3x3_dwconv/SE_global_pool
I0917 10:21:15.727730 32258 net.cpp:382] conv7_1/3x3_dwconv/SE_bn -> conv7_1/3x3_dwconv/SE_bn
I0917 10:21:15.727777 32258 layer_factory.hpp:77] Creating layer conv7_1/3x3_dwconv/SE_bn
I0917 10:21:15.727918 32258 net.cpp:124] Setting up conv7_1/3x3_dwconv/SE_bn
I0917 10:21:15.727929 32258 net.cpp:131] Top shape: 25 576 1 1 (14400)
I0917 10:21:15.727932 32258 net.cpp:139] Memory required for data: 2273525000
I0917 10:21:15.727937 32258 layer_factory.hpp:77] Creating layer conv7_1/3x3_dwconv/SE_fc1
I0917 10:21:15.727946 32258 net.cpp:86] Creating Layer conv7_1/3x3_dwconv/SE_fc1
I0917 10:21:15.727950 32258 net.cpp:408] conv7_1/3x3_dwconv/SE_fc1 <- conv7_1/3x3_dwconv/SE_bn
I0917 10:21:15.727955 32258 net.cpp:382] conv7_1/3x3_dwconv/SE_fc1 -> conv7_1/3x3_dwconv/SE_fc1
I0917 10:21:15.728747 32258 net.cpp:124] Setting up conv7_1/3x3_dwconv/SE_fc1
I0917 10:21:15.728757 32258 net.cpp:131] Top shape: 25 36 1 1 (900)
I0917 10:21:15.728760 32258 net.cpp:139] Memory required for data: 2273528600
I0917 10:21:15.728765 32258 layer_factory.hpp:77] Creating layer conv7_1/3x3_dwconv/SE_fc1/relu
I0917 10:21:15.728770 32258 net.cpp:86] Creating Layer conv7_1/3x3_dwconv/SE_fc1/relu
I0917 10:21:15.728773 32258 net.cpp:408] conv7_1/3x3_dwconv/SE_fc1/relu <- conv7_1/3x3_dwconv/SE_fc1
I0917 10:21:15.728777 32258 net.cpp:369] conv7_1/3x3_dwconv/SE_fc1/relu -> conv7_1/3x3_dwconv/SE_fc1 (in-place)
I0917 10:21:15.729269 32258 net.cpp:124] Setting up conv7_1/3x3_dwconv/SE_fc1/relu
I0917 10:21:15.729279 32258 net.cpp:131] Top shape: 25 36 1 1 (900)
I0917 10:21:15.729284 32258 net.cpp:139] Memory required for data: 2273532200
I0917 10:21:15.729286 32258 layer_factory.hpp:77] Creating layer conv7_1/3x3_dwconv/SE_fc2
I0917 10:21:15.729296 32258 net.cpp:86] Creating Layer conv7_1/3x3_dwconv/SE_fc2
I0917 10:21:15.729300 32258 net.cpp:408] conv7_1/3x3_dwconv/SE_fc2 <- conv7_1/3x3_dwconv/SE_fc1
I0917 10:21:15.729306 32258 net.cpp:382] conv7_1/3x3_dwconv/SE_fc2 -> conv7_1/3x3_dwconv/SE_fc2
I0917 10:21:15.730136 32258 net.cpp:124] Setting up conv7_1/3x3_dwconv/SE_fc2
I0917 10:21:15.730146 32258 net.cpp:131] Top shape: 25 576 1 1 (14400)
I0917 10:21:15.730149 32258 net.cpp:139] Memory required for data: 2273589800
I0917 10:21:15.730154 32258 layer_factory.hpp:77] Creating layer conv7_1/3x3_dwconv/SE_weights
I0917 10:21:15.730159 32258 net.cpp:86] Creating Layer conv7_1/3x3_dwconv/SE_weights
I0917 10:21:15.730162 32258 net.cpp:408] conv7_1/3x3_dwconv/SE_weights <- conv7_1/3x3_dwconv/SE_fc2
I0917 10:21:15.730166 32258 net.cpp:369] conv7_1/3x3_dwconv/SE_weights -> conv7_1/3x3_dwconv/SE_fc2 (in-place)
I0917 10:21:15.730648 32258 net.cpp:124] Setting up conv7_1/3x3_dwconv/SE_weights
I0917 10:21:15.730657 32258 net.cpp:131] Top shape: 25 576 1 1 (14400)
I0917 10:21:15.730660 32258 net.cpp:139] Memory required for data: 2273647400
I0917 10:21:15.730664 32258 layer_factory.hpp:77] Creating layer conv7_1/3x3_dwconv/SE_weights/reshape
I0917 10:21:15.730669 32258 net.cpp:86] Creating Layer conv7_1/3x3_dwconv/SE_weights/reshape
I0917 10:21:15.730674 32258 net.cpp:408] conv7_1/3x3_dwconv/SE_weights/reshape <- conv7_1/3x3_dwconv/SE_fc2
I0917 10:21:15.730679 32258 net.cpp:382] conv7_1/3x3_dwconv/SE_weights/reshape -> conv7_1/3x3_dwconv/SE_weights/reshape
I0917 10:21:15.730721 32258 net.cpp:124] Setting up conv7_1/3x3_dwconv/SE_weights/reshape
I0917 10:21:15.730727 32258 net.cpp:131] Top shape: 25 576 (14400)
I0917 10:21:15.730729 32258 net.cpp:139] Memory required for data: 2273705000
I0917 10:21:15.730733 32258 layer_factory.hpp:77] Creating layer conv7_1/3x3_dwconv/scale
I0917 10:21:15.730741 32258 net.cpp:86] Creating Layer conv7_1/3x3_dwconv/scale
I0917 10:21:15.730743 32258 net.cpp:408] conv7_1/3x3_dwconv/scale <- conv7_1/3x3_dwconv/concat_conv7_1/3x3_dwconv/concat_fixed_point_0_split_1
I0917 10:21:15.730747 32258 net.cpp:408] conv7_1/3x3_dwconv/scale <- conv7_1/3x3_dwconv/SE_weights/reshape
I0917 10:21:15.730752 32258 net.cpp:382] conv7_1/3x3_dwconv/scale -> conv7_1/3x3_dwconv/scale
I0917 10:21:15.730829 32258 net.cpp:124] Setting up conv7_1/3x3_dwconv/scale
I0917 10:21:15.730835 32258 net.cpp:131] Top shape: 25 576 7 7 (705600)
I0917 10:21:15.730839 32258 net.cpp:139] Memory required for data: 2276527400
I0917 10:21:15.730840 32258 layer_factory.hpp:77] Creating layer conv7_1/3x3_dwconv/scale_fixed_point
I0917 10:21:15.730845 32258 net.cpp:86] Creating Layer conv7_1/3x3_dwconv/scale_fixed_point
I0917 10:21:15.730850 32258 net.cpp:408] conv7_1/3x3_dwconv/scale_fixed_point <- conv7_1/3x3_dwconv/scale
I0917 10:21:15.730854 32258 net.cpp:369] conv7_1/3x3_dwconv/scale_fixed_point -> conv7_1/3x3_dwconv/scale (in-place)
I0917 10:21:15.730878 32258 net.cpp:124] Setting up conv7_1/3x3_dwconv/scale_fixed_point
I0917 10:21:15.730883 32258 net.cpp:131] Top shape: 25 576 7 7 (705600)
I0917 10:21:15.730885 32258 net.cpp:139] Memory required for data: 2279349800
I0917 10:21:15.730890 32258 layer_factory.hpp:77] Creating layer conv7_1/1x1_decrease
I0917 10:21:15.730901 32258 net.cpp:86] Creating Layer conv7_1/1x1_decrease
I0917 10:21:15.730903 32258 net.cpp:408] conv7_1/1x1_decrease <- conv7_1/3x3_dwconv/scale
I0917 10:21:15.730908 32258 net.cpp:382] conv7_1/1x1_decrease -> conv7_1/1x1_decrease/bn
I0917 10:21:15.733944 32258 net.cpp:124] Setting up conv7_1/1x1_decrease
I0917 10:21:15.733969 32258 net.cpp:131] Top shape: 25 192 7 7 (235200)
I0917 10:21:15.733973 32258 net.cpp:139] Memory required for data: 2280290600
I0917 10:21:15.733978 32258 layer_factory.hpp:77] Creating layer conv7_1/elt_sum
I0917 10:21:15.733984 32258 net.cpp:86] Creating Layer conv7_1/elt_sum
I0917 10:21:15.733988 32258 net.cpp:408] conv7_1/elt_sum <- conv7_0/1x1_decrease/bn_conv7_0/1x1_decrease/bn_fixed_point_0_split_1
I0917 10:21:15.733992 32258 net.cpp:408] conv7_1/elt_sum <- conv7_1/1x1_decrease/bn
I0917 10:21:15.733996 32258 net.cpp:382] conv7_1/elt_sum -> conv7_1/elt_sum
I0917 10:21:15.734035 32258 net.cpp:124] Setting up conv7_1/elt_sum
I0917 10:21:15.734040 32258 net.cpp:131] Top shape: 25 192 7 7 (235200)
I0917 10:21:15.734048 32258 net.cpp:139] Memory required for data: 2281231400
I0917 10:21:15.734051 32258 layer_factory.hpp:77] Creating layer conv7_1/elt_sum_fixed_point
I0917 10:21:15.734058 32258 net.cpp:86] Creating Layer conv7_1/elt_sum_fixed_point
I0917 10:21:15.734061 32258 net.cpp:408] conv7_1/elt_sum_fixed_point <- conv7_1/elt_sum
I0917 10:21:15.734066 32258 net.cpp:369] conv7_1/elt_sum_fixed_point -> conv7_1/elt_sum (in-place)
I0917 10:21:15.734094 32258 net.cpp:124] Setting up conv7_1/elt_sum_fixed_point
I0917 10:21:15.734099 32258 net.cpp:131] Top shape: 25 192 7 7 (235200)
I0917 10:21:15.734102 32258 net.cpp:139] Memory required for data: 2282172200
I0917 10:21:15.734105 32258 layer_factory.hpp:77] Creating layer conv7_1/elt_sum_conv7_1/elt_sum_fixed_point_0_split
I0917 10:21:15.734109 32258 net.cpp:86] Creating Layer conv7_1/elt_sum_conv7_1/elt_sum_fixed_point_0_split
I0917 10:21:15.734112 32258 net.cpp:408] conv7_1/elt_sum_conv7_1/elt_sum_fixed_point_0_split <- conv7_1/elt_sum
I0917 10:21:15.734118 32258 net.cpp:382] conv7_1/elt_sum_conv7_1/elt_sum_fixed_point_0_split -> conv7_1/elt_sum_conv7_1/elt_sum_fixed_point_0_split_0
I0917 10:21:15.734123 32258 net.cpp:382] conv7_1/elt_sum_conv7_1/elt_sum_fixed_point_0_split -> conv7_1/elt_sum_conv7_1/elt_sum_fixed_point_0_split_1
I0917 10:21:15.734176 32258 net.cpp:124] Setting up conv7_1/elt_sum_conv7_1/elt_sum_fixed_point_0_split
I0917 10:21:15.734187 32258 net.cpp:131] Top shape: 25 192 7 7 (235200)
I0917 10:21:15.734191 32258 net.cpp:131] Top shape: 25 192 7 7 (235200)
I0917 10:21:15.734194 32258 net.cpp:139] Memory required for data: 2284053800
I0917 10:21:15.734196 32258 layer_factory.hpp:77] Creating layer conv7_2/1x1_increase
I0917 10:21:15.734220 32258 net.cpp:86] Creating Layer conv7_2/1x1_increase
I0917 10:21:15.734223 32258 net.cpp:408] conv7_2/1x1_increase <- conv7_1/elt_sum_conv7_1/elt_sum_fixed_point_0_split_0
I0917 10:21:15.734228 32258 net.cpp:382] conv7_2/1x1_increase -> conv7_2/1x1_increase/bn
I0917 10:21:15.737146 32258 net.cpp:124] Setting up conv7_2/1x1_increase
I0917 10:21:15.737157 32258 net.cpp:131] Top shape: 25 576 7 7 (705600)
I0917 10:21:15.737175 32258 net.cpp:139] Memory required for data: 2286876200
I0917 10:21:15.737182 32258 layer_factory.hpp:77] Creating layer conv7_2/1x1_increase/hardswish
I0917 10:21:15.737187 32258 net.cpp:86] Creating Layer conv7_2/1x1_increase/hardswish
I0917 10:21:15.737191 32258 net.cpp:408] conv7_2/1x1_increase/hardswish <- conv7_2/1x1_increase/bn
I0917 10:21:15.737195 32258 net.cpp:369] conv7_2/1x1_increase/hardswish -> conv7_2/1x1_increase/bn (in-place)
I0917 10:21:15.737228 32258 net.cpp:124] Setting up conv7_2/1x1_increase/hardswish
I0917 10:21:15.737233 32258 net.cpp:131] Top shape: 25 576 7 7 (705600)
I0917 10:21:15.737236 32258 net.cpp:139] Memory required for data: 2289698600
I0917 10:21:15.737238 32258 layer_factory.hpp:77] Creating layer conv7_2/1x1_increase/bn_fixed_point
I0917 10:21:15.737246 32258 net.cpp:86] Creating Layer conv7_2/1x1_increase/bn_fixed_point
I0917 10:21:15.737248 32258 net.cpp:408] conv7_2/1x1_increase/bn_fixed_point <- conv7_2/1x1_increase/bn
I0917 10:21:15.737252 32258 net.cpp:369] conv7_2/1x1_increase/bn_fixed_point -> conv7_2/1x1_increase/bn (in-place)
I0917 10:21:15.737279 32258 net.cpp:124] Setting up conv7_2/1x1_increase/bn_fixed_point
I0917 10:21:15.737284 32258 net.cpp:131] Top shape: 25 576 7 7 (705600)
I0917 10:21:15.737287 32258 net.cpp:139] Memory required for data: 2292521000
I0917 10:21:15.737290 32258 layer_factory.hpp:77] Creating layer conv7_2/1x1_increase/slice
I0917 10:21:15.737296 32258 net.cpp:86] Creating Layer conv7_2/1x1_increase/slice
I0917 10:21:15.737299 32258 net.cpp:408] conv7_2/1x1_increase/slice <- conv7_2/1x1_increase/bn
I0917 10:21:15.737304 32258 net.cpp:382] conv7_2/1x1_increase/slice -> conv7_2/1x1_increase/split1
I0917 10:21:15.737310 32258 net.cpp:382] conv7_2/1x1_increase/slice -> conv7_2/1x1_increase/split2
I0917 10:21:15.737315 32258 net.cpp:382] conv7_2/1x1_increase/slice -> conv7_2/1x1_increase/split3
I0917 10:21:15.737370 32258 net.cpp:124] Setting up conv7_2/1x1_increase/slice
I0917 10:21:15.737375 32258 net.cpp:131] Top shape: 25 192 7 7 (235200)
I0917 10:21:15.737378 32258 net.cpp:131] Top shape: 25 192 7 7 (235200)
I0917 10:21:15.737381 32258 net.cpp:131] Top shape: 25 192 7 7 (235200)
I0917 10:21:15.737383 32258 net.cpp:139] Memory required for data: 2295343400
I0917 10:21:15.737385 32258 layer_factory.hpp:77] Creating layer conv7_2/3x3_dwconv/slice_0
I0917 10:21:15.737396 32258 net.cpp:86] Creating Layer conv7_2/3x3_dwconv/slice_0
I0917 10:21:15.737399 32258 net.cpp:408] conv7_2/3x3_dwconv/slice_0 <- conv7_2/1x1_increase/split1
I0917 10:21:15.737418 32258 net.cpp:382] conv7_2/3x3_dwconv/slice_0 -> conv7_2/3x3_dwconv/slice_0/bn
I0917 10:21:15.737938 32258 net.cpp:124] Setting up conv7_2/3x3_dwconv/slice_0
I0917 10:21:15.737948 32258 net.cpp:131] Top shape: 25 192 7 7 (235200)
I0917 10:21:15.737967 32258 net.cpp:139] Memory required for data: 2296284200
I0917 10:21:15.737973 32258 layer_factory.hpp:77] Creating layer conv7_2/3x3_dwconv/slice_0/hardswish
I0917 10:21:15.737978 32258 net.cpp:86] Creating Layer conv7_2/3x3_dwconv/slice_0/hardswish
I0917 10:21:15.737983 32258 net.cpp:408] conv7_2/3x3_dwconv/slice_0/hardswish <- conv7_2/3x3_dwconv/slice_0/bn
I0917 10:21:15.737999 32258 net.cpp:369] conv7_2/3x3_dwconv/slice_0/hardswish -> conv7_2/3x3_dwconv/slice_0/bn (in-place)
I0917 10:21:15.738030 32258 net.cpp:124] Setting up conv7_2/3x3_dwconv/slice_0/hardswish
I0917 10:21:15.738036 32258 net.cpp:131] Top shape: 25 192 7 7 (235200)
I0917 10:21:15.738039 32258 net.cpp:139] Memory required for data: 2297225000
I0917 10:21:15.738041 32258 layer_factory.hpp:77] Creating layer conv7_2/3x3_dwconv/slice_1
I0917 10:21:15.738057 32258 net.cpp:86] Creating Layer conv7_2/3x3_dwconv/slice_1
I0917 10:21:15.738060 32258 net.cpp:408] conv7_2/3x3_dwconv/slice_1 <- conv7_2/1x1_increase/split2
I0917 10:21:15.738065 32258 net.cpp:382] conv7_2/3x3_dwconv/slice_1 -> conv7_2/3x3_dwconv/slice_1/bn
I0917 10:21:15.738695 32258 net.cpp:124] Setting up conv7_2/3x3_dwconv/slice_1
I0917 10:21:15.738704 32258 net.cpp:131] Top shape: 25 192 7 7 (235200)
I0917 10:21:15.738723 32258 net.cpp:139] Memory required for data: 2298165800
I0917 10:21:15.738729 32258 layer_factory.hpp:77] Creating layer conv7_2/3x3_dwconv/slice_1/hardswish
I0917 10:21:15.738734 32258 net.cpp:86] Creating Layer conv7_2/3x3_dwconv/slice_1/hardswish
I0917 10:21:15.738739 32258 net.cpp:408] conv7_2/3x3_dwconv/slice_1/hardswish <- conv7_2/3x3_dwconv/slice_1/bn
I0917 10:21:15.738744 32258 net.cpp:369] conv7_2/3x3_dwconv/slice_1/hardswish -> conv7_2/3x3_dwconv/slice_1/bn (in-place)
I0917 10:21:15.738775 32258 net.cpp:124] Setting up conv7_2/3x3_dwconv/slice_1/hardswish
I0917 10:21:15.738780 32258 net.cpp:131] Top shape: 25 192 7 7 (235200)
I0917 10:21:15.738782 32258 net.cpp:139] Memory required for data: 2299106600
I0917 10:21:15.738785 32258 layer_factory.hpp:77] Creating layer conv7_2/3x3_dwconv/slice_2
I0917 10:21:15.738796 32258 net.cpp:86] Creating Layer conv7_2/3x3_dwconv/slice_2
I0917 10:21:15.738802 32258 net.cpp:408] conv7_2/3x3_dwconv/slice_2 <- conv7_2/1x1_increase/split3
I0917 10:21:15.738811 32258 net.cpp:382] conv7_2/3x3_dwconv/slice_2 -> conv7_2/3x3_dwconv/slice_2/bn
I0917 10:21:15.739693 32258 net.cpp:124] Setting up conv7_2/3x3_dwconv/slice_2
I0917 10:21:15.739706 32258 net.cpp:131] Top shape: 25 192 7 7 (235200)
I0917 10:21:15.739719 32258 net.cpp:139] Memory required for data: 2300047400
I0917 10:21:15.739724 32258 layer_factory.hpp:77] Creating layer conv7_2/3x3_dwconv/slice_2/hardswish
I0917 10:21:15.739730 32258 net.cpp:86] Creating Layer conv7_2/3x3_dwconv/slice_2/hardswish
I0917 10:21:15.739734 32258 net.cpp:408] conv7_2/3x3_dwconv/slice_2/hardswish <- conv7_2/3x3_dwconv/slice_2/bn
I0917 10:21:15.739738 32258 net.cpp:369] conv7_2/3x3_dwconv/slice_2/hardswish -> conv7_2/3x3_dwconv/slice_2/bn (in-place)
I0917 10:21:15.739773 32258 net.cpp:124] Setting up conv7_2/3x3_dwconv/slice_2/hardswish
I0917 10:21:15.739778 32258 net.cpp:131] Top shape: 25 192 7 7 (235200)
I0917 10:21:15.739780 32258 net.cpp:139] Memory required for data: 2300988200
I0917 10:21:15.739784 32258 layer_factory.hpp:77] Creating layer conv7_2/3x3_dwconv/concat
I0917 10:21:15.739789 32258 net.cpp:86] Creating Layer conv7_2/3x3_dwconv/concat
I0917 10:21:15.739792 32258 net.cpp:408] conv7_2/3x3_dwconv/concat <- conv7_2/3x3_dwconv/slice_0/bn
I0917 10:21:15.739796 32258 net.cpp:408] conv7_2/3x3_dwconv/concat <- conv7_2/3x3_dwconv/slice_1/bn
I0917 10:21:15.739799 32258 net.cpp:408] conv7_2/3x3_dwconv/concat <- conv7_2/3x3_dwconv/slice_2/bn
I0917 10:21:15.739807 32258 net.cpp:382] conv7_2/3x3_dwconv/concat -> conv7_2/3x3_dwconv/concat
I0917 10:21:15.739853 32258 net.cpp:124] Setting up conv7_2/3x3_dwconv/concat
I0917 10:21:15.739859 32258 net.cpp:131] Top shape: 25 576 7 7 (705600)
I0917 10:21:15.739861 32258 net.cpp:139] Memory required for data: 2303810600
I0917 10:21:15.739864 32258 layer_factory.hpp:77] Creating layer conv7_2/3x3_dwconv/concat_fixed_point
I0917 10:21:15.739871 32258 net.cpp:86] Creating Layer conv7_2/3x3_dwconv/concat_fixed_point
I0917 10:21:15.739874 32258 net.cpp:408] conv7_2/3x3_dwconv/concat_fixed_point <- conv7_2/3x3_dwconv/concat
I0917 10:21:15.739881 32258 net.cpp:369] conv7_2/3x3_dwconv/concat_fixed_point -> conv7_2/3x3_dwconv/concat (in-place)
I0917 10:21:15.739918 32258 net.cpp:124] Setting up conv7_2/3x3_dwconv/concat_fixed_point
I0917 10:21:15.739924 32258 net.cpp:131] Top shape: 25 576 7 7 (705600)
I0917 10:21:15.739926 32258 net.cpp:139] Memory required for data: 2306633000
I0917 10:21:15.739930 32258 layer_factory.hpp:77] Creating layer conv7_2/3x3_dwconv/concat_conv7_2/3x3_dwconv/concat_fixed_point_0_split
I0917 10:21:15.739938 32258 net.cpp:86] Creating Layer conv7_2/3x3_dwconv/concat_conv7_2/3x3_dwconv/concat_fixed_point_0_split
I0917 10:21:15.739941 32258 net.cpp:408] conv7_2/3x3_dwconv/concat_conv7_2/3x3_dwconv/concat_fixed_point_0_split <- conv7_2/3x3_dwconv/concat
I0917 10:21:15.739945 32258 net.cpp:382] conv7_2/3x3_dwconv/concat_conv7_2/3x3_dwconv/concat_fixed_point_0_split -> conv7_2/3x3_dwconv/concat_conv7_2/3x3_dwconv/concat_fixed_point_0_split_0
I0917 10:21:15.739959 32258 net.cpp:382] conv7_2/3x3_dwconv/concat_conv7_2/3x3_dwconv/concat_fixed_point_0_split -> conv7_2/3x3_dwconv/concat_conv7_2/3x3_dwconv/concat_fixed_point_0_split_1
I0917 10:21:15.740016 32258 net.cpp:124] Setting up conv7_2/3x3_dwconv/concat_conv7_2/3x3_dwconv/concat_fixed_point_0_split
I0917 10:21:15.740021 32258 net.cpp:131] Top shape: 25 576 7 7 (705600)
I0917 10:21:15.740025 32258 net.cpp:131] Top shape: 25 576 7 7 (705600)
I0917 10:21:15.740027 32258 net.cpp:139] Memory required for data: 2312277800
I0917 10:21:15.740031 32258 layer_factory.hpp:77] Creating layer conv7_2/3x3_dwconv/SE_global_pool
I0917 10:21:15.740036 32258 net.cpp:86] Creating Layer conv7_2/3x3_dwconv/SE_global_pool
I0917 10:21:15.740039 32258 net.cpp:408] conv7_2/3x3_dwconv/SE_global_pool <- conv7_2/3x3_dwconv/concat_conv7_2/3x3_dwconv/concat_fixed_point_0_split_0
I0917 10:21:15.740043 32258 net.cpp:382] conv7_2/3x3_dwconv/SE_global_pool -> conv7_2/3x3_dwconv/SE_global_pool
I0917 10:21:15.740072 32258 net.cpp:124] Setting up conv7_2/3x3_dwconv/SE_global_pool
I0917 10:21:15.740077 32258 net.cpp:131] Top shape: 25 576 1 1 (14400)
I0917 10:21:15.740078 32258 net.cpp:139] Memory required for data: 2312335400
I0917 10:21:15.740082 32258 layer_factory.hpp:77] Creating layer conv7_2/3x3_dwconv/SE_bn
I0917 10:21:15.740088 32258 net.cpp:86] Creating Layer conv7_2/3x3_dwconv/SE_bn
I0917 10:21:15.740092 32258 net.cpp:408] conv7_2/3x3_dwconv/SE_bn <- conv7_2/3x3_dwconv/SE_global_pool
I0917 10:21:15.740095 32258 net.cpp:382] conv7_2/3x3_dwconv/SE_bn -> conv7_2/3x3_dwconv/SE_bn
I0917 10:21:15.740146 32258 layer_factory.hpp:77] Creating layer conv7_2/3x3_dwconv/SE_bn
I0917 10:21:15.740283 32258 net.cpp:124] Setting up conv7_2/3x3_dwconv/SE_bn
I0917 10:21:15.740289 32258 net.cpp:131] Top shape: 25 576 1 1 (14400)
I0917 10:21:15.740291 32258 net.cpp:139] Memory required for data: 2312393000
I0917 10:21:15.740296 32258 layer_factory.hpp:77] Creating layer conv7_2/3x3_dwconv/SE_fc1
I0917 10:21:15.740303 32258 net.cpp:86] Creating Layer conv7_2/3x3_dwconv/SE_fc1
I0917 10:21:15.740308 32258 net.cpp:408] conv7_2/3x3_dwconv/SE_fc1 <- conv7_2/3x3_dwconv/SE_bn
I0917 10:21:15.740314 32258 net.cpp:382] conv7_2/3x3_dwconv/SE_fc1 -> conv7_2/3x3_dwconv/SE_fc1
I0917 10:21:15.741086 32258 net.cpp:124] Setting up conv7_2/3x3_dwconv/SE_fc1
I0917 10:21:15.741096 32258 net.cpp:131] Top shape: 25 36 1 1 (900)
I0917 10:21:15.741099 32258 net.cpp:139] Memory required for data: 2312396600
I0917 10:21:15.741104 32258 layer_factory.hpp:77] Creating layer conv7_2/3x3_dwconv/SE_fc1/relu
I0917 10:21:15.741109 32258 net.cpp:86] Creating Layer conv7_2/3x3_dwconv/SE_fc1/relu
I0917 10:21:15.741113 32258 net.cpp:408] conv7_2/3x3_dwconv/SE_fc1/relu <- conv7_2/3x3_dwconv/SE_fc1
I0917 10:21:15.741119 32258 net.cpp:369] conv7_2/3x3_dwconv/SE_fc1/relu -> conv7_2/3x3_dwconv/SE_fc1 (in-place)
I0917 10:21:15.741636 32258 net.cpp:124] Setting up conv7_2/3x3_dwconv/SE_fc1/relu
I0917 10:21:15.741647 32258 net.cpp:131] Top shape: 25 36 1 1 (900)
I0917 10:21:15.741650 32258 net.cpp:139] Memory required for data: 2312400200
I0917 10:21:15.741653 32258 layer_factory.hpp:77] Creating layer conv7_2/3x3_dwconv/SE_fc2
I0917 10:21:15.741660 32258 net.cpp:86] Creating Layer conv7_2/3x3_dwconv/SE_fc2
I0917 10:21:15.741673 32258 net.cpp:408] conv7_2/3x3_dwconv/SE_fc2 <- conv7_2/3x3_dwconv/SE_fc1
I0917 10:21:15.741683 32258 net.cpp:382] conv7_2/3x3_dwconv/SE_fc2 -> conv7_2/3x3_dwconv/SE_fc2
I0917 10:21:15.742569 32258 net.cpp:124] Setting up conv7_2/3x3_dwconv/SE_fc2
I0917 10:21:15.742579 32258 net.cpp:131] Top shape: 25 576 1 1 (14400)
I0917 10:21:15.742583 32258 net.cpp:139] Memory required for data: 2312457800
I0917 10:21:15.742586 32258 layer_factory.hpp:77] Creating layer conv7_2/3x3_dwconv/SE_weights
I0917 10:21:15.742592 32258 net.cpp:86] Creating Layer conv7_2/3x3_dwconv/SE_weights
I0917 10:21:15.742596 32258 net.cpp:408] conv7_2/3x3_dwconv/SE_weights <- conv7_2/3x3_dwconv/SE_fc2
I0917 10:21:15.742600 32258 net.cpp:369] conv7_2/3x3_dwconv/SE_weights -> conv7_2/3x3_dwconv/SE_fc2 (in-place)
I0917 10:21:15.743260 32258 net.cpp:124] Setting up conv7_2/3x3_dwconv/SE_weights
I0917 10:21:15.743273 32258 net.cpp:131] Top shape: 25 576 1 1 (14400)
I0917 10:21:15.743291 32258 net.cpp:139] Memory required for data: 2312515400
I0917 10:21:15.743294 32258 layer_factory.hpp:77] Creating layer conv7_2/3x3_dwconv/SE_weights/reshape
I0917 10:21:15.743302 32258 net.cpp:86] Creating Layer conv7_2/3x3_dwconv/SE_weights/reshape
I0917 10:21:15.743306 32258 net.cpp:408] conv7_2/3x3_dwconv/SE_weights/reshape <- conv7_2/3x3_dwconv/SE_fc2
I0917 10:21:15.743311 32258 net.cpp:382] conv7_2/3x3_dwconv/SE_weights/reshape -> conv7_2/3x3_dwconv/SE_weights/reshape
I0917 10:21:15.743350 32258 net.cpp:124] Setting up conv7_2/3x3_dwconv/SE_weights/reshape
I0917 10:21:15.743355 32258 net.cpp:131] Top shape: 25 576 (14400)
I0917 10:21:15.743357 32258 net.cpp:139] Memory required for data: 2312573000
I0917 10:21:15.743360 32258 layer_factory.hpp:77] Creating layer conv7_2/3x3_dwconv/scale
I0917 10:21:15.743366 32258 net.cpp:86] Creating Layer conv7_2/3x3_dwconv/scale
I0917 10:21:15.743369 32258 net.cpp:408] conv7_2/3x3_dwconv/scale <- conv7_2/3x3_dwconv/concat_conv7_2/3x3_dwconv/concat_fixed_point_0_split_1
I0917 10:21:15.743373 32258 net.cpp:408] conv7_2/3x3_dwconv/scale <- conv7_2/3x3_dwconv/SE_weights/reshape
I0917 10:21:15.743379 32258 net.cpp:382] conv7_2/3x3_dwconv/scale -> conv7_2/3x3_dwconv/scale
I0917 10:21:15.743455 32258 net.cpp:124] Setting up conv7_2/3x3_dwconv/scale
I0917 10:21:15.743463 32258 net.cpp:131] Top shape: 25 576 7 7 (705600)
I0917 10:21:15.743465 32258 net.cpp:139] Memory required for data: 2315395400
I0917 10:21:15.743468 32258 layer_factory.hpp:77] Creating layer conv7_2/3x3_dwconv/scale_fixed_point
I0917 10:21:15.743489 32258 net.cpp:86] Creating Layer conv7_2/3x3_dwconv/scale_fixed_point
I0917 10:21:15.743494 32258 net.cpp:408] conv7_2/3x3_dwconv/scale_fixed_point <- conv7_2/3x3_dwconv/scale
I0917 10:21:15.743496 32258 net.cpp:369] conv7_2/3x3_dwconv/scale_fixed_point -> conv7_2/3x3_dwconv/scale (in-place)
I0917 10:21:15.743525 32258 net.cpp:124] Setting up conv7_2/3x3_dwconv/scale_fixed_point
I0917 10:21:15.743530 32258 net.cpp:131] Top shape: 25 576 7 7 (705600)
I0917 10:21:15.743532 32258 net.cpp:139] Memory required for data: 2318217800
I0917 10:21:15.743536 32258 layer_factory.hpp:77] Creating layer conv7_2/1x1_decrease
I0917 10:21:15.743546 32258 net.cpp:86] Creating Layer conv7_2/1x1_decrease
I0917 10:21:15.743549 32258 net.cpp:408] conv7_2/1x1_decrease <- conv7_2/3x3_dwconv/scale
I0917 10:21:15.743556 32258 net.cpp:382] conv7_2/1x1_decrease -> conv7_2/1x1_decrease/bn
I0917 10:21:15.747412 32258 net.cpp:124] Setting up conv7_2/1x1_decrease
I0917 10:21:15.747424 32258 net.cpp:131] Top shape: 25 192 7 7 (235200)
I0917 10:21:15.747442 32258 net.cpp:139] Memory required for data: 2319158600
I0917 10:21:15.747448 32258 layer_factory.hpp:77] Creating layer conv7_2/elt_sum
I0917 10:21:15.747457 32258 net.cpp:86] Creating Layer conv7_2/elt_sum
I0917 10:21:15.747460 32258 net.cpp:408] conv7_2/elt_sum <- conv7_1/elt_sum_conv7_1/elt_sum_fixed_point_0_split_1
I0917 10:21:15.747464 32258 net.cpp:408] conv7_2/elt_sum <- conv7_2/1x1_decrease/bn
I0917 10:21:15.747469 32258 net.cpp:382] conv7_2/elt_sum -> conv7_2/elt_sum
I0917 10:21:15.747515 32258 net.cpp:124] Setting up conv7_2/elt_sum
I0917 10:21:15.747521 32258 net.cpp:131] Top shape: 25 192 7 7 (235200)
I0917 10:21:15.747524 32258 net.cpp:139] Memory required for data: 2320099400
I0917 10:21:15.747526 32258 layer_factory.hpp:77] Creating layer conv7_2/elt_sum_fixed_point
I0917 10:21:15.747532 32258 net.cpp:86] Creating Layer conv7_2/elt_sum_fixed_point
I0917 10:21:15.747536 32258 net.cpp:408] conv7_2/elt_sum_fixed_point <- conv7_2/elt_sum
I0917 10:21:15.747542 32258 net.cpp:369] conv7_2/elt_sum_fixed_point -> conv7_2/elt_sum (in-place)
I0917 10:21:15.747570 32258 net.cpp:124] Setting up conv7_2/elt_sum_fixed_point
I0917 10:21:15.747575 32258 net.cpp:131] Top shape: 25 192 7 7 (235200)
I0917 10:21:15.747578 32258 net.cpp:139] Memory required for data: 2321040200
I0917 10:21:15.747582 32258 layer_factory.hpp:77] Creating layer conv8_0/1x1_increase
I0917 10:21:15.747592 32258 net.cpp:86] Creating Layer conv8_0/1x1_increase
I0917 10:21:15.747596 32258 net.cpp:408] conv8_0/1x1_increase <- conv7_2/elt_sum
I0917 10:21:15.747601 32258 net.cpp:382] conv8_0/1x1_increase -> conv8_0/1x1_increase/bn
I0917 10:21:15.752830 32258 net.cpp:124] Setting up conv8_0/1x1_increase
I0917 10:21:15.752840 32258 net.cpp:131] Top shape: 25 1152 7 7 (1411200)
I0917 10:21:15.752859 32258 net.cpp:139] Memory required for data: 2326685000
I0917 10:21:15.752866 32258 layer_factory.hpp:77] Creating layer conv8_0/1x1_increase/hardswish
I0917 10:21:15.752873 32258 net.cpp:86] Creating Layer conv8_0/1x1_increase/hardswish
I0917 10:21:15.752877 32258 net.cpp:408] conv8_0/1x1_increase/hardswish <- conv8_0/1x1_increase/bn
I0917 10:21:15.752882 32258 net.cpp:369] conv8_0/1x1_increase/hardswish -> conv8_0/1x1_increase/bn (in-place)
I0917 10:21:15.752914 32258 net.cpp:124] Setting up conv8_0/1x1_increase/hardswish
I0917 10:21:15.752919 32258 net.cpp:131] Top shape: 25 1152 7 7 (1411200)
I0917 10:21:15.752923 32258 net.cpp:139] Memory required for data: 2332329800
I0917 10:21:15.752924 32258 layer_factory.hpp:77] Creating layer conv8_0/1x1_increase/bn_fixed_point
I0917 10:21:15.752933 32258 net.cpp:86] Creating Layer conv8_0/1x1_increase/bn_fixed_point
I0917 10:21:15.752936 32258 net.cpp:408] conv8_0/1x1_increase/bn_fixed_point <- conv8_0/1x1_increase/bn
I0917 10:21:15.752940 32258 net.cpp:369] conv8_0/1x1_increase/bn_fixed_point -> conv8_0/1x1_increase/bn (in-place)
I0917 10:21:15.752971 32258 net.cpp:124] Setting up conv8_0/1x1_increase/bn_fixed_point
I0917 10:21:15.752976 32258 net.cpp:131] Top shape: 25 1152 7 7 (1411200)
I0917 10:21:15.752979 32258 net.cpp:139] Memory required for data: 2337974600
I0917 10:21:15.752982 32258 layer_factory.hpp:77] Creating layer conv8_0/1x1_increase/slice
I0917 10:21:15.752987 32258 net.cpp:86] Creating Layer conv8_0/1x1_increase/slice
I0917 10:21:15.752990 32258 net.cpp:408] conv8_0/1x1_increase/slice <- conv8_0/1x1_increase/bn
I0917 10:21:15.752996 32258 net.cpp:382] conv8_0/1x1_increase/slice -> conv8_0/1x1_increase/split1
I0917 10:21:15.753002 32258 net.cpp:382] conv8_0/1x1_increase/slice -> conv8_0/1x1_increase/split2
I0917 10:21:15.753006 32258 net.cpp:382] conv8_0/1x1_increase/slice -> conv8_0/1x1_increase/split3
I0917 10:21:15.753064 32258 net.cpp:124] Setting up conv8_0/1x1_increase/slice
I0917 10:21:15.753070 32258 net.cpp:131] Top shape: 25 384 7 7 (470400)
I0917 10:21:15.753073 32258 net.cpp:131] Top shape: 25 384 7 7 (470400)
I0917 10:21:15.753077 32258 net.cpp:131] Top shape: 25 384 7 7 (470400)
I0917 10:21:15.753078 32258 net.cpp:139] Memory required for data: 2343619400
I0917 10:21:15.753082 32258 layer_factory.hpp:77] Creating layer conv8_0/3x3_dwconv/slice_0
I0917 10:21:15.753103 32258 net.cpp:86] Creating Layer conv8_0/3x3_dwconv/slice_0
I0917 10:21:15.753108 32258 net.cpp:408] conv8_0/3x3_dwconv/slice_0 <- conv8_0/1x1_increase/split1
I0917 10:21:15.753113 32258 net.cpp:382] conv8_0/3x3_dwconv/slice_0 -> conv8_0/3x3_dwconv/slice_0/bn
I0917 10:21:15.753664 32258 net.cpp:124] Setting up conv8_0/3x3_dwconv/slice_0
I0917 10:21:15.753672 32258 net.cpp:131] Top shape: 25 384 7 7 (470400)
I0917 10:21:15.753700 32258 net.cpp:139] Memory required for data: 2345501000
I0917 10:21:15.753710 32258 layer_factory.hpp:77] Creating layer conv8_0/3x3_dwconv/slice_0/hardswish
I0917 10:21:15.753715 32258 net.cpp:86] Creating Layer conv8_0/3x3_dwconv/slice_0/hardswish
I0917 10:21:15.753718 32258 net.cpp:408] conv8_0/3x3_dwconv/slice_0/hardswish <- conv8_0/3x3_dwconv/slice_0/bn
I0917 10:21:15.753723 32258 net.cpp:369] conv8_0/3x3_dwconv/slice_0/hardswish -> conv8_0/3x3_dwconv/slice_0/bn (in-place)
I0917 10:21:15.753757 32258 net.cpp:124] Setting up conv8_0/3x3_dwconv/slice_0/hardswish
I0917 10:21:15.753763 32258 net.cpp:131] Top shape: 25 384 7 7 (470400)
I0917 10:21:15.753765 32258 net.cpp:139] Memory required for data: 2347382600
I0917 10:21:15.753768 32258 layer_factory.hpp:77] Creating layer conv8_0/3x3_dwconv/slice_1
I0917 10:21:15.753777 32258 net.cpp:86] Creating Layer conv8_0/3x3_dwconv/slice_1
I0917 10:21:15.753782 32258 net.cpp:408] conv8_0/3x3_dwconv/slice_1 <- conv8_0/1x1_increase/split2
I0917 10:21:15.753787 32258 net.cpp:382] conv8_0/3x3_dwconv/slice_1 -> conv8_0/3x3_dwconv/slice_1/bn
I0917 10:21:15.754731 32258 net.cpp:124] Setting up conv8_0/3x3_dwconv/slice_1
I0917 10:21:15.754743 32258 net.cpp:131] Top shape: 25 384 7 7 (470400)
I0917 10:21:15.754757 32258 net.cpp:139] Memory required for data: 2349264200
I0917 10:21:15.754763 32258 layer_factory.hpp:77] Creating layer conv8_0/3x3_dwconv/slice_1/hardswish
I0917 10:21:15.754770 32258 net.cpp:86] Creating Layer conv8_0/3x3_dwconv/slice_1/hardswish
I0917 10:21:15.754775 32258 net.cpp:408] conv8_0/3x3_dwconv/slice_1/hardswish <- conv8_0/3x3_dwconv/slice_1/bn
I0917 10:21:15.754781 32258 net.cpp:369] conv8_0/3x3_dwconv/slice_1/hardswish -> conv8_0/3x3_dwconv/slice_1/bn (in-place)
I0917 10:21:15.754819 32258 net.cpp:124] Setting up conv8_0/3x3_dwconv/slice_1/hardswish
I0917 10:21:15.754825 32258 net.cpp:131] Top shape: 25 384 7 7 (470400)
I0917 10:21:15.754827 32258 net.cpp:139] Memory required for data: 2351145800
I0917 10:21:15.754830 32258 layer_factory.hpp:77] Creating layer conv8_0/3x3_dwconv/slice_2
I0917 10:21:15.754839 32258 net.cpp:86] Creating Layer conv8_0/3x3_dwconv/slice_2
I0917 10:21:15.754843 32258 net.cpp:408] conv8_0/3x3_dwconv/slice_2 <- conv8_0/1x1_increase/split3
I0917 10:21:15.754850 32258 net.cpp:382] conv8_0/3x3_dwconv/slice_2 -> conv8_0/3x3_dwconv/slice_2/bn
I0917 10:21:15.755975 32258 net.cpp:124] Setting up conv8_0/3x3_dwconv/slice_2
I0917 10:21:15.755986 32258 net.cpp:131] Top shape: 25 384 7 7 (470400)
I0917 10:21:15.756000 32258 net.cpp:139] Memory required for data: 2353027400
I0917 10:21:15.756007 32258 layer_factory.hpp:77] Creating layer conv8_0/3x3_dwconv/slice_2/hardswish
I0917 10:21:15.756016 32258 net.cpp:86] Creating Layer conv8_0/3x3_dwconv/slice_2/hardswish
I0917 10:21:15.756019 32258 net.cpp:408] conv8_0/3x3_dwconv/slice_2/hardswish <- conv8_0/3x3_dwconv/slice_2/bn
I0917 10:21:15.756023 32258 net.cpp:369] conv8_0/3x3_dwconv/slice_2/hardswish -> conv8_0/3x3_dwconv/slice_2/bn (in-place)
I0917 10:21:15.756057 32258 net.cpp:124] Setting up conv8_0/3x3_dwconv/slice_2/hardswish
I0917 10:21:15.756062 32258 net.cpp:131] Top shape: 25 384 7 7 (470400)
I0917 10:21:15.756065 32258 net.cpp:139] Memory required for data: 2354909000
I0917 10:21:15.756068 32258 layer_factory.hpp:77] Creating layer conv8_0/3x3_dwconv/concat
I0917 10:21:15.756073 32258 net.cpp:86] Creating Layer conv8_0/3x3_dwconv/concat
I0917 10:21:15.756076 32258 net.cpp:408] conv8_0/3x3_dwconv/concat <- conv8_0/3x3_dwconv/slice_0/bn
I0917 10:21:15.756080 32258 net.cpp:408] conv8_0/3x3_dwconv/concat <- conv8_0/3x3_dwconv/slice_1/bn
I0917 10:21:15.756083 32258 net.cpp:408] conv8_0/3x3_dwconv/concat <- conv8_0/3x3_dwconv/slice_2/bn
I0917 10:21:15.756089 32258 net.cpp:382] conv8_0/3x3_dwconv/concat -> conv8_0/3x3_dwconv/concat
I0917 10:21:15.756119 32258 net.cpp:124] Setting up conv8_0/3x3_dwconv/concat
I0917 10:21:15.756124 32258 net.cpp:131] Top shape: 25 1152 7 7 (1411200)
I0917 10:21:15.756126 32258 net.cpp:139] Memory required for data: 2360553800
I0917 10:21:15.756139 32258 layer_factory.hpp:77] Creating layer conv8_0/3x3_dwconv/concat_fixed_point
I0917 10:21:15.756144 32258 net.cpp:86] Creating Layer conv8_0/3x3_dwconv/concat_fixed_point
I0917 10:21:15.756147 32258 net.cpp:408] conv8_0/3x3_dwconv/concat_fixed_point <- conv8_0/3x3_dwconv/concat
I0917 10:21:15.756153 32258 net.cpp:369] conv8_0/3x3_dwconv/concat_fixed_point -> conv8_0/3x3_dwconv/concat (in-place)
I0917 10:21:15.756181 32258 net.cpp:124] Setting up conv8_0/3x3_dwconv/concat_fixed_point
I0917 10:21:15.756188 32258 net.cpp:131] Top shape: 25 1152 7 7 (1411200)
I0917 10:21:15.756191 32258 net.cpp:139] Memory required for data: 2366198600
I0917 10:21:15.756194 32258 layer_factory.hpp:77] Creating layer conv8_0/3x3_dwconv/concat_conv8_0/3x3_dwconv/concat_fixed_point_0_split
I0917 10:21:15.756199 32258 net.cpp:86] Creating Layer conv8_0/3x3_dwconv/concat_conv8_0/3x3_dwconv/concat_fixed_point_0_split
I0917 10:21:15.756202 32258 net.cpp:408] conv8_0/3x3_dwconv/concat_conv8_0/3x3_dwconv/concat_fixed_point_0_split <- conv8_0/3x3_dwconv/concat
I0917 10:21:15.756206 32258 net.cpp:382] conv8_0/3x3_dwconv/concat_conv8_0/3x3_dwconv/concat_fixed_point_0_split -> conv8_0/3x3_dwconv/concat_conv8_0/3x3_dwconv/concat_fixed_point_0_split_0
I0917 10:21:15.756211 32258 net.cpp:382] conv8_0/3x3_dwconv/concat_conv8_0/3x3_dwconv/concat_fixed_point_0_split -> conv8_0/3x3_dwconv/concat_conv8_0/3x3_dwconv/concat_fixed_point_0_split_1
I0917 10:21:15.756266 32258 net.cpp:124] Setting up conv8_0/3x3_dwconv/concat_conv8_0/3x3_dwconv/concat_fixed_point_0_split
I0917 10:21:15.756271 32258 net.cpp:131] Top shape: 25 1152 7 7 (1411200)
I0917 10:21:15.756274 32258 net.cpp:131] Top shape: 25 1152 7 7 (1411200)
I0917 10:21:15.756276 32258 net.cpp:139] Memory required for data: 2377488200
I0917 10:21:15.756278 32258 layer_factory.hpp:77] Creating layer conv8_0/3x3_dwconv/SE_global_pool
I0917 10:21:15.756285 32258 net.cpp:86] Creating Layer conv8_0/3x3_dwconv/SE_global_pool
I0917 10:21:15.756289 32258 net.cpp:408] conv8_0/3x3_dwconv/SE_global_pool <- conv8_0/3x3_dwconv/concat_conv8_0/3x3_dwconv/concat_fixed_point_0_split_0
I0917 10:21:15.756292 32258 net.cpp:382] conv8_0/3x3_dwconv/SE_global_pool -> conv8_0/3x3_dwconv/SE_global_pool
I0917 10:21:15.756319 32258 net.cpp:124] Setting up conv8_0/3x3_dwconv/SE_global_pool
I0917 10:21:15.756325 32258 net.cpp:131] Top shape: 25 1152 1 1 (28800)
I0917 10:21:15.756326 32258 net.cpp:139] Memory required for data: 2377603400
I0917 10:21:15.756328 32258 layer_factory.hpp:77] Creating layer conv8_0/3x3_dwconv/SE_bn
I0917 10:21:15.756335 32258 net.cpp:86] Creating Layer conv8_0/3x3_dwconv/SE_bn
I0917 10:21:15.756337 32258 net.cpp:408] conv8_0/3x3_dwconv/SE_bn <- conv8_0/3x3_dwconv/SE_global_pool
I0917 10:21:15.756343 32258 net.cpp:382] conv8_0/3x3_dwconv/SE_bn -> conv8_0/3x3_dwconv/SE_bn
I0917 10:21:15.756383 32258 layer_factory.hpp:77] Creating layer conv8_0/3x3_dwconv/SE_bn
I0917 10:21:15.756494 32258 net.cpp:124] Setting up conv8_0/3x3_dwconv/SE_bn
I0917 10:21:15.756500 32258 net.cpp:131] Top shape: 25 1152 1 1 (28800)
I0917 10:21:15.756503 32258 net.cpp:139] Memory required for data: 2377718600
I0917 10:21:15.756507 32258 layer_factory.hpp:77] Creating layer conv8_0/3x3_dwconv/SE_fc1
I0917 10:21:15.756516 32258 net.cpp:86] Creating Layer conv8_0/3x3_dwconv/SE_fc1
I0917 10:21:15.756520 32258 net.cpp:408] conv8_0/3x3_dwconv/SE_fc1 <- conv8_0/3x3_dwconv/SE_bn
I0917 10:21:15.756525 32258 net.cpp:382] conv8_0/3x3_dwconv/SE_fc1 -> conv8_0/3x3_dwconv/SE_fc1
I0917 10:21:15.758623 32258 net.cpp:124] Setting up conv8_0/3x3_dwconv/SE_fc1
I0917 10:21:15.758635 32258 net.cpp:131] Top shape: 25 72 1 1 (1800)
I0917 10:21:15.758637 32258 net.cpp:139] Memory required for data: 2377725800
I0917 10:21:15.758641 32258 layer_factory.hpp:77] Creating layer conv8_0/3x3_dwconv/SE_fc1/relu
I0917 10:21:15.758646 32258 net.cpp:86] Creating Layer conv8_0/3x3_dwconv/SE_fc1/relu
I0917 10:21:15.758649 32258 net.cpp:408] conv8_0/3x3_dwconv/SE_fc1/relu <- conv8_0/3x3_dwconv/SE_fc1
I0917 10:21:15.758654 32258 net.cpp:369] conv8_0/3x3_dwconv/SE_fc1/relu -> conv8_0/3x3_dwconv/SE_fc1 (in-place)
I0917 10:21:15.759197 32258 net.cpp:124] Setting up conv8_0/3x3_dwconv/SE_fc1/relu
I0917 10:21:15.759207 32258 net.cpp:131] Top shape: 25 72 1 1 (1800)
I0917 10:21:15.759210 32258 net.cpp:139] Memory required for data: 2377733000
I0917 10:21:15.759214 32258 layer_factory.hpp:77] Creating layer conv8_0/3x3_dwconv/SE_fc2
I0917 10:21:15.759224 32258 net.cpp:86] Creating Layer conv8_0/3x3_dwconv/SE_fc2
I0917 10:21:15.759228 32258 net.cpp:408] conv8_0/3x3_dwconv/SE_fc2 <- conv8_0/3x3_dwconv/SE_fc1
I0917 10:21:15.759235 32258 net.cpp:382] conv8_0/3x3_dwconv/SE_fc2 -> conv8_0/3x3_dwconv/SE_fc2
I0917 10:21:15.761474 32258 net.cpp:124] Setting up conv8_0/3x3_dwconv/SE_fc2
I0917 10:21:15.761484 32258 net.cpp:131] Top shape: 25 1152 1 1 (28800)
I0917 10:21:15.761487 32258 net.cpp:139] Memory required for data: 2377848200
I0917 10:21:15.761492 32258 layer_factory.hpp:77] Creating layer conv8_0/3x3_dwconv/SE_weights
I0917 10:21:15.761497 32258 net.cpp:86] Creating Layer conv8_0/3x3_dwconv/SE_weights
I0917 10:21:15.761500 32258 net.cpp:408] conv8_0/3x3_dwconv/SE_weights <- conv8_0/3x3_dwconv/SE_fc2
I0917 10:21:15.761507 32258 net.cpp:369] conv8_0/3x3_dwconv/SE_weights -> conv8_0/3x3_dwconv/SE_fc2 (in-place)
I0917 10:21:15.761996 32258 net.cpp:124] Setting up conv8_0/3x3_dwconv/SE_weights
I0917 10:21:15.762006 32258 net.cpp:131] Top shape: 25 1152 1 1 (28800)
I0917 10:21:15.762008 32258 net.cpp:139] Memory required for data: 2377963400
I0917 10:21:15.762012 32258 layer_factory.hpp:77] Creating layer conv8_0/3x3_dwconv/SE_weights/reshape
I0917 10:21:15.762017 32258 net.cpp:86] Creating Layer conv8_0/3x3_dwconv/SE_weights/reshape
I0917 10:21:15.762019 32258 net.cpp:408] conv8_0/3x3_dwconv/SE_weights/reshape <- conv8_0/3x3_dwconv/SE_fc2
I0917 10:21:15.762027 32258 net.cpp:382] conv8_0/3x3_dwconv/SE_weights/reshape -> conv8_0/3x3_dwconv/SE_weights/reshape
I0917 10:21:15.762059 32258 net.cpp:124] Setting up conv8_0/3x3_dwconv/SE_weights/reshape
I0917 10:21:15.762064 32258 net.cpp:131] Top shape: 25 1152 (28800)
I0917 10:21:15.762068 32258 net.cpp:139] Memory required for data: 2378078600
I0917 10:21:15.762069 32258 layer_factory.hpp:77] Creating layer conv8_0/3x3_dwconv/scale
I0917 10:21:15.762076 32258 net.cpp:86] Creating Layer conv8_0/3x3_dwconv/scale
I0917 10:21:15.762079 32258 net.cpp:408] conv8_0/3x3_dwconv/scale <- conv8_0/3x3_dwconv/concat_conv8_0/3x3_dwconv/concat_fixed_point_0_split_1
I0917 10:21:15.762082 32258 net.cpp:408] conv8_0/3x3_dwconv/scale <- conv8_0/3x3_dwconv/SE_weights/reshape
I0917 10:21:15.762086 32258 net.cpp:382] conv8_0/3x3_dwconv/scale -> conv8_0/3x3_dwconv/scale
I0917 10:21:15.762164 32258 net.cpp:124] Setting up conv8_0/3x3_dwconv/scale
I0917 10:21:15.762171 32258 net.cpp:131] Top shape: 25 1152 7 7 (1411200)
I0917 10:21:15.762173 32258 net.cpp:139] Memory required for data: 2383723400
I0917 10:21:15.762176 32258 layer_factory.hpp:77] Creating layer conv8_0/3x3_dwconv/scale_fixed_point
I0917 10:21:15.762181 32258 net.cpp:86] Creating Layer conv8_0/3x3_dwconv/scale_fixed_point
I0917 10:21:15.762184 32258 net.cpp:408] conv8_0/3x3_dwconv/scale_fixed_point <- conv8_0/3x3_dwconv/scale
I0917 10:21:15.762189 32258 net.cpp:369] conv8_0/3x3_dwconv/scale_fixed_point -> conv8_0/3x3_dwconv/scale (in-place)
I0917 10:21:15.762217 32258 net.cpp:124] Setting up conv8_0/3x3_dwconv/scale_fixed_point
I0917 10:21:15.762221 32258 net.cpp:131] Top shape: 25 1152 7 7 (1411200)
I0917 10:21:15.762223 32258 net.cpp:139] Memory required for data: 2389368200
I0917 10:21:15.762228 32258 layer_factory.hpp:77] Creating layer conv8_0/1x1_decrease
I0917 10:21:15.762236 32258 net.cpp:86] Creating Layer conv8_0/1x1_decrease
I0917 10:21:15.762239 32258 net.cpp:408] conv8_0/1x1_decrease <- conv8_0/3x3_dwconv/scale
I0917 10:21:15.762245 32258 net.cpp:382] conv8_0/1x1_decrease -> conv8_0/1x1_decrease/bn
I0917 10:21:15.771634 32258 net.cpp:124] Setting up conv8_0/1x1_decrease
I0917 10:21:15.771646 32258 net.cpp:131] Top shape: 25 320 7 7 (392000)
I0917 10:21:15.771675 32258 net.cpp:139] Memory required for data: 2390936200
I0917 10:21:15.771682 32258 layer_factory.hpp:77] Creating layer conv8_0/1x1_decrease/bn_fixed_point
I0917 10:21:15.771692 32258 net.cpp:86] Creating Layer conv8_0/1x1_decrease/bn_fixed_point
I0917 10:21:15.771694 32258 net.cpp:408] conv8_0/1x1_decrease/bn_fixed_point <- conv8_0/1x1_decrease/bn
I0917 10:21:15.771699 32258 net.cpp:369] conv8_0/1x1_decrease/bn_fixed_point -> conv8_0/1x1_decrease/bn (in-place)
I0917 10:21:15.771739 32258 net.cpp:124] Setting up conv8_0/1x1_decrease/bn_fixed_point
I0917 10:21:15.771745 32258 net.cpp:131] Top shape: 25 320 7 7 (392000)
I0917 10:21:15.771747 32258 net.cpp:139] Memory required for data: 2392504200
I0917 10:21:15.771752 32258 layer_factory.hpp:77] Creating layer conv9/1x1
I0917 10:21:15.771761 32258 net.cpp:86] Creating Layer conv9/1x1
I0917 10:21:15.771765 32258 net.cpp:408] conv9/1x1 <- conv8_0/1x1_decrease/bn
I0917 10:21:15.771771 32258 net.cpp:382] conv9/1x1 -> conv9/1x1/bn
I0917 10:21:15.782063 32258 net.cpp:124] Setting up conv9/1x1
I0917 10:21:15.782074 32258 net.cpp:131] Top shape: 25 1280 7 7 (1568000)
I0917 10:21:15.782093 32258 net.cpp:139] Memory required for data: 2398776200
I0917 10:21:15.782099 32258 layer_factory.hpp:77] Creating layer conv9/1x1/relu
I0917 10:21:15.782105 32258 net.cpp:86] Creating Layer conv9/1x1/relu
I0917 10:21:15.782109 32258 net.cpp:408] conv9/1x1/relu <- conv9/1x1/bn
I0917 10:21:15.782114 32258 net.cpp:369] conv9/1x1/relu -> conv9/1x1/bn (in-place)
I0917 10:21:15.782810 32258 net.cpp:124] Setting up conv9/1x1/relu
I0917 10:21:15.782822 32258 net.cpp:131] Top shape: 25 1280 7 7 (1568000)
I0917 10:21:15.782825 32258 net.cpp:139] Memory required for data: 2405048200
I0917 10:21:15.782829 32258 layer_factory.hpp:77] Creating layer conv9/1x1/bn_fixed_point
I0917 10:21:15.782835 32258 net.cpp:86] Creating Layer conv9/1x1/bn_fixed_point
I0917 10:21:15.782838 32258 net.cpp:408] conv9/1x1/bn_fixed_point <- conv9/1x1/bn
I0917 10:21:15.782845 32258 net.cpp:369] conv9/1x1/bn_fixed_point -> conv9/1x1/bn (in-place)
I0917 10:21:15.782881 32258 net.cpp:124] Setting up conv9/1x1/bn_fixed_point
I0917 10:21:15.782886 32258 net.cpp:131] Top shape: 25 1280 7 7 (1568000)
I0917 10:21:15.782888 32258 net.cpp:139] Memory required for data: 2411320200
I0917 10:21:15.782892 32258 layer_factory.hpp:77] Creating layer avepool/7x7
I0917 10:21:15.782896 32258 net.cpp:86] Creating Layer avepool/7x7
I0917 10:21:15.782899 32258 net.cpp:408] avepool/7x7 <- conv9/1x1/bn
I0917 10:21:15.782905 32258 net.cpp:382] avepool/7x7 -> avepool/7x7
I0917 10:21:15.783474 32258 net.cpp:124] Setting up avepool/7x7
I0917 10:21:15.783484 32258 net.cpp:131] Top shape: 25 1280 1 1 (32000)
I0917 10:21:15.783488 32258 net.cpp:139] Memory required for data: 2411448200
I0917 10:21:15.783491 32258 layer_factory.hpp:77] Creating layer avepool/7x7_fixed_point
I0917 10:21:15.783497 32258 net.cpp:86] Creating Layer avepool/7x7_fixed_point
I0917 10:21:15.783501 32258 net.cpp:408] avepool/7x7_fixed_point <- avepool/7x7
I0917 10:21:15.783507 32258 net.cpp:369] avepool/7x7_fixed_point -> avepool/7x7 (in-place)
I0917 10:21:15.783535 32258 net.cpp:124] Setting up avepool/7x7_fixed_point
I0917 10:21:15.783538 32258 net.cpp:131] Top shape: 25 1280 1 1 (32000)
I0917 10:21:15.783541 32258 net.cpp:139] Memory required for data: 2411576200
I0917 10:21:15.783545 32258 layer_factory.hpp:77] Creating layer classifier
I0917 10:21:15.783555 32258 net.cpp:86] Creating Layer classifier
I0917 10:21:15.783558 32258 net.cpp:408] classifier <- avepool/7x7
I0917 10:21:15.783563 32258 net.cpp:382] classifier -> classifier
I0917 10:21:15.815165 32258 net.cpp:124] Setting up classifier
I0917 10:21:15.815178 32258 net.cpp:131] Top shape: 25 1000 1 1 (25000)
I0917 10:21:15.815196 32258 net.cpp:139] Memory required for data: 2411676200
I0917 10:21:15.815202 32258 layer_factory.hpp:77] Creating layer classifier_classifier_0_split
I0917 10:21:15.815208 32258 net.cpp:86] Creating Layer classifier_classifier_0_split
I0917 10:21:15.815212 32258 net.cpp:408] classifier_classifier_0_split <- classifier
I0917 10:21:15.815229 32258 net.cpp:382] classifier_classifier_0_split -> classifier_classifier_0_split_0
I0917 10:21:15.815237 32258 net.cpp:382] classifier_classifier_0_split -> classifier_classifier_0_split_1
I0917 10:21:15.815241 32258 net.cpp:382] classifier_classifier_0_split -> classifier_classifier_0_split_2
I0917 10:21:15.815309 32258 net.cpp:124] Setting up classifier_classifier_0_split
I0917 10:21:15.815322 32258 net.cpp:131] Top shape: 25 1000 1 1 (25000)
I0917 10:21:15.815326 32258 net.cpp:131] Top shape: 25 1000 1 1 (25000)
I0917 10:21:15.815330 32258 net.cpp:131] Top shape: 25 1000 1 1 (25000)
I0917 10:21:15.815331 32258 net.cpp:139] Memory required for data: 2411976200
I0917 10:21:15.815335 32258 layer_factory.hpp:77] Creating layer loss
I0917 10:21:15.815344 32258 net.cpp:86] Creating Layer loss
I0917 10:21:15.815347 32258 net.cpp:408] loss <- classifier_classifier_0_split_0
I0917 10:21:15.815351 32258 net.cpp:408] loss <- label_data_1_split_0
I0917 10:21:15.815358 32258 net.cpp:382] loss -> loss
…
