I1026 15:23:51.173575 33565 net.cpp:53] Initializing net from parameters: 
state {
  phase: TEST
  level: 0
}
layer {
  name: "data"
  type: "ImageData"
  top: "data"
  top: "label"
  include {
    phase: TEST
  }
  transform_param {
    crop_size: 224
    mean_value: 104
    mean_value: 117
    mean_value: 123
  }
  image_data_param {
    source: "file_lists/val.txt"
    batch_size: 25
    root_folder: "/share4/public/classification_data/imagenet1k/val/"
    short_edge: 256
  }
}
layer {
  name: "data_fixed_point"
  type: "Quantize"
  bottom: "data"
  top: "data"
  param {
    lr_mult: 0
    decay_mult: 0
  }
  quantize_param {
    precision: 8
    frozen: true
    positive: false
    tolerance: 1.5
  }
}
layer {
  name: "conv1/3x3_s2"
  type: "Convolution"
  bottom: "data"
  top: "conv1/3x3_s2/bn"
  convolution_param {
    num_output: 32
    bias_term: true
    pad: 1
    kernel_size: 3
    stride: 2
    weight_filler {
      type: "msra"
    }
    engine: CAFFE
    fp16_accumulation: true
  }
  quantize_param {
    precision: 6
    channel_shared: false
  }
}
layer {
  name: "conv1/3x3_s2/relu"
  type: "ReLU"
  bottom: "conv1/3x3_s2/bn"
  top: "conv1/3x3_s2/bn"
}
layer {
  name: "conv1/3x3_s2/bn_fixed_point"
  type: "Quantize"
  bottom: "conv1/3x3_s2/bn"
  top: "conv1/3x3_s2/bn"
  param {
    lr_mult: 0
    decay_mult: 0
  }
  quantize_param {
    precision: 8
    frozen: true
    positive: true
    tolerance: 1.5
  }
}
layer {
  name: "conv2_0/3x3_dwconv"
  type: "Convolution"
  bottom: "conv1/3x3_s2/bn"
  top: "conv2_0/3x3_dwconv/bn"
  convolution_param {
    num_output: 32
    bias_term: true
    pad: 1
    kernel_size: 3
    group: 32
    stride: 1
    weight_filler {
      type: "msra"
    }
    engine: CAFFE
    fp16_accumulation: true
  }
  quantize_param {
    precision: 6
    channel_shared: false
  }
}
layer {
  name: "conv2_0/3x3_dwconv/relu"
  type: "ReLU"
  bottom: "conv2_0/3x3_dwconv/bn"
  top: "conv2_0/3x3_dwconv/bn"
}
layer {
  name: "conv2_0/3x3_dwconv/bn_fixed_point"
  type: "Quantize"
  bottom: "conv2_0/3x3_dwconv/bn"
  top: "conv2_0/3x3_dwconv/bn"
  param {
    lr_mult: 0
    decay_mult: 0
  }
  quantize_param {
    precision: 8
    frozen: true
    positive: true
    tolerance: 1.5
  }
}
layer {
  name: "conv2_0/1x1_decrease"
  type: "Convolution"
  bottom: "conv2_0/3x3_dwconv/bn"
  top: "conv2_0/1x1_decrease/bn"
  convolution_param {
    num_output: 16
    bias_term: true
    kernel_size: 1
    stride: 1
    weight_filler {
      type: "msra"
    }
    engine: CAFFE
    fp16_accumulation: true
  }
  quantize_param {
    precision: 6
    channel_shared: false
  }
}
layer {
  name: "conv2_0/1x1_decrease/bn_fixed_point"
  type: "Quantize"
  bottom: "conv2_0/1x1_decrease/bn"
  top: "conv2_0/1x1_decrease/bn"
  param {
    lr_mult: 0
    decay_mult: 0
  }
  quantize_param {
    precision: 8
    frozen: true
    positive: false
    tolerance: 1.5
  }
}
layer {
  name: "conv3_0/1x1_increase"
  type: "Convolution"
  bottom: "conv2_0/1x1_decrease/bn"
  top: "conv3_0/1x1_increase/bn"
  convolution_param {
    num_output: 48
    bias_term: true
    kernel_size: 1
    stride: 1
    weight_filler {
      type: "msra"
    }
    engine: CAFFE
    fp16_accumulation: true
  }
  quantize_param {
    precision: 6
    channel_shared: false
  }
}
layer {
  name: "conv3_0/1x1_increase/relu"
  type: "ReLU"
  bottom: "conv3_0/1x1_increase/bn"
  top: "conv3_0/1x1_increase/bn"
}
layer {
  name: "conv3_0/1x1_increase/bn_fixed_point"
  type: "Quantize"
  bottom: "conv3_0/1x1_increase/bn"
  top: "conv3_0/1x1_increase/bn"
  param {
    lr_mult: 0
    decay_mult: 0
  }
  quantize_param {
    precision: 8
    frozen: true
    positive: true
    tolerance: 1.5
  }
}
layer {
  name: "conv3_0/3x3_dwconv"
  type: "Convolution"
  bottom: "conv3_0/1x1_increase/bn"
  top: "conv3_0/3x3_dwconv/bn"
  convolution_param {
    num_output: 48
    bias_term: true
    pad: 2
    kernel_size: 5
    group: 48
    stride: 2
    weight_filler {
      type: "msra"
    }
    engine: CAFFE
    fp16_accumulation: true
  }
  quantize_param {
    precision: 6
    channel_shared: false
  }
}
layer {
  name: "conv3_0/3x3_dwconv/relu"
  type: "ReLU"
  bottom: "conv3_0/3x3_dwconv/bn"
  top: "conv3_0/3x3_dwconv/bn"
}
layer {
  name: "conv3_0/3x3_dwconv/bn_fixed_point"
  type: "Quantize"
  bottom: "conv3_0/3x3_dwconv/bn"
  top: "conv3_0/3x3_dwconv/bn"
  param {
    lr_mult: 0
    decay_mult: 0
  }
  quantize_param {
    precision: 8
    frozen: true
    positive: true
    tolerance: 1.5
  }
}
layer {
  name: "conv3_0/1x1_decrease"
  type: "Convolution"
  bottom: "conv3_0/3x3_dwconv/bn"
  top: "conv3_0/1x1_decrease/bn"
  convolution_param {
    num_output: 32
    bias_term: true
    kernel_size: 1
    stride: 1
    weight_filler {
      type: "msra"
    }
    engine: CAFFE
    fp16_accumulation: true
  }
  quantize_param {
    precision: 6
    channel_shared: false
  }
}
layer {
  name: "conv3_0/1x1_decrease/bn_fixed_point"
  type: "Quantize"
  bottom: "conv3_0/1x1_decrease/bn"
  top: "conv3_0/1x1_decrease/bn"
  param {
    lr_mult: 0
    decay_mult: 0
  }
  quantize_param {
    precision: 8
    frozen: true
    positive: false
    tolerance: 1.5
  }
}
layer {
  name: "conv3_1/1x1_increase"
  type: "Convolution"
  bottom: "conv3_0/1x1_decrease/bn"
  top: "conv3_1/1x1_increase/bn"
  convolution_param {
    num_output: 96
    bias_term: true
    kernel_size: 1
    stride: 1
    weight_filler {
      type: "msra"
    }
    engine: CAFFE
    fp16_accumulation: true
  }
  quantize_param {
    precision: 6
    channel_shared: false
  }
}
layer {
  name: "conv3_1/1x1_increase/relu"
  type: "ReLU"
  bottom: "conv3_1/1x1_increase/bn"
  top: "conv3_1/1x1_increase/bn"
}
layer {
  name: "conv3_1/1x1_increase/bn_fixed_point"
  type: "Quantize"
  bottom: "conv3_1/1x1_increase/bn"
  top: "conv3_1/1x1_increase/bn"
  param {
    lr_mult: 0
    decay_mult: 0
  }
  quantize_param {
    precision: 8
    frozen: true
    positive: true
    tolerance: 1.5
  }
}
layer {
  name: "conv3_1/3x3_dwconv"
  type: "Convolution"
  bottom: "conv3_1/1x1_increase/bn"
  top: "conv3_1/3x3_dwconv/bn"
  convolution_param {
    num_output: 96
    bias_term: true
    pad: 1
    kernel_size: 3
    group: 96
    stride: 1
    weight_filler {
      type: "msra"
    }
    engine: CAFFE
    fp16_accumulation: true
  }
  quantize_param {
    precision: 6
    channel_shared: false
  }
}
layer {
  name: "conv3_1/3x3_dwconv/relu"
  type: "ReLU"
  bottom: "conv3_1/3x3_dwconv/bn"
  top: "conv3_1/3x3_dwconv/bn"
}
layer {
  name: "conv3_1/3x3_dwconv/bn_fixed_point"
  type: "Quantize"
  bottom: "conv3_1/3x3_dwconv/bn"
  top: "conv3_1/3x3_dwconv/bn"
  param {
    lr_mult: 0
    decay_mult: 0
  }
  quantize_param {
    precision: 8
    frozen: true
    positive: true
    tolerance: 1.5
  }
}
layer {
  name: "conv3_1/1x1_decrease"
  type: "Convolution"
  bottom: "conv3_1/3x3_dwconv/bn"
  top: "conv3_1/1x1_decrease/bn"
  convolution_param {
    num_output: 32
    bias_term: true
    kernel_size: 1
    stride: 1
    weight_filler {
      type: "msra"
    }
    engine: CAFFE
    fp16_accumulation: true
  }
  quantize_param {
    precision: 6
    channel_shared: false
  }
}
layer {
  name: "conv3_1/elt_sum"
  type: "Eltwise"
  bottom: "conv3_0/1x1_decrease/bn"
  bottom: "conv3_1/1x1_decrease/bn"
  top: "conv3_1/elt_sum"
  eltwise_param {
    operation: SUM
  }
}
layer {
  name: "conv3_1/elt_sum_fixed_point"
  type: "Quantize"
  bottom: "conv3_1/elt_sum"
  top: "conv3_1/elt_sum"
  param {
    lr_mult: 0
    decay_mult: 0
  }
  quantize_param {
    precision: 8
    frozen: true
    positive: false
    tolerance: 1.5
  }
}
layer {
  name: "conv4_0/1x1_increase"
  type: "Convolution"
  bottom: "conv3_1/elt_sum"
  top: "conv4_0/1x1_increase/bn"
  convolution_param {
    num_output: 96
    bias_term: true
    kernel_size: 1
    stride: 1
    weight_filler {
      type: "msra"
    }
    engine: CAFFE
    fp16_accumulation: true
  }
  quantize_param {
    precision: 6
    channel_shared: false
  }
}
layer {
  name: "conv4_0/1x1_increase/hardswish"
  type: "HardSwish"
  bottom: "conv4_0/1x1_increase/bn"
  top: "conv4_0/1x1_increase/bn"
}
layer {
  name: "conv4_0/1x1_increase/bn_fixed_point"
  type: "Quantize"
  bottom: "conv4_0/1x1_increase/bn"
  top: "conv4_0/1x1_increase/bn"
  param {
    lr_mult: 0
    decay_mult: 0
  }
  quantize_param {
    precision: 8
    frozen: true
    positive: false
    tolerance: 1.5
  }
}
layer {
  name: "conv4_0/1x1_increase/slice"
  type: "Slice"
  bottom: "conv4_0/1x1_increase/bn"
  top: "conv4_0/1x1_increase/split1"
  top: "conv4_0/1x1_increase/split2"
  top: "conv4_0/1x1_increase/split3"
  slice_param {
    slice_point: 32
    slice_point: 64
  }
}
layer {
  name: "conv4_0/3x3_dwconv/slice_0"
  type: "Convolution"
  bottom: "conv4_0/1x1_increase/split1"
  top: "conv4_0/3x3_dwconv/slice_0/bn"
  convolution_param {
    num_output: 32
    bias_term: true
    pad: 1
    kernel_size: 3
    group: 32
    stride: 2
    weight_filler {
      type: "msra"
    }
    engine: CAFFE
    fp16_accumulation: true
  }
  quantize_param {
    precision: 6
    channel_shared: false
  }
}
layer {
  name: "conv4_0/3x3_dwconv/slice_0/hardswish"
  type: "HardSwish"
  bottom: "conv4_0/3x3_dwconv/slice_0/bn"
  top: "conv4_0/3x3_dwconv/slice_0/bn"
}
layer {
  name: "conv4_0/3x3_dwconv/slice_1"
  type: "Convolution"
  bottom: "conv4_0/1x1_increase/split2"
  top: "conv4_0/3x3_dwconv/slice_1/bn"
  convolution_param {
    num_output: 32
    bias_term: true
    pad: 2
    kernel_size: 5
    group: 32
    stride: 2
    weight_filler {
      type: "msra"
    }
    engine: CAFFE
    fp16_accumulation: true
  }
  quantize_param {
    precision: 6
    channel_shared: false
  }
}
layer {
  name: "conv4_0/3x3_dwconv/slice_1/hardswish"
  type: "HardSwish"
  bottom: "conv4_0/3x3_dwconv/slice_1/bn"
  top: "conv4_0/3x3_dwconv/slice_1/bn"
}
layer {
  name: "conv4_0/3x3_dwconv/slice_2"
  type: "Convolution"
  bottom: "conv4_0/1x1_increase/split3"
  top: "conv4_0/3x3_dwconv/slice_2/bn"
  convolution_param {
    num_output: 32
    bias_term: true
    pad: 3
    kernel_size: 7
    group: 32
    stride: 2
    weight_filler {
      type: "msra"
    }
    engine: CAFFE
    fp16_accumulation: true
  }
  quantize_param {
    precision: 6
    channel_shared: false
  }
}
layer {
  name: "conv4_0/3x3_dwconv/slice_2/hardswish"
  type: "HardSwish"
  bottom: "conv4_0/3x3_dwconv/slice_2/bn"
  top: "conv4_0/3x3_dwconv/slice_2/bn"
}
layer {
  name: "conv4_0/3x3_dwconv/concat"
  type: "Concat"
  bottom: "conv4_0/3x3_dwconv/slice_0/bn"
  bottom: "conv4_0/3x3_dwconv/slice_1/bn"
  bottom: "conv4_0/3x3_dwconv/slice_2/bn"
  top: "conv4_0/3x3_dwconv/concat"
}
layer {
  name: "conv4_0/3x3_dwconv/concat_fixed_point"
  type: "Quantize"
  bottom: "conv4_0/3x3_dwconv/concat"
  top: "conv4_0/3x3_dwconv/concat"
  param {
    lr_mult: 0
    decay_mult: 0
  }
  quantize_param {
    precision: 8
    frozen: true
    positive: false
    tolerance: 1.5
  }
}
layer {
  name: "conv4_0/3x3_dwconv/SE_global_pool"
  type: "Pooling"
  bottom: "conv4_0/3x3_dwconv/concat"
  top: "conv4_0/3x3_dwconv/SE_global_pool"
  pooling_param {
    pool: AVE
    engine: CAFFE
    global_pooling: true
  }
}
layer {
  name: "conv4_0/3x3_dwconv/SE_bn"
  type: "Scale"
  bottom: "conv4_0/3x3_dwconv/SE_global_pool"
  top: "conv4_0/3x3_dwconv/SE_bn"
  param {
    lr_mult: 1
    decay_mult: 0
  }
  param {
    lr_mult: 2
    decay_mult: 0
  }
  scale_param {
    axis: 1
    num_axes: 1
    bias_term: true
  }
}
layer {
  name: "conv4_0/3x3_dwconv/SE_fc1"
  type: "Convolution"
  bottom: "conv4_0/3x3_dwconv/SE_bn"
  top: "conv4_0/3x3_dwconv/SE_fc1"
  param {
    lr_mult: 1
    decay_mult: 1
  }
  convolution_param {
    num_output: 6
    bias_term: false
    kernel_size: 1
    stride: 1
    weight_filler {
      type: "gaussian"
      std: 0.01
    }
    engine: CAFFE
    fp16_accumulation: true
  }
  quantize_param {
    precision: 6
    channel_shared: false
  }
}
layer {
  name: "conv4_0/3x3_dwconv/SE_fc1/relu"
  type: "ReLU"
  bottom: "conv4_0/3x3_dwconv/SE_fc1"
  top: "conv4_0/3x3_dwconv/SE_fc1"
}
layer {
  name: "conv4_0/3x3_dwconv/SE_fc2"
  type: "Convolution"
  bottom: "conv4_0/3x3_dwconv/SE_fc1"
  top: "conv4_0/3x3_dwconv/SE_fc2"
  param {
    lr_mult: 1
    decay_mult: 1
  }
  convolution_param {
    num_output: 96
    bias_term: false
    kernel_size: 1
    stride: 1
    weight_filler {
      type: "gaussian"
      std: 0.01
    }
    engine: CAFFE
    fp16_accumulation: true
  }
  quantize_param {
    precision: 6
    channel_shared: false
  }
}
layer {
  name: "conv4_0/3x3_dwconv/SE_weights"
  type: "Sigmoid"
  bottom: "conv4_0/3x3_dwconv/SE_fc2"
  top: "conv4_0/3x3_dwconv/SE_fc2"
}
layer {
  name: "conv4_0/3x3_dwconv/SE_weights/reshape"
  type: "Reshape"
  bottom: "conv4_0/3x3_dwconv/SE_fc2"
  top: "conv4_0/3x3_dwconv/SE_weights/reshape"
  reshape_param {
    shape {
      dim: 0
      dim: 0
    }
  }
}
layer {
  name: "conv4_0/3x3_dwconv/scale"
  type: "Scale"
  bottom: "conv4_0/3x3_dwconv/concat"
  bottom: "conv4_0/3x3_dwconv/SE_weights/reshape"
  top: "conv4_0/3x3_dwconv/scale"
  scale_param {
    axis: 0
    bias_term: false
  }
}
layer {
  name: "conv4_0/3x3_dwconv/scale_fixed_point"
  type: "Quantize"
  bottom: "conv4_0/3x3_dwconv/scale"
  top: "conv4_0/3x3_dwconv/scale"
  param {
    lr_mult: 0
    decay_mult: 0
  }
  quantize_param {
    precision: 8
    frozen: true
    positive: false
    tolerance: 1.5
  }
}
layer {
  name: "conv4_0/1x1_decrease"
  type: "Convolution"
  bottom: "conv4_0/3x3_dwconv/scale"
  top: "conv4_0/1x1_decrease/bn"
  convolution_param {
    num_output: 40
    bias_term: true
    kernel_size: 1
    stride: 1
    weight_filler {
      type: "msra"
    }
    engine: CAFFE
    fp16_accumulation: true
  }
  quantize_param {
    precision: 6
    channel_shared: false
  }
}
layer {
  name: "conv4_0/1x1_decrease/bn_fixed_point"
  type: "Quantize"
  bottom: "conv4_0/1x1_decrease/bn"
  top: "conv4_0/1x1_decrease/bn"
  param {
    lr_mult: 0
    decay_mult: 0
  }
  quantize_param {
    precision: 8
    frozen: true
    positive: false
    tolerance: 1.5
  }
}
layer {
  name: "conv4_1/1x1_increase"
  type: "Convolution"
  bottom: "conv4_0/1x1_decrease/bn"
  top: "conv4_1/1x1_increase/bn"
  convolution_param {
    num_output: 120
    bias_term: true
    kernel_size: 1
    stride: 1
    weight_filler {
      type: "msra"
    }
    engine: CAFFE
    fp16_accumulation: true
  }
  quantize_param {
    precision: 6
    channel_shared: false
  }
}
layer {
  name: "conv4_1/1x1_increase/hardswish"
  type: "HardSwish"
  bottom: "conv4_1/1x1_increase/bn"
  top: "conv4_1/1x1_increase/bn"
}
layer {
  name: "conv4_1/1x1_increase/bn_fixed_point"
  type: "Quantize"
  bottom: "conv4_1/1x1_increase/bn"
  top: "conv4_1/1x1_increase/bn"
  param {
    lr_mult: 0
    decay_mult: 0
  }
  quantize_param {
    precision: 8
    frozen: true
    positive: false
    tolerance: 1.5
  }
}
layer {
  name: "conv4_1/1x1_increase/slice"
  type: "Slice"
  bottom: "conv4_1/1x1_increase/bn"
  top: "conv4_1/1x1_increase/split1"
  top: "conv4_1/1x1_increase/split2"
  slice_param {
    slice_point: 60
  }
}
layer {
  name: "conv4_1/3x3_dwconv/slice_0"
  type: "Convolution"
  bottom: "conv4_1/1x1_increase/split1"
  top: "conv4_1/3x3_dwconv/slice_0/bn"
  convolution_param {
    num_output: 60
    bias_term: true
    pad: 1
    kernel_size: 3
    group: 60
    stride: 1
    weight_filler {
      type: "msra"
    }
    engine: CAFFE
    fp16_accumulation: true
  }
  quantize_param {
    precision: 6
    channel_shared: false
  }
}
layer {
  name: "conv4_1/3x3_dwconv/slice_0/hardswish"
  type: "HardSwish"
  bottom: "conv4_1/3x3_dwconv/slice_0/bn"
  top: "conv4_1/3x3_dwconv/slice_0/bn"
}
layer {
  name: "conv4_1/3x3_dwconv/slice_1"
  type: "Convolution"
  bottom: "conv4_1/1x1_increase/split2"
  top: "conv4_1/3x3_dwconv/slice_1/bn"
  convolution_param {
    num_output: 60
    bias_term: true
    pad: 2
    kernel_size: 5
    group: 60
    stride: 1
    weight_filler {
      type: "msra"
    }
    engine: CAFFE
    fp16_accumulation: true
  }
  quantize_param {
    precision: 6
    channel_shared: false
  }
}
layer {
  name: "conv4_1/3x3_dwconv/slice_1/hardswish"
  type: "HardSwish"
  bottom: "conv4_1/3x3_dwconv/slice_1/bn"
  top: "conv4_1/3x3_dwconv/slice_1/bn"
}
layer {
  name: "conv4_1/3x3_dwconv/concat"
  type: "Concat"
  bottom: "conv4_1/3x3_dwconv/slice_0/bn"
  bottom: "conv4_1/3x3_dwconv/slice_1/bn"
  top: "conv4_1/3x3_dwconv/concat"
}
layer {
  name: "conv4_1/3x3_dwconv/concat_fixed_point"
  type: "Quantize"
  bottom: "conv4_1/3x3_dwconv/concat"
  top: "conv4_1/3x3_dwconv/concat"
  param {
    lr_mult: 0
    decay_mult: 0
  }
  quantize_param {
    precision: 8
    frozen: true
    positive: false
    tolerance: 1.5
  }
}
layer {
  name: "conv4_1/3x3_dwconv/SE_global_pool"
  type: "Pooling"
  bottom: "conv4_1/3x3_dwconv/concat"
  top: "conv4_1/3x3_dwconv/SE_global_pool"
  pooling_param {
    pool: AVE
    engine: CAFFE
    global_pooling: true
  }
}
layer {
  name: "conv4_1/3x3_dwconv/SE_bn"
  type: "Scale"
  bottom: "conv4_1/3x3_dwconv/SE_global_pool"
  top: "conv4_1/3x3_dwconv/SE_bn"
  param {
    lr_mult: 1
    decay_mult: 0
  }
  param {
    lr_mult: 2
    decay_mult: 0
  }
  scale_param {
    axis: 1
    num_axes: 1
    bias_term: true
  }
}
layer {
  name: "conv4_1/3x3_dwconv/SE_fc1"
  type: "Convolution"
  bottom: "conv4_1/3x3_dwconv/SE_bn"
  top: "conv4_1/3x3_dwconv/SE_fc1"
  param {
    lr_mult: 1
    decay_mult: 1
  }
  convolution_param {
    num_output: 7
    bias_term: false
    kernel_size: 1
    stride: 1
    weight_filler {
      type: "gaussian"
      std: 0.01
    }
    engine: CAFFE
    fp16_accumulation: true
  }
  quantize_param {
    precision: 6
    channel_shared: false
  }
}
layer {
  name: "conv4_1/3x3_dwconv/SE_fc1/relu"
  type: "ReLU"
  bottom: "conv4_1/3x3_dwconv/SE_fc1"
  top: "conv4_1/3x3_dwconv/SE_fc1"
}
layer {
  name: "conv4_1/3x3_dwconv/SE_fc2"
  type: "Convolution"
  bottom: "conv4_1/3x3_dwconv/SE_fc1"
  top: "conv4_1/3x3_dwconv/SE_fc2"
  param {
    lr_mult: 1
    decay_mult: 1
  }
  convolution_param {
    num_output: 120
    bias_term: false
    kernel_size: 1
    stride: 1
    weight_filler {
      type: "gaussian"
      std: 0.01
    }
    engine: CAFFE
    fp16_accumulation: true
  }
  quantize_param {
    precision: 6
    channel_shared: false
  }
}
layer {
  name: "conv4_1/3x3_dwconv/SE_weights"
  type: "Sigmoid"
  bottom: "conv4_1/3x3_dwconv/SE_fc2"
  top: "conv4_1/3x3_dwconv/SE_fc2"
}
layer {
  name: "conv4_1/3x3_dwconv/SE_weights/reshape"
  type: "Reshape"
  bottom: "conv4_1/3x3_dwconv/SE_fc2"
  top: "conv4_1/3x3_dwconv/SE_weights/reshape"
  reshape_param {
    shape {
      dim: 0
      dim: 0
    }
  }
}
layer {
  name: "conv4_1/3x3_dwconv/scale"
  type: "Scale"
  bottom: "conv4_1/3x3_dwconv/concat"
  bottom: "conv4_1/3x3_dwconv/SE_weights/reshape"
  top: "conv4_1/3x3_dwconv/scale"
  scale_param {
    axis: 0
    bias_term: false
  }
}
layer {
  name: "conv4_1/3x3_dwconv/scale_fixed_point"
  type: "Quantize"
  bottom: "conv4_1/3x3_dwconv/scale"
  top: "conv4_1/3x3_dwconv/scale"
  param {
    lr_mult: 0
    decay_mult: 0
  }
  quantize_param {
    precision: 8
    frozen: true
    positive: false
    tolerance: 1.5
  }
}
layer {
  name: "conv4_1/1x1_decrease"
  type: "Convolution"
  bottom: "conv4_1/3x3_dwconv/scale"
  top: "conv4_1/1x1_decrease/bn"
  convolution_param {
    num_output: 40
    bias_term: true
    kernel_size: 1
    stride: 1
    weight_filler {
      type: "msra"
    }
    engine: CAFFE
    fp16_accumulation: true
  }
  quantize_param {
    precision: 6
    channel_shared: false
  }
}
layer {
  name: "conv4_1/elt_sum"
  type: "Eltwise"
  bottom: "conv4_0/1x1_decrease/bn"
  bottom: "conv4_1/1x1_decrease/bn"
  top: "conv4_1/elt_sum"
  eltwise_param {
    operation: SUM
  }
}
layer {
  name: "conv4_1/elt_sum_fixed_point"
  type: "Quantize"
  bottom: "conv4_1/elt_sum"
  top: "conv4_1/elt_sum"
  param {
    lr_mult: 0
    decay_mult: 0
  }
  quantize_param {
    precision: 8
    frozen: true
    positive: false
    tolerance: 1.5
  }
}
layer {
  name: "conv4_2/1x1_increase"
  type: "Convolution"
  bottom: "conv4_1/elt_sum"
  top: "conv4_2/1x1_increase/bn"
  convolution_param {
    num_output: 120
    bias_term: true
    kernel_size: 1
    stride: 1
    weight_filler {
      type: "msra"
    }
    engine: CAFFE
    fp16_accumulation: true
  }
  quantize_param {
    precision: 6
    channel_shared: false
  }
}
layer {
  name: "conv4_2/1x1_increase/hardswish"
  type: "HardSwish"
  bottom: "conv4_2/1x1_increase/bn"
  top: "conv4_2/1x1_increase/bn"
}
layer {
  name: "conv4_2/1x1_increase/bn_fixed_point"
  type: "Quantize"
  bottom: "conv4_2/1x1_increase/bn"
  top: "conv4_2/1x1_increase/bn"
  param {
    lr_mult: 0
    decay_mult: 0
  }
  quantize_param {
    precision: 8
    frozen: true
    positive: false
    tolerance: 1.5
  }
}
layer {
  name: "conv4_2/1x1_increase/slice"
  type: "Slice"
  bottom: "conv4_2/1x1_increase/bn"
  top: "conv4_2/1x1_increase/split1"
  top: "conv4_2/1x1_increase/split2"
  slice_param {
    slice_point: 60
  }
}
layer {
  name: "conv4_2/3x3_dwconv/slice_0"
  type: "Convolution"
  bottom: "conv4_2/1x1_increase/split1"
  top: "conv4_2/3x3_dwconv/slice_0/bn"
  convolution_param {
    num_output: 60
    bias_term: true
    pad: 1
    kernel_size: 3
    group: 60
    stride: 1
    weight_filler {
      type: "msra"
    }
    engine: CAFFE
    fp16_accumulation: true
  }
  quantize_param {
    precision: 6
    channel_shared: false
  }
}
layer {
  name: "conv4_2/3x3_dwconv/slice_0/hardswish"
  type: "HardSwish"
  bottom: "conv4_2/3x3_dwconv/slice_0/bn"
  top: "conv4_2/3x3_dwconv/slice_0/bn"
}
layer {
  name: "conv4_2/3x3_dwconv/slice_1"
  type: "Convolution"
  bottom: "conv4_2/1x1_increase/split2"
  top: "conv4_2/3x3_dwconv/slice_1/bn"
  convolution_param {
    num_output: 60
    bias_term: true
    pad: 2
    kernel_size: 5
    group: 60
    stride: 1
    weight_filler {
      type: "msra"
    }
    engine: CAFFE
    fp16_accumulation: true
  }
  quantize_param {
    precision: 6
    channel_shared: false
  }
}
layer {
  name: "conv4_2/3x3_dwconv/slice_1/hardswish"
  type: "HardSwish"
  bottom: "conv4_2/3x3_dwconv/slice_1/bn"
  top: "conv4_2/3x3_dwconv/slice_1/bn"
}
layer {
  name: "conv4_2/3x3_dwconv/concat"
  type: "Concat"
  bottom: "conv4_2/3x3_dwconv/slice_0/bn"
  bottom: "conv4_2/3x3_dwconv/slice_1/bn"
  top: "conv4_2/3x3_dwconv/concat"
}
layer {
  name: "conv4_2/3x3_dwconv/concat_fixed_point"
  type: "Quantize"
  bottom: "conv4_2/3x3_dwconv/concat"
  top: "conv4_2/3x3_dwconv/concat"
  param {
    lr_mult: 0
    decay_mult: 0
  }
  quantize_param {
    precision: 8
    frozen: true
    positive: false
    tolerance: 1.5
  }
}
layer {
  name: "conv4_2/3x3_dwconv/SE_global_pool"
  type: "Pooling"
  bottom: "conv4_2/3x3_dwconv/concat"
  top: "conv4_2/3x3_dwconv/SE_global_pool"
  pooling_param {
    pool: AVE
    engine: CAFFE
    global_pooling: true
  }
}
layer {
  name: "conv4_2/3x3_dwconv/SE_bn"
  type: "Scale"
  bottom: "conv4_2/3x3_dwconv/SE_global_pool"
  top: "conv4_2/3x3_dwconv/SE_bn"
  param {
    lr_mult: 1
    decay_mult: 0
  }
  param {
    lr_mult: 2
    decay_mult: 0
  }
  scale_param {
    axis: 1
    num_axes: 1
    bias_term: true
  }
}
layer {
  name: "conv4_2/3x3_dwconv/SE_fc1"
  type: "Convolution"
  bottom: "conv4_2/3x3_dwconv/SE_bn"
  top: "conv4_2/3x3_dwconv/SE_fc1"
  param {
    lr_mult: 1
    decay_mult: 1
  }
  convolution_param {
    num_output: 7
    bias_term: false
    kernel_size: 1
    stride: 1
    weight_filler {
      type: "gaussian"
      std: 0.01
    }
    engine: CAFFE
    fp16_accumulation: true
  }
  quantize_param {
    precision: 6
    channel_shared: false
  }
}
layer {
  name: "conv4_2/3x3_dwconv/SE_fc1/relu"
  type: "ReLU"
  bottom: "conv4_2/3x3_dwconv/SE_fc1"
  top: "conv4_2/3x3_dwconv/SE_fc1"
}
layer {
  name: "conv4_2/3x3_dwconv/SE_fc2"
  type: "Convolution"
  bottom: "conv4_2/3x3_dwconv/SE_fc1"
  top: "conv4_2/3x3_dwconv/SE_fc2"
  param {
    lr_mult: 1
    decay_mult: 1
  }
  convolution_param {
    num_output: 120
    bias_term: false
    kernel_size: 1
    stride: 1
    weight_filler {
      type: "gaussian"
      std: 0.01
    }
    engine: CAFFE
    fp16_accumulation: true
  }
  quantize_param {
    precision: 6
    channel_shared: false
  }
}
layer {
  name: "conv4_2/3x3_dwconv/SE_weights"
  type: "Sigmoid"
  bottom: "conv4_2/3x3_dwconv/SE_fc2"
  top: "conv4_2/3x3_dwconv/SE_fc2"
}
layer {
  name: "conv4_2/3x3_dwconv/SE_weights/reshape"
  type: "Reshape"
  bottom: "conv4_2/3x3_dwconv/SE_fc2"
  top: "conv4_2/3x3_dwconv/SE_weights/reshape"
  reshape_param {
    shape {
      dim: 0
      dim: 0
    }
  }
}
layer {
  name: "conv4_2/3x3_dwconv/scale"
  type: "Scale"
  bottom: "conv4_2/3x3_dwconv/concat"
  bottom: "conv4_2/3x3_dwconv/SE_weights/reshape"
  top: "conv4_2/3x3_dwconv/scale"
  scale_param {
    axis: 0
    bias_term: false
  }
}
layer {
  name: "conv4_2/3x3_dwconv/scale_fixed_point"
  type: "Quantize"
  bottom: "conv4_2/3x3_dwconv/scale"
  top: "conv4_2/3x3_dwconv/scale"
  param {
    lr_mult: 0
    decay_mult: 0
  }
  quantize_param {
    precision: 8
    frozen: true
    positive: false
    tolerance: 1.5
  }
}
layer {
  name: "conv4_2/1x1_decrease"
  type: "Convolution"
  bottom: "conv4_2/3x3_dwconv/scale"
  top: "conv4_2/1x1_decrease/bn"
  convolution_param {
    num_output: 40
    bias_term: true
    kernel_size: 1
    stride: 1
    weight_filler {
      type: "msra"
    }
    engine: CAFFE
    fp16_accumulation: true
  }
  quantize_param {
    precision: 6
    channel_shared: false
  }
}
layer {
  name: "conv4_2/elt_sum"
  type: "Eltwise"
  bottom: "conv4_1/elt_sum"
  bottom: "conv4_2/1x1_decrease/bn"
  top: "conv4_2/elt_sum"
  eltwise_param {
    operation: SUM
  }
}
layer {
  name: "conv4_2/elt_sum_fixed_point"
  type: "Quantize"
  bottom: "conv4_2/elt_sum"
  top: "conv4_2/elt_sum"
  param {
    lr_mult: 0
    decay_mult: 0
  }
  quantize_param {
    precision: 8
    frozen: true
    positive: false
    tolerance: 1.5
  }
}
layer {
  name: "conv4_3/1x1_increase"
  type: "Convolution"
  bottom: "conv4_2/elt_sum"
  top: "conv4_3/1x1_increase/bn"
  convolution_param {
    num_output: 120
    bias_term: true
    kernel_size: 1
    stride: 1
    weight_filler {
      type: "msra"
    }
    engine: CAFFE
    fp16_accumulation: true
  }
  quantize_param {
    precision: 6
    channel_shared: false
  }
}
layer {
  name: "conv4_3/1x1_increase/hardswish"
  type: "HardSwish"
  bottom: "conv4_3/1x1_increase/bn"
  top: "conv4_3/1x1_increase/bn"
}
layer {
  name: "conv4_3/1x1_increase/bn_fixed_point"
  type: "Quantize"
  bottom: "conv4_3/1x1_increase/bn"
  top: "conv4_3/1x1_increase/bn"
  param {
    lr_mult: 0
    decay_mult: 0
  }
  quantize_param {
    precision: 8
    frozen: true
    positive: false
    tolerance: 1.5
  }
}
layer {
  name: "conv4_3/1x1_increase/slice"
  type: "Slice"
  bottom: "conv4_3/1x1_increase/bn"
  top: "conv4_3/1x1_increase/split1"
  top: "conv4_3/1x1_increase/split2"
  slice_param {
    slice_point: 60
  }
}
layer {
  name: "conv4_3/3x3_dwconv/slice_0"
  type: "Convolution"
  bottom: "conv4_3/1x1_increase/split1"
  top: "conv4_3/3x3_dwconv/slice_0/bn"
  convolution_param {
    num_output: 60
    bias_term: true
    pad: 1
    kernel_size: 3
    group: 60
    stride: 1
    weight_filler {
      type: "msra"
    }
    engine: CAFFE
    fp16_accumulation: true
  }
  quantize_param {
    precision: 6
    channel_shared: false
  }
}
layer {
  name: "conv4_3/3x3_dwconv/slice_0/hardswish"
  type: "HardSwish"
  bottom: "conv4_3/3x3_dwconv/slice_0/bn"
  top: "conv4_3/3x3_dwconv/slice_0/bn"
}
layer {
  name: "conv4_3/3x3_dwconv/slice_1"
  type: "Convolution"
  bottom: "conv4_3/1x1_increase/split2"
  top: "conv4_3/3x3_dwconv/slice_1/bn"
  convolution_param {
    num_output: 60
    bias_term: true
    pad: 2
    kernel_size: 5
    group: 60
    stride: 1
    weight_filler {
      type: "msra"
    }
    engine: CAFFE
    fp16_accumulation: true
  }
  quantize_param {
    precision: 6
    channel_shared: false
  }
}
layer {
  name: "conv4_3/3x3_dwconv/slice_1/hardswish"
  type: "HardSwish"
  bottom: "conv4_3/3x3_dwconv/slice_1/bn"
  top: "conv4_3/3x3_dwconv/slice_1/bn"
}
layer {
  name: "conv4_3/3x3_dwconv/concat"
  type: "Concat"
  bottom: "conv4_3/3x3_dwconv/slice_0/bn"
  bottom: "conv4_3/3x3_dwconv/slice_1/bn"
  top: "conv4_3/3x3_dwconv/concat"
}
layer {
  name: "conv4_3/3x3_dwconv/concat_fixed_point"
  type: "Quantize"
  bottom: "conv4_3/3x3_dwconv/concat"
  top: "conv4_3/3x3_dwconv/concat"
  param {
    lr_mult: 0
    decay_mult: 0
  }
  quantize_param {
    precision: 8
    frozen: true
    positive: false
    tolerance: 1.5
  }
}
layer {
  name: "conv4_3/3x3_dwconv/SE_global_pool"
  type: "Pooling"
  bottom: "conv4_3/3x3_dwconv/concat"
  top: "conv4_3/3x3_dwconv/SE_global_pool"
  pooling_param {
    pool: AVE
    engine: CAFFE
    global_pooling: true
  }
}
layer {
  name: "conv4_3/3x3_dwconv/SE_bn"
  type: "Scale"
  bottom: "conv4_3/3x3_dwconv/SE_global_pool"
  top: "conv4_3/3x3_dwconv/SE_bn"
  param {
    lr_mult: 1
    decay_mult: 0
  }
  param {
    lr_mult: 2
    decay_mult: 0
  }
  scale_param {
    axis: 1
    num_axes: 1
    bias_term: true
  }
}
layer {
  name: "conv4_3/3x3_dwconv/SE_fc1"
  type: "Convolution"
  bottom: "conv4_3/3x3_dwconv/SE_bn"
  top: "conv4_3/3x3_dwconv/SE_fc1"
  param {
    lr_mult: 1
    decay_mult: 1
  }
  convolution_param {
    num_output: 7
    bias_term: false
    kernel_size: 1
    stride: 1
    weight_filler {
      type: "gaussian"
      std: 0.01
    }
    engine: CAFFE
    fp16_accumulation: true
  }
  quantize_param {
    precision: 6
    channel_shared: false
  }
}
layer {
  name: "conv4_3/3x3_dwconv/SE_fc1/relu"
  type: "ReLU"
  bottom: "conv4_3/3x3_dwconv/SE_fc1"
  top: "conv4_3/3x3_dwconv/SE_fc1"
}
I1026 15:23:51.177855 33565 layer_factory.hpp:77] Creating layer data
I1026 15:23:51.177928 33565 net.cpp:86] Creating Layer data
I1026 15:23:51.177950 33565 net.cpp:383] data -> data
I1026 15:23:51.178002 33565 net.cpp:383] data -> label
I1026 15:23:51.178036 33565 image_data_layer.cpp:43] Opening file file_lists/val.txt
I1026 15:23:51.199944 33565 image_data_layer.cpp:68] A total of 50000 images.
I1026 15:23:51.345294 33565 image_data_layer.cpp:95] output data size: 25,3,224,224
I1026 15:23:51.414587 33565 net.cpp:124] Setting up data
I1026 15:23:51.414916 33565 net.cpp:131] Top shape: 25 3 224 224 (3763200)
I1026 15:23:51.414929 33565 net.cpp:131] Top shape: 25 (25)
I1026 15:23:51.414934 33565 net.cpp:139] Memory required for data: 15052900
I1026 15:23:51.414950 33565 layer_factory.hpp:77] Creating layer label_data_1_split
I1026 15:23:51.414981 33565 net.cpp:86] Creating Layer label_data_1_split
I1026 15:23:51.414997 33565 net.cpp:409] label_data_1_split <- label
I1026 15:23:51.415024 33565 net.cpp:383] label_data_1_split -> label_data_1_split_0
I1026 15:23:51.415042 33565 net.cpp:383] label_data_1_split -> label_data_1_split_1
I1026 15:23:51.415051 33565 net.cpp:383] label_data_1_split -> label_data_1_split_2
I1026 15:23:51.415230 33565 net.cpp:124] Setting up label_data_1_split
I1026 15:23:51.415241 33565 net.cpp:131] Top shape: 25 (25)
I1026 15:23:51.415247 33565 net.cpp:131] Top shape: 25 (25)
I1026 15:23:51.415252 33565 net.cpp:131] Top shape: 25 (25)
I1026 15:23:51.415256 33565 net.cpp:139] Memory required for data: 15053200
I1026 15:23:51.415261 33565 layer_factory.hpp:77] Creating layer data_fixed_point
I1026 15:23:51.415279 33565 net.cpp:86] Creating Layer data_fixed_point
I1026 15:23:51.415287 33565 net.cpp:409] data_fixed_point <- data
I1026 15:23:51.415297 33565 net.cpp:370] data_fixed_point -> data (in-place)
I1026 15:23:51.415410 33565 net.cpp:124] Setting up data_fixed_point
I1026 15:23:51.415421 33565 net.cpp:131] Top shape: 25 3 224 224 (3763200)
I1026 15:23:51.415424 33565 net.cpp:139] Memory required for data: 30106000
I1026 15:23:51.415454 33565 layer_factory.hpp:77] Creating layer conv1/3x3_s2
I1026 15:23:51.415493 33565 net.cpp:86] Creating Layer conv1/3x3_s2
I1026 15:23:51.415499 33565 net.cpp:409] conv1/3x3_s2 <- data
I1026 15:23:51.415513 33565 net.cpp:383] conv1/3x3_s2 -> conv1/3x3_s2/bn
I1026 15:23:51.442695 33565 net.cpp:124] Setting up conv1/3x3_s2
I1026 15:23:51.442718 33565 net.cpp:131] Top shape: 25 32 112 112 (10035200)
I1026 15:23:51.442725 33565 net.cpp:139] Memory required for data: 70246800
I1026 15:23:51.442741 33565 layer_factory.hpp:77] Creating layer conv1/3x3_s2/relu
I1026 15:23:51.442767 33565 net.cpp:86] Creating Layer conv1/3x3_s2/relu
I1026 15:23:51.442775 33565 net.cpp:409] conv1/3x3_s2/relu <- conv1/3x3_s2/bn
I1026 15:23:51.442788 33565 net.cpp:370] conv1/3x3_s2/relu -> conv1/3x3_s2/bn (in-place)
I1026 15:23:53.778246 33565 net.cpp:124] Setting up conv1/3x3_s2/relu
I1026 15:23:53.778295 33565 net.cpp:131] Top shape: 25 32 112 112 (10035200)
I1026 15:23:53.778301 33565 net.cpp:139] Memory required for data: 110387600
I1026 15:23:53.778312 33565 layer_factory.hpp:77] Creating layer conv1/3x3_s2/bn_fixed_point
I1026 15:23:53.778339 33565 net.cpp:86] Creating Layer conv1/3x3_s2/bn_fixed_point
I1026 15:23:53.778348 33565 net.cpp:409] conv1/3x3_s2/bn_fixed_point <- conv1/3x3_s2/bn
I1026 15:23:53.778360 33565 net.cpp:370] conv1/3x3_s2/bn_fixed_point -> conv1/3x3_s2/bn (in-place)
I1026 15:23:53.778414 33565 net.cpp:124] Setting up conv1/3x3_s2/bn_fixed_point
I1026 15:23:53.778424 33565 net.cpp:131] Top shape: 25 32 112 112 (10035200)
I1026 15:23:53.778426 33565 net.cpp:139] Memory required for data: 150528400
I1026 15:23:53.778436 33565 layer_factory.hpp:77] Creating layer conv2_0/3x3_dwconv
I1026 15:23:53.778456 33565 net.cpp:86] Creating Layer conv2_0/3x3_dwconv
I1026 15:23:53.778460 33565 net.cpp:409] conv2_0/3x3_dwconv <- conv1/3x3_s2/bn
I1026 15:23:53.778467 33565 net.cpp:383] conv2_0/3x3_dwconv -> conv2_0/3x3_dwconv/bn
I1026 15:23:53.779346 33565 net.cpp:124] Setting up conv2_0/3x3_dwconv
I1026 15:23:53.779387 33565 net.cpp:131] Top shape: 25 32 112 112 (10035200)
I1026 15:23:53.779393 33565 net.cpp:139] Memory required for data: 190669200
I1026 15:23:53.779407 33565 layer_factory.hpp:77] Creating layer conv2_0/3x3_dwconv/relu
I1026 15:23:53.779418 33565 net.cpp:86] Creating Layer conv2_0/3x3_dwconv/relu
I1026 15:23:53.779422 33565 net.cpp:409] conv2_0/3x3_dwconv/relu <- conv2_0/3x3_dwconv/bn
I1026 15:23:53.779428 33565 net.cpp:370] conv2_0/3x3_dwconv/relu -> conv2_0/3x3_dwconv/bn (in-place)
I1026 15:23:53.780045 33565 net.cpp:124] Setting up conv2_0/3x3_dwconv/relu
I1026 15:23:53.780058 33565 net.cpp:131] Top shape: 25 32 112 112 (10035200)
I1026 15:23:53.780062 33565 net.cpp:139] Memory required for data: 230810000
I1026 15:23:53.780066 33565 layer_factory.hpp:77] Creating layer conv2_0/3x3_dwconv/bn_fixed_point
I1026 15:23:53.780079 33565 net.cpp:86] Creating Layer conv2_0/3x3_dwconv/bn_fixed_point
I1026 15:23:53.780083 33565 net.cpp:409] conv2_0/3x3_dwconv/bn_fixed_point <- conv2_0/3x3_dwconv/bn
I1026 15:23:53.780089 33565 net.cpp:370] conv2_0/3x3_dwconv/bn_fixed_point -> conv2_0/3x3_dwconv/bn (in-place)
I1026 15:23:53.780123 33565 net.cpp:124] Setting up conv2_0/3x3_dwconv/bn_fixed_point
I1026 15:23:53.780131 33565 net.cpp:131] Top shape: 25 32 112 112 (10035200)
I1026 15:23:53.780134 33565 net.cpp:139] Memory required for data: 270950800
I1026 15:23:53.780140 33565 layer_factory.hpp:77] Creating layer conv2_0/1x1_decrease
I1026 15:23:53.780153 33565 net.cpp:86] Creating Layer conv2_0/1x1_decrease
I1026 15:23:53.780156 33565 net.cpp:409] conv2_0/1x1_decrease <- conv2_0/3x3_dwconv/bn
I1026 15:23:53.780162 33565 net.cpp:383] conv2_0/1x1_decrease -> conv2_0/1x1_decrease/bn
I1026 15:23:53.780745 33565 net.cpp:124] Setting up conv2_0/1x1_decrease
I1026 15:23:53.780758 33565 net.cpp:131] Top shape: 25 16 112 112 (5017600)
I1026 15:23:53.780763 33565 net.cpp:139] Memory required for data: 291021200
I1026 15:23:53.780773 33565 layer_factory.hpp:77] Creating layer conv2_0/1x1_decrease/bn_fixed_point
I1026 15:23:53.780784 33565 net.cpp:86] Creating Layer conv2_0/1x1_decrease/bn_fixed_point
I1026 15:23:53.780788 33565 net.cpp:409] conv2_0/1x1_decrease/bn_fixed_point <- conv2_0/1x1_decrease/bn
I1026 15:23:53.780795 33565 net.cpp:370] conv2_0/1x1_decrease/bn_fixed_point -> conv2_0/1x1_decrease/bn (in-place)
I1026 15:23:53.780833 33565 net.cpp:124] Setting up conv2_0/1x1_decrease/bn_fixed_point
I1026 15:23:53.780843 33565 net.cpp:131] Top shape: 25 16 112 112 (5017600)
I1026 15:23:53.780845 33565 net.cpp:139] Memory required for data: 311091600
I1026 15:23:53.780850 33565 layer_factory.hpp:77] Creating layer conv3_0/1x1_increase
I1026 15:23:53.780864 33565 net.cpp:86] Creating Layer conv3_0/1x1_increase
I1026 15:23:53.780869 33565 net.cpp:409] conv3_0/1x1_increase <- conv2_0/1x1_decrease/bn
I1026 15:23:53.780875 33565 net.cpp:383] conv3_0/1x1_increase -> conv3_0/1x1_increase/bn
I1026 15:23:53.781463 33565 net.cpp:124] Setting up conv3_0/1x1_increase
I1026 15:23:53.781476 33565 net.cpp:131] Top shape: 25 48 112 112 (15052800)
I1026 15:23:53.781481 33565 net.cpp:139] Memory required for data: 371302800
I1026 15:23:53.781487 33565 layer_factory.hpp:77] Creating layer conv3_0/1x1_increase/relu
I1026 15:23:53.781496 33565 net.cpp:86] Creating Layer conv3_0/1x1_increase/relu
I1026 15:23:53.781499 33565 net.cpp:409] conv3_0/1x1_increase/relu <- conv3_0/1x1_increase/bn
I1026 15:23:53.781505 33565 net.cpp:370] conv3_0/1x1_increase/relu -> conv3_0/1x1_increase/bn (in-place)
I1026 15:23:53.784652 33565 net.cpp:124] Setting up conv3_0/1x1_increase/relu
I1026 15:23:53.784674 33565 net.cpp:131] Top shape: 25 48 112 112 (15052800)
I1026 15:23:53.784679 33565 net.cpp:139] Memory required for data: 431514000
I1026 15:23:53.784685 33565 layer_factory.hpp:77] Creating layer conv3_0/1x1_increase/bn_fixed_point
I1026 15:23:53.784701 33565 net.cpp:86] Creating Layer conv3_0/1x1_increase/bn_fixed_point
I1026 15:23:53.784709 33565 net.cpp:409] conv3_0/1x1_increase/bn_fixed_point <- conv3_0/1x1_increase/bn
I1026 15:23:53.784718 33565 net.cpp:370] conv3_0/1x1_increase/bn_fixed_point -> conv3_0/1x1_increase/bn (in-place)
I1026 15:23:53.784775 33565 net.cpp:124] Setting up conv3_0/1x1_increase/bn_fixed_point
I1026 15:23:53.784785 33565 net.cpp:131] Top shape: 25 48 112 112 (15052800)
I1026 15:23:53.784787 33565 net.cpp:139] Memory required for data: 491725200
I1026 15:23:53.784795 33565 layer_factory.hpp:77] Creating layer conv3_0/3x3_dwconv
I1026 15:23:53.784818 33565 net.cpp:86] Creating Layer conv3_0/3x3_dwconv
I1026 15:23:53.784823 33565 net.cpp:409] conv3_0/3x3_dwconv <- conv3_0/1x1_increase/bn
I1026 15:23:53.784832 33565 net.cpp:383] conv3_0/3x3_dwconv -> conv3_0/3x3_dwconv/bn
I1026 15:23:53.787423 33565 net.cpp:124] Setting up conv3_0/3x3_dwconv
I1026 15:23:53.787439 33565 net.cpp:131] Top shape: 25 48 56 56 (3763200)
I1026 15:23:53.787444 33565 net.cpp:139] Memory required for data: 506778000
I1026 15:23:53.787452 33565 layer_factory.hpp:77] Creating layer conv3_0/3x3_dwconv/relu
I1026 15:23:53.787462 33565 net.cpp:86] Creating Layer conv3_0/3x3_dwconv/relu
I1026 15:23:53.787468 33565 net.cpp:409] conv3_0/3x3_dwconv/relu <- conv3_0/3x3_dwconv/bn
I1026 15:23:53.787475 33565 net.cpp:370] conv3_0/3x3_dwconv/relu -> conv3_0/3x3_dwconv/bn (in-place)
I1026 15:23:53.788072 33565 net.cpp:124] Setting up conv3_0/3x3_dwconv/relu
I1026 15:23:53.788085 33565 net.cpp:131] Top shape: 25 48 56 56 (3763200)
I1026 15:23:53.788089 33565 net.cpp:139] Memory required for data: 521830800
I1026 15:23:53.788094 33565 layer_factory.hpp:77] Creating layer conv3_0/3x3_dwconv/bn_fixed_point
I1026 15:23:53.788107 33565 net.cpp:86] Creating Layer conv3_0/3x3_dwconv/bn_fixed_point
I1026 15:23:53.788111 33565 net.cpp:409] conv3_0/3x3_dwconv/bn_fixed_point <- conv3_0/3x3_dwconv/bn
I1026 15:23:53.788120 33565 net.cpp:370] conv3_0/3x3_dwconv/bn_fixed_point -> conv3_0/3x3_dwconv/bn (in-place)
I1026 15:23:53.788156 33565 net.cpp:124] Setting up conv3_0/3x3_dwconv/bn_fixed_point
I1026 15:23:53.788162 33565 net.cpp:131] Top shape: 25 48 56 56 (3763200)
I1026 15:23:53.788166 33565 net.cpp:139] Memory required for data: 536883600
I1026 15:23:53.788172 33565 layer_factory.hpp:77] Creating layer conv3_0/1x1_decrease
I1026 15:23:53.788185 33565 net.cpp:86] Creating Layer conv3_0/1x1_decrease
I1026 15:23:53.788190 33565 net.cpp:409] conv3_0/1x1_decrease <- conv3_0/3x3_dwconv/bn
I1026 15:23:53.788197 33565 net.cpp:383] conv3_0/1x1_decrease -> conv3_0/1x1_decrease/bn
I1026 15:23:53.789001 33565 net.cpp:124] Setting up conv3_0/1x1_decrease
I1026 15:23:53.789018 33565 net.cpp:131] Top shape: 25 32 56 56 (2508800)
I1026 15:23:53.789022 33565 net.cpp:139] Memory required for data: 546918800
I1026 15:23:53.789036 33565 layer_factory.hpp:77] Creating layer conv3_0/1x1_decrease/bn_fixed_point
I1026 15:23:53.789047 33565 net.cpp:86] Creating Layer conv3_0/1x1_decrease/bn_fixed_point
I1026 15:23:53.789050 33565 net.cpp:409] conv3_0/1x1_decrease/bn_fixed_point <- conv3_0/1x1_decrease/bn
I1026 15:23:53.789057 33565 net.cpp:370] conv3_0/1x1_decrease/bn_fixed_point -> conv3_0/1x1_decrease/bn (in-place)
I1026 15:23:53.789098 33565 net.cpp:124] Setting up conv3_0/1x1_decrease/bn_fixed_point
I1026 15:23:53.789105 33565 net.cpp:131] Top shape: 25 32 56 56 (2508800)
I1026 15:23:53.789108 33565 net.cpp:139] Memory required for data: 556954000
I1026 15:23:53.789113 33565 layer_factory.hpp:77] Creating layer conv3_0/1x1_decrease/bn_conv3_0/1x1_decrease/bn_fixed_point_0_split
I1026 15:23:53.789122 33565 net.cpp:86] Creating Layer conv3_0/1x1_decrease/bn_conv3_0/1x1_decrease/bn_fixed_point_0_split
I1026 15:23:53.789129 33565 net.cpp:409] conv3_0/1x1_decrease/bn_conv3_0/1x1_decrease/bn_fixed_point_0_split <- conv3_0/1x1_decrease/bn
I1026 15:23:53.789136 33565 net.cpp:383] conv3_0/1x1_decrease/bn_conv3_0/1x1_decrease/bn_fixed_point_0_split -> conv3_0/1x1_decrease/bn_conv3_0/1x1_decrease/bn_fixed_point_0_split_0
I1026 15:23:53.789144 33565 net.cpp:383] conv3_0/1x1_decrease/bn_conv3_0/1x1_decrease/bn_fixed_point_0_split -> conv3_0/1x1_decrease/bn_conv3_0/1x1_decrease/bn_fixed_point_0_split_1
I1026 15:23:53.789191 33565 net.cpp:124] Setting up conv3_0/1x1_decrease/bn_conv3_0/1x1_decrease/bn_fixed_point_0_split
I1026 15:23:53.789216 33565 net.cpp:131] Top shape: 25 32 56 56 (2508800)
I1026 15:23:53.789220 33565 net.cpp:131] Top shape: 25 32 56 56 (2508800)
I1026 15:23:53.789223 33565 net.cpp:139] Memory required for data: 577024400
I1026 15:23:53.789227 33565 layer_factory.hpp:77] Creating layer conv3_1/1x1_increase
I1026 15:23:53.789240 33565 net.cpp:86] Creating Layer conv3_1/1x1_increase
I1026 15:23:53.789247 33565 net.cpp:409] conv3_1/1x1_increase <- conv3_0/1x1_decrease/bn_conv3_0/1x1_decrease/bn_fixed_point_0_split_0
I1026 15:23:53.789255 33565 net.cpp:383] conv3_1/1x1_increase -> conv3_1/1x1_increase/bn
I1026 15:23:53.789940 33565 net.cpp:124] Setting up conv3_1/1x1_increase
I1026 15:23:53.789954 33565 net.cpp:131] Top shape: 25 96 56 56 (7526400)
I1026 15:23:53.789958 33565 net.cpp:139] Memory required for data: 607130000
I1026 15:23:53.789966 33565 layer_factory.hpp:77] Creating layer conv3_1/1x1_increase/relu
I1026 15:23:53.789975 33565 net.cpp:86] Creating Layer conv3_1/1x1_increase/relu
I1026 15:23:53.789980 33565 net.cpp:409] conv3_1/1x1_increase/relu <- conv3_1/1x1_increase/bn
I1026 15:23:53.789988 33565 net.cpp:370] conv3_1/1x1_increase/relu -> conv3_1/1x1_increase/bn (in-place)
I1026 15:23:53.790571 33565 net.cpp:124] Setting up conv3_1/1x1_increase/relu
I1026 15:23:53.790583 33565 net.cpp:131] Top shape: 25 96 56 56 (7526400)
I1026 15:23:53.790587 33565 net.cpp:139] Memory required for data: 637235600
I1026 15:23:53.790593 33565 layer_factory.hpp:77] Creating layer conv3_1/1x1_increase/bn_fixed_point
I1026 15:23:53.790602 33565 net.cpp:86] Creating Layer conv3_1/1x1_increase/bn_fixed_point
I1026 15:23:53.790606 33565 net.cpp:409] conv3_1/1x1_increase/bn_fixed_point <- conv3_1/1x1_increase/bn
I1026 15:23:53.790614 33565 net.cpp:370] conv3_1/1x1_increase/bn_fixed_point -> conv3_1/1x1_increase/bn (in-place)
I1026 15:23:53.790649 33565 net.cpp:124] Setting up conv3_1/1x1_increase/bn_fixed_point
I1026 15:23:53.790657 33565 net.cpp:131] Top shape: 25 96 56 56 (7526400)
I1026 15:23:53.790660 33565 net.cpp:139] Memory required for data: 667341200
I1026 15:23:53.790666 33565 layer_factory.hpp:77] Creating layer conv3_1/3x3_dwconv
I1026 15:23:53.790680 33565 net.cpp:86] Creating Layer conv3_1/3x3_dwconv
I1026 15:23:53.790686 33565 net.cpp:409] conv3_1/3x3_dwconv <- conv3_1/1x1_increase/bn
I1026 15:23:53.790694 33565 net.cpp:383] conv3_1/3x3_dwconv -> conv3_1/3x3_dwconv/bn
I1026 15:23:53.791513 33565 net.cpp:124] Setting up conv3_1/3x3_dwconv
I1026 15:23:53.791529 33565 net.cpp:131] Top shape: 25 96 56 56 (7526400)
I1026 15:23:53.791533 33565 net.cpp:139] Memory required for data: 697446800
I1026 15:23:53.791541 33565 layer_factory.hpp:77] Creating layer conv3_1/3x3_dwconv/relu
I1026 15:23:53.791551 33565 net.cpp:86] Creating Layer conv3_1/3x3_dwconv/relu
I1026 15:23:53.791556 33565 net.cpp:409] conv3_1/3x3_dwconv/relu <- conv3_1/3x3_dwconv/bn
I1026 15:23:53.791563 33565 net.cpp:370] conv3_1/3x3_dwconv/relu -> conv3_1/3x3_dwconv/bn (in-place)
I1026 15:23:53.792366 33565 net.cpp:124] Setting up conv3_1/3x3_dwconv/relu
I1026 15:23:53.792382 33565 net.cpp:131] Top shape: 25 96 56 56 (7526400)
I1026 15:23:53.792387 33565 net.cpp:139] Memory required for data: 727552400
I1026 15:23:53.792390 33565 layer_factory.hpp:77] Creating layer conv3_1/3x3_dwconv/bn_fixed_point
I1026 15:23:53.792402 33565 net.cpp:86] Creating Layer conv3_1/3x3_dwconv/bn_fixed_point
I1026 15:23:53.792407 33565 net.cpp:409] conv3_1/3x3_dwconv/bn_fixed_point <- conv3_1/3x3_dwconv/bn
I1026 15:23:53.792415 33565 net.cpp:370] conv3_1/3x3_dwconv/bn_fixed_point -> conv3_1/3x3_dwconv/bn (in-place)
I1026 15:23:53.792454 33565 net.cpp:124] Setting up conv3_1/3x3_dwconv/bn_fixed_point
I1026 15:23:53.792460 33565 net.cpp:131] Top shape: 25 96 56 56 (7526400)
I1026 15:23:53.792464 33565 net.cpp:139] Memory required for data: 757658000
I1026 15:23:53.792471 33565 layer_factory.hpp:77] Creating layer conv3_1/1x1_decrease
I1026 15:23:53.792486 33565 net.cpp:86] Creating Layer conv3_1/1x1_decrease
I1026 15:23:53.792505 33565 net.cpp:409] conv3_1/1x1_decrease <- conv3_1/3x3_dwconv/bn
I1026 15:23:53.792515 33565 net.cpp:383] conv3_1/1x1_decrease -> conv3_1/1x1_decrease/bn
I1026 15:23:53.793200 33565 net.cpp:124] Setting up conv3_1/1x1_decrease
I1026 15:23:53.793213 33565 net.cpp:131] Top shape: 25 32 56 56 (2508800)
I1026 15:23:53.793217 33565 net.cpp:139] Memory required for data: 767693200
I1026 15:23:53.793226 33565 layer_factory.hpp:77] Creating layer conv3_1/elt_sum
I1026 15:23:53.793241 33565 net.cpp:86] Creating Layer conv3_1/elt_sum
I1026 15:23:53.793246 33565 net.cpp:409] conv3_1/elt_sum <- conv3_0/1x1_decrease/bn_conv3_0/1x1_decrease/bn_fixed_point_0_split_1
I1026 15:23:53.793251 33565 net.cpp:409] conv3_1/elt_sum <- conv3_1/1x1_decrease/bn
I1026 15:23:53.793257 33565 net.cpp:383] conv3_1/elt_sum -> conv3_1/elt_sum
I1026 15:23:53.793305 33565 net.cpp:124] Setting up conv3_1/elt_sum
I1026 15:23:53.793314 33565 net.cpp:131] Top shape: 25 32 56 56 (2508800)
I1026 15:23:53.793318 33565 net.cpp:139] Memory required for data: 777728400
I1026 15:23:53.793321 33565 layer_factory.hpp:77] Creating layer conv3_1/elt_sum_fixed_point
I1026 15:23:53.793334 33565 net.cpp:86] Creating Layer conv3_1/elt_sum_fixed_point
I1026 15:23:53.793339 33565 net.cpp:409] conv3_1/elt_sum_fixed_point <- conv3_1/elt_sum
I1026 15:23:53.793345 33565 net.cpp:370] conv3_1/elt_sum_fixed_point -> conv3_1/elt_sum (in-place)
I1026 15:23:53.793375 33565 net.cpp:124] Setting up conv3_1/elt_sum_fixed_point
I1026 15:23:53.793381 33565 net.cpp:131] Top shape: 25 32 56 56 (2508800)
I1026 15:23:53.793385 33565 net.cpp:139] Memory required for data: 787763600
I1026 15:23:53.793390 33565 layer_factory.hpp:77] Creating layer conv4_0/1x1_increase
I1026 15:23:53.793403 33565 net.cpp:86] Creating Layer conv4_0/1x1_increase
I1026 15:23:53.793408 33565 net.cpp:409] conv4_0/1x1_increase <- conv3_1/elt_sum
I1026 15:23:53.793416 33565 net.cpp:383] conv4_0/1x1_increase -> conv4_0/1x1_increase/bn
I1026 15:23:53.794293 33565 net.cpp:124] Setting up conv4_0/1x1_increase
I1026 15:23:53.794309 33565 net.cpp:131] Top shape: 25 96 56 56 (7526400)
I1026 15:23:53.794313 33565 net.cpp:139] Memory required for data: 817869200
I1026 15:23:53.794323 33565 layer_factory.hpp:77] Creating layer conv4_0/1x1_increase/hardswish
I1026 15:23:53.794338 33565 net.cpp:86] Creating Layer conv4_0/1x1_increase/hardswish
I1026 15:23:53.794343 33565 net.cpp:409] conv4_0/1x1_increase/hardswish <- conv4_0/1x1_increase/bn
I1026 15:23:53.794350 33565 net.cpp:370] conv4_0/1x1_increase/hardswish -> conv4_0/1x1_increase/bn (in-place)
I1026 15:23:53.794389 33565 net.cpp:124] Setting up conv4_0/1x1_increase/hardswish
I1026 15:23:53.794396 33565 net.cpp:131] Top shape: 25 96 56 56 (7526400)
I1026 15:23:53.794399 33565 net.cpp:139] Memory required for data: 847974800
I1026 15:23:53.794404 33565 layer_factory.hpp:77] Creating layer conv4_0/1x1_increase/bn_fixed_point
I1026 15:23:53.794414 33565 net.cpp:86] Creating Layer conv4_0/1x1_increase/bn_fixed_point
I1026 15:23:53.794417 33565 net.cpp:409] conv4_0/1x1_increase/bn_fixed_point <- conv4_0/1x1_increase/bn
I1026 15:23:53.794425 33565 net.cpp:370] conv4_0/1x1_increase/bn_fixed_point -> conv4_0/1x1_increase/bn (in-place)
I1026 15:23:53.794467 33565 net.cpp:124] Setting up conv4_0/1x1_increase/bn_fixed_point
I1026 15:23:53.794473 33565 net.cpp:131] Top shape: 25 96 56 56 (7526400)
I1026 15:23:53.794476 33565 net.cpp:139] Memory required for data: 878080400
I1026 15:23:53.794481 33565 layer_factory.hpp:77] Creating layer conv4_0/1x1_increase/slice
I1026 15:23:53.794497 33565 net.cpp:86] Creating Layer conv4_0/1x1_increase/slice
I1026 15:23:53.794503 33565 net.cpp:409] conv4_0/1x1_increase/slice <- conv4_0/1x1_increase/bn
I1026 15:23:53.794510 33565 net.cpp:383] conv4_0/1x1_increase/slice -> conv4_0/1x1_increase/split1
I1026 15:23:53.794522 33565 net.cpp:383] conv4_0/1x1_increase/slice -> conv4_0/1x1_increase/split2
I1026 15:23:53.794528 33565 net.cpp:383] conv4_0/1x1_increase/slice -> conv4_0/1x1_increase/split3
I1026 15:23:53.794591 33565 net.cpp:124] Setting up conv4_0/1x1_increase/slice
I1026 15:23:53.794615 33565 net.cpp:131] Top shape: 25 32 56 56 (2508800)
I1026 15:23:53.794620 33565 net.cpp:131] Top shape: 25 32 56 56 (2508800)
I1026 15:23:53.794625 33565 net.cpp:131] Top shape: 25 32 56 56 (2508800)
I1026 15:23:53.794628 33565 net.cpp:139] Memory required for data: 908186000
I1026 15:23:53.794631 33565 layer_factory.hpp:77] Creating layer conv4_0/3x3_dwconv/slice_0
I1026 15:23:53.794646 33565 net.cpp:86] Creating Layer conv4_0/3x3_dwconv/slice_0
I1026 15:23:53.794651 33565 net.cpp:409] conv4_0/3x3_dwconv/slice_0 <- conv4_0/1x1_increase/split1
I1026 15:23:53.794658 33565 net.cpp:383] conv4_0/3x3_dwconv/slice_0 -> conv4_0/3x3_dwconv/slice_0/bn
I1026 15:23:53.795279 33565 net.cpp:124] Setting up conv4_0/3x3_dwconv/slice_0
I1026 15:23:53.795294 33565 net.cpp:131] Top shape: 25 32 28 28 (627200)
I1026 15:23:53.795297 33565 net.cpp:139] Memory required for data: 910694800
I1026 15:23:53.795310 33565 layer_factory.hpp:77] Creating layer conv4_0/3x3_dwconv/slice_0/hardswish
I1026 15:23:53.795322 33565 net.cpp:86] Creating Layer conv4_0/3x3_dwconv/slice_0/hardswish
I1026 15:23:53.795328 33565 net.cpp:409] conv4_0/3x3_dwconv/slice_0/hardswish <- conv4_0/3x3_dwconv/slice_0/bn
I1026 15:23:53.795336 33565 net.cpp:370] conv4_0/3x3_dwconv/slice_0/hardswish -> conv4_0/3x3_dwconv/slice_0/bn (in-place)
I1026 15:23:53.795373 33565 net.cpp:124] Setting up conv4_0/3x3_dwconv/slice_0/hardswish
I1026 15:23:53.795382 33565 net.cpp:131] Top shape: 25 32 28 28 (627200)
I1026 15:23:53.795385 33565 net.cpp:139] Memory required for data: 913203600
I1026 15:23:53.795390 33565 layer_factory.hpp:77] Creating layer conv4_0/3x3_dwconv/slice_1
I1026 15:23:53.795403 33565 net.cpp:86] Creating Layer conv4_0/3x3_dwconv/slice_1
I1026 15:23:53.795409 33565 net.cpp:409] conv4_0/3x3_dwconv/slice_1 <- conv4_0/1x1_increase/split2
I1026 15:23:53.795418 33565 net.cpp:383] conv4_0/3x3_dwconv/slice_1 -> conv4_0/3x3_dwconv/slice_1/bn
I1026 15:23:53.796244 33565 net.cpp:124] Setting up conv4_0/3x3_dwconv/slice_1
I1026 15:23:53.796259 33565 net.cpp:131] Top shape: 25 32 28 28 (627200)
I1026 15:23:53.796263 33565 net.cpp:139] Memory required for data: 915712400
I1026 15:23:53.796272 33565 layer_factory.hpp:77] Creating layer conv4_0/3x3_dwconv/slice_1/hardswish
I1026 15:23:53.796281 33565 net.cpp:86] Creating Layer conv4_0/3x3_dwconv/slice_1/hardswish
I1026 15:23:53.796286 33565 net.cpp:409] conv4_0/3x3_dwconv/slice_1/hardswish <- conv4_0/3x3_dwconv/slice_1/bn
I1026 15:23:53.796293 33565 net.cpp:370] conv4_0/3x3_dwconv/slice_1/hardswish -> conv4_0/3x3_dwconv/slice_1/bn (in-place)
I1026 15:23:53.796329 33565 net.cpp:124] Setting up conv4_0/3x3_dwconv/slice_1/hardswish
I1026 15:23:53.796337 33565 net.cpp:131] Top shape: 25 32 28 28 (627200)
I1026 15:23:53.796340 33565 net.cpp:139] Memory required for data: 918221200
I1026 15:23:53.796346 33565 layer_factory.hpp:77] Creating layer conv4_0/3x3_dwconv/slice_2
I1026 15:23:53.796360 33565 net.cpp:86] Creating Layer conv4_0/3x3_dwconv/slice_2
I1026 15:23:53.796365 33565 net.cpp:409] conv4_0/3x3_dwconv/slice_2 <- conv4_0/1x1_increase/split3
I1026 15:23:53.796373 33565 net.cpp:383] conv4_0/3x3_dwconv/slice_2 -> conv4_0/3x3_dwconv/slice_2/bn
I1026 15:23:53.797226 33565 net.cpp:124] Setting up conv4_0/3x3_dwconv/slice_2
I1026 15:23:53.797241 33565 net.cpp:131] Top shape: 25 32 28 28 (627200)
I1026 15:23:53.797245 33565 net.cpp:139] Memory required for data: 920730000
I1026 15:23:53.797253 33565 layer_factory.hpp:77] Creating layer conv4_0/3x3_dwconv/slice_2/hardswish
I1026 15:23:53.797264 33565 net.cpp:86] Creating Layer conv4_0/3x3_dwconv/slice_2/hardswish
I1026 15:23:53.797269 33565 net.cpp:409] conv4_0/3x3_dwconv/slice_2/hardswish <- conv4_0/3x3_dwconv/slice_2/bn
I1026 15:23:53.797276 33565 net.cpp:370] conv4_0/3x3_dwconv/slice_2/hardswish -> conv4_0/3x3_dwconv/slice_2/bn (in-place)
I1026 15:23:53.797315 33565 net.cpp:124] Setting up conv4_0/3x3_dwconv/slice_2/hardswish
I1026 15:23:53.797324 33565 net.cpp:131] Top shape: 25 32 28 28 (627200)
I1026 15:23:53.797344 33565 net.cpp:139] Memory required for data: 923238800
I1026 15:23:53.797348 33565 layer_factory.hpp:77] Creating layer conv4_0/3x3_dwconv/concat
I1026 15:23:53.797363 33565 net.cpp:86] Creating Layer conv4_0/3x3_dwconv/concat
I1026 15:23:53.797367 33565 net.cpp:409] conv4_0/3x3_dwconv/concat <- conv4_0/3x3_dwconv/slice_0/bn
I1026 15:23:53.797374 33565 net.cpp:409] conv4_0/3x3_dwconv/concat <- conv4_0/3x3_dwconv/slice_1/bn
I1026 15:23:53.797377 33565 net.cpp:409] conv4_0/3x3_dwconv/concat <- conv4_0/3x3_dwconv/slice_2/bn
I1026 15:23:53.797384 33565 net.cpp:383] conv4_0/3x3_dwconv/concat -> conv4_0/3x3_dwconv/concat
I1026 15:23:53.797425 33565 net.cpp:124] Setting up conv4_0/3x3_dwconv/concat
I1026 15:23:53.797433 33565 net.cpp:131] Top shape: 25 96 28 28 (1881600)
I1026 15:23:53.797436 33565 net.cpp:139] Memory required for data: 930765200
I1026 15:23:53.797441 33565 layer_factory.hpp:77] Creating layer conv4_0/3x3_dwconv/concat_fixed_point
I1026 15:23:53.797449 33565 net.cpp:86] Creating Layer conv4_0/3x3_dwconv/concat_fixed_point
I1026 15:23:53.797456 33565 net.cpp:409] conv4_0/3x3_dwconv/concat_fixed_point <- conv4_0/3x3_dwconv/concat
I1026 15:23:53.797463 33565 net.cpp:370] conv4_0/3x3_dwconv/concat_fixed_point -> conv4_0/3x3_dwconv/concat (in-place)
I1026 15:23:53.797492 33565 net.cpp:124] Setting up conv4_0/3x3_dwconv/concat_fixed_point
I1026 15:23:53.797498 33565 net.cpp:131] Top shape: 25 96 28 28 (1881600)
I1026 15:23:53.797502 33565 net.cpp:139] Memory required for data: 938291600
I1026 15:23:53.797509 33565 layer_factory.hpp:77] Creating layer conv4_0/3x3_dwconv/concat_conv4_0/3x3_dwconv/concat_fixed_point_0_split
I1026 15:23:53.797518 33565 net.cpp:86] Creating Layer conv4_0/3x3_dwconv/concat_conv4_0/3x3_dwconv/concat_fixed_point_0_split
I1026 15:23:53.797523 33565 net.cpp:409] conv4_0/3x3_dwconv/concat_conv4_0/3x3_dwconv/concat_fixed_point_0_split <- conv4_0/3x3_dwconv/concat
I1026 15:23:53.797530 33565 net.cpp:383] conv4_0/3x3_dwconv/concat_conv4_0/3x3_dwconv/concat_fixed_point_0_split -> conv4_0/3x3_dwconv/concat_conv4_0/3x3_dwconv/concat_fixed_point_0_split_0
I1026 15:23:53.797538 33565 net.cpp:383] conv4_0/3x3_dwconv/concat_conv4_0/3x3_dwconv/concat_fixed_point_0_split -> conv4_0/3x3_dwconv/concat_conv4_0/3x3_dwconv/concat_fixed_point_0_split_1
I1026 15:23:53.797581 33565 net.cpp:124] Setting up conv4_0/3x3_dwconv/concat_conv4_0/3x3_dwconv/concat_fixed_point_0_split
I1026 15:23:53.797590 33565 net.cpp:131] Top shape: 25 96 28 28 (1881600)
I1026 15:23:53.797595 33565 net.cpp:131] Top shape: 25 96 28 28 (1881600)
I1026 15:23:53.797597 33565 net.cpp:139] Memory required for data: 953344400
I1026 15:23:53.797601 33565 layer_factory.hpp:77] Creating layer conv4_0/3x3_dwconv/SE_global_pool
I1026 15:23:53.797616 33565 net.cpp:86] Creating Layer conv4_0/3x3_dwconv/SE_global_pool
I1026 15:23:53.797621 33565 net.cpp:409] conv4_0/3x3_dwconv/SE_global_pool <- conv4_0/3x3_dwconv/concat_conv4_0/3x3_dwconv/concat_fixed_point_0_split_0
I1026 15:23:53.797628 33565 net.cpp:383] conv4_0/3x3_dwconv/SE_global_pool -> conv4_0/3x3_dwconv/SE_global_pool
I1026 15:23:53.797673 33565 net.cpp:124] Setting up conv4_0/3x3_dwconv/SE_global_pool
I1026 15:23:53.797683 33565 net.cpp:131] Top shape: 25 96 1 1 (2400)
I1026 15:23:53.797685 33565 net.cpp:139] Memory required for data: 953354000
I1026 15:23:53.797689 33565 layer_factory.hpp:77] Creating layer conv4_0/3x3_dwconv/SE_bn
I1026 15:23:53.797703 33565 net.cpp:86] Creating Layer conv4_0/3x3_dwconv/SE_bn
I1026 15:23:53.797708 33565 net.cpp:409] conv4_0/3x3_dwconv/SE_bn <- conv4_0/3x3_dwconv/SE_global_pool
I1026 15:23:53.797714 33565 net.cpp:383] conv4_0/3x3_dwconv/SE_bn -> conv4_0/3x3_dwconv/SE_bn
I1026 15:23:53.797787 33565 layer_factory.hpp:77] Creating layer conv4_0/3x3_dwconv/SE_bn
I1026 15:23:53.797946 33565 net.cpp:124] Setting up conv4_0/3x3_dwconv/SE_bn
I1026 15:23:53.797956 33565 net.cpp:131] Top shape: 25 96 1 1 (2400)
I1026 15:23:53.797960 33565 net.cpp:139] Memory required for data: 953363600
I1026 15:23:53.797967 33565 layer_factory.hpp:77] Creating layer conv4_0/3x3_dwconv/SE_fc1
I1026 15:23:53.797996 33565 net.cpp:86] Creating Layer conv4_0/3x3_dwconv/SE_fc1
I1026 15:23:53.798002 33565 net.cpp:409] conv4_0/3x3_dwconv/SE_fc1 <- conv4_0/3x3_dwconv/SE_bn
I1026 15:23:53.798010 33565 net.cpp:383] conv4_0/3x3_dwconv/SE_fc1 -> conv4_0/3x3_dwconv/SE_fc1
I1026 15:23:53.798451 33565 net.cpp:124] Setting up conv4_0/3x3_dwconv/SE_fc1
I1026 15:23:53.798465 33565 net.cpp:131] Top shape: 25 6 1 1 (150)
I1026 15:23:53.798468 33565 net.cpp:139] Memory required for data: 953364200
I1026 15:23:53.798476 33565 layer_factory.hpp:77] Creating layer conv4_0/3x3_dwconv/SE_fc1/relu
I1026 15:23:53.798486 33565 net.cpp:86] Creating Layer conv4_0/3x3_dwconv/SE_fc1/relu
I1026 15:23:53.798491 33565 net.cpp:409] conv4_0/3x3_dwconv/SE_fc1/relu <- conv4_0/3x3_dwconv/SE_fc1
I1026 15:23:53.798497 33565 net.cpp:370] conv4_0/3x3_dwconv/SE_fc1/relu -> conv4_0/3x3_dwconv/SE_fc1 (in-place)
I1026 15:23:53.799109 33565 net.cpp:124] Setting up conv4_0/3x3_dwconv/SE_fc1/relu
I1026 15:23:53.799122 33565 net.cpp:131] Top shape: 25 6 1 1 (150)
I1026 15:23:53.799127 33565 net.cpp:139] Memory required for data: 953364800
I1026 15:23:53.799131 33565 layer_factory.hpp:77] Creating layer conv4_0/3x3_dwconv/SE_fc2
I1026 15:23:53.799144 33565 net.cpp:86] Creating Layer conv4_0/3x3_dwconv/SE_fc2
I1026 15:23:53.799150 33565 net.cpp:409] conv4_0/3x3_dwconv/SE_fc2 <- conv4_0/3x3_dwconv/SE_fc1
I1026 15:23:53.799160 33565 net.cpp:383] conv4_0/3x3_dwconv/SE_fc2 -> conv4_0/3x3_dwconv/SE_fc2
I1026 15:23:53.799609 33565 net.cpp:124] Setting up conv4_0/3x3_dwconv/SE_fc2
I1026 15:23:53.799623 33565 net.cpp:131] Top shape: 25 96 1 1 (2400)
I1026 15:23:53.799625 33565 net.cpp:139] Memory required for data: 953374400
I1026 15:23:53.799633 33565 layer_factory.hpp:77] Creating layer conv4_0/3x3_dwconv/SE_weights
I1026 15:23:53.799643 33565 net.cpp:86] Creating Layer conv4_0/3x3_dwconv/SE_weights
I1026 15:23:53.799648 33565 net.cpp:409] conv4_0/3x3_dwconv/SE_weights <- conv4_0/3x3_dwconv/SE_fc2
I1026 15:23:53.799656 33565 net.cpp:370] conv4_0/3x3_dwconv/SE_weights -> conv4_0/3x3_dwconv/SE_fc2 (in-place)
I1026 15:23:53.800269 33565 net.cpp:124] Setting up conv4_0/3x3_dwconv/SE_weights
I1026 15:23:53.800283 33565 net.cpp:131] Top shape: 25 96 1 1 (2400)
I1026 15:23:53.800287 33565 net.cpp:139] Memory required for data: 953384000
I1026 15:23:53.800292 33565 layer_factory.hpp:77] Creating layer conv4_0/3x3_dwconv/SE_weights/reshape
I1026 15:23:53.800303 33565 net.cpp:86] Creating Layer conv4_0/3x3_dwconv/SE_weights/reshape
I1026 15:23:53.800309 33565 net.cpp:409] conv4_0/3x3_dwconv/SE_weights/reshape <- conv4_0/3x3_dwconv/SE_fc2
I1026 15:23:53.800318 33565 net.cpp:383] conv4_0/3x3_dwconv/SE_weights/reshape -> conv4_0/3x3_dwconv/SE_weights/reshape
I1026 15:23:53.800369 33565 net.cpp:124] Setting up conv4_0/3x3_dwconv/SE_weights/reshape
I1026 15:23:53.800376 33565 net.cpp:131] Top shape: 25 96 (2400)
I1026 15:23:53.800379 33565 net.cpp:139] Memory required for data: 953393600
I1026 15:23:53.800384 33565 layer_factory.hpp:77] Creating layer conv4_0/3x3_dwconv/scale
I1026 15:23:53.800395 33565 net.cpp:86] Creating Layer conv4_0/3x3_dwconv/scale
I1026 15:23:53.800398 33565 net.cpp:409] conv4_0/3x3_dwconv/scale <- conv4_0/3x3_dwconv/concat_conv4_0/3x3_dwconv/concat_fixed_point_0_split_1
I1026 15:23:53.800405 33565 net.cpp:409] conv4_0/3x3_dwconv/scale <- conv4_0/3x3_dwconv/SE_weights/reshape
I1026 15:23:53.800410 33565 net.cpp:383] conv4_0/3x3_dwconv/scale -> conv4_0/3x3_dwconv/scale
I1026 15:23:53.800504 33565 net.cpp:124] Setting up conv4_0/3x3_dwconv/scale
I1026 15:23:53.800513 33565 net.cpp:131] Top shape: 25 96 28 28 (1881600)
I1026 15:23:53.800518 33565 net.cpp:139] Memory required for data: 960920000
I1026 15:23:53.800520 33565 layer_factory.hpp:77] Creating layer conv4_0/3x3_dwconv/scale_fixed_point
I1026 15:23:53.800529 33565 net.cpp:86] Creating Layer conv4_0/3x3_dwconv/scale_fixed_point
I1026 15:23:53.800535 33565 net.cpp:409] conv4_0/3x3_dwconv/scale_fixed_point <- conv4_0/3x3_dwconv/scale
I1026 15:23:53.800544 33565 net.cpp:370] conv4_0/3x3_dwconv/scale_fixed_point -> conv4_0/3x3_dwconv/scale (in-place)
I1026 15:23:53.800592 33565 net.cpp:124] Setting up conv4_0/3x3_dwconv/scale_fixed_point
I1026 15:23:53.800601 33565 net.cpp:131] Top shape: 25 96 28 28 (1881600)
I1026 15:23:53.800604 33565 net.cpp:139] Memory required for data: 968446400
I1026 15:23:53.800609 33565 layer_factory.hpp:77] Creating layer conv4_0/1x1_decrease
I1026 15:23:53.800624 33565 net.cpp:86] Creating Layer conv4_0/1x1_decrease
I1026 15:23:53.800631 33565 net.cpp:409] conv4_0/1x1_decrease <- conv4_0/3x3_dwconv/scale
I1026 15:23:53.800637 33565 net.cpp:383] conv4_0/1x1_decrease -> conv4_0/1x1_decrease/bn
I1026 15:23:53.801365 33565 net.cpp:124] Setting up conv4_0/1x1_decrease
I1026 15:23:53.801379 33565 net.cpp:131] Top shape: 25 40 28 28 (784000)
I1026 15:23:53.801383 33565 net.cpp:139] Memory required for data: 971582400
I1026 15:23:53.801391 33565 layer_factory.hpp:77] Creating layer conv4_0/1x1_decrease/bn_fixed_point
I1026 15:23:53.801405 33565 net.cpp:86] Creating Layer conv4_0/1x1_decrease/bn_fixed_point
I1026 15:23:53.801409 33565 net.cpp:409] conv4_0/1x1_decrease/bn_fixed_point <- conv4_0/1x1_decrease/bn
I1026 15:23:53.801417 33565 net.cpp:370] conv4_0/1x1_decrease/bn_fixed_point -> conv4_0/1x1_decrease/bn (in-place)
I1026 15:23:53.801455 33565 net.cpp:124] Setting up conv4_0/1x1_decrease/bn_fixed_point
I1026 15:23:53.801461 33565 net.cpp:131] Top shape: 25 40 28 28 (784000)
I1026 15:23:53.801465 33565 net.cpp:139] Memory required for data: 974718400
I1026 15:23:53.801470 33565 layer_factory.hpp:77] Creating layer conv4_0/1x1_decrease/bn_conv4_0/1x1_decrease/bn_fixed_point_0_split
I1026 15:23:53.801478 33565 net.cpp:86] Creating Layer conv4_0/1x1_decrease/bn_conv4_0/1x1_decrease/bn_fixed_point_0_split
I1026 15:23:53.801486 33565 net.cpp:409] conv4_0/1x1_decrease/bn_conv4_0/1x1_decrease/bn_fixed_point_0_split <- conv4_0/1x1_decrease/bn
I1026 15:23:53.801492 33565 net.cpp:383] conv4_0/1x1_decrease/bn_conv4_0/1x1_decrease/bn_fixed_point_0_split -> conv4_0/1x1_decrease/bn_conv4_0/1x1_decrease/bn_fixed_point_0_split_0
I1026 15:23:53.801501 33565 net.cpp:383] conv4_0/1x1_decrease/bn_conv4_0/1x1_decrease/bn_fixed_point_0_split -> conv4_0/1x1_decrease/bn_conv4_0/1x1_decrease/bn_fixed_point_0_split_1
I1026 15:23:53.801544 33565 net.cpp:124] Setting up conv4_0/1x1_decrease/bn_conv4_0/1x1_decrease/bn_fixed_point_0_split
I1026 15:23:53.801551 33565 net.cpp:131] Top shape: 25 40 28 28 (784000)
I1026 15:23:53.801555 33565 net.cpp:131] Top shape: 25 40 28 28 (784000)
I1026 15:23:53.801559 33565 net.cpp:139] Memory required for data: 980990400
I1026 15:23:53.801563 33565 layer_factory.hpp:77] Creating layer conv4_1/1x1_increase
I1026 15:23:53.801574 33565 net.cpp:86] Creating Layer conv4_1/1x1_increase
I1026 15:23:53.801580 33565 net.cpp:409] conv4_1/1x1_increase <- conv4_0/1x1_decrease/bn_conv4_0/1x1_decrease/bn_fixed_point_0_split_0
I1026 15:23:53.801589 33565 net.cpp:383] conv4_1/1x1_increase -> conv4_1/1x1_increase/bn
I1026 15:23:53.802367 33565 net.cpp:124] Setting up conv4_1/1x1_increase
I1026 15:23:53.802381 33565 net.cpp:131] Top shape: 25 120 28 28 (2352000)
I1026 15:23:53.802386 33565 net.cpp:139] Memory required for data: 990398400
I1026 15:23:53.802393 33565 layer_factory.hpp:77] Creating layer conv4_1/1x1_increase/hardswish
I1026 15:23:53.802405 33565 net.cpp:86] Creating Layer conv4_1/1x1_increase/hardswish
I1026 15:23:53.802409 33565 net.cpp:409] conv4_1/1x1_increase/hardswish <- conv4_1/1x1_increase/bn
I1026 15:23:53.802417 33565 net.cpp:370] conv4_1/1x1_increase/hardswish -> conv4_1/1x1_increase/bn (in-place)
I1026 15:23:53.802454 33565 net.cpp:124] Setting up conv4_1/1x1_increase/hardswish
I1026 15:23:53.802462 33565 net.cpp:131] Top shape: 25 120 28 28 (2352000)
I1026 15:23:53.802465 33565 net.cpp:139] Memory required for data: 999806400
I1026 15:23:53.802469 33565 layer_factory.hpp:77] Creating layer conv4_1/1x1_increase/bn_fixed_point
I1026 15:23:53.802479 33565 net.cpp:86] Creating Layer conv4_1/1x1_increase/bn_fixed_point
I1026 15:23:53.802485 33565 net.cpp:409] conv4_1/1x1_increase/bn_fixed_point <- conv4_1/1x1_increase/bn
I1026 15:23:53.802510 33565 net.cpp:370] conv4_1/1x1_increase/bn_fixed_point -> conv4_1/1x1_increase/bn (in-place)
I1026 15:23:53.802546 33565 net.cpp:124] Setting up conv4_1/1x1_increase/bn_fixed_point
I1026 15:23:53.802553 33565 net.cpp:131] Top shape: 25 120 28 28 (2352000)
I1026 15:23:53.802556 33565 net.cpp:139] Memory required for data: 1009214400
I1026 15:23:53.802561 33565 layer_factory.hpp:77] Creating layer conv4_1/1x1_increase/slice
I1026 15:23:53.802572 33565 net.cpp:86] Creating Layer conv4_1/1x1_increase/slice
I1026 15:23:53.802577 33565 net.cpp:409] conv4_1/1x1_increase/slice <- conv4_1/1x1_increase/bn
I1026 15:23:53.802584 33565 net.cpp:383] conv4_1/1x1_increase/slice -> conv4_1/1x1_increase/split1
I1026 15:23:53.802592 33565 net.cpp:383] conv4_1/1x1_increase/slice -> conv4_1/1x1_increase/split2
I1026 15:23:53.802640 33565 net.cpp:124] Setting up conv4_1/1x1_increase/slice
I1026 15:23:53.802647 33565 net.cpp:131] Top shape: 25 60 28 28 (1176000)
I1026 15:23:53.802651 33565 net.cpp:131] Top shape: 25 60 28 28 (1176000)
I1026 15:23:53.802654 33565 net.cpp:139] Memory required for data: 1018622400
I1026 15:23:53.802659 33565 layer_factory.hpp:77] Creating layer conv4_1/3x3_dwconv/slice_0
I1026 15:23:53.802670 33565 net.cpp:86] Creating Layer conv4_1/3x3_dwconv/slice_0
I1026 15:23:53.802675 33565 net.cpp:409] conv4_1/3x3_dwconv/slice_0 <- conv4_1/1x1_increase/split1
I1026 15:23:53.802685 33565 net.cpp:383] conv4_1/3x3_dwconv/slice_0 -> conv4_1/3x3_dwconv/slice_0/bn
I1026 15:23:53.803334 33565 net.cpp:124] Setting up conv4_1/3x3_dwconv/slice_0
I1026 15:23:53.803349 33565 net.cpp:131] Top shape: 25 60 28 28 (1176000)
I1026 15:23:53.803352 33565 net.cpp:139] Memory required for data: 1023326400
I1026 15:23:53.803360 33565 layer_factory.hpp:77] Creating layer conv4_1/3x3_dwconv/slice_0/hardswish
I1026 15:23:53.803371 33565 net.cpp:86] Creating Layer conv4_1/3x3_dwconv/slice_0/hardswish
I1026 15:23:53.803376 33565 net.cpp:409] conv4_1/3x3_dwconv/slice_0/hardswish <- conv4_1/3x3_dwconv/slice_0/bn
I1026 15:23:53.803382 33565 net.cpp:370] conv4_1/3x3_dwconv/slice_0/hardswish -> conv4_1/3x3_dwconv/slice_0/bn (in-place)
I1026 15:23:53.803418 33565 net.cpp:124] Setting up conv4_1/3x3_dwconv/slice_0/hardswish
I1026 15:23:53.803426 33565 net.cpp:131] Top shape: 25 60 28 28 (1176000)
I1026 15:23:53.803429 33565 net.cpp:139] Memory required for data: 1028030400
I1026 15:23:53.803433 33565 layer_factory.hpp:77] Creating layer conv4_1/3x3_dwconv/slice_1
I1026 15:23:53.803448 33565 net.cpp:86] Creating Layer conv4_1/3x3_dwconv/slice_1
I1026 15:23:53.803457 33565 net.cpp:409] conv4_1/3x3_dwconv/slice_1 <- conv4_1/1x1_increase/split2
I1026 15:23:53.803464 33565 net.cpp:383] conv4_1/3x3_dwconv/slice_1 -> conv4_1/3x3_dwconv/slice_1/bn
I1026 15:23:53.804328 33565 net.cpp:124] Setting up conv4_1/3x3_dwconv/slice_1
I1026 15:23:53.804343 33565 net.cpp:131] Top shape: 25 60 28 28 (1176000)
I1026 15:23:53.804348 33565 net.cpp:139] Memory required for data: 1032734400
I1026 15:23:53.804355 33565 layer_factory.hpp:77] Creating layer conv4_1/3x3_dwconv/slice_1/hardswish
I1026 15:23:53.804366 33565 net.cpp:86] Creating Layer conv4_1/3x3_dwconv/slice_1/hardswish
I1026 15:23:53.804371 33565 net.cpp:409] conv4_1/3x3_dwconv/slice_1/hardswish <- conv4_1/3x3_dwconv/slice_1/bn
I1026 15:23:53.804378 33565 net.cpp:370] conv4_1/3x3_dwconv/slice_1/hardswish -> conv4_1/3x3_dwconv/slice_1/bn (in-place)
I1026 15:23:53.804416 33565 net.cpp:124] Setting up conv4_1/3x3_dwconv/slice_1/hardswish
I1026 15:23:53.804425 33565 net.cpp:131] Top shape: 25 60 28 28 (1176000)
I1026 15:23:53.804427 33565 net.cpp:139] Memory required for data: 1037438400
I1026 15:23:53.804431 33565 layer_factory.hpp:77] Creating layer conv4_1/3x3_dwconv/concat
I1026 15:23:53.804441 33565 net.cpp:86] Creating Layer conv4_1/3x3_dwconv/concat
I1026 15:23:53.804447 33565 net.cpp:409] conv4_1/3x3_dwconv/concat <- conv4_1/3x3_dwconv/slice_0/bn
I1026 15:23:53.804453 33565 net.cpp:409] conv4_1/3x3_dwconv/concat <- conv4_1/3x3_dwconv/slice_1/bn
I1026 15:23:53.804476 33565 net.cpp:383] conv4_1/3x3_dwconv/concat -> conv4_1/3x3_dwconv/concat
I1026 15:23:53.804510 33565 net.cpp:124] Setting up conv4_1/3x3_dwconv/concat
I1026 15:23:53.804518 33565 net.cpp:131] Top shape: 25 120 28 28 (2352000)
I1026 15:23:53.804522 33565 net.cpp:139] Memory required for data: 1046846400
I1026 15:23:53.804527 33565 layer_factory.hpp:77] Creating layer conv4_1/3x3_dwconv/concat_fixed_point
I1026 15:23:53.804535 33565 net.cpp:86] Creating Layer conv4_1/3x3_dwconv/concat_fixed_point
I1026 15:23:53.804541 33565 net.cpp:409] conv4_1/3x3_dwconv/concat_fixed_point <- conv4_1/3x3_dwconv/concat
I1026 15:23:53.804548 33565 net.cpp:370] conv4_1/3x3_dwconv/concat_fixed_point -> conv4_1/3x3_dwconv/concat (in-place)
I1026 15:23:53.804600 33565 net.cpp:124] Setting up conv4_1/3x3_dwconv/concat_fixed_point
I1026 15:23:53.804605 33565 net.cpp:131] Top shape: 25 120 28 28 (2352000)
I1026 15:23:53.804608 33565 net.cpp:139] Memory required for data: 1056254400
I1026 15:23:53.804615 33565 layer_factory.hpp:77] Creating layer conv4_1/3x3_dwconv/concat_conv4_1/3x3_dwconv/concat_fixed_point_0_split
I1026 15:23:53.804626 33565 net.cpp:86] Creating Layer conv4_1/3x3_dwconv/concat_conv4_1/3x3_dwconv/concat_fixed_point_0_split
I1026 15:23:53.804630 33565 net.cpp:409] conv4_1/3x3_dwconv/concat_conv4_1/3x3_dwconv/concat_fixed_point_0_split <- conv4_1/3x3_dwconv/concat
I1026 15:23:53.804637 33565 net.cpp:383] conv4_1/3x3_dwconv/concat_conv4_1/3x3_dwconv/concat_fixed_point_0_split -> conv4_1/3x3_dwconv/concat_conv4_1/3x3_dwconv/concat_fixed_point_0_split_0
I1026 15:23:53.804646 33565 net.cpp:383] conv4_1/3x3_dwconv/concat_conv4_1/3x3_dwconv/concat_fixed_point_0_split -> conv4_1/3x3_dwconv/concat_conv4_1/3x3_dwconv/concat_fixed_point_0_split_1
I1026 15:23:53.804695 33565 net.cpp:124] Setting up conv4_1/3x3_dwconv/concat_conv4_1/3x3_dwconv/concat_fixed_point_0_split
I1026 15:23:53.804703 33565 net.cpp:131] Top shape: 25 120 28 28 (2352000)
I1026 15:23:53.804708 33565 net.cpp:131] Top shape: 25 120 28 28 (2352000)
I1026 15:23:53.804711 33565 net.cpp:139] Memory required for data: 1075070400
I1026 15:23:53.804715 33565 layer_factory.hpp:77] Creating layer conv4_1/3x3_dwconv/SE_global_pool
I1026 15:23:53.804724 33565 net.cpp:86] Creating Layer conv4_1/3x3_dwconv/SE_global_pool
I1026 15:23:53.804730 33565 net.cpp:409] conv4_1/3x3_dwconv/SE_global_pool <- conv4_1/3x3_dwconv/concat_conv4_1/3x3_dwconv/concat_fixed_point_0_split_0
I1026 15:23:53.804738 33565 net.cpp:383] conv4_1/3x3_dwconv/SE_global_pool -> conv4_1/3x3_dwconv/SE_global_pool
I1026 15:23:53.804766 33565 net.cpp:124] Setting up conv4_1/3x3_dwconv/SE_global_pool
I1026 15:23:53.804774 33565 net.cpp:131] Top shape: 25 120 1 1 (3000)
I1026 15:23:53.804777 33565 net.cpp:139] Memory required for data: 1075082400
I1026 15:23:53.804781 33565 layer_factory.hpp:77] Creating layer conv4_1/3x3_dwconv/SE_bn
I1026 15:23:53.804790 33565 net.cpp:86] Creating Layer conv4_1/3x3_dwconv/SE_bn
I1026 15:23:53.804795 33565 net.cpp:409] conv4_1/3x3_dwconv/SE_bn <- conv4_1/3x3_dwconv/SE_global_pool
I1026 15:23:53.804802 33565 net.cpp:383] conv4_1/3x3_dwconv/SE_bn -> conv4_1/3x3_dwconv/SE_bn
I1026 15:23:53.804865 33565 layer_factory.hpp:77] Creating layer conv4_1/3x3_dwconv/SE_bn
I1026 15:23:53.805011 33565 net.cpp:124] Setting up conv4_1/3x3_dwconv/SE_bn
I1026 15:23:53.805018 33565 net.cpp:131] Top shape: 25 120 1 1 (3000)
I1026 15:23:53.805022 33565 net.cpp:139] Memory required for data: 1075094400
I1026 15:23:53.805029 33565 layer_factory.hpp:77] Creating layer conv4_1/3x3_dwconv/SE_fc1
I1026 15:23:53.805042 33565 net.cpp:86] Creating Layer conv4_1/3x3_dwconv/SE_fc1
I1026 15:23:53.805048 33565 net.cpp:409] conv4_1/3x3_dwconv/SE_fc1 <- conv4_1/3x3_dwconv/SE_bn
I1026 15:23:53.805058 33565 net.cpp:383] conv4_1/3x3_dwconv/SE_fc1 -> conv4_1/3x3_dwconv/SE_fc1
I1026 15:23:53.805511 33565 net.cpp:124] Setting up conv4_1/3x3_dwconv/SE_fc1
I1026 15:23:53.805524 33565 net.cpp:131] Top shape: 25 7 1 1 (175)
I1026 15:23:53.805527 33565 net.cpp:139] Memory required for data: 1075095100
I1026 15:23:53.805550 33565 layer_factory.hpp:77] Creating layer conv4_1/3x3_dwconv/SE_fc1/relu
I1026 15:23:53.805559 33565 net.cpp:86] Creating Layer conv4_1/3x3_dwconv/SE_fc1/relu
I1026 15:23:53.805564 33565 net.cpp:409] conv4_1/3x3_dwconv/SE_fc1/relu <- conv4_1/3x3_dwconv/SE_fc1
I1026 15:23:53.805570 33565 net.cpp:370] conv4_1/3x3_dwconv/SE_fc1/relu -> conv4_1/3x3_dwconv/SE_fc1 (in-place)
I1026 15:23:53.806267 33565 net.cpp:124] Setting up conv4_1/3x3_dwconv/SE_fc1/relu
I1026 15:23:53.806279 33565 net.cpp:131] Top shape: 25 7 1 1 (175)
I1026 15:23:53.806283 33565 net.cpp:139] Memory required for data: 1075095800
I1026 15:23:53.806288 33565 layer_factory.hpp:77] Creating layer conv4_1/3x3_dwconv/SE_fc2
I1026 15:23:53.806303 33565 net.cpp:86] Creating Layer conv4_1/3x3_dwconv/SE_fc2
I1026 15:23:53.806309 33565 net.cpp:409] conv4_1/3x3_dwconv/SE_fc2 <- conv4_1/3x3_dwconv/SE_fc1
I1026 15:23:53.806318 33565 net.cpp:383] conv4_1/3x3_dwconv/SE_fc2 -> conv4_1/3x3_dwconv/SE_fc2
I1026 15:23:53.806780 33565 net.cpp:124] Setting up conv4_1/3x3_dwconv/SE_fc2
I1026 15:23:53.806792 33565 net.cpp:131] Top shape: 25 120 1 1 (3000)
I1026 15:23:53.806797 33565 net.cpp:139] Memory required for data: 1075107800
I1026 15:23:53.806802 33565 layer_factory.hpp:77] Creating layer conv4_1/3x3_dwconv/SE_weights
I1026 15:23:53.806819 33565 net.cpp:86] Creating Layer conv4_1/3x3_dwconv/SE_weights
I1026 15:23:53.806825 33565 net.cpp:409] conv4_1/3x3_dwconv/SE_weights <- conv4_1/3x3_dwconv/SE_fc2
I1026 15:23:53.806833 33565 net.cpp:370] conv4_1/3x3_dwconv/SE_weights -> conv4_1/3x3_dwconv/SE_fc2 (in-place)
I1026 15:23:53.807642 33565 net.cpp:124] Setting up conv4_1/3x3_dwconv/SE_weights
I1026 15:23:53.807658 33565 net.cpp:131] Top shape: 25 120 1 1 (3000)
I1026 15:23:53.807664 33565 net.cpp:139] Memory required for data: 1075119800
I1026 15:23:53.807669 33565 layer_factory.hpp:77] Creating layer conv4_1/3x3_dwconv/SE_weights/reshape
I1026 15:23:53.807678 33565 net.cpp:86] Creating Layer conv4_1/3x3_dwconv/SE_weights/reshape
I1026 15:23:53.807685 33565 net.cpp:409] conv4_1/3x3_dwconv/SE_weights/reshape <- conv4_1/3x3_dwconv/SE_fc2
I1026 15:23:53.807694 33565 net.cpp:383] conv4_1/3x3_dwconv/SE_weights/reshape -> conv4_1/3x3_dwconv/SE_weights/reshape
I1026 15:23:53.807757 33565 net.cpp:124] Setting up conv4_1/3x3_dwconv/SE_weights/reshape
I1026 15:23:53.807767 33565 net.cpp:131] Top shape: 25 120 (3000)
I1026 15:23:53.807771 33565 net.cpp:139] Memory required for data: 1075131800
I1026 15:23:53.807777 33565 layer_factory.hpp:77] Creating layer conv4_1/3x3_dwconv/scale
I1026 15:23:53.807795 33565 net.cpp:86] Creating Layer conv4_1/3x3_dwconv/scale
I1026 15:23:53.807799 33565 net.cpp:409] conv4_1/3x3_dwconv/scale <- conv4_1/3x3_dwconv/concat_conv4_1/3x3_dwconv/concat_fixed_point_0_split_1
I1026 15:23:53.807811 33565 net.cpp:409] conv4_1/3x3_dwconv/scale <- conv4_1/3x3_dwconv/SE_weights/reshape
I1026 15:23:53.807819 33565 net.cpp:383] conv4_1/3x3_dwconv/scale -> conv4_1/3x3_dwconv/scale
I1026 15:23:53.807914 33565 net.cpp:124] Setting up conv4_1/3x3_dwconv/scale
I1026 15:23:53.807922 33565 net.cpp:131] Top shape: 25 120 28 28 (2352000)
I1026 15:23:53.807925 33565 net.cpp:139] Memory required for data: 1084539800
I1026 15:23:53.807929 33565 layer_factory.hpp:77] Creating layer conv4_1/3x3_dwconv/scale_fixed_point
I1026 15:23:53.807940 33565 net.cpp:86] Creating Layer conv4_1/3x3_dwconv/scale_fixed_point
I1026 15:23:53.807946 33565 net.cpp:409] conv4_1/3x3_dwconv/scale_fixed_point <- conv4_1/3x3_dwconv/scale
I1026 15:23:53.807955 33565 net.cpp:370] conv4_1/3x3_dwconv/scale_fixed_point -> conv4_1/3x3_dwconv/scale (in-place)
I1026 15:23:53.807984 33565 net.cpp:124] Setting up conv4_1/3x3_dwconv/scale_fixed_point
I1026 15:23:53.807991 33565 net.cpp:131] Top shape: 25 120 28 28 (2352000)
I1026 15:23:53.807996 33565 net.cpp:139] Memory required for data: 1093947800
I1026 15:23:53.808001 33565 layer_factory.hpp:77] Creating layer conv4_1/1x1_decrease
I1026 15:23:53.808012 33565 net.cpp:86] Creating Layer conv4_1/1x1_decrease
I1026 15:23:53.808017 33565 net.cpp:409] conv4_1/1x1_decrease <- conv4_1/3x3_dwconv/scale
I1026 15:23:53.808041 33565 net.cpp:383] conv4_1/1x1_decrease -> conv4_1/1x1_decrease/bn
I1026 15:23:53.808813 33565 net.cpp:124] Setting up conv4_1/1x1_decrease
I1026 15:23:53.808833 33565 net.cpp:131] Top shape: 25 40 28 28 (784000)
I1026 15:23:53.808837 33565 net.cpp:139] Memory required for data: 1097083800
I1026 15:23:53.808845 33565 layer_factory.hpp:77] Creating layer conv4_1/elt_sum
I1026 15:23:53.808859 33565 net.cpp:86] Creating Layer conv4_1/elt_sum
I1026 15:23:53.808864 33565 net.cpp:409] conv4_1/elt_sum <- conv4_0/1x1_decrease/bn_conv4_0/1x1_decrease/bn_fixed_point_0_split_1
I1026 15:23:53.808871 33565 net.cpp:409] conv4_1/elt_sum <- conv4_1/1x1_decrease/bn
I1026 15:23:53.808879 33565 net.cpp:383] conv4_1/elt_sum -> conv4_1/elt_sum
I1026 15:23:53.808917 33565 net.cpp:124] Setting up conv4_1/elt_sum
I1026 15:23:53.808925 33565 net.cpp:131] Top shape: 25 40 28 28 (784000)
I1026 15:23:53.808928 33565 net.cpp:139] Memory required for data: 1100219800
I1026 15:23:53.808934 33565 layer_factory.hpp:77] Creating layer conv4_1/elt_sum_fixed_point
I1026 15:23:53.808945 33565 net.cpp:86] Creating Layer conv4_1/elt_sum_fixed_point
I1026 15:23:53.808950 33565 net.cpp:409] conv4_1/elt_sum_fixed_point <- conv4_1/elt_sum
I1026 15:23:53.808957 33565 net.cpp:370] conv4_1/elt_sum_fixed_point -> conv4_1/elt_sum (in-place)
I1026 15:23:53.808990 33565 net.cpp:124] Setting up conv4_1/elt_sum_fixed_point
I1026 15:23:53.808997 33565 net.cpp:131] Top shape: 25 40 28 28 (784000)
I1026 15:23:53.809000 33565 net.cpp:139] Memory required for data: 1103355800
I1026 15:23:53.809005 33565 layer_factory.hpp:77] Creating layer conv4_1/elt_sum_conv4_1/elt_sum_fixed_point_0_split
I1026 15:23:53.809012 33565 net.cpp:86] Creating Layer conv4_1/elt_sum_conv4_1/elt_sum_fixed_point_0_split
I1026 15:23:53.809016 33565 net.cpp:409] conv4_1/elt_sum_conv4_1/elt_sum_fixed_point_0_split <- conv4_1/elt_sum
I1026 15:23:53.809023 33565 net.cpp:383] conv4_1/elt_sum_conv4_1/elt_sum_fixed_point_0_split -> conv4_1/elt_sum_conv4_1/elt_sum_fixed_point_0_split_0
I1026 15:23:53.809032 33565 net.cpp:383] conv4_1/elt_sum_conv4_1/elt_sum_fixed_point_0_split -> conv4_1/elt_sum_conv4_1/elt_sum_fixed_point_0_split_1
I1026 15:23:53.809103 33565 net.cpp:124] Setting up conv4_1/elt_sum_conv4_1/elt_sum_fixed_point_0_split
I1026 15:23:53.809113 33565 net.cpp:131] Top shape: 25 40 28 28 (784000)
I1026 15:23:53.809116 33565 net.cpp:131] Top shape: 25 40 28 28 (784000)
I1026 15:23:53.809120 33565 net.cpp:139] Memory required for data: 1109627800
I1026 15:23:53.809123 33565 layer_factory.hpp:77] Creating layer conv4_2/1x1_increase
I1026 15:23:53.809136 33565 net.cpp:86] Creating Layer conv4_2/1x1_increase
I1026 15:23:53.809142 33565 net.cpp:409] conv4_2/1x1_increase <- conv4_1/elt_sum_conv4_1/elt_sum_fixed_point_0_split_0
I1026 15:23:53.809149 33565 net.cpp:383] conv4_2/1x1_increase -> conv4_2/1x1_increase/bn
I1026 15:23:53.809923 33565 net.cpp:124] Setting up conv4_2/1x1_increase
I1026 15:23:53.809938 33565 net.cpp:131] Top shape: 25 120 28 28 (2352000)
I1026 15:23:53.809942 33565 net.cpp:139] Memory required for data: 1119035800
I1026 15:23:53.809952 33565 layer_factory.hpp:77] Creating layer conv4_2/1x1_increase/hardswish
I1026 15:23:53.809962 33565 net.cpp:86] Creating Layer conv4_2/1x1_increase/hardswish
I1026 15:23:53.809968 33565 net.cpp:409] conv4_2/1x1_increase/hardswish <- conv4_2/1x1_increase/bn
I1026 15:23:53.809975 33565 net.cpp:370] conv4_2/1x1_increase/hardswish -> conv4_2/1x1_increase/bn (in-place)
I1026 15:23:53.810011 33565 net.cpp:124] Setting up conv4_2/1x1_increase/hardswish
I1026 15:23:53.810019 33565 net.cpp:131] Top shape: 25 120 28 28 (2352000)
I1026 15:23:53.810024 33565 net.cpp:139] Memory required for data: 1128443800
I1026 15:23:53.810027 33565 layer_factory.hpp:77] Creating layer conv4_2/1x1_increase/bn_fixed_point
I1026 15:23:53.810036 33565 net.cpp:86] Creating Layer conv4_2/1x1_increase/bn_fixed_point
I1026 15:23:53.810041 33565 net.cpp:409] conv4_2/1x1_increase/bn_fixed_point <- conv4_2/1x1_increase/bn
I1026 15:23:53.810065 33565 net.cpp:370] conv4_2/1x1_increase/bn_fixed_point -> conv4_2/1x1_increase/bn (in-place)
I1026 15:23:53.810101 33565 net.cpp:124] Setting up conv4_2/1x1_increase/bn_fixed_point
I1026 15:23:53.810109 33565 net.cpp:131] Top shape: 25 120 28 28 (2352000)
I1026 15:23:53.810112 33565 net.cpp:139] Memory required for data: 1137851800
I1026 15:23:53.810125 33565 layer_factory.hpp:77] Creating layer conv4_2/1x1_increase/slice
I1026 15:23:53.810137 33565 net.cpp:86] Creating Layer conv4_2/1x1_increase/slice
I1026 15:23:53.810142 33565 net.cpp:409] conv4_2/1x1_increase/slice <- conv4_2/1x1_increase/bn
I1026 15:23:53.810149 33565 net.cpp:383] conv4_2/1x1_increase/slice -> conv4_2/1x1_increase/split1
I1026 15:23:53.810158 33565 net.cpp:383] conv4_2/1x1_increase/slice -> conv4_2/1x1_increase/split2
I1026 15:23:53.810206 33565 net.cpp:124] Setting up conv4_2/1x1_increase/slice
I1026 15:23:53.810214 33565 net.cpp:131] Top shape: 25 60 28 28 (1176000)
I1026 15:23:53.810217 33565 net.cpp:131] Top shape: 25 60 28 28 (1176000)
I1026 15:23:53.810220 33565 net.cpp:139] Memory required for data: 1147259800
I1026 15:23:53.810225 33565 layer_factory.hpp:77] Creating layer conv4_2/3x3_dwconv/slice_0
I1026 15:23:53.810237 33565 net.cpp:86] Creating Layer conv4_2/3x3_dwconv/slice_0
I1026 15:23:53.810242 33565 net.cpp:409] conv4_2/3x3_dwconv/slice_0 <- conv4_2/1x1_increase/split1
I1026 15:23:53.810250 33565 net.cpp:383] conv4_2/3x3_dwconv/slice_0 -> conv4_2/3x3_dwconv/slice_0/bn
I1026 15:23:53.810920 33565 net.cpp:124] Setting up conv4_2/3x3_dwconv/slice_0
I1026 15:23:53.810935 33565 net.cpp:131] Top shape: 25 60 28 28 (1176000)
I1026 15:23:53.810940 33565 net.cpp:139] Memory required for data: 1151963800
I1026 15:23:53.810946 33565 layer_factory.hpp:77] Creating layer conv4_2/3x3_dwconv/slice_0/hardswish
I1026 15:23:53.810957 33565 net.cpp:86] Creating Layer conv4_2/3x3_dwconv/slice_0/hardswish
I1026 15:23:53.810962 33565 net.cpp:409] conv4_2/3x3_dwconv/slice_0/hardswish <- conv4_2/3x3_dwconv/slice_0/bn
I1026 15:23:53.810968 33565 net.cpp:370] conv4_2/3x3_dwconv/slice_0/hardswish -> conv4_2/3x3_dwconv/slice_0/bn (in-place)
I1026 15:23:53.811003 33565 net.cpp:124] Setting up conv4_2/3x3_dwconv/slice_0/hardswish
I1026 15:23:53.811010 33565 net.cpp:131] Top shape: 25 60 28 28 (1176000)
I1026 15:23:53.811013 33565 net.cpp:139] Memory required for data: 1156667800
I1026 15:23:53.811017 33565 layer_factory.hpp:77] Creating layer conv4_2/3x3_dwconv/slice_1
I1026 15:23:53.811029 33565 net.cpp:86] Creating Layer conv4_2/3x3_dwconv/slice_1
I1026 15:23:53.811034 33565 net.cpp:409] conv4_2/3x3_dwconv/slice_1 <- conv4_2/1x1_increase/split2
I1026 15:23:53.811043 33565 net.cpp:383] conv4_2/3x3_dwconv/slice_1 -> conv4_2/3x3_dwconv/slice_1/bn
I1026 15:23:53.811923 33565 net.cpp:124] Setting up conv4_2/3x3_dwconv/slice_1
I1026 15:23:53.811939 33565 net.cpp:131] Top shape: 25 60 28 28 (1176000)
I1026 15:23:53.811942 33565 net.cpp:139] Memory required for data: 1161371800
I1026 15:23:53.811950 33565 layer_factory.hpp:77] Creating layer conv4_2/3x3_dwconv/slice_1/hardswish
I1026 15:23:53.811959 33565 net.cpp:86] Creating Layer conv4_2/3x3_dwconv/slice_1/hardswish
I1026 15:23:53.811964 33565 net.cpp:409] conv4_2/3x3_dwconv/slice_1/hardswish <- conv4_2/3x3_dwconv/slice_1/bn
I1026 15:23:53.811970 33565 net.cpp:370] conv4_2/3x3_dwconv/slice_1/hardswish -> conv4_2/3x3_dwconv/slice_1/bn (in-place)
I1026 15:23:53.812006 33565 net.cpp:124] Setting up conv4_2/3x3_dwconv/slice_1/hardswish
I1026 15:23:53.812012 33565 net.cpp:131] Top shape: 25 60 28 28 (1176000)
I1026 15:23:53.812016 33565 net.cpp:139] Memory required for data: 1166075800
I1026 15:23:53.812019 33565 layer_factory.hpp:77] Creating layer conv4_2/3x3_dwconv/concat
I1026 15:23:53.812026 33565 net.cpp:86] Creating Layer conv4_2/3x3_dwconv/concat
I1026 15:23:53.812031 33565 net.cpp:409] conv4_2/3x3_dwconv/concat <- conv4_2/3x3_dwconv/slice_0/bn
I1026 15:23:53.812036 33565 net.cpp:409] conv4_2/3x3_dwconv/concat <- conv4_2/3x3_dwconv/slice_1/bn
I1026 15:23:53.812043 33565 net.cpp:383] conv4_2/3x3_dwconv/concat -> conv4_2/3x3_dwconv/concat
I1026 15:23:53.812093 33565 net.cpp:124] Setting up conv4_2/3x3_dwconv/concat
I1026 15:23:53.812101 33565 net.cpp:131] Top shape: 25 120 28 28 (2352000)
I1026 15:23:53.812105 33565 net.cpp:139] Memory required for data: 1175483800
I1026 15:23:53.812111 33565 layer_factory.hpp:77] Creating layer conv4_2/3x3_dwconv/concat_fixed_point
I1026 15:23:53.812120 33565 net.cpp:86] Creating Layer conv4_2/3x3_dwconv/concat_fixed_point
I1026 15:23:53.812129 33565 net.cpp:409] conv4_2/3x3_dwconv/concat_fixed_point <- conv4_2/3x3_dwconv/concat
I1026 15:23:53.812135 33565 net.cpp:370] conv4_2/3x3_dwconv/concat_fixed_point -> conv4_2/3x3_dwconv/concat (in-place)
I1026 15:23:53.812165 33565 net.cpp:124] Setting up conv4_2/3x3_dwconv/concat_fixed_point
I1026 15:23:53.812170 33565 net.cpp:131] Top shape: 25 120 28 28 (2352000)
I1026 15:23:53.812173 33565 net.cpp:139] Memory required for data: 1184891800
I1026 15:23:53.812178 33565 layer_factory.hpp:77] Creating layer conv4_2/3x3_dwconv/concat_conv4_2/3x3_dwconv/concat_fixed_point_0_split
I1026 15:23:53.812186 33565 net.cpp:86] Creating Layer conv4_2/3x3_dwconv/concat_conv4_2/3x3_dwconv/concat_fixed_point_0_split
I1026 15:23:53.812191 33565 net.cpp:409] conv4_2/3x3_dwconv/concat_conv4_2/3x3_dwconv/concat_fixed_point_0_split <- conv4_2/3x3_dwconv/concat
I1026 15:23:53.812196 33565 net.cpp:383] conv4_2/3x3_dwconv/concat_conv4_2/3x3_dwconv/concat_fixed_point_0_split -> conv4_2/3x3_dwconv/concat_conv4_2/3x3_dwconv/concat_fixed_point_0_split_0
I1026 15:23:53.812204 33565 net.cpp:383] conv4_2/3x3_dwconv/concat_conv4_2/3x3_dwconv/concat_fixed_point_0_split -> conv4_2/3x3_dwconv/concat_conv4_2/3x3_dwconv/concat_fixed_point_0_split_1
I1026 15:23:53.812248 33565 net.cpp:124] Setting up conv4_2/3x3_dwconv/concat_conv4_2/3x3_dwconv/concat_fixed_point_0_split
I1026 15:23:53.812255 33565 net.cpp:131] Top shape: 25 120 28 28 (2352000)
I1026 15:23:53.812259 33565 net.cpp:131] Top shape: 25 120 28 28 (2352000)
I1026 15:23:53.812263 33565 net.cpp:139] Memory required for data: 1203707800
I1026 15:23:53.812266 33565 layer_factory.hpp:77] Creating layer conv4_2/3x3_dwconv/SE_global_pool
I1026 15:23:53.812278 33565 net.cpp:86] Creating Layer conv4_2/3x3_dwconv/SE_global_pool
I1026 15:23:53.812281 33565 net.cpp:409] conv4_2/3x3_dwconv/SE_global_pool <- conv4_2/3x3_dwconv/concat_conv4_2/3x3_dwconv/concat_fixed_point_0_split_0
I1026 15:23:53.812288 33565 net.cpp:383] conv4_2/3x3_dwconv/SE_global_pool -> conv4_2/3x3_dwconv/SE_global_pool
I1026 15:23:53.812316 33565 net.cpp:124] Setting up conv4_2/3x3_dwconv/SE_global_pool
I1026 15:23:53.812324 33565 net.cpp:131] Top shape: 25 120 1 1 (3000)
I1026 15:23:53.812326 33565 net.cpp:139] Memory required for data: 1203719800
I1026 15:23:53.812330 33565 layer_factory.hpp:77] Creating layer conv4_2/3x3_dwconv/SE_bn
I1026 15:23:53.812340 33565 net.cpp:86] Creating Layer conv4_2/3x3_dwconv/SE_bn
I1026 15:23:53.812345 33565 net.cpp:409] conv4_2/3x3_dwconv/SE_bn <- conv4_2/3x3_dwconv/SE_global_pool
I1026 15:23:53.812350 33565 net.cpp:383] conv4_2/3x3_dwconv/SE_bn -> conv4_2/3x3_dwconv/SE_bn
I1026 15:23:53.812402 33565 layer_factory.hpp:77] Creating layer conv4_2/3x3_dwconv/SE_bn
I1026 15:23:53.812546 33565 net.cpp:124] Setting up conv4_2/3x3_dwconv/SE_bn
I1026 15:23:53.812554 33565 net.cpp:131] Top shape: 25 120 1 1 (3000)
I1026 15:23:53.812558 33565 net.cpp:139] Memory required for data: 1203731800
I1026 15:23:53.812566 33565 layer_factory.hpp:77] Creating layer conv4_2/3x3_dwconv/SE_fc1
I1026 15:23:53.812579 33565 net.cpp:86] Creating Layer conv4_2/3x3_dwconv/SE_fc1
I1026 15:23:53.812583 33565 net.cpp:409] conv4_2/3x3_dwconv/SE_fc1 <- conv4_2/3x3_dwconv/SE_bn
I1026 15:23:53.812592 33565 net.cpp:383] conv4_2/3x3_dwconv/SE_fc1 -> conv4_2/3x3_dwconv/SE_fc1
I1026 15:23:53.813046 33565 net.cpp:124] Setting up conv4_2/3x3_dwconv/SE_fc1
I1026 15:23:53.813060 33565 net.cpp:131] Top shape: 25 7 1 1 (175)
I1026 15:23:53.813063 33565 net.cpp:139] Memory required for data: 1203732500
I1026 15:23:53.813069 33565 layer_factory.hpp:77] Creating layer conv4_2/3x3_dwconv/SE_fc1/relu
I1026 15:23:53.813091 33565 net.cpp:86] Creating Layer conv4_2/3x3_dwconv/SE_fc1/relu
I1026 15:23:53.813097 33565 net.cpp:409] conv4_2/3x3_dwconv/SE_fc1/relu <- conv4_2/3x3_dwconv/SE_fc1
I1026 15:23:53.813103 33565 net.cpp:370] conv4_2/3x3_dwconv/SE_fc1/relu -> conv4_2/3x3_dwconv/SE_fc1 (in-place)
I1026 15:23:53.813705 33565 net.cpp:124] Setting up conv4_2/3x3_dwconv/SE_fc1/relu
I1026 15:23:53.813717 33565 net.cpp:131] Top shape: 25 7 1 1 (175)
I1026 15:23:53.813721 33565 net.cpp:139] Memory required for data: 1203733200
I1026 15:23:53.813725 33565 layer_factory.hpp:77] Creating layer conv4_2/3x3_dwconv/SE_fc2
I1026 15:23:53.813738 33565 net.cpp:86] Creating Layer conv4_2/3x3_dwconv/SE_fc2
I1026 15:23:53.813743 33565 net.cpp:409] conv4_2/3x3_dwconv/SE_fc2 <- conv4_2/3x3_dwconv/SE_fc1
I1026 15:23:53.813752 33565 net.cpp:383] conv4_2/3x3_dwconv/SE_fc2 -> conv4_2/3x3_dwconv/SE_fc2
I1026 15:23:53.814214 33565 net.cpp:124] Setting up conv4_2/3x3_dwconv/SE_fc2
I1026 15:23:53.814227 33565 net.cpp:131] Top shape: 25 120 1 1 (3000)
I1026 15:23:53.814230 33565 net.cpp:139] Memory required for data: 1203745200
I1026 15:23:53.814236 33565 layer_factory.hpp:77] Creating layer conv4_2/3x3_dwconv/SE_weights
I1026 15:23:53.814247 33565 net.cpp:86] Creating Layer conv4_2/3x3_dwconv/SE_weights
I1026 15:23:53.814252 33565 net.cpp:409] conv4_2/3x3_dwconv/SE_weights <- conv4_2/3x3_dwconv/SE_fc2
I1026 15:23:53.814260 33565 net.cpp:370] conv4_2/3x3_dwconv/SE_weights -> conv4_2/3x3_dwconv/SE_fc2 (in-place)
I1026 15:23:53.814869 33565 net.cpp:124] Setting up conv4_2/3x3_dwconv/SE_weights
I1026 15:23:53.814882 33565 net.cpp:131] Top shape: 25 120 1 1 (3000)
I1026 15:23:53.814887 33565 net.cpp:139] Memory required for data: 1203757200
I1026 15:23:53.814893 33565 layer_factory.hpp:77] Creating layer conv4_2/3x3_dwconv/SE_weights/reshape
I1026 15:23:53.814903 33565 net.cpp:86] Creating Layer conv4_2/3x3_dwconv/SE_weights/reshape
I1026 15:23:53.814908 33565 net.cpp:409] conv4_2/3x3_dwconv/SE_weights/reshape <- conv4_2/3x3_dwconv/SE_fc2
I1026 15:23:53.814914 33565 net.cpp:383] conv4_2/3x3_dwconv/SE_weights/reshape -> conv4_2/3x3_dwconv/SE_weights/reshape
I1026 15:23:53.814954 33565 net.cpp:124] Setting up conv4_2/3x3_dwconv/SE_weights/reshape
I1026 15:23:53.814962 33565 net.cpp:131] Top shape: 25 120 (3000)
I1026 15:23:53.814965 33565 net.cpp:139] Memory required for data: 1203769200
I1026 15:23:53.814970 33565 layer_factory.hpp:77] Creating layer conv4_2/3x3_dwconv/scale
I1026 15:23:53.814978 33565 net.cpp:86] Creating Layer conv4_2/3x3_dwconv/scale
I1026 15:23:53.814982 33565 net.cpp:409] conv4_2/3x3_dwconv/scale <- conv4_2/3x3_dwconv/concat_conv4_2/3x3_dwconv/concat_fixed_point_0_split_1
I1026 15:23:53.814988 33565 net.cpp:409] conv4_2/3x3_dwconv/scale <- conv4_2/3x3_dwconv/SE_weights/reshape
I1026 15:23:53.814996 33565 net.cpp:383] conv4_2/3x3_dwconv/scale -> conv4_2/3x3_dwconv/scale
I1026 15:23:53.815083 33565 net.cpp:124] Setting up conv4_2/3x3_dwconv/scale
I1026 15:23:53.815091 33565 net.cpp:131] Top shape: 25 120 28 28 (2352000)
I1026 15:23:53.815094 33565 net.cpp:139] Memory required for data: 1213177200
I1026 15:23:53.815098 33565 layer_factory.hpp:77] Creating layer conv4_2/3x3_dwconv/scale_fixed_point
I1026 15:23:53.815109 33565 net.cpp:86] Creating Layer conv4_2/3x3_dwconv/scale_fixed_point
I1026 15:23:53.815114 33565 net.cpp:409] conv4_2/3x3_dwconv/scale_fixed_point <- conv4_2/3x3_dwconv/scale
I1026 15:23:53.815120 33565 net.cpp:370] conv4_2/3x3_dwconv/scale_fixed_point -> conv4_2/3x3_dwconv/scale (in-place)
I1026 15:23:53.815151 33565 net.cpp:124] Setting up conv4_2/3x3_dwconv/scale_fixed_point
I1026 15:23:53.815158 33565 net.cpp:131] Top shape: 25 120 28 28 (2352000)
I1026 15:23:53.815161 33565 net.cpp:139] Memory required for data: 1222585200
I1026 15:23:53.815166 33565 layer_factory.hpp:77] Creating layer conv4_2/1x1_decrease
I1026 15:23:53.815179 33565 net.cpp:86] Creating Layer conv4_2/1x1_decrease
I1026 15:23:53.815184 33565 net.cpp:409] conv4_2/1x1_decrease <- conv4_2/3x3_dwconv/scale
I1026 15:23:53.815192 33565 net.cpp:383] conv4_2/1x1_decrease -> conv4_2/1x1_decrease/bn
I1026 15:23:53.815948 33565 net.cpp:124] Setting up conv4_2/1x1_decrease
I1026 15:23:53.815961 33565 net.cpp:131] Top shape: 25 40 28 28 (784000)
I1026 15:23:53.815965 33565 net.cpp:139] Memory required for data: 1225721200
I1026 15:23:53.815973 33565 layer_factory.hpp:77] Creating layer conv4_2/elt_sum
I1026 15:23:53.815982 33565 net.cpp:86] Creating Layer conv4_2/elt_sum
I1026 15:23:53.815986 33565 net.cpp:409] conv4_2/elt_sum <- conv4_1/elt_sum_conv4_1/elt_sum_fixed_point_0_split_1
I1026 15:23:53.815992 33565 net.cpp:409] conv4_2/elt_sum <- conv4_2/1x1_decrease/bn
I1026 15:23:53.815999 33565 net.cpp:383] conv4_2/elt_sum -> conv4_2/elt_sum
I1026 15:23:53.816041 33565 net.cpp:124] Setting up conv4_2/elt_sum
I1026 15:23:53.816049 33565 net.cpp:131] Top shape: 25 40 28 28 (784000)
I1026 15:23:53.816053 33565 net.cpp:139] Memory required for data: 1228857200
I1026 15:23:53.816056 33565 layer_factory.hpp:77] Creating layer conv4_2/elt_sum_fixed_point
I1026 15:23:53.816066 33565 net.cpp:86] Creating Layer conv4_2/elt_sum_fixed_point
I1026 15:23:53.816069 33565 net.cpp:409] conv4_2/elt_sum_fixed_point <- conv4_2/elt_sum
I1026 15:23:53.816076 33565 net.cpp:370] conv4_2/elt_sum_fixed_point -> conv4_2/elt_sum (in-place)
I1026 15:23:53.816108 33565 net.cpp:124] Setting up conv4_2/elt_sum_fixed_point
I1026 15:23:53.816115 33565 net.cpp:131] Top shape: 25 40 28 28 (784000)
I1026 15:23:53.816118 33565 net.cpp:139] Memory required for data: 1231993200
I1026 15:23:53.816123 33565 layer_factory.hpp:77] Creating layer conv4_2/elt_sum_conv4_2/elt_sum_fixed_point_0_split
I1026 15:23:53.816131 33565 net.cpp:86] Creating Layer conv4_2/elt_sum_conv4_2/elt_sum_fixed_point_0_split
I1026 15:23:53.816135 33565 net.cpp:409] conv4_2/elt_sum_conv4_2/elt_sum_fixed_point_0_split <- conv4_2/elt_sum
I1026 15:23:53.816141 33565 net.cpp:383] conv4_2/elt_sum_conv4_2/elt_sum_fixed_point_0_split -> conv4_2/elt_sum_conv4_2/elt_sum_fixed_point_0_split_0
I1026 15:23:53.816148 33565 net.cpp:383] conv4_2/elt_sum_conv4_2/elt_sum_fixed_point_0_split -> conv4_2/elt_sum_conv4_2/elt_sum_fixed_point_0_split_1
I1026 15:23:53.816192 33565 net.cpp:124] Setting up conv4_2/elt_sum_conv4_2/elt_sum_fixed_point_0_split
I1026 15:23:53.816198 33565 net.cpp:131] Top shape: 25 40 28 28 (784000)
I1026 15:23:53.816203 33565 net.cpp:131] Top shape: 25 40 28 28 (784000)
I1026 15:23:53.816206 33565 net.cpp:139] Memory required for data: 1238265200
I1026 15:23:53.816210 33565 layer_factory.hpp:77] Creating layer conv4_3/1x1_increase
I1026 15:23:53.816223 33565 net.cpp:86] Creating Layer conv4_3/1x1_increase
I1026 15:23:53.816227 33565 net.cpp:409] conv4_3/1x1_increase <- conv4_2/elt_sum_conv4_2/elt_sum_fixed_point_0_split_0
I1026 15:23:53.816236 33565 net.cpp:383] conv4_3/1x1_increase -> conv4_3/1x1_increase/bn
I1026 15:23:53.817242 33565 net.cpp:124] Setting up conv4_3/1x1_increase
I1026 15:23:53.817258 33565 net.cpp:131] Top shape: 25 120 28 28 (2352000)
I1026 15:23:53.817262 33565 net.cpp:139] Memory required for data: 1247673200
I1026 15:23:53.817270 33565 layer_factory.hpp:77] Creating layer conv4_3/1x1_increase/hardswish
I1026 15:23:53.817279 33565 net.cpp:86] Creating Layer conv4_3/1x1_increase/hardswish
I1026 15:23:53.817284 33565 net.cpp:409] conv4_3/1x1_increase/hardswish <- conv4_3/1x1_increase/bn
I1026 15:23:53.817291 33565 net.cpp:370] conv4_3/1x1_increase/hardswish -> conv4_3/1x1_increase/bn (in-place)
I1026 15:23:53.817329 33565 net.cpp:124] Setting up conv4_3/1x1_increase/hardswish
I1026 15:23:53.817337 33565 net.cpp:131] Top shape: 25 120 28 28 (2352000)
I1026 15:23:53.817342 33565 net.cpp:139] Memory required for data: 1257081200
I1026 15:23:53.817344 33565 layer_factory.hpp:77] Creating layer conv4_3/1x1_increase/bn_fixed_point
I1026 15:23:53.817354 33565 net.cpp:86] Creating Layer conv4_3/1x1_increase/bn_fixed_point
I1026 15:23:53.817358 33565 net.cpp:409] conv4_3/1x1_increase/bn_fixed_point <- conv4_3/1x1_increase/bn
I1026 15:23:53.817365 33565 net.cpp:370] conv4_3/1x1_increase/bn_fixed_point -> conv4_3/1x1_increase/bn (in-place)
I1026 15:23:53.817417 33565 net.cpp:124] Setting up conv4_3/1x1_increase/bn_fixed_point
I1026 15:23:53.817425 33565 net.cpp:131] Top shape: 25 120 28 28 (2352000)
I1026 15:23:53.817430 33565 net.cpp:139] Memory required for data: 1266489200
I1026 15:23:53.817435 33565 layer_factory.hpp:77] Creating layer conv4_3/1x1_increase/slice
I1026 15:23:53.817446 33565 net.cpp:86] Creating Layer conv4_3/1x1_increase/slice
I1026 15:23:53.817451 33565 net.cpp:409] conv4_3/1x1_increase/slice <- conv4_3/1x1_increase/bn
I1026 15:23:53.817458 33565 net.cpp:383] conv4_3/1x1_increase/slice -> conv4_3/1x1_increase/split1
I1026 15:23:53.817466 33565 net.cpp:383] conv4_3/1x1_increase/slice -> conv4_3/1x1_increase/split2
I1026 15:23:53.817514 33565 net.cpp:124] Setting up conv4_3/1x1_increase/slice
I1026 15:23:53.817521 33565 net.cpp:131] Top shape: 25 60 28 28 (1176000)
I1026 15:23:53.817526 33565 net.cpp:131] Top shape: 25 60 28 28 (1176000)
I1026 15:23:53.817529 33565 net.cpp:139] Memory required for data: 1275897200
I1026 15:23:53.817533 33565 layer_factory.hpp:77] Creating layer conv4_3/3x3_dwconv/slice_0
I1026 15:23:53.817548 33565 net.cpp:86] Creating Layer conv4_3/3x3_dwconv/slice_0
I1026 15:23:53.817551 33565 net.cpp:409] conv4_3/3x3_dwconv/slice_0 <- conv4_3/1x1_increase/split1
I1026 15:23:53.817559 33565 net.cpp:383] conv4_3/3x3_dwconv/slice_0 -> conv4_3/3x3_dwconv/slice_0/bn
I1026 15:23:53.818208 33565 net.cpp:124] Setting up conv4_3/3x3_dwconv/slice_0
I1026 15:23:53.818222 33565 net.cpp:131] Top shape: 25 60 28 28 (1176000)
I1026 15:23:53.818226 33565 net.cpp:139] Memory required for data: 1280601200
I1026 15:23:53.818234 33565 layer_factory.hpp:77] Creating layer conv4_3/3x3_dwconv/slice_0/hardswish
I1026 15:23:53.818243 33565 net.cpp:86] Creating Layer conv4_3/3x3_dwconv/slice_0/hardswish
I1026 15:23:53.818248 33565 net.cpp:409] conv4_3/3x3_dwconv/slice_0/hardswish <- conv4_3/3x3_dwconv/slice_0/bn
I1026 15:23:53.818254 33565 net.cpp:370] conv4_3/3x3_dwconv/slice_0/hardswish -> conv4_3/3x3_dwconv/slice_0/bn (in-place)
I1026 15:23:53.818289 33565 net.cpp:124] Setting up conv4_3/3x3_dwconv/slice_0/hardswish
I1026 15:23:53.818297 33565 net.cpp:131] Top shape: 25 60 28 28 (1176000)
I1026 15:23:53.818301 33565 net.cpp:139] Memory required for data: 1285305200
I1026 15:23:53.818305 33565 layer_factory.hpp:77] Creating layer conv4_3/3x3_dwconv/slice_1
I1026 15:23:53.818320 33565 net.cpp:86] Creating Layer conv4_3/3x3_dwconv/slice_1
I1026 15:23:53.818325 33565 net.cpp:409] conv4_3/3x3_dwconv/slice_1 <- conv4_3/1x1_increase/split2
I1026 15:23:53.818332 33565 net.cpp:383] conv4_3/3x3_dwconv/slice_1 -> conv4_3/3x3_dwconv/slice_1/bn
I1026 15:23:53.819211 33565 net.cpp:124] Setting up conv4_3/3x3_dwconv/slice_1
I1026 15:23:53.819226 33565 net.cpp:131] Top shape: 25 60 28 28 (1176000)
I1026 15:23:53.819231 33565 net.cpp:139] Memory required for data: 1290009200
I1026 15:23:53.819238 33565 layer_factory.hpp:77] Creating layer conv4_3/3x3_dwconv/slice_1/hardswish
I1026 15:23:53.819247 33565 net.cpp:86] Creating Layer conv4_3/3x3_dwconv/slice_1/hardswish
I1026 15:23:53.819252 33565 net.cpp:409] conv4_3/3x3_dwconv/slice_1/hardswish <- conv4_3/3x3_dwconv/slice_1/bn
I1026 15:23:53.819257 33565 net.cpp:370] conv4_3/3x3_dwconv/slice_1/hardswish -> conv4_3/3x3_dwconv/slice_1/bn (in-place)
I1026 15:23:53.819294 33565 net.cpp:124] Setting up conv4_3/3x3_dwconv/slice_1/hardswish
I1026 15:23:53.819303 33565 net.cpp:131] Top shape: 25 60 28 28 (1176000)
I1026 15:23:53.819306 33565 net.cpp:139] Memory required for data: 1294713200
I1026 15:23:53.819310 33565 layer_factory.hpp:77] Creating layer conv4_3/3x3_dwconv/concat
I1026 15:23:53.819317 33565 net.cpp:86] Creating Layer conv4_3/3x3_dwconv/concat
I1026 15:23:53.819322 33565 net.cpp:409] conv4_3/3x3_dwconv/concat <- conv4_3/3x3_dwconv/slice_0/bn
I1026 15:23:53.819326 33565 net.cpp:409] conv4_3/3x3_dwconv/concat <- conv4_3/3x3_dwconv/slice_1/bn
I1026 15:23:53.819334 33565 net.cpp:383] conv4_3/3x3_dwconv/concat -> conv4_3/3x3_dwconv/concat
I1026 15:23:53.819365 33565 net.cpp:124] Setting up conv4_3/3x3_dwconv/concat
I1026 15:23:53.819388 33565 net.cpp:131] Top shape: 25 120 28 28 (2352000)
I1026 15:23:53.819392 33565 net.cpp:139] Memory required for data: 1304121200
I1026 15:23:53.819399 33565 layer_factory.hpp:77] Creating layer conv4_3/3x3_dwconv/concat_fixed_point
I1026 15:23:53.819411 33565 net.cpp:86] Creating Layer conv4_3/3x3_dwconv/concat_fixed_point
I1026 15:23:53.819414 33565 net.cpp:409] conv4_3/3x3_dwconv/concat_fixed_point <- conv4_3/3x3_dwconv/concat
I1026 15:23:53.819422 33565 net.cpp:370] conv4_3/3x3_dwconv/concat_fixed_point -> conv4_3/3x3_dwconv/concat (in-place)
I1026 15:23:53.819454 33565 net.cpp:124] Setting up conv4_3/3x3_dwconv/concat_fixed_point
I1026 15:23:53.819461 33565 net.cpp:131] Top shape: 25 120 28 28 (2352000)
I1026 15:23:53.819465 33565 net.cpp:139] Memory required for data: 1313529200
I1026 15:23:53.819470 33565 layer_factory.hpp:77] Creating layer conv4_3/3x3_dwconv/concat_conv4_3/3x3_dwconv/concat_fixed_point_0_split
I1026 15:23:53.819478 33565 net.cpp:86] Creating Layer conv4_3/3x3_dwconv/concat_conv4_3/3x3_dwconv/concat_fixed_point_0_split
I1026 15:23:53.819483 33565 net.cpp:409] conv4_3/3x3_dwconv/concat_conv4_3/3x3_dwconv/concat_fixed_point_0_split <- conv4_3/3x3_dwconv/concat
I1026 15:23:53.819489 33565 net.cpp:383] conv4_3/3x3_dwconv/concat_conv4_3/3x3_dwconv/concat_fixed_point_0_split -> conv4_3/3x3_dwconv/concat_conv4_3/3x3_dwconv/concat_fixed_point_0_split_0
I1026 15:23:53.819496 33565 net.cpp:383] conv4_3/3x3_dwconv/concat_conv4_3/3x3_dwconv/concat_fixed_point_0_split -> conv4_3/3x3_dwconv/concat_conv4_3/3x3_dwconv/concat_fixed_point_0_split_1
I1026 15:23:53.819542 33565 net.cpp:124] Setting up conv4_3/3x3_dwconv/concat_conv4_3/3x3_dwconv/concat_fixed_point_0_split
I1026 15:23:53.819550 33565 net.cpp:131] Top shape: 25 120 28 28 (2352000)
I1026 15:23:53.819555 33565 net.cpp:131] Top shape: 25 120 28 28 (2352000)
I1026 15:23:53.819557 33565 net.cpp:139] Memory required for data: 1332345200
I1026 15:23:53.819561 33565 layer_factory.hpp:77] Creating layer conv4_3/3x3_dwconv/SE_global_pool
I1026 15:23:53.819571 33565 net.cpp:86] Creating Layer conv4_3/3x3_dwconv/SE_global_pool
I1026 15:23:53.819576 33565 net.cpp:409] conv4_3/3x3_dwconv/SE_global_pool <- conv4_3/3x3_dwconv/concat_conv4_3/3x3_dwconv/concat_fixed_point_0_split_0
I1026 15:23:53.819582 33565 net.cpp:383] conv4_3/3x3_dwconv/SE_global_pool -> conv4_3/3x3_dwconv/SE_global_pool
I1026 15:23:53.819610 33565 net.cpp:124] Setting up conv4_3/3x3_dwconv/SE_global_pool
I1026 15:23:53.819618 33565 net.cpp:131] Top shape: 25 120 1 1 (3000)
I1026 15:23:53.819622 33565 net.cpp:139] Memory required for data: 1332357200
I1026 15:23:53.819625 33565 layer_factory.hpp:77] Creating layer conv4_3/3x3_dwconv/SE_bn
I1026 15:23:53.819634 33565 net.cpp:86] Creating Layer conv4_3/3x3_dwconv/SE_bn
I1026 15:23:53.819638 33565 net.cpp:409] conv4_3/3x3_dwconv/SE_bn <- conv4_3/3x3_dwconv/SE_global_pool
I1026 15:23:53.819645 33565 net.cpp:383] conv4_3/3x3_dwconv/SE_bn -> conv4_3/3x3_dwconv/SE_bn
I1026 15:23:53.819697 33565 layer_factory.hpp:77] Creating layer conv4_3/3x3_dwconv/SE_bn
I1026 15:23:53.819852 33565 net.cpp:124] Setting up conv4_3/3x3_dwconv/SE_bn
I1026 15:23:53.819861 33565 net.cpp:131] Top shape: 25 120 1 1 (3000)
I1026 15:23:53.819865 33565 net.cpp:139] Memory required for data: 1332369200
I1026 15:23:53.819872 33565 layer_factory.hpp:77] Creating layer conv4_3/3x3_dwconv/SE_fc1
I1026 15:23:53.819885 33565 net.cpp:86] Creating Layer conv4_3/3x3_dwconv/SE_fc1
I1026 15:23:53.819890 33565 net.cpp:409] conv4_3/3x3_dwconv/SE_fc1 <- conv4_3/3x3_dwconv/SE_bn
I1026 15:23:53.819898 33565 net.cpp:383] conv4_3/3x3_dwconv/SE_fc1 -> conv4_3/3x3_dwconv/SE_fc1
I1026 15:23:53.820354 33565 net.cpp:124] Setting up conv4_3/3x3_dwconv/SE_fc1
I1026 15:23:53.820366 33565 net.cpp:131] Top shape: 25 7 1 1 (175)
I1026 15:23:53.820370 33565 net.cpp:139] Memory required for data: 1332369900
I1026 15:23:53.820376 33565 layer_factory.hpp:77] Creating layer conv4_3/3x3_dwconv/SE_fc1/relu
I1026 15:23:53.820385 33565 net.cpp:86] Creating Layer conv4_3/3x3_dwconv/SE_fc1/relu
I1026 15:23:53.820405 33565 net.cpp:409] conv4_3/3x3_dwconv/SE_fc1/relu <- conv4_3/3x3_dwconv/SE_fc1
I1026 15:23:53.820413 33565 net.cpp:370] conv4_3/3x3_dwconv/SE_fc1/relu -> conv4_3/3x3_dwconv/SE_fc1 (in-place)
I1026 15:23:53.821238 33565 net.cpp:124] Setting up conv4_3/3x3_dwconv/SE_fc1/relu
I1026 15:23:53.821255 33565 net.cpp:131] Top shape: 25 7 1 1 (175)
I1026 15:23:53.821259 33565 net.cpp:139] Memory required for data: 1332370600
I1026 15:23:53.821264 33565 layer_factory.hpp:77] Creating layer conv4_3/3x3_dwconv/SE_fc2
I1026 15:23:53.821281 33565 net.cpp:86] Creating Layer conv4_3/3x3_dwconv/SE_fc2
I1026 15:23:53.821286 33565 net.cpp:409] conv4_3/3x3_dwconv/SE_fc2 <- conv4_3/3x3_dwconv/SE_fc1
I1026 15:23:53.821295 33565 net.cpp:383] conv4_3/3x3_dwconv/SE_fc2 -> conv4_3/3x3_dwconv/SE_fc2
I1026 15:23:53.821764 33565 net.cpp:124] Setting up conv4_3/3x3_dwconv/SE_fc2
I1026 15:23:53.821777 33565 net.cpp:131] Top shape: 25 120 1 1 (3000)
I1026 15:23:53.821780 33565 net.cpp:139] Memory required for data: 1332382600
I1026 15:23:53.821787 33565 layer_factory.hpp:77] Creating layer conv4_3/3x3_dwconv/SE_weights
I1026 15:23:53.821797 33565 net.cpp:86] Creating Layer conv4_3/3x3_dwconv/SE_weights
I1026 15:23:53.821801 33565 net.cpp:409] conv4_3/3x3_dwconv/SE_weights <- conv4_3/3x3_dwconv/SE_fc2
I1026 15:23:53.821813 33565 net.cpp:370] conv4_3/3x3_dwconv/SE_weights -> conv4_3/3x3_dwconv/SE_fc2 (in-place)
I1026 15:23:53.822418 33565 net.cpp:124] Setting up conv4_3/3x3_dwconv/SE_weights
I1026 15:23:53.822432 33565 net.cpp:131] Top shape: 25 120 1 1 (3000)
I1026 15:23:53.822435 33565 net.cpp:139] Memory required for data: 1332394600
I1026 15:23:53.822439 33565 layer_factory.hpp:77] Creating layer conv4_3/3x3_dwconv/SE_weights/reshape
I1026 15:23:53.822449 33565 net.cpp:86] Creating Layer conv4_3/3x3_dwconv/SE_weights/reshape
I1026 15:23:53.822453 33565 net.cpp:409] conv4_3/3x3_dwconv/SE_weights/reshape <- conv4_3/3x3_dwconv/SE_fc2
I1026 15:23:53.822461 33565 net.cpp:383] conv4_3/3x3_dwconv/SE_weights/reshape -> conv4_3/3x3_dwconv/SE_weights/reshape
I1026 15:23:53.822501 33565 net.cpp:124] Setting up conv4_3/3x3_dwconv/SE_weights/reshape
I1026 15:23:53.822510 33565 net.cpp:131] Top shape: 25 120 (3000)
I1026 15:23:53.822512 33565 net.cpp:139] Memory required for data: 1332406600
I1026 15:23:53.822516 33565 layer_factory.hpp:77] Creating layer conv4_3/3x3_dwconv/scale
I1026 15:23:53.822527 33565 net.cpp:86] Creating Layer conv4_3/3x3_dwconv/scale
I1026 15:23:53.822531 33565 net.cpp:409] conv4_3/3x3_dwconv/scale <- conv4_3/3x3_dwconv/concat_conv4_3/3x3_dwconv/concat_fixed_point_0_split_1
I1026 15:23:53.822537 33565 net.cpp:409] conv4_3/3x3_dwconv/scale <- conv4_3/3x3_dwconv/SE_weights/reshape
I1026 15:23:53.822546 33565 net.cpp:383] conv4_3/3x3_dwconv/scale -> conv4_3/3x3_dwconv/scale
I1026 15:23:53.822636 33565 net.cpp:124] Setting up conv4_3/3x3_dwconv/scale
I1026 15:23:53.822644 33565 net.cpp:131] Top shape: 25 120 28 28 (2352000)
I1026 15:23:53.822647 33565 net.cpp:139] Memory required for data: 1341814600
I1026 15:23:53.822651 33565 layer_factory.hpp:77] Creating layer conv4_3/3x3_dwconv/scale_fixed_point
I1026 15:23:53.822660 33565 net.cpp:86] Creating Layer conv4_3/3x3_dwconv/scale_fixed_point
I1026 15:23:53.822664 33565 net.cpp:409] conv4_3/3x3_dwconv/scale_fixed_point <- conv4_3/3x3_dwconv/scale
I1026 15:23:53.822671 33565 net.cpp:370] conv4_3/3x3_dwconv/scale_fixed_point -> conv4_3/3x3_dwconv/scale (in-place)
I1026 15:23:53.822702 33565 net.cpp:124] Setting up conv4_3/3x3_dwconv/scale_fixed_point
I1026 15:23:53.822710 33565 net.cpp:131] Top shape: 25 120 28 28 (2352000)
I1026 15:23:53.822712 33565 net.cpp:139] Memory required for data: 1351222600
I1026 15:23:53.822717 33565 layer_factory.hpp:77] Creating layer conv4_3/1x1_decrease
I1026 15:23:53.822729 33565 net.cpp:86] Creating Layer conv4_3/1x1_decrease
I1026 15:23:53.822732 33565 net.cpp:409] conv4_3/1x1_decrease <- conv4_3/3x3_dwconv/scale
I1026 15:23:53.822741 33565 net.cpp:383] conv4_3/1x1_decrease -> conv4_3/1x1_decrease/bn
I1026 15:23:53.823545 33565 net.cpp:124] Setting up conv4_3/1x1_decrease
I1026 15:23:53.823560 33565 net.cpp:131] Top shape: 25 40 28 28 (784000)
I1026 15:23:53.823565 33565 net.cpp:139] Memory required for data: 1354358600
I1026 15:23:53.823572 33565 layer_factory.hpp:77] Creating layer conv4_3/elt_sum
I1026 15:23:53.823581 33565 net.cpp:86] Creating Layer conv4_3/elt_sum
I1026 15:23:53.823586 33565 net.cpp:409] conv4_3/elt_sum <- conv4_2/elt_sum_conv4_2/elt_sum_fixed_point_0_split_1
I1026 15:23:53.823592 33565 net.cpp:409] conv4_3/elt_sum <- conv4_3/1x1_decrease/bn
I1026 15:23:53.823599 33565 net.cpp:383] conv4_3/elt_sum -> conv4_3/elt_sum
I1026 15:23:53.823637 33565 net.cpp:124] Setting up conv4_3/elt_sum
I1026 15:23:53.823644 33565 net.cpp:131] Top shape: 25 40 28 28 (784000)
I1026 15:23:53.823647 33565 net.cpp:139] Memory required for data: 1357494600
I1026 15:23:53.823653 33565 layer_factory.hpp:77] Creating layer conv4_3/elt_sum_fixed_point
I1026 15:23:53.823663 33565 net.cpp:86] Creating Layer conv4_3/elt_sum_fixed_point
I1026 15:23:53.823668 33565 net.cpp:409] conv4_3/elt_sum_fixed_point <- conv4_3/elt_sum
I1026 15:23:53.823674 33565 net.cpp:370] conv4_3/elt_sum_fixed_point -> conv4_3/elt_sum (in-place)
I1026 15:23:53.823705 33565 net.cpp:124] Setting up conv4_3/elt_sum_fixed_point
I1026 15:23:53.823714 33565 net.cpp:131] Top shape: 25 40 28 28 (784000)
I1026 15:23:53.823716 33565 net.cpp:139] Memory required for data: 1360630600
I1026 15:23:53.823721 33565 layer_factory.hpp:77] Creating layer conv5_0/1x1_increase
I1026 15:23:53.823735 33565 net.cpp:86] Creating Layer conv5_0/1x1_increase
I1026 15:23:53.823740 33565 net.cpp:409] conv5_0/1x1_increase <- conv4_3/elt_sum
I1026 15:23:53.823747 33565 net.cpp:383] conv5_0/1x1_increase -> conv5_0/1x1_increase/bn
I1026 15:23:53.824678 33565 net.cpp:124] Setting up conv5_0/1x1_increase
I1026 15:23:53.824692 33565 net.cpp:131] Top shape: 25 240 28 28 (4704000)
I1026 15:23:53.824697 33565 net.cpp:139] Memory required for data: 1379446600
I1026 15:23:53.824704 33565 layer_factory.hpp:77] Creating layer conv5_0/1x1_increase/hardswish
I1026 15:23:53.824712 33565 net.cpp:86] Creating Layer conv5_0/1x1_increase/hardswish
I1026 15:23:53.824717 33565 net.cpp:409] conv5_0/1x1_increase/hardswish <- conv5_0/1x1_increase/bn
I1026 15:23:53.824726 33565 net.cpp:370] conv5_0/1x1_increase/hardswish -> conv5_0/1x1_increase/bn (in-place)
I1026 15:23:53.824764 33565 net.cpp:124] Setting up conv5_0/1x1_increase/hardswish
I1026 15:23:53.824772 33565 net.cpp:131] Top shape: 25 240 28 28 (4704000)
I1026 15:23:53.824776 33565 net.cpp:139] Memory required for data: 1398262600
I1026 15:23:53.824779 33565 layer_factory.hpp:77] Creating layer conv5_0/1x1_increase/bn_fixed_point
I1026 15:23:53.824790 33565 net.cpp:86] Creating Layer conv5_0/1x1_increase/bn_fixed_point
I1026 15:23:53.824795 33565 net.cpp:409] conv5_0/1x1_increase/bn_fixed_point <- conv5_0/1x1_increase/bn
I1026 15:23:53.824801 33565 net.cpp:370] conv5_0/1x1_increase/bn_fixed_point -> conv5_0/1x1_increase/bn (in-place)
I1026 15:23:53.824838 33565 net.cpp:124] Setting up conv5_0/1x1_increase/bn_fixed_point
I1026 15:23:53.824846 33565 net.cpp:131] Top shape: 25 240 28 28 (4704000)
I1026 15:23:53.824849 33565 net.cpp:139] Memory required for data: 1417078600
I1026 15:23:53.824856 33565 layer_factory.hpp:77] Creating layer conv5_0/1x1_increase/slice
I1026 15:23:53.824869 33565 net.cpp:86] Creating Layer conv5_0/1x1_increase/slice
I1026 15:23:53.824873 33565 net.cpp:409] conv5_0/1x1_increase/slice <- conv5_0/1x1_increase/bn
I1026 15:23:53.824880 33565 net.cpp:383] conv5_0/1x1_increase/slice -> conv5_0/1x1_increase/split1
I1026 15:23:53.824888 33565 net.cpp:383] conv5_0/1x1_increase/slice -> conv5_0/1x1_increase/split2
I1026 15:23:53.824896 33565 net.cpp:383] conv5_0/1x1_increase/slice -> conv5_0/1x1_increase/split3
I1026 15:23:53.824961 33565 net.cpp:124] Setting up conv5_0/1x1_increase/slice
I1026 15:23:53.824968 33565 net.cpp:131] Top shape: 25 80 28 28 (1568000)
I1026 15:23:53.824973 33565 net.cpp:131] Top shape: 25 80 28 28 (1568000)
I1026 15:23:53.824992 33565 net.cpp:131] Top shape: 25 80 28 28 (1568000)
I1026 15:23:53.824996 33565 net.cpp:139] Memory required for data: 1435894600
I1026 15:23:53.825001 33565 layer_factory.hpp:77] Creating layer conv5_0/3x3_dwconv/slice_0
I1026 15:23:53.825012 33565 net.cpp:86] Creating Layer conv5_0/3x3_dwconv/slice_0
I1026 15:23:53.825017 33565 net.cpp:409] conv5_0/3x3_dwconv/slice_0 <- conv5_0/1x1_increase/split1
I1026 15:23:53.825026 33565 net.cpp:383] conv5_0/3x3_dwconv/slice_0 -> conv5_0/3x3_dwconv/slice_0/bn
I1026 15:23:53.825688 33565 net.cpp:124] Setting up conv5_0/3x3_dwconv/slice_0
I1026 15:23:53.825702 33565 net.cpp:131] Top shape: 25 80 14 14 (392000)
I1026 15:23:53.825706 33565 net.cpp:139] Memory required for data: 1437462600
I1026 15:23:53.825714 33565 layer_factory.hpp:77] Creating layer conv5_0/3x3_dwconv/slice_0/hardswish
I1026 15:23:53.825724 33565 net.cpp:86] Creating Layer conv5_0/3x3_dwconv/slice_0/hardswish
I1026 15:23:53.825729 33565 net.cpp:409] conv5_0/3x3_dwconv/slice_0/hardswish <- conv5_0/3x3_dwconv/slice_0/bn
I1026 15:23:53.825736 33565 net.cpp:370] conv5_0/3x3_dwconv/slice_0/hardswish -> conv5_0/3x3_dwconv/slice_0/bn (in-place)
I1026 15:23:53.825772 33565 net.cpp:124] Setting up conv5_0/3x3_dwconv/slice_0/hardswish
I1026 15:23:53.825780 33565 net.cpp:131] Top shape: 25 80 14 14 (392000)
I1026 15:23:53.825783 33565 net.cpp:139] Memory required for data: 1439030600
I1026 15:23:53.825788 33565 layer_factory.hpp:77] Creating layer conv5_0/3x3_dwconv/slice_1
I1026 15:23:53.825800 33565 net.cpp:86] Creating Layer conv5_0/3x3_dwconv/slice_1
I1026 15:23:53.825809 33565 net.cpp:409] conv5_0/3x3_dwconv/slice_1 <- conv5_0/1x1_increase/split2
I1026 15:23:53.825816 33565 net.cpp:383] conv5_0/3x3_dwconv/slice_1 -> conv5_0/3x3_dwconv/slice_1/bn
I1026 15:23:53.826508 33565 net.cpp:124] Setting up conv5_0/3x3_dwconv/slice_1
I1026 15:23:53.826521 33565 net.cpp:131] Top shape: 25 80 14 14 (392000)
I1026 15:23:53.826525 33565 net.cpp:139] Memory required for data: 1440598600
I1026 15:23:53.826534 33565 layer_factory.hpp:77] Creating layer conv5_0/3x3_dwconv/slice_1/hardswish
I1026 15:23:53.826542 33565 net.cpp:86] Creating Layer conv5_0/3x3_dwconv/slice_1/hardswish
I1026 15:23:53.826547 33565 net.cpp:409] conv5_0/3x3_dwconv/slice_1/hardswish <- conv5_0/3x3_dwconv/slice_1/bn
I1026 15:23:53.826555 33565 net.cpp:370] conv5_0/3x3_dwconv/slice_1/hardswish -> conv5_0/3x3_dwconv/slice_1/bn (in-place)
I1026 15:23:53.826591 33565 net.cpp:124] Setting up conv5_0/3x3_dwconv/slice_1/hardswish
I1026 15:23:53.826599 33565 net.cpp:131] Top shape: 25 80 14 14 (392000)
I1026 15:23:53.826603 33565 net.cpp:139] Memory required for data: 1442166600
I1026 15:23:53.826607 33565 layer_factory.hpp:77] Creating layer conv5_0/3x3_dwconv/slice_2
I1026 15:23:53.826620 33565 net.cpp:86] Creating Layer conv5_0/3x3_dwconv/slice_2
I1026 15:23:53.826624 33565 net.cpp:409] conv5_0/3x3_dwconv/slice_2 <- conv5_0/1x1_increase/split3
I1026 15:23:53.826633 33565 net.cpp:383] conv5_0/3x3_dwconv/slice_2 -> conv5_0/3x3_dwconv/slice_2/bn
I1026 15:23:53.827589 33565 net.cpp:124] Setting up conv5_0/3x3_dwconv/slice_2
I1026 15:23:53.827603 33565 net.cpp:131] Top shape: 25 80 14 14 (392000)
I1026 15:23:53.827607 33565 net.cpp:139] Memory required for data: 1443734600
I1026 15:23:53.827616 33565 layer_factory.hpp:77] Creating layer conv5_0/3x3_dwconv/slice_2/hardswish
I1026 15:23:53.827625 33565 net.cpp:86] Creating Layer conv5_0/3x3_dwconv/slice_2/hardswish
I1026 15:23:53.827630 33565 net.cpp:409] conv5_0/3x3_dwconv/slice_2/hardswish <- conv5_0/3x3_dwconv/slice_2/bn
I1026 15:23:53.827636 33565 net.cpp:370] conv5_0/3x3_dwconv/slice_2/hardswish -> conv5_0/3x3_dwconv/slice_2/bn (in-place)
I1026 15:23:53.827673 33565 net.cpp:124] Setting up conv5_0/3x3_dwconv/slice_2/hardswish
I1026 15:23:53.827682 33565 net.cpp:131] Top shape: 25 80 14 14 (392000)
I1026 15:23:53.827685 33565 net.cpp:139] Memory required for data: 1445302600
I1026 15:23:53.827689 33565 layer_factory.hpp:77] Creating layer conv5_0/3x3_dwconv/concat
I1026 15:23:53.827697 33565 net.cpp:86] Creating Layer conv5_0/3x3_dwconv/concat
I1026 15:23:53.827718 33565 net.cpp:409] conv5_0/3x3_dwconv/concat <- conv5_0/3x3_dwconv/slice_0/bn
I1026 15:23:53.827723 33565 net.cpp:409] conv5_0/3x3_dwconv/concat <- conv5_0/3x3_dwconv/slice_1/bn
I1026 15:23:53.827728 33565 net.cpp:409] conv5_0/3x3_dwconv/concat <- conv5_0/3x3_dwconv/slice_2/bn
I1026 15:23:53.827734 33565 net.cpp:383] conv5_0/3x3_dwconv/concat -> conv5_0/3x3_dwconv/concat
I1026 15:23:53.827769 33565 net.cpp:124] Setting up conv5_0/3x3_dwconv/concat
I1026 15:23:53.827777 33565 net.cpp:131] Top shape: 25 240 14 14 (1176000)
I1026 15:23:53.827780 33565 net.cpp:139] Memory required for data: 1450006600
I1026 15:23:53.827786 33565 layer_factory.hpp:77] Creating layer conv5_0/3x3_dwconv/concat_fixed_point
I1026 15:23:53.827797 33565 net.cpp:86] Creating Layer conv5_0/3x3_dwconv/concat_fixed_point
I1026 15:23:53.827801 33565 net.cpp:409] conv5_0/3x3_dwconv/concat_fixed_point <- conv5_0/3x3_dwconv/concat
I1026 15:23:53.827813 33565 net.cpp:370] conv5_0/3x3_dwconv/concat_fixed_point -> conv5_0/3x3_dwconv/concat (in-place)
I1026 15:23:53.827845 33565 net.cpp:124] Setting up conv5_0/3x3_dwconv/concat_fixed_point
I1026 15:23:53.827852 33565 net.cpp:131] Top shape: 25 240 14 14 (1176000)
I1026 15:23:53.827857 33565 net.cpp:139] Memory required for data: 1454710600
I1026 15:23:53.827862 33565 layer_factory.hpp:77] Creating layer conv5_0/3x3_dwconv/concat_conv5_0/3x3_dwconv/concat_fixed_point_0_split
I1026 15:23:53.827868 33565 net.cpp:86] Creating Layer conv5_0/3x3_dwconv/concat_conv5_0/3x3_dwconv/concat_fixed_point_0_split
I1026 15:23:53.827872 33565 net.cpp:409] conv5_0/3x3_dwconv/concat_conv5_0/3x3_dwconv/concat_fixed_point_0_split <- conv5_0/3x3_dwconv/concat
I1026 15:23:53.827880 33565 net.cpp:383] conv5_0/3x3_dwconv/concat_conv5_0/3x3_dwconv/concat_fixed_point_0_split -> conv5_0/3x3_dwconv/concat_conv5_0/3x3_dwconv/concat_fixed_point_0_split_0
I1026 15:23:53.827888 33565 net.cpp:383] conv5_0/3x3_dwconv/concat_conv5_0/3x3_dwconv/concat_fixed_point_0_split -> conv5_0/3x3_dwconv/concat_conv5_0/3x3_dwconv/concat_fixed_point_0_split_1
I1026 15:23:53.827931 33565 net.cpp:124] Setting up conv5_0/3x3_dwconv/concat_conv5_0/3x3_dwconv/concat_fixed_point_0_split
I1026 15:23:53.827939 33565 net.cpp:131] Top shape: 25 240 14 14 (1176000)
I1026 15:23:53.827944 33565 net.cpp:131] Top shape: 25 240 14 14 (1176000)
I1026 15:23:53.827946 33565 net.cpp:139] Memory required for data: 1464118600
I1026 15:23:53.827950 33565 layer_factory.hpp:77] Creating layer conv5_0/3x3_dwconv/SE_global_pool
I1026 15:23:53.827960 33565 net.cpp:86] Creating Layer conv5_0/3x3_dwconv/SE_global_pool
I1026 15:23:53.827965 33565 net.cpp:409] conv5_0/3x3_dwconv/SE_global_pool <- conv5_0/3x3_dwconv/concat_conv5_0/3x3_dwconv/concat_fixed_point_0_split_0
I1026 15:23:53.827970 33565 net.cpp:383] conv5_0/3x3_dwconv/SE_global_pool -> conv5_0/3x3_dwconv/SE_global_pool
I1026 15:23:53.827997 33565 net.cpp:124] Setting up conv5_0/3x3_dwconv/SE_global_pool
I1026 15:23:53.828004 33565 net.cpp:131] Top shape: 25 240 1 1 (6000)
I1026 15:23:53.828007 33565 net.cpp:139] Memory required for data: 1464142600
I1026 15:23:53.828011 33565 layer_factory.hpp:77] Creating layer conv5_0/3x3_dwconv/SE_bn
I1026 15:23:53.828022 33565 net.cpp:86] Creating Layer conv5_0/3x3_dwconv/SE_bn
I1026 15:23:53.828027 33565 net.cpp:409] conv5_0/3x3_dwconv/SE_bn <- conv5_0/3x3_dwconv/SE_global_pool
I1026 15:23:53.828032 33565 net.cpp:383] conv5_0/3x3_dwconv/SE_bn -> conv5_0/3x3_dwconv/SE_bn
I1026 15:23:53.828086 33565 layer_factory.hpp:77] Creating layer conv5_0/3x3_dwconv/SE_bn
I1026 15:23:53.828234 33565 net.cpp:124] Setting up conv5_0/3x3_dwconv/SE_bn
I1026 15:23:53.828243 33565 net.cpp:131] Top shape: 25 240 1 1 (6000)
I1026 15:23:53.828245 33565 net.cpp:139] Memory required for data: 1464166600
I1026 15:23:53.828253 33565 layer_factory.hpp:77] Creating layer conv5_0/3x3_dwconv/SE_fc1
I1026 15:23:53.828266 33565 net.cpp:86] Creating Layer conv5_0/3x3_dwconv/SE_fc1
I1026 15:23:53.828271 33565 net.cpp:409] conv5_0/3x3_dwconv/SE_fc1 <- conv5_0/3x3_dwconv/SE_bn
I1026 15:23:53.828294 33565 net.cpp:383] conv5_0/3x3_dwconv/SE_fc1 -> conv5_0/3x3_dwconv/SE_fc1
I1026 15:23:53.828847 33565 net.cpp:124] Setting up conv5_0/3x3_dwconv/SE_fc1
I1026 15:23:53.828861 33565 net.cpp:131] Top shape: 25 15 1 1 (375)
I1026 15:23:53.828864 33565 net.cpp:139] Memory required for data: 1464168100
I1026 15:23:53.828871 33565 layer_factory.hpp:77] Creating layer conv5_0/3x3_dwconv/SE_fc1/relu
I1026 15:23:53.828878 33565 net.cpp:86] Creating Layer conv5_0/3x3_dwconv/SE_fc1/relu
I1026 15:23:53.828882 33565 net.cpp:409] conv5_0/3x3_dwconv/SE_fc1/relu <- conv5_0/3x3_dwconv/SE_fc1
I1026 15:23:53.828889 33565 net.cpp:370] conv5_0/3x3_dwconv/SE_fc1/relu -> conv5_0/3x3_dwconv/SE_fc1 (in-place)
I1026 15:23:53.829504 33565 net.cpp:124] Setting up conv5_0/3x3_dwconv/SE_fc1/relu
I1026 15:23:53.829516 33565 net.cpp:131] Top shape: 25 15 1 1 (375)
I1026 15:23:53.829520 33565 net.cpp:139] Memory required for data: 1464169600
I1026 15:23:53.829524 33565 layer_factory.hpp:77] Creating layer conv5_0/3x3_dwconv/SE_fc2
I1026 15:23:53.829540 33565 net.cpp:86] Creating Layer conv5_0/3x3_dwconv/SE_fc2
I1026 15:23:53.829545 33565 net.cpp:409] conv5_0/3x3_dwconv/SE_fc2 <- conv5_0/3x3_dwconv/SE_fc1
I1026 15:23:53.829553 33565 net.cpp:383] conv5_0/3x3_dwconv/SE_fc2 -> conv5_0/3x3_dwconv/SE_fc2
I1026 15:23:53.830109 33565 net.cpp:124] Setting up conv5_0/3x3_dwconv/SE_fc2
I1026 15:23:53.830121 33565 net.cpp:131] Top shape: 25 240 1 1 (6000)
I1026 15:23:53.830126 33565 net.cpp:139] Memory required for data: 1464193600
I1026 15:23:53.830133 33565 layer_factory.hpp:77] Creating layer conv5_0/3x3_dwconv/SE_weights
I1026 15:23:53.830142 33565 net.cpp:86] Creating Layer conv5_0/3x3_dwconv/SE_weights
I1026 15:23:53.830145 33565 net.cpp:409] conv5_0/3x3_dwconv/SE_weights <- conv5_0/3x3_dwconv/SE_fc2
I1026 15:23:53.830152 33565 net.cpp:370] conv5_0/3x3_dwconv/SE_weights -> conv5_0/3x3_dwconv/SE_fc2 (in-place)
I1026 15:23:53.831015 33565 net.cpp:124] Setting up conv5_0/3x3_dwconv/SE_weights
I1026 15:23:53.831032 33565 net.cpp:131] Top shape: 25 240 1 1 (6000)
I1026 15:23:53.831037 33565 net.cpp:139] Memory required for data: 1464217600
I1026 15:23:53.831043 33565 layer_factory.hpp:77] Creating layer conv5_0/3x3_dwconv/SE_weights/reshape
I1026 15:23:53.831053 33565 net.cpp:86] Creating Layer conv5_0/3x3_dwconv/SE_weights/reshape
I1026 15:23:53.831058 33565 net.cpp:409] conv5_0/3x3_dwconv/SE_weights/reshape <- conv5_0/3x3_dwconv/SE_fc2
I1026 15:23:53.831066 33565 net.cpp:383] conv5_0/3x3_dwconv/SE_weights/reshape -> conv5_0/3x3_dwconv/SE_weights/reshape
I1026 15:23:53.831109 33565 net.cpp:124] Setting up conv5_0/3x3_dwconv/SE_weights/reshape
I1026 15:23:53.831117 33565 net.cpp:131] Top shape: 25 240 (6000)
I1026 15:23:53.831120 33565 net.cpp:139] Memory required for data: 1464241600
I1026 15:23:53.831125 33565 layer_factory.hpp:77] Creating layer conv5_0/3x3_dwconv/scale
I1026 15:23:53.831136 33565 net.cpp:86] Creating Layer conv5_0/3x3_dwconv/scale
I1026 15:23:53.831140 33565 net.cpp:409] conv5_0/3x3_dwconv/scale <- conv5_0/3x3_dwconv/concat_conv5_0/3x3_dwconv/concat_fixed_point_0_split_1
I1026 15:23:53.831146 33565 net.cpp:409] conv5_0/3x3_dwconv/scale <- conv5_0/3x3_dwconv/SE_weights/reshape
I1026 15:23:53.831152 33565 net.cpp:383] conv5_0/3x3_dwconv/scale -> conv5_0/3x3_dwconv/scale
I1026 15:23:53.831236 33565 net.cpp:124] Setting up conv5_0/3x3_dwconv/scale
I1026 15:23:53.831244 33565 net.cpp:131] Top shape: 25 240 14 14 (1176000)
I1026 15:23:53.831248 33565 net.cpp:139] Memory required for data: 1468945600
I1026 15:23:53.831251 33565 layer_factory.hpp:77] Creating layer conv5_0/3x3_dwconv/scale_fixed_point
I1026 15:23:53.831261 33565 net.cpp:86] Creating Layer conv5_0/3x3_dwconv/scale_fixed_point
I1026 15:23:53.831265 33565 net.cpp:409] conv5_0/3x3_dwconv/scale_fixed_point <- conv5_0/3x3_dwconv/scale
I1026 15:23:53.831272 33565 net.cpp:370] conv5_0/3x3_dwconv/scale_fixed_point -> conv5_0/3x3_dwconv/scale (in-place)
I1026 15:23:53.831303 33565 net.cpp:124] Setting up conv5_0/3x3_dwconv/scale_fixed_point
I1026 15:23:53.831310 33565 net.cpp:131] Top shape: 25 240 14 14 (1176000)
I1026 15:23:53.831336 33565 net.cpp:139] Memory required for data: 1473649600
I1026 15:23:53.831342 33565 layer_factory.hpp:77] Creating layer conv5_0/1x1_decrease
I1026 15:23:53.831357 33565 net.cpp:86] Creating Layer conv5_0/1x1_decrease
I1026 15:23:53.831362 33565 net.cpp:409] conv5_0/1x1_decrease <- conv5_0/3x3_dwconv/scale
I1026 15:23:53.831368 33565 net.cpp:383] conv5_0/1x1_decrease -> conv5_0/1x1_decrease/bn
I1026 15:23:53.834239 33565 net.cpp:124] Setting up conv5_0/1x1_decrease
I1026 15:23:53.834255 33565 net.cpp:131] Top shape: 25 80 14 14 (392000)
I1026 15:23:53.834260 33565 net.cpp:139] Memory required for data: 1475217600
I1026 15:23:53.834269 33565 layer_factory.hpp:77] Creating layer conv5_0/1x1_decrease/bn_fixed_point
I1026 15:23:53.834281 33565 net.cpp:86] Creating Layer conv5_0/1x1_decrease/bn_fixed_point
I1026 15:23:53.834286 33565 net.cpp:409] conv5_0/1x1_decrease/bn_fixed_point <- conv5_0/1x1_decrease/bn
I1026 15:23:53.834295 33565 net.cpp:370] conv5_0/1x1_decrease/bn_fixed_point -> conv5_0/1x1_decrease/bn (in-place)
I1026 15:23:53.834334 33565 net.cpp:124] Setting up conv5_0/1x1_decrease/bn_fixed_point
I1026 15:23:53.834343 33565 net.cpp:131] Top shape: 25 80 14 14 (392000)
I1026 15:23:53.834347 33565 net.cpp:139] Memory required for data: 1476785600
I1026 15:23:53.834352 33565 layer_factory.hpp:77] Creating layer conv5_0/1x1_decrease/bn_conv5_0/1x1_decrease/bn_fixed_point_0_split
I1026 15:23:53.834360 33565 net.cpp:86] Creating Layer conv5_0/1x1_decrease/bn_conv5_0/1x1_decrease/bn_fixed_point_0_split
I1026 15:23:53.834364 33565 net.cpp:409] conv5_0/1x1_decrease/bn_conv5_0/1x1_decrease/bn_fixed_point_0_split <- conv5_0/1x1_decrease/bn
I1026 15:23:53.834372 33565 net.cpp:383] conv5_0/1x1_decrease/bn_conv5_0/1x1_decrease/bn_fixed_point_0_split -> conv5_0/1x1_decrease/bn_conv5_0/1x1_decrease/bn_fixed_point_0_split_0
I1026 15:23:53.834380 33565 net.cpp:383] conv5_0/1x1_decrease/bn_conv5_0/1x1_decrease/bn_fixed_point_0_split -> conv5_0/1x1_decrease/bn_conv5_0/1x1_decrease/bn_fixed_point_0_split_1
I1026 15:23:53.834432 33565 net.cpp:124] Setting up conv5_0/1x1_decrease/bn_conv5_0/1x1_decrease/bn_fixed_point_0_split
I1026 15:23:53.834439 33565 net.cpp:131] Top shape: 25 80 14 14 (392000)
I1026 15:23:53.834444 33565 net.cpp:131] Top shape: 25 80 14 14 (392000)
I1026 15:23:53.834447 33565 net.cpp:139] Memory required for data: 1479921600
I1026 15:23:53.834451 33565 layer_factory.hpp:77] Creating layer conv5_1/1x1_increase
I1026 15:23:53.834463 33565 net.cpp:86] Creating Layer conv5_1/1x1_increase
I1026 15:23:53.834467 33565 net.cpp:409] conv5_1/1x1_increase <- conv5_0/1x1_decrease/bn_conv5_0/1x1_decrease/bn_fixed_point_0_split_0
I1026 15:23:53.834475 33565 net.cpp:383] conv5_1/1x1_increase -> conv5_1/1x1_increase/bn
I1026 15:23:53.835891 33565 net.cpp:124] Setting up conv5_1/1x1_increase
I1026 15:23:53.835906 33565 net.cpp:131] Top shape: 25 240 14 14 (1176000)
I1026 15:23:53.835911 33565 net.cpp:139] Memory required for data: 1484625600
I1026 15:23:53.835919 33565 layer_factory.hpp:77] Creating layer conv5_1/1x1_increase/hardswish
I1026 15:23:53.835928 33565 net.cpp:86] Creating Layer conv5_1/1x1_increase/hardswish
I1026 15:23:53.835933 33565 net.cpp:409] conv5_1/1x1_increase/hardswish <- conv5_1/1x1_increase/bn
I1026 15:23:53.835939 33565 net.cpp:370] conv5_1/1x1_increase/hardswish -> conv5_1/1x1_increase/bn (in-place)
I1026 15:23:53.835978 33565 net.cpp:124] Setting up conv5_1/1x1_increase/hardswish
I1026 15:23:53.835988 33565 net.cpp:131] Top shape: 25 240 14 14 (1176000)
I1026 15:23:53.835990 33565 net.cpp:139] Memory required for data: 1489329600
I1026 15:23:53.835994 33565 layer_factory.hpp:77] Creating layer conv5_1/1x1_increase/bn_fixed_point
I1026 15:23:53.836005 33565 net.cpp:86] Creating Layer conv5_1/1x1_increase/bn_fixed_point
I1026 15:23:53.836009 33565 net.cpp:409] conv5_1/1x1_increase/bn_fixed_point <- conv5_1/1x1_increase/bn
I1026 15:23:53.836016 33565 net.cpp:370] conv5_1/1x1_increase/bn_fixed_point -> conv5_1/1x1_increase/bn (in-place)
I1026 15:23:53.836071 33565 net.cpp:124] Setting up conv5_1/1x1_increase/bn_fixed_point
I1026 15:23:53.836078 33565 net.cpp:131] Top shape: 25 240 14 14 (1176000)
I1026 15:23:53.836082 33565 net.cpp:139] Memory required for data: 1494033600
I1026 15:23:53.836087 33565 layer_factory.hpp:77] Creating layer conv5_1/1x1_increase/slice
I1026 15:23:53.836097 33565 net.cpp:86] Creating Layer conv5_1/1x1_increase/slice
I1026 15:23:53.836100 33565 net.cpp:409] conv5_1/1x1_increase/slice <- conv5_1/1x1_increase/bn
I1026 15:23:53.836108 33565 net.cpp:383] conv5_1/1x1_increase/slice -> conv5_1/1x1_increase/split1
I1026 15:23:53.836117 33565 net.cpp:383] conv5_1/1x1_increase/slice -> conv5_1/1x1_increase/split2
I1026 15:23:53.836167 33565 net.cpp:124] Setting up conv5_1/1x1_increase/slice
I1026 15:23:53.836174 33565 net.cpp:131] Top shape: 25 120 14 14 (588000)
I1026 15:23:53.836179 33565 net.cpp:131] Top shape: 25 120 14 14 (588000)
I1026 15:23:53.836181 33565 net.cpp:139] Memory required for data: 1498737600
I1026 15:23:53.836185 33565 layer_factory.hpp:77] Creating layer conv5_1/3x3_dwconv/slice_0
I1026 15:23:53.836199 33565 net.cpp:86] Creating Layer conv5_1/3x3_dwconv/slice_0
I1026 15:23:53.836205 33565 net.cpp:409] conv5_1/3x3_dwconv/slice_0 <- conv5_1/1x1_increase/split1
I1026 15:23:53.836211 33565 net.cpp:383] conv5_1/3x3_dwconv/slice_0 -> conv5_1/3x3_dwconv/slice_0/bn
I1026 15:23:53.836889 33565 net.cpp:124] Setting up conv5_1/3x3_dwconv/slice_0
I1026 15:23:53.836903 33565 net.cpp:131] Top shape: 25 120 14 14 (588000)
I1026 15:23:53.836907 33565 net.cpp:139] Memory required for data: 1501089600
I1026 15:23:53.836915 33565 layer_factory.hpp:77] Creating layer conv5_1/3x3_dwconv/slice_0/hardswish
I1026 15:23:53.836925 33565 net.cpp:86] Creating Layer conv5_1/3x3_dwconv/slice_0/hardswish
I1026 15:23:53.836931 33565 net.cpp:409] conv5_1/3x3_dwconv/slice_0/hardswish <- conv5_1/3x3_dwconv/slice_0/bn
I1026 15:23:53.836938 33565 net.cpp:370] conv5_1/3x3_dwconv/slice_0/hardswish -> conv5_1/3x3_dwconv/slice_0/bn (in-place)
I1026 15:23:53.836977 33565 net.cpp:124] Setting up conv5_1/3x3_dwconv/slice_0/hardswish
I1026 15:23:53.836987 33565 net.cpp:131] Top shape: 25 120 14 14 (588000)
I1026 15:23:53.836989 33565 net.cpp:139] Memory required for data: 1503441600
I1026 15:23:53.836993 33565 layer_factory.hpp:77] Creating layer conv5_1/3x3_dwconv/slice_1
I1026 15:23:53.837005 33565 net.cpp:86] Creating Layer conv5_1/3x3_dwconv/slice_1
I1026 15:23:53.837010 33565 net.cpp:409] conv5_1/3x3_dwconv/slice_1 <- conv5_1/1x1_increase/split2
I1026 15:23:53.837018 33565 net.cpp:383] conv5_1/3x3_dwconv/slice_1 -> conv5_1/3x3_dwconv/slice_1/bn
I1026 15:23:53.837980 33565 net.cpp:124] Setting up conv5_1/3x3_dwconv/slice_1
I1026 15:23:53.837996 33565 net.cpp:131] Top shape: 25 120 14 14 (588000)
I1026 15:23:53.838001 33565 net.cpp:139] Memory required for data: 1505793600
I1026 15:23:53.838008 33565 layer_factory.hpp:77] Creating layer conv5_1/3x3_dwconv/slice_1/hardswish
I1026 15:23:53.838017 33565 net.cpp:86] Creating Layer conv5_1/3x3_dwconv/slice_1/hardswish
I1026 15:23:53.838022 33565 net.cpp:409] conv5_1/3x3_dwconv/slice_1/hardswish <- conv5_1/3x3_dwconv/slice_1/bn
I1026 15:23:53.838029 33565 net.cpp:370] conv5_1/3x3_dwconv/slice_1/hardswish -> conv5_1/3x3_dwconv/slice_1/bn (in-place)
I1026 15:23:53.838068 33565 net.cpp:124] Setting up conv5_1/3x3_dwconv/slice_1/hardswish
I1026 15:23:53.838076 33565 net.cpp:131] Top shape: 25 120 14 14 (588000)
I1026 15:23:53.838079 33565 net.cpp:139] Memory required for data: 1508145600
I1026 15:23:53.838083 33565 layer_factory.hpp:77] Creating layer conv5_1/3x3_dwconv/concat
I1026 15:23:53.838094 33565 net.cpp:86] Creating Layer conv5_1/3x3_dwconv/concat
I1026 15:23:53.838099 33565 net.cpp:409] conv5_1/3x3_dwconv/concat <- conv5_1/3x3_dwconv/slice_0/bn
I1026 15:23:53.838104 33565 net.cpp:409] conv5_1/3x3_dwconv/concat <- conv5_1/3x3_dwconv/slice_1/bn
I1026 15:23:53.838110 33565 net.cpp:383] conv5_1/3x3_dwconv/concat -> conv5_1/3x3_dwconv/concat
I1026 15:23:53.838143 33565 net.cpp:124] Setting up conv5_1/3x3_dwconv/concat
I1026 15:23:53.838166 33565 net.cpp:131] Top shape: 25 240 14 14 (1176000)
I1026 15:23:53.838171 33565 net.cpp:139] Memory required for data: 1512849600
I1026 15:23:53.838176 33565 layer_factory.hpp:77] Creating layer conv5_1/3x3_dwconv/concat_fixed_point
I1026 15:23:53.838186 33565 net.cpp:86] Creating Layer conv5_1/3x3_dwconv/concat_fixed_point
I1026 15:23:53.838189 33565 net.cpp:409] conv5_1/3x3_dwconv/concat_fixed_point <- conv5_1/3x3_dwconv/concat
I1026 15:23:53.838196 33565 net.cpp:370] conv5_1/3x3_dwconv/concat_fixed_point -> conv5_1/3x3_dwconv/concat (in-place)
I1026 15:23:53.838229 33565 net.cpp:124] Setting up conv5_1/3x3_dwconv/concat_fixed_point
I1026 15:23:53.838238 33565 net.cpp:131] Top shape: 25 240 14 14 (1176000)
I1026 15:23:53.838240 33565 net.cpp:139] Memory required for data: 1517553600
I1026 15:23:53.838245 33565 layer_factory.hpp:77] Creating layer conv5_1/3x3_dwconv/concat_conv5_1/3x3_dwconv/concat_fixed_point_0_split
I1026 15:23:53.838253 33565 net.cpp:86] Creating Layer conv5_1/3x3_dwconv/concat_conv5_1/3x3_dwconv/concat_fixed_point_0_split
I1026 15:23:53.838258 33565 net.cpp:409] conv5_1/3x3_dwconv/concat_conv5_1/3x3_dwconv/concat_fixed_point_0_split <- conv5_1/3x3_dwconv/concat
I1026 15:23:53.838264 33565 net.cpp:383] conv5_1/3x3_dwconv/concat_conv5_1/3x3_dwconv/concat_fixed_point_0_split -> conv5_1/3x3_dwconv/concat_conv5_1/3x3_dwconv/concat_fixed_point_0_split_0
I1026 15:23:53.838272 33565 net.cpp:383] conv5_1/3x3_dwconv/concat_conv5_1/3x3_dwconv/concat_fixed_point_0_split -> conv5_1/3x3_dwconv/concat_conv5_1/3x3_dwconv/concat_fixed_point_0_split_1
I1026 15:23:53.838318 33565 net.cpp:124] Setting up conv5_1/3x3_dwconv/concat_conv5_1/3x3_dwconv/concat_fixed_point_0_split
I1026 15:23:53.838325 33565 net.cpp:131] Top shape: 25 240 14 14 (1176000)
I1026 15:23:53.838330 33565 net.cpp:131] Top shape: 25 240 14 14 (1176000)
I1026 15:23:53.838333 33565 net.cpp:139] Memory required for data: 1526961600
I1026 15:23:53.838336 33565 layer_factory.hpp:77] Creating layer conv5_1/3x3_dwconv/SE_global_pool
I1026 15:23:53.838346 33565 net.cpp:86] Creating Layer conv5_1/3x3_dwconv/SE_global_pool
I1026 15:23:53.838351 33565 net.cpp:409] conv5_1/3x3_dwconv/SE_global_pool <- conv5_1/3x3_dwconv/concat_conv5_1/3x3_dwconv/concat_fixed_point_0_split_0
I1026 15:23:53.838358 33565 net.cpp:383] conv5_1/3x3_dwconv/SE_global_pool -> conv5_1/3x3_dwconv/SE_global_pool
I1026 15:23:53.838387 33565 net.cpp:124] Setting up conv5_1/3x3_dwconv/SE_global_pool
I1026 15:23:53.838393 33565 net.cpp:131] Top shape: 25 240 1 1 (6000)
I1026 15:23:53.838397 33565 net.cpp:139] Memory required for data: 1526985600
I1026 15:23:53.838402 33565 layer_factory.hpp:77] Creating layer conv5_1/3x3_dwconv/SE_bn
I1026 15:23:53.838412 33565 net.cpp:86] Creating Layer conv5_1/3x3_dwconv/SE_bn
I1026 15:23:53.838416 33565 net.cpp:409] conv5_1/3x3_dwconv/SE_bn <- conv5_1/3x3_dwconv/SE_global_pool
I1026 15:23:53.838424 33565 net.cpp:383] conv5_1/3x3_dwconv/SE_bn -> conv5_1/3x3_dwconv/SE_bn
I1026 15:23:53.838479 33565 layer_factory.hpp:77] Creating layer conv5_1/3x3_dwconv/SE_bn
I1026 15:23:53.838639 33565 net.cpp:124] Setting up conv5_1/3x3_dwconv/SE_bn
I1026 15:23:53.838647 33565 net.cpp:131] Top shape: 25 240 1 1 (6000)
I1026 15:23:53.838651 33565 net.cpp:139] Memory required for data: 1527009600
I1026 15:23:53.838657 33565 layer_factory.hpp:77] Creating layer conv5_1/3x3_dwconv/SE_fc1
I1026 15:23:53.838671 33565 net.cpp:86] Creating Layer conv5_1/3x3_dwconv/SE_fc1
I1026 15:23:53.838676 33565 net.cpp:409] conv5_1/3x3_dwconv/SE_fc1 <- conv5_1/3x3_dwconv/SE_bn
I1026 15:23:53.838685 33565 net.cpp:383] conv5_1/3x3_dwconv/SE_fc1 -> conv5_1/3x3_dwconv/SE_fc1
I1026 15:23:53.839251 33565 net.cpp:124] Setting up conv5_1/3x3_dwconv/SE_fc1
I1026 15:23:53.839263 33565 net.cpp:131] Top shape: 25 15 1 1 (375)
I1026 15:23:53.839267 33565 net.cpp:139] Memory required for data: 1527011100
I1026 15:23:53.839273 33565 layer_factory.hpp:77] Creating layer conv5_1/3x3_dwconv/SE_fc1/relu
I1026 15:23:53.839280 33565 net.cpp:86] Creating Layer conv5_1/3x3_dwconv/SE_fc1/relu
I1026 15:23:53.839300 33565 net.cpp:409] conv5_1/3x3_dwconv/SE_fc1/relu <- conv5_1/3x3_dwconv/SE_fc1
I1026 15:23:53.839308 33565 net.cpp:370] conv5_1/3x3_dwconv/SE_fc1/relu -> conv5_1/3x3_dwconv/SE_fc1 (in-place)
I1026 15:23:53.840034 33565 net.cpp:124] Setting up conv5_1/3x3_dwconv/SE_fc1/relu
I1026 15:23:53.840047 33565 net.cpp:131] Top shape: 25 15 1 1 (375)
I1026 15:23:53.840051 33565 net.cpp:139] Memory required for data: 1527012600
I1026 15:23:53.840055 33565 layer_factory.hpp:77] Creating layer conv5_1/3x3_dwconv/SE_fc2
I1026 15:23:53.840070 33565 net.cpp:86] Creating Layer conv5_1/3x3_dwconv/SE_fc2
I1026 15:23:53.840075 33565 net.cpp:409] conv5_1/3x3_dwconv/SE_fc2 <- conv5_1/3x3_dwconv/SE_fc1
I1026 15:23:53.840083 33565 net.cpp:383] conv5_1/3x3_dwconv/SE_fc2 -> conv5_1/3x3_dwconv/SE_fc2
I1026 15:23:53.840632 33565 net.cpp:124] Setting up conv5_1/3x3_dwconv/SE_fc2
I1026 15:23:53.840644 33565 net.cpp:131] Top shape: 25 240 1 1 (6000)
I1026 15:23:53.840648 33565 net.cpp:139] Memory required for data: 1527036600
I1026 15:23:53.840656 33565 layer_factory.hpp:77] Creating layer conv5_1/3x3_dwconv/SE_weights
I1026 15:23:53.840665 33565 net.cpp:86] Creating Layer conv5_1/3x3_dwconv/SE_weights
I1026 15:23:53.840669 33565 net.cpp:409] conv5_1/3x3_dwconv/SE_weights <- conv5_1/3x3_dwconv/SE_fc2
I1026 15:23:53.840677 33565 net.cpp:370] conv5_1/3x3_dwconv/SE_weights -> conv5_1/3x3_dwconv/SE_fc2 (in-place)
I1026 15:23:53.841307 33565 net.cpp:124] Setting up conv5_1/3x3_dwconv/SE_weights
I1026 15:23:53.841321 33565 net.cpp:131] Top shape: 25 240 1 1 (6000)
I1026 15:23:53.841325 33565 net.cpp:139] Memory required for data: 1527060600
I1026 15:23:53.841329 33565 layer_factory.hpp:77] Creating layer conv5_1/3x3_dwconv/SE_weights/reshape
I1026 15:23:53.841341 33565 net.cpp:86] Creating Layer conv5_1/3x3_dwconv/SE_weights/reshape
I1026 15:23:53.841346 33565 net.cpp:409] conv5_1/3x3_dwconv/SE_weights/reshape <- conv5_1/3x3_dwconv/SE_fc2
I1026 15:23:53.841356 33565 net.cpp:383] conv5_1/3x3_dwconv/SE_weights/reshape -> conv5_1/3x3_dwconv/SE_weights/reshape
I1026 15:23:53.841395 33565 net.cpp:124] Setting up conv5_1/3x3_dwconv/SE_weights/reshape
I1026 15:23:53.841403 33565 net.cpp:131] Top shape: 25 240 (6000)
I1026 15:23:53.841408 33565 net.cpp:139] Memory required for data: 1527084600
I1026 15:23:53.841411 33565 layer_factory.hpp:77] Creating layer conv5_1/3x3_dwconv/scale
I1026 15:23:53.841421 33565 net.cpp:86] Creating Layer conv5_1/3x3_dwconv/scale
I1026 15:23:53.841426 33565 net.cpp:409] conv5_1/3x3_dwconv/scale <- conv5_1/3x3_dwconv/concat_conv5_1/3x3_dwconv/concat_fixed_point_0_split_1
I1026 15:23:53.841432 33565 net.cpp:409] conv5_1/3x3_dwconv/scale <- conv5_1/3x3_dwconv/SE_weights/reshape
I1026 15:23:53.841439 33565 net.cpp:383] conv5_1/3x3_dwconv/scale -> conv5_1/3x3_dwconv/scale
I1026 15:23:53.841528 33565 net.cpp:124] Setting up conv5_1/3x3_dwconv/scale
I1026 15:23:53.841536 33565 net.cpp:131] Top shape: 25 240 14 14 (1176000)
I1026 15:23:53.841539 33565 net.cpp:139] Memory required for data: 1531788600
I1026 15:23:53.841542 33565 layer_factory.hpp:77] Creating layer conv5_1/3x3_dwconv/scale_fixed_point
I1026 15:23:53.841552 33565 net.cpp:86] Creating Layer conv5_1/3x3_dwconv/scale_fixed_point
I1026 15:23:53.841557 33565 net.cpp:409] conv5_1/3x3_dwconv/scale_fixed_point <- conv5_1/3x3_dwconv/scale
I1026 15:23:53.841563 33565 net.cpp:370] conv5_1/3x3_dwconv/scale_fixed_point -> conv5_1/3x3_dwconv/scale (in-place)
I1026 15:23:53.841593 33565 net.cpp:124] Setting up conv5_1/3x3_dwconv/scale_fixed_point
I1026 15:23:53.841600 33565 net.cpp:131] Top shape: 25 240 14 14 (1176000)
I1026 15:23:53.841603 33565 net.cpp:139] Memory required for data: 1536492600
I1026 15:23:53.841610 33565 layer_factory.hpp:77] Creating layer conv5_1/1x1_decrease
I1026 15:23:53.841624 33565 net.cpp:86] Creating Layer conv5_1/1x1_decrease
I1026 15:23:53.841627 33565 net.cpp:409] conv5_1/1x1_decrease <- conv5_1/3x3_dwconv/scale
I1026 15:23:53.841635 33565 net.cpp:383] conv5_1/1x1_decrease -> conv5_1/1x1_decrease/bn
I1026 15:23:53.842856 33565 net.cpp:124] Setting up conv5_1/1x1_decrease
I1026 15:23:53.842885 33565 net.cpp:131] Top shape: 25 80 14 14 (392000)
I1026 15:23:53.842890 33565 net.cpp:139] Memory required for data: 1538060600
I1026 15:23:53.842898 33565 layer_factory.hpp:77] Creating layer conv5_1/elt_sum
I1026 15:23:53.842909 33565 net.cpp:86] Creating Layer conv5_1/elt_sum
I1026 15:23:53.842914 33565 net.cpp:409] conv5_1/elt_sum <- conv5_0/1x1_decrease/bn_conv5_0/1x1_decrease/bn_fixed_point_0_split_1
I1026 15:23:53.842919 33565 net.cpp:409] conv5_1/elt_sum <- conv5_1/1x1_decrease/bn
I1026 15:23:53.842926 33565 net.cpp:383] conv5_1/elt_sum -> conv5_1/elt_sum
I1026 15:23:53.842965 33565 net.cpp:124] Setting up conv5_1/elt_sum
I1026 15:23:53.842972 33565 net.cpp:131] Top shape: 25 80 14 14 (392000)
I1026 15:23:53.842977 33565 net.cpp:139] Memory required for data: 1539628600
I1026 15:23:53.842979 33565 layer_factory.hpp:77] Creating layer conv5_1/elt_sum_fixed_point
I1026 15:23:53.842988 33565 net.cpp:86] Creating Layer conv5_1/elt_sum_fixed_point
I1026 15:23:53.842993 33565 net.cpp:409] conv5_1/elt_sum_fixed_point <- conv5_1/elt_sum
I1026 15:23:53.843000 33565 net.cpp:370] conv5_1/elt_sum_fixed_point -> conv5_1/elt_sum (in-place)
I1026 15:23:53.843030 33565 net.cpp:124] Setting up conv5_1/elt_sum_fixed_point
I1026 15:23:53.843035 33565 net.cpp:131] Top shape: 25 80 14 14 (392000)
I1026 15:23:53.843039 33565 net.cpp:139] Memory required for data: 1541196600
I1026 15:23:53.843044 33565 layer_factory.hpp:77] Creating layer conv5_1/elt_sum_conv5_1/elt_sum_fixed_point_0_split
I1026 15:23:53.843051 33565 net.cpp:86] Creating Layer conv5_1/elt_sum_conv5_1/elt_sum_fixed_point_0_split
I1026 15:23:53.843055 33565 net.cpp:409] conv5_1/elt_sum_conv5_1/elt_sum_fixed_point_0_split <- conv5_1/elt_sum
I1026 15:23:53.843061 33565 net.cpp:383] conv5_1/elt_sum_conv5_1/elt_sum_fixed_point_0_split -> conv5_1/elt_sum_conv5_1/elt_sum_fixed_point_0_split_0
I1026 15:23:53.843070 33565 net.cpp:383] conv5_1/elt_sum_conv5_1/elt_sum_fixed_point_0_split -> conv5_1/elt_sum_conv5_1/elt_sum_fixed_point_0_split_1
I1026 15:23:53.843116 33565 net.cpp:124] Setting up conv5_1/elt_sum_conv5_1/elt_sum_fixed_point_0_split
I1026 15:23:53.843125 33565 net.cpp:131] Top shape: 25 80 14 14 (392000)
I1026 15:23:53.843129 33565 net.cpp:131] Top shape: 25 80 14 14 (392000)
I1026 15:23:53.843132 33565 net.cpp:139] Memory required for data: 1544332600
I1026 15:23:53.843137 33565 layer_factory.hpp:77] Creating layer conv5_2/1x1_increase
I1026 15:23:53.843149 33565 net.cpp:86] Creating Layer conv5_2/1x1_increase
I1026 15:23:53.843154 33565 net.cpp:409] conv5_2/1x1_increase <- conv5_1/elt_sum_conv5_1/elt_sum_fixed_point_0_split_0
I1026 15:23:53.843161 33565 net.cpp:383] conv5_2/1x1_increase -> conv5_2/1x1_increase/bn
I1026 15:23:53.844579 33565 net.cpp:124] Setting up conv5_2/1x1_increase
I1026 15:23:53.844594 33565 net.cpp:131] Top shape: 25 240 14 14 (1176000)
I1026 15:23:53.844599 33565 net.cpp:139] Memory required for data: 1549036600
I1026 15:23:53.844619 33565 layer_factory.hpp:77] Creating layer conv5_2/1x1_increase/hardswish
I1026 15:23:53.844630 33565 net.cpp:86] Creating Layer conv5_2/1x1_increase/hardswish
I1026 15:23:53.844636 33565 net.cpp:409] conv5_2/1x1_increase/hardswish <- conv5_2/1x1_increase/bn
I1026 15:23:53.844645 33565 net.cpp:370] conv5_2/1x1_increase/hardswish -> conv5_2/1x1_increase/bn (in-place)
I1026 15:23:53.844682 33565 net.cpp:124] Setting up conv5_2/1x1_increase/hardswish
I1026 15:23:53.844691 33565 net.cpp:131] Top shape: 25 240 14 14 (1176000)
I1026 15:23:53.844693 33565 net.cpp:139] Memory required for data: 1553740600
I1026 15:23:53.844697 33565 layer_factory.hpp:77] Creating layer conv5_2/1x1_increase/bn_fixed_point
I1026 15:23:53.844707 33565 net.cpp:86] Creating Layer conv5_2/1x1_increase/bn_fixed_point
I1026 15:23:53.844710 33565 net.cpp:409] conv5_2/1x1_increase/bn_fixed_point <- conv5_2/1x1_increase/bn
I1026 15:23:53.844717 33565 net.cpp:370] conv5_2/1x1_increase/bn_fixed_point -> conv5_2/1x1_increase/bn (in-place)
I1026 15:23:53.844748 33565 net.cpp:124] Setting up conv5_2/1x1_increase/bn_fixed_point
I1026 15:23:53.844769 33565 net.cpp:131] Top shape: 25 240 14 14 (1176000)
I1026 15:23:53.844774 33565 net.cpp:139] Memory required for data: 1558444600
I1026 15:23:53.844779 33565 layer_factory.hpp:77] Creating layer conv5_2/1x1_increase/slice
I1026 15:23:53.844789 33565 net.cpp:86] Creating Layer conv5_2/1x1_increase/slice
I1026 15:23:53.844791 33565 net.cpp:409] conv5_2/1x1_increase/slice <- conv5_2/1x1_increase/bn
I1026 15:23:53.844799 33565 net.cpp:383] conv5_2/1x1_increase/slice -> conv5_2/1x1_increase/split1
I1026 15:23:53.844813 33565 net.cpp:383] conv5_2/1x1_increase/slice -> conv5_2/1x1_increase/split2
I1026 15:23:53.844867 33565 net.cpp:124] Setting up conv5_2/1x1_increase/slice
I1026 15:23:53.844875 33565 net.cpp:131] Top shape: 25 120 14 14 (588000)
I1026 15:23:53.844880 33565 net.cpp:131] Top shape: 25 120 14 14 (588000)
I1026 15:23:53.844883 33565 net.cpp:139] Memory required for data: 1563148600
I1026 15:23:53.844888 33565 layer_factory.hpp:77] Creating layer conv5_2/3x3_dwconv/slice_0
I1026 15:23:53.844902 33565 net.cpp:86] Creating Layer conv5_2/3x3_dwconv/slice_0
…
I1026 15:23:53.950489 33565 layer_factory.hpp:77] Creating layer conv7_1/3x3_dwconv/slice_2
I1026 15:23:53.950505 33565 net.cpp:86] Creating Layer conv7_1/3x3_dwconv/slice_2
I1026 15:23:53.950510 33565 net.cpp:409] conv7_1/3x3_dwconv/slice_2 <- conv7_1/1x1_increase/split3
I1026 15:23:53.950520 33565 net.cpp:383] conv7_1/3x3_dwconv/slice_2 -> conv7_1/3x3_dwconv/slice_2/bn
I1026 15:23:53.951701 33565 net.cpp:124] Setting up conv7_1/3x3_dwconv/slice_2
I1026 15:23:53.951719 33565 net.cpp:131] Top shape: 25 192 7 7 (235200)
I1026 15:23:53.951722 33565 net.cpp:139] Memory required for data: 2261179400
I1026 15:23:53.951731 33565 layer_factory.hpp:77] Creating layer conv7_1/3x3_dwconv/slice_2/hardswish
I1026 15:23:53.951740 33565 net.cpp:86] Creating Layer conv7_1/3x3_dwconv/slice_2/hardswish
I1026 15:23:53.951745 33565 net.cpp:409] conv7_1/3x3_dwconv/slice_2/hardswish <- conv7_1/3x3_dwconv/slice_2/bn
I1026 15:23:53.951750 33565 net.cpp:370] conv7_1/3x3_dwconv/slice_2/hardswish -> conv7_1/3x3_dwconv/slice_2/bn (in-place)
I1026 15:23:53.951792 33565 net.cpp:124] Setting up conv7_1/3x3_dwconv/slice_2/hardswish
I1026 15:23:53.951800 33565 net.cpp:131] Top shape: 25 192 7 7 (235200)
I1026 15:23:53.951809 33565 net.cpp:139] Memory required for data: 2262120200
I1026 15:23:53.951813 33565 layer_factory.hpp:77] Creating layer conv7_1/3x3_dwconv/concat
I1026 15:23:53.951819 33565 net.cpp:86] Creating Layer conv7_1/3x3_dwconv/concat
I1026 15:23:53.951826 33565 net.cpp:409] conv7_1/3x3_dwconv/concat <- conv7_1/3x3_dwconv/slice_0/bn
I1026 15:23:53.951831 33565 net.cpp:409] conv7_1/3x3_dwconv/concat <- conv7_1/3x3_dwconv/slice_1/bn
I1026 15:23:53.951836 33565 net.cpp:409] conv7_1/3x3_dwconv/concat <- conv7_1/3x3_dwconv/slice_2/bn
I1026 15:23:53.951841 33565 net.cpp:383] conv7_1/3x3_dwconv/concat -> conv7_1/3x3_dwconv/concat
I1026 15:23:53.951884 33565 net.cpp:124] Setting up conv7_1/3x3_dwconv/concat
I1026 15:23:53.951890 33565 net.cpp:131] Top shape: 25 576 7 7 (705600)
I1026 15:23:53.951894 33565 net.cpp:139] Memory required for data: 2264942600
I1026 15:23:53.951897 33565 layer_factory.hpp:77] Creating layer conv7_1/3x3_dwconv/concat_fixed_point
I1026 15:23:53.951907 33565 net.cpp:86] Creating Layer conv7_1/3x3_dwconv/concat_fixed_point
I1026 15:23:53.951912 33565 net.cpp:409] conv7_1/3x3_dwconv/concat_fixed_point <- conv7_1/3x3_dwconv/concat
I1026 15:23:53.951920 33565 net.cpp:370] conv7_1/3x3_dwconv/concat_fixed_point -> conv7_1/3x3_dwconv/concat (in-place)
I1026 15:23:53.951951 33565 net.cpp:124] Setting up conv7_1/3x3_dwconv/concat_fixed_point
I1026 15:23:53.951957 33565 net.cpp:131] Top shape: 25 576 7 7 (705600)
I1026 15:23:53.951961 33565 net.cpp:139] Memory required for data: 2267765000
I1026 15:23:53.951966 33565 layer_factory.hpp:77] Creating layer conv7_1/3x3_dwconv/concat_conv7_1/3x3_dwconv/concat_fixed_point_0_split
I1026 15:23:53.951974 33565 net.cpp:86] Creating Layer conv7_1/3x3_dwconv/concat_conv7_1/3x3_dwconv/concat_fixed_point_0_split
I1026 15:23:53.951978 33565 net.cpp:409] conv7_1/3x3_dwconv/concat_conv7_1/3x3_dwconv/concat_fixed_point_0_split <- conv7_1/3x3_dwconv/concat
I1026 15:23:53.951983 33565 net.cpp:383] conv7_1/3x3_dwconv/concat_conv7_1/3x3_dwconv/concat_fixed_point_0_split -> conv7_1/3x3_dwconv/concat_conv7_1/3x3_dwconv/concat_fixed_point_0_split_0
I1026 15:23:53.951990 33565 net.cpp:383] conv7_1/3x3_dwconv/concat_conv7_1/3x3_dwconv/concat_fixed_point_0_split -> conv7_1/3x3_dwconv/concat_conv7_1/3x3_dwconv/concat_fixed_point_0_split_1
I1026 15:23:53.952044 33565 net.cpp:124] Setting up conv7_1/3x3_dwconv/concat_conv7_1/3x3_dwconv/concat_fixed_point_0_split
I1026 15:23:53.952051 33565 net.cpp:131] Top shape: 25 576 7 7 (705600)
I1026 15:23:53.952055 33565 net.cpp:131] Top shape: 25 576 7 7 (705600)
I1026 15:23:53.952059 33565 net.cpp:139] Memory required for data: 2273409800
I1026 15:23:53.952064 33565 layer_factory.hpp:77] Creating layer conv7_1/3x3_dwconv/SE_global_pool
I1026 15:23:53.952087 33565 net.cpp:86] Creating Layer conv7_1/3x3_dwconv/SE_global_pool
I1026 15:23:53.952093 33565 net.cpp:409] conv7_1/3x3_dwconv/SE_global_pool <- conv7_1/3x3_dwconv/concat_conv7_1/3x3_dwconv/concat_fixed_point_0_split_0
I1026 15:23:53.952100 33565 net.cpp:383] conv7_1/3x3_dwconv/SE_global_pool -> conv7_1/3x3_dwconv/SE_global_pool
I1026 15:23:53.952138 33565 net.cpp:124] Setting up conv7_1/3x3_dwconv/SE_global_pool
I1026 15:23:53.952145 33565 net.cpp:131] Top shape: 25 576 1 1 (14400)
I1026 15:23:53.952149 33565 net.cpp:139] Memory required for data: 2273467400
I1026 15:23:53.952152 33565 layer_factory.hpp:77] Creating layer conv7_1/3x3_dwconv/SE_bn
I1026 15:23:53.952163 33565 net.cpp:86] Creating Layer conv7_1/3x3_dwconv/SE_bn
I1026 15:23:53.952168 33565 net.cpp:409] conv7_1/3x3_dwconv/SE_bn <- conv7_1/3x3_dwconv/SE_global_pool
I1026 15:23:53.952174 33565 net.cpp:383] conv7_1/3x3_dwconv/SE_bn -> conv7_1/3x3_dwconv/SE_bn
I1026 15:23:53.952239 33565 layer_factory.hpp:77] Creating layer conv7_1/3x3_dwconv/SE_bn
I1026 15:23:53.952404 33565 net.cpp:124] Setting up conv7_1/3x3_dwconv/SE_bn
I1026 15:23:53.952414 33565 net.cpp:131] Top shape: 25 576 1 1 (14400)
I1026 15:23:53.952416 33565 net.cpp:139] Memory required for data: 2273525000
I1026 15:23:53.952423 33565 layer_factory.hpp:77] Creating layer conv7_1/3x3_dwconv/SE_fc1
I1026 15:23:53.952433 33565 net.cpp:86] Creating Layer conv7_1/3x3_dwconv/SE_fc1
I1026 15:23:53.952438 33565 net.cpp:409] conv7_1/3x3_dwconv/SE_fc1 <- conv7_1/3x3_dwconv/SE_bn
I1026 15:23:53.952447 33565 net.cpp:383] conv7_1/3x3_dwconv/SE_fc1 -> conv7_1/3x3_dwconv/SE_fc1
I1026 15:23:53.953564 33565 net.cpp:124] Setting up conv7_1/3x3_dwconv/SE_fc1
I1026 15:23:53.953577 33565 net.cpp:131] Top shape: 25 36 1 1 (900)
I1026 15:23:53.953581 33565 net.cpp:139] Memory required for data: 2273528600
I1026 15:23:53.953588 33565 layer_factory.hpp:77] Creating layer conv7_1/3x3_dwconv/SE_fc1/relu
I1026 15:23:53.953595 33565 net.cpp:86] Creating Layer conv7_1/3x3_dwconv/SE_fc1/relu
I1026 15:23:53.953599 33565 net.cpp:409] conv7_1/3x3_dwconv/SE_fc1/relu <- conv7_1/3x3_dwconv/SE_fc1
I1026 15:23:53.953605 33565 net.cpp:370] conv7_1/3x3_dwconv/SE_fc1/relu -> conv7_1/3x3_dwconv/SE_fc1 (in-place)
I1026 15:23:53.954326 33565 net.cpp:124] Setting up conv7_1/3x3_dwconv/SE_fc1/relu
I1026 15:23:53.954340 33565 net.cpp:131] Top shape: 25 36 1 1 (900)
I1026 15:23:53.954344 33565 net.cpp:139] Memory required for data: 2273532200
I1026 15:23:53.954350 33565 layer_factory.hpp:77] Creating layer conv7_1/3x3_dwconv/SE_fc2
I1026 15:23:53.954365 33565 net.cpp:86] Creating Layer conv7_1/3x3_dwconv/SE_fc2
I1026 15:23:53.954370 33565 net.cpp:409] conv7_1/3x3_dwconv/SE_fc2 <- conv7_1/3x3_dwconv/SE_fc1
I1026 15:23:53.954381 33565 net.cpp:383] conv7_1/3x3_dwconv/SE_fc2 -> conv7_1/3x3_dwconv/SE_fc2
I1026 15:23:53.955487 33565 net.cpp:124] Setting up conv7_1/3x3_dwconv/SE_fc2
I1026 15:23:53.955500 33565 net.cpp:131] Top shape: 25 576 1 1 (14400)
I1026 15:23:53.955504 33565 net.cpp:139] Memory required for data: 2273589800
I1026 15:23:53.955510 33565 layer_factory.hpp:77] Creating layer conv7_1/3x3_dwconv/SE_weights
I1026 15:23:53.955518 33565 net.cpp:86] Creating Layer conv7_1/3x3_dwconv/SE_weights
I1026 15:23:53.955523 33565 net.cpp:409] conv7_1/3x3_dwconv/SE_weights <- conv7_1/3x3_dwconv/SE_fc2
I1026 15:23:53.955533 33565 net.cpp:370] conv7_1/3x3_dwconv/SE_weights -> conv7_1/3x3_dwconv/SE_fc2 (in-place)
I1026 15:23:53.956213 33565 net.cpp:124] Setting up conv7_1/3x3_dwconv/SE_weights
I1026 15:23:53.956226 33565 net.cpp:131] Top shape: 25 576 1 1 (14400)
I1026 15:23:53.956230 33565 net.cpp:139] Memory required for data: 2273647400
I1026 15:23:53.956234 33565 layer_factory.hpp:77] Creating layer conv7_1/3x3_dwconv/SE_weights/reshape
I1026 15:23:53.956241 33565 net.cpp:86] Creating Layer conv7_1/3x3_dwconv/SE_weights/reshape
I1026 15:23:53.956246 33565 net.cpp:409] conv7_1/3x3_dwconv/SE_weights/reshape <- conv7_1/3x3_dwconv/SE_fc2
I1026 15:23:53.956255 33565 net.cpp:383] conv7_1/3x3_dwconv/SE_weights/reshape -> conv7_1/3x3_dwconv/SE_weights/reshape
I1026 15:23:53.956312 33565 net.cpp:124] Setting up conv7_1/3x3_dwconv/SE_weights/reshape
I1026 15:23:53.956324 33565 net.cpp:131] Top shape: 25 576 (14400)
I1026 15:23:53.956328 33565 net.cpp:139] Memory required for data: 2273705000
I1026 15:23:53.956331 33565 layer_factory.hpp:77] Creating layer conv7_1/3x3_dwconv/scale
I1026 15:23:53.956341 33565 net.cpp:86] Creating Layer conv7_1/3x3_dwconv/scale
I1026 15:23:53.956346 33565 net.cpp:409] conv7_1/3x3_dwconv/scale <- conv7_1/3x3_dwconv/concat_conv7_1/3x3_dwconv/concat_fixed_point_0_split_1
I1026 15:23:53.956351 33565 net.cpp:409] conv7_1/3x3_dwconv/scale <- conv7_1/3x3_dwconv/SE_weights/reshape
I1026 15:23:53.956357 33565 net.cpp:383] conv7_1/3x3_dwconv/scale -> conv7_1/3x3_dwconv/scale
I1026 15:23:53.956455 33565 net.cpp:124] Setting up conv7_1/3x3_dwconv/scale
I1026 15:23:53.956462 33565 net.cpp:131] Top shape: 25 576 7 7 (705600)
I1026 15:23:53.956465 33565 net.cpp:139] Memory required for data: 2276527400
I1026 15:23:53.956470 33565 layer_factory.hpp:77] Creating layer conv7_1/3x3_dwconv/scale_fixed_point
I1026 15:23:53.956476 33565 net.cpp:86] Creating Layer conv7_1/3x3_dwconv/scale_fixed_point
I1026 15:23:53.956480 33565 net.cpp:409] conv7_1/3x3_dwconv/scale_fixed_point <- conv7_1/3x3_dwconv/scale
I1026 15:23:53.956488 33565 net.cpp:370] conv7_1/3x3_dwconv/scale_fixed_point -> conv7_1/3x3_dwconv/scale (in-place)
I1026 15:23:53.956521 33565 net.cpp:124] Setting up conv7_1/3x3_dwconv/scale_fixed_point
I1026 15:23:53.956528 33565 net.cpp:131] Top shape: 25 576 7 7 (705600)
I1026 15:23:53.956532 33565 net.cpp:139] Memory required for data: 2279349800
I1026 15:23:53.956537 33565 layer_factory.hpp:77] Creating layer conv7_1/1x1_decrease
I1026 15:23:53.956549 33565 net.cpp:86] Creating Layer conv7_1/1x1_decrease
I1026 15:23:53.956554 33565 net.cpp:409] conv7_1/1x1_decrease <- conv7_1/3x3_dwconv/scale
I1026 15:23:53.956560 33565 net.cpp:383] conv7_1/1x1_decrease -> conv7_1/1x1_decrease/bn
I1026 15:23:53.960747 33565 net.cpp:124] Setting up conv7_1/1x1_decrease
I1026 15:23:53.960762 33565 net.cpp:131] Top shape: 25 192 7 7 (235200)
I1026 15:23:53.960767 33565 net.cpp:139] Memory required for data: 2280290600
I1026 15:23:53.960774 33565 layer_factory.hpp:77] Creating layer conv7_1/elt_sum
I1026 15:23:53.960786 33565 net.cpp:86] Creating Layer conv7_1/elt_sum
I1026 15:23:53.960793 33565 net.cpp:409] conv7_1/elt_sum <- conv7_0/1x1_decrease/bn_conv7_0/1x1_decrease/bn_fixed_point_0_split_1
I1026 15:23:53.960798 33565 net.cpp:409] conv7_1/elt_sum <- conv7_1/1x1_decrease/bn
I1026 15:23:53.960809 33565 net.cpp:383] conv7_1/elt_sum -> conv7_1/elt_sum
I1026 15:23:53.960855 33565 net.cpp:124] Setting up conv7_1/elt_sum
I1026 15:23:53.960863 33565 net.cpp:131] Top shape: 25 192 7 7 (235200)
I1026 15:23:53.960866 33565 net.cpp:139] Memory required for data: 2281231400
I1026 15:23:53.960871 33565 layer_factory.hpp:77] Creating layer conv7_1/elt_sum_fixed_point
I1026 15:23:53.960878 33565 net.cpp:86] Creating Layer conv7_1/elt_sum_fixed_point
I1026 15:23:53.960882 33565 net.cpp:409] conv7_1/elt_sum_fixed_point <- conv7_1/elt_sum
I1026 15:23:53.960891 33565 net.cpp:370] conv7_1/elt_sum_fixed_point -> conv7_1/elt_sum (in-place)
I1026 15:23:53.960924 33565 net.cpp:124] Setting up conv7_1/elt_sum_fixed_point
I1026 15:23:53.960930 33565 net.cpp:131] Top shape: 25 192 7 7 (235200)
I1026 15:23:53.960934 33565 net.cpp:139] Memory required for data: 2282172200
I1026 15:23:53.960938 33565 layer_factory.hpp:77] Creating layer conv7_1/elt_sum_conv7_1/elt_sum_fixed_point_0_split
I1026 15:23:53.960947 33565 net.cpp:86] Creating Layer conv7_1/elt_sum_conv7_1/elt_sum_fixed_point_0_split
I1026 15:23:53.960952 33565 net.cpp:409] conv7_1/elt_sum_conv7_1/elt_sum_fixed_point_0_split <- conv7_1/elt_sum
I1026 15:23:53.960959 33565 net.cpp:383] conv7_1/elt_sum_conv7_1/elt_sum_fixed_point_0_split -> conv7_1/elt_sum_conv7_1/elt_sum_fixed_point_0_split_0
I1026 15:23:53.960966 33565 net.cpp:383] conv7_1/elt_sum_conv7_1/elt_sum_fixed_point_0_split -> conv7_1/elt_sum_conv7_1/elt_sum_fixed_point_0_split_1
I1026 15:23:53.961035 33565 net.cpp:124] Setting up conv7_1/elt_sum_conv7_1/elt_sum_fixed_point_0_split
I1026 15:23:53.961043 33565 net.cpp:131] Top shape: 25 192 7 7 (235200)
I1026 15:23:53.961047 33565 net.cpp:131] Top shape: 25 192 7 7 (235200)
I1026 15:23:53.961051 33565 net.cpp:139] Memory required for data: 2284053800
I1026 15:23:53.961055 33565 layer_factory.hpp:77] Creating layer conv7_2/1x1_increase
I1026 15:23:53.961067 33565 net.cpp:86] Creating Layer conv7_2/1x1_increase
I1026 15:23:53.961073 33565 net.cpp:409] conv7_2/1x1_increase <- conv7_1/elt_sum_conv7_1/elt_sum_fixed_point_0_split_0
I1026 15:23:53.961082 33565 net.cpp:383] conv7_2/1x1_increase -> conv7_2/1x1_increase/bn
I1026 15:23:53.965271 33565 net.cpp:124] Setting up conv7_2/1x1_increase
I1026 15:23:53.965286 33565 net.cpp:131] Top shape: 25 576 7 7 (705600)
I1026 15:23:53.965289 33565 net.cpp:139] Memory required for data: 2286876200
I1026 15:23:53.965296 33565 layer_factory.hpp:77] Creating layer conv7_2/1x1_increase/hardswish
I1026 15:23:53.965306 33565 net.cpp:86] Creating Layer conv7_2/1x1_increase/hardswish
I1026 15:23:53.965309 33565 net.cpp:409] conv7_2/1x1_increase/hardswish <- conv7_2/1x1_increase/bn
I1026 15:23:53.965317 33565 net.cpp:370] conv7_2/1x1_increase/hardswish -> conv7_2/1x1_increase/bn (in-place)
I1026 15:23:53.965356 33565 net.cpp:124] Setting up conv7_2/1x1_increase/hardswish
I1026 15:23:53.965366 33565 net.cpp:131] Top shape: 25 576 7 7 (705600)
I1026 15:23:53.965370 33565 net.cpp:139] Memory required for data: 2289698600
I1026 15:23:53.965375 33565 layer_factory.hpp:77] Creating layer conv7_2/1x1_increase/bn_fixed_point
I1026 15:23:53.965382 33565 net.cpp:86] Creating Layer conv7_2/1x1_increase/bn_fixed_point
I1026 15:23:53.965386 33565 net.cpp:409] conv7_2/1x1_increase/bn_fixed_point <- conv7_2/1x1_increase/bn
I1026 15:23:53.965394 33565 net.cpp:370] conv7_2/1x1_increase/bn_fixed_point -> conv7_2/1x1_increase/bn (in-place)
I1026 15:23:53.965425 33565 net.cpp:124] Setting up conv7_2/1x1_increase/bn_fixed_point
I1026 15:23:53.965431 33565 net.cpp:131] Top shape: 25 576 7 7 (705600)
I1026 15:23:53.965435 33565 net.cpp:139] Memory required for data: 2292521000
I1026 15:23:53.965440 33565 layer_factory.hpp:77] Creating layer conv7_2/1x1_increase/slice
I1026 15:23:53.965451 33565 net.cpp:86] Creating Layer conv7_2/1x1_increase/slice
I1026 15:23:53.965454 33565 net.cpp:409] conv7_2/1x1_increase/slice <- conv7_2/1x1_increase/bn
I1026 15:23:53.965461 33565 net.cpp:383] conv7_2/1x1_increase/slice -> conv7_2/1x1_increase/split1
I1026 15:23:53.965467 33565 net.cpp:383] conv7_2/1x1_increase/slice -> conv7_2/1x1_increase/split2
I1026 15:23:53.965479 33565 net.cpp:383] conv7_2/1x1_increase/slice -> conv7_2/1x1_increase/split3
I1026 15:23:53.965553 33565 net.cpp:124] Setting up conv7_2/1x1_increase/slice
I1026 15:23:53.965559 33565 net.cpp:131] Top shape: 25 192 7 7 (235200)
I1026 15:23:53.965564 33565 net.cpp:131] Top shape: 25 192 7 7 (235200)
I1026 15:23:53.965567 33565 net.cpp:131] Top shape: 25 192 7 7 (235200)
I1026 15:23:53.965570 33565 net.cpp:139] Memory required for data: 2295343400
I1026 15:23:53.965574 33565 layer_factory.hpp:77] Creating layer conv7_2/3x3_dwconv/slice_0
I1026 15:23:53.965587 33565 net.cpp:86] Creating Layer conv7_2/3x3_dwconv/slice_0
I1026 15:23:53.965592 33565 net.cpp:409] conv7_2/3x3_dwconv/slice_0 <- conv7_2/1x1_increase/split1
I1026 15:23:53.965601 33565 net.cpp:383] conv7_2/3x3_dwconv/slice_0 -> conv7_2/3x3_dwconv/slice_0/bn
I1026 15:23:53.966511 33565 net.cpp:124] Setting up conv7_2/3x3_dwconv/slice_0
I1026 15:23:53.966526 33565 net.cpp:131] Top shape: 25 192 7 7 (235200)
I1026 15:23:53.966529 33565 net.cpp:139] Memory required for data: 2296284200
I1026 15:23:53.966537 33565 layer_factory.hpp:77] Creating layer conv7_2/3x3_dwconv/slice_0/hardswish
I1026 15:23:53.966543 33565 net.cpp:86] Creating Layer conv7_2/3x3_dwconv/slice_0/hardswish
I1026 15:23:53.966549 33565 net.cpp:409] conv7_2/3x3_dwconv/slice_0/hardswish <- conv7_2/3x3_dwconv/slice_0/bn
I1026 15:23:53.966573 33565 net.cpp:370] conv7_2/3x3_dwconv/slice_0/hardswish -> conv7_2/3x3_dwconv/slice_0/bn (in-place)
I1026 15:23:53.966617 33565 net.cpp:124] Setting up conv7_2/3x3_dwconv/slice_0/hardswish
I1026 15:23:53.966624 33565 net.cpp:131] Top shape: 25 192 7 7 (235200)
I1026 15:23:53.966629 33565 net.cpp:139] Memory required for data: 2297225000
I1026 15:23:53.966634 33565 layer_factory.hpp:77] Creating layer conv7_2/3x3_dwconv/slice_1
I1026 15:23:53.966646 33565 net.cpp:86] Creating Layer conv7_2/3x3_dwconv/slice_1
I1026 15:23:53.966652 33565 net.cpp:409] conv7_2/3x3_dwconv/slice_1 <- conv7_2/1x1_increase/split2
I1026 15:23:53.966658 33565 net.cpp:383] conv7_2/3x3_dwconv/slice_1 -> conv7_2/3x3_dwconv/slice_1/bn
I1026 15:23:53.967509 33565 net.cpp:124] Setting up conv7_2/3x3_dwconv/slice_1
I1026 15:23:53.967522 33565 net.cpp:131] Top shape: 25 192 7 7 (235200)
I1026 15:23:53.967526 33565 net.cpp:139] Memory required for data: 2298165800
I1026 15:23:53.967535 33565 layer_factory.hpp:77] Creating layer conv7_2/3x3_dwconv/slice_1/hardswish
I1026 15:23:53.967542 33565 net.cpp:86] Creating Layer conv7_2/3x3_dwconv/slice_1/hardswish
I1026 15:23:53.967547 33565 net.cpp:409] conv7_2/3x3_dwconv/slice_1/hardswish <- conv7_2/3x3_dwconv/slice_1/bn
I1026 15:23:53.967556 33565 net.cpp:370] conv7_2/3x3_dwconv/slice_1/hardswish -> conv7_2/3x3_dwconv/slice_1/bn (in-place)
I1026 15:23:53.967595 33565 net.cpp:124] Setting up conv7_2/3x3_dwconv/slice_1/hardswish
I1026 15:23:53.967602 33565 net.cpp:131] Top shape: 25 192 7 7 (235200)
I1026 15:23:53.967607 33565 net.cpp:139] Memory required for data: 2299106600
I1026 15:23:53.967610 33565 layer_factory.hpp:77] Creating layer conv7_2/3x3_dwconv/slice_2
I1026 15:23:53.967622 33565 net.cpp:86] Creating Layer conv7_2/3x3_dwconv/slice_2
I1026 15:23:53.967629 33565 net.cpp:409] conv7_2/3x3_dwconv/slice_2 <- conv7_2/1x1_increase/split3
I1026 15:23:53.967636 33565 net.cpp:383] conv7_2/3x3_dwconv/slice_2 -> conv7_2/3x3_dwconv/slice_2/bn
I1026 15:23:53.968823 33565 net.cpp:124] Setting up conv7_2/3x3_dwconv/slice_2
I1026 15:23:53.968838 33565 net.cpp:131] Top shape: 25 192 7 7 (235200)
I1026 15:23:53.968842 33565 net.cpp:139] Memory required for data: 2300047400
I1026 15:23:53.968849 33565 layer_factory.hpp:77] Creating layer conv7_2/3x3_dwconv/slice_2/hardswish
I1026 15:23:53.968859 33565 net.cpp:86] Creating Layer conv7_2/3x3_dwconv/slice_2/hardswish
I1026 15:23:53.968865 33565 net.cpp:409] conv7_2/3x3_dwconv/slice_2/hardswish <- conv7_2/3x3_dwconv/slice_2/bn
I1026 15:23:53.968871 33565 net.cpp:370] conv7_2/3x3_dwconv/slice_2/hardswish -> conv7_2/3x3_dwconv/slice_2/bn (in-place)
I1026 15:23:53.968914 33565 net.cpp:124] Setting up conv7_2/3x3_dwconv/slice_2/hardswish
I1026 15:23:53.968921 33565 net.cpp:131] Top shape: 25 192 7 7 (235200)
I1026 15:23:53.968925 33565 net.cpp:139] Memory required for data: 2300988200
I1026 15:23:53.968930 33565 layer_factory.hpp:77] Creating layer conv7_2/3x3_dwconv/concat
I1026 15:23:53.968937 33565 net.cpp:86] Creating Layer conv7_2/3x3_dwconv/concat
I1026 15:23:53.968941 33565 net.cpp:409] conv7_2/3x3_dwconv/concat <- conv7_2/3x3_dwconv/slice_0/bn
I1026 15:23:53.968946 33565 net.cpp:409] conv7_2/3x3_dwconv/concat <- conv7_2/3x3_dwconv/slice_1/bn
I1026 15:23:53.968950 33565 net.cpp:409] conv7_2/3x3_dwconv/concat <- conv7_2/3x3_dwconv/slice_2/bn
I1026 15:23:53.968958 33565 net.cpp:383] conv7_2/3x3_dwconv/concat -> conv7_2/3x3_dwconv/concat
I1026 15:23:53.968994 33565 net.cpp:124] Setting up conv7_2/3x3_dwconv/concat
I1026 15:23:53.969002 33565 net.cpp:131] Top shape: 25 576 7 7 (705600)
I1026 15:23:53.969005 33565 net.cpp:139] Memory required for data: 2303810600
I1026 15:23:53.969008 33565 layer_factory.hpp:77] Creating layer conv7_2/3x3_dwconv/concat_fixed_point
I1026 15:23:53.969015 33565 net.cpp:86] Creating Layer conv7_2/3x3_dwconv/concat_fixed_point
I1026 15:23:53.969020 33565 net.cpp:409] conv7_2/3x3_dwconv/concat_fixed_point <- conv7_2/3x3_dwconv/concat
I1026 15:23:53.969028 33565 net.cpp:370] conv7_2/3x3_dwconv/concat_fixed_point -> conv7_2/3x3_dwconv/concat (in-place)
I1026 15:23:53.969077 33565 net.cpp:124] Setting up conv7_2/3x3_dwconv/concat_fixed_point
I1026 15:23:53.969087 33565 net.cpp:131] Top shape: 25 576 7 7 (705600)
I1026 15:23:53.969092 33565 net.cpp:139] Memory required for data: 2306633000
I1026 15:23:53.969097 33565 layer_factory.hpp:77] Creating layer conv7_2/3x3_dwconv/concat_conv7_2/3x3_dwconv/concat_fixed_point_0_split
I1026 15:23:53.969103 33565 net.cpp:86] Creating Layer conv7_2/3x3_dwconv/concat_conv7_2/3x3_dwconv/concat_fixed_point_0_split
I1026 15:23:53.969107 33565 net.cpp:409] conv7_2/3x3_dwconv/concat_conv7_2/3x3_dwconv/concat_fixed_point_0_split <- conv7_2/3x3_dwconv/concat
I1026 15:23:53.969112 33565 net.cpp:383] conv7_2/3x3_dwconv/concat_conv7_2/3x3_dwconv/concat_fixed_point_0_split -> conv7_2/3x3_dwconv/concat_conv7_2/3x3_dwconv/concat_fixed_point_0_split_0
I1026 15:23:53.969120 33565 net.cpp:383] conv7_2/3x3_dwconv/concat_conv7_2/3x3_dwconv/concat_fixed_point_0_split -> conv7_2/3x3_dwconv/concat_conv7_2/3x3_dwconv/concat_fixed_point_0_split_1
I1026 15:23:53.969173 33565 net.cpp:124] Setting up conv7_2/3x3_dwconv/concat_conv7_2/3x3_dwconv/concat_fixed_point_0_split
I1026 15:23:53.969179 33565 net.cpp:131] Top shape: 25 576 7 7 (705600)
I1026 15:23:53.969184 33565 net.cpp:131] Top shape: 25 576 7 7 (705600)
I1026 15:23:53.969187 33565 net.cpp:139] Memory required for data: 2312277800
I1026 15:23:53.969192 33565 layer_factory.hpp:77] Creating layer conv7_2/3x3_dwconv/SE_global_pool
I1026 15:23:53.969200 33565 net.cpp:86] Creating Layer conv7_2/3x3_dwconv/SE_global_pool
I1026 15:23:53.969205 33565 net.cpp:409] conv7_2/3x3_dwconv/SE_global_pool <- conv7_2/3x3_dwconv/concat_conv7_2/3x3_dwconv/concat_fixed_point_0_split_0
I1026 15:23:53.969210 33565 net.cpp:383] conv7_2/3x3_dwconv/SE_global_pool -> conv7_2/3x3_dwconv/SE_global_pool
I1026 15:23:53.969245 33565 net.cpp:124] Setting up conv7_2/3x3_dwconv/SE_global_pool
I1026 15:23:53.969252 33565 net.cpp:131] Top shape: 25 576 1 1 (14400)
I1026 15:23:53.969255 33565 net.cpp:139] Memory required for data: 2312335400
I1026 15:23:53.969260 33565 layer_factory.hpp:77] Creating layer conv7_2/3x3_dwconv/SE_bn
I1026 15:23:53.969267 33565 net.cpp:86] Creating Layer conv7_2/3x3_dwconv/SE_bn
I1026 15:23:53.969272 33565 net.cpp:409] conv7_2/3x3_dwconv/SE_bn <- conv7_2/3x3_dwconv/SE_global_pool
I1026 15:23:53.969280 33565 net.cpp:383] conv7_2/3x3_dwconv/SE_bn -> conv7_2/3x3_dwconv/SE_bn
I1026 15:23:53.969347 33565 layer_factory.hpp:77] Creating layer conv7_2/3x3_dwconv/SE_bn
I1026 15:23:53.969513 33565 net.cpp:124] Setting up conv7_2/3x3_dwconv/SE_bn
I1026 15:23:53.969522 33565 net.cpp:131] Top shape: 25 576 1 1 (14400)
I1026 15:23:53.969525 33565 net.cpp:139] Memory required for data: 2312393000
I1026 15:23:53.969532 33565 layer_factory.hpp:77] Creating layer conv7_2/3x3_dwconv/SE_fc1
I1026 15:23:53.969552 33565 net.cpp:86] Creating Layer conv7_2/3x3_dwconv/SE_fc1
I1026 15:23:53.969558 33565 net.cpp:409] conv7_2/3x3_dwconv/SE_fc1 <- conv7_2/3x3_dwconv/SE_bn
I1026 15:23:53.969563 33565 net.cpp:383] conv7_2/3x3_dwconv/SE_fc1 -> conv7_2/3x3_dwconv/SE_fc1
I1026 15:23:53.970672 33565 net.cpp:124] Setting up conv7_2/3x3_dwconv/SE_fc1
I1026 15:23:53.970685 33565 net.cpp:131] Top shape: 25 36 1 1 (900)
I1026 15:23:53.970690 33565 net.cpp:139] Memory required for data: 2312396600
I1026 15:23:53.970695 33565 layer_factory.hpp:77] Creating layer conv7_2/3x3_dwconv/SE_fc1/relu
I1026 15:23:53.970702 33565 net.cpp:86] Creating Layer conv7_2/3x3_dwconv/SE_fc1/relu
I1026 15:23:53.970707 33565 net.cpp:409] conv7_2/3x3_dwconv/SE_fc1/relu <- conv7_2/3x3_dwconv/SE_fc1
I1026 15:23:53.970716 33565 net.cpp:370] conv7_2/3x3_dwconv/SE_fc1/relu -> conv7_2/3x3_dwconv/SE_fc1 (in-place)
I1026 15:23:53.971485 33565 net.cpp:124] Setting up conv7_2/3x3_dwconv/SE_fc1/relu
I1026 15:23:53.971505 33565 net.cpp:131] Top shape: 25 36 1 1 (900)
I1026 15:23:53.971508 33565 net.cpp:139] Memory required for data: 2312400200
I1026 15:23:53.971513 33565 layer_factory.hpp:77] Creating layer conv7_2/3x3_dwconv/SE_fc2
I1026 15:23:53.971529 33565 net.cpp:86] Creating Layer conv7_2/3x3_dwconv/SE_fc2
I1026 15:23:53.971549 33565 net.cpp:409] conv7_2/3x3_dwconv/SE_fc2 <- conv7_2/3x3_dwconv/SE_fc1
I1026 15:23:53.971560 33565 net.cpp:383] conv7_2/3x3_dwconv/SE_fc2 -> conv7_2/3x3_dwconv/SE_fc2
I1026 15:23:53.972687 33565 net.cpp:124] Setting up conv7_2/3x3_dwconv/SE_fc2
I1026 15:23:53.972699 33565 net.cpp:131] Top shape: 25 576 1 1 (14400)
I1026 15:23:53.972703 33565 net.cpp:139] Memory required for data: 2312457800
I1026 15:23:53.972709 33565 layer_factory.hpp:77] Creating layer conv7_2/3x3_dwconv/SE_weights
I1026 15:23:53.972717 33565 net.cpp:86] Creating Layer conv7_2/3x3_dwconv/SE_weights
I1026 15:23:53.972721 33565 net.cpp:409] conv7_2/3x3_dwconv/SE_weights <- conv7_2/3x3_dwconv/SE_fc2
I1026 15:23:53.972728 33565 net.cpp:370] conv7_2/3x3_dwconv/SE_weights -> conv7_2/3x3_dwconv/SE_fc2 (in-place)
I1026 15:23:53.973624 33565 net.cpp:124] Setting up conv7_2/3x3_dwconv/SE_weights
I1026 15:23:53.973639 33565 net.cpp:131] Top shape: 25 576 1 1 (14400)
I1026 15:23:53.973644 33565 net.cpp:139] Memory required for data: 2312515400
I1026 15:23:53.973647 33565 layer_factory.hpp:77] Creating layer conv7_2/3x3_dwconv/SE_weights/reshape
I1026 15:23:53.973659 33565 net.cpp:86] Creating Layer conv7_2/3x3_dwconv/SE_weights/reshape
I1026 15:23:53.973664 33565 net.cpp:409] conv7_2/3x3_dwconv/SE_weights/reshape <- conv7_2/3x3_dwconv/SE_fc2
I1026 15:23:53.973670 33565 net.cpp:383] conv7_2/3x3_dwconv/SE_weights/reshape -> conv7_2/3x3_dwconv/SE_weights/reshape
I1026 15:23:53.973716 33565 net.cpp:124] Setting up conv7_2/3x3_dwconv/SE_weights/reshape
I1026 15:23:53.973723 33565 net.cpp:131] Top shape: 25 576 (14400)
I1026 15:23:53.973727 33565 net.cpp:139] Memory required for data: 2312573000
I1026 15:23:53.973731 33565 layer_factory.hpp:77] Creating layer conv7_2/3x3_dwconv/scale
I1026 15:23:53.973740 33565 net.cpp:86] Creating Layer conv7_2/3x3_dwconv/scale
I1026 15:23:53.973744 33565 net.cpp:409] conv7_2/3x3_dwconv/scale <- conv7_2/3x3_dwconv/concat_conv7_2/3x3_dwconv/concat_fixed_point_0_split_1
I1026 15:23:53.973749 33565 net.cpp:409] conv7_2/3x3_dwconv/scale <- conv7_2/3x3_dwconv/SE_weights/reshape
I1026 15:23:53.973758 33565 net.cpp:383] conv7_2/3x3_dwconv/scale -> conv7_2/3x3_dwconv/scale
I1026 15:23:53.973866 33565 net.cpp:124] Setting up conv7_2/3x3_dwconv/scale
I1026 15:23:53.973875 33565 net.cpp:131] Top shape: 25 576 7 7 (705600)
I1026 15:23:53.973878 33565 net.cpp:139] Memory required for data: 2315395400
I1026 15:23:53.973881 33565 layer_factory.hpp:77] Creating layer conv7_2/3x3_dwconv/scale_fixed_point
I1026 15:23:53.973892 33565 net.cpp:86] Creating Layer conv7_2/3x3_dwconv/scale_fixed_point
I1026 15:23:53.973897 33565 net.cpp:409] conv7_2/3x3_dwconv/scale_fixed_point <- conv7_2/3x3_dwconv/scale
I1026 15:23:53.973902 33565 net.cpp:370] conv7_2/3x3_dwconv/scale_fixed_point -> conv7_2/3x3_dwconv/scale (in-place)
I1026 15:23:53.973938 33565 net.cpp:124] Setting up conv7_2/3x3_dwconv/scale_fixed_point
I1026 15:23:53.973944 33565 net.cpp:131] Top shape: 25 576 7 7 (705600)
I1026 15:23:53.973948 33565 net.cpp:139] Memory required for data: 2318217800
I1026 15:23:53.973953 33565 layer_factory.hpp:77] Creating layer conv7_2/1x1_decrease
I1026 15:23:53.973965 33565 net.cpp:86] Creating Layer conv7_2/1x1_decrease
I1026 15:23:53.973970 33565 net.cpp:409] conv7_2/1x1_decrease <- conv7_2/3x3_dwconv/scale
I1026 15:23:53.973975 33565 net.cpp:383] conv7_2/1x1_decrease -> conv7_2/1x1_decrease/bn
I1026 15:23:53.979620 33565 net.cpp:124] Setting up conv7_2/1x1_decrease
I1026 15:23:53.979647 33565 net.cpp:131] Top shape: 25 192 7 7 (235200)
I1026 15:23:53.979651 33565 net.cpp:139] Memory required for data: 2319158600
I1026 15:23:53.979660 33565 layer_factory.hpp:77] Creating layer conv7_2/elt_sum
I1026 15:23:53.979668 33565 net.cpp:86] Creating Layer conv7_2/elt_sum
I1026 15:23:53.979673 33565 net.cpp:409] conv7_2/elt_sum <- conv7_1/elt_sum_conv7_1/elt_sum_fixed_point_0_split_1
I1026 15:23:53.979679 33565 net.cpp:409] conv7_2/elt_sum <- conv7_2/1x1_decrease/bn
I1026 15:23:53.979688 33565 net.cpp:383] conv7_2/elt_sum -> conv7_2/elt_sum
I1026 15:23:53.979746 33565 net.cpp:124] Setting up conv7_2/elt_sum
I1026 15:23:53.979755 33565 net.cpp:131] Top shape: 25 192 7 7 (235200)
I1026 15:23:53.979758 33565 net.cpp:139] Memory required for data: 2320099400
I1026 15:23:53.979763 33565 layer_factory.hpp:77] Creating layer conv7_2/elt_sum_fixed_point
I1026 15:23:53.979773 33565 net.cpp:86] Creating Layer conv7_2/elt_sum_fixed_point
I1026 15:23:53.979777 33565 net.cpp:409] conv7_2/elt_sum_fixed_point <- conv7_2/elt_sum
I1026 15:23:53.979785 33565 net.cpp:370] conv7_2/elt_sum_fixed_point -> conv7_2/elt_sum (in-place)
I1026 15:23:53.979828 33565 net.cpp:124] Setting up conv7_2/elt_sum_fixed_point
I1026 15:23:53.979835 33565 net.cpp:131] Top shape: 25 192 7 7 (235200)
I1026 15:23:53.979838 33565 net.cpp:139] Memory required for data: 2321040200
I1026 15:23:53.979845 33565 layer_factory.hpp:77] Creating layer conv8_0/1x1_increase
I1026 15:23:53.979856 33565 net.cpp:86] Creating Layer conv8_0/1x1_increase
I1026 15:23:53.979861 33565 net.cpp:409] conv8_0/1x1_increase <- conv7_2/elt_sum
I1026 15:23:53.979869 33565 net.cpp:383] conv8_0/1x1_increase -> conv8_0/1x1_increase/bn
I1026 15:23:53.987190 33565 net.cpp:124] Setting up conv8_0/1x1_increase
I1026 15:23:53.987205 33565 net.cpp:131] Top shape: 25 1152 7 7 (1411200)
I1026 15:23:53.987208 33565 net.cpp:139] Memory required for data: 2326685000
I1026 15:23:53.987216 33565 layer_factory.hpp:77] Creating layer conv8_0/1x1_increase/hardswish
I1026 15:23:53.987228 33565 net.cpp:86] Creating Layer conv8_0/1x1_increase/hardswish
I1026 15:23:53.987236 33565 net.cpp:409] conv8_0/1x1_increase/hardswish <- conv8_0/1x1_increase/bn
I1026 15:23:53.987241 33565 net.cpp:370] conv8_0/1x1_increase/hardswish -> conv8_0/1x1_increase/bn (in-place)
I1026 15:23:53.987282 33565 net.cpp:124] Setting up conv8_0/1x1_increase/hardswish
I1026 15:23:53.987289 33565 net.cpp:131] Top shape: 25 1152 7 7 (1411200)
I1026 15:23:53.987293 33565 net.cpp:139] Memory required for data: 2332329800
I1026 15:23:53.987296 33565 layer_factory.hpp:77] Creating layer conv8_0/1x1_increase/bn_fixed_point
I1026 15:23:53.987308 33565 net.cpp:86] Creating Layer conv8_0/1x1_increase/bn_fixed_point
I1026 15:23:53.987314 33565 net.cpp:409] conv8_0/1x1_increase/bn_fixed_point <- conv8_0/1x1_increase/bn
I1026 15:23:53.987323 33565 net.cpp:370] conv8_0/1x1_increase/bn_fixed_point -> conv8_0/1x1_increase/bn (in-place)
I1026 15:23:53.987354 33565 net.cpp:124] Setting up conv8_0/1x1_increase/bn_fixed_point
I1026 15:23:53.987361 33565 net.cpp:131] Top shape: 25 1152 7 7 (1411200)
I1026 15:23:53.987365 33565 net.cpp:139] Memory required for data: 2337974600
I1026 15:23:53.987371 33565 layer_factory.hpp:77] Creating layer conv8_0/1x1_increase/slice
I1026 15:23:53.987381 33565 net.cpp:86] Creating Layer conv8_0/1x1_increase/slice
I1026 15:23:53.987385 33565 net.cpp:409] conv8_0/1x1_increase/slice <- conv8_0/1x1_increase/bn
I1026 15:23:53.987391 33565 net.cpp:383] conv8_0/1x1_increase/slice -> conv8_0/1x1_increase/split1
I1026 15:23:53.987403 33565 net.cpp:383] conv8_0/1x1_increase/slice -> conv8_0/1x1_increase/split2
I1026 15:23:53.987411 33565 net.cpp:383] conv8_0/1x1_increase/slice -> conv8_0/1x1_increase/split3
I1026 15:23:53.987483 33565 net.cpp:124] Setting up conv8_0/1x1_increase/slice
I1026 15:23:53.987490 33565 net.cpp:131] Top shape: 25 384 7 7 (470400)
I1026 15:23:53.987494 33565 net.cpp:131] Top shape: 25 384 7 7 (470400)
I1026 15:23:53.987498 33565 net.cpp:131] Top shape: 25 384 7 7 (470400)
I1026 15:23:53.987501 33565 net.cpp:139] Memory required for data: 2343619400
I1026 15:23:53.987505 33565 layer_factory.hpp:77] Creating layer conv8_0/3x3_dwconv/slice_0
I1026 15:23:53.987521 33565 net.cpp:86] Creating Layer conv8_0/3x3_dwconv/slice_0
I1026 15:23:53.987527 33565 net.cpp:409] conv8_0/3x3_dwconv/slice_0 <- conv8_0/1x1_increase/split1
I1026 15:23:53.987535 33565 net.cpp:383] conv8_0/3x3_dwconv/slice_0 -> conv8_0/3x3_dwconv/slice_0/bn
I1026 15:23:53.988343 33565 net.cpp:124] Setting up conv8_0/3x3_dwconv/slice_0
I1026 15:23:53.988358 33565 net.cpp:131] Top shape: 25 384 7 7 (470400)
I1026 15:23:53.988374 33565 net.cpp:139] Memory required for data: 2345501000
I1026 15:23:53.988384 33565 layer_factory.hpp:77] Creating layer conv8_0/3x3_dwconv/slice_0/hardswish
I1026 15:23:53.988391 33565 net.cpp:86] Creating Layer conv8_0/3x3_dwconv/slice_0/hardswish
I1026 15:23:53.988396 33565 net.cpp:409] conv8_0/3x3_dwconv/slice_0/hardswish <- conv8_0/3x3_dwconv/slice_0/bn
I1026 15:23:53.988405 33565 net.cpp:370] conv8_0/3x3_dwconv/slice_0/hardswish -> conv8_0/3x3_dwconv/slice_0/bn (in-place)
I1026 15:23:53.988446 33565 net.cpp:124] Setting up conv8_0/3x3_dwconv/slice_0/hardswish
I1026 15:23:53.988454 33565 net.cpp:131] Top shape: 25 384 7 7 (470400)
I1026 15:23:53.988457 33565 net.cpp:139] Memory required for data: 2347382600
I1026 15:23:53.988463 33565 layer_factory.hpp:77] Creating layer conv8_0/3x3_dwconv/slice_1
I1026 15:23:53.988476 33565 net.cpp:86] Creating Layer conv8_0/3x3_dwconv/slice_1
I1026 15:23:53.988481 33565 net.cpp:409] conv8_0/3x3_dwconv/slice_1 <- conv8_0/1x1_increase/split2
I1026 15:23:53.988490 33565 net.cpp:383] conv8_0/3x3_dwconv/slice_1 -> conv8_0/3x3_dwconv/slice_1/bn
I1026 15:23:53.989691 33565 net.cpp:124] Setting up conv8_0/3x3_dwconv/slice_1
I1026 15:23:53.989706 33565 net.cpp:131] Top shape: 25 384 7 7 (470400)
I1026 15:23:53.989709 33565 net.cpp:139] Memory required for data: 2349264200
I1026 15:23:53.989717 33565 layer_factory.hpp:77] Creating layer conv8_0/3x3_dwconv/slice_1/hardswish
I1026 15:23:53.989729 33565 net.cpp:86] Creating Layer conv8_0/3x3_dwconv/slice_1/hardswish
I1026 15:23:53.989735 33565 net.cpp:409] conv8_0/3x3_dwconv/slice_1/hardswish <- conv8_0/3x3_dwconv/slice_1/bn
I1026 15:23:53.989742 33565 net.cpp:370] conv8_0/3x3_dwconv/slice_1/hardswish -> conv8_0/3x3_dwconv/slice_1/bn (in-place)
I1026 15:23:53.989785 33565 net.cpp:124] Setting up conv8_0/3x3_dwconv/slice_1/hardswish
I1026 15:23:53.989794 33565 net.cpp:131] Top shape: 25 384 7 7 (470400)
I1026 15:23:53.989796 33565 net.cpp:139] Memory required for data: 2351145800
I1026 15:23:53.989800 33565 layer_factory.hpp:77] Creating layer conv8_0/3x3_dwconv/slice_2
I1026 15:23:53.989818 33565 net.cpp:86] Creating Layer conv8_0/3x3_dwconv/slice_2
I1026 15:23:53.989825 33565 net.cpp:409] conv8_0/3x3_dwconv/slice_2 <- conv8_0/1x1_increase/split3
I1026 15:23:53.989831 33565 net.cpp:383] conv8_0/3x3_dwconv/slice_2 -> conv8_0/3x3_dwconv/slice_2/bn
I1026 15:23:53.991310 33565 net.cpp:124] Setting up conv8_0/3x3_dwconv/slice_2
I1026 15:23:53.991328 33565 net.cpp:131] Top shape: 25 384 7 7 (470400)
I1026 15:23:53.991333 33565 net.cpp:139] Memory required for data: 2353027400
I1026 15:23:53.991339 33565 layer_factory.hpp:77] Creating layer conv8_0/3x3_dwconv/slice_2/hardswish
I1026 15:23:53.991346 33565 net.cpp:86] Creating Layer conv8_0/3x3_dwconv/slice_2/hardswish
I1026 15:23:53.991351 33565 net.cpp:409] conv8_0/3x3_dwconv/slice_2/hardswish <- conv8_0/3x3_dwconv/slice_2/bn
I1026 15:23:53.991356 33565 net.cpp:370] conv8_0/3x3_dwconv/slice_2/hardswish -> conv8_0/3x3_dwconv/slice_2/bn (in-place)
I1026 15:23:53.991400 33565 net.cpp:124] Setting up conv8_0/3x3_dwconv/slice_2/hardswish
I1026 15:23:53.991407 33565 net.cpp:131] Top shape: 25 384 7 7 (470400)
I1026 15:23:53.991410 33565 net.cpp:139] Memory required for data: 2354909000
I1026 15:23:53.991415 33565 layer_factory.hpp:77] Creating layer conv8_0/3x3_dwconv/concat
I1026 15:23:53.991422 33565 net.cpp:86] Creating Layer conv8_0/3x3_dwconv/concat
I1026 15:23:53.991426 33565 net.cpp:409] conv8_0/3x3_dwconv/concat <- conv8_0/3x3_dwconv/slice_0/bn
I1026 15:23:53.991433 33565 net.cpp:409] conv8_0/3x3_dwconv/concat <- conv8_0/3x3_dwconv/slice_1/bn
I1026 15:23:53.991437 33565 net.cpp:409] conv8_0/3x3_dwconv/concat <- conv8_0/3x3_dwconv/slice_2/bn
I1026 15:23:53.991442 33565 net.cpp:383] conv8_0/3x3_dwconv/concat -> conv8_0/3x3_dwconv/concat
I1026 15:23:53.991474 33565 net.cpp:124] Setting up conv8_0/3x3_dwconv/concat
I1026 15:23:53.991480 33565 net.cpp:131] Top shape: 25 1152 7 7 (1411200)
I1026 15:23:53.991483 33565 net.cpp:139] Memory required for data: 2360553800
I1026 15:23:53.991500 33565 layer_factory.hpp:77] Creating layer conv8_0/3x3_dwconv/concat_fixed_point
I1026 15:23:53.991511 33565 net.cpp:86] Creating Layer conv8_0/3x3_dwconv/concat_fixed_point
I1026 15:23:53.991515 33565 net.cpp:409] conv8_0/3x3_dwconv/concat_fixed_point <- conv8_0/3x3_dwconv/concat
I1026 15:23:53.991523 33565 net.cpp:370] conv8_0/3x3_dwconv/concat_fixed_point -> conv8_0/3x3_dwconv/concat (in-place)
I1026 15:23:53.991557 33565 net.cpp:124] Setting up conv8_0/3x3_dwconv/concat_fixed_point
I1026 15:23:53.991564 33565 net.cpp:131] Top shape: 25 1152 7 7 (1411200)
I1026 15:23:53.991566 33565 net.cpp:139] Memory required for data: 2366198600
I1026 15:23:53.991571 33565 layer_factory.hpp:77] Creating layer conv8_0/3x3_dwconv/concat_conv8_0/3x3_dwconv/concat_fixed_point_0_split
I1026 15:23:53.991582 33565 net.cpp:86] Creating Layer conv8_0/3x3_dwconv/concat_conv8_0/3x3_dwconv/concat_fixed_point_0_split
I1026 15:23:53.991586 33565 net.cpp:409] conv8_0/3x3_dwconv/concat_conv8_0/3x3_dwconv/concat_fixed_point_0_split <- conv8_0/3x3_dwconv/concat
I1026 15:23:53.991590 33565 net.cpp:383] conv8_0/3x3_dwconv/concat_conv8_0/3x3_dwconv/concat_fixed_point_0_split -> conv8_0/3x3_dwconv/concat_conv8_0/3x3_dwconv/concat_fixed_point_0_split_0
I1026 15:23:53.991597 33565 net.cpp:383] conv8_0/3x3_dwconv/concat_conv8_0/3x3_dwconv/concat_fixed_point_0_split -> conv8_0/3x3_dwconv/concat_conv8_0/3x3_dwconv/concat_fixed_point_0_split_1
I1026 15:23:53.991649 33565 net.cpp:124] Setting up conv8_0/3x3_dwconv/concat_conv8_0/3x3_dwconv/concat_fixed_point_0_split
I1026 15:23:53.991657 33565 net.cpp:131] Top shape: 25 1152 7 7 (1411200)
I1026 15:23:53.991662 33565 net.cpp:131] Top shape: 25 1152 7 7 (1411200)
I1026 15:23:53.991664 33565 net.cpp:139] Memory required for data: 2377488200
I1026 15:23:53.991668 33565 layer_factory.hpp:77] Creating layer conv8_0/3x3_dwconv/SE_global_pool
I1026 15:23:53.991678 33565 net.cpp:86] Creating Layer conv8_0/3x3_dwconv/SE_global_pool
I1026 15:23:53.991704 33565 net.cpp:409] conv8_0/3x3_dwconv/SE_global_pool <- conv8_0/3x3_dwconv/concat_conv8_0/3x3_dwconv/concat_fixed_point_0_split_0
I1026 15:23:53.991714 33565 net.cpp:383] conv8_0/3x3_dwconv/SE_global_pool -> conv8_0/3x3_dwconv/SE_global_pool
I1026 15:23:53.991755 33565 net.cpp:124] Setting up conv8_0/3x3_dwconv/SE_global_pool
I1026 15:23:53.991762 33565 net.cpp:131] Top shape: 25 1152 1 1 (28800)
I1026 15:23:53.991766 33565 net.cpp:139] Memory required for data: 2377603400
I1026 15:23:53.991770 33565 layer_factory.hpp:77] Creating layer conv8_0/3x3_dwconv/SE_bn
I1026 15:23:53.991780 33565 net.cpp:86] Creating Layer conv8_0/3x3_dwconv/SE_bn
I1026 15:23:53.991786 33565 net.cpp:409] conv8_0/3x3_dwconv/SE_bn <- conv8_0/3x3_dwconv/SE_global_pool
I1026 15:23:53.991792 33565 net.cpp:383] conv8_0/3x3_dwconv/SE_bn -> conv8_0/3x3_dwconv/SE_bn
I1026 15:23:53.991854 33565 layer_factory.hpp:77] Creating layer conv8_0/3x3_dwconv/SE_bn
I1026 15:23:53.992017 33565 net.cpp:124] Setting up conv8_0/3x3_dwconv/SE_bn
I1026 15:23:53.992024 33565 net.cpp:131] Top shape: 25 1152 1 1 (28800)
I1026 15:23:53.992027 33565 net.cpp:139] Memory required for data: 2377718600
I1026 15:23:53.992034 33565 layer_factory.hpp:77] Creating layer conv8_0/3x3_dwconv/SE_fc1
I1026 15:23:53.992044 33565 net.cpp:86] Creating Layer conv8_0/3x3_dwconv/SE_fc1
I1026 15:23:53.992050 33565 net.cpp:409] conv8_0/3x3_dwconv/SE_fc1 <- conv8_0/3x3_dwconv/SE_bn
I1026 15:23:53.992056 33565 net.cpp:383] conv8_0/3x3_dwconv/SE_fc1 -> conv8_0/3x3_dwconv/SE_fc1
I1026 15:23:53.995038 33565 net.cpp:124] Setting up conv8_0/3x3_dwconv/SE_fc1
I1026 15:23:53.995052 33565 net.cpp:131] Top shape: 25 72 1 1 (1800)
I1026 15:23:53.995056 33565 net.cpp:139] Memory required for data: 2377725800
I1026 15:23:53.995062 33565 layer_factory.hpp:77] Creating layer conv8_0/3x3_dwconv/SE_fc1/relu
I1026 15:23:53.995069 33565 net.cpp:86] Creating Layer conv8_0/3x3_dwconv/SE_fc1/relu
I1026 15:23:53.995074 33565 net.cpp:409] conv8_0/3x3_dwconv/SE_fc1/relu <- conv8_0/3x3_dwconv/SE_fc1
I1026 15:23:53.995079 33565 net.cpp:370] conv8_0/3x3_dwconv/SE_fc1/relu -> conv8_0/3x3_dwconv/SE_fc1 (in-place)
I1026 15:23:53.995843 33565 net.cpp:124] Setting up conv8_0/3x3_dwconv/SE_fc1/relu
I1026 15:23:53.995857 33565 net.cpp:131] Top shape: 25 72 1 1 (1800)
I1026 15:23:53.995862 33565 net.cpp:139] Memory required for data: 2377733000
I1026 15:23:53.995867 33565 layer_factory.hpp:77] Creating layer conv8_0/3x3_dwconv/SE_fc2
I1026 15:23:53.995880 33565 net.cpp:86] Creating Layer conv8_0/3x3_dwconv/SE_fc2
I1026 15:23:53.995887 33565 net.cpp:409] conv8_0/3x3_dwconv/SE_fc2 <- conv8_0/3x3_dwconv/SE_fc1
I1026 15:23:53.995903 33565 net.cpp:383] conv8_0/3x3_dwconv/SE_fc2 -> conv8_0/3x3_dwconv/SE_fc2
I1026 15:23:53.998955 33565 net.cpp:124] Setting up conv8_0/3x3_dwconv/SE_fc2
I1026 15:23:53.998970 33565 net.cpp:131] Top shape: 25 1152 1 1 (28800)
I1026 15:23:53.998972 33565 net.cpp:139] Memory required for data: 2377848200
I1026 15:23:53.998980 33565 layer_factory.hpp:77] Creating layer conv8_0/3x3_dwconv/SE_weights
I1026 15:23:53.998986 33565 net.cpp:86] Creating Layer conv8_0/3x3_dwconv/SE_weights
I1026 15:23:53.998991 33565 net.cpp:409] conv8_0/3x3_dwconv/SE_weights <- conv8_0/3x3_dwconv/SE_fc2
I1026 15:23:53.998996 33565 net.cpp:370] conv8_0/3x3_dwconv/SE_weights -> conv8_0/3x3_dwconv/SE_fc2 (in-place)
I1026 15:23:53.999672 33565 net.cpp:124] Setting up conv8_0/3x3_dwconv/SE_weights
I1026 15:23:53.999687 33565 net.cpp:131] Top shape: 25 1152 1 1 (28800)
I1026 15:23:53.999692 33565 net.cpp:139] Memory required for data: 2377963400
I1026 15:23:53.999697 33565 layer_factory.hpp:77] Creating layer conv8_0/3x3_dwconv/SE_weights/reshape
I1026 15:23:53.999704 33565 net.cpp:86] Creating Layer conv8_0/3x3_dwconv/SE_weights/reshape
I1026 15:23:53.999709 33565 net.cpp:409] conv8_0/3x3_dwconv/SE_weights/reshape <- conv8_0/3x3_dwconv/SE_fc2
I1026 15:23:53.999718 33565 net.cpp:383] conv8_0/3x3_dwconv/SE_weights/reshape -> conv8_0/3x3_dwconv/SE_weights/reshape
I1026 15:23:53.999761 33565 net.cpp:124] Setting up conv8_0/3x3_dwconv/SE_weights/reshape
I1026 15:23:53.999768 33565 net.cpp:131] Top shape: 25 1152 (28800)
I1026 15:23:53.999773 33565 net.cpp:139] Memory required for data: 2378078600
I1026 15:23:53.999775 33565 layer_factory.hpp:77] Creating layer conv8_0/3x3_dwconv/scale
I1026 15:23:53.999788 33565 net.cpp:86] Creating Layer conv8_0/3x3_dwconv/scale
I1026 15:23:53.999794 33565 net.cpp:409] conv8_0/3x3_dwconv/scale <- conv8_0/3x3_dwconv/concat_conv8_0/3x3_dwconv/concat_fixed_point_0_split_1
I1026 15:23:53.999799 33565 net.cpp:409] conv8_0/3x3_dwconv/scale <- conv8_0/3x3_dwconv/SE_weights/reshape
I1026 15:23:53.999810 33565 net.cpp:383] conv8_0/3x3_dwconv/scale -> conv8_0/3x3_dwconv/scale
I1026 15:23:53.999920 33565 net.cpp:124] Setting up conv8_0/3x3_dwconv/scale
I1026 15:23:53.999928 33565 net.cpp:131] Top shape: 25 1152 7 7 (1411200)
I1026 15:23:53.999931 33565 net.cpp:139] Memory required for data: 2383723400
I1026 15:23:53.999935 33565 layer_factory.hpp:77] Creating layer conv8_0/3x3_dwconv/scale_fixed_point
I1026 15:23:53.999943 33565 net.cpp:86] Creating Layer conv8_0/3x3_dwconv/scale_fixed_point
I1026 15:23:53.999946 33565 net.cpp:409] conv8_0/3x3_dwconv/scale_fixed_point <- conv8_0/3x3_dwconv/scale
I1026 15:23:53.999954 33565 net.cpp:370] conv8_0/3x3_dwconv/scale_fixed_point -> conv8_0/3x3_dwconv/scale (in-place)
I1026 15:23:53.999987 33565 net.cpp:124] Setting up conv8_0/3x3_dwconv/scale_fixed_point
I1026 15:23:53.999994 33565 net.cpp:131] Top shape: 25 1152 7 7 (1411200)
I1026 15:23:53.999996 33565 net.cpp:139] Memory required for data: 2389368200
I1026 15:23:54.000002 33565 layer_factory.hpp:77] Creating layer conv8_0/1x1_decrease
I1026 15:23:54.000025 33565 net.cpp:86] Creating Layer conv8_0/1x1_decrease
I1026 15:23:54.000030 33565 net.cpp:409] conv8_0/1x1_decrease <- conv8_0/3x3_dwconv/scale
I1026 15:23:54.000036 33565 net.cpp:383] conv8_0/1x1_decrease -> conv8_0/1x1_decrease/bn
I1026 15:23:54.013321 33565 net.cpp:124] Setting up conv8_0/1x1_decrease
I1026 15:23:54.013337 33565 net.cpp:131] Top shape: 25 320 7 7 (392000)
I1026 15:23:54.013356 33565 net.cpp:139] Memory required for data: 2390936200
I1026 15:23:54.013366 33565 layer_factory.hpp:77] Creating layer conv8_0/1x1_decrease/bn_fixed_point
I1026 15:23:54.013376 33565 net.cpp:86] Creating Layer conv8_0/1x1_decrease/bn_fixed_point
I1026 15:23:54.013381 33565 net.cpp:409] conv8_0/1x1_decrease/bn_fixed_point <- conv8_0/1x1_decrease/bn
I1026 15:23:54.013391 33565 net.cpp:370] conv8_0/1x1_decrease/bn_fixed_point -> conv8_0/1x1_decrease/bn (in-place)
I1026 15:23:54.013438 33565 net.cpp:124] Setting up conv8_0/1x1_decrease/bn_fixed_point
I1026 15:23:54.013444 33565 net.cpp:131] Top shape: 25 320 7 7 (392000)
I1026 15:23:54.013447 33565 net.cpp:139] Memory required for data: 2392504200
I1026 15:23:54.013453 33565 layer_factory.hpp:77] Creating layer conv9/1x1
I1026 15:23:54.013464 33565 net.cpp:86] Creating Layer conv9/1x1
I1026 15:23:54.013469 33565 net.cpp:409] conv9/1x1 <- conv8_0/1x1_decrease/bn
I1026 15:23:54.013474 33565 net.cpp:383] conv9/1x1 -> conv9/1x1/bn
I1026 15:23:54.028067 33565 net.cpp:124] Setting up conv9/1x1
I1026 15:23:54.028084 33565 net.cpp:131] Top shape: 25 1280 7 7 (1568000)
I1026 15:23:54.028087 33565 net.cpp:139] Memory required for data: 2398776200
I1026 15:23:54.028095 33565 layer_factory.hpp:77] Creating layer conv9/1x1/relu
I1026 15:23:54.028102 33565 net.cpp:86] Creating Layer conv9/1x1/relu
I1026 15:23:54.028107 33565 net.cpp:409] conv9/1x1/relu <- conv9/1x1/bn
I1026 15:23:54.028112 33565 net.cpp:370] conv9/1x1/relu -> conv9/1x1/bn (in-place)
I1026 15:23:54.029038 33565 net.cpp:124] Setting up conv9/1x1/relu
I1026 15:23:54.029054 33565 net.cpp:131] Top shape: 25 1280 7 7 (1568000)
I1026 15:23:54.029059 33565 net.cpp:139] Memory required for data: 2405048200
I1026 15:23:54.029063 33565 layer_factory.hpp:77] Creating layer conv9/1x1/bn_fixed_point
I1026 15:23:54.029076 33565 net.cpp:86] Creating Layer conv9/1x1/bn_fixed_point
I1026 15:23:54.029083 33565 net.cpp:409] conv9/1x1/bn_fixed_point <- conv9/1x1/bn
I1026 15:23:54.029093 33565 net.cpp:370] conv9/1x1/bn_fixed_point -> conv9/1x1/bn (in-place)
I1026 15:23:54.029136 33565 net.cpp:124] Setting up conv9/1x1/bn_fixed_point
I1026 15:23:54.029143 33565 net.cpp:131] Top shape: 25 1280 7 7 (1568000)
I1026 15:23:54.029147 33565 net.cpp:139] Memory required for data: 2411320200
I1026 15:23:54.029152 33565 layer_factory.hpp:77] Creating layer avepool/7x7
I1026 15:23:54.029162 33565 net.cpp:86] Creating Layer avepool/7x7
I1026 15:23:54.029168 33565 net.cpp:409] avepool/7x7 <- conv9/1x1/bn
I1026 15:23:54.029175 33565 net.cpp:383] avepool/7x7 -> avepool/7x7
I1026 15:23:54.029911 33565 net.cpp:124] Setting up avepool/7x7
I1026 15:23:54.029925 33565 net.cpp:131] Top shape: 25 1280 1 1 (32000)
I1026 15:23:54.029929 33565 net.cpp:139] Memory required for data: 2411448200
I1026 15:23:54.029933 33565 layer_factory.hpp:77] Creating layer avepool/7x7_fixed_point
I1026 15:23:54.029944 33565 net.cpp:86] Creating Layer avepool/7x7_fixed_point
I1026 15:23:54.029948 33565 net.cpp:409] avepool/7x7_fixed_point <- avepool/7x7
I1026 15:23:54.029953 33565 net.cpp:370] avepool/7x7_fixed_point -> avepool/7x7 (in-place)
I1026 15:23:54.029992 33565 net.cpp:124] Setting up avepool/7x7_fixed_point
I1026 15:23:54.029999 33565 net.cpp:131] Top shape: 25 1280 1 1 (32000)
I1026 15:23:54.030004 33565 net.cpp:139] Memory required for data: 2411576200
I1026 15:23:54.030009 33565 layer_factory.hpp:77] Creating layer classifier
I1026 15:23:54.030021 33565 net.cpp:86] Creating Layer classifier
I1026 15:23:54.030026 33565 net.cpp:409] classifier <- avepool/7x7
I1026 15:23:54.030035 33565 net.cpp:383] classifier -> classifier
I1026 15:23:54.072787 33565 net.cpp:124] Setting up classifier
I1026 15:23:54.072811 33565 net.cpp:131] Top shape: 25 1000 1 1 (25000)
I1026 15:23:54.072816 33565 net.cpp:139] Memory required for data: 2411676200
I1026 15:23:54.072826 33565 layer_factory.hpp:77] Creating layer classifier_classifier_0_split
I1026 15:23:54.072835 33565 net.cpp:86] Creating Layer classifier_classifier_0_split
I1026 15:23:54.072840 33565 net.cpp:409] classifier_classifier_0_split <- classifier
I1026 15:23:54.072865 33565 net.cpp:383] classifier_classifier_0_split -> classifier_classifier_0_split_0
I1026 15:23:54.072876 33565 net.cpp:383] classifier_classifier_0_split -> classifier_classifier_0_split_1
I1026 15:23:54.072883 33565 net.cpp:383] classifier_classifier_0_split -> classifier_classifier_0_split_2
I1026 15:23:54.072976 33565 net.cpp:124] Setting up classifier_classifier_0_split
I1026 15:23:54.072983 33565 net.cpp:131] Top shape: 25 1000 1 1 (25000)
I1026 15:23:54.072988 33565 net.cpp:131] Top shape: 25 1000 1 1 (25000)
I1026 15:23:54.072991 33565 net.cpp:131] Top shape: 25 1000 1 1 (25000)
I1026 15:23:54.072994 33565 net.cpp:139] Memory required for data: 2411976200
I1026 15:23:54.072999 33565 layer_factory.hpp:77] Creating layer loss
I1026 15:23:54.073014 33565 net.cpp:86] Creating Layer loss
I1026 15:23:54.073019 33565 net.cpp:409] loss <- classifier_classifier_0_split_0
I1026 15:23:54.073024 33565 net.cpp:409] loss <- label_data_1_split_0
I1026 15:23:54.073029 33565 net.cpp:383] loss -> loss
…
