I0906 17:51:34.615204 27963 net.cpp:53] Initializing net from parameters: 
state {
  phase: TEST
  level: 0
}
layer {
  name: "data"
  type: "ImageData"
  top: "data"
  top: "label"
  include {
    phase: TEST
  }
  transform_param {
    crop_size: 224
    mean_value: 104
    mean_value: 117
    mean_value: 123
  }
  image_data_param {
    source: "file_lists/val.txt"
    batch_size: 50
    root_folder: "/share5/public/classification_data/imagenet1k/val/"
    short_edge: 256
  }
}
layer {
  name: "data_fixed_point"
  type: "Quantize"
  bottom: "data"
  top: "data"
  param {
    lr_mult: 0
    decay_mult: 0
  }
  quantize_param {
    precision: 8
    frozen: true
    positive: false
    tolerance: 1.3
  }
}
layer {
  name: "conv1/3x3_s2"
  type: "Convolution"
  bottom: "data"
  top: "conv1/3x3_s2/bn"
  param {
    lr_mult: 1
    decay_mult: 1
  }
  param {
    lr_mult: 2
    decay_mult: 0
  }
  convolution_param {
    num_output: 32
    bias_term: true
    pad: 1
    kernel_size: 3
    stride: 2
    weight_filler {
      type: "msra"
    }
    bias_filler {
      type: "constant"
      value: 0
    }
    engine: CAFFE
    fp16_accumulation: true
  }
  quantize_param {
    precision: 8
    channel_shared: false
  }
}
layer {
  name: "conv1/3x3_s2/relu"
  type: "ReLU"
  bottom: "conv1/3x3_s2/bn"
  top: "conv1/3x3_s2/bn"
}
layer {
  name: "conv1/3x3_s2/bn_fixed_point"
  type: "Quantize"
  bottom: "conv1/3x3_s2/bn"
  top: "conv1/3x3_s2/bn"
  param {
    lr_mult: 0
    decay_mult: 0
  }
  quantize_param {
    precision: 8
    frozen: true
    positive: true
    tolerance: 1.3
  }
}
layer {
  name: "conv2_0/3x3_dwconv"
  type: "Convolution"
  bottom: "conv1/3x3_s2/bn"
  top: "conv2_0/3x3_dwconv/bn"
  param {
    lr_mult: 1
    decay_mult: 1
  }
  param {
    lr_mult: 2
    decay_mult: 0
  }
  convolution_param {
    num_output: 32
    bias_term: true
    pad: 1
    kernel_size: 3
    group: 32
    stride: 1
    weight_filler {
      type: "msra"
    }
    bias_filler {
      type: "constant"
      value: 0
    }
    engine: CAFFE
    fp16_accumulation: true
  }
  quantize_param {
    precision: 8
    channel_shared: false
  }
}
layer {
  name: "conv2_0/3x3_dwconv/relu"
  type: "ReLU"
  bottom: "conv2_0/3x3_dwconv/bn"
  top: "conv2_0/3x3_dwconv/bn"
}
layer {
  name: "conv2_0/3x3_dwconv/bn_fixed_point"
  type: "Quantize"
  bottom: "conv2_0/3x3_dwconv/bn"
  top: "conv2_0/3x3_dwconv/bn"
  param {
    lr_mult: 0
    decay_mult: 0
  }
  quantize_param {
    precision: 8
    frozen: true
    positive: true
    tolerance: 1.3
  }
}
layer {
  name: "conv2_0/1x1_decrease"
  type: "Convolution"
  bottom: "conv2_0/3x3_dwconv/bn"
  top: "conv2_0/1x1_decrease/bn"
  param {
    lr_mult: 1
    decay_mult: 1
  }
  param {
    lr_mult: 2
    decay_mult: 0
  }
  convolution_param {
    num_output: 16
    bias_term: true
    kernel_size: 1
    stride: 1
    weight_filler {
      type: "msra"
    }
    bias_filler {
      type: "constant"
      value: 0
    }
    engine: CAFFE
    fp16_accumulation: true
  }
  quantize_param {
    precision: 8
    channel_shared: false
  }
}
layer {
  name: "conv2_0/1x1_decrease/bn_fixed_point"
  type: "Quantize"
  bottom: "conv2_0/1x1_decrease/bn"
  top: "conv2_0/1x1_decrease/bn"
  param {
    lr_mult: 0
    decay_mult: 0
  }
  quantize_param {
    precision: 8
    frozen: true
    positive: false
    tolerance: 1.3
  }
}
layer {
  name: "conv3_0/1x1_increase"
  type: "Convolution"
  bottom: "conv2_0/1x1_decrease/bn"
  top: "conv3_0/1x1_increase/bn"
  param {
    lr_mult: 1
    decay_mult: 1
  }
  param {
    lr_mult: 2
    decay_mult: 0
  }
  convolution_param {
    num_output: 48
    bias_term: true
    kernel_size: 1
    stride: 1
    weight_filler {
      type: "msra"
    }
    bias_filler {
      type: "constant"
      value: 0
    }
    engine: CAFFE
    fp16_accumulation: true
  }
  quantize_param {
    precision: 8
    channel_shared: false
  }
}
layer {
  name: "conv3_0/1x1_increase/relu"
  type: "ReLU"
  bottom: "conv3_0/1x1_increase/bn"
  top: "conv3_0/1x1_increase/bn"
}
layer {
  name: "conv3_0/1x1_increase/bn_fixed_point"
  type: "Quantize"
  bottom: "conv3_0/1x1_increase/bn"
  top: "conv3_0/1x1_increase/bn"
  param {
    lr_mult: 0
    decay_mult: 0
  }
  quantize_param {
    precision: 8
    frozen: true
    positive: true
    tolerance: 1.3
  }
}
layer {
  name: "conv3_0/3x3_dwconv"
  type: "Convolution"
  bottom: "conv3_0/1x1_increase/bn"
  top: "conv3_0/3x3_dwconv/bn"
  param {
    lr_mult: 1
    decay_mult: 1
  }
  param {
    lr_mult: 2
    decay_mult: 0
  }
  convolution_param {
    num_output: 48
    bias_term: true
    pad: 2
    kernel_size: 5
    group: 48
    stride: 2
    weight_filler {
      type: "msra"
    }
    bias_filler {
      type: "constant"
      value: 0
    }
    engine: CAFFE
    fp16_accumulation: true
  }
  quantize_param {
    precision: 8
    channel_shared: false
  }
}
layer {
  name: "conv3_0/3x3_dwconv/relu"
  type: "ReLU"
  bottom: "conv3_0/3x3_dwconv/bn"
  top: "conv3_0/3x3_dwconv/bn"
}
layer {
  name: "conv3_0/3x3_dwconv/bn_fixed_point"
  type: "Quantize"
  bottom: "conv3_0/3x3_dwconv/bn"
  top: "conv3_0/3x3_dwconv/bn"
  param {
    lr_mult: 0
    decay_mult: 0
  }
  quantize_param {
    precision: 8
    frozen: true
    positive: true
    tolerance: 1.3
  }
}
layer {
  name: "conv3_0/1x1_decrease"
  type: "Convolution"
  bottom: "conv3_0/3x3_dwconv/bn"
  top: "conv3_0/1x1_decrease/bn"
  param {
    lr_mult: 1
    decay_mult: 1
  }
  param {
    lr_mult: 2
    decay_mult: 0
  }
  convolution_param {
    num_output: 32
    bias_term: true
    kernel_size: 1
    stride: 1
    weight_filler {
      type: "msra"
    }
    bias_filler {
      type: "constant"
      value: 0
    }
    engine: CAFFE
    fp16_accumulation: true
  }
  quantize_param {
    precision: 8
    channel_shared: false
  }
}
layer {
  name: "conv3_0/1x1_decrease/bn_fixed_point"
  type: "Quantize"
  bottom: "conv3_0/1x1_decrease/bn"
  top: "conv3_0/1x1_decrease/bn"
  param {
    lr_mult: 0
    decay_mult: 0
  }
  quantize_param {
    precision: 8
    frozen: true
    positive: false
    tolerance: 1.3
  }
}
layer {
  name: "conv3_1/1x1_increase"
  type: "Convolution"
  bottom: "conv3_0/1x1_decrease/bn"
  top: "conv3_1/1x1_increase/bn"
  param {
    lr_mult: 1
    decay_mult: 1
  }
  param {
    lr_mult: 2
    decay_mult: 0
  }
  convolution_param {
    num_output: 96
    bias_term: true
    kernel_size: 1
    stride: 1
    weight_filler {
      type: "msra"
    }
    bias_filler {
      type: "constant"
      value: 0
    }
    engine: CAFFE
    fp16_accumulation: true
  }
  quantize_param {
    precision: 8
    channel_shared: false
  }
}
layer {
  name: "conv3_1/1x1_increase/relu"
  type: "ReLU"
  bottom: "conv3_1/1x1_increase/bn"
  top: "conv3_1/1x1_increase/bn"
}
layer {
  name: "conv3_1/1x1_increase/bn_fixed_point"
  type: "Quantize"
  bottom: "conv3_1/1x1_increase/bn"
  top: "conv3_1/1x1_increase/bn"
  param {
    lr_mult: 0
    decay_mult: 0
  }
  quantize_param {
    precision: 8
    frozen: true
    positive: true
    tolerance: 1.3
  }
}
layer {
  name: "conv3_1/3x3_dwconv"
  type: "Convolution"
  bottom: "conv3_1/1x1_increase/bn"
  top: "conv3_1/3x3_dwconv/bn"
  param {
    lr_mult: 1
    decay_mult: 1
  }
  param {
    lr_mult: 2
    decay_mult: 0
  }
  convolution_param {
    num_output: 96
    bias_term: true
    pad: 1
    kernel_size: 3
    group: 96
    stride: 1
    weight_filler {
      type: "msra"
    }
    bias_filler {
      type: "constant"
      value: 0
    }
    engine: CAFFE
    fp16_accumulation: true
  }
  quantize_param {
    precision: 8
    channel_shared: false
  }
}
layer {
  name: "conv3_1/3x3_dwconv/relu"
  type: "ReLU"
  bottom: "conv3_1/3x3_dwconv/bn"
  top: "conv3_1/3x3_dwconv/bn"
}
layer {
  name: "conv3_1/3x3_dwconv/bn_fixed_point"
  type: "Quantize"
  bottom: "conv3_1/3x3_dwconv/bn"
  top: "conv3_1/3x3_dwconv/bn"
  param {
    lr_mult: 0
    decay_mult: 0
  }
  quantize_param {
    precision: 8
    frozen: true
    positive: true
    tolerance: 1.3
  }
}
layer {
  name: "conv3_1/1x1_decrease"
  type: "Convolution"
  bottom: "conv3_1/3x3_dwconv/bn"
  top: "conv3_1/1x1_decrease/bn"
  param {
    lr_mult: 1
    decay_mult: 1
  }
  param {
    lr_mult: 2
    decay_mult: 0
  }
  convolution_param {
    num_output: 32
    bias_term: true
    kernel_size: 1
    stride: 1
    weight_filler {
      type: "msra"
    }
    bias_filler {
      type: "constant"
      value: 0
    }
    engine: CAFFE
    fp16_accumulation: true
  }
  quantize_param {
    precision: 8
    channel_shared: false
  }
}
layer {
  name: "conv3_1/elt_sum"
  type: "Eltwise"
  bottom: "conv3_0/1x1_decrease/bn"
  bottom: "conv3_1/1x1_decrease/bn"
  top: "conv3_1/elt_sum"
  eltwise_param {
    operation: SUM
  }
}
layer {
  name: "conv3_1/elt_sum_fixed_point"
  type: "Quantize"
  bottom: "conv3_1/elt_sum"
  top: "conv3_1/elt_sum"
  param {
    lr_mult: 0
    decay_mult: 0
  }
  quantize_param {
    precision: 8
    frozen: true
    positive: false
    tolerance: 1.3
  }
}
layer {
  name: "conv4_0/1x1_increase"
  type: "Convolution"
  bottom: "conv3_1/elt_sum"
  top: "conv4_0/1x1_increase/bn"
  param {
    lr_mult: 1
    decay_mult: 1
  }
  param {
    lr_mult: 2
    decay_mult: 0
  }
  convolution_param {
    num_output: 96
    bias_term: true
    kernel_size: 1
    stride: 1
    weight_filler {
      type: "msra"
    }
    bias_filler {
      type: "constant"
      value: 0
    }
    engine: CAFFE
    fp16_accumulation: true
  }
  quantize_param {
    precision: 8
    channel_shared: false
  }
}
layer {
  name: "conv4_0/1x1_increase/relu"
  type: "ReLU"
  bottom: "conv4_0/1x1_increase/bn"
  top: "conv4_0/1x1_increase/bn"
}
layer {
  name: "conv4_0/1x1_increase/bn_fixed_point"
  type: "Quantize"
  bottom: "conv4_0/1x1_increase/bn"
  top: "conv4_0/1x1_increase/bn"
  param {
    lr_mult: 0
    decay_mult: 0
  }
  quantize_param {
    precision: 8
    frozen: true
    positive: true
    tolerance: 1.3
  }
}
layer {
  name: "conv4_0/1x1_increase/slice"
  type: "Slice"
  bottom: "conv4_0/1x1_increase/bn"
  top: "conv4_0/1x1_increase/split1"
  top: "conv4_0/1x1_increase/split2"
  top: "conv4_0/1x1_increase/split3"
  slice_param {
    slice_point: 32
    slice_point: 64
  }
}
layer {
  name: "conv4_0/3x3_dwconv/slice_0"
  type: "Convolution"
  bottom: "conv4_0/1x1_increase/split1"
  top: "conv4_0/3x3_dwconv/slice_0/bn"
  param {
    lr_mult: 1
    decay_mult: 1
  }
  param {
    lr_mult: 2
    decay_mult: 0
  }
  convolution_param {
    num_output: 32
    bias_term: true
    pad: 1
    kernel_size: 3
    group: 32
    stride: 2
    weight_filler {
      type: "msra"
    }
    bias_filler {
      type: "constant"
      value: 0
    }
    engine: CAFFE
    fp16_accumulation: true
  }
  quantize_param {
    precision: 8
    channel_shared: false
  }
}
layer {
  name: "conv4_0/3x3_dwconv/slice_0/relu"
  type: "ReLU"
  bottom: "conv4_0/3x3_dwconv/slice_0/bn"
  top: "conv4_0/3x3_dwconv/slice_0/bn"
}
layer {
  name: "conv4_0/3x3_dwconv/slice_1"
  type: "Convolution"
  bottom: "conv4_0/1x1_increase/split2"
  top: "conv4_0/3x3_dwconv/slice_1/bn"
  param {
    lr_mult: 1
    decay_mult: 1
  }
  param {
    lr_mult: 2
    decay_mult: 0
  }
  convolution_param {
    num_output: 32
    bias_term: true
    pad: 2
    kernel_size: 5
    group: 32
    stride: 2
    weight_filler {
      type: "msra"
    }
    bias_filler {
      type: "constant"
      value: 0
    }
    engine: CAFFE
    fp16_accumulation: true
  }
  quantize_param {
    precision: 8
    channel_shared: false
  }
}
layer {
  name: "conv4_0/3x3_dwconv/slice_1/relu"
  type: "ReLU"
  bottom: "conv4_0/3x3_dwconv/slice_1/bn"
  top: "conv4_0/3x3_dwconv/slice_1/bn"
}
layer {
  name: "conv4_0/3x3_dwconv/slice_2"
  type: "Convolution"
  bottom: "conv4_0/1x1_increase/split3"
  top: "conv4_0/3x3_dwconv/slice_2/bn"
  param {
    lr_mult: 1
    decay_mult: 1
  }
  param {
    lr_mult: 2
    decay_mult: 0
  }
  convolution_param {
    num_output: 32
    bias_term: true
    pad: 3
    kernel_size: 7
    group: 32
    stride: 2
    weight_filler {
      type: "msra"
    }
    bias_filler {
      type: "constant"
      value: 0
    }
    engine: CAFFE
    fp16_accumulation: true
  }
  quantize_param {
    precision: 8
    channel_shared: false
  }
}
layer {
  name: "conv4_0/3x3_dwconv/slice_2/relu"
  type: "ReLU"
  bottom: "conv4_0/3x3_dwconv/slice_2/bn"
  top: "conv4_0/3x3_dwconv/slice_2/bn"
}
layer {
  name: "conv4_0/3x3_dwconv/concat"
  type: "Concat"
  bottom: "conv4_0/3x3_dwconv/slice_0/bn"
  bottom: "conv4_0/3x3_dwconv/slice_1/bn"
  bottom: "conv4_0/3x3_dwconv/slice_2/bn"
  top: "conv4_0/3x3_dwconv/concat"
}
layer {
  name: "conv4_0/3x3_dwconv/concat_fixed_point"
  type: "Quantize"
  bottom: "conv4_0/3x3_dwconv/concat"
  top: "conv4_0/3x3_dwconv/concat"
  param {
    lr_mult: 0
    decay_mult: 0
  }
  quantize_param {
    precision: 8
    frozen: true
    positive: true
    tolerance: 1.3
  }
}
layer {
  name: "conv4_0/3x3_dwconv/SE_global_pool"
  type: "Pooling"
  bottom: "conv4_0/3x3_dwconv/concat"
  top: "conv4_0/3x3_dwconv/SE_global_pool"
  pooling_param {
    pool: AVE
    engine: CAFFE
    global_pooling: true
  }
}
layer {
  name: "conv4_0/3x3_dwconv/SE_fc1"
  type: "Convolution"
  bottom: "conv4_0/3x3_dwconv/SE_global_pool"
  top: "conv4_0/3x3_dwconv/SE_fc1"
  param {
    lr_mult: 1
    decay_mult: 1
  }
  convolution_param {
    num_output: 6
    bias_term: false
    kernel_size: 1
    stride: 1
    weight_filler {
      type: "gaussian"
      std: 0.01
    }
    engine: CAFFE
    fp16_accumulation: true
  }
  quantize_param {
    precision: 8
    channel_shared: false
  }
}
layer {
  name: "conv4_0/3x3_dwconv/SE_fc1/relu"
  type: "ReLU"
  bottom: "conv4_0/3x3_dwconv/SE_fc1"
  top: "conv4_0/3x3_dwconv/SE_fc1"
}
layer {
  name: "conv4_0/3x3_dwconv/SE_fc2"
  type: "Convolution"
  bottom: "conv4_0/3x3_dwconv/SE_fc1"
  top: "conv4_0/3x3_dwconv/SE_fc2"
  param {
    lr_mult: 1
    decay_mult: 1
  }
  convolution_param {
    num_output: 96
    bias_term: false
    kernel_size: 1
    stride: 1
    weight_filler {
      type: "gaussian"
      std: 0.01
    }
    engine: CAFFE
    fp16_accumulation: true
  }
  quantize_param {
    precision: 8
    channel_shared: false
  }
}
layer {
  name: "conv4_0/3x3_dwconv/SE_weights"
  type: "Sigmoid"
  bottom: "conv4_0/3x3_dwconv/SE_fc2"
  top: "conv4_0/3x3_dwconv/SE_fc2"
}
layer {
  name: "conv4_0/3x3_dwconv/SE_weights/reshape"
  type: "Reshape"
  bottom: "conv4_0/3x3_dwconv/SE_fc2"
  top: "conv4_0/3x3_dwconv/SE_weights/reshape"
  reshape_param {
    shape {
      dim: 0
      dim: 0
    }
  }
}
layer {
  name: "conv4_0/3x3_dwconv/scale"
  type: "Scale"
  bottom: "conv4_0/3x3_dwconv/concat"
  bottom: "conv4_0/3x3_dwconv/SE_weights/reshape"
  top: "conv4_0/3x3_dwconv/scale"
  scale_param {
    axis: 0
    bias_term: false
  }
}
layer {
  name: "conv4_0/3x3_dwconv/scale_fixed_point"
  type: "Quantize"
  bottom: "conv4_0/3x3_dwconv/scale"
  top: "conv4_0/3x3_dwconv/scale"
  param {
    lr_mult: 0
    decay_mult: 0
  }
  quantize_param {
    precision: 8
    frozen: true
    positive: false
    tolerance: 1.3
  }
}
layer {
  name: "conv4_0/1x1_decrease"
  type: "Convolution"
  bottom: "conv4_0/3x3_dwconv/scale"
  top: "conv4_0/1x1_decrease/bn"
  param {
    lr_mult: 1
    decay_mult: 1
  }
  param {
    lr_mult: 2
    decay_mult: 0
  }
  convolution_param {
    num_output: 40
    bias_term: true
    kernel_size: 1
    stride: 1
    weight_filler {
      type: "msra"
    }
    bias_filler {
      type: "constant"
      value: 0
    }
    engine: CAFFE
    fp16_accumulation: true
  }
  quantize_param {
    precision: 8
    channel_shared: false
  }
}
layer {
  name: "conv4_0/1x1_decrease/bn_fixed_point"
  type: "Quantize"
  bottom: "conv4_0/1x1_decrease/bn"
  top: "conv4_0/1x1_decrease/bn"
  param {
    lr_mult: 0
    decay_mult: 0
  }
  quantize_param {
    precision: 8
    frozen: true
    positive: false
    tolerance: 1.3
  }
}
layer {
  name: "conv4_1/1x1_increase"
  type: "Convolution"
  bottom: "conv4_0/1x1_decrease/bn"
  top: "conv4_1/1x1_increase/bn"
  param {
    lr_mult: 1
    decay_mult: 1
  }
  param {
    lr_mult: 2
    decay_mult: 0
  }
  convolution_param {
    num_output: 120
    bias_term: true
    kernel_size: 1
    stride: 1
    weight_filler {
      type: "msra"
    }
    bias_filler {
      type: "constant"
      value: 0
    }
    engine: CAFFE
    fp16_accumulation: true
  }
  quantize_param {
    precision: 8
    channel_shared: false
  }
}
layer {
  name: "conv4_1/1x1_increase/relu"
  type: "ReLU"
  bottom: "conv4_1/1x1_increase/bn"
  top: "conv4_1/1x1_increase/bn"
}
layer {
  name: "conv4_1/1x1_increase/bn_fixed_point"
  type: "Quantize"
  bottom: "conv4_1/1x1_increase/bn"
  top: "conv4_1/1x1_increase/bn"
  param {
    lr_mult: 0
    decay_mult: 0
  }
  quantize_param {
    precision: 8
    frozen: true
    positive: true
    tolerance: 1.3
  }
}
layer {
  name: "conv4_1/1x1_increase/slice"
  type: "Slice"
  bottom: "conv4_1/1x1_increase/bn"
  top: "conv4_1/1x1_increase/split1"
  top: "conv4_1/1x1_increase/split2"
  slice_param {
    slice_point: 60
  }
}
layer {
  name: "conv4_1/3x3_dwconv/slice_0"
  type: "Convolution"
  bottom: "conv4_1/1x1_increase/split1"
  top: "conv4_1/3x3_dwconv/slice_0/bn"
  param {
    lr_mult: 1
    decay_mult: 1
  }
  param {
    lr_mult: 2
    decay_mult: 0
  }
  convolution_param {
    num_output: 60
    bias_term: true
    pad: 1
    kernel_size: 3
    group: 60
    stride: 1
    weight_filler {
      type: "msra"
    }
    bias_filler {
      type: "constant"
      value: 0
    }
    engine: CAFFE
    fp16_accumulation: true
  }
  quantize_param {
    precision: 8
    channel_shared: false
  }
}
layer {
  name: "conv4_1/3x3_dwconv/slice_0/relu"
  type: "ReLU"
  bottom: "conv4_1/3x3_dwconv/slice_0/bn"
  top: "conv4_1/3x3_dwconv/slice_0/bn"
}
layer {
  name: "conv4_1/3x3_dwconv/slice_1"
  type: "Convolution"
  bottom: "conv4_1/1x1_increase/split2"
  top: "conv4_1/3x3_dwconv/slice_1/bn"
  param {
    lr_mult: 1
    decay_mult: 1
  }
  param {
    lr_mult: 2
    decay_mult: 0
  }
  convolution_param {
    num_output: 60
    bias_term: true
    pad: 2
    kernel_size: 5
    group: 60
    stride: 1
    weight_filler {
      type: "msra"
    }
    bias_filler {
      type: "constant"
      value: 0
    }
    engine: CAFFE
    fp16_accumulation: true
  }
  quantize_param {
    precision: 8
    channel_shared: false
  }
}
layer {
  name: "conv4_1/3x3_dwconv/slice_1/relu"
  type: "ReLU"
  bottom: "conv4_1/3x3_dwconv/slice_1/bn"
  top: "conv4_1/3x3_dwconv/slice_1/bn"
}
layer {
  name: "conv4_1/3x3_dwconv/concat"
  type: "Concat"
  bottom: "conv4_1/3x3_dwconv/slice_0/bn"
  bottom: "conv4_1/3x3_dwconv/slice_1/bn"
  top: "conv4_1/3x3_dwconv/concat"
}
layer {
  name: "conv4_1/3x3_dwconv/concat_fixed_point"
  type: "Quantize"
  bottom: "conv4_1/3x3_dwconv/concat"
  top: "conv4_1/3x3_dwconv/concat"
  param {
    lr_mult: 0
    decay_mult: 0
  }
  quantize_param {
    precision: 8
    frozen: true
    positive: true
    tolerance: 1.3
  }
}
layer {
  name: "conv4_1/3x3_dwconv/SE_global_pool"
  type: "Pooling"
  bottom: "conv4_1/3x3_dwconv/concat"
  top: "conv4_1/3x3_dwconv/SE_global_pool"
  pooling_param {
    pool: AVE
    engine: CAFFE
    global_pooling: true
  }
}
layer {
  name: "conv4_1/3x3_dwconv/SE_fc1"
  type: "Convolution"
  bottom: "conv4_1/3x3_dwconv/SE_global_pool"
  top: "conv4_1/3x3_dwconv/SE_fc1"
  param {
    lr_mult: 1
    decay_mult: 1
  }
  convolution_param {
    num_output: 7
    bias_term: false
    kernel_size: 1
    stride: 1
    weight_filler {
      type: "gaussian"
      std: 0.01
    }
    engine: CAFFE
    fp16_accumulation: true
  }
  quantize_param {
    precision: 8
    channel_shared: false
  }
}
layer {
  name: "conv4_1/3x3_dwconv/SE_fc1/relu"
  type: "ReLU"
  bottom: "conv4_1/3x3_dwconv/SE_fc1"
  top: "conv4_1/3x3_dwconv/SE_fc1"
}
layer {
  name: "conv4_1/3x3_dwconv/SE_fc2"
  type: "Convolution"
  bottom: "conv4_1/3x3_dwconv/SE_fc1"
  top: "conv4_1/3x3_dwconv/SE_fc2"
  param {
    lr_mult: 1
    decay_mult: 1
  }
  convolution_param {
    num_output: 120
    bias_term: false
    kernel_size: 1
    stride: 1
    weight_filler {
      type: "gaussian"
      std: 0.01
    }
    engine: CAFFE
    fp16_accumulation: true
  }
  quantize_param {
    precision: 8
    channel_shared: false
  }
}
layer {
  name: "conv4_1/3x3_dwconv/SE_weights"
  type: "Sigmoid"
  bottom: "conv4_1/3x3_dwconv/SE_fc2"
  top: "conv4_1/3x3_dwconv/SE_fc2"
}
layer {
  name: "conv4_1/3x3_dwconv/SE_weights/reshape"
  type: "Reshape"
  bottom: "conv4_1/3x3_dwconv/SE_fc2"
  top: "conv4_1/3x3_dwconv/SE_weights/reshape"
  reshape_param {
    shape {
      dim: 0
      dim: 0
    }
  }
}
layer {
  name: "conv4_1/3x3_dwconv/scale"
  type: "Scale"
  bottom: "conv4_1/3x3_dwconv/concat"
  bottom: "conv4_1/3x3_dwconv/SE_weights/reshape"
  top: "conv4_1/3x3_dwconv/scale"
  scale_param {
    axis: 0
    bias_term: false
  }
}
layer {
  name: "conv4_1/3x3_dwconv/scale_fixed_point"
  type: "Quantize"
  bottom: "conv4_1/3x3_dwconv/scale"
  top: "conv4_1/3x3_dwconv/scale"
  param {
    lr_mult: 0
    decay_mult: 0
  }
  quantize_param {
    precision: 8
    frozen: true
    positive: false
    tolerance: 1.3
  }
}
layer {
  name: "conv4_1/1x1_decrease"
  type: "Convolution"
  bottom: "conv4_1/3x3_dwconv/scale"
  top: "conv4_1/1x1_decrease/bn"
  param {
    lr_mult: 1
    decay_mult: 1
  }
  param {
    lr_mult: 2
    decay_mult: 0
  }
  convolution_param {
    num_output: 40
    bias_term: true
    kernel_size: 1
    stride: 1
    weight_filler {
      type: "msra"
    }
    bias_filler {
      type: "constant"
      value: 0
    }
    engine: CAFFE
    fp16_accumulation: true
  }
  quantize_param {
    precision: 8
    channel_shared: false
  }
}
layer {
  name: "conv4_1/elt_sum"
  type: "Eltwise"
  bottom: "conv4_0/1x1_decrease/bn"
  bottom: "conv4_1/1x1_decrease/bn"
  top: "conv4_1/elt_sum"
  eltwise_param {
    operation: SUM
  }
}
layer {
  name: "conv4_1/elt_sum_fixed_point"
  type: "Quantize"
  bottom: "conv4_1/elt_sum"
  top: "conv4_1/elt_sum"
  param {
    lr_mult: 0
    decay_mult: 0
  }
  quantize_param {
    precision: 8
    frozen: true
    positive: false
    tolerance: 1.3
  }
}
layer {
  name: "conv4_2/1x1_increase"
  type: "Convolution"
  bottom: "conv4_1/elt_sum"
  top: "conv4_2/1x1_increase/bn"
  param {
    lr_mult: 1
    decay_mult: 1
  }
  param {
    lr_mult: 2
    decay_mult: 0
  }
  convolution_param {
    num_output: 120
    bias_term: true
    kernel_size: 1
    stride: 1
    weight_filler {
      type: "msra"
    }
    bias_filler {
      type: "constant"
      value: 0
    }
    engine: CAFFE
    fp16_accumulation: true
  }
  quantize_param {
    precision: 8
    channel_shared: false
  }
}
layer {
  name: "conv4_2/1x1_increase/relu"
  type: "ReLU"
  bottom: "conv4_2/1x1_increase/bn"
  top: "conv4_2/1x1_increase/bn"
}
layer {
  name: "conv4_2/1x1_increase/bn_fixed_point"
  type: "Quantize"
  bottom: "conv4_2/1x1_increase/bn"
  top: "conv4_2/1x1_increase/bn"
  param {
    lr_mult: 0
    decay_mult: 0
  }
  quantize_param {
    precision: 8
    frozen: true
    positive: true
    tolerance: 1.3
  }
}
layer {
  name: "conv4_2/1x1_increase/slice"
  type: "Slice"
  bottom: "conv4_2/1x1_increase/bn"
  top: "conv4_2/1x1_increase/split1"
  top: "conv4_2/1x1_increase/split2"
  slice_param {
    slice_point: 60
  }
}
layer {
  name: "conv4_2/3x3_dwconv/slice_0"
  type: "Convolution"
  bottom: "conv4_2/1x1_increase/split1"
  top: "conv4_2/3x3_dwconv/slice_0/bn"
  param {
    lr_mult: 1
    decay_mult: 1
  }
  param {
    lr_mult: 2
    decay_mult: 0
  }
  convolution_param {
    num_output: 60
    bias_term: true
    pad: 1
    kernel_size: 3
    group: 60
    stride: 1
    weight_filler {
      type: "msra"
    }
    bias_filler {
      type: "constant"
      value: 0
    }
    engine: CAFFE
    fp16_accumulation: true
  }
  quantize_param {
    precision: 8
    channel_shared: false
  }
}
layer {
  name: "conv4_2/3x3_dwconv/slice_0/relu"
  type: "ReLU"
  bottom: "conv4_2/3x3_dwconv/slice_0/bn"
  top: "conv4_2/3x3_dwconv/slice_0/bn"
}
layer {
  name: "conv4_2/3x3_dwconv/slice_1"
  type: "Convolution"
  bottom: "conv4_2/1x1_increase/split2"
  top: "conv4_2/3x3_dwconv/slice_1/bn"
  param {
    lr_mult: 1
    decay_mult: 1
  }
  param {
    lr_mult: 2
    decay_mult: 0
  }
  convolution_param {
    num_output: 60
    bias_term: true
    pad: 2
    kernel_size: 5
    group: 60
    stride: 1
    weight_filler {
      type: "msra"
    }
    bias_filler {
      type: "constant"
      value: 0
    }
    engine: CAFFE
    fp16_accumulation: true
  }
  quantize_param {
    precision: 8
    channel_shared: false
  }
}
layer {
  name: "conv4_2/3x3_dwconv/slice_1/relu"
  type: "ReLU"
  bottom: "conv4_2/3x3_dwconv/slice_1/bn"
  top: "conv4_2/3x3_dwconv/slice_1/bn"
}
layer {
  name: "conv4_2/3x3_dwconv/concat"
  type: "Concat"
  bottom: "conv4_2/3x3_dwconv/slice_0/bn"
  bottom: "conv4_2/3x3_dwconv/slice_1/bn"
  top: "conv4_2/3x3_dwconv/concat"
}
layer {
  name: "conv4_2/3x3_dwconv/concat_fixed_point"
  type: "Quantize"
  bottom: "conv4_2/3x3_dwconv/concat"
  top: "conv4_2/3x3_dwconv/concat"
  param {
    lr_mult: 0
    decay_mult: 0
  }
  quantize_param {
    precision: 8
    frozen: true
    positive: true
    tolerance: 1.3
  }
}
layer {
  name: "conv4_2/3x3_dwconv/SE_global_pool"
  type: "Pooling"
  bottom: "conv4_2/3x3_dwconv/concat"
  top: "conv4_2/3x3_dwconv/SE_global_pool"
  pooling_param {
    pool: AVE
    engine: CAFFE
    global_pooling: true
  }
}
layer {
  name: "conv4_2/3x3_dwconv/SE_fc1"
  type: "Convolution"
  bottom: "conv4_2/3x3_dwconv/SE_global_pool"
  top: "conv4_2/3x3_dwconv/SE_fc1"
  param {
    lr_mult: 1
    decay_mult: 1
  }
  convolution_param {
    num_output: 7
    bias_term: false
    kernel_size: 1
    stride: 1
    weight_filler {
      type: "gaussian"
      std: 0.01
    }
    engine: CAFFE
    fp16_accumulation: true
  }
  quantize_param {
    precision: 8
    channel_shared: false
  }
}
layer {
  name: "conv4_2/3x3_dwconv/SE_fc1/relu"
  type: "ReLU"
  bottom: "conv4_2/3x3_dwconv/SE_fc1"
  top: "conv4_2/3x3_dwconv/SE_fc1"
}
layer {
  name: "conv4_2/3x3_dwconv/SE_fc2"
  type: "Convolution"
  bottom: "conv4_2/3x3_dwconv/SE_fc1"
  top: "conv4_2/3x3_dwconv/SE_fc2"
  param {
    lr_mult: 1
    decay_mult: 1
  }
  convolution_param {
    num_output: 120
    bias_term: false
    kernel_size: 1
    stride: 1
    weight_filler {
      type: "gaussian"
      std: 0.01
    }
    engine: CAFFE
    fp16_accumulation: true
  }
  quantize_param {
    precision: 8
    channel_shared: false
  }
}
layer {
  name: "conv4_2/3x3_dwconv/SE_weights"
  type: "Sigmoid"
  bottom: "conv4_2/3x3_dwconv/SE_fc2"
  top: "conv4_2/3x3_dwconv/SE_fc2"
}
layer {
  name: "conv4_2/3x3_dwconv/SE_weights/reshape"
  type: "Reshape"
  bottom: "conv4_2/3x3_dwconv/SE_fc2"
  top: "conv4_2/3x3_dwconv/SE_weights/reshape"
  reshape_param {
    shape {
      dim: 0
      dim: 0
    }
  }
}
layer {
  name: "conv4_2/3x3_dwconv/scale"
  type: "Scale"
  bottom: "conv4_2/3x3_dwconv/concat"
  bottom: "conv4_2/3x3_dwconv/SE_weights/reshape"
  top: "conv4_2/3x3_dwconv/scale"
  scale_param {
    axis: 0
    bias_term: false
  }
}
layer {
  name: "conv4_2/3x3_dwconv/scale_fixed_point"
  type: "Quantize"
  bottom: "conv4_2/3x3_dwconv/scale"
  top: "conv4_2/3x3_dwconv/scale"
  param {
    lr_mult: 0
    decay_mult: 0
  }
  quantize_param {
    precision: 8
    frozen: true
    positive: false
    tolerance: 1.3
  }
}
layer {
  name: "conv4_2/1x1_decrease"
  type: "Convolution"
  bottom: "conv4_2/3x3_dwconv/scale"
  top: "conv4_2/1x1_decrease/bn"
  param {
    lr_mult: 1
    decay_mult: 1
  }
  param {
    lr_mult: 2
    decay_mult: 0
  }
  convolution_param {
    num_output: 40
    bias_term: true
    kernel_size: 1
    stride: 1
    weight_filler {
      type: "msra"
    }
    bias_filler {
      type: "constant"
      value: 0
    }
    engine: CAFFE
    fp16_accumulation: true
  }
  quantize_param {
    precision: 8
    channel_shared: false
  }
}
layer {
  name: "conv4_2/elt_sum"
  type: "Eltwise"
  bottom: "conv4_1/elt_sum"
  bottom: "conv4_2/1x1_decrease/bn"
  top: "conv4_2/elt_sum"
  eltwise_param {
    operation: SUM
  }
}
layer {
  name: "conv4_2/elt_sum_fixed_point"
  type: "Quantize"
  bottom: "conv4_2/elt_sum"
  top: "conv4_2/elt_sum"
  param {
    lr_mult: 0
    decay_mult: 0
  }
  quantize_param {
    precision: 8
    frozen: true
    positive: false
    tolerance: 1.3
  }
}
layer {
  name: "conv4_3/1x1_increase"
  type: "Convolution"
  bottom: "conv4_2/elt_sum"
  top: "conv4_3/1x1_increase/bn"
  param {
    lr_mult: 1
    decay_mult: 1
  }
  param {
    lr_mult: 2
    decay_mult: 0
  }
  convolution_param {
    num_output: 120
    bias_term: true
    kernel_size: 1
    stride: 1
    weight_filler {
      type: "msra"
    }
    bias_filler {
      type: "constant"
      value: 0
    }
    engine: CAFFE
    fp16_accumulation: true
  }
  quantize_param {
    precision: 8
    channel_shared: false
  }
}
layer {
  name: "conv4_3/1x1_increase/relu"
  type: "ReLU"
  bottom: "conv4_3/1x1_increase/bn"
  top: "conv4_3/1x1_increase/bn"
}
layer {
  name: "conv4_3/1x1_increase/bn_fixed_point"
  type: "Quantize"
  bottom: "conv4_3/1x1_increase/bn"
  top: "conv4_3/1x1_increase/bn"
  param {
    lr_mult: 0
    decay_mult: 0
  }
  quantize_param {
    precision: 8
    frozen: true
    positive: true
    tolerance: 1.3
  }
}
layer {
  name: "conv4_3/1x1_increase/slice"
  type: "Slice"
  bottom: "conv4_3/1x1_increase/bn"
  top: "conv4_3/1x1_increase/split1"
  top: "conv4_3/1x1_increase/split2"
  slice_param {
    slice_point: 60
  }
}
layer {
  name: "conv4_3/3x3_dwconv/slice_0"
  type: "Convolution"
  bottom: "conv4_3/1x1_increase/split1"
  top: "conv4_3/3x3_dwconv/slice_0/bn"
  param {
    lr_mult: 1
    decay_mult: 1
  }
 
I0906 17:51:34.617619 27963 layer_factory.hpp:77] Creating layer data
I0906 17:51:34.637146 27963 net.cpp:86] Creating Layer data
I0906 17:51:34.637171 27963 net.cpp:382] data -> data
I0906 17:51:34.637215 27963 net.cpp:382] data -> label
I0906 17:51:34.637243 27963 image_data_layer.cpp:43] Opening file file_lists/val.txt
I0906 17:51:34.649631 27963 image_data_layer.cpp:68] A total of 50000 images.
I0906 17:51:34.684051 27963 image_data_layer.cpp:95] output data size: 50,3,224,224
I0906 17:51:34.772605 27963 net.cpp:124] Setting up data
I0906 17:51:34.772647 27963 net.cpp:131] Top shape: 50 3 224 224 (7526400)
I0906 17:51:34.772655 27963 net.cpp:131] Top shape: 50 (50)
I0906 17:51:34.772660 27963 net.cpp:139] Memory required for data: 30105800
I0906 17:51:34.772670 27963 layer_factory.hpp:77] Creating layer label_data_1_split
I0906 17:51:34.772689 27963 net.cpp:86] Creating Layer label_data_1_split
I0906 17:51:34.772696 27963 net.cpp:408] label_data_1_split <- label
I0906 17:51:34.772714 27963 net.cpp:382] label_data_1_split -> label_data_1_split_0
I0906 17:51:34.772729 27963 net.cpp:382] label_data_1_split -> label_data_1_split_1
I0906 17:51:34.772820 27963 net.cpp:124] Setting up label_data_1_split
I0906 17:51:34.772830 27963 net.cpp:131] Top shape: 50 (50)
I0906 17:51:34.772835 27963 net.cpp:131] Top shape: 50 (50)
I0906 17:51:34.772837 27963 net.cpp:139] Memory required for data: 30106200
I0906 17:51:34.772841 27963 layer_factory.hpp:77] Creating layer data_fixed_point
I0906 17:51:34.772853 27963 net.cpp:86] Creating Layer data_fixed_point
I0906 17:51:34.772859 27963 net.cpp:408] data_fixed_point <- data
I0906 17:51:34.772867 27963 net.cpp:369] data_fixed_point -> data (in-place)
I0906 17:51:34.772904 27963 net.cpp:124] Setting up data_fixed_point
I0906 17:51:34.772912 27963 net.cpp:131] Top shape: 50 3 224 224 (7526400)
I0906 17:51:34.772914 27963 net.cpp:139] Memory required for data: 60211800
I0906 17:51:34.772935 27963 layer_factory.hpp:77] Creating layer conv1/3x3_s2
I0906 17:51:34.772964 27963 net.cpp:86] Creating Layer conv1/3x3_s2
I0906 17:51:34.772969 27963 net.cpp:408] conv1/3x3_s2 <- data
I0906 17:51:34.772979 27963 net.cpp:382] conv1/3x3_s2 -> conv1/3x3_s2/bn
I0906 17:51:34.776568 27963 net.cpp:124] Setting up conv1/3x3_s2
I0906 17:51:34.776587 27963 net.cpp:131] Top shape: 50 32 112 112 (20070400)
I0906 17:51:34.776592 27963 net.cpp:139] Memory required for data: 140493400
I0906 17:51:34.776607 27963 layer_factory.hpp:77] Creating layer conv1/3x3_s2/relu
I0906 17:51:34.776616 27963 net.cpp:86] Creating Layer conv1/3x3_s2/relu
I0906 17:51:34.776621 27963 net.cpp:408] conv1/3x3_s2/relu <- conv1/3x3_s2/bn
I0906 17:51:34.776628 27963 net.cpp:369] conv1/3x3_s2/relu -> conv1/3x3_s2/bn (in-place)
I0906 17:51:36.679972 27963 net.cpp:124] Setting up conv1/3x3_s2/relu
I0906 17:51:36.680029 27963 net.cpp:131] Top shape: 50 32 112 112 (20070400)
I0906 17:51:36.680033 27963 net.cpp:139] Memory required for data: 220775000
I0906 17:51:36.680042 27963 layer_factory.hpp:77] Creating layer conv1/3x3_s2/bn_fixed_point
I0906 17:51:36.680055 27963 net.cpp:86] Creating Layer conv1/3x3_s2/bn_fixed_point
I0906 17:51:36.680061 27963 net.cpp:408] conv1/3x3_s2/bn_fixed_point <- conv1/3x3_s2/bn
I0906 17:51:36.680083 27963 net.cpp:369] conv1/3x3_s2/bn_fixed_point -> conv1/3x3_s2/bn (in-place)
I0906 17:51:36.680124 27963 net.cpp:124] Setting up conv1/3x3_s2/bn_fixed_point
I0906 17:51:36.680130 27963 net.cpp:131] Top shape: 50 32 112 112 (20070400)
I0906 17:51:36.680132 27963 net.cpp:139] Memory required for data: 301056600
I0906 17:51:36.680138 27963 layer_factory.hpp:77] Creating layer conv2_0/3x3_dwconv
I0906 17:51:36.680153 27963 net.cpp:86] Creating Layer conv2_0/3x3_dwconv
I0906 17:51:36.680158 27963 net.cpp:408] conv2_0/3x3_dwconv <- conv1/3x3_s2/bn
I0906 17:51:36.680178 27963 net.cpp:382] conv2_0/3x3_dwconv -> conv2_0/3x3_dwconv/bn
I0906 17:51:36.680936 27963 net.cpp:124] Setting up conv2_0/3x3_dwconv
I0906 17:51:36.680949 27963 net.cpp:131] Top shape: 50 32 112 112 (20070400)
I0906 17:51:36.680953 27963 net.cpp:139] Memory required for data: 381338200
I0906 17:51:36.680999 27963 layer_factory.hpp:77] Creating layer conv2_0/3x3_dwconv/relu
I0906 17:51:36.681012 27963 net.cpp:86] Creating Layer conv2_0/3x3_dwconv/relu
I0906 17:51:36.681016 27963 net.cpp:408] conv2_0/3x3_dwconv/relu <- conv2_0/3x3_dwconv/bn
I0906 17:51:36.681021 27963 net.cpp:369] conv2_0/3x3_dwconv/relu -> conv2_0/3x3_dwconv/bn (in-place)
I0906 17:51:36.681588 27963 net.cpp:124] Setting up conv2_0/3x3_dwconv/relu
I0906 17:51:36.681599 27963 net.cpp:131] Top shape: 50 32 112 112 (20070400)
I0906 17:51:36.681617 27963 net.cpp:139] Memory required for data: 461619800
I0906 17:51:36.681620 27963 layer_factory.hpp:77] Creating layer conv2_0/3x3_dwconv/bn_fixed_point
I0906 17:51:36.681629 27963 net.cpp:86] Creating Layer conv2_0/3x3_dwconv/bn_fixed_point
I0906 17:51:36.681632 27963 net.cpp:408] conv2_0/3x3_dwconv/bn_fixed_point <- conv2_0/3x3_dwconv/bn
I0906 17:51:36.681638 27963 net.cpp:369] conv2_0/3x3_dwconv/bn_fixed_point -> conv2_0/3x3_dwconv/bn (in-place)
I0906 17:51:36.681668 27963 net.cpp:124] Setting up conv2_0/3x3_dwconv/bn_fixed_point
I0906 17:51:36.681674 27963 net.cpp:131] Top shape: 50 32 112 112 (20070400)
I0906 17:51:36.681692 27963 net.cpp:139] Memory required for data: 541901400
I0906 17:51:36.681696 27963 layer_factory.hpp:77] Creating layer conv2_0/1x1_decrease
I0906 17:51:36.681706 27963 net.cpp:86] Creating Layer conv2_0/1x1_decrease
I0906 17:51:36.681710 27963 net.cpp:408] conv2_0/1x1_decrease <- conv2_0/3x3_dwconv/bn
I0906 17:51:36.681715 27963 net.cpp:382] conv2_0/1x1_decrease -> conv2_0/1x1_decrease/bn
I0906 17:51:36.682253 27963 net.cpp:124] Setting up conv2_0/1x1_decrease
I0906 17:51:36.682265 27963 net.cpp:131] Top shape: 50 16 112 112 (10035200)
I0906 17:51:36.682268 27963 net.cpp:139] Memory required for data: 582042200
I0906 17:51:36.682279 27963 layer_factory.hpp:77] Creating layer conv2_0/1x1_decrease/bn_fixed_point
I0906 17:51:36.682286 27963 net.cpp:86] Creating Layer conv2_0/1x1_decrease/bn_fixed_point
I0906 17:51:36.682289 27963 net.cpp:408] conv2_0/1x1_decrease/bn_fixed_point <- conv2_0/1x1_decrease/bn
I0906 17:51:36.682294 27963 net.cpp:369] conv2_0/1x1_decrease/bn_fixed_point -> conv2_0/1x1_decrease/bn (in-place)
I0906 17:51:36.682323 27963 net.cpp:124] Setting up conv2_0/1x1_decrease/bn_fixed_point
I0906 17:51:36.682329 27963 net.cpp:131] Top shape: 50 16 112 112 (10035200)
I0906 17:51:36.682332 27963 net.cpp:139] Memory required for data: 622183000
I0906 17:51:36.682337 27963 layer_factory.hpp:77] Creating layer conv3_0/1x1_increase
I0906 17:51:36.682346 27963 net.cpp:86] Creating Layer conv3_0/1x1_increase
I0906 17:51:36.682351 27963 net.cpp:408] conv3_0/1x1_increase <- conv2_0/1x1_decrease/bn
I0906 17:51:36.682371 27963 net.cpp:382] conv3_0/1x1_increase -> conv3_0/1x1_increase/bn
I0906 17:51:36.682925 27963 net.cpp:124] Setting up conv3_0/1x1_increase
I0906 17:51:36.682936 27963 net.cpp:131] Top shape: 50 48 112 112 (30105600)
I0906 17:51:36.682940 27963 net.cpp:139] Memory required for data: 742605400
I0906 17:51:36.682946 27963 layer_factory.hpp:77] Creating layer conv3_0/1x1_increase/relu
I0906 17:51:36.682952 27963 net.cpp:86] Creating Layer conv3_0/1x1_increase/relu
I0906 17:51:36.682956 27963 net.cpp:408] conv3_0/1x1_increase/relu <- conv3_0/1x1_increase/bn
I0906 17:51:36.682960 27963 net.cpp:369] conv3_0/1x1_increase/relu -> conv3_0/1x1_increase/bn (in-place)
I0906 17:51:36.683821 27963 net.cpp:124] Setting up conv3_0/1x1_increase/relu
I0906 17:51:36.683835 27963 net.cpp:131] Top shape: 50 48 112 112 (30105600)
I0906 17:51:36.683854 27963 net.cpp:139] Memory required for data: 863027800
I0906 17:51:36.683857 27963 layer_factory.hpp:77] Creating layer conv3_0/1x1_increase/bn_fixed_point
I0906 17:51:36.683866 27963 net.cpp:86] Creating Layer conv3_0/1x1_increase/bn_fixed_point
I0906 17:51:36.683869 27963 net.cpp:408] conv3_0/1x1_increase/bn_fixed_point <- conv3_0/1x1_increase/bn
I0906 17:51:36.683873 27963 net.cpp:369] conv3_0/1x1_increase/bn_fixed_point -> conv3_0/1x1_increase/bn (in-place)
I0906 17:51:36.683907 27963 net.cpp:124] Setting up conv3_0/1x1_increase/bn_fixed_point
I0906 17:51:36.683925 27963 net.cpp:131] Top shape: 50 48 112 112 (30105600)
I0906 17:51:36.683928 27963 net.cpp:139] Memory required for data: 983450200
I0906 17:51:36.683933 27963 layer_factory.hpp:77] Creating layer conv3_0/3x3_dwconv
I0906 17:51:36.683944 27963 net.cpp:86] Creating Layer conv3_0/3x3_dwconv
I0906 17:51:36.683949 27963 net.cpp:408] conv3_0/3x3_dwconv <- conv3_0/1x1_increase/bn
I0906 17:51:36.683969 27963 net.cpp:382] conv3_0/3x3_dwconv -> conv3_0/3x3_dwconv/bn
I0906 17:51:36.686043 27963 net.cpp:124] Setting up conv3_0/3x3_dwconv
I0906 17:51:36.686076 27963 net.cpp:131] Top shape: 50 48 56 56 (7526400)
I0906 17:51:36.686079 27963 net.cpp:139] Memory required for data: 1013555800
I0906 17:51:36.686086 27963 layer_factory.hpp:77] Creating layer conv3_0/3x3_dwconv/relu
I0906 17:51:36.686094 27963 net.cpp:86] Creating Layer conv3_0/3x3_dwconv/relu
I0906 17:51:36.686097 27963 net.cpp:408] conv3_0/3x3_dwconv/relu <- conv3_0/3x3_dwconv/bn
I0906 17:51:36.686103 27963 net.cpp:369] conv3_0/3x3_dwconv/relu -> conv3_0/3x3_dwconv/bn (in-place)
I0906 17:51:36.686776 27963 net.cpp:124] Setting up conv3_0/3x3_dwconv/relu
I0906 17:51:36.686786 27963 net.cpp:131] Top shape: 50 48 56 56 (7526400)
I0906 17:51:36.686805 27963 net.cpp:139] Memory required for data: 1043661400
I0906 17:51:36.686807 27963 layer_factory.hpp:77] Creating layer conv3_0/3x3_dwconv/bn_fixed_point
I0906 17:51:36.686818 27963 net.cpp:86] Creating Layer conv3_0/3x3_dwconv/bn_fixed_point
I0906 17:51:36.686822 27963 net.cpp:408] conv3_0/3x3_dwconv/bn_fixed_point <- conv3_0/3x3_dwconv/bn
I0906 17:51:36.686837 27963 net.cpp:369] conv3_0/3x3_dwconv/bn_fixed_point -> conv3_0/3x3_dwconv/bn (in-place)
I0906 17:51:36.686868 27963 net.cpp:124] Setting up conv3_0/3x3_dwconv/bn_fixed_point
I0906 17:51:36.686875 27963 net.cpp:131] Top shape: 50 48 56 56 (7526400)
I0906 17:51:36.686878 27963 net.cpp:139] Memory required for data: 1073767000
I0906 17:51:36.686883 27963 layer_factory.hpp:77] Creating layer conv3_0/1x1_decrease
I0906 17:51:36.686898 27963 net.cpp:86] Creating Layer conv3_0/1x1_decrease
I0906 17:51:36.686902 27963 net.cpp:408] conv3_0/1x1_decrease <- conv3_0/3x3_dwconv/bn
I0906 17:51:36.686908 27963 net.cpp:382] conv3_0/1x1_decrease -> conv3_0/1x1_decrease/bn
I0906 17:51:36.687675 27963 net.cpp:124] Setting up conv3_0/1x1_decrease
I0906 17:51:36.687690 27963 net.cpp:131] Top shape: 50 32 56 56 (5017600)
I0906 17:51:36.687692 27963 net.cpp:139] Memory required for data: 1093837400
I0906 17:51:36.687703 27963 layer_factory.hpp:77] Creating layer conv3_0/1x1_decrease/bn_fixed_point
I0906 17:51:36.687711 27963 net.cpp:86] Creating Layer conv3_0/1x1_decrease/bn_fixed_point
I0906 17:51:36.687714 27963 net.cpp:408] conv3_0/1x1_decrease/bn_fixed_point <- conv3_0/1x1_decrease/bn
I0906 17:51:36.687721 27963 net.cpp:369] conv3_0/1x1_decrease/bn_fixed_point -> conv3_0/1x1_decrease/bn (in-place)
I0906 17:51:36.687752 27963 net.cpp:124] Setting up conv3_0/1x1_decrease/bn_fixed_point
I0906 17:51:36.687775 27963 net.cpp:131] Top shape: 50 32 56 56 (5017600)
I0906 17:51:36.687778 27963 net.cpp:139] Memory required for data: 1113907800
I0906 17:51:36.687798 27963 layer_factory.hpp:77] Creating layer conv3_0/1x1_decrease/bn_conv3_0/1x1_decrease/bn_fixed_point_0_split
I0906 17:51:36.687803 27963 net.cpp:86] Creating Layer conv3_0/1x1_decrease/bn_conv3_0/1x1_decrease/bn_fixed_point_0_split
I0906 17:51:36.687806 27963 net.cpp:408] conv3_0/1x1_decrease/bn_conv3_0/1x1_decrease/bn_fixed_point_0_split <- conv3_0/1x1_decrease/bn
I0906 17:51:36.687810 27963 net.cpp:382] conv3_0/1x1_decrease/bn_conv3_0/1x1_decrease/bn_fixed_point_0_split -> conv3_0/1x1_decrease/bn_conv3_0/1x1_decrease/bn_fixed_point_0_split_0
I0906 17:51:36.687816 27963 net.cpp:382] conv3_0/1x1_decrease/bn_conv3_0/1x1_decrease/bn_fixed_point_0_split -> conv3_0/1x1_decrease/bn_conv3_0/1x1_decrease/bn_fixed_point_0_split_1
I0906 17:51:36.687857 27963 net.cpp:124] Setting up conv3_0/1x1_decrease/bn_conv3_0/1x1_decrease/bn_fixed_point_0_split
I0906 17:51:36.687863 27963 net.cpp:131] Top shape: 50 32 56 56 (5017600)
I0906 17:51:36.687885 27963 net.cpp:131] Top shape: 50 32 56 56 (5017600)
I0906 17:51:36.687888 27963 net.cpp:139] Memory required for data: 1154048600
I0906 17:51:36.687891 27963 layer_factory.hpp:77] Creating layer conv3_1/1x1_increase
I0906 17:51:36.687902 27963 net.cpp:86] Creating Layer conv3_1/1x1_increase
I0906 17:51:36.687907 27963 net.cpp:408] conv3_1/1x1_increase <- conv3_0/1x1_decrease/bn_conv3_0/1x1_decrease/bn_fixed_point_0_split_0
I0906 17:51:36.687916 27963 net.cpp:382] conv3_1/1x1_increase -> conv3_1/1x1_increase/bn
I0906 17:51:36.688724 27963 net.cpp:124] Setting up conv3_1/1x1_increase
I0906 17:51:36.688736 27963 net.cpp:131] Top shape: 50 96 56 56 (15052800)
I0906 17:51:36.688755 27963 net.cpp:139] Memory required for data: 1214259800
I0906 17:51:36.688761 27963 layer_factory.hpp:77] Creating layer conv3_1/1x1_increase/relu
I0906 17:51:36.688767 27963 net.cpp:86] Creating Layer conv3_1/1x1_increase/relu
I0906 17:51:36.688771 27963 net.cpp:408] conv3_1/1x1_increase/relu <- conv3_1/1x1_increase/bn
I0906 17:51:36.688778 27963 net.cpp:369] conv3_1/1x1_increase/relu -> conv3_1/1x1_increase/bn (in-place)
I0906 17:51:36.689419 27963 net.cpp:124] Setting up conv3_1/1x1_increase/relu
I0906 17:51:36.689429 27963 net.cpp:131] Top shape: 50 96 56 56 (15052800)
I0906 17:51:36.689446 27963 net.cpp:139] Memory required for data: 1274471000
I0906 17:51:36.689450 27963 layer_factory.hpp:77] Creating layer conv3_1/1x1_increase/bn_fixed_point
I0906 17:51:36.689458 27963 net.cpp:86] Creating Layer conv3_1/1x1_increase/bn_fixed_point
I0906 17:51:36.689462 27963 net.cpp:408] conv3_1/1x1_increase/bn_fixed_point <- conv3_1/1x1_increase/bn
I0906 17:51:36.689468 27963 net.cpp:369] conv3_1/1x1_increase/bn_fixed_point -> conv3_1/1x1_increase/bn (in-place)
I0906 17:51:36.689498 27963 net.cpp:124] Setting up conv3_1/1x1_increase/bn_fixed_point
I0906 17:51:36.689505 27963 net.cpp:131] Top shape: 50 96 56 56 (15052800)
I0906 17:51:36.689507 27963 net.cpp:139] Memory required for data: 1334682200
I0906 17:51:36.689527 27963 layer_factory.hpp:77] Creating layer conv3_1/3x3_dwconv
I0906 17:51:36.689541 27963 net.cpp:86] Creating Layer conv3_1/3x3_dwconv
I0906 17:51:36.689545 27963 net.cpp:408] conv3_1/3x3_dwconv <- conv3_1/1x1_increase/bn
I0906 17:51:36.689550 27963 net.cpp:382] conv3_1/3x3_dwconv -> conv3_1/3x3_dwconv/bn
I0906 17:51:36.690330 27963 net.cpp:124] Setting up conv3_1/3x3_dwconv
I0906 17:51:36.690343 27963 net.cpp:131] Top shape: 50 96 56 56 (15052800)
I0906 17:51:36.690346 27963 net.cpp:139] Memory required for data: 1394893400
I0906 17:51:36.690353 27963 layer_factory.hpp:77] Creating layer conv3_1/3x3_dwconv/relu
I0906 17:51:36.690359 27963 net.cpp:86] Creating Layer conv3_1/3x3_dwconv/relu
I0906 17:51:36.690362 27963 net.cpp:408] conv3_1/3x3_dwconv/relu <- conv3_1/3x3_dwconv/bn
I0906 17:51:36.690368 27963 net.cpp:369] conv3_1/3x3_dwconv/relu -> conv3_1/3x3_dwconv/bn (in-place)
I0906 17:51:36.691169 27963 net.cpp:124] Setting up conv3_1/3x3_dwconv/relu
I0906 17:51:36.691181 27963 net.cpp:131] Top shape: 50 96 56 56 (15052800)
I0906 17:51:36.691200 27963 net.cpp:139] Memory required for data: 1455104600
I0906 17:51:36.691205 27963 layer_factory.hpp:77] Creating layer conv3_1/3x3_dwconv/bn_fixed_point
I0906 17:51:36.691211 27963 net.cpp:86] Creating Layer conv3_1/3x3_dwconv/bn_fixed_point
I0906 17:51:36.691215 27963 net.cpp:408] conv3_1/3x3_dwconv/bn_fixed_point <- conv3_1/3x3_dwconv/bn
I0906 17:51:36.691221 27963 net.cpp:369] conv3_1/3x3_dwconv/bn_fixed_point -> conv3_1/3x3_dwconv/bn (in-place)
I0906 17:51:36.691253 27963 net.cpp:124] Setting up conv3_1/3x3_dwconv/bn_fixed_point
I0906 17:51:36.691260 27963 net.cpp:131] Top shape: 50 96 56 56 (15052800)
I0906 17:51:36.691263 27963 net.cpp:139] Memory required for data: 1515315800
I0906 17:51:36.691267 27963 layer_factory.hpp:77] Creating layer conv3_1/1x1_decrease
I0906 17:51:36.691278 27963 net.cpp:86] Creating Layer conv3_1/1x1_decrease
I0906 17:51:36.691282 27963 net.cpp:408] conv3_1/1x1_decrease <- conv3_1/3x3_dwconv/bn
I0906 17:51:36.691287 27963 net.cpp:382] conv3_1/1x1_decrease -> conv3_1/1x1_decrease/bn
I0906 17:51:36.691917 27963 net.cpp:124] Setting up conv3_1/1x1_decrease
I0906 17:51:36.691928 27963 net.cpp:131] Top shape: 50 32 56 56 (5017600)
I0906 17:51:36.691932 27963 net.cpp:139] Memory required for data: 1535386200
I0906 17:51:36.691938 27963 layer_factory.hpp:77] Creating layer conv3_1/elt_sum
I0906 17:51:36.691952 27963 net.cpp:86] Creating Layer conv3_1/elt_sum
I0906 17:51:36.691957 27963 net.cpp:408] conv3_1/elt_sum <- conv3_0/1x1_decrease/bn_conv3_0/1x1_decrease/bn_fixed_point_0_split_1
I0906 17:51:36.691977 27963 net.cpp:408] conv3_1/elt_sum <- conv3_1/1x1_decrease/bn
I0906 17:51:36.691983 27963 net.cpp:382] conv3_1/elt_sum -> conv3_1/elt_sum
I0906 17:51:36.692039 27963 net.cpp:124] Setting up conv3_1/elt_sum
I0906 17:51:36.692046 27963 net.cpp:131] Top shape: 50 32 56 56 (5017600)
I0906 17:51:36.692049 27963 net.cpp:139] Memory required for data: 1555456600
I0906 17:51:36.692052 27963 layer_factory.hpp:77] Creating layer conv3_1/elt_sum_fixed_point
I0906 17:51:36.692061 27963 net.cpp:86] Creating Layer conv3_1/elt_sum_fixed_point
I0906 17:51:36.692068 27963 net.cpp:408] conv3_1/elt_sum_fixed_point <- conv3_1/elt_sum
I0906 17:51:36.692075 27963 net.cpp:369] conv3_1/elt_sum_fixed_point -> conv3_1/elt_sum (in-place)
I0906 17:51:36.692101 27963 net.cpp:124] Setting up conv3_1/elt_sum_fixed_point
I0906 17:51:36.692108 27963 net.cpp:131] Top shape: 50 32 56 56 (5017600)
I0906 17:51:36.692111 27963 net.cpp:139] Memory required for data: 1575527000
I0906 17:51:36.692116 27963 layer_factory.hpp:77] Creating layer conv4_0/1x1_increase
I0906 17:51:36.692126 27963 net.cpp:86] Creating Layer conv4_0/1x1_increase
I0906 17:51:36.692131 27963 net.cpp:408] conv4_0/1x1_increase <- conv3_1/elt_sum
I0906 17:51:36.692138 27963 net.cpp:382] conv4_0/1x1_increase -> conv4_0/1x1_increase/bn
I0906 17:51:36.692734 27963 net.cpp:124] Setting up conv4_0/1x1_increase
I0906 17:51:36.692744 27963 net.cpp:131] Top shape: 50 96 56 56 (15052800)
I0906 17:51:36.692762 27963 net.cpp:139] Memory required for data: 1635738200
I0906 17:51:36.692768 27963 layer_factory.hpp:77] Creating layer conv4_0/1x1_increase/relu
I0906 17:51:36.692775 27963 net.cpp:86] Creating Layer conv4_0/1x1_increase/relu
I0906 17:51:36.692778 27963 net.cpp:408] conv4_0/1x1_increase/relu <- conv4_0/1x1_increase/bn
I0906 17:51:36.692785 27963 net.cpp:369] conv4_0/1x1_increase/relu -> conv4_0/1x1_increase/bn (in-place)
I0906 17:51:36.693451 27963 net.cpp:124] Setting up conv4_0/1x1_increase/relu
I0906 17:51:36.693462 27963 net.cpp:131] Top shape: 50 96 56 56 (15052800)
I0906 17:51:36.693480 27963 net.cpp:139] Memory required for data: 1695949400
I0906 17:51:36.693483 27963 layer_factory.hpp:77] Creating layer conv4_0/1x1_increase/bn_fixed_point
I0906 17:51:36.693490 27963 net.cpp:86] Creating Layer conv4_0/1x1_increase/bn_fixed_point
I0906 17:51:36.693495 27963 net.cpp:408] conv4_0/1x1_increase/bn_fixed_point <- conv4_0/1x1_increase/bn
I0906 17:51:36.693500 27963 net.cpp:369] conv4_0/1x1_increase/bn_fixed_point -> conv4_0/1x1_increase/bn (in-place)
I0906 17:51:36.693529 27963 net.cpp:124] Setting up conv4_0/1x1_increase/bn_fixed_point
I0906 17:51:36.693534 27963 net.cpp:131] Top shape: 50 96 56 56 (15052800)
I0906 17:51:36.693537 27963 net.cpp:139] Memory required for data: 1756160600
I0906 17:51:36.693542 27963 layer_factory.hpp:77] Creating layer conv4_0/1x1_increase/slice
I0906 17:51:36.693557 27963 net.cpp:86] Creating Layer conv4_0/1x1_increase/slice
I0906 17:51:36.693562 27963 net.cpp:408] conv4_0/1x1_increase/slice <- conv4_0/1x1_increase/bn
I0906 17:51:36.693578 27963 net.cpp:382] conv4_0/1x1_increase/slice -> conv4_0/1x1_increase/split1
I0906 17:51:36.693586 27963 net.cpp:382] conv4_0/1x1_increase/slice -> conv4_0/1x1_increase/split2
I0906 17:51:36.693591 27963 net.cpp:382] conv4_0/1x1_increase/slice -> conv4_0/1x1_increase/split3
I0906 17:51:36.693655 27963 net.cpp:124] Setting up conv4_0/1x1_increase/slice
I0906 17:51:36.693660 27963 net.cpp:131] Top shape: 50 32 56 56 (5017600)
I0906 17:51:36.693675 27963 net.cpp:131] Top shape: 50 32 56 56 (5017600)
I0906 17:51:36.693680 27963 net.cpp:131] Top shape: 50 32 56 56 (5017600)
I0906 17:51:36.693682 27963 net.cpp:139] Memory required for data: 1816371800
I0906 17:51:36.693684 27963 layer_factory.hpp:77] Creating layer conv4_0/3x3_dwconv/slice_0
I0906 17:51:36.693696 27963 net.cpp:86] Creating Layer conv4_0/3x3_dwconv/slice_0
I0906 17:51:36.693701 27963 net.cpp:408] conv4_0/3x3_dwconv/slice_0 <- conv4_0/1x1_increase/split1
I0906 17:51:36.693708 27963 net.cpp:382] conv4_0/3x3_dwconv/slice_0 -> conv4_0/3x3_dwconv/slice_0/bn
I0906 17:51:36.694238 27963 net.cpp:124] Setting up conv4_0/3x3_dwconv/slice_0
I0906 17:51:36.694249 27963 net.cpp:131] Top shape: 50 32 28 28 (1254400)
I0906 17:51:36.694267 27963 net.cpp:139] Memory required for data: 1821389400
I0906 17:51:36.694278 27963 layer_factory.hpp:77] Creating layer conv4_0/3x3_dwconv/slice_0/relu
I0906 17:51:36.694285 27963 net.cpp:86] Creating Layer conv4_0/3x3_dwconv/slice_0/relu
I0906 17:51:36.694288 27963 net.cpp:408] conv4_0/3x3_dwconv/slice_0/relu <- conv4_0/3x3_dwconv/slice_0/bn
I0906 17:51:36.694293 27963 net.cpp:369] conv4_0/3x3_dwconv/slice_0/relu -> conv4_0/3x3_dwconv/slice_0/bn (in-place)
I0906 17:51:36.694880 27963 net.cpp:124] Setting up conv4_0/3x3_dwconv/slice_0/relu
I0906 17:51:36.694890 27963 net.cpp:131] Top shape: 50 32 28 28 (1254400)
I0906 17:51:36.694908 27963 net.cpp:139] Memory required for data: 1826407000
I0906 17:51:36.694911 27963 layer_factory.hpp:77] Creating layer conv4_0/3x3_dwconv/slice_1
I0906 17:51:36.694922 27963 net.cpp:86] Creating Layer conv4_0/3x3_dwconv/slice_1
I0906 17:51:36.694926 27963 net.cpp:408] conv4_0/3x3_dwconv/slice_1 <- conv4_0/1x1_increase/split2
I0906 17:51:36.694931 27963 net.cpp:382] conv4_0/3x3_dwconv/slice_1 -> conv4_0/3x3_dwconv/slice_1/bn
I0906 17:51:36.695757 27963 net.cpp:124] Setting up conv4_0/3x3_dwconv/slice_1
I0906 17:51:36.695770 27963 net.cpp:131] Top shape: 50 32 28 28 (1254400)
I0906 17:51:36.695788 27963 net.cpp:139] Memory required for data: 1831424600
I0906 17:51:36.695796 27963 layer_factory.hpp:77] Creating layer conv4_0/3x3_dwconv/slice_1/relu
I0906 17:51:36.695802 27963 net.cpp:86] Creating Layer conv4_0/3x3_dwconv/slice_1/relu
I0906 17:51:36.695806 27963 net.cpp:408] conv4_0/3x3_dwconv/slice_1/relu <- conv4_0/3x3_dwconv/slice_1/bn
I0906 17:51:36.695811 27963 net.cpp:369] conv4_0/3x3_dwconv/slice_1/relu -> conv4_0/3x3_dwconv/slice_1/bn (in-place)
I0906 17:51:36.696480 27963 net.cpp:124] Setting up conv4_0/3x3_dwconv/slice_1/relu
I0906 17:51:36.696492 27963 net.cpp:131] Top shape: 50 32 28 28 (1254400)
I0906 17:51:36.696511 27963 net.cpp:139] Memory required for data: 1836442200
I0906 17:51:36.696514 27963 layer_factory.hpp:77] Creating layer conv4_0/3x3_dwconv/slice_2
I0906 17:51:36.696525 27963 net.cpp:86] Creating Layer conv4_0/3x3_dwconv/slice_2
I0906 17:51:36.696529 27963 net.cpp:408] conv4_0/3x3_dwconv/slice_2 <- conv4_0/1x1_increase/split3
I0906 17:51:36.696535 27963 net.cpp:382] conv4_0/3x3_dwconv/slice_2 -> conv4_0/3x3_dwconv/slice_2/bn
I0906 17:51:36.697296 27963 net.cpp:124] Setting up conv4_0/3x3_dwconv/slice_2
I0906 17:51:36.697309 27963 net.cpp:131] Top shape: 50 32 28 28 (1254400)
I0906 17:51:36.697326 27963 net.cpp:139] Memory required for data: 1841459800
I0906 17:51:36.697333 27963 layer_factory.hpp:77] Creating layer conv4_0/3x3_dwconv/slice_2/relu
I0906 17:51:36.697365 27963 net.cpp:86] Creating Layer conv4_0/3x3_dwconv/slice_2/relu
I0906 17:51:36.697368 27963 net.cpp:408] conv4_0/3x3_dwconv/slice_2/relu <- conv4_0/3x3_dwconv/slice_2/bn
I0906 17:51:36.697373 27963 net.cpp:369] conv4_0/3x3_dwconv/slice_2/relu -> conv4_0/3x3_dwconv/slice_2/bn (in-place)
I0906 17:51:36.698171 27963 net.cpp:124] Setting up conv4_0/3x3_dwconv/slice_2/relu
I0906 17:51:36.698184 27963 net.cpp:131] Top shape: 50 32 28 28 (1254400)
I0906 17:51:36.698202 27963 net.cpp:139] Memory required for data: 1846477400
I0906 17:51:36.698205 27963 layer_factory.hpp:77] Creating layer conv4_0/3x3_dwconv/concat
I0906 17:51:36.698218 27963 net.cpp:86] Creating Layer conv4_0/3x3_dwconv/concat
I0906 17:51:36.698240 27963 net.cpp:408] conv4_0/3x3_dwconv/concat <- conv4_0/3x3_dwconv/slice_0/bn
I0906 17:51:36.698246 27963 net.cpp:408] conv4_0/3x3_dwconv/concat <- conv4_0/3x3_dwconv/slice_1/bn
I0906 17:51:36.698249 27963 net.cpp:408] conv4_0/3x3_dwconv/concat <- conv4_0/3x3_dwconv/slice_2/bn
I0906 17:51:36.698254 27963 net.cpp:382] conv4_0/3x3_dwconv/concat -> conv4_0/3x3_dwconv/concat
I0906 17:51:36.698297 27963 net.cpp:124] Setting up conv4_0/3x3_dwconv/concat
I0906 17:51:36.698303 27963 net.cpp:131] Top shape: 50 96 28 28 (3763200)
I0906 17:51:36.698307 27963 net.cpp:139] Memory required for data: 1861530200
I0906 17:51:36.698309 27963 layer_factory.hpp:77] Creating layer conv4_0/3x3_dwconv/concat_fixed_point
I0906 17:51:36.698318 27963 net.cpp:86] Creating Layer conv4_0/3x3_dwconv/concat_fixed_point
I0906 17:51:36.698320 27963 net.cpp:408] conv4_0/3x3_dwconv/concat_fixed_point <- conv4_0/3x3_dwconv/concat
I0906 17:51:36.698326 27963 net.cpp:369] conv4_0/3x3_dwconv/concat_fixed_point -> conv4_0/3x3_dwconv/concat (in-place)
I0906 17:51:36.698354 27963 net.cpp:124] Setting up conv4_0/3x3_dwconv/concat_fixed_point
I0906 17:51:36.698359 27963 net.cpp:131] Top shape: 50 96 28 28 (3763200)
I0906 17:51:36.698361 27963 net.cpp:139] Memory required for data: 1876583000
I0906 17:51:36.698366 27963 layer_factory.hpp:77] Creating layer conv4_0/3x3_dwconv/concat_conv4_0/3x3_dwconv/concat_fixed_point_0_split
I0906 17:51:36.698374 27963 net.cpp:86] Creating Layer conv4_0/3x3_dwconv/concat_conv4_0/3x3_dwconv/concat_fixed_point_0_split
I0906 17:51:36.698379 27963 net.cpp:408] conv4_0/3x3_dwconv/concat_conv4_0/3x3_dwconv/concat_fixed_point_0_split <- conv4_0/3x3_dwconv/concat
I0906 17:51:36.698384 27963 net.cpp:382] conv4_0/3x3_dwconv/concat_conv4_0/3x3_dwconv/concat_fixed_point_0_split -> conv4_0/3x3_dwconv/concat_conv4_0/3x3_dwconv/concat_fixed_point_0_split_0
I0906 17:51:36.698403 27963 net.cpp:382] conv4_0/3x3_dwconv/concat_conv4_0/3x3_dwconv/concat_fixed_point_0_split -> conv4_0/3x3_dwconv/concat_conv4_0/3x3_dwconv/concat_fixed_point_0_split_1
I0906 17:51:36.698446 27963 net.cpp:124] Setting up conv4_0/3x3_dwconv/concat_conv4_0/3x3_dwconv/concat_fixed_point_0_split
I0906 17:51:36.698451 27963 net.cpp:131] Top shape: 50 96 28 28 (3763200)
I0906 17:51:36.698454 27963 net.cpp:131] Top shape: 50 96 28 28 (3763200)
I0906 17:51:36.698457 27963 net.cpp:139] Memory required for data: 1906688600
I0906 17:51:36.698459 27963 layer_factory.hpp:77] Creating layer conv4_0/3x3_dwconv/SE_global_pool
I0906 17:51:36.698475 27963 net.cpp:86] Creating Layer conv4_0/3x3_dwconv/SE_global_pool
I0906 17:51:36.698480 27963 net.cpp:408] conv4_0/3x3_dwconv/SE_global_pool <- conv4_0/3x3_dwconv/concat_conv4_0/3x3_dwconv/concat_fixed_point_0_split_0
I0906 17:51:36.698484 27963 net.cpp:382] conv4_0/3x3_dwconv/SE_global_pool -> conv4_0/3x3_dwconv/SE_global_pool
I0906 17:51:36.698529 27963 net.cpp:124] Setting up conv4_0/3x3_dwconv/SE_global_pool
I0906 17:51:36.698535 27963 net.cpp:131] Top shape: 50 96 1 1 (4800)
I0906 17:51:36.698539 27963 net.cpp:139] Memory required for data: 1906707800
I0906 17:51:36.698541 27963 layer_factory.hpp:77] Creating layer conv4_0/3x3_dwconv/SE_fc1
I0906 17:51:36.698551 27963 net.cpp:86] Creating Layer conv4_0/3x3_dwconv/SE_fc1
I0906 17:51:36.698556 27963 net.cpp:408] conv4_0/3x3_dwconv/SE_fc1 <- conv4_0/3x3_dwconv/SE_global_pool
I0906 17:51:36.698562 27963 net.cpp:382] conv4_0/3x3_dwconv/SE_fc1 -> conv4_0/3x3_dwconv/SE_fc1
I0906 17:51:36.698956 27963 net.cpp:124] Setting up conv4_0/3x3_dwconv/SE_fc1
I0906 17:51:36.698967 27963 net.cpp:131] Top shape: 50 6 1 1 (300)
I0906 17:51:36.698985 27963 net.cpp:139] Memory required for data: 1906709000
I0906 17:51:36.698990 27963 layer_factory.hpp:77] Creating layer conv4_0/3x3_dwconv/SE_fc1/relu
I0906 17:51:36.698997 27963 net.cpp:86] Creating Layer conv4_0/3x3_dwconv/SE_fc1/relu
I0906 17:51:36.699002 27963 net.cpp:408] conv4_0/3x3_dwconv/SE_fc1/relu <- conv4_0/3x3_dwconv/SE_fc1
I0906 17:51:36.699012 27963 net.cpp:369] conv4_0/3x3_dwconv/SE_fc1/relu -> conv4_0/3x3_dwconv/SE_fc1 (in-place)
I0906 17:51:36.699646 27963 net.cpp:124] Setting up conv4_0/3x3_dwconv/SE_fc1/relu
I0906 17:51:36.699657 27963 net.cpp:131] Top shape: 50 6 1 1 (300)
I0906 17:51:36.699661 27963 net.cpp:139] Memory required for data: 1906710200
I0906 17:51:36.699663 27963 layer_factory.hpp:77] Creating layer conv4_0/3x3_dwconv/SE_fc2
I0906 17:51:36.699674 27963 net.cpp:86] Creating Layer conv4_0/3x3_dwconv/SE_fc2
I0906 17:51:36.699678 27963 net.cpp:408] conv4_0/3x3_dwconv/SE_fc2 <- conv4_0/3x3_dwconv/SE_fc1
I0906 17:51:36.699700 27963 net.cpp:382] conv4_0/3x3_dwconv/SE_fc2 -> conv4_0/3x3_dwconv/SE_fc2
I0906 17:51:36.700141 27963 net.cpp:124] Setting up conv4_0/3x3_dwconv/SE_fc2
I0906 17:51:36.700152 27963 net.cpp:131] Top shape: 50 96 1 1 (4800)
I0906 17:51:36.700170 27963 net.cpp:139] Memory required for data: 1906729400
I0906 17:51:36.700176 27963 layer_factory.hpp:77] Creating layer conv4_0/3x3_dwconv/SE_weights
I0906 17:51:36.700186 27963 net.cpp:86] Creating Layer conv4_0/3x3_dwconv/SE_weights
I0906 17:51:36.700189 27963 net.cpp:408] conv4_0/3x3_dwconv/SE_weights <- conv4_0/3x3_dwconv/SE_fc2
I0906 17:51:36.700194 27963 net.cpp:369] conv4_0/3x3_dwconv/SE_weights -> conv4_0/3x3_dwconv/SE_fc2 (in-place)
I0906 17:51:36.700803 27963 net.cpp:124] Setting up conv4_0/3x3_dwconv/SE_weights
I0906 17:51:36.700814 27963 net.cpp:131] Top shape: 50 96 1 1 (4800)
I0906 17:51:36.700831 27963 net.cpp:139] Memory required for data: 1906748600
I0906 17:51:36.700836 27963 layer_factory.hpp:77] Creating layer conv4_0/3x3_dwconv/SE_weights/reshape
I0906 17:51:36.700847 27963 net.cpp:86] Creating Layer conv4_0/3x3_dwconv/SE_weights/reshape
I0906 17:51:36.700851 27963 net.cpp:408] conv4_0/3x3_dwconv/SE_weights/reshape <- conv4_0/3x3_dwconv/SE_fc2
I0906 17:51:36.700858 27963 net.cpp:382] conv4_0/3x3_dwconv/SE_weights/reshape -> conv4_0/3x3_dwconv/SE_weights/reshape
I0906 17:51:36.700907 27963 net.cpp:124] Setting up conv4_0/3x3_dwconv/SE_weights/reshape
I0906 17:51:36.700928 27963 net.cpp:131] Top shape: 50 96 (4800)
I0906 17:51:36.700932 27963 net.cpp:139] Memory required for data: 1906767800
I0906 17:51:36.700934 27963 layer_factory.hpp:77] Creating layer conv4_0/3x3_dwconv/scale
I0906 17:51:36.700944 27963 net.cpp:86] Creating Layer conv4_0/3x3_dwconv/scale
I0906 17:51:36.700949 27963 net.cpp:408] conv4_0/3x3_dwconv/scale <- conv4_0/3x3_dwconv/concat_conv4_0/3x3_dwconv/concat_fixed_point_0_split_1
I0906 17:51:36.700954 27963 net.cpp:408] conv4_0/3x3_dwconv/scale <- conv4_0/3x3_dwconv/SE_weights/reshape
I0906 17:51:36.700958 27963 net.cpp:382] conv4_0/3x3_dwconv/scale -> conv4_0/3x3_dwconv/scale
I0906 17:51:36.701067 27963 net.cpp:124] Setting up conv4_0/3x3_dwconv/scale
I0906 17:51:36.701076 27963 net.cpp:131] Top shape: 50 96 28 28 (3763200)
I0906 17:51:36.701078 27963 net.cpp:139] Memory required for data: 1921820600
I0906 17:51:36.701081 27963 layer_factory.hpp:77] Creating layer conv4_0/3x3_dwconv/scale_fixed_point
I0906 17:51:36.701087 27963 net.cpp:86] Creating Layer conv4_0/3x3_dwconv/scale_fixed_point
I0906 17:51:36.701097 27963 net.cpp:408] conv4_0/3x3_dwconv/scale_fixed_point <- conv4_0/3x3_dwconv/scale
I0906 17:51:36.701102 27963 net.cpp:369] conv4_0/3x3_dwconv/scale_fixed_point -> conv4_0/3x3_dwconv/scale (in-place)
I0906 17:51:36.701129 27963 net.cpp:124] Setting up conv4_0/3x3_dwconv/scale_fixed_point
I0906 17:51:36.701136 27963 net.cpp:131] Top shape: 50 96 28 28 (3763200)
I0906 17:51:36.701139 27963 net.cpp:139] Memory required for data: 1936873400
I0906 17:51:36.701143 27963 layer_factory.hpp:77] Creating layer conv4_0/1x1_decrease
I0906 17:51:36.701154 27963 net.cpp:86] Creating Layer conv4_0/1x1_decrease
I0906 17:51:36.701159 27963 net.cpp:408] conv4_0/1x1_decrease <- conv4_0/3x3_dwconv/scale
I0906 17:51:36.701167 27963 net.cpp:382] conv4_0/1x1_decrease -> conv4_0/1x1_decrease/bn
I0906 17:51:36.701880 27963 net.cpp:124] Setting up conv4_0/1x1_decrease
I0906 17:51:36.701908 27963 net.cpp:131] Top shape: 50 40 28 28 (1568000)
I0906 17:51:36.701912 27963 net.cpp:139] Memory required for data: 1943145400
I0906 17:51:36.701932 27963 layer_factory.hpp:77] Creating layer conv4_0/1x1_decrease/bn_fixed_point
I0906 17:51:36.701939 27963 net.cpp:86] Creating Layer conv4_0/1x1_decrease/bn_fixed_point
I0906 17:51:36.701943 27963 net.cpp:408] conv4_0/1x1_decrease/bn_fixed_point <- conv4_0/1x1_decrease/bn
I0906 17:51:36.701948 27963 net.cpp:369] conv4_0/1x1_decrease/bn_fixed_point -> conv4_0/1x1_decrease/bn (in-place)
I0906 17:51:36.701982 27963 net.cpp:124] Setting up conv4_0/1x1_decrease/bn_fixed_point
I0906 17:51:36.701989 27963 net.cpp:131] Top shape: 50 40 28 28 (1568000)
I0906 17:51:36.701992 27963 net.cpp:139] Memory required for data: 1949417400
I0906 17:51:36.701997 27963 layer_factory.hpp:77] Creating layer conv4_0/1x1_decrease/bn_conv4_0/1x1_decrease/bn_fixed_point_0_split
I0906 17:51:36.702003 27963 net.cpp:86] Creating Layer conv4_0/1x1_decrease/bn_conv4_0/1x1_decrease/bn_fixed_point_0_split
I0906 17:51:36.702026 27963 net.cpp:408] conv4_0/1x1_decrease/bn_conv4_0/1x1_decrease/bn_fixed_point_0_split <- conv4_0/1x1_decrease/bn
I0906 17:51:36.702045 27963 net.cpp:382] conv4_0/1x1_decrease/bn_conv4_0/1x1_decrease/bn_fixed_point_0_split -> conv4_0/1x1_decrease/bn_conv4_0/1x1_decrease/bn_fixed_point_0_split_0
I0906 17:51:36.702054 27963 net.cpp:382] conv4_0/1x1_decrease/bn_conv4_0/1x1_decrease/bn_fixed_point_0_split -> conv4_0/1x1_decrease/bn_conv4_0/1x1_decrease/bn_fixed_point_0_split_1
I0906 17:51:36.702098 27963 net.cpp:124] Setting up conv4_0/1x1_decrease/bn_conv4_0/1x1_decrease/bn_fixed_point_0_split
I0906 17:51:36.702105 27963 net.cpp:131] Top shape: 50 40 28 28 (1568000)
I0906 17:51:36.702109 27963 net.cpp:131] Top shape: 50 40 28 28 (1568000)
I0906 17:51:36.702112 27963 net.cpp:139] Memory required for data: 1961961400
I0906 17:51:36.702116 27963 layer_factory.hpp:77] Creating layer conv4_1/1x1_increase
I0906 17:51:36.702141 27963 net.cpp:86] Creating Layer conv4_1/1x1_increase
I0906 17:51:36.702147 27963 net.cpp:408] conv4_1/1x1_increase <- conv4_0/1x1_decrease/bn_conv4_0/1x1_decrease/bn_fixed_point_0_split_0
I0906 17:51:36.702167 27963 net.cpp:382] conv4_1/1x1_increase -> conv4_1/1x1_increase/bn
I0906 17:51:36.702834 27963 net.cpp:124] Setting up conv4_1/1x1_increase
I0906 17:51:36.702845 27963 net.cpp:131] Top shape: 50 120 28 28 (4704000)
I0906 17:51:36.702859 27963 net.cpp:139] Memory required for data: 1980777400
I0906 17:51:36.702865 27963 layer_factory.hpp:77] Creating layer conv4_1/1x1_increase/relu
I0906 17:51:36.702872 27963 net.cpp:86] Creating Layer conv4_1/1x1_increase/relu
I0906 17:51:36.702875 27963 net.cpp:408] conv4_1/1x1_increase/relu <- conv4_1/1x1_increase/bn
I0906 17:51:36.702881 27963 net.cpp:369] conv4_1/1x1_increase/relu -> conv4_1/1x1_increase/bn (in-place)
I0906 17:51:36.703816 27963 net.cpp:124] Setting up conv4_1/1x1_increase/relu
I0906 17:51:36.703841 27963 net.cpp:131] Top shape: 50 120 28 28 (4704000)
I0906 17:51:36.703845 27963 net.cpp:139] Memory required for data: 1999593400
I0906 17:51:36.703850 27963 layer_factory.hpp:77] Creating layer conv4_1/1x1_increase/bn_fixed_point
I0906 17:51:36.703857 27963 net.cpp:86] Creating Layer conv4_1/1x1_increase/bn_fixed_point
I0906 17:51:36.703861 27963 net.cpp:408] conv4_1/1x1_increase/bn_fixed_point <- conv4_1/1x1_increase/bn
I0906 17:51:36.703866 27963 net.cpp:369] conv4_1/1x1_increase/bn_fixed_point -> conv4_1/1x1_increase/bn (in-place)
I0906 17:51:36.703917 27963 net.cpp:124] Setting up conv4_1/1x1_increase/bn_fixed_point
I0906 17:51:36.703924 27963 net.cpp:131] Top shape: 50 120 28 28 (4704000)
I0906 17:51:36.703927 27963 net.cpp:139] Memory required for data: 2018409400
I0906 17:51:36.703932 27963 layer_factory.hpp:77] Creating layer conv4_1/1x1_increase/slice
I0906 17:51:36.703939 27963 net.cpp:86] Creating Layer conv4_1/1x1_increase/slice
I0906 17:51:36.703943 27963 net.cpp:408] conv4_1/1x1_increase/slice <- conv4_1/1x1_increase/bn
I0906 17:51:36.703948 27963 net.cpp:382] conv4_1/1x1_increase/slice -> conv4_1/1x1_increase/split1
I0906 17:51:36.703958 27963 net.cpp:382] conv4_1/1x1_increase/slice -> conv4_1/1x1_increase/split2
I0906 17:51:36.704058 27963 net.cpp:124] Setting up conv4_1/1x1_increase/slice
I0906 17:51:36.704067 27963 net.cpp:131] Top shape: 50 60 28 28 (2352000)
I0906 17:51:36.704071 27963 net.cpp:131] Top shape: 50 60 28 28 (2352000)
I0906 17:51:36.704088 27963 net.cpp:139] Memory required for data: 2037225400
I0906 17:51:36.704092 27963 layer_factory.hpp:77] Creating layer conv4_1/3x3_dwconv/slice_0
I0906 17:51:36.704103 27963 net.cpp:86] Creating Layer conv4_1/3x3_dwconv/slice_0
I0906 17:51:36.704108 27963 net.cpp:408] conv4_1/3x3_dwconv/slice_0 <- conv4_1/1x1_increase/split1
I0906 17:51:36.704113 27963 net.cpp:382] conv4_1/3x3_dwconv/slice_0 -> conv4_1/3x3_dwconv/slice_0/bn
I0906 17:51:36.704691 27963 net.cpp:124] Setting up conv4_1/3x3_dwconv/slice_0
I0906 17:51:36.704702 27963 net.cpp:131] Top shape: 50 60 28 28 (2352000)
I0906 17:51:36.704720 27963 net.cpp:139] Memory required for data: 2046633400
I0906 17:51:36.704726 27963 layer_factory.hpp:77] Creating layer conv4_1/3x3_dwconv/slice_0/relu
I0906 17:51:36.704732 27963 net.cpp:86] Creating Layer conv4_1/3x3_dwconv/slice_0/relu
I0906 17:51:36.704736 27963 net.cpp:408] conv4_1/3x3_dwconv/slice_0/relu <- conv4_1/3x3_dwconv/slice_0/bn
I0906 17:51:36.704741 27963 net.cpp:369] conv4_1/3x3_dwconv/slice_0/relu -> conv4_1/3x3_dwconv/slice_0/bn (in-place)
I0906 17:51:36.705375 27963 net.cpp:124] Setting up conv4_1/3x3_dwconv/slice_0/relu
I0906 17:51:36.705386 27963 net.cpp:131] Top shape: 50 60 28 28 (2352000)
I0906 17:51:36.705404 27963 net.cpp:139] Memory required for data: 2056041400
I0906 17:51:36.705407 27963 layer_factory.hpp:77] Creating layer conv4_1/3x3_dwconv/slice_1
I0906 17:51:36.705418 27963 net.cpp:86] Creating Layer conv4_1/3x3_dwconv/slice_1
I0906 17:51:36.705422 27963 net.cpp:408] conv4_1/3x3_dwconv/slice_1 <- conv4_1/1x1_increase/split2
I0906 17:51:36.705431 27963 net.cpp:382] conv4_1/3x3_dwconv/slice_1 -> conv4_1/3x3_dwconv/slice_1/bn
I0906 17:51:36.706241 27963 net.cpp:124] Setting up conv4_1/3x3_dwconv/slice_1
I0906 17:51:36.706254 27963 net.cpp:131] Top shape: 50 60 28 28 (2352000)
I0906 17:51:36.706274 27963 net.cpp:139] Memory required for data: 2065449400
I0906 17:51:36.706280 27963 layer_factory.hpp:77] Creating layer conv4_1/3x3_dwconv/slice_1/relu
I0906 17:51:36.706286 27963 net.cpp:86] Creating Layer conv4_1/3x3_dwconv/slice_1/relu
I0906 17:51:36.706290 27963 net.cpp:408] conv4_1/3x3_dwconv/slice_1/relu <- conv4_1/3x3_dwconv/slice_1/bn
I0906 17:51:36.706297 27963 net.cpp:369] conv4_1/3x3_dwconv/slice_1/relu -> conv4_1/3x3_dwconv/slice_1/bn (in-place)
I0906 17:51:36.706919 27963 net.cpp:124] Setting up conv4_1/3x3_dwconv/slice_1/relu
I0906 17:51:36.706929 27963 net.cpp:131] Top shape: 50 60 28 28 (2352000)
I0906 17:51:36.706948 27963 net.cpp:139] Memory required for data: 2074857400
I0906 17:51:36.706950 27963 layer_factory.hpp:77] Creating layer conv4_1/3x3_dwconv/concat
I0906 17:51:36.706956 27963 net.cpp:86] Creating Layer conv4_1/3x3_dwconv/concat
I0906 17:51:36.706960 27963 net.cpp:408] conv4_1/3x3_dwconv/concat <- conv4_1/3x3_dwconv/slice_0/bn
I0906 17:51:36.706964 27963 net.cpp:408] conv4_1/3x3_dwconv/concat <- conv4_1/3x3_dwconv/slice_1/bn
I0906 17:51:36.706970 27963 net.cpp:382] conv4_1/3x3_dwconv/concat -> conv4_1/3x3_dwconv/concat
I0906 17:51:36.707002 27963 net.cpp:124] Setting up conv4_1/3x3_dwconv/concat
I0906 17:51:36.707029 27963 net.cpp:131] Top shape: 50 120 28 28 (4704000)
I0906 17:51:36.707033 27963 net.cpp:139] Memory required for data: 2093673400
I0906 17:51:36.707036 27963 layer_factory.hpp:77] Creating layer conv4_1/3x3_dwconv/concat_fixed_point
I0906 17:51:36.707042 27963 net.cpp:86] Creating Layer conv4_1/3x3_dwconv/concat_fixed_point
I0906 17:51:36.707046 27963 net.cpp:408] conv4_1/3x3_dwconv/concat_fixed_point <- conv4_1/3x3_dwconv/concat
I0906 17:51:36.707049 27963 net.cpp:369] conv4_1/3x3_dwconv/concat_fixed_point -> conv4_1/3x3_dwconv/concat (in-place)
I0906 17:51:36.707078 27963 net.cpp:124] Setting up conv4_1/3x3_dwconv/concat_fixed_point
I0906 17:51:36.707084 27963 net.cpp:131] Top shape: 50 120 28 28 (4704000)
I0906 17:51:36.707100 27963 net.cpp:139] Memory required for data: 2112489400
I0906 17:51:36.707105 27963 layer_factory.hpp:77] Creating layer conv4_1/3x3_dwconv/concat_conv4_1/3x3_dwconv/concat_fixed_point_0_split
I0906 17:51:36.707113 27963 net.cpp:86] Creating Layer conv4_1/3x3_dwconv/concat_conv4_1/3x3_dwconv/concat_fixed_point_0_split
I0906 17:51:36.707118 27963 net.cpp:408] conv4_1/3x3_dwconv/concat_conv4_1/3x3_dwconv/concat_fixed_point_0_split <- conv4_1/3x3_dwconv/concat
I0906 17:51:36.707123 27963 net.cpp:382] conv4_1/3x3_dwconv/concat_conv4_1/3x3_dwconv/concat_fixed_point_0_split -> conv4_1/3x3_dwconv/concat_conv4_1/3x3_dwconv/concat_fixed_point_0_split_0
I0906 17:51:36.707129 27963 net.cpp:382] conv4_1/3x3_dwconv/concat_conv4_1/3x3_dwconv/concat_fixed_point_0_split -> conv4_1/3x3_dwconv/concat_conv4_1/3x3_dwconv/concat_fixed_point_0_split_1
I0906 17:51:36.707188 27963 net.cpp:124] Setting up conv4_1/3x3_dwconv/concat_conv4_1/3x3_dwconv/concat_fixed_point_0_split
I0906 17:51:36.707195 27963 net.cpp:131] Top shape: 50 120 28 28 (4704000)
I0906 17:51:36.707198 27963 net.cpp:131] Top shape: 50 120 28 28 (4704000)
I0906 17:51:36.707201 27963 net.cpp:139] Memory required for data: 2150121400
I0906 17:51:36.707204 27963 layer_factory.hpp:77] Creating layer conv4_1/3x3_dwconv/SE_global_pool
I0906 17:51:36.707216 27963 net.cpp:86] Creating Layer conv4_1/3x3_dwconv/SE_global_pool
I0906 17:51:36.707221 27963 net.cpp:408] conv4_1/3x3_dwconv/SE_global_pool <- conv4_1/3x3_dwconv/concat_conv4_1/3x3_dwconv/concat_fixed_point_0_split_0
I0906 17:51:36.707228 27963 net.cpp:382] conv4_1/3x3_dwconv/SE_global_pool -> conv4_1/3x3_dwconv/SE_global_pool
I0906 17:51:36.707254 27963 net.cpp:124] Setting up conv4_1/3x3_dwconv/SE_global_pool
I0906 17:51:36.707260 27963 net.cpp:131] Top shape: 50 120 1 1 (6000)
I0906 17:51:36.707263 27963 net.cpp:139] Memory required for data: 2150145400
I0906 17:51:36.707267 27963 layer_factory.hpp:77] Creating layer conv4_1/3x3_dwconv/SE_fc1
I0906 17:51:36.707276 27963 net.cpp:86] Creating Layer conv4_1/3x3_dwconv/SE_fc1
I0906 17:51:36.707281 27963 net.cpp:408] conv4_1/3x3_dwconv/SE_fc1 <- conv4_1/3x3_dwconv/SE_global_pool
I0906 17:51:36.707288 27963 net.cpp:382] conv4_1/3x3_dwconv/SE_fc1 -> conv4_1/3x3_dwconv/SE_fc1
I0906 17:51:36.707703 27963 net.cpp:124] Setting up conv4_1/3x3_dwconv/SE_fc1
I0906 17:51:36.707712 27963 net.cpp:131] Top shape: 50 7 1 1 (350)
I0906 17:51:36.707731 27963 net.cpp:139] Memory required for data: 2150146800
I0906 17:51:36.707736 27963 layer_factory.hpp:77] Creating layer conv4_1/3x3_dwconv/SE_fc1/relu
I0906 17:51:36.707741 27963 net.cpp:86] Creating Layer conv4_1/3x3_dwconv/SE_fc1/relu
I0906 17:51:36.707746 27963 net.cpp:408] conv4_1/3x3_dwconv/SE_fc1/relu <- conv4_1/3x3_dwconv/SE_fc1
I0906 17:51:36.707751 27963 net.cpp:369] conv4_1/3x3_dwconv/SE_fc1/relu -> conv4_1/3x3_dwconv/SE_fc1 (in-place)
I0906 17:51:36.708581 27963 net.cpp:124] Setting up conv4_1/3x3_dwconv/SE_fc1/relu
I0906 17:51:36.708595 27963 net.cpp:131] Top shape: 50 7 1 1 (350)
I0906 17:51:36.708613 27963 net.cpp:139] Memory required for data: 2150148200
I0906 17:51:36.708616 27963 layer_factory.hpp:77] Creating layer conv4_1/3x3_dwconv/SE_fc2
I0906 17:51:36.708628 27963 net.cpp:86] Creating Layer conv4_1/3x3_dwconv/SE_fc2
I0906 17:51:36.708632 27963 net.cpp:408] conv4_1/3x3_dwconv/SE_fc2 <- conv4_1/3x3_dwconv/SE_fc1
I0906 17:51:36.708637 27963 net.cpp:382] conv4_1/3x3_dwconv/SE_fc2 -> conv4_1/3x3_dwconv/SE_fc2
I0906 17:51:36.709033 27963 net.cpp:124] Setting up conv4_1/3x3_dwconv/SE_fc2
I0906 17:51:36.709043 27963 net.cpp:131] Top shape: 50 120 1 1 (6000)
I0906 17:51:36.709062 27963 net.cpp:139] Memory required for data: 2150172200
I0906 17:51:36.709067 27963 layer_factory.hpp:77] Creating layer conv4_1/3x3_dwconv/SE_weights
I0906 17:51:36.709089 27963 net.cpp:86] Creating Layer conv4_1/3x3_dwconv/SE_weights
I0906 17:51:36.709094 27963 net.cpp:408] conv4_1/3x3_dwconv/SE_weights <- conv4_1/3x3_dwconv/SE_fc2
I0906 17:51:36.709098 27963 net.cpp:369] conv4_1/3x3_dwconv/SE_weights -> conv4_1/3x3_dwconv/SE_fc2 (in-place)
I0906 17:51:36.709789 27963 net.cpp:124] Setting up conv4_1/3x3_dwconv/SE_weights
I0906 17:51:36.709798 27963 net.cpp:131] Top shape: 50 120 1 1 (6000)
I0906 17:51:36.709817 27963 net.cpp:139] Memory required for data: 2150196200
I0906 17:51:36.709821 27963 layer_factory.hpp:77] Creating layer conv4_1/3x3_dwconv/SE_weights/reshape
I0906 17:51:36.709830 27963 net.cpp:86] Creating Layer conv4_1/3x3_dwconv/SE_weights/reshape
I0906 17:51:36.709833 27963 net.cpp:408] conv4_1/3x3_dwconv/SE_weights/reshape <- conv4_1/3x3_dwconv/SE_fc2
I0906 17:51:36.709838 27963 net.cpp:382] conv4_1/3x3_dwconv/SE_weights/reshape -> conv4_1/3x3_dwconv/SE_weights/reshape
I0906 17:51:36.709874 27963 net.cpp:124] Setting up conv4_1/3x3_dwconv/SE_weights/reshape
I0906 17:51:36.709880 27963 net.cpp:131] Top shape: 50 120 (6000)
I0906 17:51:36.709883 27963 net.cpp:139] Memory required for data: 2150220200
I0906 17:51:36.709887 27963 layer_factory.hpp:77] Creating layer conv4_1/3x3_dwconv/scale
I0906 17:51:36.709895 27963 net.cpp:86] Creating Layer conv4_1/3x3_dwconv/scale
I0906 17:51:36.709902 27963 net.cpp:408] conv4_1/3x3_dwconv/scale <- conv4_1/3x3_dwconv/concat_conv4_1/3x3_dwconv/concat_fixed_point_0_split_1
I0906 17:51:36.709920 27963 net.cpp:408] conv4_1/3x3_dwconv/scale <- conv4_1/3x3_dwconv/SE_weights/reshape
I0906 17:51:36.709925 27963 net.cpp:382] conv4_1/3x3_dwconv/scale -> conv4_1/3x3_dwconv/scale
I0906 17:51:36.710014 27963 net.cpp:124] Setting up conv4_1/3x3_dwconv/scale
I0906 17:51:36.710024 27963 net.cpp:131] Top shape: 50 120 28 28 (4704000)
I0906 17:51:36.710027 27963 net.cpp:139] Memory required for data: 2169036200
I0906 17:51:36.710031 27963 layer_factory.hpp:77] Creating layer conv4_1/3x3_dwconv/scale_fixed_point
I0906 17:51:36.710036 27963 net.cpp:86] Creating Layer conv4_1/3x3_dwconv/scale_fixed_point
I0906 17:51:36.710039 27963 net.cpp:408] conv4_1/3x3_dwconv/scale_fixed_point <- conv4_1/3x3_dwconv/scale
I0906 17:51:36.710044 27963 net.cpp:369] conv4_1/3x3_dwconv/scale_fixed_point -> conv4_1/3x3_dwconv/scale (in-place)
I0906 17:51:36.710072 27963 net.cpp:124] Setting up conv4_1/3x3_dwconv/scale_fixed_point
I0906 17:51:36.710078 27963 net.cpp:131] Top shape: 50 120 28 28 (4704000)
I0906 17:51:36.710081 27963 net.cpp:139] Memory required for data: 2187852200
I0906 17:51:36.710086 27963 layer_factory.hpp:77] Creating layer conv4_1/1x1_decrease
I0906 17:51:36.710096 27963 net.cpp:86] Creating Layer conv4_1/1x1_decrease
I0906 17:51:36.710103 27963 net.cpp:408] conv4_1/1x1_decrease <- conv4_1/3x3_dwconv/scale
I0906 17:51:36.710110 27963 net.cpp:382] conv4_1/1x1_decrease -> conv4_1/1x1_decrease/bn
I0906 17:51:36.710825 27963 net.cpp:124] Setting up conv4_1/1x1_decrease
I0906 17:51:36.710837 27963 net.cpp:131] Top shape: 50 40 28 28 (1568000)
I0906 17:51:36.710855 27963 net.cpp:139] Memory required for data: 2194124200
I0906 17:51:36.710862 27963 layer_factory.hpp:77] Creating layer conv4_1/elt_sum
I0906 17:51:36.710871 27963 net.cpp:86] Creating Layer conv4_1/elt_sum
I0906 17:51:36.710875 27963 net.cpp:408] conv4_1/elt_sum <- conv4_0/1x1_decrease/bn_conv4_0/1x1_decrease/bn_fixed_point_0_split_1
I0906 17:51:36.710880 27963 net.cpp:408] conv4_1/elt_sum <- conv4_1/1x1_decrease/bn
I0906 17:51:36.710886 27963 net.cpp:382] conv4_1/elt_sum -> conv4_1/elt_sum
I0906 17:51:36.710922 27963 net.cpp:124] Setting up conv4_1/elt_sum
I0906 17:51:36.710927 27963 net.cpp:131] Top shape: 50 40 28 28 (1568000)
I0906 17:51:36.710930 27963 net.cpp:139] Memory required for data: 2200396200
I0906 17:51:36.710933 27963 layer_factory.hpp:77] Creating layer conv4_1/elt_sum_fixed_point
I0906 17:51:36.710942 27963 net.cpp:86] Creating Layer conv4_1/elt_sum_fixed_point
I0906 17:51:36.710944 27963 net.cpp:408] conv4_1/elt_sum_fixed_point <- conv4_1/elt_sum
I0906 17:51:36.710950 27963 net.cpp:369] conv4_1/elt_sum_fixed_point -> conv4_1/elt_sum (in-place)
I0906 17:51:36.710976 27963 net.cpp:124] Setting up conv4_1/elt_sum_fixed_point
I0906 17:51:36.710983 27963 net.cpp:131] Top shape: 50 40 28 28 (1568000)
I0906 17:51:36.710984 27963 net.cpp:139] Memory required for data: 2206668200
I0906 17:51:36.711000 27963 layer_factory.hpp:77] Creating layer conv4_1/elt_sum_conv4_1/elt_sum_fixed_point_0_split
I0906 17:51:36.711015 27963 net.cpp:86] Creating Layer conv4_1/elt_sum_conv4_1/elt_sum_fixed_point_0_split
I0906 17:51:36.711033 27963 net.cpp:408] conv4_1/elt_sum_conv4_1/elt_sum_fixed_point_0_split <- conv4_1/elt_sum
I0906 17:51:36.711040 27963 net.cpp:382] conv4_1/elt_sum_conv4_1/elt_sum_fixed_point_0_split -> conv4_1/elt_sum_conv4_1/elt_sum_fixed_point_0_split_0
I0906 17:51:36.711050 27963 net.cpp:382] conv4_1/elt_sum_conv4_1/elt_sum_fixed_point_0_split -> conv4_1/elt_sum_conv4_1/elt_sum_fixed_point_0_split_1
I0906 17:51:36.711109 27963 net.cpp:124] Setting up conv4_1/elt_sum_conv4_1/elt_sum_fixed_point_0_split
I0906 17:51:36.711115 27963 net.cpp:131] Top shape: 50 40 28 28 (1568000)
I0906 17:51:36.711119 27963 net.cpp:131] Top shape: 50 40 28 28 (1568000)
I0906 17:51:36.711122 27963 net.cpp:139] Memory required for data: 2219212200
I0906 17:51:36.711125 27963 layer_factory.hpp:77] Creating layer conv4_2/1x1_increase
I0906 17:51:36.711136 27963 net.cpp:86] Creating Layer conv4_2/1x1_increase
I0906 17:51:36.711141 27963 net.cpp:408] conv4_2/1x1_increase <- conv4_1/elt_sum_conv4_1/elt_sum_fixed_point_0_split_0
I0906 17:51:36.711148 27963 net.cpp:382] conv4_2/1x1_increase -> conv4_2/1x1_increase/bn
I0906 17:51:36.711869 27963 net.cpp:124] Setting up conv4_2/1x1_increase
I0906 17:51:36.711879 27963 net.cpp:131] Top shape: 50 120 28 28 (4704000)
I0906 17:51:36.711882 27963 net.cpp:139] Memory required for data: 2238028200
I0906 17:51:36.711889 27963 layer_factory.hpp:77] Creating layer conv4_2/1x1_increase/relu
I0906 17:51:36.711895 27963 net.cpp:86] Creating Layer conv4_2/1x1_increase/relu
I0906 17:51:36.711915 27963 net.cpp:408] conv4_2/1x1_increase/relu <- conv4_2/1x1_increase/bn
I0906 17:51:36.711920 27963 net.cpp:369] conv4_2/1x1_increase/relu -> conv4_2/1x1_increase/bn (in-place)
I0906 17:51:36.712548 27963 net.cpp:124] Setting up conv4_2/1x1_increase/relu
I0906 17:51:36.712559 27963 net.cpp:131] Top shape: 50 120 28 28 (4704000)
I0906 17:51:36.712577 27963 net.cpp:139] Memory required for data: 2256844200
I0906 17:51:36.712580 27963 layer_factory.hpp:77] Creating layer conv4_2/1x1_increase/bn_fixed_point
I0906 17:51:36.712589 27963 net.cpp:86] Creating Layer conv4_2/1x1_increase/bn_fixed_point
I0906 17:51:36.712594 27963 net.cpp:408] conv4_2/1x1_increase/bn_fixed_point <- conv4_2/1x1_increase/bn
I0906 17:51:36.712597 27963 net.cpp:369] conv4_2/1x1_increase/bn_fixed_point -> conv4_2/1x1_increase/bn (in-place)
I0906 17:51:36.712646 27963 net.cpp:124] Setting up conv4_2/1x1_increase/bn_fixed_point
I0906 17:51:36.712651 27963 net.cpp:131] Top shape: 50 120 28 28 (4704000)
I0906 17:51:36.712654 27963 net.cpp:139] Memory required for data: 2275660200
I0906 17:51:36.712658 27963 layer_factory.hpp:77] Creating layer conv4_2/1x1_increase/slice
I0906 17:51:36.712666 27963 net.cpp:86] Creating Layer conv4_2/1x1_increase/slice
I0906 17:51:36.712669 27963 net.cpp:408] conv4_2/1x1_increase/slice <- conv4_2/1x1_increase/bn
I0906 17:51:36.712675 27963 net.cpp:382] conv4_2/1x1_increase/slice -> conv4_2/1x1_increase/split1
I0906 17:51:36.712682 27963 net.cpp:382] conv4_2/1x1_increase/slice -> conv4_2/1x1_increase/split2
I0906 17:51:36.712728 27963 net.cpp:124] Setting up conv4_2/1x1_increase/slice
I0906 17:51:36.712733 27963 net.cpp:131] Top shape: 50 60 28 28 (2352000)
I0906 17:51:36.712736 27963 net.cpp:131] Top shape: 50 60 28 28 (2352000)
I0906 17:51:36.712739 27963 net.cpp:139] Memory required for data: 2294476200
I0906 17:51:36.712741 27963 layer_factory.hpp:77] Creating layer conv4_2/3x3_dwconv/slice_0
I0906 17:51:36.712752 27963 net.cpp:86] Creating Layer conv4_2/3x3_dwconv/slice_0
I0906 17:51:36.712755 27963 net.cpp:408] conv4_2/3x3_dwconv/slice_0 <- conv4_2/1x1_increase/split1
I0906 17:51:36.712762 27963 net.cpp:382] conv4_2/3x3_dwconv/slice_0 -> conv4_2/3x3_dwconv/slice_0/bn
I0906 17:51:36.713330 27963 net.cpp:124] Setting up conv4_2/3x3_dwconv/slice_0
I0906 17:51:36.713341 27963 net.cpp:131] Top shape: 50 60 28 28 (2352000)
I0906 17:51:36.713369 27963 net.cpp:139] Memory required for data: 2303884200
I0906 17:51:36.713376 27963 layer_factory.hpp:77] Creating layer conv4_2/3x3_dwconv/slice_0/relu
I0906 17:51:36.713383 27963 net.cpp:86] Creating Layer conv4_2/3x3_dwconv/slice_0/relu
I0906 17:51:36.713389 27963 net.cpp:408] conv4_2/3x3_dwconv/slice_0/relu <- conv4_2/3x3_dwconv/slice_0/bn
I0906 17:51:36.713394 27963 net.cpp:369] conv4_2/3x3_dwconv/slice_0/relu -> conv4_2/3x3_dwconv/slice_0/bn (in-place)
I0906 17:51:36.714018 27963 net.cpp:124] Setting up conv4_2/3x3_dwconv/slice_0/relu
I0906 17:51:36.714030 27963 net.cpp:131] Top shape: 50 60 28 28 (2352000)
I0906 17:51:36.714047 27963 net.cpp:139] Memory required for data: 2313292200
I0906 17:51:36.714051 27963 layer_factory.hpp:77] Creating layer conv4_2/3x3_dwconv/slice_1
I0906 17:51:36.714079 27963 net.cpp:86] Creating Layer conv4_2/3x3_dwconv/slice_1
I0906 17:51:36.714083 27963 net.cpp:408] conv4_2/3x3_dwconv/slice_1 <- conv4_2/1x1_increase/split2
I0906 17:51:36.714089 27963 net.cpp:382] conv4_2/3x3_dwconv/slice_1 -> conv4_2/3x3_dwconv/slice_1/bn
I0906 17:51:36.715029 27963 net.cpp:124] Setting up conv4_2/3x3_dwconv/slice_1
I0906 17:51:36.715059 27963 net.cpp:131] Top shape: 50 60 28 28 (2352000)
I0906 17:51:36.715062 27963 net.cpp:139] Memory required for data: 2322700200
I0906 17:51:36.715077 27963 layer_factory.hpp:77] Creating layer conv4_2/3x3_dwconv/slice_1/relu
I0906 17:51:36.715085 27963 net.cpp:86] Creating Layer conv4_2/3x3_dwconv/slice_1/relu
I0906 17:51:36.715090 27963 net.cpp:408] conv4_2/3x3_dwconv/slice_1/relu <- conv4_2/3x3_dwconv/slice_1/bn
I0906 17:51:36.715095 27963 net.cpp:369] conv4_2/3x3_dwconv/slice_1/relu -> conv4_2/3x3_dwconv/slice_1/bn (in-place)
I0906 17:51:36.715921 27963 net.cpp:124] Setting up conv4_2/3x3_dwconv/slice_1/relu
I0906 17:51:36.715934 27963 net.cpp:131] Top shape: 50 60 28 28 (2352000)
I0906 17:51:36.715952 27963 net.cpp:139] Memory required for data: 2332108200
I0906 17:51:36.715956 27963 layer_factory.hpp:77] Creating layer conv4_2/3x3_dwconv/concat
I0906 17:51:36.715963 27963 net.cpp:86] Creating Layer conv4_2/3x3_dwconv/concat
I0906 17:51:36.715967 27963 net.cpp:408] conv4_2/3x3_dwconv/concat <- conv4_2/3x3_dwconv/slice_0/bn
I0906 17:51:36.715975 27963 net.cpp:408] conv4_2/3x3_dwconv/concat <- conv4_2/3x3_dwconv/slice_1/bn
I0906 17:51:36.715979 27963 net.cpp:382] conv4_2/3x3_dwconv/concat -> conv4_2/3x3_dwconv/concat
I0906 17:51:36.716022 27963 net.cpp:124] Setting up conv4_2/3x3_dwconv/concat
I0906 17:51:36.716027 27963 net.cpp:131] Top shape: 50 120 28 28 (4704000)
I0906 17:51:36.716030 27963 net.cpp:139] Memory required for data: 2350924200
I0906 17:51:36.716033 27963 layer_factory.hpp:77] Creating layer conv4_2/3x3_dwconv/concat_fixed_point
I0906 17:51:36.716039 27963 net.cpp:86] Creating Layer conv4_2/3x3_dwconv/concat_fixed_point
I0906 17:51:36.716043 27963 net.cpp:408] conv4_2/3x3_dwconv/concat_fixed_point <- conv4_2/3x3_dwconv/concat
I0906 17:51:36.716049 27963 net.cpp:369] conv4_2/3x3_dwconv/concat_fixed_point -> conv4_2/3x3_dwconv/concat (in-place)
I0906 17:51:36.716079 27963 net.cpp:124] Setting up conv4_2/3x3_dwconv/concat_fixed_point
I0906 17:51:36.716084 27963 net.cpp:131] Top shape: 50 120 28 28 (4704000)
I0906 17:51:36.716087 27963 net.cpp:139] Memory required for data: 2369740200
I0906 17:51:36.716092 27963 layer_factory.hpp:77] Creating layer conv4_2/3x3_dwconv/concat_conv4_2/3x3_dwconv/concat_fixed_point_0_split
I0906 17:51:36.716099 27963 net.cpp:86] Creating Layer conv4_2/3x3_dwconv/concat_conv4_2/3x3_dwconv/concat_fixed_point_0_split
I0906 17:51:36.716101 27963 net.cpp:408] conv4_2/3x3_dwconv/concat_conv4_2/3x3_dwconv/concat_fixed_point_0_split <- conv4_2/3x3_dwconv/concat
I0906 17:51:36.716106 27963 net.cpp:382] conv4_2/3x3_dwconv/concat_conv4_2/3x3_dwconv/concat_fixed_point_0_split -> conv4_2/3x3_dwconv/concat_conv4_2/3x3_dwconv/concat_fixed_point_0_split_0
I0906 17:51:36.716114 27963 net.cpp:382] conv4_2/3x3_dwconv/concat_conv4_2/3x3_dwconv/concat_fixed_point_0_split -> conv4_2/3x3_dwconv/concat_conv4_2/3x3_dwconv/concat_fixed_point_0_split_1
I0906 17:51:36.716172 27963 net.cpp:124] Setting up conv4_2/3x3_dwconv/concat_conv4_2/3x3_dwconv/concat_fixed_point_0_split
I0906 17:51:36.716178 27963 net.cpp:131] Top shape: 50 120 28 28 (4704000)
I0906 17:51:36.716182 27963 net.cpp:131] Top shape: 50 120 28 28 (4704000)
I0906 17:51:36.716184 27963 net.cpp:139] Memory required for data: 2407372200
I0906 17:51:36.716187 27963 layer_factory.hpp:77] Creating layer conv4_2/3x3_dwconv/SE_global_pool
I0906 17:51:36.716197 27963 net.cpp:86] Creating Layer conv4_2/3x3_dwconv/SE_global_pool
I0906 17:51:36.716200 27963 net.cpp:408] conv4_2/3x3_dwconv/SE_global_pool <- conv4_2/3x3_dwconv/concat_conv4_2/3x3_dwconv/concat_fixed_point_0_split_0
I0906 17:51:36.716204 27963 net.cpp:382] conv4_2/3x3_dwconv/SE_global_pool -> conv4_2/3x3_dwconv/SE_global_pool
I0906 17:51:36.716233 27963 net.cpp:124] Setting up conv4_2/3x3_dwconv/SE_global_pool
I0906 17:51:36.716253 27963 net.cpp:131] Top shape: 50 120 1 1 (6000)
I0906 17:51:36.716255 27963 net.cpp:139] Memory required for data: 2407396200
I0906 17:51:36.716259 27963 layer_factory.hpp:77] Creating layer conv4_2/3x3_dwconv/SE_fc1
I0906 17:51:36.716269 27963 net.cpp:86] Creating Layer conv4_2/3x3_dwconv/SE_fc1
I0906 17:51:36.716271 27963 net.cpp:408] conv4_2/3x3_dwconv/SE_fc1 <- conv4_2/3x3_dwconv/SE_global_pool
I0906 17:51:36.716279 27963 net.cpp:382] conv4_2/3x3_dwconv/SE_fc1 -> conv4_2/3x3_dwconv/SE_fc1
I0906 17:51:36.716665 27963 net.cpp:124] Setting up conv4_2/3x3_dwconv/SE_fc1
I0906 17:51:36.716676 27963 net.cpp:131] Top shape: 50 7 1 1 (350)
I0906 17:51:36.716679 27963 net.cpp:139] Memory required for data: 2407397600
I0906 17:51:36.716684 27963 layer_factory.hpp:77] Creating layer conv4_2/3x3_dwconv/SE_fc1/relu
I0906 17:51:36.716691 27963 net.cpp:86] Creating Layer conv4_2/3x3_dwconv/SE_fc1/relu
I0906 17:51:36.716694 27963 net.cpp:408] conv4_2/3x3_dwconv/SE_fc1/relu <- conv4_2/3x3_dwconv/SE_fc1
I0906 17:51:36.716698 27963 net.cpp:369] conv4_2/3x3_dwconv/SE_fc1/relu -> conv4_2/3x3_dwconv/SE_fc1 (in-place)
I0906 17:51:36.717325 27963 net.cpp:124] Setting up conv4_2/3x3_dwconv/SE_fc1/relu
I0906 17:51:36.717337 27963 net.cpp:131] Top shape: 50 7 1 1 (350)
I0906 17:51:36.717340 27963 net.cpp:139] Memory required for data: 2407399000
I0906 17:51:36.717358 27963 layer_factory.hpp:77] Creating layer conv4_2/3x3_dwconv/SE_fc2
I0906 17:51:36.717383 27963 net.cpp:86] Creating Layer conv4_2/3x3_dwconv/SE_fc2
I0906 17:51:36.717389 27963 net.cpp:408] conv4_2/3x3_dwconv/SE_fc2 <- conv4_2/3x3_dwconv/SE_fc1
I0906 17:51:36.717396 27963 net.cpp:382] conv4_2/3x3_dwconv/SE_fc2 -> conv4_2/3x3_dwconv/SE_fc2
I0906 17:51:36.717792 27963 net.cpp:124] Setting up conv4_2/3x3_dwconv/SE_fc2
I0906 17:51:36.717803 27963 net.cpp:131] Top shape: 50 120 1 1 (6000)
I0906 17:51:36.717816 27963 net.cpp:139] Memory required for data: 2407423000
I0906 17:51:36.717821 27963 layer_factory.hpp:77] Creating layer conv4_2/3x3_dwconv/SE_weights
I0906 17:51:36.717828 27963 net.cpp:86] Creating Layer conv4_2/3x3_dwconv/SE_weights
I0906 17:51:36.717833 27963 net.cpp:408] conv4_2/3x3_dwconv/SE_weights <- conv4_2/3x3_dwconv/SE_fc2
I0906 17:51:36.717837 27963 net.cpp:369] conv4_2/3x3_dwconv/SE_weights -> conv4_2/3x3_dwconv/SE_fc2 (in-place)
I0906 17:51:36.718446 27963 net.cpp:124] Setting up conv4_2/3x3_dwconv/SE_weights
I0906 17:51:36.718458 27963 net.cpp:131] Top shape: 50 120 1 1 (6000)
I0906 17:51:36.718472 27963 net.cpp:139] Memory required for data: 2407447000
I0906 17:51:36.718477 27963 layer_factory.hpp:77] Creating layer conv4_2/3x3_dwconv/SE_weights/reshape
I0906 17:51:36.718484 27963 net.cpp:86] Creating Layer conv4_2/3x3_dwconv/SE_weights/reshape
I0906 17:51:36.718487 27963 net.cpp:408] conv4_2/3x3_dwconv/SE_weights/reshape <- conv4_2/3x3_dwconv/SE_fc2
I0906 17:51:36.718494 27963 net.cpp:382] conv4_2/3x3_dwconv/SE_weights/reshape -> conv4_2/3x3_dwconv/SE_weights/reshape
I0906 17:51:36.718528 27963 net.cpp:124] Setting up conv4_2/3x3_dwconv/SE_weights/reshape
I0906 17:51:36.718533 27963 net.cpp:131] Top shape: 50 120 (6000)
I0906 17:51:36.718549 27963 net.cpp:139] Memory required for data: 2407471000
I0906 17:51:36.718551 27963 layer_factory.hpp:77] Creating layer conv4_2/3x3_dwconv/scale
I0906 17:51:36.718561 27963 net.cpp:86] Creating Layer conv4_2/3x3_dwconv/scale
I0906 17:51:36.718564 27963 net.cpp:408] conv4_2/3x3_dwconv/scale <- conv4_2/3x3_dwconv/concat_conv4_2/3x3_dwconv/concat_fixed_point_0_split_1
I0906 17:51:36.718569 27963 net.cpp:408] conv4_2/3x3_dwconv/scale <- conv4_2/3x3_dwconv/SE_weights/reshape
I0906 17:51:36.718574 27963 net.cpp:382] conv4_2/3x3_dwconv/scale -> conv4_2/3x3_dwconv/scale
I0906 17:51:36.718677 27963 net.cpp:124] Setting up conv4_2/3x3_dwconv/scale
I0906 17:51:36.718683 27963 net.cpp:131] Top shape: 50 120 28 28 (4704000)
I0906 17:51:36.718685 27963 net.cpp:139] Memory required for data: 2426287000
I0906 17:51:36.718688 27963 layer_factory.hpp:77] Creating layer conv4_2/3x3_dwconv/scale_fixed_point
I0906 17:51:36.718694 27963 net.cpp:86] Creating Layer conv4_2/3x3_dwconv/scale_fixed_point
I0906 17:51:36.718698 27963 net.cpp:408] conv4_2/3x3_dwconv/scale_fixed_point <- conv4_2/3x3_dwconv/scale
I0906 17:51:36.718703 27963 net.cpp:369] conv4_2/3x3_dwconv/scale_fixed_point -> conv4_2/3x3_dwconv/scale (in-place)
I0906 17:51:36.718730 27963 net.cpp:124] Setting up conv4_2/3x3_dwconv/scale_fixed_point
I0906 17:51:36.718735 27963 net.cpp:131] Top shape: 50 120 28 28 (4704000)
I0906 17:51:36.718739 27963 net.cpp:139] Memory required for data: 2445103000
I0906 17:51:36.718742 27963 layer_factory.hpp:77] Creating layer conv4_2/1x1_decrease
I0906 17:51:36.718755 27963 net.cpp:86] Creating Layer conv4_2/1x1_decrease
I0906 17:51:36.718758 27963 net.cpp:408] conv4_2/1x1_decrease <- conv4_2/3x3_dwconv/scale
I0906 17:51:36.718763 27963 net.cpp:382] conv4_2/1x1_decrease -> conv4_2/1x1_decrease/bn
I0906 17:51:36.719491 27963 net.cpp:124] Setting up conv4_2/1x1_decrease
I0906 17:51:36.719519 27963 net.cpp:131] Top shape: 50 40 28 28 (1568000)
I0906 17:51:36.719523 27963 net.cpp:139] Memory required for data: 2451375000
I0906 17:51:36.719544 27963 layer_factory.hpp:77] Creating layer conv4_2/elt_sum
I0906 17:51:36.719552 27963 net.cpp:86] Creating Layer conv4_2/elt_sum
I0906 17:51:36.719557 27963 net.cpp:408] conv4_2/elt_sum <- conv4_1/elt_sum_conv4_1/elt_sum_fixed_point_0_split_1
I0906 17:51:36.719561 27963 net.cpp:408] conv4_2/elt_sum <- conv4_2/1x1_decrease/bn
I0906 17:51:36.719565 27963 net.cpp:382] conv4_2/elt_sum -> conv4_2/elt_sum
I0906 17:51:36.719609 27963 net.cpp:124] Setting up conv4_2/elt_sum
I0906 17:51:36.719615 27963 net.cpp:131] Top shape: 50 40 28 28 (1568000)
I0906 17:51:36.719617 27963 net.cpp:139] Memory required for data: 2457647000
I0906 17:51:36.719620 27963 layer_factory.hpp:77] Creating layer conv4_2/elt_sum_fixed_point
I0906 17:51:36.719628 27963 net.cpp:86] Creating Layer conv4_2/elt_sum_fixed_point
I0906 17:51:36.719631 27963 net.cpp:408] conv4_2/elt_sum_fixed_point <- conv4_2/elt_sum
I0906 17:51:36.719635 27963 net.cpp:369] conv4_2/elt_sum_fixed_point -> conv4_2/elt_sum (in-place)
I0906 17:51:36.719663 27963 net.cpp:124] Setting up conv4_2/elt_sum_fixed_point
I0906 17:51:36.719668 27963 net.cpp:131] Top shape: 50 40 28 28 (1568000)
I0906 17:51:36.719671 27963 net.cpp:139] Memory required for data: 2463919000
I0906 17:51:36.719676 27963 layer_factory.hpp:77] Creating layer conv4_2/elt_sum_conv4_2/elt_sum_fixed_point_0_split
I0906 17:51:36.719681 27963 net.cpp:86] Creating Layer conv4_2/elt_sum_conv4_2/elt_sum_fixed_point_0_split
I0906 17:51:36.719684 27963 net.cpp:408] conv4_2/elt_sum_conv4_2/elt_sum_fixed_point_0_split <- conv4_2/elt_sum
I0906 17:51:36.719691 27963 net.cpp:382] conv4_2/elt_sum_conv4_2/elt_sum_fixed_point_0_split -> conv4_2/elt_sum_conv4_2/elt_sum_fixed_point_0_split_0
I0906 17:51:36.719696 27963 net.cpp:382] conv4_2/elt_sum_conv4_2/elt_sum_fixed_point_0_split -> conv4_2/elt_sum_conv4_2/elt_sum_fixed_point_0_split_1
I0906 17:51:36.719735 27963 net.cpp:124] Setting up conv4_2/elt_sum_conv4_2/elt_sum_fixed_point_0_split
I0906 17:51:36.719740 27963 net.cpp:131] Top shape: 50 40 28 28 (1568000)
I0906 17:51:36.719769 27963 net.cpp:131] Top shape: 50 40 28 28 (1568000)
I0906 17:51:36.719772 27963 net.cpp:139] Memory required for data: 2476463000
I0906 17:51:36.719775 27963 layer_factory.hpp:77] Creating layer conv4_3/1x1_increase
I0906 17:51:36.719784 27963 net.cpp:86] Creating Layer conv4_3/1x1_increase
I0906 17:51:36.719787 27963 net.cpp:408] conv4_3/1x1_increase <- conv4_2/elt_sum_conv4_2/elt_sum_fixed_point_0_split_0
I0906 17:51:36.719794 27963 net.cpp:382] conv4_3/1x1_increase -> conv4_3/1x1_increase/bn
I0906 17:51:36.720877 27963 net.cpp:124] Setting up conv4_3/1x1_increase
I0906 17:51:36.720890 27963 net.cpp:131] Top shape: 50 120 28 28 (4704000)
I0906 17:51:36.720906 27963 net.cpp:139] Memory required for data: 2495279000
I0906 17:51:36.720924 27963 layer_factory.hpp:77] Creating layer conv4_3/1x1_increase/relu
I0906 17:51:36.720930 27963 net.cpp:86] Creating Layer conv4_3/1x1_increase/relu
I0906 17:51:36.720934 27963 net.cpp:408] conv4_3/1x1_increase/relu <- conv4_3/1x1_increase/bn
I0906 17:51:36.720942 27963 net.cpp:369] conv4_3/1x1_increase/relu -> conv4_3/1x1_increase/bn (in-place)
I0906 17:51:36.721835 27963 net.cpp:124] Setting up conv4_3/1x1_increase/relu
I0906 17:51:36.721848 27963 net.cpp:131] Top shape: 50 120 28 28 (4704000)
I0906 17:51:36.721868 27963 net.cpp:139] Memory required for data: 2514095000
I0906 17:51:36.721871 27963 layer_factory.hpp:77] Creating layer conv4_3/1x1_increase/bn_fixed_point
I0906 17:51:36.721877 27963 net.cpp:86] Creating Layer conv4_3/1x1_increase/bn_fixed_point
I0906 17:51:36.721881 27963 net.cpp:408] conv4_3/1x1_increase/bn_fixed_point <- conv4_3/1x1_increase/bn
I0906 17:51:36.721889 27963 net.cpp:369] conv4_3/1x1_increase/bn_fixed_point -> conv4_3/1x1_increase/bn (in-place)
I0906 17:51:36.721925 27963 net.cpp:124] Setting up conv4_3/1x1_increase/bn_fixed_point
I0906 17:51:36.721930 27963 net.cpp:131] Top shape: 50 120 28 28 (4704000)
I0906 17:51:36.721932 27963 net.cpp:139] Memory required for data: 2532911000
I0906 17:51:36.721951 27963 layer_factory.hpp:77] Creating layer conv4_3/1x1_increase/slice
I0906 17:51:36.721958 27963 net.cpp:86] Creating Layer conv4_3/1x1_increase/slice
I0906 17:51:36.721962 27963 net.cpp:408] conv4_3/1x1_increase/slice <- conv4_3/1x1_increase/bn
I0906 17:51:36.721966 27963 net.cpp:382] conv4_3/1x1_increase/slice -> conv4_3/1x1_increase/split1
I0906 17:51:36.721974 27963 net.cpp:382] conv4_3/1x1_increase/slice -> conv4_3/1x1_increase/split2
I0906 17:51:36.722024 27963 net.cpp:124] Setting up conv4_3/1x1_increase/slice
I0906 17:51:36.722029 27963 net.cpp:131] Top shape: 50 60 28 28 (2352000)
I0906 17:51:36.722033 27963 net.cpp:131] Top shape: 50 60 28 28 (2352000)
I0906 17:51:36.722035 27963 net.cpp:139] Memory required for data: 2551727000
I0906 17:51:36.722038 27963 layer_factory.hpp:77] Creating layer conv4_3/3x3_dwconv/slice_0
I0906 17:51:36.722050 27963 net.cpp:86] Creating Layer conv4_3/3x3_dwconv/slice_0
I0906 17:51:36.722054 27963 net.cpp:408] conv4_3/3x3_dwconv/slice_0 <- conv4_3/1x1_increase/split1
I0906 17:51:36.722059 27963 net.cpp:382] conv4_3/3x3_dwconv/slice_0 -> conv4_3/3x3_dwconv/slice_0/bn
I0906 17:51:36.722648 27963 net.cpp:124] Setting up conv4_3/3x3_dwconv/slice_0
I0906 17:51:36.722661 27963 net.cpp:131] Top shape: 50 60 28 28 (2352000)
I0906 17:51:36.722678 27963 net.cpp:139] Memory required for data: 2561135000
I0906 17:51:36.722685 27963 layer_factory.hpp:77] Creating layer conv4_3/3x3_dwconv/slice_0/relu
I0906 17:51:36.722692 27963 net.cpp:86] Creating Layer conv4_3/3x3_dwconv/slice_0/relu
I0906 17:51:36.722697 27963 net.cpp:408] conv4_3/3x3_dwconv/slice_0/relu <- conv4_3/3x3_dwconv/slice_0/bn
I0906 17:51:36.722700 27963 net.cpp:369] conv4_3/3x3_dwconv/slice_0/relu -> conv4_3/3x3_dwconv/slice_0/bn (in-place)
I0906 17:51:36.723351 27963 net.cpp:124] Setting up conv4_3/3x3_dwconv/slice_0/relu
I0906 17:51:36.723362 27963 net.cpp:131] Top shape: 50 60 28 28 (2352000)
I0906 17:51:36.723377 27963 net.cpp:139] Memory required for data: 2570543000
I0906 17:51:36.723381 27963 layer_factory.hpp:77] Creating layer conv4_3/3x3_dwconv/slice_1
I0906 17:51:36.723408 27963 net.cpp:86] Creating Layer conv4_3/3x3_dwconv/slice_1
I0906 17:51:36.723414 27963 net.cpp:408] conv4_3/3x3_dwconv/slice_1 <- conv4_3/1x1_increase/split2
I0906 17:51:36.723420 27963 net.cpp:382] conv4_3/3x3_dwconv/slice_1 -> conv4_3/3x3_dwconv/slice_1/bn
I0906 17:51:36.724325 27963 net.cpp:124] Setting up conv4_3/3x3_dwconv/slice_1
I0906 17:51:36.724340 27963 net.cpp:131] Top shape: 50 60 28 28 (2352000)
I0906 17:51:36.724359 27963 net.cpp:139] Memory required for data: 2579951000
I0906 17:51:36.724365 27963 layer_factory.hpp:77] Creating layer conv4_3/3x3_dwconv/slice_1/relu
I0906 17:51:36.724372 27963 net.cpp:86] Creating Layer conv4_3/3x3_dwconv/slice_1/relu
I0906 17:51:36.724376 27963 net.cpp:408] conv4_3/3x3_dwconv/slice_1/relu <- conv4_3/3x3_dwconv/slice_1/bn
I0906 17:51:36.724381 27963 net.cpp:369] conv4_3/3x3_dwconv/slice_1/relu -> conv4_3/3x3_dwconv/slice_1/bn (in-place)
I0906 17:51:36.725091 27963 net.cpp:124] Setting up conv4_3/3x3_dwconv/slice_1/relu
I0906 17:51:36.725102 27963 net.cpp:131] Top shape: 50 60 28 28 (2352000)
I0906 17:51:36.725106 27963 net.cpp:139] Memory required for data: 2589359000
I0906 17:51:36.725123 27963 layer_factory.hpp:77] Creating layer conv4_3/3x3_dwconv/concat
I0906 17:51:36.725131 27963 net.cpp:86] Creating Layer conv4_3/3x3_dwconv/concat
I0906 17:51:36.725136 27963 net.cpp:408] conv4_3/3x3_dwconv/concat <- conv4_3/3x3_dwconv/slice_0/bn
I0906 17:51:36.725139 27963 net.cpp:408] conv4_3/3x3_dwconv/concat <- conv4_3/3x3_dwconv/slice_1/bn
I0906 17:51:36.725144 27963 net.cpp:382] conv4_3/3x3_dwconv/concat -> conv4_3/3x3_dwconv/concat
I0906 17:51:36.725179 27963 net.cpp:124] Setting up conv4_3/3x3_dwconv/concat
I0906 17:51:36.725184 27963 net.cpp:131] Top shape: 50 120 28 28 (4704000)
I0906 17:51:36.725188 27963 net.cpp:139] Memory required for data: 2608175000
I0906 17:51:36.725189 27963 layer_factory.hpp:77] Creating layer conv4_3/3x3_dwconv/concat_fixed_point
I0906 17:51:36.725196 27963 net.cpp:86] Creating Layer conv4_3/3x3_dwconv/concat_fixed_point
I0906 17:51:36.725199 27963 net.cpp:408] conv4_3/3x3_dwconv/concat_fixed_point <- conv4_3/3x3_dwconv/concat
I0906 17:51:36.725204 27963 net.cpp:369] conv4_3/3x3_dwconv/concat_fixed_point -> conv4_3/3x3_dwconv/concat (in-place)
I0906 17:51:36.725232 27963 net.cpp:124] Setting up conv4_3/3x3_dwconv/concat_fixed_point
I0906 17:51:36.725237 27963 net.cpp:131] Top shape: 50 120 28 28 (4704000)
I0906 17:51:36.725239 27963 net.cpp:139] Memory required for data: 2626991000
I0906 17:51:36.725244 27963 layer_factory.hpp:77] Creating layer conv4_3/3x3_dwconv/concat_conv4_3/3x3_dwconv/concat_fixed_point_0_split
I0906 17:51:36.725250 27963 net.cpp:86] Creating Layer conv4_3/3x3_dwconv/concat_conv4_3/3x3_dwconv/concat_fixed_point_0_split
I0906 17:51:36.725253 27963 net.cpp:408] conv4_3/3x3_dwconv/concat_conv4_3/3x3_dwconv/concat_fixed_point_0_split <- conv4_3/3x3_dwconv/concat
I0906 17:51:36.725265 27963 net.cpp:382] conv4_3/3x3_dwconv/concat_conv4_3/3x3_dwconv/concat_fixed_point_0_split -> conv4_3/3x3_dwconv/concat_conv4_3/3x3_dwconv/concat_fixed_point_0_split_0
I0906 17:51:36.725271 27963 net.cpp:382] conv4_3/3x3_dwconv/concat_conv4_3/3x3_dwconv/concat_fixed_point_0_split -> conv4_3/3x3_dwconv/concat_conv4_3/3x3_dwconv/concat_fixed_point_0_split_1
I0906 17:51:36.725309 27963 net.cpp:124] Setting up conv4_3/3x3_dwconv/concat_conv4_3/3x3_dwconv/concat_fixed_point_0_split
I0906 17:51:36.725314 27963 net.cpp:131] Top shape: 50 120 28 28 (4704000)
I0906 17:51:36.725318 27963 net.cpp:131] Top shape: 50 120 28 28 (4704000)
I0906 17:51:36.725320 27963 net.cpp:139] Memory required for data: 2664623000
I0906 17:51:36.725323 27963 layer_factory.hpp:77] Creating layer conv4_3/3x3_dwconv/SE_global_pool
I0906 17:51:36.725333 27963 net.cpp:86] Creating Layer conv4_3/3x3_dwconv/SE_global_pool
I0906 17:51:36.725337 27963 net.cpp:408] conv4_3/3x3_dwconv/SE_global_pool <- conv4_3/3x3_dwconv/concat_conv4_3/3x3_dwconv/concat_fixed_point_0_split_0
I0906 17:51:36.725342 27963 net.cpp:382] conv4_3/3x3_dwconv/SE_global_pool -> conv4_3/3x3_dwconv/SE_global_pool
I0906 17:51:36.725386 27963 net.cpp:124] Setting up conv4_3/3x3_dwconv/SE_global_pool
I0906 17:51:36.725392 27963 net.cpp:131] Top shape: 50 120 1 1 (6000)
I0906 17:51:36.725394 27963 net.cpp:139] Memory required for data: 2664647000
I0906 17:51:36.725397 27963 layer_factory.hpp:77] Creating layer conv4_3/3x3_dwconv/SE_fc1
I0906 17:51:36.725407 27963 net.cpp:86] Creating Layer conv4_3/3x3_dwconv/SE_fc1
I0906 17:51:36.725411 27963 net.cpp:408] conv4_3/3x3_dwconv/SE_fc1 <- conv4_3/3x3_dwconv/SE_global_pool
I0906 17:51:36.725417 27963 net.cpp:382] conv4_3/3x3_dwconv/SE_fc1 -> conv4_3/3x3_dwconv/SE_fc1
I0906 17:51:36.725824 27963 net.cpp:124] Setting up conv4_3/3x3_dwconv/SE_fc1
I0906 17:51:36.725834 27963 net.cpp:131] Top shape: 50 7 1 1 (350)
I0906 17:51:36.725853 27963 net.cpp:139] Memory required for data: 2664648400
I0906 17:51:36.725858 27963 layer_factory.hpp:77] Creating layer conv4_3/3x3_dwconv/SE_fc1/relu
I0906 17:51:36.725864 27963 net.cpp:86] Creating Layer conv4_3/3x3_dwconv/SE_fc1/relu
I0906 17:51:36.725868 27963 net.cpp:408] conv4_3/3x3_dwconv/SE_fc1/relu <- conv4_3/3x3_dwconv/SE_fc1
I0906 17:51:36.725873 27963 net.cpp:369] conv4_3/3x3_dwconv/SE_fc1/relu -> conv4_3/3x3_dwconv/SE_fc1 (in-place)
I0906 17:51:36.730648 27963 net.cpp:124] Setting up conv4_3/3x3_dwconv/SE_fc1/relu
I0906 17:51:36.730716 27963 net.cpp:131] Top shape: 50 7 1 1 (350)
I0906 17:51:36.730720 27963 net.cpp:139] Memory required for data: 2664649800
I0906 17:51:36.730760 27963 layer_factory.hpp:77] Creating layer conv4_3/3x3_dwconv/SE_fc2
I0906 17:51:36.730816 27963 net.cpp:86] Creating Layer conv4_3/3x3_dwconv/SE_fc2
I0906 17:51:36.730847 27963 net.cpp:408] conv4_3/3x3_dwconv/SE_fc2 <- conv4_3/3x3_dwconv/SE_fc1
I0906 17:51:36.730873 27963 net.cpp:382] conv4_3/3x3_dwconv/SE_fc2 -> conv4_3/3x3_dwconv/SE_fc2
I0906 17:51:36.731587 27963 net.cpp:124] Setting up conv4_3/3x3_dwconv/SE_fc2
I0906 17:51:36.731600 27963 net.cpp:131] Top shape: 50 120 1 1 (6000)
I0906 17:51:36.731618 27963 net.cpp:139] Memory required for data: 2664673800
I0906 17:51:36.731637 27963 layer_factory.hpp:77] Creating layer conv4_3/3x3_dwconv/SE_weights
I0906 17:51:36.731647 27963 net.cpp:86] Creating Layer conv4_3/3x3_dwconv/SE_weights
I0906 17:51:36.731650 27963 net.cpp:408] conv4_3/3x3_dwconv/SE_weights <- conv4_3/3x3_dwconv/SE_fc2
I0906 17:51:36.731655 27963 net.cpp:369] conv4_3/3x3_dwconv/SE_weights -> conv4_3/3x3_dwconv/SE_fc2 (in-place)
I0906 17:51:36.732287 27963 net.cpp:124] Setting up conv4_3/3x3_dwconv/SE_weights
I0906 17:51:36.732300 27963 net.cpp:131] Top shape: 50 120 1 1 (6000)
I0906 17:51:36.732318 27963 net.cpp:139] Memory required for data: 2664697800
I0906 17:51:36.732321 27963 layer_factory.hpp:77] Creating layer conv4_3/3x3_dwconv/SE_weights/reshape
I0906 17:51:36.732357 27963 net.cpp:86] Creating Layer conv4_3/3x3_dwconv/SE_weights/reshape
I0906 17:51:36.732362 27963 net.cpp:408] conv4_3/3x3_dwconv/SE_weights/reshape <- conv4_3/3x3_dwconv/SE_fc2
I0906 17:51:36.732368 27963 net.cpp:382] conv4_3/3x3_dwconv/SE_weights/reshape -> conv4_3/3x3_dwconv/SE_weights/reshape
I0906 17:51:36.732405 27963 net.cpp:124] Setting up conv4_3/3x3_dwconv/SE_weights/reshape
I0906 17:51:36.732410 27963 net.cpp:131] Top shape: 50 120 (6000)
I0906 17:51:36.732414 27963 net.cpp:139] Memory required for data: 2664721800
I0906 17:51:36.732424 27963 layer_factory.hpp:77] Creating layer conv4_3/3x3_dwconv/scale
I0906 17:51:36.732432 27963 net.cpp:86] Creating Layer conv4_3/3x3_dwconv/scale
I0906 17:51:36.732436 27963 net.cpp:408] conv4_3/3x3_dwconv/scale <- conv4_3/3x3_dwconv/concat_conv4_3/3x3_dwconv/concat_fixed_point_0_split_1
I0906 17:51:36.732440 27963 net.cpp:408] conv4_3/3x3_dwconv/scale <- conv4_3/3x3_dwconv/SE_weights/reshape
I0906 17:51:36.732445 27963 net.cpp:382] conv4_3/3x3_dwconv/scale -> conv4_3/3x3_dwconv/scale
I0906 17:51:36.732530 27963 net.cpp:124] Setting up conv4_3/3x3_dwconv/scale
I0906 17:51:36.732538 27963 net.cpp:131] Top shape: 50 120 28 28 (4704000)
I0906 17:51:36.732542 27963 net.cpp:139] Memory required for data: 2683537800
I0906 17:51:36.732561 27963 layer_factory.hpp:77] Creating layer conv4_3/3x3_dwconv/scale_fixed_point
I0906 17:51:36.732570 27963 net.cpp:86] Creating Layer conv4_3/3x3_dwconv/scale_fixed_point
I0906 17:51:36.732573 27963 net.cpp:408] conv4_3/3x3_dwconv/scale_fixed_point <- conv4_3/3x3_dwconv/scale
I0906 17:51:36.732581 27963 net.cpp:369] conv4_3/3x3_dwconv/scale_fixed_point -> conv4_3/3x3_dwconv/scale (in-place)
I0906 17:51:36.732611 27963 net.cpp:124] Setting up conv4_3/3x3_dwconv/scale_fixed_point
I0906 17:51:36.732616 27963 net.cpp:131] Top shape: 50 120 28 28 (4704000)
I0906 17:51:36.732620 27963 net.cpp:139] Memory required for data: 2702353800
I0906 17:51:36.732623 27963 layer_factory.hpp:77] Creating layer conv4_3/1x1_decrease
I0906 17:51:36.732642 27963 net.cpp:86] Creating Layer conv4_3/1x1_decrease
I0906 17:51:36.732646 27963 net.cpp:408] conv4_3/1x1_decrease <- conv4_3/3x3_dwconv/scale
I0906 17:51:36.732677 27963 net.cpp:382] conv4_3/1x1_decrease -> conv4_3/1x1_decrease/bn
I0906 17:51:36.733427 27963 net.cpp:124] Setting up conv4_3/1x1_decrease
I0906 17:51:36.733454 27963 net.cpp:131] Top shape: 50 40 28 28 (1568000)
I0906 17:51:36.733458 27963 net.cpp:139] Memory required for data: 2708625800
I0906 17:51:36.733482 27963 layer_factory.hpp:77] Creating layer conv4_3/elt_sum
I0906 17:51:36.733500 27963 net.cpp:86] Creating Layer conv4_3/elt_sum
I0906 17:51:36.733505 27963 net.cpp:408] conv4_3/elt_sum <- conv4_2/elt_sum_conv4_2/elt_sum_fixed_point_0_split_1
I0906 17:51:36.733510 27963 net.cpp:408] conv4_3/elt_sum <- conv4_3/1x1_decrease/bn
I0906 17:51:36.733528 27963 net.cpp:382] conv4_3/elt_sum -> conv4_3/elt_sum
I0906 17:51:36.733566 27963 net.cpp:124] Setting up conv4_3/elt_sum
I0906 17:51:36.733573 27963 net.cpp:131] Top shape: 50 40 28 28 (1568000)
I0906 17:51:36.733577 27963 net.cpp:139] Memory required for data: 2714897800
I0906 17:51:36.733579 27963 layer_factory.hpp:77] Creating layer conv4_3/elt_sum_fixed_point
I0906 17:51:36.733584 27963 net.cpp:86] Creating Layer conv4_3/elt_sum_fixed_point
I0906 17:51:36.733587 27963 net.cpp:408] conv4_3/elt_sum_fixed_point <- conv4_3/elt_sum
I0906 17:51:36.733593 27963 net.cpp:369] conv4_3/elt_sum_fixed_point -> conv4_3/elt_sum (in-place)
I0906 17:51:36.733623 27963 net.cpp:124] Setting up conv4_3/elt_sum_fixed_point
I0906 17:51:36.733628 27963 net.cpp:131] Top shape: 50 40 28 28 (1568000)
I0906 17:51:36.733631 27963 net.cpp:139] Memory required for data: 2721169800
I0906 17:51:36.733635 27963 layer_factory.hpp:77] Creating layer conv5_0/1x1_increase
I0906 17:51:36.733651 27963 net.cpp:86] Creating Layer conv5_0/1x1_increase
I0906 17:51:36.733655 27963 net.cpp:408] conv5_0/1x1_increase <- conv4_3/elt_sum
I0906 17:51:36.733662 27963 net.cpp:382] conv5_0/1x1_increase -> conv5_0/1x1_increase/bn
I0906 17:51:36.734582 27963 net.cpp:124] Setting up conv5_0/1x1_increase
I0906 17:51:36.734594 27963 net.cpp:131] Top shape: 50 240 28 28 (9408000)
I0906 17:51:36.734612 27963 net.cpp:139] Memory required for data: 2758801800
I0906 17:51:36.734619 27963 layer_factory.hpp:77] Creating layer conv5_0/1x1_increase/relu
I0906 17:51:36.734624 27963 net.cpp:86] Creating Layer conv5_0/1x1_increase/relu
I0906 17:51:36.734629 27963 net.cpp:408] conv5_0/1x1_increase/relu <- conv5_0/1x1_increase/bn
I0906 17:51:36.734635 27963 net.cpp:369] conv5_0/1x1_increase/relu -> conv5_0/1x1_increase/bn (in-place)
I0906 17:51:36.735543 27963 net.cpp:124] Setting up conv5_0/1x1_increase/relu
I0906 17:51:36.735572 27963 net.cpp:131] Top shape: 50 240 28 28 (9408000)
I0906 17:51:36.735576 27963 net.cpp:139] Memory required for data: 2796433800
I0906 17:51:36.735589 27963 layer_factory.hpp:77] Creating layer conv5_0/1x1_increase/bn_fixed_point
I0906 17:51:36.735594 27963 net.cpp:86] Creating Layer conv5_0/1x1_increase/bn_fixed_point
I0906 17:51:36.735599 27963 net.cpp:408] conv5_0/1x1_increase/bn_fixed_point <- conv5_0/1x1_increase/bn
I0906 17:51:36.735604 27963 net.cpp:369] conv5_0/1x1_increase/bn_fixed_point -> conv5_0/1x1_increase/bn (in-place)
I0906 17:51:36.735653 27963 net.cpp:124] Setting up conv5_0/1x1_increase/bn_fixed_point
I0906 17:51:36.735677 27963 net.cpp:131] Top shape: 50 240 28 28 (9408000)
I0906 17:51:36.735679 27963 net.cpp:139] Memory required for data: 2834065800
I0906 17:51:36.735684 27963 layer_factory.hpp:77] Creating layer conv5_0/1x1_increase/slice
I0906 17:51:36.735702 27963 net.cpp:86] Creating Layer conv5_0/1x1_increase/slice
I0906 17:51:36.735707 27963 net.cpp:408] conv5_0/1x1_increase/slice <- conv5_0/1x1_increase/bn
I0906 17:51:36.735711 27963 net.cpp:382] conv5_0/1x1_increase/slice -> conv5_0/1x1_increase/split1
I0906 17:51:36.735724 27963 net.cpp:382] conv5_0/1x1_increase/slice -> conv5_0/1x1_increase/split2
I0906 17:51:36.735729 27963 net.cpp:382] conv5_0/1x1_increase/slice -> conv5_0/1x1_increase/split3
I0906 17:51:36.735797 27963 net.cpp:124] Setting up conv5_0/1x1_increase/slice
I0906 17:51:36.735803 27963 net.cpp:131] Top shape: 50 80 28 28 (3136000)
I0906 17:51:36.735807 27963 net.cpp:131] Top shape: 50 80 28 28 (3136000)
I0906 17:51:36.735810 27963 net.cpp:131] Top shape: 50 80 28 28 (3136000)
I0906 17:51:36.735813 27963 net.cpp:139] Memory required for data: 2871697800
I0906 17:51:36.735816 27963 layer_factory.hpp:77] Creating layer conv5_0/3x3_dwconv/slice_0
I0906 17:51:36.735826 27963 net.cpp:86] Creating Layer conv5_0/3x3_dwconv/slice_0
I0906 17:51:36.735828 27963 net.cpp:408] conv5_0/3x3_dwconv/slice_0 <- conv5_0/1x1_increase/split1
I0906 17:51:36.735836 27963 net.cpp:382] conv5_0/3x3_dwconv/slice_0 -> conv5_0/3x3_dwconv/slice_0/bn
I0906 17:51:36.736440 27963 net.cpp:124] Setting up conv5_0/3x3_dwconv/slice_0
I0906 17:51:36.736452 27963 net.cpp:131] Top shape: 50 80 14 14 (784000)
I0906 17:51:36.736470 27963 net.cpp:139] Memory required for data: 2874833800
I0906 17:51:36.736476 27963 layer_factory.hpp:77] Creating layer conv5_0/3x3_dwconv/slice_0/relu
I0906 17:51:36.736493 27963 net.cpp:86] Creating Layer conv5_0/3x3_dwconv/slice_0/relu
I0906 17:51:36.736497 27963 net.cpp:408] conv5_0/3x3_dwconv/slice_0/relu <- conv5_0/3x3_dwconv/slice_0/bn
I0906 17:51:36.736503 27963 net.cpp:369] conv5_0/3x3_dwconv/slice_0/relu -> conv5_0/3x3_dwconv/slice_0/bn (in-place)
I0906 17:51:36.737112 27963 net.cpp:124] Setting up conv5_0/3x3_dwconv/slice_0/relu
I0906 17:51:36.737123 27963 net.cpp:131] Top shape: 50 80 14 14 (784000)
I0906 17:51:36.737141 27963 net.cpp:139] Memory required for data: 2877969800
I0906 17:51:36.737152 27963 layer_factory.hpp:77] Creating layer conv5_0/3x3_dwconv/slice_1
I0906 17:51:36.737164 27963 net.cpp:86] Creating Layer conv5_0/3x3_dwconv/slice_1
I0906 17:51:36.737169 27963 net.cpp:408] conv5_0/3x3_dwconv/slice_1 <- conv5_0/1x1_increase/split2
I0906 17:51:36.737174 27963 net.cpp:382] conv5_0/3x3_dwconv/slice_1 -> conv5_0/3x3_dwconv/slice_1/bn
I0906 17:51:36.737834 27963 net.cpp:124] Setting up conv5_0/3x3_dwconv/slice_1
I0906 17:51:36.737846 27963 net.cpp:131] Top shape: 50 80 14 14 (784000)
I0906 17:51:36.737864 27963 net.cpp:139] Memory required for data: 2881105800
I0906 17:51:36.737871 27963 layer_factory.hpp:77] Creating layer conv5_0/3x3_dwconv/slice_1/relu
I0906 17:51:36.737890 27963 net.cpp:86] Creating Layer conv5_0/3x3_dwconv/slice_1/relu
I0906 17:51:36.737895 27963 net.cpp:408] conv5_0/3x3_dwconv/slice_1/relu <- conv5_0/3x3_dwconv/slice_1/bn
I0906 17:51:36.737900 27963 net.cpp:369] conv5_0/3x3_dwconv/slice_1/relu -> conv5_0/3x3_dwconv/slice_1/bn (in-place)
I0906 17:51:36.738736 27963 net.cpp:124] Setting up conv5_0/3x3_dwconv/slice_1/relu
I0906 17:51:36.738749 27963 net.cpp:131] Top shape: 50 80 14 14 (784000)
I0906 17:51:36.738768 27963 net.cpp:139] Memory required for data: 2884241800
I0906 17:51:36.738772 27963 layer_factory.hpp:77] Creating layer conv5_0/3x3_dwconv/slice_2
I0906 17:51:36.738811 27963 net.cpp:86] Creating Layer conv5_0/3x3_dwconv/slice_2
I0906 17:51:36.738817 27963 net.cpp:408] conv5_0/3x3_dwconv/slice_2 <- conv5_0/1x1_increase/split3
I0906 17:51:36.738826 27963 net.cpp:382] conv5_0/3x3_dwconv/slice_2 -> conv5_0/3x3_dwconv/slice_2/bn
I0906 17:51:36.739941 27963 net.cpp:124] Setting up conv5_0/3x3_dwconv/slice_2
I0906 17:51:36.739984 27963 net.cpp:131] Top shape: 50 80 14 14 (784000)
I0906 17:51:36.740002 27963 net.cpp:139] Memory required for data: 2887377800
I0906 17:51:36.740013 27963 layer_factory.hpp:77] Creating layer conv5_0/3x3_dwconv/slice_2/relu
I0906 17:51:36.740020 27963 net.cpp:86] Creating Layer conv5_0/3x3_dwconv/slice_2/relu
I0906 17:51:36.740026 27963 net.cpp:408] conv5_0/3x3_dwconv/slice_2/relu <- conv5_0/3x3_dwconv/slice_2/bn
I0906 17:51:36.740031 27963 net.cpp:369] conv5_0/3x3_dwconv/slice_2/relu -> conv5_0/3x3_dwconv/slice_2/bn (in-place)
I0906 17:51:36.740624 27963 net.cpp:124] Setting up conv5_0/3x3_dwconv/slice_2/relu
I0906 17:51:36.740634 27963 net.cpp:131] Top shape: 50 80 14 14 (784000)
I0906 17:51:36.740653 27963 net.cpp:139] Memory required for data: 2890513800
I0906 17:51:36.740665 27963 layer_factory.hpp:77] Creating layer conv5_0/3x3_dwconv/concat
I0906 17:51:36.740674 27963 net.cpp:86] Creating Layer conv5_0/3x3_dwconv/concat
I0906 17:51:36.740679 27963 net.cpp:408] conv5_0/3x3_dwconv/concat <- conv5_0/3x3_dwconv/slice_0/bn
I0906 17:51:36.740682 27963 net.cpp:408] conv5_0/3x3_dwconv/concat <- conv5_0/3x3_dwconv/slice_1/bn
I0906 17:51:36.740686 27963 net.cpp:408] conv5_0/3x3_dwconv/concat <- conv5_0/3x3_dwconv/slice_2/bn
I0906 17:51:36.740690 27963 net.cpp:382] conv5_0/3x3_dwconv/concat -> conv5_0/3x3_dwconv/concat
I0906 17:51:36.740725 27963 net.cpp:124] Setting up conv5_0/3x3_dwconv/concat
I0906 17:51:36.740732 27963 net.cpp:131] Top shape: 50 240 14 14 (2352000)
I0906 17:51:36.740736 27963 net.cpp:139] Memory required for data: 2899921800
I0906 17:51:36.740737 27963 layer_factory.hpp:77] Creating layer conv5_0/3x3_dwconv/concat_fixed_point
I0906 17:51:36.740751 27963 net.cpp:86] Creating Layer conv5_0/3x3_dwconv/concat_fixed_point
I0906 17:51:36.740753 27963 net.cpp:408] conv5_0/3x3_dwconv/concat_fixed_point <- conv5_0/3x3_dwconv/concat
I0906 17:51:36.740759 27963 net.cpp:369] conv5_0/3x3_dwconv/concat_fixed_point -> conv5_0/3x3_dwconv/concat (in-place)
I0906 17:51:36.740787 27963 net.cpp:124] Setting up conv5_0/3x3_dwconv/concat_fixed_point
I0906 17:51:36.740792 27963 net.cpp:131] Top shape: 50 240 14 14 (2352000)
I0906 17:51:36.740794 27963 net.cpp:139] Memory required for data: 2909329800
I0906 17:51:36.740798 27963 layer_factory.hpp:77] Creating layer conv5_0/3x3_dwconv/concat_conv5_0/3x3_dwconv/concat_fixed_point_0_split
I0906 17:51:36.740806 27963 net.cpp:86] Creating Layer conv5_0/3x3_dwconv/concat_conv5_0/3x3_dwconv/concat_fixed_point_0_split
I0906 17:51:36.740810 27963 net.cpp:408] conv5_0/3x3_dwconv/concat_conv5_0/3x3_dwconv/concat_fixed_point_0_split <- conv5_0/3x3_dwconv/concat
I0906 17:51:36.740814 27963 net.cpp:382] conv5_0/3x3_dwconv/concat_conv5_0/3x3_dwconv/concat_fixed_point_0_split -> conv5_0/3x3_dwconv/concat_conv5_0/3x3_dwconv/concat_fixed_point_0_split_0
I0906 17:51:36.740823 27963 net.cpp:382] conv5_0/3x3_dwconv/concat_conv5_0/3x3_dwconv/concat_fixed_point_0_split -> conv5_0/3x3_dwconv/concat_conv5_0/3x3_dwconv/concat_fixed_point_0_split_1
I0906 17:51:36.740864 27963 net.cpp:124] Setting up conv5_0/3x3_dwconv/concat_conv5_0/3x3_dwconv/concat_fixed_point_0_split
I0906 17:51:36.740869 27963 net.cpp:131] Top shape: 50 240 14 14 (2352000)
I0906 17:51:36.740871 27963 net.cpp:131] Top shape: 50 240 14 14 (2352000)
I0906 17:51:36.740875 27963 net.cpp:139] Memory required for data: 2928145800
I0906 17:51:36.740883 27963 layer_factory.hpp:77] Creating layer conv5_0/3x3_dwconv/SE_global_pool
I0906 17:51:36.740892 27963 net.cpp:86] Creating Layer conv5_0/3x3_dwconv/SE_global_pool
I0906 17:51:36.740895 27963 net.cpp:408] conv5_0/3x3_dwconv/SE_global_pool <- conv5_0/3x3_dwconv/concat_conv5_0/3x3_dwconv/concat_fixed_point_0_split_0
I0906 17:51:36.740900 27963 net.cpp:382] conv5_0/3x3_dwconv/SE_global_pool -> conv5_0/3x3_dwconv/SE_global_pool
I0906 17:51:36.740928 27963 net.cpp:124] Setting up conv5_0/3x3_dwconv/SE_global_pool
I0906 17:51:36.740933 27963 net.cpp:131] Top shape: 50 240 1 1 (12000)
I0906 17:51:36.740936 27963 net.cpp:139] Memory required for data: 2928193800
I0906 17:51:36.740938 27963 layer_factory.hpp:77] Creating layer conv5_0/3x3_dwconv/SE_fc1
I0906 17:51:36.740963 27963 net.cpp:86] Creating Layer conv5_0/3x3_dwconv/SE_fc1
I0906 17:51:36.740967 27963 net.cpp:408] conv5_0/3x3_dwconv/SE_fc1 <- conv5_0/3x3_dwconv/SE_global_pool
I0906 17:51:36.740972 27963 net.cpp:382] conv5_0/3x3_dwconv/SE_fc1 -> conv5_0/3x3_dwconv/SE_fc1
I0906 17:51:36.741520 27963 net.cpp:124] Setting up conv5_0/3x3_dwconv/SE_fc1
I0906 17:51:36.741533 27963 net.cpp:131] Top shape: 50 15 1 1 (750)
I0906 17:51:36.741535 27963 net.cpp:139] Memory required for data: 2928196800
I0906 17:51:36.741540 27963 layer_factory.hpp:77] Creating layer conv5_0/3x3_dwconv/SE_fc1/relu
I0906 17:51:36.741555 27963 net.cpp:86] Creating Layer conv5_0/3x3_dwconv/SE_fc1/relu
I0906 17:51:36.741559 27963 net.cpp:408] conv5_0/3x3_dwconv/SE_fc1/relu <- conv5_0/3x3_dwconv/SE_fc1
I0906 17:51:36.741566 27963 net.cpp:369] conv5_0/3x3_dwconv/SE_fc1/relu -> conv5_0/3x3_dwconv/SE_fc1 (in-place)
I0906 17:51:36.742131 27963 net.cpp:124] Setting up conv5_0/3x3_dwconv/SE_fc1/relu
I0906 17:51:36.742142 27963 net.cpp:131] Top shape: 50 15 1 1 (750)
I0906 17:51:36.742146 27963 net.cpp:139] Memory required for data: 2928199800
I0906 17:51:36.742148 27963 layer_factory.hpp:77] Creating layer conv5_0/3x3_dwconv/SE_fc2
I0906 17:51:36.742157 27963 net.cpp:86] Creating Layer conv5_0/3x3_dwconv/SE_fc2
I0906 17:51:36.742177 27963 net.cpp:408] conv5_0/3x3_dwconv/SE_fc2 <- conv5_0/3x3_dwconv/SE_fc1
I0906 17:51:36.742192 27963 net.cpp:382] conv5_0/3x3_dwconv/SE_fc2 -> conv5_0/3x3_dwconv/SE_fc2
I0906 17:51:36.742682 27963 net.cpp:124] Setting up conv5_0/3x3_dwconv/SE_fc2
I0906 17:51:36.742692 27963 net.cpp:131] Top shape: 50 240 1 1 (12000)
I0906 17:51:36.742712 27963 net.cpp:139] Memory required for data: 2928247800
I0906 17:51:36.742738 27963 layer_factory.hpp:77] Creating layer conv5_0/3x3_dwconv/SE_weights
I0906 17:51:36.742753 27963 net.cpp:86] Creating Layer conv5_0/3x3_dwconv/SE_weights
I0906 17:51:36.742756 27963 net.cpp:408] conv5_0/3x3_dwconv/SE_weights <- conv5_0/3x3_dwconv/SE_fc2
I0906 17:51:36.742760 27963 net.cpp:369] conv5_0/3x3_dwconv/SE_weights -> conv5_0/3x3_dwconv/SE_fc2 (in-place)
I0906 17:51:36.743698 27963 net.cpp:124] Setting up conv5_0/3x3_dwconv/SE_weights
I0906 17:51:36.743712 27963 net.cpp:131] Top shape: 50 240 1 1 (12000)
I0906 17:51:36.743716 27963 net.cpp:139] Memory required for data: 2928295800
I0906 17:51:36.743719 27963 layer_factory.hpp:77] Creating layer conv5_0/3x3_dwconv/SE_weights/reshape
I0906 17:51:36.743752 27963 net.cpp:86] Creating Layer conv5_0/3x3_dwconv/SE_weights/reshape
I0906 17:51:36.743757 27963 net.cpp:408] conv5_0/3x3_dwconv/SE_weights/reshape <- conv5_0/3x3_dwconv/SE_fc2
I0906 17:51:36.743763 27963 net.cpp:382] conv5_0/3x3_dwconv/SE_weights/reshape -> conv5_0/3x3_dwconv/SE_weights/reshape
I0906 17:51:36.743803 27963 net.cpp:124] Setting up conv5_0/3x3_dwconv/SE_weights/reshape
I0906 17:51:36.743809 27963 net.cpp:131] Top shape: 50 240 (12000)
I0906 17:51:36.743813 27963 net.cpp:139] Memory required for data: 2928343800
I0906 17:51:36.743814 27963 layer_factory.hpp:77] Creating layer conv5_0/3x3_dwconv/scale
I0906 17:51:36.743820 27963 net.cpp:86] Creating Layer conv5_0/3x3_dwconv/scale
I0906 17:51:36.743824 27963 net.cpp:408] conv5_0/3x3_dwconv/scale <- conv5_0/3x3_dwconv/concat_conv5_0/3x3_dwconv/concat_fixed_point_0_split_1
I0906 17:51:36.743829 27963 net.cpp:408] conv5_0/3x3_dwconv/scale <- conv5_0/3x3_dwconv/SE_weights/reshape
I0906 17:51:36.743840 27963 net.cpp:382] conv5_0/3x3_dwconv/scale -> conv5_0/3x3_dwconv/scale
I0906 17:51:36.743932 27963 net.cpp:124] Setting up conv5_0/3x3_dwconv/scale
I0906 17:51:36.743939 27963 net.cpp:131] Top shape: 50 240 14 14 (2352000)
I0906 17:51:36.743942 27963 net.cpp:139] Memory required for data: 2937751800
I0906 17:51:36.743952 27963 layer_factory.hpp:77] Creating layer conv5_0/3x3_dwconv/scale_fixed_point
I0906 17:51:36.743958 27963 net.cpp:86] Creating Layer conv5_0/3x3_dwconv/scale_fixed_point
I0906 17:51:36.743961 27963 net.cpp:408] conv5_0/3x3_dwconv/scale_fixed_point <- conv5_0/3x3_dwconv/scale
I0906 17:51:36.743981 27963 net.cpp:369] conv5_0/3x3_dwconv/scale_fixed_point -> conv5_0/3x3_dwconv/scale (in-place)
I0906 17:51:36.744033 27963 net.cpp:124] Setting up conv5_0/3x3_dwconv/scale_fixed_point
I0906 17:51:36.744040 27963 net.cpp:131] Top shape: 50 240 14 14 (2352000)
I0906 17:51:36.744042 27963 net.cpp:139] Memory required for data: 2947159800
I0906 17:51:36.744046 27963 layer_factory.hpp:77] Creating layer conv5_0/1x1_decrease
I0906 17:51:36.744065 27963 net.cpp:86] Creating Layer conv5_0/1x1_decrease
I0906 17:51:36.744069 27963 net.cpp:408] conv5_0/1x1_decrease <- conv5_0/3x3_dwconv/scale
I0906 17:51:36.744076 27963 net.cpp:382] conv5_0/1x1_decrease -> conv5_0/1x1_decrease/bn
I0906 17:51:36.746583 27963 net.cpp:124] Setting up conv5_0/1x1_decrease
I0906 17:51:36.746601 27963 net.cpp:131] Top shape: 50 80 14 14 (784000)
I0906 17:51:36.746605 27963 net.cpp:139] Memory required for data: 2950295800
I0906 17:51:36.746623 27963 layer_factory.hpp:77] Creating layer conv5_0/1x1_decrease/bn_fixed_point
I0906 17:51:36.746634 27963 net.cpp:86] Creating Layer conv5_0/1x1_decrease/bn_fixed_point
I0906 17:51:36.746639 27963 net.cpp:408] conv5_0/1x1_decrease/bn_fixed_point <- conv5_0/1x1_decrease/bn
I0906 17:51:36.746646 27963 net.cpp:369] conv5_0/1x1_decrease/bn_fixed_point -> conv5_0/1x1_decrease/bn (in-place)
I0906 17:51:36.746682 27963 net.cpp:124] Setting up conv5_0/1x1_decrease/bn_fixed_point
I0906 17:51:36.746690 27963 net.cpp:131] Top shape: 50 80 14 14 (784000)
I0906 17:51:36.746692 27963 net.cpp:139] Memory required for data: 2953431800
I0906 17:51:36.746696 27963 layer_factory.hpp:77] Creating layer conv5_0/1x1_decrease/bn_conv5_0/1x1_decrease/bn_fixed_point_0_split
I0906 17:51:36.746704 27963 net.cpp:86] Creating Layer conv5_0/1x1_decrease/bn_conv5_0/1x1_decrease/bn_fixed_point_0_split
I0906 17:51:36.746707 27963 net.cpp:408] conv5_0/1x1_decrease/bn_conv5_0/1x1_decrease/bn_fixed_point_0_split <- conv5_0/1x1_decrease/bn
I0906 17:51:36.746712 27963 net.cpp:382] conv5_0/1x1_decrease/bn_conv5_0/1x1_decrease/bn_fixed_point_0_split -> conv5_0/1x1_decrease/bn_conv5_0/1x1_decrease/bn_fixed_point_0_split_0
I0906 17:51:36.746718 27963 net.cpp:382] conv5_0/1x1_decrease/bn_conv5_0/1x1_decrease/bn_fixed_point_0_split -> conv5_0/1x1_decrease/bn_conv5_0/1x1_decrease/bn_fixed_point_0_split_1
I0906 17:51:36.746765 27963 net.cpp:124] Setting up conv5_0/1x1_decrease/bn_conv5_0/1x1_decrease/bn_fixed_point_0_split
I0906 17:51:36.746771 27963 net.cpp:131] Top shape: 50 80 14 14 (784000)
I0906 17:51:36.746775 27963 net.cpp:131] Top shape: 50 80 14 14 (784000)
I0906 17:51:36.746778 27963 net.cpp:139] Memory required for data: 2959703800
I0906 17:51:36.746780 27963 layer_factory.hpp:77] Creating layer conv5_1/1x1_increase
I0906 17:51:36.746804 27963 net.cpp:86] Creating Layer conv5_1/1x1_increase
I0906 17:51:36.746809 27963 net.cpp:408] conv5_1/1x1_increase <- conv5_0/1x1_decrease/bn_conv5_0/1x1_decrease/bn_fixed_point_0_split_0
I0906 17:51:36.746816 27963 net.cpp:382] conv5_1/1x1_increase -> conv5_1/1x1_increase/bn
I0906 17:51:36.748045 27963 net.cpp:124] Setting up conv5_1/1x1_increase
I0906 17:51:36.748055 27963 net.cpp:131] Top shape: 50 240 14 14 (2352000)
I0906 17:51:36.748075 27963 net.cpp:139] Memory required for data: 2969111800
I0906 17:51:36.748080 27963 layer_factory.hpp:77] Creating layer conv5_1/1x1_increase/relu
I0906 17:51:36.748087 27963 net.cpp:86] Creating Layer conv5_1/1x1_increase/relu
I0906 17:51:36.748091 27963 net.cpp:408] conv5_1/1x1_increase/relu <- conv5_1/1x1_increase/bn
I0906 17:51:36.748095 27963 net.cpp:369] conv5_1/1x1_increase/relu -> conv5_1/1x1_increase/bn (in-place)
I0906 17:51:36.748679 27963 net.cpp:124] Setting up conv5_1/1x1_increase/relu
I0906 17:51:36.748689 27963 net.cpp:131] Top shape: 50 240 14 14 (2352000)
I0906 17:51:36.748708 27963 net.cpp:139] Memory required for data: 2978519800
I0906 17:51:36.748710 27963 layer_factory.hpp:77] Creating layer conv5_1/1x1_increase/bn_fixed_point
I0906 17:51:36.748715 27963 net.cpp:86] Creating Layer conv5_1/1x1_increase/bn_fixed_point
I0906 17:51:36.748750 27963 net.cpp:408] conv5_1/1x1_increase/bn_fixed_point <- conv5_1/1x1_increase/bn
I0906 17:51:36.748757 27963 net.cpp:369] conv5_1/1x1_increase/bn_fixed_point -> conv5_1/1x1_increase/bn (in-place)
I0906 17:51:36.748790 27963 net.cpp:124] Setting up conv5_1/1x1_increase/bn_fixed_point
I0906 17:51:36.748795 27963 net.cpp:131] Top shape: 50 240 14 14 (2352000)
I0906 17:51:36.748797 27963 net.cpp:139] Memory required for data: 2987927800
I0906 17:51:36.748801 27963 layer_factory.hpp:77] Creating layer conv5_1/1x1_increase/slice
I0906 17:51:36.748818 27963 net.cpp:86] Creating Layer conv5_1/1x1_increase/slice
I0906 17:51:36.748822 27963 net.cpp:408] conv5_1/1x1_increase/slice <- conv5_1/1x1_increase/bn
I0906 17:51:36.748828 27963 net.cpp:382] conv5_1/1x1_increase/slice -> conv5_1/1x1_increase/split1
I0906 17:51:36.748834 27963 net.cpp:382] conv5_1/1x1_increase/slice -> conv5_1/1x1_increase/split2
I0906 17:51:36.748879 27963 net.cpp:124] Setting up conv5_1/1x1_increase/slice
I0906 17:51:36.748884 27963 net.cpp:131] Top shape: 50 120 14 14 (1176000)
I0906 17:51:36.748888 27963 net.cpp:131] Top shape: 50 120 14 14 (1176000)
I0906 17:51:36.748890 27963 net.cpp:139] Memory required for data: 2997335800
I0906 17:51:36.748910 27963 layer_factory.hpp:77] Creating layer conv5_1/3x3_dwconv/slice_0
I0906 17:51:36.748920 27963 net.cpp:86] Creating Layer conv5_1/3x3_dwconv/slice_0
I0906 17:51:36.748924 27963 net.cpp:408] conv5_1/3x3_dwconv/slice_0 <- conv5_1/1x1_increase/split1
I0906 17:51:36.748930 27963 net.cpp:382] conv5_1/3x3_dwconv/slice_0 -> conv5_1/3x3_dwconv/slice_0/bn
I0906 17:51:36.749589 27963 net.cpp:124] Setting up conv5_1/3x3_dwconv/slice_0
I0906 17:51:36.749603 27963 net.cpp:131] Top shape: 50 120 14 14 (1176000)
I0906 17:51:36.749620 27963 net.cpp:139] Memory required for data: 3002039800
I0906 17:51:36.749626 27963 layer_factory.hpp:77] Creating layer conv5_1/3x3_dwconv/slice_0/relu
I0906 17:51:36.749631 27963 net.cpp:86] Creating Layer conv5_1/3x3_dwconv/slice_0/relu
I0906 17:51:36.749635 27963 net.cpp:408] conv5_1/3x3_dwconv/slice_0/relu <- conv5_1/3x3_dwconv/slice_0/bn
I0906 17:51:36.749639 27963 net.cpp:369] conv5_1/3x3_dwconv/slice_0/relu -> conv5_1/3x3_dwconv/slice_0/bn (in-place)
I0906 17:51:36.750227 27963 net.cpp:124] Setting up conv5_1/3x3_dwconv/slice_0/relu
I0906 17:51:36.750236 27963 net.cpp:131] Top shape: 50 120 14 14 (1176000)
I0906 17:51:36.750250 27963 net.cpp:139] Memory required for data: 3006743800
I0906 17:51:36.750253 27963 layer_factory.hpp:77] Creating layer conv5_1/3x3_dwconv/slice_1
I0906 17:51:36.750272 27963 net.cpp:86] Creating Layer conv5_1/3x3_dwconv/slice_1
I0906 17:51:36.750275 27963 net.cpp:408] conv5_1/3x3_dwconv/slice_1 <- conv5_1/1x1_increase/split2
I0906 17:51:36.750284 27963 net.cpp:382] conv5_1/3x3_dwconv/slice_1 -> conv5_1/3x3_dwconv/slice_1/bn
I0906 17:51:36.751224 27963 net.cpp:124] Setting up conv5_1/3x3_dwconv/slice_1
I0906 17:51:36.751236 27963 net.cpp:131] Top shape: 50 120 14 14 (1176000)
I0906 17:51:36.751255 27963 net.cpp:139] Memory required for data: 3011447800
I0906 17:51:36.751261 27963 layer_factory.hpp:77] Creating layer conv5_1/3x3_dwconv/slice_1/relu
I0906 17:51:36.751281 27963 net.cpp:86] Creating Layer conv5_1/3x3_dwconv/slice_1/relu
I0906 17:51:36.751286 27963 net.cpp:408] conv5_1/3x3_dwconv/slice_1/relu <- conv5_1/3x3_dwconv/slice_1/bn
I0906 17:51:36.751291 27963 net.cpp:369] conv5_1/3x3_dwconv/slice_1/relu -> conv5_1/3x3_dwconv/slice_1/bn (in-place)
I0906 17:51:36.752080 27963 net.cpp:124] Setting up conv5_1/3x3_dwconv/slice_1/relu
I0906 17:51:36.752094 27963 net.cpp:131] Top shape: 50 120 14 14 (1176000)
I0906 17:51:36.752112 27963 net.cpp:139] Memory required for data: 3016151800
I0906 17:51:36.752125 27963 layer_factory.hpp:77] Creating layer conv5_1/3x3_dwconv/concat
I0906 17:51:36.752131 27963 net.cpp:86] Creating Layer conv5_1/3x3_dwconv/concat
I0906 17:51:36.752136 27963 net.cpp:408] conv5_1/3x3_dwconv/concat <- conv5_1/3x3_dwconv/slice_0/bn
I0906 17:51:36.752141 27963 net.cpp:408] conv5_1/3x3_dwconv/concat <- conv5_1/3x3_dwconv/slice_1/bn
I0906 17:51:36.752161 27963 net.cpp:382] conv5_1/3x3_dwconv/concat -> conv5_1/3x3_dwconv/concat
I0906 17:51:36.752197 27963 net.cpp:124] Setting up conv5_1/3x3_dwconv/concat
I0906 17:51:36.752202 27963 net.cpp:131] Top shape: 50 240 14 14 (2352000)
I0906 17:51:36.752205 27963 net.cpp:139] Memory required for data: 3025559800
I0906 17:51:36.752207 27963 layer_factory.hpp:77] Creating layer conv5_1/3x3_dwconv/concat_fixed_point
I0906 17:51:36.752224 27963 net.cpp:86] Creating Layer conv5_1/3x3_dwconv/concat_fixed_point
I0906 17:51:36.752228 27963 net.cpp:408] conv5_1/3x3_dwconv/concat_fixed_point <- conv5_1/3x3_dwconv/concat
I0906 17:51:36.752233 27963 net.cpp:369] conv5_1/3x3_dwconv/concat_fixed_point -> conv5_1/3x3_dwconv/concat (in-place)
I0906 17:51:36.752262 27963 net.cpp:124] Setting up conv5_1/3x3_dwconv/concat_fixed_point
I0906 17:51:36.752267 27963 net.cpp:131] Top shape: 50 240 14 14 (2352000)
I0906 17:51:36.752270 27963 net.cpp:139] Memory required for data: 3034967800
I0906 17:51:36.752274 27963 layer_factory.hpp:77] Creating layer conv5_1/3x3_dwconv/concat_conv5_1/3x3_dwconv/concat_fixed_point_0_split
I0906 17:51:36.752288 27963 net.cpp:86] Creating Layer conv5_1/3x3_dwconv/concat_conv5_1/3x3_dwconv/concat_fixed_point_0_split
I0906 17:51:36.752291 27963 net.cpp:408] conv5_1/3x3_dwconv/concat_conv5_1/3x3_dwconv/concat_fixed_point_0_split <- conv5_1/3x3_dwconv/concat
I0906 17:51:36.752296 27963 net.cpp:382] conv5_1/3x3_dwconv/concat_conv5_1/3x3_dwconv/concat_fixed_point_0_split -> conv5_1/3x3_dwconv/concat_conv5_1/3x3_dwconv/concat_fixed_point_0_split_0
I0906 17:51:36.752303 27963 net.cpp:382] conv5_1/3x3_dwconv/concat_conv5_1/3x3_dwconv/concat_fixed_point_0_split -> conv5_1/3x3_dwconv/concat_conv5_1/3x3_dwconv/concat_fixed_point_0_split_1
I0906 17:51:36.752359 27963 net.cpp:124] Setting up conv5_1/3x3_dwconv/concat_conv5_1/3x3_dwconv/concat_fixed_point_0_split
I0906 17:51:36.752365 27963 net.cpp:131] Top shape: 50 240 14 14 (2352000)
I0906 17:51:36.752368 27963 net.cpp:131] Top shape: 50 240 14 14 (2352000)
I0906 17:51:36.752372 27963 net.cpp:139] Memory required for data: 3053783800
I0906 17:51:36.752379 27963 layer_factory.hpp:77] Creating layer conv5_1/3x3_dwconv/SE_global_pool
I0906 17:51:36.752388 27963 net.cpp:86] Creating Layer conv5_1/3x3_dwconv/SE_global_pool
I0906 17:51:36.752391 27963 net.cpp:408] conv5_1/3x3_dwconv/SE_global_pool <- conv5_1/3x3_dwconv/concat_conv5_1/3x3_dwconv/concat_fixed_point_0_split_0
I0906 17:51:36.752396 27963 net.cpp:382] conv5_1/3x3_dwconv/SE_global_pool -> conv5_1/3x3_dwconv/SE_global_pool
I0906 17:51:36.752424 27963 net.cpp:124] Setting up conv5_1/3x3_dwconv/SE_global_pool
I0906 17:51:36.752429 27963 net.cpp:131] Top shape: 50 240 1 1 (12000)
I0906 17:51:36.752432 27963 net.cpp:139] Memory required for data: 3053831800
I0906 17:51:36.752434 27963 layer_factory.hpp:77] Creating layer conv5_1/3x3_dwconv/SE_fc1
I0906 17:51:36.752442 27963 net.cpp:86] Creating Layer conv5_1/3x3_dwconv/SE_fc1
I0906 17:51:36.752446 27963 net.cpp:408] conv5_1/3x3_dwconv/SE_fc1 <- conv5_1/3x3_dwconv/SE_global_pool
I0906 17:51:36.752451 27963 net.cpp:382] conv5_1/3x3_dwconv/SE_fc1 -> conv5_1/3x3_dwconv/SE_fc1
I0906 17:51:36.752934 27963 net.cpp:124] Setting up conv5_1/3x3_dwconv/SE_fc1
I0906 17:51:36.752946 27963 net.cpp:131] Top shape: 50 15 1 1 (750)
I0906 17:51:36.752964 27963 net.cpp:139] Memory required for data: 3053834800
I0906 17:51:36.752969 27963 layer_factory.hpp:77] Creating layer conv5_1/3x3_dwconv/SE_fc1/relu
I0906 17:51:36.752981 27963 net.cpp:86] Creating Layer conv5_1/3x3_dwconv/SE_fc1/relu
I0906 17:51:36.752985 27963 net.cpp:408] conv5_1/3x3_dwconv/SE_fc1/relu <- conv5_1/3x3_dwconv/SE_fc1
I0906 17:51:36.752991 27963 net.cpp:369] conv5_1/3x3_dwconv/SE_fc1/relu -> conv5_1/3x3_dwconv/SE_fc1 (in-place)
I0906 17:51:36.753600 27963 net.cpp:124] Setting up conv5_1/3x3_dwconv/SE_fc1/relu
I0906 17:51:36.753612 27963 net.cpp:131] Top shape: 50 15 1 1 (750)
I0906 17:51:36.753614 27963 net.cpp:139] Memory required for data: 3053837800
I0906 17:51:36.753618 27963 layer_factory.hpp:77] Creating layer conv5_1/3x3_dwconv/SE_fc2
I0906 17:51:36.753635 27963 net.cpp:86] Creating Layer conv5_1/3x3_dwconv/SE_fc2
I0906 17:51:36.753639 27963 net.cpp:408] conv5_1/3x3_dwconv/SE_fc2 <- conv5_1/3x3_dwconv/SE_fc1
I0906 17:51:36.753646 27963 net.cpp:382] conv5_1/3x3_dwconv/SE_fc2 -> conv5_1/3x3_dwconv/SE_fc2
I0906 17:51:36.754129 27963 net.cpp:124] Setting up conv5_1/3x3_dwconv/SE_fc2
I0906 17:51:36.754140 27963 net.cpp:131] Top shape: 50 240 1 1 (12000)
I0906 17:51:36.754144 27963 net.cpp:139] Memory required for data: 3053885800
I0906 17:51:36.754156 27963 layer_factory.hpp:77] Creating layer conv5_1/3x3_dwconv/SE_weights
I0906 17:51:36.754163 27963 net.cpp:86] Creating Layer conv5_1/3x3_dwconv/SE_weights
I0906 17:51:36.754168 27963 net.cpp:408] conv5_1/3x3_dwconv/SE_weights <- conv5_1/3x3_dwconv/SE_fc2
I0906 17:51:36.754171 27963 net.cpp:369] conv5_1/3x3_dwconv/SE_weights -> conv5_1/3x3_dwconv/SE_fc2 (in-place)
I0906 17:51:36.754761 27963 net.cpp:124] Setting up conv5_1/3x3_dwconv/SE_weights
I0906 17:51:36.754772 27963 net.cpp:131] Top shape: 50 240 1 1 (12000)
I0906 17:51:36.754791 27963 net.cpp:139] Memory required for data: 3053933800
I0906 17:51:36.754793 27963 layer_factory.hpp:77] Creating layer conv5_1/3x3_dwconv/SE_weights/reshape
I0906 17:51:36.754807 27963 net.cpp:86] Creating Layer conv5_1/3x3_dwconv/SE_weights/reshape
I0906 17:51:36.754812 27963 net.cpp:408] conv5_1/3x3_dwconv/SE_weights/reshape <- conv5_1/3x3_dwconv/SE_fc2
I0906 17:51:36.754817 27963 net.cpp:382] conv5_1/3x3_dwconv/SE_weights/reshape -> conv5_1/3x3_dwconv/SE_weights/reshape
I0906 17:51:36.754853 27963 net.cpp:124] Setting up conv5_1/3x3_dwconv/SE_weights/reshape
I0906 17:51:36.754858 27963 net.cpp:131] Top shape: 50 240 (12000)
I0906 17:51:36.754861 27963 net.cpp:139] Memory required for data: 3053981800
I0906 17:51:36.754863 27963 layer_factory.hpp:77] Creating layer conv5_1/3x3_dwconv/scale
I0906 17:51:36.754871 27963 net.cpp:86] Creating Layer conv5_1/3x3_dwconv/scale
I0906 17:51:36.754874 27963 net.cpp:408] conv5_1/3x3_dwconv/scale <- conv5_1/3x3_dwconv/concat_conv5_1/3x3_dwconv/concat_fixed_point_0_split_1
I0906 17:51:36.754878 27963 net.cpp:408] conv5_1/3x3_dwconv/scale <- conv5_1/3x3_dwconv/SE_weights/reshape
I0906 17:51:36.754884 27963 net.cpp:382] conv5_1/3x3_dwconv/scale -> conv5_1/3x3_dwconv/scale
I0906 17:51:36.754982 27963 net.cpp:124] Setting up conv5_1/3x3_dwconv/scale
I0906 17:51:36.754989 27963 net.cpp:131] Top shape: 50 240 14 14 (2352000)
I0906 17:51:36.754992 27963 net.cpp:139] Memory required for data: 3063389800
I0906 17:51:36.754994 27963 layer_factory.hpp:77] Creating layer conv5_1/3x3_dwconv/scale_fixed_point
I0906 17:51:36.754998 27963 net.cpp:86] Creating Layer conv5_1/3x3_dwconv/scale_fixed_point
I0906 17:51:36.755002 27963 net.cpp:408] conv5_1/3x3_dwconv/scale_fixed_point <- conv5_1/3x3_dwconv/scale
I0906 17:51:36.755018 27963 net.cpp:369] conv5_1/3x3_dwconv/scale_fixed_point -> conv5_1/3x3_dwconv/scale (in-place)
I0906 17:51:36.755062 27963 net.cpp:124] Setting up conv5_1/3x3_dwconv/scale_fixed_point
I0906 17:51:36.755069 27963 net.cpp:131] Top shape: 50 240 14 14 (2352000)
I0906 17:51:36.755072 27963 net.cpp:139] Memory required for data: 3072797800
I0906 17:51:36.755084 27963 layer_factory.hpp:77] Creating layer conv5_1/1x1_decrease
I0906 17:51:36.755097 27963 net.cpp:86] Creating Layer conv5_1/1x1_decrease
I0906 17:51:36.755101 27963 net.cpp:408] conv5_1/1x1_decrease <- conv5_1/3x3_dwconv/scale
I0906 17:51:36.755108 27963 net.cpp:382] conv5_1/1x1_decrease -> conv5_1/1x1_decrease/bn
I0906 17:51:36.756233 27963 net.cpp:124] Setting up conv5_1/1x1_decrease
I0906 17:51:36.756243 27963 net.cpp:131] Top shape: 50 80 14 14 (784000)
I0906 17:51:36.756258 27963 net.cpp:139] Memory required for data: 3075933800
I0906 17:51:36.756263 27963 layer_factory.hpp:77] Creating layer conv5_1/elt_sum
I0906 17:51:36.756269 27963 net.cpp:86] Creating Layer conv5_1/elt_sum
I0906 17:51:36.756273 27963 net.cpp:408] conv5_1/elt_sum <- conv5_0/1x1_decrease/bn_conv5_0/1x1_decrease/bn_fixed_point_0_split_1
I0906 17:51:36.756279 27963 net.cpp:408] conv5_1/elt_sum <- conv5_1/1x1_decrease/bn
I0906 17:51:36.756294 27963 net.cpp:382] conv5_1/elt_sum -> conv5_1/elt_sum
I0906 17:51:36.756328 27963 net.cpp:124] Setting up conv5_1/elt_sum
I0906 17:51:36.756333 27963 net.cpp:131] Top shape: 50 80 14 14 (784000)
I0906 17:51:36.756335 27963 net.cpp:139] Memory required for data: 3079069800
I0906 17:51:36.756338 27963 layer_factory.hpp:77] Creating layer conv5_1/elt_sum_fixed_point
I0906 17:51:36.756345 27963 net.cpp:86] Creating Layer conv5_1/elt_sum_fixed_point
I0906 17:51:36.756348 27963 net.cpp:408] conv5_1/elt_sum_fixed_point <- conv5_1/elt_sum
I0906 17:51:36.756355 27963 net.cpp:369] conv5_1/elt_sum_fixed_point -> conv5_1/elt_sum (in-place)
I0906 17:51:36.756395 27963 net.cpp:124] Setting up conv5_1/elt_sum_fixed_point
I0906 17:51:36.756400 27963 net.cpp:131] Top shape: 50 80 14 14 (784000)
I0906 17:51:36.756403 27963 net.cpp:139] Memory required for data: 3082205800
I0906 17:51:36.756407 27963 layer_factory.hpp:77] Creating layer conv5_1/elt_sum_conv5_1/elt_sum_fixed_point_0_split
I0906 17:51:36.756422 27963 net.cpp:86] Creating Layer conv5_1/elt_sum_conv5_1/elt_sum_fixed_point_0_split
I0906 17:51:36.756426 27963 net.cpp:408] conv5_1/elt_sum_conv5_1/elt_sum_fixed_point_0_split <- conv5_1/elt_sum
I0906 17:51:36.756430 27963 net.cpp:382] conv5_1/elt_sum_conv5_1/elt_sum_fixed_point_0_split -> conv5_1/elt_sum_conv5_1/elt_sum_fixed_point_0_split_0
I0906 17:51:36.756436 27963 net.cpp:382] conv5_1/elt_sum_conv5_1/elt_sum_fixed_point_0_split -> conv5_1/elt_sum_conv5_1/elt_sum_fixed_point_0_split_1
I0906 17:51:36.756485 27963 net.cpp:124] Setting up conv5_1/elt_sum_conv5_1/elt_sum_fixed_point_0_split
I0906 17:51:36.756505 27963 net.cpp:131] Top shape: 50 80 14 14 (784000)
I0906 17:51:36.756508 27963 net.cpp:131] Top shape: 50 80 14 14 (784000)
I0906 17:51:36.756511 27963 net.cpp:139] Memory required for data: 3088477800
I0906 17:51:36.756515 27963 layer_factory.hpp:77] Creating layer conv5_2/1x1_increase
I0906 17:51:36.756531 27963 net.cpp:86] Creating Layer conv5_2/1x1_increase
I0906 17:51:36.756534 27963 net.cpp:408] conv5_2/1x1_increase <- conv5_1/elt_sum_conv5_1/elt_sum_fixed_point_0_split_0
I0906 17:51:36.756542 27963 net.cpp:382] conv5_2/1x1_increase -> conv5_2/1x1_increase/bn
I0906 17:51:36.757616 27963 net.cpp:124] Setting up conv5_2/1x1_increase
I0906 17:51:36.757627 27963 net.cpp:131] Top shape: 50 240 14 14 (2352000)
I0906 17:51:36.757645 27963 net.cpp:139] Memory required for data: 3097885800
I0906 17:51:36.757652 27963 layer_factory.hpp:77] Creating layer conv5_2/1x1_increase/relu
I0906 17:51:36.757659 27963 net.cpp:86] Creating Layer conv5_2/1x1_increase/relu
I0906 17:51:36.757663 27963 net.cpp:408] conv5_2/1x1_increase/relu <- conv5_2/1x1_increase/bn
I0906 17:51:36.757668 27963 net.cpp:369] conv5_2/1x1_increase/relu -> conv5_2/1x1_increase/bn (in-place)
I0906 17:51:36.758271 27963 net.cpp:124] Setting up conv5_2/1x1_increase/relu
I0906 17:51:36.758281 27963 net.cpp:131] Top shape: 50 240 14 14 (2352000)
I0906 17:51:36.758299 27963 net.cpp:139] Memory required for data: 3107293800
I0906 17:51:36.758302 27963 layer_factory.hpp:77] Creating layer conv5_2/1x1_increase/bn_fixed_point
I0906 17:51:36.758309 27963 net.cpp:86] Creating Layer conv5_2/1x1_increase/bn_fixed_point
I0906 17:51:36.758312 27963 net.cpp:408] conv5_2/1x1_increase/bn_fixed_point <- conv5_2/1x1_increase/bn
I0906 17:51:36.758317 27963 net.cpp:369] conv5_2/1x1_increase/bn_fixed_point -> conv5_2/1x1_increase/bn (in-place)
I0906 17:51:36.758350 27963 net.cpp:124] Setting up conv5_2/1x1_increase/bn_fixed_point
I0906 17:51:36.758357 27963 net.cpp:131] Top shape: 50 240 14 14 (2352000)
I0906 17:51:36.758358 27963 net.cpp:139] Memory required for data: 3116701800
I0906 17:51:36.758363 27963 layer_factory.hpp:77] Creating layer conv5_2/1x1_increase/slice
I0906 17:51:36.758383 27963 net.cpp:86] Creating Layer conv5_2/1x1_increase/slice
I0906 17:51:36.758386 27963 net.cpp:408] conv5_2/1x1_increase/slice <- conv5_2/1x1_increase/bn
I0906 17:51:36.758392 27963 net.cpp:382] conv5_2/1x1_increase/slice -> conv5_2/1x1_increase/split1
I0906 17:51:36.758414 27963 net.cpp:382] conv5_2/1x1_increase/slice -> conv5_2/1x1_increase/split2
I0906 17:51:36.758462 27963 net.cpp:124] Setting up conv5_2/1x1_increase/slice
I0906 17:51:36.758467 27963 net.cpp:131] Top shape: 50 120 14 14 (1176000)
I0906 17:51:36.758471 27963 net.cpp:131] Top shape: 50 120 14 14 (1176000)
I0906 17:51:36.758473 27963 net.cpp:139] Memory required for data: 3126109800
I0906 17:51:36.758476 27963 layer_factory.hpp:77] Creating layer conv5_2/3x3_dwconv/slice_0
I0906 17:51:36.758484 27963 net.cpp:86] Creating Layer conv5_2/3x3_dwconv/slice_0
I0906 17:51:36.758488 27963 net.cpp:408] conv5_2/3x3_dwconv/slice_0 <- conv5_2/1x1_increase/split1
I0906 17:51:36.758493 27963 net.cpp:382] conv5_2/3x3_dwconv/slice_0 -> conv5_2/3x3_dwconv/slice_0/bn
I0906 17:51:36.759117 27963 net.cpp:124] Setting up conv5_2/3x3_dwconv/slice_0
I0906 17:51:36.759129 27963 net.cpp:131] Top shape: 50 120 14 14 (1176000)
I0906 17:51:36.759146 27963 net.cpp:139] Memory required for data: 3130813800
I0906 17:51:36.759152 27963 layer_factory.hpp:77] Creating layer conv5_2/3x3_dwconv/slice_0/relu
I0906 17:51:36.759157 27963 net.cpp:86] Creating Layer conv5_2/3x3_dwconv/slice_0/relu
I0906 17:51:36.759161 27963 net.cpp:408] conv5_2/3x3_dwconv/slice_0/relu <- conv5_2/3x3_dwconv/slice_0/bn
I0906 17:51:36.759167 27963 net.cpp:369] conv5_2/3x3_dwconv/slice_0/relu -> conv5_2/3x3_dwconv/slice_0/bn (in-place)
I0906 17:51:36.759969 27963 net.cpp:124] Setting up conv5_2/3x3_dwconv/slice_0/relu
I0906 17:51:36.759984 27963 net.cpp:131] Top shape: 50 120 14 14 (1176000)
I0906 17:51:36.760002 27963 net.cpp:139] Memory required for data: 3135517800
I0906 17:51:36.760005 27963 layer_factory.hpp:77] Creating layer conv5_2/3x3_dwconv/slice_1
I0906 17:51:36.760049 27963 net.cpp:86] Creating Layer conv5_2/3x3_dwconv/slice_1
I0906 17:51:36.760054 27963 net.cpp:408] conv5_2/3x3_dwconv/slice_1 <- conv5_2/1x1_increase/split2
I0906 17:51:36.760061 27963 net.cpp:382] conv5_2/3x3_dwconv/slice_1 -> conv5_2/3x3_dwconv/slice_1/bn
I0906 17:51:36.760888 27963 net.cpp:124] Setting up conv5_2/3x3_dwconv/slice_1
I0906 17:51:36.760901 27963 net.cpp:131] Top shape: 50 120 14 14 (1176000)
I0906 17:51:36.760920 27963 net.cpp:139] Memory required for data: 3140221800
I0906 17:51:36.760936 27963 layer_factory.hpp:77] Creating layer conv5_2/3x3_dwconv/slice_1/relu
I0906 17:51:36.760943 27963 net.cpp:86] Creating Layer conv5_2/3x3_dwconv/slice_1/relu
I0906 17:51:36.760947 27963 net.cpp:408] conv5_2/3x3_dwconv/slice_1/relu <- conv5_2/3x3_dwconv/slice_1/bn
I0906 17:51:36.760952 27963 net.cpp:369] conv5_2/3x3_dwconv/slice_1/relu -> conv5_2/3x3_dwconv/slice_1/bn (in-place)
I0906 17:51:36.761622 27963 net.cpp:124] Setting up conv5_2/3x3_dwconv/slice_1/relu
I0906 17:51:36.761633 27963 net.cpp:131] Top shape: 50 120 14 14 (1176000)
I0906 17:51:36.761648 27963 net.cpp:139] Memory required for data: 3144925800
I0906 17:51:36.761651 27963 layer_factory.hpp:77] Creating layer conv5_2/3x3_dwconv/concat
I0906 17:51:36.761657 27963 net.cpp:86] Creating Layer conv5_2/3x3_dwconv/concat
I0906 17:51:36.761660 27963 net.cpp:408] conv5_2/3x3_dwconv/concat <- conv5_2/3x3_dwconv/slice_0/bn
I0906 17:51:36.761664 27963 net.cpp:408] conv5_2/3x3_dwconv/concat <- conv5_2/3x3_dwconv/slice_1/bn
I0906 17:51:36.761672 27963 net.cpp:382] conv5_2/3x3_dwconv/concat -> conv5_2/3x3_dwconv/concat
I0906 17:51:36.761704 27963 net.cpp:124] Setting up conv5_2/3x3_dwconv/concat
I0906 17:51:36.761719 27963 net.cpp:131] Top shape: 50 240 14 14 (2352000)
I0906 17:51:36.761723 27963 net.cpp:139] Memory required for data: 3154333800
I0906 17:51:36.761725 27963 layer_factory.hpp:77] Creating layer conv5_2/3x3_dwconv/concat_fixed_point
I0906 17:51:36.761741 27963 net.cpp:86] Creating Layer conv5_2/3x3_dwconv/concat_fixed_point
I0906 17:51:36.761745 27963 net.cpp:408] conv5_2/3x3_dwconv/concat_fixed_point <- conv5_2/3x3_dwconv/concat
I0906 17:51:36.761749 27963 net.cpp:369] conv5_2/3x3_dwconv/concat_fixed_point -> conv5_2/3x3_dwconv/concat (in-place)
I0906 17:51:36.761796 27963 net.cpp:124] Setting up conv5_2/3x3_dwconv/concat_fixed_point
I0906 17:51:36.761813 27963 net.cpp:131] Top shape: 50 240 14 14 (2352000)
I0906 17:51:36.761816 27963 net.cpp:139] Memory required for data: 3163741800
I0906 17:51:36.761821 27963 layer_factory.hpp:77] Creating layer conv5_2/3x3_dwconv/concat_conv5_2/3x3_dwconv/concat_fixed_point_0_split
I0906 17:51:36.761827 27963 net.cpp:86] Creating Layer conv5_2/3x3_dwconv/concat_conv5_2/3x3_dwconv/concat_fixed_point_0_split
I0906 17:51:36.761831 27963 net.cpp:408] conv5_2/3x3_dwconv/concat_conv5_2/3x3_dwconv/concat_fixed_point_0_split <- conv5_2/3x3_dwconv/concat
I0906 17:51:36.761834 27963 net.cpp:382] conv5_2/3x3_dwconv/concat_conv5_2/3x3_dwconv/concat_fixed_point_0_split -> conv5_2/3x3_dwconv/concat_conv5_2/3x3_dwconv/concat_fixed_point_0_split_0
I0906 17:51:36.761840 27963 net.cpp:382] conv5_2/3x3_dwconv/concat_conv5_2/3x3_dwconv/concat_fixed_point_0_split -> conv5_2/3x3_dwconv/concat_conv5_2/3x3_dwconv/concat_fixed_point_0_split_1
I0906 17:51:36.762024 27963 net.cpp:124] Setting up conv5_2/3x3_dwconv/concat_conv5_2/3x3_dwconv/concat_fixed_point_0_split
I0906 17:51:36.762033 27963 net.cpp:131] Top shape: 50 240 14 14 (2352000)
…
I0906 17:51:36.896140 27963 net.cpp:86] Creating Layer conv7_3/3x3_dwconv/slice_0
I0906 17:51:36.896144 27963 net.cpp:408] conv7_3/3x3_dwconv/slice_0 <- conv7_3/1x1_increase/split1
I0906 17:51:36.896152 27963 net.cpp:382] conv7_3/3x3_dwconv/slice_0 -> conv7_3/3x3_dwconv/slice_0/bn
I0906 17:51:36.896865 27963 net.cpp:124] Setting up conv7_3/3x3_dwconv/slice_0
I0906 17:51:36.896876 27963 net.cpp:131] Top shape: 50 192 7 7 (470400)
I0906 17:51:36.896890 27963 net.cpp:139] Memory required for data: 4360233800
I0906 17:51:36.896896 27963 layer_factory.hpp:77] Creating layer conv7_3/3x3_dwconv/slice_0/relu
I0906 17:51:36.896917 27963 net.cpp:86] Creating Layer conv7_3/3x3_dwconv/slice_0/relu
I0906 17:51:36.896922 27963 net.cpp:408] conv7_3/3x3_dwconv/slice_0/relu <- conv7_3/3x3_dwconv/slice_0/bn
I0906 17:51:36.896929 27963 net.cpp:369] conv7_3/3x3_dwconv/slice_0/relu -> conv7_3/3x3_dwconv/slice_0/bn (in-place)
I0906 17:51:36.897960 27963 net.cpp:124] Setting up conv7_3/3x3_dwconv/slice_0/relu
I0906 17:51:36.897974 27963 net.cpp:131] Top shape: 50 192 7 7 (470400)
I0906 17:51:36.897989 27963 net.cpp:139] Memory required for data: 4362115400
I0906 17:51:36.897991 27963 layer_factory.hpp:77] Creating layer conv7_3/3x3_dwconv/slice_1
I0906 17:51:36.898005 27963 net.cpp:86] Creating Layer conv7_3/3x3_dwconv/slice_1
I0906 17:51:36.898015 27963 net.cpp:408] conv7_3/3x3_dwconv/slice_1 <- conv7_3/1x1_increase/split2
I0906 17:51:36.898020 27963 net.cpp:382] conv7_3/3x3_dwconv/slice_1 -> conv7_3/3x3_dwconv/slice_1/bn
I0906 17:51:36.898833 27963 net.cpp:124] Setting up conv7_3/3x3_dwconv/slice_1
I0906 17:51:36.898844 27963 net.cpp:131] Top shape: 50 192 7 7 (470400)
I0906 17:51:36.898857 27963 net.cpp:139] Memory required for data: 4363997000
I0906 17:51:36.898864 27963 layer_factory.hpp:77] Creating layer conv7_3/3x3_dwconv/slice_1/relu
I0906 17:51:36.898871 27963 net.cpp:86] Creating Layer conv7_3/3x3_dwconv/slice_1/relu
I0906 17:51:36.898875 27963 net.cpp:408] conv7_3/3x3_dwconv/slice_1/relu <- conv7_3/3x3_dwconv/slice_1/bn
I0906 17:51:36.898880 27963 net.cpp:369] conv7_3/3x3_dwconv/slice_1/relu -> conv7_3/3x3_dwconv/slice_1/bn (in-place)
I0906 17:51:36.899497 27963 net.cpp:124] Setting up conv7_3/3x3_dwconv/slice_1/relu
I0906 17:51:36.899509 27963 net.cpp:131] Top shape: 50 192 7 7 (470400)
I0906 17:51:36.899523 27963 net.cpp:139] Memory required for data: 4365878600
I0906 17:51:36.899535 27963 layer_factory.hpp:77] Creating layer conv7_3/3x3_dwconv/slice_2
I0906 17:51:36.899561 27963 net.cpp:86] Creating Layer conv7_3/3x3_dwconv/slice_2
I0906 17:51:36.899565 27963 net.cpp:408] conv7_3/3x3_dwconv/slice_2 <- conv7_3/1x1_increase/split3
I0906 17:51:36.899571 27963 net.cpp:382] conv7_3/3x3_dwconv/slice_2 -> conv7_3/3x3_dwconv/slice_2/bn
I0906 17:51:36.900693 27963 net.cpp:124] Setting up conv7_3/3x3_dwconv/slice_2
I0906 17:51:36.900707 27963 net.cpp:131] Top shape: 50 192 7 7 (470400)
I0906 17:51:36.900723 27963 net.cpp:139] Memory required for data: 4367760200
I0906 17:51:36.900730 27963 layer_factory.hpp:77] Creating layer conv7_3/3x3_dwconv/slice_2/relu
I0906 17:51:36.900735 27963 net.cpp:86] Creating Layer conv7_3/3x3_dwconv/slice_2/relu
I0906 17:51:36.900740 27963 net.cpp:408] conv7_3/3x3_dwconv/slice_2/relu <- conv7_3/3x3_dwconv/slice_2/bn
I0906 17:51:36.900744 27963 net.cpp:369] conv7_3/3x3_dwconv/slice_2/relu -> conv7_3/3x3_dwconv/slice_2/bn (in-place)
I0906 17:51:36.901378 27963 net.cpp:124] Setting up conv7_3/3x3_dwconv/slice_2/relu
I0906 17:51:36.901389 27963 net.cpp:131] Top shape: 50 192 7 7 (470400)
I0906 17:51:36.901408 27963 net.cpp:139] Memory required for data: 4369641800
I0906 17:51:36.901412 27963 layer_factory.hpp:77] Creating layer conv7_3/3x3_dwconv/concat
I0906 17:51:36.901417 27963 net.cpp:86] Creating Layer conv7_3/3x3_dwconv/concat
I0906 17:51:36.901422 27963 net.cpp:408] conv7_3/3x3_dwconv/concat <- conv7_3/3x3_dwconv/slice_0/bn
I0906 17:51:36.901425 27963 net.cpp:408] conv7_3/3x3_dwconv/concat <- conv7_3/3x3_dwconv/slice_1/bn
I0906 17:51:36.901430 27963 net.cpp:408] conv7_3/3x3_dwconv/concat <- conv7_3/3x3_dwconv/slice_2/bn
I0906 17:51:36.901434 27963 net.cpp:382] conv7_3/3x3_dwconv/concat -> conv7_3/3x3_dwconv/concat
I0906 17:51:36.901487 27963 net.cpp:124] Setting up conv7_3/3x3_dwconv/concat
I0906 17:51:36.901494 27963 net.cpp:131] Top shape: 50 576 7 7 (1411200)
I0906 17:51:36.901496 27963 net.cpp:139] Memory required for data: 4375286600
I0906 17:51:36.901499 27963 layer_factory.hpp:77] Creating layer conv7_3/3x3_dwconv/concat_fixed_point
I0906 17:51:36.901512 27963 net.cpp:86] Creating Layer conv7_3/3x3_dwconv/concat_fixed_point
I0906 17:51:36.901516 27963 net.cpp:408] conv7_3/3x3_dwconv/concat_fixed_point <- conv7_3/3x3_dwconv/concat
I0906 17:51:36.901520 27963 net.cpp:369] conv7_3/3x3_dwconv/concat_fixed_point -> conv7_3/3x3_dwconv/concat (in-place)
I0906 17:51:36.901554 27963 net.cpp:124] Setting up conv7_3/3x3_dwconv/concat_fixed_point
I0906 17:51:36.901559 27963 net.cpp:131] Top shape: 50 576 7 7 (1411200)
I0906 17:51:36.901561 27963 net.cpp:139] Memory required for data: 4380931400
I0906 17:51:36.901574 27963 layer_factory.hpp:77] Creating layer conv7_3/3x3_dwconv/concat_conv7_3/3x3_dwconv/concat_fixed_point_0_split
I0906 17:51:36.901580 27963 net.cpp:86] Creating Layer conv7_3/3x3_dwconv/concat_conv7_3/3x3_dwconv/concat_fixed_point_0_split
I0906 17:51:36.901583 27963 net.cpp:408] conv7_3/3x3_dwconv/concat_conv7_3/3x3_dwconv/concat_fixed_point_0_split <- conv7_3/3x3_dwconv/concat
I0906 17:51:36.901589 27963 net.cpp:382] conv7_3/3x3_dwconv/concat_conv7_3/3x3_dwconv/concat_fixed_point_0_split -> conv7_3/3x3_dwconv/concat_conv7_3/3x3_dwconv/concat_fixed_point_0_split_0
I0906 17:51:36.901608 27963 net.cpp:382] conv7_3/3x3_dwconv/concat_conv7_3/3x3_dwconv/concat_fixed_point_0_split -> conv7_3/3x3_dwconv/concat_conv7_3/3x3_dwconv/concat_fixed_point_0_split_1
I0906 17:51:36.901674 27963 net.cpp:124] Setting up conv7_3/3x3_dwconv/concat_conv7_3/3x3_dwconv/concat_fixed_point_0_split
I0906 17:51:36.901680 27963 net.cpp:131] Top shape: 50 576 7 7 (1411200)
I0906 17:51:36.901684 27963 net.cpp:131] Top shape: 50 576 7 7 (1411200)
I0906 17:51:36.901687 27963 net.cpp:139] Memory required for data: 4392221000
I0906 17:51:36.901690 27963 layer_factory.hpp:77] Creating layer conv7_3/3x3_dwconv/SE_global_pool
I0906 17:51:36.901696 27963 net.cpp:86] Creating Layer conv7_3/3x3_dwconv/SE_global_pool
I0906 17:51:36.901700 27963 net.cpp:408] conv7_3/3x3_dwconv/SE_global_pool <- conv7_3/3x3_dwconv/concat_conv7_3/3x3_dwconv/concat_fixed_point_0_split_0
I0906 17:51:36.901705 27963 net.cpp:382] conv7_3/3x3_dwconv/SE_global_pool -> conv7_3/3x3_dwconv/SE_global_pool
I0906 17:51:36.901736 27963 net.cpp:124] Setting up conv7_3/3x3_dwconv/SE_global_pool
I0906 17:51:36.901741 27963 net.cpp:131] Top shape: 50 576 1 1 (28800)
I0906 17:51:36.901743 27963 net.cpp:139] Memory required for data: 4392336200
I0906 17:51:36.901746 27963 layer_factory.hpp:77] Creating layer conv7_3/3x3_dwconv/SE_fc1
I0906 17:51:36.901754 27963 net.cpp:86] Creating Layer conv7_3/3x3_dwconv/SE_fc1
I0906 17:51:36.901757 27963 net.cpp:408] conv7_3/3x3_dwconv/SE_fc1 <- conv7_3/3x3_dwconv/SE_global_pool
I0906 17:51:36.901764 27963 net.cpp:382] conv7_3/3x3_dwconv/SE_fc1 -> conv7_3/3x3_dwconv/SE_fc1
I0906 17:51:36.902778 27963 net.cpp:124] Setting up conv7_3/3x3_dwconv/SE_fc1
I0906 17:51:36.902789 27963 net.cpp:131] Top shape: 50 36 1 1 (1800)
I0906 17:51:36.902807 27963 net.cpp:139] Memory required for data: 4392343400
I0906 17:51:36.902812 27963 layer_factory.hpp:77] Creating layer conv7_3/3x3_dwconv/SE_fc1/relu
I0906 17:51:36.902833 27963 net.cpp:86] Creating Layer conv7_3/3x3_dwconv/SE_fc1/relu
I0906 17:51:36.902837 27963 net.cpp:408] conv7_3/3x3_dwconv/SE_fc1/relu <- conv7_3/3x3_dwconv/SE_fc1
I0906 17:51:36.902844 27963 net.cpp:369] conv7_3/3x3_dwconv/SE_fc1/relu -> conv7_3/3x3_dwconv/SE_fc1 (in-place)
I0906 17:51:36.903688 27963 net.cpp:124] Setting up conv7_3/3x3_dwconv/SE_fc1/relu
I0906 17:51:36.903702 27963 net.cpp:131] Top shape: 50 36 1 1 (1800)
I0906 17:51:36.903720 27963 net.cpp:139] Memory required for data: 4392350600
I0906 17:51:36.903723 27963 layer_factory.hpp:77] Creating layer conv7_3/3x3_dwconv/SE_fc2
I0906 17:51:36.903738 27963 net.cpp:86] Creating Layer conv7_3/3x3_dwconv/SE_fc2
I0906 17:51:36.903743 27963 net.cpp:408] conv7_3/3x3_dwconv/SE_fc2 <- conv7_3/3x3_dwconv/SE_fc1
I0906 17:51:36.903750 27963 net.cpp:382] conv7_3/3x3_dwconv/SE_fc2 -> conv7_3/3x3_dwconv/SE_fc2
I0906 17:51:36.904902 27963 net.cpp:124] Setting up conv7_3/3x3_dwconv/SE_fc2
I0906 17:51:36.904914 27963 net.cpp:131] Top shape: 50 576 1 1 (28800)
I0906 17:51:36.904932 27963 net.cpp:139] Memory required for data: 4392465800
I0906 17:51:36.904937 27963 layer_factory.hpp:77] Creating layer conv7_3/3x3_dwconv/SE_weights
I0906 17:51:36.904942 27963 net.cpp:86] Creating Layer conv7_3/3x3_dwconv/SE_weights
I0906 17:51:36.904947 27963 net.cpp:408] conv7_3/3x3_dwconv/SE_weights <- conv7_3/3x3_dwconv/SE_fc2
I0906 17:51:36.904953 27963 net.cpp:369] conv7_3/3x3_dwconv/SE_weights -> conv7_3/3x3_dwconv/SE_fc2 (in-place)
I0906 17:51:36.905606 27963 net.cpp:124] Setting up conv7_3/3x3_dwconv/SE_weights
I0906 17:51:36.905616 27963 net.cpp:131] Top shape: 50 576 1 1 (28800)
I0906 17:51:36.905619 27963 net.cpp:139] Memory required for data: 4392581000
I0906 17:51:36.905622 27963 layer_factory.hpp:77] Creating layer conv7_3/3x3_dwconv/SE_weights/reshape
I0906 17:51:36.905656 27963 net.cpp:86] Creating Layer conv7_3/3x3_dwconv/SE_weights/reshape
I0906 17:51:36.905661 27963 net.cpp:408] conv7_3/3x3_dwconv/SE_weights/reshape <- conv7_3/3x3_dwconv/SE_fc2
I0906 17:51:36.905668 27963 net.cpp:382] conv7_3/3x3_dwconv/SE_weights/reshape -> conv7_3/3x3_dwconv/SE_weights/reshape
I0906 17:51:36.905738 27963 net.cpp:124] Setting up conv7_3/3x3_dwconv/SE_weights/reshape
I0906 17:51:36.905759 27963 net.cpp:131] Top shape: 50 576 (28800)
I0906 17:51:36.905762 27963 net.cpp:139] Memory required for data: 4392696200
I0906 17:51:36.905772 27963 layer_factory.hpp:77] Creating layer conv7_3/3x3_dwconv/scale
I0906 17:51:36.905778 27963 net.cpp:86] Creating Layer conv7_3/3x3_dwconv/scale
I0906 17:51:36.905791 27963 net.cpp:408] conv7_3/3x3_dwconv/scale <- conv7_3/3x3_dwconv/concat_conv7_3/3x3_dwconv/concat_fixed_point_0_split_1
I0906 17:51:36.905797 27963 net.cpp:408] conv7_3/3x3_dwconv/scale <- conv7_3/3x3_dwconv/SE_weights/reshape
I0906 17:51:36.905800 27963 net.cpp:382] conv7_3/3x3_dwconv/scale -> conv7_3/3x3_dwconv/scale
I0906 17:51:36.905892 27963 net.cpp:124] Setting up conv7_3/3x3_dwconv/scale
I0906 17:51:36.905900 27963 net.cpp:131] Top shape: 50 576 7 7 (1411200)
I0906 17:51:36.905902 27963 net.cpp:139] Memory required for data: 4398341000
I0906 17:51:36.905905 27963 layer_factory.hpp:77] Creating layer conv7_3/3x3_dwconv/scale_fixed_point
I0906 17:51:36.905911 27963 net.cpp:86] Creating Layer conv7_3/3x3_dwconv/scale_fixed_point
I0906 17:51:36.905915 27963 net.cpp:408] conv7_3/3x3_dwconv/scale_fixed_point <- conv7_3/3x3_dwconv/scale
I0906 17:51:36.905918 27963 net.cpp:369] conv7_3/3x3_dwconv/scale_fixed_point -> conv7_3/3x3_dwconv/scale (in-place)
I0906 17:51:36.905952 27963 net.cpp:124] Setting up conv7_3/3x3_dwconv/scale_fixed_point
I0906 17:51:36.905957 27963 net.cpp:131] Top shape: 50 576 7 7 (1411200)
I0906 17:51:36.905961 27963 net.cpp:139] Memory required for data: 4403985800
I0906 17:51:36.905964 27963 layer_factory.hpp:77] Creating layer conv7_3/1x1_decrease
I0906 17:51:36.905994 27963 net.cpp:86] Creating Layer conv7_3/1x1_decrease
I0906 17:51:36.906018 27963 net.cpp:408] conv7_3/1x1_decrease <- conv7_3/3x3_dwconv/scale
I0906 17:51:36.906025 27963 net.cpp:382] conv7_3/1x1_decrease -> conv7_3/1x1_decrease/bn
I0906 17:51:36.910137 27963 net.cpp:124] Setting up conv7_3/1x1_decrease
I0906 17:51:36.910161 27963 net.cpp:131] Top shape: 50 192 7 7 (470400)
I0906 17:51:36.910163 27963 net.cpp:139] Memory required for data: 4405867400
I0906 17:51:36.910171 27963 layer_factory.hpp:77] Creating layer conv7_3/elt_sum
I0906 17:51:36.910178 27963 net.cpp:86] Creating Layer conv7_3/elt_sum
I0906 17:51:36.910182 27963 net.cpp:408] conv7_3/elt_sum <- conv7_2/elt_sum_conv7_2/elt_sum_fixed_point_0_split_1
I0906 17:51:36.910188 27963 net.cpp:408] conv7_3/elt_sum <- conv7_3/1x1_decrease/bn
I0906 17:51:36.910197 27963 net.cpp:382] conv7_3/elt_sum -> conv7_3/elt_sum
I0906 17:51:36.910236 27963 net.cpp:124] Setting up conv7_3/elt_sum
I0906 17:51:36.910241 27963 net.cpp:131] Top shape: 50 192 7 7 (470400)
I0906 17:51:36.910244 27963 net.cpp:139] Memory required for data: 4407749000
I0906 17:51:36.910255 27963 layer_factory.hpp:77] Creating layer conv7_3/elt_sum_fixed_point
I0906 17:51:36.910264 27963 net.cpp:86] Creating Layer conv7_3/elt_sum_fixed_point
I0906 17:51:36.910266 27963 net.cpp:408] conv7_3/elt_sum_fixed_point <- conv7_3/elt_sum
I0906 17:51:36.910272 27963 net.cpp:369] conv7_3/elt_sum_fixed_point -> conv7_3/elt_sum (in-place)
I0906 17:51:36.910303 27963 net.cpp:124] Setting up conv7_3/elt_sum_fixed_point
I0906 17:51:36.910308 27963 net.cpp:131] Top shape: 50 192 7 7 (470400)
I0906 17:51:36.910311 27963 net.cpp:139] Memory required for data: 4409630600
I0906 17:51:36.910315 27963 layer_factory.hpp:77] Creating layer conv7_3/elt_sum_conv7_3/elt_sum_fixed_point_0_split
I0906 17:51:36.910328 27963 net.cpp:86] Creating Layer conv7_3/elt_sum_conv7_3/elt_sum_fixed_point_0_split
I0906 17:51:36.910331 27963 net.cpp:408] conv7_3/elt_sum_conv7_3/elt_sum_fixed_point_0_split <- conv7_3/elt_sum
I0906 17:51:36.910336 27963 net.cpp:382] conv7_3/elt_sum_conv7_3/elt_sum_fixed_point_0_split -> conv7_3/elt_sum_conv7_3/elt_sum_fixed_point_0_split_0
I0906 17:51:36.910341 27963 net.cpp:382] conv7_3/elt_sum_conv7_3/elt_sum_fixed_point_0_split -> conv7_3/elt_sum_conv7_3/elt_sum_fixed_point_0_split_1
I0906 17:51:36.910439 27963 net.cpp:124] Setting up conv7_3/elt_sum_conv7_3/elt_sum_fixed_point_0_split
I0906 17:51:36.910455 27963 net.cpp:131] Top shape: 50 192 7 7 (470400)
I0906 17:51:36.910459 27963 net.cpp:131] Top shape: 50 192 7 7 (470400)
I0906 17:51:36.910461 27963 net.cpp:139] Memory required for data: 4413393800
I0906 17:51:36.910465 27963 layer_factory.hpp:77] Creating layer conv7_4/1x1_increase
I0906 17:51:36.910485 27963 net.cpp:86] Creating Layer conv7_4/1x1_increase
I0906 17:51:36.910488 27963 net.cpp:408] conv7_4/1x1_increase <- conv7_3/elt_sum_conv7_3/elt_sum_fixed_point_0_split_0
I0906 17:51:36.910495 27963 net.cpp:382] conv7_4/1x1_increase -> conv7_4/1x1_increase/bn
I0906 17:51:36.914368 27963 net.cpp:124] Setting up conv7_4/1x1_increase
I0906 17:51:36.914400 27963 net.cpp:131] Top shape: 50 576 7 7 (1411200)
I0906 17:51:36.914403 27963 net.cpp:139] Memory required for data: 4419038600
I0906 17:51:36.914419 27963 layer_factory.hpp:77] Creating layer conv7_4/1x1_increase/relu
I0906 17:51:36.914427 27963 net.cpp:86] Creating Layer conv7_4/1x1_increase/relu
I0906 17:51:36.914431 27963 net.cpp:408] conv7_4/1x1_increase/relu <- conv7_4/1x1_increase/bn
I0906 17:51:36.914438 27963 net.cpp:369] conv7_4/1x1_increase/relu -> conv7_4/1x1_increase/bn (in-place)
I0906 17:51:36.915124 27963 net.cpp:124] Setting up conv7_4/1x1_increase/relu
I0906 17:51:36.915150 27963 net.cpp:131] Top shape: 50 576 7 7 (1411200)
I0906 17:51:36.915154 27963 net.cpp:139] Memory required for data: 4424683400
I0906 17:51:36.915158 27963 layer_factory.hpp:77] Creating layer conv7_4/1x1_increase/bn_fixed_point
I0906 17:51:36.915163 27963 net.cpp:86] Creating Layer conv7_4/1x1_increase/bn_fixed_point
I0906 17:51:36.915168 27963 net.cpp:408] conv7_4/1x1_increase/bn_fixed_point <- conv7_4/1x1_increase/bn
I0906 17:51:36.915172 27963 net.cpp:369] conv7_4/1x1_increase/bn_fixed_point -> conv7_4/1x1_increase/bn (in-place)
I0906 17:51:36.915208 27963 net.cpp:124] Setting up conv7_4/1x1_increase/bn_fixed_point
I0906 17:51:36.915213 27963 net.cpp:131] Top shape: 50 576 7 7 (1411200)
I0906 17:51:36.915216 27963 net.cpp:139] Memory required for data: 4430328200
I0906 17:51:36.915220 27963 layer_factory.hpp:77] Creating layer conv7_4/1x1_increase/slice
I0906 17:51:36.915237 27963 net.cpp:86] Creating Layer conv7_4/1x1_increase/slice
I0906 17:51:36.915241 27963 net.cpp:408] conv7_4/1x1_increase/slice <- conv7_4/1x1_increase/bn
I0906 17:51:36.915247 27963 net.cpp:382] conv7_4/1x1_increase/slice -> conv7_4/1x1_increase/split1
I0906 17:51:36.915254 27963 net.cpp:382] conv7_4/1x1_increase/slice -> conv7_4/1x1_increase/split2
I0906 17:51:36.915259 27963 net.cpp:382] conv7_4/1x1_increase/slice -> conv7_4/1x1_increase/split3
I0906 17:51:36.915326 27963 net.cpp:124] Setting up conv7_4/1x1_increase/slice
I0906 17:51:36.915333 27963 net.cpp:131] Top shape: 50 192 7 7 (470400)
I0906 17:51:36.915335 27963 net.cpp:131] Top shape: 50 192 7 7 (470400)
I0906 17:51:36.915338 27963 net.cpp:131] Top shape: 50 192 7 7 (470400)
I0906 17:51:36.915340 27963 net.cpp:139] Memory required for data: 4435973000
I0906 17:51:36.915343 27963 layer_factory.hpp:77] Creating layer conv7_4/3x3_dwconv/slice_0
I0906 17:51:36.915361 27963 net.cpp:86] Creating Layer conv7_4/3x3_dwconv/slice_0
I0906 17:51:36.915365 27963 net.cpp:408] conv7_4/3x3_dwconv/slice_0 <- conv7_4/1x1_increase/split1
I0906 17:51:36.915371 27963 net.cpp:382] conv7_4/3x3_dwconv/slice_0 -> conv7_4/3x3_dwconv/slice_0/bn
I0906 17:51:36.916044 27963 net.cpp:124] Setting up conv7_4/3x3_dwconv/slice_0
I0906 17:51:36.916056 27963 net.cpp:131] Top shape: 50 192 7 7 (470400)
I0906 17:51:36.916074 27963 net.cpp:139] Memory required for data: 4437854600
I0906 17:51:36.916088 27963 layer_factory.hpp:77] Creating layer conv7_4/3x3_dwconv/slice_0/relu
I0906 17:51:36.916110 27963 net.cpp:86] Creating Layer conv7_4/3x3_dwconv/slice_0/relu
I0906 17:51:36.916116 27963 net.cpp:408] conv7_4/3x3_dwconv/slice_0/relu <- conv7_4/3x3_dwconv/slice_0/bn
I0906 17:51:36.916123 27963 net.cpp:369] conv7_4/3x3_dwconv/slice_0/relu -> conv7_4/3x3_dwconv/slice_0/bn (in-place)
I0906 17:51:36.916759 27963 net.cpp:124] Setting up conv7_4/3x3_dwconv/slice_0/relu
I0906 17:51:36.916769 27963 net.cpp:131] Top shape: 50 192 7 7 (470400)
I0906 17:51:36.916787 27963 net.cpp:139] Memory required for data: 4439736200
I0906 17:51:36.916790 27963 layer_factory.hpp:77] Creating layer conv7_4/3x3_dwconv/slice_1
I0906 17:51:36.916800 27963 net.cpp:86] Creating Layer conv7_4/3x3_dwconv/slice_1
I0906 17:51:36.916805 27963 net.cpp:408] conv7_4/3x3_dwconv/slice_1 <- conv7_4/1x1_increase/split2
I0906 17:51:36.916812 27963 net.cpp:382] conv7_4/3x3_dwconv/slice_1 -> conv7_4/3x3_dwconv/slice_1/bn
I0906 17:51:36.917652 27963 net.cpp:124] Setting up conv7_4/3x3_dwconv/slice_1
I0906 17:51:36.917662 27963 net.cpp:131] Top shape: 50 192 7 7 (470400)
I0906 17:51:36.917680 27963 net.cpp:139] Memory required for data: 4441617800
I0906 17:51:36.917686 27963 layer_factory.hpp:77] Creating layer conv7_4/3x3_dwconv/slice_1/relu
I0906 17:51:36.917691 27963 net.cpp:86] Creating Layer conv7_4/3x3_dwconv/slice_1/relu
I0906 17:51:36.917695 27963 net.cpp:408] conv7_4/3x3_dwconv/slice_1/relu <- conv7_4/3x3_dwconv/slice_1/bn
I0906 17:51:36.917701 27963 net.cpp:369] conv7_4/3x3_dwconv/slice_1/relu -> conv7_4/3x3_dwconv/slice_1/bn (in-place)
I0906 17:51:36.918699 27963 net.cpp:124] Setting up conv7_4/3x3_dwconv/slice_1/relu
I0906 17:51:36.918711 27963 net.cpp:131] Top shape: 50 192 7 7 (470400)
I0906 17:51:36.918730 27963 net.cpp:139] Memory required for data: 4443499400
I0906 17:51:36.918733 27963 layer_factory.hpp:77] Creating layer conv7_4/3x3_dwconv/slice_2
I0906 17:51:36.918752 27963 net.cpp:86] Creating Layer conv7_4/3x3_dwconv/slice_2
I0906 17:51:36.918757 27963 net.cpp:408] conv7_4/3x3_dwconv/slice_2 <- conv7_4/1x1_increase/split3
I0906 17:51:36.918766 27963 net.cpp:382] conv7_4/3x3_dwconv/slice_2 -> conv7_4/3x3_dwconv/slice_2/bn
I0906 17:51:36.919844 27963 net.cpp:124] Setting up conv7_4/3x3_dwconv/slice_2
I0906 17:51:36.919857 27963 net.cpp:131] Top shape: 50 192 7 7 (470400)
I0906 17:51:36.919875 27963 net.cpp:139] Memory required for data: 4445381000
I0906 17:51:36.919889 27963 layer_factory.hpp:77] Creating layer conv7_4/3x3_dwconv/slice_2/relu
I0906 17:51:36.919896 27963 net.cpp:86] Creating Layer conv7_4/3x3_dwconv/slice_2/relu
I0906 17:51:36.919900 27963 net.cpp:408] conv7_4/3x3_dwconv/slice_2/relu <- conv7_4/3x3_dwconv/slice_2/bn
I0906 17:51:36.919906 27963 net.cpp:369] conv7_4/3x3_dwconv/slice_2/relu -> conv7_4/3x3_dwconv/slice_2/bn (in-place)
I0906 17:51:36.920549 27963 net.cpp:124] Setting up conv7_4/3x3_dwconv/slice_2/relu
I0906 17:51:36.920560 27963 net.cpp:131] Top shape: 50 192 7 7 (470400)
I0906 17:51:36.920563 27963 net.cpp:139] Memory required for data: 4447262600
I0906 17:51:36.920567 27963 layer_factory.hpp:77] Creating layer conv7_4/3x3_dwconv/concat
I0906 17:51:36.920572 27963 net.cpp:86] Creating Layer conv7_4/3x3_dwconv/concat
I0906 17:51:36.920590 27963 net.cpp:408] conv7_4/3x3_dwconv/concat <- conv7_4/3x3_dwconv/slice_0/bn
I0906 17:51:36.920595 27963 net.cpp:408] conv7_4/3x3_dwconv/concat <- conv7_4/3x3_dwconv/slice_1/bn
I0906 17:51:36.920599 27963 net.cpp:408] conv7_4/3x3_dwconv/concat <- conv7_4/3x3_dwconv/slice_2/bn
I0906 17:51:36.920603 27963 net.cpp:382] conv7_4/3x3_dwconv/concat -> conv7_4/3x3_dwconv/concat
I0906 17:51:36.920658 27963 net.cpp:124] Setting up conv7_4/3x3_dwconv/concat
I0906 17:51:36.920665 27963 net.cpp:131] Top shape: 50 576 7 7 (1411200)
I0906 17:51:36.920666 27963 net.cpp:139] Memory required for data: 4452907400
I0906 17:51:36.920670 27963 layer_factory.hpp:77] Creating layer conv7_4/3x3_dwconv/concat_fixed_point
I0906 17:51:36.920683 27963 net.cpp:86] Creating Layer conv7_4/3x3_dwconv/concat_fixed_point
I0906 17:51:36.920687 27963 net.cpp:408] conv7_4/3x3_dwconv/concat_fixed_point <- conv7_4/3x3_dwconv/concat
I0906 17:51:36.920692 27963 net.cpp:369] conv7_4/3x3_dwconv/concat_fixed_point -> conv7_4/3x3_dwconv/concat (in-place)
I0906 17:51:36.920727 27963 net.cpp:124] Setting up conv7_4/3x3_dwconv/concat_fixed_point
I0906 17:51:36.920748 27963 net.cpp:131] Top shape: 50 576 7 7 (1411200)
I0906 17:51:36.920751 27963 net.cpp:139] Memory required for data: 4458552200
I0906 17:51:36.920755 27963 layer_factory.hpp:77] Creating layer conv7_4/3x3_dwconv/concat_conv7_4/3x3_dwconv/concat_fixed_point_0_split
I0906 17:51:36.920764 27963 net.cpp:86] Creating Layer conv7_4/3x3_dwconv/concat_conv7_4/3x3_dwconv/concat_fixed_point_0_split
I0906 17:51:36.920768 27963 net.cpp:408] conv7_4/3x3_dwconv/concat_conv7_4/3x3_dwconv/concat_fixed_point_0_split <- conv7_4/3x3_dwconv/concat
I0906 17:51:36.920773 27963 net.cpp:382] conv7_4/3x3_dwconv/concat_conv7_4/3x3_dwconv/concat_fixed_point_0_split -> conv7_4/3x3_dwconv/concat_conv7_4/3x3_dwconv/concat_fixed_point_0_split_0
I0906 17:51:36.920778 27963 net.cpp:382] conv7_4/3x3_dwconv/concat_conv7_4/3x3_dwconv/concat_fixed_point_0_split -> conv7_4/3x3_dwconv/concat_conv7_4/3x3_dwconv/concat_fixed_point_0_split_1
I0906 17:51:36.920830 27963 net.cpp:124] Setting up conv7_4/3x3_dwconv/concat_conv7_4/3x3_dwconv/concat_fixed_point_0_split
I0906 17:51:36.920835 27963 net.cpp:131] Top shape: 50 576 7 7 (1411200)
I0906 17:51:36.920837 27963 net.cpp:131] Top shape: 50 576 7 7 (1411200)
I0906 17:51:36.920840 27963 net.cpp:139] Memory required for data: 4469841800
I0906 17:51:36.920850 27963 layer_factory.hpp:77] Creating layer conv7_4/3x3_dwconv/SE_global_pool
I0906 17:51:36.920856 27963 net.cpp:86] Creating Layer conv7_4/3x3_dwconv/SE_global_pool
I0906 17:51:36.920859 27963 net.cpp:408] conv7_4/3x3_dwconv/SE_global_pool <- conv7_4/3x3_dwconv/concat_conv7_4/3x3_dwconv/concat_fixed_point_0_split_0
I0906 17:51:36.920866 27963 net.cpp:382] conv7_4/3x3_dwconv/SE_global_pool -> conv7_4/3x3_dwconv/SE_global_pool
I0906 17:51:36.920895 27963 net.cpp:124] Setting up conv7_4/3x3_dwconv/SE_global_pool
I0906 17:51:36.920902 27963 net.cpp:131] Top shape: 50 576 1 1 (28800)
I0906 17:51:36.920905 27963 net.cpp:139] Memory required for data: 4469957000
I0906 17:51:36.920907 27963 layer_factory.hpp:77] Creating layer conv7_4/3x3_dwconv/SE_fc1
I0906 17:51:36.920914 27963 net.cpp:86] Creating Layer conv7_4/3x3_dwconv/SE_fc1
I0906 17:51:36.920917 27963 net.cpp:408] conv7_4/3x3_dwconv/SE_fc1 <- conv7_4/3x3_dwconv/SE_global_pool
I0906 17:51:36.920924 27963 net.cpp:382] conv7_4/3x3_dwconv/SE_fc1 -> conv7_4/3x3_dwconv/SE_fc1
I0906 17:51:36.922035 27963 net.cpp:124] Setting up conv7_4/3x3_dwconv/SE_fc1
I0906 17:51:36.922046 27963 net.cpp:131] Top shape: 50 36 1 1 (1800)
I0906 17:51:36.922060 27963 net.cpp:139] Memory required for data: 4469964200
I0906 17:51:36.922065 27963 layer_factory.hpp:77] Creating layer conv7_4/3x3_dwconv/SE_fc1/relu
I0906 17:51:36.922080 27963 net.cpp:86] Creating Layer conv7_4/3x3_dwconv/SE_fc1/relu
I0906 17:51:36.922083 27963 net.cpp:408] conv7_4/3x3_dwconv/SE_fc1/relu <- conv7_4/3x3_dwconv/SE_fc1
I0906 17:51:36.922087 27963 net.cpp:369] conv7_4/3x3_dwconv/SE_fc1/relu -> conv7_4/3x3_dwconv/SE_fc1 (in-place)
I0906 17:51:36.922894 27963 net.cpp:124] Setting up conv7_4/3x3_dwconv/SE_fc1/relu
I0906 17:51:36.922906 27963 net.cpp:131] Top shape: 50 36 1 1 (1800)
I0906 17:51:36.922924 27963 net.cpp:139] Memory required for data: 4469971400
I0906 17:51:36.922936 27963 layer_factory.hpp:77] Creating layer conv7_4/3x3_dwconv/SE_fc2
I0906 17:51:36.922948 27963 net.cpp:86] Creating Layer conv7_4/3x3_dwconv/SE_fc2
I0906 17:51:36.922952 27963 net.cpp:408] conv7_4/3x3_dwconv/SE_fc2 <- conv7_4/3x3_dwconv/SE_fc1
I0906 17:51:36.922958 27963 net.cpp:382] conv7_4/3x3_dwconv/SE_fc2 -> conv7_4/3x3_dwconv/SE_fc2
I0906 17:51:36.924055 27963 net.cpp:124] Setting up conv7_4/3x3_dwconv/SE_fc2
I0906 17:51:36.924068 27963 net.cpp:131] Top shape: 50 576 1 1 (28800)
I0906 17:51:36.924072 27963 net.cpp:139] Memory required for data: 4470086600
I0906 17:51:36.924077 27963 layer_factory.hpp:77] Creating layer conv7_4/3x3_dwconv/SE_weights
I0906 17:51:36.924082 27963 net.cpp:86] Creating Layer conv7_4/3x3_dwconv/SE_weights
I0906 17:51:36.924087 27963 net.cpp:408] conv7_4/3x3_dwconv/SE_weights <- conv7_4/3x3_dwconv/SE_fc2
I0906 17:51:36.924103 27963 net.cpp:369] conv7_4/3x3_dwconv/SE_weights -> conv7_4/3x3_dwconv/SE_fc2 (in-place)
I0906 17:51:36.924916 27963 net.cpp:124] Setting up conv7_4/3x3_dwconv/SE_weights
I0906 17:51:36.924928 27963 net.cpp:131] Top shape: 50 576 1 1 (28800)
I0906 17:51:36.924947 27963 net.cpp:139] Memory required for data: 4470201800
I0906 17:51:36.924952 27963 layer_factory.hpp:77] Creating layer conv7_4/3x3_dwconv/SE_weights/reshape
I0906 17:51:36.924968 27963 net.cpp:86] Creating Layer conv7_4/3x3_dwconv/SE_weights/reshape
I0906 17:51:36.924971 27963 net.cpp:408] conv7_4/3x3_dwconv/SE_weights/reshape <- conv7_4/3x3_dwconv/SE_fc2
I0906 17:51:36.924978 27963 net.cpp:382] conv7_4/3x3_dwconv/SE_weights/reshape -> conv7_4/3x3_dwconv/SE_weights/reshape
I0906 17:51:36.925024 27963 net.cpp:124] Setting up conv7_4/3x3_dwconv/SE_weights/reshape
I0906 17:51:36.925029 27963 net.cpp:131] Top shape: 50 576 (28800)
I0906 17:51:36.925032 27963 net.cpp:139] Memory required for data: 4470317000
I0906 17:51:36.925034 27963 layer_factory.hpp:77] Creating layer conv7_4/3x3_dwconv/scale
I0906 17:51:36.925050 27963 net.cpp:86] Creating Layer conv7_4/3x3_dwconv/scale
I0906 17:51:36.925053 27963 net.cpp:408] conv7_4/3x3_dwconv/scale <- conv7_4/3x3_dwconv/concat_conv7_4/3x3_dwconv/concat_fixed_point_0_split_1
I0906 17:51:36.925057 27963 net.cpp:408] conv7_4/3x3_dwconv/scale <- conv7_4/3x3_dwconv/SE_weights/reshape
I0906 17:51:36.925061 27963 net.cpp:382] conv7_4/3x3_dwconv/scale -> conv7_4/3x3_dwconv/scale
I0906 17:51:36.925149 27963 net.cpp:124] Setting up conv7_4/3x3_dwconv/scale
I0906 17:51:36.925158 27963 net.cpp:131] Top shape: 50 576 7 7 (1411200)
I0906 17:51:36.925161 27963 net.cpp:139] Memory required for data: 4475961800
I0906 17:51:36.925163 27963 layer_factory.hpp:77] Creating layer conv7_4/3x3_dwconv/scale_fixed_point
I0906 17:51:36.925168 27963 net.cpp:86] Creating Layer conv7_4/3x3_dwconv/scale_fixed_point
I0906 17:51:36.925173 27963 net.cpp:408] conv7_4/3x3_dwconv/scale_fixed_point <- conv7_4/3x3_dwconv/scale
I0906 17:51:36.925176 27963 net.cpp:369] conv7_4/3x3_dwconv/scale_fixed_point -> conv7_4/3x3_dwconv/scale (in-place)
I0906 17:51:36.925209 27963 net.cpp:124] Setting up conv7_4/3x3_dwconv/scale_fixed_point
I0906 17:51:36.925215 27963 net.cpp:131] Top shape: 50 576 7 7 (1411200)
I0906 17:51:36.925217 27963 net.cpp:139] Memory required for data: 4481606600
I0906 17:51:36.925220 27963 layer_factory.hpp:77] Creating layer conv7_4/1x1_decrease
I0906 17:51:36.925236 27963 net.cpp:86] Creating Layer conv7_4/1x1_decrease
I0906 17:51:36.925240 27963 net.cpp:408] conv7_4/1x1_decrease <- conv7_4/3x3_dwconv/scale
I0906 17:51:36.925247 27963 net.cpp:382] conv7_4/1x1_decrease -> conv7_4/1x1_decrease/bn
I0906 17:51:36.930335 27963 net.cpp:124] Setting up conv7_4/1x1_decrease
I0906 17:51:36.930358 27963 net.cpp:131] Top shape: 50 192 7 7 (470400)
I0906 17:51:36.930362 27963 net.cpp:139] Memory required for data: 4483488200
I0906 17:51:36.930371 27963 layer_factory.hpp:77] Creating layer conv7_4/elt_sum
I0906 17:51:36.930411 27963 net.cpp:86] Creating Layer conv7_4/elt_sum
I0906 17:51:36.930431 27963 net.cpp:408] conv7_4/elt_sum <- conv7_3/elt_sum_conv7_3/elt_sum_fixed_point_0_split_1
I0906 17:51:36.930438 27963 net.cpp:408] conv7_4/elt_sum <- conv7_4/1x1_decrease/bn
I0906 17:51:36.930442 27963 net.cpp:382] conv7_4/elt_sum -> conv7_4/elt_sum
I0906 17:51:36.930485 27963 net.cpp:124] Setting up conv7_4/elt_sum
I0906 17:51:36.930491 27963 net.cpp:131] Top shape: 50 192 7 7 (470400)
I0906 17:51:36.930495 27963 net.cpp:139] Memory required for data: 4485369800
I0906 17:51:36.930496 27963 layer_factory.hpp:77] Creating layer conv7_4/elt_sum_fixed_point
I0906 17:51:36.930502 27963 net.cpp:86] Creating Layer conv7_4/elt_sum_fixed_point
I0906 17:51:36.930506 27963 net.cpp:408] conv7_4/elt_sum_fixed_point <- conv7_4/elt_sum
I0906 17:51:36.930511 27963 net.cpp:369] conv7_4/elt_sum_fixed_point -> conv7_4/elt_sum (in-place)
I0906 17:51:36.930544 27963 net.cpp:124] Setting up conv7_4/elt_sum_fixed_point
I0906 17:51:36.930549 27963 net.cpp:131] Top shape: 50 192 7 7 (470400)
I0906 17:51:36.930568 27963 net.cpp:139] Memory required for data: 4487251400
I0906 17:51:36.930572 27963 layer_factory.hpp:77] Creating layer conv8_0/1x1_increase
I0906 17:51:36.930609 27963 net.cpp:86] Creating Layer conv8_0/1x1_increase
I0906 17:51:36.930613 27963 net.cpp:408] conv8_0/1x1_increase <- conv7_4/elt_sum
I0906 17:51:36.930620 27963 net.cpp:382] conv8_0/1x1_increase -> conv8_0/1x1_increase/bn
I0906 17:51:36.937758 27963 net.cpp:124] Setting up conv8_0/1x1_increase
I0906 17:51:36.937798 27963 net.cpp:131] Top shape: 50 1152 7 7 (2822400)
I0906 17:51:36.937803 27963 net.cpp:139] Memory required for data: 4498541000
I0906 17:51:36.937811 27963 layer_factory.hpp:77] Creating layer conv8_0/1x1_increase/relu
I0906 17:51:36.937820 27963 net.cpp:86] Creating Layer conv8_0/1x1_increase/relu
I0906 17:51:36.937826 27963 net.cpp:408] conv8_0/1x1_increase/relu <- conv8_0/1x1_increase/bn
I0906 17:51:36.937832 27963 net.cpp:369] conv8_0/1x1_increase/relu -> conv8_0/1x1_increase/bn (in-place)
I0906 17:51:36.938675 27963 net.cpp:124] Setting up conv8_0/1x1_increase/relu
I0906 17:51:36.938704 27963 net.cpp:131] Top shape: 50 1152 7 7 (2822400)
I0906 17:51:36.938706 27963 net.cpp:139] Memory required for data: 4509830600
I0906 17:51:36.938710 27963 layer_factory.hpp:77] Creating layer conv8_0/1x1_increase/bn_fixed_point
I0906 17:51:36.938717 27963 net.cpp:86] Creating Layer conv8_0/1x1_increase/bn_fixed_point
I0906 17:51:36.938721 27963 net.cpp:408] conv8_0/1x1_increase/bn_fixed_point <- conv8_0/1x1_increase/bn
I0906 17:51:36.938725 27963 net.cpp:369] conv8_0/1x1_increase/bn_fixed_point -> conv8_0/1x1_increase/bn (in-place)
I0906 17:51:36.938771 27963 net.cpp:124] Setting up conv8_0/1x1_increase/bn_fixed_point
I0906 17:51:36.938777 27963 net.cpp:131] Top shape: 50 1152 7 7 (2822400)
I0906 17:51:36.938779 27963 net.cpp:139] Memory required for data: 4521120200
I0906 17:51:36.938784 27963 layer_factory.hpp:77] Creating layer conv8_0/1x1_increase/slice
I0906 17:51:36.938807 27963 net.cpp:86] Creating Layer conv8_0/1x1_increase/slice
I0906 17:51:36.938812 27963 net.cpp:408] conv8_0/1x1_increase/slice <- conv8_0/1x1_increase/bn
I0906 17:51:36.938817 27963 net.cpp:382] conv8_0/1x1_increase/slice -> conv8_0/1x1_increase/split1
I0906 17:51:36.938823 27963 net.cpp:382] conv8_0/1x1_increase/slice -> conv8_0/1x1_increase/split2
I0906 17:51:36.938828 27963 net.cpp:382] conv8_0/1x1_increase/slice -> conv8_0/1x1_increase/split3
I0906 17:51:36.938913 27963 net.cpp:124] Setting up conv8_0/1x1_increase/slice
I0906 17:51:36.938920 27963 net.cpp:131] Top shape: 50 384 7 7 (940800)
I0906 17:51:36.938923 27963 net.cpp:131] Top shape: 50 384 7 7 (940800)
I0906 17:51:36.938926 27963 net.cpp:131] Top shape: 50 384 7 7 (940800)
I0906 17:51:36.938930 27963 net.cpp:139] Memory required for data: 4532409800
I0906 17:51:36.938931 27963 layer_factory.hpp:77] Creating layer conv8_0/3x3_dwconv/slice_0
I0906 17:51:36.938943 27963 net.cpp:86] Creating Layer conv8_0/3x3_dwconv/slice_0
I0906 17:51:36.938946 27963 net.cpp:408] conv8_0/3x3_dwconv/slice_0 <- conv8_0/1x1_increase/split1
I0906 17:51:36.938953 27963 net.cpp:382] conv8_0/3x3_dwconv/slice_0 -> conv8_0/3x3_dwconv/slice_0/bn
I0906 17:51:36.939704 27963 net.cpp:124] Setting up conv8_0/3x3_dwconv/slice_0
I0906 17:51:36.939715 27963 net.cpp:131] Top shape: 50 384 7 7 (940800)
I0906 17:51:36.939733 27963 net.cpp:139] Memory required for data: 4536173000
I0906 17:51:36.939747 27963 layer_factory.hpp:77] Creating layer conv8_0/3x3_dwconv/slice_0/relu
I0906 17:51:36.939770 27963 net.cpp:86] Creating Layer conv8_0/3x3_dwconv/slice_0/relu
I0906 17:51:36.939775 27963 net.cpp:408] conv8_0/3x3_dwconv/slice_0/relu <- conv8_0/3x3_dwconv/slice_0/bn
I0906 17:51:36.939780 27963 net.cpp:369] conv8_0/3x3_dwconv/slice_0/relu -> conv8_0/3x3_dwconv/slice_0/bn (in-place)
I0906 17:51:36.940459 27963 net.cpp:124] Setting up conv8_0/3x3_dwconv/slice_0/relu
I0906 17:51:36.940469 27963 net.cpp:131] Top shape: 50 384 7 7 (940800)
I0906 17:51:36.940482 27963 net.cpp:139] Memory required for data: 4539936200
I0906 17:51:36.940502 27963 layer_factory.hpp:77] Creating layer conv8_0/3x3_dwconv/slice_1
I0906 17:51:36.940522 27963 net.cpp:86] Creating Layer conv8_0/3x3_dwconv/slice_1
I0906 17:51:36.940526 27963 net.cpp:408] conv8_0/3x3_dwconv/slice_1 <- conv8_0/1x1_increase/split2
I0906 17:51:36.940534 27963 net.cpp:382] conv8_0/3x3_dwconv/slice_1 -> conv8_0/3x3_dwconv/slice_1/bn
I0906 17:51:36.941815 27963 net.cpp:124] Setting up conv8_0/3x3_dwconv/slice_1
I0906 17:51:36.941828 27963 net.cpp:131] Top shape: 50 384 7 7 (940800)
I0906 17:51:36.941846 27963 net.cpp:139] Memory required for data: 4543699400
I0906 17:51:36.941853 27963 layer_factory.hpp:77] Creating layer conv8_0/3x3_dwconv/slice_1/relu
I0906 17:51:36.941859 27963 net.cpp:86] Creating Layer conv8_0/3x3_dwconv/slice_1/relu
I0906 17:51:36.941864 27963 net.cpp:408] conv8_0/3x3_dwconv/slice_1/relu <- conv8_0/3x3_dwconv/slice_1/bn
I0906 17:51:36.941869 27963 net.cpp:369] conv8_0/3x3_dwconv/slice_1/relu -> conv8_0/3x3_dwconv/slice_1/bn (in-place)
I0906 17:51:36.942689 27963 net.cpp:124] Setting up conv8_0/3x3_dwconv/slice_1/relu
I0906 17:51:36.942706 27963 net.cpp:131] Top shape: 50 384 7 7 (940800)
I0906 17:51:36.942726 27963 net.cpp:139] Memory required for data: 4547462600
I0906 17:51:36.942729 27963 layer_factory.hpp:77] Creating layer conv8_0/3x3_dwconv/slice_2
I0906 17:51:36.942739 27963 net.cpp:86] Creating Layer conv8_0/3x3_dwconv/slice_2
I0906 17:51:36.942742 27963 net.cpp:408] conv8_0/3x3_dwconv/slice_2 <- conv8_0/1x1_increase/split3
I0906 17:51:36.942750 27963 net.cpp:382] conv8_0/3x3_dwconv/slice_2 -> conv8_0/3x3_dwconv/slice_2/bn
I0906 17:51:36.944094 27963 net.cpp:124] Setting up conv8_0/3x3_dwconv/slice_2
I0906 17:51:36.944106 27963 net.cpp:131] Top shape: 50 384 7 7 (940800)
I0906 17:51:36.944124 27963 net.cpp:139] Memory required for data: 4551225800
I0906 17:51:36.944131 27963 layer_factory.hpp:77] Creating layer conv8_0/3x3_dwconv/slice_2/relu
I0906 17:51:36.944149 27963 net.cpp:86] Creating Layer conv8_0/3x3_dwconv/slice_2/relu
I0906 17:51:36.944152 27963 net.cpp:408] conv8_0/3x3_dwconv/slice_2/relu <- conv8_0/3x3_dwconv/slice_2/bn
I0906 17:51:36.944169 27963 net.cpp:369] conv8_0/3x3_dwconv/slice_2/relu -> conv8_0/3x3_dwconv/slice_2/bn (in-place)
I0906 17:51:36.944808 27963 net.cpp:124] Setting up conv8_0/3x3_dwconv/slice_2/relu
I0906 17:51:36.944818 27963 net.cpp:131] Top shape: 50 384 7 7 (940800)
I0906 17:51:36.944836 27963 net.cpp:139] Memory required for data: 4554989000
I0906 17:51:36.944849 27963 layer_factory.hpp:77] Creating layer conv8_0/3x3_dwconv/concat
I0906 17:51:36.944854 27963 net.cpp:86] Creating Layer conv8_0/3x3_dwconv/concat
I0906 17:51:36.944859 27963 net.cpp:408] conv8_0/3x3_dwconv/concat <- conv8_0/3x3_dwconv/slice_0/bn
I0906 17:51:36.944864 27963 net.cpp:408] conv8_0/3x3_dwconv/concat <- conv8_0/3x3_dwconv/slice_1/bn
I0906 17:51:36.944867 27963 net.cpp:408] conv8_0/3x3_dwconv/concat <- conv8_0/3x3_dwconv/slice_2/bn
I0906 17:51:36.944871 27963 net.cpp:382] conv8_0/3x3_dwconv/concat -> conv8_0/3x3_dwconv/concat
I0906 17:51:36.944911 27963 net.cpp:124] Setting up conv8_0/3x3_dwconv/concat
I0906 17:51:36.944917 27963 net.cpp:131] Top shape: 50 1152 7 7 (2822400)
I0906 17:51:36.944921 27963 net.cpp:139] Memory required for data: 4566278600
I0906 17:51:36.944922 27963 layer_factory.hpp:77] Creating layer conv8_0/3x3_dwconv/concat_fixed_point
I0906 17:51:36.944929 27963 net.cpp:86] Creating Layer conv8_0/3x3_dwconv/concat_fixed_point
I0906 17:51:36.944932 27963 net.cpp:408] conv8_0/3x3_dwconv/concat_fixed_point <- conv8_0/3x3_dwconv/concat
I0906 17:51:36.944936 27963 net.cpp:369] conv8_0/3x3_dwconv/concat_fixed_point -> conv8_0/3x3_dwconv/concat (in-place)
I0906 17:51:36.944969 27963 net.cpp:124] Setting up conv8_0/3x3_dwconv/concat_fixed_point
I0906 17:51:36.944974 27963 net.cpp:131] Top shape: 50 1152 7 7 (2822400)
I0906 17:51:36.944977 27963 net.cpp:139] Memory required for data: 4577568200
I0906 17:51:36.944980 27963 layer_factory.hpp:77] Creating layer conv8_0/3x3_dwconv/concat_conv8_0/3x3_dwconv/concat_fixed_point_0_split
I0906 17:51:36.944986 27963 net.cpp:86] Creating Layer conv8_0/3x3_dwconv/concat_conv8_0/3x3_dwconv/concat_fixed_point_0_split
I0906 17:51:36.945005 27963 net.cpp:408] conv8_0/3x3_dwconv/concat_conv8_0/3x3_dwconv/concat_fixed_point_0_split <- conv8_0/3x3_dwconv/concat
I0906 17:51:36.945016 27963 net.cpp:382] conv8_0/3x3_dwconv/concat_conv8_0/3x3_dwconv/concat_fixed_point_0_split -> conv8_0/3x3_dwconv/concat_conv8_0/3x3_dwconv/concat_fixed_point_0_split_0
I0906 17:51:36.945022 27963 net.cpp:382] conv8_0/3x3_dwconv/concat_conv8_0/3x3_dwconv/concat_fixed_point_0_split -> conv8_0/3x3_dwconv/concat_conv8_0/3x3_dwconv/concat_fixed_point_0_split_1
I0906 17:51:36.945073 27963 net.cpp:124] Setting up conv8_0/3x3_dwconv/concat_conv8_0/3x3_dwconv/concat_fixed_point_0_split
I0906 17:51:36.945078 27963 net.cpp:131] Top shape: 50 1152 7 7 (2822400)
I0906 17:51:36.945082 27963 net.cpp:131] Top shape: 50 1152 7 7 (2822400)
I0906 17:51:36.945084 27963 net.cpp:139] Memory required for data: 4600147400
I0906 17:51:36.945087 27963 layer_factory.hpp:77] Creating layer conv8_0/3x3_dwconv/SE_global_pool
I0906 17:51:36.945101 27963 net.cpp:86] Creating Layer conv8_0/3x3_dwconv/SE_global_pool
I0906 17:51:36.945106 27963 net.cpp:408] conv8_0/3x3_dwconv/SE_global_pool <- conv8_0/3x3_dwconv/concat_conv8_0/3x3_dwconv/concat_fixed_point_0_split_0
I0906 17:51:36.945111 27963 net.cpp:382] conv8_0/3x3_dwconv/SE_global_pool -> conv8_0/3x3_dwconv/SE_global_pool
I0906 17:51:36.945142 27963 net.cpp:124] Setting up conv8_0/3x3_dwconv/SE_global_pool
I0906 17:51:36.945148 27963 net.cpp:131] Top shape: 50 1152 1 1 (57600)
I0906 17:51:36.945150 27963 net.cpp:139] Memory required for data: 4600377800
I0906 17:51:36.945153 27963 layer_factory.hpp:77] Creating layer conv8_0/3x3_dwconv/SE_fc1
I0906 17:51:36.945166 27963 net.cpp:86] Creating Layer conv8_0/3x3_dwconv/SE_fc1
I0906 17:51:36.945170 27963 net.cpp:408] conv8_0/3x3_dwconv/SE_fc1 <- conv8_0/3x3_dwconv/SE_global_pool
I0906 17:51:36.945176 27963 net.cpp:382] conv8_0/3x3_dwconv/SE_fc1 -> conv8_0/3x3_dwconv/SE_fc1
I0906 17:51:36.949450 27963 net.cpp:124] Setting up conv8_0/3x3_dwconv/SE_fc1
I0906 17:51:36.949481 27963 net.cpp:131] Top shape: 50 72 1 1 (3600)
I0906 17:51:36.949484 27963 net.cpp:139] Memory required for data: 4600392200
I0906 17:51:36.949491 27963 layer_factory.hpp:77] Creating layer conv8_0/3x3_dwconv/SE_fc1/relu
I0906 17:51:36.949497 27963 net.cpp:86] Creating Layer conv8_0/3x3_dwconv/SE_fc1/relu
I0906 17:51:36.949502 27963 net.cpp:408] conv8_0/3x3_dwconv/SE_fc1/relu <- conv8_0/3x3_dwconv/SE_fc1
I0906 17:51:36.949508 27963 net.cpp:369] conv8_0/3x3_dwconv/SE_fc1/relu -> conv8_0/3x3_dwconv/SE_fc1 (in-place)
I0906 17:51:36.950214 27963 net.cpp:124] Setting up conv8_0/3x3_dwconv/SE_fc1/relu
I0906 17:51:36.950243 27963 net.cpp:131] Top shape: 50 72 1 1 (3600)
I0906 17:51:36.950246 27963 net.cpp:139] Memory required for data: 4600406600
I0906 17:51:36.950250 27963 layer_factory.hpp:77] Creating layer conv8_0/3x3_dwconv/SE_fc2
I0906 17:51:36.950294 27963 net.cpp:86] Creating Layer conv8_0/3x3_dwconv/SE_fc2
I0906 17:51:36.950299 27963 net.cpp:408] conv8_0/3x3_dwconv/SE_fc2 <- conv8_0/3x3_dwconv/SE_fc1
I0906 17:51:36.950307 27963 net.cpp:382] conv8_0/3x3_dwconv/SE_fc2 -> conv8_0/3x3_dwconv/SE_fc2
I0906 17:51:36.955477 27963 net.cpp:124] Setting up conv8_0/3x3_dwconv/SE_fc2
I0906 17:51:36.955518 27963 net.cpp:131] Top shape: 50 1152 1 1 (57600)
I0906 17:51:36.955523 27963 net.cpp:139] Memory required for data: 4600637000
I0906 17:51:36.955533 27963 layer_factory.hpp:77] Creating layer conv8_0/3x3_dwconv/SE_weights
I0906 17:51:36.955556 27963 net.cpp:86] Creating Layer conv8_0/3x3_dwconv/SE_weights
I0906 17:51:36.955562 27963 net.cpp:408] conv8_0/3x3_dwconv/SE_weights <- conv8_0/3x3_dwconv/SE_fc2
I0906 17:51:36.955569 27963 net.cpp:369] conv8_0/3x3_dwconv/SE_weights -> conv8_0/3x3_dwconv/SE_fc2 (in-place)
I0906 17:51:36.956660 27963 net.cpp:124] Setting up conv8_0/3x3_dwconv/SE_weights
I0906 17:51:36.956674 27963 net.cpp:131] Top shape: 50 1152 1 1 (57600)
I0906 17:51:36.956692 27963 net.cpp:139] Memory required for data: 4600867400
I0906 17:51:36.956717 27963 layer_factory.hpp:77] Creating layer conv8_0/3x3_dwconv/SE_weights/reshape
I0906 17:51:36.956748 27963 net.cpp:86] Creating Layer conv8_0/3x3_dwconv/SE_weights/reshape
I0906 17:51:36.956753 27963 net.cpp:408] conv8_0/3x3_dwconv/SE_weights/reshape <- conv8_0/3x3_dwconv/SE_fc2
I0906 17:51:36.956760 27963 net.cpp:382] conv8_0/3x3_dwconv/SE_weights/reshape -> conv8_0/3x3_dwconv/SE_weights/reshape
I0906 17:51:36.956806 27963 net.cpp:124] Setting up conv8_0/3x3_dwconv/SE_weights/reshape
I0906 17:51:36.956825 27963 net.cpp:131] Top shape: 50 1152 (57600)
I0906 17:51:36.956827 27963 net.cpp:139] Memory required for data: 4601097800
I0906 17:51:36.956830 27963 layer_factory.hpp:77] Creating layer conv8_0/3x3_dwconv/scale
I0906 17:51:36.956846 27963 net.cpp:86] Creating Layer conv8_0/3x3_dwconv/scale
I0906 17:51:36.956851 27963 net.cpp:408] conv8_0/3x3_dwconv/scale <- conv8_0/3x3_dwconv/concat_conv8_0/3x3_dwconv/concat_fixed_point_0_split_1
I0906 17:51:36.956854 27963 net.cpp:408] conv8_0/3x3_dwconv/scale <- conv8_0/3x3_dwconv/SE_weights/reshape
I0906 17:51:36.956859 27963 net.cpp:382] conv8_0/3x3_dwconv/scale -> conv8_0/3x3_dwconv/scale
I0906 17:51:36.956964 27963 net.cpp:124] Setting up conv8_0/3x3_dwconv/scale
I0906 17:51:36.956970 27963 net.cpp:131] Top shape: 50 1152 7 7 (2822400)
I0906 17:51:36.956974 27963 net.cpp:139] Memory required for data: 4612387400
I0906 17:51:36.956975 27963 layer_factory.hpp:77] Creating layer conv8_0/3x3_dwconv/scale_fixed_point
I0906 17:51:36.956984 27963 net.cpp:86] Creating Layer conv8_0/3x3_dwconv/scale_fixed_point
I0906 17:51:36.956986 27963 net.cpp:408] conv8_0/3x3_dwconv/scale_fixed_point <- conv8_0/3x3_dwconv/scale
I0906 17:51:36.956992 27963 net.cpp:369] conv8_0/3x3_dwconv/scale_fixed_point -> conv8_0/3x3_dwconv/scale (in-place)
I0906 17:51:36.957033 27963 net.cpp:124] Setting up conv8_0/3x3_dwconv/scale_fixed_point
I0906 17:51:36.957039 27963 net.cpp:131] Top shape: 50 1152 7 7 (2822400)
I0906 17:51:36.957042 27963 net.cpp:139] Memory required for data: 4623677000
I0906 17:51:36.957046 27963 layer_factory.hpp:77] Creating layer conv8_0/1x1_decrease
I0906 17:51:36.957060 27963 net.cpp:86] Creating Layer conv8_0/1x1_decrease
I0906 17:51:36.957064 27963 net.cpp:408] conv8_0/1x1_decrease <- conv8_0/3x3_dwconv/scale
I0906 17:51:36.957069 27963 net.cpp:382] conv8_0/1x1_decrease -> conv8_0/1x1_decrease/bn
I0906 17:51:36.970235 27963 net.cpp:124] Setting up conv8_0/1x1_decrease
I0906 17:51:36.970288 27963 net.cpp:131] Top shape: 50 320 7 7 (784000)
I0906 17:51:36.970293 27963 net.cpp:139] Memory required for data: 4626813000
I0906 17:51:36.970321 27963 layer_factory.hpp:77] Creating layer conv8_0/1x1_decrease/bn_fixed_point
I0906 17:51:36.970346 27963 net.cpp:86] Creating Layer conv8_0/1x1_decrease/bn_fixed_point
I0906 17:51:36.970353 27963 net.cpp:408] conv8_0/1x1_decrease/bn_fixed_point <- conv8_0/1x1_decrease/bn
I0906 17:51:36.970361 27963 net.cpp:369] conv8_0/1x1_decrease/bn_fixed_point -> conv8_0/1x1_decrease/bn (in-place)
I0906 17:51:36.970412 27963 net.cpp:124] Setting up conv8_0/1x1_decrease/bn_fixed_point
I0906 17:51:36.970419 27963 net.cpp:131] Top shape: 50 320 7 7 (784000)
I0906 17:51:36.970438 27963 net.cpp:139] Memory required for data: 4629949000
I0906 17:51:36.970443 27963 layer_factory.hpp:77] Creating layer conv9/1x1
I0906 17:51:36.970454 27963 net.cpp:86] Creating Layer conv9/1x1
I0906 17:51:36.970458 27963 net.cpp:408] conv9/1x1 <- conv8_0/1x1_decrease/bn
I0906 17:51:36.970465 27963 net.cpp:382] conv9/1x1 -> conv9/1x1/bn
I0906 17:51:36.985565 27963 net.cpp:124] Setting up conv9/1x1
I0906 17:51:36.985620 27963 net.cpp:131] Top shape: 50 1280 7 7 (3136000)
I0906 17:51:36.985625 27963 net.cpp:139] Memory required for data: 4642493000
I0906 17:51:36.985635 27963 layer_factory.hpp:77] Creating layer conv9/1x1/relu
I0906 17:51:36.985648 27963 net.cpp:86] Creating Layer conv9/1x1/relu
I0906 17:51:36.985656 27963 net.cpp:408] conv9/1x1/relu <- conv9/1x1/bn
I0906 17:51:36.985664 27963 net.cpp:369] conv9/1x1/relu -> conv9/1x1/bn (in-place)
I0906 17:51:36.986704 27963 net.cpp:124] Setting up conv9/1x1/relu
I0906 17:51:36.986733 27963 net.cpp:131] Top shape: 50 1280 7 7 (3136000)
I0906 17:51:36.986737 27963 net.cpp:139] Memory required for data: 4655037000
I0906 17:51:36.986740 27963 layer_factory.hpp:77] Creating layer conv9/1x1/bn_fixed_point
I0906 17:51:36.986763 27963 net.cpp:86] Creating Layer conv9/1x1/bn_fixed_point
I0906 17:51:36.986768 27963 net.cpp:408] conv9/1x1/bn_fixed_point <- conv9/1x1/bn
I0906 17:51:36.986781 27963 net.cpp:369] conv9/1x1/bn_fixed_point -> conv9/1x1/bn (in-place)
I0906 17:51:36.986824 27963 net.cpp:124] Setting up conv9/1x1/bn_fixed_point
I0906 17:51:36.986831 27963 net.cpp:131] Top shape: 50 1280 7 7 (3136000)
I0906 17:51:36.986835 27963 net.cpp:139] Memory required for data: 4667581000
I0906 17:51:36.986845 27963 layer_factory.hpp:77] Creating layer avepool/7x7
I0906 17:51:36.986853 27963 net.cpp:86] Creating Layer avepool/7x7
I0906 17:51:36.986857 27963 net.cpp:408] avepool/7x7 <- conv9/1x1/bn
I0906 17:51:36.986876 27963 net.cpp:382] avepool/7x7 -> avepool/7x7
I0906 17:51:36.987591 27963 net.cpp:124] Setting up avepool/7x7
I0906 17:51:36.987603 27963 net.cpp:131] Top shape: 50 1280 1 1 (64000)
I0906 17:51:36.987622 27963 net.cpp:139] Memory required for data: 4667837000
I0906 17:51:36.987625 27963 layer_factory.hpp:77] Creating layer avepool/7x7_fixed_point
I0906 17:51:36.987638 27963 net.cpp:86] Creating Layer avepool/7x7_fixed_point
I0906 17:51:36.987643 27963 net.cpp:408] avepool/7x7_fixed_point <- avepool/7x7
I0906 17:51:36.987646 27963 net.cpp:369] avepool/7x7_fixed_point -> avepool/7x7 (in-place)
I0906 17:51:36.987685 27963 net.cpp:124] Setting up avepool/7x7_fixed_point
I0906 17:51:36.987691 27963 net.cpp:131] Top shape: 50 1280 1 1 (64000)
I0906 17:51:36.987694 27963 net.cpp:139] Memory required for data: 4668093000
I0906 17:51:36.987697 27963 layer_factory.hpp:77] Creating layer classifier
I0906 17:51:36.987720 27963 net.cpp:86] Creating Layer classifier
I0906 17:51:36.987723 27963 net.cpp:408] classifier <- avepool/7x7
I0906 17:51:36.987730 27963 net.cpp:382] classifier -> classifier
I0906 17:51:37.030243 27963 net.cpp:124] Setting up classifier
I0906 17:51:37.030297 27963 net.cpp:131] Top shape: 50 1000 1 1 (50000)
I0906 17:51:37.030302 27963 net.cpp:139] Memory required for data: 4668293000
I0906 17:51:37.030313 27963 layer_factory.hpp:77] Creating layer classifier_classifier_0_split
I0906 17:51:37.030325 27963 net.cpp:86] Creating Layer classifier_classifier_0_split
I0906 17:51:37.030331 27963 net.cpp:408] classifier_classifier_0_split <- classifier
I0906 17:51:37.030339 27963 net.cpp:382] classifier_classifier_0_split -> classifier_classifier_0_split_0
I0906 17:51:37.030349 27963 net.cpp:382] classifier_classifier_0_split -> classifier_classifier_0_split_1
I0906 17:51:37.030412 27963 net.cpp:124] Setting up classifier_classifier_0_split
I0906 17:51:37.030418 27963 net.cpp:131] Top shape: 50 1000 1 1 (50000)
I0906 17:51:37.030422 27963 net.cpp:131] Top shape: 50 1000 1 1 (50000)
I0906 17:51:37.030426 27963 net.cpp:139] Memory required for data: 4668693000
I0906 17:51:37.030428 27963 layer_factory.hpp:77] Creating layer top-1
I0906 17:51:37.030442 27963 net.cpp:86] Creating Layer top-1
I0906 17:51:37.030447 27963 net.cpp:408] top-1 <- classifier_classifier_0_split_0
I0906 17:51:37.030452 27963 net.cpp:408] top-1 <- label_data_1_split_0
I0906 17:51:37.030458 27963 net.cpp:382] top-1 -> top-1
…
