I1010 14:26:40.306942 12881 net.cpp:53] Initializing net from parameters: 
state {
  phase: TEST
  level: 0
}
layer {
  name: "data"
  type: "ImageData"
  top: "data"
  top: "label"
  include {
    phase: TEST
  }
  transform_param {
    crop_size: 224
    mean_value: 104
    mean_value: 117
    mean_value: 123
  }
  image_data_param {
    source: "/share4/public/classification_data/imagenet1k/meta/val.txt"
    batch_size: 25
    root_folder: "/share4/public/classification_data/imagenet1k/val/"
    short_edge: 256
  }
}
layer {
  name: "data_fixed_point"
  type: "Quantize"
  bottom: "data"
  top: "data"
  param {
    lr_mult: 0
    decay_mult: 0
  }
  quantize_param {
    precision: 8
    frozen: true
    positive: false
    tolerance: 1.5
  }
}
layer {
  name: "conv1/3x3_s2"
  type: "Convolution"
  bottom: "data"
  top: "conv1/3x3_s2/bn"
  convolution_param {
    num_output: 32
    bias_term: true
    pad: 1
    kernel_size: 3
    stride: 2
    weight_filler {
      type: "msra"
    }
    engine: CAFFE
    fp16_accumulation: false
  }
  quantize_param {
    precision: 6
    channel_shared: false
  }
}
layer {
  name: "conv1/3x3_s2/relu"
  type: "ReLU"
  bottom: "conv1/3x3_s2/bn"
  top: "conv1/3x3_s2/bn"
}
layer {
  name: "conv1/3x3_s2/bn_fixed_point"
  type: "Quantize"
  bottom: "conv1/3x3_s2/bn"
  top: "conv1/3x3_s2/bn"
  param {
    lr_mult: 0
    decay_mult: 0
  }
  quantize_param {
    precision: 8
    frozen: true
    positive: true
    tolerance: 1.5
  }
}
layer {
  name: "conv2_0/3x3_dwconv"
  type: "Convolution"
  bottom: "conv1/3x3_s2/bn"
  top: "conv2_0/3x3_dwconv/bn"
  convolution_param {
    num_output: 32
    bias_term: true
    pad: 1
    kernel_size: 3
    group: 32
    stride: 1
    weight_filler {
      type: "msra"
    }
    engine: CAFFE
    fp16_accumulation: true
  }
  quantize_param {
    precision: 6
    channel_shared: false
  }
}
layer {
  name: "conv2_0/3x3_dwconv/relu"
  type: "ReLU"
  bottom: "conv2_0/3x3_dwconv/bn"
  top: "conv2_0/3x3_dwconv/bn"
}
layer {
  name: "conv2_0/3x3_dwconv/bn_fixed_point"
  type: "Quantize"
  bottom: "conv2_0/3x3_dwconv/bn"
  top: "conv2_0/3x3_dwconv/bn"
  param {
    lr_mult: 0
    decay_mult: 0
  }
  quantize_param {
    precision: 8
    frozen: true
    positive: true
    tolerance: 1.5
  }
}
layer {
  name: "conv2_0/1x1_decrease"
  type: "Convolution"
  bottom: "conv2_0/3x3_dwconv/bn"
  top: "conv2_0/1x1_decrease/bn"
  convolution_param {
    num_output: 16
    bias_term: true
    kernel_size: 1
    stride: 1
    weight_filler {
      type: "msra"
    }
    engine: CAFFE
    fp16_accumulation: true
  }
  quantize_param {
    precision: 6
    channel_shared: false
  }
}
layer {
  name: "conv2_0/1x1_decrease/bn_fixed_point"
  type: "Quantize"
  bottom: "conv2_0/1x1_decrease/bn"
  top: "conv2_0/1x1_decrease/bn"
  param {
    lr_mult: 0
    decay_mult: 0
  }
  quantize_param {
    precision: 8
    frozen: true
    positive: false
    tolerance: 1.5
  }
}
layer {
  name: "conv3_0/1x1_increase"
  type: "Convolution"
  bottom: "conv2_0/1x1_decrease/bn"
  top: "conv3_0/1x1_increase/bn"
  convolution_param {
    num_output: 48
    bias_term: true
    kernel_size: 1
    stride: 1
    weight_filler {
      type: "msra"
    }
    engine: CAFFE
    fp16_accumulation: true
  }
  quantize_param {
    precision: 6
    channel_shared: false
  }
}
layer {
  name: "conv3_0/1x1_increase/relu"
  type: "ReLU"
  bottom: "conv3_0/1x1_increase/bn"
  top: "conv3_0/1x1_increase/bn"
}
layer {
  name: "conv3_0/1x1_increase/bn_fixed_point"
  type: "Quantize"
  bottom: "conv3_0/1x1_increase/bn"
  top: "conv3_0/1x1_increase/bn"
  param {
    lr_mult: 0
    decay_mult: 0
  }
  quantize_param {
    precision: 8
    frozen: true
    positive: true
    tolerance: 1.5
  }
}
layer {
  name: "conv3_0/3x3_dwconv"
  type: "Convolution"
  bottom: "conv3_0/1x1_increase/bn"
  top: "conv3_0/3x3_dwconv/bn"
  convolution_param {
    num_output: 48
    bias_term: true
    pad: 2
    kernel_size: 5
    group: 48
    stride: 2
    weight_filler {
      type: "msra"
    }
    engine: CAFFE
    fp16_accumulation: true
  }
  quantize_param {
    precision: 6
    channel_shared: false
  }
}
layer {
  name: "conv3_0/3x3_dwconv/relu"
  type: "ReLU"
  bottom: "conv3_0/3x3_dwconv/bn"
  top: "conv3_0/3x3_dwconv/bn"
}
layer {
  name: "conv3_0/3x3_dwconv/bn_fixed_point"
  type: "Quantize"
  bottom: "conv3_0/3x3_dwconv/bn"
  top: "conv3_0/3x3_dwconv/bn"
  param {
    lr_mult: 0
    decay_mult: 0
  }
  quantize_param {
    precision: 8
    frozen: true
    positive: true
    tolerance: 1.5
  }
}
layer {
  name: "conv3_0/1x1_decrease"
  type: "Convolution"
  bottom: "conv3_0/3x3_dwconv/bn"
  top: "conv3_0/1x1_decrease/bn"
  convolution_param {
    num_output: 32
    bias_term: true
    kernel_size: 1
    stride: 1
    weight_filler {
      type: "msra"
    }
    engine: CAFFE
    fp16_accumulation: true
  }
  quantize_param {
    precision: 6
    channel_shared: false
  }
}
layer {
  name: "conv3_0/1x1_decrease/bn_fixed_point"
  type: "Quantize"
  bottom: "conv3_0/1x1_decrease/bn"
  top: "conv3_0/1x1_decrease/bn"
  param {
    lr_mult: 0
    decay_mult: 0
  }
  quantize_param {
    precision: 8
    frozen: true
    positive: false
    tolerance: 1.5
  }
}
layer {
  name: "conv3_1/1x1_increase"
  type: "Convolution"
  bottom: "conv3_0/1x1_decrease/bn"
  top: "conv3_1/1x1_increase/bn"
  convolution_param {
    num_output: 96
    bias_term: true
    kernel_size: 1
    stride: 1
    weight_filler {
      type: "msra"
    }
    engine: CAFFE
    fp16_accumulation: true
  }
  quantize_param {
    precision: 6
    channel_shared: false
  }
}
layer {
  name: "conv3_1/1x1_increase/relu"
  type: "ReLU"
  bottom: "conv3_1/1x1_increase/bn"
  top: "conv3_1/1x1_increase/bn"
}
layer {
  name: "conv3_1/1x1_increase/bn_fixed_point"
  type: "Quantize"
  bottom: "conv3_1/1x1_increase/bn"
  top: "conv3_1/1x1_increase/bn"
  param {
    lr_mult: 0
    decay_mult: 0
  }
  quantize_param {
    precision: 8
    frozen: true
    positive: true
    tolerance: 1.5
  }
}
layer {
  name: "conv3_1/3x3_dwconv"
  type: "Convolution"
  bottom: "conv3_1/1x1_increase/bn"
  top: "conv3_1/3x3_dwconv/bn"
  convolution_param {
    num_output: 96
    bias_term: true
    pad: 1
    kernel_size: 3
    group: 96
    stride: 1
    weight_filler {
      type: "msra"
    }
    engine: CAFFE
    fp16_accumulation: true
  }
  quantize_param {
    precision: 6
    channel_shared: false
  }
}
layer {
  name: "conv3_1/3x3_dwconv/relu"
  type: "ReLU"
  bottom: "conv3_1/3x3_dwconv/bn"
  top: "conv3_1/3x3_dwconv/bn"
}
layer {
  name: "conv3_1/3x3_dwconv/bn_fixed_point"
  type: "Quantize"
  bottom: "conv3_1/3x3_dwconv/bn"
  top: "conv3_1/3x3_dwconv/bn"
  param {
    lr_mult: 0
    decay_mult: 0
  }
  quantize_param {
    precision: 8
    frozen: true
    positive: true
    tolerance: 1.5
  }
}
layer {
  name: "conv3_1/1x1_decrease"
  type: "Convolution"
  bottom: "conv3_1/3x3_dwconv/bn"
  top: "conv3_1/1x1_decrease/bn"
  convolution_param {
    num_output: 32
    bias_term: true
    kernel_size: 1
    stride: 1
    weight_filler {
      type: "msra"
    }
    engine: CAFFE
    fp16_accumulation: true
  }
  quantize_param {
    precision: 6
    channel_shared: false
  }
}
layer {
  name: "conv3_1/elt_sum"
  type: "Eltwise"
  bottom: "conv3_0/1x1_decrease/bn"
  bottom: "conv3_1/1x1_decrease/bn"
  top: "conv3_1/elt_sum"
  eltwise_param {
    operation: SUM
  }
}
layer {
  name: "conv3_1/elt_sum_fixed_point"
  type: "Quantize"
  bottom: "conv3_1/elt_sum"
  top: "conv3_1/elt_sum"
  param {
    lr_mult: 0
    decay_mult: 0
  }
  quantize_param {
    precision: 8
    frozen: true
    positive: false
    tolerance: 1.5
  }
}
layer {
  name: "conv4_0/1x1_increase"
  type: "Convolution"
  bottom: "conv3_1/elt_sum"
  top: "conv4_0/1x1_increase/bn"
  convolution_param {
    num_output: 96
    bias_term: true
    kernel_size: 1
    stride: 1
    weight_filler {
      type: "msra"
    }
    engine: CAFFE
    fp16_accumulation: true
  }
  quantize_param {
    precision: 6
    channel_shared: false
  }
}
layer {
  name: "conv4_0/1x1_increase/hardswish"
  type: "HardSwish"
  bottom: "conv4_0/1x1_increase/bn"
  top: "conv4_0/1x1_increase/bn"
}
layer {
  name: "conv4_0/1x1_increase/bn_fixed_point"
  type: "Quantize"
  bottom: "conv4_0/1x1_increase/bn"
  top: "conv4_0/1x1_increase/bn"
  param {
    lr_mult: 0
    decay_mult: 0
  }
  quantize_param {
    precision: 8
    frozen: true
    positive: false
    tolerance: 1.5
  }
}
layer {
  name: "conv4_0/1x1_increase/slice"
  type: "Slice"
  bottom: "conv4_0/1x1_increase/bn"
  top: "conv4_0/1x1_increase/split1"
  top: "conv4_0/1x1_increase/split2"
  top: "conv4_0/1x1_increase/split3"
  slice_param {
    slice_point: 32
    slice_point: 64
  }
}
layer {
  name: "conv4_0/3x3_dwconv/slice_0"
  type: "Convolution"
  bottom: "conv4_0/1x1_increase/split1"
  top: "conv4_0/3x3_dwconv/slice_0/bn"
  convolution_param {
    num_output: 32
    bias_term: true
    pad: 1
    kernel_size: 3
    group: 32
    stride: 2
    weight_filler {
      type: "msra"
    }
    engine: CAFFE
    fp16_accumulation: true
  }
  quantize_param {
    precision: 6
    channel_shared: false
  }
}
layer {
  name: "conv4_0/3x3_dwconv/slice_0/hardswish"
  type: "HardSwish"
  bottom: "conv4_0/3x3_dwconv/slice_0/bn"
  top: "conv4_0/3x3_dwconv/slice_0/bn"
}
layer {
  name: "conv4_0/3x3_dwconv/slice_1"
  type: "Convolution"
  bottom: "conv4_0/1x1_increase/split2"
  top: "conv4_0/3x3_dwconv/slice_1/bn"
  convolution_param {
    num_output: 32
    bias_term: true
    pad: 2
    kernel_size: 5
    group: 32
    stride: 2
    weight_filler {
      type: "msra"
    }
    engine: CAFFE
    fp16_accumulation: true
  }
  quantize_param {
    precision: 6
    channel_shared: false
  }
}
layer {
  name: "conv4_0/3x3_dwconv/slice_1/hardswish"
  type: "HardSwish"
  bottom: "conv4_0/3x3_dwconv/slice_1/bn"
  top: "conv4_0/3x3_dwconv/slice_1/bn"
}
layer {
  name: "conv4_0/3x3_dwconv/slice_2"
  type: "Convolution"
  bottom: "conv4_0/1x1_increase/split3"
  top: "conv4_0/3x3_dwconv/slice_2/bn"
  convolution_param {
    num_output: 32
    bias_term: true
    pad: 3
    kernel_size: 7
    group: 32
    stride: 2
    weight_filler {
      type: "msra"
    }
    engine: CAFFE
    fp16_accumulation: true
  }
  quantize_param {
    precision: 6
    channel_shared: false
  }
}
layer {
  name: "conv4_0/3x3_dwconv/slice_2/hardswish"
  type: "HardSwish"
  bottom: "conv4_0/3x3_dwconv/slice_2/bn"
  top: "conv4_0/3x3_dwconv/slice_2/bn"
}
layer {
  name: "conv4_0/3x3_dwconv/concat"
  type: "Concat"
  bottom: "conv4_0/3x3_dwconv/slice_0/bn"
  bottom: "conv4_0/3x3_dwconv/slice_1/bn"
  bottom: "conv4_0/3x3_dwconv/slice_2/bn"
  top: "conv4_0/3x3_dwconv/concat"
}
layer {
  name: "conv4_0/3x3_dwconv/concat_fixed_point"
  type: "Quantize"
  bottom: "conv4_0/3x3_dwconv/concat"
  top: "conv4_0/3x3_dwconv/concat"
  param {
    lr_mult: 0
    decay_mult: 0
  }
  quantize_param {
    precision: 8
    frozen: true
    positive: false
    tolerance: 1.5
  }
}
layer {
  name: "conv4_0/3x3_dwconv/SE_global_pool"
  type: "Pooling"
  bottom: "conv4_0/3x3_dwconv/concat"
  top: "conv4_0/3x3_dwconv/SE_global_pool"
  pooling_param {
    pool: AVE
    engine: CAFFE
    global_pooling: true
  }
}
layer {
  name: "conv4_0/3x3_dwconv/SE_bn"
  type: "Scale"
  bottom: "conv4_0/3x3_dwconv/SE_global_pool"
  top: "conv4_0/3x3_dwconv/SE_bn"
  param {
    lr_mult: 1
    decay_mult: 0
  }
  param {
    lr_mult: 2
    decay_mult: 0
  }
  scale_param {
    axis: 1
    num_axes: 1
    bias_term: true
  }
}
layer {
  name: "conv4_0/3x3_dwconv/SE_fc1"
  type: "Convolution"
  bottom: "conv4_0/3x3_dwconv/SE_bn"
  top: "conv4_0/3x3_dwconv/SE_fc1"
  param {
    lr_mult: 1
    decay_mult: 1
  }
  convolution_param {
    num_output: 6
    bias_term: false
    kernel_size: 1
    stride: 1
    weight_filler {
      type: "gaussian"
      std: 0.01
    }
    engine: CAFFE
    fp16_accumulation: true
  }
  quantize_param {
    precision: 6
    channel_shared: false
  }
}
layer {
  name: "conv4_0/3x3_dwconv/SE_fc1/relu"
  type: "ReLU"
  bottom: "conv4_0/3x3_dwconv/SE_fc1"
  top: "conv4_0/3x3_dwconv/SE_fc1"
}
layer {
  name: "conv4_0/3x3_dwconv/SE_fc2"
  type: "Convolution"
  bottom: "conv4_0/3x3_dwconv/SE_fc1"
  top: "conv4_0/3x3_dwconv/SE_fc2"
  param {
    lr_mult: 1
    decay_mult: 1
  }
  convolution_param {
    num_output: 96
    bias_term: false
    kernel_size: 1
    stride: 1
    weight_filler {
      type: "gaussian"
      std: 0.01
    }
    engine: CAFFE
    fp16_accumulation: true
  }
  quantize_param {
    precision: 6
    channel_shared: false
  }
}
layer {
  name: "conv4_0/3x3_dwconv/SE_weights"
  type: "Sigmoid"
  bottom: "conv4_0/3x3_dwconv/SE_fc2"
  top: "conv4_0/3x3_dwconv/SE_fc2"
}
layer {
  name: "conv4_0/3x3_dwconv/SE_weights/reshape"
  type: "Reshape"
  bottom: "conv4_0/3x3_dwconv/SE_fc2"
  top: "conv4_0/3x3_dwconv/SE_weights/reshape"
  reshape_param {
    shape {
      dim: 0
      dim: 0
    }
  }
}
layer {
  name: "conv4_0/3x3_dwconv/scale"
  type: "Scale"
  bottom: "conv4_0/3x3_dwconv/concat"
  bottom: "conv4_0/3x3_dwconv/SE_weights/reshape"
  top: "conv4_0/3x3_dwconv/scale"
  scale_param {
    axis: 0
    bias_term: false
  }
}
layer {
  name: "conv4_0/3x3_dwconv/scale_fixed_point"
  type: "Quantize"
  bottom: "conv4_0/3x3_dwconv/scale"
  top: "conv4_0/3x3_dwconv/scale"
  param {
    lr_mult: 0
    decay_mult: 0
  }
  quantize_param {
    precision: 8
    frozen: true
    positive: false
    tolerance: 1.5
  }
}
layer {
  name: "conv4_0/1x1_decrease"
  type: "Convolution"
  bottom: "conv4_0/3x3_dwconv/scale"
  top: "conv4_0/1x1_decrease/bn"
  convolution_param {
    num_output: 40
    bias_term: true
    kernel_size: 1
    stride: 1
    weight_filler {
      type: "msra"
    }
    engine: CAFFE
    fp16_accumulation: true
  }
  quantize_param {
    precision: 6
    channel_shared: false
  }
}
layer {
  name: "conv4_0/1x1_decrease/bn_fixed_point"
  type: "Quantize"
  bottom: "conv4_0/1x1_decrease/bn"
  top: "conv4_0/1x1_decrease/bn"
  param {
    lr_mult: 0
    decay_mult: 0
  }
  quantize_param {
    precision: 8
    frozen: true
    positive: false
    tolerance: 1.5
  }
}
layer {
  name: "conv4_1/1x1_increase"
  type: "Convolution"
  bottom: "conv4_0/1x1_decrease/bn"
  top: "conv4_1/1x1_increase/bn"
  convolution_param {
    num_output: 120
    bias_term: true
    kernel_size: 1
    stride: 1
    weight_filler {
      type: "msra"
    }
    engine: CAFFE
    fp16_accumulation: true
  }
  quantize_param {
    precision: 6
    channel_shared: false
  }
}
layer {
  name: "conv4_1/1x1_increase/hardswish"
  type: "HardSwish"
  bottom: "conv4_1/1x1_increase/bn"
  top: "conv4_1/1x1_increase/bn"
}
layer {
  name: "conv4_1/1x1_increase/bn_fixed_point"
  type: "Quantize"
  bottom: "conv4_1/1x1_increase/bn"
  top: "conv4_1/1x1_increase/bn"
  param {
    lr_mult: 0
    decay_mult: 0
  }
  quantize_param {
    precision: 8
    frozen: true
    positive: false
    tolerance: 1.5
  }
}
layer {
  name: "conv4_1/1x1_increase/slice"
  type: "Slice"
  bottom: "conv4_1/1x1_increase/bn"
  top: "conv4_1/1x1_increase/split1"
  top: "conv4_1/1x1_increase/split2"
  slice_param {
    slice_point: 60
  }
}
layer {
  name: "conv4_1/3x3_dwconv/slice_0"
  type: "Convolution"
  bottom: "conv4_1/1x1_increase/split1"
  top: "conv4_1/3x3_dwconv/slice_0/bn"
  convolution_param {
    num_output: 60
    bias_term: true
    pad: 1
    kernel_size: 3
    group: 60
    stride: 1
    weight_filler {
      type: "msra"
    }
    engine: CAFFE
    fp16_accumulation: true
  }
  quantize_param {
    precision: 6
    channel_shared: false
  }
}
layer {
  name: "conv4_1/3x3_dwconv/slice_0/hardswish"
  type: "HardSwish"
  bottom: "conv4_1/3x3_dwconv/slice_0/bn"
  top: "conv4_1/3x3_dwconv/slice_0/bn"
}
layer {
  name: "conv4_1/3x3_dwconv/slice_1"
  type: "Convolution"
  bottom: "conv4_1/1x1_increase/split2"
  top: "conv4_1/3x3_dwconv/slice_1/bn"
  convolution_param {
    num_output: 60
    bias_term: true
    pad: 2
    kernel_size: 5
    group: 60
    stride: 1
    weight_filler {
      type: "msra"
    }
    engine: CAFFE
    fp16_accumulation: true
  }
  quantize_param {
    precision: 6
    channel_shared: false
  }
}
layer {
  name: "conv4_1/3x3_dwconv/slice_1/hardswish"
  type: "HardSwish"
  bottom: "conv4_1/3x3_dwconv/slice_1/bn"
  top: "conv4_1/3x3_dwconv/slice_1/bn"
}
layer {
  name: "conv4_1/3x3_dwconv/concat"
  type: "Concat"
  bottom: "conv4_1/3x3_dwconv/slice_0/bn"
  bottom: "conv4_1/3x3_dwconv/slice_1/bn"
  top: "conv4_1/3x3_dwconv/concat"
}
layer {
  name: "conv4_1/3x3_dwconv/concat_fixed_point"
  type: "Quantize"
  bottom: "conv4_1/3x3_dwconv/concat"
  top: "conv4_1/3x3_dwconv/concat"
  param {
    lr_mult: 0
    decay_mult: 0
  }
  quantize_param {
    precision: 8
    frozen: true
    positive: false
    tolerance: 1.5
  }
}
layer {
  name: "conv4_1/3x3_dwconv/SE_global_pool"
  type: "Pooling"
  bottom: "conv4_1/3x3_dwconv/concat"
  top: "conv4_1/3x3_dwconv/SE_global_pool"
  pooling_param {
    pool: AVE
    engine: CAFFE
    global_pooling: true
  }
}
layer {
  name: "conv4_1/3x3_dwconv/SE_bn"
  type: "Scale"
  bottom: "conv4_1/3x3_dwconv/SE_global_pool"
  top: "conv4_1/3x3_dwconv/SE_bn"
  param {
    lr_mult: 1
    decay_mult: 0
  }
  param {
    lr_mult: 2
    decay_mult: 0
  }
  scale_param {
    axis: 1
    num_axes: 1
    bias_term: true
  }
}
layer {
  name: "conv4_1/3x3_dwconv/SE_fc1"
  type: "Convolution"
  bottom: "conv4_1/3x3_dwconv/SE_bn"
  top: "conv4_1/3x3_dwconv/SE_fc1"
  param {
    lr_mult: 1
    decay_mult: 1
  }
  convolution_param {
    num_output: 7
    bias_term: false
    kernel_size: 1
    stride: 1
    weight_filler {
      type: "gaussian"
      std: 0.01
    }
    engine: CAFFE
    fp16_accumulation: true
  }
  quantize_param {
    precision: 6
    channel_shared: false
  }
}
layer {
  name: "conv4_1/3x3_dwconv/SE_fc1/relu"
  type: "ReLU"
  bottom: "conv4_1/3x3_dwconv/SE_fc1"
  top: "conv4_1/3x3_dwconv/SE_fc1"
}
layer {
  name: "conv4_1/3x3_dwconv/SE_fc2"
  type: "Convolution"
  bottom: "conv4_1/3x3_dwconv/SE_fc1"
  top: "conv4_1/3x3_dwconv/SE_fc2"
  param {
    lr_mult: 1
    decay_mult: 1
  }
  convolution_param {
    num_output: 120
    bias_term: false
    kernel_size: 1
    stride: 1
    weight_filler {
      type: "gaussian"
      std: 0.01
    }
    engine: CAFFE
    fp16_accumulation: true
  }
  quantize_param {
    precision: 6
    channel_shared: false
  }
}
layer {
  name: "conv4_1/3x3_dwconv/SE_weights"
  type: "Sigmoid"
  bottom: "conv4_1/3x3_dwconv/SE_fc2"
  top: "conv4_1/3x3_dwconv/SE_fc2"
}
layer {
  name: "conv4_1/3x3_dwconv/SE_weights/reshape"
  type: "Reshape"
  bottom: "conv4_1/3x3_dwconv/SE_fc2"
  top: "conv4_1/3x3_dwconv/SE_weights/reshape"
  reshape_param {
    shape {
      dim: 0
      dim: 0
    }
  }
}
layer {
  name: "conv4_1/3x3_dwconv/scale"
  type: "Scale"
  bottom: "conv4_1/3x3_dwconv/concat"
  bottom: "conv4_1/3x3_dwconv/SE_weights/reshape"
  top: "conv4_1/3x3_dwconv/scale"
  scale_param {
    axis: 0
    bias_term: false
  }
}
layer {
  name: "conv4_1/3x3_dwconv/scale_fixed_point"
  type: "Quantize"
  bottom: "conv4_1/3x3_dwconv/scale"
  top: "conv4_1/3x3_dwconv/scale"
  param {
    lr_mult: 0
    decay_mult: 0
  }
  quantize_param {
    precision: 8
    frozen: true
    positive: false
    tolerance: 1.5
  }
}
layer {
  name: "conv4_1/1x1_decrease"
  type: "Convolution"
  bottom: "conv4_1/3x3_dwconv/scale"
  top: "conv4_1/1x1_decrease/bn"
  convolution_param {
    num_output: 40
    bias_term: true
    kernel_size: 1
    stride: 1
    weight_filler {
      type: "msra"
    }
    engine: CAFFE
    fp16_accumulation: true
  }
  quantize_param {
    precision: 6
    channel_shared: false
  }
}
layer {
  name: "conv4_1/elt_sum"
  type: "Eltwise"
  bottom: "conv4_0/1x1_decrease/bn"
  bottom: "conv4_1/1x1_decrease/bn"
  top: "conv4_1/elt_sum"
  eltwise_param {
    operation: SUM
  }
}
layer {
  name: "conv4_1/elt_sum_fixed_point"
  type: "Quantize"
  bottom: "conv4_1/elt_sum"
  top: "conv4_1/elt_sum"
  param {
    lr_mult: 0
    decay_mult: 0
  }
  quantize_param {
    precision: 8
    frozen: true
    positive: false
    tolerance: 1.5
  }
}
layer {
  name: "conv4_2/1x1_increase"
  type: "Convolution"
  bottom: "conv4_1/elt_sum"
  top: "conv4_2/1x1_increase/bn"
  convolution_param {
    num_output: 120
    bias_term: true
    kernel_size: 1
    stride: 1
    weight_filler {
      type: "msra"
    }
    engine: CAFFE
    fp16_accumulation: true
  }
  quantize_param {
    precision: 6
    channel_shared: false
  }
}
layer {
  name: "conv4_2/1x1_increase/hardswish"
  type: "HardSwish"
  bottom: "conv4_2/1x1_increase/bn"
  top: "conv4_2/1x1_increase/bn"
}
layer {
  name: "conv4_2/1x1_increase/bn_fixed_point"
  type: "Quantize"
  bottom: "conv4_2/1x1_increase/bn"
  top: "conv4_2/1x1_increase/bn"
  param {
    lr_mult: 0
    decay_mult: 0
  }
  quantize_param {
    precision: 8
    frozen: true
    positive: false
    tolerance: 1.5
  }
}
layer {
  name: "conv4_2/1x1_increase/slice"
  type: "Slice"
  bottom: "conv4_2/1x1_increase/bn"
  top: "conv4_2/1x1_increase/split1"
  top: "conv4_2/1x1_increase/split2"
  slice_param {
    slice_point: 60
  }
}
layer {
  name: "conv4_2/3x3_dwconv/slice_0"
  type: "Convolution"
  bottom: "conv4_2/1x1_increase/split1"
  top: "conv4_2/3x3_dwconv/slice_0/bn"
  convolution_param {
    num_output: 60
    bias_term: true
    pad: 1
    kernel_size: 3
    group: 60
    stride: 1
    weight_filler {
      type: "msra"
    }
    engine: CAFFE
    fp16_accumulation: true
  }
  quantize_param {
    precision: 6
    channel_shared: false
  }
}
layer {
  name: "conv4_2/3x3_dwconv/slice_0/hardswish"
  type: "HardSwish"
  bottom: "conv4_2/3x3_dwconv/slice_0/bn"
  top: "conv4_2/3x3_dwconv/slice_0/bn"
}
layer {
  name: "conv4_2/3x3_dwconv/slice_1"
  type: "Convolution"
  bottom: "conv4_2/1x1_increase/split2"
  top: "conv4_2/3x3_dwconv/slice_1/bn"
  convolution_param {
    num_output: 60
    bias_term: true
    pad: 2
    kernel_size: 5
    group: 60
    stride: 1
    weight_filler {
      type: "msra"
    }
    engine: CAFFE
    fp16_accumulation: true
  }
  quantize_param {
    precision: 6
    channel_shared: false
  }
}
layer {
  name: "conv4_2/3x3_dwconv/slice_1/hardswish"
  type: "HardSwish"
  bottom: "conv4_2/3x3_dwconv/slice_1/bn"
  top: "conv4_2/3x3_dwconv/slice_1/bn"
}
layer {
  name: "conv4_2/3x3_dwconv/concat"
  type: "Concat"
  bottom: "conv4_2/3x3_dwconv/slice_0/bn"
  bottom: "conv4_2/3x3_dwconv/slice_1/bn"
  top: "conv4_2/3x3_dwconv/concat"
}
layer {
  name: "conv4_2/3x3_dwconv/concat_fixed_point"
  type: "Quantize"
  bottom: "conv4_2/3x3_dwconv/concat"
  top: "conv4_2/3x3_dwconv/concat"
  param {
    lr_mult: 0
    decay_mult: 0
  }
  quantize_param {
    precision: 8
    frozen: true
    positive: false
    tolerance: 1.5
  }
}
layer {
  name: "conv4_2/3x3_dwconv/SE_global_pool"
  type: "Pooling"
  bottom: "conv4_2/3x3_dwconv/concat"
  top: "conv4_2/3x3_dwconv/SE_global_pool"
  pooling_param {
    pool: AVE
    engine: CAFFE
    global_pooling: true
  }
}
layer {
  name: "conv4_2/3x3_dwconv/SE_bn"
  type: "Scale"
  bottom: "conv4_2/3x3_dwconv/SE_global_pool"
  top: "conv4_2/3x3_dwconv/SE_bn"
  param {
    lr_mult: 1
    decay_mult: 0
  }
  param {
    lr_mult: 2
    decay_mult: 0
  }
  scale_param {
    axis: 1
    num_axes: 1
    bias_term: true
  }
}
layer {
  name: "conv4_2/3x3_dwconv/SE_fc1"
  type: "Convolution"
  bottom: "conv4_2/3x3_dwconv/SE_bn"
  top: "conv4_2/3x3_dwconv/SE_fc1"
  param {
    lr_mult: 1
    decay_mult: 1
  }
  convolution_param {
    num_output: 7
    bias_term: false
    kernel_size: 1
    stride: 1
    weight_filler {
      type: "gaussian"
      std: 0.01
    }
    engine: CAFFE
    fp16_accumulation: true
  }
  quantize_param {
    precision: 6
    channel_shared: false
  }
}
layer {
  name: "conv4_2/3x3_dwconv/SE_fc1/relu"
  type: "ReLU"
  bottom: "conv4_2/3x3_dwconv/SE_fc1"
  top: "conv4_2/3x3_dwconv/SE_fc1"
}
layer {
  name: "conv4_2/3x3_dwconv/SE_fc2"
  type: "Convolution"
  bottom: "conv4_2/3x3_dwconv/SE_fc1"
  top: "conv4_2/3x3_dwconv/SE_fc2"
  param {
    lr_mult: 1
    decay_mult: 1
  }
  convolution_param {
    num_output: 120
    bias_term: false
    kernel_size: 1
    stride: 1
    weight_filler {
      type: "gaussian"
      std: 0.01
    }
    engine: CAFFE
    fp16_accumulation: true
  }
  quantize_param {
    precision: 6
    channel_shared: false
  }
}
layer {
  name: "conv4_2/3x3_dwconv/SE_weights"
  type: "Sigmoid"
  bottom: "conv4_2/3x3_dwconv/SE_fc2"
  top: "conv4_2/3x3_dwconv/SE_fc2"
}
layer {
  name: "conv4_2/3x3_dwconv/SE_weights/reshape"
  type: "Reshape"
  bottom: "conv4_2/3x3_dwconv/SE_fc2"
  top: "conv4_2/3x3_dwconv/SE_weights/reshape"
  reshape_param {
    shape {
      dim: 0
      dim: 0
    }
  }
}
layer {
  name: "conv4_2/3x3_dwconv/scale"
  type: "Scale"
  bottom: "conv4_2/3x3_dwconv/concat"
  bottom: "conv4_2/3x3_dwconv/SE_weights/reshape"
  top: "conv4_2/3x3_dwconv/scale"
  scale_param {
    axis: 0
    bias_term: false
  }
}
layer {
  name: "conv4_2/3x3_dwconv/scale_fixed_point"
  type: "Quantize"
  bottom: "conv4_2/3x3_dwconv/scale"
  top: "conv4_2/3x3_dwconv/scale"
  param {
    lr_mult: 0
    decay_mult: 0
  }
  quantize_param {
    precision: 8
    frozen: true
    positive: false
    tolerance: 1.5
  }
}
layer {
  name: "conv4_2/1x1_decrease"
  type: "Convolution"
  bottom: "conv4_2/3x3_dwconv/scale"
  top: "conv4_2/1x1_decrease/bn"
  convolution_param {
    num_output: 40
    bias_term: true
    kernel_size: 1
    stride: 1
    weight_filler {
      type: "msra"
    }
    engine: CAFFE
    fp16_accumulation: true
  }
  quantize_param {
    precision: 6
    channel_shared: false
  }
}
layer {
  name: "conv4_2/elt_sum"
  type: "Eltwise"
  bottom: "conv4_1/elt_sum"
  bottom: "conv4_2/1x1_decrease/bn"
  top: "conv4_2/elt_sum"
  eltwise_param {
    operation: SUM
  }
}
layer {
  name: "conv4_2/elt_sum_fixed_point"
  type: "Quantize"
  bottom: "conv4_2/elt_sum"
  top: "conv4_2/elt_sum"
  param {
    lr_mult: 0
    decay_mult: 0
  }
  quantize_param {
    precision: 8
    frozen: true
    positive: false
    tolerance: 1.5
  }
}
layer {
  name: "conv4_3/1x1_increase"
  type: "Convolution"
  bottom: "conv4_2/elt_sum"
  top: "conv4_3/1x1_increase/bn"
  convolution_param {
    num_output: 120
    bias_term: true
    kernel_size: 1
    stride: 1
    weight_filler {
      type: "msra"
    }
    engine: CAFFE
    fp16_accumulation: true
  }
  quantize_param {
    precision: 6
    channel_shared: false
  }
}
layer {
  name: "conv4_3/1x1_increase/hardswish"
  type: "HardSwish"
  bottom: "conv4_3/1x1_increase/bn"
  top: "conv4_3/1x1_increase/bn"
}
layer {
  name: "conv4_3/1x1_increase/bn_fixed_point"
  type: "Quantize"
  bottom: "conv4_3/1x1_increase/bn"
  top: "conv4_3/1x1_increase/bn"
  param {
    lr_mult: 0
    decay_mult: 0
  }
  quantize_param {
    precision: 8
    frozen: true
    positive: false
    tolerance: 1.5
  }
}
layer {
  name: "conv4_3/1x1_increase/slice"
  type: "Slice"
  bottom: "conv4_3/1x1_increase/bn"
  top: "conv4_3/1x1_increase/split1"
  top: "conv4_3/1x1_increase/split2"
  slice_param {
    slice_point: 60
  }
}
layer {
  name: "conv4_3/3x3_dwconv/slice_0"
  type: "Convolution"
  bottom: "conv4_3/1x1_increase/split1"
  top: "conv4_3/3x3_dwconv/slice_0/bn"
  convolution_param {
    num_output: 60
    bias_term: true
    pad: 1
    kernel_size: 3
    group: 60
    stride: 1
    weight_filler {
      type: "msra"
    }
    engine: CAFFE
    fp16_accumulation: true
  }
  quantize_param {
    precision: 6
    channel_shared: false
  }
}
layer {
  name: "conv4_3/3x3_dwconv/slice_0/hardswish"
  type: "HardSwish"
  bottom: "conv4_3/3x3_dwconv/slice_0/bn"
  top: "conv4_3/3x3_dwconv/slice_0/bn"
}
layer {
  name: "conv4_3/3x3_dwconv/slice_1"
  type: "Convolution"
  bottom: "conv4_3/1x1_increase/split2"
  top: "conv4_3/3x3_dwconv/slice_1/bn"
  convolution_param {
    num_output: 60
    bias_term: true
    pad: 2
    kernel_size: 5
    group: 60
    stride: 1
    weight_filler {
      type: "msra"
    }
    engine: CAFFE
    fp16_accumulation: true
  }
  quantize_param {
    precision: 6
    channel_shared: false
  }
}
layer {
  name: "conv4_3/3x3_dwconv/slice_1/hardswish"
  type: "HardSwish"
  bottom: "conv4_3/3x3_dwconv/slice_1/bn"
  top: "conv4_3/3x3_dwconv/slice_1/bn"
}
layer {
  name: "conv4_3/3x3_dwconv/concat"
  type: "Concat"
  bottom: "conv4_3/3x3_dwconv/slice_0/bn"
  bottom: "conv4_3/3x3_dwconv/slice_1/bn"
  top: "conv4_3/3x3_dwconv/concat"
}
layer {
  name: "conv4_3/3x3_dwconv/concat_fixed_point"
  type: "Quantize"
  bottom: "conv4_3/3x3_dwconv/concat"
  top: "conv4_3/3x3_dwconv/concat"
  param {
    lr_mult: 0
    decay_mult: 0
  }
  quantize_param {
    precision: 8
    frozen: true
    positive: false
    tolerance: 1.5
  }
}
layer {
  name: "conv4_3/3x3_dwconv/SE_global_pool"
  type: "Pooling"
  bottom: "conv4_3/3x3_dwconv/concat"
  top: "conv4_3/3x3_dwconv/SE_global_pool"
  pooling_param {
    pool: AVE
    engine: CAFFE
    global_pooling: true
  }
}
layer {
  name: "conv4_3/3x3_dwconv/SE_bn"
  type: "Scale"
  bottom: "conv4_3/3x3_dwconv/SE_global_pool"
  top: "conv4_3/3x3_dwconv/SE_bn"
  param {
    lr_mult: 1
    decay_mult: 0
  }
  param {
    lr_mult: 2
    decay_mult: 0
  }
  scale_param {
    axis: 1
    num_axes: 1
    bias_term: true
  }
}
layer {
  name: "conv4_3/3x3_dwconv/SE_fc1"
  type: "Convolution"
  bottom: "conv4_3/3x3_dwconv/SE_bn"
  top: "conv4_3/3x3_dwconv/SE_fc1"
  param {
    lr_mult: 1
    decay_mult: 1
  }
  convolution_param {
    num_output: 7
    bias_term: false
    kernel_size: 1
    stride: 1
    weight_filler {
      type: "gaussian"
      std: 0.01
    }
    engine: CAFFE
    fp16_accumulation: true
  }
  quantize_param {
    precision: 6
    channel_shared: false
  }
}
layer {
  name: "conv4_3/3x3_dwconv/SE_fc1/relu"
  type: "ReLU"
  bottom: "conv4_3/3x3_dwconv/SE_f
I1010 14:26:40.309692 12881 layer_factory.hpp:77] Creating layer data
I1010 14:26:40.309741 12881 net.cpp:86] Creating Layer data
I1010 14:26:40.309753 12881 net.cpp:383] data -> data
I1010 14:26:40.309790 12881 net.cpp:383] data -> label
I1010 14:26:40.309815 12881 image_data_layer.cpp:43] Opening file /share4/public/classification_data/imagenet1k/meta/val.txt
I1010 14:26:40.323506 12881 image_data_layer.cpp:68] A total of 50000 images.
I1010 14:26:40.344833 12881 image_data_layer.cpp:95] output data size: 25,3,224,224
I1010 14:26:40.387431 12881 net.cpp:124] Setting up data
I1010 14:26:40.387514 12881 net.cpp:131] Top shape: 25 3 224 224 (3763200)
I1010 14:26:40.387523 12881 net.cpp:131] Top shape: 25 (25)
I1010 14:26:40.387528 12881 net.cpp:139] Memory required for data: 15052900
I1010 14:26:40.387538 12881 layer_factory.hpp:77] Creating layer label_data_1_split
I1010 14:26:40.387558 12881 net.cpp:86] Creating Layer label_data_1_split
I1010 14:26:40.387569 12881 net.cpp:409] label_data_1_split <- label
I1010 14:26:40.387657 12881 net.cpp:383] label_data_1_split -> label_data_1_split_0
I1010 14:26:40.387675 12881 net.cpp:383] label_data_1_split -> label_data_1_split_1
I1010 14:26:40.387683 12881 net.cpp:383] label_data_1_split -> label_data_1_split_2
I1010 14:26:40.387763 12881 net.cpp:124] Setting up label_data_1_split
I1010 14:26:40.387771 12881 net.cpp:131] Top shape: 25 (25)
I1010 14:26:40.387778 12881 net.cpp:131] Top shape: 25 (25)
I1010 14:26:40.387782 12881 net.cpp:131] Top shape: 25 (25)
I1010 14:26:40.387785 12881 net.cpp:139] Memory required for data: 15053200
I1010 14:26:40.387789 12881 layer_factory.hpp:77] Creating layer data_fixed_point
I1010 14:26:40.387801 12881 net.cpp:86] Creating Layer data_fixed_point
I1010 14:26:40.387812 12881 net.cpp:409] data_fixed_point <- data
I1010 14:26:40.387820 12881 net.cpp:370] data_fixed_point -> data (in-place)
I1010 14:26:40.387939 12881 net.cpp:124] Setting up data_fixed_point
I1010 14:26:40.387948 12881 net.cpp:131] Top shape: 25 3 224 224 (3763200)
I1010 14:26:40.387953 12881 net.cpp:139] Memory required for data: 30106000
I1010 14:26:40.387979 12881 layer_factory.hpp:77] Creating layer conv1/3x3_s2
I1010 14:26:40.388007 12881 net.cpp:86] Creating Layer conv1/3x3_s2
I1010 14:26:40.388013 12881 net.cpp:409] conv1/3x3_s2 <- data
I1010 14:26:40.388022 12881 net.cpp:383] conv1/3x3_s2 -> conv1/3x3_s2/bn
I1010 14:26:40.391100 12881 net.cpp:124] Setting up conv1/3x3_s2
I1010 14:26:40.391116 12881 net.cpp:131] Top shape: 25 32 112 112 (10035200)
I1010 14:26:40.391120 12881 net.cpp:139] Memory required for data: 70246800
I1010 14:26:40.391140 12881 layer_factory.hpp:77] Creating layer conv1/3x3_s2/relu
I1010 14:26:40.391160 12881 net.cpp:86] Creating Layer conv1/3x3_s2/relu
I1010 14:26:40.391165 12881 net.cpp:409] conv1/3x3_s2/relu <- conv1/3x3_s2/bn
I1010 14:26:40.391178 12881 net.cpp:370] conv1/3x3_s2/relu -> conv1/3x3_s2/bn (in-place)
I1010 14:26:42.794953 12881 net.cpp:124] Setting up conv1/3x3_s2/relu
I1010 14:26:42.794996 12881 net.cpp:131] Top shape: 25 32 112 112 (10035200)
I1010 14:26:42.795001 12881 net.cpp:139] Memory required for data: 110387600
I1010 14:26:42.795011 12881 layer_factory.hpp:77] Creating layer conv1/3x3_s2/bn_fixed_point
I1010 14:26:42.795035 12881 net.cpp:86] Creating Layer conv1/3x3_s2/bn_fixed_point
I1010 14:26:42.795044 12881 net.cpp:409] conv1/3x3_s2/bn_fixed_point <- conv1/3x3_s2/bn
I1010 14:26:42.795058 12881 net.cpp:370] conv1/3x3_s2/bn_fixed_point -> conv1/3x3_s2/bn (in-place)
I1010 14:26:42.795105 12881 net.cpp:124] Setting up conv1/3x3_s2/bn_fixed_point
I1010 14:26:42.795114 12881 net.cpp:131] Top shape: 25 32 112 112 (10035200)
I1010 14:26:42.795119 12881 net.cpp:139] Memory required for data: 150528400
I1010 14:26:42.795128 12881 layer_factory.hpp:77] Creating layer conv2_0/3x3_dwconv
I1010 14:26:42.795148 12881 net.cpp:86] Creating Layer conv2_0/3x3_dwconv
I1010 14:26:42.795154 12881 net.cpp:409] conv2_0/3x3_dwconv <- conv1/3x3_s2/bn
I1010 14:26:42.795161 12881 net.cpp:383] conv2_0/3x3_dwconv -> conv2_0/3x3_dwconv/bn
I1010 14:26:42.796388 12881 net.cpp:124] Setting up conv2_0/3x3_dwconv
I1010 14:26:42.796432 12881 net.cpp:131] Top shape: 25 32 112 112 (10035200)
I1010 14:26:42.796437 12881 net.cpp:139] Memory required for data: 190669200
I1010 14:26:42.796450 12881 layer_factory.hpp:77] Creating layer conv2_0/3x3_dwconv/relu
I1010 14:26:42.796469 12881 net.cpp:86] Creating Layer conv2_0/3x3_dwconv/relu
I1010 14:26:42.796475 12881 net.cpp:409] conv2_0/3x3_dwconv/relu <- conv2_0/3x3_dwconv/bn
I1010 14:26:42.796483 12881 net.cpp:370] conv2_0/3x3_dwconv/relu -> conv2_0/3x3_dwconv/bn (in-place)
I1010 14:26:42.797178 12881 net.cpp:124] Setting up conv2_0/3x3_dwconv/relu
I1010 14:26:42.797192 12881 net.cpp:131] Top shape: 25 32 112 112 (10035200)
I1010 14:26:42.797197 12881 net.cpp:139] Memory required for data: 230810000
I1010 14:26:42.797201 12881 layer_factory.hpp:77] Creating layer conv2_0/3x3_dwconv/bn_fixed_point
I1010 14:26:42.797220 12881 net.cpp:86] Creating Layer conv2_0/3x3_dwconv/bn_fixed_point
I1010 14:26:42.797224 12881 net.cpp:409] conv2_0/3x3_dwconv/bn_fixed_point <- conv2_0/3x3_dwconv/bn
I1010 14:26:42.797231 12881 net.cpp:370] conv2_0/3x3_dwconv/bn_fixed_point -> conv2_0/3x3_dwconv/bn (in-place)
I1010 14:26:42.797267 12881 net.cpp:124] Setting up conv2_0/3x3_dwconv/bn_fixed_point
I1010 14:26:42.797276 12881 net.cpp:131] Top shape: 25 32 112 112 (10035200)
I1010 14:26:42.797281 12881 net.cpp:139] Memory required for data: 270950800
I1010 14:26:42.797286 12881 layer_factory.hpp:77] Creating layer conv2_0/1x1_decrease
I1010 14:26:42.797298 12881 net.cpp:86] Creating Layer conv2_0/1x1_decrease
I1010 14:26:42.797304 12881 net.cpp:409] conv2_0/1x1_decrease <- conv2_0/3x3_dwconv/bn
I1010 14:26:42.797312 12881 net.cpp:383] conv2_0/1x1_decrease -> conv2_0/1x1_decrease/bn
I1010 14:26:42.797952 12881 net.cpp:124] Setting up conv2_0/1x1_decrease
I1010 14:26:42.797967 12881 net.cpp:131] Top shape: 25 16 112 112 (5017600)
I1010 14:26:42.797971 12881 net.cpp:139] Memory required for data: 291021200
I1010 14:26:42.797996 12881 layer_factory.hpp:77] Creating layer conv2_0/1x1_decrease/bn_fixed_point
I1010 14:26:42.798012 12881 net.cpp:86] Creating Layer conv2_0/1x1_decrease/bn_fixed_point
I1010 14:26:42.798017 12881 net.cpp:409] conv2_0/1x1_decrease/bn_fixed_point <- conv2_0/1x1_decrease/bn
I1010 14:26:42.798023 12881 net.cpp:370] conv2_0/1x1_decrease/bn_fixed_point -> conv2_0/1x1_decrease/bn (in-place)
I1010 14:26:42.798060 12881 net.cpp:124] Setting up conv2_0/1x1_decrease/bn_fixed_point
I1010 14:26:42.798069 12881 net.cpp:131] Top shape: 25 16 112 112 (5017600)
I1010 14:26:42.798072 12881 net.cpp:139] Memory required for data: 311091600
I1010 14:26:42.798079 12881 layer_factory.hpp:77] Creating layer conv3_0/1x1_increase
I1010 14:26:42.798087 12881 net.cpp:86] Creating Layer conv3_0/1x1_increase
I1010 14:26:42.798094 12881 net.cpp:409] conv3_0/1x1_increase <- conv2_0/1x1_decrease/bn
I1010 14:26:42.798099 12881 net.cpp:383] conv3_0/1x1_increase -> conv3_0/1x1_increase/bn
I1010 14:26:42.798974 12881 net.cpp:124] Setting up conv3_0/1x1_increase
I1010 14:26:42.798990 12881 net.cpp:131] Top shape: 25 48 112 112 (15052800)
I1010 14:26:42.798996 12881 net.cpp:139] Memory required for data: 371302800
I1010 14:26:42.799005 12881 layer_factory.hpp:77] Creating layer conv3_0/1x1_increase/relu
I1010 14:26:42.799015 12881 net.cpp:86] Creating Layer conv3_0/1x1_increase/relu
I1010 14:26:42.799021 12881 net.cpp:409] conv3_0/1x1_increase/relu <- conv3_0/1x1_increase/bn
I1010 14:26:42.799028 12881 net.cpp:370] conv3_0/1x1_increase/relu -> conv3_0/1x1_increase/bn (in-place)
I1010 14:26:42.799964 12881 net.cpp:124] Setting up conv3_0/1x1_increase/relu
I1010 14:26:42.799980 12881 net.cpp:131] Top shape: 25 48 112 112 (15052800)
I1010 14:26:42.799986 12881 net.cpp:139] Memory required for data: 431514000
I1010 14:26:42.799991 12881 layer_factory.hpp:77] Creating layer conv3_0/1x1_increase/bn_fixed_point
I1010 14:26:42.800004 12881 net.cpp:86] Creating Layer conv3_0/1x1_increase/bn_fixed_point
I1010 14:26:42.800009 12881 net.cpp:409] conv3_0/1x1_increase/bn_fixed_point <- conv3_0/1x1_increase/bn
I1010 14:26:42.800030 12881 net.cpp:370] conv3_0/1x1_increase/bn_fixed_point -> conv3_0/1x1_increase/bn (in-place)
I1010 14:26:42.800072 12881 net.cpp:124] Setting up conv3_0/1x1_increase/bn_fixed_point
I1010 14:26:42.800081 12881 net.cpp:131] Top shape: 25 48 112 112 (15052800)
I1010 14:26:42.800084 12881 net.cpp:139] Memory required for data: 491725200
I1010 14:26:42.800091 12881 layer_factory.hpp:77] Creating layer conv3_0/3x3_dwconv
I1010 14:26:42.800101 12881 net.cpp:86] Creating Layer conv3_0/3x3_dwconv
I1010 14:26:42.800107 12881 net.cpp:409] conv3_0/3x3_dwconv <- conv3_0/1x1_increase/bn
I1010 14:26:42.800113 12881 net.cpp:383] conv3_0/3x3_dwconv -> conv3_0/3x3_dwconv/bn
I1010 14:26:42.802250 12881 net.cpp:124] Setting up conv3_0/3x3_dwconv
I1010 14:26:42.802266 12881 net.cpp:131] Top shape: 25 48 56 56 (3763200)
I1010 14:26:42.802271 12881 net.cpp:139] Memory required for data: 506778000
I1010 14:26:42.802279 12881 layer_factory.hpp:77] Creating layer conv3_0/3x3_dwconv/relu
I1010 14:26:42.802291 12881 net.cpp:86] Creating Layer conv3_0/3x3_dwconv/relu
I1010 14:26:42.802297 12881 net.cpp:409] conv3_0/3x3_dwconv/relu <- conv3_0/3x3_dwconv/bn
I1010 14:26:42.802304 12881 net.cpp:370] conv3_0/3x3_dwconv/relu -> conv3_0/3x3_dwconv/bn (in-place)
I1010 14:26:42.803016 12881 net.cpp:124] Setting up conv3_0/3x3_dwconv/relu
I1010 14:26:42.803030 12881 net.cpp:131] Top shape: 25 48 56 56 (3763200)
I1010 14:26:42.803035 12881 net.cpp:139] Memory required for data: 521830800
I1010 14:26:42.803040 12881 layer_factory.hpp:77] Creating layer conv3_0/3x3_dwconv/bn_fixed_point
I1010 14:26:42.803057 12881 net.cpp:86] Creating Layer conv3_0/3x3_dwconv/bn_fixed_point
I1010 14:26:42.803062 12881 net.cpp:409] conv3_0/3x3_dwconv/bn_fixed_point <- conv3_0/3x3_dwconv/bn
I1010 14:26:42.803068 12881 net.cpp:370] conv3_0/3x3_dwconv/bn_fixed_point -> conv3_0/3x3_dwconv/bn (in-place)
I1010 14:26:42.803107 12881 net.cpp:124] Setting up conv3_0/3x3_dwconv/bn_fixed_point
I1010 14:26:42.803115 12881 net.cpp:131] Top shape: 25 48 56 56 (3763200)
I1010 14:26:42.803119 12881 net.cpp:139] Memory required for data: 536883600
I1010 14:26:42.803124 12881 layer_factory.hpp:77] Creating layer conv3_0/1x1_decrease
I1010 14:26:42.803138 12881 net.cpp:86] Creating Layer conv3_0/1x1_decrease
I1010 14:26:42.803143 12881 net.cpp:409] conv3_0/1x1_decrease <- conv3_0/3x3_dwconv/bn
I1010 14:26:42.803151 12881 net.cpp:383] conv3_0/1x1_decrease -> conv3_0/1x1_decrease/bn
I1010 14:26:42.803969 12881 net.cpp:124] Setting up conv3_0/1x1_decrease
I1010 14:26:42.803989 12881 net.cpp:131] Top shape: 25 32 56 56 (2508800)
I1010 14:26:42.803995 12881 net.cpp:139] Memory required for data: 546918800
I1010 14:26:42.804008 12881 layer_factory.hpp:77] Creating layer conv3_0/1x1_decrease/bn_fixed_point
I1010 14:26:42.804024 12881 net.cpp:86] Creating Layer conv3_0/1x1_decrease/bn_fixed_point
I1010 14:26:42.804029 12881 net.cpp:409] conv3_0/1x1_decrease/bn_fixed_point <- conv3_0/1x1_decrease/bn
I1010 14:26:42.804035 12881 net.cpp:370] conv3_0/1x1_decrease/bn_fixed_point -> conv3_0/1x1_decrease/bn (in-place)
I1010 14:26:42.804075 12881 net.cpp:124] Setting up conv3_0/1x1_decrease/bn_fixed_point
I1010 14:26:42.804083 12881 net.cpp:131] Top shape: 25 32 56 56 (2508800)
I1010 14:26:42.804087 12881 net.cpp:139] Memory required for data: 556954000
I1010 14:26:42.804095 12881 layer_factory.hpp:77] Creating layer conv3_0/1x1_decrease/bn_conv3_0/1x1_decrease/bn_fixed_point_0_split
I1010 14:26:42.804101 12881 net.cpp:86] Creating Layer conv3_0/1x1_decrease/bn_conv3_0/1x1_decrease/bn_fixed_point_0_split
I1010 14:26:42.804113 12881 net.cpp:409] conv3_0/1x1_decrease/bn_conv3_0/1x1_decrease/bn_fixed_point_0_split <- conv3_0/1x1_decrease/bn
I1010 14:26:42.804121 12881 net.cpp:383] conv3_0/1x1_decrease/bn_conv3_0/1x1_decrease/bn_fixed_point_0_split -> conv3_0/1x1_decrease/bn_conv3_0/1x1_decrease/bn_fixed_point_0_split_0
I1010 14:26:42.804134 12881 net.cpp:383] conv3_0/1x1_decrease/bn_conv3_0/1x1_decrease/bn_fixed_point_0_split -> conv3_0/1x1_decrease/bn_conv3_0/1x1_decrease/bn_fixed_point_0_split_1
I1010 14:26:42.804198 12881 net.cpp:124] Setting up conv3_0/1x1_decrease/bn_conv3_0/1x1_decrease/bn_fixed_point_0_split
I1010 14:26:42.804209 12881 net.cpp:131] Top shape: 25 32 56 56 (2508800)
I1010 14:26:42.804214 12881 net.cpp:131] Top shape: 25 32 56 56 (2508800)
I1010 14:26:42.804217 12881 net.cpp:139] Memory required for data: 577024400
I1010 14:26:42.804222 12881 layer_factory.hpp:77] Creating layer conv3_1/1x1_increase
I1010 14:26:42.804231 12881 net.cpp:86] Creating Layer conv3_1/1x1_increase
I1010 14:26:42.804237 12881 net.cpp:409] conv3_1/1x1_increase <- conv3_0/1x1_decrease/bn_conv3_0/1x1_decrease/bn_fixed_point_0_split_0
I1010 14:26:42.804245 12881 net.cpp:383] conv3_1/1x1_increase -> conv3_1/1x1_increase/bn
I1010 14:26:42.804956 12881 net.cpp:124] Setting up conv3_1/1x1_increase
I1010 14:26:42.804970 12881 net.cpp:131] Top shape: 25 96 56 56 (7526400)
I1010 14:26:42.804975 12881 net.cpp:139] Memory required for data: 607130000
I1010 14:26:42.804981 12881 layer_factory.hpp:77] Creating layer conv3_1/1x1_increase/relu
I1010 14:26:42.804991 12881 net.cpp:86] Creating Layer conv3_1/1x1_increase/relu
I1010 14:26:42.804996 12881 net.cpp:409] conv3_1/1x1_increase/relu <- conv3_1/1x1_increase/bn
I1010 14:26:42.805002 12881 net.cpp:370] conv3_1/1x1_increase/relu -> conv3_1/1x1_increase/bn (in-place)
I1010 14:26:42.805703 12881 net.cpp:124] Setting up conv3_1/1x1_increase/relu
I1010 14:26:42.805719 12881 net.cpp:131] Top shape: 25 96 56 56 (7526400)
I1010 14:26:42.805723 12881 net.cpp:139] Memory required for data: 637235600
I1010 14:26:42.805728 12881 layer_factory.hpp:77] Creating layer conv3_1/1x1_increase/bn_fixed_point
I1010 14:26:42.805735 12881 net.cpp:86] Creating Layer conv3_1/1x1_increase/bn_fixed_point
I1010 14:26:42.805742 12881 net.cpp:409] conv3_1/1x1_increase/bn_fixed_point <- conv3_1/1x1_increase/bn
I1010 14:26:42.805760 12881 net.cpp:370] conv3_1/1x1_increase/bn_fixed_point -> conv3_1/1x1_increase/bn (in-place)
I1010 14:26:42.805796 12881 net.cpp:124] Setting up conv3_1/1x1_increase/bn_fixed_point
I1010 14:26:42.805812 12881 net.cpp:131] Top shape: 25 96 56 56 (7526400)
I1010 14:26:42.805816 12881 net.cpp:139] Memory required for data: 667341200
I1010 14:26:42.805821 12881 layer_factory.hpp:77] Creating layer conv3_1/3x3_dwconv
I1010 14:26:42.805832 12881 net.cpp:86] Creating Layer conv3_1/3x3_dwconv
I1010 14:26:42.805837 12881 net.cpp:409] conv3_1/3x3_dwconv <- conv3_1/1x1_increase/bn
I1010 14:26:42.805846 12881 net.cpp:383] conv3_1/3x3_dwconv -> conv3_1/3x3_dwconv/bn
I1010 14:26:42.806690 12881 net.cpp:124] Setting up conv3_1/3x3_dwconv
I1010 14:26:42.806706 12881 net.cpp:131] Top shape: 25 96 56 56 (7526400)
I1010 14:26:42.806716 12881 net.cpp:139] Memory required for data: 697446800
I1010 14:26:42.806725 12881 layer_factory.hpp:77] Creating layer conv3_1/3x3_dwconv/relu
I1010 14:26:42.806735 12881 net.cpp:86] Creating Layer conv3_1/3x3_dwconv/relu
I1010 14:26:42.806740 12881 net.cpp:409] conv3_1/3x3_dwconv/relu <- conv3_1/3x3_dwconv/bn
I1010 14:26:42.806746 12881 net.cpp:370] conv3_1/3x3_dwconv/relu -> conv3_1/3x3_dwconv/bn (in-place)
I1010 14:26:42.807696 12881 net.cpp:124] Setting up conv3_1/3x3_dwconv/relu
I1010 14:26:42.807716 12881 net.cpp:131] Top shape: 25 96 56 56 (7526400)
I1010 14:26:42.807720 12881 net.cpp:139] Memory required for data: 727552400
I1010 14:26:42.807726 12881 layer_factory.hpp:77] Creating layer conv3_1/3x3_dwconv/bn_fixed_point
I1010 14:26:42.807734 12881 net.cpp:86] Creating Layer conv3_1/3x3_dwconv/bn_fixed_point
I1010 14:26:42.807741 12881 net.cpp:409] conv3_1/3x3_dwconv/bn_fixed_point <- conv3_1/3x3_dwconv/bn
I1010 14:26:42.807750 12881 net.cpp:370] conv3_1/3x3_dwconv/bn_fixed_point -> conv3_1/3x3_dwconv/bn (in-place)
I1010 14:26:42.807788 12881 net.cpp:124] Setting up conv3_1/3x3_dwconv/bn_fixed_point
I1010 14:26:42.807796 12881 net.cpp:131] Top shape: 25 96 56 56 (7526400)
I1010 14:26:42.807799 12881 net.cpp:139] Memory required for data: 757658000
I1010 14:26:42.807813 12881 layer_factory.hpp:77] Creating layer conv3_1/1x1_decrease
I1010 14:26:42.807826 12881 net.cpp:86] Creating Layer conv3_1/1x1_decrease
I1010 14:26:42.807844 12881 net.cpp:409] conv3_1/1x1_decrease <- conv3_1/3x3_dwconv/bn
I1010 14:26:42.807854 12881 net.cpp:383] conv3_1/1x1_decrease -> conv3_1/1x1_decrease/bn
I1010 14:26:42.808562 12881 net.cpp:124] Setting up conv3_1/1x1_decrease
I1010 14:26:42.808575 12881 net.cpp:131] Top shape: 25 32 56 56 (2508800)
I1010 14:26:42.808578 12881 net.cpp:139] Memory required for data: 767693200
I1010 14:26:42.808586 12881 layer_factory.hpp:77] Creating layer conv3_1/elt_sum
I1010 14:26:42.808604 12881 net.cpp:86] Creating Layer conv3_1/elt_sum
I1010 14:26:42.808609 12881 net.cpp:409] conv3_1/elt_sum <- conv3_0/1x1_decrease/bn_conv3_0/1x1_decrease/bn_fixed_point_0_split_1
I1010 14:26:42.808619 12881 net.cpp:409] conv3_1/elt_sum <- conv3_1/1x1_decrease/bn
I1010 14:26:42.808625 12881 net.cpp:383] conv3_1/elt_sum -> conv3_1/elt_sum
I1010 14:26:42.808670 12881 net.cpp:124] Setting up conv3_1/elt_sum
I1010 14:26:42.808678 12881 net.cpp:131] Top shape: 25 32 56 56 (2508800)
I1010 14:26:42.808681 12881 net.cpp:139] Memory required for data: 777728400
I1010 14:26:42.808684 12881 layer_factory.hpp:77] Creating layer conv3_1/elt_sum_fixed_point
I1010 14:26:42.808693 12881 net.cpp:86] Creating Layer conv3_1/elt_sum_fixed_point
I1010 14:26:42.808697 12881 net.cpp:409] conv3_1/elt_sum_fixed_point <- conv3_1/elt_sum
I1010 14:26:42.808702 12881 net.cpp:370] conv3_1/elt_sum_fixed_point -> conv3_1/elt_sum (in-place)
I1010 14:26:42.808732 12881 net.cpp:124] Setting up conv3_1/elt_sum_fixed_point
I1010 14:26:42.808738 12881 net.cpp:131] Top shape: 25 32 56 56 (2508800)
I1010 14:26:42.808743 12881 net.cpp:139] Memory required for data: 787763600
I1010 14:26:42.808748 12881 layer_factory.hpp:77] Creating layer conv4_0/1x1_increase
I1010 14:26:42.808758 12881 net.cpp:86] Creating Layer conv4_0/1x1_increase
I1010 14:26:42.808763 12881 net.cpp:409] conv4_0/1x1_increase <- conv3_1/elt_sum
I1010 14:26:42.808770 12881 net.cpp:383] conv4_0/1x1_increase -> conv4_0/1x1_increase/bn
I1010 14:26:42.809466 12881 net.cpp:124] Setting up conv4_0/1x1_increase
I1010 14:26:42.809482 12881 net.cpp:131] Top shape: 25 96 56 56 (7526400)
I1010 14:26:42.809486 12881 net.cpp:139] Memory required for data: 817869200
I1010 14:26:42.809494 12881 layer_factory.hpp:77] Creating layer conv4_0/1x1_increase/hardswish
I1010 14:26:42.809504 12881 net.cpp:86] Creating Layer conv4_0/1x1_increase/hardswish
I1010 14:26:42.809507 12881 net.cpp:409] conv4_0/1x1_increase/hardswish <- conv4_0/1x1_increase/bn
I1010 14:26:42.809514 12881 net.cpp:370] conv4_0/1x1_increase/hardswish -> conv4_0/1x1_increase/bn (in-place)
I1010 14:26:42.809551 12881 net.cpp:124] Setting up conv4_0/1x1_increase/hardswish
I1010 14:26:42.809559 12881 net.cpp:131] Top shape: 25 96 56 56 (7526400)
I1010 14:26:42.809562 12881 net.cpp:139] Memory required for data: 847974800
I1010 14:26:42.809566 12881 layer_factory.hpp:77] Creating layer conv4_0/1x1_increase/bn_fixed_point
I1010 14:26:42.809572 12881 net.cpp:86] Creating Layer conv4_0/1x1_increase/bn_fixed_point
I1010 14:26:42.809578 12881 net.cpp:409] conv4_0/1x1_increase/bn_fixed_point <- conv4_0/1x1_increase/bn
I1010 14:26:42.809583 12881 net.cpp:370] conv4_0/1x1_increase/bn_fixed_point -> conv4_0/1x1_increase/bn (in-place)
I1010 14:26:42.809612 12881 net.cpp:124] Setting up conv4_0/1x1_increase/bn_fixed_point
I1010 14:26:42.809617 12881 net.cpp:131] Top shape: 25 96 56 56 (7526400)
I1010 14:26:42.809621 12881 net.cpp:139] Memory required for data: 878080400
I1010 14:26:42.809626 12881 layer_factory.hpp:77] Creating layer conv4_0/1x1_increase/slice
I1010 14:26:42.809646 12881 net.cpp:86] Creating Layer conv4_0/1x1_increase/slice
I1010 14:26:42.809657 12881 net.cpp:409] conv4_0/1x1_increase/slice <- conv4_0/1x1_increase/bn
I1010 14:26:42.809664 12881 net.cpp:383] conv4_0/1x1_increase/slice -> conv4_0/1x1_increase/split1
I1010 14:26:42.809674 12881 net.cpp:383] conv4_0/1x1_increase/slice -> conv4_0/1x1_increase/split2
I1010 14:26:42.809682 12881 net.cpp:383] conv4_0/1x1_increase/slice -> conv4_0/1x1_increase/split3
I1010 14:26:42.809769 12881 net.cpp:124] Setting up conv4_0/1x1_increase/slice
I1010 14:26:42.809777 12881 net.cpp:131] Top shape: 25 32 56 56 (2508800)
I1010 14:26:42.809782 12881 net.cpp:131] Top shape: 25 32 56 56 (2508800)
I1010 14:26:42.809787 12881 net.cpp:131] Top shape: 25 32 56 56 (2508800)
I1010 14:26:42.809790 12881 net.cpp:139] Memory required for data: 908186000
I1010 14:26:42.809798 12881 layer_factory.hpp:77] Creating layer conv4_0/3x3_dwconv/slice_0
I1010 14:26:42.809814 12881 net.cpp:86] Creating Layer conv4_0/3x3_dwconv/slice_0
I1010 14:26:42.809818 12881 net.cpp:409] conv4_0/3x3_dwconv/slice_0 <- conv4_0/1x1_increase/split1
I1010 14:26:42.809825 12881 net.cpp:383] conv4_0/3x3_dwconv/slice_0 -> conv4_0/3x3_dwconv/slice_0/bn
I1010 14:26:42.810451 12881 net.cpp:124] Setting up conv4_0/3x3_dwconv/slice_0
I1010 14:26:42.810463 12881 net.cpp:131] Top shape: 25 32 28 28 (627200)
I1010 14:26:42.810467 12881 net.cpp:139] Memory required for data: 910694800
I1010 14:26:42.810479 12881 layer_factory.hpp:77] Creating layer conv4_0/3x3_dwconv/slice_0/hardswish
I1010 14:26:42.810487 12881 net.cpp:86] Creating Layer conv4_0/3x3_dwconv/slice_0/hardswish
I1010 14:26:42.810492 12881 net.cpp:409] conv4_0/3x3_dwconv/slice_0/hardswish <- conv4_0/3x3_dwconv/slice_0/bn
I1010 14:26:42.810499 12881 net.cpp:370] conv4_0/3x3_dwconv/slice_0/hardswish -> conv4_0/3x3_dwconv/slice_0/bn (in-place)
I1010 14:26:42.810534 12881 net.cpp:124] Setting up conv4_0/3x3_dwconv/slice_0/hardswish
I1010 14:26:42.810541 12881 net.cpp:131] Top shape: 25 32 28 28 (627200)
I1010 14:26:42.810545 12881 net.cpp:139] Memory required for data: 913203600
I1010 14:26:42.810549 12881 layer_factory.hpp:77] Creating layer conv4_0/3x3_dwconv/slice_1
I1010 14:26:42.810559 12881 net.cpp:86] Creating Layer conv4_0/3x3_dwconv/slice_1
I1010 14:26:42.810564 12881 net.cpp:409] conv4_0/3x3_dwconv/slice_1 <- conv4_0/1x1_increase/split2
I1010 14:26:42.810573 12881 net.cpp:383] conv4_0/3x3_dwconv/slice_1 -> conv4_0/3x3_dwconv/slice_1/bn
I1010 14:26:42.811410 12881 net.cpp:124] Setting up conv4_0/3x3_dwconv/slice_1
I1010 14:26:42.811425 12881 net.cpp:131] Top shape: 25 32 28 28 (627200)
I1010 14:26:42.811429 12881 net.cpp:139] Memory required for data: 915712400
I1010 14:26:42.811437 12881 layer_factory.hpp:77] Creating layer conv4_0/3x3_dwconv/slice_1/hardswish
I1010 14:26:42.811447 12881 net.cpp:86] Creating Layer conv4_0/3x3_dwconv/slice_1/hardswish
I1010 14:26:42.811452 12881 net.cpp:409] conv4_0/3x3_dwconv/slice_1/hardswish <- conv4_0/3x3_dwconv/slice_1/bn
I1010 14:26:42.811460 12881 net.cpp:370] conv4_0/3x3_dwconv/slice_1/hardswish -> conv4_0/3x3_dwconv/slice_1/bn (in-place)
I1010 14:26:42.811499 12881 net.cpp:124] Setting up conv4_0/3x3_dwconv/slice_1/hardswish
I1010 14:26:42.811507 12881 net.cpp:131] Top shape: 25 32 28 28 (627200)
I1010 14:26:42.811511 12881 net.cpp:139] Memory required for data: 918221200
I1010 14:26:42.811516 12881 layer_factory.hpp:77] Creating layer conv4_0/3x3_dwconv/slice_2
I1010 14:26:42.811527 12881 net.cpp:86] Creating Layer conv4_0/3x3_dwconv/slice_2
I1010 14:26:42.811532 12881 net.cpp:409] conv4_0/3x3_dwconv/slice_2 <- conv4_0/1x1_increase/split3
I1010 14:26:42.811538 12881 net.cpp:383] conv4_0/3x3_dwconv/slice_2 -> conv4_0/3x3_dwconv/slice_2/bn
I1010 14:26:42.812413 12881 net.cpp:124] Setting up conv4_0/3x3_dwconv/slice_2
I1010 14:26:42.812429 12881 net.cpp:131] Top shape: 25 32 28 28 (627200)
I1010 14:26:42.812433 12881 net.cpp:139] Memory required for data: 920730000
I1010 14:26:42.812441 12881 layer_factory.hpp:77] Creating layer conv4_0/3x3_dwconv/slice_2/hardswish
I1010 14:26:42.812448 12881 net.cpp:86] Creating Layer conv4_0/3x3_dwconv/slice_2/hardswish
I1010 14:26:42.812454 12881 net.cpp:409] conv4_0/3x3_dwconv/slice_2/hardswish <- conv4_0/3x3_dwconv/slice_2/bn
I1010 14:26:42.812460 12881 net.cpp:370] conv4_0/3x3_dwconv/slice_2/hardswish -> conv4_0/3x3_dwconv/slice_2/bn (in-place)
I1010 14:26:42.812500 12881 net.cpp:124] Setting up conv4_0/3x3_dwconv/slice_2/hardswish
I1010 14:26:42.812508 12881 net.cpp:131] Top shape: 25 32 28 28 (627200)
I1010 14:26:42.812527 12881 net.cpp:139] Memory required for data: 923238800
I1010 14:26:42.812531 12881 layer_factory.hpp:77] Creating layer conv4_0/3x3_dwconv/concat
I1010 14:26:42.812543 12881 net.cpp:86] Creating Layer conv4_0/3x3_dwconv/concat
I1010 14:26:42.812548 12881 net.cpp:409] conv4_0/3x3_dwconv/concat <- conv4_0/3x3_dwconv/slice_0/bn
I1010 14:26:42.812553 12881 net.cpp:409] conv4_0/3x3_dwconv/concat <- conv4_0/3x3_dwconv/slice_1/bn
I1010 14:26:42.812558 12881 net.cpp:409] conv4_0/3x3_dwconv/concat <- conv4_0/3x3_dwconv/slice_2/bn
I1010 14:26:42.812566 12881 net.cpp:383] conv4_0/3x3_dwconv/concat -> conv4_0/3x3_dwconv/concat
I1010 14:26:42.812604 12881 net.cpp:124] Setting up conv4_0/3x3_dwconv/concat
I1010 14:26:42.812613 12881 net.cpp:131] Top shape: 25 96 28 28 (1881600)
I1010 14:26:42.812615 12881 net.cpp:139] Memory required for data: 930765200
I1010 14:26:42.812619 12881 layer_factory.hpp:77] Creating layer conv4_0/3x3_dwconv/concat_fixed_point
I1010 14:26:42.812625 12881 net.cpp:86] Creating Layer conv4_0/3x3_dwconv/concat_fixed_point
I1010 14:26:42.812630 12881 net.cpp:409] conv4_0/3x3_dwconv/concat_fixed_point <- conv4_0/3x3_dwconv/concat
I1010 14:26:42.812638 12881 net.cpp:370] conv4_0/3x3_dwconv/concat_fixed_point -> conv4_0/3x3_dwconv/concat (in-place)
I1010 14:26:42.812666 12881 net.cpp:124] Setting up conv4_0/3x3_dwconv/concat_fixed_point
I1010 14:26:42.812674 12881 net.cpp:131] Top shape: 25 96 28 28 (1881600)
I1010 14:26:42.812677 12881 net.cpp:139] Memory required for data: 938291600
I1010 14:26:42.812683 12881 layer_factory.hpp:77] Creating layer conv4_0/3x3_dwconv/concat_conv4_0/3x3_dwconv/concat_fixed_point_0_split
I1010 14:26:42.812692 12881 net.cpp:86] Creating Layer conv4_0/3x3_dwconv/concat_conv4_0/3x3_dwconv/concat_fixed_point_0_split
I1010 14:26:42.812698 12881 net.cpp:409] conv4_0/3x3_dwconv/concat_conv4_0/3x3_dwconv/concat_fixed_point_0_split <- conv4_0/3x3_dwconv/concat
I1010 14:26:42.812706 12881 net.cpp:383] conv4_0/3x3_dwconv/concat_conv4_0/3x3_dwconv/concat_fixed_point_0_split -> conv4_0/3x3_dwconv/concat_conv4_0/3x3_dwconv/concat_fixed_point_0_split_0
I1010 14:26:42.812712 12881 net.cpp:383] conv4_0/3x3_dwconv/concat_conv4_0/3x3_dwconv/concat_fixed_point_0_split -> conv4_0/3x3_dwconv/concat_conv4_0/3x3_dwconv/concat_fixed_point_0_split_1
I1010 14:26:42.812758 12881 net.cpp:124] Setting up conv4_0/3x3_dwconv/concat_conv4_0/3x3_dwconv/concat_fixed_point_0_split
I1010 14:26:42.812767 12881 net.cpp:131] Top shape: 25 96 28 28 (1881600)
I1010 14:26:42.812770 12881 net.cpp:131] Top shape: 25 96 28 28 (1881600)
I1010 14:26:42.812774 12881 net.cpp:139] Memory required for data: 953344400
I1010 14:26:42.812777 12881 layer_factory.hpp:77] Creating layer conv4_0/3x3_dwconv/SE_global_pool
I1010 14:26:42.812793 12881 net.cpp:86] Creating Layer conv4_0/3x3_dwconv/SE_global_pool
I1010 14:26:42.812798 12881 net.cpp:409] conv4_0/3x3_dwconv/SE_global_pool <- conv4_0/3x3_dwconv/concat_conv4_0/3x3_dwconv/concat_fixed_point_0_split_0
I1010 14:26:42.812803 12881 net.cpp:383] conv4_0/3x3_dwconv/SE_global_pool -> conv4_0/3x3_dwconv/SE_global_pool
I1010 14:26:42.812855 12881 net.cpp:124] Setting up conv4_0/3x3_dwconv/SE_global_pool
I1010 14:26:42.812862 12881 net.cpp:131] Top shape: 25 96 1 1 (2400)
I1010 14:26:42.812865 12881 net.cpp:139] Memory required for data: 953354000
I1010 14:26:42.812870 12881 layer_factory.hpp:77] Creating layer conv4_0/3x3_dwconv/SE_bn
I1010 14:26:42.812883 12881 net.cpp:86] Creating Layer conv4_0/3x3_dwconv/SE_bn
I1010 14:26:42.812888 12881 net.cpp:409] conv4_0/3x3_dwconv/SE_bn <- conv4_0/3x3_dwconv/SE_global_pool
I1010 14:26:42.812893 12881 net.cpp:383] conv4_0/3x3_dwconv/SE_bn -> conv4_0/3x3_dwconv/SE_bn
I1010 14:26:42.812960 12881 layer_factory.hpp:77] Creating layer conv4_0/3x3_dwconv/SE_bn
I1010 14:26:42.813112 12881 net.cpp:124] Setting up conv4_0/3x3_dwconv/SE_bn
I1010 14:26:42.813119 12881 net.cpp:131] Top shape: 25 96 1 1 (2400)
I1010 14:26:42.813122 12881 net.cpp:139] Memory required for data: 953363600
I1010 14:26:42.813130 12881 layer_factory.hpp:77] Creating layer conv4_0/3x3_dwconv/SE_fc1
I1010 14:26:42.813153 12881 net.cpp:86] Creating Layer conv4_0/3x3_dwconv/SE_fc1
I1010 14:26:42.813159 12881 net.cpp:409] conv4_0/3x3_dwconv/SE_fc1 <- conv4_0/3x3_dwconv/SE_bn
I1010 14:26:42.813166 12881 net.cpp:383] conv4_0/3x3_dwconv/SE_fc1 -> conv4_0/3x3_dwconv/SE_fc1
I1010 14:26:42.813614 12881 net.cpp:124] Setting up conv4_0/3x3_dwconv/SE_fc1
I1010 14:26:42.813627 12881 net.cpp:131] Top shape: 25 6 1 1 (150)
I1010 14:26:42.813632 12881 net.cpp:139] Memory required for data: 953364200
I1010 14:26:42.813638 12881 layer_factory.hpp:77] Creating layer conv4_0/3x3_dwconv/SE_fc1/relu
I1010 14:26:42.813645 12881 net.cpp:86] Creating Layer conv4_0/3x3_dwconv/SE_fc1/relu
I1010 14:26:42.813652 12881 net.cpp:409] conv4_0/3x3_dwconv/SE_fc1/relu <- conv4_0/3x3_dwconv/SE_fc1
I1010 14:26:42.813659 12881 net.cpp:370] conv4_0/3x3_dwconv/SE_fc1/relu -> conv4_0/3x3_dwconv/SE_fc1 (in-place)
I1010 14:26:42.814360 12881 net.cpp:124] Setting up conv4_0/3x3_dwconv/SE_fc1/relu
I1010 14:26:42.814374 12881 net.cpp:131] Top shape: 25 6 1 1 (150)
I1010 14:26:42.814378 12881 net.cpp:139] Memory required for data: 953364800
I1010 14:26:42.814383 12881 layer_factory.hpp:77] Creating layer conv4_0/3x3_dwconv/SE_fc2
I1010 14:26:42.814399 12881 net.cpp:86] Creating Layer conv4_0/3x3_dwconv/SE_fc2
I1010 14:26:42.814404 12881 net.cpp:409] conv4_0/3x3_dwconv/SE_fc2 <- conv4_0/3x3_dwconv/SE_fc1
I1010 14:26:42.814411 12881 net.cpp:383] conv4_0/3x3_dwconv/SE_fc2 -> conv4_0/3x3_dwconv/SE_fc2
I1010 14:26:42.814860 12881 net.cpp:124] Setting up conv4_0/3x3_dwconv/SE_fc2
I1010 14:26:42.814873 12881 net.cpp:131] Top shape: 25 96 1 1 (2400)
I1010 14:26:42.814877 12881 net.cpp:139] Memory required for data: 953374400
I1010 14:26:42.814884 12881 layer_factory.hpp:77] Creating layer conv4_0/3x3_dwconv/SE_weights
I1010 14:26:42.814893 12881 net.cpp:86] Creating Layer conv4_0/3x3_dwconv/SE_weights
I1010 14:26:42.814898 12881 net.cpp:409] conv4_0/3x3_dwconv/SE_weights <- conv4_0/3x3_dwconv/SE_fc2
I1010 14:26:42.814906 12881 net.cpp:370] conv4_0/3x3_dwconv/SE_weights -> conv4_0/3x3_dwconv/SE_fc2 (in-place)
I1010 14:26:42.815579 12881 net.cpp:124] Setting up conv4_0/3x3_dwconv/SE_weights
I1010 14:26:42.815593 12881 net.cpp:131] Top shape: 25 96 1 1 (2400)
I1010 14:26:42.815596 12881 net.cpp:139] Memory required for data: 953384000
I1010 14:26:42.815608 12881 layer_factory.hpp:77] Creating layer conv4_0/3x3_dwconv/SE_weights/reshape
I1010 14:26:42.815619 12881 net.cpp:86] Creating Layer conv4_0/3x3_dwconv/SE_weights/reshape
I1010 14:26:42.815625 12881 net.cpp:409] conv4_0/3x3_dwconv/SE_weights/reshape <- conv4_0/3x3_dwconv/SE_fc2
I1010 14:26:42.815634 12881 net.cpp:383] conv4_0/3x3_dwconv/SE_weights/reshape -> conv4_0/3x3_dwconv/SE_weights/reshape
I1010 14:26:42.815690 12881 net.cpp:124] Setting up conv4_0/3x3_dwconv/SE_weights/reshape
I1010 14:26:42.815699 12881 net.cpp:131] Top shape: 25 96 (2400)
I1010 14:26:42.815703 12881 net.cpp:139] Memory required for data: 953393600
I1010 14:26:42.815707 12881 layer_factory.hpp:77] Creating layer conv4_0/3x3_dwconv/scale
I1010 14:26:42.815714 12881 net.cpp:86] Creating Layer conv4_0/3x3_dwconv/scale
I1010 14:26:42.815721 12881 net.cpp:409] conv4_0/3x3_dwconv/scale <- conv4_0/3x3_dwconv/concat_conv4_0/3x3_dwconv/concat_fixed_point_0_split_1
I1010 14:26:42.815726 12881 net.cpp:409] conv4_0/3x3_dwconv/scale <- conv4_0/3x3_dwconv/SE_weights/reshape
I1010 14:26:42.815734 12881 net.cpp:383] conv4_0/3x3_dwconv/scale -> conv4_0/3x3_dwconv/scale
I1010 14:26:42.815834 12881 net.cpp:124] Setting up conv4_0/3x3_dwconv/scale
I1010 14:26:42.815843 12881 net.cpp:131] Top shape: 25 96 28 28 (1881600)
I1010 14:26:42.815847 12881 net.cpp:139] Memory required for data: 960920000
I1010 14:26:42.815850 12881 layer_factory.hpp:77] Creating layer conv4_0/3x3_dwconv/scale_fixed_point
I1010 14:26:42.815860 12881 net.cpp:86] Creating Layer conv4_0/3x3_dwconv/scale_fixed_point
I1010 14:26:42.815865 12881 net.cpp:409] conv4_0/3x3_dwconv/scale_fixed_point <- conv4_0/3x3_dwconv/scale
I1010 14:26:42.815871 12881 net.cpp:370] conv4_0/3x3_dwconv/scale_fixed_point -> conv4_0/3x3_dwconv/scale (in-place)
I1010 14:26:42.815924 12881 net.cpp:124] Setting up conv4_0/3x3_dwconv/scale_fixed_point
I1010 14:26:42.815932 12881 net.cpp:131] Top shape: 25 96 28 28 (1881600)
I1010 14:26:42.815937 12881 net.cpp:139] Memory required for data: 968446400
I1010 14:26:42.815941 12881 layer_factory.hpp:77] Creating layer conv4_0/1x1_decrease
I1010 14:26:42.815953 12881 net.cpp:86] Creating Layer conv4_0/1x1_decrease
I1010 14:26:42.815958 12881 net.cpp:409] conv4_0/1x1_decrease <- conv4_0/3x3_dwconv/scale
I1010 14:26:42.815965 12881 net.cpp:383] conv4_0/1x1_decrease -> conv4_0/1x1_decrease/bn
I1010 14:26:42.816674 12881 net.cpp:124] Setting up conv4_0/1x1_decrease
I1010 14:26:42.816687 12881 net.cpp:131] Top shape: 25 40 28 28 (784000)
I1010 14:26:42.816694 12881 net.cpp:139] Memory required for data: 971582400
I1010 14:26:42.816701 12881 layer_factory.hpp:77] Creating layer conv4_0/1x1_decrease/bn_fixed_point
I1010 14:26:42.816710 12881 net.cpp:86] Creating Layer conv4_0/1x1_decrease/bn_fixed_point
I1010 14:26:42.816715 12881 net.cpp:409] conv4_0/1x1_decrease/bn_fixed_point <- conv4_0/1x1_decrease/bn
I1010 14:26:42.816725 12881 net.cpp:370] conv4_0/1x1_decrease/bn_fixed_point -> conv4_0/1x1_decrease/bn (in-place)
I1010 14:26:42.816761 12881 net.cpp:124] Setting up conv4_0/1x1_decrease/bn_fixed_point
I1010 14:26:42.816768 12881 net.cpp:131] Top shape: 25 40 28 28 (784000)
I1010 14:26:42.816771 12881 net.cpp:139] Memory required for data: 974718400
I1010 14:26:42.816776 12881 layer_factory.hpp:77] Creating layer conv4_0/1x1_decrease/bn_conv4_0/1x1_decrease/bn_fixed_point_0_split
I1010 14:26:42.816787 12881 net.cpp:86] Creating Layer conv4_0/1x1_decrease/bn_conv4_0/1x1_decrease/bn_fixed_point_0_split
I1010 14:26:42.816792 12881 net.cpp:409] conv4_0/1x1_decrease/bn_conv4_0/1x1_decrease/bn_fixed_point_0_split <- conv4_0/1x1_decrease/bn
I1010 14:26:42.816797 12881 net.cpp:383] conv4_0/1x1_decrease/bn_conv4_0/1x1_decrease/bn_fixed_point_0_split -> conv4_0/1x1_decrease/bn_conv4_0/1x1_decrease/bn_fixed_point_0_split_0
I1010 14:26:42.816810 12881 net.cpp:383] conv4_0/1x1_decrease/bn_conv4_0/1x1_decrease/bn_fixed_point_0_split -> conv4_0/1x1_decrease/bn_conv4_0/1x1_decrease/bn_fixed_point_0_split_1
I1010 14:26:42.816859 12881 net.cpp:124] Setting up conv4_0/1x1_decrease/bn_conv4_0/1x1_decrease/bn_fixed_point_0_split
I1010 14:26:42.816867 12881 net.cpp:131] Top shape: 25 40 28 28 (784000)
I1010 14:26:42.816872 12881 net.cpp:131] Top shape: 25 40 28 28 (784000)
I1010 14:26:42.816875 12881 net.cpp:139] Memory required for data: 980990400
I1010 14:26:42.816879 12881 layer_factory.hpp:77] Creating layer conv4_1/1x1_increase
I1010 14:26:42.816890 12881 net.cpp:86] Creating Layer conv4_1/1x1_increase
I1010 14:26:42.816895 12881 net.cpp:409] conv4_1/1x1_increase <- conv4_0/1x1_decrease/bn_conv4_0/1x1_decrease/bn_fixed_point_0_split_0
I1010 14:26:42.816902 12881 net.cpp:383] conv4_1/1x1_increase -> conv4_1/1x1_increase/bn
I1010 14:26:42.817639 12881 net.cpp:124] Setting up conv4_1/1x1_increase
I1010 14:26:42.817652 12881 net.cpp:131] Top shape: 25 120 28 28 (2352000)
I1010 14:26:42.817656 12881 net.cpp:139] Memory required for data: 990398400
I1010 14:26:42.817664 12881 layer_factory.hpp:77] Creating layer conv4_1/1x1_increase/hardswish
I1010 14:26:42.817672 12881 net.cpp:86] Creating Layer conv4_1/1x1_increase/hardswish
I1010 14:26:42.817677 12881 net.cpp:409] conv4_1/1x1_increase/hardswish <- conv4_1/1x1_increase/bn
I1010 14:26:42.817684 12881 net.cpp:370] conv4_1/1x1_increase/hardswish -> conv4_1/1x1_increase/bn (in-place)
I1010 14:26:42.817721 12881 net.cpp:124] Setting up conv4_1/1x1_increase/hardswish
I1010 14:26:42.817729 12881 net.cpp:131] Top shape: 25 120 28 28 (2352000)
I1010 14:26:42.817732 12881 net.cpp:139] Memory required for data: 999806400
I1010 14:26:42.817737 12881 layer_factory.hpp:77] Creating layer conv4_1/1x1_increase/bn_fixed_point
I1010 14:26:42.817746 12881 net.cpp:86] Creating Layer conv4_1/1x1_increase/bn_fixed_point
I1010 14:26:42.817751 12881 net.cpp:409] conv4_1/1x1_increase/bn_fixed_point <- conv4_1/1x1_increase/bn
I1010 14:26:42.817781 12881 net.cpp:370] conv4_1/1x1_increase/bn_fixed_point -> conv4_1/1x1_increase/bn (in-place)
I1010 14:26:42.817826 12881 net.cpp:124] Setting up conv4_1/1x1_increase/bn_fixed_point
I1010 14:26:42.817840 12881 net.cpp:131] Top shape: 25 120 28 28 (2352000)
I1010 14:26:42.817844 12881 net.cpp:139] Memory required for data: 1009214400
I1010 14:26:42.817850 12881 layer_factory.hpp:77] Creating layer conv4_1/1x1_increase/slice
I1010 14:26:42.817859 12881 net.cpp:86] Creating Layer conv4_1/1x1_increase/slice
I1010 14:26:42.817863 12881 net.cpp:409] conv4_1/1x1_increase/slice <- conv4_1/1x1_increase/bn
I1010 14:26:42.817869 12881 net.cpp:383] conv4_1/1x1_increase/slice -> conv4_1/1x1_increase/split1
I1010 14:26:42.817878 12881 net.cpp:383] conv4_1/1x1_increase/slice -> conv4_1/1x1_increase/split2
I1010 14:26:42.817927 12881 net.cpp:124] Setting up conv4_1/1x1_increase/slice
I1010 14:26:42.817934 12881 net.cpp:131] Top shape: 25 60 28 28 (1176000)
I1010 14:26:42.817939 12881 net.cpp:131] Top shape: 25 60 28 28 (1176000)
I1010 14:26:42.817942 12881 net.cpp:139] Memory required for data: 1018622400
I1010 14:26:42.817945 12881 layer_factory.hpp:77] Creating layer conv4_1/3x3_dwconv/slice_0
I1010 14:26:42.817961 12881 net.cpp:86] Creating Layer conv4_1/3x3_dwconv/slice_0
I1010 14:26:42.817966 12881 net.cpp:409] conv4_1/3x3_dwconv/slice_0 <- conv4_1/1x1_increase/split1
I1010 14:26:42.817975 12881 net.cpp:383] conv4_1/3x3_dwconv/slice_0 -> conv4_1/3x3_dwconv/slice_0/bn
I1010 14:26:42.818575 12881 net.cpp:124] Setting up conv4_1/3x3_dwconv/slice_0
I1010 14:26:42.818588 12881 net.cpp:131] Top shape: 25 60 28 28 (1176000)
I1010 14:26:42.818593 12881 net.cpp:139] Memory required for data: 1023326400
I1010 14:26:42.818600 12881 layer_factory.hpp:77] Creating layer conv4_1/3x3_dwconv/slice_0/hardswish
I1010 14:26:42.818606 12881 net.cpp:86] Creating Layer conv4_1/3x3_dwconv/slice_0/hardswish
I1010 14:26:42.818612 12881 net.cpp:409] conv4_1/3x3_dwconv/slice_0/hardswish <- conv4_1/3x3_dwconv/slice_0/bn
I1010 14:26:42.818619 12881 net.cpp:370] conv4_1/3x3_dwconv/slice_0/hardswish -> conv4_1/3x3_dwconv/slice_0/bn (in-place)
I1010 14:26:42.818653 12881 net.cpp:124] Setting up conv4_1/3x3_dwconv/slice_0/hardswish
I1010 14:26:42.818661 12881 net.cpp:131] Top shape: 25 60 28 28 (1176000)
I1010 14:26:42.818665 12881 net.cpp:139] Memory required for data: 1028030400
I1010 14:26:42.818670 12881 layer_factory.hpp:77] Creating layer conv4_1/3x3_dwconv/slice_1
I1010 14:26:42.818684 12881 net.cpp:86] Creating Layer conv4_1/3x3_dwconv/slice_1
I1010 14:26:42.818689 12881 net.cpp:409] conv4_1/3x3_dwconv/slice_1 <- conv4_1/1x1_increase/split2
I1010 14:26:42.818696 12881 net.cpp:383] conv4_1/3x3_dwconv/slice_1 -> conv4_1/3x3_dwconv/slice_1/bn
I1010 14:26:42.819520 12881 net.cpp:124] Setting up conv4_1/3x3_dwconv/slice_1
I1010 14:26:42.819535 12881 net.cpp:131] Top shape: 25 60 28 28 (1176000)
I1010 14:26:42.819538 12881 net.cpp:139] Memory required for data: 1032734400
I1010 14:26:42.819545 12881 layer_factory.hpp:77] Creating layer conv4_1/3x3_dwconv/slice_1/hardswish
I1010 14:26:42.819556 12881 net.cpp:86] Creating Layer conv4_1/3x3_dwconv/slice_1/hardswish
I1010 14:26:42.819562 12881 net.cpp:409] conv4_1/3x3_dwconv/slice_1/hardswish <- conv4_1/3x3_dwconv/slice_1/bn
I1010 14:26:42.819567 12881 net.cpp:370] conv4_1/3x3_dwconv/slice_1/hardswish -> conv4_1/3x3_dwconv/slice_1/bn (in-place)
I1010 14:26:42.819612 12881 net.cpp:124] Setting up conv4_1/3x3_dwconv/slice_1/hardswish
I1010 14:26:42.819619 12881 net.cpp:131] Top shape: 25 60 28 28 (1176000)
I1010 14:26:42.819622 12881 net.cpp:139] Memory required for data: 1037438400
I1010 14:26:42.819627 12881 layer_factory.hpp:77] Creating layer conv4_1/3x3_dwconv/concat
I1010 14:26:42.819633 12881 net.cpp:86] Creating Layer conv4_1/3x3_dwconv/concat
I1010 14:26:42.819636 12881 net.cpp:409] conv4_1/3x3_dwconv/concat <- conv4_1/3x3_dwconv/slice_0/bn
I1010 14:26:42.819643 12881 net.cpp:409] conv4_1/3x3_dwconv/concat <- conv4_1/3x3_dwconv/slice_1/bn
I1010 14:26:42.819664 12881 net.cpp:383] conv4_1/3x3_dwconv/concat -> conv4_1/3x3_dwconv/concat
I1010 14:26:42.819697 12881 net.cpp:124] Setting up conv4_1/3x3_dwconv/concat
I1010 14:26:42.819706 12881 net.cpp:131] Top shape: 25 120 28 28 (2352000)
I1010 14:26:42.819710 12881 net.cpp:139] Memory required for data: 1046846400
I1010 14:26:42.819713 12881 layer_factory.hpp:77] Creating layer conv4_1/3x3_dwconv/concat_fixed_point
I1010 14:26:42.819721 12881 net.cpp:86] Creating Layer conv4_1/3x3_dwconv/concat_fixed_point
I1010 14:26:42.819727 12881 net.cpp:409] conv4_1/3x3_dwconv/concat_fixed_point <- conv4_1/3x3_dwconv/concat
I1010 14:26:42.819731 12881 net.cpp:370] conv4_1/3x3_dwconv/concat_fixed_point -> conv4_1/3x3_dwconv/concat (in-place)
I1010 14:26:42.819766 12881 net.cpp:124] Setting up conv4_1/3x3_dwconv/concat_fixed_point
I1010 14:26:42.819773 12881 net.cpp:131] Top shape: 25 120 28 28 (2352000)
I1010 14:26:42.819777 12881 net.cpp:139] Memory required for data: 1056254400
I1010 14:26:42.819782 12881 layer_factory.hpp:77] Creating layer conv4_1/3x3_dwconv/concat_conv4_1/3x3_dwconv/concat_fixed_point_0_split
I1010 14:26:42.819792 12881 net.cpp:86] Creating Layer conv4_1/3x3_dwconv/concat_conv4_1/3x3_dwconv/concat_fixed_point_0_split
I1010 14:26:42.819797 12881 net.cpp:409] conv4_1/3x3_dwconv/concat_conv4_1/3x3_dwconv/concat_fixed_point_0_split <- conv4_1/3x3_dwconv/concat
I1010 14:26:42.819808 12881 net.cpp:383] conv4_1/3x3_dwconv/concat_conv4_1/3x3_dwconv/concat_fixed_point_0_split -> conv4_1/3x3_dwconv/concat_conv4_1/3x3_dwconv/concat_fixed_point_0_split_0
I1010 14:26:42.819814 12881 net.cpp:383] conv4_1/3x3_dwconv/concat_conv4_1/3x3_dwconv/concat_fixed_point_0_split -> conv4_1/3x3_dwconv/concat_conv4_1/3x3_dwconv/concat_fixed_point_0_split_1
I1010 14:26:42.819860 12881 net.cpp:124] Setting up conv4_1/3x3_dwconv/concat_conv4_1/3x3_dwconv/concat_fixed_point_0_split
I1010 14:26:42.819869 12881 net.cpp:131] Top shape: 25 120 28 28 (2352000)
I1010 14:26:42.819877 12881 net.cpp:131] Top shape: 25 120 28 28 (2352000)
I1010 14:26:42.819881 12881 net.cpp:139] Memory required for data: 1075070400
I1010 14:26:42.819886 12881 layer_factory.hpp:77] Creating layer conv4_1/3x3_dwconv/SE_global_pool
I1010 14:26:42.819895 12881 net.cpp:86] Creating Layer conv4_1/3x3_dwconv/SE_global_pool
I1010 14:26:42.819900 12881 net.cpp:409] conv4_1/3x3_dwconv/SE_global_pool <- conv4_1/3x3_dwconv/concat_conv4_1/3x3_dwconv/concat_fixed_point_0_split_0
I1010 14:26:42.819908 12881 net.cpp:383] conv4_1/3x3_dwconv/SE_global_pool -> conv4_1/3x3_dwconv/SE_global_pool
I1010 14:26:42.819936 12881 net.cpp:124] Setting up conv4_1/3x3_dwconv/SE_global_pool
I1010 14:26:42.819943 12881 net.cpp:131] Top shape: 25 120 1 1 (3000)
I1010 14:26:42.819947 12881 net.cpp:139] Memory required for data: 1075082400
I1010 14:26:42.819949 12881 layer_factory.hpp:77] Creating layer conv4_1/3x3_dwconv/SE_bn
I1010 14:26:42.819959 12881 net.cpp:86] Creating Layer conv4_1/3x3_dwconv/SE_bn
I1010 14:26:42.819964 12881 net.cpp:409] conv4_1/3x3_dwconv/SE_bn <- conv4_1/3x3_dwconv/SE_global_pool
I1010 14:26:42.819972 12881 net.cpp:383] conv4_1/3x3_dwconv/SE_bn -> conv4_1/3x3_dwconv/SE_bn
I1010 14:26:42.820022 12881 layer_factory.hpp:77] Creating layer conv4_1/3x3_dwconv/SE_bn
I1010 14:26:42.820159 12881 net.cpp:124] Setting up conv4_1/3x3_dwconv/SE_bn
I1010 14:26:42.820168 12881 net.cpp:131] Top shape: 25 120 1 1 (3000)
I1010 14:26:42.820170 12881 net.cpp:139] Memory required for data: 1075094400
I1010 14:26:42.820178 12881 layer_factory.hpp:77] Creating layer conv4_1/3x3_dwconv/SE_fc1
I1010 14:26:42.820188 12881 net.cpp:86] Creating Layer conv4_1/3x3_dwconv/SE_fc1
I1010 14:26:42.820194 12881 net.cpp:409] conv4_1/3x3_dwconv/SE_fc1 <- conv4_1/3x3_dwconv/SE_bn
I1010 14:26:42.820202 12881 net.cpp:383] conv4_1/3x3_dwconv/SE_fc1 -> conv4_1/3x3_dwconv/SE_fc1
I1010 14:26:42.820626 12881 net.cpp:124] Setting up conv4_1/3x3_dwconv/SE_fc1
I1010 14:26:42.820637 12881 net.cpp:131] Top shape: 25 7 1 1 (175)
I1010 14:26:42.820642 12881 net.cpp:139] Memory required for data: 1075095100
I1010 14:26:42.820660 12881 layer_factory.hpp:77] Creating layer conv4_1/3x3_dwconv/SE_fc1/relu
I1010 14:26:42.820669 12881 net.cpp:86] Creating Layer conv4_1/3x3_dwconv/SE_fc1/relu
I1010 14:26:42.820673 12881 net.cpp:409] conv4_1/3x3_dwconv/SE_fc1/relu <- conv4_1/3x3_dwconv/SE_fc1
I1010 14:26:42.820681 12881 net.cpp:370] conv4_1/3x3_dwconv/SE_fc1/relu -> conv4_1/3x3_dwconv/SE_fc1 (in-place)
I1010 14:26:42.821447 12881 net.cpp:124] Setting up conv4_1/3x3_dwconv/SE_fc1/relu
I1010 14:26:42.821460 12881 net.cpp:131] Top shape: 25 7 1 1 (175)
I1010 14:26:42.821465 12881 net.cpp:139] Memory required for data: 1075095800
I1010 14:26:42.821468 12881 layer_factory.hpp:77] Creating layer conv4_1/3x3_dwconv/SE_fc2
I1010 14:26:42.821486 12881 net.cpp:86] Creating Layer conv4_1/3x3_dwconv/SE_fc2
I1010 14:26:42.821491 12881 net.cpp:409] conv4_1/3x3_dwconv/SE_fc2 <- conv4_1/3x3_dwconv/SE_fc1
I1010 14:26:42.821498 12881 net.cpp:383] conv4_1/3x3_dwconv/SE_fc2 -> conv4_1/3x3_dwconv/SE_fc2
I1010 14:26:42.821946 12881 net.cpp:124] Setting up conv4_1/3x3_dwconv/SE_fc2
I1010 14:26:42.821959 12881 net.cpp:131] Top shape: 25 120 1 1 (3000)
I1010 14:26:42.821962 12881 net.cpp:139] Memory required for data: 1075107800
I1010 14:26:42.821969 12881 layer_factory.hpp:77] Creating layer conv4_1/3x3_dwconv/SE_weights
I1010 14:26:42.821976 12881 net.cpp:86] Creating Layer conv4_1/3x3_dwconv/SE_weights
I1010 14:26:42.821981 12881 net.cpp:409] conv4_1/3x3_dwconv/SE_weights <- conv4_1/3x3_dwconv/SE_fc2
I1010 14:26:42.821990 12881 net.cpp:370] conv4_1/3x3_dwconv/SE_weights -> conv4_1/3x3_dwconv/SE_fc2 (in-place)
I1010 14:26:42.822839 12881 net.cpp:124] Setting up conv4_1/3x3_dwconv/SE_weights
I1010 14:26:42.822854 12881 net.cpp:131] Top shape: 25 120 1 1 (3000)
I1010 14:26:42.822858 12881 net.cpp:139] Memory required for data: 1075119800
I1010 14:26:42.822863 12881 layer_factory.hpp:77] Creating layer conv4_1/3x3_dwconv/SE_weights/reshape
I1010 14:26:42.822875 12881 net.cpp:86] Creating Layer conv4_1/3x3_dwconv/SE_weights/reshape
I1010 14:26:42.822882 12881 net.cpp:409] conv4_1/3x3_dwconv/SE_weights/reshape <- conv4_1/3x3_dwconv/SE_fc2
I1010 14:26:42.822890 12881 net.cpp:383] conv4_1/3x3_dwconv/SE_weights/reshape -> conv4_1/3x3_dwconv/SE_weights/reshape
I1010 14:26:42.822929 12881 net.cpp:124] Setting up conv4_1/3x3_dwconv/SE_weights/reshape
I1010 14:26:42.822937 12881 net.cpp:131] Top shape: 25 120 (3000)
I1010 14:26:42.822940 12881 net.cpp:139] Memory required for data: 1075131800
I1010 14:26:42.822943 12881 layer_factory.hpp:77] Creating layer conv4_1/3x3_dwconv/scale
I1010 14:26:42.822952 12881 net.cpp:86] Creating Layer conv4_1/3x3_dwconv/scale
I1010 14:26:42.822957 12881 net.cpp:409] conv4_1/3x3_dwconv/scale <- conv4_1/3x3_dwconv/concat_conv4_1/3x3_dwconv/concat_fixed_point_0_split_1
I1010 14:26:42.822963 12881 net.cpp:409] conv4_1/3x3_dwconv/scale <- conv4_1/3x3_dwconv/SE_weights/reshape
I1010 14:26:42.822968 12881 net.cpp:383] conv4_1/3x3_dwconv/scale -> conv4_1/3x3_dwconv/scale
I1010 14:26:42.823057 12881 net.cpp:124] Setting up conv4_1/3x3_dwconv/scale
I1010 14:26:42.823065 12881 net.cpp:131] Top shape: 25 120 28 28 (2352000)
I1010 14:26:42.823068 12881 net.cpp:139] Memory required for data: 1084539800
I1010 14:26:42.823071 12881 layer_factory.hpp:77] Creating layer conv4_1/3x3_dwconv/scale_fixed_point
I1010 14:26:42.823078 12881 net.cpp:86] Creating Layer conv4_1/3x3_dwconv/scale_fixed_point
I1010 14:26:42.823084 12881 net.cpp:409] conv4_1/3x3_dwconv/scale_fixed_point <- conv4_1/3x3_dwconv/scale
I1010 14:26:42.823091 12881 net.cpp:370] conv4_1/3x3_dwconv/scale_fixed_point -> conv4_1/3x3_dwconv/scale (in-place)
I1010 14:26:42.823122 12881 net.cpp:124] Setting up conv4_1/3x3_dwconv/scale_fixed_point
I1010 14:26:42.823127 12881 net.cpp:131] Top shape: 25 120 28 28 (2352000)
I1010 14:26:42.823132 12881 net.cpp:139] Memory required for data: 1093947800
I1010 14:26:42.823137 12881 layer_factory.hpp:77] Creating layer conv4_1/1x1_decrease
I1010 14:26:42.823148 12881 net.cpp:86] Creating Layer conv4_1/1x1_decrease
I1010 14:26:42.823165 12881 net.cpp:409] conv4_1/1x1_decrease <- conv4_1/3x3_dwconv/scale
I1010 14:26:42.823173 12881 net.cpp:383] conv4_1/1x1_decrease -> conv4_1/1x1_decrease/bn
I1010 14:26:42.823911 12881 net.cpp:124] Setting up conv4_1/1x1_decrease
I1010 14:26:42.823925 12881 net.cpp:131] Top shape: 25 40 28 28 (784000)
I1010 14:26:42.823928 12881 net.cpp:139] Memory required for data: 1097083800
I1010 14:26:42.823936 12881 layer_factory.hpp:77] Creating layer conv4_1/elt_sum
I1010 14:26:42.823946 12881 net.cpp:86] Creating Layer conv4_1/elt_sum
I1010 14:26:42.823951 12881 net.cpp:409] conv4_1/elt_sum <- conv4_0/1x1_decrease/bn_conv4_0/1x1_decrease/bn_fixed_point_0_split_1
I1010 14:26:42.823957 12881 net.cpp:409] conv4_1/elt_sum <- conv4_1/1x1_decrease/bn
I1010 14:26:42.823963 12881 net.cpp:383] conv4_1/elt_sum -> conv4_1/elt_sum
I1010 14:26:42.824000 12881 net.cpp:124] Setting up conv4_1/elt_sum
I1010 14:26:42.824008 12881 net.cpp:131] Top shape: 25 40 28 28 (784000)
I1010 14:26:42.824012 12881 net.cpp:139] Memory required for data: 1100219800
I1010 14:26:42.824014 12881 layer_factory.hpp:77] Creating layer conv4_1/elt_sum_fixed_point
I1010 14:26:42.824031 12881 net.cpp:86] Creating Layer conv4_1/elt_sum_fixed_point
I1010 14:26:42.824038 12881 net.cpp:409] conv4_1/elt_sum_fixed_point <- conv4_1/elt_sum
I1010 14:26:42.824044 12881 net.cpp:370] conv4_1/elt_sum_fixed_point -> conv4_1/elt_sum (in-place)
I1010 14:26:42.824074 12881 net.cpp:124] Setting up conv4_1/elt_sum_fixed_point
I1010 14:26:42.824079 12881 net.cpp:131] Top shape: 25 40 28 28 (784000)
I1010 14:26:42.824084 12881 net.cpp:139] Memory required for data: 1103355800
I1010 14:26:42.824087 12881 layer_factory.hpp:77] Creating layer conv4_1/elt_sum_conv4_1/elt_sum_fixed_point_0_split
I1010 14:26:42.824096 12881 net.cpp:86] Creating Layer conv4_1/elt_sum_conv4_1/elt_sum_fixed_point_0_split
I1010 14:26:42.824100 12881 net.cpp:409] conv4_1/elt_sum_conv4_1/elt_sum_fixed_point_0_split <- conv4_1/elt_sum
I1010 14:26:42.824107 12881 net.cpp:383] conv4_1/elt_sum_conv4_1/elt_sum_fixed_point_0_split -> conv4_1/elt_sum_conv4_1/elt_sum_fixed_point_0_split_0
I1010 14:26:42.824122 12881 net.cpp:383] conv4_1/elt_sum_conv4_1/elt_sum_fixed_point_0_split -> conv4_1/elt_sum_conv4_1/elt_sum_fixed_point_0_split_1
I1010 14:26:42.824167 12881 net.cpp:124] Setting up conv4_1/elt_sum_conv4_1/elt_sum_fixed_point_0_split
I1010 14:26:42.824173 12881 net.cpp:131] Top shape: 25 40 28 28 (784000)
I1010 14:26:42.824177 12881 net.cpp:131] Top shape: 25 40 28 28 (784000)
I1010 14:26:42.824180 12881 net.cpp:139] Memory required for data: 1109627800
I1010 14:26:42.824183 12881 layer_factory.hpp:77] Creating layer conv4_2/1x1_increase
I1010 14:26:42.824195 12881 net.cpp:86] Creating Layer conv4_2/1x1_increase
I1010 14:26:42.824199 12881 net.cpp:409] conv4_2/1x1_increase <- conv4_1/elt_sum_conv4_1/elt_sum_fixed_point_0_split_0
I1010 14:26:42.824208 12881 net.cpp:383] conv4_2/1x1_increase -> conv4_2/1x1_increase/bn
I1010 14:26:42.824970 12881 net.cpp:124] Setting up conv4_2/1x1_increase
I1010 14:26:42.824982 12881 net.cpp:131] Top shape: 25 120 28 28 (2352000)
I1010 14:26:42.824986 12881 net.cpp:139] Memory required for data: 1119035800
I1010 14:26:42.824993 12881 layer_factory.hpp:77] Creating layer conv4_2/1x1_increase/hardswish
I1010 14:26:42.825002 12881 net.cpp:86] Creating Layer conv4_2/1x1_increase/hardswish
I1010 14:26:42.825007 12881 net.cpp:409] conv4_2/1x1_increase/hardswish <- conv4_2/1x1_increase/bn
I1010 14:26:42.825013 12881 net.cpp:370] conv4_2/1x1_increase/hardswish -> conv4_2/1x1_increase/bn (in-place)
I1010 14:26:42.825049 12881 net.cpp:124] Setting up conv4_2/1x1_increase/hardswish
I1010 14:26:42.825057 12881 net.cpp:131] Top shape: 25 120 28 28 (2352000)
I1010 14:26:42.825060 12881 net.cpp:139] Memory required for data: 1128443800
I1010 14:26:42.825063 12881 layer_factory.hpp:77] Creating layer conv4_2/1x1_increase/bn_fixed_point
I1010 14:26:42.825071 12881 net.cpp:86] Creating Layer conv4_2/1x1_increase/bn_fixed_point
I1010 14:26:42.825076 12881 net.cpp:409] conv4_2/1x1_increase/bn_fixed_point <- conv4_2/1x1_increase/bn
I1010 14:26:42.825093 12881 net.cpp:370] conv4_2/1x1_increase/bn_fixed_point -> conv4_2/1x1_increase/bn (in-place)
I1010 14:26:42.825129 12881 net.cpp:124] Setting up conv4_2/1x1_increase/bn_fixed_point
I1010 14:26:42.825135 12881 net.cpp:131] Top shape: 25 120 28 28 (2352000)
I1010 14:26:42.825139 12881 net.cpp:139] Memory required for data: 1137851800
I1010 14:26:42.825155 12881 layer_factory.hpp:77] Creating layer conv4_2/1x1_increase/slice
I1010 14:26:42.825163 12881 net.cpp:86] Creating Layer conv4_2/1x1_increase/slice
I1010 14:26:42.825168 12881 net.cpp:409] conv4_2/1x1_increase/slice <- conv4_2/1x1_increase/bn
I1010 14:26:42.825176 12881 net.cpp:383] conv4_2/1x1_increase/slice -> conv4_2/1x1_increase/split1
I1010 14:26:42.825186 12881 net.cpp:383] conv4_2/1x1_increase/slice -> conv4_2/1x1_increase/split2
I1010 14:26:42.825235 12881 net.cpp:124] Setting up conv4_2/1x1_increase/slice
I1010 14:26:42.825242 12881 net.cpp:131] Top shape: 25 60 28 28 (1176000)
I1010 14:26:42.825246 12881 net.cpp:131] Top shape: 25 60 28 28 (1176000)
I1010 14:26:42.825250 12881 net.cpp:139] Memory required for data: 1147259800
I1010 14:26:42.825253 12881 layer_factory.hpp:77] Creating layer conv4_2/3x3_dwconv/slice_0
I1010 14:26:42.825270 12881 net.cpp:86] Creating Layer conv4_2/3x3_dwconv/slice_0
I1010 14:26:42.825275 12881 net.cpp:409] conv4_2/3x3_dwconv/slice_0 <- conv4_2/1x1_increase/split1
I1010 14:26:42.825281 12881 net.cpp:383] conv4_2/3x3_dwconv/slice_0 -> conv4_2/3x3_dwconv/slice_0/bn
I1010 14:26:42.825881 12881 net.cpp:124] Setting up conv4_2/3x3_dwconv/slice_0
I1010 14:26:42.825893 12881 net.cpp:131] Top shape: 25 60 28 28 (1176000)
I1010 14:26:42.825896 12881 net.cpp:139] Memory required for data: 1151963800
I1010 14:26:42.825906 12881 layer_factory.hpp:77] Creating layer conv4_2/3x3_dwconv/slice_0/hardswish
I1010 14:26:42.825913 12881 net.cpp:86] Creating Layer conv4_2/3x3_dwconv/slice_0/hardswish
I1010 14:26:42.825919 12881 net.cpp:409] conv4_2/3x3_dwconv/slice_0/hardswish <- conv4_2/3x3_dwconv/slice_0/bn
I1010 14:26:42.825925 12881 net.cpp:370] conv4_2/3x3_dwconv/slice_0/hardswish -> conv4_2/3x3_dwconv/slice_0/bn (in-place)
I1010 14:26:42.825961 12881 net.cpp:124] Setting up conv4_2/3x3_dwconv/slice_0/hardswish
I1010 14:26:42.825968 12881 net.cpp:131] Top shape: 25 60 28 28 (1176000)
I1010 14:26:42.825973 12881 net.cpp:139] Memory required for data: 1156667800
I1010 14:26:42.825976 12881 layer_factory.hpp:77] Creating layer conv4_2/3x3_dwconv/slice_1
I1010 14:26:42.825986 12881 net.cpp:86] Creating Layer conv4_2/3x3_dwconv/slice_1
I1010 14:26:42.825991 12881 net.cpp:409] conv4_2/3x3_dwconv/slice_1 <- conv4_2/1x1_increase/split2
I1010 14:26:42.825999 12881 net.cpp:383] conv4_2/3x3_dwconv/slice_1 -> conv4_2/3x3_dwconv/slice_1/bn
I1010 14:26:42.826836 12881 net.cpp:124] Setting up conv4_2/3x3_dwconv/slice_1
I1010 14:26:42.826853 12881 net.cpp:131] Top shape: 25 60 28 28 (1176000)
I1010 14:26:42.826858 12881 net.cpp:139] Memory required for data: 1161371800
I1010 14:26:42.826866 12881 layer_factory.hpp:77] Creating layer conv4_2/3x3_dwconv/slice_1/hardswish
I1010 14:26:42.826875 12881 net.cpp:86] Creating Layer conv4_2/3x3_dwconv/slice_1/hardswish
I1010 14:26:42.826880 12881 net.cpp:409] conv4_2/3x3_dwconv/slice_1/hardswish <- conv4_2/3x3_dwconv/slice_1/bn
I1010 14:26:42.826885 12881 net.cpp:370] conv4_2/3x3_dwconv/slice_1/hardswish -> conv4_2/3x3_dwconv/slice_1/bn (in-place)
I1010 14:26:42.826923 12881 net.cpp:124] Setting up conv4_2/3x3_dwconv/slice_1/hardswish
I1010 14:26:42.826931 12881 net.cpp:131] Top shape: 25 60 28 28 (1176000)
I1010 14:26:42.826934 12881 net.cpp:139] Memory required for data: 1166075800
I1010 14:26:42.826938 12881 layer_factory.hpp:77] Creating layer conv4_2/3x3_dwconv/concat
I1010 14:26:42.826946 12881 net.cpp:86] Creating Layer conv4_2/3x3_dwconv/concat
I1010 14:26:42.826951 12881 net.cpp:409] conv4_2/3x3_dwconv/concat <- conv4_2/3x3_dwconv/slice_0/bn
I1010 14:26:42.826954 12881 net.cpp:409] conv4_2/3x3_dwconv/concat <- conv4_2/3x3_dwconv/slice_1/bn
I1010 14:26:42.826963 12881 net.cpp:383] conv4_2/3x3_dwconv/concat -> conv4_2/3x3_dwconv/concat
I1010 14:26:42.827008 12881 net.cpp:124] Setting up conv4_2/3x3_dwconv/concat
I1010 14:26:42.827015 12881 net.cpp:131] Top shape: 25 120 28 28 (2352000)
I1010 14:26:42.827019 12881 net.cpp:139] Memory required for data: 1175483800
I1010 14:26:42.827023 12881 layer_factory.hpp:77] Creating layer conv4_2/3x3_dwconv/concat_fixed_point
I1010 14:26:42.827030 12881 net.cpp:86] Creating Layer conv4_2/3x3_dwconv/concat_fixed_point
I1010 14:26:42.827036 12881 net.cpp:409] conv4_2/3x3_dwconv/concat_fixed_point <- conv4_2/3x3_dwconv/concat
I1010 14:26:42.827044 12881 net.cpp:370] conv4_2/3x3_dwconv/concat_fixed_point -> conv4_2/3x3_dwconv/concat (in-place)
I1010 14:26:42.827072 12881 net.cpp:124] Setting up conv4_2/3x3_dwconv/concat_fixed_point
I1010 14:26:42.827080 12881 net.cpp:131] Top shape: 25 120 28 28 (2352000)
I1010 14:26:42.827082 12881 net.cpp:139] Memory required for data: 1184891800
I1010 14:26:42.827088 12881 layer_factory.hpp:77] Creating layer conv4_2/3x3_dwconv/concat_conv4_2/3x3_dwconv/concat_fixed_point_0_split
I1010 14:26:42.827096 12881 net.cpp:86] Creating Layer conv4_2/3x3_dwconv/concat_conv4_2/3x3_dwconv/concat_fixed_point_0_split
I1010 14:26:42.827100 12881 net.cpp:409] conv4_2/3x3_dwconv/concat_conv4_2/3x3_dwconv/concat_fixed_point_0_split <- conv4_2/3x3_dwconv/concat
I1010 14:26:42.827106 12881 net.cpp:383] conv4_2/3x3_dwconv/concat_conv4_2/3x3_dwconv/concat_fixed_point_0_split -> conv4_2/3x3_dwconv/concat_conv4_2/3x3_dwconv/concat_fixed_point_0_split_0
I1010 14:26:42.827113 12881 net.cpp:383] conv4_2/3x3_dwconv/concat_conv4_2/3x3_dwconv/concat_fixed_point_0_split -> conv4_2/3x3_dwconv/concat_conv4_2/3x3_dwconv/concat_fixed_point_0_split_1
I1010 14:26:42.827160 12881 net.cpp:124] Setting up conv4_2/3x3_dwconv/concat_conv4_2/3x3_dwconv/concat_fixed_point_0_split
I1010 14:26:42.827167 12881 net.cpp:131] Top shape: 25 120 28 28 (2352000)
I1010 14:26:42.827172 12881 net.cpp:131] Top shape: 25 120 28 28 (2352000)
I1010 14:26:42.827175 12881 net.cpp:139] Memory required for data: 1203707800
I1010 14:26:42.827178 12881 layer_factory.hpp:77] Creating layer conv4_2/3x3_dwconv/SE_global_pool
I1010 14:26:42.827188 12881 net.cpp:86] Creating Layer conv4_2/3x3_dwconv/SE_global_pool
I1010 14:26:42.827193 12881 net.cpp:409] conv4_2/3x3_dwconv/SE_global_pool <- conv4_2/3x3_dwconv/concat_conv4_2/3x3_dwconv/concat_fixed_point_0_split_0
I1010 14:26:42.827198 12881 net.cpp:383] conv4_2/3x3_dwconv/SE_global_pool -> conv4_2/3x3_dwconv/SE_global_pool
I1010 14:26:42.827227 12881 net.cpp:124] Setting up conv4_2/3x3_dwconv/SE_global_pool
I1010 14:26:42.827234 12881 net.cpp:131] Top shape: 25 120 1 1 (3000)
I1010 14:26:42.827237 12881 net.cpp:139] Memory required for data: 1203719800
I1010 14:26:42.827241 12881 layer_factory.hpp:77] Creating layer conv4_2/3x3_dwconv/SE_bn
I1010 14:26:42.827248 12881 net.cpp:86] Creating Layer conv4_2/3x3_dwconv/SE_bn
I1010 14:26:42.827255 12881 net.cpp:409] conv4_2/3x3_dwconv/SE_bn <- conv4_2/3x3_dwconv/SE_global_pool
I1010 14:26:42.827261 12881 net.cpp:383] conv4_2/3x3_dwconv/SE_bn -> conv4_2/3x3_dwconv/SE_bn
I1010 14:26:42.827317 12881 layer_factory.hpp:77] Creating layer conv4_2/3x3_dwconv/SE_bn
I1010 14:26:42.827459 12881 net.cpp:124] Setting up conv4_2/3x3_dwconv/SE_bn
I1010 14:26:42.827467 12881 net.cpp:131] Top shape: 25 120 1 1 (3000)
I1010 14:26:42.827471 12881 net.cpp:139] Memory required for data: 1203731800
I1010 14:26:42.827476 12881 layer_factory.hpp:77] Creating layer conv4_2/3x3_dwconv/SE_fc1
I1010 14:26:42.827487 12881 net.cpp:86] Creating Layer conv4_2/3x3_dwconv/SE_fc1
I1010 14:26:42.827492 12881 net.cpp:409] conv4_2/3x3_dwconv/SE_fc1 <- conv4_2/3x3_dwconv/SE_bn
I1010 14:26:42.827502 12881 net.cpp:383] conv4_2/3x3_dwconv/SE_fc1 -> conv4_2/3x3_dwconv/SE_fc1
I1010 14:26:42.827949 12881 net.cpp:124] Setting up conv4_2/3x3_dwconv/SE_fc1
I1010 14:26:42.827961 12881 net.cpp:131] Top shape: 25 7 1 1 (175)
I1010 14:26:42.827965 12881 net.cpp:139] Memory required for data: 1203732500
I1010 14:26:42.827973 12881 layer_factory.hpp:77] Creating layer conv4_2/3x3_dwconv/SE_fc1/relu
I1010 14:26:42.827994 12881 net.cpp:86] Creating Layer conv4_2/3x3_dwconv/SE_fc1/relu
I1010 14:26:42.827999 12881 net.cpp:409] conv4_2/3x3_dwconv/SE_fc1/relu <- conv4_2/3x3_dwconv/SE_fc1
I1010 14:26:42.828006 12881 net.cpp:370] conv4_2/3x3_dwconv/SE_fc1/relu -> conv4_2/3x3_dwconv/SE_fc1 (in-place)
I1010 14:26:42.828663 12881 net.cpp:124] Setting up conv4_2/3x3_dwconv/SE_fc1/relu
I1010 14:26:42.828676 12881 net.cpp:131] Top shape: 25 7 1 1 (175)
I1010 14:26:42.828681 12881 net.cpp:139] Memory required for data: 1203733200
I1010 14:26:42.828686 12881 layer_factory.hpp:77] Creating layer conv4_2/3x3_dwconv/SE_fc2
I1010 14:26:42.828697 12881 net.cpp:86] Creating Layer conv4_2/3x3_dwconv/SE_fc2
I1010 14:26:42.828703 12881 net.cpp:409] conv4_2/3x3_dwconv/SE_fc2 <- conv4_2/3x3_dwconv/SE_fc1
I1010 14:26:42.828712 12881 net.cpp:383] conv4_2/3x3_dwconv/SE_fc2 -> conv4_2/3x3_dwconv/SE_fc2
I1010 14:26:42.829161 12881 net.cpp:124] Setting up conv4_2/3x3_dwconv/SE_fc2
I1010 14:26:42.829174 12881 net.cpp:131] Top shape: 25 120 1 1 (3000)
I1010 14:26:42.829178 12881 net.cpp:139] Memory required for data: 1203745200
I1010 14:26:42.829185 12881 layer_factory.hpp:77] Creating layer conv4_2/3x3_dwconv/SE_weights
I1010 14:26:42.829193 12881 net.cpp:86] Creating Layer conv4_2/3x3_dwconv/SE_weights
I1010 14:26:42.829200 12881 net.cpp:409] conv4_2/3x3_dwconv/SE_weights <- conv4_2/3x3_dwconv/SE_fc2
I1010 14:26:42.829205 12881 net.cpp:370] conv4_2/3x3_dwconv/SE_weights -> conv4_2/3x3_dwconv/SE_fc2 (in-place)
I1010 14:26:42.829871 12881 net.cpp:124] Setting up conv4_2/3x3_dwconv/SE_weights
I1010 14:26:42.829885 12881 net.cpp:131] Top shape: 25 120 1 1 (3000)
I1010 14:26:42.829890 12881 net.cpp:139] Memory required for data: 1203757200
I1010 14:26:42.829892 12881 layer_factory.hpp:77] Creating layer conv4_2/3x3_dwconv/SE_weights/reshape
I1010 14:26:42.829900 12881 net.cpp:86] Creating Layer conv4_2/3x3_dwconv/SE_weights/reshape
I1010 14:26:42.829906 12881 net.cpp:409] conv4_2/3x3_dwconv/SE_weights/reshape <- conv4_2/3x3_dwconv/SE_fc2
I1010 14:26:42.829915 12881 net.cpp:383] conv4_2/3x3_dwconv/SE_weights/reshape -> conv4_2/3x3_dwconv/SE_weights/reshape
I1010 14:26:42.829954 12881 net.cpp:124] Setting up conv4_2/3x3_dwconv/SE_weights/reshape
I1010 14:26:42.829962 12881 net.cpp:131] Top shape: 25 120 (3000)
I1010 14:26:42.829965 12881 net.cpp:139] Memory required for data: 1203769200
I1010 14:26:42.829969 12881 layer_factory.hpp:77] Creating layer conv4_2/3x3_dwconv/scale
I1010 14:26:42.829975 12881 net.cpp:86] Creating Layer conv4_2/3x3_dwconv/scale
I1010 14:26:42.829980 12881 net.cpp:409] conv4_2/3x3_dwconv/scale <- conv4_2/3x3_dwconv/concat_conv4_2/3x3_dwconv/concat_fixed_point_0_split_1
I1010 14:26:42.829988 12881 net.cpp:409] conv4_2/3x3_dwconv/scale <- conv4_2/3x3_dwconv/SE_weights/reshape
I1010 14:26:42.829994 12881 net.cpp:383] conv4_2/3x3_dwconv/scale -> conv4_2/3x3_dwconv/scale
I1010 14:26:42.830086 12881 net.cpp:124] Setting up conv4_2/3x3_dwconv/scale
I1010 14:26:42.830093 12881 net.cpp:131] Top shape: 25 120 28 28 (2352000)
I1010 14:26:42.830097 12881 net.cpp:139] Memory required for data: 1213177200
I1010 14:26:42.830101 12881 layer_factory.hpp:77] Creating layer conv4_2/3x3_dwconv/scale_fixed_point
I1010 14:26:42.830107 12881 net.cpp:86] Creating Layer conv4_2/3x3_dwconv/scale_fixed_point
I1010 14:26:42.830111 12881 net.cpp:409] conv4_2/3x3_dwconv/scale_fixed_point <- conv4_2/3x3_dwconv/scale
I1010 14:26:42.830119 12881 net.cpp:370] conv4_2/3x3_dwconv/scale_fixed_point -> conv4_2/3x3_dwconv/scale (in-place)
I1010 14:26:42.830150 12881 net.cpp:124] Setting up conv4_2/3x3_dwconv/scale_fixed_point
I1010 14:26:42.830157 12881 net.cpp:131] Top shape: 25 120 28 28 (2352000)
I1010 14:26:42.830160 12881 net.cpp:139] Memory required for data: 1222585200
I1010 14:26:42.830166 12881 layer_factory.hpp:77] Creating layer conv4_2/1x1_decrease
I1010 14:26:42.830178 12881 net.cpp:86] Creating Layer conv4_2/1x1_decrease
I1010 14:26:42.830183 12881 net.cpp:409] conv4_2/1x1_decrease <- conv4_2/3x3_dwconv/scale
I1010 14:26:42.830201 12881 net.cpp:383] conv4_2/1x1_decrease -> conv4_2/1x1_decrease/bn
I1010 14:26:42.830938 12881 net.cpp:124] Setting up conv4_2/1x1_decrease
I1010 14:26:42.830951 12881 net.cpp:131] Top shape: 25 40 28 28 (784000)
I1010 14:26:42.830955 12881 net.cpp:139] Memory required for data: 1225721200
I1010 14:26:42.830962 12881 layer_factory.hpp:77] Creating layer conv4_2/elt_sum
I1010 14:26:42.830971 12881 net.cpp:86] Creating Layer conv4_2/elt_sum
I1010 14:26:42.830976 12881 net.cpp:409] conv4_2/elt_sum <- conv4_1/elt_sum_conv4_1/elt_sum_fixed_point_0_split_1
I1010 14:26:42.830981 12881 net.cpp:409] conv4_2/elt_sum <- conv4_2/1x1_decrease/bn
I1010 14:26:42.830986 12881 net.cpp:383] conv4_2/elt_sum -> conv4_2/elt_sum
I1010 14:26:42.831024 12881 net.cpp:124] Setting up conv4_2/elt_sum
I1010 14:26:42.831032 12881 net.cpp:131] Top shape: 25 40 28 28 (784000)
I1010 14:26:42.831035 12881 net.cpp:139] Memory required for data: 1228857200
I1010 14:26:42.831038 12881 layer_factory.hpp:77] Creating layer conv4_2/elt_sum_fixed_point
I1010 14:26:42.831048 12881 net.cpp:86] Creating Layer conv4_2/elt_sum_fixed_point
I1010 14:26:42.831051 12881 net.cpp:409] conv4_2/elt_sum_fixed_point <- conv4_2/elt_sum
I1010 14:26:42.831056 12881 net.cpp:370] conv4_2/elt_sum_fixed_point -> conv4_2/elt_sum (in-place)
I1010 14:26:42.831087 12881 net.cpp:124] Setting up conv4_2/elt_sum_fixed_point
I1010 14:26:42.831094 12881 net.cpp:131] Top shape: 25 40 28 28 (784000)
I1010 14:26:42.831097 12881 net.cpp:139] Memory required for data: 1231993200
I1010 14:26:42.831102 12881 layer_factory.hpp:77] Creating layer conv4_2/elt_sum_conv4_2/elt_sum_fixed_point_0_split
I1010 14:26:42.831107 12881 net.cpp:86] Creating Layer conv4_2/elt_sum_conv4_2/elt_sum_fixed_point_0_split
I1010 14:26:42.831110 12881 net.cpp:409] conv4_2/elt_sum_conv4_2/elt_sum_fixed_point_0_split <- conv4_2/elt_sum
I1010 14:26:42.831117 12881 net.cpp:383] conv4_2/elt_sum_conv4_2/elt_sum_fixed_point_0_split -> conv4_2/elt_sum_conv4_2/elt_sum_fixed_point_0_split_0
I1010 14:26:42.831125 12881 net.cpp:383] conv4_2/elt_sum_conv4_2/elt_sum_fixed_point_0_split -> conv4_2/elt_sum_conv4_2/elt_sum_fixed_point_0_split_1
I1010 14:26:42.831172 12881 net.cpp:124] Setting up conv4_2/elt_sum_conv4_2/elt_sum_fixed_point_0_split
I1010 14:26:42.831179 12881 net.cpp:131] Top shape: 25 40 28 28 (784000)
I1010 14:26:42.831184 12881 net.cpp:131] Top shape: 25 40 28 28 (784000)
I1010 14:26:42.831187 12881 net.cpp:139] Memory required for data: 1238265200
I1010 14:26:42.831192 12881 layer_factory.hpp:77] Creating layer conv4_3/1x1_increase
I1010 14:26:42.831204 12881 net.cpp:86] Creating Layer conv4_3/1x1_increase
I1010 14:26:42.831208 12881 net.cpp:409] conv4_3/1x1_increase <- conv4_2/elt_sum_conv4_2/elt_sum_fixed_point_0_split_0
I1010 14:26:42.831214 12881 net.cpp:383] conv4_3/1x1_increase -> conv4_3/1x1_increase/bn
I1010 14:26:42.832154 12881 net.cpp:124] Setting up conv4_3/1x1_increase
I1010 14:26:42.832167 12881 net.cpp:131] Top shape: 25 120 28 28 (2352000)
I1010 14:26:42.832171 12881 net.cpp:139] Memory required for data: 1247673200
I1010 14:26:42.832180 12881 layer_factory.hpp:77] Creating layer conv4_3/1x1_increase/hardswish
I1010 14:26:42.832185 12881 net.cpp:86] Creating Layer conv4_3/1x1_increase/hardswish
I1010 14:26:42.832190 12881 net.cpp:409] conv4_3/1x1_increase/hardswish <- conv4_3/1x1_increase/bn
I1010 14:26:42.832197 12881 net.cpp:370] conv4_3/1x1_increase/hardswish -> conv4_3/1x1_increase/bn (in-place)
I1010 14:26:42.832233 12881 net.cpp:124] Setting up conv4_3/1x1_increase/hardswish
I1010 14:26:42.832240 12881 net.cpp:131] Top shape: 25 120 28 28 (2352000)
I1010 14:26:42.832244 12881 net.cpp:139] Memory required for data: 1257081200
I1010 14:26:42.832247 12881 layer_factory.hpp:77] Creating layer conv4_3/1x1_increase/bn_fixed_point
I1010 14:26:42.832255 12881 net.cpp:86] Creating Layer conv4_3/1x1_increase/bn_fixed_point
I1010 14:26:42.832259 12881 net.cpp:409] conv4_3/1x1_increase/bn_fixed_point <- conv4_3/1x1_increase/bn
I1010 14:26:42.832267 12881 net.cpp:370] conv4_3/1x1_increase/bn_fixed_point -> conv4_3/1x1_increase/bn (in-place)
I1010 14:26:42.832311 12881 net.cpp:124] Setting up conv4_3/1x1_increase/bn_fixed_point
I1010 14:26:42.832319 12881 net.cpp:131] Top shape: 25 120 28 28 (2352000)
I1010 14:26:42.832321 12881 net.cpp:139] Memory required for data: 1266489200
I1010 14:26:42.832326 12881 layer_factory.hpp:77] Creating layer conv4_3/1x1_increase/slice
I1010 14:26:42.832337 12881 net.cpp:86] Creating Layer conv4_3/1x1_increase/slice
I1010 14:26:42.832342 12881 net.cpp:409] conv4_3/1x1_increase/slice <- conv4_3/1x1_increase/bn
I1010 14:26:42.832347 12881 net.cpp:383] conv4_3/1x1_increase/slice -> conv4_3/1x1_increase/split1
I1010 14:26:42.832355 12881 net.cpp:383] conv4_3/1x1_increase/slice -> conv4_3/1x1_increase/split2
I1010 14:26:42.832403 12881 net.cpp:124] Setting up conv4_3/1x1_increase/slice
I1010 14:26:42.832412 12881 net.cpp:131] Top shape: 25 60 28 28 (1176000)
I1010 14:26:42.832415 12881 net.cpp:131] Top shape: 25 60 28 28 (1176000)
I1010 14:26:42.832418 12881 net.cpp:139] Memory required for data: 1275897200
I1010 14:26:42.832423 12881 layer_factory.hpp:77] Creating layer conv4_3/3x3_dwconv/slice_0
I1010 14:26:42.832433 12881 net.cpp:86] Creating Layer conv4_3/3x3_dwconv/slice_0
I1010 14:26:42.832437 12881 net.cpp:409] conv4_3/3x3_dwconv/slice_0 <- conv4_3/1x1_increase/split1
I1010 14:26:42.832443 12881 net.cpp:383] conv4_3/3x3_dwconv/slice_0 -> conv4_3/3x3_dwconv/slice_0/bn
I1010 14:26:42.833051 12881 net.cpp:124] Setting up conv4_3/3x3_dwconv/slice_0
I1010 14:26:42.833065 12881 net.cpp:131] Top shape: 25 60 28 28 (1176000)
I1010 14:26:42.833067 12881 net.cpp:139] Memory required for data: 1280601200
I1010 14:26:42.833076 12881 layer_factory.hpp:77] Creating layer conv4_3/3x3_dwconv/slice_0/hardswish
I1010 14:26:42.833081 12881 net.cpp:86] Creating Layer conv4_3/3x3_dwconv/slice_0/hardswish
I1010 14:26:42.833086 12881 net.cpp:409] conv4_3/3x3_dwconv/slice_0/hardswish <- conv4_3/3x3_dwconv/slice_0/bn
I1010 14:26:42.833092 12881 net.cpp:370] conv4_3/3x3_dwconv/slice_0/hardswish -> conv4_3/3x3_dwconv/slice_0/bn (in-place)
I1010 14:26:42.833130 12881 net.cpp:124] Setting up conv4_3/3x3_dwconv/slice_0/hardswish
I1010 14:26:42.833137 12881 net.cpp:131] Top shape: 25 60 28 28 (1176000)
I1010 14:26:42.833142 12881 net.cpp:139] Memory required for data: 1285305200
I1010 14:26:42.833144 12881 layer_factory.hpp:77] Creating layer conv4_3/3x3_dwconv/slice_1
I1010 14:26:42.833156 12881 net.cpp:86] Creating Layer conv4_3/3x3_dwconv/slice_1
I1010 14:26:42.833160 12881 net.cpp:409] conv4_3/3x3_dwconv/slice_1 <- conv4_3/1x1_increase/split2
I1010 14:26:42.833166 12881 net.cpp:383] conv4_3/3x3_dwconv/slice_1 -> conv4_3/3x3_dwconv/slice_1/bn
I1010 14:26:42.834007 12881 net.cpp:124] Setting up conv4_3/3x3_dwconv/slice_1
I1010 14:26:42.834022 12881 net.cpp:131] Top shape: 25 60 28 28 (1176000)
I1010 14:26:42.834024 12881 net.cpp:139] Memory required for data: 1290009200
I1010 14:26:42.834031 12881 layer_factory.hpp:77] Creating layer conv4_3/3x3_dwconv/slice_1/hardswish
I1010 14:26:42.834038 12881 net.cpp:86] Creating Layer conv4_3/3x3_dwconv/slice_1/hardswish
I1010 14:26:42.834043 12881 net.cpp:409] conv4_3/3x3_dwconv/slice_1/hardswish <- conv4_3/3x3_dwconv/slice_1/bn
I1010 14:26:42.834050 12881 net.cpp:370] conv4_3/3x3_dwconv/slice_1/hardswish -> conv4_3/3x3_dwconv/slice_1/bn (in-place)
I1010 14:26:42.834086 12881 net.cpp:124] Setting up conv4_3/3x3_dwconv/slice_1/hardswish
I1010 14:26:42.834095 12881 net.cpp:131] Top shape: 25 60 28 28 (1176000)
I1010 14:26:42.834100 12881 net.cpp:139] Memory required for data: 1294713200
I1010 14:26:42.834103 12881 layer_factory.hpp:77] Creating layer conv4_3/3x3_dwconv/concat
I1010 14:26:42.834108 12881 net.cpp:86] Creating Layer conv4_3/3x3_dwconv/concat
I1010 14:26:42.834112 12881 net.cpp:409] conv4_3/3x3_dwconv/concat <- conv4_3/3x3_dwconv/slice_0/bn
I1010 14:26:42.834117 12881 net.cpp:409] conv4_3/3x3_dwconv/concat <- conv4_3/3x3_dwconv/slice_1/bn
I1010 14:26:42.834122 12881 net.cpp:383] conv4_3/3x3_dwconv/concat -> conv4_3/3x3_dwconv/concat
I1010 14:26:42.834168 12881 net.cpp:124] Setting up conv4_3/3x3_dwconv/concat
I1010 14:26:42.834183 12881 net.cpp:131] Top shape: 25 120 28 28 (2352000)
I1010 14:26:42.834187 12881 net.cpp:139] Memory required for data: 1304121200
I1010 14:26:42.834190 12881 layer_factory.hpp:77] Creating layer conv4_3/3x3_dwconv/concat_fixed_point
I1010 14:26:42.834200 12881 net.cpp:86] Creating Layer conv4_3/3x3_dwconv/concat_fixed_point
I1010 14:26:42.834205 12881 net.cpp:409] conv4_3/3x3_dwconv/concat_fixed_point <- conv4_3/3x3_dwconv/concat
I1010 14:26:42.834210 12881 net.cpp:370] conv4_3/3x3_dwconv/concat_fixed_point -> conv4_3/3x3_dwconv/concat (in-place)
I1010 14:26:42.834241 12881 net.cpp:124] Setting up conv4_3/3x3_dwconv/concat_fixed_point
I1010 14:26:42.834249 12881 net.cpp:131] Top shape: 25 120 28 28 (2352000)
I1010 14:26:42.834251 12881 net.cpp:139] Memory required for data: 1313529200
I1010 14:26:42.834256 12881 layer_factory.hpp:77] Creating layer conv4_3/3x3_dwconv/concat_conv4_3/3x3_dwconv/concat_fixed_point_0_split
I1010 14:26:42.834261 12881 net.cpp:86] Creating Layer conv4_3/3x3_dwconv/concat_conv4_3/3x3_dwconv/concat_fixed_point_0_split
I1010 14:26:42.834265 12881 net.cpp:409] conv4_3/3x3_dwconv/concat_conv4_3/3x3_dwconv/concat_fixed_point_0_split <- conv4_3/3x3_dwconv/concat
I1010 14:26:42.834273 12881 net.cpp:383] conv4_3/3x3_dwconv/concat_conv4_3/3x3_dwconv/concat_fixed_point_0_split -> conv4_3/3x3_dwconv/concat_conv4_3/3x3_dwconv/concat_fixed_point_0_split_0
I1010 14:26:42.834280 12881 net.cpp:383] conv4_3/3x3_dwconv/concat_conv4_3/3x3_dwconv/concat_fixed_point_0_split -> conv4_3/3x3_dwconv/concat_conv4_3/3x3_dwconv/concat_fixed_point_0_split_1
I1010 14:26:42.834323 12881 net.cpp:124] Setting up conv4_3/3x3_dwconv/concat_conv4_3/3x3_dwconv/concat_fixed_point_0_split
I1010 14:26:42.834332 12881 net.cpp:131] Top shape: 25 120 28 28 (2352000)
I1010 14:26:42.834337 12881 net.cpp:131] Top shape: 25 120 28 28 (2352000)
I1010 14:26:42.834340 12881 net.cpp:139] Memory required for data: 1332345200
I1010 14:26:42.834343 12881 layer_factory.hpp:77] Creating layer conv4_3/3x3_dwconv/SE_global_pool
I1010 14:26:42.834349 12881 net.cpp:86] Creating Layer conv4_3/3x3_dwconv/SE_global_pool
I1010 14:26:42.834353 12881 net.cpp:409] conv4_3/3x3_dwconv/SE_global_pool <- conv4_3/3x3_dwconv/concat_conv4_3/3x3_dwconv/concat_fixed_point_0_split_0
I1010 14:26:42.834358 12881 net.cpp:383] conv4_3/3x3_dwconv/SE_global_pool -> conv4_3/3x3_dwconv/SE_global_pool
I1010 14:26:42.834388 12881 net.cpp:124] Setting up conv4_3/3x3_dwconv/SE_global_pool
I1010 14:26:42.834394 12881 net.cpp:131] Top shape: 25 120 1 1 (3000)
I1010 14:26:42.834398 12881 net.cpp:139] Memory required for data: 1332357200
I1010 14:26:42.834400 12881 layer_factory.hpp:77] Creating layer conv4_3/3x3_dwconv/SE_bn
I1010 14:26:42.834409 12881 net.cpp:86] Creating Layer conv4_3/3x3_dwconv/SE_bn
I1010 14:26:42.834414 12881 net.cpp:409] conv4_3/3x3_dwconv/SE_bn <- conv4_3/3x3_dwconv/SE_global_pool
I1010 14:26:42.834419 12881 net.cpp:383] conv4_3/3x3_dwconv/SE_bn -> conv4_3/3x3_dwconv/SE_bn
I1010 14:26:42.834470 12881 layer_factory.hpp:77] Creating layer conv4_3/3x3_dwconv/SE_bn
I1010 14:26:42.834609 12881 net.cpp:124] Setting up conv4_3/3x3_dwconv/SE_bn
I1010 14:26:42.834619 12881 net.cpp:131] Top shape: 25 120 1 1 (3000)
I1010 14:26:42.834621 12881 net.cpp:139] Memory required for data: 1332369200
I1010 14:26:42.834627 12881 layer_factory.hpp:77] Creating layer conv4_3/3x3_dwconv/SE_fc1
I1010 14:26:42.834640 12881 net.cpp:86] Creating Layer conv4_3/3x3_dwconv/SE_fc1
I1010 14:26:42.834643 12881 net.cpp:409] conv4_3/3x3_dwconv/SE_fc1 <- conv4_3/3x3_dwconv/SE_bn
I1010 14:26:42.834650 12881 net.cpp:383] conv4_3/3x3_dwconv/SE_fc1 -> conv4_3/3x3_dwconv/SE_fc1
I1010 14:26:42.835093 12881 net.cpp:124] Setting up conv4_3/3x3_dwconv/SE_fc1
I1010 14:26:42.835106 12881 net.cpp:131] Top shape: 25 7 1 1 (175)
I1010 14:26:42.835110 12881 net.cpp:139] Memory required for data: 1332369900
I1010 14:26:42.835117 12881 layer_factory.hpp:77] Creating layer conv4_3/3x3_dwconv/SE_fc1/relu
I1010 14:26:42.835135 12881 net.cpp:86] Creating Layer conv4_3/3x3_dwconv/SE_fc1/relu
I1010 14:26:42.835140 12881 net.cpp:409] conv4_3/3x3_dwconv/SE_fc1/relu <- conv4_3/3x3_dwconv/SE_fc1
I1010 14:26:42.835146 12881 net.cpp:370] conv4_3/3x3_dwconv/SE_fc1/relu -> conv4_3/3x3_dwconv/SE_fc1 (in-place)
I1010 14:26:42.836025 12881 net.cpp:124] Setting up conv4_3/3x3_dwconv/SE_fc1/relu
I1010 14:26:42.836040 12881 net.cpp:131] Top shape: 25 7 1 1 (175)
I1010 14:26:42.836045 12881 net.cpp:139] Memory required for data: 1332370600
I1010 14:26:42.836048 12881 layer_factory.hpp:77] Creating layer conv4_3/3x3_dwconv/SE_fc2
I1010 14:26:42.836061 12881 net.cpp:86] Creating Layer conv4_3/3x3_dwconv/SE_fc2
I1010 14:26:42.836066 12881 net.cpp:409] conv4_3/3x3_dwconv/SE_fc2 <- conv4_3/3x3_dwconv/SE_fc1
I1010 14:26:42.836072 12881 net.cpp:383] conv4_3/3x3_dwconv/SE_fc2 -> conv4_3/3x3_dwconv/SE_fc2
I1010 14:26:42.836536 12881 net.cpp:124] Setting up conv4_3/3x3_dwconv/SE_fc2
I1010 14:26:42.836549 12881 net.cpp:131] Top shape: 25 120 1 1 (3000)
I1010 14:26:42.836553 12881 net.cpp:139] Memory required for data: 1332382600
I1010 14:26:42.836560 12881 layer_factory.hpp:77] Creating layer conv4_3/3x3_dwconv/SE_weights
I1010 14:26:42.836567 12881 net.cpp:86] Creating Layer conv4_3/3x3_dwconv/SE_weights
I1010 14:26:42.836571 12881 net.cpp:409] conv4_3/3x3_dwconv/SE_weights <- conv4_3/3x3_dwconv/SE_fc2
I1010 14:26:42.836577 12881 net.cpp:370] conv4_3/3x3_dwconv/SE_weights -> conv4_3/3x3_dwconv/SE_fc2 (in-place)
I1010 14:26:42.837231 12881 net.cpp:124] Setting up conv4_3/3x3_dwconv/SE_weights
I1010 14:26:42.837244 12881 net.cpp:131] Top shape: 25 120 1 1 (3000)
I1010 14:26:42.837249 12881 net.cpp:139] Memory required for data: 1332394600
I1010 14:26:42.837252 12881 layer_factory.hpp:77] Creating layer conv4_3/3x3_dwconv/SE_weights/reshape
I1010 14:26:42.837260 12881 net.cpp:86] Creating Layer conv4_3/3x3_dwconv/SE_weights/reshape
I1010 14:26:42.837263 12881 net.cpp:409] conv4_3/3x3_dwconv/SE_weights/reshape <- conv4_3/3x3_dwconv/SE_fc2
I1010 14:26:42.837276 12881 net.cpp:383] conv4_3/3x3_dwconv/SE_weights/reshape -> conv4_3/3x3_dwconv/SE_weights/reshape
I1010 14:26:42.837316 12881 net.cpp:124] Setting up conv4_3/3x3_dwconv/SE_weights/reshape
I1010 14:26:42.837324 12881 net.cpp:131] Top shape: 25 120 (3000)
I1010 14:26:42.837328 12881 net.cpp:139] Memory required for data: 1332406600
I1010 14:26:42.837332 12881 layer_factory.hpp:77] Creating layer conv4_3/3x3_dwconv/scale
I1010 14:26:42.837340 12881 net.cpp:86] Creating Layer conv4_3/3x3_dwconv/scale
I1010 14:26:42.837344 12881 net.cpp:409] conv4_3/3x3_dwconv/scale <- conv4_3/3x3_dwconv/concat_conv4_3/3x3_dwconv/concat_fixed_point_0_split_1
I1010 14:26:42.837349 12881 net.cpp:409] conv4_3/3x3_dwconv/scale <- conv4_3/3x3_dwconv/SE_weights/reshape
I1010 14:26:42.837357 12881 net.cpp:383] conv4_3/3x3_dwconv/scale -> conv4_3/3x3_dwconv/scale
I1010 14:26:42.837448 12881 net.cpp:124] Setting up conv4_3/3x3_dwconv/scale
I1010 14:26:42.837456 12881 net.cpp:131] Top shape: 25 120 28 28 (2352000)
I1010 14:26:42.837460 12881 net.cpp:139] Memory required for data: 1341814600
I1010 14:26:42.837463 12881 layer_factory.hpp:77] Creating layer conv4_3/3x3_dwconv/scale_fixed_point
I1010 14:26:42.837471 12881 net.cpp:86] Creating Layer conv4_3/3x3_dwconv/scale_fixed_point
I1010 14:26:42.837476 12881 net.cpp:409] conv4_3/3x3_dwconv/scale_fixed_point <- conv4_3/3x3_dwconv/scale
I1010 14:26:42.837481 12881 net.cpp:370] conv4_3/3x3_dwconv/scale_fixed_point -> conv4_3/3x3_dwconv/scale (in-place)
I1010 14:26:42.837512 12881 net.cpp:124] Setting up conv4_3/3x3_dwconv/scale_fixed_point
I1010 14:26:42.837519 12881 net.cpp:131] Top shape: 25 120 28 28 (2352000)
I1010 14:26:42.837523 12881 net.cpp:139] Memory required for data: 1351222600
I1010 14:26:42.837527 12881 layer_factory.hpp:77] Creating layer conv4_3/1x1_decrease
I1010 14:26:42.837538 12881 net.cpp:86] Creating Layer conv4_3/1x1_decrease
I1010 14:26:42.837541 12881 net.cpp:409] conv4_3/1x1_decrease <- conv4_3/3x3_dwconv/scale
I1010 14:26:42.837549 12881 net.cpp:383] conv4_3/1x1_decrease -> conv4_3/1x1_decrease/bn
I1010 14:26:42.838295 12881 net.cpp:124] Setting up conv4_3/1x1_decrease
I1010 14:26:42.838308 12881 net.cpp:131] Top shape: 25 40 28 28 (784000)
I1010 14:26:42.838312 12881 net.cpp:139] Memory required for data: 1354358600
I1010 14:26:42.838327 12881 layer_factory.hpp:77] Creating layer conv4_3/elt_sum
I1010 14:26:42.838337 12881 net.cpp:86] Creating Layer conv4_3/elt_sum
I1010 14:26:42.838341 12881 net.cpp:409] conv4_3/elt_sum <- conv4_2/elt_sum_conv4_2/elt_sum_fixed_point_0_split_1
I1010 14:26:42.838347 12881 net.cpp:409] conv4_3/elt_sum <- conv4_3/1x1_decrease/bn
I1010 14:26:42.838356 12881 net.cpp:383] conv4_3/elt_sum -> conv4_3/elt_sum
I1010 14:26:42.838392 12881 net.cpp:124] Setting up conv4_3/elt_sum
I1010 14:26:42.838398 12881 net.cpp:131] Top shape: 25 40 28 28 (784000)
I1010 14:26:42.838402 12881 net.cpp:139] Memory required for data: 1357494600
I1010 14:26:42.838405 12881 layer_factory.hpp:77] Creating layer conv4_3/elt_sum_fixed_point
I1010 14:26:42.838414 12881 net.cpp:86] Creating Layer conv4_3/elt_sum_fixed_point
I1010 14:26:42.838418 12881 net.cpp:409] conv4_3/elt_sum_fixed_point <- conv4_3/elt_sum
I1010 14:26:42.838423 12881 net.cpp:370] conv4_3/elt_sum_fixed_point -> conv4_3/elt_sum (in-place)
I1010 14:26:42.838456 12881 net.cpp:124] Setting up conv4_3/elt_sum_fixed_point
I1010 14:26:42.838462 12881 net.cpp:131] Top shape: 25 40 28 28 (784000)
I1010 14:26:42.838466 12881 net.cpp:139] Memory required for data: 1360630600
I1010 14:26:42.838470 12881 layer_factory.hpp:77] Creating layer conv5_0/1x1_increase
I1010 14:26:42.838480 12881 net.cpp:86] Creating Layer conv5_0/1x1_increase
I1010 14:26:42.838485 12881 net.cpp:409] conv5_0/1x1_increase <- conv4_3/elt_sum
I1010 14:26:42.838492 12881 net.cpp:383] conv5_0/1x1_increase -> conv5_0/1x1_increase/bn
I1010 14:26:42.839392 12881 net.cpp:124] Setting up conv5_0/1x1_increase
I1010 14:26:42.839407 12881 net.cpp:131] Top shape: 25 240 28 28 (4704000)
I1010 14:26:42.839411 12881 net.cpp:139] Memory required for data: 1379446600
I1010 14:26:42.839418 12881 layer_factory.hpp:77] Creating layer conv5_0/1x1_increase/hardswish
I1010 14:26:42.839426 12881 net.cpp:86] Creating Layer conv5_0/1x1_increase/hardswish
I1010 14:26:42.839431 12881 net.cpp:409] conv5_0/1x1_increase/hardswish <- conv5_0/1x1_increase/bn
I1010 14:26:42.839435 12881 net.cpp:370] conv5_0/1x1_increase/hardswish -> conv5_0/1x1_increase/bn (in-place)
I1010 14:26:42.839471 12881 net.cpp:124] Setting up conv5_0/1x1_increase/hardswish
I1010 14:26:42.839479 12881 net.cpp:131] Top shape: 25 240 28 28 (4704000)
I1010 14:26:42.839483 12881 net.cpp:139] Memory required for data: 1398262600
I1010 14:26:42.839486 12881 layer_factory.hpp:77] Creating layer conv5_0/1x1_increase/bn_fixed_point
I1010 14:26:42.839500 12881 net.cpp:86] Creating Layer conv5_0/1x1_increase/bn_fixed_point
I1010 14:26:42.839504 12881 net.cpp:409] conv5_0/1x1_increase/bn_fixed_point <- conv5_0/1x1_increase/bn
I1010 14:26:42.839509 12881 net.cpp:370] conv5_0/1x1_increase/bn_fixed_point -> conv5_0/1x1_increase/bn (in-place)
I1010 14:26:42.839540 12881 net.cpp:124] Setting up conv5_0/1x1_increase/bn_fixed_point
I1010 14:26:42.839547 12881 net.cpp:131] Top shape: 25 240 28 28 (4704000)
I1010 14:26:42.839550 12881 net.cpp:139] Memory required for data: 1417078600
I1010 14:26:42.839555 12881 layer_factory.hpp:77] Creating layer conv5_0/1x1_increase/slice
I1010 14:26:42.839568 12881 net.cpp:86] Creating Layer conv5_0/1x1_increase/slice
I1010 14:26:42.839572 12881 net.cpp:409] conv5_0/1x1_increase/slice <- conv5_0/1x1_increase/bn
I1010 14:26:42.839578 12881 net.cpp:383] conv5_0/1x1_increase/slice -> conv5_0/1x1_increase/split1
I1010 14:26:42.839586 12881 net.cpp:383] conv5_0/1x1_increase/slice -> conv5_0/1x1_increase/split2
I1010 14:26:42.839594 12881 net.cpp:383] conv5_0/1x1_increase/slice -> conv5_0/1x1_increase/split3
I1010 14:26:42.839659 12881 net.cpp:124] Setting up conv5_0/1x1_increase/slice
I1010 14:26:42.839668 12881 net.cpp:131] Top shape: 25 80 28 28 (1568000)
I1010 14:26:42.839671 12881 net.cpp:131] Top shape: 25 80 28 28 (1568000)
I1010 14:26:42.839687 12881 net.cpp:131] Top shape: 25 80 28 28 (1568000)
I1010 14:26:42.839690 12881 net.cpp:139] Memory required for data: 1435894600
I1010 14:26:42.839694 12881 layer_factory.hpp:77] Creating layer conv5_0/3x3_dwconv/slice_0
I1010 14:26:42.839706 12881 net.cpp:86] Creating Layer conv5_0/3x3_dwconv/slice_0
I1010 14:26:42.839710 12881 net.cpp:409] conv5_0/3x3_dwconv/slice_0 <- conv5_0/1x1_increase/split1
I1010 14:26:42.839718 12881 net.cpp:383] conv5_0/3x3_dwconv/slice_0 -> conv5_0/3x3_dwconv/slice_0/bn
I1010 14:26:42.840345 12881 net.cpp:124] Setting up conv5_0/3x3_dwconv/slice_0
I1010 14:26:42.840358 12881 net.cpp:131] Top shape: 25 80 14 14 (392000)
I1010 14:26:42.840361 12881 net.cpp:139] Memory required for data: 1437462600
I1010 14:26:42.840369 12881 layer_factory.hpp:77] Creating layer conv5_0/3x3_dwconv/slice_0/hardswish
I1010 14:26:42.840378 12881 net.cpp:86] Creating Layer conv5_0/3x3_dwconv/slice_0/hardswish
I1010 14:26:42.840382 12881 net.cpp:409] conv5_0/3x3_dwconv/slice_0/hardswish <- conv5_0/3x3_dwconv/slice_0/bn
I1010 14:26:42.840387 12881 net.cpp:370] conv5_0/3x3_dwconv/slice_0/hardswish -> conv5_0/3x3_dwconv/slice_0/bn (in-place)
I1010 14:26:42.840421 12881 net.cpp:124] Setting up conv5_0/3x3_dwconv/slice_0/hardswish
I1010 14:26:42.840430 12881 net.cpp:131] Top shape: 25 80 14 14 (392000)
I1010 14:26:42.840432 12881 net.cpp:139] Memory required for data: 1439030600
I1010 14:26:42.840437 12881 layer_factory.hpp:77] Creating layer conv5_0/3x3_dwconv/slice_1
I1010 14:26:42.840451 12881 net.cpp:86] Creating Layer conv5_0/3x3_dwconv/slice_1
I1010 14:26:42.840456 12881 net.cpp:409] conv5_0/3x3_dwconv/slice_1 <- conv5_0/1x1_increase/split2
I1010 14:26:42.840462 12881 net.cpp:383] conv5_0/3x3_dwconv/slice_1 -> conv5_0/3x3_dwconv/slice_1/bn
I1010 14:26:42.841254 12881 net.cpp:124] Setting up conv5_0/3x3_dwconv/slice_1
I1010 14:26:42.841267 12881 net.cpp:131] Top shape: 25 80 14 14 (392000)
I1010 14:26:42.841271 12881 net.cpp:139] Memory required for data: 1440598600
I1010 14:26:42.841279 12881 layer_factory.hpp:77] Creating layer conv5_0/3x3_dwconv/slice_1/hardswish
I1010 14:26:42.841285 12881 net.cpp:86] Creating Layer conv5_0/3x3_dwconv/slice_1/hardswish
I1010 14:26:42.841290 12881 net.cpp:409] conv5_0/3x3_dwconv/slice_1/hardswish <- conv5_0/3x3_dwconv/slice_1/bn
I1010 14:26:42.841298 12881 net.cpp:370] conv5_0/3x3_dwconv/slice_1/hardswish -> conv5_0/3x3_dwconv/slice_1/bn (in-place)
I1010 14:26:42.841332 12881 net.cpp:124] Setting up conv5_0/3x3_dwconv/slice_1/hardswish
I1010 14:26:42.841342 12881 net.cpp:131] Top shape: 25 80 14 14 (392000)
I1010 14:26:42.841346 12881 net.cpp:139] Memory required for data: 1442166600
I1010 14:26:42.841349 12881 layer_factory.hpp:77] Creating layer conv5_0/3x3_dwconv/slice_2
I1010 14:26:42.841357 12881 net.cpp:86] Creating Layer conv5_0/3x3_dwconv/slice_2
I1010 14:26:42.841361 12881 net.cpp:409] conv5_0/3x3_dwconv/slice_2 <- conv5_0/1x1_increase/split3
I1010 14:26:42.841370 12881 net.cpp:383] conv5_0/3x3_dwconv/slice_2 -> conv5_0/3x3_dwconv/slice_2/bn
I1010 14:26:42.842299 12881 net.cpp:124] Setting up conv5_0/3x3_dwconv/slice_2
I1010 14:26:42.842314 12881 net.cpp:131] Top shape: 25 80 14 14 (392000)
I1010 14:26:42.842319 12881 net.cpp:139] Memory required for data: 1443734600
I1010 14:26:42.842330 12881 layer_factory.hpp:77] Creating layer conv5_0/3x3_dwconv/slice_2/hardswish
I1010 14:26:42.842336 12881 net.cpp:86] Creating Layer conv5_0/3x3_dwconv/slice_2/hardswish
I1010 14:26:42.842341 12881 net.cpp:409] conv5_0/3x3_dwconv/slice_2/hardswish <- conv5_0/3x3_dwconv/slice_2/bn
I1010 14:26:42.842347 12881 net.cpp:370] conv5_0/3x3_dwconv/slice_2/hardswish -> conv5_0/3x3_dwconv/slice_2/bn (in-place)
I1010 14:26:42.842386 12881 net.cpp:124] Setting up conv5_0/3x3_dwconv/slice_2/hardswish
I1010 14:26:42.842392 12881 net.cpp:131] Top shape: 25 80 14 14 (392000)
I1010 14:26:42.842396 12881 net.cpp:139] Memory required for data: 1445302600
I1010 14:26:42.842401 12881 layer_factory.hpp:77] Creating layer conv5_0/3x3_dwconv/concat
I1010 14:26:42.842423 12881 net.cpp:86] Creating Layer conv5_0/3x3_dwconv/concat
I1010 14:26:42.842427 12881 net.cpp:409] conv5_0/3x3_dwconv/concat <- conv5_0/3x3_dwconv/slice_0/bn
I1010 14:26:42.842432 12881 net.cpp:409] conv5_0/3x3_dwconv/concat <- conv5_0/3x3_dwconv/slice_1/bn
I1010 14:26:42.842437 12881 net.cpp:409] conv5_0/3x3_dwconv/concat <- conv5_0/3x3_dwconv/slice_2/bn
I1010 14:26:42.842442 12881 net.cpp:383] conv5_0/3x3_dwconv/concat -> conv5_0/3x3_dwconv/concat
I1010 14:26:42.842476 12881 net.cpp:124] Setting up conv5_0/3x3_dwconv/concat
I1010 14:26:42.842483 12881 net.cpp:131] Top shape: 25 240 14 14 (1176000)
I1010 14:26:42.842487 12881 net.cpp:139] Memory required for data: 1450006600
I1010 14:26:42.842490 12881 layer_factory.hpp:77] Creating layer conv5_0/3x3_dwconv/concat_fixed_point
I1010 14:26:42.842496 12881 net.cpp:86] Creating Layer conv5_0/3x3_dwconv/concat_fixed_point
I1010 14:26:42.842500 12881 net.cpp:409] conv5_0/3x3_dwconv/concat_fixed_point <- conv5_0/3x3_dwconv/concat
I1010 14:26:42.842507 12881 net.cpp:370] conv5_0/3x3_dwconv/concat_fixed_point -> conv5_0/3x3_dwconv/concat (in-place)
I1010 14:26:42.842535 12881 net.cpp:124] Setting up conv5_0/3x3_dwconv/concat_fixed_point
I1010 14:26:42.842542 12881 net.cpp:131] Top shape: 25 240 14 14 (1176000)
I1010 14:26:42.842545 12881 net.cpp:139] Memory required for data: 1454710600
I1010 14:26:42.842550 12881 layer_factory.hpp:77] Creating layer conv5_0/3x3_dwconv/concat_conv5_0/3x3_dwconv/concat_fixed_point_0_split
I1010 14:26:42.842557 12881 net.cpp:86] Creating Layer conv5_0/3x3_dwconv/concat_conv5_0/3x3_dwconv/concat_fixed_point_0_split
I1010 14:26:42.842561 12881 net.cpp:409] conv5_0/3x3_dwconv/concat_conv5_0/3x3_dwconv/concat_fixed_point_0_split <- conv5_0/3x3_dwconv/concat
I1010 14:26:42.842568 12881 net.cpp:383] conv5_0/3x3_dwconv/concat_conv5_0/3x3_dwconv/concat_fixed_point_0_split -> conv5_0/3x3_dwconv/concat_conv5_0/3x3_dwconv/concat_fixed_point_0_split_0
I1010 14:26:42.842576 12881 net.cpp:383] conv5_0/3x3_dwconv/concat_conv5_0/3x3_dwconv/concat_fixed_point_0_split -> conv5_0/3x3_dwconv/concat_conv5_0/3x3_dwconv/concat_fixed_point_0_split_1
I1010 14:26:42.842618 12881 net.cpp:124] Setting up conv5_0/3x3_dwconv/concat_conv5_0/3x3_dwconv/concat_fixed_point_0_split
I1010 14:26:42.842625 12881 net.cpp:131] Top shape: 25 240 14 14 (1176000)
I1010 14:26:42.842629 12881 net.cpp:131] Top shape: 25 240 14 14 (1176000)
I1010 14:26:42.842633 12881 net.cpp:139] Memory required for data: 1464118600
I1010 14:26:42.842636 12881 layer_factory.hpp:77] Creating layer conv5_0/3x3_dwconv/SE_global_pool
I1010 14:26:42.842644 12881 net.cpp:86] Creating Layer conv5_0/3x3_dwconv/SE_global_pool
I1010 14:26:42.842648 12881 net.cpp:409] conv5_0/3x3_dwconv/SE_global_pool <- conv5_0/3x3_dwconv/concat_conv5_0/3x3_dwconv/concat_fixed_point_0_split_0
I1010 14:26:42.842653 12881 net.cpp:383] conv5_0/3x3_dwconv/SE_global_pool -> conv5_0/3x3_dwconv/SE_global_pool
I1010 14:26:42.842684 12881 net.cpp:124] Setting up conv5_0/3x3_dwconv/SE_global_pool
I1010 14:26:42.842690 12881 net.cpp:131] Top shape: 25 240 1 1 (6000)
I1010 14:26:42.842694 12881 net.cpp:139] Memory required for data: 1464142600
I1010 14:26:42.842698 12881 layer_factory.hpp:77] Creating layer conv5_0/3x3_dwconv/SE_bn
I1010 14:26:42.842707 12881 net.cpp:86] Creating Layer conv5_0/3x3_dwconv/SE_bn
I1010 14:26:42.842711 12881 net.cpp:409] conv5_0/3x3_dwconv/SE_bn <- conv5_0/3x3_dwconv/SE_global_pool
I1010 14:26:42.842716 12881 net.cpp:383] conv5_0/3x3_dwconv/SE_bn -> conv5_0/3x3_dwconv/SE_bn
I1010 14:26:42.842772 12881 layer_factory.hpp:77] Creating layer conv5_0/3x3_dwconv/SE_bn
I1010 14:26:42.842914 12881 net.cpp:124] Setting up conv5_0/3x3_dwconv/SE_bn
I1010 14:26:42.842923 12881 net.cpp:131] Top shape: 25 240 1 1 (6000)
I1010 14:26:42.842926 12881 net.cpp:139] Memory required for data: 1464166600
I1010 14:26:42.842932 12881 layer_factory.hpp:77] Creating layer conv5_0/3x3_dwconv/SE_fc1
I1010 14:26:42.842944 12881 net.cpp:86] Creating Layer conv5_0/3x3_dwconv/SE_fc1
I1010 14:26:42.842949 12881 net.cpp:409] conv5_0/3x3_dwconv/SE_fc1 <- conv5_0/3x3_dwconv/SE_bn
I1010 14:26:42.842965 12881 net.cpp:383] conv5_0/3x3_dwconv/SE_fc1 -> conv5_0/3x3_dwconv/SE_fc1
I1010 14:26:42.843488 12881 net.cpp:124] Setting up conv5_0/3x3_dwconv/SE_fc1
I1010 14:26:42.843500 12881 net.cpp:131] Top shape: 25 15 1 1 (375)
I1010 14:26:42.843504 12881 net.cpp:139] Memory required for data: 1464168100
I1010 14:26:42.843510 12881 layer_factory.hpp:77] Creating layer conv5_0/3x3_dwconv/SE_fc1/relu
I1010 14:26:42.843518 12881 net.cpp:86] Creating Layer conv5_0/3x3_dwconv/SE_fc1/relu
I1010 14:26:42.843523 12881 net.cpp:409] conv5_0/3x3_dwconv/SE_fc1/relu <- conv5_0/3x3_dwconv/SE_fc1
I1010 14:26:42.843535 12881 net.cpp:370] conv5_0/3x3_dwconv/SE_fc1/relu -> conv5_0/3x3_dwconv/SE_fc1 (in-place)
I1010 14:26:42.844205 12881 net.cpp:124] Setting up conv5_0/3x3_dwconv/SE_fc1/relu
I1010 14:26:42.844220 12881 net.cpp:131] Top shape: 25 15 1 1 (375)
I1010 14:26:42.844224 12881 net.cpp:139] Memory required for data: 1464169600
I1010 14:26:42.844228 12881 layer_factory.hpp:77] Creating layer conv5_0/3x3_dwconv/SE_fc2
I1010 14:26:42.844242 12881 net.cpp:86] Creating Layer conv5_0/3x3_dwconv/SE_fc2
I1010 14:26:42.844247 12881 net.cpp:409] conv5_0/3x3_dwconv/SE_fc2 <- conv5_0/3x3_dwconv/SE_fc1
I1010 14:26:42.844254 12881 net.cpp:383] conv5_0/3x3_dwconv/SE_fc2 -> conv5_0/3x3_dwconv/SE_fc2
I1010 14:26:42.844808 12881 net.cpp:124] Setting up conv5_0/3x3_dwconv/SE_fc2
I1010 14:26:42.844821 12881 net.cpp:131] Top shape: 25 240 1 1 (6000)
I1010 14:26:42.844825 12881 net.cpp:139] Memory required for data: 1464193600
I1010 14:26:42.844831 12881 layer_factory.hpp:77] Creating layer conv5_0/3x3_dwconv/SE_weights
I1010 14:26:42.844838 12881 net.cpp:86] Creating Layer conv5_0/3x3_dwconv/SE_weights
I1010 14:26:42.844842 12881 net.cpp:409] conv5_0/3x3_dwconv/SE_weights <- conv5_0/3x3_dwconv/SE_fc2
I1010 14:26:42.844848 12881 net.cpp:370] conv5_0/3x3_dwconv/SE_weights -> conv5_0/3x3_dwconv/SE_fc2 (in-place)
I1010 14:26:42.845705 12881 net.cpp:124] Setting up conv5_0/3x3_dwconv/SE_weights
I1010 14:26:42.845719 12881 net.cpp:131] Top shape: 25 240 1 1 (6000)
I1010 14:26:42.845723 12881 net.cpp:139] Memory required for data: 1464217600
I1010 14:26:42.845727 12881 layer_factory.hpp:77] Creating layer conv5_0/3x3_dwconv/SE_weights/reshape
I1010 14:26:42.845736 12881 net.cpp:86] Creating Layer conv5_0/3x3_dwconv/SE_weights/reshape
I1010 14:26:42.845739 12881 net.cpp:409] conv5_0/3x3_dwconv/SE_weights/reshape <- conv5_0/3x3_dwconv/SE_fc2
I1010 14:26:42.845748 12881 net.cpp:383] conv5_0/3x3_dwconv/SE_weights/reshape -> conv5_0/3x3_dwconv/SE_weights/reshape
I1010 14:26:42.845788 12881 net.cpp:124] Setting up conv5_0/3x3_dwconv/SE_weights/reshape
I1010 14:26:42.845796 12881 net.cpp:131] Top shape: 25 240 (6000)
I1010 14:26:42.845800 12881 net.cpp:139] Memory required for data: 1464241600
I1010 14:26:42.845809 12881 layer_factory.hpp:77] Creating layer conv5_0/3x3_dwconv/scale
I1010 14:26:42.845818 12881 net.cpp:86] Creating Layer conv5_0/3x3_dwconv/scale
I1010 14:26:42.845821 12881 net.cpp:409] conv5_0/3x3_dwconv/scale <- conv5_0/3x3_dwconv/concat_conv5_0/3x3_dwconv/concat_fixed_point_0_split_1
I1010 14:26:42.845826 12881 net.cpp:409] conv5_0/3x3_dwconv/scale <- conv5_0/3x3_dwconv/SE_weights/reshape
I1010 14:26:42.845832 12881 net.cpp:383] conv5_0/3x3_dwconv/scale -> conv5_0/3x3_dwconv/scale
I1010 14:26:42.845921 12881 net.cpp:124] Setting up conv5_0/3x3_dwconv/scale
I1010 14:26:42.845928 12881 net.cpp:131] Top shape: 25 240 14 14 (1176000)
I1010 14:26:42.845932 12881 net.cpp:139] Memory required for data: 1468945600
I1010 14:26:42.845937 12881 layer_factory.hpp:77] Creating layer conv5_0/3x3_dwconv/scale_fixed_point
I1010 14:26:42.845942 12881 net.cpp:86] Creating Layer conv5_0/3x3_dwconv/scale_fixed_point
I1010 14:26:42.845947 12881 net.cpp:409] conv5_0/3x3_dwconv/scale_fixed_point <- conv5_0/3x3_dwconv/scale
I1010 14:26:42.845954 12881 net.cpp:370] conv5_0/3x3_dwconv/scale_fixed_point -> conv5_0/3x3_dwconv/scale (in-place)
I1010 14:26:42.845985 12881 net.cpp:124] Setting up conv5_0/3x3_dwconv/scale_fixed_point
I1010 14:26:42.846004 12881 net.cpp:131] Top shape: 25 240 14 14 (1176000)
I1010 14:26:42.846007 12881 net.cpp:139] Memory required for data: 1473649600
I1010 14:26:42.846012 12881 layer_factory.hpp:77] Creating layer conv5_0/1x1_decrease
I1010 14:26:42.846024 12881 net.cpp:86] Creating Layer conv5_0/1x1_decrease
I1010 14:26:42.846027 12881 net.cpp:409] conv5_0/1x1_decrease <- conv5_0/3x3_dwconv/scale
I1010 14:26:42.846032 12881 net.cpp:383] conv5_0/1x1_decrease -> conv5_0/1x1_decrease/bn
I1010 14:26:42.848425 12881 net.cpp:124] Setting up conv5_0/1x1_decrease
I1010 14:26:42.848440 12881 net.cpp:131] Top shape: 25 80 14 14 (392000)
I1010 14:26:42.848444 12881 net.cpp:139] Memory required for data: 1475217600
I1010 14:26:42.848451 12881 layer_factory.hpp:77] Creating layer conv5_0/1x1_decrease/bn_fixed_point
I1010 14:26:42.848462 12881 net.cpp:86] Creating Layer conv5_0/1x1_decrease/bn_fixed_point
I1010 14:26:42.848466 12881 net.cpp:409] conv5_0/1x1_decrease/bn_fixed_point <- conv5_0/1x1_decrease/bn
I1010 14:26:42.848472 12881 net.cpp:370] conv5_0/1x1_decrease/bn_fixed_point -> conv5_0/1x1_decrease/bn (in-place)
I1010 14:26:42.848511 12881 net.cpp:124] Setting up conv5_0/1x1_decrease/bn_fixed_point
I1010 14:26:42.848520 12881 net.cpp:131] Top shape: 25 80 14 14 (392000)
I1010 14:26:42.848523 12881 net.cpp:139] Memory required for data: 1476785600
I1010 14:26:42.848527 12881 layer_factory.hpp:77] Creating layer conv5_0/1x1_decrease/bn_conv5_0/1x1_decrease/bn_fixed_point_0_split
I1010 14:26:42.848536 12881 net.cpp:86] Creating Layer conv5_0/1x1_decrease/bn_conv5_0/1x1_decrease/bn_fixed_point_0_split
I1010 14:26:42.848539 12881 net.cpp:409] conv5_0/1x1_decrease/bn_conv5_0/1x1_decrease/bn_fixed_point_0_split <- conv5_0/1x1_decrease/bn
I1010 14:26:42.848544 12881 net.cpp:383] conv5_0/1x1_decrease/bn_conv5_0/1x1_decrease/bn_fixed_point_0_split -> conv5_0/1x1_decrease/bn_conv5_0/1x1_decrease/bn_fixed_point_0_split_0
I1010 14:26:42.848551 12881 net.cpp:383] conv5_0/1x1_decrease/bn_conv5_0/1x1_decrease/bn_fixed_point_0_split -> conv5_0/1x1_decrease/bn_conv5_0/1x1_decrease/bn_fixed_point_0_split_1
I1010 14:26:42.848600 12881 net.cpp:124] Setting up conv5_0/1x1_decrease/bn_conv5_0/1x1_decrease/bn_fixed_point_0_split
I1010 14:26:42.848608 12881 net.cpp:131] Top shape: 25 80 14 14 (392000)
I1010 14:26:42.848613 12881 net.cpp:131] Top shape: 25 80 14 14 (392000)
I1010 14:26:42.848615 12881 net.cpp:139] Memory required for data: 1479921600
I1010 14:26:42.848619 12881 layer_factory.hpp:77] Creating layer conv5_1/1x1_increase
I1010 14:26:42.848629 12881 net.cpp:86] Creating Layer conv5_1/1x1_increase
I1010 14:26:42.848634 12881 net.cpp:409] conv5_1/1x1_increase <- conv5_0/1x1_decrease/bn_conv5_0/1x1_decrease/bn_fixed_point_0_split_0
I1010 14:26:42.848639 12881 net.cpp:383] conv5_1/1x1_increase -> conv5_1/1x1_increase/bn
I1010 14:26:42.849839 12881 net.cpp:124] Setting up conv5_1/1x1_increase
I1010 14:26:42.849853 12881 net.cpp:131] Top shape: 25 240 14 14 (1176000)
I1010 14:26:42.849856 12881 net.cpp:139] Memory required for data: 1484625600
I1010 14:26:42.849864 12881 layer_factory.hpp:77] Creating layer conv5_1/1x1_increase/hardswish
I1010 14:26:42.849871 12881 net.cpp:86] Creating Layer conv5_1/1x1_increase/hardswish
I1010 14:26:42.849875 12881 net.cpp:409] conv5_1/1x1_increase/hardswish <- conv5_1/1x1_increase/bn
I1010 14:26:42.849884 12881 net.cpp:370] conv5_1/1x1_increase/hardswish -> conv5_1/1x1_increase/bn (in-place)
I1010 14:26:42.849920 12881 net.cpp:124] Setting up conv5_1/1x1_increase/hardswish
I1010 14:26:42.849927 12881 net.cpp:131] Top shape: 25 240 14 14 (1176000)
I1010 14:26:42.849931 12881 net.cpp:139] Memory required for data: 1489329600
I1010 14:26:42.849934 12881 layer_factory.hpp:77] Creating layer conv5_1/1x1_increase/bn_fixed_point
I1010 14:26:42.849942 12881 net.cpp:86] Creating Layer conv5_1/1x1_increase/bn_fixed_point
I1010 14:26:42.849946 12881 net.cpp:409] conv5_1/1x1_increase/bn_fixed_point <- conv5_1/1x1_increase/bn
I1010 14:26:42.849951 12881 net.cpp:370] conv5_1/1x1_increase/bn_fixed_point -> conv5_1/1x1_increase/bn (in-place)
I1010 14:26:42.850000 12881 net.cpp:124] Setting up conv5_1/1x1_increase/bn_fixed_point
I1010 14:26:42.850008 12881 net.cpp:131] Top shape: 25 240 14 14 (1176000)
I1010 14:26:42.850011 12881 net.cpp:139] Memory required for data: 1494033600
I1010 14:26:42.850015 12881 layer_factory.hpp:77] Creating layer conv5_1/1x1_increase/slice
I1010 14:26:42.850023 12881 net.cpp:86] Creating Layer conv5_1/1x1_increase/slice
I1010 14:26:42.850026 12881 net.cpp:409] conv5_1/1x1_increase/slice <- conv5_1/1x1_increase/bn
I1010 14:26:42.850033 12881 net.cpp:383] conv5_1/1x1_increase/slice -> conv5_1/1x1_increase/split1
I1010 14:26:42.850041 12881 net.cpp:383] conv5_1/1x1_increase/slice -> conv5_1/1x1_increase/split2
I1010 14:26:42.850093 12881 net.cpp:124] Setting up conv5_1/1x1_increase/slice
I1010 14:26:42.850100 12881 net.cpp:131] Top shape: 25 120 14 14 (588000)
I1010 14:26:42.850106 12881 net.cpp:131] Top shape: 25 120 14 14 (588000)
I1010 14:26:42.850108 12881 net.cpp:139] Memory required for data: 1498737600
I1010 14:26:42.850113 12881 layer_factory.hpp:77] Creating layer conv5_1/3x3_dwconv/slice_0
I1010 14:26:42.850124 12881 net.cpp:86] Creating Layer conv5_1/3x3_dwconv/slice_0
I1010 14:26:42.850128 12881 net.cpp:409] conv5_1/3x3_dwconv/slice_0 <- conv5_1/1x1_increase/split1
I1010 14:26:42.850134 12881 net.cpp:383] conv5_1/3x3_dwconv/slice_0 -> conv5_1/3x3_dwconv/slice_0/bn
I1010 14:26:42.850780 12881 net.cpp:124] Setting up conv5_1/3x3_dwconv/slice_0
I1010 14:26:42.850792 12881 net.cpp:131] Top shape: 25 120 14 14 (588000)
I1010 14:26:42.850795 12881 net.cpp:139] Memory required for data: 1501089600
I1010 14:26:42.850803 12881 layer_factory.hpp:77] Creating layer conv5_1/3x3_dwconv/slice_0/hardswish
I1010 14:26:42.850819 12881 net.cpp:86] Creating Layer conv5_1/3x3_dwconv/slice_0/hardswish
I1010 14:26:42.850824 12881 net.cpp:409] conv5_1/3x3_dwconv/slice_0/hardswish <- conv5_1/3x3_dwconv/slice_0/bn
I1010 14:26:42.850832 12881 net.cpp:370] conv5_1/3x3_dwconv/slice_0/hardswish -> conv5_1/3x3_dwconv/slice_0/bn (in-place)
I1010 14:26:42.850867 12881 net.cpp:124] Setting up conv5_1/3x3_dwconv/slice_0/hardswish
I1010 14:26:42.850877 12881 net.cpp:131] Top shape: 25 120 14 14 (588000)
I1010 14:26:42.850880 12881 net.cpp:139] Memory required for data: 1503441600
I1010 14:26:42.850884 12881 layer_factory.hpp:77] Creating layer conv5_1/3x3_dwconv/slice_1
I1010 14:26:42.850893 12881 net.cpp:86] Creating Layer conv5_1/3x3_dwconv/slice_1
I1010 14:26:42.850896 12881 net.cpp:409] conv5_1/3x3_dwconv/slice_1 <- conv5_1/1x1_increase/split2
I1010 14:26:42.850904 12881 net.cpp:383] conv5_1/3x3_dwconv/slice_1 -> conv5_1/3x3_dwconv/slice_1/bn
I1010 14:26:42.851811 12881 net.cpp:124] Setting up conv5_1/3x3_dwconv/slice_1
I1010 14:26:42.851828 12881 net.cpp:131] Top shape: 25 120 14 14 (588000)
I1010 14:26:42.851832 12881 net.cpp:139] Memory required for data: 1505793600
I1010 14:26:42.851840 12881 layer_factory.hpp:77] Creating layer conv5_1/3x3_dwconv/slice_1/hardswish
I1010 14:26:42.851846 12881 net.cpp:86] Creating Layer conv5_1/3x3_dwconv/slice_1/hardswish
I1010 14:26:42.851851 12881 net.cpp:409] conv5_1/3x3_dwconv/slice_1/hardswish <- conv5_1/3x3_dwconv/slice_1/bn
I1010 14:26:42.851856 12881 net.cpp:370] conv5_1/3x3_dwconv/slice_1/hardswish -> conv5_1/3x3_dwconv/slice_1/bn (in-place)
I1010 14:26:42.851894 12881 net.cpp:124] Setting up conv5_1/3x3_dwconv/slice_1/hardswish
I1010 14:26:42.851902 12881 net.cpp:131] Top shape: 25 120 14 14 (588000)
I1010 14:26:42.851905 12881 net.cpp:139] Memory required for data: 1508145600
I1010 14:26:42.851910 12881 layer_factory.hpp:77] Creating layer conv5_1/3x3_dwconv/concat
I1010 14:26:42.851917 12881 net.cpp:86] Creating Layer conv5_1/3x3_dwconv/concat
I1010 14:26:42.851920 12881 net.cpp:409] conv5_1/3x3_dwconv/concat <- conv5_1/3x3_dwconv/slice_0/bn
I1010 14:26:42.851925 12881 net.cpp:409] conv5_1/3x3_dwconv/concat <- conv5_1/3x3_dwconv/slice_1/bn
I1010 14:26:42.851933 12881 net.cpp:383] conv5_1/3x3_dwconv/concat -> conv5_1/3x3_dwconv/concat
I1010 14:26:42.851963 12881 net.cpp:124] Setting up conv5_1/3x3_dwconv/concat
I1010 14:26:42.851982 12881 net.cpp:131] Top shape: 25 240 14 14 (1176000)
I1010 14:26:42.851986 12881 net.cpp:139] Memory required for data: 1512849600
I1010 14:26:42.851990 12881 layer_factory.hpp:77] Creating layer conv5_1/3x3_dwconv/concat_fixed_point
I1010 14:26:42.851999 12881 net.cpp:86] Creating Layer conv5_1/3x3_dwconv/concat_fixed_point
I1010 14:26:42.852002 12881 net.cpp:409] conv5_1/3x3_dwconv/concat_fixed_point <- conv5_1/3x3_dwconv/concat
I1010 14:26:42.852010 12881 net.cpp:370] conv5_1/3x3_dwconv/concat_fixed_point -> conv5_1/3x3_dwconv/concat (in-place)
I1010 14:26:42.852041 12881 net.cpp:124] Setting up conv5_1/3x3_dwconv/concat_fixed_point
I1010 14:26:42.852046 12881 net.cpp:131] Top shape: 25 240 14 14 (1176000)
I1010 14:26:42.852051 12881 net.cpp:139] Memory required for data: 1517553600
I1010 14:26:42.852054 12881 layer_factory.hpp:77] Creating layer conv5_1/3x3_dwconv/concat_conv5_1/3x3_dwconv/concat_fixed_point_0_split
I1010 14:26:42.852062 12881 net.cpp:86] Creating Layer conv5_1/3x3_dwconv/concat_conv5_1/3x3_dwconv/concat_fixed_point_0_split
I1010 14:26:42.852066 12881 net.cpp:409] conv5_1/3x3_dwconv/concat_conv5_1/3x3_dwconv/concat_fixed_point_0_split <- conv5_1/3x3_dwconv/concat
I1010 14:26:42.852072 12881 net.cpp:383] conv5_1/3x3_dwconv/concat_conv5_1/3x3_dwconv/concat_fixed_point_0_split -> conv5_1/3x3_dwconv/concat_conv5_1/3x3_dwconv/concat_fixed_point_0_split_0
I1010 14:26:42.852078 12881 net.cpp:383] conv5_1/3x3_dwconv/concat_conv5_1/3x3_dwconv/concat_fixed_point_0_split -> conv5_1/3x3_dwconv/concat_conv5_1/3x3_dwconv/concat_fixed_point_0_split_1
I1010 14:26:42.852131 12881 net.cpp:124] Setting up conv5_1/3x3_dwconv/concat_conv5_1/3x3_dwconv/concat_fixed_point_0_split
I1010 14:26:42.852138 12881 net.cpp:131] Top shape: 25 240 14 14 (1176000)
I1010 14:26:42.852142 12881 net.cpp:131] Top shape: 25 240 14 14 (1176000)
I1010 14:26:42.852145 12881 net.cpp:139] Memory required for data: 1526961600
I1010 14:26:42.852149 12881 layer_factory.hpp:77] Creating layer conv5_1/3x3_dwconv/SE_global_pool
I1010 14:26:42.852157 12881 net.cpp:86] Creating Layer conv5_1/3x3_dwconv/SE_global_pool
I1010 14:26:42.852161 12881 net.cpp:409] conv5_1/3x3_dwconv/SE_global_pool <- conv5_1/3x3_dwconv/concat_conv5_1/3x3_dwconv/concat_fixed_point_0_split_0
I1010 14:26:42.852166 12881 net.cpp:383] conv5_1/3x3_dwconv/SE_global_pool -> conv5_1/3x3_dwconv/SE_global_pool
I1010 14:26:42.852196 12881 net.cpp:124] Setting up conv5_1/3x3_dwconv/SE_global_pool
I1010 14:26:42.852203 12881 net.cpp:131] Top shape: 25 240 1 1 (6000)
I1010 14:26:42.852206 12881 net.cpp:139] Memory required for data: 1526985600
I1010 14:26:42.852210 12881 layer_factory.hpp:77] Creating layer conv5_1/3x3_dwconv/SE_bn
I1010 14:26:42.852217 12881 net.cpp:86] Creating Layer conv5_1/3x3_dwconv/SE_bn
I1010 14:26:42.852223 12881 net.cpp:409] conv5_1/3x3_dwconv/SE_bn <- conv5_1/3x3_dwconv/SE_global_pool
I1010 14:26:42.852229 12881 net.cpp:383] conv5_1/3x3_dwconv/SE_bn -> conv5_1/3x3_dwconv/SE_bn
I1010 14:26:42.852283 12881 layer_factory.hpp:77] Creating layer conv5_1/3x3_dwconv/SE_bn
I1010 14:26:42.852425 12881 net.cpp:124] Setting up conv5_1/3x3_dwconv/SE_bn
I1010 14:26:42.852433 12881 net.cpp:131] Top shape: 25 240 1 1 (6000)
I1010 14:26:42.852437 12881 net.cpp:139] Memory required for data: 1527009600
I1010 14:26:42.852442 12881 layer_factory.hpp:77] Creating layer conv5_1/3x3_dwconv/SE_fc1
I1010 14:26:42.852452 12881 net.cpp:86] Creating Layer conv5_1/3x3_dwconv/SE_fc1
I1010 14:26:42.852455 12881 net.cpp:409] conv5_1/3x3_dwconv/SE_fc1 <- conv5_1/3x3_dwconv/SE_bn
I1010 14:26:42.852463 12881 net.cpp:383] conv5_1/3x3_dwconv/SE_fc1 -> conv5_1/3x3_dwconv/SE_fc1
I1010 14:26:42.853014 12881 net.cpp:124] Setting up conv5_1/3x3_dwconv/SE_fc1
I1010 14:26:42.853026 12881 net.cpp:131] Top shape: 25 15 1 1 (375)
I1010 14:26:42.853030 12881 net.cpp:139] Memory required for data: 1527011100
I1010 14:26:42.853036 12881 layer_factory.hpp:77] Creating layer conv5_1/3x3_dwconv/SE_fc1/relu
I1010 14:26:42.853044 12881 net.cpp:86] Creating Layer conv5_1/3x3_dwconv/SE_fc1/relu
I1010 14:26:42.853060 12881 net.cpp:409] conv5_1/3x3_dwconv/SE_fc1/relu <- conv5_1/3x3_dwconv/SE_fc1
I1010 14:26:42.853067 12881 net.cpp:370] conv5_1/3x3_dwconv/SE_fc1/relu -> conv5_1/3x3_dwconv/SE_fc1 (in-place)
I1010 14:26:42.853822 12881 net.cpp:124] Setting up conv5_1/3x3_dwconv/SE_fc1/relu
I1010 14:26:42.853837 12881 net.cpp:131] Top shape: 25 15 1 1 (375)
I1010 14:26:42.853842 12881 net.cpp:139] Memory required for data: 1527012600
I1010 14:26:42.853845 12881 layer_factory.hpp:77] Creating layer conv5_1/3x3_dwconv/SE_fc2
I1010 14:26:42.853859 12881 net.cpp:86] Creating Layer conv5_1/3x3_dwconv/SE_fc2
I1010 14:26:42.853863 12881 net.cpp:409] conv5_1/3x3_dwconv/SE_fc2 <- conv5_1/3x3_dwconv/SE_fc1
I1010 14:26:42.853870 12881 net.cpp:383] conv5_1/3x3_dwconv/SE_fc2 -> conv5_1/3x3_dwconv/SE_fc2
I1010 14:26:42.854395 12881 net.cpp:124] Setting up conv5_1/3x3_dwconv/SE_fc2
I1010 14:26:42.854414 12881 net.cpp:131] Top shape: 25 240 1 1 (6000)
I1010 14:26:42.854418 12881 net.cpp:139] Memory required for data: 1527036600
I1010 14:26:42.854424 12881 layer_factory.hpp:77] Creating layer conv5_1/3x3_dwconv/SE_weights
I1010 14:26:42.854430 12881 net.cpp:86] Creating Layer conv5_1/3x3_dwconv/SE_weights
I1010 14:26:42.854435 12881 net.cpp:409] conv5_1/3x3_dwconv/SE_weights <- conv5_1/3x3_dwconv/SE_fc2
I1010 14:26:42.854444 12881 net.cpp:370] conv5_1/3x3_dwconv/SE_weights -> conv5_1/3x3_dwconv/SE_fc2 (in-place)
I1010 14:26:42.855139 12881 net.cpp:124] Setting up conv5_1/3x3_dwconv/SE_weights
I1010 14:26:42.855151 12881 net.cpp:131] Top shape: 25 240 1 1 (6000)
I1010 14:26:42.855155 12881 net.cpp:139] Memory required for data: 1527060600
I1010 14:26:42.855159 12881 layer_factory.hpp:77] Creating layer conv5_1/3x3_dwconv/SE_weights/reshape
I1010 14:26:42.855168 12881 net.cpp:86] Creating Layer conv5_1/3x3_dwconv/SE_weights/reshape
I1010 14:26:42.855173 12881 net.cpp:409] conv5_1/3x3_dwconv/SE_weights/reshape <- conv5_1/3x3_dwconv/SE_fc2
I1010 14:26:42.855182 12881 net.cpp:383] conv5_1/3x3_dwconv/SE_weights/reshape -> conv5_1/3x3_dwconv/SE_weights/reshape
I1010 14:26:42.855219 12881 net.cpp:124] Setting up conv5_1/3x3_dwconv/SE_weights/reshape
I1010 14:26:42.855226 12881 net.cpp:131] Top shape: 25 240 (6000)
I1010 14:26:42.855231 12881 net.cpp:139] Memory required for data: 1527084600
I1010 14:26:42.855233 12881 layer_factory.hpp:77] Creating layer conv5_1/3x3_dwconv/scale
I1010 14:26:42.855243 12881 net.cpp:86] Creating Layer conv5_1/3x3_dwconv/scale
I1010 14:26:42.855247 12881 net.cpp:409] conv5_1/3x3_dwconv/scale <- conv5_1/3x3_dwconv/concat_conv5_1/3x3_dwconv/concat_fixed_point_0_split_1
I1010 14:26:42.855252 12881 net.cpp:409] conv5_1/3x3_dwconv/scale <- conv5_1/3x3_dwconv/SE_weights/reshape
I1010 14:26:42.855258 12881 net.cpp:383] conv5_1/3x3_dwconv/scale -> conv5_1/3x3_dwconv/scale
I1010 14:26:42.855343 12881 net.cpp:124] Setting up conv5_1/3x3_dwconv/scale
I1010 14:26:42.855350 12881 net.cpp:131] Top shape: 25 240 14 14 (1176000)
I1010 14:26:42.855355 12881 net.cpp:139] Memory required for data: 1531788600
I1010 14:26:42.855357 12881 layer_factory.hpp:77] Creating layer conv5_1/3x3_dwconv/scale_fixed_point
I1010 14:26:42.855366 12881 net.cpp:86] Creating Layer conv5_1/3x3_dwconv/scale_fixed_point
I1010 14:26:42.855370 12881 net.cpp:409] conv5_1/3x3_dwconv/scale_fixed_point <- conv5_1/3x3_dwconv/scale
I1010 14:26:42.855377 12881 net.cpp:370] conv5_1/3x3_dwconv/scale_fixed_point -> conv5_1/3x3_dwconv/scale (in-place)
I1010 14:26:42.855406 12881 net.cpp:124] Setting up conv5_1/3x3_dwconv/scale_fixed_point
I1010 14:26:42.855413 12881 net.cpp:131] Top shape: 25 240 14 14 (1176000)
I1010 14:26:42.855417 12881 net.cpp:139] Memory required for data: 1536492600
I1010 14:26:42.855422 12881 layer_factory.hpp:77] Creating layer conv5_1/1x1_decrease
I1010 14:26:42.855433 12881 net.cpp:86] Creating Layer conv5_1/1x1_decrease
I1010 14:26:42.855437 12881 net.cpp:409] conv5_1/1x1_decrease <- conv5_1/3x3_dwconv/scale
I1010 14:26:42.855443 12881 net.cpp:383] conv5_1/1x1_decrease -> conv5_1/1x1_decrease/bn
I1010 14:26:42.856624 12881 net.cpp:124] Setting up conv5_1/1x1_decrease
I1010 14:26:42.856638 12881 net.cpp:131] Top shape: 25 80 14 14 (392000)
I1010 14:26:42.856642 12881 net.cpp:139] Memory required for data: 1538060600
I1010 14:26:42.856650 12881 layer_factory.hpp:77] Creating layer conv5_1/elt_sum
I1010 14:26:42.856658 12881 net.cpp:86] Creating Layer conv5_1/elt_sum
I1010 14:26:42.856662 12881 net.cpp:409] conv5_1/elt_sum <- conv5_0/1x1_decrease/bn_conv5_0/1x1_decrease/bn_fixed_point_0_split_1
I1010 14:26:42.856667 12881 net.cpp:409] conv5_1/elt_sum <- conv5_1/1x1_decrease/bn
I1010 14:26:42.856675 12881 net.cpp:383] conv5_1/elt_sum -> conv5_1/elt_sum
I1010 14:26:42.856711 12881 net.cpp:124] Setting up conv5_1/elt_sum
I1010 14:26:42.856719 12881 net.cpp:131] Top shape: 25 80 14 14 (392000)
I1010 14:26:42.856721 12881 net.cpp:139] Memory required for data: 1539628600
I1010 14:26:42.856725 12881 layer_factory.hpp:77] Creating layer conv5_1/elt_sum_fixed_point
I1010 14:26:42.856734 12881 net.cpp:86] Creating Layer conv5_1/elt_sum_fixed_point
I1010 14:26:42.856739 12881 net.cpp:409] conv5_1/elt_sum_fixed_point <- conv5_1/elt_sum
I1010 14:26:42.856745 12881 net.cpp:370] conv5_1/elt_sum_fixed_point -> conv5_1/elt_sum (in-place)
I1010 14:26:42.856775 12881 net.cpp:124] Setting up conv5_1/elt_sum_fixed_point
I1010 14:26:42.856781 12881 net.cpp:131] Top shape: 25 80 14 14 (392000)
I1010 14:26:42.856786 12881 net.cpp:139] Memory required for data: 1541196600
I1010 14:26:42.856789 12881 layer_factory.hpp:77] Creating layer conv5_1/elt_sum_conv5_1/elt_sum_fixed_point_0_split
I1010 14:26:42.856798 12881 net.cpp:86] Creating Layer conv5_1/elt_sum_conv5_1/elt_sum_fixed_point_0_split
I1010 14:26:42.856802 12881 net.cpp:409] conv5_1/elt_sum_conv5_1/elt_sum_fixed_point_0_split <- conv5_1/elt_sum
I1010 14:26:42.856812 12881 net.cpp:383] conv5_1/elt_sum_conv5_1/elt_sum_fixed_point_0_split -> conv5_1/elt_sum_conv5_1/elt_sum_fixed_point_0_split_0
I1010 14:26:42.856819 12881 net.cpp:383] conv5_1/elt_sum_conv5_1/elt_sum_fixed_point_0_split -> conv5_1/elt_sum_conv5_1/elt_sum_fixed_point_0_split_1
I1010 14:26:42.856868 12881 net.cpp:124] Setting up conv5_1/elt_sum_conv5_1/elt_sum_fixed_point_0_split
I1010 14:26:42.856875 12881 net.cpp:131] Top shape: 25 80 14 14 (392000)
I1010 14:26:42.856879 12881 net.cpp:131] Top shape: 25 80 14 14 (392000)
I1010 14:26:42.856884 12881 net.cpp:139] Memory required for data: 1544332600
I1010 14:26:42.856886 12881 layer_factory.hpp:77] Creating layer conv5_2/1x1_increase
I1010 14:26:42.856896 12881 net.cpp:86] Creating Layer conv5_2/1x1_increase
I1010 14:26:42.856900 12881 net.cpp:409] conv5_2/1x1_increase <- conv5_1/elt_sum_conv5_1/elt_sum_fixed_point_0_split_0
I1010 14:26:42.856911 12881 net.cpp:383] conv5_2/1x1_increase -> conv5_2/1x1_increase/bn
I1010 14:26:42.858105 12881 net.cpp:124] Setting up conv5_2/1x1_increase
I1010 14:26:42.858119 12881 net.cpp:131] Top shape: 25 240 14 14 (1176000)
I1010 14:26:42.858122 12881 net.cpp:139] Memory required for data: 1549036600
I1010 14:26:42.858140 12881 layer_factory.hpp:77] Creating layer conv5_2/1x1_increase/hardswish
I1010 14:26:42.858153 12881 net.cpp:86] Creating Layer conv5_2/1x1_increase/hardswish
I1010 14:26:42.858158 12881 net.cpp:409] conv5_2/1x1_increase/hardswish <- conv5_2/1x1_increase/bn
I1010 14:26:42.858165 12881 net.cpp:370] conv5_2/1x1_increase/hardswish -> conv5_2/1x1_increase/bn (in-place)
I1010 14:26:42.858201 12881 net.cpp:124] Setting up conv5_2/1x1_increase/hardswish
I1010 14:26:42.858208 12881 net.cpp:131] Top shape: 25 240 14 14 (1176000)
I1010 14:26:42.858211 12881 net.cpp:139] Memory required for data: 1553740600
I1010 14:26:42.858217 12881 layer_factory.hpp:77] Creating layer conv5_2/1x1_increase/bn_fixed_point
I1010 14:26:42.858224 12881 net.cpp:86] Creating Layer conv5_2/1x1_increase/bn_fixed_point
I1010 14:26:42.858228 12881 net.cpp:409] conv5_2/1x1_increase/bn_fixed_point <- conv5_2/1x1_increase/bn
I1010 14:26:42.858233 12881 net.cpp:370] conv5_2/1x1_increase/bn_fixed_point -> conv5_2/1x1_increase/bn (in-place)
I1010 14:26:42.858279 12881 net.cpp:124] Setting up conv5_2/1x1_increase/bn_fixed_point
I1010 14:26:42.858287 12881 net.cpp:131] Top shape: 25 240 14 14 (1176000)
I1010 14:26:42.858290 12881 net.cpp:139] Memory required for data: 1558444600
I1010 14:26:42.858296 12881 layer_factory.hpp:77] Creating layer conv5_2/1x1_increase/slice
I1010 14:26:42.858302 12881 net.cpp:86] Creating Layer conv5_2/1x1_increase/slice
I1010 14:26:42.858306 12881 net.cpp:409] conv5_2/1x1_increase/slice <- conv5_2/1x1_increase/bn
I1010 14:26:42.858314 12881 net.cpp:383] conv5_2/1x1_increase/slice -> conv5_2/1x1_increase/split1
I1010 14:26:42.858320 12881 net.cpp:383] conv5_2/1x1_increase/slice -> conv5_2/1x1_increase/split2
I1010 14:26:42.858371 12881 net.cpp:124] Setting up conv5_2/1x1_increase/slice
I1010 14:26:42.858376 12881 net.cpp:131] Top shape: 25 120 14 14 (588000)
I1010 14:26:42.858381 12881 net.cpp:131] Top shape: 25 120 14 14 (588000)
I1010 14:26:42.858384 12881 net.cpp:139] Memory required for data: 1563148600
I1010 14:26:42.858388 12881 layer_factory.hpp:77] Creating layer conv5_2/3x3_dwconv/slice_0
I1010 14:26:42.858398 12881 net.cpp:86] Creating Layer conv5_2/3x3_dwconv/slice_0
…
I1010 14:26:42.969149 12881 layer_factory.hpp:77] Creating layer conv7_1/3x3_dwconv/slice_2
I1010 14:26:42.969161 12881 net.cpp:86] Creating Layer conv7_1/3x3_dwconv/slice_2
I1010 14:26:42.969167 12881 net.cpp:409] conv7_1/3x3_dwconv/slice_2 <- conv7_1/1x1_increase/split3
I1010 14:26:42.969174 12881 net.cpp:383] conv7_1/3x3_dwconv/slice_2 -> conv7_1/3x3_dwconv/slice_2/bn
I1010 14:26:42.970319 12881 net.cpp:124] Setting up conv7_1/3x3_dwconv/slice_2
I1010 14:26:42.970332 12881 net.cpp:131] Top shape: 25 192 7 7 (235200)
I1010 14:26:42.970336 12881 net.cpp:139] Memory required for data: 2261179400
I1010 14:26:42.970343 12881 layer_factory.hpp:77] Creating layer conv7_1/3x3_dwconv/slice_2/hardswish
I1010 14:26:42.970351 12881 net.cpp:86] Creating Layer conv7_1/3x3_dwconv/slice_2/hardswish
I1010 14:26:42.970356 12881 net.cpp:409] conv7_1/3x3_dwconv/slice_2/hardswish <- conv7_1/3x3_dwconv/slice_2/bn
I1010 14:26:42.970365 12881 net.cpp:370] conv7_1/3x3_dwconv/slice_2/hardswish -> conv7_1/3x3_dwconv/slice_2/bn (in-place)
I1010 14:26:42.970402 12881 net.cpp:124] Setting up conv7_1/3x3_dwconv/slice_2/hardswish
I1010 14:26:42.970412 12881 net.cpp:131] Top shape: 25 192 7 7 (235200)
I1010 14:26:42.970414 12881 net.cpp:139] Memory required for data: 2262120200
I1010 14:26:42.970417 12881 layer_factory.hpp:77] Creating layer conv7_1/3x3_dwconv/concat
I1010 14:26:42.970423 12881 net.cpp:86] Creating Layer conv7_1/3x3_dwconv/concat
I1010 14:26:42.970427 12881 net.cpp:409] conv7_1/3x3_dwconv/concat <- conv7_1/3x3_dwconv/slice_0/bn
I1010 14:26:42.970432 12881 net.cpp:409] conv7_1/3x3_dwconv/concat <- conv7_1/3x3_dwconv/slice_1/bn
I1010 14:26:42.970436 12881 net.cpp:409] conv7_1/3x3_dwconv/concat <- conv7_1/3x3_dwconv/slice_2/bn
I1010 14:26:42.970441 12881 net.cpp:383] conv7_1/3x3_dwconv/concat -> conv7_1/3x3_dwconv/concat
I1010 14:26:42.970475 12881 net.cpp:124] Setting up conv7_1/3x3_dwconv/concat
I1010 14:26:42.970481 12881 net.cpp:131] Top shape: 25 576 7 7 (705600)
I1010 14:26:42.970484 12881 net.cpp:139] Memory required for data: 2264942600
I1010 14:26:42.970489 12881 layer_factory.hpp:77] Creating layer conv7_1/3x3_dwconv/concat_fixed_point
I1010 14:26:42.970495 12881 net.cpp:86] Creating Layer conv7_1/3x3_dwconv/concat_fixed_point
I1010 14:26:42.970499 12881 net.cpp:409] conv7_1/3x3_dwconv/concat_fixed_point <- conv7_1/3x3_dwconv/concat
I1010 14:26:42.970504 12881 net.cpp:370] conv7_1/3x3_dwconv/concat_fixed_point -> conv7_1/3x3_dwconv/concat (in-place)
I1010 14:26:42.970536 12881 net.cpp:124] Setting up conv7_1/3x3_dwconv/concat_fixed_point
I1010 14:26:42.970543 12881 net.cpp:131] Top shape: 25 576 7 7 (705600)
I1010 14:26:42.970546 12881 net.cpp:139] Memory required for data: 2267765000
I1010 14:26:42.970552 12881 layer_factory.hpp:77] Creating layer conv7_1/3x3_dwconv/concat_conv7_1/3x3_dwconv/concat_fixed_point_0_split
I1010 14:26:42.970557 12881 net.cpp:86] Creating Layer conv7_1/3x3_dwconv/concat_conv7_1/3x3_dwconv/concat_fixed_point_0_split
I1010 14:26:42.970561 12881 net.cpp:409] conv7_1/3x3_dwconv/concat_conv7_1/3x3_dwconv/concat_fixed_point_0_split <- conv7_1/3x3_dwconv/concat
I1010 14:26:42.970568 12881 net.cpp:383] conv7_1/3x3_dwconv/concat_conv7_1/3x3_dwconv/concat_fixed_point_0_split -> conv7_1/3x3_dwconv/concat_conv7_1/3x3_dwconv/concat_fixed_point_0_split_0
I1010 14:26:42.970576 12881 net.cpp:383] conv7_1/3x3_dwconv/concat_conv7_1/3x3_dwconv/concat_fixed_point_0_split -> conv7_1/3x3_dwconv/concat_conv7_1/3x3_dwconv/concat_fixed_point_0_split_1
I1010 14:26:42.970624 12881 net.cpp:124] Setting up conv7_1/3x3_dwconv/concat_conv7_1/3x3_dwconv/concat_fixed_point_0_split
I1010 14:26:42.970633 12881 net.cpp:131] Top shape: 25 576 7 7 (705600)
I1010 14:26:42.970638 12881 net.cpp:131] Top shape: 25 576 7 7 (705600)
I1010 14:26:42.970640 12881 net.cpp:139] Memory required for data: 2273409800
I1010 14:26:42.970644 12881 layer_factory.hpp:77] Creating layer conv7_1/3x3_dwconv/SE_global_pool
I1010 14:26:42.970664 12881 net.cpp:86] Creating Layer conv7_1/3x3_dwconv/SE_global_pool
I1010 14:26:42.970669 12881 net.cpp:409] conv7_1/3x3_dwconv/SE_global_pool <- conv7_1/3x3_dwconv/concat_conv7_1/3x3_dwconv/concat_fixed_point_0_split_0
I1010 14:26:42.970675 12881 net.cpp:383] conv7_1/3x3_dwconv/SE_global_pool -> conv7_1/3x3_dwconv/SE_global_pool
I1010 14:26:42.970710 12881 net.cpp:124] Setting up conv7_1/3x3_dwconv/SE_global_pool
I1010 14:26:42.970717 12881 net.cpp:131] Top shape: 25 576 1 1 (14400)
I1010 14:26:42.970721 12881 net.cpp:139] Memory required for data: 2273467400
I1010 14:26:42.970724 12881 layer_factory.hpp:77] Creating layer conv7_1/3x3_dwconv/SE_bn
I1010 14:26:42.970733 12881 net.cpp:86] Creating Layer conv7_1/3x3_dwconv/SE_bn
I1010 14:26:42.970737 12881 net.cpp:409] conv7_1/3x3_dwconv/SE_bn <- conv7_1/3x3_dwconv/SE_global_pool
I1010 14:26:42.970743 12881 net.cpp:383] conv7_1/3x3_dwconv/SE_bn -> conv7_1/3x3_dwconv/SE_bn
I1010 14:26:42.970810 12881 layer_factory.hpp:77] Creating layer conv7_1/3x3_dwconv/SE_bn
I1010 14:26:42.970973 12881 net.cpp:124] Setting up conv7_1/3x3_dwconv/SE_bn
I1010 14:26:42.970981 12881 net.cpp:131] Top shape: 25 576 1 1 (14400)
I1010 14:26:42.970984 12881 net.cpp:139] Memory required for data: 2273525000
I1010 14:26:42.970990 12881 layer_factory.hpp:77] Creating layer conv7_1/3x3_dwconv/SE_fc1
I1010 14:26:42.971001 12881 net.cpp:86] Creating Layer conv7_1/3x3_dwconv/SE_fc1
I1010 14:26:42.971006 12881 net.cpp:409] conv7_1/3x3_dwconv/SE_fc1 <- conv7_1/3x3_dwconv/SE_bn
I1010 14:26:42.971014 12881 net.cpp:383] conv7_1/3x3_dwconv/SE_fc1 -> conv7_1/3x3_dwconv/SE_fc1
I1010 14:26:42.972088 12881 net.cpp:124] Setting up conv7_1/3x3_dwconv/SE_fc1
I1010 14:26:42.972102 12881 net.cpp:131] Top shape: 25 36 1 1 (900)
I1010 14:26:42.972106 12881 net.cpp:139] Memory required for data: 2273528600
I1010 14:26:42.972113 12881 layer_factory.hpp:77] Creating layer conv7_1/3x3_dwconv/SE_fc1/relu
I1010 14:26:42.972121 12881 net.cpp:86] Creating Layer conv7_1/3x3_dwconv/SE_fc1/relu
I1010 14:26:42.972126 12881 net.cpp:409] conv7_1/3x3_dwconv/SE_fc1/relu <- conv7_1/3x3_dwconv/SE_fc1
I1010 14:26:42.972133 12881 net.cpp:370] conv7_1/3x3_dwconv/SE_fc1/relu -> conv7_1/3x3_dwconv/SE_fc1 (in-place)
I1010 14:26:42.972769 12881 net.cpp:124] Setting up conv7_1/3x3_dwconv/SE_fc1/relu
I1010 14:26:42.972782 12881 net.cpp:131] Top shape: 25 36 1 1 (900)
I1010 14:26:42.972786 12881 net.cpp:139] Memory required for data: 2273532200
I1010 14:26:42.972790 12881 layer_factory.hpp:77] Creating layer conv7_1/3x3_dwconv/SE_fc2
I1010 14:26:42.972801 12881 net.cpp:86] Creating Layer conv7_1/3x3_dwconv/SE_fc2
I1010 14:26:42.972810 12881 net.cpp:409] conv7_1/3x3_dwconv/SE_fc2 <- conv7_1/3x3_dwconv/SE_fc1
I1010 14:26:42.972820 12881 net.cpp:383] conv7_1/3x3_dwconv/SE_fc2 -> conv7_1/3x3_dwconv/SE_fc2
I1010 14:26:42.973903 12881 net.cpp:124] Setting up conv7_1/3x3_dwconv/SE_fc2
I1010 14:26:42.973917 12881 net.cpp:131] Top shape: 25 576 1 1 (14400)
I1010 14:26:42.973920 12881 net.cpp:139] Memory required for data: 2273589800
I1010 14:26:42.973927 12881 layer_factory.hpp:77] Creating layer conv7_1/3x3_dwconv/SE_weights
I1010 14:26:42.973933 12881 net.cpp:86] Creating Layer conv7_1/3x3_dwconv/SE_weights
I1010 14:26:42.973938 12881 net.cpp:409] conv7_1/3x3_dwconv/SE_weights <- conv7_1/3x3_dwconv/SE_fc2
I1010 14:26:42.973943 12881 net.cpp:370] conv7_1/3x3_dwconv/SE_weights -> conv7_1/3x3_dwconv/SE_fc2 (in-place)
I1010 14:26:42.974566 12881 net.cpp:124] Setting up conv7_1/3x3_dwconv/SE_weights
I1010 14:26:42.974578 12881 net.cpp:131] Top shape: 25 576 1 1 (14400)
I1010 14:26:42.974582 12881 net.cpp:139] Memory required for data: 2273647400
I1010 14:26:42.974586 12881 layer_factory.hpp:77] Creating layer conv7_1/3x3_dwconv/SE_weights/reshape
I1010 14:26:42.974596 12881 net.cpp:86] Creating Layer conv7_1/3x3_dwconv/SE_weights/reshape
I1010 14:26:42.974601 12881 net.cpp:409] conv7_1/3x3_dwconv/SE_weights/reshape <- conv7_1/3x3_dwconv/SE_fc2
I1010 14:26:42.974609 12881 net.cpp:383] conv7_1/3x3_dwconv/SE_weights/reshape -> conv7_1/3x3_dwconv/SE_weights/reshape
I1010 14:26:42.974664 12881 net.cpp:124] Setting up conv7_1/3x3_dwconv/SE_weights/reshape
I1010 14:26:42.974673 12881 net.cpp:131] Top shape: 25 576 (14400)
I1010 14:26:42.974676 12881 net.cpp:139] Memory required for data: 2273705000
I1010 14:26:42.974680 12881 layer_factory.hpp:77] Creating layer conv7_1/3x3_dwconv/scale
I1010 14:26:42.974687 12881 net.cpp:86] Creating Layer conv7_1/3x3_dwconv/scale
I1010 14:26:42.974691 12881 net.cpp:409] conv7_1/3x3_dwconv/scale <- conv7_1/3x3_dwconv/concat_conv7_1/3x3_dwconv/concat_fixed_point_0_split_1
I1010 14:26:42.974696 12881 net.cpp:409] conv7_1/3x3_dwconv/scale <- conv7_1/3x3_dwconv/SE_weights/reshape
I1010 14:26:42.974709 12881 net.cpp:383] conv7_1/3x3_dwconv/scale -> conv7_1/3x3_dwconv/scale
I1010 14:26:42.974812 12881 net.cpp:124] Setting up conv7_1/3x3_dwconv/scale
I1010 14:26:42.974819 12881 net.cpp:131] Top shape: 25 576 7 7 (705600)
I1010 14:26:42.974822 12881 net.cpp:139] Memory required for data: 2276527400
I1010 14:26:42.974826 12881 layer_factory.hpp:77] Creating layer conv7_1/3x3_dwconv/scale_fixed_point
I1010 14:26:42.974834 12881 net.cpp:86] Creating Layer conv7_1/3x3_dwconv/scale_fixed_point
I1010 14:26:42.974838 12881 net.cpp:409] conv7_1/3x3_dwconv/scale_fixed_point <- conv7_1/3x3_dwconv/scale
I1010 14:26:42.974843 12881 net.cpp:370] conv7_1/3x3_dwconv/scale_fixed_point -> conv7_1/3x3_dwconv/scale (in-place)
I1010 14:26:42.974877 12881 net.cpp:124] Setting up conv7_1/3x3_dwconv/scale_fixed_point
I1010 14:26:42.974884 12881 net.cpp:131] Top shape: 25 576 7 7 (705600)
I1010 14:26:42.974887 12881 net.cpp:139] Memory required for data: 2279349800
I1010 14:26:42.974892 12881 layer_factory.hpp:77] Creating layer conv7_1/1x1_decrease
I1010 14:26:42.974903 12881 net.cpp:86] Creating Layer conv7_1/1x1_decrease
I1010 14:26:42.974910 12881 net.cpp:409] conv7_1/1x1_decrease <- conv7_1/3x3_dwconv/scale
I1010 14:26:42.974917 12881 net.cpp:383] conv7_1/1x1_decrease -> conv7_1/1x1_decrease/bn
I1010 14:26:42.979017 12881 net.cpp:124] Setting up conv7_1/1x1_decrease
I1010 14:26:42.979032 12881 net.cpp:131] Top shape: 25 192 7 7 (235200)
I1010 14:26:42.979037 12881 net.cpp:139] Memory required for data: 2280290600
I1010 14:26:42.979043 12881 layer_factory.hpp:77] Creating layer conv7_1/elt_sum
I1010 14:26:42.979051 12881 net.cpp:86] Creating Layer conv7_1/elt_sum
I1010 14:26:42.979056 12881 net.cpp:409] conv7_1/elt_sum <- conv7_0/1x1_decrease/bn_conv7_0/1x1_decrease/bn_fixed_point_0_split_1
I1010 14:26:42.979061 12881 net.cpp:409] conv7_1/elt_sum <- conv7_1/1x1_decrease/bn
I1010 14:26:42.979068 12881 net.cpp:383] conv7_1/elt_sum -> conv7_1/elt_sum
I1010 14:26:42.979115 12881 net.cpp:124] Setting up conv7_1/elt_sum
I1010 14:26:42.979169 12881 net.cpp:131] Top shape: 25 192 7 7 (235200)
I1010 14:26:42.979172 12881 net.cpp:139] Memory required for data: 2281231400
I1010 14:26:42.979177 12881 layer_factory.hpp:77] Creating layer conv7_1/elt_sum_fixed_point
I1010 14:26:42.979185 12881 net.cpp:86] Creating Layer conv7_1/elt_sum_fixed_point
I1010 14:26:42.979190 12881 net.cpp:409] conv7_1/elt_sum_fixed_point <- conv7_1/elt_sum
I1010 14:26:42.979195 12881 net.cpp:370] conv7_1/elt_sum_fixed_point -> conv7_1/elt_sum (in-place)
I1010 14:26:42.979230 12881 net.cpp:124] Setting up conv7_1/elt_sum_fixed_point
I1010 14:26:42.979238 12881 net.cpp:131] Top shape: 25 192 7 7 (235200)
I1010 14:26:42.979240 12881 net.cpp:139] Memory required for data: 2282172200
I1010 14:26:42.979245 12881 layer_factory.hpp:77] Creating layer conv7_1/elt_sum_conv7_1/elt_sum_fixed_point_0_split
I1010 14:26:42.979251 12881 net.cpp:86] Creating Layer conv7_1/elt_sum_conv7_1/elt_sum_fixed_point_0_split
I1010 14:26:42.979255 12881 net.cpp:409] conv7_1/elt_sum_conv7_1/elt_sum_fixed_point_0_split <- conv7_1/elt_sum
I1010 14:26:42.979261 12881 net.cpp:383] conv7_1/elt_sum_conv7_1/elt_sum_fixed_point_0_split -> conv7_1/elt_sum_conv7_1/elt_sum_fixed_point_0_split_0
I1010 14:26:42.979269 12881 net.cpp:383] conv7_1/elt_sum_conv7_1/elt_sum_fixed_point_0_split -> conv7_1/elt_sum_conv7_1/elt_sum_fixed_point_0_split_1
I1010 14:26:42.979336 12881 net.cpp:124] Setting up conv7_1/elt_sum_conv7_1/elt_sum_fixed_point_0_split
I1010 14:26:42.979343 12881 net.cpp:131] Top shape: 25 192 7 7 (235200)
I1010 14:26:42.979348 12881 net.cpp:131] Top shape: 25 192 7 7 (235200)
I1010 14:26:42.979351 12881 net.cpp:139] Memory required for data: 2284053800
I1010 14:26:42.979354 12881 layer_factory.hpp:77] Creating layer conv7_2/1x1_increase
I1010 14:26:42.979370 12881 net.cpp:86] Creating Layer conv7_2/1x1_increase
I1010 14:26:42.979374 12881 net.cpp:409] conv7_2/1x1_increase <- conv7_1/elt_sum_conv7_1/elt_sum_fixed_point_0_split_0
I1010 14:26:42.979382 12881 net.cpp:383] conv7_2/1x1_increase -> conv7_2/1x1_increase/bn
I1010 14:26:42.983346 12881 net.cpp:124] Setting up conv7_2/1x1_increase
I1010 14:26:42.983359 12881 net.cpp:131] Top shape: 25 576 7 7 (705600)
I1010 14:26:42.983363 12881 net.cpp:139] Memory required for data: 2286876200
I1010 14:26:42.983371 12881 layer_factory.hpp:77] Creating layer conv7_2/1x1_increase/hardswish
I1010 14:26:42.983383 12881 net.cpp:86] Creating Layer conv7_2/1x1_increase/hardswish
I1010 14:26:42.983391 12881 net.cpp:409] conv7_2/1x1_increase/hardswish <- conv7_2/1x1_increase/bn
I1010 14:26:42.983395 12881 net.cpp:370] conv7_2/1x1_increase/hardswish -> conv7_2/1x1_increase/bn (in-place)
I1010 14:26:42.983435 12881 net.cpp:124] Setting up conv7_2/1x1_increase/hardswish
I1010 14:26:42.983443 12881 net.cpp:131] Top shape: 25 576 7 7 (705600)
I1010 14:26:42.983446 12881 net.cpp:139] Memory required for data: 2289698600
I1010 14:26:42.983451 12881 layer_factory.hpp:77] Creating layer conv7_2/1x1_increase/bn_fixed_point
I1010 14:26:42.983458 12881 net.cpp:86] Creating Layer conv7_2/1x1_increase/bn_fixed_point
I1010 14:26:42.983461 12881 net.cpp:409] conv7_2/1x1_increase/bn_fixed_point <- conv7_2/1x1_increase/bn
I1010 14:26:42.983471 12881 net.cpp:370] conv7_2/1x1_increase/bn_fixed_point -> conv7_2/1x1_increase/bn (in-place)
I1010 14:26:42.983508 12881 net.cpp:124] Setting up conv7_2/1x1_increase/bn_fixed_point
I1010 14:26:42.983515 12881 net.cpp:131] Top shape: 25 576 7 7 (705600)
I1010 14:26:42.983518 12881 net.cpp:139] Memory required for data: 2292521000
I1010 14:26:42.983523 12881 layer_factory.hpp:77] Creating layer conv7_2/1x1_increase/slice
I1010 14:26:42.983530 12881 net.cpp:86] Creating Layer conv7_2/1x1_increase/slice
I1010 14:26:42.983534 12881 net.cpp:409] conv7_2/1x1_increase/slice <- conv7_2/1x1_increase/bn
I1010 14:26:42.983544 12881 net.cpp:383] conv7_2/1x1_increase/slice -> conv7_2/1x1_increase/split1
I1010 14:26:42.983554 12881 net.cpp:383] conv7_2/1x1_increase/slice -> conv7_2/1x1_increase/split2
I1010 14:26:42.983561 12881 net.cpp:383] conv7_2/1x1_increase/slice -> conv7_2/1x1_increase/split3
I1010 14:26:42.983633 12881 net.cpp:124] Setting up conv7_2/1x1_increase/slice
I1010 14:26:42.983641 12881 net.cpp:131] Top shape: 25 192 7 7 (235200)
I1010 14:26:42.983645 12881 net.cpp:131] Top shape: 25 192 7 7 (235200)
I1010 14:26:42.983649 12881 net.cpp:131] Top shape: 25 192 7 7 (235200)
I1010 14:26:42.983652 12881 net.cpp:139] Memory required for data: 2295343400
I1010 14:26:42.983655 12881 layer_factory.hpp:77] Creating layer conv7_2/3x3_dwconv/slice_0
I1010 14:26:42.983664 12881 net.cpp:86] Creating Layer conv7_2/3x3_dwconv/slice_0
I1010 14:26:42.983669 12881 net.cpp:409] conv7_2/3x3_dwconv/slice_0 <- conv7_2/1x1_increase/split1
I1010 14:26:42.983676 12881 net.cpp:383] conv7_2/3x3_dwconv/slice_0 -> conv7_2/3x3_dwconv/slice_0/bn
I1010 14:26:42.984385 12881 net.cpp:124] Setting up conv7_2/3x3_dwconv/slice_0
I1010 14:26:42.984398 12881 net.cpp:131] Top shape: 25 192 7 7 (235200)
I1010 14:26:42.984402 12881 net.cpp:139] Memory required for data: 2296284200
I1010 14:26:42.984410 12881 layer_factory.hpp:77] Creating layer conv7_2/3x3_dwconv/slice_0/hardswish
I1010 14:26:42.984417 12881 net.cpp:86] Creating Layer conv7_2/3x3_dwconv/slice_0/hardswish
I1010 14:26:42.984423 12881 net.cpp:409] conv7_2/3x3_dwconv/slice_0/hardswish <- conv7_2/3x3_dwconv/slice_0/bn
I1010 14:26:42.984441 12881 net.cpp:370] conv7_2/3x3_dwconv/slice_0/hardswish -> conv7_2/3x3_dwconv/slice_0/bn (in-place)
I1010 14:26:42.984483 12881 net.cpp:124] Setting up conv7_2/3x3_dwconv/slice_0/hardswish
I1010 14:26:42.984490 12881 net.cpp:131] Top shape: 25 192 7 7 (235200)
I1010 14:26:42.984493 12881 net.cpp:139] Memory required for data: 2297225000
I1010 14:26:42.984499 12881 layer_factory.hpp:77] Creating layer conv7_2/3x3_dwconv/slice_1
I1010 14:26:42.984510 12881 net.cpp:86] Creating Layer conv7_2/3x3_dwconv/slice_1
I1010 14:26:42.984515 12881 net.cpp:409] conv7_2/3x3_dwconv/slice_1 <- conv7_2/1x1_increase/split2
I1010 14:26:42.984524 12881 net.cpp:383] conv7_2/3x3_dwconv/slice_1 -> conv7_2/3x3_dwconv/slice_1/bn
I1010 14:26:42.985366 12881 net.cpp:124] Setting up conv7_2/3x3_dwconv/slice_1
I1010 14:26:42.985379 12881 net.cpp:131] Top shape: 25 192 7 7 (235200)
I1010 14:26:42.985383 12881 net.cpp:139] Memory required for data: 2298165800
I1010 14:26:42.985390 12881 layer_factory.hpp:77] Creating layer conv7_2/3x3_dwconv/slice_1/hardswish
I1010 14:26:42.985399 12881 net.cpp:86] Creating Layer conv7_2/3x3_dwconv/slice_1/hardswish
I1010 14:26:42.985405 12881 net.cpp:409] conv7_2/3x3_dwconv/slice_1/hardswish <- conv7_2/3x3_dwconv/slice_1/bn
I1010 14:26:42.985410 12881 net.cpp:370] conv7_2/3x3_dwconv/slice_1/hardswish -> conv7_2/3x3_dwconv/slice_1/bn (in-place)
I1010 14:26:42.985448 12881 net.cpp:124] Setting up conv7_2/3x3_dwconv/slice_1/hardswish
I1010 14:26:42.985455 12881 net.cpp:131] Top shape: 25 192 7 7 (235200)
I1010 14:26:42.985460 12881 net.cpp:139] Memory required for data: 2299106600
I1010 14:26:42.985462 12881 layer_factory.hpp:77] Creating layer conv7_2/3x3_dwconv/slice_2
I1010 14:26:42.985474 12881 net.cpp:86] Creating Layer conv7_2/3x3_dwconv/slice_2
I1010 14:26:42.985479 12881 net.cpp:409] conv7_2/3x3_dwconv/slice_2 <- conv7_2/1x1_increase/split3
I1010 14:26:42.985486 12881 net.cpp:383] conv7_2/3x3_dwconv/slice_2 -> conv7_2/3x3_dwconv/slice_2/bn
I1010 14:26:42.986750 12881 net.cpp:124] Setting up conv7_2/3x3_dwconv/slice_2
I1010 14:26:42.986765 12881 net.cpp:131] Top shape: 25 192 7 7 (235200)
I1010 14:26:42.986768 12881 net.cpp:139] Memory required for data: 2300047400
I1010 14:26:42.986776 12881 layer_factory.hpp:77] Creating layer conv7_2/3x3_dwconv/slice_2/hardswish
I1010 14:26:42.986785 12881 net.cpp:86] Creating Layer conv7_2/3x3_dwconv/slice_2/hardswish
I1010 14:26:42.986789 12881 net.cpp:409] conv7_2/3x3_dwconv/slice_2/hardswish <- conv7_2/3x3_dwconv/slice_2/bn
I1010 14:26:42.986796 12881 net.cpp:370] conv7_2/3x3_dwconv/slice_2/hardswish -> conv7_2/3x3_dwconv/slice_2/bn (in-place)
I1010 14:26:42.986840 12881 net.cpp:124] Setting up conv7_2/3x3_dwconv/slice_2/hardswish
I1010 14:26:42.986847 12881 net.cpp:131] Top shape: 25 192 7 7 (235200)
I1010 14:26:42.986851 12881 net.cpp:139] Memory required for data: 2300988200
I1010 14:26:42.986855 12881 layer_factory.hpp:77] Creating layer conv7_2/3x3_dwconv/concat
I1010 14:26:42.986862 12881 net.cpp:86] Creating Layer conv7_2/3x3_dwconv/concat
I1010 14:26:42.986866 12881 net.cpp:409] conv7_2/3x3_dwconv/concat <- conv7_2/3x3_dwconv/slice_0/bn
I1010 14:26:42.986871 12881 net.cpp:409] conv7_2/3x3_dwconv/concat <- conv7_2/3x3_dwconv/slice_1/bn
I1010 14:26:42.986876 12881 net.cpp:409] conv7_2/3x3_dwconv/concat <- conv7_2/3x3_dwconv/slice_2/bn
I1010 14:26:42.986881 12881 net.cpp:383] conv7_2/3x3_dwconv/concat -> conv7_2/3x3_dwconv/concat
I1010 14:26:42.986925 12881 net.cpp:124] Setting up conv7_2/3x3_dwconv/concat
I1010 14:26:42.986932 12881 net.cpp:131] Top shape: 25 576 7 7 (705600)
I1010 14:26:42.986934 12881 net.cpp:139] Memory required for data: 2303810600
I1010 14:26:42.986937 12881 layer_factory.hpp:77] Creating layer conv7_2/3x3_dwconv/concat_fixed_point
I1010 14:26:42.986943 12881 net.cpp:86] Creating Layer conv7_2/3x3_dwconv/concat_fixed_point
I1010 14:26:42.986948 12881 net.cpp:409] conv7_2/3x3_dwconv/concat_fixed_point <- conv7_2/3x3_dwconv/concat
I1010 14:26:42.986954 12881 net.cpp:370] conv7_2/3x3_dwconv/concat_fixed_point -> conv7_2/3x3_dwconv/concat (in-place)
I1010 14:26:42.987006 12881 net.cpp:124] Setting up conv7_2/3x3_dwconv/concat_fixed_point
I1010 14:26:42.987013 12881 net.cpp:131] Top shape: 25 576 7 7 (705600)
I1010 14:26:42.987016 12881 net.cpp:139] Memory required for data: 2306633000
I1010 14:26:42.987021 12881 layer_factory.hpp:77] Creating layer conv7_2/3x3_dwconv/concat_conv7_2/3x3_dwconv/concat_fixed_point_0_split
I1010 14:26:42.987026 12881 net.cpp:86] Creating Layer conv7_2/3x3_dwconv/concat_conv7_2/3x3_dwconv/concat_fixed_point_0_split
I1010 14:26:42.987030 12881 net.cpp:409] conv7_2/3x3_dwconv/concat_conv7_2/3x3_dwconv/concat_fixed_point_0_split <- conv7_2/3x3_dwconv/concat
I1010 14:26:42.987037 12881 net.cpp:383] conv7_2/3x3_dwconv/concat_conv7_2/3x3_dwconv/concat_fixed_point_0_split -> conv7_2/3x3_dwconv/concat_conv7_2/3x3_dwconv/concat_fixed_point_0_split_0
I1010 14:26:42.987044 12881 net.cpp:383] conv7_2/3x3_dwconv/concat_conv7_2/3x3_dwconv/concat_fixed_point_0_split -> conv7_2/3x3_dwconv/concat_conv7_2/3x3_dwconv/concat_fixed_point_0_split_1
I1010 14:26:42.987092 12881 net.cpp:124] Setting up conv7_2/3x3_dwconv/concat_conv7_2/3x3_dwconv/concat_fixed_point_0_split
I1010 14:26:42.987098 12881 net.cpp:131] Top shape: 25 576 7 7 (705600)
I1010 14:26:42.987102 12881 net.cpp:131] Top shape: 25 576 7 7 (705600)
I1010 14:26:42.987105 12881 net.cpp:139] Memory required for data: 2312277800
I1010 14:26:42.987110 12881 layer_factory.hpp:77] Creating layer conv7_2/3x3_dwconv/SE_global_pool
I1010 14:26:42.987118 12881 net.cpp:86] Creating Layer conv7_2/3x3_dwconv/SE_global_pool
I1010 14:26:42.987123 12881 net.cpp:409] conv7_2/3x3_dwconv/SE_global_pool <- conv7_2/3x3_dwconv/concat_conv7_2/3x3_dwconv/concat_fixed_point_0_split_0
I1010 14:26:42.987129 12881 net.cpp:383] conv7_2/3x3_dwconv/SE_global_pool -> conv7_2/3x3_dwconv/SE_global_pool
I1010 14:26:42.987159 12881 net.cpp:124] Setting up conv7_2/3x3_dwconv/SE_global_pool
I1010 14:26:42.987166 12881 net.cpp:131] Top shape: 25 576 1 1 (14400)
I1010 14:26:42.987169 12881 net.cpp:139] Memory required for data: 2312335400
I1010 14:26:42.987174 12881 layer_factory.hpp:77] Creating layer conv7_2/3x3_dwconv/SE_bn
I1010 14:26:42.987182 12881 net.cpp:86] Creating Layer conv7_2/3x3_dwconv/SE_bn
I1010 14:26:42.987187 12881 net.cpp:409] conv7_2/3x3_dwconv/SE_bn <- conv7_2/3x3_dwconv/SE_global_pool
I1010 14:26:42.987195 12881 net.cpp:383] conv7_2/3x3_dwconv/SE_bn -> conv7_2/3x3_dwconv/SE_bn
I1010 14:26:42.987263 12881 layer_factory.hpp:77] Creating layer conv7_2/3x3_dwconv/SE_bn
I1010 14:26:42.987423 12881 net.cpp:124] Setting up conv7_2/3x3_dwconv/SE_bn
I1010 14:26:42.987433 12881 net.cpp:131] Top shape: 25 576 1 1 (14400)
I1010 14:26:42.987437 12881 net.cpp:139] Memory required for data: 2312393000
I1010 14:26:42.987443 12881 layer_factory.hpp:77] Creating layer conv7_2/3x3_dwconv/SE_fc1
I1010 14:26:42.987452 12881 net.cpp:86] Creating Layer conv7_2/3x3_dwconv/SE_fc1
I1010 14:26:42.987457 12881 net.cpp:409] conv7_2/3x3_dwconv/SE_fc1 <- conv7_2/3x3_dwconv/SE_bn
I1010 14:26:42.987462 12881 net.cpp:383] conv7_2/3x3_dwconv/SE_fc1 -> conv7_2/3x3_dwconv/SE_fc1
I1010 14:26:42.988540 12881 net.cpp:124] Setting up conv7_2/3x3_dwconv/SE_fc1
I1010 14:26:42.988562 12881 net.cpp:131] Top shape: 25 36 1 1 (900)
I1010 14:26:42.988566 12881 net.cpp:139] Memory required for data: 2312396600
I1010 14:26:42.988572 12881 layer_factory.hpp:77] Creating layer conv7_2/3x3_dwconv/SE_fc1/relu
I1010 14:26:42.988580 12881 net.cpp:86] Creating Layer conv7_2/3x3_dwconv/SE_fc1/relu
I1010 14:26:42.988585 12881 net.cpp:409] conv7_2/3x3_dwconv/SE_fc1/relu <- conv7_2/3x3_dwconv/SE_fc1
I1010 14:26:42.988591 12881 net.cpp:370] conv7_2/3x3_dwconv/SE_fc1/relu -> conv7_2/3x3_dwconv/SE_fc1 (in-place)
I1010 14:26:42.989293 12881 net.cpp:124] Setting up conv7_2/3x3_dwconv/SE_fc1/relu
I1010 14:26:42.989306 12881 net.cpp:131] Top shape: 25 36 1 1 (900)
I1010 14:26:42.989320 12881 net.cpp:139] Memory required for data: 2312400200
I1010 14:26:42.989325 12881 layer_factory.hpp:77] Creating layer conv7_2/3x3_dwconv/SE_fc2
I1010 14:26:42.989349 12881 net.cpp:86] Creating Layer conv7_2/3x3_dwconv/SE_fc2
I1010 14:26:42.989356 12881 net.cpp:409] conv7_2/3x3_dwconv/SE_fc2 <- conv7_2/3x3_dwconv/SE_fc1
I1010 14:26:42.989363 12881 net.cpp:383] conv7_2/3x3_dwconv/SE_fc2 -> conv7_2/3x3_dwconv/SE_fc2
I1010 14:26:42.990458 12881 net.cpp:124] Setting up conv7_2/3x3_dwconv/SE_fc2
I1010 14:26:42.990471 12881 net.cpp:131] Top shape: 25 576 1 1 (14400)
I1010 14:26:42.990475 12881 net.cpp:139] Memory required for data: 2312457800
I1010 14:26:42.990481 12881 layer_factory.hpp:77] Creating layer conv7_2/3x3_dwconv/SE_weights
I1010 14:26:42.990489 12881 net.cpp:86] Creating Layer conv7_2/3x3_dwconv/SE_weights
I1010 14:26:42.990492 12881 net.cpp:409] conv7_2/3x3_dwconv/SE_weights <- conv7_2/3x3_dwconv/SE_fc2
I1010 14:26:42.990499 12881 net.cpp:370] conv7_2/3x3_dwconv/SE_weights -> conv7_2/3x3_dwconv/SE_fc2 (in-place)
I1010 14:26:42.991355 12881 net.cpp:124] Setting up conv7_2/3x3_dwconv/SE_weights
I1010 14:26:42.991372 12881 net.cpp:131] Top shape: 25 576 1 1 (14400)
I1010 14:26:42.991377 12881 net.cpp:139] Memory required for data: 2312515400
I1010 14:26:42.991381 12881 layer_factory.hpp:77] Creating layer conv7_2/3x3_dwconv/SE_weights/reshape
I1010 14:26:42.991391 12881 net.cpp:86] Creating Layer conv7_2/3x3_dwconv/SE_weights/reshape
I1010 14:26:42.991397 12881 net.cpp:409] conv7_2/3x3_dwconv/SE_weights/reshape <- conv7_2/3x3_dwconv/SE_fc2
I1010 14:26:42.991405 12881 net.cpp:383] conv7_2/3x3_dwconv/SE_weights/reshape -> conv7_2/3x3_dwconv/SE_weights/reshape
I1010 14:26:42.991451 12881 net.cpp:124] Setting up conv7_2/3x3_dwconv/SE_weights/reshape
I1010 14:26:42.991459 12881 net.cpp:131] Top shape: 25 576 (14400)
I1010 14:26:42.991462 12881 net.cpp:139] Memory required for data: 2312573000
I1010 14:26:42.991466 12881 layer_factory.hpp:77] Creating layer conv7_2/3x3_dwconv/scale
I1010 14:26:42.991475 12881 net.cpp:86] Creating Layer conv7_2/3x3_dwconv/scale
I1010 14:26:42.991482 12881 net.cpp:409] conv7_2/3x3_dwconv/scale <- conv7_2/3x3_dwconv/concat_conv7_2/3x3_dwconv/concat_fixed_point_0_split_1
I1010 14:26:42.991487 12881 net.cpp:409] conv7_2/3x3_dwconv/scale <- conv7_2/3x3_dwconv/SE_weights/reshape
I1010 14:26:42.991492 12881 net.cpp:383] conv7_2/3x3_dwconv/scale -> conv7_2/3x3_dwconv/scale
I1010 14:26:42.991585 12881 net.cpp:124] Setting up conv7_2/3x3_dwconv/scale
I1010 14:26:42.991593 12881 net.cpp:131] Top shape: 25 576 7 7 (705600)
I1010 14:26:42.991598 12881 net.cpp:139] Memory required for data: 2315395400
I1010 14:26:42.991603 12881 layer_factory.hpp:77] Creating layer conv7_2/3x3_dwconv/scale_fixed_point
I1010 14:26:42.991609 12881 net.cpp:86] Creating Layer conv7_2/3x3_dwconv/scale_fixed_point
I1010 14:26:42.991613 12881 net.cpp:409] conv7_2/3x3_dwconv/scale_fixed_point <- conv7_2/3x3_dwconv/scale
I1010 14:26:42.991618 12881 net.cpp:370] conv7_2/3x3_dwconv/scale_fixed_point -> conv7_2/3x3_dwconv/scale (in-place)
I1010 14:26:42.991652 12881 net.cpp:124] Setting up conv7_2/3x3_dwconv/scale_fixed_point
I1010 14:26:42.991658 12881 net.cpp:131] Top shape: 25 576 7 7 (705600)
I1010 14:26:42.991662 12881 net.cpp:139] Memory required for data: 2318217800
I1010 14:26:42.991667 12881 layer_factory.hpp:77] Creating layer conv7_2/1x1_decrease
I1010 14:26:42.991677 12881 net.cpp:86] Creating Layer conv7_2/1x1_decrease
I1010 14:26:42.991681 12881 net.cpp:409] conv7_2/1x1_decrease <- conv7_2/3x3_dwconv/scale
I1010 14:26:42.991693 12881 net.cpp:383] conv7_2/1x1_decrease -> conv7_2/1x1_decrease/bn
I1010 14:26:42.996959 12881 net.cpp:124] Setting up conv7_2/1x1_decrease
I1010 14:26:42.996974 12881 net.cpp:131] Top shape: 25 192 7 7 (235200)
I1010 14:26:42.996978 12881 net.cpp:139] Memory required for data: 2319158600
I1010 14:26:42.996985 12881 layer_factory.hpp:77] Creating layer conv7_2/elt_sum
I1010 14:26:42.997000 12881 net.cpp:86] Creating Layer conv7_2/elt_sum
I1010 14:26:42.997009 12881 net.cpp:409] conv7_2/elt_sum <- conv7_1/elt_sum_conv7_1/elt_sum_fixed_point_0_split_1
I1010 14:26:42.997015 12881 net.cpp:409] conv7_2/elt_sum <- conv7_2/1x1_decrease/bn
I1010 14:26:42.997035 12881 net.cpp:383] conv7_2/elt_sum -> conv7_2/elt_sum
I1010 14:26:42.997081 12881 net.cpp:124] Setting up conv7_2/elt_sum
I1010 14:26:42.997089 12881 net.cpp:131] Top shape: 25 192 7 7 (235200)
I1010 14:26:42.997092 12881 net.cpp:139] Memory required for data: 2320099400
I1010 14:26:42.997097 12881 layer_factory.hpp:77] Creating layer conv7_2/elt_sum_fixed_point
I1010 14:26:42.997102 12881 net.cpp:86] Creating Layer conv7_2/elt_sum_fixed_point
I1010 14:26:42.997107 12881 net.cpp:409] conv7_2/elt_sum_fixed_point <- conv7_2/elt_sum
I1010 14:26:42.997113 12881 net.cpp:370] conv7_2/elt_sum_fixed_point -> conv7_2/elt_sum (in-place)
I1010 14:26:42.997148 12881 net.cpp:124] Setting up conv7_2/elt_sum_fixed_point
I1010 14:26:42.997154 12881 net.cpp:131] Top shape: 25 192 7 7 (235200)
I1010 14:26:42.997157 12881 net.cpp:139] Memory required for data: 2321040200
I1010 14:26:42.997162 12881 layer_factory.hpp:77] Creating layer conv8_0/1x1_increase
I1010 14:26:42.997174 12881 net.cpp:86] Creating Layer conv8_0/1x1_increase
I1010 14:26:42.997179 12881 net.cpp:409] conv8_0/1x1_increase <- conv7_2/elt_sum
I1010 14:26:42.997184 12881 net.cpp:383] conv8_0/1x1_increase -> conv8_0/1x1_increase/bn
I1010 14:26:43.004478 12881 net.cpp:124] Setting up conv8_0/1x1_increase
I1010 14:26:43.004501 12881 net.cpp:131] Top shape: 25 1152 7 7 (1411200)
I1010 14:26:43.004505 12881 net.cpp:139] Memory required for data: 2326685000
I1010 14:26:43.004513 12881 layer_factory.hpp:77] Creating layer conv8_0/1x1_increase/hardswish
I1010 14:26:43.004530 12881 net.cpp:86] Creating Layer conv8_0/1x1_increase/hardswish
I1010 14:26:43.004535 12881 net.cpp:409] conv8_0/1x1_increase/hardswish <- conv8_0/1x1_increase/bn
I1010 14:26:43.004540 12881 net.cpp:370] conv8_0/1x1_increase/hardswish -> conv8_0/1x1_increase/bn (in-place)
I1010 14:26:43.004581 12881 net.cpp:124] Setting up conv8_0/1x1_increase/hardswish
I1010 14:26:43.004588 12881 net.cpp:131] Top shape: 25 1152 7 7 (1411200)
I1010 14:26:43.004591 12881 net.cpp:139] Memory required for data: 2332329800
I1010 14:26:43.004595 12881 layer_factory.hpp:77] Creating layer conv8_0/1x1_increase/bn_fixed_point
I1010 14:26:43.004603 12881 net.cpp:86] Creating Layer conv8_0/1x1_increase/bn_fixed_point
I1010 14:26:43.004607 12881 net.cpp:409] conv8_0/1x1_increase/bn_fixed_point <- conv8_0/1x1_increase/bn
I1010 14:26:43.004612 12881 net.cpp:370] conv8_0/1x1_increase/bn_fixed_point -> conv8_0/1x1_increase/bn (in-place)
I1010 14:26:43.004647 12881 net.cpp:124] Setting up conv8_0/1x1_increase/bn_fixed_point
I1010 14:26:43.004653 12881 net.cpp:131] Top shape: 25 1152 7 7 (1411200)
I1010 14:26:43.004657 12881 net.cpp:139] Memory required for data: 2337974600
I1010 14:26:43.004662 12881 layer_factory.hpp:77] Creating layer conv8_0/1x1_increase/slice
I1010 14:26:43.004669 12881 net.cpp:86] Creating Layer conv8_0/1x1_increase/slice
I1010 14:26:43.004673 12881 net.cpp:409] conv8_0/1x1_increase/slice <- conv8_0/1x1_increase/bn
I1010 14:26:43.004680 12881 net.cpp:383] conv8_0/1x1_increase/slice -> conv8_0/1x1_increase/split1
I1010 14:26:43.004688 12881 net.cpp:383] conv8_0/1x1_increase/slice -> conv8_0/1x1_increase/split2
I1010 14:26:43.004693 12881 net.cpp:383] conv8_0/1x1_increase/slice -> conv8_0/1x1_increase/split3
I1010 14:26:43.004762 12881 net.cpp:124] Setting up conv8_0/1x1_increase/slice
I1010 14:26:43.004770 12881 net.cpp:131] Top shape: 25 384 7 7 (470400)
I1010 14:26:43.004775 12881 net.cpp:131] Top shape: 25 384 7 7 (470400)
I1010 14:26:43.004778 12881 net.cpp:131] Top shape: 25 384 7 7 (470400)
I1010 14:26:43.004781 12881 net.cpp:139] Memory required for data: 2343619400
I1010 14:26:43.004786 12881 layer_factory.hpp:77] Creating layer conv8_0/3x3_dwconv/slice_0
I1010 14:26:43.004801 12881 net.cpp:86] Creating Layer conv8_0/3x3_dwconv/slice_0
I1010 14:26:43.004810 12881 net.cpp:409] conv8_0/3x3_dwconv/slice_0 <- conv8_0/1x1_increase/split1
I1010 14:26:43.004817 12881 net.cpp:383] conv8_0/3x3_dwconv/slice_0 -> conv8_0/3x3_dwconv/slice_0/bn
I1010 14:26:43.005566 12881 net.cpp:124] Setting up conv8_0/3x3_dwconv/slice_0
I1010 14:26:43.005591 12881 net.cpp:131] Top shape: 25 384 7 7 (470400)
I1010 14:26:43.005596 12881 net.cpp:139] Memory required for data: 2345501000
I1010 14:26:43.005604 12881 layer_factory.hpp:77] Creating layer conv8_0/3x3_dwconv/slice_0/hardswish
I1010 14:26:43.005611 12881 net.cpp:86] Creating Layer conv8_0/3x3_dwconv/slice_0/hardswish
I1010 14:26:43.005617 12881 net.cpp:409] conv8_0/3x3_dwconv/slice_0/hardswish <- conv8_0/3x3_dwconv/slice_0/bn
I1010 14:26:43.005623 12881 net.cpp:370] conv8_0/3x3_dwconv/slice_0/hardswish -> conv8_0/3x3_dwconv/slice_0/bn (in-place)
I1010 14:26:43.005661 12881 net.cpp:124] Setting up conv8_0/3x3_dwconv/slice_0/hardswish
I1010 14:26:43.005669 12881 net.cpp:131] Top shape: 25 384 7 7 (470400)
I1010 14:26:43.005672 12881 net.cpp:139] Memory required for data: 2347382600
I1010 14:26:43.005677 12881 layer_factory.hpp:77] Creating layer conv8_0/3x3_dwconv/slice_1
I1010 14:26:43.005694 12881 net.cpp:86] Creating Layer conv8_0/3x3_dwconv/slice_1
I1010 14:26:43.005700 12881 net.cpp:409] conv8_0/3x3_dwconv/slice_1 <- conv8_0/1x1_increase/split2
I1010 14:26:43.005707 12881 net.cpp:383] conv8_0/3x3_dwconv/slice_1 -> conv8_0/3x3_dwconv/slice_1/bn
I1010 14:26:43.006882 12881 net.cpp:124] Setting up conv8_0/3x3_dwconv/slice_1
I1010 14:26:43.006897 12881 net.cpp:131] Top shape: 25 384 7 7 (470400)
I1010 14:26:43.006901 12881 net.cpp:139] Memory required for data: 2349264200
I1010 14:26:43.006909 12881 layer_factory.hpp:77] Creating layer conv8_0/3x3_dwconv/slice_1/hardswish
I1010 14:26:43.006922 12881 net.cpp:86] Creating Layer conv8_0/3x3_dwconv/slice_1/hardswish
I1010 14:26:43.006927 12881 net.cpp:409] conv8_0/3x3_dwconv/slice_1/hardswish <- conv8_0/3x3_dwconv/slice_1/bn
I1010 14:26:43.006934 12881 net.cpp:370] conv8_0/3x3_dwconv/slice_1/hardswish -> conv8_0/3x3_dwconv/slice_1/bn (in-place)
I1010 14:26:43.006973 12881 net.cpp:124] Setting up conv8_0/3x3_dwconv/slice_1/hardswish
I1010 14:26:43.006980 12881 net.cpp:131] Top shape: 25 384 7 7 (470400)
I1010 14:26:43.006983 12881 net.cpp:139] Memory required for data: 2351145800
I1010 14:26:43.006987 12881 layer_factory.hpp:77] Creating layer conv8_0/3x3_dwconv/slice_2
I1010 14:26:43.006999 12881 net.cpp:86] Creating Layer conv8_0/3x3_dwconv/slice_2
I1010 14:26:43.007004 12881 net.cpp:409] conv8_0/3x3_dwconv/slice_2 <- conv8_0/1x1_increase/split3
I1010 14:26:43.007011 12881 net.cpp:383] conv8_0/3x3_dwconv/slice_2 -> conv8_0/3x3_dwconv/slice_2/bn
I1010 14:26:43.008575 12881 net.cpp:124] Setting up conv8_0/3x3_dwconv/slice_2
I1010 14:26:43.008590 12881 net.cpp:131] Top shape: 25 384 7 7 (470400)
I1010 14:26:43.008594 12881 net.cpp:139] Memory required for data: 2353027400
I1010 14:26:43.008601 12881 layer_factory.hpp:77] Creating layer conv8_0/3x3_dwconv/slice_2/hardswish
I1010 14:26:43.008610 12881 net.cpp:86] Creating Layer conv8_0/3x3_dwconv/slice_2/hardswish
I1010 14:26:43.008615 12881 net.cpp:409] conv8_0/3x3_dwconv/slice_2/hardswish <- conv8_0/3x3_dwconv/slice_2/bn
I1010 14:26:43.008621 12881 net.cpp:370] conv8_0/3x3_dwconv/slice_2/hardswish -> conv8_0/3x3_dwconv/slice_2/bn (in-place)
I1010 14:26:43.008661 12881 net.cpp:124] Setting up conv8_0/3x3_dwconv/slice_2/hardswish
I1010 14:26:43.008669 12881 net.cpp:131] Top shape: 25 384 7 7 (470400)
I1010 14:26:43.008675 12881 net.cpp:139] Memory required for data: 2354909000
I1010 14:26:43.008678 12881 layer_factory.hpp:77] Creating layer conv8_0/3x3_dwconv/concat
I1010 14:26:43.008684 12881 net.cpp:86] Creating Layer conv8_0/3x3_dwconv/concat
I1010 14:26:43.008688 12881 net.cpp:409] conv8_0/3x3_dwconv/concat <- conv8_0/3x3_dwconv/slice_0/bn
I1010 14:26:43.008693 12881 net.cpp:409] conv8_0/3x3_dwconv/concat <- conv8_0/3x3_dwconv/slice_1/bn
I1010 14:26:43.008697 12881 net.cpp:409] conv8_0/3x3_dwconv/concat <- conv8_0/3x3_dwconv/slice_2/bn
I1010 14:26:43.008702 12881 net.cpp:383] conv8_0/3x3_dwconv/concat -> conv8_0/3x3_dwconv/concat
I1010 14:26:43.008736 12881 net.cpp:124] Setting up conv8_0/3x3_dwconv/concat
I1010 14:26:43.008743 12881 net.cpp:131] Top shape: 25 1152 7 7 (1411200)
I1010 14:26:43.008757 12881 net.cpp:139] Memory required for data: 2360553800
I1010 14:26:43.008761 12881 layer_factory.hpp:77] Creating layer conv8_0/3x3_dwconv/concat_fixed_point
I1010 14:26:43.008770 12881 net.cpp:86] Creating Layer conv8_0/3x3_dwconv/concat_fixed_point
I1010 14:26:43.008774 12881 net.cpp:409] conv8_0/3x3_dwconv/concat_fixed_point <- conv8_0/3x3_dwconv/concat
I1010 14:26:43.008780 12881 net.cpp:370] conv8_0/3x3_dwconv/concat_fixed_point -> conv8_0/3x3_dwconv/concat (in-place)
I1010 14:26:43.008821 12881 net.cpp:124] Setting up conv8_0/3x3_dwconv/concat_fixed_point
I1010 14:26:43.008827 12881 net.cpp:131] Top shape: 25 1152 7 7 (1411200)
I1010 14:26:43.008831 12881 net.cpp:139] Memory required for data: 2366198600
I1010 14:26:43.008836 12881 layer_factory.hpp:77] Creating layer conv8_0/3x3_dwconv/concat_conv8_0/3x3_dwconv/concat_fixed_point_0_split
I1010 14:26:43.008841 12881 net.cpp:86] Creating Layer conv8_0/3x3_dwconv/concat_conv8_0/3x3_dwconv/concat_fixed_point_0_split
I1010 14:26:43.008844 12881 net.cpp:409] conv8_0/3x3_dwconv/concat_conv8_0/3x3_dwconv/concat_fixed_point_0_split <- conv8_0/3x3_dwconv/concat
I1010 14:26:43.008855 12881 net.cpp:383] conv8_0/3x3_dwconv/concat_conv8_0/3x3_dwconv/concat_fixed_point_0_split -> conv8_0/3x3_dwconv/concat_conv8_0/3x3_dwconv/concat_fixed_point_0_split_0
I1010 14:26:43.008862 12881 net.cpp:383] conv8_0/3x3_dwconv/concat_conv8_0/3x3_dwconv/concat_fixed_point_0_split -> conv8_0/3x3_dwconv/concat_conv8_0/3x3_dwconv/concat_fixed_point_0_split_1
I1010 14:26:43.008913 12881 net.cpp:124] Setting up conv8_0/3x3_dwconv/concat_conv8_0/3x3_dwconv/concat_fixed_point_0_split
I1010 14:26:43.008920 12881 net.cpp:131] Top shape: 25 1152 7 7 (1411200)
I1010 14:26:43.008925 12881 net.cpp:131] Top shape: 25 1152 7 7 (1411200)
I1010 14:26:43.008929 12881 net.cpp:139] Memory required for data: 2377488200
I1010 14:26:43.008931 12881 layer_factory.hpp:77] Creating layer conv8_0/3x3_dwconv/SE_global_pool
I1010 14:26:43.008939 12881 net.cpp:86] Creating Layer conv8_0/3x3_dwconv/SE_global_pool
I1010 14:26:43.008942 12881 net.cpp:409] conv8_0/3x3_dwconv/SE_global_pool <- conv8_0/3x3_dwconv/concat_conv8_0/3x3_dwconv/concat_fixed_point_0_split_0
I1010 14:26:43.008947 12881 net.cpp:383] conv8_0/3x3_dwconv/SE_global_pool -> conv8_0/3x3_dwconv/SE_global_pool
I1010 14:26:43.008978 12881 net.cpp:124] Setting up conv8_0/3x3_dwconv/SE_global_pool
I1010 14:26:43.008985 12881 net.cpp:131] Top shape: 25 1152 1 1 (28800)
I1010 14:26:43.008987 12881 net.cpp:139] Memory required for data: 2377603400
I1010 14:26:43.008996 12881 layer_factory.hpp:77] Creating layer conv8_0/3x3_dwconv/SE_bn
I1010 14:26:43.009006 12881 net.cpp:86] Creating Layer conv8_0/3x3_dwconv/SE_bn
I1010 14:26:43.009011 12881 net.cpp:409] conv8_0/3x3_dwconv/SE_bn <- conv8_0/3x3_dwconv/SE_global_pool
I1010 14:26:43.009016 12881 net.cpp:383] conv8_0/3x3_dwconv/SE_bn -> conv8_0/3x3_dwconv/SE_bn
I1010 14:26:43.009068 12881 layer_factory.hpp:77] Creating layer conv8_0/3x3_dwconv/SE_bn
I1010 14:26:43.009217 12881 net.cpp:124] Setting up conv8_0/3x3_dwconv/SE_bn
I1010 14:26:43.009224 12881 net.cpp:131] Top shape: 25 1152 1 1 (28800)
I1010 14:26:43.009228 12881 net.cpp:139] Memory required for data: 2377718600
I1010 14:26:43.009234 12881 layer_factory.hpp:77] Creating layer conv8_0/3x3_dwconv/SE_fc1
I1010 14:26:43.009243 12881 net.cpp:86] Creating Layer conv8_0/3x3_dwconv/SE_fc1
I1010 14:26:43.009248 12881 net.cpp:409] conv8_0/3x3_dwconv/SE_fc1 <- conv8_0/3x3_dwconv/SE_bn
I1010 14:26:43.009256 12881 net.cpp:383] conv8_0/3x3_dwconv/SE_fc1 -> conv8_0/3x3_dwconv/SE_fc1
I1010 14:26:43.012226 12881 net.cpp:124] Setting up conv8_0/3x3_dwconv/SE_fc1
I1010 14:26:43.012240 12881 net.cpp:131] Top shape: 25 72 1 1 (1800)
I1010 14:26:43.012244 12881 net.cpp:139] Memory required for data: 2377725800
I1010 14:26:43.012250 12881 layer_factory.hpp:77] Creating layer conv8_0/3x3_dwconv/SE_fc1/relu
I1010 14:26:43.012256 12881 net.cpp:86] Creating Layer conv8_0/3x3_dwconv/SE_fc1/relu
I1010 14:26:43.012261 12881 net.cpp:409] conv8_0/3x3_dwconv/SE_fc1/relu <- conv8_0/3x3_dwconv/SE_fc1
I1010 14:26:43.012279 12881 net.cpp:370] conv8_0/3x3_dwconv/SE_fc1/relu -> conv8_0/3x3_dwconv/SE_fc1 (in-place)
I1010 14:26:43.012989 12881 net.cpp:124] Setting up conv8_0/3x3_dwconv/SE_fc1/relu
I1010 14:26:43.013002 12881 net.cpp:131] Top shape: 25 72 1 1 (1800)
I1010 14:26:43.013006 12881 net.cpp:139] Memory required for data: 2377733000
I1010 14:26:43.013010 12881 layer_factory.hpp:77] Creating layer conv8_0/3x3_dwconv/SE_fc2
I1010 14:26:43.013022 12881 net.cpp:86] Creating Layer conv8_0/3x3_dwconv/SE_fc2
I1010 14:26:43.013027 12881 net.cpp:409] conv8_0/3x3_dwconv/SE_fc2 <- conv8_0/3x3_dwconv/SE_fc1
I1010 14:26:43.013036 12881 net.cpp:383] conv8_0/3x3_dwconv/SE_fc2 -> conv8_0/3x3_dwconv/SE_fc2
I1010 14:26:43.015991 12881 net.cpp:124] Setting up conv8_0/3x3_dwconv/SE_fc2
I1010 14:26:43.016005 12881 net.cpp:131] Top shape: 25 1152 1 1 (28800)
I1010 14:26:43.016010 12881 net.cpp:139] Memory required for data: 2377848200
I1010 14:26:43.016016 12881 layer_factory.hpp:77] Creating layer conv8_0/3x3_dwconv/SE_weights
I1010 14:26:43.016022 12881 net.cpp:86] Creating Layer conv8_0/3x3_dwconv/SE_weights
I1010 14:26:43.016026 12881 net.cpp:409] conv8_0/3x3_dwconv/SE_weights <- conv8_0/3x3_dwconv/SE_fc2
I1010 14:26:43.016034 12881 net.cpp:370] conv8_0/3x3_dwconv/SE_weights -> conv8_0/3x3_dwconv/SE_fc2 (in-place)
I1010 14:26:43.016665 12881 net.cpp:124] Setting up conv8_0/3x3_dwconv/SE_weights
I1010 14:26:43.016678 12881 net.cpp:131] Top shape: 25 1152 1 1 (28800)
I1010 14:26:43.016681 12881 net.cpp:139] Memory required for data: 2377963400
I1010 14:26:43.016685 12881 layer_factory.hpp:77] Creating layer conv8_0/3x3_dwconv/SE_weights/reshape
I1010 14:26:43.016695 12881 net.cpp:86] Creating Layer conv8_0/3x3_dwconv/SE_weights/reshape
I1010 14:26:43.016700 12881 net.cpp:409] conv8_0/3x3_dwconv/SE_weights/reshape <- conv8_0/3x3_dwconv/SE_fc2
I1010 14:26:43.016706 12881 net.cpp:383] conv8_0/3x3_dwconv/SE_weights/reshape -> conv8_0/3x3_dwconv/SE_weights/reshape
I1010 14:26:43.016758 12881 net.cpp:124] Setting up conv8_0/3x3_dwconv/SE_weights/reshape
I1010 14:26:43.016767 12881 net.cpp:131] Top shape: 25 1152 (28800)
I1010 14:26:43.016769 12881 net.cpp:139] Memory required for data: 2378078600
I1010 14:26:43.016772 12881 layer_factory.hpp:77] Creating layer conv8_0/3x3_dwconv/scale
I1010 14:26:43.016782 12881 net.cpp:86] Creating Layer conv8_0/3x3_dwconv/scale
I1010 14:26:43.016785 12881 net.cpp:409] conv8_0/3x3_dwconv/scale <- conv8_0/3x3_dwconv/concat_conv8_0/3x3_dwconv/concat_fixed_point_0_split_1
I1010 14:26:43.016790 12881 net.cpp:409] conv8_0/3x3_dwconv/scale <- conv8_0/3x3_dwconv/SE_weights/reshape
I1010 14:26:43.016798 12881 net.cpp:383] conv8_0/3x3_dwconv/scale -> conv8_0/3x3_dwconv/scale
I1010 14:26:43.016902 12881 net.cpp:124] Setting up conv8_0/3x3_dwconv/scale
I1010 14:26:43.016911 12881 net.cpp:131] Top shape: 25 1152 7 7 (1411200)
I1010 14:26:43.016913 12881 net.cpp:139] Memory required for data: 2383723400
I1010 14:26:43.016918 12881 layer_factory.hpp:77] Creating layer conv8_0/3x3_dwconv/scale_fixed_point
I1010 14:26:43.016927 12881 net.cpp:86] Creating Layer conv8_0/3x3_dwconv/scale_fixed_point
I1010 14:26:43.016930 12881 net.cpp:409] conv8_0/3x3_dwconv/scale_fixed_point <- conv8_0/3x3_dwconv/scale
I1010 14:26:43.016935 12881 net.cpp:370] conv8_0/3x3_dwconv/scale_fixed_point -> conv8_0/3x3_dwconv/scale (in-place)
I1010 14:26:43.016970 12881 net.cpp:124] Setting up conv8_0/3x3_dwconv/scale_fixed_point
I1010 14:26:43.016976 12881 net.cpp:131] Top shape: 25 1152 7 7 (1411200)
I1010 14:26:43.016980 12881 net.cpp:139] Memory required for data: 2389368200
I1010 14:26:43.016985 12881 layer_factory.hpp:77] Creating layer conv8_0/1x1_decrease
I1010 14:26:43.016995 12881 net.cpp:86] Creating Layer conv8_0/1x1_decrease
I1010 14:26:43.016999 12881 net.cpp:409] conv8_0/1x1_decrease <- conv8_0/3x3_dwconv/scale
I1010 14:26:43.017004 12881 net.cpp:383] conv8_0/1x1_decrease -> conv8_0/1x1_decrease/bn
I1010 14:26:43.029963 12881 net.cpp:124] Setting up conv8_0/1x1_decrease
I1010 14:26:43.029978 12881 net.cpp:131] Top shape: 25 320 7 7 (392000)
I1010 14:26:43.029996 12881 net.cpp:139] Memory required for data: 2390936200
I1010 14:26:43.030005 12881 layer_factory.hpp:77] Creating layer conv8_0/1x1_decrease/bn_fixed_point
I1010 14:26:43.030016 12881 net.cpp:86] Creating Layer conv8_0/1x1_decrease/bn_fixed_point
I1010 14:26:43.030022 12881 net.cpp:409] conv8_0/1x1_decrease/bn_fixed_point <- conv8_0/1x1_decrease/bn
I1010 14:26:43.030028 12881 net.cpp:370] conv8_0/1x1_decrease/bn_fixed_point -> conv8_0/1x1_decrease/bn (in-place)
I1010 14:26:43.030072 12881 net.cpp:124] Setting up conv8_0/1x1_decrease/bn_fixed_point
I1010 14:26:43.030081 12881 net.cpp:131] Top shape: 25 320 7 7 (392000)
I1010 14:26:43.030083 12881 net.cpp:139] Memory required for data: 2392504200
I1010 14:26:43.030088 12881 layer_factory.hpp:77] Creating layer conv9/1x1
I1010 14:26:43.030099 12881 net.cpp:86] Creating Layer conv9/1x1
I1010 14:26:43.030103 12881 net.cpp:409] conv9/1x1 <- conv8_0/1x1_decrease/bn
I1010 14:26:43.030119 12881 net.cpp:383] conv9/1x1 -> conv9/1x1/bn
I1010 14:26:43.044229 12881 net.cpp:124] Setting up conv9/1x1
I1010 14:26:43.044245 12881 net.cpp:131] Top shape: 25 1280 7 7 (1568000)
I1010 14:26:43.044250 12881 net.cpp:139] Memory required for data: 2398776200
I1010 14:26:43.044256 12881 layer_factory.hpp:77] Creating layer conv9/1x1/relu
I1010 14:26:43.044263 12881 net.cpp:86] Creating Layer conv9/1x1/relu
I1010 14:26:43.044268 12881 net.cpp:409] conv9/1x1/relu <- conv9/1x1/bn
I1010 14:26:43.044275 12881 net.cpp:370] conv9/1x1/relu -> conv9/1x1/bn (in-place)
I1010 14:26:43.045150 12881 net.cpp:124] Setting up conv9/1x1/relu
I1010 14:26:43.045166 12881 net.cpp:131] Top shape: 25 1280 7 7 (1568000)
I1010 14:26:43.045171 12881 net.cpp:139] Memory required for data: 2405048200
I1010 14:26:43.045176 12881 layer_factory.hpp:77] Creating layer conv9/1x1/bn_fixed_point
I1010 14:26:43.045192 12881 net.cpp:86] Creating Layer conv9/1x1/bn_fixed_point
I1010 14:26:43.045197 12881 net.cpp:409] conv9/1x1/bn_fixed_point <- conv9/1x1/bn
I1010 14:26:43.045204 12881 net.cpp:370] conv9/1x1/bn_fixed_point -> conv9/1x1/bn (in-place)
I1010 14:26:43.045246 12881 net.cpp:124] Setting up conv9/1x1/bn_fixed_point
I1010 14:26:43.045253 12881 net.cpp:131] Top shape: 25 1280 7 7 (1568000)
I1010 14:26:43.045256 12881 net.cpp:139] Memory required for data: 2411320200
I1010 14:26:43.045261 12881 layer_factory.hpp:77] Creating layer avepool/7x7
I1010 14:26:43.045271 12881 net.cpp:86] Creating Layer avepool/7x7
I1010 14:26:43.045275 12881 net.cpp:409] avepool/7x7 <- conv9/1x1/bn
I1010 14:26:43.045289 12881 net.cpp:383] avepool/7x7 -> avepool/7x7
I1010 14:26:43.045998 12881 net.cpp:124] Setting up avepool/7x7
I1010 14:26:43.046011 12881 net.cpp:131] Top shape: 25 1280 1 1 (32000)
I1010 14:26:43.046015 12881 net.cpp:139] Memory required for data: 2411448200
I1010 14:26:43.046020 12881 layer_factory.hpp:77] Creating layer avepool/7x7_fixed_point
I1010 14:26:43.046028 12881 net.cpp:86] Creating Layer avepool/7x7_fixed_point
I1010 14:26:43.046032 12881 net.cpp:409] avepool/7x7_fixed_point <- avepool/7x7
I1010 14:26:43.046037 12881 net.cpp:370] avepool/7x7_fixed_point -> avepool/7x7 (in-place)
I1010 14:26:43.046075 12881 net.cpp:124] Setting up avepool/7x7_fixed_point
I1010 14:26:43.046082 12881 net.cpp:131] Top shape: 25 1280 1 1 (32000)
I1010 14:26:43.046085 12881 net.cpp:139] Memory required for data: 2411576200
I1010 14:26:43.046090 12881 layer_factory.hpp:77] Creating layer classifier
I1010 14:26:43.046103 12881 net.cpp:86] Creating Layer classifier
I1010 14:26:43.046109 12881 net.cpp:409] classifier <- avepool/7x7
I1010 14:26:43.046118 12881 net.cpp:383] classifier -> classifier
I1010 14:26:43.087397 12881 net.cpp:124] Setting up classifier
I1010 14:26:43.087430 12881 net.cpp:131] Top shape: 25 1000 1 1 (25000)
I1010 14:26:43.087432 12881 net.cpp:139] Memory required for data: 2411676200
I1010 14:26:43.087441 12881 layer_factory.hpp:77] Creating layer classifier_classifier_0_split
I1010 14:26:43.087450 12881 net.cpp:86] Creating Layer classifier_classifier_0_split
I1010 14:26:43.087471 12881 net.cpp:409] classifier_classifier_0_split <- classifier
I1010 14:26:43.087481 12881 net.cpp:383] classifier_classifier_0_split -> classifier_classifier_0_split_0
I1010 14:26:43.087488 12881 net.cpp:383] classifier_classifier_0_split -> classifier_classifier_0_split_1
I1010 14:26:43.087496 12881 net.cpp:383] classifier_classifier_0_split -> classifier_classifier_0_split_2
I1010 14:26:43.087584 12881 net.cpp:124] Setting up classifier_classifier_0_split
I1010 14:26:43.087591 12881 net.cpp:131] Top shape: 25 1000 1 1 (25000)
I1010 14:26:43.087595 12881 net.cpp:131] Top shape: 25 1000 1 1 (25000)
I1010 14:26:43.087599 12881 net.cpp:131] Top shape: 25 1000 1 1 (25000)
I1010 14:26:43.087602 12881 net.cpp:139] Memory required for data: 2411976200
I1010 14:26:43.087606 12881 layer_factory.hpp:77] Creating layer loss
I1010 14:26:43.087618 12881 net.cpp:86] Creating Layer loss
I1010 14:26:43.087622 12881 net.cpp:409] loss <- classifier_classifier_0_split_0
I1010 14:26:43.087627 12881 net.cpp:409] loss <- label_data_1_split_0
I1010 14:26:43.087635 12881 net.cpp:383] loss -> loss
…
