I0918 12:20:35.799691 22578 net.cpp:53] Initializing net from parameters: 
state {
  phase: TEST
  level: 0
}
layer {
  name: "data"
  type: "ImageData"
  top: "data"
  top: "label"
  include {
    phase: TEST
  }
  transform_param {
    crop_size: 224
    mean_value: 104
    mean_value: 117
    mean_value: 123
  }
  image_data_param {
    source: "file_lists/val.txt"
    batch_size: 25
    root_folder: "/share4/public/classification_data/imagenet1k/val/"
    short_edge: 256
  }
}
layer {
  name: "data_fixed_point"
  type: "Quantize"
  bottom: "data"
  top: "data"
  param {
    lr_mult: 0
    decay_mult: 0
  }
  quantize_param {
    precision: 8
    frozen: true
    positive: false
    tolerance: 1.5
  }
}
layer {
  name: "conv1/3x3_s2"
  type: "Convolution"
  bottom: "data"
  top: "conv1/3x3_s2/bn"
  param {
    lr_mult: 1
    decay_mult: 1
  }
  param {
    lr_mult: 2
    decay_mult: 0
  }
  convolution_param {
    num_output: 32
    bias_term: true
    pad: 1
    kernel_size: 3
    stride: 2
    weight_filler {
      type: "msra"
    }
    bias_filler {
      type: "constant"
      value: 0
    }
    engine: CAFFE
    fp16_accumulation: true
  }
  quantize_param {
    precision: 8
    channel_shared: false
  }
}
layer {
  name: "conv1/3x3_s2/relu"
  type: "ReLU"
  bottom: "conv1/3x3_s2/bn"
  top: "conv1/3x3_s2/bn"
}
layer {
  name: "conv1/3x3_s2/bn_fixed_point"
  type: "Quantize"
  bottom: "conv1/3x3_s2/bn"
  top: "conv1/3x3_s2/bn"
  param {
    lr_mult: 0
    decay_mult: 0
  }
  quantize_param {
    precision: 8
    frozen: true
    positive: true
    tolerance: 1.5
  }
}
layer {
  name: "conv2_0/3x3_dwconv"
  type: "Convolution"
  bottom: "conv1/3x3_s2/bn"
  top: "conv2_0/3x3_dwconv/bn"
  param {
    lr_mult: 1
    decay_mult: 1
  }
  param {
    lr_mult: 2
    decay_mult: 0
  }
  convolution_param {
    num_output: 32
    bias_term: true
    pad: 1
    kernel_size: 3
    group: 32
    stride: 1
    weight_filler {
      type: "msra"
    }
    bias_filler {
      type: "constant"
      value: 0
    }
    engine: CAFFE
    fp16_accumulation: true
  }
  quantize_param {
    precision: 8
    channel_shared: false
  }
}
layer {
  name: "conv2_0/3x3_dwconv/relu"
  type: "ReLU"
  bottom: "conv2_0/3x3_dwconv/bn"
  top: "conv2_0/3x3_dwconv/bn"
}
layer {
  name: "conv2_0/3x3_dwconv/bn_fixed_point"
  type: "Quantize"
  bottom: "conv2_0/3x3_dwconv/bn"
  top: "conv2_0/3x3_dwconv/bn"
  param {
    lr_mult: 0
    decay_mult: 0
  }
  quantize_param {
    precision: 8
    frozen: true
    positive: true
    tolerance: 1.5
  }
}
layer {
  name: "conv2_0/1x1_decrease"
  type: "Convolution"
  bottom: "conv2_0/3x3_dwconv/bn"
  top: "conv2_0/1x1_decrease/bn"
  param {
    lr_mult: 1
    decay_mult: 1
  }
  param {
    lr_mult: 2
    decay_mult: 0
  }
  convolution_param {
    num_output: 16
    bias_term: true
    kernel_size: 1
    stride: 1
    weight_filler {
      type: "msra"
    }
    bias_filler {
      type: "constant"
      value: 0
    }
    engine: CAFFE
    fp16_accumulation: true
  }
  quantize_param {
    precision: 8
    channel_shared: false
  }
}
layer {
  name: "conv2_0/1x1_decrease/bn_fixed_point"
  type: "Quantize"
  bottom: "conv2_0/1x1_decrease/bn"
  top: "conv2_0/1x1_decrease/bn"
  param {
    lr_mult: 0
    decay_mult: 0
  }
  quantize_param {
    precision: 8
    frozen: true
    positive: false
    tolerance: 1.5
  }
}
layer {
  name: "conv3_0/1x1_increase"
  type: "Convolution"
  bottom: "conv2_0/1x1_decrease/bn"
  top: "conv3_0/1x1_increase/bn"
  param {
    lr_mult: 1
    decay_mult: 1
  }
  param {
    lr_mult: 2
    decay_mult: 0
  }
  convolution_param {
    num_output: 48
    bias_term: true
    kernel_size: 1
    stride: 1
    weight_filler {
      type: "msra"
    }
    bias_filler {
      type: "constant"
      value: 0
    }
    engine: CAFFE
    fp16_accumulation: true
  }
  quantize_param {
    precision: 8
    channel_shared: false
  }
}
layer {
  name: "conv3_0/1x1_increase/relu"
  type: "ReLU"
  bottom: "conv3_0/1x1_increase/bn"
  top: "conv3_0/1x1_increase/bn"
}
layer {
  name: "conv3_0/1x1_increase/bn_fixed_point"
  type: "Quantize"
  bottom: "conv3_0/1x1_increase/bn"
  top: "conv3_0/1x1_increase/bn"
  param {
    lr_mult: 0
    decay_mult: 0
  }
  quantize_param {
    precision: 8
    frozen: true
    positive: true
    tolerance: 1.5
  }
}
layer {
  name: "conv3_0/3x3_dwconv"
  type: "Convolution"
  bottom: "conv3_0/1x1_increase/bn"
  top: "conv3_0/3x3_dwconv/bn"
  param {
    lr_mult: 1
    decay_mult: 1
  }
  param {
    lr_mult: 2
    decay_mult: 0
  }
  convolution_param {
    num_output: 48
    bias_term: true
    pad: 2
    kernel_size: 5
    group: 48
    stride: 2
    weight_filler {
      type: "msra"
    }
    bias_filler {
      type: "constant"
      value: 0
    }
    engine: CAFFE
    fp16_accumulation: true
  }
  quantize_param {
    precision: 8
    channel_shared: false
  }
}
layer {
  name: "conv3_0/3x3_dwconv/relu"
  type: "ReLU"
  bottom: "conv3_0/3x3_dwconv/bn"
  top: "conv3_0/3x3_dwconv/bn"
}
layer {
  name: "conv3_0/3x3_dwconv/bn_fixed_point"
  type: "Quantize"
  bottom: "conv3_0/3x3_dwconv/bn"
  top: "conv3_0/3x3_dwconv/bn"
  param {
    lr_mult: 0
    decay_mult: 0
  }
  quantize_param {
    precision: 8
    frozen: true
    positive: true
    tolerance: 1.5
  }
}
layer {
  name: "conv3_0/1x1_decrease"
  type: "Convolution"
  bottom: "conv3_0/3x3_dwconv/bn"
  top: "conv3_0/1x1_decrease/bn"
  param {
    lr_mult: 1
    decay_mult: 1
  }
  param {
    lr_mult: 2
    decay_mult: 0
  }
  convolution_param {
    num_output: 32
    bias_term: true
    kernel_size: 1
    stride: 1
    weight_filler {
      type: "msra"
    }
    bias_filler {
      type: "constant"
      value: 0
    }
    engine: CAFFE
    fp16_accumulation: true
  }
  quantize_param {
    precision: 8
    channel_shared: false
  }
}
layer {
  name: "conv3_0/1x1_decrease/bn_fixed_point"
  type: "Quantize"
  bottom: "conv3_0/1x1_decrease/bn"
  top: "conv3_0/1x1_decrease/bn"
  param {
    lr_mult: 0
    decay_mult: 0
  }
  quantize_param {
    precision: 8
    frozen: true
    positive: false
    tolerance: 1.5
  }
}
layer {
  name: "conv3_1/1x1_increase"
  type: "Convolution"
  bottom: "conv3_0/1x1_decrease/bn"
  top: "conv3_1/1x1_increase/bn"
  param {
    lr_mult: 1
    decay_mult: 1
  }
  param {
    lr_mult: 2
    decay_mult: 0
  }
  convolution_param {
    num_output: 96
    bias_term: true
    kernel_size: 1
    stride: 1
    weight_filler {
      type: "msra"
    }
    bias_filler {
      type: "constant"
      value: 0
    }
    engine: CAFFE
    fp16_accumulation: true
  }
  quantize_param {
    precision: 8
    channel_shared: false
  }
}
layer {
  name: "conv3_1/1x1_increase/relu"
  type: "ReLU"
  bottom: "conv3_1/1x1_increase/bn"
  top: "conv3_1/1x1_increase/bn"
}
layer {
  name: "conv3_1/1x1_increase/bn_fixed_point"
  type: "Quantize"
  bottom: "conv3_1/1x1_increase/bn"
  top: "conv3_1/1x1_increase/bn"
  param {
    lr_mult: 0
    decay_mult: 0
  }
  quantize_param {
    precision: 8
    frozen: true
    positive: true
    tolerance: 1.5
  }
}
layer {
  name: "conv3_1/3x3_dwconv"
  type: "Convolution"
  bottom: "conv3_1/1x1_increase/bn"
  top: "conv3_1/3x3_dwconv/bn"
  param {
    lr_mult: 1
    decay_mult: 1
  }
  param {
    lr_mult: 2
    decay_mult: 0
  }
  convolution_param {
    num_output: 96
    bias_term: true
    pad: 1
    kernel_size: 3
    group: 96
    stride: 1
    weight_filler {
      type: "msra"
    }
    bias_filler {
      type: "constant"
      value: 0
    }
    engine: CAFFE
    fp16_accumulation: true
  }
  quantize_param {
    precision: 8
    channel_shared: false
  }
}
layer {
  name: "conv3_1/3x3_dwconv/relu"
  type: "ReLU"
  bottom: "conv3_1/3x3_dwconv/bn"
  top: "conv3_1/3x3_dwconv/bn"
}
layer {
  name: "conv3_1/3x3_dwconv/bn_fixed_point"
  type: "Quantize"
  bottom: "conv3_1/3x3_dwconv/bn"
  top: "conv3_1/3x3_dwconv/bn"
  param {
    lr_mult: 0
    decay_mult: 0
  }
  quantize_param {
    precision: 8
    frozen: true
    positive: true
    tolerance: 1.5
  }
}
layer {
  name: "conv3_1/1x1_decrease"
  type: "Convolution"
  bottom: "conv3_1/3x3_dwconv/bn"
  top: "conv3_1/1x1_decrease/bn"
  param {
    lr_mult: 1
    decay_mult: 1
  }
  param {
    lr_mult: 2
    decay_mult: 0
  }
  convolution_param {
    num_output: 32
    bias_term: true
    kernel_size: 1
    stride: 1
    weight_filler {
      type: "msra"
    }
    bias_filler {
      type: "constant"
      value: 0
    }
    engine: CAFFE
    fp16_accumulation: true
  }
  quantize_param {
    precision: 8
    channel_shared: false
  }
}
layer {
  name: "conv3_1/elt_sum"
  type: "Eltwise"
  bottom: "conv3_0/1x1_decrease/bn"
  bottom: "conv3_1/1x1_decrease/bn"
  top: "conv3_1/elt_sum"
  eltwise_param {
    operation: SUM
  }
}
layer {
  name: "conv3_1/elt_sum_fixed_point"
  type: "Quantize"
  bottom: "conv3_1/elt_sum"
  top: "conv3_1/elt_sum"
  param {
    lr_mult: 0
    decay_mult: 0
  }
  quantize_param {
    precision: 8
    frozen: true
    positive: false
    tolerance: 1.5
  }
}
layer {
  name: "conv4_0/1x1_increase"
  type: "Convolution"
  bottom: "conv3_1/elt_sum"
  top: "conv4_0/1x1_increase/bn"
  param {
    lr_mult: 1
    decay_mult: 1
  }
  param {
    lr_mult: 2
    decay_mult: 0
  }
  convolution_param {
    num_output: 96
    bias_term: true
    kernel_size: 1
    stride: 1
    weight_filler {
      type: "msra"
    }
    bias_filler {
      type: "constant"
      value: 0
    }
    engine: CAFFE
    fp16_accumulation: true
  }
  quantize_param {
    precision: 8
    channel_shared: false
  }
}
layer {
  name: "conv4_0/1x1_increase/hardswish"
  type: "HardSwish"
  bottom: "conv4_0/1x1_increase/bn"
  top: "conv4_0/1x1_increase/bn"
}
layer {
  name: "conv4_0/1x1_increase/bn_fixed_point"
  type: "Quantize"
  bottom: "conv4_0/1x1_increase/bn"
  top: "conv4_0/1x1_increase/bn"
  param {
    lr_mult: 0
    decay_mult: 0
  }
  quantize_param {
    precision: 8
    frozen: true
    positive: false
    tolerance: 1.5
  }
}
layer {
  name: "conv4_0/1x1_increase/slice"
  type: "Slice"
  bottom: "conv4_0/1x1_increase/bn"
  top: "conv4_0/1x1_increase/split1"
  top: "conv4_0/1x1_increase/split2"
  top: "conv4_0/1x1_increase/split3"
  slice_param {
    slice_point: 32
    slice_point: 64
  }
}
layer {
  name: "conv4_0/3x3_dwconv/slice_0"
  type: "Convolution"
  bottom: "conv4_0/1x1_increase/split1"
  top: "conv4_0/3x3_dwconv/slice_0/bn"
  param {
    lr_mult: 1
    decay_mult: 1
  }
  param {
    lr_mult: 2
    decay_mult: 0
  }
  convolution_param {
    num_output: 32
    bias_term: true
    pad: 1
    kernel_size: 3
    group: 32
    stride: 2
    weight_filler {
      type: "msra"
    }
    bias_filler {
      type: "constant"
      value: 0
    }
    engine: CAFFE
    fp16_accumulation: true
  }
  quantize_param {
    precision: 8
    channel_shared: false
  }
}
layer {
  name: "conv4_0/3x3_dwconv/slice_0/hardswish"
  type: "HardSwish"
  bottom: "conv4_0/3x3_dwconv/slice_0/bn"
  top: "conv4_0/3x3_dwconv/slice_0/bn"
}
layer {
  name: "conv4_0/3x3_dwconv/slice_1"
  type: "Convolution"
  bottom: "conv4_0/1x1_increase/split2"
  top: "conv4_0/3x3_dwconv/slice_1/bn"
  param {
    lr_mult: 1
    decay_mult: 1
  }
  param {
    lr_mult: 2
    decay_mult: 0
  }
  convolution_param {
    num_output: 32
    bias_term: true
    pad: 2
    kernel_size: 5
    group: 32
    stride: 2
    weight_filler {
      type: "msra"
    }
    bias_filler {
      type: "constant"
      value: 0
    }
    engine: CAFFE
    fp16_accumulation: true
  }
  quantize_param {
    precision: 8
    channel_shared: false
  }
}
layer {
  name: "conv4_0/3x3_dwconv/slice_1/hardswish"
  type: "HardSwish"
  bottom: "conv4_0/3x3_dwconv/slice_1/bn"
  top: "conv4_0/3x3_dwconv/slice_1/bn"
}
layer {
  name: "conv4_0/3x3_dwconv/slice_2"
  type: "Convolution"
  bottom: "conv4_0/1x1_increase/split3"
  top: "conv4_0/3x3_dwconv/slice_2/bn"
  param {
    lr_mult: 1
    decay_mult: 1
  }
  param {
    lr_mult: 2
    decay_mult: 0
  }
  convolution_param {
    num_output: 32
    bias_term: true
    pad: 3
    kernel_size: 7
    group: 32
    stride: 2
    weight_filler {
      type: "msra"
    }
    bias_filler {
      type: "constant"
      value: 0
    }
    engine: CAFFE
    fp16_accumulation: true
  }
  quantize_param {
    precision: 8
    channel_shared: false
  }
}
layer {
  name: "conv4_0/3x3_dwconv/slice_2/hardswish"
  type: "HardSwish"
  bottom: "conv4_0/3x3_dwconv/slice_2/bn"
  top: "conv4_0/3x3_dwconv/slice_2/bn"
}
layer {
  name: "conv4_0/3x3_dwconv/concat"
  type: "Concat"
  bottom: "conv4_0/3x3_dwconv/slice_0/bn"
  bottom: "conv4_0/3x3_dwconv/slice_1/bn"
  bottom: "conv4_0/3x3_dwconv/slice_2/bn"
  top: "conv4_0/3x3_dwconv/concat"
}
layer {
  name: "conv4_0/3x3_dwconv/concat_fixed_point"
  type: "Quantize"
  bottom: "conv4_0/3x3_dwconv/concat"
  top: "conv4_0/3x3_dwconv/concat"
  param {
    lr_mult: 0
    decay_mult: 0
  }
  quantize_param {
    precision: 8
    frozen: true
    positive: false
    tolerance: 1.5
  }
}
layer {
  name: "conv4_0/3x3_dwconv/SE_global_pool"
  type: "Pooling"
  bottom: "conv4_0/3x3_dwconv/concat"
  top: "conv4_0/3x3_dwconv/SE_global_pool"
  pooling_param {
    pool: AVE
    engine: CAFFE
    global_pooling: true
  }
}
layer {
  name: "conv4_0/3x3_dwconv/SE_bn"
  type: "Scale"
  bottom: "conv4_0/3x3_dwconv/SE_global_pool"
  top: "conv4_0/3x3_dwconv/SE_bn"
  param {
    lr_mult: 1
    decay_mult: 0
  }
  param {
    lr_mult: 2
    decay_mult: 0
  }
  scale_param {
    axis: 1
    num_axes: 1
    bias_term: true
  }
}
layer {
  name: "conv4_0/3x3_dwconv/SE_fc1"
  type: "Convolution"
  bottom: "conv4_0/3x3_dwconv/SE_bn"
  top: "conv4_0/3x3_dwconv/SE_fc1"
  param {
    lr_mult: 1
    decay_mult: 1
  }
  convolution_param {
    num_output: 6
    bias_term: false
    kernel_size: 1
    stride: 1
    weight_filler {
      type: "gaussian"
      std: 0.01
    }
    engine: CAFFE
    fp16_accumulation: true
  }
  quantize_param {
    precision: 8
    channel_shared: false
  }
}
layer {
  name: "conv4_0/3x3_dwconv/SE_fc1/relu"
  type: "ReLU"
  bottom: "conv4_0/3x3_dwconv/SE_fc1"
  top: "conv4_0/3x3_dwconv/SE_fc1"
}
layer {
  name: "conv4_0/3x3_dwconv/SE_fc2"
  type: "Convolution"
  bottom: "conv4_0/3x3_dwconv/SE_fc1"
  top: "conv4_0/3x3_dwconv/SE_fc2"
  param {
    lr_mult: 1
    decay_mult: 1
  }
  convolution_param {
    num_output: 96
    bias_term: false
    kernel_size: 1
    stride: 1
    weight_filler {
      type: "gaussian"
      std: 0.01
    }
    engine: CAFFE
    fp16_accumulation: true
  }
  quantize_param {
    precision: 8
    channel_shared: false
  }
}
layer {
  name: "conv4_0/3x3_dwconv/SE_weights"
  type: "Sigmoid"
  bottom: "conv4_0/3x3_dwconv/SE_fc2"
  top: "conv4_0/3x3_dwconv/SE_fc2"
}
layer {
  name: "conv4_0/3x3_dwconv/SE_weights/reshape"
  type: "Reshape"
  bottom: "conv4_0/3x3_dwconv/SE_fc2"
  top: "conv4_0/3x3_dwconv/SE_weights/reshape"
  reshape_param {
    shape {
      dim: 0
      dim: 0
    }
  }
}
layer {
  name: "conv4_0/3x3_dwconv/scale"
  type: "Scale"
  bottom: "conv4_0/3x3_dwconv/concat"
  bottom: "conv4_0/3x3_dwconv/SE_weights/reshape"
  top: "conv4_0/3x3_dwconv/scale"
  scale_param {
    axis: 0
    bias_term: false
  }
}
layer {
  name: "conv4_0/3x3_dwconv/scale_fixed_point"
  type: "Quantize"
  bottom: "conv4_0/3x3_dwconv/scale"
  top: "conv4_0/3x3_dwconv/scale"
  param {
    lr_mult: 0
    decay_mult: 0
  }
  quantize_param {
    precision: 8
    frozen: true
    positive: false
    tolerance: 1.5
  }
}
layer {
  name: "conv4_0/1x1_decrease"
  type: "Convolution"
  bottom: "conv4_0/3x3_dwconv/scale"
  top: "conv4_0/1x1_decrease/bn"
  param {
    lr_mult: 1
    decay_mult: 1
  }
  param {
    lr_mult: 2
    decay_mult: 0
  }
  convolution_param {
    num_output: 40
    bias_term: true
    kernel_size: 1
    stride: 1
    weight_filler {
      type: "msra"
    }
    bias_filler {
      type: "constant"
      value: 0
    }
    engine: CAFFE
    fp16_accumulation: true
  }
  quantize_param {
    precision: 8
    channel_shared: false
  }
}
layer {
  name: "conv4_0/1x1_decrease/bn_fixed_point"
  type: "Quantize"
  bottom: "conv4_0/1x1_decrease/bn"
  top: "conv4_0/1x1_decrease/bn"
  param {
    lr_mult: 0
    decay_mult: 0
  }
  quantize_param {
    precision: 8
    frozen: true
    positive: false
    tolerance: 1.5
  }
}
layer {
  name: "conv4_1/1x1_increase"
  type: "Convolution"
  bottom: "conv4_0/1x1_decrease/bn"
  top: "conv4_1/1x1_increase/bn"
  param {
    lr_mult: 1
    decay_mult: 1
  }
  param {
    lr_mult: 2
    decay_mult: 0
  }
  convolution_param {
    num_output: 120
    bias_term: true
    kernel_size: 1
    stride: 1
    weight_filler {
      type: "msra"
    }
    bias_filler {
      type: "constant"
      value: 0
    }
    engine: CAFFE
    fp16_accumulation: true
  }
  quantize_param {
    precision: 8
    channel_shared: false
  }
}
layer {
  name: "conv4_1/1x1_increase/hardswish"
  type: "HardSwish"
  bottom: "conv4_1/1x1_increase/bn"
  top: "conv4_1/1x1_increase/bn"
}
layer {
  name: "conv4_1/1x1_increase/bn_fixed_point"
  type: "Quantize"
  bottom: "conv4_1/1x1_increase/bn"
  top: "conv4_1/1x1_increase/bn"
  param {
    lr_mult: 0
    decay_mult: 0
  }
  quantize_param {
    precision: 8
    frozen: true
    positive: false
    tolerance: 1.5
  }
}
layer {
  name: "conv4_1/1x1_increase/slice"
  type: "Slice"
  bottom: "conv4_1/1x1_increase/bn"
  top: "conv4_1/1x1_increase/split1"
  top: "conv4_1/1x1_increase/split2"
  slice_param {
    slice_point: 60
  }
}
layer {
  name: "conv4_1/3x3_dwconv/slice_0"
  type: "Convolution"
  bottom: "conv4_1/1x1_increase/split1"
  top: "conv4_1/3x3_dwconv/slice_0/bn"
  param {
    lr_mult: 1
    decay_mult: 1
  }
  param {
    lr_mult: 2
    decay_mult: 0
  }
  convolution_param {
    num_output: 60
    bias_term: true
    pad: 1
    kernel_size: 3
    group: 60
    stride: 1
    weight_filler {
      type: "msra"
    }
    bias_filler {
      type: "constant"
      value: 0
    }
    engine: CAFFE
    fp16_accumulation: true
  }
  quantize_param {
    precision: 8
    channel_shared: false
  }
}
layer {
  name: "conv4_1/3x3_dwconv/slice_0/hardswish"
  type: "HardSwish"
  bottom: "conv4_1/3x3_dwconv/slice_0/bn"
  top: "conv4_1/3x3_dwconv/slice_0/bn"
}
layer {
  name: "conv4_1/3x3_dwconv/slice_1"
  type: "Convolution"
  bottom: "conv4_1/1x1_increase/split2"
  top: "conv4_1/3x3_dwconv/slice_1/bn"
  param {
    lr_mult: 1
    decay_mult: 1
  }
  param {
    lr_mult: 2
    decay_mult: 0
  }
  convolution_param {
    num_output: 60
    bias_term: true
    pad: 2
    kernel_size: 5
    group: 60
    stride: 1
    weight_filler {
      type: "msra"
    }
    bias_filler {
      type: "constant"
      value: 0
    }
    engine: CAFFE
    fp16_accumulation: true
  }
  quantize_param {
    precision: 8
    channel_shared: false
  }
}
layer {
  name: "conv4_1/3x3_dwconv/slice_1/hardswish"
  type: "HardSwish"
  bottom: "conv4_1/3x3_dwconv/slice_1/bn"
  top: "conv4_1/3x3_dwconv/slice_1/bn"
}
layer {
  name: "conv4_1/3x3_dwconv/concat"
  type: "Concat"
  bottom: "conv4_1/3x3_dwconv/slice_0/bn"
  bottom: "conv4_1/3x3_dwconv/slice_1/bn"
  top: "conv4_1/3x3_dwconv/concat"
}
layer {
  name: "conv4_1/3x3_dwconv/concat_fixed_point"
  type: "Quantize"
  bottom: "conv4_1/3x3_dwconv/concat"
  top: "conv4_1/3x3_dwconv/concat"
  param {
    lr_mult: 0
    decay_mult: 0
  }
  quantize_param {
    precision: 8
    frozen: true
    positive: false
    tolerance: 1.5
  }
}
layer {
  name: "conv4_1/3x3_dwconv/SE_global_pool"
  type: "Pooling"
  bottom: "conv4_1/3x3_dwconv/concat"
  top: "conv4_1/3x3_dwconv/SE_global_pool"
  pooling_param {
    pool: AVE
    engine: CAFFE
    global_pooling: true
  }
}
layer {
  name: "conv4_1/3x3_dwconv/SE_bn"
  type: "Scale"
  bottom: "conv4_1/3x3_dwconv/SE_global_pool"
  top: "conv4_1/3x3_dwconv/SE_bn"
  param {
    lr_mult: 1
    decay_mult: 0
  }
  param {
    lr_mult: 2
    decay_mult: 0
  }
  scale_param {
    axis: 1
    num_axes: 1
    bias_term: true
  }
}
layer {
  name: "conv4_1/3x3_dwconv/SE_fc1"
  type: "Convolution"
  bottom: "conv4_1/3x3_dwconv/SE_bn"
  top: "conv4_1/3x3_dwconv/SE_fc1"
  param {
    lr_mult: 1
    decay_mult: 1
  }
  convolution_param {
    num_output: 7
    bias_term: false
    kernel_size: 1
    stride: 1
    weight_filler {
      type: "gaussian"
      std: 0.01
    }
    engine: CAFFE
    fp16_accumulation: true
  }
  quantize_param {
    precision: 8
    channel_shared: false
  }
}
layer {
  name: "conv4_1/3x3_dwconv/SE_fc1/relu"
  type: "ReLU"
  bottom: "conv4_1/3x3_dwconv/SE_fc1"
  top: "conv4_1/3x3_dwconv/SE_fc1"
}
layer {
  name: "conv4_1/3x3_dwconv/SE_fc2"
  type: "Convolution"
  bottom: "conv4_1/3x3_dwconv/SE_fc1"
  top: "conv4_1/3x3_dwconv/SE_fc2"
  param {
    lr_mult: 1
    decay_mult: 1
  }
  convolution_param {
    num_output: 120
    bias_term: false
    kernel_size: 1
    stride: 1
    weight_filler {
      type: "gaussian"
      std: 0.01
    }
    engine: CAFFE
    fp16_accumulation: true
  }
  quantize_param {
    precision: 8
    channel_shared: false
  }
}
layer {
  name: "conv4_1/3x3_dwconv/SE_weights"
  type: "Sigmoid"
  bottom: "conv4_1/3x3_dwconv/SE_fc2"
  top: "conv4_1/3x3_dwconv/SE_fc2"
}
layer {
  name: "conv4_1/3x3_dwconv/SE_weights/reshape"
  type: "Reshape"
  bottom: "conv4_1/3x3_dwconv/SE_fc2"
  top: "conv4_1/3x3_dwconv/SE_weights/reshape"
  reshape_param {
    shape {
      dim: 0
      dim: 0
    }
  }
}
layer {
  name: "conv4_1/3x3_dwconv/scale"
  type: "Scale"
  bottom: "conv4_1/3x3_dwconv/concat"
  bottom: "conv4_1/3x3_dwconv/SE_weights/reshape"
  top: "conv4_1/3x3_dwconv/scale"
  scale_param {
    axis: 0
    bias_term: false
  }
}
layer {
  name: "conv4_1/3x3_dwconv/scale_fixed_point"
  type: "Quantize"
  bottom: "conv4_1/3x3_dwconv/scale"
  top: "conv4_1/3x3_dwconv/scale"
  param {
    lr_mult: 0
    decay_mult: 0
  }
  quantize_param {
    precision: 8
    frozen: true
    positive: false
    tolerance: 1.5
  }
}
layer {
  name: "conv4_1/1x1_decrease"
  type: "Convolution"
  bottom: "conv4_1/3x3_dwconv/scale"
  top: "conv4_1/1x1_decrease/bn"
  param {
    lr_mult: 1
    decay_mult: 1
  }
  param {
    lr_mult: 2
    decay_mult: 0
  }
  convolution_param {
    num_output: 40
    bias_term: true
    kernel_size: 1
    stride: 1
    weight_filler {
      type: "msra"
    }
    bias_filler {
      type: "constant"
      value: 0
    }
    engine: CAFFE
    fp16_accumulation: true
  }
  quantize_param {
    precision: 8
    channel_shared: false
  }
}
layer {
  name: "conv4_1/elt_sum"
  type: "Eltwise"
  bottom: "conv4_0/1x1_decrease/bn"
  bottom: "conv4_1/1x1_decrease/bn"
  top: "conv4_1/elt_sum"
  eltwise_param {
    operation: SUM
  }
}
layer {
  name: "conv4_1/elt_sum_fixed_point"
  type: "Quantize"
  bottom: "conv4_1/elt_sum"
  top: "conv4_1/elt_sum"
  param {
    lr_mult: 0
    decay_mult: 0
  }
  quantize_param {
    precision: 8
    frozen: true
    positive: false
    tolerance: 1.5
  }
}
layer {
  name: "conv4_2/1x1_increase"
  type: "Convolution"
  bottom: "conv4_1/elt_sum"
  top: "conv4_2/1x1_increase/bn"
  param {
    lr_mult: 1
    decay_mult: 1
  }
  param {
    lr_mult: 2
    decay_mult: 0
  }
  convolution_param {
    num_output: 120
    bias_term: true
    kernel_size: 1
    stride: 1
    weight_filler {
      type: "msra"
    }
    bias_filler {
      type: "constant"
      value: 0
    }
    engine: CAFFE
    fp16_accumulation: true
  }
  quantize_param {
    precision: 8
    channel_shared: false
  }
}
layer {
  name: "conv4_2/1x1_increase/hardswish"
  type: "HardSwish"
  bottom: "conv4_2/1x1_increase/bn"
  top: "conv4_2/1x1_increase/bn"
}
layer {
  name: "conv4_2/1x1_increase/bn_fixed_point"
  type: "Quantize"
  bottom: "conv4_2/1x1_increase/bn"
  top: "conv4_2/1x1_increase/bn"
  param {
    lr_mult: 0
    decay_mult: 0
  }
  quantize_param {
    precision: 8
    frozen: true
    positive: false
    tolerance: 1.5
  }
}
layer {
  name: "conv4_2/1x1_increase/slice"
  type: "Slice"
  bottom: "conv4_2/1x1_increase/bn"
  top: "conv4_2/1x1_increase/split1"
  top: "conv4_2/1x1_increase/split2"
  slice_param {
    slice_point: 60
  }
}
layer {
  name: "conv4_2/3x3_dwconv/slice_0"
  type: "Convolution"
  bottom: "conv4_2/1x1_increase/split1"
  top: "conv4_2/3x3_dwconv/slice_0/bn"
  param {
    lr_mult: 1
    decay_mult: 1
  }
  param {
    lr_mult: 2
    decay_mult: 0
  }
  convolution_param {
    num_output: 60
    bias_term: true
    pad: 1
    kernel_size: 3
    group: 60
    stride: 1
    weight_filler {
      type: "msra"
    }
    bias_filler {
      type: "constant"
      value: 0
    }
    engine: CAFFE
    fp16_accumulation: true
  }
  quantize_param {
    precision: 8
    channel_shared: false
  }
}
layer {
  name: "conv4_2/3x3_dwconv/slice_0/hardswish"
  type: "HardSwish"
  bottom: "conv4_2/3x3_dwconv/slice_0/bn"
  top: "conv4_2/3x3_dwconv/slice_0/bn"
}
layer {
  name: "conv4_2/3x3_dwconv/slice_1"
  type: "Convolution"
  bottom: "conv4_2/1x1_increase/split2"
  top: "conv4_2/3x3_dwconv/slice_1/bn"
  param {
    lr_mult: 1
    decay_mult: 1
  }
  param {
    lr_mult: 2
    decay_mult: 0
  }
  convolution_param {
    num_output: 60
    bias_term: true
    pad: 2
    kernel_size: 5
    group: 60
    stride: 1
    weight_filler {
      type: "msra"
    }
    bias_filler {
      type: "constant"
      value: 0
    }
    engine: CAFFE
    fp16_accumulation: true
  }
  quantize_param {
    precision: 8
    channel_shared: false
  }
}
layer {
  name: "conv4_2/3x3_dwconv/slice_1/hardswish"
  type: "HardSwish"
  bottom: "conv4_2/3x3_dwconv/slice_1/bn"
  top: "conv4_2/3x3_dwconv/slice_1/bn"
}
layer {
  name: "conv4_2/3x3_dwconv/concat"
  type: "Concat"
  bottom: "conv4_2/3x3_dwconv/slice_0/bn"
  bottom: "conv4_2/3x3_dwconv/slice_1/bn"
  top: "conv4_2/3x3_dwconv/concat"
}
layer {
  name: "conv4_2/3x3_dwconv/concat_fixed_point"
  type: "Quantize"
  bottom: "conv4_2/3x3_dwconv/concat"
  top: "conv4_2/3x3_dwconv/concat"
  param {
    lr_mult: 0
    decay_mult: 0
  }
  quantize_param {
    precision: 8
    frozen: true
    positive: false
    tolerance: 1.5
  }
}
layer {
  name: "conv4_2/3x3_dwconv/SE_global_pool"
  type: "Pooling"
  bottom: "conv4_2/3x3_dwconv/concat"
  top: "conv4_2/3x3_dwconv/SE_global_pool"
  pooling_param {
    pool: AVE
    engine: CAFFE
    global_pooling: true
  }
}
layer {
  name: "conv4_2/3x3_dwconv/SE_bn"
  type: "Scale"
  bottom: "conv4_2/3x3_dwconv/SE_global_pool"
  top: "conv4_2/3x3_dwconv/SE_bn"
  param {
    lr_mult: 1
    decay_mult: 0
  }
  param {
    lr_mult: 2
    decay_mult: 0
  }
  scale_param {
    axis: 1
    num_axes: 1
    bias_term: true
  }
}
layer {
  name: "conv4_2/3x3_dwconv/SE_fc1"
  type: "Convolution"
  bottom: "conv4_2/3x3_dwconv/SE_bn"
  top: "conv4_2/3x3_dwconv/SE_fc1"
  param {
    lr_mult: 1
    decay_mult: 1
  }
  convolution_param {
    num_output: 7
    bias_term: false
    kernel_size: 1
    stride: 1
    weight_filler {
      type: "gaussian"
      std: 0.01
    }
    engine: CAFFE
    fp16_accumulation: true
  }
  quantize_param {
    precision: 8
    channel_shared: false
  }
}
layer {
  name: "conv4_2/3x3_dwconv/SE_fc1/relu"
  type: "ReLU"
  bottom: "conv4_2/3x3_dwconv/SE_fc1"
  top: "conv4_2/3x3_dwconv/SE_fc1"
}
layer {
  name: "conv4_2/3x3_dwconv/SE_fc2"
  type: "Convolution"
  bottom: "conv4_2/3x3_dwconv/SE_fc1"
  top: "conv4_2/3x3_dwconv/SE_fc2"
  param {
    lr_mult: 1
    decay_mult: 1
  }
  convolution_param {
    num_output: 120
    bias_term: false
    kernel_size: 1
    stride: 1
    weight_filler {
      type: "gaussian"
      std: 0.01
    }
    engine: CAFFE
    fp16_accumulation: true
  }
  quantize_param {
    precision: 8
    channel_shared: false
  }
}
layer {
  name: "conv4_2/3x3_dwconv/SE_weights"
  type: "Sigmoid"
  bottom: "conv4_2/3x3_dwconv/SE_fc2"
  top: "conv4_2/3x3_dwconv/SE_fc2"
}
layer {
  name: "conv4_2/3x3_dwconv/SE_weights/reshape"
  type: "Reshape"
  bottom: "conv4_2/3x3_dwconv/SE_fc2"
  top: "conv4_2/3x3_dwconv/SE_weights/reshape"
  reshape_param {
    shape {
      dim: 0
      dim: 0
    }
  }
}
layer {
  name: "conv4_2/3x3_dwconv/scale"
  type: "Scale"
  bottom: "conv4_2/3x3_dwconv/concat"
  bottom: "conv4_2/3x3_dwconv/SE_weights/reshape"
  top: "conv4_2/3x3_dwconv/scale"
  scale_param {
    axis: 0
    bias_term: false
  }
}
layer {
  name: "conv4_2/3x3_dwconv/scale_fixed_point"
  type: "Quantize"
  bottom: "conv4_2/3x3_dwconv/scale"
  top: "conv4_2/3x3_dwconv/scale"
  param {
    lr_mult: 0
    decay_mult: 0
  }
  quantize_param {
    precision: 8
    frozen: true
    positive: false
    tolerance: 1.5
  }
}
layer {
  name: "conv4_2/1x1_decrease"
  type: "Convolution"
  bottom: "conv4_2/3x3_dwconv/scale"
  top: "conv4_2/1x1_decrease/bn"
  param {
    lr_mult: 1
    decay_mult: 1
  }
  param {
    lr_mult: 2
    decay_mult: 0
  }
  convolution_param {
    num_output: 40
    bias_term: true
    kernel_size: 1
    stride: 1
    weight_filler {
      type: "msra"
    }
    bias_filler {
      type: "constant"
      value: 0
    }
    engine: CAFFE
    fp16_accumulation: true
  }
  quantize_param {
    precision: 8
    channel_shared: false
  }
}
layer {
  name: "conv4_2/elt_sum"
  type: "Eltwise"
  bottom: "conv4_1/elt_sum"
  bottom: "conv4_2/1x1_decrease/bn"
  top: "conv4_2/elt_sum"
  eltwise_param {
    operation: SUM
  }
}
layer {
  name: "conv4_2/elt_sum_fixed_point"
  type: "Quantize"
  bottom: "conv4_2/elt_sum"
  top: "conv4_2/elt_sum"
  param {
    lr_mult: 0
    decay_mult: 0
  }
  quantize_param {
    precision: 8
    frozen: true
    positive: false
    tolerance: 1.5
  }
}
layer {
  name: "conv4_3/1x1_increase"
  type: "Convolution"
  bottom: "conv4_2/elt_sum"
  top: "conv4_3/1x1_increase/bn"
  param {
    lr_mult: 1
    decay_mult: 1
  }
  param {
    lr_mult: 2
    decay_mult: 0
  }
  convolution_param {
    num_output: 120
    bias_term: true
    kernel_size: 1
    stride: 1
    weight_filler {
      type: "msra"
    }
    bias_filler
I0918 12:20:35.802472 22578 layer_factory.hpp:77] Creating layer data
I0918 12:20:35.802517 22578 net.cpp:86] Creating Layer data
I0918 12:20:35.802533 22578 net.cpp:382] data -> data
I0918 12:20:35.802567 22578 net.cpp:382] data -> label
I0918 12:20:35.802587 22578 image_data_layer.cpp:43] Opening file file_lists/val.txt
I0918 12:20:35.816205 22578 image_data_layer.cpp:68] A total of 50000 images.
I0918 12:20:35.853758 22578 image_data_layer.cpp:95] output data size: 25,3,224,224
I0918 12:20:35.900434 22578 net.cpp:124] Setting up data
I0918 12:20:35.900537 22578 net.cpp:131] Top shape: 25 3 224 224 (3763200)
I0918 12:20:35.900548 22578 net.cpp:131] Top shape: 25 (25)
I0918 12:20:35.900557 22578 net.cpp:139] Memory required for data: 15052900
I0918 12:20:35.900578 22578 layer_factory.hpp:77] Creating layer label_data_1_split
I0918 12:20:35.900605 22578 net.cpp:86] Creating Layer label_data_1_split
I0918 12:20:35.900614 22578 net.cpp:408] label_data_1_split <- label
I0918 12:20:35.900636 22578 net.cpp:382] label_data_1_split -> label_data_1_split_0
I0918 12:20:35.900652 22578 net.cpp:382] label_data_1_split -> label_data_1_split_1
I0918 12:20:35.900663 22578 net.cpp:382] label_data_1_split -> label_data_1_split_2
I0918 12:20:35.900846 22578 net.cpp:124] Setting up label_data_1_split
I0918 12:20:35.900858 22578 net.cpp:131] Top shape: 25 (25)
I0918 12:20:35.900864 22578 net.cpp:131] Top shape: 25 (25)
I0918 12:20:35.900869 22578 net.cpp:131] Top shape: 25 (25)
I0918 12:20:35.900873 22578 net.cpp:139] Memory required for data: 15053200
I0918 12:20:35.900878 22578 layer_factory.hpp:77] Creating layer data_fixed_point
I0918 12:20:35.900895 22578 net.cpp:86] Creating Layer data_fixed_point
I0918 12:20:35.900902 22578 net.cpp:408] data_fixed_point <- data
I0918 12:20:35.900913 22578 net.cpp:369] data_fixed_point -> data (in-place)
I0918 12:20:35.900961 22578 net.cpp:124] Setting up data_fixed_point
I0918 12:20:35.900971 22578 net.cpp:131] Top shape: 25 3 224 224 (3763200)
I0918 12:20:35.900977 22578 net.cpp:139] Memory required for data: 30106000
I0918 12:20:35.901002 22578 layer_factory.hpp:77] Creating layer conv1/3x3_s2
I0918 12:20:35.901038 22578 net.cpp:86] Creating Layer conv1/3x3_s2
I0918 12:20:35.901046 22578 net.cpp:408] conv1/3x3_s2 <- data
I0918 12:20:35.901055 22578 net.cpp:382] conv1/3x3_s2 -> conv1/3x3_s2/bn
I0918 12:20:35.905110 22578 net.cpp:124] Setting up conv1/3x3_s2
I0918 12:20:35.905129 22578 net.cpp:131] Top shape: 25 32 112 112 (10035200)
I0918 12:20:35.905146 22578 net.cpp:139] Memory required for data: 70246800
I0918 12:20:35.905160 22578 layer_factory.hpp:77] Creating layer conv1/3x3_s2/relu
I0918 12:20:35.905171 22578 net.cpp:86] Creating Layer conv1/3x3_s2/relu
I0918 12:20:35.905177 22578 net.cpp:408] conv1/3x3_s2/relu <- conv1/3x3_s2/bn
I0918 12:20:35.905185 22578 net.cpp:369] conv1/3x3_s2/relu -> conv1/3x3_s2/bn (in-place)
I0918 12:20:36.880722 22578 net.cpp:124] Setting up conv1/3x3_s2/relu
I0918 12:20:36.880764 22578 net.cpp:131] Top shape: 25 32 112 112 (10035200)
I0918 12:20:36.880770 22578 net.cpp:139] Memory required for data: 110387600
I0918 12:20:36.880779 22578 layer_factory.hpp:77] Creating layer conv1/3x3_s2/bn_fixed_point
I0918 12:20:36.880801 22578 net.cpp:86] Creating Layer conv1/3x3_s2/bn_fixed_point
I0918 12:20:36.880816 22578 net.cpp:408] conv1/3x3_s2/bn_fixed_point <- conv1/3x3_s2/bn
I0918 12:20:36.880828 22578 net.cpp:369] conv1/3x3_s2/bn_fixed_point -> conv1/3x3_s2/bn (in-place)
I0918 12:20:36.880872 22578 net.cpp:124] Setting up conv1/3x3_s2/bn_fixed_point
I0918 12:20:36.880882 22578 net.cpp:131] Top shape: 25 32 112 112 (10035200)
I0918 12:20:36.880885 22578 net.cpp:139] Memory required for data: 150528400
I0918 12:20:36.880893 22578 layer_factory.hpp:77] Creating layer conv2_0/3x3_dwconv
I0918 12:20:36.880909 22578 net.cpp:86] Creating Layer conv2_0/3x3_dwconv
I0918 12:20:36.880913 22578 net.cpp:408] conv2_0/3x3_dwconv <- conv1/3x3_s2/bn
I0918 12:20:36.880920 22578 net.cpp:382] conv2_0/3x3_dwconv -> conv2_0/3x3_dwconv/bn
I0918 12:20:36.881772 22578 net.cpp:124] Setting up conv2_0/3x3_dwconv
I0918 12:20:36.881816 22578 net.cpp:131] Top shape: 25 32 112 112 (10035200)
I0918 12:20:36.881821 22578 net.cpp:139] Memory required for data: 190669200
I0918 12:20:36.881832 22578 layer_factory.hpp:77] Creating layer conv2_0/3x3_dwconv/relu
I0918 12:20:36.881842 22578 net.cpp:86] Creating Layer conv2_0/3x3_dwconv/relu
I0918 12:20:36.881846 22578 net.cpp:408] conv2_0/3x3_dwconv/relu <- conv2_0/3x3_dwconv/bn
I0918 12:20:36.881852 22578 net.cpp:369] conv2_0/3x3_dwconv/relu -> conv2_0/3x3_dwconv/bn (in-place)
I0918 12:20:36.882441 22578 net.cpp:124] Setting up conv2_0/3x3_dwconv/relu
I0918 12:20:36.882454 22578 net.cpp:131] Top shape: 25 32 112 112 (10035200)
I0918 12:20:36.882458 22578 net.cpp:139] Memory required for data: 230810000
I0918 12:20:36.882463 22578 layer_factory.hpp:77] Creating layer conv2_0/3x3_dwconv/bn_fixed_point
I0918 12:20:36.882474 22578 net.cpp:86] Creating Layer conv2_0/3x3_dwconv/bn_fixed_point
I0918 12:20:36.882479 22578 net.cpp:408] conv2_0/3x3_dwconv/bn_fixed_point <- conv2_0/3x3_dwconv/bn
I0918 12:20:36.882488 22578 net.cpp:369] conv2_0/3x3_dwconv/bn_fixed_point -> conv2_0/3x3_dwconv/bn (in-place)
I0918 12:20:36.882520 22578 net.cpp:124] Setting up conv2_0/3x3_dwconv/bn_fixed_point
I0918 12:20:36.882529 22578 net.cpp:131] Top shape: 25 32 112 112 (10035200)
I0918 12:20:36.882532 22578 net.cpp:139] Memory required for data: 270950800
I0918 12:20:36.882539 22578 layer_factory.hpp:77] Creating layer conv2_0/1x1_decrease
I0918 12:20:36.882550 22578 net.cpp:86] Creating Layer conv2_0/1x1_decrease
I0918 12:20:36.882553 22578 net.cpp:408] conv2_0/1x1_decrease <- conv2_0/3x3_dwconv/bn
I0918 12:20:36.882560 22578 net.cpp:382] conv2_0/1x1_decrease -> conv2_0/1x1_decrease/bn
I0918 12:20:36.883119 22578 net.cpp:124] Setting up conv2_0/1x1_decrease
I0918 12:20:36.883132 22578 net.cpp:131] Top shape: 25 16 112 112 (5017600)
I0918 12:20:36.883136 22578 net.cpp:139] Memory required for data: 291021200
I0918 12:20:36.883147 22578 layer_factory.hpp:77] Creating layer conv2_0/1x1_decrease/bn_fixed_point
I0918 12:20:36.883154 22578 net.cpp:86] Creating Layer conv2_0/1x1_decrease/bn_fixed_point
I0918 12:20:36.883159 22578 net.cpp:408] conv2_0/1x1_decrease/bn_fixed_point <- conv2_0/1x1_decrease/bn
I0918 12:20:36.883165 22578 net.cpp:369] conv2_0/1x1_decrease/bn_fixed_point -> conv2_0/1x1_decrease/bn (in-place)
I0918 12:20:36.883198 22578 net.cpp:124] Setting up conv2_0/1x1_decrease/bn_fixed_point
I0918 12:20:36.883205 22578 net.cpp:131] Top shape: 25 16 112 112 (5017600)
I0918 12:20:36.883209 22578 net.cpp:139] Memory required for data: 311091600
I0918 12:20:36.883214 22578 layer_factory.hpp:77] Creating layer conv3_0/1x1_increase
I0918 12:20:36.883225 22578 net.cpp:86] Creating Layer conv3_0/1x1_increase
I0918 12:20:36.883229 22578 net.cpp:408] conv3_0/1x1_increase <- conv2_0/1x1_decrease/bn
I0918 12:20:36.883235 22578 net.cpp:382] conv3_0/1x1_increase -> conv3_0/1x1_increase/bn
I0918 12:20:36.883826 22578 net.cpp:124] Setting up conv3_0/1x1_increase
I0918 12:20:36.883848 22578 net.cpp:131] Top shape: 25 48 112 112 (15052800)
I0918 12:20:36.883852 22578 net.cpp:139] Memory required for data: 371302800
I0918 12:20:36.883859 22578 layer_factory.hpp:77] Creating layer conv3_0/1x1_increase/relu
I0918 12:20:36.883868 22578 net.cpp:86] Creating Layer conv3_0/1x1_increase/relu
I0918 12:20:36.883872 22578 net.cpp:408] conv3_0/1x1_increase/relu <- conv3_0/1x1_increase/bn
I0918 12:20:36.883879 22578 net.cpp:369] conv3_0/1x1_increase/relu -> conv3_0/1x1_increase/bn (in-place)
I0918 12:20:36.884650 22578 net.cpp:124] Setting up conv3_0/1x1_increase/relu
I0918 12:20:36.884668 22578 net.cpp:131] Top shape: 25 48 112 112 (15052800)
I0918 12:20:36.884673 22578 net.cpp:139] Memory required for data: 431514000
I0918 12:20:36.884677 22578 layer_factory.hpp:77] Creating layer conv3_0/1x1_increase/bn_fixed_point
I0918 12:20:36.884688 22578 net.cpp:86] Creating Layer conv3_0/1x1_increase/bn_fixed_point
I0918 12:20:36.884692 22578 net.cpp:408] conv3_0/1x1_increase/bn_fixed_point <- conv3_0/1x1_increase/bn
I0918 12:20:36.884701 22578 net.cpp:369] conv3_0/1x1_increase/bn_fixed_point -> conv3_0/1x1_increase/bn (in-place)
I0918 12:20:36.884757 22578 net.cpp:124] Setting up conv3_0/1x1_increase/bn_fixed_point
I0918 12:20:36.884765 22578 net.cpp:131] Top shape: 25 48 112 112 (15052800)
I0918 12:20:36.884769 22578 net.cpp:139] Memory required for data: 491725200
I0918 12:20:36.884774 22578 layer_factory.hpp:77] Creating layer conv3_0/3x3_dwconv
I0918 12:20:36.884785 22578 net.cpp:86] Creating Layer conv3_0/3x3_dwconv
I0918 12:20:36.884791 22578 net.cpp:408] conv3_0/3x3_dwconv <- conv3_0/1x1_increase/bn
I0918 12:20:36.884797 22578 net.cpp:382] conv3_0/3x3_dwconv -> conv3_0/3x3_dwconv/bn
I0918 12:20:36.886788 22578 net.cpp:124] Setting up conv3_0/3x3_dwconv
I0918 12:20:36.886809 22578 net.cpp:131] Top shape: 25 48 56 56 (3763200)
I0918 12:20:36.886814 22578 net.cpp:139] Memory required for data: 506778000
I0918 12:20:36.886822 22578 layer_factory.hpp:77] Creating layer conv3_0/3x3_dwconv/relu
I0918 12:20:36.886831 22578 net.cpp:86] Creating Layer conv3_0/3x3_dwconv/relu
I0918 12:20:36.886837 22578 net.cpp:408] conv3_0/3x3_dwconv/relu <- conv3_0/3x3_dwconv/bn
I0918 12:20:36.886842 22578 net.cpp:369] conv3_0/3x3_dwconv/relu -> conv3_0/3x3_dwconv/bn (in-place)
I0918 12:20:36.887404 22578 net.cpp:124] Setting up conv3_0/3x3_dwconv/relu
I0918 12:20:36.887418 22578 net.cpp:131] Top shape: 25 48 56 56 (3763200)
I0918 12:20:36.887421 22578 net.cpp:139] Memory required for data: 521830800
I0918 12:20:36.887426 22578 layer_factory.hpp:77] Creating layer conv3_0/3x3_dwconv/bn_fixed_point
I0918 12:20:36.887436 22578 net.cpp:86] Creating Layer conv3_0/3x3_dwconv/bn_fixed_point
I0918 12:20:36.887440 22578 net.cpp:408] conv3_0/3x3_dwconv/bn_fixed_point <- conv3_0/3x3_dwconv/bn
I0918 12:20:36.887447 22578 net.cpp:369] conv3_0/3x3_dwconv/bn_fixed_point -> conv3_0/3x3_dwconv/bn (in-place)
I0918 12:20:36.887482 22578 net.cpp:124] Setting up conv3_0/3x3_dwconv/bn_fixed_point
I0918 12:20:36.887491 22578 net.cpp:131] Top shape: 25 48 56 56 (3763200)
I0918 12:20:36.887495 22578 net.cpp:139] Memory required for data: 536883600
I0918 12:20:36.887500 22578 layer_factory.hpp:77] Creating layer conv3_0/1x1_decrease
I0918 12:20:36.887516 22578 net.cpp:86] Creating Layer conv3_0/1x1_decrease
I0918 12:20:36.887519 22578 net.cpp:408] conv3_0/1x1_decrease <- conv3_0/3x3_dwconv/bn
I0918 12:20:36.887527 22578 net.cpp:382] conv3_0/1x1_decrease -> conv3_0/1x1_decrease/bn
I0918 12:20:36.888322 22578 net.cpp:124] Setting up conv3_0/1x1_decrease
I0918 12:20:36.888337 22578 net.cpp:131] Top shape: 25 32 56 56 (2508800)
I0918 12:20:36.888342 22578 net.cpp:139] Memory required for data: 546918800
I0918 12:20:36.888353 22578 layer_factory.hpp:77] Creating layer conv3_0/1x1_decrease/bn_fixed_point
I0918 12:20:36.888361 22578 net.cpp:86] Creating Layer conv3_0/1x1_decrease/bn_fixed_point
I0918 12:20:36.888367 22578 net.cpp:408] conv3_0/1x1_decrease/bn_fixed_point <- conv3_0/1x1_decrease/bn
I0918 12:20:36.888375 22578 net.cpp:369] conv3_0/1x1_decrease/bn_fixed_point -> conv3_0/1x1_decrease/bn (in-place)
I0918 12:20:36.888409 22578 net.cpp:124] Setting up conv3_0/1x1_decrease/bn_fixed_point
I0918 12:20:36.888417 22578 net.cpp:131] Top shape: 25 32 56 56 (2508800)
I0918 12:20:36.888424 22578 net.cpp:139] Memory required for data: 556954000
I0918 12:20:36.888429 22578 layer_factory.hpp:77] Creating layer conv3_0/1x1_decrease/bn_conv3_0/1x1_decrease/bn_fixed_point_0_split
I0918 12:20:36.888435 22578 net.cpp:86] Creating Layer conv3_0/1x1_decrease/bn_conv3_0/1x1_decrease/bn_fixed_point_0_split
I0918 12:20:36.888439 22578 net.cpp:408] conv3_0/1x1_decrease/bn_conv3_0/1x1_decrease/bn_fixed_point_0_split <- conv3_0/1x1_decrease/bn
I0918 12:20:36.888447 22578 net.cpp:382] conv3_0/1x1_decrease/bn_conv3_0/1x1_decrease/bn_fixed_point_0_split -> conv3_0/1x1_decrease/bn_conv3_0/1x1_decrease/bn_fixed_point_0_split_0
I0918 12:20:36.888453 22578 net.cpp:382] conv3_0/1x1_decrease/bn_conv3_0/1x1_decrease/bn_fixed_point_0_split -> conv3_0/1x1_decrease/bn_conv3_0/1x1_decrease/bn_fixed_point_0_split_1
I0918 12:20:36.888499 22578 net.cpp:124] Setting up conv3_0/1x1_decrease/bn_conv3_0/1x1_decrease/bn_fixed_point_0_split
I0918 12:20:36.888520 22578 net.cpp:131] Top shape: 25 32 56 56 (2508800)
I0918 12:20:36.888526 22578 net.cpp:131] Top shape: 25 32 56 56 (2508800)
I0918 12:20:36.888530 22578 net.cpp:139] Memory required for data: 577024400
I0918 12:20:36.888535 22578 layer_factory.hpp:77] Creating layer conv3_1/1x1_increase
I0918 12:20:36.888545 22578 net.cpp:86] Creating Layer conv3_1/1x1_increase
I0918 12:20:36.888551 22578 net.cpp:408] conv3_1/1x1_increase <- conv3_0/1x1_decrease/bn_conv3_0/1x1_decrease/bn_fixed_point_0_split_0
I0918 12:20:36.888561 22578 net.cpp:382] conv3_1/1x1_increase -> conv3_1/1x1_increase/bn
I0918 12:20:36.889204 22578 net.cpp:124] Setting up conv3_1/1x1_increase
I0918 12:20:36.889216 22578 net.cpp:131] Top shape: 25 96 56 56 (7526400)
I0918 12:20:36.889220 22578 net.cpp:139] Memory required for data: 607130000
I0918 12:20:36.889228 22578 layer_factory.hpp:77] Creating layer conv3_1/1x1_increase/relu
I0918 12:20:36.889235 22578 net.cpp:86] Creating Layer conv3_1/1x1_increase/relu
I0918 12:20:36.889240 22578 net.cpp:408] conv3_1/1x1_increase/relu <- conv3_1/1x1_increase/bn
I0918 12:20:36.889246 22578 net.cpp:369] conv3_1/1x1_increase/relu -> conv3_1/1x1_increase/bn (in-place)
I0918 12:20:36.889791 22578 net.cpp:124] Setting up conv3_1/1x1_increase/relu
I0918 12:20:36.889807 22578 net.cpp:131] Top shape: 25 96 56 56 (7526400)
I0918 12:20:36.889811 22578 net.cpp:139] Memory required for data: 637235600
I0918 12:20:36.889816 22578 layer_factory.hpp:77] Creating layer conv3_1/1x1_increase/bn_fixed_point
I0918 12:20:36.889825 22578 net.cpp:86] Creating Layer conv3_1/1x1_increase/bn_fixed_point
I0918 12:20:36.889829 22578 net.cpp:408] conv3_1/1x1_increase/bn_fixed_point <- conv3_1/1x1_increase/bn
I0918 12:20:36.889837 22578 net.cpp:369] conv3_1/1x1_increase/bn_fixed_point -> conv3_1/1x1_increase/bn (in-place)
I0918 12:20:36.889871 22578 net.cpp:124] Setting up conv3_1/1x1_increase/bn_fixed_point
I0918 12:20:36.889880 22578 net.cpp:131] Top shape: 25 96 56 56 (7526400)
I0918 12:20:36.889883 22578 net.cpp:139] Memory required for data: 667341200
I0918 12:20:36.889889 22578 layer_factory.hpp:77] Creating layer conv3_1/3x3_dwconv
I0918 12:20:36.889905 22578 net.cpp:86] Creating Layer conv3_1/3x3_dwconv
I0918 12:20:36.889909 22578 net.cpp:408] conv3_1/3x3_dwconv <- conv3_1/1x1_increase/bn
I0918 12:20:36.889916 22578 net.cpp:382] conv3_1/3x3_dwconv -> conv3_1/3x3_dwconv/bn
I0918 12:20:36.890672 22578 net.cpp:124] Setting up conv3_1/3x3_dwconv
I0918 12:20:36.890687 22578 net.cpp:131] Top shape: 25 96 56 56 (7526400)
I0918 12:20:36.890691 22578 net.cpp:139] Memory required for data: 697446800
I0918 12:20:36.890702 22578 layer_factory.hpp:77] Creating layer conv3_1/3x3_dwconv/relu
I0918 12:20:36.890709 22578 net.cpp:86] Creating Layer conv3_1/3x3_dwconv/relu
I0918 12:20:36.890713 22578 net.cpp:408] conv3_1/3x3_dwconv/relu <- conv3_1/3x3_dwconv/bn
I0918 12:20:36.890719 22578 net.cpp:369] conv3_1/3x3_dwconv/relu -> conv3_1/3x3_dwconv/bn (in-place)
I0918 12:20:36.891499 22578 net.cpp:124] Setting up conv3_1/3x3_dwconv/relu
I0918 12:20:36.891515 22578 net.cpp:131] Top shape: 25 96 56 56 (7526400)
I0918 12:20:36.891520 22578 net.cpp:139] Memory required for data: 727552400
I0918 12:20:36.891523 22578 layer_factory.hpp:77] Creating layer conv3_1/3x3_dwconv/bn_fixed_point
I0918 12:20:36.891531 22578 net.cpp:86] Creating Layer conv3_1/3x3_dwconv/bn_fixed_point
I0918 12:20:36.891536 22578 net.cpp:408] conv3_1/3x3_dwconv/bn_fixed_point <- conv3_1/3x3_dwconv/bn
I0918 12:20:36.891543 22578 net.cpp:369] conv3_1/3x3_dwconv/bn_fixed_point -> conv3_1/3x3_dwconv/bn (in-place)
I0918 12:20:36.891582 22578 net.cpp:124] Setting up conv3_1/3x3_dwconv/bn_fixed_point
I0918 12:20:36.891589 22578 net.cpp:131] Top shape: 25 96 56 56 (7526400)
I0918 12:20:36.891593 22578 net.cpp:139] Memory required for data: 757658000
I0918 12:20:36.891598 22578 layer_factory.hpp:77] Creating layer conv3_1/1x1_decrease
I0918 12:20:36.891609 22578 net.cpp:86] Creating Layer conv3_1/1x1_decrease
I0918 12:20:36.891628 22578 net.cpp:408] conv3_1/1x1_decrease <- conv3_1/3x3_dwconv/bn
I0918 12:20:36.891636 22578 net.cpp:382] conv3_1/1x1_decrease -> conv3_1/1x1_decrease/bn
I0918 12:20:36.892277 22578 net.cpp:124] Setting up conv3_1/1x1_decrease
I0918 12:20:36.892292 22578 net.cpp:131] Top shape: 25 32 56 56 (2508800)
I0918 12:20:36.892295 22578 net.cpp:139] Memory required for data: 767693200
I0918 12:20:36.892302 22578 layer_factory.hpp:77] Creating layer conv3_1/elt_sum
I0918 12:20:36.892318 22578 net.cpp:86] Creating Layer conv3_1/elt_sum
I0918 12:20:36.892323 22578 net.cpp:408] conv3_1/elt_sum <- conv3_0/1x1_decrease/bn_conv3_0/1x1_decrease/bn_fixed_point_0_split_1
I0918 12:20:36.892329 22578 net.cpp:408] conv3_1/elt_sum <- conv3_1/1x1_decrease/bn
I0918 12:20:36.892335 22578 net.cpp:382] conv3_1/elt_sum -> conv3_1/elt_sum
I0918 12:20:36.892375 22578 net.cpp:124] Setting up conv3_1/elt_sum
I0918 12:20:36.892385 22578 net.cpp:131] Top shape: 25 32 56 56 (2508800)
I0918 12:20:36.892388 22578 net.cpp:139] Memory required for data: 777728400
I0918 12:20:36.892392 22578 layer_factory.hpp:77] Creating layer conv3_1/elt_sum_fixed_point
I0918 12:20:36.892401 22578 net.cpp:86] Creating Layer conv3_1/elt_sum_fixed_point
I0918 12:20:36.892405 22578 net.cpp:408] conv3_1/elt_sum_fixed_point <- conv3_1/elt_sum
I0918 12:20:36.892411 22578 net.cpp:369] conv3_1/elt_sum_fixed_point -> conv3_1/elt_sum (in-place)
I0918 12:20:36.892442 22578 net.cpp:124] Setting up conv3_1/elt_sum_fixed_point
I0918 12:20:36.892448 22578 net.cpp:131] Top shape: 25 32 56 56 (2508800)
I0918 12:20:36.892452 22578 net.cpp:139] Memory required for data: 787763600
I0918 12:20:36.892457 22578 layer_factory.hpp:77] Creating layer conv4_0/1x1_increase
I0918 12:20:36.892469 22578 net.cpp:86] Creating Layer conv4_0/1x1_increase
I0918 12:20:36.892474 22578 net.cpp:408] conv4_0/1x1_increase <- conv3_1/elt_sum
I0918 12:20:36.892482 22578 net.cpp:382] conv4_0/1x1_increase -> conv4_0/1x1_increase/bn
I0918 12:20:36.893329 22578 net.cpp:124] Setting up conv4_0/1x1_increase
I0918 12:20:36.893345 22578 net.cpp:131] Top shape: 25 96 56 56 (7526400)
I0918 12:20:36.893349 22578 net.cpp:139] Memory required for data: 817869200
I0918 12:20:36.893357 22578 layer_factory.hpp:77] Creating layer conv4_0/1x1_increase/hardswish
I0918 12:20:36.893368 22578 net.cpp:86] Creating Layer conv4_0/1x1_increase/hardswish
I0918 12:20:36.893373 22578 net.cpp:408] conv4_0/1x1_increase/hardswish <- conv4_0/1x1_increase/bn
I0918 12:20:36.893379 22578 net.cpp:369] conv4_0/1x1_increase/hardswish -> conv4_0/1x1_increase/bn (in-place)
I0918 12:20:36.893414 22578 net.cpp:124] Setting up conv4_0/1x1_increase/hardswish
I0918 12:20:36.893424 22578 net.cpp:131] Top shape: 25 96 56 56 (7526400)
I0918 12:20:36.893427 22578 net.cpp:139] Memory required for data: 847974800
I0918 12:20:36.893430 22578 layer_factory.hpp:77] Creating layer conv4_0/1x1_increase/bn_fixed_point
I0918 12:20:36.893437 22578 net.cpp:86] Creating Layer conv4_0/1x1_increase/bn_fixed_point
I0918 12:20:36.893441 22578 net.cpp:408] conv4_0/1x1_increase/bn_fixed_point <- conv4_0/1x1_increase/bn
I0918 12:20:36.893447 22578 net.cpp:369] conv4_0/1x1_increase/bn_fixed_point -> conv4_0/1x1_increase/bn (in-place)
I0918 12:20:36.893477 22578 net.cpp:124] Setting up conv4_0/1x1_increase/bn_fixed_point
I0918 12:20:36.893483 22578 net.cpp:131] Top shape: 25 96 56 56 (7526400)
I0918 12:20:36.893486 22578 net.cpp:139] Memory required for data: 878080400
I0918 12:20:36.893493 22578 layer_factory.hpp:77] Creating layer conv4_0/1x1_increase/slice
I0918 12:20:36.893504 22578 net.cpp:86] Creating Layer conv4_0/1x1_increase/slice
I0918 12:20:36.893512 22578 net.cpp:408] conv4_0/1x1_increase/slice <- conv4_0/1x1_increase/bn
I0918 12:20:36.893518 22578 net.cpp:382] conv4_0/1x1_increase/slice -> conv4_0/1x1_increase/split1
I0918 12:20:36.893527 22578 net.cpp:382] conv4_0/1x1_increase/slice -> conv4_0/1x1_increase/split2
I0918 12:20:36.893537 22578 net.cpp:382] conv4_0/1x1_increase/slice -> conv4_0/1x1_increase/split3
I0918 12:20:36.893602 22578 net.cpp:124] Setting up conv4_0/1x1_increase/slice
I0918 12:20:36.893623 22578 net.cpp:131] Top shape: 25 32 56 56 (2508800)
I0918 12:20:36.893628 22578 net.cpp:131] Top shape: 25 32 56 56 (2508800)
I0918 12:20:36.893632 22578 net.cpp:131] Top shape: 25 32 56 56 (2508800)
I0918 12:20:36.893636 22578 net.cpp:139] Memory required for data: 908186000
I0918 12:20:36.893640 22578 layer_factory.hpp:77] Creating layer conv4_0/3x3_dwconv/slice_0
I0918 12:20:36.893651 22578 net.cpp:86] Creating Layer conv4_0/3x3_dwconv/slice_0
I0918 12:20:36.893656 22578 net.cpp:408] conv4_0/3x3_dwconv/slice_0 <- conv4_0/1x1_increase/split1
I0918 12:20:36.893664 22578 net.cpp:382] conv4_0/3x3_dwconv/slice_0 -> conv4_0/3x3_dwconv/slice_0/bn
I0918 12:20:36.894268 22578 net.cpp:124] Setting up conv4_0/3x3_dwconv/slice_0
I0918 12:20:36.894280 22578 net.cpp:131] Top shape: 25 32 28 28 (627200)
I0918 12:20:36.894285 22578 net.cpp:139] Memory required for data: 910694800
I0918 12:20:36.894297 22578 layer_factory.hpp:77] Creating layer conv4_0/3x3_dwconv/slice_0/hardswish
I0918 12:20:36.894304 22578 net.cpp:86] Creating Layer conv4_0/3x3_dwconv/slice_0/hardswish
I0918 12:20:36.894309 22578 net.cpp:408] conv4_0/3x3_dwconv/slice_0/hardswish <- conv4_0/3x3_dwconv/slice_0/bn
I0918 12:20:36.894315 22578 net.cpp:369] conv4_0/3x3_dwconv/slice_0/hardswish -> conv4_0/3x3_dwconv/slice_0/bn (in-place)
I0918 12:20:36.894349 22578 net.cpp:124] Setting up conv4_0/3x3_dwconv/slice_0/hardswish
I0918 12:20:36.894356 22578 net.cpp:131] Top shape: 25 32 28 28 (627200)
I0918 12:20:36.894361 22578 net.cpp:139] Memory required for data: 913203600
I0918 12:20:36.894363 22578 layer_factory.hpp:77] Creating layer conv4_0/3x3_dwconv/slice_1
I0918 12:20:36.894377 22578 net.cpp:86] Creating Layer conv4_0/3x3_dwconv/slice_1
I0918 12:20:36.894383 22578 net.cpp:408] conv4_0/3x3_dwconv/slice_1 <- conv4_0/1x1_increase/split2
I0918 12:20:36.894392 22578 net.cpp:382] conv4_0/3x3_dwconv/slice_1 -> conv4_0/3x3_dwconv/slice_1/bn
I0918 12:20:36.895189 22578 net.cpp:124] Setting up conv4_0/3x3_dwconv/slice_1
I0918 12:20:36.895202 22578 net.cpp:131] Top shape: 25 32 28 28 (627200)
I0918 12:20:36.895207 22578 net.cpp:139] Memory required for data: 915712400
I0918 12:20:36.895215 22578 layer_factory.hpp:77] Creating layer conv4_0/3x3_dwconv/slice_1/hardswish
I0918 12:20:36.895222 22578 net.cpp:86] Creating Layer conv4_0/3x3_dwconv/slice_1/hardswish
I0918 12:20:36.895227 22578 net.cpp:408] conv4_0/3x3_dwconv/slice_1/hardswish <- conv4_0/3x3_dwconv/slice_1/bn
I0918 12:20:36.895236 22578 net.cpp:369] conv4_0/3x3_dwconv/slice_1/hardswish -> conv4_0/3x3_dwconv/slice_1/bn (in-place)
I0918 12:20:36.895269 22578 net.cpp:124] Setting up conv4_0/3x3_dwconv/slice_1/hardswish
I0918 12:20:36.895278 22578 net.cpp:131] Top shape: 25 32 28 28 (627200)
I0918 12:20:36.895282 22578 net.cpp:139] Memory required for data: 918221200
I0918 12:20:36.895285 22578 layer_factory.hpp:77] Creating layer conv4_0/3x3_dwconv/slice_2
I0918 12:20:36.895298 22578 net.cpp:86] Creating Layer conv4_0/3x3_dwconv/slice_2
I0918 12:20:36.895301 22578 net.cpp:408] conv4_0/3x3_dwconv/slice_2 <- conv4_0/1x1_increase/split3
I0918 12:20:36.895309 22578 net.cpp:382] conv4_0/3x3_dwconv/slice_2 -> conv4_0/3x3_dwconv/slice_2/bn
I0918 12:20:36.896121 22578 net.cpp:124] Setting up conv4_0/3x3_dwconv/slice_2
I0918 12:20:36.896136 22578 net.cpp:131] Top shape: 25 32 28 28 (627200)
I0918 12:20:36.896142 22578 net.cpp:139] Memory required for data: 920730000
I0918 12:20:36.896148 22578 layer_factory.hpp:77] Creating layer conv4_0/3x3_dwconv/slice_2/hardswish
I0918 12:20:36.896157 22578 net.cpp:86] Creating Layer conv4_0/3x3_dwconv/slice_2/hardswish
I0918 12:20:36.896162 22578 net.cpp:408] conv4_0/3x3_dwconv/slice_2/hardswish <- conv4_0/3x3_dwconv/slice_2/bn
I0918 12:20:36.896168 22578 net.cpp:369] conv4_0/3x3_dwconv/slice_2/hardswish -> conv4_0/3x3_dwconv/slice_2/bn (in-place)
I0918 12:20:36.896203 22578 net.cpp:124] Setting up conv4_0/3x3_dwconv/slice_2/hardswish
I0918 12:20:36.896211 22578 net.cpp:131] Top shape: 25 32 28 28 (627200)
I0918 12:20:36.896227 22578 net.cpp:139] Memory required for data: 923238800
I0918 12:20:36.896234 22578 layer_factory.hpp:77] Creating layer conv4_0/3x3_dwconv/concat
I0918 12:20:36.896243 22578 net.cpp:86] Creating Layer conv4_0/3x3_dwconv/concat
I0918 12:20:36.896248 22578 net.cpp:408] conv4_0/3x3_dwconv/concat <- conv4_0/3x3_dwconv/slice_0/bn
I0918 12:20:36.896253 22578 net.cpp:408] conv4_0/3x3_dwconv/concat <- conv4_0/3x3_dwconv/slice_1/bn
I0918 12:20:36.896258 22578 net.cpp:408] conv4_0/3x3_dwconv/concat <- conv4_0/3x3_dwconv/slice_2/bn
I0918 12:20:36.896265 22578 net.cpp:382] conv4_0/3x3_dwconv/concat -> conv4_0/3x3_dwconv/concat
I0918 12:20:36.896301 22578 net.cpp:124] Setting up conv4_0/3x3_dwconv/concat
I0918 12:20:36.896308 22578 net.cpp:131] Top shape: 25 96 28 28 (1881600)
I0918 12:20:36.896312 22578 net.cpp:139] Memory required for data: 930765200
I0918 12:20:36.896317 22578 layer_factory.hpp:77] Creating layer conv4_0/3x3_dwconv/concat_fixed_point
I0918 12:20:36.896323 22578 net.cpp:86] Creating Layer conv4_0/3x3_dwconv/concat_fixed_point
I0918 12:20:36.896327 22578 net.cpp:408] conv4_0/3x3_dwconv/concat_fixed_point <- conv4_0/3x3_dwconv/concat
I0918 12:20:36.896333 22578 net.cpp:369] conv4_0/3x3_dwconv/concat_fixed_point -> conv4_0/3x3_dwconv/concat (in-place)
I0918 12:20:36.896364 22578 net.cpp:124] Setting up conv4_0/3x3_dwconv/concat_fixed_point
I0918 12:20:36.896371 22578 net.cpp:131] Top shape: 25 96 28 28 (1881600)
I0918 12:20:36.896375 22578 net.cpp:139] Memory required for data: 938291600
I0918 12:20:36.896380 22578 layer_factory.hpp:77] Creating layer conv4_0/3x3_dwconv/concat_conv4_0/3x3_dwconv/concat_fixed_point_0_split
I0918 12:20:36.896387 22578 net.cpp:86] Creating Layer conv4_0/3x3_dwconv/concat_conv4_0/3x3_dwconv/concat_fixed_point_0_split
I0918 12:20:36.896391 22578 net.cpp:408] conv4_0/3x3_dwconv/concat_conv4_0/3x3_dwconv/concat_fixed_point_0_split <- conv4_0/3x3_dwconv/concat
I0918 12:20:36.896396 22578 net.cpp:382] conv4_0/3x3_dwconv/concat_conv4_0/3x3_dwconv/concat_fixed_point_0_split -> conv4_0/3x3_dwconv/concat_conv4_0/3x3_dwconv/concat_fixed_point_0_split_0
I0918 12:20:36.896404 22578 net.cpp:382] conv4_0/3x3_dwconv/concat_conv4_0/3x3_dwconv/concat_fixed_point_0_split -> conv4_0/3x3_dwconv/concat_conv4_0/3x3_dwconv/concat_fixed_point_0_split_1
I0918 12:20:36.896448 22578 net.cpp:124] Setting up conv4_0/3x3_dwconv/concat_conv4_0/3x3_dwconv/concat_fixed_point_0_split
I0918 12:20:36.896456 22578 net.cpp:131] Top shape: 25 96 28 28 (1881600)
I0918 12:20:36.896461 22578 net.cpp:131] Top shape: 25 96 28 28 (1881600)
I0918 12:20:36.896463 22578 net.cpp:139] Memory required for data: 953344400
I0918 12:20:36.896467 22578 layer_factory.hpp:77] Creating layer conv4_0/3x3_dwconv/SE_global_pool
I0918 12:20:36.896481 22578 net.cpp:86] Creating Layer conv4_0/3x3_dwconv/SE_global_pool
I0918 12:20:36.896484 22578 net.cpp:408] conv4_0/3x3_dwconv/SE_global_pool <- conv4_0/3x3_dwconv/concat_conv4_0/3x3_dwconv/concat_fixed_point_0_split_0
I0918 12:20:36.896490 22578 net.cpp:382] conv4_0/3x3_dwconv/SE_global_pool -> conv4_0/3x3_dwconv/SE_global_pool
I0918 12:20:36.896530 22578 net.cpp:124] Setting up conv4_0/3x3_dwconv/SE_global_pool
I0918 12:20:36.896539 22578 net.cpp:131] Top shape: 25 96 1 1 (2400)
I0918 12:20:36.896543 22578 net.cpp:139] Memory required for data: 953354000
I0918 12:20:36.896548 22578 layer_factory.hpp:77] Creating layer conv4_0/3x3_dwconv/SE_bn
I0918 12:20:36.896559 22578 net.cpp:86] Creating Layer conv4_0/3x3_dwconv/SE_bn
I0918 12:20:36.896565 22578 net.cpp:408] conv4_0/3x3_dwconv/SE_bn <- conv4_0/3x3_dwconv/SE_global_pool
I0918 12:20:36.896572 22578 net.cpp:382] conv4_0/3x3_dwconv/SE_bn -> conv4_0/3x3_dwconv/SE_bn
I0918 12:20:36.896631 22578 layer_factory.hpp:77] Creating layer conv4_0/3x3_dwconv/SE_bn
I0918 12:20:36.896785 22578 net.cpp:124] Setting up conv4_0/3x3_dwconv/SE_bn
I0918 12:20:36.896795 22578 net.cpp:131] Top shape: 25 96 1 1 (2400)
I0918 12:20:36.896798 22578 net.cpp:139] Memory required for data: 953363600
I0918 12:20:36.896809 22578 layer_factory.hpp:77] Creating layer conv4_0/3x3_dwconv/SE_fc1
I0918 12:20:36.896831 22578 net.cpp:86] Creating Layer conv4_0/3x3_dwconv/SE_fc1
I0918 12:20:36.896836 22578 net.cpp:408] conv4_0/3x3_dwconv/SE_fc1 <- conv4_0/3x3_dwconv/SE_bn
I0918 12:20:36.896843 22578 net.cpp:382] conv4_0/3x3_dwconv/SE_fc1 -> conv4_0/3x3_dwconv/SE_fc1
I0918 12:20:36.897269 22578 net.cpp:124] Setting up conv4_0/3x3_dwconv/SE_fc1
I0918 12:20:36.897280 22578 net.cpp:131] Top shape: 25 6 1 1 (150)
I0918 12:20:36.897284 22578 net.cpp:139] Memory required for data: 953364200
I0918 12:20:36.897292 22578 layer_factory.hpp:77] Creating layer conv4_0/3x3_dwconv/SE_fc1/relu
I0918 12:20:36.897298 22578 net.cpp:86] Creating Layer conv4_0/3x3_dwconv/SE_fc1/relu
I0918 12:20:36.897303 22578 net.cpp:408] conv4_0/3x3_dwconv/SE_fc1/relu <- conv4_0/3x3_dwconv/SE_fc1
I0918 12:20:36.897310 22578 net.cpp:369] conv4_0/3x3_dwconv/SE_fc1/relu -> conv4_0/3x3_dwconv/SE_fc1 (in-place)
I0918 12:20:36.897894 22578 net.cpp:124] Setting up conv4_0/3x3_dwconv/SE_fc1/relu
I0918 12:20:36.897907 22578 net.cpp:131] Top shape: 25 6 1 1 (150)
I0918 12:20:36.897910 22578 net.cpp:139] Memory required for data: 953364800
I0918 12:20:36.897914 22578 layer_factory.hpp:77] Creating layer conv4_0/3x3_dwconv/SE_fc2
I0918 12:20:36.897927 22578 net.cpp:86] Creating Layer conv4_0/3x3_dwconv/SE_fc2
I0918 12:20:36.897933 22578 net.cpp:408] conv4_0/3x3_dwconv/SE_fc2 <- conv4_0/3x3_dwconv/SE_fc1
I0918 12:20:36.897940 22578 net.cpp:382] conv4_0/3x3_dwconv/SE_fc2 -> conv4_0/3x3_dwconv/SE_fc2
I0918 12:20:36.898360 22578 net.cpp:124] Setting up conv4_0/3x3_dwconv/SE_fc2
I0918 12:20:36.898371 22578 net.cpp:131] Top shape: 25 96 1 1 (2400)
I0918 12:20:36.898375 22578 net.cpp:139] Memory required for data: 953374400
I0918 12:20:36.898382 22578 layer_factory.hpp:77] Creating layer conv4_0/3x3_dwconv/SE_weights
I0918 12:20:36.898393 22578 net.cpp:86] Creating Layer conv4_0/3x3_dwconv/SE_weights
I0918 12:20:36.898397 22578 net.cpp:408] conv4_0/3x3_dwconv/SE_weights <- conv4_0/3x3_dwconv/SE_fc2
I0918 12:20:36.898404 22578 net.cpp:369] conv4_0/3x3_dwconv/SE_weights -> conv4_0/3x3_dwconv/SE_fc2 (in-place)
I0918 12:20:36.898973 22578 net.cpp:124] Setting up conv4_0/3x3_dwconv/SE_weights
I0918 12:20:36.898986 22578 net.cpp:131] Top shape: 25 96 1 1 (2400)
I0918 12:20:36.898991 22578 net.cpp:139] Memory required for data: 953384000
I0918 12:20:36.898995 22578 layer_factory.hpp:77] Creating layer conv4_0/3x3_dwconv/SE_weights/reshape
I0918 12:20:36.899006 22578 net.cpp:86] Creating Layer conv4_0/3x3_dwconv/SE_weights/reshape
I0918 12:20:36.899010 22578 net.cpp:408] conv4_0/3x3_dwconv/SE_weights/reshape <- conv4_0/3x3_dwconv/SE_fc2
I0918 12:20:36.899017 22578 net.cpp:382] conv4_0/3x3_dwconv/SE_weights/reshape -> conv4_0/3x3_dwconv/SE_weights/reshape
I0918 12:20:36.899066 22578 net.cpp:124] Setting up conv4_0/3x3_dwconv/SE_weights/reshape
I0918 12:20:36.899075 22578 net.cpp:131] Top shape: 25 96 (2400)
I0918 12:20:36.899078 22578 net.cpp:139] Memory required for data: 953393600
I0918 12:20:36.899082 22578 layer_factory.hpp:77] Creating layer conv4_0/3x3_dwconv/scale
I0918 12:20:36.899089 22578 net.cpp:86] Creating Layer conv4_0/3x3_dwconv/scale
I0918 12:20:36.899094 22578 net.cpp:408] conv4_0/3x3_dwconv/scale <- conv4_0/3x3_dwconv/concat_conv4_0/3x3_dwconv/concat_fixed_point_0_split_1
I0918 12:20:36.899099 22578 net.cpp:408] conv4_0/3x3_dwconv/scale <- conv4_0/3x3_dwconv/SE_weights/reshape
I0918 12:20:36.899106 22578 net.cpp:382] conv4_0/3x3_dwconv/scale -> conv4_0/3x3_dwconv/scale
I0918 12:20:36.899190 22578 net.cpp:124] Setting up conv4_0/3x3_dwconv/scale
I0918 12:20:36.899200 22578 net.cpp:131] Top shape: 25 96 28 28 (1881600)
I0918 12:20:36.899204 22578 net.cpp:139] Memory required for data: 960920000
I0918 12:20:36.899209 22578 layer_factory.hpp:77] Creating layer conv4_0/3x3_dwconv/scale_fixed_point
I0918 12:20:36.899217 22578 net.cpp:86] Creating Layer conv4_0/3x3_dwconv/scale_fixed_point
I0918 12:20:36.899221 22578 net.cpp:408] conv4_0/3x3_dwconv/scale_fixed_point <- conv4_0/3x3_dwconv/scale
I0918 12:20:36.899228 22578 net.cpp:369] conv4_0/3x3_dwconv/scale_fixed_point -> conv4_0/3x3_dwconv/scale (in-place)
I0918 12:20:36.899274 22578 net.cpp:124] Setting up conv4_0/3x3_dwconv/scale_fixed_point
I0918 12:20:36.899282 22578 net.cpp:131] Top shape: 25 96 28 28 (1881600)
I0918 12:20:36.899286 22578 net.cpp:139] Memory required for data: 968446400
I0918 12:20:36.899291 22578 layer_factory.hpp:77] Creating layer conv4_0/1x1_decrease
I0918 12:20:36.899302 22578 net.cpp:86] Creating Layer conv4_0/1x1_decrease
I0918 12:20:36.899307 22578 net.cpp:408] conv4_0/1x1_decrease <- conv4_0/3x3_dwconv/scale
I0918 12:20:36.899315 22578 net.cpp:382] conv4_0/1x1_decrease -> conv4_0/1x1_decrease/bn
I0918 12:20:36.899989 22578 net.cpp:124] Setting up conv4_0/1x1_decrease
I0918 12:20:36.900002 22578 net.cpp:131] Top shape: 25 40 28 28 (784000)
I0918 12:20:36.900007 22578 net.cpp:139] Memory required for data: 971582400
I0918 12:20:36.900014 22578 layer_factory.hpp:77] Creating layer conv4_0/1x1_decrease/bn_fixed_point
I0918 12:20:36.900023 22578 net.cpp:86] Creating Layer conv4_0/1x1_decrease/bn_fixed_point
I0918 12:20:36.900027 22578 net.cpp:408] conv4_0/1x1_decrease/bn_fixed_point <- conv4_0/1x1_decrease/bn
I0918 12:20:36.900034 22578 net.cpp:369] conv4_0/1x1_decrease/bn_fixed_point -> conv4_0/1x1_decrease/bn (in-place)
I0918 12:20:36.900070 22578 net.cpp:124] Setting up conv4_0/1x1_decrease/bn_fixed_point
I0918 12:20:36.900079 22578 net.cpp:131] Top shape: 25 40 28 28 (784000)
I0918 12:20:36.900082 22578 net.cpp:139] Memory required for data: 974718400
I0918 12:20:36.900087 22578 layer_factory.hpp:77] Creating layer conv4_0/1x1_decrease/bn_conv4_0/1x1_decrease/bn_fixed_point_0_split
I0918 12:20:36.900094 22578 net.cpp:86] Creating Layer conv4_0/1x1_decrease/bn_conv4_0/1x1_decrease/bn_fixed_point_0_split
I0918 12:20:36.900099 22578 net.cpp:408] conv4_0/1x1_decrease/bn_conv4_0/1x1_decrease/bn_fixed_point_0_split <- conv4_0/1x1_decrease/bn
I0918 12:20:36.900106 22578 net.cpp:382] conv4_0/1x1_decrease/bn_conv4_0/1x1_decrease/bn_fixed_point_0_split -> conv4_0/1x1_decrease/bn_conv4_0/1x1_decrease/bn_fixed_point_0_split_0
I0918 12:20:36.900113 22578 net.cpp:382] conv4_0/1x1_decrease/bn_conv4_0/1x1_decrease/bn_fixed_point_0_split -> conv4_0/1x1_decrease/bn_conv4_0/1x1_decrease/bn_fixed_point_0_split_1
I0918 12:20:36.900159 22578 net.cpp:124] Setting up conv4_0/1x1_decrease/bn_conv4_0/1x1_decrease/bn_fixed_point_0_split
I0918 12:20:36.900167 22578 net.cpp:131] Top shape: 25 40 28 28 (784000)
I0918 12:20:36.900171 22578 net.cpp:131] Top shape: 25 40 28 28 (784000)
I0918 12:20:36.900175 22578 net.cpp:139] Memory required for data: 980990400
I0918 12:20:36.900180 22578 layer_factory.hpp:77] Creating layer conv4_1/1x1_increase
I0918 12:20:36.900192 22578 net.cpp:86] Creating Layer conv4_1/1x1_increase
I0918 12:20:36.900198 22578 net.cpp:408] conv4_1/1x1_increase <- conv4_0/1x1_decrease/bn_conv4_0/1x1_decrease/bn_fixed_point_0_split_0
I0918 12:20:36.900207 22578 net.cpp:382] conv4_1/1x1_increase -> conv4_1/1x1_increase/bn
I0918 12:20:36.900933 22578 net.cpp:124] Setting up conv4_1/1x1_increase
I0918 12:20:36.900944 22578 net.cpp:131] Top shape: 25 120 28 28 (2352000)
I0918 12:20:36.900949 22578 net.cpp:139] Memory required for data: 990398400
I0918 12:20:36.900956 22578 layer_factory.hpp:77] Creating layer conv4_1/1x1_increase/hardswish
I0918 12:20:36.900964 22578 net.cpp:86] Creating Layer conv4_1/1x1_increase/hardswish
I0918 12:20:36.900969 22578 net.cpp:408] conv4_1/1x1_increase/hardswish <- conv4_1/1x1_increase/bn
I0918 12:20:36.900974 22578 net.cpp:369] conv4_1/1x1_increase/hardswish -> conv4_1/1x1_increase/bn (in-place)
I0918 12:20:36.901007 22578 net.cpp:124] Setting up conv4_1/1x1_increase/hardswish
I0918 12:20:36.901015 22578 net.cpp:131] Top shape: 25 120 28 28 (2352000)
I0918 12:20:36.901019 22578 net.cpp:139] Memory required for data: 999806400
I0918 12:20:36.901022 22578 layer_factory.hpp:77] Creating layer conv4_1/1x1_increase/bn_fixed_point
I0918 12:20:36.901031 22578 net.cpp:86] Creating Layer conv4_1/1x1_increase/bn_fixed_point
I0918 12:20:36.901038 22578 net.cpp:408] conv4_1/1x1_increase/bn_fixed_point <- conv4_1/1x1_increase/bn
I0918 12:20:36.901065 22578 net.cpp:369] conv4_1/1x1_increase/bn_fixed_point -> conv4_1/1x1_increase/bn (in-place)
I0918 12:20:36.901100 22578 net.cpp:124] Setting up conv4_1/1x1_increase/bn_fixed_point
I0918 12:20:36.901108 22578 net.cpp:131] Top shape: 25 120 28 28 (2352000)
I0918 12:20:36.901111 22578 net.cpp:139] Memory required for data: 1009214400
I0918 12:20:36.901118 22578 layer_factory.hpp:77] Creating layer conv4_1/1x1_increase/slice
I0918 12:20:36.901124 22578 net.cpp:86] Creating Layer conv4_1/1x1_increase/slice
I0918 12:20:36.901129 22578 net.cpp:408] conv4_1/1x1_increase/slice <- conv4_1/1x1_increase/bn
I0918 12:20:36.901135 22578 net.cpp:382] conv4_1/1x1_increase/slice -> conv4_1/1x1_increase/split1
I0918 12:20:36.901144 22578 net.cpp:382] conv4_1/1x1_increase/slice -> conv4_1/1x1_increase/split2
I0918 12:20:36.901187 22578 net.cpp:124] Setting up conv4_1/1x1_increase/slice
I0918 12:20:36.901196 22578 net.cpp:131] Top shape: 25 60 28 28 (1176000)
I0918 12:20:36.901201 22578 net.cpp:131] Top shape: 25 60 28 28 (1176000)
I0918 12:20:36.901204 22578 net.cpp:139] Memory required for data: 1018622400
I0918 12:20:36.901207 22578 layer_factory.hpp:77] Creating layer conv4_1/3x3_dwconv/slice_0
I0918 12:20:36.901218 22578 net.cpp:86] Creating Layer conv4_1/3x3_dwconv/slice_0
I0918 12:20:36.901224 22578 net.cpp:408] conv4_1/3x3_dwconv/slice_0 <- conv4_1/1x1_increase/split1
I0918 12:20:36.901232 22578 net.cpp:382] conv4_1/3x3_dwconv/slice_0 -> conv4_1/3x3_dwconv/slice_0/bn
I0918 12:20:36.901832 22578 net.cpp:124] Setting up conv4_1/3x3_dwconv/slice_0
I0918 12:20:36.901845 22578 net.cpp:131] Top shape: 25 60 28 28 (1176000)
I0918 12:20:36.901849 22578 net.cpp:139] Memory required for data: 1023326400
I0918 12:20:36.901857 22578 layer_factory.hpp:77] Creating layer conv4_1/3x3_dwconv/slice_0/hardswish
I0918 12:20:36.901866 22578 net.cpp:86] Creating Layer conv4_1/3x3_dwconv/slice_0/hardswish
I0918 12:20:36.901871 22578 net.cpp:408] conv4_1/3x3_dwconv/slice_0/hardswish <- conv4_1/3x3_dwconv/slice_0/bn
I0918 12:20:36.901880 22578 net.cpp:369] conv4_1/3x3_dwconv/slice_0/hardswish -> conv4_1/3x3_dwconv/slice_0/bn (in-place)
I0918 12:20:36.901913 22578 net.cpp:124] Setting up conv4_1/3x3_dwconv/slice_0/hardswish
I0918 12:20:36.901921 22578 net.cpp:131] Top shape: 25 60 28 28 (1176000)
I0918 12:20:36.901926 22578 net.cpp:139] Memory required for data: 1028030400
I0918 12:20:36.901929 22578 layer_factory.hpp:77] Creating layer conv4_1/3x3_dwconv/slice_1
I0918 12:20:36.901940 22578 net.cpp:86] Creating Layer conv4_1/3x3_dwconv/slice_1
I0918 12:20:36.901947 22578 net.cpp:408] conv4_1/3x3_dwconv/slice_1 <- conv4_1/1x1_increase/split2
I0918 12:20:36.901954 22578 net.cpp:382] conv4_1/3x3_dwconv/slice_1 -> conv4_1/3x3_dwconv/slice_1/bn
I0918 12:20:36.902771 22578 net.cpp:124] Setting up conv4_1/3x3_dwconv/slice_1
I0918 12:20:36.902786 22578 net.cpp:131] Top shape: 25 60 28 28 (1176000)
I0918 12:20:36.902791 22578 net.cpp:139] Memory required for data: 1032734400
I0918 12:20:36.902801 22578 layer_factory.hpp:77] Creating layer conv4_1/3x3_dwconv/slice_1/hardswish
I0918 12:20:36.902814 22578 net.cpp:86] Creating Layer conv4_1/3x3_dwconv/slice_1/hardswish
I0918 12:20:36.902820 22578 net.cpp:408] conv4_1/3x3_dwconv/slice_1/hardswish <- conv4_1/3x3_dwconv/slice_1/bn
I0918 12:20:36.902827 22578 net.cpp:369] conv4_1/3x3_dwconv/slice_1/hardswish -> conv4_1/3x3_dwconv/slice_1/bn (in-place)
I0918 12:20:36.902863 22578 net.cpp:124] Setting up conv4_1/3x3_dwconv/slice_1/hardswish
I0918 12:20:36.902870 22578 net.cpp:131] Top shape: 25 60 28 28 (1176000)
I0918 12:20:36.902874 22578 net.cpp:139] Memory required for data: 1037438400
I0918 12:20:36.902878 22578 layer_factory.hpp:77] Creating layer conv4_1/3x3_dwconv/concat
I0918 12:20:36.902884 22578 net.cpp:86] Creating Layer conv4_1/3x3_dwconv/concat
I0918 12:20:36.902889 22578 net.cpp:408] conv4_1/3x3_dwconv/concat <- conv4_1/3x3_dwconv/slice_0/bn
I0918 12:20:36.902894 22578 net.cpp:408] conv4_1/3x3_dwconv/concat <- conv4_1/3x3_dwconv/slice_1/bn
I0918 12:20:36.902915 22578 net.cpp:382] conv4_1/3x3_dwconv/concat -> conv4_1/3x3_dwconv/concat
I0918 12:20:36.902947 22578 net.cpp:124] Setting up conv4_1/3x3_dwconv/concat
I0918 12:20:36.902954 22578 net.cpp:131] Top shape: 25 120 28 28 (2352000)
I0918 12:20:36.902958 22578 net.cpp:139] Memory required for data: 1046846400
I0918 12:20:36.902962 22578 layer_factory.hpp:77] Creating layer conv4_1/3x3_dwconv/concat_fixed_point
I0918 12:20:36.902971 22578 net.cpp:86] Creating Layer conv4_1/3x3_dwconv/concat_fixed_point
I0918 12:20:36.902974 22578 net.cpp:408] conv4_1/3x3_dwconv/concat_fixed_point <- conv4_1/3x3_dwconv/concat
I0918 12:20:36.902981 22578 net.cpp:369] conv4_1/3x3_dwconv/concat_fixed_point -> conv4_1/3x3_dwconv/concat (in-place)
I0918 12:20:36.903017 22578 net.cpp:124] Setting up conv4_1/3x3_dwconv/concat_fixed_point
I0918 12:20:36.903024 22578 net.cpp:131] Top shape: 25 120 28 28 (2352000)
I0918 12:20:36.903028 22578 net.cpp:139] Memory required for data: 1056254400
I0918 12:20:36.903034 22578 layer_factory.hpp:77] Creating layer conv4_1/3x3_dwconv/concat_conv4_1/3x3_dwconv/concat_fixed_point_0_split
I0918 12:20:36.903043 22578 net.cpp:86] Creating Layer conv4_1/3x3_dwconv/concat_conv4_1/3x3_dwconv/concat_fixed_point_0_split
I0918 12:20:36.903048 22578 net.cpp:408] conv4_1/3x3_dwconv/concat_conv4_1/3x3_dwconv/concat_fixed_point_0_split <- conv4_1/3x3_dwconv/concat
I0918 12:20:36.903053 22578 net.cpp:382] conv4_1/3x3_dwconv/concat_conv4_1/3x3_dwconv/concat_fixed_point_0_split -> conv4_1/3x3_dwconv/concat_conv4_1/3x3_dwconv/concat_fixed_point_0_split_0
I0918 12:20:36.903061 22578 net.cpp:382] conv4_1/3x3_dwconv/concat_conv4_1/3x3_dwconv/concat_fixed_point_0_split -> conv4_1/3x3_dwconv/concat_conv4_1/3x3_dwconv/concat_fixed_point_0_split_1
I0918 12:20:36.903106 22578 net.cpp:124] Setting up conv4_1/3x3_dwconv/concat_conv4_1/3x3_dwconv/concat_fixed_point_0_split
I0918 12:20:36.903113 22578 net.cpp:131] Top shape: 25 120 28 28 (2352000)
I0918 12:20:36.903118 22578 net.cpp:131] Top shape: 25 120 28 28 (2352000)
I0918 12:20:36.903122 22578 net.cpp:139] Memory required for data: 1075070400
I0918 12:20:36.903127 22578 layer_factory.hpp:77] Creating layer conv4_1/3x3_dwconv/SE_global_pool
I0918 12:20:36.903134 22578 net.cpp:86] Creating Layer conv4_1/3x3_dwconv/SE_global_pool
I0918 12:20:36.903138 22578 net.cpp:408] conv4_1/3x3_dwconv/SE_global_pool <- conv4_1/3x3_dwconv/concat_conv4_1/3x3_dwconv/concat_fixed_point_0_split_0
I0918 12:20:36.903146 22578 net.cpp:382] conv4_1/3x3_dwconv/SE_global_pool -> conv4_1/3x3_dwconv/SE_global_pool
I0918 12:20:36.903173 22578 net.cpp:124] Setting up conv4_1/3x3_dwconv/SE_global_pool
I0918 12:20:36.903180 22578 net.cpp:131] Top shape: 25 120 1 1 (3000)
I0918 12:20:36.903183 22578 net.cpp:139] Memory required for data: 1075082400
I0918 12:20:36.903187 22578 layer_factory.hpp:77] Creating layer conv4_1/3x3_dwconv/SE_bn
I0918 12:20:36.903196 22578 net.cpp:86] Creating Layer conv4_1/3x3_dwconv/SE_bn
I0918 12:20:36.903200 22578 net.cpp:408] conv4_1/3x3_dwconv/SE_bn <- conv4_1/3x3_dwconv/SE_global_pool
I0918 12:20:36.903208 22578 net.cpp:382] conv4_1/3x3_dwconv/SE_bn -> conv4_1/3x3_dwconv/SE_bn
I0918 12:20:36.903256 22578 layer_factory.hpp:77] Creating layer conv4_1/3x3_dwconv/SE_bn
I0918 12:20:36.903398 22578 net.cpp:124] Setting up conv4_1/3x3_dwconv/SE_bn
I0918 12:20:36.903405 22578 net.cpp:131] Top shape: 25 120 1 1 (3000)
I0918 12:20:36.903409 22578 net.cpp:139] Memory required for data: 1075094400
I0918 12:20:36.903415 22578 layer_factory.hpp:77] Creating layer conv4_1/3x3_dwconv/SE_fc1
I0918 12:20:36.903427 22578 net.cpp:86] Creating Layer conv4_1/3x3_dwconv/SE_fc1
I0918 12:20:36.903431 22578 net.cpp:408] conv4_1/3x3_dwconv/SE_fc1 <- conv4_1/3x3_dwconv/SE_bn
I0918 12:20:36.903439 22578 net.cpp:382] conv4_1/3x3_dwconv/SE_fc1 -> conv4_1/3x3_dwconv/SE_fc1
I0918 12:20:36.903868 22578 net.cpp:124] Setting up conv4_1/3x3_dwconv/SE_fc1
I0918 12:20:36.903880 22578 net.cpp:131] Top shape: 25 7 1 1 (175)
I0918 12:20:36.903884 22578 net.cpp:139] Memory required for data: 1075095100
I0918 12:20:36.903901 22578 layer_factory.hpp:77] Creating layer conv4_1/3x3_dwconv/SE_fc1/relu
I0918 12:20:36.903909 22578 net.cpp:86] Creating Layer conv4_1/3x3_dwconv/SE_fc1/relu
I0918 12:20:36.903914 22578 net.cpp:408] conv4_1/3x3_dwconv/SE_fc1/relu <- conv4_1/3x3_dwconv/SE_fc1
I0918 12:20:36.903921 22578 net.cpp:369] conv4_1/3x3_dwconv/SE_fc1/relu -> conv4_1/3x3_dwconv/SE_fc1 (in-place)
I0918 12:20:36.904565 22578 net.cpp:124] Setting up conv4_1/3x3_dwconv/SE_fc1/relu
I0918 12:20:36.904577 22578 net.cpp:131] Top shape: 25 7 1 1 (175)
I0918 12:20:36.904582 22578 net.cpp:139] Memory required for data: 1075095800
I0918 12:20:36.904587 22578 layer_factory.hpp:77] Creating layer conv4_1/3x3_dwconv/SE_fc2
I0918 12:20:36.904599 22578 net.cpp:86] Creating Layer conv4_1/3x3_dwconv/SE_fc2
I0918 12:20:36.904604 22578 net.cpp:408] conv4_1/3x3_dwconv/SE_fc2 <- conv4_1/3x3_dwconv/SE_fc1
I0918 12:20:36.904613 22578 net.cpp:382] conv4_1/3x3_dwconv/SE_fc2 -> conv4_1/3x3_dwconv/SE_fc2
I0918 12:20:36.905052 22578 net.cpp:124] Setting up conv4_1/3x3_dwconv/SE_fc2
I0918 12:20:36.905066 22578 net.cpp:131] Top shape: 25 120 1 1 (3000)
I0918 12:20:36.905071 22578 net.cpp:139] Memory required for data: 1075107800
I0918 12:20:36.905076 22578 layer_factory.hpp:77] Creating layer conv4_1/3x3_dwconv/SE_weights
I0918 12:20:36.905082 22578 net.cpp:86] Creating Layer conv4_1/3x3_dwconv/SE_weights
I0918 12:20:36.905087 22578 net.cpp:408] conv4_1/3x3_dwconv/SE_weights <- conv4_1/3x3_dwconv/SE_fc2
I0918 12:20:36.905093 22578 net.cpp:369] conv4_1/3x3_dwconv/SE_weights -> conv4_1/3x3_dwconv/SE_fc2 (in-place)
I0918 12:20:36.905890 22578 net.cpp:124] Setting up conv4_1/3x3_dwconv/SE_weights
I0918 12:20:36.905905 22578 net.cpp:131] Top shape: 25 120 1 1 (3000)
I0918 12:20:36.905910 22578 net.cpp:139] Memory required for data: 1075119800
I0918 12:20:36.905913 22578 layer_factory.hpp:77] Creating layer conv4_1/3x3_dwconv/SE_weights/reshape
I0918 12:20:36.905925 22578 net.cpp:86] Creating Layer conv4_1/3x3_dwconv/SE_weights/reshape
I0918 12:20:36.905930 22578 net.cpp:408] conv4_1/3x3_dwconv/SE_weights/reshape <- conv4_1/3x3_dwconv/SE_fc2
I0918 12:20:36.905938 22578 net.cpp:382] conv4_1/3x3_dwconv/SE_weights/reshape -> conv4_1/3x3_dwconv/SE_weights/reshape
I0918 12:20:36.905977 22578 net.cpp:124] Setting up conv4_1/3x3_dwconv/SE_weights/reshape
I0918 12:20:36.905990 22578 net.cpp:131] Top shape: 25 120 (3000)
I0918 12:20:36.905994 22578 net.cpp:139] Memory required for data: 1075131800
I0918 12:20:36.905999 22578 layer_factory.hpp:77] Creating layer conv4_1/3x3_dwconv/scale
I0918 12:20:36.906008 22578 net.cpp:86] Creating Layer conv4_1/3x3_dwconv/scale
I0918 12:20:36.906011 22578 net.cpp:408] conv4_1/3x3_dwconv/scale <- conv4_1/3x3_dwconv/concat_conv4_1/3x3_dwconv/concat_fixed_point_0_split_1
I0918 12:20:36.906016 22578 net.cpp:408] conv4_1/3x3_dwconv/scale <- conv4_1/3x3_dwconv/SE_weights/reshape
I0918 12:20:36.906023 22578 net.cpp:382] conv4_1/3x3_dwconv/scale -> conv4_1/3x3_dwconv/scale
I0918 12:20:36.906111 22578 net.cpp:124] Setting up conv4_1/3x3_dwconv/scale
I0918 12:20:36.906117 22578 net.cpp:131] Top shape: 25 120 28 28 (2352000)
I0918 12:20:36.906121 22578 net.cpp:139] Memory required for data: 1084539800
I0918 12:20:36.906124 22578 layer_factory.hpp:77] Creating layer conv4_1/3x3_dwconv/scale_fixed_point
I0918 12:20:36.906132 22578 net.cpp:86] Creating Layer conv4_1/3x3_dwconv/scale_fixed_point
I0918 12:20:36.906136 22578 net.cpp:408] conv4_1/3x3_dwconv/scale_fixed_point <- conv4_1/3x3_dwconv/scale
I0918 12:20:36.906142 22578 net.cpp:369] conv4_1/3x3_dwconv/scale_fixed_point -> conv4_1/3x3_dwconv/scale (in-place)
I0918 12:20:36.906172 22578 net.cpp:124] Setting up conv4_1/3x3_dwconv/scale_fixed_point
I0918 12:20:36.906177 22578 net.cpp:131] Top shape: 25 120 28 28 (2352000)
I0918 12:20:36.906181 22578 net.cpp:139] Memory required for data: 1093947800
I0918 12:20:36.906186 22578 layer_factory.hpp:77] Creating layer conv4_1/1x1_decrease
I0918 12:20:36.906198 22578 net.cpp:86] Creating Layer conv4_1/1x1_decrease
I0918 12:20:36.906203 22578 net.cpp:408] conv4_1/1x1_decrease <- conv4_1/3x3_dwconv/scale
I0918 12:20:36.906222 22578 net.cpp:382] conv4_1/1x1_decrease -> conv4_1/1x1_decrease/bn
I0918 12:20:36.906967 22578 net.cpp:124] Setting up conv4_1/1x1_decrease
I0918 12:20:36.906980 22578 net.cpp:131] Top shape: 25 40 28 28 (784000)
I0918 12:20:36.906985 22578 net.cpp:139] Memory required for data: 1097083800
I0918 12:20:36.906992 22578 layer_factory.hpp:77] Creating layer conv4_1/elt_sum
I0918 12:20:36.907001 22578 net.cpp:86] Creating Layer conv4_1/elt_sum
I0918 12:20:36.907006 22578 net.cpp:408] conv4_1/elt_sum <- conv4_0/1x1_decrease/bn_conv4_0/1x1_decrease/bn_fixed_point_0_split_1
I0918 12:20:36.907011 22578 net.cpp:408] conv4_1/elt_sum <- conv4_1/1x1_decrease/bn
I0918 12:20:36.907016 22578 net.cpp:382] conv4_1/elt_sum -> conv4_1/elt_sum
I0918 12:20:36.907052 22578 net.cpp:124] Setting up conv4_1/elt_sum
I0918 12:20:36.907059 22578 net.cpp:131] Top shape: 25 40 28 28 (784000)
I0918 12:20:36.907063 22578 net.cpp:139] Memory required for data: 1100219800
I0918 12:20:36.907068 22578 layer_factory.hpp:77] Creating layer conv4_1/elt_sum_fixed_point
I0918 12:20:36.907075 22578 net.cpp:86] Creating Layer conv4_1/elt_sum_fixed_point
I0918 12:20:36.907080 22578 net.cpp:408] conv4_1/elt_sum_fixed_point <- conv4_1/elt_sum
I0918 12:20:36.907085 22578 net.cpp:369] conv4_1/elt_sum_fixed_point -> conv4_1/elt_sum (in-place)
I0918 12:20:36.907116 22578 net.cpp:124] Setting up conv4_1/elt_sum_fixed_point
I0918 12:20:36.907122 22578 net.cpp:131] Top shape: 25 40 28 28 (784000)
I0918 12:20:36.907125 22578 net.cpp:139] Memory required for data: 1103355800
I0918 12:20:36.907130 22578 layer_factory.hpp:77] Creating layer conv4_1/elt_sum_conv4_1/elt_sum_fixed_point_0_split
I0918 12:20:36.907136 22578 net.cpp:86] Creating Layer conv4_1/elt_sum_conv4_1/elt_sum_fixed_point_0_split
I0918 12:20:36.907140 22578 net.cpp:408] conv4_1/elt_sum_conv4_1/elt_sum_fixed_point_0_split <- conv4_1/elt_sum
I0918 12:20:36.907146 22578 net.cpp:382] conv4_1/elt_sum_conv4_1/elt_sum_fixed_point_0_split -> conv4_1/elt_sum_conv4_1/elt_sum_fixed_point_0_split_0
I0918 12:20:36.907153 22578 net.cpp:382] conv4_1/elt_sum_conv4_1/elt_sum_fixed_point_0_split -> conv4_1/elt_sum_conv4_1/elt_sum_fixed_point_0_split_1
I0918 12:20:36.907197 22578 net.cpp:124] Setting up conv4_1/elt_sum_conv4_1/elt_sum_fixed_point_0_split
I0918 12:20:36.907209 22578 net.cpp:131] Top shape: 25 40 28 28 (784000)
I0918 12:20:36.907214 22578 net.cpp:131] Top shape: 25 40 28 28 (784000)
I0918 12:20:36.907217 22578 net.cpp:139] Memory required for data: 1109627800
I0918 12:20:36.907222 22578 layer_factory.hpp:77] Creating layer conv4_2/1x1_increase
I0918 12:20:36.907232 22578 net.cpp:86] Creating Layer conv4_2/1x1_increase
I0918 12:20:36.907236 22578 net.cpp:408] conv4_2/1x1_increase <- conv4_1/elt_sum_conv4_1/elt_sum_fixed_point_0_split_0
I0918 12:20:36.907243 22578 net.cpp:382] conv4_2/1x1_increase -> conv4_2/1x1_increase/bn
I0918 12:20:36.907984 22578 net.cpp:124] Setting up conv4_2/1x1_increase
I0918 12:20:36.907995 22578 net.cpp:131] Top shape: 25 120 28 28 (2352000)
I0918 12:20:36.908000 22578 net.cpp:139] Memory required for data: 1119035800
I0918 12:20:36.908010 22578 layer_factory.hpp:77] Creating layer conv4_2/1x1_increase/hardswish
I0918 12:20:36.908016 22578 net.cpp:86] Creating Layer conv4_2/1x1_increase/hardswish
I0918 12:20:36.908021 22578 net.cpp:408] conv4_2/1x1_increase/hardswish <- conv4_2/1x1_increase/bn
I0918 12:20:36.908028 22578 net.cpp:369] conv4_2/1x1_increase/hardswish -> conv4_2/1x1_increase/bn (in-place)
I0918 12:20:36.908063 22578 net.cpp:124] Setting up conv4_2/1x1_increase/hardswish
I0918 12:20:36.908071 22578 net.cpp:131] Top shape: 25 120 28 28 (2352000)
I0918 12:20:36.908074 22578 net.cpp:139] Memory required for data: 1128443800
I0918 12:20:36.908077 22578 layer_factory.hpp:77] Creating layer conv4_2/1x1_increase/bn_fixed_point
I0918 12:20:36.908085 22578 net.cpp:86] Creating Layer conv4_2/1x1_increase/bn_fixed_point
I0918 12:20:36.908089 22578 net.cpp:408] conv4_2/1x1_increase/bn_fixed_point <- conv4_2/1x1_increase/bn
I0918 12:20:36.908107 22578 net.cpp:369] conv4_2/1x1_increase/bn_fixed_point -> conv4_2/1x1_increase/bn (in-place)
I0918 12:20:36.908140 22578 net.cpp:124] Setting up conv4_2/1x1_increase/bn_fixed_point
I0918 12:20:36.908146 22578 net.cpp:131] Top shape: 25 120 28 28 (2352000)
I0918 12:20:36.908149 22578 net.cpp:139] Memory required for data: 1137851800
I0918 12:20:36.908161 22578 layer_factory.hpp:77] Creating layer conv4_2/1x1_increase/slice
I0918 12:20:36.908169 22578 net.cpp:86] Creating Layer conv4_2/1x1_increase/slice
I0918 12:20:36.908172 22578 net.cpp:408] conv4_2/1x1_increase/slice <- conv4_2/1x1_increase/bn
I0918 12:20:36.908179 22578 net.cpp:382] conv4_2/1x1_increase/slice -> conv4_2/1x1_increase/split1
I0918 12:20:36.908186 22578 net.cpp:382] conv4_2/1x1_increase/slice -> conv4_2/1x1_increase/split2
I0918 12:20:36.908231 22578 net.cpp:124] Setting up conv4_2/1x1_increase/slice
I0918 12:20:36.908238 22578 net.cpp:131] Top shape: 25 60 28 28 (1176000)
I0918 12:20:36.908243 22578 net.cpp:131] Top shape: 25 60 28 28 (1176000)
I0918 12:20:36.908246 22578 net.cpp:139] Memory required for data: 1147259800
I0918 12:20:36.908249 22578 layer_factory.hpp:77] Creating layer conv4_2/3x3_dwconv/slice_0
I0918 12:20:36.908260 22578 net.cpp:86] Creating Layer conv4_2/3x3_dwconv/slice_0
I0918 12:20:36.908264 22578 net.cpp:408] conv4_2/3x3_dwconv/slice_0 <- conv4_2/1x1_increase/split1
I0918 12:20:36.908272 22578 net.cpp:382] conv4_2/3x3_dwconv/slice_0 -> conv4_2/3x3_dwconv/slice_0/bn
I0918 12:20:36.908882 22578 net.cpp:124] Setting up conv4_2/3x3_dwconv/slice_0
I0918 12:20:36.908895 22578 net.cpp:131] Top shape: 25 60 28 28 (1176000)
I0918 12:20:36.908900 22578 net.cpp:139] Memory required for data: 1151963800
I0918 12:20:36.908908 22578 layer_factory.hpp:77] Creating layer conv4_2/3x3_dwconv/slice_0/hardswish
I0918 12:20:36.908916 22578 net.cpp:86] Creating Layer conv4_2/3x3_dwconv/slice_0/hardswish
I0918 12:20:36.908921 22578 net.cpp:408] conv4_2/3x3_dwconv/slice_0/hardswish <- conv4_2/3x3_dwconv/slice_0/bn
I0918 12:20:36.908928 22578 net.cpp:369] conv4_2/3x3_dwconv/slice_0/hardswish -> conv4_2/3x3_dwconv/slice_0/bn (in-place)
I0918 12:20:36.908962 22578 net.cpp:124] Setting up conv4_2/3x3_dwconv/slice_0/hardswish
I0918 12:20:36.908969 22578 net.cpp:131] Top shape: 25 60 28 28 (1176000)
I0918 12:20:36.908973 22578 net.cpp:139] Memory required for data: 1156667800
I0918 12:20:36.908977 22578 layer_factory.hpp:77] Creating layer conv4_2/3x3_dwconv/slice_1
I0918 12:20:36.908988 22578 net.cpp:86] Creating Layer conv4_2/3x3_dwconv/slice_1
I0918 12:20:36.908993 22578 net.cpp:408] conv4_2/3x3_dwconv/slice_1 <- conv4_2/1x1_increase/split2
I0918 12:20:36.909000 22578 net.cpp:382] conv4_2/3x3_dwconv/slice_1 -> conv4_2/3x3_dwconv/slice_1/bn
I0918 12:20:36.909835 22578 net.cpp:124] Setting up conv4_2/3x3_dwconv/slice_1
I0918 12:20:36.909850 22578 net.cpp:131] Top shape: 25 60 28 28 (1176000)
I0918 12:20:36.909854 22578 net.cpp:139] Memory required for data: 1161371800
I0918 12:20:36.909862 22578 layer_factory.hpp:77] Creating layer conv4_2/3x3_dwconv/slice_1/hardswish
I0918 12:20:36.909873 22578 net.cpp:86] Creating Layer conv4_2/3x3_dwconv/slice_1/hardswish
I0918 12:20:36.909878 22578 net.cpp:408] conv4_2/3x3_dwconv/slice_1/hardswish <- conv4_2/3x3_dwconv/slice_1/bn
I0918 12:20:36.909884 22578 net.cpp:369] conv4_2/3x3_dwconv/slice_1/hardswish -> conv4_2/3x3_dwconv/slice_1/bn (in-place)
I0918 12:20:36.909920 22578 net.cpp:124] Setting up conv4_2/3x3_dwconv/slice_1/hardswish
I0918 12:20:36.909927 22578 net.cpp:131] Top shape: 25 60 28 28 (1176000)
I0918 12:20:36.909930 22578 net.cpp:139] Memory required for data: 1166075800
I0918 12:20:36.909934 22578 layer_factory.hpp:77] Creating layer conv4_2/3x3_dwconv/concat
I0918 12:20:36.909940 22578 net.cpp:86] Creating Layer conv4_2/3x3_dwconv/concat
I0918 12:20:36.909945 22578 net.cpp:408] conv4_2/3x3_dwconv/concat <- conv4_2/3x3_dwconv/slice_0/bn
I0918 12:20:36.909950 22578 net.cpp:408] conv4_2/3x3_dwconv/concat <- conv4_2/3x3_dwconv/slice_1/bn
I0918 12:20:36.909955 22578 net.cpp:382] conv4_2/3x3_dwconv/concat -> conv4_2/3x3_dwconv/concat
I0918 12:20:36.910001 22578 net.cpp:124] Setting up conv4_2/3x3_dwconv/concat
I0918 12:20:36.910007 22578 net.cpp:131] Top shape: 25 120 28 28 (2352000)
I0918 12:20:36.910012 22578 net.cpp:139] Memory required for data: 1175483800
I0918 12:20:36.910017 22578 layer_factory.hpp:77] Creating layer conv4_2/3x3_dwconv/concat_fixed_point
I0918 12:20:36.910024 22578 net.cpp:86] Creating Layer conv4_2/3x3_dwconv/concat_fixed_point
I0918 12:20:36.910029 22578 net.cpp:408] conv4_2/3x3_dwconv/concat_fixed_point <- conv4_2/3x3_dwconv/concat
I0918 12:20:36.910035 22578 net.cpp:369] conv4_2/3x3_dwconv/concat_fixed_point -> conv4_2/3x3_dwconv/concat (in-place)
I0918 12:20:36.910064 22578 net.cpp:124] Setting up conv4_2/3x3_dwconv/concat_fixed_point
I0918 12:20:36.910073 22578 net.cpp:131] Top shape: 25 120 28 28 (2352000)
I0918 12:20:36.910076 22578 net.cpp:139] Memory required for data: 1184891800
I0918 12:20:36.910081 22578 layer_factory.hpp:77] Creating layer conv4_2/3x3_dwconv/concat_conv4_2/3x3_dwconv/concat_fixed_point_0_split
I0918 12:20:36.910087 22578 net.cpp:86] Creating Layer conv4_2/3x3_dwconv/concat_conv4_2/3x3_dwconv/concat_fixed_point_0_split
I0918 12:20:36.910091 22578 net.cpp:408] conv4_2/3x3_dwconv/concat_conv4_2/3x3_dwconv/concat_fixed_point_0_split <- conv4_2/3x3_dwconv/concat
I0918 12:20:36.910097 22578 net.cpp:382] conv4_2/3x3_dwconv/concat_conv4_2/3x3_dwconv/concat_fixed_point_0_split -> conv4_2/3x3_dwconv/concat_conv4_2/3x3_dwconv/concat_fixed_point_0_split_0
I0918 12:20:36.910104 22578 net.cpp:382] conv4_2/3x3_dwconv/concat_conv4_2/3x3_dwconv/concat_fixed_point_0_split -> conv4_2/3x3_dwconv/concat_conv4_2/3x3_dwconv/concat_fixed_point_0_split_1
I0918 12:20:36.910151 22578 net.cpp:124] Setting up conv4_2/3x3_dwconv/concat_conv4_2/3x3_dwconv/concat_fixed_point_0_split
I0918 12:20:36.910158 22578 net.cpp:131] Top shape: 25 120 28 28 (2352000)
I0918 12:20:36.910163 22578 net.cpp:131] Top shape: 25 120 28 28 (2352000)
I0918 12:20:36.910166 22578 net.cpp:139] Memory required for data: 1203707800
I0918 12:20:36.910171 22578 layer_factory.hpp:77] Creating layer conv4_2/3x3_dwconv/SE_global_pool
I0918 12:20:36.910177 22578 net.cpp:86] Creating Layer conv4_2/3x3_dwconv/SE_global_pool
I0918 12:20:36.910181 22578 net.cpp:408] conv4_2/3x3_dwconv/SE_global_pool <- conv4_2/3x3_dwconv/concat_conv4_2/3x3_dwconv/concat_fixed_point_0_split_0
I0918 12:20:36.910187 22578 net.cpp:382] conv4_2/3x3_dwconv/SE_global_pool -> conv4_2/3x3_dwconv/SE_global_pool
I0918 12:20:36.910215 22578 net.cpp:124] Setting up conv4_2/3x3_dwconv/SE_global_pool
I0918 12:20:36.910223 22578 net.cpp:131] Top shape: 25 120 1 1 (3000)
I0918 12:20:36.910225 22578 net.cpp:139] Memory required for data: 1203719800
I0918 12:20:36.910229 22578 layer_factory.hpp:77] Creating layer conv4_2/3x3_dwconv/SE_bn
I0918 12:20:36.910236 22578 net.cpp:86] Creating Layer conv4_2/3x3_dwconv/SE_bn
I0918 12:20:36.910240 22578 net.cpp:408] conv4_2/3x3_dwconv/SE_bn <- conv4_2/3x3_dwconv/SE_global_pool
I0918 12:20:36.910248 22578 net.cpp:382] conv4_2/3x3_dwconv/SE_bn -> conv4_2/3x3_dwconv/SE_bn
I0918 12:20:36.910296 22578 layer_factory.hpp:77] Creating layer conv4_2/3x3_dwconv/SE_bn
I0918 12:20:36.910439 22578 net.cpp:124] Setting up conv4_2/3x3_dwconv/SE_bn
I0918 12:20:36.910446 22578 net.cpp:131] Top shape: 25 120 1 1 (3000)
I0918 12:20:36.910450 22578 net.cpp:139] Memory required for data: 1203731800
I0918 12:20:36.910459 22578 layer_factory.hpp:77] Creating layer conv4_2/3x3_dwconv/SE_fc1
I0918 12:20:36.910470 22578 net.cpp:86] Creating Layer conv4_2/3x3_dwconv/SE_fc1
I0918 12:20:36.910473 22578 net.cpp:408] conv4_2/3x3_dwconv/SE_fc1 <- conv4_2/3x3_dwconv/SE_bn
I0918 12:20:36.910481 22578 net.cpp:382] conv4_2/3x3_dwconv/SE_fc1 -> conv4_2/3x3_dwconv/SE_fc1
I0918 12:20:36.910919 22578 net.cpp:124] Setting up conv4_2/3x3_dwconv/SE_fc1
I0918 12:20:36.911075 22578 net.cpp:131] Top shape: 25 7 1 1 (175)
I0918 12:20:36.911083 22578 net.cpp:139] Memory required for data: 1203732500
I0918 12:20:36.911140 22578 layer_factory.hpp:77] Creating layer conv4_2/3x3_dwconv/SE_fc1/relu
I0918 12:20:36.911164 22578 net.cpp:86] Creating Layer conv4_2/3x3_dwconv/SE_fc1/relu
I0918 12:20:36.911168 22578 net.cpp:408] conv4_2/3x3_dwconv/SE_fc1/relu <- conv4_2/3x3_dwconv/SE_fc1
I0918 12:20:36.911176 22578 net.cpp:369] conv4_2/3x3_dwconv/SE_fc1/relu -> conv4_2/3x3_dwconv/SE_fc1 (in-place)
I0918 12:20:36.911746 22578 net.cpp:124] Setting up conv4_2/3x3_dwconv/SE_fc1/relu
I0918 12:20:36.911758 22578 net.cpp:131] Top shape: 25 7 1 1 (175)
I0918 12:20:36.911762 22578 net.cpp:139] Memory required for data: 1203733200
I0918 12:20:36.911767 22578 layer_factory.hpp:77] Creating layer conv4_2/3x3_dwconv/SE_fc2
I0918 12:20:36.911777 22578 net.cpp:86] Creating Layer conv4_2/3x3_dwconv/SE_fc2
I0918 12:20:36.911782 22578 net.cpp:408] conv4_2/3x3_dwconv/SE_fc2 <- conv4_2/3x3_dwconv/SE_fc1
I0918 12:20:36.911792 22578 net.cpp:382] conv4_2/3x3_dwconv/SE_fc2 -> conv4_2/3x3_dwconv/SE_fc2
I0918 12:20:36.912231 22578 net.cpp:124] Setting up conv4_2/3x3_dwconv/SE_fc2
I0918 12:20:36.912245 22578 net.cpp:131] Top shape: 25 120 1 1 (3000)
I0918 12:20:36.912248 22578 net.cpp:139] Memory required for data: 1203745200
I0918 12:20:36.912256 22578 layer_factory.hpp:77] Creating layer conv4_2/3x3_dwconv/SE_weights
I0918 12:20:36.912264 22578 net.cpp:86] Creating Layer conv4_2/3x3_dwconv/SE_weights
I0918 12:20:36.912268 22578 net.cpp:408] conv4_2/3x3_dwconv/SE_weights <- conv4_2/3x3_dwconv/SE_fc2
I0918 12:20:36.912276 22578 net.cpp:369] conv4_2/3x3_dwconv/SE_weights -> conv4_2/3x3_dwconv/SE_fc2 (in-place)
I0918 12:20:36.912844 22578 net.cpp:124] Setting up conv4_2/3x3_dwconv/SE_weights
I0918 12:20:36.912858 22578 net.cpp:131] Top shape: 25 120 1 1 (3000)
I0918 12:20:36.912861 22578 net.cpp:139] Memory required for data: 1203757200
I0918 12:20:36.912865 22578 layer_factory.hpp:77] Creating layer conv4_2/3x3_dwconv/SE_weights/reshape
I0918 12:20:36.912873 22578 net.cpp:86] Creating Layer conv4_2/3x3_dwconv/SE_weights/reshape
I0918 12:20:36.912878 22578 net.cpp:408] conv4_2/3x3_dwconv/SE_weights/reshape <- conv4_2/3x3_dwconv/SE_fc2
I0918 12:20:36.912885 22578 net.cpp:382] conv4_2/3x3_dwconv/SE_weights/reshape -> conv4_2/3x3_dwconv/SE_weights/reshape
I0918 12:20:36.912922 22578 net.cpp:124] Setting up conv4_2/3x3_dwconv/SE_weights/reshape
I0918 12:20:36.912930 22578 net.cpp:131] Top shape: 25 120 (3000)
I0918 12:20:36.912932 22578 net.cpp:139] Memory required for data: 1203769200
I0918 12:20:36.912936 22578 layer_factory.hpp:77] Creating layer conv4_2/3x3_dwconv/scale
I0918 12:20:36.912945 22578 net.cpp:86] Creating Layer conv4_2/3x3_dwconv/scale
I0918 12:20:36.912948 22578 net.cpp:408] conv4_2/3x3_dwconv/scale <- conv4_2/3x3_dwconv/concat_conv4_2/3x3_dwconv/concat_fixed_point_0_split_1
I0918 12:20:36.912953 22578 net.cpp:408] conv4_2/3x3_dwconv/scale <- conv4_2/3x3_dwconv/SE_weights/reshape
I0918 12:20:36.912961 22578 net.cpp:382] conv4_2/3x3_dwconv/scale -> conv4_2/3x3_dwconv/scale
I0918 12:20:36.913044 22578 net.cpp:124] Setting up conv4_2/3x3_dwconv/scale
I0918 12:20:36.913053 22578 net.cpp:131] Top shape: 25 120 28 28 (2352000)
I0918 12:20:36.913058 22578 net.cpp:139] Memory required for data: 1213177200
I0918 12:20:36.913060 22578 layer_factory.hpp:77] Creating layer conv4_2/3x3_dwconv/scale_fixed_point
I0918 12:20:36.913067 22578 net.cpp:86] Creating Layer conv4_2/3x3_dwconv/scale_fixed_point
I0918 12:20:36.913071 22578 net.cpp:408] conv4_2/3x3_dwconv/scale_fixed_point <- conv4_2/3x3_dwconv/scale
I0918 12:20:36.913079 22578 net.cpp:369] conv4_2/3x3_dwconv/scale_fixed_point -> conv4_2/3x3_dwconv/scale (in-place)
I0918 12:20:36.913106 22578 net.cpp:124] Setting up conv4_2/3x3_dwconv/scale_fixed_point
I0918 12:20:36.913112 22578 net.cpp:131] Top shape: 25 120 28 28 (2352000)
I0918 12:20:36.913115 22578 net.cpp:139] Memory required for data: 1222585200
I0918 12:20:36.913122 22578 layer_factory.hpp:77] Creating layer conv4_2/1x1_decrease
I0918 12:20:36.913133 22578 net.cpp:86] Creating Layer conv4_2/1x1_decrease
I0918 12:20:36.913138 22578 net.cpp:408] conv4_2/1x1_decrease <- conv4_2/3x3_dwconv/scale
I0918 12:20:36.913146 22578 net.cpp:382] conv4_2/1x1_decrease -> conv4_2/1x1_decrease/bn
I0918 12:20:36.913883 22578 net.cpp:124] Setting up conv4_2/1x1_decrease
I0918 12:20:36.913897 22578 net.cpp:131] Top shape: 25 40 28 28 (784000)
I0918 12:20:36.913902 22578 net.cpp:139] Memory required for data: 1225721200
I0918 12:20:36.913908 22578 layer_factory.hpp:77] Creating layer conv4_2/elt_sum
I0918 12:20:36.913916 22578 net.cpp:86] Creating Layer conv4_2/elt_sum
I0918 12:20:36.913921 22578 net.cpp:408] conv4_2/elt_sum <- conv4_1/elt_sum_conv4_1/elt_sum_fixed_point_0_split_1
I0918 12:20:36.913928 22578 net.cpp:408] conv4_2/elt_sum <- conv4_2/1x1_decrease/bn
I0918 12:20:36.913934 22578 net.cpp:382] conv4_2/elt_sum -> conv4_2/elt_sum
I0918 12:20:36.913970 22578 net.cpp:124] Setting up conv4_2/elt_sum
I0918 12:20:36.913976 22578 net.cpp:131] Top shape: 25 40 28 28 (784000)
I0918 12:20:36.913980 22578 net.cpp:139] Memory required for data: 1228857200
I0918 12:20:36.913982 22578 layer_factory.hpp:77] Creating layer conv4_2/elt_sum_fixed_point
I0918 12:20:36.913991 22578 net.cpp:86] Creating Layer conv4_2/elt_sum_fixed_point
I0918 12:20:36.913995 22578 net.cpp:408] conv4_2/elt_sum_fixed_point <- conv4_2/elt_sum
I0918 12:20:36.914001 22578 net.cpp:369] conv4_2/elt_sum_fixed_point -> conv4_2/elt_sum (in-place)
I0918 12:20:36.914032 22578 net.cpp:124] Setting up conv4_2/elt_sum_fixed_point
I0918 12:20:36.914038 22578 net.cpp:131] Top shape: 25 40 28 28 (784000)
I0918 12:20:36.914041 22578 net.cpp:139] Memory required for data: 1231993200
I0918 12:20:36.914048 22578 layer_factory.hpp:77] Creating layer conv4_2/elt_sum_conv4_2/elt_sum_fixed_point_0_split
I0918 12:20:36.914054 22578 net.cpp:86] Creating Layer conv4_2/elt_sum_conv4_2/elt_sum_fixed_point_0_split
I0918 12:20:36.914058 22578 net.cpp:408] conv4_2/elt_sum_conv4_2/elt_sum_fixed_point_0_split <- conv4_2/elt_sum
I0918 12:20:36.914064 22578 net.cpp:382] conv4_2/elt_sum_conv4_2/elt_sum_fixed_point_0_split -> conv4_2/elt_sum_conv4_2/elt_sum_fixed_point_0_split_0
I0918 12:20:36.914072 22578 net.cpp:382] conv4_2/elt_sum_conv4_2/elt_sum_fixed_point_0_split -> conv4_2/elt_sum_conv4_2/elt_sum_fixed_point_0_split_1
I0918 12:20:36.914115 22578 net.cpp:124] Setting up conv4_2/elt_sum_conv4_2/elt_sum_fixed_point_0_split
I0918 12:20:36.914124 22578 net.cpp:131] Top shape: 25 40 28 28 (784000)
I0918 12:20:36.914129 22578 net.cpp:131] Top shape: 25 40 28 28 (784000)
I0918 12:20:36.914131 22578 net.cpp:139] Memory required for data: 1238265200
I0918 12:20:36.914134 22578 layer_factory.hpp:77] Creating layer conv4_3/1x1_increase
I0918 12:20:36.914145 22578 net.cpp:86] Creating Layer conv4_3/1x1_increase
I0918 12:20:36.914150 22578 net.cpp:408] conv4_3/1x1_increase <- conv4_2/elt_sum_conv4_2/elt_sum_fixed_point_0_split_0
I0918 12:20:36.914157 22578 net.cpp:382] conv4_3/1x1_increase -> conv4_3/1x1_increase/bn
I0918 12:20:36.915107 22578 net.cpp:124] Setting up conv4_3/1x1_increase
I0918 12:20:36.915122 22578 net.cpp:131] Top shape: 25 120 28 28 (2352000)
I0918 12:20:36.915125 22578 net.cpp:139] Memory required for data: 1247673200
I0918 12:20:36.915133 22578 layer_factory.hpp:77] Creating layer conv4_3/1x1_increase/hardswish
I0918 12:20:36.915141 22578 net.cpp:86] Creating Layer conv4_3/1x1_increase/hardswish
I0918 12:20:36.915145 22578 net.cpp:408] conv4_3/1x1_increase/hardswish <- conv4_3/1x1_increase/bn
I0918 12:20:36.915153 22578 net.cpp:369] conv4_3/1x1_increase/hardswish -> conv4_3/1x1_increase/bn (in-place)
I0918 12:20:36.915190 22578 net.cpp:124] Setting up conv4_3/1x1_increase/hardswish
I0918 12:20:36.915197 22578 net.cpp:131] Top shape: 25 120 28 28 (2352000)
I0918 12:20:36.915200 22578 net.cpp:139] Memory required for data: 1257081200
I0918 12:20:36.915205 22578 layer_factory.hpp:77] Creating layer conv4_3/1x1_increase/bn_fixed_point
I0918 12:20:36.915212 22578 net.cpp:86] Creating Layer conv4_3/1x1_increase/bn_fixed_point
I0918 12:20:36.915216 22578 net.cpp:408] conv4_3/1x1_increase/bn_fixed_point <- conv4_3/1x1_increase/bn
I0918 12:20:36.915222 22578 net.cpp:369] conv4_3/1x1_increase/bn_fixed_point -> conv4_3/1x1_increase/bn (in-place)
I0918 12:20:36.915267 22578 net.cpp:124] Setting up conv4_3/1x1_increase/bn_fixed_point
I0918 12:20:36.915273 22578 net.cpp:131] Top shape: 25 120 28 28 (2352000)
I0918 12:20:36.915277 22578 net.cpp:139] Memory required for data: 1266489200
I0918 12:20:36.915285 22578 layer_factory.hpp:77] Creating layer conv4_3/1x1_increase/slice
I0918 12:20:36.915292 22578 net.cpp:86] Creating Layer conv4_3/1x1_increase/slice
I0918 12:20:36.915297 22578 net.cpp:408] conv4_3/1x1_increase/slice <- conv4_3/1x1_increase/bn
I0918 12:20:36.915303 22578 net.cpp:382] conv4_3/1x1_increase/slice -> conv4_3/1x1_increase/split1
I0918 12:20:36.915311 22578 net.cpp:382] conv4_3/1x1_increase/slice -> conv4_3/1x1_increase/split2
I0918 12:20:36.915359 22578 net.cpp:124] Setting up conv4_3/1x1_increase/slice
I0918 12:20:36.915367 22578 net.cpp:131] Top shape: 25 60 28 28 (1176000)
I0918 12:20:36.915371 22578 net.cpp:131] Top shape: 25 60 28 28 (1176000)
I0918 12:20:36.915375 22578 net.cpp:139] Memory required for data: 1275897200
I0918 12:20:36.915379 22578 layer_factory.hpp:77] Creating layer conv4_3/3x3_dwconv/slice_0
I0918 12:20:36.915390 22578 net.cpp:86] Creating Layer conv4_3/3x3_dwconv/slice_0
I0918 12:20:36.915395 22578 net.cpp:408] conv4_3/3x3_dwconv/slice_0 <- conv4_3/1x1_increase/split1
I0918 12:20:36.915401 22578 net.cpp:382] conv4_3/3x3_dwconv/slice_0 -> conv4_3/3x3_dwconv/slice_0/bn
I0918 12:20:36.916023 22578 net.cpp:124] Setting up conv4_3/3x3_dwconv/slice_0
I0918 12:20:36.916036 22578 net.cpp:131] Top shape: 25 60 28 28 (1176000)
I0918 12:20:36.916040 22578 net.cpp:139] Memory required for data: 1280601200
I0918 12:20:36.916047 22578 layer_factory.hpp:77] Creating layer conv4_3/3x3_dwconv/slice_0/hardswish
I0918 12:20:36.916055 22578 net.cpp:86] Creating Layer conv4_3/3x3_dwconv/slice_0/hardswish
I0918 12:20:36.916060 22578 net.cpp:408] conv4_3/3x3_dwconv/slice_0/hardswish <- conv4_3/3x3_dwconv/slice_0/bn
I0918 12:20:36.916067 22578 net.cpp:369] conv4_3/3x3_dwconv/slice_0/hardswish -> conv4_3/3x3_dwconv/slice_0/bn (in-place)
I0918 12:20:36.916105 22578 net.cpp:124] Setting up conv4_3/3x3_dwconv/slice_0/hardswish
I0918 12:20:36.916111 22578 net.cpp:131] Top shape: 25 60 28 28 (1176000)
I0918 12:20:36.916115 22578 net.cpp:139] Memory required for data: 1285305200
I0918 12:20:36.916118 22578 layer_factory.hpp:77] Creating layer conv4_3/3x3_dwconv/slice_1
I0918 12:20:36.916131 22578 net.cpp:86] Creating Layer conv4_3/3x3_dwconv/slice_1
I0918 12:20:36.916136 22578 net.cpp:408] conv4_3/3x3_dwconv/slice_1 <- conv4_3/1x1_increase/split2
I0918 12:20:36.916143 22578 net.cpp:382] conv4_3/3x3_dwconv/slice_1 -> conv4_3/3x3_dwconv/slice_1/bn
I0918 12:20:36.916998 22578 net.cpp:124] Setting up conv4_3/3x3_dwconv/slice_1
I0918 12:20:36.917013 22578 net.cpp:131] Top shape: 25 60 28 28 (1176000)
I0918 12:20:36.917017 22578 net.cpp:139] Memory required for data: 1290009200
I0918 12:20:36.917026 22578 layer_factory.hpp:77] Creating layer conv4_3/3x3_dwconv/slice_1/hardswish
I0918 12:20:36.917034 22578 net.cpp:86] Creating Layer conv4_3/3x3_dwconv/slice_1/hardswish
I0918 12:20:36.917040 22578 net.cpp:408] conv4_3/3x3_dwconv/slice_1/hardswish <- conv4_3/3x3_dwconv/slice_1/bn
I0918 12:20:36.917047 22578 net.cpp:369] conv4_3/3x3_dwconv/slice_1/hardswish -> conv4_3/3x3_dwconv/slice_1/bn (in-place)
I0918 12:20:36.917083 22578 net.cpp:124] Setting up conv4_3/3x3_dwconv/slice_1/hardswish
I0918 12:20:36.917089 22578 net.cpp:131] Top shape: 25 60 28 28 (1176000)
I0918 12:20:36.917093 22578 net.cpp:139] Memory required for data: 1294713200
I0918 12:20:36.917096 22578 layer_factory.hpp:77] Creating layer conv4_3/3x3_dwconv/concat
I0918 12:20:36.917104 22578 net.cpp:86] Creating Layer conv4_3/3x3_dwconv/concat
I0918 12:20:36.917107 22578 net.cpp:408] conv4_3/3x3_dwconv/concat <- conv4_3/3x3_dwconv/slice_0/bn
I0918 12:20:36.917112 22578 net.cpp:408] conv4_3/3x3_dwconv/concat <- conv4_3/3x3_dwconv/slice_1/bn
I0918 12:20:36.917119 22578 net.cpp:382] conv4_3/3x3_dwconv/concat -> conv4_3/3x3_dwconv/concat
I0918 12:20:36.917150 22578 net.cpp:124] Setting up conv4_3/3x3_dwconv/concat
I0918 12:20:36.917168 22578 net.cpp:131] Top shape: 25 120 28 28 (2352000)
I0918 12:20:36.917172 22578 net.cpp:139] Memory required for data: 1304121200
I0918 12:20:36.917176 22578 layer_factory.hpp:77] Creating layer conv4_3/3x3_dwconv/concat_fixed_point
I0918 12:20:36.917186 22578 net.cpp:86] Creating Layer conv4_3/3x3_dwconv/concat_fixed_point
I0918 12:20:36.917189 22578 net.cpp:408] conv4_3/3x3_dwconv/concat_fixed_point <- conv4_3/3x3_dwconv/concat
I0918 12:20:36.917196 22578 net.cpp:369] conv4_3/3x3_dwconv/concat_fixed_point -> conv4_3/3x3_dwconv/concat (in-place)
I0918 12:20:36.917228 22578 net.cpp:124] Setting up conv4_3/3x3_dwconv/concat_fixed_point
I0918 12:20:36.917234 22578 net.cpp:131] Top shape: 25 120 28 28 (2352000)
I0918 12:20:36.917237 22578 net.cpp:139] Memory required for data: 1313529200
I0918 12:20:36.917243 22578 layer_factory.hpp:77] Creating layer conv4_3/3x3_dwconv/concat_conv4_3/3x3_dwconv/concat_fixed_point_0_split
I0918 12:20:36.917249 22578 net.cpp:86] Creating Layer conv4_3/3x3_dwconv/concat_conv4_3/3x3_dwconv/concat_fixed_point_0_split
I0918 12:20:36.917253 22578 net.cpp:408] conv4_3/3x3_dwconv/concat_conv4_3/3x3_dwconv/concat_fixed_point_0_split <- conv4_3/3x3_dwconv/concat
I0918 12:20:36.917259 22578 net.cpp:382] conv4_3/3x3_dwconv/concat_conv4_3/3x3_dwconv/concat_fixed_point_0_split -> conv4_3/3x3_dwconv/concat_conv4_3/3x3_dwconv/concat_fixed_point_0_split_0
I0918 12:20:36.917268 22578 net.cpp:382] conv4_3/3x3_dwconv/concat_conv4_3/3x3_dwconv/concat_fixed_point_0_split -> conv4_3/3x3_dwconv/concat_conv4_3/3x3_dwconv/concat_fixed_point_0_split_1
I0918 12:20:36.917309 22578 net.cpp:124] Setting up conv4_3/3x3_dwconv/concat_conv4_3/3x3_dwconv/concat_fixed_point_0_split
I0918 12:20:36.917318 22578 net.cpp:131] Top shape: 25 120 28 28 (2352000)
I0918 12:20:36.917322 22578 net.cpp:131] Top shape: 25 120 28 28 (2352000)
I0918 12:20:36.917326 22578 net.cpp:139] Memory required for data: 1332345200
I0918 12:20:36.917330 22578 layer_factory.hpp:77] Creating layer conv4_3/3x3_dwconv/SE_global_pool
I0918 12:20:36.917338 22578 net.cpp:86] Creating Layer conv4_3/3x3_dwconv/SE_global_pool
I0918 12:20:36.917342 22578 net.cpp:408] conv4_3/3x3_dwconv/SE_global_pool <- conv4_3/3x3_dwconv/concat_conv4_3/3x3_dwconv/concat_fixed_point_0_split_0
I0918 12:20:36.917348 22578 net.cpp:382] conv4_3/3x3_dwconv/SE_global_pool -> conv4_3/3x3_dwconv/SE_global_pool
I0918 12:20:36.917377 22578 net.cpp:124] Setting up conv4_3/3x3_dwconv/SE_global_pool
I0918 12:20:36.917384 22578 net.cpp:131] Top shape: 25 120 1 1 (3000)
I0918 12:20:36.917387 22578 net.cpp:139] Memory required for data: 1332357200
I0918 12:20:36.917390 22578 layer_factory.hpp:77] Creating layer conv4_3/3x3_dwconv/SE_bn
I0918 12:20:36.917398 22578 net.cpp:86] Creating Layer conv4_3/3x3_dwconv/SE_bn
I0918 12:20:36.917402 22578 net.cpp:408] conv4_3/3x3_dwconv/SE_bn <- conv4_3/3x3_dwconv/SE_global_pool
I0918 12:20:36.917408 22578 net.cpp:382] conv4_3/3x3_dwconv/SE_bn -> conv4_3/3x3_dwconv/SE_bn
I0918 12:20:36.917459 22578 layer_factory.hpp:77] Creating layer conv4_3/3x3_dwconv/SE_bn
I0918 12:20:36.917601 22578 net.cpp:124] Setting up conv4_3/3x3_dwconv/SE_bn
I0918 12:20:36.917609 22578 net.cpp:131] Top shape: 25 120 1 1 (3000)
I0918 12:20:36.917613 22578 net.cpp:139] Memory required for data: 1332369200
I0918 12:20:36.917619 22578 layer_factory.hpp:77] Creating layer conv4_3/3x3_dwconv/SE_fc1
I0918 12:20:36.917631 22578 net.cpp:86] Creating Layer conv4_3/3x3_dwconv/SE_fc1
I0918 12:20:36.917635 22578 net.cpp:408] conv4_3/3x3_dwconv/SE_fc1 <- conv4_3/3x3_dwconv/SE_bn
I0918 12:20:36.917644 22578 net.cpp:382] conv4_3/3x3_dwconv/SE_fc1 -> conv4_3/3x3_dwconv/SE_fc1
I0918 12:20:36.918081 22578 net.cpp:124] Setting up conv4_3/3x3_dwconv/SE_fc1
I0918 12:20:36.918094 22578 net.cpp:131] Top shape: 25 7 1 1 (175)
I0918 12:20:36.918098 22578 net.cpp:139] Memory required for data: 1332369900
I0918 12:20:36.918105 22578 layer_factory.hpp:77] Creating layer conv4_3/3x3_dwconv/SE_fc1/relu
I0918 12:20:36.918112 22578 net.cpp:86] Creating Layer conv4_3/3x3_dwconv/SE_fc1/relu
I0918 12:20:36.918128 22578 net.cpp:408] conv4_3/3x3_dwconv/SE_fc1/relu <- conv4_3/3x3_dwconv/SE_fc1
I0918 12:20:36.918134 22578 net.cpp:369] conv4_3/3x3_dwconv/SE_fc1/relu -> conv4_3/3x3_dwconv/SE_fc1 (in-place)
I0918 12:20:36.918926 22578 net.cpp:124] Setting up conv4_3/3x3_dwconv/SE_fc1/relu
I0918 12:20:36.918941 22578 net.cpp:131] Top shape: 25 7 1 1 (175)
I0918 12:20:36.918944 22578 net.cpp:139] Memory required for data: 1332370600
I0918 12:20:36.918949 22578 layer_factory.hpp:77] Creating layer conv4_3/3x3_dwconv/SE_fc2
I0918 12:20:36.918961 22578 net.cpp:86] Creating Layer conv4_3/3x3_dwconv/SE_fc2
I0918 12:20:36.918965 22578 net.cpp:408] conv4_3/3x3_dwconv/SE_fc2 <- conv4_3/3x3_dwconv/SE_fc1
I0918 12:20:36.918973 22578 net.cpp:382] conv4_3/3x3_dwconv/SE_fc2 -> conv4_3/3x3_dwconv/SE_fc2
I0918 12:20:36.919425 22578 net.cpp:124] Setting up conv4_3/3x3_dwconv/SE_fc2
I0918 12:20:36.919437 22578 net.cpp:131] Top shape: 25 120 1 1 (3000)
I0918 12:20:36.919441 22578 net.cpp:139] Memory required for data: 1332382600
I0918 12:20:36.919447 22578 layer_factory.hpp:77] Creating layer conv4_3/3x3_dwconv/SE_weights
I0918 12:20:36.919456 22578 net.cpp:86] Creating Layer conv4_3/3x3_dwconv/SE_weights
I0918 12:20:36.919461 22578 net.cpp:408] conv4_3/3x3_dwconv/SE_weights <- conv4_3/3x3_dwconv/SE_fc2
I0918 12:20:36.919467 22578 net.cpp:369] conv4_3/3x3_dwconv/SE_weights -> conv4_3/3x3_dwconv/SE_fc2 (in-place)
I0918 12:20:36.920034 22578 net.cpp:124] Setting up conv4_3/3x3_dwconv/SE_weights
I0918 12:20:36.920047 22578 net.cpp:131] Top shape: 25 120 1 1 (3000)
I0918 12:20:36.920051 22578 net.cpp:139] Memory required for data: 1332394600
I0918 12:20:36.920055 22578 layer_factory.hpp:77] Creating layer conv4_3/3x3_dwconv/SE_weights/reshape
I0918 12:20:36.920063 22578 net.cpp:86] Creating Layer conv4_3/3x3_dwconv/SE_weights/reshape
I0918 12:20:36.920068 22578 net.cpp:408] conv4_3/3x3_dwconv/SE_weights/reshape <- conv4_3/3x3_dwconv/SE_fc2
I0918 12:20:36.920075 22578 net.cpp:382] conv4_3/3x3_dwconv/SE_weights/reshape -> conv4_3/3x3_dwconv/SE_weights/reshape
I0918 12:20:36.920114 22578 net.cpp:124] Setting up conv4_3/3x3_dwconv/SE_weights/reshape
I0918 12:20:36.920120 22578 net.cpp:131] Top shape: 25 120 (3000)
I0918 12:20:36.920123 22578 net.cpp:139] Memory required for data: 1332406600
I0918 12:20:36.920128 22578 layer_factory.hpp:77] Creating layer conv4_3/3x3_dwconv/scale
I0918 12:20:36.920137 22578 net.cpp:86] Creating Layer conv4_3/3x3_dwconv/scale
I0918 12:20:36.920141 22578 net.cpp:408] conv4_3/3x3_dwconv/scale <- conv4_3/3x3_dwconv/concat_conv4_3/3x3_dwconv/concat_fixed_point_0_split_1
I0918 12:20:36.920147 22578 net.cpp:408] conv4_3/3x3_dwconv/scale <- conv4_3/3x3_dwconv/SE_weights/reshape
I0918 12:20:36.920153 22578 net.cpp:382] conv4_3/3x3_dwconv/scale -> conv4_3/3x3_dwconv/scale
I0918 12:20:36.920241 22578 net.cpp:124] Setting up conv4_3/3x3_dwconv/scale
I0918 12:20:36.920249 22578 net.cpp:131] Top shape: 25 120 28 28 (2352000)
I0918 12:20:36.920253 22578 net.cpp:139] Memory required for data: 1341814600
I0918 12:20:36.920258 22578 layer_factory.hpp:77] Creating layer conv4_3/3x3_dwconv/scale_fixed_point
I0918 12:20:36.920265 22578 net.cpp:86] Creating Layer conv4_3/3x3_dwconv/scale_fixed_point
I0918 12:20:36.920270 22578 net.cpp:408] conv4_3/3x3_dwconv/scale_fixed_point <- conv4_3/3x3_dwconv/scale
I0918 12:20:36.920276 22578 net.cpp:369] conv4_3/3x3_dwconv/scale_fixed_point -> conv4_3/3x3_dwconv/scale (in-place)
I0918 12:20:36.920306 22578 net.cpp:124] Setting up conv4_3/3x3_dwconv/scale_fixed_point
I0918 12:20:36.920312 22578 net.cpp:131] Top shape: 25 120 28 28 (2352000)
I0918 12:20:36.920316 22578 net.cpp:139] Memory required for data: 1351222600
I0918 12:20:36.920321 22578 layer_factory.hpp:77] Creating layer conv4_3/1x1_decrease
I0918 12:20:36.920332 22578 net.cpp:86] Creating Layer conv4_3/1x1_decrease
I0918 12:20:36.920337 22578 net.cpp:408] conv4_3/1x1_decrease <- conv4_3/3x3_dwconv/scale
I0918 12:20:36.920344 22578 net.cpp:382] conv4_3/1x1_decrease -> conv4_3/1x1_decrease/bn
I0918 12:20:36.921089 22578 net.cpp:124] Setting up conv4_3/1x1_decrease
I0918 12:20:36.921103 22578 net.cpp:131] Top shape: 25 40 28 28 (784000)
I0918 12:20:36.921106 22578 net.cpp:139] Memory required for data: 1354358600
I0918 12:20:36.921116 22578 layer_factory.hpp:77] Creating layer conv4_3/elt_sum
I0918 12:20:36.921124 22578 net.cpp:86] Creating Layer conv4_3/elt_sum
I0918 12:20:36.921129 22578 net.cpp:408] conv4_3/elt_sum <- conv4_2/elt_sum_conv4_2/elt_sum_fixed_point_0_split_1
I0918 12:20:36.921134 22578 net.cpp:408] conv4_3/elt_sum <- conv4_3/1x1_decrease/bn
I0918 12:20:36.921140 22578 net.cpp:382] conv4_3/elt_sum -> conv4_3/elt_sum
I0918 12:20:36.921176 22578 net.cpp:124] Setting up conv4_3/elt_sum
I0918 12:20:36.921183 22578 net.cpp:131] Top shape: 25 40 28 28 (784000)
I0918 12:20:36.921186 22578 net.cpp:139] Memory required for data: 1357494600
I0918 12:20:36.921190 22578 layer_factory.hpp:77] Creating layer conv4_3/elt_sum_fixed_point
I0918 12:20:36.921200 22578 net.cpp:86] Creating Layer conv4_3/elt_sum_fixed_point
I0918 12:20:36.921203 22578 net.cpp:408] conv4_3/elt_sum_fixed_point <- conv4_3/elt_sum
I0918 12:20:36.921208 22578 net.cpp:369] conv4_3/elt_sum_fixed_point -> conv4_3/elt_sum (in-place)
I0918 12:20:36.921238 22578 net.cpp:124] Setting up conv4_3/elt_sum_fixed_point
I0918 12:20:36.921244 22578 net.cpp:131] Top shape: 25 40 28 28 (784000)
I0918 12:20:36.921247 22578 net.cpp:139] Memory required for data: 1360630600
I0918 12:20:36.921252 22578 layer_factory.hpp:77] Creating layer conv5_0/1x1_increase
I0918 12:20:36.921263 22578 net.cpp:86] Creating Layer conv5_0/1x1_increase
I0918 12:20:36.921267 22578 net.cpp:408] conv5_0/1x1_increase <- conv4_3/elt_sum
I0918 12:20:36.921274 22578 net.cpp:382] conv5_0/1x1_increase -> conv5_0/1x1_increase/bn
I0918 12:20:36.922180 22578 net.cpp:124] Setting up conv5_0/1x1_increase
I0918 12:20:36.922194 22578 net.cpp:131] Top shape: 25 240 28 28 (4704000)
I0918 12:20:36.922197 22578 net.cpp:139] Memory required for data: 1379446600
I0918 12:20:36.922205 22578 layer_factory.hpp:77] Creating layer conv5_0/1x1_increase/hardswish
I0918 12:20:36.922212 22578 net.cpp:86] Creating Layer conv5_0/1x1_increase/hardswish
I0918 12:20:36.922217 22578 net.cpp:408] conv5_0/1x1_increase/hardswish <- conv5_0/1x1_increase/bn
I0918 12:20:36.922225 22578 net.cpp:369] conv5_0/1x1_increase/hardswish -> conv5_0/1x1_increase/bn (in-place)
I0918 12:20:36.922260 22578 net.cpp:124] Setting up conv5_0/1x1_increase/hardswish
I0918 12:20:36.922267 22578 net.cpp:131] Top shape: 25 240 28 28 (4704000)
I0918 12:20:36.922271 22578 net.cpp:139] Memory required for data: 1398262600
I0918 12:20:36.922276 22578 layer_factory.hpp:77] Creating layer conv5_0/1x1_increase/bn_fixed_point
I0918 12:20:36.922284 22578 net.cpp:86] Creating Layer conv5_0/1x1_increase/bn_fixed_point
I0918 12:20:36.922289 22578 net.cpp:408] conv5_0/1x1_increase/bn_fixed_point <- conv5_0/1x1_increase/bn
I0918 12:20:36.922296 22578 net.cpp:369] conv5_0/1x1_increase/bn_fixed_point -> conv5_0/1x1_increase/bn (in-place)
I0918 12:20:36.922324 22578 net.cpp:124] Setting up conv5_0/1x1_increase/bn_fixed_point
I0918 12:20:36.922330 22578 net.cpp:131] Top shape: 25 240 28 28 (4704000)
I0918 12:20:36.922334 22578 net.cpp:139] Memory required for data: 1417078600
I0918 12:20:36.922339 22578 layer_factory.hpp:77] Creating layer conv5_0/1x1_increase/slice
I0918 12:20:36.922348 22578 net.cpp:86] Creating Layer conv5_0/1x1_increase/slice
I0918 12:20:36.922353 22578 net.cpp:408] conv5_0/1x1_increase/slice <- conv5_0/1x1_increase/bn
I0918 12:20:36.922358 22578 net.cpp:382] conv5_0/1x1_increase/slice -> conv5_0/1x1_increase/split1
I0918 12:20:36.922366 22578 net.cpp:382] conv5_0/1x1_increase/slice -> conv5_0/1x1_increase/split2
I0918 12:20:36.922374 22578 net.cpp:382] conv5_0/1x1_increase/slice -> conv5_0/1x1_increase/split3
I0918 12:20:36.922435 22578 net.cpp:124] Setting up conv5_0/1x1_increase/slice
I0918 12:20:36.922443 22578 net.cpp:131] Top shape: 25 80 28 28 (1568000)
I0918 12:20:36.922448 22578 net.cpp:131] Top shape: 25 80 28 28 (1568000)
I0918 12:20:36.922463 22578 net.cpp:131] Top shape: 25 80 28 28 (1568000)
I0918 12:20:36.922467 22578 net.cpp:139] Memory required for data: 1435894600
I0918 12:20:36.922472 22578 layer_factory.hpp:77] Creating layer conv5_0/3x3_dwconv/slice_0
I0918 12:20:36.922483 22578 net.cpp:86] Creating Layer conv5_0/3x3_dwconv/slice_0
I0918 12:20:36.922488 22578 net.cpp:408] conv5_0/3x3_dwconv/slice_0 <- conv5_0/1x1_increase/split1
I0918 12:20:36.922497 22578 net.cpp:382] conv5_0/3x3_dwconv/slice_0 -> conv5_0/3x3_dwconv/slice_0/bn
I0918 12:20:36.923120 22578 net.cpp:124] Setting up conv5_0/3x3_dwconv/slice_0
I0918 12:20:36.923131 22578 net.cpp:131] Top shape: 25 80 14 14 (392000)
I0918 12:20:36.923136 22578 net.cpp:139] Memory required for data: 1437462600
I0918 12:20:36.923143 22578 layer_factory.hpp:77] Creating layer conv5_0/3x3_dwconv/slice_0/hardswish
I0918 12:20:36.923153 22578 net.cpp:86] Creating Layer conv5_0/3x3_dwconv/slice_0/hardswish
I0918 12:20:36.923158 22578 net.cpp:408] conv5_0/3x3_dwconv/slice_0/hardswish <- conv5_0/3x3_dwconv/slice_0/bn
I0918 12:20:36.923164 22578 net.cpp:369] conv5_0/3x3_dwconv/slice_0/hardswish -> conv5_0/3x3_dwconv/slice_0/bn (in-place)
I0918 12:20:36.923199 22578 net.cpp:124] Setting up conv5_0/3x3_dwconv/slice_0/hardswish
I0918 12:20:36.923207 22578 net.cpp:131] Top shape: 25 80 14 14 (392000)
I0918 12:20:36.923209 22578 net.cpp:139] Memory required for data: 1439030600
I0918 12:20:36.923213 22578 layer_factory.hpp:77] Creating layer conv5_0/3x3_dwconv/slice_1
I0918 12:20:36.923224 22578 net.cpp:86] Creating Layer conv5_0/3x3_dwconv/slice_1
I0918 12:20:36.923229 22578 net.cpp:408] conv5_0/3x3_dwconv/slice_1 <- conv5_0/1x1_increase/split2
I0918 12:20:36.923236 22578 net.cpp:382] conv5_0/3x3_dwconv/slice_1 -> conv5_0/3x3_dwconv/slice_1/bn
I0918 12:20:36.923914 22578 net.cpp:124] Setting up conv5_0/3x3_dwconv/slice_1
I0918 12:20:36.923926 22578 net.cpp:131] Top shape: 25 80 14 14 (392000)
I0918 12:20:36.923931 22578 net.cpp:139] Memory required for data: 1440598600
I0918 12:20:36.923938 22578 layer_factory.hpp:77] Creating layer conv5_0/3x3_dwconv/slice_1/hardswish
I0918 12:20:36.923947 22578 net.cpp:86] Creating Layer conv5_0/3x3_dwconv/slice_1/hardswish
I0918 12:20:36.923952 22578 net.cpp:408] conv5_0/3x3_dwconv/slice_1/hardswish <- conv5_0/3x3_dwconv/slice_1/bn
I0918 12:20:36.923959 22578 net.cpp:369] conv5_0/3x3_dwconv/slice_1/hardswish -> conv5_0/3x3_dwconv/slice_1/bn (in-place)
I0918 12:20:36.923995 22578 net.cpp:124] Setting up conv5_0/3x3_dwconv/slice_1/hardswish
I0918 12:20:36.924001 22578 net.cpp:131] Top shape: 25 80 14 14 (392000)
I0918 12:20:36.924005 22578 net.cpp:139] Memory required for data: 1442166600
I0918 12:20:36.924008 22578 layer_factory.hpp:77] Creating layer conv5_0/3x3_dwconv/slice_2
I0918 12:20:36.924019 22578 net.cpp:86] Creating Layer conv5_0/3x3_dwconv/slice_2
I0918 12:20:36.924023 22578 net.cpp:408] conv5_0/3x3_dwconv/slice_2 <- conv5_0/1x1_increase/split3
I0918 12:20:36.924031 22578 net.cpp:382] conv5_0/3x3_dwconv/slice_2 -> conv5_0/3x3_dwconv/slice_2/bn
I0918 12:20:36.924975 22578 net.cpp:124] Setting up conv5_0/3x3_dwconv/slice_2
I0918 12:20:36.924990 22578 net.cpp:131] Top shape: 25 80 14 14 (392000)
I0918 12:20:36.924994 22578 net.cpp:139] Memory required for data: 1443734600
I0918 12:20:36.925004 22578 layer_factory.hpp:77] Creating layer conv5_0/3x3_dwconv/slice_2/hardswish
I0918 12:20:36.925012 22578 net.cpp:86] Creating Layer conv5_0/3x3_dwconv/slice_2/hardswish
I0918 12:20:36.925017 22578 net.cpp:408] conv5_0/3x3_dwconv/slice_2/hardswish <- conv5_0/3x3_dwconv/slice_2/bn
I0918 12:20:36.925024 22578 net.cpp:369] conv5_0/3x3_dwconv/slice_2/hardswish -> conv5_0/3x3_dwconv/slice_2/bn (in-place)
I0918 12:20:36.925061 22578 net.cpp:124] Setting up conv5_0/3x3_dwconv/slice_2/hardswish
I0918 12:20:36.925067 22578 net.cpp:131] Top shape: 25 80 14 14 (392000)
I0918 12:20:36.925071 22578 net.cpp:139] Memory required for data: 1445302600
I0918 12:20:36.925074 22578 layer_factory.hpp:77] Creating layer conv5_0/3x3_dwconv/concat
I0918 12:20:36.925082 22578 net.cpp:86] Creating Layer conv5_0/3x3_dwconv/concat
I0918 12:20:36.925099 22578 net.cpp:408] conv5_0/3x3_dwconv/concat <- conv5_0/3x3_dwconv/slice_0/bn
I0918 12:20:36.925105 22578 net.cpp:408] conv5_0/3x3_dwconv/concat <- conv5_0/3x3_dwconv/slice_1/bn
I0918 12:20:36.925109 22578 net.cpp:408] conv5_0/3x3_dwconv/concat <- conv5_0/3x3_dwconv/slice_2/bn
I0918 12:20:36.925115 22578 net.cpp:382] conv5_0/3x3_dwconv/concat -> conv5_0/3x3_dwconv/concat
I0918 12:20:36.925149 22578 net.cpp:124] Setting up conv5_0/3x3_dwconv/concat
I0918 12:20:36.925155 22578 net.cpp:131] Top shape: 25 240 14 14 (1176000)
I0918 12:20:36.925159 22578 net.cpp:139] Memory required for data: 1450006600
I0918 12:20:36.925163 22578 layer_factory.hpp:77] Creating layer conv5_0/3x3_dwconv/concat_fixed_point
I0918 12:20:36.925170 22578 net.cpp:86] Creating Layer conv5_0/3x3_dwconv/concat_fixed_point
I0918 12:20:36.925174 22578 net.cpp:408] conv5_0/3x3_dwconv/concat_fixed_point <- conv5_0/3x3_dwconv/concat
I0918 12:20:36.925180 22578 net.cpp:369] conv5_0/3x3_dwconv/concat_fixed_point -> conv5_0/3x3_dwconv/concat (in-place)
I0918 12:20:36.925209 22578 net.cpp:124] Setting up conv5_0/3x3_dwconv/concat_fixed_point
I0918 12:20:36.925215 22578 net.cpp:131] Top shape: 25 240 14 14 (1176000)
I0918 12:20:36.925218 22578 net.cpp:139] Memory required for data: 1454710600
I0918 12:20:36.925223 22578 layer_factory.hpp:77] Creating layer conv5_0/3x3_dwconv/concat_conv5_0/3x3_dwconv/concat_fixed_point_0_split
I0918 12:20:36.925230 22578 net.cpp:86] Creating Layer conv5_0/3x3_dwconv/concat_conv5_0/3x3_dwconv/concat_fixed_point_0_split
I0918 12:20:36.925235 22578 net.cpp:408] conv5_0/3x3_dwconv/concat_conv5_0/3x3_dwconv/concat_fixed_point_0_split <- conv5_0/3x3_dwconv/concat
I0918 12:20:36.925240 22578 net.cpp:382] conv5_0/3x3_dwconv/concat_conv5_0/3x3_dwconv/concat_fixed_point_0_split -> conv5_0/3x3_dwconv/concat_conv5_0/3x3_dwconv/concat_fixed_point_0_split_0
I0918 12:20:36.925246 22578 net.cpp:382] conv5_0/3x3_dwconv/concat_conv5_0/3x3_dwconv/concat_fixed_point_0_split -> conv5_0/3x3_dwconv/concat_conv5_0/3x3_dwconv/concat_fixed_point_0_split_1
I0918 12:20:36.925292 22578 net.cpp:124] Setting up conv5_0/3x3_dwconv/concat_conv5_0/3x3_dwconv/concat_fixed_point_0_split
I0918 12:20:36.925299 22578 net.cpp:131] Top shape: 25 240 14 14 (1176000)
I0918 12:20:36.925304 22578 net.cpp:131] Top shape: 25 240 14 14 (1176000)
I0918 12:20:36.925307 22578 net.cpp:139] Memory required for data: 1464118600
I0918 12:20:36.925312 22578 layer_factory.hpp:77] Creating layer conv5_0/3x3_dwconv/SE_global_pool
I0918 12:20:36.925319 22578 net.cpp:86] Creating Layer conv5_0/3x3_dwconv/SE_global_pool
I0918 12:20:36.925323 22578 net.cpp:408] conv5_0/3x3_dwconv/SE_global_pool <- conv5_0/3x3_dwconv/concat_conv5_0/3x3_dwconv/concat_fixed_point_0_split_0
I0918 12:20:36.925330 22578 net.cpp:382] conv5_0/3x3_dwconv/SE_global_pool -> conv5_0/3x3_dwconv/SE_global_pool
I0918 12:20:36.925359 22578 net.cpp:124] Setting up conv5_0/3x3_dwconv/SE_global_pool
I0918 12:20:36.925365 22578 net.cpp:131] Top shape: 25 240 1 1 (6000)
I0918 12:20:36.925369 22578 net.cpp:139] Memory required for data: 1464142600
I0918 12:20:36.925372 22578 layer_factory.hpp:77] Creating layer conv5_0/3x3_dwconv/SE_bn
I0918 12:20:36.925380 22578 net.cpp:86] Creating Layer conv5_0/3x3_dwconv/SE_bn
I0918 12:20:36.925384 22578 net.cpp:408] conv5_0/3x3_dwconv/SE_bn <- conv5_0/3x3_dwconv/SE_global_pool
I0918 12:20:36.925390 22578 net.cpp:382] conv5_0/3x3_dwconv/SE_bn -> conv5_0/3x3_dwconv/SE_bn
I0918 12:20:36.925441 22578 layer_factory.hpp:77] Creating layer conv5_0/3x3_dwconv/SE_bn
I0918 12:20:36.925585 22578 net.cpp:124] Setting up conv5_0/3x3_dwconv/SE_bn
I0918 12:20:36.925592 22578 net.cpp:131] Top shape: 25 240 1 1 (6000)
I0918 12:20:36.925596 22578 net.cpp:139] Memory required for data: 1464166600
I0918 12:20:36.925602 22578 layer_factory.hpp:77] Creating layer conv5_0/3x3_dwconv/SE_fc1
I0918 12:20:36.925614 22578 net.cpp:86] Creating Layer conv5_0/3x3_dwconv/SE_fc1
I0918 12:20:36.925619 22578 net.cpp:408] conv5_0/3x3_dwconv/SE_fc1 <- conv5_0/3x3_dwconv/SE_bn
I0918 12:20:36.925633 22578 net.cpp:382] conv5_0/3x3_dwconv/SE_fc1 -> conv5_0/3x3_dwconv/SE_fc1
I0918 12:20:36.926167 22578 net.cpp:124] Setting up conv5_0/3x3_dwconv/SE_fc1
I0918 12:20:36.926179 22578 net.cpp:131] Top shape: 25 15 1 1 (375)
I0918 12:20:36.926183 22578 net.cpp:139] Memory required for data: 1464168100
I0918 12:20:36.926189 22578 layer_factory.hpp:77] Creating layer conv5_0/3x3_dwconv/SE_fc1/relu
I0918 12:20:36.926198 22578 net.cpp:86] Creating Layer conv5_0/3x3_dwconv/SE_fc1/relu
I0918 12:20:36.926203 22578 net.cpp:408] conv5_0/3x3_dwconv/SE_fc1/relu <- conv5_0/3x3_dwconv/SE_fc1
I0918 12:20:36.926210 22578 net.cpp:369] conv5_0/3x3_dwconv/SE_fc1/relu -> conv5_0/3x3_dwconv/SE_fc1 (in-place)
I0918 12:20:36.926784 22578 net.cpp:124] Setting up conv5_0/3x3_dwconv/SE_fc1/relu
I0918 12:20:36.926795 22578 net.cpp:131] Top shape: 25 15 1 1 (375)
I0918 12:20:36.926800 22578 net.cpp:139] Memory required for data: 1464169600
I0918 12:20:36.926808 22578 layer_factory.hpp:77] Creating layer conv5_0/3x3_dwconv/SE_fc2
I0918 12:20:36.926820 22578 net.cpp:86] Creating Layer conv5_0/3x3_dwconv/SE_fc2
I0918 12:20:36.926826 22578 net.cpp:408] conv5_0/3x3_dwconv/SE_fc2 <- conv5_0/3x3_dwconv/SE_fc1
I0918 12:20:36.926833 22578 net.cpp:382] conv5_0/3x3_dwconv/SE_fc2 -> conv5_0/3x3_dwconv/SE_fc2
I0918 12:20:36.927346 22578 net.cpp:124] Setting up conv5_0/3x3_dwconv/SE_fc2
I0918 12:20:36.927358 22578 net.cpp:131] Top shape: 25 240 1 1 (6000)
I0918 12:20:36.927362 22578 net.cpp:139] Memory required for data: 1464193600
I0918 12:20:36.927368 22578 layer_factory.hpp:77] Creating layer conv5_0/3x3_dwconv/SE_weights
I0918 12:20:36.927376 22578 net.cpp:86] Creating Layer conv5_0/3x3_dwconv/SE_weights
I0918 12:20:36.927379 22578 net.cpp:408] conv5_0/3x3_dwconv/SE_weights <- conv5_0/3x3_dwconv/SE_fc2
I0918 12:20:36.927386 22578 net.cpp:369] conv5_0/3x3_dwconv/SE_weights -> conv5_0/3x3_dwconv/SE_fc2 (in-place)
I0918 12:20:36.928176 22578 net.cpp:124] Setting up conv5_0/3x3_dwconv/SE_weights
I0918 12:20:36.928191 22578 net.cpp:131] Top shape: 25 240 1 1 (6000)
I0918 12:20:36.928196 22578 net.cpp:139] Memory required for data: 1464217600
I0918 12:20:36.928200 22578 layer_factory.hpp:77] Creating layer conv5_0/3x3_dwconv/SE_weights/reshape
I0918 12:20:36.928211 22578 net.cpp:86] Creating Layer conv5_0/3x3_dwconv/SE_weights/reshape
I0918 12:20:36.928216 22578 net.cpp:408] conv5_0/3x3_dwconv/SE_weights/reshape <- conv5_0/3x3_dwconv/SE_fc2
I0918 12:20:36.928225 22578 net.cpp:382] conv5_0/3x3_dwconv/SE_weights/reshape -> conv5_0/3x3_dwconv/SE_weights/reshape
I0918 12:20:36.928263 22578 net.cpp:124] Setting up conv5_0/3x3_dwconv/SE_weights/reshape
I0918 12:20:36.928270 22578 net.cpp:131] Top shape: 25 240 (6000)
I0918 12:20:36.928274 22578 net.cpp:139] Memory required for data: 1464241600
I0918 12:20:36.928279 22578 layer_factory.hpp:77] Creating layer conv5_0/3x3_dwconv/scale
I0918 12:20:36.928287 22578 net.cpp:86] Creating Layer conv5_0/3x3_dwconv/scale
I0918 12:20:36.928292 22578 net.cpp:408] conv5_0/3x3_dwconv/scale <- conv5_0/3x3_dwconv/concat_conv5_0/3x3_dwconv/concat_fixed_point_0_split_1
I0918 12:20:36.928297 22578 net.cpp:408] conv5_0/3x3_dwconv/scale <- conv5_0/3x3_dwconv/SE_weights/reshape
I0918 12:20:36.928303 22578 net.cpp:382] conv5_0/3x3_dwconv/scale -> conv5_0/3x3_dwconv/scale
I0918 12:20:36.928387 22578 net.cpp:124] Setting up conv5_0/3x3_dwconv/scale
I0918 12:20:36.928395 22578 net.cpp:131] Top shape: 25 240 14 14 (1176000)
I0918 12:20:36.928400 22578 net.cpp:139] Memory required for data: 1468945600
I0918 12:20:36.928402 22578 layer_factory.hpp:77] Creating layer conv5_0/3x3_dwconv/scale_fixed_point
I0918 12:20:36.928411 22578 net.cpp:86] Creating Layer conv5_0/3x3_dwconv/scale_fixed_point
I0918 12:20:36.928416 22578 net.cpp:408] conv5_0/3x3_dwconv/scale_fixed_point <- conv5_0/3x3_dwconv/scale
I0918 12:20:36.928421 22578 net.cpp:369] conv5_0/3x3_dwconv/scale_fixed_point -> conv5_0/3x3_dwconv/scale (in-place)
I0918 12:20:36.928449 22578 net.cpp:124] Setting up conv5_0/3x3_dwconv/scale_fixed_point
I0918 12:20:36.928457 22578 net.cpp:131] Top shape: 25 240 14 14 (1176000)
I0918 12:20:36.928474 22578 net.cpp:139] Memory required for data: 1473649600
I0918 12:20:36.928480 22578 layer_factory.hpp:77] Creating layer conv5_0/1x1_decrease
I0918 12:20:36.928493 22578 net.cpp:86] Creating Layer conv5_0/1x1_decrease
I0918 12:20:36.928498 22578 net.cpp:408] conv5_0/1x1_decrease <- conv5_0/3x3_dwconv/scale
I0918 12:20:36.928505 22578 net.cpp:382] conv5_0/1x1_decrease -> conv5_0/1x1_decrease/bn
I0918 12:20:36.930853 22578 net.cpp:124] Setting up conv5_0/1x1_decrease
I0918 12:20:36.930869 22578 net.cpp:131] Top shape: 25 80 14 14 (392000)
I0918 12:20:36.930873 22578 net.cpp:139] Memory required for data: 1475217600
I0918 12:20:36.930881 22578 layer_factory.hpp:77] Creating layer conv5_0/1x1_decrease/bn_fixed_point
I0918 12:20:36.930892 22578 net.cpp:86] Creating Layer conv5_0/1x1_decrease/bn_fixed_point
I0918 12:20:36.930898 22578 net.cpp:408] conv5_0/1x1_decrease/bn_fixed_point <- conv5_0/1x1_decrease/bn
I0918 12:20:36.930905 22578 net.cpp:369] conv5_0/1x1_decrease/bn_fixed_point -> conv5_0/1x1_decrease/bn (in-place)
I0918 12:20:36.930943 22578 net.cpp:124] Setting up conv5_0/1x1_decrease/bn_fixed_point
I0918 12:20:36.930949 22578 net.cpp:131] Top shape: 25 80 14 14 (392000)
I0918 12:20:36.930953 22578 net.cpp:139] Memory required for data: 1476785600
I0918 12:20:36.930958 22578 layer_factory.hpp:77] Creating layer conv5_0/1x1_decrease/bn_conv5_0/1x1_decrease/bn_fixed_point_0_split
I0918 12:20:36.930964 22578 net.cpp:86] Creating Layer conv5_0/1x1_decrease/bn_conv5_0/1x1_decrease/bn_fixed_point_0_split
I0918 12:20:36.930968 22578 net.cpp:408] conv5_0/1x1_decrease/bn_conv5_0/1x1_decrease/bn_fixed_point_0_split <- conv5_0/1x1_decrease/bn
I0918 12:20:36.930975 22578 net.cpp:382] conv5_0/1x1_decrease/bn_conv5_0/1x1_decrease/bn_fixed_point_0_split -> conv5_0/1x1_decrease/bn_conv5_0/1x1_decrease/bn_fixed_point_0_split_0
I0918 12:20:36.930984 22578 net.cpp:382] conv5_0/1x1_decrease/bn_conv5_0/1x1_decrease/bn_fixed_point_0_split -> conv5_0/1x1_decrease/bn_conv5_0/1x1_decrease/bn_fixed_point_0_split_1
I0918 12:20:36.931030 22578 net.cpp:124] Setting up conv5_0/1x1_decrease/bn_conv5_0/1x1_decrease/bn_fixed_point_0_split
I0918 12:20:36.931036 22578 net.cpp:131] Top shape: 25 80 14 14 (392000)
I0918 12:20:36.931041 22578 net.cpp:131] Top shape: 25 80 14 14 (392000)
I0918 12:20:36.931044 22578 net.cpp:139] Memory required for data: 1479921600
I0918 12:20:36.931048 22578 layer_factory.hpp:77] Creating layer conv5_1/1x1_increase
I0918 12:20:36.931059 22578 net.cpp:86] Creating Layer conv5_1/1x1_increase
I0918 12:20:36.931064 22578 net.cpp:408] conv5_1/1x1_increase <- conv5_0/1x1_decrease/bn_conv5_0/1x1_decrease/bn_fixed_point_0_split_0
I0918 12:20:36.931071 22578 net.cpp:382] conv5_1/1x1_increase -> conv5_1/1x1_increase/bn
I0918 12:20:36.932263 22578 net.cpp:124] Setting up conv5_1/1x1_increase
I0918 12:20:36.932276 22578 net.cpp:131] Top shape: 25 240 14 14 (1176000)
I0918 12:20:36.932281 22578 net.cpp:139] Memory required for data: 1484625600
I0918 12:20:36.932287 22578 layer_factory.hpp:77] Creating layer conv5_1/1x1_increase/hardswish
I0918 12:20:36.932297 22578 net.cpp:86] Creating Layer conv5_1/1x1_increase/hardswish
I0918 12:20:36.932302 22578 net.cpp:408] conv5_1/1x1_increase/hardswish <- conv5_1/1x1_increase/bn
I0918 12:20:36.932308 22578 net.cpp:369] conv5_1/1x1_increase/hardswish -> conv5_1/1x1_increase/bn (in-place)
I0918 12:20:36.932344 22578 net.cpp:124] Setting up conv5_1/1x1_increase/hardswish
I0918 12:20:36.932350 22578 net.cpp:131] Top shape: 25 240 14 14 (1176000)
I0918 12:20:36.932354 22578 net.cpp:139] Memory required for data: 1489329600
I0918 12:20:36.932359 22578 layer_factory.hpp:77] Creating layer conv5_1/1x1_increase/bn_fixed_point
I0918 12:20:36.932366 22578 net.cpp:86] Creating Layer conv5_1/1x1_increase/bn_fixed_point
I0918 12:20:36.932371 22578 net.cpp:408] conv5_1/1x1_increase/bn_fixed_point <- conv5_1/1x1_increase/bn
I0918 12:20:36.932377 22578 net.cpp:369] conv5_1/1x1_increase/bn_fixed_point -> conv5_1/1x1_increase/bn (in-place)
I0918 12:20:36.932423 22578 net.cpp:124] Setting up conv5_1/1x1_increase/bn_fixed_point
I0918 12:20:36.932430 22578 net.cpp:131] Top shape: 25 240 14 14 (1176000)
I0918 12:20:36.932433 22578 net.cpp:139] Memory required for data: 1494033600
I0918 12:20:36.932438 22578 layer_factory.hpp:77] Creating layer conv5_1/1x1_increase/slice
I0918 12:20:36.932446 22578 net.cpp:86] Creating Layer conv5_1/1x1_increase/slice
I0918 12:20:36.932451 22578 net.cpp:408] conv5_1/1x1_increase/slice <- conv5_1/1x1_increase/bn
I0918 12:20:36.932456 22578 net.cpp:382] conv5_1/1x1_increase/slice -> conv5_1/1x1_increase/split1
I0918 12:20:36.932466 22578 net.cpp:382] conv5_1/1x1_increase/slice -> conv5_1/1x1_increase/split2
I0918 12:20:36.932512 22578 net.cpp:124] Setting up conv5_1/1x1_increase/slice
I0918 12:20:36.932518 22578 net.cpp:131] Top shape: 25 120 14 14 (588000)
I0918 12:20:36.932523 22578 net.cpp:131] Top shape: 25 120 14 14 (588000)
I0918 12:20:36.932526 22578 net.cpp:139] Memory required for data: 1498737600
I0918 12:20:36.932530 22578 layer_factory.hpp:77] Creating layer conv5_1/3x3_dwconv/slice_0
I0918 12:20:36.932543 22578 net.cpp:86] Creating Layer conv5_1/3x3_dwconv/slice_0
I0918 12:20:36.932548 22578 net.cpp:408] conv5_1/3x3_dwconv/slice_0 <- conv5_1/1x1_increase/split1
I0918 12:20:36.932555 22578 net.cpp:382] conv5_1/3x3_dwconv/slice_0 -> conv5_1/3x3_dwconv/slice_0/bn
I0918 12:20:36.933202 22578 net.cpp:124] Setting up conv5_1/3x3_dwconv/slice_0
I0918 12:20:36.933215 22578 net.cpp:131] Top shape: 25 120 14 14 (588000)
I0918 12:20:36.933220 22578 net.cpp:139] Memory required for data: 1501089600
I0918 12:20:36.933228 22578 layer_factory.hpp:77] Creating layer conv5_1/3x3_dwconv/slice_0/hardswish
I0918 12:20:36.933240 22578 net.cpp:86] Creating Layer conv5_1/3x3_dwconv/slice_0/hardswish
I0918 12:20:36.933245 22578 net.cpp:408] conv5_1/3x3_dwconv/slice_0/hardswish <- conv5_1/3x3_dwconv/slice_0/bn
I0918 12:20:36.933251 22578 net.cpp:369] conv5_1/3x3_dwconv/slice_0/hardswish -> conv5_1/3x3_dwconv/slice_0/bn (in-place)
I0918 12:20:36.933286 22578 net.cpp:124] Setting up conv5_1/3x3_dwconv/slice_0/hardswish
I0918 12:20:36.933292 22578 net.cpp:131] Top shape: 25 120 14 14 (588000)
I0918 12:20:36.933296 22578 net.cpp:139] Memory required for data: 1503441600
I0918 12:20:36.933301 22578 layer_factory.hpp:77] Creating layer conv5_1/3x3_dwconv/slice_1
I0918 12:20:36.933313 22578 net.cpp:86] Creating Layer conv5_1/3x3_dwconv/slice_1
I0918 12:20:36.933318 22578 net.cpp:408] conv5_1/3x3_dwconv/slice_1 <- conv5_1/1x1_increase/split2
I0918 12:20:36.933326 22578 net.cpp:382] conv5_1/3x3_dwconv/slice_1 -> conv5_1/3x3_dwconv/slice_1/bn
I0918 12:20:36.934217 22578 net.cpp:124] Setting up conv5_1/3x3_dwconv/slice_1
I0918 12:20:36.934232 22578 net.cpp:131] Top shape: 25 120 14 14 (588000)
I0918 12:20:36.934237 22578 net.cpp:139] Memory required for data: 1505793600
I0918 12:20:36.934245 22578 layer_factory.hpp:77] Creating layer conv5_1/3x3_dwconv/slice_1/hardswish
I0918 12:20:36.934255 22578 net.cpp:86] Creating Layer conv5_1/3x3_dwconv/slice_1/hardswish
I0918 12:20:36.934262 22578 net.cpp:408] conv5_1/3x3_dwconv/slice_1/hardswish <- conv5_1/3x3_dwconv/slice_1/bn
I0918 12:20:36.934267 22578 net.cpp:369] conv5_1/3x3_dwconv/slice_1/hardswish -> conv5_1/3x3_dwconv/slice_1/bn (in-place)
I0918 12:20:36.934310 22578 net.cpp:124] Setting up conv5_1/3x3_dwconv/slice_1/hardswish
I0918 12:20:36.934316 22578 net.cpp:131] Top shape: 25 120 14 14 (588000)
I0918 12:20:36.934320 22578 net.cpp:139] Memory required for data: 1508145600
I0918 12:20:36.934324 22578 layer_factory.hpp:77] Creating layer conv5_1/3x3_dwconv/concat
I0918 12:20:36.934330 22578 net.cpp:86] Creating Layer conv5_1/3x3_dwconv/concat
I0918 12:20:36.934334 22578 net.cpp:408] conv5_1/3x3_dwconv/concat <- conv5_1/3x3_dwconv/slice_0/bn
I0918 12:20:36.934340 22578 net.cpp:408] conv5_1/3x3_dwconv/concat <- conv5_1/3x3_dwconv/slice_1/bn
I0918 12:20:36.934347 22578 net.cpp:382] conv5_1/3x3_dwconv/concat -> conv5_1/3x3_dwconv/concat
I0918 12:20:36.934378 22578 net.cpp:124] Setting up conv5_1/3x3_dwconv/concat
I0918 12:20:36.934397 22578 net.cpp:131] Top shape: 25 240 14 14 (1176000)
I0918 12:20:36.934401 22578 net.cpp:139] Memory required for data: 1512849600
I0918 12:20:36.934404 22578 layer_factory.hpp:77] Creating layer conv5_1/3x3_dwconv/concat_fixed_point
I0918 12:20:36.934418 22578 net.cpp:86] Creating Layer conv5_1/3x3_dwconv/concat_fixed_point
I0918 12:20:36.934422 22578 net.cpp:408] conv5_1/3x3_dwconv/concat_fixed_point <- conv5_1/3x3_dwconv/concat
I0918 12:20:36.934428 22578 net.cpp:369] conv5_1/3x3_dwconv/concat_fixed_point -> conv5_1/3x3_dwconv/concat (in-place)
I0918 12:20:36.934459 22578 net.cpp:124] Setting up conv5_1/3x3_dwconv/concat_fixed_point
I0918 12:20:36.934479 22578 net.cpp:131] Top shape: 25 240 14 14 (1176000)
I0918 12:20:36.934484 22578 net.cpp:139] Memory required for data: 1517553600
I0918 12:20:36.934489 22578 layer_factory.hpp:77] Creating layer conv5_1/3x3_dwconv/concat_conv5_1/3x3_dwconv/concat_fixed_point_0_split
I0918 12:20:36.934496 22578 net.cpp:86] Creating Layer conv5_1/3x3_dwconv/concat_conv5_1/3x3_dwconv/concat_fixed_point_0_split
I0918 12:20:36.934501 22578 net.cpp:408] conv5_1/3x3_dwconv/concat_conv5_1/3x3_dwconv/concat_fixed_point_0_split <- conv5_1/3x3_dwconv/concat
I0918 12:20:36.934507 22578 net.cpp:382] conv5_1/3x3_dwconv/concat_conv5_1/3x3_dwconv/concat_fixed_point_0_split -> conv5_1/3x3_dwconv/concat_conv5_1/3x3_dwconv/concat_fixed_point_0_split_0
I0918 12:20:36.934514 22578 net.cpp:382] conv5_1/3x3_dwconv/concat_conv5_1/3x3_dwconv/concat_fixed_point_0_split -> conv5_1/3x3_dwconv/concat_conv5_1/3x3_dwconv/concat_fixed_point_0_split_1
I0918 12:20:36.934566 22578 net.cpp:124] Setting up conv5_1/3x3_dwconv/concat_conv5_1/3x3_dwconv/concat_fixed_point_0_split
I0918 12:20:36.934573 22578 net.cpp:131] Top shape: 25 240 14 14 (1176000)
I0918 12:20:36.934578 22578 net.cpp:131] Top shape: 25 240 14 14 (1176000)
I0918 12:20:36.934581 22578 net.cpp:139] Memory required for data: 1526961600
I0918 12:20:36.934586 22578 layer_factory.hpp:77] Creating layer conv5_1/3x3_dwconv/SE_global_pool
I0918 12:20:36.934593 22578 net.cpp:86] Creating Layer conv5_1/3x3_dwconv/SE_global_pool
I0918 12:20:36.934598 22578 net.cpp:408] conv5_1/3x3_dwconv/SE_global_pool <- conv5_1/3x3_dwconv/concat_conv5_1/3x3_dwconv/concat_fixed_point_0_split_0
I0918 12:20:36.934604 22578 net.cpp:382] conv5_1/3x3_dwconv/SE_global_pool -> conv5_1/3x3_dwconv/SE_global_pool
I0918 12:20:36.934633 22578 net.cpp:124] Setting up conv5_1/3x3_dwconv/SE_global_pool
I0918 12:20:36.934638 22578 net.cpp:131] Top shape: 25 240 1 1 (6000)
I0918 12:20:36.934643 22578 net.cpp:139] Memory required for data: 1526985600
I0918 12:20:36.934645 22578 layer_factory.hpp:77] Creating layer conv5_1/3x3_dwconv/SE_bn
I0918 12:20:36.934653 22578 net.cpp:86] Creating Layer conv5_1/3x3_dwconv/SE_bn
I0918 12:20:36.934657 22578 net.cpp:408] conv5_1/3x3_dwconv/SE_bn <- conv5_1/3x3_dwconv/SE_global_pool
I0918 12:20:36.934664 22578 net.cpp:382] conv5_1/3x3_dwconv/SE_bn -> conv5_1/3x3_dwconv/SE_bn
I0918 12:20:36.934715 22578 layer_factory.hpp:77] Creating layer conv5_1/3x3_dwconv/SE_bn
I0918 12:20:36.934878 22578 net.cpp:124] Setting up conv5_1/3x3_dwconv/SE_bn
I0918 12:20:36.934888 22578 net.cpp:131] Top shape: 25 240 1 1 (6000)
I0918 12:20:36.934892 22578 net.cpp:139] Memory required for data: 1527009600
I0918 12:20:36.934898 22578 layer_factory.hpp:77] Creating layer conv5_1/3x3_dwconv/SE_fc1
I0918 12:20:36.934911 22578 net.cpp:86] Creating Layer conv5_1/3x3_dwconv/SE_fc1
I0918 12:20:36.934916 22578 net.cpp:408] conv5_1/3x3_dwconv/SE_fc1 <- conv5_1/3x3_dwconv/SE_bn
I0918 12:20:36.934922 22578 net.cpp:382] conv5_1/3x3_dwconv/SE_fc1 -> conv5_1/3x3_dwconv/SE_fc1
I0918 12:20:36.935461 22578 net.cpp:124] Setting up conv5_1/3x3_dwconv/SE_fc1
I0918 12:20:36.935473 22578 net.cpp:131] Top shape: 25 15 1 1 (375)
I0918 12:20:36.935477 22578 net.cpp:139] Memory required for data: 1527011100
I0918 12:20:36.935483 22578 layer_factory.hpp:77] Creating layer conv5_1/3x3_dwconv/SE_fc1/relu
I0918 12:20:36.935492 22578 net.cpp:86] Creating Layer conv5_1/3x3_dwconv/SE_fc1/relu
I0918 12:20:36.935508 22578 net.cpp:408] conv5_1/3x3_dwconv/SE_fc1/relu <- conv5_1/3x3_dwconv/SE_fc1
I0918 12:20:36.935514 22578 net.cpp:369] conv5_1/3x3_dwconv/SE_fc1/relu -> conv5_1/3x3_dwconv/SE_fc1 (in-place)
I0918 12:20:36.936216 22578 net.cpp:124] Setting up conv5_1/3x3_dwconv/SE_fc1/relu
I0918 12:20:36.936229 22578 net.cpp:131] Top shape: 25 15 1 1 (375)
I0918 12:20:36.936233 22578 net.cpp:139] Memory required for data: 1527012600
I0918 12:20:36.936237 22578 layer_factory.hpp:77] Creating layer conv5_1/3x3_dwconv/SE_fc2
I0918 12:20:36.936251 22578 net.cpp:86] Creating Layer conv5_1/3x3_dwconv/SE_fc2
I0918 12:20:36.936255 22578 net.cpp:408] conv5_1/3x3_dwconv/SE_fc2 <- conv5_1/3x3_dwconv/SE_fc1
I0918 12:20:36.936264 22578 net.cpp:382] conv5_1/3x3_dwconv/SE_fc2 -> conv5_1/3x3_dwconv/SE_fc2
I0918 12:20:36.936830 22578 net.cpp:124] Setting up conv5_1/3x3_dwconv/SE_fc2
I0918 12:20:36.936842 22578 net.cpp:131] Top shape: 25 240 1 1 (6000)
I0918 12:20:36.936846 22578 net.cpp:139] Memory required for data: 1527036600
I0918 12:20:36.936852 22578 layer_factory.hpp:77] Creating layer conv5_1/3x3_dwconv/SE_weights
I0918 12:20:36.936859 22578 net.cpp:86] Creating Layer conv5_1/3x3_dwconv/SE_weights
I0918 12:20:36.936864 22578 net.cpp:408] conv5_1/3x3_dwconv/SE_weights <- conv5_1/3x3_dwconv/SE_fc2
I0918 12:20:36.936870 22578 net.cpp:369] conv5_1/3x3_dwconv/SE_weights -> conv5_1/3x3_dwconv/SE_fc2 (in-place)
I0918 12:20:36.937583 22578 net.cpp:124] Setting up conv5_1/3x3_dwconv/SE_weights
I0918 12:20:36.937600 22578 net.cpp:131] Top shape: 25 240 1 1 (6000)
I0918 12:20:36.937605 22578 net.cpp:139] Memory required for data: 1527060600
I0918 12:20:36.937610 22578 layer_factory.hpp:77] Creating layer conv5_1/3x3_dwconv/SE_weights/reshape
I0918 12:20:36.937618 22578 net.cpp:86] Creating Layer conv5_1/3x3_dwconv/SE_weights/reshape
I0918 12:20:36.937623 22578 net.cpp:408] conv5_1/3x3_dwconv/SE_weights/reshape <- conv5_1/3x3_dwconv/SE_fc2
I0918 12:20:36.937629 22578 net.cpp:382] conv5_1/3x3_dwconv/SE_weights/reshape -> conv5_1/3x3_dwconv/SE_weights/reshape
I0918 12:20:36.937669 22578 net.cpp:124] Setting up conv5_1/3x3_dwconv/SE_weights/reshape
I0918 12:20:36.937676 22578 net.cpp:131] Top shape: 25 240 (6000)
I0918 12:20:36.937680 22578 net.cpp:139] Memory required for data: 1527084600
I0918 12:20:36.937683 22578 layer_factory.hpp:77] Creating layer conv5_1/3x3_dwconv/scale
I0918 12:20:36.937691 22578 net.cpp:86] Creating Layer conv5_1/3x3_dwconv/scale
I0918 12:20:36.937695 22578 net.cpp:408] conv5_1/3x3_dwconv/scale <- conv5_1/3x3_dwconv/concat_conv5_1/3x3_dwconv/concat_fixed_point_0_split_1
I0918 12:20:36.937701 22578 net.cpp:408] conv5_1/3x3_dwconv/scale <- conv5_1/3x3_dwconv/SE_weights/reshape
I0918 12:20:36.937706 22578 net.cpp:382] conv5_1/3x3_dwconv/scale -> conv5_1/3x3_dwconv/scale
I0918 12:20:36.937796 22578 net.cpp:124] Setting up conv5_1/3x3_dwconv/scale
I0918 12:20:36.937810 22578 net.cpp:131] Top shape: 25 240 14 14 (1176000)
I0918 12:20:36.937814 22578 net.cpp:139] Memory required for data: 1531788600
I0918 12:20:36.937819 22578 layer_factory.hpp:77] Creating layer conv5_1/3x3_dwconv/scale_fixed_point
I0918 12:20:36.937826 22578 net.cpp:86] Creating Layer conv5_1/3x3_dwconv/scale_fixed_point
I0918 12:20:36.937830 22578 net.cpp:408] conv5_1/3x3_dwconv/scale_fixed_point <- conv5_1/3x3_dwconv/scale
I0918 12:20:36.937837 22578 net.cpp:369] conv5_1/3x3_dwconv/scale_fixed_point -> conv5_1/3x3_dwconv/scale (in-place)
I0918 12:20:36.937868 22578 net.cpp:124] Setting up conv5_1/3x3_dwconv/scale_fixed_point
I0918 12:20:36.937882 22578 net.cpp:131] Top shape: 25 240 14 14 (1176000)
I0918 12:20:36.937886 22578 net.cpp:139] Memory required for data: 1536492600
I0918 12:20:36.937891 22578 layer_factory.hpp:77] Creating layer conv5_1/1x1_decrease
I0918 12:20:36.937901 22578 net.cpp:86] Creating Layer conv5_1/1x1_decrease
I0918 12:20:36.937906 22578 net.cpp:408] conv5_1/1x1_decrease <- conv5_1/3x3_dwconv/scale
I0918 12:20:36.937914 22578 net.cpp:382] conv5_1/1x1_decrease -> conv5_1/1x1_decrease/bn
I0918 12:20:36.939076 22578 net.cpp:124] Setting up conv5_1/1x1_decrease
I0918 12:20:36.939100 22578 net.cpp:131] Top shape: 25 80 14 14 (392000)
I0918 12:20:36.939105 22578 net.cpp:139] Memory required for data: 1538060600
I0918 12:20:36.939113 22578 layer_factory.hpp:77] Creating layer conv5_1/elt_sum
I0918 12:20:36.939121 22578 net.cpp:86] Creating Layer conv5_1/elt_sum
I0918 12:20:36.939124 22578 net.cpp:408] conv5_1/elt_sum <- conv5_0/1x1_decrease/bn_conv5_0/1x1_decrease/bn_fixed_point_0_split_1
I0918 12:20:36.939132 22578 net.cpp:408] conv5_1/elt_sum <- conv5_1/1x1_decrease/bn
I0918 12:20:36.939138 22578 net.cpp:382] conv5_1/elt_sum -> conv5_1/elt_sum
I0918 12:20:36.939174 22578 net.cpp:124] Setting up conv5_1/elt_sum
I0918 12:20:36.939180 22578 net.cpp:131] Top shape: 25 80 14 14 (392000)
I0918 12:20:36.939183 22578 net.cpp:139] Memory required for data: 1539628600
I0918 12:20:36.939186 22578 layer_factory.hpp:77] Creating layer conv5_1/elt_sum_fixed_point
I0918 12:20:36.939195 22578 net.cpp:86] Creating Layer conv5_1/elt_sum_fixed_point
I0918 12:20:36.939199 22578 net.cpp:408] conv5_1/elt_sum_fixed_point <- conv5_1/elt_sum
I0918 12:20:36.939205 22578 net.cpp:369] conv5_1/elt_sum_fixed_point -> conv5_1/elt_sum (in-place)
I0918 12:20:36.939234 22578 net.cpp:124] Setting up conv5_1/elt_sum_fixed_point
I0918 12:20:36.939241 22578 net.cpp:131] Top shape: 25 80 14 14 (392000)
I0918 12:20:36.939244 22578 net.cpp:139] Memory required for data: 1541196600
I0918 12:20:36.939249 22578 layer_factory.hpp:77] Creating layer conv5_1/elt_sum_conv5_1/elt_sum_fixed_point_0_split
I0918 12:20:36.939256 22578 net.cpp:86] Creating Layer conv5_1/elt_sum_conv5_1/elt_sum_fixed_point_0_split
I0918 12:20:36.939260 22578 net.cpp:408] conv5_1/elt_sum_conv5_1/elt_sum_fixed_point_0_split <- conv5_1/elt_sum
I0918 12:20:36.939265 22578 net.cpp:382] conv5_1/elt_sum_conv5_1/elt_sum_fixed_point_0_split -> conv5_1/elt_sum_conv5_1/elt_sum_fixed_point_0_split_0
I0918 12:20:36.939272 22578 net.cpp:382] conv5_1/elt_sum_conv5_1/elt_sum_fixed_point_0_split -> conv5_1/elt_sum_conv5_1/elt_sum_fixed_point_0_split_1
I0918 12:20:36.939319 22578 net.cpp:124] Setting up conv5_1/elt_sum_conv5_1/elt_sum_fixed_point_0_split
I0918 12:20:36.939327 22578 net.cpp:131] Top shape: 25 80 14 14 (392000)
I0918 12:20:36.939332 22578 net.cpp:131] Top shape: 25 80 14 14 (392000)
I0918 12:20:36.939334 22578 net.cpp:139] Memory required for data: 1544332600
I0918 12:20:36.939339 22578 layer_factory.hpp:77] Creating layer conv5_2/1x1_increase
I0918 12:20:36.939350 22578 net.cpp:86] Creating Layer conv5_2/1x1_increase
I0918 12:20:36.939355 22578 net.cpp:408] conv5_2/1x1_increase <- conv5_1/elt_sum_conv5_1/elt_sum_fixed_point_0_split_0
I0918 12:20:36.939363 22578 net.cpp:382] conv5_2/1x1_increase -> conv5_2/1x1_increase/bn
I0918 12:20:36.940760 22578 net.cpp:124] Setting up conv5_2/1x1_increase
I0918 12:20:36.940774 22578 net.cpp:131] Top shape: 25 240 14 14 (1176000)
I0918 12:20:36.940778 22578 net.cpp:139] Memory required for data: 1549036600
I0918 12:20:36.940800 22578 layer_factory.hpp:77] Creating layer conv5_2/1x1_increase/hardswish
I0918 12:20:36.940814 22578 net.cpp:86] Creating Layer conv5_2/1x1_increase/hardswish
I0918 12:20:36.940819 22578 net.cpp:408] conv5_2/1x1_increase/hardswish <- conv5_2/1x1_increase/bn
I0918 12:20:36.940826 22578 net.cpp:369] conv5_2/1x1_increase/hardswish -> conv5_2/1x1_increase/bn (in-place)
I0918 12:20:36.940865 22578 net.cpp:124] Setting up conv5_2/1x1_increase/hardswish
I0918 12:20:36.940871 22578 net.cpp:131] Top shape: 25 240 14 14 (1176000)
I0918 12:20:36.940876 22578 net.cpp:139] Memory required for data: 1553740600
I0918 12:20:36.940878 22578 layer_factory.hpp:77] Creating layer conv5_2/1x1_increase/bn_fixed_point
I0918 12:20:36.940887 22578 net.cpp:86] Creating Layer conv5_2/1x1_increase/bn_fixed_point
I0918 12:20:36.940891 22578 net.cpp:408] conv5_2/1x1_increase/bn_fixed_point <- conv5_2/1x1_increase/bn
I0918 12:20:36.940896 22578 net.cpp:369] conv5_2/1x1_increase/bn_fixed_point -> conv5_2/1x1_increase/bn (in-place)
I0918 12:20:36.940932 22578 net.cpp:124] Setting up conv5_2/1x1_increase/bn_fixed_point
I0918 12:20:36.940951 22578 net.cpp:131] Top shape: 25 240 14 14 (1176000)
I0918 12:20:36.940955 22578 net.cpp:139] Memory required for data: 1558444600
I0918 12:20:36.940963 22578 layer_factory.hpp:77] Creating layer conv5_2/1x1_increase/slice
I0918 12:20:36.940971 22578 net.cpp:86] Creating Layer conv5_2/1x1_increase/slice
I0918 12:20:36.940975 22578 net.cpp:408] conv5_2/1x1_increase/slice <- conv5_2/1x1_increase/bn
I0918 12:20:36.940981 22578 net.cpp:382] conv5_2/1x1_increase/slice -> conv5_2/1x1_increase/split1
I0918 12:20:36.940989 22578 net.cpp:382] conv5_2/1x1_increase/slice -> conv5_2/1x1_increase/split2
I0918 12:20:36.941040 22578 net.cpp:124] Setting up conv5_2/1x1_increase/slice
I0918 12:20:36.941048 22578 net.cpp:131] Top shape: 25 120 14 14 (588000)
I0918 12:20:36.941052 22578 net.cpp:131] Top shape: 25 120 14 14 (588000)
I0918 12:20:36.941056 22578 net.cpp:139] Memory required for data: 1563148600
I0918 12:20:36.941061 22578 layer_factory.hpp:77] Creating layer conv5_2/3x3_dwconv/slice_0
I0918 12:20:36.941073 22578 net.cpp:86] Creating Layer conv5_2/3x3_dwconv/slice_0
…
I0918 12:20:37.063649 22578 layer_factory.hpp:77] Creating layer conv7_1/3x3_dwconv/slice_2
I0918 12:20:37.063670 22578 net.cpp:86] Creating Layer conv7_1/3x3_dwconv/slice_2
I0918 12:20:37.063676 22578 net.cpp:408] conv7_1/3x3_dwconv/slice_2 <- conv7_1/1x1_increase/split3
I0918 12:20:37.063685 22578 net.cpp:382] conv7_1/3x3_dwconv/slice_2 -> conv7_1/3x3_dwconv/slice_2/bn
I0918 12:20:37.065086 22578 net.cpp:124] Setting up conv7_1/3x3_dwconv/slice_2
I0918 12:20:37.065104 22578 net.cpp:131] Top shape: 25 192 7 7 (235200)
I0918 12:20:37.065109 22578 net.cpp:139] Memory required for data: 2261179400
I0918 12:20:37.065117 22578 layer_factory.hpp:77] Creating layer conv7_1/3x3_dwconv/slice_2/hardswish
I0918 12:20:37.065126 22578 net.cpp:86] Creating Layer conv7_1/3x3_dwconv/slice_2/hardswish
I0918 12:20:37.065132 22578 net.cpp:408] conv7_1/3x3_dwconv/slice_2/hardswish <- conv7_1/3x3_dwconv/slice_2/bn
I0918 12:20:37.065142 22578 net.cpp:369] conv7_1/3x3_dwconv/slice_2/hardswish -> conv7_1/3x3_dwconv/slice_2/bn (in-place)
I0918 12:20:37.065189 22578 net.cpp:124] Setting up conv7_1/3x3_dwconv/slice_2/hardswish
I0918 12:20:37.065197 22578 net.cpp:131] Top shape: 25 192 7 7 (235200)
I0918 12:20:37.065201 22578 net.cpp:139] Memory required for data: 2262120200
I0918 12:20:37.065205 22578 layer_factory.hpp:77] Creating layer conv7_1/3x3_dwconv/concat
I0918 12:20:37.065215 22578 net.cpp:86] Creating Layer conv7_1/3x3_dwconv/concat
I0918 12:20:37.065220 22578 net.cpp:408] conv7_1/3x3_dwconv/concat <- conv7_1/3x3_dwconv/slice_0/bn
I0918 12:20:37.065227 22578 net.cpp:408] conv7_1/3x3_dwconv/concat <- conv7_1/3x3_dwconv/slice_1/bn
I0918 12:20:37.065232 22578 net.cpp:408] conv7_1/3x3_dwconv/concat <- conv7_1/3x3_dwconv/slice_2/bn
I0918 12:20:37.065238 22578 net.cpp:382] conv7_1/3x3_dwconv/concat -> conv7_1/3x3_dwconv/concat
I0918 12:20:37.065279 22578 net.cpp:124] Setting up conv7_1/3x3_dwconv/concat
I0918 12:20:37.065289 22578 net.cpp:131] Top shape: 25 576 7 7 (705600)
I0918 12:20:37.065294 22578 net.cpp:139] Memory required for data: 2264942600
I0918 12:20:37.065297 22578 layer_factory.hpp:77] Creating layer conv7_1/3x3_dwconv/concat_fixed_point
I0918 12:20:37.065309 22578 net.cpp:86] Creating Layer conv7_1/3x3_dwconv/concat_fixed_point
I0918 12:20:37.065316 22578 net.cpp:408] conv7_1/3x3_dwconv/concat_fixed_point <- conv7_1/3x3_dwconv/concat
I0918 12:20:37.065323 22578 net.cpp:369] conv7_1/3x3_dwconv/concat_fixed_point -> conv7_1/3x3_dwconv/concat (in-place)
I0918 12:20:37.065361 22578 net.cpp:124] Setting up conv7_1/3x3_dwconv/concat_fixed_point
I0918 12:20:37.065369 22578 net.cpp:131] Top shape: 25 576 7 7 (705600)
I0918 12:20:37.065373 22578 net.cpp:139] Memory required for data: 2267765000
I0918 12:20:37.065379 22578 layer_factory.hpp:77] Creating layer conv7_1/3x3_dwconv/concat_conv7_1/3x3_dwconv/concat_fixed_point_0_split
I0918 12:20:37.065389 22578 net.cpp:86] Creating Layer conv7_1/3x3_dwconv/concat_conv7_1/3x3_dwconv/concat_fixed_point_0_split
I0918 12:20:37.065394 22578 net.cpp:408] conv7_1/3x3_dwconv/concat_conv7_1/3x3_dwconv/concat_fixed_point_0_split <- conv7_1/3x3_dwconv/concat
I0918 12:20:37.065403 22578 net.cpp:382] conv7_1/3x3_dwconv/concat_conv7_1/3x3_dwconv/concat_fixed_point_0_split -> conv7_1/3x3_dwconv/concat_conv7_1/3x3_dwconv/concat_fixed_point_0_split_0
I0918 12:20:37.065412 22578 net.cpp:382] conv7_1/3x3_dwconv/concat_conv7_1/3x3_dwconv/concat_fixed_point_0_split -> conv7_1/3x3_dwconv/concat_conv7_1/3x3_dwconv/concat_fixed_point_0_split_1
I0918 12:20:37.065472 22578 net.cpp:124] Setting up conv7_1/3x3_dwconv/concat_conv7_1/3x3_dwconv/concat_fixed_point_0_split
I0918 12:20:37.065480 22578 net.cpp:131] Top shape: 25 576 7 7 (705600)
I0918 12:20:37.065488 22578 net.cpp:131] Top shape: 25 576 7 7 (705600)
I0918 12:20:37.065493 22578 net.cpp:139] Memory required for data: 2273409800
I0918 12:20:37.065497 22578 layer_factory.hpp:77] Creating layer conv7_1/3x3_dwconv/SE_global_pool
I0918 12:20:37.065523 22578 net.cpp:86] Creating Layer conv7_1/3x3_dwconv/SE_global_pool
I0918 12:20:37.065531 22578 net.cpp:408] conv7_1/3x3_dwconv/SE_global_pool <- conv7_1/3x3_dwconv/concat_conv7_1/3x3_dwconv/concat_fixed_point_0_split_0
I0918 12:20:37.065537 22578 net.cpp:382] conv7_1/3x3_dwconv/SE_global_pool -> conv7_1/3x3_dwconv/SE_global_pool
I0918 12:20:37.065579 22578 net.cpp:124] Setting up conv7_1/3x3_dwconv/SE_global_pool
I0918 12:20:37.065588 22578 net.cpp:131] Top shape: 25 576 1 1 (14400)
I0918 12:20:37.065593 22578 net.cpp:139] Memory required for data: 2273467400
I0918 12:20:37.065596 22578 layer_factory.hpp:77] Creating layer conv7_1/3x3_dwconv/SE_bn
I0918 12:20:37.065609 22578 net.cpp:86] Creating Layer conv7_1/3x3_dwconv/SE_bn
I0918 12:20:37.065614 22578 net.cpp:408] conv7_1/3x3_dwconv/SE_bn <- conv7_1/3x3_dwconv/SE_global_pool
I0918 12:20:37.065623 22578 net.cpp:382] conv7_1/3x3_dwconv/SE_bn -> conv7_1/3x3_dwconv/SE_bn
I0918 12:20:37.065696 22578 layer_factory.hpp:77] Creating layer conv7_1/3x3_dwconv/SE_bn
I0918 12:20:37.065907 22578 net.cpp:124] Setting up conv7_1/3x3_dwconv/SE_bn
I0918 12:20:37.065918 22578 net.cpp:131] Top shape: 25 576 1 1 (14400)
I0918 12:20:37.065923 22578 net.cpp:139] Memory required for data: 2273525000
I0918 12:20:37.065933 22578 layer_factory.hpp:77] Creating layer conv7_1/3x3_dwconv/SE_fc1
I0918 12:20:37.065948 22578 net.cpp:86] Creating Layer conv7_1/3x3_dwconv/SE_fc1
I0918 12:20:37.065955 22578 net.cpp:408] conv7_1/3x3_dwconv/SE_fc1 <- conv7_1/3x3_dwconv/SE_bn
I0918 12:20:37.065964 22578 net.cpp:382] conv7_1/3x3_dwconv/SE_fc1 -> conv7_1/3x3_dwconv/SE_fc1
I0918 12:20:37.067304 22578 net.cpp:124] Setting up conv7_1/3x3_dwconv/SE_fc1
I0918 12:20:37.067320 22578 net.cpp:131] Top shape: 25 36 1 1 (900)
I0918 12:20:37.067325 22578 net.cpp:139] Memory required for data: 2273528600
I0918 12:20:37.067332 22578 layer_factory.hpp:77] Creating layer conv7_1/3x3_dwconv/SE_fc1/relu
I0918 12:20:37.067350 22578 net.cpp:86] Creating Layer conv7_1/3x3_dwconv/SE_fc1/relu
I0918 12:20:37.067356 22578 net.cpp:408] conv7_1/3x3_dwconv/SE_fc1/relu <- conv7_1/3x3_dwconv/SE_fc1
I0918 12:20:37.067364 22578 net.cpp:369] conv7_1/3x3_dwconv/SE_fc1/relu -> conv7_1/3x3_dwconv/SE_fc1 (in-place)
I0918 12:20:37.068164 22578 net.cpp:124] Setting up conv7_1/3x3_dwconv/SE_fc1/relu
I0918 12:20:37.068181 22578 net.cpp:131] Top shape: 25 36 1 1 (900)
I0918 12:20:37.068186 22578 net.cpp:139] Memory required for data: 2273532200
I0918 12:20:37.068190 22578 layer_factory.hpp:77] Creating layer conv7_1/3x3_dwconv/SE_fc2
I0918 12:20:37.068204 22578 net.cpp:86] Creating Layer conv7_1/3x3_dwconv/SE_fc2
I0918 12:20:37.068210 22578 net.cpp:408] conv7_1/3x3_dwconv/SE_fc2 <- conv7_1/3x3_dwconv/SE_fc1
I0918 12:20:37.068222 22578 net.cpp:382] conv7_1/3x3_dwconv/SE_fc2 -> conv7_1/3x3_dwconv/SE_fc2
I0918 12:20:37.069551 22578 net.cpp:124] Setting up conv7_1/3x3_dwconv/SE_fc2
I0918 12:20:37.069566 22578 net.cpp:131] Top shape: 25 576 1 1 (14400)
I0918 12:20:37.069571 22578 net.cpp:139] Memory required for data: 2273589800
I0918 12:20:37.069581 22578 layer_factory.hpp:77] Creating layer conv7_1/3x3_dwconv/SE_weights
I0918 12:20:37.069591 22578 net.cpp:86] Creating Layer conv7_1/3x3_dwconv/SE_weights
I0918 12:20:37.069597 22578 net.cpp:408] conv7_1/3x3_dwconv/SE_weights <- conv7_1/3x3_dwconv/SE_fc2
I0918 12:20:37.069603 22578 net.cpp:369] conv7_1/3x3_dwconv/SE_weights -> conv7_1/3x3_dwconv/SE_fc2 (in-place)
I0918 12:20:37.070359 22578 net.cpp:124] Setting up conv7_1/3x3_dwconv/SE_weights
I0918 12:20:37.070374 22578 net.cpp:131] Top shape: 25 576 1 1 (14400)
I0918 12:20:37.070379 22578 net.cpp:139] Memory required for data: 2273647400
I0918 12:20:37.070389 22578 layer_factory.hpp:77] Creating layer conv7_1/3x3_dwconv/SE_weights/reshape
I0918 12:20:37.070397 22578 net.cpp:86] Creating Layer conv7_1/3x3_dwconv/SE_weights/reshape
I0918 12:20:37.070403 22578 net.cpp:408] conv7_1/3x3_dwconv/SE_weights/reshape <- conv7_1/3x3_dwconv/SE_fc2
I0918 12:20:37.070413 22578 net.cpp:382] conv7_1/3x3_dwconv/SE_weights/reshape -> conv7_1/3x3_dwconv/SE_weights/reshape
I0918 12:20:37.070478 22578 net.cpp:124] Setting up conv7_1/3x3_dwconv/SE_weights/reshape
I0918 12:20:37.070487 22578 net.cpp:131] Top shape: 25 576 (14400)
I0918 12:20:37.070490 22578 net.cpp:139] Memory required for data: 2273705000
I0918 12:20:37.070494 22578 layer_factory.hpp:77] Creating layer conv7_1/3x3_dwconv/scale
I0918 12:20:37.070502 22578 net.cpp:86] Creating Layer conv7_1/3x3_dwconv/scale
I0918 12:20:37.070508 22578 net.cpp:408] conv7_1/3x3_dwconv/scale <- conv7_1/3x3_dwconv/concat_conv7_1/3x3_dwconv/concat_fixed_point_0_split_1
I0918 12:20:37.070514 22578 net.cpp:408] conv7_1/3x3_dwconv/scale <- conv7_1/3x3_dwconv/SE_weights/reshape
I0918 12:20:37.070523 22578 net.cpp:382] conv7_1/3x3_dwconv/scale -> conv7_1/3x3_dwconv/scale
I0918 12:20:37.070636 22578 net.cpp:124] Setting up conv7_1/3x3_dwconv/scale
I0918 12:20:37.070642 22578 net.cpp:131] Top shape: 25 576 7 7 (705600)
I0918 12:20:37.070647 22578 net.cpp:139] Memory required for data: 2276527400
I0918 12:20:37.070650 22578 layer_factory.hpp:77] Creating layer conv7_1/3x3_dwconv/scale_fixed_point
I0918 12:20:37.070662 22578 net.cpp:86] Creating Layer conv7_1/3x3_dwconv/scale_fixed_point
I0918 12:20:37.070667 22578 net.cpp:408] conv7_1/3x3_dwconv/scale_fixed_point <- conv7_1/3x3_dwconv/scale
I0918 12:20:37.070673 22578 net.cpp:369] conv7_1/3x3_dwconv/scale_fixed_point -> conv7_1/3x3_dwconv/scale (in-place)
I0918 12:20:37.070713 22578 net.cpp:124] Setting up conv7_1/3x3_dwconv/scale_fixed_point
I0918 12:20:37.070727 22578 net.cpp:131] Top shape: 25 576 7 7 (705600)
I0918 12:20:37.070731 22578 net.cpp:139] Memory required for data: 2279349800
I0918 12:20:37.070737 22578 layer_factory.hpp:77] Creating layer conv7_1/1x1_decrease
I0918 12:20:37.070753 22578 net.cpp:86] Creating Layer conv7_1/1x1_decrease
I0918 12:20:37.070758 22578 net.cpp:408] conv7_1/1x1_decrease <- conv7_1/3x3_dwconv/scale
I0918 12:20:37.070768 22578 net.cpp:382] conv7_1/1x1_decrease -> conv7_1/1x1_decrease/bn
I0918 12:20:37.075738 22578 net.cpp:124] Setting up conv7_1/1x1_decrease
I0918 12:20:37.075757 22578 net.cpp:131] Top shape: 25 192 7 7 (235200)
I0918 12:20:37.075760 22578 net.cpp:139] Memory required for data: 2280290600
I0918 12:20:37.075769 22578 layer_factory.hpp:77] Creating layer conv7_1/elt_sum
I0918 12:20:37.075778 22578 net.cpp:86] Creating Layer conv7_1/elt_sum
I0918 12:20:37.075784 22578 net.cpp:408] conv7_1/elt_sum <- conv7_0/1x1_decrease/bn_conv7_0/1x1_decrease/bn_fixed_point_0_split_1
I0918 12:20:37.075793 22578 net.cpp:408] conv7_1/elt_sum <- conv7_1/1x1_decrease/bn
I0918 12:20:37.075801 22578 net.cpp:382] conv7_1/elt_sum -> conv7_1/elt_sum
I0918 12:20:37.075855 22578 net.cpp:124] Setting up conv7_1/elt_sum
I0918 12:20:37.075862 22578 net.cpp:131] Top shape: 25 192 7 7 (235200)
I0918 12:20:37.075865 22578 net.cpp:139] Memory required for data: 2281231400
I0918 12:20:37.075870 22578 layer_factory.hpp:77] Creating layer conv7_1/elt_sum_fixed_point
I0918 12:20:37.075882 22578 net.cpp:86] Creating Layer conv7_1/elt_sum_fixed_point
I0918 12:20:37.075887 22578 net.cpp:408] conv7_1/elt_sum_fixed_point <- conv7_1/elt_sum
I0918 12:20:37.075893 22578 net.cpp:369] conv7_1/elt_sum_fixed_point -> conv7_1/elt_sum (in-place)
I0918 12:20:37.075935 22578 net.cpp:124] Setting up conv7_1/elt_sum_fixed_point
I0918 12:20:37.075942 22578 net.cpp:131] Top shape: 25 192 7 7 (235200)
I0918 12:20:37.075947 22578 net.cpp:139] Memory required for data: 2282172200
I0918 12:20:37.075953 22578 layer_factory.hpp:77] Creating layer conv7_1/elt_sum_conv7_1/elt_sum_fixed_point_0_split
I0918 12:20:37.075959 22578 net.cpp:86] Creating Layer conv7_1/elt_sum_conv7_1/elt_sum_fixed_point_0_split
I0918 12:20:37.075963 22578 net.cpp:408] conv7_1/elt_sum_conv7_1/elt_sum_fixed_point_0_split <- conv7_1/elt_sum
I0918 12:20:37.075973 22578 net.cpp:382] conv7_1/elt_sum_conv7_1/elt_sum_fixed_point_0_split -> conv7_1/elt_sum_conv7_1/elt_sum_fixed_point_0_split_0
I0918 12:20:37.075981 22578 net.cpp:382] conv7_1/elt_sum_conv7_1/elt_sum_fixed_point_0_split -> conv7_1/elt_sum_conv7_1/elt_sum_fixed_point_0_split_1
I0918 12:20:37.076061 22578 net.cpp:124] Setting up conv7_1/elt_sum_conv7_1/elt_sum_fixed_point_0_split
I0918 12:20:37.076068 22578 net.cpp:131] Top shape: 25 192 7 7 (235200)
I0918 12:20:37.076076 22578 net.cpp:131] Top shape: 25 192 7 7 (235200)
I0918 12:20:37.076079 22578 net.cpp:139] Memory required for data: 2284053800
I0918 12:20:37.076086 22578 layer_factory.hpp:77] Creating layer conv7_2/1x1_increase
I0918 12:20:37.076099 22578 net.cpp:86] Creating Layer conv7_2/1x1_increase
I0918 12:20:37.076104 22578 net.cpp:408] conv7_2/1x1_increase <- conv7_1/elt_sum_conv7_1/elt_sum_fixed_point_0_split_0
I0918 12:20:37.076120 22578 net.cpp:382] conv7_2/1x1_increase -> conv7_2/1x1_increase/bn
I0918 12:20:37.080799 22578 net.cpp:124] Setting up conv7_2/1x1_increase
I0918 12:20:37.080817 22578 net.cpp:131] Top shape: 25 576 7 7 (705600)
I0918 12:20:37.080822 22578 net.cpp:139] Memory required for data: 2286876200
I0918 12:20:37.080830 22578 layer_factory.hpp:77] Creating layer conv7_2/1x1_increase/hardswish
I0918 12:20:37.080842 22578 net.cpp:86] Creating Layer conv7_2/1x1_increase/hardswish
I0918 12:20:37.080847 22578 net.cpp:408] conv7_2/1x1_increase/hardswish <- conv7_2/1x1_increase/bn
I0918 12:20:37.080855 22578 net.cpp:369] conv7_2/1x1_increase/hardswish -> conv7_2/1x1_increase/bn (in-place)
I0918 12:20:37.080899 22578 net.cpp:124] Setting up conv7_2/1x1_increase/hardswish
I0918 12:20:37.080906 22578 net.cpp:131] Top shape: 25 576 7 7 (705600)
I0918 12:20:37.080910 22578 net.cpp:139] Memory required for data: 2289698600
I0918 12:20:37.080914 22578 layer_factory.hpp:77] Creating layer conv7_2/1x1_increase/bn_fixed_point
I0918 12:20:37.080924 22578 net.cpp:86] Creating Layer conv7_2/1x1_increase/bn_fixed_point
I0918 12:20:37.080929 22578 net.cpp:408] conv7_2/1x1_increase/bn_fixed_point <- conv7_2/1x1_increase/bn
I0918 12:20:37.080935 22578 net.cpp:369] conv7_2/1x1_increase/bn_fixed_point -> conv7_2/1x1_increase/bn (in-place)
I0918 12:20:37.080979 22578 net.cpp:124] Setting up conv7_2/1x1_increase/bn_fixed_point
I0918 12:20:37.080986 22578 net.cpp:131] Top shape: 25 576 7 7 (705600)
I0918 12:20:37.080989 22578 net.cpp:139] Memory required for data: 2292521000
I0918 12:20:37.080996 22578 layer_factory.hpp:77] Creating layer conv7_2/1x1_increase/slice
I0918 12:20:37.081003 22578 net.cpp:86] Creating Layer conv7_2/1x1_increase/slice
I0918 12:20:37.081008 22578 net.cpp:408] conv7_2/1x1_increase/slice <- conv7_2/1x1_increase/bn
I0918 12:20:37.081017 22578 net.cpp:382] conv7_2/1x1_increase/slice -> conv7_2/1x1_increase/split1
I0918 12:20:37.081024 22578 net.cpp:382] conv7_2/1x1_increase/slice -> conv7_2/1x1_increase/split2
I0918 12:20:37.081032 22578 net.cpp:382] conv7_2/1x1_increase/slice -> conv7_2/1x1_increase/split3
I0918 12:20:37.081117 22578 net.cpp:124] Setting up conv7_2/1x1_increase/slice
I0918 12:20:37.081132 22578 net.cpp:131] Top shape: 25 192 7 7 (235200)
I0918 12:20:37.081137 22578 net.cpp:131] Top shape: 25 192 7 7 (235200)
I0918 12:20:37.081143 22578 net.cpp:131] Top shape: 25 192 7 7 (235200)
I0918 12:20:37.081146 22578 net.cpp:139] Memory required for data: 2295343400
I0918 12:20:37.081151 22578 layer_factory.hpp:77] Creating layer conv7_2/3x3_dwconv/slice_0
I0918 12:20:37.081166 22578 net.cpp:86] Creating Layer conv7_2/3x3_dwconv/slice_0
I0918 12:20:37.081171 22578 net.cpp:408] conv7_2/3x3_dwconv/slice_0 <- conv7_2/1x1_increase/split1
I0918 12:20:37.081182 22578 net.cpp:382] conv7_2/3x3_dwconv/slice_0 -> conv7_2/3x3_dwconv/slice_0/bn
I0918 12:20:37.081964 22578 net.cpp:124] Setting up conv7_2/3x3_dwconv/slice_0
I0918 12:20:37.081976 22578 net.cpp:131] Top shape: 25 192 7 7 (235200)
I0918 12:20:37.081981 22578 net.cpp:139] Memory required for data: 2296284200
I0918 12:20:37.081990 22578 layer_factory.hpp:77] Creating layer conv7_2/3x3_dwconv/slice_0/hardswish
I0918 12:20:37.081998 22578 net.cpp:86] Creating Layer conv7_2/3x3_dwconv/slice_0/hardswish
I0918 12:20:37.082005 22578 net.cpp:408] conv7_2/3x3_dwconv/slice_0/hardswish <- conv7_2/3x3_dwconv/slice_0/bn
I0918 12:20:37.082026 22578 net.cpp:369] conv7_2/3x3_dwconv/slice_0/hardswish -> conv7_2/3x3_dwconv/slice_0/bn (in-place)
I0918 12:20:37.082075 22578 net.cpp:124] Setting up conv7_2/3x3_dwconv/slice_0/hardswish
I0918 12:20:37.082083 22578 net.cpp:131] Top shape: 25 192 7 7 (235200)
I0918 12:20:37.082087 22578 net.cpp:139] Memory required for data: 2297225000
I0918 12:20:37.082092 22578 layer_factory.hpp:77] Creating layer conv7_2/3x3_dwconv/slice_1
I0918 12:20:37.082104 22578 net.cpp:86] Creating Layer conv7_2/3x3_dwconv/slice_1
I0918 12:20:37.082109 22578 net.cpp:408] conv7_2/3x3_dwconv/slice_1 <- conv7_2/1x1_increase/split2
I0918 12:20:37.082119 22578 net.cpp:382] conv7_2/3x3_dwconv/slice_1 -> conv7_2/3x3_dwconv/slice_1/bn
I0918 12:20:37.083039 22578 net.cpp:124] Setting up conv7_2/3x3_dwconv/slice_1
I0918 12:20:37.083052 22578 net.cpp:131] Top shape: 25 192 7 7 (235200)
I0918 12:20:37.083057 22578 net.cpp:139] Memory required for data: 2298165800
I0918 12:20:37.083071 22578 layer_factory.hpp:77] Creating layer conv7_2/3x3_dwconv/slice_1/hardswish
I0918 12:20:37.083081 22578 net.cpp:86] Creating Layer conv7_2/3x3_dwconv/slice_1/hardswish
I0918 12:20:37.083086 22578 net.cpp:408] conv7_2/3x3_dwconv/slice_1/hardswish <- conv7_2/3x3_dwconv/slice_1/bn
I0918 12:20:37.083096 22578 net.cpp:369] conv7_2/3x3_dwconv/slice_1/hardswish -> conv7_2/3x3_dwconv/slice_1/bn (in-place)
I0918 12:20:37.083138 22578 net.cpp:124] Setting up conv7_2/3x3_dwconv/slice_1/hardswish
I0918 12:20:37.083148 22578 net.cpp:131] Top shape: 25 192 7 7 (235200)
I0918 12:20:37.083153 22578 net.cpp:139] Memory required for data: 2299106600
I0918 12:20:37.083155 22578 layer_factory.hpp:77] Creating layer conv7_2/3x3_dwconv/slice_2
I0918 12:20:37.083169 22578 net.cpp:86] Creating Layer conv7_2/3x3_dwconv/slice_2
I0918 12:20:37.083174 22578 net.cpp:408] conv7_2/3x3_dwconv/slice_2 <- conv7_2/1x1_increase/split3
I0918 12:20:37.083184 22578 net.cpp:382] conv7_2/3x3_dwconv/slice_2 -> conv7_2/3x3_dwconv/slice_2/bn
I0918 12:20:37.084467 22578 net.cpp:124] Setting up conv7_2/3x3_dwconv/slice_2
I0918 12:20:37.084483 22578 net.cpp:131] Top shape: 25 192 7 7 (235200)
I0918 12:20:37.084488 22578 net.cpp:139] Memory required for data: 2300047400
I0918 12:20:37.084496 22578 layer_factory.hpp:77] Creating layer conv7_2/3x3_dwconv/slice_2/hardswish
I0918 12:20:37.084504 22578 net.cpp:86] Creating Layer conv7_2/3x3_dwconv/slice_2/hardswish
I0918 12:20:37.084509 22578 net.cpp:408] conv7_2/3x3_dwconv/slice_2/hardswish <- conv7_2/3x3_dwconv/slice_2/bn
I0918 12:20:37.084519 22578 net.cpp:369] conv7_2/3x3_dwconv/slice_2/hardswish -> conv7_2/3x3_dwconv/slice_2/bn (in-place)
I0918 12:20:37.084563 22578 net.cpp:124] Setting up conv7_2/3x3_dwconv/slice_2/hardswish
I0918 12:20:37.084570 22578 net.cpp:131] Top shape: 25 192 7 7 (235200)
I0918 12:20:37.084574 22578 net.cpp:139] Memory required for data: 2300988200
I0918 12:20:37.084578 22578 layer_factory.hpp:77] Creating layer conv7_2/3x3_dwconv/concat
I0918 12:20:37.084589 22578 net.cpp:86] Creating Layer conv7_2/3x3_dwconv/concat
I0918 12:20:37.084594 22578 net.cpp:408] conv7_2/3x3_dwconv/concat <- conv7_2/3x3_dwconv/slice_0/bn
I0918 12:20:37.084599 22578 net.cpp:408] conv7_2/3x3_dwconv/concat <- conv7_2/3x3_dwconv/slice_1/bn
I0918 12:20:37.084604 22578 net.cpp:408] conv7_2/3x3_dwconv/concat <- conv7_2/3x3_dwconv/slice_2/bn
I0918 12:20:37.084610 22578 net.cpp:382] conv7_2/3x3_dwconv/concat -> conv7_2/3x3_dwconv/concat
I0918 12:20:37.084650 22578 net.cpp:124] Setting up conv7_2/3x3_dwconv/concat
I0918 12:20:37.084656 22578 net.cpp:131] Top shape: 25 576 7 7 (705600)
I0918 12:20:37.084659 22578 net.cpp:139] Memory required for data: 2303810600
I0918 12:20:37.084664 22578 layer_factory.hpp:77] Creating layer conv7_2/3x3_dwconv/concat_fixed_point
I0918 12:20:37.084672 22578 net.cpp:86] Creating Layer conv7_2/3x3_dwconv/concat_fixed_point
I0918 12:20:37.084677 22578 net.cpp:408] conv7_2/3x3_dwconv/concat_fixed_point <- conv7_2/3x3_dwconv/concat
I0918 12:20:37.084686 22578 net.cpp:369] conv7_2/3x3_dwconv/concat_fixed_point -> conv7_2/3x3_dwconv/concat (in-place)
I0918 12:20:37.084739 22578 net.cpp:124] Setting up conv7_2/3x3_dwconv/concat_fixed_point
I0918 12:20:37.084746 22578 net.cpp:131] Top shape: 25 576 7 7 (705600)
I0918 12:20:37.084750 22578 net.cpp:139] Memory required for data: 2306633000
I0918 12:20:37.084756 22578 layer_factory.hpp:77] Creating layer conv7_2/3x3_dwconv/concat_conv7_2/3x3_dwconv/concat_fixed_point_0_split
I0918 12:20:37.084764 22578 net.cpp:86] Creating Layer conv7_2/3x3_dwconv/concat_conv7_2/3x3_dwconv/concat_fixed_point_0_split
I0918 12:20:37.084767 22578 net.cpp:408] conv7_2/3x3_dwconv/concat_conv7_2/3x3_dwconv/concat_fixed_point_0_split <- conv7_2/3x3_dwconv/concat
I0918 12:20:37.084776 22578 net.cpp:382] conv7_2/3x3_dwconv/concat_conv7_2/3x3_dwconv/concat_fixed_point_0_split -> conv7_2/3x3_dwconv/concat_conv7_2/3x3_dwconv/concat_fixed_point_0_split_0
I0918 12:20:37.084784 22578 net.cpp:382] conv7_2/3x3_dwconv/concat_conv7_2/3x3_dwconv/concat_fixed_point_0_split -> conv7_2/3x3_dwconv/concat_conv7_2/3x3_dwconv/concat_fixed_point_0_split_1
I0918 12:20:37.084848 22578 net.cpp:124] Setting up conv7_2/3x3_dwconv/concat_conv7_2/3x3_dwconv/concat_fixed_point_0_split
I0918 12:20:37.084856 22578 net.cpp:131] Top shape: 25 576 7 7 (705600)
I0918 12:20:37.084861 22578 net.cpp:131] Top shape: 25 576 7 7 (705600)
I0918 12:20:37.084864 22578 net.cpp:139] Memory required for data: 2312277800
I0918 12:20:37.084868 22578 layer_factory.hpp:77] Creating layer conv7_2/3x3_dwconv/SE_global_pool
I0918 12:20:37.084878 22578 net.cpp:86] Creating Layer conv7_2/3x3_dwconv/SE_global_pool
I0918 12:20:37.084883 22578 net.cpp:408] conv7_2/3x3_dwconv/SE_global_pool <- conv7_2/3x3_dwconv/concat_conv7_2/3x3_dwconv/concat_fixed_point_0_split_0
I0918 12:20:37.084892 22578 net.cpp:382] conv7_2/3x3_dwconv/SE_global_pool -> conv7_2/3x3_dwconv/SE_global_pool
I0918 12:20:37.084925 22578 net.cpp:124] Setting up conv7_2/3x3_dwconv/SE_global_pool
I0918 12:20:37.084947 22578 net.cpp:131] Top shape: 25 576 1 1 (14400)
I0918 12:20:37.084967 22578 net.cpp:139] Memory required for data: 2312335400
I0918 12:20:37.084971 22578 layer_factory.hpp:77] Creating layer conv7_2/3x3_dwconv/SE_bn
I0918 12:20:37.084985 22578 net.cpp:86] Creating Layer conv7_2/3x3_dwconv/SE_bn
I0918 12:20:37.084990 22578 net.cpp:408] conv7_2/3x3_dwconv/SE_bn <- conv7_2/3x3_dwconv/SE_global_pool
I0918 12:20:37.084997 22578 net.cpp:382] conv7_2/3x3_dwconv/SE_bn -> conv7_2/3x3_dwconv/SE_bn
I0918 12:20:37.085072 22578 layer_factory.hpp:77] Creating layer conv7_2/3x3_dwconv/SE_bn
I0918 12:20:37.085260 22578 net.cpp:124] Setting up conv7_2/3x3_dwconv/SE_bn
I0918 12:20:37.085273 22578 net.cpp:131] Top shape: 25 576 1 1 (14400)
I0918 12:20:37.085276 22578 net.cpp:139] Memory required for data: 2312393000
I0918 12:20:37.085285 22578 layer_factory.hpp:77] Creating layer conv7_2/3x3_dwconv/SE_fc1
I0918 12:20:37.085296 22578 net.cpp:86] Creating Layer conv7_2/3x3_dwconv/SE_fc1
I0918 12:20:37.085301 22578 net.cpp:408] conv7_2/3x3_dwconv/SE_fc1 <- conv7_2/3x3_dwconv/SE_bn
I0918 12:20:37.085309 22578 net.cpp:382] conv7_2/3x3_dwconv/SE_fc1 -> conv7_2/3x3_dwconv/SE_fc1
I0918 12:20:37.086534 22578 net.cpp:124] Setting up conv7_2/3x3_dwconv/SE_fc1
I0918 12:20:37.086549 22578 net.cpp:131] Top shape: 25 36 1 1 (900)
I0918 12:20:37.086553 22578 net.cpp:139] Memory required for data: 2312396600
I0918 12:20:37.086560 22578 layer_factory.hpp:77] Creating layer conv7_2/3x3_dwconv/SE_fc1/relu
I0918 12:20:37.086568 22578 net.cpp:86] Creating Layer conv7_2/3x3_dwconv/SE_fc1/relu
I0918 12:20:37.086573 22578 net.cpp:408] conv7_2/3x3_dwconv/SE_fc1/relu <- conv7_2/3x3_dwconv/SE_fc1
I0918 12:20:37.086582 22578 net.cpp:369] conv7_2/3x3_dwconv/SE_fc1/relu -> conv7_2/3x3_dwconv/SE_fc1 (in-place)
I0918 12:20:37.087370 22578 net.cpp:124] Setting up conv7_2/3x3_dwconv/SE_fc1/relu
I0918 12:20:37.087385 22578 net.cpp:131] Top shape: 25 36 1 1 (900)
I0918 12:20:37.087389 22578 net.cpp:139] Memory required for data: 2312400200
I0918 12:20:37.087394 22578 layer_factory.hpp:77] Creating layer conv7_2/3x3_dwconv/SE_fc2
I0918 12:20:37.087419 22578 net.cpp:86] Creating Layer conv7_2/3x3_dwconv/SE_fc2
I0918 12:20:37.087437 22578 net.cpp:408] conv7_2/3x3_dwconv/SE_fc2 <- conv7_2/3x3_dwconv/SE_fc1
I0918 12:20:37.087446 22578 net.cpp:382] conv7_2/3x3_dwconv/SE_fc2 -> conv7_2/3x3_dwconv/SE_fc2
I0918 12:20:37.088675 22578 net.cpp:124] Setting up conv7_2/3x3_dwconv/SE_fc2
I0918 12:20:37.088690 22578 net.cpp:131] Top shape: 25 576 1 1 (14400)
I0918 12:20:37.088696 22578 net.cpp:139] Memory required for data: 2312457800
I0918 12:20:37.088703 22578 layer_factory.hpp:77] Creating layer conv7_2/3x3_dwconv/SE_weights
I0918 12:20:37.088711 22578 net.cpp:86] Creating Layer conv7_2/3x3_dwconv/SE_weights
I0918 12:20:37.088716 22578 net.cpp:408] conv7_2/3x3_dwconv/SE_weights <- conv7_2/3x3_dwconv/SE_fc2
I0918 12:20:37.088723 22578 net.cpp:369] conv7_2/3x3_dwconv/SE_weights -> conv7_2/3x3_dwconv/SE_fc2 (in-place)
I0918 12:20:37.089673 22578 net.cpp:124] Setting up conv7_2/3x3_dwconv/SE_weights
I0918 12:20:37.089691 22578 net.cpp:131] Top shape: 25 576 1 1 (14400)
I0918 12:20:37.089696 22578 net.cpp:139] Memory required for data: 2312515400
I0918 12:20:37.089701 22578 layer_factory.hpp:77] Creating layer conv7_2/3x3_dwconv/SE_weights/reshape
I0918 12:20:37.089709 22578 net.cpp:86] Creating Layer conv7_2/3x3_dwconv/SE_weights/reshape
I0918 12:20:37.089715 22578 net.cpp:408] conv7_2/3x3_dwconv/SE_weights/reshape <- conv7_2/3x3_dwconv/SE_fc2
I0918 12:20:37.089723 22578 net.cpp:382] conv7_2/3x3_dwconv/SE_weights/reshape -> conv7_2/3x3_dwconv/SE_weights/reshape
I0918 12:20:37.089771 22578 net.cpp:124] Setting up conv7_2/3x3_dwconv/SE_weights/reshape
I0918 12:20:37.089779 22578 net.cpp:131] Top shape: 25 576 (14400)
I0918 12:20:37.089783 22578 net.cpp:139] Memory required for data: 2312573000
I0918 12:20:37.089787 22578 layer_factory.hpp:77] Creating layer conv7_2/3x3_dwconv/scale
I0918 12:20:37.089800 22578 net.cpp:86] Creating Layer conv7_2/3x3_dwconv/scale
I0918 12:20:37.089812 22578 net.cpp:408] conv7_2/3x3_dwconv/scale <- conv7_2/3x3_dwconv/concat_conv7_2/3x3_dwconv/concat_fixed_point_0_split_1
I0918 12:20:37.089818 22578 net.cpp:408] conv7_2/3x3_dwconv/scale <- conv7_2/3x3_dwconv/SE_weights/reshape
I0918 12:20:37.089823 22578 net.cpp:382] conv7_2/3x3_dwconv/scale -> conv7_2/3x3_dwconv/scale
I0918 12:20:37.089927 22578 net.cpp:124] Setting up conv7_2/3x3_dwconv/scale
I0918 12:20:37.089937 22578 net.cpp:131] Top shape: 25 576 7 7 (705600)
I0918 12:20:37.089941 22578 net.cpp:139] Memory required for data: 2315395400
I0918 12:20:37.089946 22578 layer_factory.hpp:77] Creating layer conv7_2/3x3_dwconv/scale_fixed_point
I0918 12:20:37.089952 22578 net.cpp:86] Creating Layer conv7_2/3x3_dwconv/scale_fixed_point
I0918 12:20:37.089957 22578 net.cpp:408] conv7_2/3x3_dwconv/scale_fixed_point <- conv7_2/3x3_dwconv/scale
I0918 12:20:37.089965 22578 net.cpp:369] conv7_2/3x3_dwconv/scale_fixed_point -> conv7_2/3x3_dwconv/scale (in-place)
I0918 12:20:37.090000 22578 net.cpp:124] Setting up conv7_2/3x3_dwconv/scale_fixed_point
I0918 12:20:37.090010 22578 net.cpp:131] Top shape: 25 576 7 7 (705600)
I0918 12:20:37.090013 22578 net.cpp:139] Memory required for data: 2318217800
I0918 12:20:37.090019 22578 layer_factory.hpp:77] Creating layer conv7_2/1x1_decrease
I0918 12:20:37.090031 22578 net.cpp:86] Creating Layer conv7_2/1x1_decrease
I0918 12:20:37.090036 22578 net.cpp:408] conv7_2/1x1_decrease <- conv7_2/3x3_dwconv/scale
I0918 12:20:37.090045 22578 net.cpp:382] conv7_2/1x1_decrease -> conv7_2/1x1_decrease/bn
I0918 12:20:37.095624 22578 net.cpp:124] Setting up conv7_2/1x1_decrease
I0918 12:20:37.095640 22578 net.cpp:131] Top shape: 25 192 7 7 (235200)
I0918 12:20:37.095645 22578 net.cpp:139] Memory required for data: 2319158600
I0918 12:20:37.095654 22578 layer_factory.hpp:77] Creating layer conv7_2/elt_sum
I0918 12:20:37.095666 22578 net.cpp:86] Creating Layer conv7_2/elt_sum
I0918 12:20:37.095671 22578 net.cpp:408] conv7_2/elt_sum <- conv7_1/elt_sum_conv7_1/elt_sum_fixed_point_0_split_1
I0918 12:20:37.095679 22578 net.cpp:408] conv7_2/elt_sum <- conv7_2/1x1_decrease/bn
I0918 12:20:37.095685 22578 net.cpp:382] conv7_2/elt_sum -> conv7_2/elt_sum
I0918 12:20:37.095744 22578 net.cpp:124] Setting up conv7_2/elt_sum
I0918 12:20:37.095753 22578 net.cpp:131] Top shape: 25 192 7 7 (235200)
I0918 12:20:37.095757 22578 net.cpp:139] Memory required for data: 2320099400
I0918 12:20:37.095762 22578 layer_factory.hpp:77] Creating layer conv7_2/elt_sum_fixed_point
I0918 12:20:37.095772 22578 net.cpp:86] Creating Layer conv7_2/elt_sum_fixed_point
I0918 12:20:37.095777 22578 net.cpp:408] conv7_2/elt_sum_fixed_point <- conv7_2/elt_sum
I0918 12:20:37.095782 22578 net.cpp:369] conv7_2/elt_sum_fixed_point -> conv7_2/elt_sum (in-place)
I0918 12:20:37.095825 22578 net.cpp:124] Setting up conv7_2/elt_sum_fixed_point
I0918 12:20:37.095834 22578 net.cpp:131] Top shape: 25 192 7 7 (235200)
I0918 12:20:37.095837 22578 net.cpp:139] Memory required for data: 2321040200
I0918 12:20:37.095842 22578 layer_factory.hpp:77] Creating layer conv8_0/1x1_increase
I0918 12:20:37.095855 22578 net.cpp:86] Creating Layer conv8_0/1x1_increase
I0918 12:20:37.095860 22578 net.cpp:408] conv8_0/1x1_increase <- conv7_2/elt_sum
I0918 12:20:37.095870 22578 net.cpp:382] conv8_0/1x1_increase -> conv8_0/1x1_increase/bn
I0918 12:20:37.103616 22578 net.cpp:124] Setting up conv8_0/1x1_increase
I0918 12:20:37.103631 22578 net.cpp:131] Top shape: 25 1152 7 7 (1411200)
I0918 12:20:37.103634 22578 net.cpp:139] Memory required for data: 2326685000
I0918 12:20:37.103641 22578 layer_factory.hpp:77] Creating layer conv8_0/1x1_increase/hardswish
I0918 12:20:37.103652 22578 net.cpp:86] Creating Layer conv8_0/1x1_increase/hardswish
I0918 12:20:37.103657 22578 net.cpp:408] conv8_0/1x1_increase/hardswish <- conv8_0/1x1_increase/bn
I0918 12:20:37.103664 22578 net.cpp:369] conv8_0/1x1_increase/hardswish -> conv8_0/1x1_increase/bn (in-place)
I0918 12:20:37.103705 22578 net.cpp:124] Setting up conv8_0/1x1_increase/hardswish
I0918 12:20:37.103713 22578 net.cpp:131] Top shape: 25 1152 7 7 (1411200)
I0918 12:20:37.103719 22578 net.cpp:139] Memory required for data: 2332329800
I0918 12:20:37.103724 22578 layer_factory.hpp:77] Creating layer conv8_0/1x1_increase/bn_fixed_point
I0918 12:20:37.103730 22578 net.cpp:86] Creating Layer conv8_0/1x1_increase/bn_fixed_point
I0918 12:20:37.103734 22578 net.cpp:408] conv8_0/1x1_increase/bn_fixed_point <- conv8_0/1x1_increase/bn
I0918 12:20:37.103739 22578 net.cpp:369] conv8_0/1x1_increase/bn_fixed_point -> conv8_0/1x1_increase/bn (in-place)
I0918 12:20:37.103775 22578 net.cpp:124] Setting up conv8_0/1x1_increase/bn_fixed_point
I0918 12:20:37.103782 22578 net.cpp:131] Top shape: 25 1152 7 7 (1411200)
I0918 12:20:37.103785 22578 net.cpp:139] Memory required for data: 2337974600
I0918 12:20:37.103790 22578 layer_factory.hpp:77] Creating layer conv8_0/1x1_increase/slice
I0918 12:20:37.103801 22578 net.cpp:86] Creating Layer conv8_0/1x1_increase/slice
I0918 12:20:37.103809 22578 net.cpp:408] conv8_0/1x1_increase/slice <- conv8_0/1x1_increase/bn
I0918 12:20:37.103816 22578 net.cpp:382] conv8_0/1x1_increase/slice -> conv8_0/1x1_increase/split1
I0918 12:20:37.103824 22578 net.cpp:382] conv8_0/1x1_increase/slice -> conv8_0/1x1_increase/split2
I0918 12:20:37.103832 22578 net.cpp:382] conv8_0/1x1_increase/slice -> conv8_0/1x1_increase/split3
I0918 12:20:37.103906 22578 net.cpp:124] Setting up conv8_0/1x1_increase/slice
I0918 12:20:37.103914 22578 net.cpp:131] Top shape: 25 384 7 7 (470400)
I0918 12:20:37.103919 22578 net.cpp:131] Top shape: 25 384 7 7 (470400)
I0918 12:20:37.103924 22578 net.cpp:131] Top shape: 25 384 7 7 (470400)
I0918 12:20:37.103926 22578 net.cpp:139] Memory required for data: 2343619400
I0918 12:20:37.103930 22578 layer_factory.hpp:77] Creating layer conv8_0/3x3_dwconv/slice_0
I0918 12:20:37.103943 22578 net.cpp:86] Creating Layer conv8_0/3x3_dwconv/slice_0
I0918 12:20:37.103948 22578 net.cpp:408] conv8_0/3x3_dwconv/slice_0 <- conv8_0/1x1_increase/split1
I0918 12:20:37.103960 22578 net.cpp:382] conv8_0/3x3_dwconv/slice_0 -> conv8_0/3x3_dwconv/slice_0/bn
I0918 12:20:37.104760 22578 net.cpp:124] Setting up conv8_0/3x3_dwconv/slice_0
I0918 12:20:37.104773 22578 net.cpp:131] Top shape: 25 384 7 7 (470400)
I0918 12:20:37.104790 22578 net.cpp:139] Memory required for data: 2345501000
I0918 12:20:37.104811 22578 layer_factory.hpp:77] Creating layer conv8_0/3x3_dwconv/slice_0/hardswish
I0918 12:20:37.104820 22578 net.cpp:86] Creating Layer conv8_0/3x3_dwconv/slice_0/hardswish
I0918 12:20:37.104825 22578 net.cpp:408] conv8_0/3x3_dwconv/slice_0/hardswish <- conv8_0/3x3_dwconv/slice_0/bn
I0918 12:20:37.104833 22578 net.cpp:369] conv8_0/3x3_dwconv/slice_0/hardswish -> conv8_0/3x3_dwconv/slice_0/bn (in-place)
I0918 12:20:37.104874 22578 net.cpp:124] Setting up conv8_0/3x3_dwconv/slice_0/hardswish
I0918 12:20:37.104882 22578 net.cpp:131] Top shape: 25 384 7 7 (470400)
I0918 12:20:37.104885 22578 net.cpp:139] Memory required for data: 2347382600
I0918 12:20:37.104889 22578 layer_factory.hpp:77] Creating layer conv8_0/3x3_dwconv/slice_1
I0918 12:20:37.104905 22578 net.cpp:86] Creating Layer conv8_0/3x3_dwconv/slice_1
I0918 12:20:37.104910 22578 net.cpp:408] conv8_0/3x3_dwconv/slice_1 <- conv8_0/1x1_increase/split2
I0918 12:20:37.104918 22578 net.cpp:382] conv8_0/3x3_dwconv/slice_1 -> conv8_0/3x3_dwconv/slice_1/bn
I0918 12:20:37.106125 22578 net.cpp:124] Setting up conv8_0/3x3_dwconv/slice_1
I0918 12:20:37.106142 22578 net.cpp:131] Top shape: 25 384 7 7 (470400)
I0918 12:20:37.106146 22578 net.cpp:139] Memory required for data: 2349264200
I0918 12:20:37.106156 22578 layer_factory.hpp:77] Creating layer conv8_0/3x3_dwconv/slice_1/hardswish
I0918 12:20:37.106164 22578 net.cpp:86] Creating Layer conv8_0/3x3_dwconv/slice_1/hardswish
I0918 12:20:37.106169 22578 net.cpp:408] conv8_0/3x3_dwconv/slice_1/hardswish <- conv8_0/3x3_dwconv/slice_1/bn
I0918 12:20:37.106175 22578 net.cpp:369] conv8_0/3x3_dwconv/slice_1/hardswish -> conv8_0/3x3_dwconv/slice_1/bn (in-place)
I0918 12:20:37.106226 22578 net.cpp:124] Setting up conv8_0/3x3_dwconv/slice_1/hardswish
I0918 12:20:37.106233 22578 net.cpp:131] Top shape: 25 384 7 7 (470400)
I0918 12:20:37.106236 22578 net.cpp:139] Memory required for data: 2351145800
I0918 12:20:37.106240 22578 layer_factory.hpp:77] Creating layer conv8_0/3x3_dwconv/slice_2
I0918 12:20:37.106253 22578 net.cpp:86] Creating Layer conv8_0/3x3_dwconv/slice_2
I0918 12:20:37.106258 22578 net.cpp:408] conv8_0/3x3_dwconv/slice_2 <- conv8_0/1x1_increase/split3
I0918 12:20:37.106268 22578 net.cpp:382] conv8_0/3x3_dwconv/slice_2 -> conv8_0/3x3_dwconv/slice_2/bn
I0918 12:20:37.107750 22578 net.cpp:124] Setting up conv8_0/3x3_dwconv/slice_2
I0918 12:20:37.107765 22578 net.cpp:131] Top shape: 25 384 7 7 (470400)
I0918 12:20:37.107769 22578 net.cpp:139] Memory required for data: 2353027400
I0918 12:20:37.107779 22578 layer_factory.hpp:77] Creating layer conv8_0/3x3_dwconv/slice_2/hardswish
I0918 12:20:37.107789 22578 net.cpp:86] Creating Layer conv8_0/3x3_dwconv/slice_2/hardswish
I0918 12:20:37.107807 22578 net.cpp:408] conv8_0/3x3_dwconv/slice_2/hardswish <- conv8_0/3x3_dwconv/slice_2/bn
I0918 12:20:37.107817 22578 net.cpp:369] conv8_0/3x3_dwconv/slice_2/hardswish -> conv8_0/3x3_dwconv/slice_2/bn (in-place)
I0918 12:20:37.107859 22578 net.cpp:124] Setting up conv8_0/3x3_dwconv/slice_2/hardswish
I0918 12:20:37.107868 22578 net.cpp:131] Top shape: 25 384 7 7 (470400)
I0918 12:20:37.107872 22578 net.cpp:139] Memory required for data: 2354909000
I0918 12:20:37.107877 22578 layer_factory.hpp:77] Creating layer conv8_0/3x3_dwconv/concat
I0918 12:20:37.107882 22578 net.cpp:86] Creating Layer conv8_0/3x3_dwconv/concat
I0918 12:20:37.107887 22578 net.cpp:408] conv8_0/3x3_dwconv/concat <- conv8_0/3x3_dwconv/slice_0/bn
I0918 12:20:37.107892 22578 net.cpp:408] conv8_0/3x3_dwconv/concat <- conv8_0/3x3_dwconv/slice_1/bn
I0918 12:20:37.107897 22578 net.cpp:408] conv8_0/3x3_dwconv/concat <- conv8_0/3x3_dwconv/slice_2/bn
I0918 12:20:37.107903 22578 net.cpp:382] conv8_0/3x3_dwconv/concat -> conv8_0/3x3_dwconv/concat
I0918 12:20:37.107940 22578 net.cpp:124] Setting up conv8_0/3x3_dwconv/concat
I0918 12:20:37.107946 22578 net.cpp:131] Top shape: 25 1152 7 7 (1411200)
I0918 12:20:37.107950 22578 net.cpp:139] Memory required for data: 2360553800
I0918 12:20:37.107966 22578 layer_factory.hpp:77] Creating layer conv8_0/3x3_dwconv/concat_fixed_point
I0918 12:20:37.107976 22578 net.cpp:86] Creating Layer conv8_0/3x3_dwconv/concat_fixed_point
I0918 12:20:37.107981 22578 net.cpp:408] conv8_0/3x3_dwconv/concat_fixed_point <- conv8_0/3x3_dwconv/concat
I0918 12:20:37.107986 22578 net.cpp:369] conv8_0/3x3_dwconv/concat_fixed_point -> conv8_0/3x3_dwconv/concat (in-place)
I0918 12:20:37.108031 22578 net.cpp:124] Setting up conv8_0/3x3_dwconv/concat_fixed_point
I0918 12:20:37.108037 22578 net.cpp:131] Top shape: 25 1152 7 7 (1411200)
I0918 12:20:37.108041 22578 net.cpp:139] Memory required for data: 2366198600
I0918 12:20:37.108047 22578 layer_factory.hpp:77] Creating layer conv8_0/3x3_dwconv/concat_conv8_0/3x3_dwconv/concat_fixed_point_0_split
I0918 12:20:37.108054 22578 net.cpp:86] Creating Layer conv8_0/3x3_dwconv/concat_conv8_0/3x3_dwconv/concat_fixed_point_0_split
I0918 12:20:37.108058 22578 net.cpp:408] conv8_0/3x3_dwconv/concat_conv8_0/3x3_dwconv/concat_fixed_point_0_split <- conv8_0/3x3_dwconv/concat
I0918 12:20:37.108065 22578 net.cpp:382] conv8_0/3x3_dwconv/concat_conv8_0/3x3_dwconv/concat_fixed_point_0_split -> conv8_0/3x3_dwconv/concat_conv8_0/3x3_dwconv/concat_fixed_point_0_split_0
I0918 12:20:37.108073 22578 net.cpp:382] conv8_0/3x3_dwconv/concat_conv8_0/3x3_dwconv/concat_fixed_point_0_split -> conv8_0/3x3_dwconv/concat_conv8_0/3x3_dwconv/concat_fixed_point_0_split_1
I0918 12:20:37.108124 22578 net.cpp:124] Setting up conv8_0/3x3_dwconv/concat_conv8_0/3x3_dwconv/concat_fixed_point_0_split
I0918 12:20:37.108134 22578 net.cpp:131] Top shape: 25 1152 7 7 (1411200)
I0918 12:20:37.108137 22578 net.cpp:131] Top shape: 25 1152 7 7 (1411200)
I0918 12:20:37.108141 22578 net.cpp:139] Memory required for data: 2377488200
I0918 12:20:37.108144 22578 layer_factory.hpp:77] Creating layer conv8_0/3x3_dwconv/SE_global_pool
I0918 12:20:37.108152 22578 net.cpp:86] Creating Layer conv8_0/3x3_dwconv/SE_global_pool
I0918 12:20:37.108157 22578 net.cpp:408] conv8_0/3x3_dwconv/SE_global_pool <- conv8_0/3x3_dwconv/concat_conv8_0/3x3_dwconv/concat_fixed_point_0_split_0
I0918 12:20:37.108162 22578 net.cpp:382] conv8_0/3x3_dwconv/SE_global_pool -> conv8_0/3x3_dwconv/SE_global_pool
I0918 12:20:37.108196 22578 net.cpp:124] Setting up conv8_0/3x3_dwconv/SE_global_pool
I0918 12:20:37.108201 22578 net.cpp:131] Top shape: 25 1152 1 1 (28800)
I0918 12:20:37.108206 22578 net.cpp:139] Memory required for data: 2377603400
I0918 12:20:37.108208 22578 layer_factory.hpp:77] Creating layer conv8_0/3x3_dwconv/SE_bn
I0918 12:20:37.108219 22578 net.cpp:86] Creating Layer conv8_0/3x3_dwconv/SE_bn
I0918 12:20:37.108223 22578 net.cpp:408] conv8_0/3x3_dwconv/SE_bn <- conv8_0/3x3_dwconv/SE_global_pool
I0918 12:20:37.108229 22578 net.cpp:382] conv8_0/3x3_dwconv/SE_bn -> conv8_0/3x3_dwconv/SE_bn
I0918 12:20:37.108283 22578 layer_factory.hpp:77] Creating layer conv8_0/3x3_dwconv/SE_bn
I0918 12:20:37.108448 22578 net.cpp:124] Setting up conv8_0/3x3_dwconv/SE_bn
I0918 12:20:37.108458 22578 net.cpp:131] Top shape: 25 1152 1 1 (28800)
I0918 12:20:37.108460 22578 net.cpp:139] Memory required for data: 2377718600
I0918 12:20:37.108467 22578 layer_factory.hpp:77] Creating layer conv8_0/3x3_dwconv/SE_fc1
I0918 12:20:37.108479 22578 net.cpp:86] Creating Layer conv8_0/3x3_dwconv/SE_fc1
I0918 12:20:37.108484 22578 net.cpp:408] conv8_0/3x3_dwconv/SE_fc1 <- conv8_0/3x3_dwconv/SE_bn
I0918 12:20:37.108492 22578 net.cpp:382] conv8_0/3x3_dwconv/SE_fc1 -> conv8_0/3x3_dwconv/SE_fc1
I0918 12:20:37.111485 22578 net.cpp:124] Setting up conv8_0/3x3_dwconv/SE_fc1
I0918 12:20:37.111498 22578 net.cpp:131] Top shape: 25 72 1 1 (1800)
I0918 12:20:37.111502 22578 net.cpp:139] Memory required for data: 2377725800
I0918 12:20:37.111513 22578 layer_factory.hpp:77] Creating layer conv8_0/3x3_dwconv/SE_fc1/relu
I0918 12:20:37.111522 22578 net.cpp:86] Creating Layer conv8_0/3x3_dwconv/SE_fc1/relu
I0918 12:20:37.111527 22578 net.cpp:408] conv8_0/3x3_dwconv/SE_fc1/relu <- conv8_0/3x3_dwconv/SE_fc1
I0918 12:20:37.111533 22578 net.cpp:369] conv8_0/3x3_dwconv/SE_fc1/relu -> conv8_0/3x3_dwconv/SE_fc1 (in-place)
I0918 12:20:37.112277 22578 net.cpp:124] Setting up conv8_0/3x3_dwconv/SE_fc1/relu
I0918 12:20:37.112290 22578 net.cpp:131] Top shape: 25 72 1 1 (1800)
I0918 12:20:37.112294 22578 net.cpp:139] Memory required for data: 2377733000
I0918 12:20:37.112298 22578 layer_factory.hpp:77] Creating layer conv8_0/3x3_dwconv/SE_fc2
I0918 12:20:37.112323 22578 net.cpp:86] Creating Layer conv8_0/3x3_dwconv/SE_fc2
I0918 12:20:37.112327 22578 net.cpp:408] conv8_0/3x3_dwconv/SE_fc2 <- conv8_0/3x3_dwconv/SE_fc1
I0918 12:20:37.112336 22578 net.cpp:382] conv8_0/3x3_dwconv/SE_fc2 -> conv8_0/3x3_dwconv/SE_fc2
I0918 12:20:37.115440 22578 net.cpp:124] Setting up conv8_0/3x3_dwconv/SE_fc2
I0918 12:20:37.115454 22578 net.cpp:131] Top shape: 25 1152 1 1 (28800)
I0918 12:20:37.115458 22578 net.cpp:139] Memory required for data: 2377848200
I0918 12:20:37.115469 22578 layer_factory.hpp:77] Creating layer conv8_0/3x3_dwconv/SE_weights
I0918 12:20:37.115476 22578 net.cpp:86] Creating Layer conv8_0/3x3_dwconv/SE_weights
I0918 12:20:37.115481 22578 net.cpp:408] conv8_0/3x3_dwconv/SE_weights <- conv8_0/3x3_dwconv/SE_fc2
I0918 12:20:37.115490 22578 net.cpp:369] conv8_0/3x3_dwconv/SE_weights -> conv8_0/3x3_dwconv/SE_fc2 (in-place)
I0918 12:20:37.116205 22578 net.cpp:124] Setting up conv8_0/3x3_dwconv/SE_weights
I0918 12:20:37.116219 22578 net.cpp:131] Top shape: 25 1152 1 1 (28800)
I0918 12:20:37.116223 22578 net.cpp:139] Memory required for data: 2377963400
I0918 12:20:37.116243 22578 layer_factory.hpp:77] Creating layer conv8_0/3x3_dwconv/SE_weights/reshape
I0918 12:20:37.116266 22578 net.cpp:86] Creating Layer conv8_0/3x3_dwconv/SE_weights/reshape
I0918 12:20:37.116271 22578 net.cpp:408] conv8_0/3x3_dwconv/SE_weights/reshape <- conv8_0/3x3_dwconv/SE_fc2
I0918 12:20:37.116278 22578 net.cpp:382] conv8_0/3x3_dwconv/SE_weights/reshape -> conv8_0/3x3_dwconv/SE_weights/reshape
I0918 12:20:37.116322 22578 net.cpp:124] Setting up conv8_0/3x3_dwconv/SE_weights/reshape
I0918 12:20:37.116339 22578 net.cpp:131] Top shape: 25 1152 (28800)
I0918 12:20:37.116343 22578 net.cpp:139] Memory required for data: 2378078600
I0918 12:20:37.116348 22578 layer_factory.hpp:77] Creating layer conv8_0/3x3_dwconv/scale
I0918 12:20:37.116354 22578 net.cpp:86] Creating Layer conv8_0/3x3_dwconv/scale
I0918 12:20:37.116358 22578 net.cpp:408] conv8_0/3x3_dwconv/scale <- conv8_0/3x3_dwconv/concat_conv8_0/3x3_dwconv/concat_fixed_point_0_split_1
I0918 12:20:37.116364 22578 net.cpp:408] conv8_0/3x3_dwconv/scale <- conv8_0/3x3_dwconv/SE_weights/reshape
I0918 12:20:37.116371 22578 net.cpp:382] conv8_0/3x3_dwconv/scale -> conv8_0/3x3_dwconv/scale
I0918 12:20:37.116466 22578 net.cpp:124] Setting up conv8_0/3x3_dwconv/scale
I0918 12:20:37.116474 22578 net.cpp:131] Top shape: 25 1152 7 7 (1411200)
I0918 12:20:37.116477 22578 net.cpp:139] Memory required for data: 2383723400
I0918 12:20:37.116482 22578 layer_factory.hpp:77] Creating layer conv8_0/3x3_dwconv/scale_fixed_point
I0918 12:20:37.116492 22578 net.cpp:86] Creating Layer conv8_0/3x3_dwconv/scale_fixed_point
I0918 12:20:37.116497 22578 net.cpp:408] conv8_0/3x3_dwconv/scale_fixed_point <- conv8_0/3x3_dwconv/scale
I0918 12:20:37.116502 22578 net.cpp:369] conv8_0/3x3_dwconv/scale_fixed_point -> conv8_0/3x3_dwconv/scale (in-place)
I0918 12:20:37.116535 22578 net.cpp:124] Setting up conv8_0/3x3_dwconv/scale_fixed_point
I0918 12:20:37.116549 22578 net.cpp:131] Top shape: 25 1152 7 7 (1411200)
I0918 12:20:37.116551 22578 net.cpp:139] Memory required for data: 2389368200
I0918 12:20:37.116556 22578 layer_factory.hpp:77] Creating layer conv8_0/1x1_decrease
I0918 12:20:37.116571 22578 net.cpp:86] Creating Layer conv8_0/1x1_decrease
I0918 12:20:37.116576 22578 net.cpp:408] conv8_0/1x1_decrease <- conv8_0/3x3_dwconv/scale
I0918 12:20:37.116585 22578 net.cpp:382] conv8_0/1x1_decrease -> conv8_0/1x1_decrease/bn
I0918 12:20:37.129731 22578 net.cpp:124] Setting up conv8_0/1x1_decrease
I0918 12:20:37.129747 22578 net.cpp:131] Top shape: 25 320 7 7 (392000)
I0918 12:20:37.129773 22578 net.cpp:139] Memory required for data: 2390936200
I0918 12:20:37.129782 22578 layer_factory.hpp:77] Creating layer conv8_0/1x1_decrease/bn_fixed_point
I0918 12:20:37.129791 22578 net.cpp:86] Creating Layer conv8_0/1x1_decrease/bn_fixed_point
I0918 12:20:37.129796 22578 net.cpp:408] conv8_0/1x1_decrease/bn_fixed_point <- conv8_0/1x1_decrease/bn
I0918 12:20:37.129809 22578 net.cpp:369] conv8_0/1x1_decrease/bn_fixed_point -> conv8_0/1x1_decrease/bn (in-place)
I0918 12:20:37.129853 22578 net.cpp:124] Setting up conv8_0/1x1_decrease/bn_fixed_point
I0918 12:20:37.129859 22578 net.cpp:131] Top shape: 25 320 7 7 (392000)
I0918 12:20:37.129863 22578 net.cpp:139] Memory required for data: 2392504200
I0918 12:20:37.129868 22578 layer_factory.hpp:77] Creating layer conv9/1x1
I0918 12:20:37.129879 22578 net.cpp:86] Creating Layer conv9/1x1
I0918 12:20:37.129884 22578 net.cpp:408] conv9/1x1 <- conv8_0/1x1_decrease/bn
I0918 12:20:37.129892 22578 net.cpp:382] conv9/1x1 -> conv9/1x1/bn
I0918 12:20:37.144078 22578 net.cpp:124] Setting up conv9/1x1
I0918 12:20:37.144094 22578 net.cpp:131] Top shape: 25 1280 7 7 (1568000)
I0918 12:20:37.144098 22578 net.cpp:139] Memory required for data: 2398776200
I0918 12:20:37.144105 22578 layer_factory.hpp:77] Creating layer conv9/1x1/relu
I0918 12:20:37.144116 22578 net.cpp:86] Creating Layer conv9/1x1/relu
I0918 12:20:37.144121 22578 net.cpp:408] conv9/1x1/relu <- conv9/1x1/bn
I0918 12:20:37.144127 22578 net.cpp:369] conv9/1x1/relu -> conv9/1x1/bn (in-place)
I0918 12:20:37.145005 22578 net.cpp:124] Setting up conv9/1x1/relu
I0918 12:20:37.145020 22578 net.cpp:131] Top shape: 25 1280 7 7 (1568000)
I0918 12:20:37.145025 22578 net.cpp:139] Memory required for data: 2405048200
I0918 12:20:37.145035 22578 layer_factory.hpp:77] Creating layer conv9/1x1/bn_fixed_point
I0918 12:20:37.145045 22578 net.cpp:86] Creating Layer conv9/1x1/bn_fixed_point
I0918 12:20:37.145051 22578 net.cpp:408] conv9/1x1/bn_fixed_point <- conv9/1x1/bn
I0918 12:20:37.145056 22578 net.cpp:369] conv9/1x1/bn_fixed_point -> conv9/1x1/bn (in-place)
I0918 12:20:37.145098 22578 net.cpp:124] Setting up conv9/1x1/bn_fixed_point
I0918 12:20:37.145104 22578 net.cpp:131] Top shape: 25 1280 7 7 (1568000)
I0918 12:20:37.145108 22578 net.cpp:139] Memory required for data: 2411320200
I0918 12:20:37.145113 22578 layer_factory.hpp:77] Creating layer avepool/7x7
I0918 12:20:37.145123 22578 net.cpp:86] Creating Layer avepool/7x7
I0918 12:20:37.145128 22578 net.cpp:408] avepool/7x7 <- conv9/1x1/bn
I0918 12:20:37.145133 22578 net.cpp:382] avepool/7x7 -> avepool/7x7
I0918 12:20:37.145848 22578 net.cpp:124] Setting up avepool/7x7
I0918 12:20:37.145860 22578 net.cpp:131] Top shape: 25 1280 1 1 (32000)
I0918 12:20:37.145875 22578 net.cpp:139] Memory required for data: 2411448200
I0918 12:20:37.145879 22578 layer_factory.hpp:77] Creating layer avepool/7x7_fixed_point
I0918 12:20:37.145889 22578 net.cpp:86] Creating Layer avepool/7x7_fixed_point
I0918 12:20:37.145892 22578 net.cpp:408] avepool/7x7_fixed_point <- avepool/7x7
I0918 12:20:37.145900 22578 net.cpp:369] avepool/7x7_fixed_point -> avepool/7x7 (in-place)
I0918 12:20:37.145937 22578 net.cpp:124] Setting up avepool/7x7_fixed_point
I0918 12:20:37.145943 22578 net.cpp:131] Top shape: 25 1280 1 1 (32000)
I0918 12:20:37.145946 22578 net.cpp:139] Memory required for data: 2411576200
I0918 12:20:37.145951 22578 layer_factory.hpp:77] Creating layer classifier
I0918 12:20:37.145963 22578 net.cpp:86] Creating Layer classifier
I0918 12:20:37.145967 22578 net.cpp:408] classifier <- avepool/7x7
I0918 12:20:37.145974 22578 net.cpp:382] classifier -> classifier
I0918 12:20:37.187911 22578 net.cpp:124] Setting up classifier
I0918 12:20:37.187943 22578 net.cpp:131] Top shape: 25 1000 1 1 (25000)
I0918 12:20:37.187947 22578 net.cpp:139] Memory required for data: 2411676200
I0918 12:20:37.187956 22578 layer_factory.hpp:77] Creating layer classifier_classifier_0_split
I0918 12:20:37.187964 22578 net.cpp:86] Creating Layer classifier_classifier_0_split
I0918 12:20:37.187969 22578 net.cpp:408] classifier_classifier_0_split <- classifier
I0918 12:20:37.187991 22578 net.cpp:382] classifier_classifier_0_split -> classifier_classifier_0_split_0
I0918 12:20:37.188000 22578 net.cpp:382] classifier_classifier_0_split -> classifier_classifier_0_split_1
I0918 12:20:37.188006 22578 net.cpp:382] classifier_classifier_0_split -> classifier_classifier_0_split_2
I0918 12:20:37.188088 22578 net.cpp:124] Setting up classifier_classifier_0_split
I0918 12:20:37.188096 22578 net.cpp:131] Top shape: 25 1000 1 1 (25000)
I0918 12:20:37.188099 22578 net.cpp:131] Top shape: 25 1000 1 1 (25000)
I0918 12:20:37.188104 22578 net.cpp:131] Top shape: 25 1000 1 1 (25000)
I0918 12:20:37.188107 22578 net.cpp:139] Memory required for data: 2411976200
I0918 12:20:37.188110 22578 layer_factory.hpp:77] Creating layer loss
I0918 12:20:37.188124 22578 net.cpp:86] Creating Layer loss
I0918 12:20:37.188128 22578 net.cpp:408] loss <- classifier_classifier_0_split_0
I0918 12:20:37.188134 22578 net.cpp:408] loss <- label_data_1_split_0
I0918 12:20:37.188139 22578 net.cpp:382] loss -> loss
…
