…
I0906 17:47:25.814072 22606 caffe.cpp:270] GPU device name: Graphics Device
I0906 17:47:26.652194 22606 net.cpp:53] Initializing net from parameters: 
state {
  phase: TEST
  level: 0
  stage: ""
}
layer {
  name: "data"
  type: "ImageData"
  top: "data"
  top: "label"
  include {
    phase: TEST
  }
  transform_param {
    crop_size: 224
    mean_value: 104
    mean_value: 117
    mean_value: 123
  }
  image_data_param {
    source: "file_lists/val.txt"
    batch_size: 50
    root_folder: "/share5/public/classification_data/imagenet1k/val/"
    short_edge: 256
  }
}
layer {
  name: "data_fixed_point"
  type: "Quantize"
  bottom: "data"
  top: "data"
  param {
    lr_mult: 0
    decay_mult: 0
  }
  quantize_param {
    precision: 8
    frozen: true
    positive: false
    tolerance: 1.3
  }
}
layer {
  name: "conv1/3x3_s2"
  type: "Convolution"
  bottom: "data"
  top: "conv1/3x3_s2/bn"
  param {
    lr_mult: 1
    decay_mult: 1
  }
  param {
    lr_mult: 2
    decay_mult: 0
  }
  convolution_param {
    num_output: 32
    bias_term: true
    pad: 1
    kernel_size: 3
    stride: 2
    weight_filler {
      type: "msra"
    }
    bias_filler {
      type: "constant"
      value: 0
    }
    engine: CAFFE
    fp16_accumulation: true
  }
  quantize_param {
    precision: 8
    channel_shared: false
  }
}
layer {
  name: "conv1/3x3_s2/relu"
  type: "ReLU"
  bottom: "conv1/3x3_s2/bn"
  top: "conv1/3x3_s2/bn"
}
layer {
  name: "conv1/3x3_s2/bn_fixed_point"
  type: "Quantize"
  bottom: "conv1/3x3_s2/bn"
  top: "conv1/3x3_s2/bn"
  param {
    lr_mult: 0
    decay_mult: 0
  }
  quantize_param {
    precision: 8
    frozen: true
    positive: true
    tolerance: 1.3
  }
}
layer {
  name: "conv2_0/3x3_dwconv"
  type: "Convolution"
  bottom: "conv1/3x3_s2/bn"
  top: "conv2_0/3x3_dwconv/bn"
  param {
    lr_mult: 1
    decay_mult: 1
  }
  param {
    lr_mult: 2
    decay_mult: 0
  }
  convolution_param {
    num_output: 32
    bias_term: true
    pad: 1
    kernel_size: 3
    group: 32
    stride: 1
    weight_filler {
      type: "msra"
    }
    bias_filler {
      type: "constant"
      value: 0
    }
    engine: CAFFE
    fp16_accumulation: true
  }
  quantize_param {
    precision: 8
    channel_shared: false
  }
}
layer {
  name: "conv2_0/3x3_dwconv/relu"
  type: "ReLU"
  bottom: "conv2_0/3x3_dwconv/bn"
  top: "conv2_0/3x3_dwconv/bn"
}
layer {
  name: "conv2_0/3x3_dwconv/bn_fixed_point"
  type: "Quantize"
  bottom: "conv2_0/3x3_dwconv/bn"
  top: "conv2_0/3x3_dwconv/bn"
  param {
    lr_mult: 0
    decay_mult: 0
  }
  quantize_param {
    precision: 8
    frozen: true
    positive: true
    tolerance: 1.3
  }
}
layer {
  name: "conv2_0/1x1_decrease"
  type: "Convolution"
  bottom: "conv2_0/3x3_dwconv/bn"
  top: "conv2_0/1x1_decrease/bn"
  param {
    lr_mult: 1
    decay_mult: 1
  }
  param {
    lr_mult: 2
    decay_mult: 0
  }
  convolution_param {
    num_output: 16
    bias_term: true
    kernel_size: 1
    stride: 1
    weight_filler {
      type: "msra"
    }
    bias_filler {
      type: "constant"
      value: 0
    }
    engine: CAFFE
    fp16_accumulation: true
  }
  quantize_param {
    precision: 8
    channel_shared: false
  }
}
layer {
  name: "conv2_0/1x1_decrease/bn_fixed_point"
  type: "Quantize"
  bottom: "conv2_0/1x1_decrease/bn"
  top: "conv2_0/1x1_decrease/bn"
  param {
    lr_mult: 0
    decay_mult: 0
  }
  quantize_param {
    precision: 8
    frozen: true
    positive: false
    tolerance: 1.3
  }
}
layer {
  name: "conv3_0/1x1_increase"
  type: "Convolution"
  bottom: "conv2_0/1x1_decrease/bn"
  top: "conv3_0/1x1_increase/bn"
  param {
    lr_mult: 1
    decay_mult: 1
  }
  param {
    lr_mult: 2
    decay_mult: 0
  }
  convolution_param {
    num_output: 48
    bias_term: true
    kernel_size: 1
    stride: 1
    weight_filler {
      type: "msra"
    }
    bias_filler {
      type: "constant"
      value: 0
    }
    engine: CAFFE
    fp16_accumulation: true
  }
  quantize_param {
    precision: 8
    channel_shared: false
  }
}
layer {
  name: "conv3_0/1x1_increase/relu"
  type: "ReLU"
  bottom: "conv3_0/1x1_increase/bn"
  top: "conv3_0/1x1_increase/bn"
}
layer {
  name: "conv3_0/1x1_increase/bn_fixed_point"
  type: "Quantize"
  bottom: "conv3_0/1x1_increase/bn"
  top: "conv3_0/1x1_increase/bn"
  param {
    lr_mult: 0
    decay_mult: 0
  }
  quantize_param {
    precision: 8
    frozen: true
    positive: true
    tolerance: 1.3
  }
}
layer {
  name: "conv3_0/3x3_dwconv"
  type: "Convolution"
  bottom: "conv3_0/1x1_increase/bn"
  top: "conv3_0/3x3_dwconv/bn"
  param {
    lr_mult: 1
    decay_mult: 1
  }
  param {
    lr_mult: 2
    decay_mult: 0
  }
  convolution_param {
    num_output: 48
    bias_term: true
    pad: 2
    kernel_size: 5
    group: 48
    stride: 2
    weight_filler {
      type: "msra"
    }
    bias_filler {
      type: "constant"
      value: 0
    }
    engine: CAFFE
    fp16_accumulation: true
  }
  quantize_param {
    precision: 8
    channel_shared: false
  }
}
layer {
  name: "conv3_0/3x3_dwconv/relu"
  type: "ReLU"
  bottom: "conv3_0/3x3_dwconv/bn"
  top: "conv3_0/3x3_dwconv/bn"
}
layer {
  name: "conv3_0/3x3_dwconv/bn_fixed_point"
  type: "Quantize"
  bottom: "conv3_0/3x3_dwconv/bn"
  top: "conv3_0/3x3_dwconv/bn"
  param {
    lr_mult: 0
    decay_mult: 0
  }
  quantize_param {
    precision: 8
    frozen: true
    positive: true
    tolerance: 1.3
  }
}
layer {
  name: "conv3_0/1x1_decrease"
  type: "Convolution"
  bottom: "conv3_0/3x3_dwconv/bn"
  top: "conv3_0/1x1_decrease/bn"
  param {
    lr_mult: 1
    decay_mult: 1
  }
  param {
    lr_mult: 2
    decay_mult: 0
  }
  convolution_param {
    num_output: 32
    bias_term: true
    kernel_size: 1
    stride: 1
    weight_filler {
      type: "msra"
    }
    bias_filler {
      type: "constant"
      value: 0
    }
    engine: CAFFE
    fp16_accumulation: true
  }
  quantize_param {
    precision: 8
    channel_shared: false
  }
}
layer {
  name: "conv3_0/1x1_decrease/bn_fixed_point"
  type: "Quantize"
  bottom: "conv3_0/1x1_decrease/bn"
  top: "conv3_0/1x1_decrease/bn"
  param {
    lr_mult: 0
    decay_mult: 0
  }
  quantize_param {
    precision: 8
    frozen: true
    positive: false
    tolerance: 1.3
  }
}
layer {
  name: "conv3_1/1x1_increase"
  type: "Convolution"
  bottom: "conv3_0/1x1_decrease/bn"
  top: "conv3_1/1x1_increase/bn"
  param {
    lr_mult: 1
    decay_mult: 1
  }
  param {
    lr_mult: 2
    decay_mult: 0
  }
  convolution_param {
    num_output: 96
    bias_term: true
    kernel_size: 1
    stride: 1
    weight_filler {
      type: "msra"
    }
    bias_filler {
      type: "constant"
      value: 0
    }
    engine: CAFFE
    fp16_accumulation: true
  }
  quantize_param {
    precision: 8
    channel_shared: false
  }
}
layer {
  name: "conv3_1/1x1_increase/relu"
  type: "ReLU"
  bottom: "conv3_1/1x1_increase/bn"
  top: "conv3_1/1x1_increase/bn"
}
layer {
  name: "conv3_1/1x1_increase/bn_fixed_point"
  type: "Quantize"
  bottom: "conv3_1/1x1_increase/bn"
  top: "conv3_1/1x1_increase/bn"
  param {
    lr_mult: 0
    decay_mult: 0
  }
  quantize_param {
    precision: 8
    frozen: true
    positive: true
    tolerance: 1.3
  }
}
layer {
  name: "conv3_1/3x3_dwconv"
  type: "Convolution"
  bottom: "conv3_1/1x1_increase/bn"
  top: "conv3_1/3x3_dwconv/bn"
  param {
    lr_mult: 1
    decay_mult: 1
  }
  param {
    lr_mult: 2
    decay_mult: 0
  }
  convolution_param {
    num_output: 96
    bias_term: true
    pad: 1
    kernel_size: 3
    group: 96
    stride: 1
    weight_filler {
      type: "msra"
    }
    bias_filler {
      type: "constant"
      value: 0
    }
    engine: CAFFE
    fp16_accumulation: true
  }
  quantize_param {
    precision: 8
    channel_shared: false
  }
}
layer {
  name: "conv3_1/3x3_dwconv/relu"
  type: "ReLU"
  bottom: "conv3_1/3x3_dwconv/bn"
  top: "conv3_1/3x3_dwconv/bn"
}
layer {
  name: "conv3_1/3x3_dwconv/bn_fixed_point"
  type: "Quantize"
  bottom: "conv3_1/3x3_dwconv/bn"
  top: "conv3_1/3x3_dwconv/bn"
  param {
    lr_mult: 0
    decay_mult: 0
  }
  quantize_param {
    precision: 8
    frozen: true
    positive: true
    tolerance: 1.3
  }
}
layer {
  name: "conv3_1/1x1_decrease"
  type: "Convolution"
  bottom: "conv3_1/3x3_dwconv/bn"
  top: "conv3_1/1x1_decrease/bn"
  param {
    lr_mult: 1
    decay_mult: 1
  }
  param {
    lr_mult: 2
    decay_mult: 0
  }
  convolution_param {
    num_output: 32
    bias_term: true
    kernel_size: 1
    stride: 1
    weight_filler {
      type: "msra"
    }
    bias_filler {
      type: "constant"
      value: 0
    }
    engine: CAFFE
    fp16_accumulation: true
  }
  quantize_param {
    precision: 8
    channel_shared: false
  }
}
layer {
  name: "conv3_1/elt_sum"
  type: "Eltwise"
  bottom: "conv3_0/1x1_decrease/bn"
  bottom: "conv3_1/1x1_decrease/bn"
  top: "conv3_1/elt_sum"
  eltwise_param {
    operation: SUM
  }
}
layer {
  name: "conv3_1/elt_sum_fixed_point"
  type: "Quantize"
  bottom: "conv3_1/elt_sum"
  top: "conv3_1/elt_sum"
  param {
    lr_mult: 0
    decay_mult: 0
  }
  quantize_param {
    precision: 8
    frozen: true
    positive: false
    tolerance: 1.3
  }
}
layer {
  name: "conv4_0/1x1_increase"
  type: "Convolution"
  bottom: "conv3_1/elt_sum"
  top: "conv4_0/1x1_increase/bn"
  param {
    lr_mult: 1
    decay_mult: 1
  }
  param {
    lr_mult: 2
    decay_mult: 0
  }
  convolution_param {
    num_output: 96
    bias_term: true
    kernel_size: 1
    stride: 1
    weight_filler {
      type: "msra"
    }
    bias_filler {
      type: "constant"
      value: 0
    }
    engine: CAFFE
    fp16_accumulation: true
  }
  quantize_param {
    precision: 8
    channel_shared: false
  }
}
layer {
  name: "conv4_0/1x1_increase/relu"
  type: "ReLU"
  bottom: "conv4_0/1x1_increase/bn"
  top: "conv4_0/1x1_increase/bn"
}
layer {
  name: "conv4_0/1x1_increase/bn_fixed_point"
  type: "Quantize"
  bottom: "conv4_0/1x1_increase/bn"
  top: "conv4_0/1x1_increase/bn"
  param {
    lr_mult: 0
    decay_mult: 0
  }
  quantize_param {
    precision: 8
    frozen: true
    positive: true
    tolerance: 1.3
  }
}
layer {
  name: "conv4_0/1x1_increase/slice"
  type: "Slice"
  bottom: "conv4_0/1x1_increase/bn"
  top: "conv4_0/1x1_increase/split1"
  top: "conv4_0/1x1_increase/split2"
  top: "conv4_0/1x1_increase/split3"
  slice_param {
    slice_point: 32
    slice_point: 64
  }
}
layer {
  name: "conv4_0/3x3_dwconv/slice_0"
  type: "Convolution"
  bottom: "conv4_0/1x1_increase/split1"
  top: "conv4_0/3x3_dwconv/slice_0/bn"
  param {
    lr_mult: 1
    decay_mult: 1
  }
  param {
    lr_mult: 2
    decay_mult: 0
  }
  convolution_param {
    num_output: 32
    bias_term: true
    pad: 1
    kernel_size: 3
    group: 32
    stride: 2
    weight_filler {
      type: "msra"
    }
    bias_filler {
      type: "constant"
      value: 0
    }
    engine: CAFFE
    fp16_accumulation: true
  }
  quantize_param {
    precision: 8
    channel_shared: false
  }
}
layer {
  name: "conv4_0/3x3_dwconv/slice_0/relu"
  type: "ReLU"
  bottom: "conv4_0/3x3_dwconv/slice_0/bn"
  top: "conv4_0/3x3_dwconv/slice_0/bn"
}
layer {
  name: "conv4_0/3x3_dwconv/slice_1"
  type: "Convolution"
  bottom: "conv4_0/1x1_increase/split2"
  top: "conv4_0/3x3_dwconv/slice_1/bn"
  param {
    lr_mult: 1
    decay_mult: 1
  }
  param {
    lr_mult: 2
    decay_mult: 0
  }
  convolution_param {
    num_output: 32
    bias_term: true
    pad: 2
    kernel_size: 5
    group: 32
    stride: 2
    weight_filler {
      type: "msra"
    }
    bias_filler {
      type: "constant"
      value: 0
    }
    engine: CAFFE
    fp16_accumulation: true
  }
  quantize_param {
    precision: 8
    channel_shared: false
  }
}
layer {
  name: "conv4_0/3x3_dwconv/slice_1/relu"
  type: "ReLU"
  bottom: "conv4_0/3x3_dwconv/slice_1/bn"
  top: "conv4_0/3x3_dwconv/slice_1/bn"
}
layer {
  name: "conv4_0/3x3_dwconv/slice_2"
  type: "Convolution"
  bottom: "conv4_0/1x1_increase/split3"
  top: "conv4_0/3x3_dwconv/slice_2/bn"
  param {
    lr_mult: 1
    decay_mult: 1
  }
  param {
    lr_mult: 2
    decay_mult: 0
  }
  convolution_param {
    num_output: 32
    bias_term: true
    pad: 3
    kernel_size: 7
    group: 32
    stride: 2
    weight_filler {
      type: "msra"
    }
    bias_filler {
      type: "constant"
      value: 0
    }
    engine: CAFFE
    fp16_accumulation: true
  }
  quantize_param {
    precision: 8
    channel_shared: false
  }
}
layer {
  name: "conv4_0/3x3_dwconv/slice_2/relu"
  type: "ReLU"
  bottom: "conv4_0/3x3_dwconv/slice_2/bn"
  top: "conv4_0/3x3_dwconv/slice_2/bn"
}
layer {
  name: "conv4_0/3x3_dwconv/concat"
  type: "Concat"
  bottom: "conv4_0/3x3_dwconv/slice_0/bn"
  bottom: "conv4_0/3x3_dwconv/slice_1/bn"
  bottom: "conv4_0/3x3_dwconv/slice_2/bn"
  top: "conv4_0/3x3_dwconv/concat"
}
layer {
  name: "conv4_0/3x3_dwconv/concat_fixed_point"
  type: "Quantize"
  bottom: "conv4_0/3x3_dwconv/concat"
  top: "conv4_0/3x3_dwconv/concat"
  param {
    lr_mult: 0
    decay_mult: 0
  }
  quantize_param {
    precision: 8
    frozen: true
    positive: true
    tolerance: 1.3
  }
}
layer {
  name: "conv4_0/3x3_dwconv/SE_global_pool"
  type: "Pooling"
  bottom: "conv4_0/3x3_dwconv/concat"
  top: "conv4_0/3x3_dwconv/SE_global_pool"
  pooling_param {
    pool: AVE
    engine: CAFFE
    global_pooling: true
  }
}
layer {
  name: "conv4_0/3x3_dwconv/SE_fc1"
  type: "Convolution"
  bottom: "conv4_0/3x3_dwconv/SE_global_pool"
  top: "conv4_0/3x3_dwconv/SE_fc1"
  param {
    lr_mult: 1
    decay_mult: 1
  }
  convolution_param {
    num_output: 6
    bias_term: false
    kernel_size: 1
    stride: 1
    weight_filler {
      type: "gaussian"
      std: 0.01
    }
    engine: CAFFE
    fp16_accumulation: true
  }
  quantize_param {
    precision: 8
    channel_shared: false
  }
}
layer {
  name: "conv4_0/3x3_dwconv/SE_fc1/relu"
  type: "ReLU"
  bottom: "conv4_0/3x3_dwconv/SE_fc1"
  top: "conv4_0/3x3_dwconv/SE_fc1"
}
layer {
  name: "conv4_0/3x3_dwconv/SE_fc2"
  type: "Convolution"
  bottom: "conv4_0/3x3_dwconv/SE_fc1"
  top: "conv4_0/3x3_dwconv/SE_fc2"
  param {
    lr_mult: 1
    decay_mult: 1
  }
  convolution_param {
    num_output: 96
    bias_term: false
    kernel_size: 1
    stride: 1
    weight_filler {
      type: "gaussian"
      std: 0.01
    }
    engine: CAFFE
    fp16_accumulation: true
  }
  quantize_param {
    precision: 8
    channel_shared: false
  }
}
layer {
  name: "conv4_0/3x3_dwconv/SE_weights"
  type: "Sigmoid"
  bottom: "conv4_0/3x3_dwconv/SE_fc2"
  top: "conv4_0/3x3_dwconv/SE_fc2"
}
layer {
  name: "conv4_0/3x3_dwconv/SE_weights/reshape"
  type: "Reshape"
  bottom: "conv4_0/3x3_dwconv/SE_fc2"
  top: "conv4_0/3x3_dwconv/SE_weights/reshape"
  reshape_param {
    shape {
      dim: 0
      dim: 0
    }
  }
}
layer {
  name: "conv4_0/3x3_dwconv/scale"
  type: "Scale"
  bottom: "conv4_0/3x3_dwconv/concat"
  bottom: "conv4_0/3x3_dwconv/SE_weights/reshape"
  top: "conv4_0/3x3_dwconv/scale"
  scale_param {
    axis: 0
    bias_term: false
  }
}
layer {
  name: "conv4_0/3x3_dwconv/scale_fixed_point"
  type: "Quantize"
  bottom: "conv4_0/3x3_dwconv/scale"
  top: "conv4_0/3x3_dwconv/scale"
  param {
    lr_mult: 0
    decay_mult: 0
  }
  quantize_param {
    precision: 8
    frozen: true
    positive: false
    tolerance: 1.3
  }
}
layer {
  name: "conv4_0/1x1_decrease"
  type: "Convolution"
  bottom: "conv4_0/3x3_dwconv/scale"
  top: "conv4_0/1x1_decrease/bn"
  param {
    lr_mult: 1
    decay_mult: 1
  }
  param {
    lr_mult: 2
    decay_mult: 0
  }
  convolution_param {
    num_output: 40
    bias_term: true
    kernel_size: 1
    stride: 1
    weight_filler {
      type: "msra"
    }
    bias_filler {
      type: "constant"
      value: 0
    }
    engine: CAFFE
    fp16_accumulation: true
  }
  quantize_param {
    precision: 8
    channel_shared: false
  }
}
layer {
  name: "conv4_0/1x1_decrease/bn_fixed_point"
  type: "Quantize"
  bottom: "conv4_0/1x1_decrease/bn"
  top: "conv4_0/1x1_decrease/bn"
  param {
    lr_mult: 0
    decay_mult: 0
  }
  quantize_param {
    precision: 8
    frozen: true
    positive: false
    tolerance: 1.3
  }
}
layer {
  name: "conv4_1/1x1_increase"
  type: "Convolution"
  bottom: "conv4_0/1x1_decrease/bn"
  top: "conv4_1/1x1_increase/bn"
  param {
    lr_mult: 1
    decay_mult: 1
  }
  param {
    lr_mult: 2
    decay_mult: 0
  }
  convolution_param {
    num_output: 120
    bias_term: true
    kernel_size: 1
    stride: 1
    weight_filler {
      type: "msra"
    }
    bias_filler {
      type: "constant"
      value: 0
    }
    engine: CAFFE
    fp16_accumulation: true
  }
  quantize_param {
    precision: 8
    channel_shared: false
  }
}
layer {
  name: "conv4_1/1x1_increase/relu"
  type: "ReLU"
  bottom: "conv4_1/1x1_increase/bn"
  top: "conv4_1/1x1_increase/bn"
}
layer {
  name: "conv4_1/1x1_increase/bn_fixed_point"
  type: "Quantize"
  bottom: "conv4_1/1x1_increase/bn"
  top: "conv4_1/1x1_increase/bn"
  param {
    lr_mult: 0
    decay_mult: 0
  }
  quantize_param {
    precision: 8
    frozen: true
    positive: true
    tolerance: 1.3
  }
}
layer {
  name: "conv4_1/1x1_increase/slice"
  type: "Slice"
  bottom: "conv4_1/1x1_increase/bn"
  top: "conv4_1/1x1_increase/split1"
  top: "conv4_1/1x1_increase/split2"
  slice_param {
    slice_point: 60
  }
}
layer {
  name: "conv4_1/3x3_dwconv/slice_0"
  type: "Convolution"
  bottom: "conv4_1/1x1_increase/split1"
  top: "conv4_1/3x3_dwconv/slice_0/bn"
  param {
    lr_mult: 1
    decay_mult: 1
  }
  param {
    lr_mult: 2
    decay_mult: 0
  }
  convolution_param {
    num_output: 60
    bias_term: true
    pad: 1
    kernel_size: 3
    group: 60
    stride: 1
    weight_filler {
      type: "msra"
    }
    bias_filler {
      type: "constant"
      value: 0
    }
    engine: CAFFE
    fp16_accumulation: true
  }
  quantize_param {
    precision: 8
    channel_shared: false
  }
}
layer {
  name: "conv4_1/3x3_dwconv/slice_0/relu"
  type: "ReLU"
  bottom: "conv4_1/3x3_dwconv/slice_0/bn"
  top: "conv4_1/3x3_dwconv/slice_0/bn"
}
layer {
  name: "conv4_1/3x3_dwconv/slice_1"
  type: "Convolution"
  bottom: "conv4_1/1x1_increase/split2"
  top: "conv4_1/3x3_dwconv/slice_1/bn"
  param {
    lr_mult: 1
    decay_mult: 1
  }
  param {
    lr_mult: 2
    decay_mult: 0
  }
  convolution_param {
    num_output: 60
    bias_term: true
    pad: 2
    kernel_size: 5
    group: 60
    stride: 1
    weight_filler {
      type: "msra"
    }
    bias_filler {
      type: "constant"
      value: 0
    }
    engine: CAFFE
    fp16_accumulation: true
  }
  quantize_param {
    precision: 8
    channel_shared: false
  }
}
layer {
  name: "conv4_1/3x3_dwconv/slice_1/relu"
  type: "ReLU"
  bottom: "conv4_1/3x3_dwconv/slice_1/bn"
  top: "conv4_1/3x3_dwconv/slice_1/bn"
}
layer {
  name: "conv4_1/3x3_dwconv/concat"
  type: "Concat"
  bottom: "conv4_1/3x3_dwconv/slice_0/bn"
  bottom: "conv4_1/3x3_dwconv/slice_1/bn"
  top: "conv4_1/3x3_dwconv/concat"
}
layer {
  name: "conv4_1/3x3_dwconv/concat_fixed_point"
  type: "Quantize"
  bottom: "conv4_1/3x3_dwconv/concat"
  top: "conv4_1/3x3_dwconv/concat"
  param {
    lr_mult: 0
    decay_mult: 0
  }
  quantize_param {
    precision: 8
    frozen: true
    positive: true
    tolerance: 1.3
  }
}
layer {
  name: "conv4_1/3x3_dwconv/SE_global_pool"
  type: "Pooling"
  bottom: "conv4_1/3x3_dwconv/concat"
  top: "conv4_1/3x3_dwconv/SE_global_pool"
  pooling_param {
    pool: AVE
    engine: CAFFE
    global_pooling: true
  }
}
layer {
  name: "conv4_1/3x3_dwconv/SE_fc1"
  type: "Convolution"
  bottom: "conv4_1/3x3_dwconv/SE_global_pool"
  top: "conv4_1/3x3_dwconv/SE_fc1"
  param {
    lr_mult: 1
    decay_mult: 1
  }
  convolution_param {
    num_output: 7
    bias_term: false
    kernel_size: 1
    stride: 1
    weight_filler {
      type: "gaussian"
      std: 0.01
    }
    engine: CAFFE
    fp16_accumulation: true
  }
  quantize_param {
    precision: 8
    channel_shared: false
  }
}
layer {
  name: "conv4_1/3x3_dwconv/SE_fc1/relu"
  type: "ReLU"
  bottom: "conv4_1/3x3_dwconv/SE_fc1"
  top: "conv4_1/3x3_dwconv/SE_fc1"
}
layer {
  name: "conv4_1/3x3_dwconv/SE_fc2"
  type: "Convolution"
  bottom: "conv4_1/3x3_dwconv/SE_fc1"
  top: "conv4_1/3x3_dwconv/SE_fc2"
  param {
    lr_mult: 1
    decay_mult: 1
  }
  convolution_param {
    num_output: 120
    bias_term: false
    kernel_size: 1
    stride: 1
    weight_filler {
      type: "gaussian"
      std: 0.01
    }
    engine: CAFFE
    fp16_accumulation: true
  }
  quantize_param {
    precision: 8
    channel_shared: false
  }
}
layer {
  name: "conv4_1/3x3_dwconv/SE_weights"
  type: "Sigmoid"
  bottom: "conv4_1/3x3_dwconv/SE_fc2"
  top: "conv4_1/3x3_dwconv/SE_fc2"
}
layer {
  name: "conv4_1/3x3_dwconv/SE_weights/reshape"
  type: "Reshape"
  bottom: "conv4_1/3x3_dwconv/SE_fc2"
  top: "conv4_1/3x3_dwconv/SE_weights/reshape"
  reshape_param {
    shape {
      dim: 0
      dim: 0
    }
  }
}
layer {
  name: "conv4_1/3x3_dwconv/scale"
  type: "Scale"
  bottom: "conv4_1/3x3_dwconv/concat"
  bottom: "conv4_1/3x3_dwconv/SE_weights/reshape"
  top: "conv4_1/3x3_dwconv/scale"
  scale_param {
    axis: 0
    bias_term: false
  }
}
layer {
  name: "conv4_1/3x3_dwconv/scale_fixed_point"
  type: "Quantize"
  bottom: "conv4_1/3x3_dwconv/scale"
  top: "conv4_1/3x3_dwconv/scale"
  param {
    lr_mult: 0
    decay_mult: 0
  }
  quantize_param {
    precision: 8
    frozen: true
    positive: false
    tolerance: 1.3
  }
}
layer {
  name: "conv4_1/1x1_decrease"
  type: "Convolution"
  bottom: "conv4_1/3x3_dwconv/scale"
  top: "conv4_1/1x1_decrease/bn"
  param {
    lr_mult: 1
    decay_mult: 1
  }
  param {
    lr_mult: 2
    decay_mult: 0
  }
  convolution_param {
    num_output: 40
    bias_term: true
    kernel_size: 1
    stride: 1
    weight_filler {
      type: "msra"
    }
    bias_filler {
      type: "constant"
      value: 0
    }
    engine: CAFFE
    fp16_accumulation: true
  }
  quantize_param {
    precision: 8
    channel_shared: false
  }
}
layer {
  name: "conv4_1/elt_sum"
  type: "Eltwise"
  bottom: "conv4_0/1x1_decrease/bn"
  bottom: "conv4_1/1x1_decrease/bn"
  top: "conv4_1/elt_sum"
  eltwise_param {
    operation: SUM
  }
}
layer {
  name: "conv4_1/elt_sum_fixed_point"
  type: "Quantize"
  bottom: "conv4_1/elt_sum"
  top: "conv4_1/elt_sum"
  param {
    lr_mult: 0
    decay_mult: 0
  }
  quantize_param {
    precision: 8
    frozen: true
    positive: false
    tolerance: 1.3
  }
}
layer {
  name: "conv4_2/1x1_increase"
  type: "Convolution"
  bottom: "conv4_1/elt_sum"
  top: "conv4_2/1x1_increase/bn"
  param {
    lr_mult: 1
    decay_mult: 1
  }
  param {
    lr_mult: 2
    decay_mult: 0
  }
  convolution_param {
    num_output: 120
    bias_term: true
    kernel_size: 1
    stride: 1
    weight_filler {
      type: "msra"
    }
    bias_filler {
      type: "constant"
      value: 0
    }
    engine: CAFFE
    fp16_accumulation: true
  }
  quantize_param {
    precision: 8
    channel_shared: false
  }
}
layer {
  name: "conv4_2/1x1_increase/relu"
  type: "ReLU"
  bottom: "conv4_2/1x1_increase/bn"
  top: "conv4_2/1x1_increase/bn"
}
layer {
  name: "conv4_2/1x1_increase/bn_fixed_point"
  type: "Quantize"
  bottom: "conv4_2/1x1_increase/bn"
  top: "conv4_2/1x1_increase/bn"
  param {
    lr_mult: 0
    decay_mult: 0
  }
  quantize_param {
    precision: 8
    frozen: true
    positive: true
    tolerance: 1.3
  }
}
layer {
  name: "conv4_2/1x1_increase/slice"
  type: "Slice"
  bottom: "conv4_2/1x1_increase/bn"
  top: "conv4_2/1x1_increase/split1"
  top: "conv4_2/1x1_increase/split2"
  slice_param {
    slice_point: 60
  }
}
layer {
  name: "conv4_2/3x3_dwconv/slice_0"
  type: "Convolution"
  bottom: "conv4_2/1x1_increase/split1"
  top: "conv4_2/3x3_dwconv/slice_0/bn"
  param {
    lr_mult: 1
    decay_mult: 1
  }
  param {
    lr_mult: 2
    decay_mult: 0
  }
  convolution_param {
    num_output: 60
    bias_term: true
    pad: 1
    kernel_size: 3
    group: 60
    stride: 1
    weight_filler {
      type: "msra"
    }
    bias_filler {
      type: "constant"
      value: 0
    }
    engine: CAFFE
    fp16_accumulation: true
  }
  quantize_param {
    precision: 8
    channel_shared: false
  }
}
layer {
  name: "conv4_2/3x3_dwconv/slice_0/relu"
  type: "ReLU"
  bottom: "conv4_2/3x3_dwconv/slice_0/bn"
  top: "conv4_2/3x3_dwconv/slice_0/bn"
}
layer {
  name: "conv4_2/3x3_dwconv/slice_1"
  type: "Convolution"
  bottom: "conv4_2/1x1_increase/split2"
  top: "conv4_2/3x3_dwconv/slice_1/bn"
  param {
    lr_mult: 1
    decay_mult: 1
  }
  param {
    lr_mult: 2
    decay_mult: 0
  }
  convolution_param {
    num_output: 60
    bias_term: true
    pad: 2
    kernel_size: 5
    group: 60
    stride: 1
    weight_filler {
      type: "msra"
    }
    bias_filler {
      type: "constant"
      value: 0
    }
    engine: CAFFE
    fp16_accumulation: true
  }
  quantize_param {
    precision: 8
    channel_shared: false
  }
}
layer {
  name: "conv4_2/3x3_dwconv/slice_1/relu"
  type: "ReLU"
  bottom: "conv4_2/3x3_dwconv/slice_1/bn"
  top: "conv4_2/3x3_dwconv/slice_1/bn"
}
layer {
  name: "conv4_2/3x3_dwconv/concat"
  type: "Concat"
  bottom: "conv4_2/3x3_dwconv/slice_0/bn"
  bottom: "conv4_2/3x3_dwconv/slice_1/bn"
  top: "conv4_2/3x3_dwconv/concat"
}
layer {
  name: "conv4_2/3x3_dwconv/concat_fixed_point"
  type: "Quantize"
  bottom: "conv4_2/3x3_dwconv/concat"
  top: "conv4_2/3x3_dwconv/concat"
  param {
    lr_mult: 0
    decay_mult: 0
  }
  quantize_param {
    precision: 8
    frozen: true
    positive: true
    tolerance: 1.3
  }
}
layer {
  name: "conv4_2/3x3_dwconv/SE_global_pool"
  type: "Pooling"
  bottom: "conv4_2/3x3_dwconv/concat"
  top: "conv4_2/3x3_dwconv/SE_global_pool"
  pooling_param {
    pool: AVE
    engine: CAFFE
    global_pooling: true
  }
}
layer {
  name: "conv4_2/3x3_dwconv/SE_fc1"
  type: "Convolution"
  bottom: "conv4_2/3x3_dwconv/SE_global_pool"
  top: "conv4_2/3x3_dwconv/SE_fc1"
  param {
    lr_mult: 1
    decay_mult: 1
  }
  convolution_param {
    num_output: 7
    bias_term: false
    kernel_size: 1
    stride: 1
    weight_filler {
      type: "gaussian"
      std: 0.01
    }
    engine: CAFFE
    fp16_accumulation: true
  }
  quantize_param {
    precision: 8
    channel_shared: false
  }
}
layer {
  name: "conv4_2/3x3_dwconv/SE_fc1/relu"
  type: "ReLU"
  bottom: "conv4_2/3x3_dwconv/SE_fc1"
  top: "conv4_2/3x3_dwconv/SE_fc1"
}
layer {
  name: "conv4_2/3x3_dwconv/SE_fc2"
  type: "Convolution"
  bottom: "conv4_2/3x3_dwconv/SE_fc1"
  top: "conv4_2/3x3_dwconv/SE_fc2"
  param {
    lr_mult: 1
    decay_mult: 1
  }
  convolution_param {
    num_output: 120
    bias_term: false
    kernel_size: 1
    stride: 1
    weight_filler {
      type: "gaussian"
      std: 0.01
    }
    engine: CAFFE
    fp16_accumulation: true
  }
  quantize_param {
    precision: 8
    channel_shared: false
  }
}
layer {
  name: "conv4_2/3x3_dwconv/SE_weights"
  type: "Sigmoid"
  bottom: "conv4_2/3x3_dwconv/SE_fc2"
  top: "conv4_2/3x3_dwconv/SE_fc2"
}
layer {
  name: "conv4_2/3x3_dwconv/SE_weights/reshape"
  type: "Reshape"
  bottom: "conv4_2/3x3_dwconv/SE_fc2"
  top: "conv4_2/3x3_dwconv/SE_weights/reshape"
  reshape_param {
    shape {
      dim: 0
      dim: 0
    }
  }
}
layer {
  name: "conv4_2/3x3_dwconv/scale"
  type: "Scale"
  bottom: "conv4_2/3x3_dwconv/concat"
  bottom: "conv4_2/3x3_dwconv/SE_weights/reshape"
  top: "conv4_2/3x3_dwconv/scale"
  scale_param {
    axis: 0
    bias_term: false
  }
}
layer {
  name: "conv4_2/3x3_dwconv/scale_fixed_point"
  type: "Quantize"
  bottom: "conv4_2/3x3_dwconv/scale"
  top: "conv4_2/3x3_dwconv/scale"
  param {
    lr_mult: 0
    decay_mult: 0
  }
  quantize_param {
    precision: 8
    frozen: true
    positive: false
    tolerance: 1.3
  }
}
layer {
  name: "conv4_2/1x1_decrease"
  type: "Convolution"
  bottom: "conv4_2/3x3_dwconv/scale"
  top: "conv4_2/1x1_decrease/bn"
  param {
    lr_mult: 1
    decay_mult: 1
  }
  param {
    lr_mult: 2
    decay_mult: 0
  }
  convolution_param {
    num_output: 40
    bias_term: true
    kernel_size: 1
    stride: 1
    weight_filler {
      type: "msra"
    }
    bias_filler {
      type: "constant"
      value: 0
    }
    engine: CAFFE
    fp16_accumulation: true
  }
  quantize_param {
    precision: 8
    channel_shared: false
  }
}
layer {
  name: "conv4_2/elt_sum"
  type: "Eltwise"
  bottom: "conv4_1/elt_sum"
  bottom: "conv4_2/1x1_decrease/bn"
  top: "conv4_2/elt_sum"
  eltwise_param {
    operation: SUM
  }
}
layer {
  name: "conv4_2/elt_sum_fixed_point"
  type: "Quantize"
  bottom: "conv4_2/elt_sum"
  top: "conv4_2/elt_sum"
  param {
    lr_mult: 0
    decay_mult: 0
  }
  quantize_param {
    precision: 8
    frozen: true
    positive: false
    tolerance: 1.3
  }
}
layer {
  name: "conv4_3/1x1_increase"
  type: "Convolution"
  bottom: "conv4_2/elt_sum"
  top: "conv4_3/1x1_increase/bn"
  param {
    lr_mult: 1
    decay_mult: 1
  }
  param {
    lr_mult: 2
    decay_mult: 0
  }
  convolution_param {
    num_output: 120
    bias_term: true
    kernel_size: 1
    stride: 1
    weight_filler {
      type: "msra"
    }
    bias_filler {
      type: "constant"
      value: 0
    }
    engine: CAFFE
    fp16_accumulation: true
  }
  quantize_param {
    precision: 8
    channel_shared: false
  }
}
layer {
  name: "conv4_3/1x1_increase/relu"
  type: "ReLU"
  bottom: "conv4_3/1x1_increase/bn"
  top: "conv4_3/1x1_increase/bn"
}
layer {
  name: "conv4_3/1x1_increase/bn_fixed_point"
  type: "Quantize"
  bottom: "conv4_3/1x1_increase/bn"
  top: "conv4_3/1x1_increase/bn"
  param {
    lr_mult: 0
    decay_mult: 0
  }
  quantize_param {
    precision: 8
    frozen: true
    positive: true
    tolerance: 1.3
  }
}
layer {
  name: "conv4_3/1x1_increase/slice"
  type: "Slice"
  bottom: "conv4_3/1x1_increase/bn"
  top: "conv4_3/1x1_increase/split1"
  top: "conv4_3/1x1_increase/split2"
  slice_param {
    slice_point: 60
  }
}
layer {
  name: "conv4_3/3x3_dwconv/slice_0"
  type: "Convolution"
  bottom: "conv4_3/1x1_increase/split1"
  top: "conv4_3/3x3_dwconv/slice_0/bn"
  param {
    lr_mult: 1
    decay_m
I0906 17:47:26.655388 22606 layer_factory.hpp:77] Creating layer data
I0906 17:47:26.655459 22606 net.cpp:86] Creating Layer data
I0906 17:47:26.655480 22606 net.cpp:382] data -> data
I0906 17:47:26.655546 22606 net.cpp:382] data -> label
I0906 17:47:26.655587 22606 image_data_layer.cpp:43] Opening file file_lists/val.txt
I0906 17:47:26.672473 22606 image_data_layer.cpp:68] A total of 50000 images.
I0906 17:47:26.703725 22606 image_data_layer.cpp:95] output data size: 50,3,224,224
I0906 17:47:26.791489 22606 net.cpp:124] Setting up data
I0906 17:47:26.791538 22606 net.cpp:131] Top shape: 50 3 224 224 (7526400)
I0906 17:47:26.791546 22606 net.cpp:131] Top shape: 50 (50)
I0906 17:47:26.791551 22606 net.cpp:139] Memory required for data: 30105800
I0906 17:47:26.791563 22606 layer_factory.hpp:77] Creating layer label_data_1_split
I0906 17:47:26.791582 22606 net.cpp:86] Creating Layer label_data_1_split
I0906 17:47:26.791592 22606 net.cpp:408] label_data_1_split <- label
I0906 17:47:26.791611 22606 net.cpp:382] label_data_1_split -> label_data_1_split_0
I0906 17:47:26.791626 22606 net.cpp:382] label_data_1_split -> label_data_1_split_1
I0906 17:47:26.791793 22606 net.cpp:124] Setting up label_data_1_split
I0906 17:47:26.791803 22606 net.cpp:131] Top shape: 50 (50)
I0906 17:47:26.791810 22606 net.cpp:131] Top shape: 50 (50)
I0906 17:47:26.791812 22606 net.cpp:139] Memory required for data: 30106200
I0906 17:47:26.791816 22606 layer_factory.hpp:77] Creating layer data_fixed_point
I0906 17:47:26.791831 22606 net.cpp:86] Creating Layer data_fixed_point
I0906 17:47:26.791836 22606 net.cpp:408] data_fixed_point <- data
I0906 17:47:26.791843 22606 net.cpp:369] data_fixed_point -> data (in-place)
I0906 17:47:26.791954 22606 net.cpp:124] Setting up data_fixed_point
I0906 17:47:26.791963 22606 net.cpp:131] Top shape: 50 3 224 224 (7526400)
I0906 17:47:26.791967 22606 net.cpp:139] Memory required for data: 60211800
I0906 17:47:26.791994 22606 layer_factory.hpp:77] Creating layer conv1/3x3_s2
I0906 17:47:26.792032 22606 net.cpp:86] Creating Layer conv1/3x3_s2
I0906 17:47:26.792037 22606 net.cpp:408] conv1/3x3_s2 <- data
I0906 17:47:26.792052 22606 net.cpp:382] conv1/3x3_s2 -> conv1/3x3_s2/bn
I0906 17:47:26.795943 22606 net.cpp:124] Setting up conv1/3x3_s2
I0906 17:47:26.795972 22606 net.cpp:131] Top shape: 50 32 112 112 (20070400)
I0906 17:47:26.795977 22606 net.cpp:139] Memory required for data: 140493400
I0906 17:47:26.795994 22606 layer_factory.hpp:77] Creating layer conv1/3x3_s2/relu
I0906 17:47:26.796011 22606 net.cpp:86] Creating Layer conv1/3x3_s2/relu
I0906 17:47:26.796016 22606 net.cpp:408] conv1/3x3_s2/relu <- conv1/3x3_s2/bn
I0906 17:47:26.796025 22606 net.cpp:369] conv1/3x3_s2/relu -> conv1/3x3_s2/bn (in-place)
I0906 17:47:27.906662 22606 net.cpp:124] Setting up conv1/3x3_s2/relu
I0906 17:47:27.906716 22606 net.cpp:131] Top shape: 50 32 112 112 (20070400)
I0906 17:47:27.906723 22606 net.cpp:139] Memory required for data: 220775000
I0906 17:47:27.906746 22606 layer_factory.hpp:77] Creating layer conv1/3x3_s2/bn_fixed_point
I0906 17:47:27.906826 22606 net.cpp:86] Creating Layer conv1/3x3_s2/bn_fixed_point
I0906 17:47:27.906864 22606 net.cpp:408] conv1/3x3_s2/bn_fixed_point <- conv1/3x3_s2/bn
I0906 17:47:27.906910 22606 net.cpp:369] conv1/3x3_s2/bn_fixed_point -> conv1/3x3_s2/bn (in-place)
I0906 17:47:27.906967 22606 net.cpp:124] Setting up conv1/3x3_s2/bn_fixed_point
I0906 17:47:27.906976 22606 net.cpp:131] Top shape: 50 32 112 112 (20070400)
I0906 17:47:27.906980 22606 net.cpp:139] Memory required for data: 301056600
I0906 17:47:27.907001 22606 layer_factory.hpp:77] Creating layer conv2_0/3x3_dwconv
I0906 17:47:27.907040 22606 net.cpp:86] Creating Layer conv2_0/3x3_dwconv
I0906 17:47:27.907047 22606 net.cpp:408] conv2_0/3x3_dwconv <- conv1/3x3_s2/bn
I0906 17:47:27.907054 22606 net.cpp:382] conv2_0/3x3_dwconv -> conv2_0/3x3_dwconv/bn
I0906 17:47:27.908229 22606 net.cpp:124] Setting up conv2_0/3x3_dwconv
I0906 17:47:27.908248 22606 net.cpp:131] Top shape: 50 32 112 112 (20070400)
I0906 17:47:27.908253 22606 net.cpp:139] Memory required for data: 381338200
I0906 17:47:27.908267 22606 layer_factory.hpp:77] Creating layer conv2_0/3x3_dwconv/relu
I0906 17:47:27.908299 22606 net.cpp:86] Creating Layer conv2_0/3x3_dwconv/relu
I0906 17:47:27.908306 22606 net.cpp:408] conv2_0/3x3_dwconv/relu <- conv2_0/3x3_dwconv/bn
I0906 17:47:27.908313 22606 net.cpp:369] conv2_0/3x3_dwconv/relu -> conv2_0/3x3_dwconv/bn (in-place)
I0906 17:47:27.909045 22606 net.cpp:124] Setting up conv2_0/3x3_dwconv/relu
I0906 17:47:27.909067 22606 net.cpp:131] Top shape: 50 32 112 112 (20070400)
I0906 17:47:27.909072 22606 net.cpp:139] Memory required for data: 461619800
I0906 17:47:27.909087 22606 layer_factory.hpp:77] Creating layer conv2_0/3x3_dwconv/bn_fixed_point
I0906 17:47:27.909106 22606 net.cpp:86] Creating Layer conv2_0/3x3_dwconv/bn_fixed_point
I0906 17:47:27.909113 22606 net.cpp:408] conv2_0/3x3_dwconv/bn_fixed_point <- conv2_0/3x3_dwconv/bn
I0906 17:47:27.909121 22606 net.cpp:369] conv2_0/3x3_dwconv/bn_fixed_point -> conv2_0/3x3_dwconv/bn (in-place)
I0906 17:47:27.909160 22606 net.cpp:124] Setting up conv2_0/3x3_dwconv/bn_fixed_point
I0906 17:47:27.909168 22606 net.cpp:131] Top shape: 50 32 112 112 (20070400)
I0906 17:47:27.909173 22606 net.cpp:139] Memory required for data: 541901400
I0906 17:47:27.909179 22606 layer_factory.hpp:77] Creating layer conv2_0/1x1_decrease
I0906 17:47:27.909211 22606 net.cpp:86] Creating Layer conv2_0/1x1_decrease
I0906 17:47:27.909217 22606 net.cpp:408] conv2_0/1x1_decrease <- conv2_0/3x3_dwconv/bn
I0906 17:47:27.909224 22606 net.cpp:382] conv2_0/1x1_decrease -> conv2_0/1x1_decrease/bn
I0906 17:47:27.909867 22606 net.cpp:124] Setting up conv2_0/1x1_decrease
I0906 17:47:27.909880 22606 net.cpp:131] Top shape: 50 16 112 112 (10035200)
I0906 17:47:27.909885 22606 net.cpp:139] Memory required for data: 582042200
I0906 17:47:27.909898 22606 layer_factory.hpp:77] Creating layer conv2_0/1x1_decrease/bn_fixed_point
I0906 17:47:27.909919 22606 net.cpp:86] Creating Layer conv2_0/1x1_decrease/bn_fixed_point
I0906 17:47:27.909924 22606 net.cpp:408] conv2_0/1x1_decrease/bn_fixed_point <- conv2_0/1x1_decrease/bn
I0906 17:47:27.909931 22606 net.cpp:369] conv2_0/1x1_decrease/bn_fixed_point -> conv2_0/1x1_decrease/bn (in-place)
I0906 17:47:27.909970 22606 net.cpp:124] Setting up conv2_0/1x1_decrease/bn_fixed_point
I0906 17:47:27.909982 22606 net.cpp:131] Top shape: 50 16 112 112 (10035200)
I0906 17:47:27.909986 22606 net.cpp:139] Memory required for data: 622183000
I0906 17:47:27.910004 22606 layer_factory.hpp:77] Creating layer conv3_0/1x1_increase
I0906 17:47:27.910027 22606 net.cpp:86] Creating Layer conv3_0/1x1_increase
I0906 17:47:27.910032 22606 net.cpp:408] conv3_0/1x1_increase <- conv2_0/1x1_decrease/bn
I0906 17:47:27.910066 22606 net.cpp:382] conv3_0/1x1_increase -> conv3_0/1x1_increase/bn
I0906 17:47:27.910765 22606 net.cpp:124] Setting up conv3_0/1x1_increase
I0906 17:47:27.910780 22606 net.cpp:131] Top shape: 50 48 112 112 (30105600)
I0906 17:47:27.910785 22606 net.cpp:139] Memory required for data: 742605400
I0906 17:47:27.910794 22606 layer_factory.hpp:77] Creating layer conv3_0/1x1_increase/relu
I0906 17:47:27.910812 22606 net.cpp:86] Creating Layer conv3_0/1x1_increase/relu
I0906 17:47:27.910817 22606 net.cpp:408] conv3_0/1x1_increase/relu <- conv3_0/1x1_increase/bn
I0906 17:47:27.910825 22606 net.cpp:369] conv3_0/1x1_increase/relu -> conv3_0/1x1_increase/bn (in-place)
I0906 17:47:27.911761 22606 net.cpp:124] Setting up conv3_0/1x1_increase/relu
I0906 17:47:27.911779 22606 net.cpp:131] Top shape: 50 48 112 112 (30105600)
I0906 17:47:27.911784 22606 net.cpp:139] Memory required for data: 863027800
I0906 17:47:27.911788 22606 layer_factory.hpp:77] Creating layer conv3_0/1x1_increase/bn_fixed_point
I0906 17:47:27.911798 22606 net.cpp:86] Creating Layer conv3_0/1x1_increase/bn_fixed_point
I0906 17:47:27.911804 22606 net.cpp:408] conv3_0/1x1_increase/bn_fixed_point <- conv3_0/1x1_increase/bn
I0906 17:47:27.911811 22606 net.cpp:369] conv3_0/1x1_increase/bn_fixed_point -> conv3_0/1x1_increase/bn (in-place)
I0906 17:47:27.911851 22606 net.cpp:124] Setting up conv3_0/1x1_increase/bn_fixed_point
I0906 17:47:27.911859 22606 net.cpp:131] Top shape: 50 48 112 112 (30105600)
I0906 17:47:27.911864 22606 net.cpp:139] Memory required for data: 983450200
I0906 17:47:27.911870 22606 layer_factory.hpp:77] Creating layer conv3_0/3x3_dwconv
I0906 17:47:27.911881 22606 net.cpp:86] Creating Layer conv3_0/3x3_dwconv
I0906 17:47:27.911886 22606 net.cpp:408] conv3_0/3x3_dwconv <- conv3_0/1x1_increase/bn
I0906 17:47:27.911895 22606 net.cpp:382] conv3_0/3x3_dwconv -> conv3_0/3x3_dwconv/bn
I0906 17:47:27.914145 22606 net.cpp:124] Setting up conv3_0/3x3_dwconv
I0906 17:47:27.914165 22606 net.cpp:131] Top shape: 50 48 56 56 (7526400)
I0906 17:47:27.914170 22606 net.cpp:139] Memory required for data: 1013555800
I0906 17:47:27.914196 22606 layer_factory.hpp:77] Creating layer conv3_0/3x3_dwconv/relu
I0906 17:47:27.914227 22606 net.cpp:86] Creating Layer conv3_0/3x3_dwconv/relu
I0906 17:47:27.914248 22606 net.cpp:408] conv3_0/3x3_dwconv/relu <- conv3_0/3x3_dwconv/bn
I0906 17:47:27.914255 22606 net.cpp:369] conv3_0/3x3_dwconv/relu -> conv3_0/3x3_dwconv/bn (in-place)
I0906 17:47:27.914906 22606 net.cpp:124] Setting up conv3_0/3x3_dwconv/relu
I0906 17:47:27.914921 22606 net.cpp:131] Top shape: 50 48 56 56 (7526400)
I0906 17:47:27.914924 22606 net.cpp:139] Memory required for data: 1043661400
I0906 17:47:27.914929 22606 layer_factory.hpp:77] Creating layer conv3_0/3x3_dwconv/bn_fixed_point
I0906 17:47:27.914938 22606 net.cpp:86] Creating Layer conv3_0/3x3_dwconv/bn_fixed_point
I0906 17:47:27.914955 22606 net.cpp:408] conv3_0/3x3_dwconv/bn_fixed_point <- conv3_0/3x3_dwconv/bn
I0906 17:47:27.914963 22606 net.cpp:369] conv3_0/3x3_dwconv/bn_fixed_point -> conv3_0/3x3_dwconv/bn (in-place)
I0906 17:47:27.915000 22606 net.cpp:124] Setting up conv3_0/3x3_dwconv/bn_fixed_point
I0906 17:47:27.915014 22606 net.cpp:131] Top shape: 50 48 56 56 (7526400)
I0906 17:47:27.915019 22606 net.cpp:139] Memory required for data: 1073767000
I0906 17:47:27.915024 22606 layer_factory.hpp:77] Creating layer conv3_0/1x1_decrease
I0906 17:47:27.915045 22606 net.cpp:86] Creating Layer conv3_0/1x1_decrease
I0906 17:47:27.915052 22606 net.cpp:408] conv3_0/1x1_decrease <- conv3_0/3x3_dwconv/bn
I0906 17:47:27.915062 22606 net.cpp:382] conv3_0/1x1_decrease -> conv3_0/1x1_decrease/bn
I0906 17:47:27.918462 22606 net.cpp:124] Setting up conv3_0/1x1_decrease
I0906 17:47:27.918478 22606 net.cpp:131] Top shape: 50 32 56 56 (5017600)
I0906 17:47:27.918483 22606 net.cpp:139] Memory required for data: 1093837400
I0906 17:47:27.918505 22606 layer_factory.hpp:77] Creating layer conv3_0/1x1_decrease/bn_fixed_point
I0906 17:47:27.918522 22606 net.cpp:86] Creating Layer conv3_0/1x1_decrease/bn_fixed_point
I0906 17:47:27.918545 22606 net.cpp:408] conv3_0/1x1_decrease/bn_fixed_point <- conv3_0/1x1_decrease/bn
I0906 17:47:27.918552 22606 net.cpp:369] conv3_0/1x1_decrease/bn_fixed_point -> conv3_0/1x1_decrease/bn (in-place)
I0906 17:47:27.918601 22606 net.cpp:124] Setting up conv3_0/1x1_decrease/bn_fixed_point
I0906 17:47:27.918610 22606 net.cpp:131] Top shape: 50 32 56 56 (5017600)
I0906 17:47:27.918614 22606 net.cpp:139] Memory required for data: 1113907800
I0906 17:47:27.918619 22606 layer_factory.hpp:77] Creating layer conv3_0/1x1_decrease/bn_conv3_0/1x1_decrease/bn_fixed_point_0_split
I0906 17:47:27.918637 22606 net.cpp:86] Creating Layer conv3_0/1x1_decrease/bn_conv3_0/1x1_decrease/bn_fixed_point_0_split
I0906 17:47:27.918642 22606 net.cpp:408] conv3_0/1x1_decrease/bn_conv3_0/1x1_decrease/bn_fixed_point_0_split <- conv3_0/1x1_decrease/bn
I0906 17:47:27.918650 22606 net.cpp:382] conv3_0/1x1_decrease/bn_conv3_0/1x1_decrease/bn_fixed_point_0_split -> conv3_0/1x1_decrease/bn_conv3_0/1x1_decrease/bn_fixed_point_0_split_0
I0906 17:47:27.918658 22606 net.cpp:382] conv3_0/1x1_decrease/bn_conv3_0/1x1_decrease/bn_fixed_point_0_split -> conv3_0/1x1_decrease/bn_conv3_0/1x1_decrease/bn_fixed_point_0_split_1
I0906 17:47:27.918715 22606 net.cpp:124] Setting up conv3_0/1x1_decrease/bn_conv3_0/1x1_decrease/bn_fixed_point_0_split
I0906 17:47:27.918725 22606 net.cpp:131] Top shape: 50 32 56 56 (5017600)
I0906 17:47:27.918730 22606 net.cpp:131] Top shape: 50 32 56 56 (5017600)
I0906 17:47:27.918733 22606 net.cpp:139] Memory required for data: 1154048600
I0906 17:47:27.918737 22606 layer_factory.hpp:77] Creating layer conv3_1/1x1_increase
I0906 17:47:27.918752 22606 net.cpp:86] Creating Layer conv3_1/1x1_increase
I0906 17:47:27.918758 22606 net.cpp:408] conv3_1/1x1_increase <- conv3_0/1x1_decrease/bn_conv3_0/1x1_decrease/bn_fixed_point_0_split_0
I0906 17:47:27.918766 22606 net.cpp:382] conv3_1/1x1_increase -> conv3_1/1x1_increase/bn
I0906 17:47:27.919776 22606 net.cpp:124] Setting up conv3_1/1x1_increase
I0906 17:47:27.919793 22606 net.cpp:131] Top shape: 50 96 56 56 (15052800)
I0906 17:47:27.919797 22606 net.cpp:139] Memory required for data: 1214259800
I0906 17:47:27.919806 22606 layer_factory.hpp:77] Creating layer conv3_1/1x1_increase/relu
I0906 17:47:27.919824 22606 net.cpp:86] Creating Layer conv3_1/1x1_increase/relu
I0906 17:47:27.919831 22606 net.cpp:408] conv3_1/1x1_increase/relu <- conv3_1/1x1_increase/bn
I0906 17:47:27.919836 22606 net.cpp:369] conv3_1/1x1_increase/relu -> conv3_1/1x1_increase/bn (in-place)
I0906 17:47:27.920588 22606 net.cpp:124] Setting up conv3_1/1x1_increase/relu
I0906 17:47:27.920601 22606 net.cpp:131] Top shape: 50 96 56 56 (15052800)
I0906 17:47:27.920605 22606 net.cpp:139] Memory required for data: 1274471000
I0906 17:47:27.920620 22606 layer_factory.hpp:77] Creating layer conv3_1/1x1_increase/bn_fixed_point
I0906 17:47:27.920629 22606 net.cpp:86] Creating Layer conv3_1/1x1_increase/bn_fixed_point
I0906 17:47:27.920634 22606 net.cpp:408] conv3_1/1x1_increase/bn_fixed_point <- conv3_1/1x1_increase/bn
I0906 17:47:27.920640 22606 net.cpp:369] conv3_1/1x1_increase/bn_fixed_point -> conv3_1/1x1_increase/bn (in-place)
I0906 17:47:27.920686 22606 net.cpp:124] Setting up conv3_1/1x1_increase/bn_fixed_point
I0906 17:47:27.920694 22606 net.cpp:131] Top shape: 50 96 56 56 (15052800)
I0906 17:47:27.920697 22606 net.cpp:139] Memory required for data: 1334682200
I0906 17:47:27.920703 22606 layer_factory.hpp:77] Creating layer conv3_1/3x3_dwconv
I0906 17:47:27.920716 22606 net.cpp:86] Creating Layer conv3_1/3x3_dwconv
I0906 17:47:27.920722 22606 net.cpp:408] conv3_1/3x3_dwconv <- conv3_1/1x1_increase/bn
I0906 17:47:27.920732 22606 net.cpp:382] conv3_1/3x3_dwconv -> conv3_1/3x3_dwconv/bn
I0906 17:47:27.921591 22606 net.cpp:124] Setting up conv3_1/3x3_dwconv
I0906 17:47:27.921609 22606 net.cpp:131] Top shape: 50 96 56 56 (15052800)
I0906 17:47:27.921614 22606 net.cpp:139] Memory required for data: 1394893400
I0906 17:47:27.921622 22606 layer_factory.hpp:77] Creating layer conv3_1/3x3_dwconv/relu
I0906 17:47:27.921645 22606 net.cpp:86] Creating Layer conv3_1/3x3_dwconv/relu
I0906 17:47:27.921650 22606 net.cpp:408] conv3_1/3x3_dwconv/relu <- conv3_1/3x3_dwconv/bn
I0906 17:47:27.921656 22606 net.cpp:369] conv3_1/3x3_dwconv/relu -> conv3_1/3x3_dwconv/bn (in-place)
I0906 17:47:27.922679 22606 net.cpp:124] Setting up conv3_1/3x3_dwconv/relu
I0906 17:47:27.922696 22606 net.cpp:131] Top shape: 50 96 56 56 (15052800)
I0906 17:47:27.922700 22606 net.cpp:139] Memory required for data: 1455104600
I0906 17:47:27.922714 22606 layer_factory.hpp:77] Creating layer conv3_1/3x3_dwconv/bn_fixed_point
I0906 17:47:27.922727 22606 net.cpp:86] Creating Layer conv3_1/3x3_dwconv/bn_fixed_point
I0906 17:47:27.922734 22606 net.cpp:408] conv3_1/3x3_dwconv/bn_fixed_point <- conv3_1/3x3_dwconv/bn
I0906 17:47:27.922742 22606 net.cpp:369] conv3_1/3x3_dwconv/bn_fixed_point -> conv3_1/3x3_dwconv/bn (in-place)
I0906 17:47:27.922787 22606 net.cpp:124] Setting up conv3_1/3x3_dwconv/bn_fixed_point
I0906 17:47:27.922796 22606 net.cpp:131] Top shape: 50 96 56 56 (15052800)
I0906 17:47:27.922798 22606 net.cpp:139] Memory required for data: 1515315800
I0906 17:47:27.922806 22606 layer_factory.hpp:77] Creating layer conv3_1/1x1_decrease
I0906 17:47:27.922821 22606 net.cpp:86] Creating Layer conv3_1/1x1_decrease
I0906 17:47:27.922827 22606 net.cpp:408] conv3_1/1x1_decrease <- conv3_1/3x3_dwconv/bn
I0906 17:47:27.922834 22606 net.cpp:382] conv3_1/1x1_decrease -> conv3_1/1x1_decrease/bn
I0906 17:47:27.923552 22606 net.cpp:124] Setting up conv3_1/1x1_decrease
I0906 17:47:27.923568 22606 net.cpp:131] Top shape: 50 32 56 56 (5017600)
I0906 17:47:27.923573 22606 net.cpp:139] Memory required for data: 1535386200
I0906 17:47:27.923580 22606 layer_factory.hpp:77] Creating layer conv3_1/elt_sum
I0906 17:47:27.923594 22606 net.cpp:86] Creating Layer conv3_1/elt_sum
I0906 17:47:27.923602 22606 net.cpp:408] conv3_1/elt_sum <- conv3_0/1x1_decrease/bn_conv3_0/1x1_decrease/bn_fixed_point_0_split_1
I0906 17:47:27.923609 22606 net.cpp:408] conv3_1/elt_sum <- conv3_1/1x1_decrease/bn
I0906 17:47:27.923615 22606 net.cpp:382] conv3_1/elt_sum -> conv3_1/elt_sum
I0906 17:47:27.923661 22606 net.cpp:124] Setting up conv3_1/elt_sum
I0906 17:47:27.923669 22606 net.cpp:131] Top shape: 50 32 56 56 (5017600)
I0906 17:47:27.923673 22606 net.cpp:139] Memory required for data: 1555456600
I0906 17:47:27.923677 22606 layer_factory.hpp:77] Creating layer conv3_1/elt_sum_fixed_point
I0906 17:47:27.923686 22606 net.cpp:86] Creating Layer conv3_1/elt_sum_fixed_point
I0906 17:47:27.923692 22606 net.cpp:408] conv3_1/elt_sum_fixed_point <- conv3_1/elt_sum
I0906 17:47:27.923698 22606 net.cpp:369] conv3_1/elt_sum_fixed_point -> conv3_1/elt_sum (in-place)
I0906 17:47:27.923733 22606 net.cpp:124] Setting up conv3_1/elt_sum_fixed_point
I0906 17:47:27.923740 22606 net.cpp:131] Top shape: 50 32 56 56 (5017600)
I0906 17:47:27.923744 22606 net.cpp:139] Memory required for data: 1575527000
I0906 17:47:27.923758 22606 layer_factory.hpp:77] Creating layer conv4_0/1x1_increase
I0906 17:47:27.923771 22606 net.cpp:86] Creating Layer conv4_0/1x1_increase
I0906 17:47:27.923777 22606 net.cpp:408] conv4_0/1x1_increase <- conv3_1/elt_sum
I0906 17:47:27.923786 22606 net.cpp:382] conv4_0/1x1_increase -> conv4_0/1x1_increase/bn
I0906 17:47:27.924492 22606 net.cpp:124] Setting up conv4_0/1x1_increase
I0906 17:47:27.924507 22606 net.cpp:131] Top shape: 50 96 56 56 (15052800)
I0906 17:47:27.924511 22606 net.cpp:139] Memory required for data: 1635738200
I0906 17:47:27.924520 22606 layer_factory.hpp:77] Creating layer conv4_0/1x1_increase/relu
I0906 17:47:27.924528 22606 net.cpp:86] Creating Layer conv4_0/1x1_increase/relu
I0906 17:47:27.924532 22606 net.cpp:408] conv4_0/1x1_increase/relu <- conv4_0/1x1_increase/bn
I0906 17:47:27.924541 22606 net.cpp:369] conv4_0/1x1_increase/relu -> conv4_0/1x1_increase/bn (in-place)
I0906 17:47:27.925307 22606 net.cpp:124] Setting up conv4_0/1x1_increase/relu
I0906 17:47:27.925324 22606 net.cpp:131] Top shape: 50 96 56 56 (15052800)
I0906 17:47:27.925328 22606 net.cpp:139] Memory required for data: 1695949400
I0906 17:47:27.925346 22606 layer_factory.hpp:77] Creating layer conv4_0/1x1_increase/bn_fixed_point
I0906 17:47:27.925354 22606 net.cpp:86] Creating Layer conv4_0/1x1_increase/bn_fixed_point
I0906 17:47:27.925359 22606 net.cpp:408] conv4_0/1x1_increase/bn_fixed_point <- conv4_0/1x1_increase/bn
I0906 17:47:27.925364 22606 net.cpp:369] conv4_0/1x1_increase/bn_fixed_point -> conv4_0/1x1_increase/bn (in-place)
I0906 17:47:27.925405 22606 net.cpp:124] Setting up conv4_0/1x1_increase/bn_fixed_point
I0906 17:47:27.925415 22606 net.cpp:131] Top shape: 50 96 56 56 (15052800)
I0906 17:47:27.925417 22606 net.cpp:139] Memory required for data: 1756160600
I0906 17:47:27.925433 22606 layer_factory.hpp:77] Creating layer conv4_0/1x1_increase/slice
I0906 17:47:27.925456 22606 net.cpp:86] Creating Layer conv4_0/1x1_increase/slice
I0906 17:47:27.925462 22606 net.cpp:408] conv4_0/1x1_increase/slice <- conv4_0/1x1_increase/bn
I0906 17:47:27.925470 22606 net.cpp:382] conv4_0/1x1_increase/slice -> conv4_0/1x1_increase/split1
I0906 17:47:27.925482 22606 net.cpp:382] conv4_0/1x1_increase/slice -> conv4_0/1x1_increase/split2
I0906 17:47:27.925492 22606 net.cpp:382] conv4_0/1x1_increase/slice -> conv4_0/1x1_increase/split3
I0906 17:47:27.925575 22606 net.cpp:124] Setting up conv4_0/1x1_increase/slice
I0906 17:47:27.925585 22606 net.cpp:131] Top shape: 50 32 56 56 (5017600)
I0906 17:47:27.925590 22606 net.cpp:131] Top shape: 50 32 56 56 (5017600)
I0906 17:47:27.925595 22606 net.cpp:131] Top shape: 50 32 56 56 (5017600)
I0906 17:47:27.925597 22606 net.cpp:139] Memory required for data: 1816371800
I0906 17:47:27.925601 22606 layer_factory.hpp:77] Creating layer conv4_0/3x3_dwconv/slice_0
I0906 17:47:27.925613 22606 net.cpp:86] Creating Layer conv4_0/3x3_dwconv/slice_0
I0906 17:47:27.925619 22606 net.cpp:408] conv4_0/3x3_dwconv/slice_0 <- conv4_0/1x1_increase/split1
I0906 17:47:27.925626 22606 net.cpp:382] conv4_0/3x3_dwconv/slice_0 -> conv4_0/3x3_dwconv/slice_0/bn
I0906 17:47:27.926262 22606 net.cpp:124] Setting up conv4_0/3x3_dwconv/slice_0
I0906 17:47:27.926278 22606 net.cpp:131] Top shape: 50 32 28 28 (1254400)
I0906 17:47:27.926282 22606 net.cpp:139] Memory required for data: 1821389400
I0906 17:47:27.926303 22606 layer_factory.hpp:77] Creating layer conv4_0/3x3_dwconv/slice_0/relu
I0906 17:47:27.926316 22606 net.cpp:86] Creating Layer conv4_0/3x3_dwconv/slice_0/relu
I0906 17:47:27.926321 22606 net.cpp:408] conv4_0/3x3_dwconv/slice_0/relu <- conv4_0/3x3_dwconv/slice_0/bn
I0906 17:47:27.926326 22606 net.cpp:369] conv4_0/3x3_dwconv/slice_0/relu -> conv4_0/3x3_dwconv/slice_0/bn (in-place)
I0906 17:47:27.927058 22606 net.cpp:124] Setting up conv4_0/3x3_dwconv/slice_0/relu
I0906 17:47:27.927072 22606 net.cpp:131] Top shape: 50 32 28 28 (1254400)
I0906 17:47:27.927076 22606 net.cpp:139] Memory required for data: 1826407000
I0906 17:47:27.927080 22606 layer_factory.hpp:77] Creating layer conv4_0/3x3_dwconv/slice_1
I0906 17:47:27.927104 22606 net.cpp:86] Creating Layer conv4_0/3x3_dwconv/slice_1
I0906 17:47:27.927110 22606 net.cpp:408] conv4_0/3x3_dwconv/slice_1 <- conv4_0/1x1_increase/split2
I0906 17:47:27.927120 22606 net.cpp:382] conv4_0/3x3_dwconv/slice_1 -> conv4_0/3x3_dwconv/slice_1/bn
I0906 17:47:27.928045 22606 net.cpp:124] Setting up conv4_0/3x3_dwconv/slice_1
I0906 17:47:27.928059 22606 net.cpp:131] Top shape: 50 32 28 28 (1254400)
I0906 17:47:27.928064 22606 net.cpp:139] Memory required for data: 1831424600
I0906 17:47:27.928073 22606 layer_factory.hpp:77] Creating layer conv4_0/3x3_dwconv/slice_1/relu
I0906 17:47:27.928081 22606 net.cpp:86] Creating Layer conv4_0/3x3_dwconv/slice_1/relu
I0906 17:47:27.928087 22606 net.cpp:408] conv4_0/3x3_dwconv/slice_1/relu <- conv4_0/3x3_dwconv/slice_1/bn
I0906 17:47:27.928094 22606 net.cpp:369] conv4_0/3x3_dwconv/slice_1/relu -> conv4_0/3x3_dwconv/slice_1/bn (in-place)
I0906 17:47:27.928910 22606 net.cpp:124] Setting up conv4_0/3x3_dwconv/slice_1/relu
I0906 17:47:27.928923 22606 net.cpp:131] Top shape: 50 32 28 28 (1254400)
I0906 17:47:27.928927 22606 net.cpp:139] Memory required for data: 1836442200
I0906 17:47:27.928947 22606 layer_factory.hpp:77] Creating layer conv4_0/3x3_dwconv/slice_2
I0906 17:47:27.928961 22606 net.cpp:86] Creating Layer conv4_0/3x3_dwconv/slice_2
I0906 17:47:27.928968 22606 net.cpp:408] conv4_0/3x3_dwconv/slice_2 <- conv4_0/1x1_increase/split3
I0906 17:47:27.928982 22606 net.cpp:382] conv4_0/3x3_dwconv/slice_2 -> conv4_0/3x3_dwconv/slice_2/bn
I0906 17:47:27.929883 22606 net.cpp:124] Setting up conv4_0/3x3_dwconv/slice_2
I0906 17:47:27.929899 22606 net.cpp:131] Top shape: 50 32 28 28 (1254400)
I0906 17:47:27.929903 22606 net.cpp:139] Memory required for data: 1841459800
I0906 17:47:27.929911 22606 layer_factory.hpp:77] Creating layer conv4_0/3x3_dwconv/slice_2/relu
I0906 17:47:27.929922 22606 net.cpp:86] Creating Layer conv4_0/3x3_dwconv/slice_2/relu
I0906 17:47:27.929927 22606 net.cpp:408] conv4_0/3x3_dwconv/slice_2/relu <- conv4_0/3x3_dwconv/slice_2/bn
I0906 17:47:27.929934 22606 net.cpp:369] conv4_0/3x3_dwconv/slice_2/relu -> conv4_0/3x3_dwconv/slice_2/bn (in-place)
I0906 17:47:27.930876 22606 net.cpp:124] Setting up conv4_0/3x3_dwconv/slice_2/relu
I0906 17:47:27.930891 22606 net.cpp:131] Top shape: 50 32 28 28 (1254400)
I0906 17:47:27.930896 22606 net.cpp:139] Memory required for data: 1846477400
I0906 17:47:27.930900 22606 layer_factory.hpp:77] Creating layer conv4_0/3x3_dwconv/concat
I0906 17:47:27.930922 22606 net.cpp:86] Creating Layer conv4_0/3x3_dwconv/concat
I0906 17:47:27.930927 22606 net.cpp:408] conv4_0/3x3_dwconv/concat <- conv4_0/3x3_dwconv/slice_0/bn
I0906 17:47:27.930932 22606 net.cpp:408] conv4_0/3x3_dwconv/concat <- conv4_0/3x3_dwconv/slice_1/bn
I0906 17:47:27.930938 22606 net.cpp:408] conv4_0/3x3_dwconv/concat <- conv4_0/3x3_dwconv/slice_2/bn
I0906 17:47:27.930943 22606 net.cpp:382] conv4_0/3x3_dwconv/concat -> conv4_0/3x3_dwconv/concat
I0906 17:47:27.930989 22606 net.cpp:124] Setting up conv4_0/3x3_dwconv/concat
I0906 17:47:27.930997 22606 net.cpp:131] Top shape: 50 96 28 28 (3763200)
I0906 17:47:27.931001 22606 net.cpp:139] Memory required for data: 1861530200
I0906 17:47:27.931018 22606 layer_factory.hpp:77] Creating layer conv4_0/3x3_dwconv/concat_fixed_point
I0906 17:47:27.931027 22606 net.cpp:86] Creating Layer conv4_0/3x3_dwconv/concat_fixed_point
I0906 17:47:27.931035 22606 net.cpp:408] conv4_0/3x3_dwconv/concat_fixed_point <- conv4_0/3x3_dwconv/concat
I0906 17:47:27.931039 22606 net.cpp:369] conv4_0/3x3_dwconv/concat_fixed_point -> conv4_0/3x3_dwconv/concat (in-place)
I0906 17:47:27.931083 22606 net.cpp:124] Setting up conv4_0/3x3_dwconv/concat_fixed_point
I0906 17:47:27.931090 22606 net.cpp:131] Top shape: 50 96 28 28 (3763200)
I0906 17:47:27.931093 22606 net.cpp:139] Memory required for data: 1876583000
I0906 17:47:27.931099 22606 layer_factory.hpp:77] Creating layer conv4_0/3x3_dwconv/concat_conv4_0/3x3_dwconv/concat_fixed_point_0_split
I0906 17:47:27.931107 22606 net.cpp:86] Creating Layer conv4_0/3x3_dwconv/concat_conv4_0/3x3_dwconv/concat_fixed_point_0_split
I0906 17:47:27.931111 22606 net.cpp:408] conv4_0/3x3_dwconv/concat_conv4_0/3x3_dwconv/concat_fixed_point_0_split <- conv4_0/3x3_dwconv/concat
I0906 17:47:27.931118 22606 net.cpp:382] conv4_0/3x3_dwconv/concat_conv4_0/3x3_dwconv/concat_fixed_point_0_split -> conv4_0/3x3_dwconv/concat_conv4_0/3x3_dwconv/concat_fixed_point_0_split_0
I0906 17:47:27.931124 22606 net.cpp:382] conv4_0/3x3_dwconv/concat_conv4_0/3x3_dwconv/concat_fixed_point_0_split -> conv4_0/3x3_dwconv/concat_conv4_0/3x3_dwconv/concat_fixed_point_0_split_1
I0906 17:47:27.931171 22606 net.cpp:124] Setting up conv4_0/3x3_dwconv/concat_conv4_0/3x3_dwconv/concat_fixed_point_0_split
I0906 17:47:27.931180 22606 net.cpp:131] Top shape: 50 96 28 28 (3763200)
I0906 17:47:27.931185 22606 net.cpp:131] Top shape: 50 96 28 28 (3763200)
I0906 17:47:27.931188 22606 net.cpp:139] Memory required for data: 1906688600
I0906 17:47:27.931191 22606 layer_factory.hpp:77] Creating layer conv4_0/3x3_dwconv/SE_global_pool
I0906 17:47:27.931202 22606 net.cpp:86] Creating Layer conv4_0/3x3_dwconv/SE_global_pool
I0906 17:47:27.931207 22606 net.cpp:408] conv4_0/3x3_dwconv/SE_global_pool <- conv4_0/3x3_dwconv/concat_conv4_0/3x3_dwconv/concat_fixed_point_0_split_0
I0906 17:47:27.931231 22606 net.cpp:382] conv4_0/3x3_dwconv/SE_global_pool -> conv4_0/3x3_dwconv/SE_global_pool
I0906 17:47:27.931278 22606 net.cpp:124] Setting up conv4_0/3x3_dwconv/SE_global_pool
I0906 17:47:27.931291 22606 net.cpp:131] Top shape: 50 96 1 1 (4800)
I0906 17:47:27.931295 22606 net.cpp:139] Memory required for data: 1906707800
I0906 17:47:27.931306 22606 layer_factory.hpp:77] Creating layer conv4_0/3x3_dwconv/SE_fc1
I0906 17:47:27.931337 22606 net.cpp:86] Creating Layer conv4_0/3x3_dwconv/SE_fc1
I0906 17:47:27.931344 22606 net.cpp:408] conv4_0/3x3_dwconv/SE_fc1 <- conv4_0/3x3_dwconv/SE_global_pool
I0906 17:47:27.931352 22606 net.cpp:382] conv4_0/3x3_dwconv/SE_fc1 -> conv4_0/3x3_dwconv/SE_fc1
I0906 17:47:27.931803 22606 net.cpp:124] Setting up conv4_0/3x3_dwconv/SE_fc1
I0906 17:47:27.931816 22606 net.cpp:131] Top shape: 50 6 1 1 (300)
I0906 17:47:27.931820 22606 net.cpp:139] Memory required for data: 1906709000
I0906 17:47:27.931828 22606 layer_factory.hpp:77] Creating layer conv4_0/3x3_dwconv/SE_fc1/relu
I0906 17:47:27.931835 22606 net.cpp:86] Creating Layer conv4_0/3x3_dwconv/SE_fc1/relu
I0906 17:47:27.931840 22606 net.cpp:408] conv4_0/3x3_dwconv/SE_fc1/relu <- conv4_0/3x3_dwconv/SE_fc1
I0906 17:47:27.931849 22606 net.cpp:369] conv4_0/3x3_dwconv/SE_fc1/relu -> conv4_0/3x3_dwconv/SE_fc1 (in-place)
I0906 17:47:27.932567 22606 net.cpp:124] Setting up conv4_0/3x3_dwconv/SE_fc1/relu
I0906 17:47:27.932580 22606 net.cpp:131] Top shape: 50 6 1 1 (300)
I0906 17:47:27.932585 22606 net.cpp:139] Memory required for data: 1906710200
I0906 17:47:27.932588 22606 layer_factory.hpp:77] Creating layer conv4_0/3x3_dwconv/SE_fc2
I0906 17:47:27.932600 22606 net.cpp:86] Creating Layer conv4_0/3x3_dwconv/SE_fc2
I0906 17:47:27.932605 22606 net.cpp:408] conv4_0/3x3_dwconv/SE_fc2 <- conv4_0/3x3_dwconv/SE_fc1
I0906 17:47:27.932615 22606 net.cpp:382] conv4_0/3x3_dwconv/SE_fc2 -> conv4_0/3x3_dwconv/SE_fc2
I0906 17:47:27.933073 22606 net.cpp:124] Setting up conv4_0/3x3_dwconv/SE_fc2
I0906 17:47:27.933087 22606 net.cpp:131] Top shape: 50 96 1 1 (4800)
I0906 17:47:27.933091 22606 net.cpp:139] Memory required for data: 1906729400
I0906 17:47:27.933097 22606 layer_factory.hpp:77] Creating layer conv4_0/3x3_dwconv/SE_weights
I0906 17:47:27.933109 22606 net.cpp:86] Creating Layer conv4_0/3x3_dwconv/SE_weights
I0906 17:47:27.933113 22606 net.cpp:408] conv4_0/3x3_dwconv/SE_weights <- conv4_0/3x3_dwconv/SE_fc2
I0906 17:47:27.933120 22606 net.cpp:369] conv4_0/3x3_dwconv/SE_weights -> conv4_0/3x3_dwconv/SE_fc2 (in-place)
I0906 17:47:27.933815 22606 net.cpp:124] Setting up conv4_0/3x3_dwconv/SE_weights
I0906 17:47:27.933828 22606 net.cpp:131] Top shape: 50 96 1 1 (4800)
I0906 17:47:27.933832 22606 net.cpp:139] Memory required for data: 1906748600
I0906 17:47:27.933836 22606 layer_factory.hpp:77] Creating layer conv4_0/3x3_dwconv/SE_weights/reshape
I0906 17:47:27.933861 22606 net.cpp:86] Creating Layer conv4_0/3x3_dwconv/SE_weights/reshape
I0906 17:47:27.933866 22606 net.cpp:408] conv4_0/3x3_dwconv/SE_weights/reshape <- conv4_0/3x3_dwconv/SE_fc2
I0906 17:47:27.933876 22606 net.cpp:382] conv4_0/3x3_dwconv/SE_weights/reshape -> conv4_0/3x3_dwconv/SE_weights/reshape
I0906 17:47:27.933931 22606 net.cpp:124] Setting up conv4_0/3x3_dwconv/SE_weights/reshape
I0906 17:47:27.933938 22606 net.cpp:131] Top shape: 50 96 (4800)
I0906 17:47:27.933943 22606 net.cpp:139] Memory required for data: 1906767800
I0906 17:47:27.933946 22606 layer_factory.hpp:77] Creating layer conv4_0/3x3_dwconv/scale
I0906 17:47:27.933959 22606 net.cpp:86] Creating Layer conv4_0/3x3_dwconv/scale
I0906 17:47:27.933965 22606 net.cpp:408] conv4_0/3x3_dwconv/scale <- conv4_0/3x3_dwconv/concat_conv4_0/3x3_dwconv/concat_fixed_point_0_split_1
I0906 17:47:27.933970 22606 net.cpp:408] conv4_0/3x3_dwconv/scale <- conv4_0/3x3_dwconv/SE_weights/reshape
I0906 17:47:27.933976 22606 net.cpp:382] conv4_0/3x3_dwconv/scale -> conv4_0/3x3_dwconv/scale
I0906 17:47:27.934085 22606 net.cpp:124] Setting up conv4_0/3x3_dwconv/scale
I0906 17:47:27.934108 22606 net.cpp:131] Top shape: 50 96 28 28 (3763200)
I0906 17:47:27.934111 22606 net.cpp:139] Memory required for data: 1921820600
I0906 17:47:27.934115 22606 layer_factory.hpp:77] Creating layer conv4_0/3x3_dwconv/scale_fixed_point
I0906 17:47:27.934123 22606 net.cpp:86] Creating Layer conv4_0/3x3_dwconv/scale_fixed_point
I0906 17:47:27.934129 22606 net.cpp:408] conv4_0/3x3_dwconv/scale_fixed_point <- conv4_0/3x3_dwconv/scale
I0906 17:47:27.934137 22606 net.cpp:369] conv4_0/3x3_dwconv/scale_fixed_point -> conv4_0/3x3_dwconv/scale (in-place)
I0906 17:47:27.934170 22606 net.cpp:124] Setting up conv4_0/3x3_dwconv/scale_fixed_point
I0906 17:47:27.934176 22606 net.cpp:131] Top shape: 50 96 28 28 (3763200)
I0906 17:47:27.934180 22606 net.cpp:139] Memory required for data: 1936873400
I0906 17:47:27.934195 22606 layer_factory.hpp:77] Creating layer conv4_0/1x1_decrease
I0906 17:47:27.934217 22606 net.cpp:86] Creating Layer conv4_0/1x1_decrease
I0906 17:47:27.934226 22606 net.cpp:408] conv4_0/1x1_decrease <- conv4_0/3x3_dwconv/scale
I0906 17:47:27.934233 22606 net.cpp:382] conv4_0/1x1_decrease -> conv4_0/1x1_decrease/bn
I0906 17:47:27.934964 22606 net.cpp:124] Setting up conv4_0/1x1_decrease
I0906 17:47:27.934979 22606 net.cpp:131] Top shape: 50 40 28 28 (1568000)
I0906 17:47:27.934983 22606 net.cpp:139] Memory required for data: 1943145400
I0906 17:47:27.934990 22606 layer_factory.hpp:77] Creating layer conv4_0/1x1_decrease/bn_fixed_point
I0906 17:47:27.935014 22606 net.cpp:86] Creating Layer conv4_0/1x1_decrease/bn_fixed_point
I0906 17:47:27.935019 22606 net.cpp:408] conv4_0/1x1_decrease/bn_fixed_point <- conv4_0/1x1_decrease/bn
I0906 17:47:27.935029 22606 net.cpp:369] conv4_0/1x1_decrease/bn_fixed_point -> conv4_0/1x1_decrease/bn (in-place)
I0906 17:47:27.935067 22606 net.cpp:124] Setting up conv4_0/1x1_decrease/bn_fixed_point
I0906 17:47:27.935075 22606 net.cpp:131] Top shape: 50 40 28 28 (1568000)
I0906 17:47:27.935078 22606 net.cpp:139] Memory required for data: 1949417400
I0906 17:47:27.935083 22606 layer_factory.hpp:77] Creating layer conv4_0/1x1_decrease/bn_conv4_0/1x1_decrease/bn_fixed_point_0_split
I0906 17:47:27.935091 22606 net.cpp:86] Creating Layer conv4_0/1x1_decrease/bn_conv4_0/1x1_decrease/bn_fixed_point_0_split
I0906 17:47:27.935094 22606 net.cpp:408] conv4_0/1x1_decrease/bn_conv4_0/1x1_decrease/bn_fixed_point_0_split <- conv4_0/1x1_decrease/bn
I0906 17:47:27.935101 22606 net.cpp:382] conv4_0/1x1_decrease/bn_conv4_0/1x1_decrease/bn_fixed_point_0_split -> conv4_0/1x1_decrease/bn_conv4_0/1x1_decrease/bn_fixed_point_0_split_0
I0906 17:47:27.935112 22606 net.cpp:382] conv4_0/1x1_decrease/bn_conv4_0/1x1_decrease/bn_fixed_point_0_split -> conv4_0/1x1_decrease/bn_conv4_0/1x1_decrease/bn_fixed_point_0_split_1
I0906 17:47:27.935161 22606 net.cpp:124] Setting up conv4_0/1x1_decrease/bn_conv4_0/1x1_decrease/bn_fixed_point_0_split
I0906 17:47:27.935169 22606 net.cpp:131] Top shape: 50 40 28 28 (1568000)
I0906 17:47:27.935173 22606 net.cpp:131] Top shape: 50 40 28 28 (1568000)
I0906 17:47:27.935178 22606 net.cpp:139] Memory required for data: 1961961400
I0906 17:47:27.935180 22606 layer_factory.hpp:77] Creating layer conv4_1/1x1_increase
I0906 17:47:27.935191 22606 net.cpp:86] Creating Layer conv4_1/1x1_increase
I0906 17:47:27.935197 22606 net.cpp:408] conv4_1/1x1_increase <- conv4_0/1x1_decrease/bn_conv4_0/1x1_decrease/bn_fixed_point_0_split_0
I0906 17:47:27.935205 22606 net.cpp:382] conv4_1/1x1_increase -> conv4_1/1x1_increase/bn
I0906 17:47:27.935961 22606 net.cpp:124] Setting up conv4_1/1x1_increase
I0906 17:47:27.935974 22606 net.cpp:131] Top shape: 50 120 28 28 (4704000)
I0906 17:47:27.935977 22606 net.cpp:139] Memory required for data: 1980777400
I0906 17:47:27.935995 22606 layer_factory.hpp:77] Creating layer conv4_1/1x1_increase/relu
I0906 17:47:27.936018 22606 net.cpp:86] Creating Layer conv4_1/1x1_increase/relu
I0906 17:47:27.936023 22606 net.cpp:408] conv4_1/1x1_increase/relu <- conv4_1/1x1_increase/bn
I0906 17:47:27.936033 22606 net.cpp:369] conv4_1/1x1_increase/relu -> conv4_1/1x1_increase/bn (in-place)
I0906 17:47:27.937026 22606 net.cpp:124] Setting up conv4_1/1x1_increase/relu
I0906 17:47:27.937042 22606 net.cpp:131] Top shape: 50 120 28 28 (4704000)
I0906 17:47:27.937047 22606 net.cpp:139] Memory required for data: 1999593400
I0906 17:47:27.937052 22606 layer_factory.hpp:77] Creating layer conv4_1/1x1_increase/bn_fixed_point
I0906 17:47:27.937069 22606 net.cpp:86] Creating Layer conv4_1/1x1_increase/bn_fixed_point
I0906 17:47:27.937075 22606 net.cpp:408] conv4_1/1x1_increase/bn_fixed_point <- conv4_1/1x1_increase/bn
I0906 17:47:27.937084 22606 net.cpp:369] conv4_1/1x1_increase/bn_fixed_point -> conv4_1/1x1_increase/bn (in-place)
I0906 17:47:27.937124 22606 net.cpp:124] Setting up conv4_1/1x1_increase/bn_fixed_point
I0906 17:47:27.937134 22606 net.cpp:131] Top shape: 50 120 28 28 (4704000)
I0906 17:47:27.937136 22606 net.cpp:139] Memory required for data: 2018409400
I0906 17:47:27.937142 22606 layer_factory.hpp:77] Creating layer conv4_1/1x1_increase/slice
I0906 17:47:27.937157 22606 net.cpp:86] Creating Layer conv4_1/1x1_increase/slice
I0906 17:47:27.937162 22606 net.cpp:408] conv4_1/1x1_increase/slice <- conv4_1/1x1_increase/bn
I0906 17:47:27.937170 22606 net.cpp:382] conv4_1/1x1_increase/slice -> conv4_1/1x1_increase/split1
I0906 17:47:27.937177 22606 net.cpp:382] conv4_1/1x1_increase/slice -> conv4_1/1x1_increase/split2
I0906 17:47:27.937237 22606 net.cpp:124] Setting up conv4_1/1x1_increase/slice
I0906 17:47:27.937245 22606 net.cpp:131] Top shape: 50 60 28 28 (2352000)
I0906 17:47:27.937249 22606 net.cpp:131] Top shape: 50 60 28 28 (2352000)
I0906 17:47:27.937253 22606 net.cpp:139] Memory required for data: 2037225400
I0906 17:47:27.937256 22606 layer_factory.hpp:77] Creating layer conv4_1/3x3_dwconv/slice_0
I0906 17:47:27.937268 22606 net.cpp:86] Creating Layer conv4_1/3x3_dwconv/slice_0
I0906 17:47:27.937275 22606 net.cpp:408] conv4_1/3x3_dwconv/slice_0 <- conv4_1/1x1_increase/split1
I0906 17:47:27.937283 22606 net.cpp:382] conv4_1/3x3_dwconv/slice_0 -> conv4_1/3x3_dwconv/slice_0/bn
I0906 17:47:27.937944 22606 net.cpp:124] Setting up conv4_1/3x3_dwconv/slice_0
I0906 17:47:27.937958 22606 net.cpp:131] Top shape: 50 60 28 28 (2352000)
I0906 17:47:27.937963 22606 net.cpp:139] Memory required for data: 2046633400
I0906 17:47:27.937984 22606 layer_factory.hpp:77] Creating layer conv4_1/3x3_dwconv/slice_0/relu
I0906 17:47:27.937995 22606 net.cpp:86] Creating Layer conv4_1/3x3_dwconv/slice_0/relu
I0906 17:47:27.938002 22606 net.cpp:408] conv4_1/3x3_dwconv/slice_0/relu <- conv4_1/3x3_dwconv/slice_0/bn
I0906 17:47:27.938014 22606 net.cpp:369] conv4_1/3x3_dwconv/slice_0/relu -> conv4_1/3x3_dwconv/slice_0/bn (in-place)
I0906 17:47:27.938724 22606 net.cpp:124] Setting up conv4_1/3x3_dwconv/slice_0/relu
I0906 17:47:27.938736 22606 net.cpp:131] Top shape: 50 60 28 28 (2352000)
I0906 17:47:27.938740 22606 net.cpp:139] Memory required for data: 2056041400
I0906 17:47:27.938745 22606 layer_factory.hpp:77] Creating layer conv4_1/3x3_dwconv/slice_1
I0906 17:47:27.938756 22606 net.cpp:86] Creating Layer conv4_1/3x3_dwconv/slice_1
I0906 17:47:27.938763 22606 net.cpp:408] conv4_1/3x3_dwconv/slice_1 <- conv4_1/1x1_increase/split2
I0906 17:47:27.938772 22606 net.cpp:382] conv4_1/3x3_dwconv/slice_1 -> conv4_1/3x3_dwconv/slice_1/bn
I0906 17:47:27.939643 22606 net.cpp:124] Setting up conv4_1/3x3_dwconv/slice_1
I0906 17:47:27.939658 22606 net.cpp:131] Top shape: 50 60 28 28 (2352000)
I0906 17:47:27.939662 22606 net.cpp:139] Memory required for data: 2065449400
I0906 17:47:27.939671 22606 layer_factory.hpp:77] Creating layer conv4_1/3x3_dwconv/slice_1/relu
I0906 17:47:27.939677 22606 net.cpp:86] Creating Layer conv4_1/3x3_dwconv/slice_1/relu
I0906 17:47:27.939684 22606 net.cpp:408] conv4_1/3x3_dwconv/slice_1/relu <- conv4_1/3x3_dwconv/slice_1/bn
I0906 17:47:27.939692 22606 net.cpp:369] conv4_1/3x3_dwconv/slice_1/relu -> conv4_1/3x3_dwconv/slice_1/bn (in-place)
I0906 17:47:27.940366 22606 net.cpp:124] Setting up conv4_1/3x3_dwconv/slice_1/relu
I0906 17:47:27.940379 22606 net.cpp:131] Top shape: 50 60 28 28 (2352000)
I0906 17:47:27.940397 22606 net.cpp:139] Memory required for data: 2074857400
I0906 17:47:27.940400 22606 layer_factory.hpp:77] Creating layer conv4_1/3x3_dwconv/concat
I0906 17:47:27.940408 22606 net.cpp:86] Creating Layer conv4_1/3x3_dwconv/concat
I0906 17:47:27.940413 22606 net.cpp:408] conv4_1/3x3_dwconv/concat <- conv4_1/3x3_dwconv/slice_0/bn
I0906 17:47:27.940418 22606 net.cpp:408] conv4_1/3x3_dwconv/concat <- conv4_1/3x3_dwconv/slice_1/bn
I0906 17:47:27.940424 22606 net.cpp:382] conv4_1/3x3_dwconv/concat -> conv4_1/3x3_dwconv/concat
I0906 17:47:27.940464 22606 net.cpp:124] Setting up conv4_1/3x3_dwconv/concat
I0906 17:47:27.940471 22606 net.cpp:131] Top shape: 50 120 28 28 (4704000)
I0906 17:47:27.940475 22606 net.cpp:139] Memory required for data: 2093673400
I0906 17:47:27.940488 22606 layer_factory.hpp:77] Creating layer conv4_1/3x3_dwconv/concat_fixed_point
I0906 17:47:27.940503 22606 net.cpp:86] Creating Layer conv4_1/3x3_dwconv/concat_fixed_point
I0906 17:47:27.940510 22606 net.cpp:408] conv4_1/3x3_dwconv/concat_fixed_point <- conv4_1/3x3_dwconv/concat
I0906 17:47:27.940517 22606 net.cpp:369] conv4_1/3x3_dwconv/concat_fixed_point -> conv4_1/3x3_dwconv/concat (in-place)
I0906 17:47:27.940553 22606 net.cpp:124] Setting up conv4_1/3x3_dwconv/concat_fixed_point
I0906 17:47:27.940562 22606 net.cpp:131] Top shape: 50 120 28 28 (4704000)
I0906 17:47:27.940564 22606 net.cpp:139] Memory required for data: 2112489400
I0906 17:47:27.940569 22606 layer_factory.hpp:77] Creating layer conv4_1/3x3_dwconv/concat_conv4_1/3x3_dwconv/concat_fixed_point_0_split
I0906 17:47:27.940575 22606 net.cpp:86] Creating Layer conv4_1/3x3_dwconv/concat_conv4_1/3x3_dwconv/concat_fixed_point_0_split
I0906 17:47:27.940579 22606 net.cpp:408] conv4_1/3x3_dwconv/concat_conv4_1/3x3_dwconv/concat_fixed_point_0_split <- conv4_1/3x3_dwconv/concat
I0906 17:47:27.940587 22606 net.cpp:382] conv4_1/3x3_dwconv/concat_conv4_1/3x3_dwconv/concat_fixed_point_0_split -> conv4_1/3x3_dwconv/concat_conv4_1/3x3_dwconv/concat_fixed_point_0_split_0
I0906 17:47:27.940595 22606 net.cpp:382] conv4_1/3x3_dwconv/concat_conv4_1/3x3_dwconv/concat_fixed_point_0_split -> conv4_1/3x3_dwconv/concat_conv4_1/3x3_dwconv/concat_fixed_point_0_split_1
I0906 17:47:27.940641 22606 net.cpp:124] Setting up conv4_1/3x3_dwconv/concat_conv4_1/3x3_dwconv/concat_fixed_point_0_split
I0906 17:47:27.940647 22606 net.cpp:131] Top shape: 50 120 28 28 (4704000)
I0906 17:47:27.940652 22606 net.cpp:131] Top shape: 50 120 28 28 (4704000)
I0906 17:47:27.940655 22606 net.cpp:139] Memory required for data: 2150121400
I0906 17:47:27.940659 22606 layer_factory.hpp:77] Creating layer conv4_1/3x3_dwconv/SE_global_pool
I0906 17:47:27.940670 22606 net.cpp:86] Creating Layer conv4_1/3x3_dwconv/SE_global_pool
I0906 17:47:27.940676 22606 net.cpp:408] conv4_1/3x3_dwconv/SE_global_pool <- conv4_1/3x3_dwconv/concat_conv4_1/3x3_dwconv/concat_fixed_point_0_split_0
I0906 17:47:27.940681 22606 net.cpp:382] conv4_1/3x3_dwconv/SE_global_pool -> conv4_1/3x3_dwconv/SE_global_pool
I0906 17:47:27.940711 22606 net.cpp:124] Setting up conv4_1/3x3_dwconv/SE_global_pool
I0906 17:47:27.940718 22606 net.cpp:131] Top shape: 50 120 1 1 (6000)
I0906 17:47:27.940721 22606 net.cpp:139] Memory required for data: 2150145400
I0906 17:47:27.940726 22606 layer_factory.hpp:77] Creating layer conv4_1/3x3_dwconv/SE_fc1
I0906 17:47:27.940735 22606 net.cpp:86] Creating Layer conv4_1/3x3_dwconv/SE_fc1
I0906 17:47:27.940742 22606 net.cpp:408] conv4_1/3x3_dwconv/SE_fc1 <- conv4_1/3x3_dwconv/SE_global_pool
I0906 17:47:27.940749 22606 net.cpp:382] conv4_1/3x3_dwconv/SE_fc1 -> conv4_1/3x3_dwconv/SE_fc1
I0906 17:47:27.941188 22606 net.cpp:124] Setting up conv4_1/3x3_dwconv/SE_fc1
I0906 17:47:27.941201 22606 net.cpp:131] Top shape: 50 7 1 1 (350)
I0906 17:47:27.941205 22606 net.cpp:139] Memory required for data: 2150146800
I0906 17:47:27.941220 22606 layer_factory.hpp:77] Creating layer conv4_1/3x3_dwconv/SE_fc1/relu
I0906 17:47:27.941236 22606 net.cpp:86] Creating Layer conv4_1/3x3_dwconv/SE_fc1/relu
I0906 17:47:27.941241 22606 net.cpp:408] conv4_1/3x3_dwconv/SE_fc1/relu <- conv4_1/3x3_dwconv/SE_fc1
I0906 17:47:27.941262 22606 net.cpp:369] conv4_1/3x3_dwconv/SE_fc1/relu -> conv4_1/3x3_dwconv/SE_fc1 (in-place)
I0906 17:47:27.942181 22606 net.cpp:124] Setting up conv4_1/3x3_dwconv/SE_fc1/relu
I0906 17:47:27.942196 22606 net.cpp:131] Top shape: 50 7 1 1 (350)
I0906 17:47:27.942200 22606 net.cpp:139] Memory required for data: 2150148200
I0906 17:47:27.942204 22606 layer_factory.hpp:77] Creating layer conv4_1/3x3_dwconv/SE_fc2
I0906 17:47:27.942221 22606 net.cpp:86] Creating Layer conv4_1/3x3_dwconv/SE_fc2
I0906 17:47:27.942226 22606 net.cpp:408] conv4_1/3x3_dwconv/SE_fc2 <- conv4_1/3x3_dwconv/SE_fc1
I0906 17:47:27.942236 22606 net.cpp:382] conv4_1/3x3_dwconv/SE_fc2 -> conv4_1/3x3_dwconv/SE_fc2
I0906 17:47:27.942695 22606 net.cpp:124] Setting up conv4_1/3x3_dwconv/SE_fc2
I0906 17:47:27.942708 22606 net.cpp:131] Top shape: 50 120 1 1 (6000)
I0906 17:47:27.942713 22606 net.cpp:139] Memory required for data: 2150172200
I0906 17:47:27.942719 22606 layer_factory.hpp:77] Creating layer conv4_1/3x3_dwconv/SE_weights
I0906 17:47:27.942725 22606 net.cpp:86] Creating Layer conv4_1/3x3_dwconv/SE_weights
I0906 17:47:27.942731 22606 net.cpp:408] conv4_1/3x3_dwconv/SE_weights <- conv4_1/3x3_dwconv/SE_fc2
I0906 17:47:27.942737 22606 net.cpp:369] conv4_1/3x3_dwconv/SE_weights -> conv4_1/3x3_dwconv/SE_fc2 (in-place)
I0906 17:47:27.943531 22606 net.cpp:124] Setting up conv4_1/3x3_dwconv/SE_weights
I0906 17:47:27.943543 22606 net.cpp:131] Top shape: 50 120 1 1 (6000)
I0906 17:47:27.943547 22606 net.cpp:139] Memory required for data: 2150196200
I0906 17:47:27.943552 22606 layer_factory.hpp:77] Creating layer conv4_1/3x3_dwconv/SE_weights/reshape
I0906 17:47:27.943568 22606 net.cpp:86] Creating Layer conv4_1/3x3_dwconv/SE_weights/reshape
I0906 17:47:27.943573 22606 net.cpp:408] conv4_1/3x3_dwconv/SE_weights/reshape <- conv4_1/3x3_dwconv/SE_fc2
I0906 17:47:27.943583 22606 net.cpp:382] conv4_1/3x3_dwconv/SE_weights/reshape -> conv4_1/3x3_dwconv/SE_weights/reshape
I0906 17:47:27.943626 22606 net.cpp:124] Setting up conv4_1/3x3_dwconv/SE_weights/reshape
I0906 17:47:27.943634 22606 net.cpp:131] Top shape: 50 120 (6000)
I0906 17:47:27.943637 22606 net.cpp:139] Memory required for data: 2150220200
I0906 17:47:27.943641 22606 layer_factory.hpp:77] Creating layer conv4_1/3x3_dwconv/scale
I0906 17:47:27.943656 22606 net.cpp:86] Creating Layer conv4_1/3x3_dwconv/scale
I0906 17:47:27.943660 22606 net.cpp:408] conv4_1/3x3_dwconv/scale <- conv4_1/3x3_dwconv/concat_conv4_1/3x3_dwconv/concat_fixed_point_0_split_1
I0906 17:47:27.943665 22606 net.cpp:408] conv4_1/3x3_dwconv/scale <- conv4_1/3x3_dwconv/SE_weights/reshape
I0906 17:47:27.943675 22606 net.cpp:382] conv4_1/3x3_dwconv/scale -> conv4_1/3x3_dwconv/scale
I0906 17:47:27.943769 22606 net.cpp:124] Setting up conv4_1/3x3_dwconv/scale
I0906 17:47:27.943778 22606 net.cpp:131] Top shape: 50 120 28 28 (4704000)
I0906 17:47:27.943780 22606 net.cpp:139] Memory required for data: 2169036200
I0906 17:47:27.943784 22606 layer_factory.hpp:77] Creating layer conv4_1/3x3_dwconv/scale_fixed_point
I0906 17:47:27.943790 22606 net.cpp:86] Creating Layer conv4_1/3x3_dwconv/scale_fixed_point
I0906 17:47:27.943794 22606 net.cpp:408] conv4_1/3x3_dwconv/scale_fixed_point <- conv4_1/3x3_dwconv/scale
I0906 17:47:27.943801 22606 net.cpp:369] conv4_1/3x3_dwconv/scale_fixed_point -> conv4_1/3x3_dwconv/scale (in-place)
I0906 17:47:27.943832 22606 net.cpp:124] Setting up conv4_1/3x3_dwconv/scale_fixed_point
I0906 17:47:27.943840 22606 net.cpp:131] Top shape: 50 120 28 28 (4704000)
I0906 17:47:27.943843 22606 net.cpp:139] Memory required for data: 2187852200
I0906 17:47:27.943848 22606 layer_factory.hpp:77] Creating layer conv4_1/1x1_decrease
I0906 17:47:27.943867 22606 net.cpp:86] Creating Layer conv4_1/1x1_decrease
I0906 17:47:27.943872 22606 net.cpp:408] conv4_1/1x1_decrease <- conv4_1/3x3_dwconv/scale
I0906 17:47:27.943881 22606 net.cpp:382] conv4_1/1x1_decrease -> conv4_1/1x1_decrease/bn
I0906 17:47:27.944617 22606 net.cpp:124] Setting up conv4_1/1x1_decrease
I0906 17:47:27.944641 22606 net.cpp:131] Top shape: 50 40 28 28 (1568000)
I0906 17:47:27.944645 22606 net.cpp:139] Memory required for data: 2194124200
I0906 17:47:27.944663 22606 layer_factory.hpp:77] Creating layer conv4_1/elt_sum
I0906 17:47:27.944671 22606 net.cpp:86] Creating Layer conv4_1/elt_sum
I0906 17:47:27.944675 22606 net.cpp:408] conv4_1/elt_sum <- conv4_0/1x1_decrease/bn_conv4_0/1x1_decrease/bn_fixed_point_0_split_1
I0906 17:47:27.944681 22606 net.cpp:408] conv4_1/elt_sum <- conv4_1/1x1_decrease/bn
I0906 17:47:27.944686 22606 net.cpp:382] conv4_1/elt_sum -> conv4_1/elt_sum
I0906 17:47:27.944728 22606 net.cpp:124] Setting up conv4_1/elt_sum
I0906 17:47:27.944736 22606 net.cpp:131] Top shape: 50 40 28 28 (1568000)
I0906 17:47:27.944741 22606 net.cpp:139] Memory required for data: 2200396200
I0906 17:47:27.944744 22606 layer_factory.hpp:77] Creating layer conv4_1/elt_sum_fixed_point
I0906 17:47:27.944761 22606 net.cpp:86] Creating Layer conv4_1/elt_sum_fixed_point
I0906 17:47:27.944766 22606 net.cpp:408] conv4_1/elt_sum_fixed_point <- conv4_1/elt_sum
I0906 17:47:27.944772 22606 net.cpp:369] conv4_1/elt_sum_fixed_point -> conv4_1/elt_sum (in-place)
I0906 17:47:27.944804 22606 net.cpp:124] Setting up conv4_1/elt_sum_fixed_point
I0906 17:47:27.944811 22606 net.cpp:131] Top shape: 50 40 28 28 (1568000)
I0906 17:47:27.944815 22606 net.cpp:139] Memory required for data: 2206668200
I0906 17:47:27.944819 22606 layer_factory.hpp:77] Creating layer conv4_1/elt_sum_conv4_1/elt_sum_fixed_point_0_split
I0906 17:47:27.944831 22606 net.cpp:86] Creating Layer conv4_1/elt_sum_conv4_1/elt_sum_fixed_point_0_split
I0906 17:47:27.944838 22606 net.cpp:408] conv4_1/elt_sum_conv4_1/elt_sum_fixed_point_0_split <- conv4_1/elt_sum
I0906 17:47:27.944842 22606 net.cpp:382] conv4_1/elt_sum_conv4_1/elt_sum_fixed_point_0_split -> conv4_1/elt_sum_conv4_1/elt_sum_fixed_point_0_split_0
I0906 17:47:27.944849 22606 net.cpp:382] conv4_1/elt_sum_conv4_1/elt_sum_fixed_point_0_split -> conv4_1/elt_sum_conv4_1/elt_sum_fixed_point_0_split_1
I0906 17:47:27.944895 22606 net.cpp:124] Setting up conv4_1/elt_sum_conv4_1/elt_sum_fixed_point_0_split
I0906 17:47:27.944902 22606 net.cpp:131] Top shape: 50 40 28 28 (1568000)
I0906 17:47:27.944907 22606 net.cpp:131] Top shape: 50 40 28 28 (1568000)
I0906 17:47:27.944911 22606 net.cpp:139] Memory required for data: 2219212200
I0906 17:47:27.944914 22606 layer_factory.hpp:77] Creating layer conv4_2/1x1_increase
I0906 17:47:27.944934 22606 net.cpp:86] Creating Layer conv4_2/1x1_increase
I0906 17:47:27.944939 22606 net.cpp:408] conv4_2/1x1_increase <- conv4_1/elt_sum_conv4_1/elt_sum_fixed_point_0_split_0
I0906 17:47:27.944948 22606 net.cpp:382] conv4_2/1x1_increase -> conv4_2/1x1_increase/bn
I0906 17:47:27.945681 22606 net.cpp:124] Setting up conv4_2/1x1_increase
I0906 17:47:27.945694 22606 net.cpp:131] Top shape: 50 120 28 28 (4704000)
I0906 17:47:27.945698 22606 net.cpp:139] Memory required for data: 2238028200
I0906 17:47:27.945705 22606 layer_factory.hpp:77] Creating layer conv4_2/1x1_increase/relu
I0906 17:47:27.945715 22606 net.cpp:86] Creating Layer conv4_2/1x1_increase/relu
I0906 17:47:27.945720 22606 net.cpp:408] conv4_2/1x1_increase/relu <- conv4_2/1x1_increase/bn
I0906 17:47:27.945725 22606 net.cpp:369] conv4_2/1x1_increase/relu -> conv4_2/1x1_increase/bn (in-place)
I0906 17:47:27.946456 22606 net.cpp:124] Setting up conv4_2/1x1_increase/relu
I0906 17:47:27.946470 22606 net.cpp:131] Top shape: 50 120 28 28 (4704000)
I0906 17:47:27.946473 22606 net.cpp:139] Memory required for data: 2256844200
I0906 17:47:27.946477 22606 layer_factory.hpp:77] Creating layer conv4_2/1x1_increase/bn_fixed_point
I0906 17:47:27.946496 22606 net.cpp:86] Creating Layer conv4_2/1x1_increase/bn_fixed_point
I0906 17:47:27.946506 22606 net.cpp:408] conv4_2/1x1_increase/bn_fixed_point <- conv4_2/1x1_increase/bn
I0906 17:47:27.946512 22606 net.cpp:369] conv4_2/1x1_increase/bn_fixed_point -> conv4_2/1x1_increase/bn (in-place)
I0906 17:47:27.946550 22606 net.cpp:124] Setting up conv4_2/1x1_increase/bn_fixed_point
I0906 17:47:27.946557 22606 net.cpp:131] Top shape: 50 120 28 28 (4704000)
I0906 17:47:27.946575 22606 net.cpp:139] Memory required for data: 2275660200
I0906 17:47:27.946581 22606 layer_factory.hpp:77] Creating layer conv4_2/1x1_increase/slice
I0906 17:47:27.946590 22606 net.cpp:86] Creating Layer conv4_2/1x1_increase/slice
I0906 17:47:27.946594 22606 net.cpp:408] conv4_2/1x1_increase/slice <- conv4_2/1x1_increase/bn
I0906 17:47:27.946602 22606 net.cpp:382] conv4_2/1x1_increase/slice -> conv4_2/1x1_increase/split1
I0906 17:47:27.946610 22606 net.cpp:382] conv4_2/1x1_increase/slice -> conv4_2/1x1_increase/split2
I0906 17:47:27.946663 22606 net.cpp:124] Setting up conv4_2/1x1_increase/slice
I0906 17:47:27.946672 22606 net.cpp:131] Top shape: 50 60 28 28 (2352000)
I0906 17:47:27.946676 22606 net.cpp:131] Top shape: 50 60 28 28 (2352000)
I0906 17:47:27.946681 22606 net.cpp:139] Memory required for data: 2294476200
I0906 17:47:27.946683 22606 layer_factory.hpp:77] Creating layer conv4_2/3x3_dwconv/slice_0
I0906 17:47:27.946704 22606 net.cpp:86] Creating Layer conv4_2/3x3_dwconv/slice_0
I0906 17:47:27.946710 22606 net.cpp:408] conv4_2/3x3_dwconv/slice_0 <- conv4_2/1x1_increase/split1
I0906 17:47:27.946723 22606 net.cpp:382] conv4_2/3x3_dwconv/slice_0 -> conv4_2/3x3_dwconv/slice_0/bn
I0906 17:47:27.947342 22606 net.cpp:124] Setting up conv4_2/3x3_dwconv/slice_0
I0906 17:47:27.947355 22606 net.cpp:131] Top shape: 50 60 28 28 (2352000)
I0906 17:47:27.947358 22606 net.cpp:139] Memory required for data: 2303884200
I0906 17:47:27.947366 22606 layer_factory.hpp:77] Creating layer conv4_2/3x3_dwconv/slice_0/relu
I0906 17:47:27.947383 22606 net.cpp:86] Creating Layer conv4_2/3x3_dwconv/slice_0/relu
I0906 17:47:27.947388 22606 net.cpp:408] conv4_2/3x3_dwconv/slice_0/relu <- conv4_2/3x3_dwconv/slice_0/bn
I0906 17:47:27.947394 22606 net.cpp:369] conv4_2/3x3_dwconv/slice_0/relu -> conv4_2/3x3_dwconv/slice_0/bn (in-place)
I0906 17:47:27.948081 22606 net.cpp:124] Setting up conv4_2/3x3_dwconv/slice_0/relu
I0906 17:47:27.948093 22606 net.cpp:131] Top shape: 50 60 28 28 (2352000)
I0906 17:47:27.948097 22606 net.cpp:139] Memory required for data: 2313292200
I0906 17:47:27.948101 22606 layer_factory.hpp:77] Creating layer conv4_2/3x3_dwconv/slice_1
I0906 17:47:27.948114 22606 net.cpp:86] Creating Layer conv4_2/3x3_dwconv/slice_1
I0906 17:47:27.948120 22606 net.cpp:408] conv4_2/3x3_dwconv/slice_1 <- conv4_2/1x1_increase/split2
I0906 17:47:27.948129 22606 net.cpp:382] conv4_2/3x3_dwconv/slice_1 -> conv4_2/3x3_dwconv/slice_1/bn
I0906 17:47:27.949033 22606 net.cpp:124] Setting up conv4_2/3x3_dwconv/slice_1
I0906 17:47:27.949049 22606 net.cpp:131] Top shape: 50 60 28 28 (2352000)
I0906 17:47:27.949052 22606 net.cpp:139] Memory required for data: 2322700200
I0906 17:47:27.949069 22606 layer_factory.hpp:77] Creating layer conv4_2/3x3_dwconv/slice_1/relu
I0906 17:47:27.949079 22606 net.cpp:86] Creating Layer conv4_2/3x3_dwconv/slice_1/relu
I0906 17:47:27.949084 22606 net.cpp:408] conv4_2/3x3_dwconv/slice_1/relu <- conv4_2/3x3_dwconv/slice_1/bn
I0906 17:47:27.949090 22606 net.cpp:369] conv4_2/3x3_dwconv/slice_1/relu -> conv4_2/3x3_dwconv/slice_1/bn (in-place)
I0906 17:47:27.950006 22606 net.cpp:124] Setting up conv4_2/3x3_dwconv/slice_1/relu
I0906 17:47:27.950026 22606 net.cpp:131] Top shape: 50 60 28 28 (2352000)
I0906 17:47:27.950031 22606 net.cpp:139] Memory required for data: 2332108200
I0906 17:47:27.950045 22606 layer_factory.hpp:77] Creating layer conv4_2/3x3_dwconv/concat
I0906 17:47:27.950052 22606 net.cpp:86] Creating Layer conv4_2/3x3_dwconv/concat
I0906 17:47:27.950057 22606 net.cpp:408] conv4_2/3x3_dwconv/concat <- conv4_2/3x3_dwconv/slice_0/bn
I0906 17:47:27.950062 22606 net.cpp:408] conv4_2/3x3_dwconv/concat <- conv4_2/3x3_dwconv/slice_1/bn
I0906 17:47:27.950070 22606 net.cpp:382] conv4_2/3x3_dwconv/concat -> conv4_2/3x3_dwconv/concat
I0906 17:47:27.950107 22606 net.cpp:124] Setting up conv4_2/3x3_dwconv/concat
I0906 17:47:27.950114 22606 net.cpp:131] Top shape: 50 120 28 28 (4704000)
I0906 17:47:27.950117 22606 net.cpp:139] Memory required for data: 2350924200
I0906 17:47:27.950132 22606 layer_factory.hpp:77] Creating layer conv4_2/3x3_dwconv/concat_fixed_point
I0906 17:47:27.950141 22606 net.cpp:86] Creating Layer conv4_2/3x3_dwconv/concat_fixed_point
I0906 17:47:27.950145 22606 net.cpp:408] conv4_2/3x3_dwconv/concat_fixed_point <- conv4_2/3x3_dwconv/concat
I0906 17:47:27.950152 22606 net.cpp:369] conv4_2/3x3_dwconv/concat_fixed_point -> conv4_2/3x3_dwconv/concat (in-place)
I0906 17:47:27.950184 22606 net.cpp:124] Setting up conv4_2/3x3_dwconv/concat_fixed_point
I0906 17:47:27.950189 22606 net.cpp:131] Top shape: 50 120 28 28 (4704000)
I0906 17:47:27.950193 22606 net.cpp:139] Memory required for data: 2369740200
I0906 17:47:27.950198 22606 layer_factory.hpp:77] Creating layer conv4_2/3x3_dwconv/concat_conv4_2/3x3_dwconv/concat_fixed_point_0_split
I0906 17:47:27.950206 22606 net.cpp:86] Creating Layer conv4_2/3x3_dwconv/concat_conv4_2/3x3_dwconv/concat_fixed_point_0_split
I0906 17:47:27.950211 22606 net.cpp:408] conv4_2/3x3_dwconv/concat_conv4_2/3x3_dwconv/concat_fixed_point_0_split <- conv4_2/3x3_dwconv/concat
I0906 17:47:27.950214 22606 net.cpp:382] conv4_2/3x3_dwconv/concat_conv4_2/3x3_dwconv/concat_fixed_point_0_split -> conv4_2/3x3_dwconv/concat_conv4_2/3x3_dwconv/concat_fixed_point_0_split_0
I0906 17:47:27.950222 22606 net.cpp:382] conv4_2/3x3_dwconv/concat_conv4_2/3x3_dwconv/concat_fixed_point_0_split -> conv4_2/3x3_dwconv/concat_conv4_2/3x3_dwconv/concat_fixed_point_0_split_1
I0906 17:47:27.950268 22606 net.cpp:124] Setting up conv4_2/3x3_dwconv/concat_conv4_2/3x3_dwconv/concat_fixed_point_0_split
I0906 17:47:27.950273 22606 net.cpp:131] Top shape: 50 120 28 28 (4704000)
I0906 17:47:27.950278 22606 net.cpp:131] Top shape: 50 120 28 28 (4704000)
I0906 17:47:27.950280 22606 net.cpp:139] Memory required for data: 2407372200
I0906 17:47:27.950284 22606 layer_factory.hpp:77] Creating layer conv4_2/3x3_dwconv/SE_global_pool
I0906 17:47:27.950297 22606 net.cpp:86] Creating Layer conv4_2/3x3_dwconv/SE_global_pool
I0906 17:47:27.950304 22606 net.cpp:408] conv4_2/3x3_dwconv/SE_global_pool <- conv4_2/3x3_dwconv/concat_conv4_2/3x3_dwconv/concat_fixed_point_0_split_0
I0906 17:47:27.950312 22606 net.cpp:382] conv4_2/3x3_dwconv/SE_global_pool -> conv4_2/3x3_dwconv/SE_global_pool
I0906 17:47:27.950340 22606 net.cpp:124] Setting up conv4_2/3x3_dwconv/SE_global_pool
I0906 17:47:27.950345 22606 net.cpp:131] Top shape: 50 120 1 1 (6000)
I0906 17:47:27.950350 22606 net.cpp:139] Memory required for data: 2407396200
I0906 17:47:27.950358 22606 layer_factory.hpp:77] Creating layer conv4_2/3x3_dwconv/SE_fc1
I0906 17:47:27.950373 22606 net.cpp:86] Creating Layer conv4_2/3x3_dwconv/SE_fc1
I0906 17:47:27.950377 22606 net.cpp:408] conv4_2/3x3_dwconv/SE_fc1 <- conv4_2/3x3_dwconv/SE_global_pool
I0906 17:47:27.950390 22606 net.cpp:382] conv4_2/3x3_dwconv/SE_fc1 -> conv4_2/3x3_dwconv/SE_fc1
I0906 17:47:27.950826 22606 net.cpp:124] Setting up conv4_2/3x3_dwconv/SE_fc1
I0906 17:47:27.950839 22606 net.cpp:131] Top shape: 50 7 1 1 (350)
I0906 17:47:27.950843 22606 net.cpp:139] Memory required for data: 2407397600
I0906 17:47:27.950850 22606 layer_factory.hpp:77] Creating layer conv4_2/3x3_dwconv/SE_fc1/relu
I0906 17:47:27.950855 22606 net.cpp:86] Creating Layer conv4_2/3x3_dwconv/SE_fc1/relu
I0906 17:47:27.950860 22606 net.cpp:408] conv4_2/3x3_dwconv/SE_fc1/relu <- conv4_2/3x3_dwconv/SE_fc1
I0906 17:47:27.950867 22606 net.cpp:369] conv4_2/3x3_dwconv/SE_fc1/relu -> conv4_2/3x3_dwconv/SE_fc1 (in-place)
I0906 17:47:27.951531 22606 net.cpp:124] Setting up conv4_2/3x3_dwconv/SE_fc1/relu
I0906 17:47:27.951544 22606 net.cpp:131] Top shape: 50 7 1 1 (350)
I0906 17:47:27.951547 22606 net.cpp:139] Memory required for data: 2407399000
I0906 17:47:27.951551 22606 layer_factory.hpp:77] Creating layer conv4_2/3x3_dwconv/SE_fc2
I0906 17:47:27.951561 22606 net.cpp:86] Creating Layer conv4_2/3x3_dwconv/SE_fc2
I0906 17:47:27.951565 22606 net.cpp:408] conv4_2/3x3_dwconv/SE_fc2 <- conv4_2/3x3_dwconv/SE_fc1
I0906 17:47:27.951575 22606 net.cpp:382] conv4_2/3x3_dwconv/SE_fc2 -> conv4_2/3x3_dwconv/SE_fc2
I0906 17:47:27.952026 22606 net.cpp:124] Setting up conv4_2/3x3_dwconv/SE_fc2
I0906 17:47:27.952050 22606 net.cpp:131] Top shape: 50 120 1 1 (6000)
I0906 17:47:27.952054 22606 net.cpp:139] Memory required for data: 2407423000
I0906 17:47:27.952060 22606 layer_factory.hpp:77] Creating layer conv4_2/3x3_dwconv/SE_weights
I0906 17:47:27.952066 22606 net.cpp:86] Creating Layer conv4_2/3x3_dwconv/SE_weights
I0906 17:47:27.952071 22606 net.cpp:408] conv4_2/3x3_dwconv/SE_weights <- conv4_2/3x3_dwconv/SE_fc2
I0906 17:47:27.952076 22606 net.cpp:369] conv4_2/3x3_dwconv/SE_weights -> conv4_2/3x3_dwconv/SE_fc2 (in-place)
I0906 17:47:27.952742 22606 net.cpp:124] Setting up conv4_2/3x3_dwconv/SE_weights
I0906 17:47:27.952756 22606 net.cpp:131] Top shape: 50 120 1 1 (6000)
I0906 17:47:27.952760 22606 net.cpp:139] Memory required for data: 2407447000
I0906 17:47:27.952770 22606 layer_factory.hpp:77] Creating layer conv4_2/3x3_dwconv/SE_weights/reshape
I0906 17:47:27.952782 22606 net.cpp:86] Creating Layer conv4_2/3x3_dwconv/SE_weights/reshape
I0906 17:47:27.952787 22606 net.cpp:408] conv4_2/3x3_dwconv/SE_weights/reshape <- conv4_2/3x3_dwconv/SE_fc2
I0906 17:47:27.952793 22606 net.cpp:382] conv4_2/3x3_dwconv/SE_weights/reshape -> conv4_2/3x3_dwconv/SE_weights/reshape
I0906 17:47:27.952847 22606 net.cpp:124] Setting up conv4_2/3x3_dwconv/SE_weights/reshape
I0906 17:47:27.952855 22606 net.cpp:131] Top shape: 50 120 (6000)
I0906 17:47:27.952858 22606 net.cpp:139] Memory required for data: 2407471000
I0906 17:47:27.952862 22606 layer_factory.hpp:77] Creating layer conv4_2/3x3_dwconv/scale
I0906 17:47:27.952870 22606 net.cpp:86] Creating Layer conv4_2/3x3_dwconv/scale
I0906 17:47:27.952875 22606 net.cpp:408] conv4_2/3x3_dwconv/scale <- conv4_2/3x3_dwconv/concat_conv4_2/3x3_dwconv/concat_fixed_point_0_split_1
I0906 17:47:27.952880 22606 net.cpp:408] conv4_2/3x3_dwconv/scale <- conv4_2/3x3_dwconv/SE_weights/reshape
I0906 17:47:27.952885 22606 net.cpp:382] conv4_2/3x3_dwconv/scale -> conv4_2/3x3_dwconv/scale
I0906 17:47:27.952994 22606 net.cpp:124] Setting up conv4_2/3x3_dwconv/scale
I0906 17:47:27.953006 22606 net.cpp:131] Top shape: 50 120 28 28 (4704000)
I0906 17:47:27.953012 22606 net.cpp:139] Memory required for data: 2426287000
I0906 17:47:27.953016 22606 layer_factory.hpp:77] Creating layer conv4_2/3x3_dwconv/scale_fixed_point
I0906 17:47:27.953022 22606 net.cpp:86] Creating Layer conv4_2/3x3_dwconv/scale_fixed_point
I0906 17:47:27.953025 22606 net.cpp:408] conv4_2/3x3_dwconv/scale_fixed_point <- conv4_2/3x3_dwconv/scale
I0906 17:47:27.953030 22606 net.cpp:369] conv4_2/3x3_dwconv/scale_fixed_point -> conv4_2/3x3_dwconv/scale (in-place)
I0906 17:47:27.953063 22606 net.cpp:124] Setting up conv4_2/3x3_dwconv/scale_fixed_point
I0906 17:47:27.953068 22606 net.cpp:131] Top shape: 50 120 28 28 (4704000)
I0906 17:47:27.953071 22606 net.cpp:139] Memory required for data: 2445103000
I0906 17:47:27.953076 22606 layer_factory.hpp:77] Creating layer conv4_2/1x1_decrease
I0906 17:47:27.953101 22606 net.cpp:86] Creating Layer conv4_2/1x1_decrease
I0906 17:47:27.953105 22606 net.cpp:408] conv4_2/1x1_decrease <- conv4_2/3x3_dwconv/scale
I0906 17:47:27.953119 22606 net.cpp:382] conv4_2/1x1_decrease -> conv4_2/1x1_decrease/bn
I0906 17:47:27.953863 22606 net.cpp:124] Setting up conv4_2/1x1_decrease
I0906 17:47:27.953876 22606 net.cpp:131] Top shape: 50 40 28 28 (1568000)
I0906 17:47:27.953881 22606 net.cpp:139] Memory required for data: 2451375000
I0906 17:47:27.953888 22606 layer_factory.hpp:77] Creating layer conv4_2/elt_sum
I0906 17:47:27.953896 22606 net.cpp:86] Creating Layer conv4_2/elt_sum
I0906 17:47:27.953899 22606 net.cpp:408] conv4_2/elt_sum <- conv4_1/elt_sum_conv4_1/elt_sum_fixed_point_0_split_1
I0906 17:47:27.953904 22606 net.cpp:408] conv4_2/elt_sum <- conv4_2/1x1_decrease/bn
I0906 17:47:27.953912 22606 net.cpp:382] conv4_2/elt_sum -> conv4_2/elt_sum
I0906 17:47:27.953950 22606 net.cpp:124] Setting up conv4_2/elt_sum
I0906 17:47:27.953956 22606 net.cpp:131] Top shape: 50 40 28 28 (1568000)
I0906 17:47:27.953959 22606 net.cpp:139] Memory required for data: 2457647000
I0906 17:47:27.953974 22606 layer_factory.hpp:77] Creating layer conv4_2/elt_sum_fixed_point
I0906 17:47:27.953980 22606 net.cpp:86] Creating Layer conv4_2/elt_sum_fixed_point
I0906 17:47:27.953984 22606 net.cpp:408] conv4_2/elt_sum_fixed_point <- conv4_2/elt_sum
I0906 17:47:27.953991 22606 net.cpp:369] conv4_2/elt_sum_fixed_point -> conv4_2/elt_sum (in-place)
I0906 17:47:27.954031 22606 net.cpp:124] Setting up conv4_2/elt_sum_fixed_point
I0906 17:47:27.954041 22606 net.cpp:131] Top shape: 50 40 28 28 (1568000)
I0906 17:47:27.954043 22606 net.cpp:139] Memory required for data: 2463919000
I0906 17:47:27.954048 22606 layer_factory.hpp:77] Creating layer conv4_2/elt_sum_conv4_2/elt_sum_fixed_point_0_split
I0906 17:47:27.954054 22606 net.cpp:86] Creating Layer conv4_2/elt_sum_conv4_2/elt_sum_fixed_point_0_split
I0906 17:47:27.954057 22606 net.cpp:408] conv4_2/elt_sum_conv4_2/elt_sum_fixed_point_0_split <- conv4_2/elt_sum
I0906 17:47:27.954062 22606 net.cpp:382] conv4_2/elt_sum_conv4_2/elt_sum_fixed_point_0_split -> conv4_2/elt_sum_conv4_2/elt_sum_fixed_point_0_split_0
I0906 17:47:27.954069 22606 net.cpp:382] conv4_2/elt_sum_conv4_2/elt_sum_fixed_point_0_split -> conv4_2/elt_sum_conv4_2/elt_sum_fixed_point_0_split_1
I0906 17:47:27.954115 22606 net.cpp:124] Setting up conv4_2/elt_sum_conv4_2/elt_sum_fixed_point_0_split
I0906 17:47:27.954120 22606 net.cpp:131] Top shape: 50 40 28 28 (1568000)
I0906 17:47:27.954125 22606 net.cpp:131] Top shape: 50 40 28 28 (1568000)
I0906 17:47:27.954128 22606 net.cpp:139] Memory required for data: 2476463000
I0906 17:47:27.954141 22606 layer_factory.hpp:77] Creating layer conv4_3/1x1_increase
I0906 17:47:27.954151 22606 net.cpp:86] Creating Layer conv4_3/1x1_increase
I0906 17:47:27.954155 22606 net.cpp:408] conv4_3/1x1_increase <- conv4_2/elt_sum_conv4_2/elt_sum_fixed_point_0_split_0
I0906 17:47:27.954164 22606 net.cpp:382] conv4_3/1x1_increase -> conv4_3/1x1_increase/bn
I0906 17:47:27.955142 22606 net.cpp:124] Setting up conv4_3/1x1_increase
I0906 17:47:27.955157 22606 net.cpp:131] Top shape: 50 120 28 28 (4704000)
I0906 17:47:27.955161 22606 net.cpp:139] Memory required for data: 2495279000
I0906 17:47:27.955169 22606 layer_factory.hpp:77] Creating layer conv4_3/1x1_increase/relu
I0906 17:47:27.955175 22606 net.cpp:86] Creating Layer conv4_3/1x1_increase/relu
I0906 17:47:27.955180 22606 net.cpp:408] conv4_3/1x1_increase/relu <- conv4_3/1x1_increase/bn
I0906 17:47:27.955185 22606 net.cpp:369] conv4_3/1x1_increase/relu -> conv4_3/1x1_increase/bn (in-place)
I0906 17:47:27.956087 22606 net.cpp:124] Setting up conv4_3/1x1_increase/relu
I0906 17:47:27.956104 22606 net.cpp:131] Top shape: 50 120 28 28 (4704000)
I0906 17:47:27.956107 22606 net.cpp:139] Memory required for data: 2514095000
I0906 17:47:27.956111 22606 layer_factory.hpp:77] Creating layer conv4_3/1x1_increase/bn_fixed_point
I0906 17:47:27.956120 22606 net.cpp:86] Creating Layer conv4_3/1x1_increase/bn_fixed_point
I0906 17:47:27.956125 22606 net.cpp:408] conv4_3/1x1_increase/bn_fixed_point <- conv4_3/1x1_increase/bn
I0906 17:47:27.956132 22606 net.cpp:369] conv4_3/1x1_increase/bn_fixed_point -> conv4_3/1x1_increase/bn (in-place)
I0906 17:47:27.956171 22606 net.cpp:124] Setting up conv4_3/1x1_increase/bn_fixed_point
I0906 17:47:27.956177 22606 net.cpp:131] Top shape: 50 120 28 28 (4704000)
I0906 17:47:27.956180 22606 net.cpp:139] Memory required for data: 2532911000
I0906 17:47:27.956185 22606 layer_factory.hpp:77] Creating layer conv4_3/1x1_increase/slice
I0906 17:47:27.956205 22606 net.cpp:86] Creating Layer conv4_3/1x1_increase/slice
I0906 17:47:27.956209 22606 net.cpp:408] conv4_3/1x1_increase/slice <- conv4_3/1x1_increase/bn
I0906 17:47:27.956214 22606 net.cpp:382] conv4_3/1x1_increase/slice -> conv4_3/1x1_increase/split1
I0906 17:47:27.956223 22606 net.cpp:382] conv4_3/1x1_increase/slice -> conv4_3/1x1_increase/split2
I0906 17:47:27.956272 22606 net.cpp:124] Setting up conv4_3/1x1_increase/slice
I0906 17:47:27.956279 22606 net.cpp:131] Top shape: 50 60 28 28 (2352000)
I0906 17:47:27.956284 22606 net.cpp:131] Top shape: 50 60 28 28 (2352000)
I0906 17:47:27.956298 22606 net.cpp:139] Memory required for data: 2551727000
I0906 17:47:27.956310 22606 layer_factory.hpp:77] Creating layer conv4_3/3x3_dwconv/slice_0
I0906 17:47:27.956321 22606 net.cpp:86] Creating Layer conv4_3/3x3_dwconv/slice_0
I0906 17:47:27.956326 22606 net.cpp:408] conv4_3/3x3_dwconv/slice_0 <- conv4_3/1x1_increase/split1
I0906 17:47:27.956334 22606 net.cpp:382] conv4_3/3x3_dwconv/slice_0 -> conv4_3/3x3_dwconv/slice_0/bn
I0906 17:47:27.956954 22606 net.cpp:124] Setting up conv4_3/3x3_dwconv/slice_0
I0906 17:47:27.956969 22606 net.cpp:131] Top shape: 50 60 28 28 (2352000)
I0906 17:47:27.956974 22606 net.cpp:139] Memory required for data: 2561135000
I0906 17:47:27.956980 22606 layer_factory.hpp:77] Creating layer conv4_3/3x3_dwconv/slice_0/relu
I0906 17:47:27.956986 22606 net.cpp:86] Creating Layer conv4_3/3x3_dwconv/slice_0/relu
I0906 17:47:27.956990 22606 net.cpp:408] conv4_3/3x3_dwconv/slice_0/relu <- conv4_3/3x3_dwconv/slice_0/bn
I0906 17:47:27.956996 22606 net.cpp:369] conv4_3/3x3_dwconv/slice_0/relu -> conv4_3/3x3_dwconv/slice_0/bn (in-place)
I0906 17:47:27.957676 22606 net.cpp:124] Setting up conv4_3/3x3_dwconv/slice_0/relu
I0906 17:47:27.957690 22606 net.cpp:131] Top shape: 50 60 28 28 (2352000)
I0906 17:47:27.957693 22606 net.cpp:139] Memory required for data: 2570543000
I0906 17:47:27.957697 22606 layer_factory.hpp:77] Creating layer conv4_3/3x3_dwconv/slice_1
I0906 17:47:27.957720 22606 net.cpp:86] Creating Layer conv4_3/3x3_dwconv/slice_1
I0906 17:47:27.957725 22606 net.cpp:408] conv4_3/3x3_dwconv/slice_1 <- conv4_3/1x1_increase/split2
I0906 17:47:27.957733 22606 net.cpp:382] conv4_3/3x3_dwconv/slice_1 -> conv4_3/3x3_dwconv/slice_1/bn
I0906 17:47:27.958621 22606 net.cpp:124] Setting up conv4_3/3x3_dwconv/slice_1
I0906 17:47:27.958636 22606 net.cpp:131] Top shape: 50 60 28 28 (2352000)
I0906 17:47:27.958639 22606 net.cpp:139] Memory required for data: 2579951000
I0906 17:47:27.958647 22606 layer_factory.hpp:77] Creating layer conv4_3/3x3_dwconv/slice_1/relu
I0906 17:47:27.958654 22606 net.cpp:86] Creating Layer conv4_3/3x3_dwconv/slice_1/relu
I0906 17:47:27.958658 22606 net.cpp:408] conv4_3/3x3_dwconv/slice_1/relu <- conv4_3/3x3_dwconv/slice_1/bn
I0906 17:47:27.958667 22606 net.cpp:369] conv4_3/3x3_dwconv/slice_1/relu -> conv4_3/3x3_dwconv/slice_1/bn (in-place)
I0906 17:47:27.959444 22606 net.cpp:124] Setting up conv4_3/3x3_dwconv/slice_1/relu
I0906 17:47:27.959456 22606 net.cpp:131] Top shape: 50 60 28 28 (2352000)
I0906 17:47:27.959460 22606 net.cpp:139] Memory required for data: 2589359000
I0906 17:47:27.959487 22606 layer_factory.hpp:77] Creating layer conv4_3/3x3_dwconv/concat
I0906 17:47:27.959497 22606 net.cpp:86] Creating Layer conv4_3/3x3_dwconv/concat
I0906 17:47:27.959501 22606 net.cpp:408] conv4_3/3x3_dwconv/concat <- conv4_3/3x3_dwconv/slice_0/bn
I0906 17:47:27.959507 22606 net.cpp:408] conv4_3/3x3_dwconv/concat <- conv4_3/3x3_dwconv/slice_1/bn
I0906 17:47:27.959512 22606 net.cpp:382] conv4_3/3x3_dwconv/concat -> conv4_3/3x3_dwconv/concat
I0906 17:47:27.959555 22606 net.cpp:124] Setting up conv4_3/3x3_dwconv/concat
I0906 17:47:27.959563 22606 net.cpp:131] Top shape: 50 120 28 28 (4704000)
I0906 17:47:27.959566 22606 net.cpp:139] Memory required for data: 2608175000
I0906 17:47:27.959569 22606 layer_factory.hpp:77] Creating layer conv4_3/3x3_dwconv/concat_fixed_point
I0906 17:47:27.959585 22606 net.cpp:86] Creating Layer conv4_3/3x3_dwconv/concat_fixed_point
I0906 17:47:27.959590 22606 net.cpp:408] conv4_3/3x3_dwconv/concat_fixed_point <- conv4_3/3x3_dwconv/concat
I0906 17:47:27.959599 22606 net.cpp:369] conv4_3/3x3_dwconv/concat_fixed_point -> conv4_3/3x3_dwconv/concat (in-place)
I0906 17:47:27.959631 22606 net.cpp:124] Setting up conv4_3/3x3_dwconv/concat_fixed_point
I0906 17:47:27.959638 22606 net.cpp:131] Top shape: 50 120 28 28 (4704000)
I0906 17:47:27.959641 22606 net.cpp:139] Memory required for data: 2626991000
I0906 17:47:27.959646 22606 layer_factory.hpp:77] Creating layer conv4_3/3x3_dwconv/concat_conv4_3/3x3_dwconv/concat_fixed_point_0_split
I0906 17:47:27.959667 22606 net.cpp:86] Creating Layer conv4_3/3x3_dwconv/concat_conv4_3/3x3_dwconv/concat_fixed_point_0_split
I0906 17:47:27.959672 22606 net.cpp:408] conv4_3/3x3_dwconv/concat_conv4_3/3x3_dwconv/concat_fixed_point_0_split <- conv4_3/3x3_dwconv/concat
I0906 17:47:27.959677 22606 net.cpp:382] conv4_3/3x3_dwconv/concat_conv4_3/3x3_dwconv/concat_fixed_point_0_split -> conv4_3/3x3_dwconv/concat_conv4_3/3x3_dwconv/concat_fixed_point_0_split_0
I0906 17:47:27.959686 22606 net.cpp:382] conv4_3/3x3_dwconv/concat_conv4_3/3x3_dwconv/concat_fixed_point_0_split -> conv4_3/3x3_dwconv/concat_conv4_3/3x3_dwconv/concat_fixed_point_0_split_1
I0906 17:47:27.959734 22606 net.cpp:124] Setting up conv4_3/3x3_dwconv/concat_conv4_3/3x3_dwconv/concat_fixed_point_0_split
I0906 17:47:27.959743 22606 net.cpp:131] Top shape: 50 120 28 28 (4704000)
I0906 17:47:27.959746 22606 net.cpp:131] Top shape: 50 120 28 28 (4704000)
I0906 17:47:27.959749 22606 net.cpp:139] Memory required for data: 2664623000
I0906 17:47:27.959761 22606 layer_factory.hpp:77] Creating layer conv4_3/3x3_dwconv/SE_global_pool
I0906 17:47:27.959769 22606 net.cpp:86] Creating Layer conv4_3/3x3_dwconv/SE_global_pool
I0906 17:47:27.959772 22606 net.cpp:408] conv4_3/3x3_dwconv/SE_global_pool <- conv4_3/3x3_dwconv/concat_conv4_3/3x3_dwconv/concat_fixed_point_0_split_0
I0906 17:47:27.959779 22606 net.cpp:382] conv4_3/3x3_dwconv/SE_global_pool -> conv4_3/3x3_dwconv/SE_global_pool
I0906 17:47:27.959808 22606 net.cpp:124] Setting up conv4_3/3x3_dwconv/SE_global_pool
I0906 17:47:27.959815 22606 net.cpp:131] Top shape: 50 120 1 1 (6000)
I0906 17:47:27.959817 22606 net.cpp:139] Memory required for data: 2664647000
I0906 17:47:27.959820 22606 layer_factory.hpp:77] Creating layer conv4_3/3x3_dwconv/SE_fc1
I0906 17:47:27.959830 22606 net.cpp:86] Creating Layer conv4_3/3x3_dwconv/SE_fc1
I0906 17:47:27.959836 22606 net.cpp:408] conv4_3/3x3_dwconv/SE_fc1 <- conv4_3/3x3_dwconv/SE_global_pool
I0906 17:47:27.959841 22606 net.cpp:382] conv4_3/3x3_dwconv/SE_fc1 -> conv4_3/3x3_dwconv/SE_fc1
I0906 17:47:27.960289 22606 net.cpp:124] Setting up conv4_3/3x3_dwconv/SE_fc1
I0906 17:47:27.960301 22606 net.cpp:131] Top shape: 50 7 1 1 (350)
I0906 17:47:27.960304 22606 net.cpp:139] Memory required for data: 2664648400
I0906 17:47:27.960310 22606 layer_factory.hpp:77] Creating layer conv4_3/3x3_dwconv/SE_fc1/relu
I0906 17:47:27.960338 22606 net.cpp:86] Creating Layer conv4_3/3x3_dwconv/SE_fc1/relu
I0906 17:47:27.960343 22606 net.cpp:408] conv4_3/3x3_dwconv/SE_fc1/relu <- conv4_3/3x3_dwconv/SE_fc1
I0906 17:47:27.960351 22606 net.cpp:369] conv4_3/3x3_dwconv/SE_fc1/relu -> conv4_3/3x3_dwconv/SE_fc1 (in-place)
I0906 17:47:27.961277 22606 net.cpp:124] Setting up conv4_3/3x3_dwconv/SE_fc1/relu
I0906 17:47:27.961298 22606 net.cpp:131] Top shape: 50 7 1 1 (350)
I0906 17:47:27.961303 22606 net.cpp:139] Memory required for data: 2664649800
I0906 17:47:27.961308 22606 layer_factory.hpp:77] Creating layer conv4_3/3x3_dwconv/SE_fc2
I0906 17:47:27.961318 22606 net.cpp:86] Creating Layer conv4_3/3x3_dwconv/SE_fc2
I0906 17:47:27.961323 22606 net.cpp:408] conv4_3/3x3_dwconv/SE_fc2 <- conv4_3/3x3_dwconv/SE_fc1
I0906 17:47:27.961333 22606 net.cpp:382] conv4_3/3x3_dwconv/SE_fc2 -> conv4_3/3x3_dwconv/SE_fc2
I0906 17:47:27.961793 22606 net.cpp:124] Setting up conv4_3/3x3_dwconv/SE_fc2
I0906 17:47:27.961805 22606 net.cpp:131] Top shape: 50 120 1 1 (6000)
I0906 17:47:27.961809 22606 net.cpp:139] Memory required for data: 2664673800
I0906 17:47:27.961827 22606 layer_factory.hpp:77] Creating layer conv4_3/3x3_dwconv/SE_weights
I0906 17:47:27.961833 22606 net.cpp:86] Creating Layer conv4_3/3x3_dwconv/SE_weights
I0906 17:47:27.961838 22606 net.cpp:408] conv4_3/3x3_dwconv/SE_weights <- conv4_3/3x3_dwconv/SE_fc2
I0906 17:47:27.961843 22606 net.cpp:369] conv4_3/3x3_dwconv/SE_weights -> conv4_3/3x3_dwconv/SE_fc2 (in-place)
I0906 17:47:27.962559 22606 net.cpp:124] Setting up conv4_3/3x3_dwconv/SE_weights
I0906 17:47:27.962572 22606 net.cpp:131] Top shape: 50 120 1 1 (6000)
I0906 17:47:27.962576 22606 net.cpp:139] Memory required for data: 2664697800
I0906 17:47:27.962591 22606 layer_factory.hpp:77] Creating layer conv4_3/3x3_dwconv/SE_weights/reshape
I0906 17:47:27.962610 22606 net.cpp:86] Creating Layer conv4_3/3x3_dwconv/SE_weights/reshape
I0906 17:47:27.962615 22606 net.cpp:408] conv4_3/3x3_dwconv/SE_weights/reshape <- conv4_3/3x3_dwconv/SE_fc2
I0906 17:47:27.962621 22606 net.cpp:382] conv4_3/3x3_dwconv/SE_weights/reshape -> conv4_3/3x3_dwconv/SE_weights/reshape
I0906 17:47:27.962667 22606 net.cpp:124] Setting up conv4_3/3x3_dwconv/SE_weights/reshape
I0906 17:47:27.962673 22606 net.cpp:131] Top shape: 50 120 (6000)
I0906 17:47:27.962677 22606 net.cpp:139] Memory required for data: 2664721800
I0906 17:47:27.962680 22606 layer_factory.hpp:77] Creating layer conv4_3/3x3_dwconv/scale
I0906 17:47:27.962687 22606 net.cpp:86] Creating Layer conv4_3/3x3_dwconv/scale
I0906 17:47:27.962690 22606 net.cpp:408] conv4_3/3x3_dwconv/scale <- conv4_3/3x3_dwconv/concat_conv4_3/3x3_dwconv/concat_fixed_point_0_split_1
I0906 17:47:27.962697 22606 net.cpp:408] conv4_3/3x3_dwconv/scale <- conv4_3/3x3_dwconv/SE_weights/reshape
I0906 17:47:27.962703 22606 net.cpp:382] conv4_3/3x3_dwconv/scale -> conv4_3/3x3_dwconv/scale
I0906 17:47:27.962801 22606 net.cpp:124] Setting up conv4_3/3x3_dwconv/scale
I0906 17:47:27.962808 22606 net.cpp:131] Top shape: 50 120 28 28 (4704000)
I0906 17:47:27.962812 22606 net.cpp:139] Memory required for data: 2683537800
I0906 17:47:27.962823 22606 layer_factory.hpp:77] Creating layer conv4_3/3x3_dwconv/scale_fixed_point
I0906 17:47:27.962831 22606 net.cpp:86] Creating Layer conv4_3/3x3_dwconv/scale_fixed_point
I0906 17:47:27.962836 22606 net.cpp:408] conv4_3/3x3_dwconv/scale_fixed_point <- conv4_3/3x3_dwconv/scale
I0906 17:47:27.962841 22606 net.cpp:369] conv4_3/3x3_dwconv/scale_fixed_point -> conv4_3/3x3_dwconv/scale (in-place)
I0906 17:47:27.962872 22606 net.cpp:124] Setting up conv4_3/3x3_dwconv/scale_fixed_point
I0906 17:47:27.962878 22606 net.cpp:131] Top shape: 50 120 28 28 (4704000)
I0906 17:47:27.962882 22606 net.cpp:139] Memory required for data: 2702353800
I0906 17:47:27.962888 22606 layer_factory.hpp:77] Creating layer conv4_3/1x1_decrease
I0906 17:47:27.962904 22606 net.cpp:86] Creating Layer conv4_3/1x1_decrease
I0906 17:47:27.962908 22606 net.cpp:408] conv4_3/1x1_decrease <- conv4_3/3x3_dwconv/scale
I0906 17:47:27.962925 22606 net.cpp:382] conv4_3/1x1_decrease -> conv4_3/1x1_decrease/bn
I0906 17:47:27.963634 22606 net.cpp:124] Setting up conv4_3/1x1_decrease
I0906 17:47:27.963647 22606 net.cpp:131] Top shape: 50 40 28 28 (1568000)
I0906 17:47:27.963651 22606 net.cpp:139] Memory required for data: 2708625800
I0906 17:47:27.963659 22606 layer_factory.hpp:77] Creating layer conv4_3/elt_sum
I0906 17:47:27.963665 22606 net.cpp:86] Creating Layer conv4_3/elt_sum
I0906 17:47:27.963670 22606 net.cpp:408] conv4_3/elt_sum <- conv4_2/elt_sum_conv4_2/elt_sum_fixed_point_0_split_1
I0906 17:47:27.963675 22606 net.cpp:408] conv4_3/elt_sum <- conv4_3/1x1_decrease/bn
I0906 17:47:27.963683 22606 net.cpp:382] conv4_3/elt_sum -> conv4_3/elt_sum
I0906 17:47:27.963719 22606 net.cpp:124] Setting up conv4_3/elt_sum
I0906 17:47:27.963726 22606 net.cpp:131] Top shape: 50 40 28 28 (1568000)
I0906 17:47:27.963728 22606 net.cpp:139] Memory required for data: 2714897800
I0906 17:47:27.963732 22606 layer_factory.hpp:77] Creating layer conv4_3/elt_sum_fixed_point
I0906 17:47:27.963749 22606 net.cpp:86] Creating Layer conv4_3/elt_sum_fixed_point
I0906 17:47:27.963754 22606 net.cpp:408] conv4_3/elt_sum_fixed_point <- conv4_3/elt_sum
I0906 17:47:27.963762 22606 net.cpp:369] conv4_3/elt_sum_fixed_point -> conv4_3/elt_sum (in-place)
I0906 17:47:27.963798 22606 net.cpp:124] Setting up conv4_3/elt_sum_fixed_point
I0906 17:47:27.963804 22606 net.cpp:131] Top shape: 50 40 28 28 (1568000)
I0906 17:47:27.963807 22606 net.cpp:139] Memory required for data: 2721169800
I0906 17:47:27.963811 22606 layer_factory.hpp:77] Creating layer conv5_0/1x1_increase
I0906 17:47:27.963831 22606 net.cpp:86] Creating Layer conv5_0/1x1_increase
I0906 17:47:27.963835 22606 net.cpp:408] conv5_0/1x1_increase <- conv4_3/elt_sum
I0906 17:47:27.963853 22606 net.cpp:382] conv5_0/1x1_increase -> conv5_0/1x1_increase/bn
I0906 17:47:27.964767 22606 net.cpp:124] Setting up conv5_0/1x1_increase
I0906 17:47:27.964781 22606 net.cpp:131] Top shape: 50 240 28 28 (9408000)
I0906 17:47:27.964784 22606 net.cpp:139] Memory required for data: 2758801800
I0906 17:47:27.964792 22606 layer_factory.hpp:77] Creating layer conv5_0/1x1_increase/relu
I0906 17:47:27.964797 22606 net.cpp:86] Creating Layer conv5_0/1x1_increase/relu
I0906 17:47:27.964802 22606 net.cpp:408] conv5_0/1x1_increase/relu <- conv5_0/1x1_increase/bn
I0906 17:47:27.964809 22606 net.cpp:369] conv5_0/1x1_increase/relu -> conv5_0/1x1_increase/bn (in-place)
I0906 17:47:27.965706 22606 net.cpp:124] Setting up conv5_0/1x1_increase/relu
I0906 17:47:27.965721 22606 net.cpp:131] Top shape: 50 240 28 28 (9408000)
I0906 17:47:27.965725 22606 net.cpp:139] Memory required for data: 2796433800
I0906 17:47:27.965729 22606 layer_factory.hpp:77] Creating layer conv5_0/1x1_increase/bn_fixed_point
I0906 17:47:27.965739 22606 net.cpp:86] Creating Layer conv5_0/1x1_increase/bn_fixed_point
I0906 17:47:27.965742 22606 net.cpp:408] conv5_0/1x1_increase/bn_fixed_point <- conv5_0/1x1_increase/bn
I0906 17:47:27.965749 22606 net.cpp:369] conv5_0/1x1_increase/bn_fixed_point -> conv5_0/1x1_increase/bn (in-place)
I0906 17:47:27.965790 22606 net.cpp:124] Setting up conv5_0/1x1_increase/bn_fixed_point
I0906 17:47:27.965795 22606 net.cpp:131] Top shape: 50 240 28 28 (9408000)
I0906 17:47:27.965798 22606 net.cpp:139] Memory required for data: 2834065800
I0906 17:47:27.965803 22606 layer_factory.hpp:77] Creating layer conv5_0/1x1_increase/slice
I0906 17:47:27.965819 22606 net.cpp:86] Creating Layer conv5_0/1x1_increase/slice
I0906 17:47:27.965823 22606 net.cpp:408] conv5_0/1x1_increase/slice <- conv5_0/1x1_increase/bn
I0906 17:47:27.965832 22606 net.cpp:382] conv5_0/1x1_increase/slice -> conv5_0/1x1_increase/split1
I0906 17:47:27.965840 22606 net.cpp:382] conv5_0/1x1_increase/slice -> conv5_0/1x1_increase/split2
I0906 17:47:27.965847 22606 net.cpp:382] conv5_0/1x1_increase/slice -> conv5_0/1x1_increase/split3
I0906 17:47:27.965915 22606 net.cpp:124] Setting up conv5_0/1x1_increase/slice
I0906 17:47:27.965921 22606 net.cpp:131] Top shape: 50 80 28 28 (3136000)
I0906 17:47:27.965926 22606 net.cpp:131] Top shape: 50 80 28 28 (3136000)
I0906 17:47:27.965929 22606 net.cpp:131] Top shape: 50 80 28 28 (3136000)
I0906 17:47:27.965932 22606 net.cpp:139] Memory required for data: 2871697800
I0906 17:47:27.965943 22606 layer_factory.hpp:77] Creating layer conv5_0/3x3_dwconv/slice_0
I0906 17:47:27.965955 22606 net.cpp:86] Creating Layer conv5_0/3x3_dwconv/slice_0
I0906 17:47:27.965958 22606 net.cpp:408] conv5_0/3x3_dwconv/slice_0 <- conv5_0/1x1_increase/split1
I0906 17:47:27.965967 22606 net.cpp:382] conv5_0/3x3_dwconv/slice_0 -> conv5_0/3x3_dwconv/slice_0/bn
I0906 17:47:27.966578 22606 net.cpp:124] Setting up conv5_0/3x3_dwconv/slice_0
I0906 17:47:27.966593 22606 net.cpp:131] Top shape: 50 80 14 14 (784000)
I0906 17:47:27.966595 22606 net.cpp:139] Memory required for data: 2874833800
I0906 17:47:27.966603 22606 layer_factory.hpp:77] Creating layer conv5_0/3x3_dwconv/slice_0/relu
I0906 17:47:27.966609 22606 net.cpp:86] Creating Layer conv5_0/3x3_dwconv/slice_0/relu
I0906 17:47:27.966614 22606 net.cpp:408] conv5_0/3x3_dwconv/slice_0/relu <- conv5_0/3x3_dwconv/slice_0/bn
I0906 17:47:27.966619 22606 net.cpp:369] conv5_0/3x3_dwconv/slice_0/relu -> conv5_0/3x3_dwconv/slice_0/bn (in-place)
I0906 17:47:27.967257 22606 net.cpp:124] Setting up conv5_0/3x3_dwconv/slice_0/relu
I0906 17:47:27.967272 22606 net.cpp:131] Top shape: 50 80 14 14 (784000)
I0906 17:47:27.967278 22606 net.cpp:139] Memory required for data: 2877969800
I0906 17:47:27.967281 22606 layer_factory.hpp:77] Creating layer conv5_0/3x3_dwconv/slice_1
I0906 17:47:27.967299 22606 net.cpp:86] Creating Layer conv5_0/3x3_dwconv/slice_1
I0906 17:47:27.967304 22606 net.cpp:408] conv5_0/3x3_dwconv/slice_1 <- conv5_0/1x1_increase/split2
I0906 17:47:27.967314 22606 net.cpp:382] conv5_0/3x3_dwconv/slice_1 -> conv5_0/3x3_dwconv/slice_1/bn
I0906 17:47:27.967998 22606 net.cpp:124] Setting up conv5_0/3x3_dwconv/slice_1
I0906 17:47:27.968017 22606 net.cpp:131] Top shape: 50 80 14 14 (784000)
I0906 17:47:27.968021 22606 net.cpp:139] Memory required for data: 2881105800
I0906 17:47:27.968029 22606 layer_factory.hpp:77] Creating layer conv5_0/3x3_dwconv/slice_1/relu
I0906 17:47:27.968055 22606 net.cpp:86] Creating Layer conv5_0/3x3_dwconv/slice_1/relu
I0906 17:47:27.968060 22606 net.cpp:408] conv5_0/3x3_dwconv/slice_1/relu <- conv5_0/3x3_dwconv/slice_1/bn
I0906 17:47:27.968066 22606 net.cpp:369] conv5_0/3x3_dwconv/slice_1/relu -> conv5_0/3x3_dwconv/slice_1/bn (in-place)
I0906 17:47:27.968973 22606 net.cpp:124] Setting up conv5_0/3x3_dwconv/slice_1/relu
I0906 17:47:27.968988 22606 net.cpp:131] Top shape: 50 80 14 14 (784000)
I0906 17:47:27.968992 22606 net.cpp:139] Memory required for data: 2884241800
I0906 17:47:27.968997 22606 layer_factory.hpp:77] Creating layer conv5_0/3x3_dwconv/slice_2
I0906 17:47:27.969028 22606 net.cpp:86] Creating Layer conv5_0/3x3_dwconv/slice_2
I0906 17:47:27.969034 22606 net.cpp:408] conv5_0/3x3_dwconv/slice_2 <- conv5_0/1x1_increase/split3
I0906 17:47:27.969044 22606 net.cpp:382] conv5_0/3x3_dwconv/slice_2 -> conv5_0/3x3_dwconv/slice_2/bn
I0906 17:47:27.970187 22606 net.cpp:124] Setting up conv5_0/3x3_dwconv/slice_2
I0906 17:47:27.970202 22606 net.cpp:131] Top shape: 50 80 14 14 (784000)
I0906 17:47:27.970206 22606 net.cpp:139] Memory required for data: 2887377800
I0906 17:47:27.970214 22606 layer_factory.hpp:77] Creating layer conv5_0/3x3_dwconv/slice_2/relu
I0906 17:47:27.970230 22606 net.cpp:86] Creating Layer conv5_0/3x3_dwconv/slice_2/relu
I0906 17:47:27.970235 22606 net.cpp:408] conv5_0/3x3_dwconv/slice_2/relu <- conv5_0/3x3_dwconv/slice_2/bn
I0906 17:47:27.970242 22606 net.cpp:369] conv5_0/3x3_dwconv/slice_2/relu -> conv5_0/3x3_dwconv/slice_2/bn (in-place)
I0906 17:47:27.970876 22606 net.cpp:124] Setting up conv5_0/3x3_dwconv/slice_2/relu
I0906 17:47:27.970888 22606 net.cpp:131] Top shape: 50 80 14 14 (784000)
I0906 17:47:27.970892 22606 net.cpp:139] Memory required for data: 2890513800
I0906 17:47:27.970896 22606 layer_factory.hpp:77] Creating layer conv5_0/3x3_dwconv/concat
I0906 17:47:27.970901 22606 net.cpp:86] Creating Layer conv5_0/3x3_dwconv/concat
I0906 17:47:27.970906 22606 net.cpp:408] conv5_0/3x3_dwconv/concat <- conv5_0/3x3_dwconv/slice_0/bn
I0906 17:47:27.970911 22606 net.cpp:408] conv5_0/3x3_dwconv/concat <- conv5_0/3x3_dwconv/slice_1/bn
I0906 17:47:27.970916 22606 net.cpp:408] conv5_0/3x3_dwconv/concat <- conv5_0/3x3_dwconv/slice_2/bn
I0906 17:47:27.970921 22606 net.cpp:382] conv5_0/3x3_dwconv/concat -> conv5_0/3x3_dwconv/concat
I0906 17:47:27.970962 22606 net.cpp:124] Setting up conv5_0/3x3_dwconv/concat
I0906 17:47:27.970969 22606 net.cpp:131] Top shape: 50 240 14 14 (2352000)
I0906 17:47:27.970973 22606 net.cpp:139] Memory required for data: 2899921800
I0906 17:47:27.970976 22606 layer_factory.hpp:77] Creating layer conv5_0/3x3_dwconv/concat_fixed_point
I0906 17:47:27.970990 22606 net.cpp:86] Creating Layer conv5_0/3x3_dwconv/concat_fixed_point
I0906 17:47:27.970994 22606 net.cpp:408] conv5_0/3x3_dwconv/concat_fixed_point <- conv5_0/3x3_dwconv/concat
I0906 17:47:27.970999 22606 net.cpp:369] conv5_0/3x3_dwconv/concat_fixed_point -> conv5_0/3x3_dwconv/concat (in-place)
I0906 17:47:27.971051 22606 net.cpp:124] Setting up conv5_0/3x3_dwconv/concat_fixed_point
I0906 17:47:27.971058 22606 net.cpp:131] Top shape: 50 240 14 14 (2352000)
I0906 17:47:27.971062 22606 net.cpp:139] Memory required for data: 2909329800
I0906 17:47:27.971067 22606 layer_factory.hpp:77] Creating layer conv5_0/3x3_dwconv/concat_conv5_0/3x3_dwconv/concat_fixed_point_0_split
I0906 17:47:27.971076 22606 net.cpp:86] Creating Layer conv5_0/3x3_dwconv/concat_conv5_0/3x3_dwconv/concat_fixed_point_0_split
I0906 17:47:27.971079 22606 net.cpp:408] conv5_0/3x3_dwconv/concat_conv5_0/3x3_dwconv/concat_fixed_point_0_split <- conv5_0/3x3_dwconv/concat
I0906 17:47:27.971084 22606 net.cpp:382] conv5_0/3x3_dwconv/concat_conv5_0/3x3_dwconv/concat_fixed_point_0_split -> conv5_0/3x3_dwconv/concat_conv5_0/3x3_dwconv/concat_fixed_point_0_split_0
I0906 17:47:27.971104 22606 net.cpp:382] conv5_0/3x3_dwconv/concat_conv5_0/3x3_dwconv/concat_fixed_point_0_split -> conv5_0/3x3_dwconv/concat_conv5_0/3x3_dwconv/concat_fixed_point_0_split_1
I0906 17:47:27.971156 22606 net.cpp:124] Setting up conv5_0/3x3_dwconv/concat_conv5_0/3x3_dwconv/concat_fixed_point_0_split
I0906 17:47:27.971163 22606 net.cpp:131] Top shape: 50 240 14 14 (2352000)
I0906 17:47:27.971166 22606 net.cpp:131] Top shape: 50 240 14 14 (2352000)
I0906 17:47:27.971169 22606 net.cpp:139] Memory required for data: 2928145800
I0906 17:47:27.971173 22606 layer_factory.hpp:77] Creating layer conv5_0/3x3_dwconv/SE_global_pool
I0906 17:47:27.971186 22606 net.cpp:86] Creating Layer conv5_0/3x3_dwconv/SE_global_pool
I0906 17:47:27.971190 22606 net.cpp:408] conv5_0/3x3_dwconv/SE_global_pool <- conv5_0/3x3_dwconv/concat_conv5_0/3x3_dwconv/concat_fixed_point_0_split_0
I0906 17:47:27.971197 22606 net.cpp:382] conv5_0/3x3_dwconv/SE_global_pool -> conv5_0/3x3_dwconv/SE_global_pool
I0906 17:47:27.971226 22606 net.cpp:124] Setting up conv5_0/3x3_dwconv/SE_global_pool
I0906 17:47:27.971235 22606 net.cpp:131] Top shape: 50 240 1 1 (12000)
I0906 17:47:27.971237 22606 net.cpp:139] Memory required for data: 2928193800
I0906 17:47:27.971240 22606 layer_factory.hpp:77] Creating layer conv5_0/3x3_dwconv/SE_fc1
I0906 17:47:27.971249 22606 net.cpp:86] Creating Layer conv5_0/3x3_dwconv/SE_fc1
I0906 17:47:27.971253 22606 net.cpp:408] conv5_0/3x3_dwconv/SE_fc1 <- conv5_0/3x3_dwconv/SE_global_pool
I0906 17:47:27.971261 22606 net.cpp:382] conv5_0/3x3_dwconv/SE_fc1 -> conv5_0/3x3_dwconv/SE_fc1
I0906 17:47:27.971776 22606 net.cpp:124] Setting up conv5_0/3x3_dwconv/SE_fc1
I0906 17:47:27.971788 22606 net.cpp:131] Top shape: 50 15 1 1 (750)
I0906 17:47:27.971791 22606 net.cpp:139] Memory required for data: 2928196800
I0906 17:47:27.971808 22606 layer_factory.hpp:77] Creating layer conv5_0/3x3_dwconv/SE_fc1/relu
I0906 17:47:27.971815 22606 net.cpp:86] Creating Layer conv5_0/3x3_dwconv/SE_fc1/relu
I0906 17:47:27.971819 22606 net.cpp:408] conv5_0/3x3_dwconv/SE_fc1/relu <- conv5_0/3x3_dwconv/SE_fc1
I0906 17:47:27.971827 22606 net.cpp:369] conv5_0/3x3_dwconv/SE_fc1/relu -> conv5_0/3x3_dwconv/SE_fc1 (in-place)
I0906 17:47:27.972457 22606 net.cpp:124] Setting up conv5_0/3x3_dwconv/SE_fc1/relu
I0906 17:47:27.972470 22606 net.cpp:131] Top shape: 50 15 1 1 (750)
I0906 17:47:27.972473 22606 net.cpp:139] Memory required for data: 2928199800
I0906 17:47:27.972477 22606 layer_factory.hpp:77] Creating layer conv5_0/3x3_dwconv/SE_fc2
I0906 17:47:27.972496 22606 net.cpp:86] Creating Layer conv5_0/3x3_dwconv/SE_fc2
I0906 17:47:27.972501 22606 net.cpp:408] conv5_0/3x3_dwconv/SE_fc2 <- conv5_0/3x3_dwconv/SE_fc1
I0906 17:47:27.972509 22606 net.cpp:382] conv5_0/3x3_dwconv/SE_fc2 -> conv5_0/3x3_dwconv/SE_fc2
I0906 17:47:27.973045 22606 net.cpp:124] Setting up conv5_0/3x3_dwconv/SE_fc2
I0906 17:47:27.973058 22606 net.cpp:131] Top shape: 50 240 1 1 (12000)
I0906 17:47:27.973062 22606 net.cpp:139] Memory required for data: 2928247800
I0906 17:47:27.973068 22606 layer_factory.hpp:77] Creating layer conv5_0/3x3_dwconv/SE_weights
I0906 17:47:27.973074 22606 net.cpp:86] Creating Layer conv5_0/3x3_dwconv/SE_weights
I0906 17:47:27.973078 22606 net.cpp:408] conv5_0/3x3_dwconv/SE_weights <- conv5_0/3x3_dwconv/SE_fc2
I0906 17:47:27.973084 22606 net.cpp:369] conv5_0/3x3_dwconv/SE_weights -> conv5_0/3x3_dwconv/SE_fc2 (in-place)
I0906 17:47:27.974000 22606 net.cpp:124] Setting up conv5_0/3x3_dwconv/SE_weights
I0906 17:47:27.974020 22606 net.cpp:131] Top shape: 50 240 1 1 (12000)
I0906 17:47:27.974025 22606 net.cpp:139] Memory required for data: 2928295800
I0906 17:47:27.974040 22606 layer_factory.hpp:77] Creating layer conv5_0/3x3_dwconv/SE_weights/reshape
I0906 17:47:27.974056 22606 net.cpp:86] Creating Layer conv5_0/3x3_dwconv/SE_weights/reshape
I0906 17:47:27.974061 22606 net.cpp:408] conv5_0/3x3_dwconv/SE_weights/reshape <- conv5_0/3x3_dwconv/SE_fc2
I0906 17:47:27.974088 22606 net.cpp:382] conv5_0/3x3_dwconv/SE_weights/reshape -> conv5_0/3x3_dwconv/SE_weights/reshape
I0906 17:47:27.974130 22606 net.cpp:124] Setting up conv5_0/3x3_dwconv/SE_weights/reshape
I0906 17:47:27.974138 22606 net.cpp:131] Top shape: 50 240 (12000)
I0906 17:47:27.974140 22606 net.cpp:139] Memory required for data: 2928343800
I0906 17:47:27.974143 22606 layer_factory.hpp:77] Creating layer conv5_0/3x3_dwconv/scale
I0906 17:47:27.974153 22606 net.cpp:86] Creating Layer conv5_0/3x3_dwconv/scale
I0906 17:47:27.974156 22606 net.cpp:408] conv5_0/3x3_dwconv/scale <- conv5_0/3x3_dwconv/concat_conv5_0/3x3_dwconv/concat_fixed_point_0_split_1
I0906 17:47:27.974161 22606 net.cpp:408] conv5_0/3x3_dwconv/scale <- conv5_0/3x3_dwconv/SE_weights/reshape
I0906 17:47:27.974166 22606 net.cpp:382] conv5_0/3x3_dwconv/scale -> conv5_0/3x3_dwconv/scale
I0906 17:47:27.974261 22606 net.cpp:124] Setting up conv5_0/3x3_dwconv/scale
I0906 17:47:27.974267 22606 net.cpp:131] Top shape: 50 240 14 14 (2352000)
I0906 17:47:27.974270 22606 net.cpp:139] Memory required for data: 2937751800
I0906 17:47:27.974273 22606 layer_factory.hpp:77] Creating layer conv5_0/3x3_dwconv/scale_fixed_point
I0906 17:47:27.974282 22606 net.cpp:86] Creating Layer conv5_0/3x3_dwconv/scale_fixed_point
I0906 17:47:27.974285 22606 net.cpp:408] conv5_0/3x3_dwconv/scale_fixed_point <- conv5_0/3x3_dwconv/scale
I0906 17:47:27.974292 22606 net.cpp:369] conv5_0/3x3_dwconv/scale_fixed_point -> conv5_0/3x3_dwconv/scale (in-place)
I0906 17:47:27.974321 22606 net.cpp:124] Setting up conv5_0/3x3_dwconv/scale_fixed_point
I0906 17:47:27.974326 22606 net.cpp:131] Top shape: 50 240 14 14 (2352000)
I0906 17:47:27.974330 22606 net.cpp:139] Memory required for data: 2947159800
I0906 17:47:27.974335 22606 layer_factory.hpp:77] Creating layer conv5_0/1x1_decrease
I0906 17:47:27.974357 22606 net.cpp:86] Creating Layer conv5_0/1x1_decrease
I0906 17:47:27.974362 22606 net.cpp:408] conv5_0/1x1_decrease <- conv5_0/3x3_dwconv/scale
I0906 17:47:27.974368 22606 net.cpp:382] conv5_0/1x1_decrease -> conv5_0/1x1_decrease/bn
I0906 17:47:27.976915 22606 net.cpp:124] Setting up conv5_0/1x1_decrease
I0906 17:47:27.976931 22606 net.cpp:131] Top shape: 50 80 14 14 (784000)
I0906 17:47:27.976935 22606 net.cpp:139] Memory required for data: 2950295800
I0906 17:47:27.976954 22606 layer_factory.hpp:77] Creating layer conv5_0/1x1_decrease/bn_fixed_point
I0906 17:47:27.976974 22606 net.cpp:86] Creating Layer conv5_0/1x1_decrease/bn_fixed_point
I0906 17:47:27.976979 22606 net.cpp:408] conv5_0/1x1_decrease/bn_fixed_point <- conv5_0/1x1_decrease/bn
I0906 17:47:27.976984 22606 net.cpp:369] conv5_0/1x1_decrease/bn_fixed_point -> conv5_0/1x1_decrease/bn (in-place)
I0906 17:47:27.977031 22606 net.cpp:124] Setting up conv5_0/1x1_decrease/bn_fixed_point
I0906 17:47:27.977037 22606 net.cpp:131] Top shape: 50 80 14 14 (784000)
I0906 17:47:27.977041 22606 net.cpp:139] Memory required for data: 2953431800
I0906 17:47:27.977046 22606 layer_factory.hpp:77] Creating layer conv5_0/1x1_decrease/bn_conv5_0/1x1_decrease/bn_fixed_point_0_split
I0906 17:47:27.977051 22606 net.cpp:86] Creating Layer conv5_0/1x1_decrease/bn_conv5_0/1x1_decrease/bn_fixed_point_0_split
I0906 17:47:27.977057 22606 net.cpp:408] conv5_0/1x1_decrease/bn_conv5_0/1x1_decrease/bn_fixed_point_0_split <- conv5_0/1x1_decrease/bn
I0906 17:47:27.977063 22606 net.cpp:382] conv5_0/1x1_decrease/bn_conv5_0/1x1_decrease/bn_fixed_point_0_split -> conv5_0/1x1_decrease/bn_conv5_0/1x1_decrease/bn_fixed_point_0_split_0
I0906 17:47:27.977071 22606 net.cpp:382] conv5_0/1x1_decrease/bn_conv5_0/1x1_decrease/bn_fixed_point_0_split -> conv5_0/1x1_decrease/bn_conv5_0/1x1_decrease/bn_fixed_point_0_split_1
I0906 17:47:27.977120 22606 net.cpp:124] Setting up conv5_0/1x1_decrease/bn_conv5_0/1x1_decrease/bn_fixed_point_0_split
I0906 17:47:27.977125 22606 net.cpp:131] Top shape: 50 80 14 14 (784000)
I0906 17:47:27.977130 22606 net.cpp:131] Top shape: 50 80 14 14 (784000)
I0906 17:47:27.977133 22606 net.cpp:139] Memory required for data: 2959703800
I0906 17:47:27.977149 22606 layer_factory.hpp:77] Creating layer conv5_1/1x1_increase
I0906 17:47:27.977160 22606 net.cpp:86] Creating Layer conv5_1/1x1_increase
I0906 17:47:27.977164 22606 net.cpp:408] conv5_1/1x1_increase <- conv5_0/1x1_decrease/bn_conv5_0/1x1_decrease/bn_fixed_point_0_split_0
I0906 17:47:27.977174 22606 net.cpp:382] conv5_1/1x1_increase -> conv5_1/1x1_increase/bn
I0906 17:47:27.980336 22606 net.cpp:124] Setting up conv5_1/1x1_increase
I0906 17:47:27.980351 22606 net.cpp:131] Top shape: 50 240 14 14 (2352000)
I0906 17:47:27.980355 22606 net.cpp:139] Memory required for data: 2969111800
I0906 17:47:27.980362 22606 layer_factory.hpp:77] Creating layer conv5_1/1x1_increase/relu
I0906 17:47:27.980381 22606 net.cpp:86] Creating Layer conv5_1/1x1_increase/relu
I0906 17:47:27.980386 22606 net.cpp:408] conv5_1/1x1_increase/relu <- conv5_1/1x1_increase/bn
I0906 17:47:27.980396 22606 net.cpp:369] conv5_1/1x1_increase/relu -> conv5_1/1x1_increase/bn (in-place)
I0906 17:47:27.981040 22606 net.cpp:124] Setting up conv5_1/1x1_increase/relu
I0906 17:47:27.981055 22606 net.cpp:131] Top shape: 50 240 14 14 (2352000)
I0906 17:47:27.981058 22606 net.cpp:139] Memory required for data: 2978519800
I0906 17:47:27.981072 22606 layer_factory.hpp:77] Creating layer conv5_1/1x1_increase/bn_fixed_point
I0906 17:47:27.981079 22606 net.cpp:86] Creating Layer conv5_1/1x1_increase/bn_fixed_point
I0906 17:47:27.981083 22606 net.cpp:408] conv5_1/1x1_increase/bn_fixed_point <- conv5_1/1x1_increase/bn
I0906 17:47:27.981089 22606 net.cpp:369] conv5_1/1x1_increase/bn_fixed_point -> conv5_1/1x1_increase/bn (in-place)
I0906 17:47:27.981132 22606 net.cpp:124] Setting up conv5_1/1x1_increase/bn_fixed_point
I0906 17:47:27.981137 22606 net.cpp:131] Top shape: 50 240 14 14 (2352000)
I0906 17:47:27.981140 22606 net.cpp:139] Memory required for data: 2987927800
I0906 17:47:27.981145 22606 layer_factory.hpp:77] Creating layer conv5_1/1x1_increase/slice
I0906 17:47:27.981153 22606 net.cpp:86] Creating Layer conv5_1/1x1_increase/slice
I0906 17:47:27.981156 22606 net.cpp:408] conv5_1/1x1_increase/slice <- conv5_1/1x1_increase/bn
I0906 17:47:27.981161 22606 net.cpp:382] conv5_1/1x1_increase/slice -> conv5_1/1x1_increase/split1
I0906 17:47:27.981169 22606 net.cpp:382] conv5_1/1x1_increase/slice -> conv5_1/1x1_increase/split2
I0906 17:47:27.981220 22606 net.cpp:124] Setting up conv5_1/1x1_increase/slice
I0906 17:47:27.981226 22606 net.cpp:131] Top shape: 50 120 14 14 (1176000)
I0906 17:47:27.981230 22606 net.cpp:131] Top shape: 50 120 14 14 (1176000)
I0906 17:47:27.981233 22606 net.cpp:139] Memory required for data: 2997335800
I0906 17:47:27.981236 22606 layer_factory.hpp:77] Creating layer conv5_1/3x3_dwconv/slice_0
I0906 17:47:27.981256 22606 net.cpp:86] Creating Layer conv5_1/3x3_dwconv/slice_0
I0906 17:47:27.981267 22606 net.cpp:408] conv5_1/3x3_dwconv/slice_0 <- conv5_1/1x1_increase/split1
I0906 17:47:27.981277 22606 net.cpp:382] conv5_1/3x3_dwconv/slice_0 -> conv5_1/3x3_dwconv/slice_0/bn
I0906 17:47:27.981904 22606 net.cpp:124] Setting up conv5_1/3x3_dwconv/slice_0
I0906 17:47:27.981916 22606 net.cpp:131] Top shape: 50 120 14 14 (1176000)
I0906 17:47:27.981920 22606 net.cpp:139] Memory required for data: 3002039800
I0906 17:47:27.981927 22606 layer_factory.hpp:77] Creating layer conv5_1/3x3_dwconv/slice_0/relu
I0906 17:47:27.981933 22606 net.cpp:86] Creating Layer conv5_1/3x3_dwconv/slice_0/relu
I0906 17:47:27.981938 22606 net.cpp:408] conv5_1/3x3_dwconv/slice_0/relu <- conv5_1/3x3_dwconv/slice_0/bn
I0906 17:47:27.981945 22606 net.cpp:369] conv5_1/3x3_dwconv/slice_0/relu -> conv5_1/3x3_dwconv/slice_0/bn (in-place)
I0906 17:47:27.982583 22606 net.cpp:124] Setting up conv5_1/3x3_dwconv/slice_0/relu
I0906 17:47:27.982595 22606 net.cpp:131] Top shape: 50 120 14 14 (1176000)
I0906 17:47:27.982599 22606 net.cpp:139] Memory required for data: 3006743800
I0906 17:47:27.982614 22606 layer_factory.hpp:77] Creating layer conv5_1/3x3_dwconv/slice_1
I0906 17:47:27.982633 22606 net.cpp:86] Creating Layer conv5_1/3x3_dwconv/slice_1
I0906 17:47:27.982638 22606 net.cpp:408] conv5_1/3x3_dwconv/slice_1 <- conv5_1/1x1_increase/split2
I0906 17:47:27.982659 22606 net.cpp:382] conv5_1/3x3_dwconv/slice_1 -> conv5_1/3x3_dwconv/slice_1/bn
I0906 17:47:27.983605 22606 net.cpp:124] Setting up conv5_1/3x3_dwconv/slice_1
I0906 17:47:27.983620 22606 net.cpp:131] Top shape: 50 120 14 14 (1176000)
I0906 17:47:27.983624 22606 net.cpp:139] Memory required for data: 3011447800
I0906 17:47:27.983631 22606 layer_factory.hpp:77] Creating layer conv5_1/3x3_dwconv/slice_1/relu
I0906 17:47:27.983639 22606 net.cpp:86] Creating Layer conv5_1/3x3_dwconv/slice_1/relu
I0906 17:47:27.983642 22606 net.cpp:408] conv5_1/3x3_dwconv/slice_1/relu <- conv5_1/3x3_dwconv/slice_1/bn
I0906 17:47:27.983650 22606 net.cpp:369] conv5_1/3x3_dwconv/slice_1/relu -> conv5_1/3x3_dwconv/slice_1/bn (in-place)
I0906 17:47:27.984549 22606 net.cpp:124] Setting up conv5_1/3x3_dwconv/slice_1/relu
I0906 17:47:27.984565 22606 net.cpp:131] Top shape: 50 120 14 14 (1176000)
I0906 17:47:27.984568 22606 net.cpp:139] Memory required for data: 3016151800
I0906 17:47:27.984572 22606 layer_factory.hpp:77] Creating layer conv5_1/3x3_dwconv/concat
I0906 17:47:27.984578 22606 net.cpp:86] Creating Layer conv5_1/3x3_dwconv/concat
I0906 17:47:27.984582 22606 net.cpp:408] conv5_1/3x3_dwconv/concat <- conv5_1/3x3_dwconv/slice_0/bn
I0906 17:47:27.984588 22606 net.cpp:408] conv5_1/3x3_dwconv/concat <- conv5_1/3x3_dwconv/slice_1/bn
I0906 17:47:27.984594 22606 net.cpp:382] conv5_1/3x3_dwconv/concat -> conv5_1/3x3_dwconv/concat
I0906 17:47:27.984637 22606 net.cpp:124] Setting up conv5_1/3x3_dwconv/concat
I0906 17:47:27.984642 22606 net.cpp:131] Top shape: 50 240 14 14 (2352000)
I0906 17:47:27.984647 22606 net.cpp:139] Memory required for data: 3025559800
I0906 17:47:27.984649 22606 layer_factory.hpp:77] Creating layer conv5_1/3x3_dwconv/concat_fixed_point
I0906 17:47:27.984675 22606 net.cpp:86] Creating Layer conv5_1/3x3_dwconv/concat_fixed_point
I0906 17:47:27.984679 22606 net.cpp:408] conv5_1/3x3_dwconv/concat_fixed_point <- conv5_1/3x3_dwconv/concat
I0906 17:47:27.984684 22606 net.cpp:369] conv5_1/3x3_dwconv/concat_fixed_point -> conv5_1/3x3_dwconv/concat (in-place)
I0906 17:47:27.984720 22606 net.cpp:124] Setting up conv5_1/3x3_dwconv/concat_fixed_point
I0906 17:47:27.984726 22606 net.cpp:131] Top shape: 50 240 14 14 (2352000)
I0906 17:47:27.984730 22606 net.cpp:139] Memory required for data: 3034967800
I0906 17:47:27.984735 22606 layer_factory.hpp:77] Creating layer conv5_1/3x3_dwconv/concat_conv5_1/3x3_dwconv/concat_fixed_point_0_split
I0906 17:47:27.984743 22606 net.cpp:86] Creating Layer conv5_1/3x3_dwconv/concat_conv5_1/3x3_dwconv/concat_fixed_point_0_split
I0906 17:47:27.984746 22606 net.cpp:408] conv5_1/3x3_dwconv/concat_conv5_1/3x3_dwconv/concat_fixed_point_0_split <- conv5_1/3x3_dwconv/concat
I0906 17:47:27.984752 22606 net.cpp:382] conv5_1/3x3_dwconv/concat_conv5_1/3x3_dwconv/concat_fixed_point_0_split -> conv5_1/3x3_dwconv/concat_conv5_1/3x3_dwconv/concat_fixed_point_0_split_0
I0906 17:47:27.984760 22606 net.cpp:382] conv5_1/3x3_dwconv/concat_conv5_1/3x3_dwconv/concat_fixed_point_0_split -> conv5_1/3x3_dwconv/concat_conv5_1/3x3_dwconv/concat_fixed_point_0_split_1
I0906 17:47:27.984807 22606 net.cpp:124] Setting up conv5_1/3x3_dwconv/concat_conv5_1/3x3_dwconv/concat_fixed_point_0_split
I0906 17:47:27.984812 22606 net.cpp:131] Top shape: 50 240 14 14 (2352000)
I0906 17:47:27.984817 22606 net.cpp:131] Top shape: 50 240 14 14 (2352000)
I0906 17:47:27.984819 22606 net.cpp:139] Memory required for data: 3053783800
I0906 17:47:27.984822 22606 layer_factory.hpp:77] Creating layer conv5_1/3x3_dwconv/SE_global_pool
I0906 17:47:27.984829 22606 net.cpp:86] Creating Layer conv5_1/3x3_dwconv/SE_global_pool
I0906 17:47:27.984833 22606 net.cpp:408] conv5_1/3x3_dwconv/SE_global_pool <- conv5_1/3x3_dwconv/concat_conv5_1/3x3_dwconv/concat_fixed_point_0_split_0
I0906 17:47:27.984840 22606 net.cpp:382] conv5_1/3x3_dwconv/SE_global_pool -> conv5_1/3x3_dwconv/SE_global_pool
I0906 17:47:27.984869 22606 net.cpp:124] Setting up conv5_1/3x3_dwconv/SE_global_pool
I0906 17:47:27.984889 22606 net.cpp:131] Top shape: 50 240 1 1 (12000)
I0906 17:47:27.984906 22606 net.cpp:139] Memory required for data: 3053831800
I0906 17:47:27.984910 22606 layer_factory.hpp:77] Creating layer conv5_1/3x3_dwconv/SE_fc1
I0906 17:47:27.984920 22606 net.cpp:86] Creating Layer conv5_1/3x3_dwconv/SE_fc1
I0906 17:47:27.984925 22606 net.cpp:408] conv5_1/3x3_dwconv/SE_fc1 <- conv5_1/3x3_dwconv/SE_global_pool
I0906 17:47:27.984932 22606 net.cpp:382] conv5_1/3x3_dwconv/SE_fc1 -> conv5_1/3x3_dwconv/SE_fc1
I0906 17:47:27.985491 22606 net.cpp:124] Setting up conv5_1/3x3_dwconv/SE_fc1
I0906 17:47:27.985504 22606 net.cpp:131] Top shape: 50 15 1 1 (750)
I0906 17:47:27.985507 22606 net.cpp:139] Memory required for data: 3053834800
I0906 17:47:27.985522 22606 layer_factory.hpp:77] Creating layer conv5_1/3x3_dwconv/SE_fc1/relu
I0906 17:47:27.985536 22606 net.cpp:86] Creating Layer conv5_1/3x3_dwconv/SE_fc1/relu
I0906 17:47:27.985540 22606 net.cpp:408] conv5_1/3x3_dwconv/SE_fc1/relu <- conv5_1/3x3_dwconv/SE_fc1
I0906 17:47:27.985548 22606 net.cpp:369] conv5_1/3x3_dwconv/SE_fc1/relu -> conv5_1/3x3_dwconv/SE_fc1 (in-place)
I0906 17:47:27.986202 22606 net.cpp:124] Setting up conv5_1/3x3_dwconv/SE_fc1/relu
I0906 17:47:27.986215 22606 net.cpp:131] Top shape: 50 15 1 1 (750)
I0906 17:47:27.986219 22606 net.cpp:139] Memory required for data: 3053837800
I0906 17:47:27.986222 22606 layer_factory.hpp:77] Creating layer conv5_1/3x3_dwconv/SE_fc2
I0906 17:47:27.986233 22606 net.cpp:86] Creating Layer conv5_1/3x3_dwconv/SE_fc2
I0906 17:47:27.986238 22606 net.cpp:408] conv5_1/3x3_dwconv/SE_fc2 <- conv5_1/3x3_dwconv/SE_fc1
I0906 17:47:27.986248 22606 net.cpp:382] conv5_1/3x3_dwconv/SE_fc2 -> conv5_1/3x3_dwconv/SE_fc2
I0906 17:47:27.986784 22606 net.cpp:124] Setting up conv5_1/3x3_dwconv/SE_fc2
I0906 17:47:27.986798 22606 net.cpp:131] Top shape: 50 240 1 1 (12000)
I0906 17:47:27.986801 22606 net.cpp:139] Memory required for data: 3053885800
I0906 17:47:27.986807 22606 layer_factory.hpp:77] Creating layer conv5_1/3x3_dwconv/SE_weights
I0906 17:47:27.986814 22606 net.cpp:86] Creating Layer conv5_1/3x3_dwconv/SE_weights
I0906 17:47:27.986819 22606 net.cpp:408] conv5_1/3x3_dwconv/SE_weights <- conv5_1/3x3_dwconv/SE_fc2
I0906 17:47:27.986824 22606 net.cpp:369] conv5_1/3x3_dwconv/SE_weights -> conv5_1/3x3_dwconv/SE_fc2 (in-place)
I0906 17:47:27.989890 22606 net.cpp:124] Setting up conv5_1/3x3_dwconv/SE_weights
I0906 17:47:27.989903 22606 net.cpp:131] Top shape: 50 240 1 1 (12000)
I0906 17:47:27.989907 22606 net.cpp:139] Memory required for data: 3053933800
I0906 17:47:27.989912 22606 layer_factory.hpp:77] Creating layer conv5_1/3x3_dwconv/SE_weights/reshape
I0906 17:47:27.989918 22606 net.cpp:86] Creating Layer conv5_1/3x3_dwconv/SE_weights/reshape
I0906 17:47:27.989923 22606 net.cpp:408] conv5_1/3x3_dwconv/SE_weights/reshape <- conv5_1/3x3_dwconv/SE_fc2
I0906 17:47:27.989931 22606 net.cpp:382] conv5_1/3x3_dwconv/SE_weights/reshape -> conv5_1/3x3_dwconv/SE_weights/reshape
I0906 17:47:27.989979 22606 net.cpp:124] Setting up conv5_1/3x3_dwconv/SE_weights/reshape
I0906 17:47:27.989985 22606 net.cpp:131] Top shape: 50 240 (12000)
I0906 17:47:27.989989 22606 net.cpp:139] Memory required for data: 3053981800
I0906 17:47:27.990002 22606 layer_factory.hpp:77] Creating layer conv5_1/3x3_dwconv/scale
I0906 17:47:27.990023 22606 net.cpp:86] Creating Layer conv5_1/3x3_dwconv/scale
I0906 17:47:27.990028 22606 net.cpp:408] conv5_1/3x3_dwconv/scale <- conv5_1/3x3_dwconv/concat_conv5_1/3x3_dwconv/concat_fixed_point_0_split_1
I0906 17:47:27.990034 22606 net.cpp:408] conv5_1/3x3_dwconv/scale <- conv5_1/3x3_dwconv/SE_weights/reshape
I0906 17:47:27.990041 22606 net.cpp:382] conv5_1/3x3_dwconv/scale -> conv5_1/3x3_dwconv/scale
I0906 17:47:27.990136 22606 net.cpp:124] Setting up conv5_1/3x3_dwconv/scale
I0906 17:47:27.990144 22606 net.cpp:131] Top shape: 50 240 14 14 (2352000)
I0906 17:47:27.990147 22606 net.cpp:139] Memory required for data: 3063389800
I0906 17:47:27.990150 22606 layer_factory.hpp:77] Creating layer conv5_1/3x3_dwconv/scale_fixed_point
I0906 17:47:27.990162 22606 net.cpp:86] Creating Layer conv5_1/3x3_dwconv/scale_fixed_point
I0906 17:47:27.990180 22606 net.cpp:408] conv5_1/3x3_dwconv/scale_fixed_point <- conv5_1/3x3_dwconv/scale
I0906 17:47:27.990186 22606 net.cpp:369] conv5_1/3x3_dwconv/scale_fixed_point -> conv5_1/3x3_dwconv/scale (in-place)
I0906 17:47:27.990222 22606 net.cpp:124] Setting up conv5_1/3x3_dwconv/scale_fixed_point
I0906 17:47:27.990228 22606 net.cpp:131] Top shape: 50 240 14 14 (2352000)
I0906 17:47:27.990231 22606 net.cpp:139] Memory required for data: 3072797800
I0906 17:47:27.990237 22606 layer_factory.hpp:77] Creating layer conv5_1/1x1_decrease
I0906 17:47:27.990247 22606 net.cpp:86] Creating Layer conv5_1/1x1_decrease
I0906 17:47:27.990252 22606 net.cpp:408] conv5_1/1x1_decrease <- conv5_1/3x3_dwconv/scale
I0906 17:47:27.990259 22606 net.cpp:382] conv5_1/1x1_decrease -> conv5_1/1x1_decrease/bn
I0906 17:47:27.991451 22606 net.cpp:124] Setting up conv5_1/1x1_decrease
I0906 17:47:27.991463 22606 net.cpp:131] Top shape: 50 80 14 14 (784000)
I0906 17:47:27.991467 22606 net.cpp:139] Memory required for data: 3075933800
I0906 17:47:27.991474 22606 layer_factory.hpp:77] Creating layer conv5_1/elt_sum
I0906 17:47:27.991500 22606 net.cpp:86] Creating Layer conv5_1/elt_sum
I0906 17:47:27.991506 22606 net.cpp:408] conv5_1/elt_sum <- conv5_0/1x1_decrease/bn_conv5_0/1x1_decrease/bn_fixed_point_0_split_1
I0906 17:47:27.991511 22606 net.cpp:408] conv5_1/elt_sum <- conv5_1/1x1_decrease/bn
I0906 17:47:27.991518 22606 net.cpp:382] conv5_1/elt_sum -> conv5_1/elt_sum
I0906 17:47:27.991557 22606 net.cpp:124] Setting up conv5_1/elt_sum
I0906 17:47:27.991564 22606 net.cpp:131] Top shape: 50 80 14 14 (784000)
I0906 17:47:27.991567 22606 net.cpp:139] Memory required for data: 3079069800
I0906 17:47:27.991580 22606 layer_factory.hpp:77] Creating layer conv5_1/elt_sum_fixed_point
I0906 17:47:27.991590 22606 net.cpp:86] Creating Layer conv5_1/elt_sum_fixed_point
I0906 17:47:27.991593 22606 net.cpp:408] conv5_1/elt_sum_fixed_point <- conv5_1/elt_sum
I0906 17:47:27.991598 22606 net.cpp:369] conv5_1/elt_sum_fixed_point -> conv5_1/elt_sum (in-place)
I0906 17:47:27.991631 22606 net.cpp:124] Setting up conv5_1/elt_sum_fixed_point
I0906 17:47:27.991636 22606 net.cpp:131] Top shape: 50 80 14 14 (784000)
I0906 17:47:27.991639 22606 net.cpp:139] Memory required for data: 3082205800
I0906 17:47:27.991644 22606 layer_factory.hpp:77] Creating layer conv5_1/elt_sum_conv5_1/elt_sum_fixed_point_0_split
I0906 17:47:27.991652 22606 net.cpp:86] Creating Layer conv5_1/elt_sum_conv5_1/elt_sum_fixed_point_0_split
I0906 17:47:27.991657 22606 net.cpp:408] conv5_1/elt_sum_conv5_1/elt_sum_fixed_point_0_split <- conv5_1/elt_sum
I0906 17:47:27.991660 22606 net.cpp:382] conv5_1/elt_sum_conv5_1/elt_sum_fixed_point_0_split -> conv5_1/elt_sum_conv5_1/elt_sum_fixed_point_0_split_0
I0906 17:47:27.991667 22606 net.cpp:382] conv5_1/elt_sum_conv5_1/elt_sum_fixed_point_0_split -> conv5_1/elt_sum_conv5_1/elt_sum_fixed_point_0_split_1
I0906 17:47:27.991715 22606 net.cpp:124] Setting up conv5_1/elt_sum_conv5_1/elt_sum_fixed_point_0_split
I0906 17:47:27.991721 22606 net.cpp:131] Top shape: 50 80 14 14 (784000)
I0906 17:47:27.991725 22606 net.cpp:131] Top shape: 50 80 14 14 (784000)
I0906 17:47:27.991729 22606 net.cpp:139] Memory required for data: 3088477800
I0906 17:47:27.991731 22606 layer_factory.hpp:77] Creating layer conv5_2/1x1_increase
I0906 17:47:27.991751 22606 net.cpp:86] Creating Layer conv5_2/1x1_increase
I0906 17:47:27.991755 22606 net.cpp:408] conv5_2/1x1_increase <- conv5_1/elt_sum_conv5_1/elt_sum_fixed_point_0_split_0
I0906 17:47:27.991763 22606 net.cpp:382] conv5_2/1x1_increase -> conv5_2/1x1_increase/bn
I0906 17:47:27.992939 22606 net.cpp:124] Setting up conv5_2/1x1_increase
I0906 17:47:27.992952 22606 net.cpp:131] Top shape: 50 240 14 14 (2352000)
I0906 17:47:27.992955 22606 net.cpp:139] Memory required for data: 3097885800
I0906 17:47:27.992972 22606 layer_factory.hpp:77] Creating layer conv5_2/1x1_increase/relu
I0906 17:47:27.992980 22606 net.cpp:86] Creating Layer conv5_2/1x1_increase/relu
I0906 17:47:27.992995 22606 net.cpp:408] conv5_2/1x1_increase/relu <- conv5_2/1x1_increase/bn
I0906 17:47:27.993003 22606 net.cpp:369] conv5_2/1x1_increase/relu -> conv5_2/1x1_increase/bn (in-place)
I0906 17:47:27.993693 22606 net.cpp:124] Setting up conv5_2/1x1_increase/relu
I0906 17:47:27.993706 22606 net.cpp:131] Top shape: 50 240 14 14 (2352000)
I0906 17:47:27.993710 22606 net.cpp:139] Memory required for data: 3107293800
I0906 17:47:27.993715 22606 layer_factory.hpp:77] Creating layer conv5_2/1x1_increase/bn_fixed_point
I0906 17:47:27.993721 22606 net.cpp:86] Creating Layer conv5_2/1x1_increase/bn_fixed_point
I0906 17:47:27.993727 22606 net.cpp:408] conv5_2/1x1_increase/bn_fixed_point <- conv5_2/1x1_increase/bn
I0906 17:47:27.993732 22606 net.cpp:369] conv5_2/1x1_increase/bn_fixed_point -> conv5_2/1x1_increase/bn (in-place)
I0906 17:47:27.993770 22606 net.cpp:124] Setting up conv5_2/1x1_increase/bn_fixed_point
I0906 17:47:27.993777 22606 net.cpp:131] Top shape: 50 240 14 14 (2352000)
I0906 17:47:27.993779 22606 net.cpp:139] Memory required for data: 3116701800
I0906 17:47:27.993784 22606 layer_factory.hpp:77] Creating layer conv5_2/1x1_increase/slice
I0906 17:47:27.993803 22606 net.cpp:86] Creating Layer conv5_2/1x1_increase/slice
I0906 17:47:27.993808 22606 net.cpp:408] conv5_2/1x1_increase/slice <- conv5_2/1x1_increase/bn
I0906 17:47:27.993814 22606 net.cpp:382] conv5_2/1x1_increase/slice -> conv5_2/1x1_increase/split1
I0906 17:47:27.993822 22606 net.cpp:382] conv5_2/1x1_increase/slice -> conv5_2/1x1_increase/split2
I0906 17:47:27.993873 22606 net.cpp:124] Setting up conv5_2/1x1_increase/slice
I0906 17:47:27.993887 22606 net.cpp:131] Top shape: 50 120 14 14 (1176000)
I0906 17:47:27.993892 22606 net.cpp:131] Top shape: 50 120 14 14 (1176000)
I0906 17:47:27.993896 22606 net.cpp:139] Memory required for data: 3126109800
I0906 17:47:27.993898 22606 layer_factory.hpp:77] Creating layer conv5_2/3x3_dwconv/slice_0
I0906 17:47:27.993906 22606 net.cpp:86] Creating Layer conv5_2/3x3_dwconv/slice_0
I0906 17:47:27.993911 22606 net.cpp:408] conv5_2/3x3_dwconv/slice_0 <- conv5_2/1x1_increase/split1
I0906 17:47:27.993921 22606 net.cpp:382] conv5_2/3x3_dwconv/slice_0 -> conv5_2/3x3_dwconv/slice_0/bn
I0906 17:47:27.994551 22606 net.cpp:124] Setting up conv5_2/3x3_dwconv/slice_0
I0906 17:47:27.994565 22606 net.cpp:131] Top shape: 50 120 14 14 (1176000)
I0906 17:47:27.994567 22606 net.cpp:139] Memory required for data: 3130813800
I0906 17:47:27.994575 22606 layer_factory.hpp:77] Creating layer conv5_2/3x3_dwconv/slice_0/relu
I0906 17:47:27.994592 22606 net.cpp:86] Creating Layer conv5_2/3x3_dwconv/slice_0/relu
I0906 17:47:27.994597 22606 net.cpp:408] conv5_2/3x3_dwconv/slice_0/relu <- conv5_2/3x3_dwconv/slice_0/bn
I0906 17:47:27.994602 22606 net.cpp:369] conv5_2/3x3_dwconv/slice_0/relu -> conv5_2/3x3_dwconv/slice_0/bn (in-place)
I0906 17:47:27.995555 22606 net.cpp:124] Setting up conv5_2/3x3_dwconv/slice_0/relu
I0906 17:47:27.995571 22606 net.cpp:131] Top shape: 50 120 14 14 (1176000)
I0906 17:47:27.995575 22606 net.cpp:139] Memory required for data: 3135517800
I0906 17:47:27.995579 22606 layer_factory.hpp:77] Creating layer conv5_2/3x3_dwconv/slice_1
I0906 17:47:27.995605 22606 net.cpp:86] Creating Layer conv5_2/3x3_dwconv/slice_1
I0906 17:47:27.995610 22606 net.cpp:408] conv5_2/3x3_dwconv/slice_1 <- conv5_2/1x1_increase/split2
I0906 17:47:27.995617 22606 net.cpp:382] conv5_2/3x3_dwconv/slice_1 -> conv5_2/3x3_dwconv/slice_1/bn
I0906 17:47:27.996536 22606 net.cpp:124] Setting up conv5_2/3x3_dwconv/slice_1
I0906 17:47:27.996551 22606 net.cpp:131] Top shape: 50 120 14 14 (1176000)
I0906 17:47:27.996553 22606 net.cpp:139] Memory required for data: 3140221800
I0906 17:47:27.996562 22606 layer_factory.hpp:77] Creating layer conv5_2/3x3_dwconv/slice_1/relu
I0906 17:47:27.996568 22606 net.cpp:86] Creating Layer conv5_2/3x3_dwconv/slice_1/relu
I0906 17:47:27.996575 22606 net.cpp:408] conv5_2/3x3_dwconv/slice_1/relu <- conv5_2/3x3_dwconv/slice_1/bn
I0906 17:47:27.996592 22606 net.cpp:369] conv5_2/3x3_dwconv/slice_1/relu -> conv5_2/3x3_dwconv/slice_1/bn (in-place)
I0906 17:47:27.997318 22606 net.cpp:124] Setting up conv5_2/3x3_dwconv/slice_1/relu
I0906 17:47:27.997330 22606 net.cpp:131] Top shape: 50 120 14 14 (1176000)
I0906 17:47:27.997334 22606 net.cpp:139] Memory required for data: 3144925800
I0906 17:47:27.997339 22606 layer_factory.hpp:77] Creating layer conv5_2/3x3_dwconv/concat
I0906 17:47:27.997346 22606 net.cpp:86] Creating Layer conv5_2/3x3_dwconv/concat
I0906 17:47:27.997351 22606 net.cpp:408] conv5_2/3x3_dwconv/concat <- conv5_2/3x3_dwconv/slice_0/bn
I0906 17:47:27.997356 22606 net.cpp:408] conv5_2/3x3_dwconv/concat <- conv5_2/3x3_dwconv/slice_1/bn
I0906 17:47:27.997362 22606 net.cpp:382] conv5_2/3x3_dwconv/concat -> conv5_2/3x3_dwconv/concat
I0906 17:47:27.997403 22606 net.cpp:124] Setting up conv5_2/3x3_dwconv/concat
I0906 17:47:27.997409 22606 net.cpp:131] Top shape: 50 240 14 14 (2352000)
I0906 17:47:27.997412 22606 net.cpp:139] Memory required for data: 3154333800
I0906 17:47:27.997427 22606 layer_factory.hpp:77] Creating layer conv5_2/3x3_dwconv/concat_fixed_point
I0906 17:47:27.997442 22606 net.cpp:86] Creating Layer conv5_2/3x3_dwconv/concat_fixed_point
I0906 17:47:27.997445 22606 net.cpp:408] conv5_2/3x3_dwconv/concat_fixed_point <- conv5_2/3x3_dwconv/concat
I0906 17:47:27.997452 22606 net.cpp:369] conv5_2/3x3_dwconv/concat_fixed_point -> conv5_2/3x3_dwconv/concat (in-place)
I0906 17:47:27.997495 22606 net.cpp:124] Setting up conv5_2/3x3_dwconv/concat_fixed_point
I0906 17:47:27.997501 22606 net.cpp:131] Top shape: 50 240 14 14 (2352000)
I0906 17:47:27.997504 22606 net.cpp:139] Memory required for data: 3163741800
I0906 17:47:27.997509 22606 layer_factory.hpp:77] Creating layer conv5_2/3x3_dwconv/concat_conv5_2/3x3_dwconv/concat_fixed_point_0_split
I0906 17:47:27.997514 22606 net.cpp:86] Creating Layer conv5_2/3x3_dwconv/concat_conv5_2/3x3_dwconv/concat_fixed_point_0_split
I0906 17:47:27.997519 22606 net.cpp:408] conv5_2/3x3_dwconv/concat_conv5_2/3x3_dwconv/concat_fixed_point_0_split <- conv5_2/3x3_dwconv/concat
I0906 17:47:27.997525 22606 net.cpp:382] conv5_2/3x3_dwconv/concat_conv5_2/3x3_dwconv/concat_fixed_point_0_split -> conv5_2/3x3_dwconv/concat_conv5_2/3x3_dwconv/concat_fixed_point_0_split_0
I0906 17:47:27.997532 22606 net.cpp:382] conv5_2/3x3_dwconv/concat_conv5_2/3x3_dwconv/concat_fixed_point_0_split -> conv5_2/3x3_dwconv/concat_conv5_2/3x3_dwconv/concat_fixed_point_0_split_1
I0906 17:47:27.997579 22606 net.cpp:124] Setting up conv5_2/3x3_dwconv/concat_conv5_2/3x3_dwconv/concat_fixed_point_0_split
…
I0906 17:47:28.156183 22606 net.cpp:86] Creating Layer conv7_3/3x3_dwconv/slice_0
I0906 17:47:28.156188 22606 net.cpp:408] conv7_3/3x3_dwconv/slice_0 <- conv7_3/1x1_increase/split1
I0906 17:47:28.156217 22606 net.cpp:382] conv7_3/3x3_dwconv/slice_0 -> conv7_3/3x3_dwconv/slice_0/bn
I0906 17:47:28.156956 22606 net.cpp:124] Setting up conv7_3/3x3_dwconv/slice_0
I0906 17:47:28.156970 22606 net.cpp:131] Top shape: 50 192 7 7 (470400)
I0906 17:47:28.156973 22606 net.cpp:139] Memory required for data: 4360233800
I0906 17:47:28.156980 22606 layer_factory.hpp:77] Creating layer conv7_3/3x3_dwconv/slice_0/relu
I0906 17:47:28.156991 22606 net.cpp:86] Creating Layer conv7_3/3x3_dwconv/slice_0/relu
I0906 17:47:28.156996 22606 net.cpp:408] conv7_3/3x3_dwconv/slice_0/relu <- conv7_3/3x3_dwconv/slice_0/bn
I0906 17:47:28.157001 22606 net.cpp:369] conv7_3/3x3_dwconv/slice_0/relu -> conv7_3/3x3_dwconv/slice_0/bn (in-place)
I0906 17:47:28.158139 22606 net.cpp:124] Setting up conv7_3/3x3_dwconv/slice_0/relu
I0906 17:47:28.158157 22606 net.cpp:131] Top shape: 50 192 7 7 (470400)
I0906 17:47:28.158161 22606 net.cpp:139] Memory required for data: 4362115400
I0906 17:47:28.158176 22606 layer_factory.hpp:77] Creating layer conv7_3/3x3_dwconv/slice_1
I0906 17:47:28.158207 22606 net.cpp:86] Creating Layer conv7_3/3x3_dwconv/slice_1
I0906 17:47:28.158217 22606 net.cpp:408] conv7_3/3x3_dwconv/slice_1 <- conv7_3/1x1_increase/split2
I0906 17:47:28.158228 22606 net.cpp:382] conv7_3/3x3_dwconv/slice_1 -> conv7_3/3x3_dwconv/slice_1/bn
I0906 17:47:28.159049 22606 net.cpp:124] Setting up conv7_3/3x3_dwconv/slice_1
I0906 17:47:28.159063 22606 net.cpp:131] Top shape: 50 192 7 7 (470400)
I0906 17:47:28.159085 22606 net.cpp:139] Memory required for data: 4363997000
I0906 17:47:28.159092 22606 layer_factory.hpp:77] Creating layer conv7_3/3x3_dwconv/slice_1/relu
I0906 17:47:28.159101 22606 net.cpp:86] Creating Layer conv7_3/3x3_dwconv/slice_1/relu
I0906 17:47:28.159106 22606 net.cpp:408] conv7_3/3x3_dwconv/slice_1/relu <- conv7_3/3x3_dwconv/slice_1/bn
I0906 17:47:28.159112 22606 net.cpp:369] conv7_3/3x3_dwconv/slice_1/relu -> conv7_3/3x3_dwconv/slice_1/bn (in-place)
I0906 17:47:28.159786 22606 net.cpp:124] Setting up conv7_3/3x3_dwconv/slice_1/relu
I0906 17:47:28.159799 22606 net.cpp:131] Top shape: 50 192 7 7 (470400)
I0906 17:47:28.159803 22606 net.cpp:139] Memory required for data: 4365878600
I0906 17:47:28.159807 22606 layer_factory.hpp:77] Creating layer conv7_3/3x3_dwconv/slice_2
I0906 17:47:28.159831 22606 net.cpp:86] Creating Layer conv7_3/3x3_dwconv/slice_2
I0906 17:47:28.159842 22606 net.cpp:408] conv7_3/3x3_dwconv/slice_2 <- conv7_3/1x1_increase/split3
I0906 17:47:28.159852 22606 net.cpp:382] conv7_3/3x3_dwconv/slice_2 -> conv7_3/3x3_dwconv/slice_2/bn
I0906 17:47:28.161185 22606 net.cpp:124] Setting up conv7_3/3x3_dwconv/slice_2
I0906 17:47:28.161202 22606 net.cpp:131] Top shape: 50 192 7 7 (470400)
I0906 17:47:28.161206 22606 net.cpp:139] Memory required for data: 4367760200
I0906 17:47:28.161214 22606 layer_factory.hpp:77] Creating layer conv7_3/3x3_dwconv/slice_2/relu
I0906 17:47:28.161222 22606 net.cpp:86] Creating Layer conv7_3/3x3_dwconv/slice_2/relu
I0906 17:47:28.161228 22606 net.cpp:408] conv7_3/3x3_dwconv/slice_2/relu <- conv7_3/3x3_dwconv/slice_2/bn
I0906 17:47:28.161237 22606 net.cpp:369] conv7_3/3x3_dwconv/slice_2/relu -> conv7_3/3x3_dwconv/slice_2/bn (in-place)
I0906 17:47:28.161924 22606 net.cpp:124] Setting up conv7_3/3x3_dwconv/slice_2/relu
I0906 17:47:28.161937 22606 net.cpp:131] Top shape: 50 192 7 7 (470400)
I0906 17:47:28.161942 22606 net.cpp:139] Memory required for data: 4369641800
I0906 17:47:28.161957 22606 layer_factory.hpp:77] Creating layer conv7_3/3x3_dwconv/concat
I0906 17:47:28.161964 22606 net.cpp:86] Creating Layer conv7_3/3x3_dwconv/concat
I0906 17:47:28.161969 22606 net.cpp:408] conv7_3/3x3_dwconv/concat <- conv7_3/3x3_dwconv/slice_0/bn
I0906 17:47:28.161975 22606 net.cpp:408] conv7_3/3x3_dwconv/concat <- conv7_3/3x3_dwconv/slice_1/bn
I0906 17:47:28.161980 22606 net.cpp:408] conv7_3/3x3_dwconv/concat <- conv7_3/3x3_dwconv/slice_2/bn
I0906 17:47:28.161988 22606 net.cpp:382] conv7_3/3x3_dwconv/concat -> conv7_3/3x3_dwconv/concat
I0906 17:47:28.162070 22606 net.cpp:124] Setting up conv7_3/3x3_dwconv/concat
I0906 17:47:28.162079 22606 net.cpp:131] Top shape: 50 576 7 7 (1411200)
I0906 17:47:28.162083 22606 net.cpp:139] Memory required for data: 4375286600
I0906 17:47:28.162086 22606 layer_factory.hpp:77] Creating layer conv7_3/3x3_dwconv/concat_fixed_point
I0906 17:47:28.162101 22606 net.cpp:86] Creating Layer conv7_3/3x3_dwconv/concat_fixed_point
I0906 17:47:28.162106 22606 net.cpp:408] conv7_3/3x3_dwconv/concat_fixed_point <- conv7_3/3x3_dwconv/concat
I0906 17:47:28.162113 22606 net.cpp:369] conv7_3/3x3_dwconv/concat_fixed_point -> conv7_3/3x3_dwconv/concat (in-place)
I0906 17:47:28.162153 22606 net.cpp:124] Setting up conv7_3/3x3_dwconv/concat_fixed_point
I0906 17:47:28.162165 22606 net.cpp:131] Top shape: 50 576 7 7 (1411200)
I0906 17:47:28.162168 22606 net.cpp:139] Memory required for data: 4380931400
I0906 17:47:28.162173 22606 layer_factory.hpp:77] Creating layer conv7_3/3x3_dwconv/concat_conv7_3/3x3_dwconv/concat_fixed_point_0_split
I0906 17:47:28.162180 22606 net.cpp:86] Creating Layer conv7_3/3x3_dwconv/concat_conv7_3/3x3_dwconv/concat_fixed_point_0_split
I0906 17:47:28.162184 22606 net.cpp:408] conv7_3/3x3_dwconv/concat_conv7_3/3x3_dwconv/concat_fixed_point_0_split <- conv7_3/3x3_dwconv/concat
I0906 17:47:28.162189 22606 net.cpp:382] conv7_3/3x3_dwconv/concat_conv7_3/3x3_dwconv/concat_fixed_point_0_split -> conv7_3/3x3_dwconv/concat_conv7_3/3x3_dwconv/concat_fixed_point_0_split_0
I0906 17:47:28.162196 22606 net.cpp:382] conv7_3/3x3_dwconv/concat_conv7_3/3x3_dwconv/concat_fixed_point_0_split -> conv7_3/3x3_dwconv/concat_conv7_3/3x3_dwconv/concat_fixed_point_0_split_1
I0906 17:47:28.162251 22606 net.cpp:124] Setting up conv7_3/3x3_dwconv/concat_conv7_3/3x3_dwconv/concat_fixed_point_0_split
I0906 17:47:28.162258 22606 net.cpp:131] Top shape: 50 576 7 7 (1411200)
I0906 17:47:28.162263 22606 net.cpp:131] Top shape: 50 576 7 7 (1411200)
I0906 17:47:28.162266 22606 net.cpp:139] Memory required for data: 4392221000
I0906 17:47:28.162269 22606 layer_factory.hpp:77] Creating layer conv7_3/3x3_dwconv/SE_global_pool
I0906 17:47:28.162276 22606 net.cpp:86] Creating Layer conv7_3/3x3_dwconv/SE_global_pool
I0906 17:47:28.162281 22606 net.cpp:408] conv7_3/3x3_dwconv/SE_global_pool <- conv7_3/3x3_dwconv/concat_conv7_3/3x3_dwconv/concat_fixed_point_0_split_0
I0906 17:47:28.162292 22606 net.cpp:382] conv7_3/3x3_dwconv/SE_global_pool -> conv7_3/3x3_dwconv/SE_global_pool
I0906 17:47:28.162328 22606 net.cpp:124] Setting up conv7_3/3x3_dwconv/SE_global_pool
I0906 17:47:28.162333 22606 net.cpp:131] Top shape: 50 576 1 1 (28800)
I0906 17:47:28.162336 22606 net.cpp:139] Memory required for data: 4392336200
I0906 17:47:28.162348 22606 layer_factory.hpp:77] Creating layer conv7_3/3x3_dwconv/SE_fc1
I0906 17:47:28.162359 22606 net.cpp:86] Creating Layer conv7_3/3x3_dwconv/SE_fc1
I0906 17:47:28.162364 22606 net.cpp:408] conv7_3/3x3_dwconv/SE_fc1 <- conv7_3/3x3_dwconv/SE_global_pool
I0906 17:47:28.162371 22606 net.cpp:382] conv7_3/3x3_dwconv/SE_fc1 -> conv7_3/3x3_dwconv/SE_fc1
I0906 17:47:28.163578 22606 net.cpp:124] Setting up conv7_3/3x3_dwconv/SE_fc1
I0906 17:47:28.163594 22606 net.cpp:131] Top shape: 50 36 1 1 (1800)
I0906 17:47:28.163599 22606 net.cpp:139] Memory required for data: 4392343400
I0906 17:47:28.163604 22606 layer_factory.hpp:77] Creating layer conv7_3/3x3_dwconv/SE_fc1/relu
I0906 17:47:28.163620 22606 net.cpp:86] Creating Layer conv7_3/3x3_dwconv/SE_fc1/relu
I0906 17:47:28.163625 22606 net.cpp:408] conv7_3/3x3_dwconv/SE_fc1/relu <- conv7_3/3x3_dwconv/SE_fc1
I0906 17:47:28.163633 22606 net.cpp:369] conv7_3/3x3_dwconv/SE_fc1/relu -> conv7_3/3x3_dwconv/SE_fc1 (in-place)
I0906 17:47:28.164706 22606 net.cpp:124] Setting up conv7_3/3x3_dwconv/SE_fc1/relu
I0906 17:47:28.164723 22606 net.cpp:131] Top shape: 50 36 1 1 (1800)
I0906 17:47:28.164727 22606 net.cpp:139] Memory required for data: 4392350600
I0906 17:47:28.164731 22606 layer_factory.hpp:77] Creating layer conv7_3/3x3_dwconv/SE_fc2
I0906 17:47:28.164747 22606 net.cpp:86] Creating Layer conv7_3/3x3_dwconv/SE_fc2
I0906 17:47:28.164772 22606 net.cpp:408] conv7_3/3x3_dwconv/SE_fc2 <- conv7_3/3x3_dwconv/SE_fc1
I0906 17:47:28.164779 22606 net.cpp:382] conv7_3/3x3_dwconv/SE_fc2 -> conv7_3/3x3_dwconv/SE_fc2
I0906 17:47:28.165961 22606 net.cpp:124] Setting up conv7_3/3x3_dwconv/SE_fc2
I0906 17:47:28.165978 22606 net.cpp:131] Top shape: 50 576 1 1 (28800)
I0906 17:47:28.165982 22606 net.cpp:139] Memory required for data: 4392465800
I0906 17:47:28.165997 22606 layer_factory.hpp:77] Creating layer conv7_3/3x3_dwconv/SE_weights
I0906 17:47:28.166023 22606 net.cpp:86] Creating Layer conv7_3/3x3_dwconv/SE_weights
I0906 17:47:28.166029 22606 net.cpp:408] conv7_3/3x3_dwconv/SE_weights <- conv7_3/3x3_dwconv/SE_fc2
I0906 17:47:28.166035 22606 net.cpp:369] conv7_3/3x3_dwconv/SE_weights -> conv7_3/3x3_dwconv/SE_fc2 (in-place)
I0906 17:47:28.166803 22606 net.cpp:124] Setting up conv7_3/3x3_dwconv/SE_weights
I0906 17:47:28.166817 22606 net.cpp:131] Top shape: 50 576 1 1 (28800)
I0906 17:47:28.166821 22606 net.cpp:139] Memory required for data: 4392581000
I0906 17:47:28.166826 22606 layer_factory.hpp:77] Creating layer conv7_3/3x3_dwconv/SE_weights/reshape
I0906 17:47:28.166836 22606 net.cpp:86] Creating Layer conv7_3/3x3_dwconv/SE_weights/reshape
I0906 17:47:28.166841 22606 net.cpp:408] conv7_3/3x3_dwconv/SE_weights/reshape <- conv7_3/3x3_dwconv/SE_fc2
I0906 17:47:28.167110 22606 net.cpp:382] conv7_3/3x3_dwconv/SE_weights/reshape -> conv7_3/3x3_dwconv/SE_weights/reshape
I0906 17:47:28.167173 22606 net.cpp:124] Setting up conv7_3/3x3_dwconv/SE_weights/reshape
I0906 17:47:28.167181 22606 net.cpp:131] Top shape: 50 576 (28800)
I0906 17:47:28.167186 22606 net.cpp:139] Memory required for data: 4392696200
I0906 17:47:28.167188 22606 layer_factory.hpp:77] Creating layer conv7_3/3x3_dwconv/scale
I0906 17:47:28.167196 22606 net.cpp:86] Creating Layer conv7_3/3x3_dwconv/scale
I0906 17:47:28.167201 22606 net.cpp:408] conv7_3/3x3_dwconv/scale <- conv7_3/3x3_dwconv/concat_conv7_3/3x3_dwconv/concat_fixed_point_0_split_1
I0906 17:47:28.167207 22606 net.cpp:408] conv7_3/3x3_dwconv/scale <- conv7_3/3x3_dwconv/SE_weights/reshape
I0906 17:47:28.167212 22606 net.cpp:382] conv7_3/3x3_dwconv/scale -> conv7_3/3x3_dwconv/scale
I0906 17:47:28.167326 22606 net.cpp:124] Setting up conv7_3/3x3_dwconv/scale
I0906 17:47:28.167333 22606 net.cpp:131] Top shape: 50 576 7 7 (1411200)
I0906 17:47:28.167337 22606 net.cpp:139] Memory required for data: 4398341000
I0906 17:47:28.167340 22606 layer_factory.hpp:77] Creating layer conv7_3/3x3_dwconv/scale_fixed_point
I0906 17:47:28.167347 22606 net.cpp:86] Creating Layer conv7_3/3x3_dwconv/scale_fixed_point
I0906 17:47:28.167351 22606 net.cpp:408] conv7_3/3x3_dwconv/scale_fixed_point <- conv7_3/3x3_dwconv/scale
I0906 17:47:28.167358 22606 net.cpp:369] conv7_3/3x3_dwconv/scale_fixed_point -> conv7_3/3x3_dwconv/scale (in-place)
I0906 17:47:28.167402 22606 net.cpp:124] Setting up conv7_3/3x3_dwconv/scale_fixed_point
I0906 17:47:28.167407 22606 net.cpp:131] Top shape: 50 576 7 7 (1411200)
I0906 17:47:28.167410 22606 net.cpp:139] Memory required for data: 4403985800
I0906 17:47:28.167429 22606 layer_factory.hpp:77] Creating layer conv7_3/1x1_decrease
I0906 17:47:28.167449 22606 net.cpp:86] Creating Layer conv7_3/1x1_decrease
I0906 17:47:28.167454 22606 net.cpp:408] conv7_3/1x1_decrease <- conv7_3/3x3_dwconv/scale
I0906 17:47:28.167462 22606 net.cpp:382] conv7_3/1x1_decrease -> conv7_3/1x1_decrease/bn
I0906 17:47:28.171762 22606 net.cpp:124] Setting up conv7_3/1x1_decrease
I0906 17:47:28.171797 22606 net.cpp:131] Top shape: 50 192 7 7 (470400)
I0906 17:47:28.171802 22606 net.cpp:139] Memory required for data: 4405867400
I0906 17:47:28.171813 22606 layer_factory.hpp:77] Creating layer conv7_3/elt_sum
I0906 17:47:28.171823 22606 net.cpp:86] Creating Layer conv7_3/elt_sum
I0906 17:47:28.171830 22606 net.cpp:408] conv7_3/elt_sum <- conv7_2/elt_sum_conv7_2/elt_sum_fixed_point_0_split_1
I0906 17:47:28.171838 22606 net.cpp:408] conv7_3/elt_sum <- conv7_3/1x1_decrease/bn
I0906 17:47:28.171844 22606 net.cpp:382] conv7_3/elt_sum -> conv7_3/elt_sum
I0906 17:47:28.171936 22606 net.cpp:124] Setting up conv7_3/elt_sum
I0906 17:47:28.171943 22606 net.cpp:131] Top shape: 50 192 7 7 (470400)
I0906 17:47:28.171947 22606 net.cpp:139] Memory required for data: 4407749000
I0906 17:47:28.171950 22606 layer_factory.hpp:77] Creating layer conv7_3/elt_sum_fixed_point
I0906 17:47:28.171962 22606 net.cpp:86] Creating Layer conv7_3/elt_sum_fixed_point
I0906 17:47:28.171967 22606 net.cpp:408] conv7_3/elt_sum_fixed_point <- conv7_3/elt_sum
I0906 17:47:28.171972 22606 net.cpp:369] conv7_3/elt_sum_fixed_point -> conv7_3/elt_sum (in-place)
I0906 17:47:28.172017 22606 net.cpp:124] Setting up conv7_3/elt_sum_fixed_point
I0906 17:47:28.172024 22606 net.cpp:131] Top shape: 50 192 7 7 (470400)
I0906 17:47:28.172027 22606 net.cpp:139] Memory required for data: 4409630600
I0906 17:47:28.172047 22606 layer_factory.hpp:77] Creating layer conv7_3/elt_sum_conv7_3/elt_sum_fixed_point_0_split
I0906 17:47:28.172055 22606 net.cpp:86] Creating Layer conv7_3/elt_sum_conv7_3/elt_sum_fixed_point_0_split
I0906 17:47:28.172060 22606 net.cpp:408] conv7_3/elt_sum_conv7_3/elt_sum_fixed_point_0_split <- conv7_3/elt_sum
I0906 17:47:28.172067 22606 net.cpp:382] conv7_3/elt_sum_conv7_3/elt_sum_fixed_point_0_split -> conv7_3/elt_sum_conv7_3/elt_sum_fixed_point_0_split_0
I0906 17:47:28.172075 22606 net.cpp:382] conv7_3/elt_sum_conv7_3/elt_sum_fixed_point_0_split -> conv7_3/elt_sum_conv7_3/elt_sum_fixed_point_0_split_1
I0906 17:47:28.172132 22606 net.cpp:124] Setting up conv7_3/elt_sum_conv7_3/elt_sum_fixed_point_0_split
I0906 17:47:28.172138 22606 net.cpp:131] Top shape: 50 192 7 7 (470400)
I0906 17:47:28.172142 22606 net.cpp:131] Top shape: 50 192 7 7 (470400)
I0906 17:47:28.172145 22606 net.cpp:139] Memory required for data: 4413393800
I0906 17:47:28.172148 22606 layer_factory.hpp:77] Creating layer conv7_4/1x1_increase
I0906 17:47:28.172171 22606 net.cpp:86] Creating Layer conv7_4/1x1_increase
I0906 17:47:28.172176 22606 net.cpp:408] conv7_4/1x1_increase <- conv7_3/elt_sum_conv7_3/elt_sum_fixed_point_0_split_0
I0906 17:47:28.172185 22606 net.cpp:382] conv7_4/1x1_increase -> conv7_4/1x1_increase/bn
I0906 17:47:28.176535 22606 net.cpp:124] Setting up conv7_4/1x1_increase
I0906 17:47:28.176574 22606 net.cpp:131] Top shape: 50 576 7 7 (1411200)
I0906 17:47:28.176578 22606 net.cpp:139] Memory required for data: 4419038600
I0906 17:47:28.176590 22606 layer_factory.hpp:77] Creating layer conv7_4/1x1_increase/relu
I0906 17:47:28.176602 22606 net.cpp:86] Creating Layer conv7_4/1x1_increase/relu
I0906 17:47:28.176610 22606 net.cpp:408] conv7_4/1x1_increase/relu <- conv7_4/1x1_increase/bn
I0906 17:47:28.176618 22606 net.cpp:369] conv7_4/1x1_increase/relu -> conv7_4/1x1_increase/bn (in-place)
I0906 17:47:28.177445 22606 net.cpp:124] Setting up conv7_4/1x1_increase/relu
I0906 17:47:28.177464 22606 net.cpp:131] Top shape: 50 576 7 7 (1411200)
I0906 17:47:28.177467 22606 net.cpp:139] Memory required for data: 4424683400
I0906 17:47:28.177472 22606 layer_factory.hpp:77] Creating layer conv7_4/1x1_increase/bn_fixed_point
I0906 17:47:28.177484 22606 net.cpp:86] Creating Layer conv7_4/1x1_increase/bn_fixed_point
I0906 17:47:28.177489 22606 net.cpp:408] conv7_4/1x1_increase/bn_fixed_point <- conv7_4/1x1_increase/bn
I0906 17:47:28.177495 22606 net.cpp:369] conv7_4/1x1_increase/bn_fixed_point -> conv7_4/1x1_increase/bn (in-place)
I0906 17:47:28.177551 22606 net.cpp:124] Setting up conv7_4/1x1_increase/bn_fixed_point
I0906 17:47:28.177558 22606 net.cpp:131] Top shape: 50 576 7 7 (1411200)
I0906 17:47:28.177561 22606 net.cpp:139] Memory required for data: 4430328200
I0906 17:47:28.177584 22606 layer_factory.hpp:77] Creating layer conv7_4/1x1_increase/slice
I0906 17:47:28.177608 22606 net.cpp:86] Creating Layer conv7_4/1x1_increase/slice
I0906 17:47:28.177611 22606 net.cpp:408] conv7_4/1x1_increase/slice <- conv7_4/1x1_increase/bn
I0906 17:47:28.177618 22606 net.cpp:382] conv7_4/1x1_increase/slice -> conv7_4/1x1_increase/split1
I0906 17:47:28.177628 22606 net.cpp:382] conv7_4/1x1_increase/slice -> conv7_4/1x1_increase/split2
I0906 17:47:28.177662 22606 net.cpp:382] conv7_4/1x1_increase/slice -> conv7_4/1x1_increase/split3
I0906 17:47:28.177747 22606 net.cpp:124] Setting up conv7_4/1x1_increase/slice
I0906 17:47:28.177754 22606 net.cpp:131] Top shape: 50 192 7 7 (470400)
I0906 17:47:28.177758 22606 net.cpp:131] Top shape: 50 192 7 7 (470400)
I0906 17:47:28.177762 22606 net.cpp:131] Top shape: 50 192 7 7 (470400)
I0906 17:47:28.177765 22606 net.cpp:139] Memory required for data: 4435973000
I0906 17:47:28.177768 22606 layer_factory.hpp:77] Creating layer conv7_4/3x3_dwconv/slice_0
I0906 17:47:28.177783 22606 net.cpp:86] Creating Layer conv7_4/3x3_dwconv/slice_0
I0906 17:47:28.177788 22606 net.cpp:408] conv7_4/3x3_dwconv/slice_0 <- conv7_4/1x1_increase/split1
I0906 17:47:28.177800 22606 net.cpp:382] conv7_4/3x3_dwconv/slice_0 -> conv7_4/3x3_dwconv/slice_0/bn
I0906 17:47:28.178601 22606 net.cpp:124] Setting up conv7_4/3x3_dwconv/slice_0
I0906 17:47:28.178616 22606 net.cpp:131] Top shape: 50 192 7 7 (470400)
I0906 17:47:28.178619 22606 net.cpp:139] Memory required for data: 4437854600
I0906 17:47:28.178627 22606 layer_factory.hpp:77] Creating layer conv7_4/3x3_dwconv/slice_0/relu
I0906 17:47:28.178635 22606 net.cpp:86] Creating Layer conv7_4/3x3_dwconv/slice_0/relu
I0906 17:47:28.178640 22606 net.cpp:408] conv7_4/3x3_dwconv/slice_0/relu <- conv7_4/3x3_dwconv/slice_0/bn
I0906 17:47:28.178648 22606 net.cpp:369] conv7_4/3x3_dwconv/slice_0/relu -> conv7_4/3x3_dwconv/slice_0/bn (in-place)
I0906 17:47:28.179424 22606 net.cpp:124] Setting up conv7_4/3x3_dwconv/slice_0/relu
I0906 17:47:28.179440 22606 net.cpp:131] Top shape: 50 192 7 7 (470400)
I0906 17:47:28.179443 22606 net.cpp:139] Memory required for data: 4439736200
I0906 17:47:28.179447 22606 layer_factory.hpp:77] Creating layer conv7_4/3x3_dwconv/slice_1
I0906 17:47:28.179481 22606 net.cpp:86] Creating Layer conv7_4/3x3_dwconv/slice_1
I0906 17:47:28.179486 22606 net.cpp:408] conv7_4/3x3_dwconv/slice_1 <- conv7_4/1x1_increase/split2
I0906 17:47:28.179494 22606 net.cpp:382] conv7_4/3x3_dwconv/slice_1 -> conv7_4/3x3_dwconv/slice_1/bn
I0906 17:47:28.180428 22606 net.cpp:124] Setting up conv7_4/3x3_dwconv/slice_1
I0906 17:47:28.180442 22606 net.cpp:131] Top shape: 50 192 7 7 (470400)
I0906 17:47:28.180446 22606 net.cpp:139] Memory required for data: 4441617800
I0906 17:47:28.180467 22606 layer_factory.hpp:77] Creating layer conv7_4/3x3_dwconv/slice_1/relu
I0906 17:47:28.180477 22606 net.cpp:86] Creating Layer conv7_4/3x3_dwconv/slice_1/relu
I0906 17:47:28.180483 22606 net.cpp:408] conv7_4/3x3_dwconv/slice_1/relu <- conv7_4/3x3_dwconv/slice_1/bn
I0906 17:47:28.180490 22606 net.cpp:369] conv7_4/3x3_dwconv/slice_1/relu -> conv7_4/3x3_dwconv/slice_1/bn (in-place)
I0906 17:47:28.181669 22606 net.cpp:124] Setting up conv7_4/3x3_dwconv/slice_1/relu
I0906 17:47:28.181690 22606 net.cpp:131] Top shape: 50 192 7 7 (470400)
I0906 17:47:28.181694 22606 net.cpp:139] Memory required for data: 4443499400
I0906 17:47:28.181699 22606 layer_factory.hpp:77] Creating layer conv7_4/3x3_dwconv/slice_2
I0906 17:47:28.181713 22606 net.cpp:86] Creating Layer conv7_4/3x3_dwconv/slice_2
I0906 17:47:28.181720 22606 net.cpp:408] conv7_4/3x3_dwconv/slice_2 <- conv7_4/1x1_increase/split3
I0906 17:47:28.181727 22606 net.cpp:382] conv7_4/3x3_dwconv/slice_2 -> conv7_4/3x3_dwconv/slice_2/bn
I0906 17:47:28.183061 22606 net.cpp:124] Setting up conv7_4/3x3_dwconv/slice_2
I0906 17:47:28.183077 22606 net.cpp:131] Top shape: 50 192 7 7 (470400)
I0906 17:47:28.183081 22606 net.cpp:139] Memory required for data: 4445381000
I0906 17:47:28.183090 22606 layer_factory.hpp:77] Creating layer conv7_4/3x3_dwconv/slice_2/relu
I0906 17:47:28.183112 22606 net.cpp:86] Creating Layer conv7_4/3x3_dwconv/slice_2/relu
I0906 17:47:28.183117 22606 net.cpp:408] conv7_4/3x3_dwconv/slice_2/relu <- conv7_4/3x3_dwconv/slice_2/bn
I0906 17:47:28.183123 22606 net.cpp:369] conv7_4/3x3_dwconv/slice_2/relu -> conv7_4/3x3_dwconv/slice_2/bn (in-place)
I0906 17:47:28.183845 22606 net.cpp:124] Setting up conv7_4/3x3_dwconv/slice_2/relu
I0906 17:47:28.183859 22606 net.cpp:131] Top shape: 50 192 7 7 (470400)
I0906 17:47:28.183888 22606 net.cpp:139] Memory required for data: 4447262600
I0906 17:47:28.183893 22606 layer_factory.hpp:77] Creating layer conv7_4/3x3_dwconv/concat
I0906 17:47:28.183902 22606 net.cpp:86] Creating Layer conv7_4/3x3_dwconv/concat
I0906 17:47:28.183907 22606 net.cpp:408] conv7_4/3x3_dwconv/concat <- conv7_4/3x3_dwconv/slice_0/bn
I0906 17:47:28.183912 22606 net.cpp:408] conv7_4/3x3_dwconv/concat <- conv7_4/3x3_dwconv/slice_1/bn
I0906 17:47:28.183917 22606 net.cpp:408] conv7_4/3x3_dwconv/concat <- conv7_4/3x3_dwconv/slice_2/bn
I0906 17:47:28.183923 22606 net.cpp:382] conv7_4/3x3_dwconv/concat -> conv7_4/3x3_dwconv/concat
I0906 17:47:28.183975 22606 net.cpp:124] Setting up conv7_4/3x3_dwconv/concat
I0906 17:47:28.183982 22606 net.cpp:131] Top shape: 50 576 7 7 (1411200)
I0906 17:47:28.183986 22606 net.cpp:139] Memory required for data: 4452907400
I0906 17:47:28.184000 22606 layer_factory.hpp:77] Creating layer conv7_4/3x3_dwconv/concat_fixed_point
I0906 17:47:28.184011 22606 net.cpp:86] Creating Layer conv7_4/3x3_dwconv/concat_fixed_point
I0906 17:47:28.184016 22606 net.cpp:408] conv7_4/3x3_dwconv/concat_fixed_point <- conv7_4/3x3_dwconv/concat
I0906 17:47:28.184024 22606 net.cpp:369] conv7_4/3x3_dwconv/concat_fixed_point -> conv7_4/3x3_dwconv/concat (in-place)
I0906 17:47:28.184069 22606 net.cpp:124] Setting up conv7_4/3x3_dwconv/concat_fixed_point
I0906 17:47:28.184077 22606 net.cpp:131] Top shape: 50 576 7 7 (1411200)
I0906 17:47:28.184079 22606 net.cpp:139] Memory required for data: 4458552200
I0906 17:47:28.184084 22606 layer_factory.hpp:77] Creating layer conv7_4/3x3_dwconv/concat_conv7_4/3x3_dwconv/concat_fixed_point_0_split
I0906 17:47:28.184092 22606 net.cpp:86] Creating Layer conv7_4/3x3_dwconv/concat_conv7_4/3x3_dwconv/concat_fixed_point_0_split
I0906 17:47:28.184095 22606 net.cpp:408] conv7_4/3x3_dwconv/concat_conv7_4/3x3_dwconv/concat_fixed_point_0_split <- conv7_4/3x3_dwconv/concat
I0906 17:47:28.184103 22606 net.cpp:382] conv7_4/3x3_dwconv/concat_conv7_4/3x3_dwconv/concat_fixed_point_0_split -> conv7_4/3x3_dwconv/concat_conv7_4/3x3_dwconv/concat_fixed_point_0_split_0
I0906 17:47:28.184110 22606 net.cpp:382] conv7_4/3x3_dwconv/concat_conv7_4/3x3_dwconv/concat_fixed_point_0_split -> conv7_4/3x3_dwconv/concat_conv7_4/3x3_dwconv/concat_fixed_point_0_split_1
I0906 17:47:28.184165 22606 net.cpp:124] Setting up conv7_4/3x3_dwconv/concat_conv7_4/3x3_dwconv/concat_fixed_point_0_split
I0906 17:47:28.184171 22606 net.cpp:131] Top shape: 50 576 7 7 (1411200)
I0906 17:47:28.184176 22606 net.cpp:131] Top shape: 50 576 7 7 (1411200)
I0906 17:47:28.184180 22606 net.cpp:139] Memory required for data: 4469841800
I0906 17:47:28.184182 22606 layer_factory.hpp:77] Creating layer conv7_4/3x3_dwconv/SE_global_pool
I0906 17:47:28.184204 22606 net.cpp:86] Creating Layer conv7_4/3x3_dwconv/SE_global_pool
I0906 17:47:28.184208 22606 net.cpp:408] conv7_4/3x3_dwconv/SE_global_pool <- conv7_4/3x3_dwconv/concat_conv7_4/3x3_dwconv/concat_fixed_point_0_split_0
I0906 17:47:28.184214 22606 net.cpp:382] conv7_4/3x3_dwconv/SE_global_pool -> conv7_4/3x3_dwconv/SE_global_pool
I0906 17:47:28.184283 22606 net.cpp:124] Setting up conv7_4/3x3_dwconv/SE_global_pool
I0906 17:47:28.184291 22606 net.cpp:131] Top shape: 50 576 1 1 (28800)
I0906 17:47:28.184294 22606 net.cpp:139] Memory required for data: 4469957000
I0906 17:47:28.184298 22606 layer_factory.hpp:77] Creating layer conv7_4/3x3_dwconv/SE_fc1
I0906 17:47:28.184317 22606 net.cpp:86] Creating Layer conv7_4/3x3_dwconv/SE_fc1
I0906 17:47:28.184322 22606 net.cpp:408] conv7_4/3x3_dwconv/SE_fc1 <- conv7_4/3x3_dwconv/SE_global_pool
I0906 17:47:28.184330 22606 net.cpp:382] conv7_4/3x3_dwconv/SE_fc1 -> conv7_4/3x3_dwconv/SE_fc1
I0906 17:47:28.185482 22606 net.cpp:124] Setting up conv7_4/3x3_dwconv/SE_fc1
I0906 17:47:28.185495 22606 net.cpp:131] Top shape: 50 36 1 1 (1800)
I0906 17:47:28.185499 22606 net.cpp:139] Memory required for data: 4469964200
I0906 17:47:28.185506 22606 layer_factory.hpp:77] Creating layer conv7_4/3x3_dwconv/SE_fc1/relu
I0906 17:47:28.185530 22606 net.cpp:86] Creating Layer conv7_4/3x3_dwconv/SE_fc1/relu
I0906 17:47:28.185535 22606 net.cpp:408] conv7_4/3x3_dwconv/SE_fc1/relu <- conv7_4/3x3_dwconv/SE_fc1
I0906 17:47:28.185541 22606 net.cpp:369] conv7_4/3x3_dwconv/SE_fc1/relu -> conv7_4/3x3_dwconv/SE_fc1 (in-place)
I0906 17:47:28.186635 22606 net.cpp:124] Setting up conv7_4/3x3_dwconv/SE_fc1/relu
I0906 17:47:28.186655 22606 net.cpp:131] Top shape: 50 36 1 1 (1800)
I0906 17:47:28.186658 22606 net.cpp:139] Memory required for data: 4469971400
I0906 17:47:28.186662 22606 layer_factory.hpp:77] Creating layer conv7_4/3x3_dwconv/SE_fc2
I0906 17:47:28.186687 22606 net.cpp:86] Creating Layer conv7_4/3x3_dwconv/SE_fc2
I0906 17:47:28.186692 22606 net.cpp:408] conv7_4/3x3_dwconv/SE_fc2 <- conv7_4/3x3_dwconv/SE_fc1
I0906 17:47:28.186702 22606 net.cpp:382] conv7_4/3x3_dwconv/SE_fc2 -> conv7_4/3x3_dwconv/SE_fc2
I0906 17:47:28.187896 22606 net.cpp:124] Setting up conv7_4/3x3_dwconv/SE_fc2
I0906 17:47:28.187913 22606 net.cpp:131] Top shape: 50 576 1 1 (28800)
I0906 17:47:28.187917 22606 net.cpp:139] Memory required for data: 4470086600
I0906 17:47:28.187925 22606 layer_factory.hpp:77] Creating layer conv7_4/3x3_dwconv/SE_weights
I0906 17:47:28.187933 22606 net.cpp:86] Creating Layer conv7_4/3x3_dwconv/SE_weights
I0906 17:47:28.187938 22606 net.cpp:408] conv7_4/3x3_dwconv/SE_weights <- conv7_4/3x3_dwconv/SE_fc2
I0906 17:47:28.187947 22606 net.cpp:369] conv7_4/3x3_dwconv/SE_weights -> conv7_4/3x3_dwconv/SE_fc2 (in-place)
I0906 17:47:28.189082 22606 net.cpp:124] Setting up conv7_4/3x3_dwconv/SE_weights
I0906 17:47:28.189102 22606 net.cpp:131] Top shape: 50 576 1 1 (28800)
I0906 17:47:28.189107 22606 net.cpp:139] Memory required for data: 4470201800
I0906 17:47:28.189112 22606 layer_factory.hpp:77] Creating layer conv7_4/3x3_dwconv/SE_weights/reshape
I0906 17:47:28.189123 22606 net.cpp:86] Creating Layer conv7_4/3x3_dwconv/SE_weights/reshape
I0906 17:47:28.189129 22606 net.cpp:408] conv7_4/3x3_dwconv/SE_weights/reshape <- conv7_4/3x3_dwconv/SE_fc2
I0906 17:47:28.189139 22606 net.cpp:382] conv7_4/3x3_dwconv/SE_weights/reshape -> conv7_4/3x3_dwconv/SE_weights/reshape
I0906 17:47:28.189194 22606 net.cpp:124] Setting up conv7_4/3x3_dwconv/SE_weights/reshape
I0906 17:47:28.189203 22606 net.cpp:131] Top shape: 50 576 (28800)
I0906 17:47:28.189206 22606 net.cpp:139] Memory required for data: 4470317000
I0906 17:47:28.189210 22606 layer_factory.hpp:77] Creating layer conv7_4/3x3_dwconv/scale
I0906 17:47:28.189231 22606 net.cpp:86] Creating Layer conv7_4/3x3_dwconv/scale
I0906 17:47:28.189236 22606 net.cpp:408] conv7_4/3x3_dwconv/scale <- conv7_4/3x3_dwconv/concat_conv7_4/3x3_dwconv/concat_fixed_point_0_split_1
I0906 17:47:28.189242 22606 net.cpp:408] conv7_4/3x3_dwconv/scale <- conv7_4/3x3_dwconv/SE_weights/reshape
I0906 17:47:28.189261 22606 net.cpp:382] conv7_4/3x3_dwconv/scale -> conv7_4/3x3_dwconv/scale
I0906 17:47:28.189399 22606 net.cpp:124] Setting up conv7_4/3x3_dwconv/scale
I0906 17:47:28.189407 22606 net.cpp:131] Top shape: 50 576 7 7 (1411200)
I0906 17:47:28.189411 22606 net.cpp:139] Memory required for data: 4475961800
I0906 17:47:28.189414 22606 layer_factory.hpp:77] Creating layer conv7_4/3x3_dwconv/scale_fixed_point
I0906 17:47:28.189424 22606 net.cpp:86] Creating Layer conv7_4/3x3_dwconv/scale_fixed_point
I0906 17:47:28.189429 22606 net.cpp:408] conv7_4/3x3_dwconv/scale_fixed_point <- conv7_4/3x3_dwconv/scale
I0906 17:47:28.189435 22606 net.cpp:369] conv7_4/3x3_dwconv/scale_fixed_point -> conv7_4/3x3_dwconv/scale (in-place)
I0906 17:47:28.189484 22606 net.cpp:124] Setting up conv7_4/3x3_dwconv/scale_fixed_point
I0906 17:47:28.189491 22606 net.cpp:131] Top shape: 50 576 7 7 (1411200)
I0906 17:47:28.189494 22606 net.cpp:139] Memory required for data: 4481606600
I0906 17:47:28.189501 22606 layer_factory.hpp:77] Creating layer conv7_4/1x1_decrease
I0906 17:47:28.189514 22606 net.cpp:86] Creating Layer conv7_4/1x1_decrease
I0906 17:47:28.189518 22606 net.cpp:408] conv7_4/1x1_decrease <- conv7_4/3x3_dwconv/scale
I0906 17:47:28.189527 22606 net.cpp:382] conv7_4/1x1_decrease -> conv7_4/1x1_decrease/bn
I0906 17:47:28.195479 22606 net.cpp:124] Setting up conv7_4/1x1_decrease
I0906 17:47:28.195519 22606 net.cpp:131] Top shape: 50 192 7 7 (470400)
I0906 17:47:28.195523 22606 net.cpp:139] Memory required for data: 4483488200
I0906 17:47:28.195536 22606 layer_factory.hpp:77] Creating layer conv7_4/elt_sum
I0906 17:47:28.195567 22606 net.cpp:86] Creating Layer conv7_4/elt_sum
I0906 17:47:28.195575 22606 net.cpp:408] conv7_4/elt_sum <- conv7_3/elt_sum_conv7_3/elt_sum_fixed_point_0_split_1
I0906 17:47:28.195585 22606 net.cpp:408] conv7_4/elt_sum <- conv7_4/1x1_decrease/bn
I0906 17:47:28.195597 22606 net.cpp:382] conv7_4/elt_sum -> conv7_4/elt_sum
I0906 17:47:28.195653 22606 net.cpp:124] Setting up conv7_4/elt_sum
I0906 17:47:28.195662 22606 net.cpp:131] Top shape: 50 192 7 7 (470400)
I0906 17:47:28.195664 22606 net.cpp:139] Memory required for data: 4485369800
I0906 17:47:28.195668 22606 layer_factory.hpp:77] Creating layer conv7_4/elt_sum_fixed_point
I0906 17:47:28.195679 22606 net.cpp:86] Creating Layer conv7_4/elt_sum_fixed_point
I0906 17:47:28.195683 22606 net.cpp:408] conv7_4/elt_sum_fixed_point <- conv7_4/elt_sum
I0906 17:47:28.195691 22606 net.cpp:369] conv7_4/elt_sum_fixed_point -> conv7_4/elt_sum (in-place)
I0906 17:47:28.195729 22606 net.cpp:124] Setting up conv7_4/elt_sum_fixed_point
I0906 17:47:28.195734 22606 net.cpp:131] Top shape: 50 192 7 7 (470400)
I0906 17:47:28.195737 22606 net.cpp:139] Memory required for data: 4487251400
I0906 17:47:28.195742 22606 layer_factory.hpp:77] Creating layer conv8_0/1x1_increase
I0906 17:47:28.195758 22606 net.cpp:86] Creating Layer conv8_0/1x1_increase
I0906 17:47:28.195763 22606 net.cpp:408] conv8_0/1x1_increase <- conv7_4/elt_sum
I0906 17:47:28.195770 22606 net.cpp:382] conv8_0/1x1_increase -> conv8_0/1x1_increase/bn
I0906 17:47:28.203606 22606 net.cpp:124] Setting up conv8_0/1x1_increase
I0906 17:47:28.203646 22606 net.cpp:131] Top shape: 50 1152 7 7 (2822400)
I0906 17:47:28.203650 22606 net.cpp:139] Memory required for data: 4498541000
I0906 17:47:28.203691 22606 layer_factory.hpp:77] Creating layer conv8_0/1x1_increase/relu
I0906 17:47:28.203716 22606 net.cpp:86] Creating Layer conv8_0/1x1_increase/relu
I0906 17:47:28.203727 22606 net.cpp:408] conv8_0/1x1_increase/relu <- conv8_0/1x1_increase/bn
I0906 17:47:28.203737 22606 net.cpp:369] conv8_0/1x1_increase/relu -> conv8_0/1x1_increase/bn (in-place)
I0906 17:47:28.204565 22606 net.cpp:124] Setting up conv8_0/1x1_increase/relu
I0906 17:47:28.204582 22606 net.cpp:131] Top shape: 50 1152 7 7 (2822400)
I0906 17:47:28.204587 22606 net.cpp:139] Memory required for data: 4509830600
I0906 17:47:28.204591 22606 layer_factory.hpp:77] Creating layer conv8_0/1x1_increase/bn_fixed_point
I0906 17:47:28.204603 22606 net.cpp:86] Creating Layer conv8_0/1x1_increase/bn_fixed_point
I0906 17:47:28.204609 22606 net.cpp:408] conv8_0/1x1_increase/bn_fixed_point <- conv8_0/1x1_increase/bn
I0906 17:47:28.204615 22606 net.cpp:369] conv8_0/1x1_increase/bn_fixed_point -> conv8_0/1x1_increase/bn (in-place)
I0906 17:47:28.204679 22606 net.cpp:124] Setting up conv8_0/1x1_increase/bn_fixed_point
I0906 17:47:28.204686 22606 net.cpp:131] Top shape: 50 1152 7 7 (2822400)
I0906 17:47:28.204690 22606 net.cpp:139] Memory required for data: 4521120200
I0906 17:47:28.204696 22606 layer_factory.hpp:77] Creating layer conv8_0/1x1_increase/slice
I0906 17:47:28.204717 22606 net.cpp:86] Creating Layer conv8_0/1x1_increase/slice
I0906 17:47:28.204722 22606 net.cpp:408] conv8_0/1x1_increase/slice <- conv8_0/1x1_increase/bn
I0906 17:47:28.204730 22606 net.cpp:382] conv8_0/1x1_increase/slice -> conv8_0/1x1_increase/split1
I0906 17:47:28.204740 22606 net.cpp:382] conv8_0/1x1_increase/slice -> conv8_0/1x1_increase/split2
I0906 17:47:28.204746 22606 net.cpp:382] conv8_0/1x1_increase/slice -> conv8_0/1x1_increase/split3
I0906 17:47:28.204836 22606 net.cpp:124] Setting up conv8_0/1x1_increase/slice
I0906 17:47:28.204843 22606 net.cpp:131] Top shape: 50 384 7 7 (940800)
I0906 17:47:28.204849 22606 net.cpp:131] Top shape: 50 384 7 7 (940800)
I0906 17:47:28.204879 22606 net.cpp:131] Top shape: 50 384 7 7 (940800)
I0906 17:47:28.204882 22606 net.cpp:139] Memory required for data: 4532409800
I0906 17:47:28.204886 22606 layer_factory.hpp:77] Creating layer conv8_0/3x3_dwconv/slice_0
I0906 17:47:28.204901 22606 net.cpp:86] Creating Layer conv8_0/3x3_dwconv/slice_0
I0906 17:47:28.204906 22606 net.cpp:408] conv8_0/3x3_dwconv/slice_0 <- conv8_0/1x1_increase/split1
I0906 17:47:28.204915 22606 net.cpp:382] conv8_0/3x3_dwconv/slice_0 -> conv8_0/3x3_dwconv/slice_0/bn
I0906 17:47:28.205766 22606 net.cpp:124] Setting up conv8_0/3x3_dwconv/slice_0
I0906 17:47:28.205781 22606 net.cpp:131] Top shape: 50 384 7 7 (940800)
I0906 17:47:28.205785 22606 net.cpp:139] Memory required for data: 4536173000
I0906 17:47:28.205803 22606 layer_factory.hpp:77] Creating layer conv8_0/3x3_dwconv/slice_0/relu
I0906 17:47:28.205814 22606 net.cpp:86] Creating Layer conv8_0/3x3_dwconv/slice_0/relu
I0906 17:47:28.205819 22606 net.cpp:408] conv8_0/3x3_dwconv/slice_0/relu <- conv8_0/3x3_dwconv/slice_0/bn
I0906 17:47:28.205826 22606 net.cpp:369] conv8_0/3x3_dwconv/slice_0/relu -> conv8_0/3x3_dwconv/slice_0/bn (in-place)
I0906 17:47:28.206625 22606 net.cpp:124] Setting up conv8_0/3x3_dwconv/slice_0/relu
I0906 17:47:28.206638 22606 net.cpp:131] Top shape: 50 384 7 7 (940800)
I0906 17:47:28.206642 22606 net.cpp:139] Memory required for data: 4539936200
I0906 17:47:28.206646 22606 layer_factory.hpp:77] Creating layer conv8_0/3x3_dwconv/slice_1
I0906 17:47:28.206671 22606 net.cpp:86] Creating Layer conv8_0/3x3_dwconv/slice_1
I0906 17:47:28.206679 22606 net.cpp:408] conv8_0/3x3_dwconv/slice_1 <- conv8_0/1x1_increase/split2
I0906 17:47:28.206687 22606 net.cpp:382] conv8_0/3x3_dwconv/slice_1 -> conv8_0/3x3_dwconv/slice_1/bn
I0906 17:47:28.208178 22606 net.cpp:124] Setting up conv8_0/3x3_dwconv/slice_1
I0906 17:47:28.208199 22606 net.cpp:131] Top shape: 50 384 7 7 (940800)
I0906 17:47:28.208204 22606 net.cpp:139] Memory required for data: 4543699400
I0906 17:47:28.208223 22606 layer_factory.hpp:77] Creating layer conv8_0/3x3_dwconv/slice_1/relu
I0906 17:47:28.208235 22606 net.cpp:86] Creating Layer conv8_0/3x3_dwconv/slice_1/relu
I0906 17:47:28.208240 22606 net.cpp:408] conv8_0/3x3_dwconv/slice_1/relu <- conv8_0/3x3_dwconv/slice_1/bn
I0906 17:47:28.208246 22606 net.cpp:369] conv8_0/3x3_dwconv/slice_1/relu -> conv8_0/3x3_dwconv/slice_1/bn (in-place)
I0906 17:47:28.209302 22606 net.cpp:124] Setting up conv8_0/3x3_dwconv/slice_1/relu
I0906 17:47:28.209319 22606 net.cpp:131] Top shape: 50 384 7 7 (940800)
I0906 17:47:28.209324 22606 net.cpp:139] Memory required for data: 4547462600
I0906 17:47:28.209328 22606 layer_factory.hpp:77] Creating layer conv8_0/3x3_dwconv/slice_2
I0906 17:47:28.209343 22606 net.cpp:86] Creating Layer conv8_0/3x3_dwconv/slice_2
I0906 17:47:28.209348 22606 net.cpp:408] conv8_0/3x3_dwconv/slice_2 <- conv8_0/1x1_increase/split3
I0906 17:47:28.209358 22606 net.cpp:382] conv8_0/3x3_dwconv/slice_2 -> conv8_0/3x3_dwconv/slice_2/bn
I0906 17:47:28.210930 22606 net.cpp:124] Setting up conv8_0/3x3_dwconv/slice_2
I0906 17:47:28.210947 22606 net.cpp:131] Top shape: 50 384 7 7 (940800)
I0906 17:47:28.210952 22606 net.cpp:139] Memory required for data: 4551225800
I0906 17:47:28.210960 22606 layer_factory.hpp:77] Creating layer conv8_0/3x3_dwconv/slice_2/relu
I0906 17:47:28.210983 22606 net.cpp:86] Creating Layer conv8_0/3x3_dwconv/slice_2/relu
I0906 17:47:28.210989 22606 net.cpp:408] conv8_0/3x3_dwconv/slice_2/relu <- conv8_0/3x3_dwconv/slice_2/bn
I0906 17:47:28.210995 22606 net.cpp:369] conv8_0/3x3_dwconv/slice_2/relu -> conv8_0/3x3_dwconv/slice_2/bn (in-place)
I0906 17:47:28.211720 22606 net.cpp:124] Setting up conv8_0/3x3_dwconv/slice_2/relu
I0906 17:47:28.211733 22606 net.cpp:131] Top shape: 50 384 7 7 (940800)
I0906 17:47:28.211738 22606 net.cpp:139] Memory required for data: 4554989000
I0906 17:47:28.211742 22606 layer_factory.hpp:77] Creating layer conv8_0/3x3_dwconv/concat
I0906 17:47:28.211751 22606 net.cpp:86] Creating Layer conv8_0/3x3_dwconv/concat
I0906 17:47:28.211756 22606 net.cpp:408] conv8_0/3x3_dwconv/concat <- conv8_0/3x3_dwconv/slice_0/bn
I0906 17:47:28.211786 22606 net.cpp:408] conv8_0/3x3_dwconv/concat <- conv8_0/3x3_dwconv/slice_1/bn
I0906 17:47:28.211791 22606 net.cpp:408] conv8_0/3x3_dwconv/concat <- conv8_0/3x3_dwconv/slice_2/bn
I0906 17:47:28.211798 22606 net.cpp:382] conv8_0/3x3_dwconv/concat -> conv8_0/3x3_dwconv/concat
I0906 17:47:28.211848 22606 net.cpp:124] Setting up conv8_0/3x3_dwconv/concat
I0906 17:47:28.211855 22606 net.cpp:131] Top shape: 50 1152 7 7 (2822400)
I0906 17:47:28.211858 22606 net.cpp:139] Memory required for data: 4566278600
I0906 17:47:28.211863 22606 layer_factory.hpp:77] Creating layer conv8_0/3x3_dwconv/concat_fixed_point
I0906 17:47:28.211869 22606 net.cpp:86] Creating Layer conv8_0/3x3_dwconv/concat_fixed_point
I0906 17:47:28.211872 22606 net.cpp:408] conv8_0/3x3_dwconv/concat_fixed_point <- conv8_0/3x3_dwconv/concat
I0906 17:47:28.211880 22606 net.cpp:369] conv8_0/3x3_dwconv/concat_fixed_point -> conv8_0/3x3_dwconv/concat (in-place)
I0906 17:47:28.211923 22606 net.cpp:124] Setting up conv8_0/3x3_dwconv/concat_fixed_point
I0906 17:47:28.211931 22606 net.cpp:131] Top shape: 50 1152 7 7 (2822400)
I0906 17:47:28.211935 22606 net.cpp:139] Memory required for data: 4577568200
I0906 17:47:28.211939 22606 layer_factory.hpp:77] Creating layer conv8_0/3x3_dwconv/concat_conv8_0/3x3_dwconv/concat_fixed_point_0_split
I0906 17:47:28.211947 22606 net.cpp:86] Creating Layer conv8_0/3x3_dwconv/concat_conv8_0/3x3_dwconv/concat_fixed_point_0_split
I0906 17:47:28.211951 22606 net.cpp:408] conv8_0/3x3_dwconv/concat_conv8_0/3x3_dwconv/concat_fixed_point_0_split <- conv8_0/3x3_dwconv/concat
I0906 17:47:28.211956 22606 net.cpp:382] conv8_0/3x3_dwconv/concat_conv8_0/3x3_dwconv/concat_fixed_point_0_split -> conv8_0/3x3_dwconv/concat_conv8_0/3x3_dwconv/concat_fixed_point_0_split_0
I0906 17:47:28.211966 22606 net.cpp:382] conv8_0/3x3_dwconv/concat_conv8_0/3x3_dwconv/concat_fixed_point_0_split -> conv8_0/3x3_dwconv/concat_conv8_0/3x3_dwconv/concat_fixed_point_0_split_1
I0906 17:47:28.212026 22606 net.cpp:124] Setting up conv8_0/3x3_dwconv/concat_conv8_0/3x3_dwconv/concat_fixed_point_0_split
I0906 17:47:28.212034 22606 net.cpp:131] Top shape: 50 1152 7 7 (2822400)
I0906 17:47:28.212038 22606 net.cpp:131] Top shape: 50 1152 7 7 (2822400)
I0906 17:47:28.212041 22606 net.cpp:139] Memory required for data: 4600147400
I0906 17:47:28.212045 22606 layer_factory.hpp:77] Creating layer conv8_0/3x3_dwconv/SE_global_pool
I0906 17:47:28.212065 22606 net.cpp:86] Creating Layer conv8_0/3x3_dwconv/SE_global_pool
I0906 17:47:28.212070 22606 net.cpp:408] conv8_0/3x3_dwconv/SE_global_pool <- conv8_0/3x3_dwconv/concat_conv8_0/3x3_dwconv/concat_fixed_point_0_split_0
I0906 17:47:28.212075 22606 net.cpp:382] conv8_0/3x3_dwconv/SE_global_pool -> conv8_0/3x3_dwconv/SE_global_pool
I0906 17:47:28.212114 22606 net.cpp:124] Setting up conv8_0/3x3_dwconv/SE_global_pool
I0906 17:47:28.212121 22606 net.cpp:131] Top shape: 50 1152 1 1 (57600)
I0906 17:47:28.212126 22606 net.cpp:139] Memory required for data: 4600377800
I0906 17:47:28.212128 22606 layer_factory.hpp:77] Creating layer conv8_0/3x3_dwconv/SE_fc1
I0906 17:47:28.212141 22606 net.cpp:86] Creating Layer conv8_0/3x3_dwconv/SE_fc1
I0906 17:47:28.212144 22606 net.cpp:408] conv8_0/3x3_dwconv/SE_fc1 <- conv8_0/3x3_dwconv/SE_global_pool
I0906 17:47:28.212152 22606 net.cpp:382] conv8_0/3x3_dwconv/SE_fc1 -> conv8_0/3x3_dwconv/SE_fc1
I0906 17:47:28.215292 22606 net.cpp:124] Setting up conv8_0/3x3_dwconv/SE_fc1
I0906 17:47:28.215312 22606 net.cpp:131] Top shape: 50 72 1 1 (3600)
I0906 17:47:28.215317 22606 net.cpp:139] Memory required for data: 4600392200
I0906 17:47:28.215323 22606 layer_factory.hpp:77] Creating layer conv8_0/3x3_dwconv/SE_fc1/relu
I0906 17:47:28.215330 22606 net.cpp:86] Creating Layer conv8_0/3x3_dwconv/SE_fc1/relu
I0906 17:47:28.215335 22606 net.cpp:408] conv8_0/3x3_dwconv/SE_fc1/relu <- conv8_0/3x3_dwconv/SE_fc1
I0906 17:47:28.215342 22606 net.cpp:369] conv8_0/3x3_dwconv/SE_fc1/relu -> conv8_0/3x3_dwconv/SE_fc1 (in-place)
I0906 17:47:28.216092 22606 net.cpp:124] Setting up conv8_0/3x3_dwconv/SE_fc1/relu
I0906 17:47:28.216127 22606 net.cpp:131] Top shape: 50 72 1 1 (3600)
I0906 17:47:28.216132 22606 net.cpp:139] Memory required for data: 4600406600
I0906 17:47:28.216136 22606 layer_factory.hpp:77] Creating layer conv8_0/3x3_dwconv/SE_fc2
I0906 17:47:28.216171 22606 net.cpp:86] Creating Layer conv8_0/3x3_dwconv/SE_fc2
I0906 17:47:28.216177 22606 net.cpp:408] conv8_0/3x3_dwconv/SE_fc2 <- conv8_0/3x3_dwconv/SE_fc1
I0906 17:47:28.216187 22606 net.cpp:382] conv8_0/3x3_dwconv/SE_fc2 -> conv8_0/3x3_dwconv/SE_fc2
I0906 17:47:28.219501 22606 net.cpp:124] Setting up conv8_0/3x3_dwconv/SE_fc2
I0906 17:47:28.219525 22606 net.cpp:131] Top shape: 50 1152 1 1 (57600)
I0906 17:47:28.219529 22606 net.cpp:139] Memory required for data: 4600637000
I0906 17:47:28.219538 22606 layer_factory.hpp:77] Creating layer conv8_0/3x3_dwconv/SE_weights
I0906 17:47:28.219547 22606 net.cpp:86] Creating Layer conv8_0/3x3_dwconv/SE_weights
I0906 17:47:28.219553 22606 net.cpp:408] conv8_0/3x3_dwconv/SE_weights <- conv8_0/3x3_dwconv/SE_fc2
I0906 17:47:28.219560 22606 net.cpp:369] conv8_0/3x3_dwconv/SE_weights -> conv8_0/3x3_dwconv/SE_fc2 (in-place)
I0906 17:47:28.220760 22606 net.cpp:124] Setting up conv8_0/3x3_dwconv/SE_weights
I0906 17:47:28.220782 22606 net.cpp:131] Top shape: 50 1152 1 1 (57600)
I0906 17:47:28.220785 22606 net.cpp:139] Memory required for data: 4600867400
I0906 17:47:28.220789 22606 layer_factory.hpp:77] Creating layer conv8_0/3x3_dwconv/SE_weights/reshape
I0906 17:47:28.220803 22606 net.cpp:86] Creating Layer conv8_0/3x3_dwconv/SE_weights/reshape
I0906 17:47:28.220808 22606 net.cpp:408] conv8_0/3x3_dwconv/SE_weights/reshape <- conv8_0/3x3_dwconv/SE_fc2
I0906 17:47:28.220815 22606 net.cpp:382] conv8_0/3x3_dwconv/SE_weights/reshape -> conv8_0/3x3_dwconv/SE_weights/reshape
I0906 17:47:28.220876 22606 net.cpp:124] Setting up conv8_0/3x3_dwconv/SE_weights/reshape
I0906 17:47:28.220885 22606 net.cpp:131] Top shape: 50 1152 (57600)
I0906 17:47:28.220887 22606 net.cpp:139] Memory required for data: 4601097800
I0906 17:47:28.220891 22606 layer_factory.hpp:77] Creating layer conv8_0/3x3_dwconv/scale
I0906 17:47:28.220921 22606 net.cpp:86] Creating Layer conv8_0/3x3_dwconv/scale
I0906 17:47:28.220927 22606 net.cpp:408] conv8_0/3x3_dwconv/scale <- conv8_0/3x3_dwconv/concat_conv8_0/3x3_dwconv/concat_fixed_point_0_split_1
I0906 17:47:28.220932 22606 net.cpp:408] conv8_0/3x3_dwconv/scale <- conv8_0/3x3_dwconv/SE_weights/reshape
I0906 17:47:28.220939 22606 net.cpp:382] conv8_0/3x3_dwconv/scale -> conv8_0/3x3_dwconv/scale
I0906 17:47:28.221063 22606 net.cpp:124] Setting up conv8_0/3x3_dwconv/scale
I0906 17:47:28.221072 22606 net.cpp:131] Top shape: 50 1152 7 7 (2822400)
I0906 17:47:28.221076 22606 net.cpp:139] Memory required for data: 4612387400
I0906 17:47:28.221088 22606 layer_factory.hpp:77] Creating layer conv8_0/3x3_dwconv/scale_fixed_point
I0906 17:47:28.221099 22606 net.cpp:86] Creating Layer conv8_0/3x3_dwconv/scale_fixed_point
I0906 17:47:28.221103 22606 net.cpp:408] conv8_0/3x3_dwconv/scale_fixed_point <- conv8_0/3x3_dwconv/scale
I0906 17:47:28.221109 22606 net.cpp:369] conv8_0/3x3_dwconv/scale_fixed_point -> conv8_0/3x3_dwconv/scale (in-place)
I0906 17:47:28.221164 22606 net.cpp:124] Setting up conv8_0/3x3_dwconv/scale_fixed_point
I0906 17:47:28.221171 22606 net.cpp:131] Top shape: 50 1152 7 7 (2822400)
I0906 17:47:28.221174 22606 net.cpp:139] Memory required for data: 4623677000
I0906 17:47:28.221181 22606 layer_factory.hpp:77] Creating layer conv8_0/1x1_decrease
I0906 17:47:28.221204 22606 net.cpp:86] Creating Layer conv8_0/1x1_decrease
I0906 17:47:28.221208 22606 net.cpp:408] conv8_0/1x1_decrease <- conv8_0/3x3_dwconv/scale
I0906 17:47:28.221216 22606 net.cpp:382] conv8_0/1x1_decrease -> conv8_0/1x1_decrease/bn
I0906 17:47:28.235047 22606 net.cpp:124] Setting up conv8_0/1x1_decrease
I0906 17:47:28.235090 22606 net.cpp:131] Top shape: 50 320 7 7 (784000)
I0906 17:47:28.235095 22606 net.cpp:139] Memory required for data: 4626813000
I0906 17:47:28.235106 22606 layer_factory.hpp:77] Creating layer conv8_0/1x1_decrease/bn_fixed_point
I0906 17:47:28.235163 22606 net.cpp:86] Creating Layer conv8_0/1x1_decrease/bn_fixed_point
I0906 17:47:28.235172 22606 net.cpp:408] conv8_0/1x1_decrease/bn_fixed_point <- conv8_0/1x1_decrease/bn
I0906 17:47:28.235183 22606 net.cpp:369] conv8_0/1x1_decrease/bn_fixed_point -> conv8_0/1x1_decrease/bn (in-place)
I0906 17:47:28.235240 22606 net.cpp:124] Setting up conv8_0/1x1_decrease/bn_fixed_point
I0906 17:47:28.235250 22606 net.cpp:131] Top shape: 50 320 7 7 (784000)
I0906 17:47:28.235253 22606 net.cpp:139] Memory required for data: 4629949000
I0906 17:47:28.235258 22606 layer_factory.hpp:77] Creating layer conv9/1x1
I0906 17:47:28.235282 22606 net.cpp:86] Creating Layer conv9/1x1
I0906 17:47:28.235287 22606 net.cpp:408] conv9/1x1 <- conv8_0/1x1_decrease/bn
I0906 17:47:28.235296 22606 net.cpp:382] conv9/1x1 -> conv9/1x1/bn
I0906 17:47:28.250916 22606 net.cpp:124] Setting up conv9/1x1
I0906 17:47:28.250958 22606 net.cpp:131] Top shape: 50 1280 7 7 (3136000)
I0906 17:47:28.250962 22606 net.cpp:139] Memory required for data: 4642493000
I0906 17:47:28.250975 22606 layer_factory.hpp:77] Creating layer conv9/1x1/relu
I0906 17:47:28.250988 22606 net.cpp:86] Creating Layer conv9/1x1/relu
I0906 17:47:28.250996 22606 net.cpp:408] conv9/1x1/relu <- conv9/1x1/bn
I0906 17:47:28.251004 22606 net.cpp:369] conv9/1x1/relu -> conv9/1x1/bn (in-place)
I0906 17:47:28.252094 22606 net.cpp:124] Setting up conv9/1x1/relu
I0906 17:47:28.252111 22606 net.cpp:131] Top shape: 50 1280 7 7 (3136000)
I0906 17:47:28.252115 22606 net.cpp:139] Memory required for data: 4655037000
I0906 17:47:28.252120 22606 layer_factory.hpp:77] Creating layer conv9/1x1/bn_fixed_point
I0906 17:47:28.252147 22606 net.cpp:86] Creating Layer conv9/1x1/bn_fixed_point
I0906 17:47:28.252156 22606 net.cpp:408] conv9/1x1/bn_fixed_point <- conv9/1x1/bn
I0906 17:47:28.252161 22606 net.cpp:369] conv9/1x1/bn_fixed_point -> conv9/1x1/bn (in-place)
I0906 17:47:28.252213 22606 net.cpp:124] Setting up conv9/1x1/bn_fixed_point
I0906 17:47:28.252220 22606 net.cpp:131] Top shape: 50 1280 7 7 (3136000)
I0906 17:47:28.252223 22606 net.cpp:139] Memory required for data: 4667581000
I0906 17:47:28.252229 22606 layer_factory.hpp:77] Creating layer avepool/7x7
I0906 17:47:28.252240 22606 net.cpp:86] Creating Layer avepool/7x7
I0906 17:47:28.252244 22606 net.cpp:408] avepool/7x7 <- conv9/1x1/bn
I0906 17:47:28.252251 22606 net.cpp:382] avepool/7x7 -> avepool/7x7
I0906 17:47:28.252959 22606 net.cpp:124] Setting up avepool/7x7
I0906 17:47:28.252974 22606 net.cpp:131] Top shape: 50 1280 1 1 (64000)
I0906 17:47:28.252977 22606 net.cpp:139] Memory required for data: 4667837000
I0906 17:47:28.252981 22606 layer_factory.hpp:77] Creating layer avepool/7x7_fixed_point
I0906 17:47:28.252988 22606 net.cpp:86] Creating Layer avepool/7x7_fixed_point
I0906 17:47:28.252992 22606 net.cpp:408] avepool/7x7_fixed_point <- avepool/7x7
I0906 17:47:28.253000 22606 net.cpp:369] avepool/7x7_fixed_point -> avepool/7x7 (in-place)
I0906 17:47:28.253046 22606 net.cpp:124] Setting up avepool/7x7_fixed_point
I0906 17:47:28.253053 22606 net.cpp:131] Top shape: 50 1280 1 1 (64000)
I0906 17:47:28.253057 22606 net.cpp:139] Memory required for data: 4668093000
I0906 17:47:28.253063 22606 layer_factory.hpp:77] Creating layer classifier
I0906 17:47:28.253088 22606 net.cpp:86] Creating Layer classifier
I0906 17:47:28.253093 22606 net.cpp:408] classifier <- avepool/7x7
I0906 17:47:28.253098 22606 net.cpp:382] classifier -> classifier
I0906 17:47:28.297322 22606 net.cpp:124] Setting up classifier
I0906 17:47:28.297363 22606 net.cpp:131] Top shape: 50 1000 1 1 (50000)
I0906 17:47:28.297369 22606 net.cpp:139] Memory required for data: 4668293000
I0906 17:47:28.297381 22606 layer_factory.hpp:77] Creating layer classifier_classifier_0_split
I0906 17:47:28.297396 22606 net.cpp:86] Creating Layer classifier_classifier_0_split
I0906 17:47:28.297403 22606 net.cpp:408] classifier_classifier_0_split <- classifier
I0906 17:47:28.297412 22606 net.cpp:382] classifier_classifier_0_split -> classifier_classifier_0_split_0
I0906 17:47:28.297452 22606 net.cpp:382] classifier_classifier_0_split -> classifier_classifier_0_split_1
I0906 17:47:28.297538 22606 net.cpp:124] Setting up classifier_classifier_0_split
I0906 17:47:28.297544 22606 net.cpp:131] Top shape: 50 1000 1 1 (50000)
I0906 17:47:28.297549 22606 net.cpp:131] Top shape: 50 1000 1 1 (50000)
I0906 17:47:28.297552 22606 net.cpp:139] Memory required for data: 4668693000
I0906 17:47:28.297555 22606 layer_factory.hpp:77] Creating layer top-1
I0906 17:47:28.297577 22606 net.cpp:86] Creating Layer top-1
I0906 17:47:28.297582 22606 net.cpp:408] top-1 <- classifier_classifier_0_split_0
I0906 17:47:28.297590 22606 net.cpp:408] top-1 <- label_data_1_split_0
I0906 17:47:28.297613 22606 net.cpp:382] top-1 -> top-1
…
