…
I1010 13:01:43.226773 26060 caffe.cpp:270] GPU device name: Graphics Device
I1010 13:01:44.913255 26060 net.cpp:53] Initializing net from parameters: 
state {
  phase: TEST
  level: 0
  stage: ""
}
layer {
  name: "data"
  type: "ImageData"
  top: "data"
  top: "label"
  include {
    phase: TEST
  }
  transform_param {
    crop_size: 224
    mean_value: 104
    mean_value: 117
    mean_value: 123
  }
  image_data_param {
    source: "/share4/public/classification_data/imagenet1k/meta/val.txt"
    batch_size: 25
    root_folder: "/share4/public/classification_data/imagenet1k/val/"
    short_edge: 256
  }
}
layer {
  name: "data_fixed_point"
  type: "Quantize"
  bottom: "data"
  top: "data"
  param {
    lr_mult: 0
    decay_mult: 0
  }
  quantize_param {
    precision: 8
    frozen: true
    positive: false
    tolerance: 1.5
  }
}
layer {
  name: "conv1/3x3_s2"
  type: "Convolution"
  bottom: "data"
  top: "conv1/3x3_s2/bn"
  convolution_param {
    num_output: 32
    bias_term: true
    pad: 1
    kernel_size: 3
    stride: 2
    weight_filler {
      type: "msra"
    }
    engine: CAFFE
    fp16_accumulation: true
  }
  quantize_param {
    precision: 6
    channel_shared: false
  }
}
layer {
  name: "conv1/3x3_s2/relu"
  type: "ReLU"
  bottom: "conv1/3x3_s2/bn"
  top: "conv1/3x3_s2/bn"
}
layer {
  name: "conv1/3x3_s2/bn_fixed_point"
  type: "Quantize"
  bottom: "conv1/3x3_s2/bn"
  top: "conv1/3x3_s2/bn"
  param {
    lr_mult: 0
    decay_mult: 0
  }
  quantize_param {
    precision: 8
    frozen: true
    positive: true
    tolerance: 1.5
  }
}
layer {
  name: "conv2_0/3x3_dwconv"
  type: "Convolution"
  bottom: "conv1/3x3_s2/bn"
  top: "conv2_0/3x3_dwconv/bn"
  convolution_param {
    num_output: 32
    bias_term: true
    pad: 1
    kernel_size: 3
    group: 32
    stride: 1
    weight_filler {
      type: "msra"
    }
    engine: CAFFE
    fp16_accumulation: true
  }
  quantize_param {
    precision: 6
    channel_shared: false
  }
}
layer {
  name: "conv2_0/3x3_dwconv/relu"
  type: "ReLU"
  bottom: "conv2_0/3x3_dwconv/bn"
  top: "conv2_0/3x3_dwconv/bn"
}
layer {
  name: "conv2_0/3x3_dwconv/bn_fixed_point"
  type: "Quantize"
  bottom: "conv2_0/3x3_dwconv/bn"
  top: "conv2_0/3x3_dwconv/bn"
  param {
    lr_mult: 0
    decay_mult: 0
  }
  quantize_param {
    precision: 8
    frozen: true
    positive: true
    tolerance: 1.5
  }
}
layer {
  name: "conv2_0/1x1_decrease"
  type: "Convolution"
  bottom: "conv2_0/3x3_dwconv/bn"
  top: "conv2_0/1x1_decrease/bn"
  convolution_param {
    num_output: 16
    bias_term: true
    kernel_size: 1
    stride: 1
    weight_filler {
      type: "msra"
    }
    engine: CAFFE
    fp16_accumulation: true
  }
  quantize_param {
    precision: 6
    channel_shared: false
  }
}
layer {
  name: "conv2_0/1x1_decrease/bn_fixed_point"
  type: "Quantize"
  bottom: "conv2_0/1x1_decrease/bn"
  top: "conv2_0/1x1_decrease/bn"
  param {
    lr_mult: 0
    decay_mult: 0
  }
  quantize_param {
    precision: 8
    frozen: true
    positive: false
    tolerance: 1.5
  }
}
layer {
  name: "conv3_0/1x1_increase"
  type: "Convolution"
  bottom: "conv2_0/1x1_decrease/bn"
  top: "conv3_0/1x1_increase/bn"
  convolution_param {
    num_output: 48
    bias_term: true
    kernel_size: 1
    stride: 1
    weight_filler {
      type: "msra"
    }
    engine: CAFFE
    fp16_accumulation: true
  }
  quantize_param {
    precision: 6
    channel_shared: false
  }
}
layer {
  name: "conv3_0/1x1_increase/relu"
  type: "ReLU"
  bottom: "conv3_0/1x1_increase/bn"
  top: "conv3_0/1x1_increase/bn"
}
layer {
  name: "conv3_0/1x1_increase/bn_fixed_point"
  type: "Quantize"
  bottom: "conv3_0/1x1_increase/bn"
  top: "conv3_0/1x1_increase/bn"
  param {
    lr_mult: 0
    decay_mult: 0
  }
  quantize_param {
    precision: 8
    frozen: true
    positive: true
    tolerance: 1.5
  }
}
layer {
  name: "conv3_0/3x3_dwconv"
  type: "Convolution"
  bottom: "conv3_0/1x1_increase/bn"
  top: "conv3_0/3x3_dwconv/bn"
  convolution_param {
    num_output: 48
    bias_term: true
    pad: 2
    kernel_size: 5
    group: 48
    stride: 2
    weight_filler {
      type: "msra"
    }
    engine: CAFFE
    fp16_accumulation: true
  }
  quantize_param {
    precision: 6
    channel_shared: false
  }
}
layer {
  name: "conv3_0/3x3_dwconv/relu"
  type: "ReLU"
  bottom: "conv3_0/3x3_dwconv/bn"
  top: "conv3_0/3x3_dwconv/bn"
}
layer {
  name: "conv3_0/3x3_dwconv/bn_fixed_point"
  type: "Quantize"
  bottom: "conv3_0/3x3_dwconv/bn"
  top: "conv3_0/3x3_dwconv/bn"
  param {
    lr_mult: 0
    decay_mult: 0
  }
  quantize_param {
    precision: 8
    frozen: true
    positive: true
    tolerance: 1.5
  }
}
layer {
  name: "conv3_0/1x1_decrease"
  type: "Convolution"
  bottom: "conv3_0/3x3_dwconv/bn"
  top: "conv3_0/1x1_decrease/bn"
  convolution_param {
    num_output: 32
    bias_term: true
    kernel_size: 1
    stride: 1
    weight_filler {
      type: "msra"
    }
    engine: CAFFE
    fp16_accumulation: true
  }
  quantize_param {
    precision: 6
    channel_shared: false
  }
}
layer {
  name: "conv3_0/1x1_decrease/bn_fixed_point"
  type: "Quantize"
  bottom: "conv3_0/1x1_decrease/bn"
  top: "conv3_0/1x1_decrease/bn"
  param {
    lr_mult: 0
    decay_mult: 0
  }
  quantize_param {
    precision: 8
    frozen: true
    positive: false
    tolerance: 1.5
  }
}
layer {
  name: "conv3_1/1x1_increase"
  type: "Convolution"
  bottom: "conv3_0/1x1_decrease/bn"
  top: "conv3_1/1x1_increase/bn"
  convolution_param {
    num_output: 96
    bias_term: true
    kernel_size: 1
    stride: 1
    weight_filler {
      type: "msra"
    }
    engine: CAFFE
    fp16_accumulation: true
  }
  quantize_param {
    precision: 6
    channel_shared: false
  }
}
layer {
  name: "conv3_1/1x1_increase/relu"
  type: "ReLU"
  bottom: "conv3_1/1x1_increase/bn"
  top: "conv3_1/1x1_increase/bn"
}
layer {
  name: "conv3_1/1x1_increase/bn_fixed_point"
  type: "Quantize"
  bottom: "conv3_1/1x1_increase/bn"
  top: "conv3_1/1x1_increase/bn"
  param {
    lr_mult: 0
    decay_mult: 0
  }
  quantize_param {
    precision: 8
    frozen: true
    positive: true
    tolerance: 1.5
  }
}
layer {
  name: "conv3_1/3x3_dwconv"
  type: "Convolution"
  bottom: "conv3_1/1x1_increase/bn"
  top: "conv3_1/3x3_dwconv/bn"
  convolution_param {
    num_output: 96
    bias_term: true
    pad: 1
    kernel_size: 3
    group: 96
    stride: 1
    weight_filler {
      type: "msra"
    }
    engine: CAFFE
    fp16_accumulation: true
  }
  quantize_param {
    precision: 6
    channel_shared: false
  }
}
layer {
  name: "conv3_1/3x3_dwconv/relu"
  type: "ReLU"
  bottom: "conv3_1/3x3_dwconv/bn"
  top: "conv3_1/3x3_dwconv/bn"
}
layer {
  name: "conv3_1/3x3_dwconv/bn_fixed_point"
  type: "Quantize"
  bottom: "conv3_1/3x3_dwconv/bn"
  top: "conv3_1/3x3_dwconv/bn"
  param {
    lr_mult: 0
    decay_mult: 0
  }
  quantize_param {
    precision: 8
    frozen: true
    positive: true
    tolerance: 1.5
  }
}
layer {
  name: "conv3_1/1x1_decrease"
  type: "Convolution"
  bottom: "conv3_1/3x3_dwconv/bn"
  top: "conv3_1/1x1_decrease/bn"
  convolution_param {
    num_output: 32
    bias_term: true
    kernel_size: 1
    stride: 1
    weight_filler {
      type: "msra"
    }
    engine: CAFFE
    fp16_accumulation: true
  }
  quantize_param {
    precision: 6
    channel_shared: false
  }
}
layer {
  name: "conv3_1/elt_sum"
  type: "Eltwise"
  bottom: "conv3_0/1x1_decrease/bn"
  bottom: "conv3_1/1x1_decrease/bn"
  top: "conv3_1/elt_sum"
  eltwise_param {
    operation: SUM
  }
}
layer {
  name: "conv3_1/elt_sum_fixed_point"
  type: "Quantize"
  bottom: "conv3_1/elt_sum"
  top: "conv3_1/elt_sum"
  param {
    lr_mult: 0
    decay_mult: 0
  }
  quantize_param {
    precision: 8
    frozen: true
    positive: false
    tolerance: 1.5
  }
}
layer {
  name: "conv4_0/1x1_increase"
  type: "Convolution"
  bottom: "conv3_1/elt_sum"
  top: "conv4_0/1x1_increase/bn"
  convolution_param {
    num_output: 96
    bias_term: true
    kernel_size: 1
    stride: 1
    weight_filler {
      type: "msra"
    }
    engine: CAFFE
    fp16_accumulation: true
  }
  quantize_param {
    precision: 6
    channel_shared: false
  }
}
layer {
  name: "conv4_0/1x1_increase/hardswish"
  type: "HardSwish"
  bottom: "conv4_0/1x1_increase/bn"
  top: "conv4_0/1x1_increase/bn"
}
layer {
  name: "conv4_0/1x1_increase/bn_fixed_point"
  type: "Quantize"
  bottom: "conv4_0/1x1_increase/bn"
  top: "conv4_0/1x1_increase/bn"
  param {
    lr_mult: 0
    decay_mult: 0
  }
  quantize_param {
    precision: 8
    frozen: true
    positive: false
    tolerance: 1.5
  }
}
layer {
  name: "conv4_0/1x1_increase/slice"
  type: "Slice"
  bottom: "conv4_0/1x1_increase/bn"
  top: "conv4_0/1x1_increase/split1"
  top: "conv4_0/1x1_increase/split2"
  top: "conv4_0/1x1_increase/split3"
  slice_param {
    slice_point: 32
    slice_point: 64
  }
}
layer {
  name: "conv4_0/3x3_dwconv/slice_0"
  type: "Convolution"
  bottom: "conv4_0/1x1_increase/split1"
  top: "conv4_0/3x3_dwconv/slice_0/bn"
  convolution_param {
    num_output: 32
    bias_term: true
    pad: 1
    kernel_size: 3
    group: 32
    stride: 2
    weight_filler {
      type: "msra"
    }
    engine: CAFFE
    fp16_accumulation: true
  }
  quantize_param {
    precision: 6
    channel_shared: false
  }
}
layer {
  name: "conv4_0/3x3_dwconv/slice_0/hardswish"
  type: "HardSwish"
  bottom: "conv4_0/3x3_dwconv/slice_0/bn"
  top: "conv4_0/3x3_dwconv/slice_0/bn"
}
layer {
  name: "conv4_0/3x3_dwconv/slice_1"
  type: "Convolution"
  bottom: "conv4_0/1x1_increase/split2"
  top: "conv4_0/3x3_dwconv/slice_1/bn"
  convolution_param {
    num_output: 32
    bias_term: true
    pad: 2
    kernel_size: 5
    group: 32
    stride: 2
    weight_filler {
      type: "msra"
    }
    engine: CAFFE
    fp16_accumulation: true
  }
  quantize_param {
    precision: 6
    channel_shared: false
  }
}
layer {
  name: "conv4_0/3x3_dwconv/slice_1/hardswish"
  type: "HardSwish"
  bottom: "conv4_0/3x3_dwconv/slice_1/bn"
  top: "conv4_0/3x3_dwconv/slice_1/bn"
}
layer {
  name: "conv4_0/3x3_dwconv/slice_2"
  type: "Convolution"
  bottom: "conv4_0/1x1_increase/split3"
  top: "conv4_0/3x3_dwconv/slice_2/bn"
  convolution_param {
    num_output: 32
    bias_term: true
    pad: 3
    kernel_size: 7
    group: 32
    stride: 2
    weight_filler {
      type: "msra"
    }
    engine: CAFFE
    fp16_accumulation: true
  }
  quantize_param {
    precision: 6
    channel_shared: false
  }
}
layer {
  name: "conv4_0/3x3_dwconv/slice_2/hardswish"
  type: "HardSwish"
  bottom: "conv4_0/3x3_dwconv/slice_2/bn"
  top: "conv4_0/3x3_dwconv/slice_2/bn"
}
layer {
  name: "conv4_0/3x3_dwconv/concat"
  type: "Concat"
  bottom: "conv4_0/3x3_dwconv/slice_0/bn"
  bottom: "conv4_0/3x3_dwconv/slice_1/bn"
  bottom: "conv4_0/3x3_dwconv/slice_2/bn"
  top: "conv4_0/3x3_dwconv/concat"
}
layer {
  name: "conv4_0/3x3_dwconv/concat_fixed_point"
  type: "Quantize"
  bottom: "conv4_0/3x3_dwconv/concat"
  top: "conv4_0/3x3_dwconv/concat"
  param {
    lr_mult: 0
    decay_mult: 0
  }
  quantize_param {
    precision: 8
    frozen: true
    positive: false
    tolerance: 1.5
  }
}
layer {
  name: "conv4_0/3x3_dwconv/SE_global_pool"
  type: "Pooling"
  bottom: "conv4_0/3x3_dwconv/concat"
  top: "conv4_0/3x3_dwconv/SE_global_pool"
  pooling_param {
    pool: AVE
    engine: CAFFE
    global_pooling: true
  }
}
layer {
  name: "conv4_0/3x3_dwconv/SE_bn"
  type: "Scale"
  bottom: "conv4_0/3x3_dwconv/SE_global_pool"
  top: "conv4_0/3x3_dwconv/SE_bn"
  param {
    lr_mult: 1
    decay_mult: 0
  }
  param {
    lr_mult: 2
    decay_mult: 0
  }
  scale_param {
    axis: 1
    num_axes: 1
    bias_term: true
  }
}
layer {
  name: "conv4_0/3x3_dwconv/SE_fc1"
  type: "Convolution"
  bottom: "conv4_0/3x3_dwconv/SE_bn"
  top: "conv4_0/3x3_dwconv/SE_fc1"
  param {
    lr_mult: 1
    decay_mult: 1
  }
  convolution_param {
    num_output: 6
    bias_term: false
    kernel_size: 1
    stride: 1
    weight_filler {
      type: "gaussian"
      std: 0.01
    }
    engine: CAFFE
    fp16_accumulation: true
  }
  quantize_param {
    precision: 6
    channel_shared: false
  }
}
layer {
  name: "conv4_0/3x3_dwconv/SE_fc1/relu"
  type: "ReLU"
  bottom: "conv4_0/3x3_dwconv/SE_fc1"
  top: "conv4_0/3x3_dwconv/SE_fc1"
}
layer {
  name: "conv4_0/3x3_dwconv/SE_fc2"
  type: "Convolution"
  bottom: "conv4_0/3x3_dwconv/SE_fc1"
  top: "conv4_0/3x3_dwconv/SE_fc2"
  param {
    lr_mult: 1
    decay_mult: 1
  }
  convolution_param {
    num_output: 96
    bias_term: false
    kernel_size: 1
    stride: 1
    weight_filler {
      type: "gaussian"
      std: 0.01
    }
    engine: CAFFE
    fp16_accumulation: true
  }
  quantize_param {
    precision: 6
    channel_shared: false
  }
}
layer {
  name: "conv4_0/3x3_dwconv/SE_weights"
  type: "Sigmoid"
  bottom: "conv4_0/3x3_dwconv/SE_fc2"
  top: "conv4_0/3x3_dwconv/SE_fc2"
}
layer {
  name: "conv4_0/3x3_dwconv/SE_weights/reshape"
  type: "Reshape"
  bottom: "conv4_0/3x3_dwconv/SE_fc2"
  top: "conv4_0/3x3_dwconv/SE_weights/reshape"
  reshape_param {
    shape {
      dim: 0
      dim: 0
    }
  }
}
layer {
  name: "conv4_0/3x3_dwconv/scale"
  type: "Scale"
  bottom: "conv4_0/3x3_dwconv/concat"
  bottom: "conv4_0/3x3_dwconv/SE_weights/reshape"
  top: "conv4_0/3x3_dwconv/scale"
  scale_param {
    axis: 0
    bias_term: false
  }
}
layer {
  name: "conv4_0/3x3_dwconv/scale_fixed_point"
  type: "Quantize"
  bottom: "conv4_0/3x3_dwconv/scale"
  top: "conv4_0/3x3_dwconv/scale"
  param {
    lr_mult: 0
    decay_mult: 0
  }
  quantize_param {
    precision: 8
    frozen: true
    positive: false
    tolerance: 1.5
  }
}
layer {
  name: "conv4_0/1x1_decrease"
  type: "Convolution"
  bottom: "conv4_0/3x3_dwconv/scale"
  top: "conv4_0/1x1_decrease/bn"
  convolution_param {
    num_output: 40
    bias_term: true
    kernel_size: 1
    stride: 1
    weight_filler {
      type: "msra"
    }
    engine: CAFFE
    fp16_accumulation: true
  }
  quantize_param {
    precision: 6
    channel_shared: false
  }
}
layer {
  name: "conv4_0/1x1_decrease/bn_fixed_point"
  type: "Quantize"
  bottom: "conv4_0/1x1_decrease/bn"
  top: "conv4_0/1x1_decrease/bn"
  param {
    lr_mult: 0
    decay_mult: 0
  }
  quantize_param {
    precision: 8
    frozen: true
    positive: false
    tolerance: 1.5
  }
}
layer {
  name: "conv4_1/1x1_increase"
  type: "Convolution"
  bottom: "conv4_0/1x1_decrease/bn"
  top: "conv4_1/1x1_increase/bn"
  convolution_param {
    num_output: 120
    bias_term: true
    kernel_size: 1
    stride: 1
    weight_filler {
      type: "msra"
    }
    engine: CAFFE
    fp16_accumulation: true
  }
  quantize_param {
    precision: 6
    channel_shared: false
  }
}
layer {
  name: "conv4_1/1x1_increase/hardswish"
  type: "HardSwish"
  bottom: "conv4_1/1x1_increase/bn"
  top: "conv4_1/1x1_increase/bn"
}
layer {
  name: "conv4_1/1x1_increase/bn_fixed_point"
  type: "Quantize"
  bottom: "conv4_1/1x1_increase/bn"
  top: "conv4_1/1x1_increase/bn"
  param {
    lr_mult: 0
    decay_mult: 0
  }
  quantize_param {
    precision: 8
    frozen: true
    positive: false
    tolerance: 1.5
  }
}
layer {
  name: "conv4_1/1x1_increase/slice"
  type: "Slice"
  bottom: "conv4_1/1x1_increase/bn"
  top: "conv4_1/1x1_increase/split1"
  top: "conv4_1/1x1_increase/split2"
  slice_param {
    slice_point: 60
  }
}
layer {
  name: "conv4_1/3x3_dwconv/slice_0"
  type: "Convolution"
  bottom: "conv4_1/1x1_increase/split1"
  top: "conv4_1/3x3_dwconv/slice_0/bn"
  convolution_param {
    num_output: 60
    bias_term: true
    pad: 1
    kernel_size: 3
    group: 60
    stride: 1
    weight_filler {
      type: "msra"
    }
    engine: CAFFE
    fp16_accumulation: true
  }
  quantize_param {
    precision: 6
    channel_shared: false
  }
}
layer {
  name: "conv4_1/3x3_dwconv/slice_0/hardswish"
  type: "HardSwish"
  bottom: "conv4_1/3x3_dwconv/slice_0/bn"
  top: "conv4_1/3x3_dwconv/slice_0/bn"
}
layer {
  name: "conv4_1/3x3_dwconv/slice_1"
  type: "Convolution"
  bottom: "conv4_1/1x1_increase/split2"
  top: "conv4_1/3x3_dwconv/slice_1/bn"
  convolution_param {
    num_output: 60
    bias_term: true
    pad: 2
    kernel_size: 5
    group: 60
    stride: 1
    weight_filler {
      type: "msra"
    }
    engine: CAFFE
    fp16_accumulation: true
  }
  quantize_param {
    precision: 6
    channel_shared: false
  }
}
layer {
  name: "conv4_1/3x3_dwconv/slice_1/hardswish"
  type: "HardSwish"
  bottom: "conv4_1/3x3_dwconv/slice_1/bn"
  top: "conv4_1/3x3_dwconv/slice_1/bn"
}
layer {
  name: "conv4_1/3x3_dwconv/concat"
  type: "Concat"
  bottom: "conv4_1/3x3_dwconv/slice_0/bn"
  bottom: "conv4_1/3x3_dwconv/slice_1/bn"
  top: "conv4_1/3x3_dwconv/concat"
}
layer {
  name: "conv4_1/3x3_dwconv/concat_fixed_point"
  type: "Quantize"
  bottom: "conv4_1/3x3_dwconv/concat"
  top: "conv4_1/3x3_dwconv/concat"
  param {
    lr_mult: 0
    decay_mult: 0
  }
  quantize_param {
    precision: 8
    frozen: true
    positive: false
    tolerance: 1.5
  }
}
layer {
  name: "conv4_1/3x3_dwconv/SE_global_pool"
  type: "Pooling"
  bottom: "conv4_1/3x3_dwconv/concat"
  top: "conv4_1/3x3_dwconv/SE_global_pool"
  pooling_param {
    pool: AVE
    engine: CAFFE
    global_pooling: true
  }
}
layer {
  name: "conv4_1/3x3_dwconv/SE_bn"
  type: "Scale"
  bottom: "conv4_1/3x3_dwconv/SE_global_pool"
  top: "conv4_1/3x3_dwconv/SE_bn"
  param {
    lr_mult: 1
    decay_mult: 0
  }
  param {
    lr_mult: 2
    decay_mult: 0
  }
  scale_param {
    axis: 1
    num_axes: 1
    bias_term: true
  }
}
layer {
  name: "conv4_1/3x3_dwconv/SE_fc1"
  type: "Convolution"
  bottom: "conv4_1/3x3_dwconv/SE_bn"
  top: "conv4_1/3x3_dwconv/SE_fc1"
  param {
    lr_mult: 1
    decay_mult: 1
  }
  convolution_param {
    num_output: 7
    bias_term: false
    kernel_size: 1
    stride: 1
    weight_filler {
      type: "gaussian"
      std: 0.01
    }
    engine: CAFFE
    fp16_accumulation: true
  }
  quantize_param {
    precision: 6
    channel_shared: false
  }
}
layer {
  name: "conv4_1/3x3_dwconv/SE_fc1/relu"
  type: "ReLU"
  bottom: "conv4_1/3x3_dwconv/SE_fc1"
  top: "conv4_1/3x3_dwconv/SE_fc1"
}
layer {
  name: "conv4_1/3x3_dwconv/SE_fc2"
  type: "Convolution"
  bottom: "conv4_1/3x3_dwconv/SE_fc1"
  top: "conv4_1/3x3_dwconv/SE_fc2"
  param {
    lr_mult: 1
    decay_mult: 1
  }
  convolution_param {
    num_output: 120
    bias_term: false
    kernel_size: 1
    stride: 1
    weight_filler {
      type: "gaussian"
      std: 0.01
    }
    engine: CAFFE
    fp16_accumulation: true
  }
  quantize_param {
    precision: 6
    channel_shared: false
  }
}
layer {
  name: "conv4_1/3x3_dwconv/SE_weights"
  type: "Sigmoid"
  bottom: "conv4_1/3x3_dwconv/SE_fc2"
  top: "conv4_1/3x3_dwconv/SE_fc2"
}
layer {
  name: "conv4_1/3x3_dwconv/SE_weights/reshape"
  type: "Reshape"
  bottom: "conv4_1/3x3_dwconv/SE_fc2"
  top: "conv4_1/3x3_dwconv/SE_weights/reshape"
  reshape_param {
    shape {
      dim: 0
      dim: 0
    }
  }
}
layer {
  name: "conv4_1/3x3_dwconv/scale"
  type: "Scale"
  bottom: "conv4_1/3x3_dwconv/concat"
  bottom: "conv4_1/3x3_dwconv/SE_weights/reshape"
  top: "conv4_1/3x3_dwconv/scale"
  scale_param {
    axis: 0
    bias_term: false
  }
}
layer {
  name: "conv4_1/3x3_dwconv/scale_fixed_point"
  type: "Quantize"
  bottom: "conv4_1/3x3_dwconv/scale"
  top: "conv4_1/3x3_dwconv/scale"
  param {
    lr_mult: 0
    decay_mult: 0
  }
  quantize_param {
    precision: 8
    frozen: true
    positive: false
    tolerance: 1.5
  }
}
layer {
  name: "conv4_1/1x1_decrease"
  type: "Convolution"
  bottom: "conv4_1/3x3_dwconv/scale"
  top: "conv4_1/1x1_decrease/bn"
  convolution_param {
    num_output: 40
    bias_term: true
    kernel_size: 1
    stride: 1
    weight_filler {
      type: "msra"
    }
    engine: CAFFE
    fp16_accumulation: true
  }
  quantize_param {
    precision: 6
    channel_shared: false
  }
}
layer {
  name: "conv4_1/elt_sum"
  type: "Eltwise"
  bottom: "conv4_0/1x1_decrease/bn"
  bottom: "conv4_1/1x1_decrease/bn"
  top: "conv4_1/elt_sum"
  eltwise_param {
    operation: SUM
  }
}
layer {
  name: "conv4_1/elt_sum_fixed_point"
  type: "Quantize"
  bottom: "conv4_1/elt_sum"
  top: "conv4_1/elt_sum"
  param {
    lr_mult: 0
    decay_mult: 0
  }
  quantize_param {
    precision: 8
    frozen: true
    positive: false
    tolerance: 1.5
  }
}
layer {
  name: "conv4_2/1x1_increase"
  type: "Convolution"
  bottom: "conv4_1/elt_sum"
  top: "conv4_2/1x1_increase/bn"
  convolution_param {
    num_output: 120
    bias_term: true
    kernel_size: 1
    stride: 1
    weight_filler {
      type: "msra"
    }
    engine: CAFFE
    fp16_accumulation: true
  }
  quantize_param {
    precision: 6
    channel_shared: false
  }
}
layer {
  name: "conv4_2/1x1_increase/hardswish"
  type: "HardSwish"
  bottom: "conv4_2/1x1_increase/bn"
  top: "conv4_2/1x1_increase/bn"
}
layer {
  name: "conv4_2/1x1_increase/bn_fixed_point"
  type: "Quantize"
  bottom: "conv4_2/1x1_increase/bn"
  top: "conv4_2/1x1_increase/bn"
  param {
    lr_mult: 0
    decay_mult: 0
  }
  quantize_param {
    precision: 8
    frozen: true
    positive: false
    tolerance: 1.5
  }
}
layer {
  name: "conv4_2/1x1_increase/slice"
  type: "Slice"
  bottom: "conv4_2/1x1_increase/bn"
  top: "conv4_2/1x1_increase/split1"
  top: "conv4_2/1x1_increase/split2"
  slice_param {
    slice_point: 60
  }
}
layer {
  name: "conv4_2/3x3_dwconv/slice_0"
  type: "Convolution"
  bottom: "conv4_2/1x1_increase/split1"
  top: "conv4_2/3x3_dwconv/slice_0/bn"
  convolution_param {
    num_output: 60
    bias_term: true
    pad: 1
    kernel_size: 3
    group: 60
    stride: 1
    weight_filler {
      type: "msra"
    }
    engine: CAFFE
    fp16_accumulation: true
  }
  quantize_param {
    precision: 6
    channel_shared: false
  }
}
layer {
  name: "conv4_2/3x3_dwconv/slice_0/hardswish"
  type: "HardSwish"
  bottom: "conv4_2/3x3_dwconv/slice_0/bn"
  top: "conv4_2/3x3_dwconv/slice_0/bn"
}
layer {
  name: "conv4_2/3x3_dwconv/slice_1"
  type: "Convolution"
  bottom: "conv4_2/1x1_increase/split2"
  top: "conv4_2/3x3_dwconv/slice_1/bn"
  convolution_param {
    num_output: 60
    bias_term: true
    pad: 2
    kernel_size: 5
    group: 60
    stride: 1
    weight_filler {
      type: "msra"
    }
    engine: CAFFE
    fp16_accumulation: true
  }
  quantize_param {
    precision: 6
    channel_shared: false
  }
}
layer {
  name: "conv4_2/3x3_dwconv/slice_1/hardswish"
  type: "HardSwish"
  bottom: "conv4_2/3x3_dwconv/slice_1/bn"
  top: "conv4_2/3x3_dwconv/slice_1/bn"
}
layer {
  name: "conv4_2/3x3_dwconv/concat"
  type: "Concat"
  bottom: "conv4_2/3x3_dwconv/slice_0/bn"
  bottom: "conv4_2/3x3_dwconv/slice_1/bn"
  top: "conv4_2/3x3_dwconv/concat"
}
layer {
  name: "conv4_2/3x3_dwconv/concat_fixed_point"
  type: "Quantize"
  bottom: "conv4_2/3x3_dwconv/concat"
  top: "conv4_2/3x3_dwconv/concat"
  param {
    lr_mult: 0
    decay_mult: 0
  }
  quantize_param {
    precision: 8
    frozen: true
    positive: false
    tolerance: 1.5
  }
}
layer {
  name: "conv4_2/3x3_dwconv/SE_global_pool"
  type: "Pooling"
  bottom: "conv4_2/3x3_dwconv/concat"
  top: "conv4_2/3x3_dwconv/SE_global_pool"
  pooling_param {
    pool: AVE
    engine: CAFFE
    global_pooling: true
  }
}
layer {
  name: "conv4_2/3x3_dwconv/SE_bn"
  type: "Scale"
  bottom: "conv4_2/3x3_dwconv/SE_global_pool"
  top: "conv4_2/3x3_dwconv/SE_bn"
  param {
    lr_mult: 1
    decay_mult: 0
  }
  param {
    lr_mult: 2
    decay_mult: 0
  }
  scale_param {
    axis: 1
    num_axes: 1
    bias_term: true
  }
}
layer {
  name: "conv4_2/3x3_dwconv/SE_fc1"
  type: "Convolution"
  bottom: "conv4_2/3x3_dwconv/SE_bn"
  top: "conv4_2/3x3_dwconv/SE_fc1"
  param {
    lr_mult: 1
    decay_mult: 1
  }
  convolution_param {
    num_output: 7
    bias_term: false
    kernel_size: 1
    stride: 1
    weight_filler {
      type: "gaussian"
      std: 0.01
    }
    engine: CAFFE
    fp16_accumulation: true
  }
  quantize_param {
    precision: 6
    channel_shared: false
  }
}
layer {
  name: "conv4_2/3x3_dwconv/SE_fc1/relu"
  type: "ReLU"
  bottom: "conv4_2/3x3_dwconv/SE_fc1"
  top: "conv4_2/3x3_dwconv/SE_fc1"
}
layer {
  name: "conv4_2/3x3_dwconv/SE_fc2"
  type: "Convolution"
  bottom: "conv4_2/3x3_dwconv/SE_fc1"
  top: "conv4_2/3x3_dwconv/SE_fc2"
  param {
    lr_mult: 1
    decay_mult: 1
  }
  convolution_param {
    num_output: 120
    bias_term: false
    kernel_size: 1
    stride: 1
    weight_filler {
      type: "gaussian"
      std: 0.01
    }
    engine: CAFFE
    fp16_accumulation: true
  }
  quantize_param {
    precision: 6
    channel_shared: false
  }
}
layer {
  name: "conv4_2/3x3_dwconv/SE_weights"
  type: "Sigmoid"
  bottom: "conv4_2/3x3_dwconv/SE_fc2"
  top: "conv4_2/3x3_dwconv/SE_fc2"
}
layer {
  name: "conv4_2/3x3_dwconv/SE_weights/reshape"
  type: "Reshape"
  bottom: "conv4_2/3x3_dwconv/SE_fc2"
  top: "conv4_2/3x3_dwconv/SE_weights/reshape"
  reshape_param {
    shape {
      dim: 0
      dim: 0
    }
  }
}
layer {
  name: "conv4_2/3x3_dwconv/scale"
  type: "Scale"
  bottom: "conv4_2/3x3_dwconv/concat"
  bottom: "conv4_2/3x3_dwconv/SE_weights/reshape"
  top: "conv4_2/3x3_dwconv/scale"
  scale_param {
    axis: 0
    bias_term: false
  }
}
layer {
  name: "conv4_2/3x3_dwconv/scale_fixed_point"
  type: "Quantize"
  bottom: "conv4_2/3x3_dwconv/scale"
  top: "conv4_2/3x3_dwconv/scale"
  param {
    lr_mult: 0
    decay_mult: 0
  }
  quantize_param {
    precision: 8
    frozen: true
    positive: false
    tolerance: 1.5
  }
}
layer {
  name: "conv4_2/1x1_decrease"
  type: "Convolution"
  bottom: "conv4_2/3x3_dwconv/scale"
  top: "conv4_2/1x1_decrease/bn"
  convolution_param {
    num_output: 40
    bias_term: true
    kernel_size: 1
    stride: 1
    weight_filler {
      type: "msra"
    }
    engine: CAFFE
    fp16_accumulation: true
  }
  quantize_param {
    precision: 6
    channel_shared: false
  }
}
layer {
  name: "conv4_2/elt_sum"
  type: "Eltwise"
  bottom: "conv4_1/elt_sum"
  bottom: "conv4_2/1x1_decrease/bn"
  top: "conv4_2/elt_sum"
  eltwise_param {
    operation: SUM
  }
}
layer {
  name: "conv4_2/elt_sum_fixed_point"
  type: "Quantize"
  bottom: "conv4_2/elt_sum"
  top: "conv4_2/elt_sum"
  param {
    lr_mult: 0
    decay_mult: 0
  }
  quantize_param {
    precision: 8
    frozen: true
    positive: false
    tolerance: 1.5
  }
}
layer {
  name: "conv4_3/1x1_increase"
  type: "Convolution"
  bottom: "conv4_2/elt_sum"
  top: "conv4_3/1x1_increase/bn"
  convolution_param {
    num_output: 120
    bias_term: true
    kernel_size: 1
    stride: 1
    weight_filler {
      type: "msra"
    }
    engine: CAFFE
    fp16_accumulation: true
  }
  quantize_param {
    precision: 6
    channel_shared: false
  }
}
layer {
  name: "conv4_3/1x1_increase/hardswish"
  type: "HardSwish"
  bottom: "conv4_3/1x1_increase/bn"
  top: "conv4_3/1x1_increase/bn"
}
layer {
  name: "conv4_3/1x1_increase/bn_fixed_point"
  type: "Quantize"
  bottom: "conv4_3/1x1_increase/bn"
  top: "conv4_3/1x1_increase/bn"
  param {
    lr_mult: 0
    decay_mult: 0
  }
  quantize_param {
    precision: 8
    frozen: true
    positive: false
    tolerance: 1.5
  }
}
layer {
  name: "conv4_3/1x1_increase/slice"
  type: "Slice"
  bottom: "conv4_3/1x1_increase/bn"
  top: "conv4_3/1x1_increase/split1"
  top: "conv4_3/1x1_increase/split2"
  slice_param {
    slice_point: 60
  }
}
layer {
  name: "conv4_3/3x3_dwconv/slice_0"
  type: "Convolution"
  bottom: "conv4_3/1x1_increase/split1"
  top: "conv4_3/3x3_dwconv/slice_0/bn"
  convolution_param {
    num_output: 60
    bias_term: true
    pad: 1
    kernel_size: 3
    group: 60
    stride: 1
    weight_filler {
      type: "msra"
    }
    engine: CAFFE
    fp16_accumulation: true
  }
  quantize_param {
    precision: 6
    channel_shared: false
  }
}
layer {
  name: "conv4_3/3x3_dwconv/slice_0/hardswish"
  type: "HardSwish"
  bottom: "conv4_3/3x3_dwconv/slice_0/bn"
  top: "conv4_3/3x3_dwconv/slice_0/bn"
}
layer {
  name: "conv4_3/3x3_dwconv/slice_1"
  type: "Convolution"
  bottom: "conv4_3/1x1_increase/split2"
  top: "conv4_3/3x3_dwconv/slice_1/bn"
  convolution_param {
    num_output: 60
    bias_term: true
    pad: 2
    kernel_size: 5
    group: 60
    stride: 1
    weight_filler {
      type: "msra"
    }
    engine: CAFFE
    fp16_accumulation: true
  }
  quantize_param {
    precision: 6
    channel_shared: false
  }
}
layer {
  name: "conv4_3/3x3_dwconv/slice_1/hardswish"
  type: "HardSwish"
  bottom: "conv4_3/3x3_dwconv/slice_1/bn"
  top: "conv4_3/3x3_dwconv/slice_1/bn"
}
layer {
  name: "conv4_3/3x3_dwconv/concat"
  type: "Concat"
  bottom: "conv4_3/3x3_dwconv/slice_0/bn"
  bottom: "conv4_3/3x3_dwconv/slice_1/bn"
  top: "conv4_3/3x3_dwconv/concat"
}
layer {
  name: "conv4_3/3x3_dwconv/concat_fixed_point"
  type: "Quantize"
  bottom: "conv4_3/3x3_dwconv/concat"
  top: "conv4_3/3x3_dwconv/concat"
  param {
    lr_mult: 0
    decay_mult: 0
  }
  quantize_param {
    precision: 8
    frozen: true
    positive: false
    tolerance: 1.5
  }
}
layer {
  name: "conv4_3/3x3_dwconv/SE_global_pool"
  type: "Pooling"
  bottom: "conv4_3/3x3_dwconv/concat"
  top: "conv4_3/3x3_dwconv/SE_global_pool"
  pooling_param {
    pool: AVE
    engine: CAFFE
    global_pooling: true
  }
}
layer {
  name: "conv4_3/3x3_dwconv/SE_bn"
  type: "Scale"
  bottom: "conv4_3/3x3_dwconv/SE_global_pool"
  top: "conv4_3/3x3_dwconv/SE_bn"
  param {
    lr_mult: 1
    decay_mult: 0
  }
  param {
    lr_mult: 2
    decay_mult: 0
  }
  scale_param {
    axis: 1
    num_axes: 1
    bias_term: true
  }
}
layer {
  name: "conv4_3/3x3_dwconv/SE_fc1"
  type: "Convolution"
  bottom: "conv4_3/3x3_dwconv/SE_bn"
  top: "conv4_3/3x3_dwconv/SE_fc1"
  param {
    lr_mult: 1
    decay_mult: 1
  }
  convolution_param {
    num_output: 7
    bias_term: false
    kernel_size: 1
    stride: 1
    weight_filler {
      type: "gaussian"
      std: 0.01
    }
    engine: CAFFE
    fp16_accumulation: true
  }
  quantize_param {
    precision: 6
    channel_shared: false
  }
}
layer {
  name: "conv4_3/3x3_dwconv/SE_fc1/relu"
  type: "ReLU"
  bottom: "conv4_3/3x3_
I1010 13:01:44.915359 26060 layer_factory.hpp:77] Creating layer data
I1010 13:01:44.915405 26060 net.cpp:86] Creating Layer data
I1010 13:01:44.915417 26060 net.cpp:383] data -> data
I1010 13:01:44.915450 26060 net.cpp:383] data -> label
I1010 13:01:44.915475 26060 image_data_layer.cpp:43] Opening file /share4/public/classification_data/imagenet1k/meta/val.txt
I1010 13:01:44.927675 26060 image_data_layer.cpp:68] A total of 50000 images.
I1010 13:01:44.950702 26060 image_data_layer.cpp:95] output data size: 25,3,224,224
I1010 13:01:44.993685 26060 net.cpp:124] Setting up data
I1010 13:01:44.993748 26060 net.cpp:131] Top shape: 25 3 224 224 (3763200)
I1010 13:01:44.993755 26060 net.cpp:131] Top shape: 25 (25)
I1010 13:01:44.993759 26060 net.cpp:139] Memory required for data: 15052900
I1010 13:01:44.993770 26060 layer_factory.hpp:77] Creating layer label_data_1_split
I1010 13:01:44.993789 26060 net.cpp:86] Creating Layer label_data_1_split
I1010 13:01:44.993799 26060 net.cpp:409] label_data_1_split <- label
I1010 13:01:44.993820 26060 net.cpp:383] label_data_1_split -> label_data_1_split_0
I1010 13:01:44.993832 26060 net.cpp:383] label_data_1_split -> label_data_1_split_1
I1010 13:01:44.993839 26060 net.cpp:383] label_data_1_split -> label_data_1_split_2
I1010 13:01:44.993919 26060 net.cpp:124] Setting up label_data_1_split
I1010 13:01:44.993927 26060 net.cpp:131] Top shape: 25 (25)
I1010 13:01:44.993932 26060 net.cpp:131] Top shape: 25 (25)
I1010 13:01:44.993935 26060 net.cpp:131] Top shape: 25 (25)
I1010 13:01:44.993939 26060 net.cpp:139] Memory required for data: 15053200
I1010 13:01:44.993944 26060 layer_factory.hpp:77] Creating layer data_fixed_point
I1010 13:01:44.993958 26060 net.cpp:86] Creating Layer data_fixed_point
I1010 13:01:44.993963 26060 net.cpp:409] data_fixed_point <- data
I1010 13:01:44.993973 26060 net.cpp:370] data_fixed_point -> data (in-place)
I1010 13:01:44.994016 26060 net.cpp:124] Setting up data_fixed_point
I1010 13:01:44.994024 26060 net.cpp:131] Top shape: 25 3 224 224 (3763200)
I1010 13:01:44.994029 26060 net.cpp:139] Memory required for data: 30106000
I1010 13:01:44.994063 26060 layer_factory.hpp:77] Creating layer conv1/3x3_s2
I1010 13:01:44.994102 26060 net.cpp:86] Creating Layer conv1/3x3_s2
I1010 13:01:44.994107 26060 net.cpp:409] conv1/3x3_s2 <- data
I1010 13:01:44.994118 26060 net.cpp:383] conv1/3x3_s2 -> conv1/3x3_s2/bn
I1010 13:01:44.999157 26060 net.cpp:124] Setting up conv1/3x3_s2
I1010 13:01:44.999178 26060 net.cpp:131] Top shape: 25 32 112 112 (10035200)
I1010 13:01:44.999183 26060 net.cpp:139] Memory required for data: 70246800
I1010 13:01:44.999199 26060 layer_factory.hpp:77] Creating layer conv1/3x3_s2/relu
I1010 13:01:44.999246 26060 net.cpp:86] Creating Layer conv1/3x3_s2/relu
I1010 13:01:44.999253 26060 net.cpp:409] conv1/3x3_s2/relu <- conv1/3x3_s2/bn
I1010 13:01:44.999259 26060 net.cpp:370] conv1/3x3_s2/relu -> conv1/3x3_s2/bn (in-place)
I1010 13:01:46.092669 26060 net.cpp:124] Setting up conv1/3x3_s2/relu
I1010 13:01:46.092716 26060 net.cpp:131] Top shape: 25 32 112 112 (10035200)
I1010 13:01:46.092723 26060 net.cpp:139] Memory required for data: 110387600
I1010 13:01:46.092738 26060 layer_factory.hpp:77] Creating layer conv1/3x3_s2/bn_fixed_point
I1010 13:01:46.092790 26060 net.cpp:86] Creating Layer conv1/3x3_s2/bn_fixed_point
I1010 13:01:46.092798 26060 net.cpp:409] conv1/3x3_s2/bn_fixed_point <- conv1/3x3_s2/bn
I1010 13:01:46.092813 26060 net.cpp:370] conv1/3x3_s2/bn_fixed_point -> conv1/3x3_s2/bn (in-place)
I1010 13:01:46.092861 26060 net.cpp:124] Setting up conv1/3x3_s2/bn_fixed_point
I1010 13:01:46.092869 26060 net.cpp:131] Top shape: 25 32 112 112 (10035200)
I1010 13:01:46.092871 26060 net.cpp:139] Memory required for data: 150528400
I1010 13:01:46.092885 26060 layer_factory.hpp:77] Creating layer conv2_0/3x3_dwconv
I1010 13:01:46.092902 26060 net.cpp:86] Creating Layer conv2_0/3x3_dwconv
I1010 13:01:46.092906 26060 net.cpp:409] conv2_0/3x3_dwconv <- conv1/3x3_s2/bn
I1010 13:01:46.092911 26060 net.cpp:383] conv2_0/3x3_dwconv -> conv2_0/3x3_dwconv/bn
I1010 13:01:46.094208 26060 net.cpp:124] Setting up conv2_0/3x3_dwconv
I1010 13:01:46.094221 26060 net.cpp:131] Top shape: 25 32 112 112 (10035200)
I1010 13:01:46.094225 26060 net.cpp:139] Memory required for data: 190669200
I1010 13:01:46.094235 26060 layer_factory.hpp:77] Creating layer conv2_0/3x3_dwconv/relu
I1010 13:01:46.094245 26060 net.cpp:86] Creating Layer conv2_0/3x3_dwconv/relu
I1010 13:01:46.094249 26060 net.cpp:409] conv2_0/3x3_dwconv/relu <- conv2_0/3x3_dwconv/bn
I1010 13:01:46.094256 26060 net.cpp:370] conv2_0/3x3_dwconv/relu -> conv2_0/3x3_dwconv/bn (in-place)
I1010 13:01:46.094822 26060 net.cpp:124] Setting up conv2_0/3x3_dwconv/relu
I1010 13:01:46.094832 26060 net.cpp:131] Top shape: 25 32 112 112 (10035200)
I1010 13:01:46.094835 26060 net.cpp:139] Memory required for data: 230810000
I1010 13:01:46.094839 26060 layer_factory.hpp:77] Creating layer conv2_0/3x3_dwconv/bn_fixed_point
I1010 13:01:46.094851 26060 net.cpp:86] Creating Layer conv2_0/3x3_dwconv/bn_fixed_point
I1010 13:01:46.094856 26060 net.cpp:409] conv2_0/3x3_dwconv/bn_fixed_point <- conv2_0/3x3_dwconv/bn
I1010 13:01:46.094861 26060 net.cpp:370] conv2_0/3x3_dwconv/bn_fixed_point -> conv2_0/3x3_dwconv/bn (in-place)
I1010 13:01:46.094892 26060 net.cpp:124] Setting up conv2_0/3x3_dwconv/bn_fixed_point
I1010 13:01:46.094898 26060 net.cpp:131] Top shape: 25 32 112 112 (10035200)
I1010 13:01:46.094902 26060 net.cpp:139] Memory required for data: 270950800
I1010 13:01:46.094907 26060 layer_factory.hpp:77] Creating layer conv2_0/1x1_decrease
I1010 13:01:46.094918 26060 net.cpp:86] Creating Layer conv2_0/1x1_decrease
I1010 13:01:46.094920 26060 net.cpp:409] conv2_0/1x1_decrease <- conv2_0/3x3_dwconv/bn
I1010 13:01:46.094928 26060 net.cpp:383] conv2_0/1x1_decrease -> conv2_0/1x1_decrease/bn
I1010 13:01:46.095445 26060 net.cpp:124] Setting up conv2_0/1x1_decrease
I1010 13:01:46.095456 26060 net.cpp:131] Top shape: 25 16 112 112 (5017600)
I1010 13:01:46.095460 26060 net.cpp:139] Memory required for data: 291021200
I1010 13:01:46.095470 26060 layer_factory.hpp:77] Creating layer conv2_0/1x1_decrease/bn_fixed_point
I1010 13:01:46.095481 26060 net.cpp:86] Creating Layer conv2_0/1x1_decrease/bn_fixed_point
I1010 13:01:46.095485 26060 net.cpp:409] conv2_0/1x1_decrease/bn_fixed_point <- conv2_0/1x1_decrease/bn
I1010 13:01:46.095491 26060 net.cpp:370] conv2_0/1x1_decrease/bn_fixed_point -> conv2_0/1x1_decrease/bn (in-place)
I1010 13:01:46.095523 26060 net.cpp:124] Setting up conv2_0/1x1_decrease/bn_fixed_point
I1010 13:01:46.095530 26060 net.cpp:131] Top shape: 25 16 112 112 (5017600)
I1010 13:01:46.095532 26060 net.cpp:139] Memory required for data: 311091600
I1010 13:01:46.095536 26060 layer_factory.hpp:77] Creating layer conv3_0/1x1_increase
I1010 13:01:46.095562 26060 net.cpp:86] Creating Layer conv3_0/1x1_increase
I1010 13:01:46.095566 26060 net.cpp:409] conv3_0/1x1_increase <- conv2_0/1x1_decrease/bn
I1010 13:01:46.095573 26060 net.cpp:383] conv3_0/1x1_increase -> conv3_0/1x1_increase/bn
I1010 13:01:46.096087 26060 net.cpp:124] Setting up conv3_0/1x1_increase
I1010 13:01:46.096101 26060 net.cpp:131] Top shape: 25 48 112 112 (15052800)
I1010 13:01:46.096104 26060 net.cpp:139] Memory required for data: 371302800
I1010 13:01:46.096110 26060 layer_factory.hpp:77] Creating layer conv3_0/1x1_increase/relu
I1010 13:01:46.096119 26060 net.cpp:86] Creating Layer conv3_0/1x1_increase/relu
I1010 13:01:46.096123 26060 net.cpp:409] conv3_0/1x1_increase/relu <- conv3_0/1x1_increase/bn
I1010 13:01:46.096129 26060 net.cpp:370] conv3_0/1x1_increase/relu -> conv3_0/1x1_increase/bn (in-place)
I1010 13:01:46.097115 26060 net.cpp:124] Setting up conv3_0/1x1_increase/relu
I1010 13:01:46.097127 26060 net.cpp:131] Top shape: 25 48 112 112 (15052800)
I1010 13:01:46.097131 26060 net.cpp:139] Memory required for data: 431514000
I1010 13:01:46.097136 26060 layer_factory.hpp:77] Creating layer conv3_0/1x1_increase/bn_fixed_point
I1010 13:01:46.097143 26060 net.cpp:86] Creating Layer conv3_0/1x1_increase/bn_fixed_point
I1010 13:01:46.097147 26060 net.cpp:409] conv3_0/1x1_increase/bn_fixed_point <- conv3_0/1x1_increase/bn
I1010 13:01:46.097153 26060 net.cpp:370] conv3_0/1x1_increase/bn_fixed_point -> conv3_0/1x1_increase/bn (in-place)
I1010 13:01:46.097193 26060 net.cpp:124] Setting up conv3_0/1x1_increase/bn_fixed_point
I1010 13:01:46.097200 26060 net.cpp:131] Top shape: 25 48 112 112 (15052800)
I1010 13:01:46.097203 26060 net.cpp:139] Memory required for data: 491725200
I1010 13:01:46.097208 26060 layer_factory.hpp:77] Creating layer conv3_0/3x3_dwconv
I1010 13:01:46.097218 26060 net.cpp:86] Creating Layer conv3_0/3x3_dwconv
I1010 13:01:46.097220 26060 net.cpp:409] conv3_0/3x3_dwconv <- conv3_0/1x1_increase/bn
I1010 13:01:46.097226 26060 net.cpp:383] conv3_0/3x3_dwconv -> conv3_0/3x3_dwconv/bn
I1010 13:01:46.100306 26060 net.cpp:124] Setting up conv3_0/3x3_dwconv
I1010 13:01:46.100319 26060 net.cpp:131] Top shape: 25 48 56 56 (3763200)
I1010 13:01:46.100323 26060 net.cpp:139] Memory required for data: 506778000
I1010 13:01:46.100330 26060 layer_factory.hpp:77] Creating layer conv3_0/3x3_dwconv/relu
I1010 13:01:46.100339 26060 net.cpp:86] Creating Layer conv3_0/3x3_dwconv/relu
I1010 13:01:46.100343 26060 net.cpp:409] conv3_0/3x3_dwconv/relu <- conv3_0/3x3_dwconv/bn
I1010 13:01:46.100349 26060 net.cpp:370] conv3_0/3x3_dwconv/relu -> conv3_0/3x3_dwconv/bn (in-place)
I1010 13:01:46.100879 26060 net.cpp:124] Setting up conv3_0/3x3_dwconv/relu
I1010 13:01:46.100890 26060 net.cpp:131] Top shape: 25 48 56 56 (3763200)
I1010 13:01:46.100893 26060 net.cpp:139] Memory required for data: 521830800
I1010 13:01:46.100898 26060 layer_factory.hpp:77] Creating layer conv3_0/3x3_dwconv/bn_fixed_point
I1010 13:01:46.100908 26060 net.cpp:86] Creating Layer conv3_0/3x3_dwconv/bn_fixed_point
I1010 13:01:46.100910 26060 net.cpp:409] conv3_0/3x3_dwconv/bn_fixed_point <- conv3_0/3x3_dwconv/bn
I1010 13:01:46.100917 26060 net.cpp:370] conv3_0/3x3_dwconv/bn_fixed_point -> conv3_0/3x3_dwconv/bn (in-place)
I1010 13:01:46.100950 26060 net.cpp:124] Setting up conv3_0/3x3_dwconv/bn_fixed_point
I1010 13:01:46.100956 26060 net.cpp:131] Top shape: 25 48 56 56 (3763200)
I1010 13:01:46.100960 26060 net.cpp:139] Memory required for data: 536883600
I1010 13:01:46.100963 26060 layer_factory.hpp:77] Creating layer conv3_0/1x1_decrease
I1010 13:01:46.100973 26060 net.cpp:86] Creating Layer conv3_0/1x1_decrease
I1010 13:01:46.100977 26060 net.cpp:409] conv3_0/1x1_decrease <- conv3_0/3x3_dwconv/bn
I1010 13:01:46.100982 26060 net.cpp:383] conv3_0/1x1_decrease -> conv3_0/1x1_decrease/bn
I1010 13:01:46.101843 26060 net.cpp:124] Setting up conv3_0/1x1_decrease
I1010 13:01:46.101856 26060 net.cpp:131] Top shape: 25 32 56 56 (2508800)
I1010 13:01:46.101860 26060 net.cpp:139] Memory required for data: 546918800
I1010 13:01:46.101883 26060 layer_factory.hpp:77] Creating layer conv3_0/1x1_decrease/bn_fixed_point
I1010 13:01:46.101891 26060 net.cpp:86] Creating Layer conv3_0/1x1_decrease/bn_fixed_point
I1010 13:01:46.101896 26060 net.cpp:409] conv3_0/1x1_decrease/bn_fixed_point <- conv3_0/1x1_decrease/bn
I1010 13:01:46.101902 26060 net.cpp:370] conv3_0/1x1_decrease/bn_fixed_point -> conv3_0/1x1_decrease/bn (in-place)
I1010 13:01:46.101935 26060 net.cpp:124] Setting up conv3_0/1x1_decrease/bn_fixed_point
I1010 13:01:46.101941 26060 net.cpp:131] Top shape: 25 32 56 56 (2508800)
I1010 13:01:46.101944 26060 net.cpp:139] Memory required for data: 556954000
I1010 13:01:46.101948 26060 layer_factory.hpp:77] Creating layer conv3_0/1x1_decrease/bn_conv3_0/1x1_decrease/bn_fixed_point_0_split
I1010 13:01:46.101954 26060 net.cpp:86] Creating Layer conv3_0/1x1_decrease/bn_conv3_0/1x1_decrease/bn_fixed_point_0_split
I1010 13:01:46.101958 26060 net.cpp:409] conv3_0/1x1_decrease/bn_conv3_0/1x1_decrease/bn_fixed_point_0_split <- conv3_0/1x1_decrease/bn
I1010 13:01:46.101963 26060 net.cpp:383] conv3_0/1x1_decrease/bn_conv3_0/1x1_decrease/bn_fixed_point_0_split -> conv3_0/1x1_decrease/bn_conv3_0/1x1_decrease/bn_fixed_point_0_split_0
I1010 13:01:46.101970 26060 net.cpp:383] conv3_0/1x1_decrease/bn_conv3_0/1x1_decrease/bn_fixed_point_0_split -> conv3_0/1x1_decrease/bn_conv3_0/1x1_decrease/bn_fixed_point_0_split_1
I1010 13:01:46.102010 26060 net.cpp:124] Setting up conv3_0/1x1_decrease/bn_conv3_0/1x1_decrease/bn_fixed_point_0_split
I1010 13:01:46.102015 26060 net.cpp:131] Top shape: 25 32 56 56 (2508800)
I1010 13:01:46.102020 26060 net.cpp:131] Top shape: 25 32 56 56 (2508800)
I1010 13:01:46.102022 26060 net.cpp:139] Memory required for data: 577024400
I1010 13:01:46.102027 26060 layer_factory.hpp:77] Creating layer conv3_1/1x1_increase
I1010 13:01:46.102037 26060 net.cpp:86] Creating Layer conv3_1/1x1_increase
I1010 13:01:46.102041 26060 net.cpp:409] conv3_1/1x1_increase <- conv3_0/1x1_decrease/bn_conv3_0/1x1_decrease/bn_fixed_point_0_split_0
I1010 13:01:46.102047 26060 net.cpp:383] conv3_1/1x1_increase -> conv3_1/1x1_increase/bn
I1010 13:01:46.102630 26060 net.cpp:124] Setting up conv3_1/1x1_increase
I1010 13:01:46.102641 26060 net.cpp:131] Top shape: 25 96 56 56 (7526400)
I1010 13:01:46.102644 26060 net.cpp:139] Memory required for data: 607130000
I1010 13:01:46.102651 26060 layer_factory.hpp:77] Creating layer conv3_1/1x1_increase/relu
I1010 13:01:46.102659 26060 net.cpp:86] Creating Layer conv3_1/1x1_increase/relu
I1010 13:01:46.102663 26060 net.cpp:409] conv3_1/1x1_increase/relu <- conv3_1/1x1_increase/bn
I1010 13:01:46.102669 26060 net.cpp:370] conv3_1/1x1_increase/relu -> conv3_1/1x1_increase/bn (in-place)
I1010 13:01:46.103175 26060 net.cpp:124] Setting up conv3_1/1x1_increase/relu
I1010 13:01:46.103185 26060 net.cpp:131] Top shape: 25 96 56 56 (7526400)
I1010 13:01:46.103188 26060 net.cpp:139] Memory required for data: 637235600
I1010 13:01:46.103191 26060 layer_factory.hpp:77] Creating layer conv3_1/1x1_increase/bn_fixed_point
I1010 13:01:46.103199 26060 net.cpp:86] Creating Layer conv3_1/1x1_increase/bn_fixed_point
I1010 13:01:46.103202 26060 net.cpp:409] conv3_1/1x1_increase/bn_fixed_point <- conv3_1/1x1_increase/bn
I1010 13:01:46.103209 26060 net.cpp:370] conv3_1/1x1_increase/bn_fixed_point -> conv3_1/1x1_increase/bn (in-place)
I1010 13:01:46.103241 26060 net.cpp:124] Setting up conv3_1/1x1_increase/bn_fixed_point
I1010 13:01:46.103247 26060 net.cpp:131] Top shape: 25 96 56 56 (7526400)
I1010 13:01:46.103250 26060 net.cpp:139] Memory required for data: 667341200
I1010 13:01:46.103255 26060 layer_factory.hpp:77] Creating layer conv3_1/3x3_dwconv
I1010 13:01:46.103263 26060 net.cpp:86] Creating Layer conv3_1/3x3_dwconv
I1010 13:01:46.103267 26060 net.cpp:409] conv3_1/3x3_dwconv <- conv3_1/1x1_increase/bn
I1010 13:01:46.103273 26060 net.cpp:383] conv3_1/3x3_dwconv -> conv3_1/3x3_dwconv/bn
I1010 13:01:46.104231 26060 net.cpp:124] Setting up conv3_1/3x3_dwconv
I1010 13:01:46.104244 26060 net.cpp:131] Top shape: 25 96 56 56 (7526400)
I1010 13:01:46.104259 26060 net.cpp:139] Memory required for data: 697446800
I1010 13:01:46.104270 26060 layer_factory.hpp:77] Creating layer conv3_1/3x3_dwconv/relu
I1010 13:01:46.104277 26060 net.cpp:86] Creating Layer conv3_1/3x3_dwconv/relu
I1010 13:01:46.104281 26060 net.cpp:409] conv3_1/3x3_dwconv/relu <- conv3_1/3x3_dwconv/bn
I1010 13:01:46.104287 26060 net.cpp:370] conv3_1/3x3_dwconv/relu -> conv3_1/3x3_dwconv/bn (in-place)
I1010 13:01:46.105532 26060 net.cpp:124] Setting up conv3_1/3x3_dwconv/relu
I1010 13:01:46.105545 26060 net.cpp:131] Top shape: 25 96 56 56 (7526400)
I1010 13:01:46.105549 26060 net.cpp:139] Memory required for data: 727552400
I1010 13:01:46.105552 26060 layer_factory.hpp:77] Creating layer conv3_1/3x3_dwconv/bn_fixed_point
I1010 13:01:46.105561 26060 net.cpp:86] Creating Layer conv3_1/3x3_dwconv/bn_fixed_point
I1010 13:01:46.105564 26060 net.cpp:409] conv3_1/3x3_dwconv/bn_fixed_point <- conv3_1/3x3_dwconv/bn
I1010 13:01:46.105571 26060 net.cpp:370] conv3_1/3x3_dwconv/bn_fixed_point -> conv3_1/3x3_dwconv/bn (in-place)
I1010 13:01:46.105604 26060 net.cpp:124] Setting up conv3_1/3x3_dwconv/bn_fixed_point
I1010 13:01:46.105609 26060 net.cpp:131] Top shape: 25 96 56 56 (7526400)
I1010 13:01:46.105612 26060 net.cpp:139] Memory required for data: 757658000
I1010 13:01:46.105618 26060 layer_factory.hpp:77] Creating layer conv3_1/1x1_decrease
I1010 13:01:46.105628 26060 net.cpp:86] Creating Layer conv3_1/1x1_decrease
I1010 13:01:46.105630 26060 net.cpp:409] conv3_1/1x1_decrease <- conv3_1/3x3_dwconv/bn
I1010 13:01:46.105636 26060 net.cpp:383] conv3_1/1x1_decrease -> conv3_1/1x1_decrease/bn
I1010 13:01:46.106235 26060 net.cpp:124] Setting up conv3_1/1x1_decrease
I1010 13:01:46.106247 26060 net.cpp:131] Top shape: 25 32 56 56 (2508800)
I1010 13:01:46.106251 26060 net.cpp:139] Memory required for data: 767693200
I1010 13:01:46.106257 26060 layer_factory.hpp:77] Creating layer conv3_1/elt_sum
I1010 13:01:46.106271 26060 net.cpp:86] Creating Layer conv3_1/elt_sum
I1010 13:01:46.106276 26060 net.cpp:409] conv3_1/elt_sum <- conv3_0/1x1_decrease/bn_conv3_0/1x1_decrease/bn_fixed_point_0_split_1
I1010 13:01:46.106281 26060 net.cpp:409] conv3_1/elt_sum <- conv3_1/1x1_decrease/bn
I1010 13:01:46.106287 26060 net.cpp:383] conv3_1/elt_sum -> conv3_1/elt_sum
I1010 13:01:46.106326 26060 net.cpp:124] Setting up conv3_1/elt_sum
I1010 13:01:46.106333 26060 net.cpp:131] Top shape: 25 32 56 56 (2508800)
I1010 13:01:46.106336 26060 net.cpp:139] Memory required for data: 777728400
I1010 13:01:46.106341 26060 layer_factory.hpp:77] Creating layer conv3_1/elt_sum_fixed_point
I1010 13:01:46.106348 26060 net.cpp:86] Creating Layer conv3_1/elt_sum_fixed_point
I1010 13:01:46.106353 26060 net.cpp:409] conv3_1/elt_sum_fixed_point <- conv3_1/elt_sum
I1010 13:01:46.106359 26060 net.cpp:370] conv3_1/elt_sum_fixed_point -> conv3_1/elt_sum (in-place)
I1010 13:01:46.106385 26060 net.cpp:124] Setting up conv3_1/elt_sum_fixed_point
I1010 13:01:46.106390 26060 net.cpp:131] Top shape: 25 32 56 56 (2508800)
I1010 13:01:46.106393 26060 net.cpp:139] Memory required for data: 787763600
I1010 13:01:46.106397 26060 layer_factory.hpp:77] Creating layer conv4_0/1x1_increase
I1010 13:01:46.106408 26060 net.cpp:86] Creating Layer conv4_0/1x1_increase
I1010 13:01:46.106411 26060 net.cpp:409] conv4_0/1x1_increase <- conv3_1/elt_sum
I1010 13:01:46.106417 26060 net.cpp:383] conv4_0/1x1_increase -> conv4_0/1x1_increase/bn
I1010 13:01:46.107550 26060 net.cpp:124] Setting up conv4_0/1x1_increase
I1010 13:01:46.107563 26060 net.cpp:131] Top shape: 25 96 56 56 (7526400)
I1010 13:01:46.107566 26060 net.cpp:139] Memory required for data: 817869200
I1010 13:01:46.107573 26060 layer_factory.hpp:77] Creating layer conv4_0/1x1_increase/hardswish
I1010 13:01:46.107591 26060 net.cpp:86] Creating Layer conv4_0/1x1_increase/hardswish
I1010 13:01:46.107596 26060 net.cpp:409] conv4_0/1x1_increase/hardswish <- conv4_0/1x1_increase/bn
I1010 13:01:46.107604 26060 net.cpp:370] conv4_0/1x1_increase/hardswish -> conv4_0/1x1_increase/bn (in-place)
I1010 13:01:46.107638 26060 net.cpp:124] Setting up conv4_0/1x1_increase/hardswish
I1010 13:01:46.107656 26060 net.cpp:131] Top shape: 25 96 56 56 (7526400)
I1010 13:01:46.107661 26060 net.cpp:139] Memory required for data: 847974800
I1010 13:01:46.107663 26060 layer_factory.hpp:77] Creating layer conv4_0/1x1_increase/bn_fixed_point
I1010 13:01:46.107671 26060 net.cpp:86] Creating Layer conv4_0/1x1_increase/bn_fixed_point
I1010 13:01:46.107676 26060 net.cpp:409] conv4_0/1x1_increase/bn_fixed_point <- conv4_0/1x1_increase/bn
I1010 13:01:46.107681 26060 net.cpp:370] conv4_0/1x1_increase/bn_fixed_point -> conv4_0/1x1_increase/bn (in-place)
I1010 13:01:46.107712 26060 net.cpp:124] Setting up conv4_0/1x1_increase/bn_fixed_point
I1010 13:01:46.107717 26060 net.cpp:131] Top shape: 25 96 56 56 (7526400)
I1010 13:01:46.107719 26060 net.cpp:139] Memory required for data: 878080400
I1010 13:01:46.107723 26060 layer_factory.hpp:77] Creating layer conv4_0/1x1_increase/slice
I1010 13:01:46.107735 26060 net.cpp:86] Creating Layer conv4_0/1x1_increase/slice
I1010 13:01:46.107738 26060 net.cpp:409] conv4_0/1x1_increase/slice <- conv4_0/1x1_increase/bn
I1010 13:01:46.107744 26060 net.cpp:383] conv4_0/1x1_increase/slice -> conv4_0/1x1_increase/split1
I1010 13:01:46.107755 26060 net.cpp:383] conv4_0/1x1_increase/slice -> conv4_0/1x1_increase/split2
I1010 13:01:46.107761 26060 net.cpp:383] conv4_0/1x1_increase/slice -> conv4_0/1x1_increase/split3
I1010 13:01:46.107821 26060 net.cpp:124] Setting up conv4_0/1x1_increase/slice
I1010 13:01:46.107831 26060 net.cpp:131] Top shape: 25 32 56 56 (2508800)
I1010 13:01:46.107838 26060 net.cpp:131] Top shape: 25 32 56 56 (2508800)
I1010 13:01:46.107844 26060 net.cpp:131] Top shape: 25 32 56 56 (2508800)
I1010 13:01:46.107849 26060 net.cpp:139] Memory required for data: 908186000
I1010 13:01:46.107856 26060 layer_factory.hpp:77] Creating layer conv4_0/3x3_dwconv/slice_0
I1010 13:01:46.107865 26060 net.cpp:86] Creating Layer conv4_0/3x3_dwconv/slice_0
I1010 13:01:46.107869 26060 net.cpp:409] conv4_0/3x3_dwconv/slice_0 <- conv4_0/1x1_increase/split1
I1010 13:01:46.107877 26060 net.cpp:383] conv4_0/3x3_dwconv/slice_0 -> conv4_0/3x3_dwconv/slice_0/bn
I1010 13:01:46.108407 26060 net.cpp:124] Setting up conv4_0/3x3_dwconv/slice_0
I1010 13:01:46.108418 26060 net.cpp:131] Top shape: 25 32 28 28 (627200)
I1010 13:01:46.108422 26060 net.cpp:139] Memory required for data: 910694800
I1010 13:01:46.108433 26060 layer_factory.hpp:77] Creating layer conv4_0/3x3_dwconv/slice_0/hardswish
I1010 13:01:46.108443 26060 net.cpp:86] Creating Layer conv4_0/3x3_dwconv/slice_0/hardswish
I1010 13:01:46.108446 26060 net.cpp:409] conv4_0/3x3_dwconv/slice_0/hardswish <- conv4_0/3x3_dwconv/slice_0/bn
I1010 13:01:46.108453 26060 net.cpp:370] conv4_0/3x3_dwconv/slice_0/hardswish -> conv4_0/3x3_dwconv/slice_0/bn (in-place)
I1010 13:01:46.108484 26060 net.cpp:124] Setting up conv4_0/3x3_dwconv/slice_0/hardswish
I1010 13:01:46.108489 26060 net.cpp:131] Top shape: 25 32 28 28 (627200)
I1010 13:01:46.108492 26060 net.cpp:139] Memory required for data: 913203600
I1010 13:01:46.108495 26060 layer_factory.hpp:77] Creating layer conv4_0/3x3_dwconv/slice_1
I1010 13:01:46.108505 26060 net.cpp:86] Creating Layer conv4_0/3x3_dwconv/slice_1
I1010 13:01:46.108508 26060 net.cpp:409] conv4_0/3x3_dwconv/slice_1 <- conv4_0/1x1_increase/split2
I1010 13:01:46.108515 26060 net.cpp:383] conv4_0/3x3_dwconv/slice_1 -> conv4_0/3x3_dwconv/slice_1/bn
I1010 13:01:46.109987 26060 net.cpp:124] Setting up conv4_0/3x3_dwconv/slice_1
I1010 13:01:46.109998 26060 net.cpp:131] Top shape: 25 32 28 28 (627200)
I1010 13:01:46.110002 26060 net.cpp:139] Memory required for data: 915712400
I1010 13:01:46.110009 26060 layer_factory.hpp:77] Creating layer conv4_0/3x3_dwconv/slice_1/hardswish
I1010 13:01:46.110016 26060 net.cpp:86] Creating Layer conv4_0/3x3_dwconv/slice_1/hardswish
I1010 13:01:46.110020 26060 net.cpp:409] conv4_0/3x3_dwconv/slice_1/hardswish <- conv4_0/3x3_dwconv/slice_1/bn
I1010 13:01:46.110026 26060 net.cpp:370] conv4_0/3x3_dwconv/slice_1/hardswish -> conv4_0/3x3_dwconv/slice_1/bn (in-place)
I1010 13:01:46.110072 26060 net.cpp:124] Setting up conv4_0/3x3_dwconv/slice_1/hardswish
I1010 13:01:46.110080 26060 net.cpp:131] Top shape: 25 32 28 28 (627200)
I1010 13:01:46.110082 26060 net.cpp:139] Memory required for data: 918221200
I1010 13:01:46.110085 26060 layer_factory.hpp:77] Creating layer conv4_0/3x3_dwconv/slice_2
I1010 13:01:46.110097 26060 net.cpp:86] Creating Layer conv4_0/3x3_dwconv/slice_2
I1010 13:01:46.110101 26060 net.cpp:409] conv4_0/3x3_dwconv/slice_2 <- conv4_0/1x1_increase/split3
I1010 13:01:46.110107 26060 net.cpp:383] conv4_0/3x3_dwconv/slice_2 -> conv4_0/3x3_dwconv/slice_2/bn
I1010 13:01:46.111155 26060 net.cpp:124] Setting up conv4_0/3x3_dwconv/slice_2
I1010 13:01:46.111171 26060 net.cpp:131] Top shape: 25 32 28 28 (627200)
I1010 13:01:46.111176 26060 net.cpp:139] Memory required for data: 920730000
I1010 13:01:46.111183 26060 layer_factory.hpp:77] Creating layer conv4_0/3x3_dwconv/slice_2/hardswish
I1010 13:01:46.111191 26060 net.cpp:86] Creating Layer conv4_0/3x3_dwconv/slice_2/hardswish
I1010 13:01:46.111194 26060 net.cpp:409] conv4_0/3x3_dwconv/slice_2/hardswish <- conv4_0/3x3_dwconv/slice_2/bn
I1010 13:01:46.111201 26060 net.cpp:370] conv4_0/3x3_dwconv/slice_2/hardswish -> conv4_0/3x3_dwconv/slice_2/bn (in-place)
I1010 13:01:46.111232 26060 net.cpp:124] Setting up conv4_0/3x3_dwconv/slice_2/hardswish
I1010 13:01:46.111238 26060 net.cpp:131] Top shape: 25 32 28 28 (627200)
I1010 13:01:46.111241 26060 net.cpp:139] Memory required for data: 923238800
I1010 13:01:46.111248 26060 layer_factory.hpp:77] Creating layer conv4_0/3x3_dwconv/concat
I1010 13:01:46.111263 26060 net.cpp:86] Creating Layer conv4_0/3x3_dwconv/concat
I1010 13:01:46.111266 26060 net.cpp:409] conv4_0/3x3_dwconv/concat <- conv4_0/3x3_dwconv/slice_0/bn
I1010 13:01:46.111271 26060 net.cpp:409] conv4_0/3x3_dwconv/concat <- conv4_0/3x3_dwconv/slice_1/bn
I1010 13:01:46.111275 26060 net.cpp:409] conv4_0/3x3_dwconv/concat <- conv4_0/3x3_dwconv/slice_2/bn
I1010 13:01:46.111281 26060 net.cpp:383] conv4_0/3x3_dwconv/concat -> conv4_0/3x3_dwconv/concat
I1010 13:01:46.111315 26060 net.cpp:124] Setting up conv4_0/3x3_dwconv/concat
I1010 13:01:46.111320 26060 net.cpp:131] Top shape: 25 96 28 28 (1881600)
I1010 13:01:46.111323 26060 net.cpp:139] Memory required for data: 930765200
I1010 13:01:46.111326 26060 layer_factory.hpp:77] Creating layer conv4_0/3x3_dwconv/concat_fixed_point
I1010 13:01:46.111333 26060 net.cpp:86] Creating Layer conv4_0/3x3_dwconv/concat_fixed_point
I1010 13:01:46.111337 26060 net.cpp:409] conv4_0/3x3_dwconv/concat_fixed_point <- conv4_0/3x3_dwconv/concat
I1010 13:01:46.111342 26060 net.cpp:370] conv4_0/3x3_dwconv/concat_fixed_point -> conv4_0/3x3_dwconv/concat (in-place)
I1010 13:01:46.111369 26060 net.cpp:124] Setting up conv4_0/3x3_dwconv/concat_fixed_point
I1010 13:01:46.111374 26060 net.cpp:131] Top shape: 25 96 28 28 (1881600)
I1010 13:01:46.111377 26060 net.cpp:139] Memory required for data: 938291600
I1010 13:01:46.111382 26060 layer_factory.hpp:77] Creating layer conv4_0/3x3_dwconv/concat_conv4_0/3x3_dwconv/concat_fixed_point_0_split
I1010 13:01:46.111387 26060 net.cpp:86] Creating Layer conv4_0/3x3_dwconv/concat_conv4_0/3x3_dwconv/concat_fixed_point_0_split
I1010 13:01:46.111390 26060 net.cpp:409] conv4_0/3x3_dwconv/concat_conv4_0/3x3_dwconv/concat_fixed_point_0_split <- conv4_0/3x3_dwconv/concat
I1010 13:01:46.111395 26060 net.cpp:383] conv4_0/3x3_dwconv/concat_conv4_0/3x3_dwconv/concat_fixed_point_0_split -> conv4_0/3x3_dwconv/concat_conv4_0/3x3_dwconv/concat_fixed_point_0_split_0
I1010 13:01:46.111402 26060 net.cpp:383] conv4_0/3x3_dwconv/concat_conv4_0/3x3_dwconv/concat_fixed_point_0_split -> conv4_0/3x3_dwconv/concat_conv4_0/3x3_dwconv/concat_fixed_point_0_split_1
I1010 13:01:46.111440 26060 net.cpp:124] Setting up conv4_0/3x3_dwconv/concat_conv4_0/3x3_dwconv/concat_fixed_point_0_split
I1010 13:01:46.111445 26060 net.cpp:131] Top shape: 25 96 28 28 (1881600)
I1010 13:01:46.111449 26060 net.cpp:131] Top shape: 25 96 28 28 (1881600)
I1010 13:01:46.111452 26060 net.cpp:139] Memory required for data: 953344400
I1010 13:01:46.111466 26060 layer_factory.hpp:77] Creating layer conv4_0/3x3_dwconv/SE_global_pool
I1010 13:01:46.111477 26060 net.cpp:86] Creating Layer conv4_0/3x3_dwconv/SE_global_pool
I1010 13:01:46.111481 26060 net.cpp:409] conv4_0/3x3_dwconv/SE_global_pool <- conv4_0/3x3_dwconv/concat_conv4_0/3x3_dwconv/concat_fixed_point_0_split_0
I1010 13:01:46.111486 26060 net.cpp:383] conv4_0/3x3_dwconv/SE_global_pool -> conv4_0/3x3_dwconv/SE_global_pool
I1010 13:01:46.111531 26060 net.cpp:124] Setting up conv4_0/3x3_dwconv/SE_global_pool
I1010 13:01:46.111536 26060 net.cpp:131] Top shape: 25 96 1 1 (2400)
I1010 13:01:46.111541 26060 net.cpp:139] Memory required for data: 953354000
I1010 13:01:46.111546 26060 layer_factory.hpp:77] Creating layer conv4_0/3x3_dwconv/SE_bn
I1010 13:01:46.111555 26060 net.cpp:86] Creating Layer conv4_0/3x3_dwconv/SE_bn
I1010 13:01:46.111558 26060 net.cpp:409] conv4_0/3x3_dwconv/SE_bn <- conv4_0/3x3_dwconv/SE_global_pool
I1010 13:01:46.111564 26060 net.cpp:383] conv4_0/3x3_dwconv/SE_bn -> conv4_0/3x3_dwconv/SE_bn
I1010 13:01:46.111618 26060 layer_factory.hpp:77] Creating layer conv4_0/3x3_dwconv/SE_bn
I1010 13:01:46.111758 26060 net.cpp:124] Setting up conv4_0/3x3_dwconv/SE_bn
I1010 13:01:46.111764 26060 net.cpp:131] Top shape: 25 96 1 1 (2400)
I1010 13:01:46.111768 26060 net.cpp:139] Memory required for data: 953363600
I1010 13:01:46.111774 26060 layer_factory.hpp:77] Creating layer conv4_0/3x3_dwconv/SE_fc1
I1010 13:01:46.111783 26060 net.cpp:86] Creating Layer conv4_0/3x3_dwconv/SE_fc1
I1010 13:01:46.111786 26060 net.cpp:409] conv4_0/3x3_dwconv/SE_fc1 <- conv4_0/3x3_dwconv/SE_bn
I1010 13:01:46.111793 26060 net.cpp:383] conv4_0/3x3_dwconv/SE_fc1 -> conv4_0/3x3_dwconv/SE_fc1
I1010 13:01:46.112193 26060 net.cpp:124] Setting up conv4_0/3x3_dwconv/SE_fc1
I1010 13:01:46.112203 26060 net.cpp:131] Top shape: 25 6 1 1 (150)
I1010 13:01:46.112207 26060 net.cpp:139] Memory required for data: 953364200
I1010 13:01:46.112212 26060 layer_factory.hpp:77] Creating layer conv4_0/3x3_dwconv/SE_fc1/relu
I1010 13:01:46.112221 26060 net.cpp:86] Creating Layer conv4_0/3x3_dwconv/SE_fc1/relu
I1010 13:01:46.112224 26060 net.cpp:409] conv4_0/3x3_dwconv/SE_fc1/relu <- conv4_0/3x3_dwconv/SE_fc1
I1010 13:01:46.112229 26060 net.cpp:370] conv4_0/3x3_dwconv/SE_fc1/relu -> conv4_0/3x3_dwconv/SE_fc1 (in-place)
I1010 13:01:46.112774 26060 net.cpp:124] Setting up conv4_0/3x3_dwconv/SE_fc1/relu
I1010 13:01:46.112787 26060 net.cpp:131] Top shape: 25 6 1 1 (150)
I1010 13:01:46.112789 26060 net.cpp:139] Memory required for data: 953364800
I1010 13:01:46.112793 26060 layer_factory.hpp:77] Creating layer conv4_0/3x3_dwconv/SE_fc2
I1010 13:01:46.112803 26060 net.cpp:86] Creating Layer conv4_0/3x3_dwconv/SE_fc2
I1010 13:01:46.112807 26060 net.cpp:409] conv4_0/3x3_dwconv/SE_fc2 <- conv4_0/3x3_dwconv/SE_fc1
I1010 13:01:46.112814 26060 net.cpp:383] conv4_0/3x3_dwconv/SE_fc2 -> conv4_0/3x3_dwconv/SE_fc2
I1010 13:01:46.113225 26060 net.cpp:124] Setting up conv4_0/3x3_dwconv/SE_fc2
I1010 13:01:46.113236 26060 net.cpp:131] Top shape: 25 96 1 1 (2400)
I1010 13:01:46.113240 26060 net.cpp:139] Memory required for data: 953374400
I1010 13:01:46.113246 26060 layer_factory.hpp:77] Creating layer conv4_0/3x3_dwconv/SE_weights
I1010 13:01:46.113256 26060 net.cpp:86] Creating Layer conv4_0/3x3_dwconv/SE_weights
I1010 13:01:46.113260 26060 net.cpp:409] conv4_0/3x3_dwconv/SE_weights <- conv4_0/3x3_dwconv/SE_fc2
I1010 13:01:46.113266 26060 net.cpp:370] conv4_0/3x3_dwconv/SE_weights -> conv4_0/3x3_dwconv/SE_fc2 (in-place)
I1010 13:01:46.113770 26060 net.cpp:124] Setting up conv4_0/3x3_dwconv/SE_weights
I1010 13:01:46.113780 26060 net.cpp:131] Top shape: 25 96 1 1 (2400)
I1010 13:01:46.113783 26060 net.cpp:139] Memory required for data: 953384000
I1010 13:01:46.113786 26060 layer_factory.hpp:77] Creating layer conv4_0/3x3_dwconv/SE_weights/reshape
I1010 13:01:46.113796 26060 net.cpp:86] Creating Layer conv4_0/3x3_dwconv/SE_weights/reshape
I1010 13:01:46.113801 26060 net.cpp:409] conv4_0/3x3_dwconv/SE_weights/reshape <- conv4_0/3x3_dwconv/SE_fc2
I1010 13:01:46.113819 26060 net.cpp:383] conv4_0/3x3_dwconv/SE_weights/reshape -> conv4_0/3x3_dwconv/SE_weights/reshape
I1010 13:01:46.113867 26060 net.cpp:124] Setting up conv4_0/3x3_dwconv/SE_weights/reshape
I1010 13:01:46.113873 26060 net.cpp:131] Top shape: 25 96 (2400)
I1010 13:01:46.113875 26060 net.cpp:139] Memory required for data: 953393600
I1010 13:01:46.113878 26060 layer_factory.hpp:77] Creating layer conv4_0/3x3_dwconv/scale
I1010 13:01:46.113885 26060 net.cpp:86] Creating Layer conv4_0/3x3_dwconv/scale
I1010 13:01:46.113889 26060 net.cpp:409] conv4_0/3x3_dwconv/scale <- conv4_0/3x3_dwconv/concat_conv4_0/3x3_dwconv/concat_fixed_point_0_split_1
I1010 13:01:46.113895 26060 net.cpp:409] conv4_0/3x3_dwconv/scale <- conv4_0/3x3_dwconv/SE_weights/reshape
I1010 13:01:46.113901 26060 net.cpp:383] conv4_0/3x3_dwconv/scale -> conv4_0/3x3_dwconv/scale
I1010 13:01:46.113979 26060 net.cpp:124] Setting up conv4_0/3x3_dwconv/scale
I1010 13:01:46.113986 26060 net.cpp:131] Top shape: 25 96 28 28 (1881600)
I1010 13:01:46.113989 26060 net.cpp:139] Memory required for data: 960920000
I1010 13:01:46.113992 26060 layer_factory.hpp:77] Creating layer conv4_0/3x3_dwconv/scale_fixed_point
I1010 13:01:46.114001 26060 net.cpp:86] Creating Layer conv4_0/3x3_dwconv/scale_fixed_point
I1010 13:01:46.114006 26060 net.cpp:409] conv4_0/3x3_dwconv/scale_fixed_point <- conv4_0/3x3_dwconv/scale
I1010 13:01:46.114012 26060 net.cpp:370] conv4_0/3x3_dwconv/scale_fixed_point -> conv4_0/3x3_dwconv/scale (in-place)
I1010 13:01:46.114038 26060 net.cpp:124] Setting up conv4_0/3x3_dwconv/scale_fixed_point
I1010 13:01:46.114043 26060 net.cpp:131] Top shape: 25 96 28 28 (1881600)
I1010 13:01:46.114046 26060 net.cpp:139] Memory required for data: 968446400
I1010 13:01:46.114051 26060 layer_factory.hpp:77] Creating layer conv4_0/1x1_decrease
I1010 13:01:46.114059 26060 net.cpp:86] Creating Layer conv4_0/1x1_decrease
I1010 13:01:46.114063 26060 net.cpp:409] conv4_0/1x1_decrease <- conv4_0/3x3_dwconv/scale
I1010 13:01:46.114068 26060 net.cpp:383] conv4_0/1x1_decrease -> conv4_0/1x1_decrease/bn
I1010 13:01:46.114688 26060 net.cpp:124] Setting up conv4_0/1x1_decrease
I1010 13:01:46.114699 26060 net.cpp:131] Top shape: 25 40 28 28 (784000)
I1010 13:01:46.114703 26060 net.cpp:139] Memory required for data: 971582400
I1010 13:01:46.114711 26060 layer_factory.hpp:77] Creating layer conv4_0/1x1_decrease/bn_fixed_point
I1010 13:01:46.114717 26060 net.cpp:86] Creating Layer conv4_0/1x1_decrease/bn_fixed_point
I1010 13:01:46.114722 26060 net.cpp:409] conv4_0/1x1_decrease/bn_fixed_point <- conv4_0/1x1_decrease/bn
I1010 13:01:46.114727 26060 net.cpp:370] conv4_0/1x1_decrease/bn_fixed_point -> conv4_0/1x1_decrease/bn (in-place)
I1010 13:01:46.114760 26060 net.cpp:124] Setting up conv4_0/1x1_decrease/bn_fixed_point
I1010 13:01:46.114765 26060 net.cpp:131] Top shape: 25 40 28 28 (784000)
I1010 13:01:46.114768 26060 net.cpp:139] Memory required for data: 974718400
I1010 13:01:46.114773 26060 layer_factory.hpp:77] Creating layer conv4_0/1x1_decrease/bn_conv4_0/1x1_decrease/bn_fixed_point_0_split
I1010 13:01:46.114779 26060 net.cpp:86] Creating Layer conv4_0/1x1_decrease/bn_conv4_0/1x1_decrease/bn_fixed_point_0_split
I1010 13:01:46.114782 26060 net.cpp:409] conv4_0/1x1_decrease/bn_conv4_0/1x1_decrease/bn_fixed_point_0_split <- conv4_0/1x1_decrease/bn
I1010 13:01:46.114787 26060 net.cpp:383] conv4_0/1x1_decrease/bn_conv4_0/1x1_decrease/bn_fixed_point_0_split -> conv4_0/1x1_decrease/bn_conv4_0/1x1_decrease/bn_fixed_point_0_split_0
I1010 13:01:46.114794 26060 net.cpp:383] conv4_0/1x1_decrease/bn_conv4_0/1x1_decrease/bn_fixed_point_0_split -> conv4_0/1x1_decrease/bn_conv4_0/1x1_decrease/bn_fixed_point_0_split_1
I1010 13:01:46.114835 26060 net.cpp:124] Setting up conv4_0/1x1_decrease/bn_conv4_0/1x1_decrease/bn_fixed_point_0_split
I1010 13:01:46.114841 26060 net.cpp:131] Top shape: 25 40 28 28 (784000)
I1010 13:01:46.114845 26060 net.cpp:131] Top shape: 25 40 28 28 (784000)
I1010 13:01:46.114848 26060 net.cpp:139] Memory required for data: 980990400
I1010 13:01:46.114851 26060 layer_factory.hpp:77] Creating layer conv4_1/1x1_increase
I1010 13:01:46.114873 26060 net.cpp:86] Creating Layer conv4_1/1x1_increase
I1010 13:01:46.114877 26060 net.cpp:409] conv4_1/1x1_increase <- conv4_0/1x1_decrease/bn_conv4_0/1x1_decrease/bn_fixed_point_0_split_0
I1010 13:01:46.114884 26060 net.cpp:383] conv4_1/1x1_increase -> conv4_1/1x1_increase/bn
I1010 13:01:46.115561 26060 net.cpp:124] Setting up conv4_1/1x1_increase
I1010 13:01:46.115572 26060 net.cpp:131] Top shape: 25 120 28 28 (2352000)
I1010 13:01:46.115576 26060 net.cpp:139] Memory required for data: 990398400
I1010 13:01:46.115583 26060 layer_factory.hpp:77] Creating layer conv4_1/1x1_increase/hardswish
I1010 13:01:46.115589 26060 net.cpp:86] Creating Layer conv4_1/1x1_increase/hardswish
I1010 13:01:46.115593 26060 net.cpp:409] conv4_1/1x1_increase/hardswish <- conv4_1/1x1_increase/bn
I1010 13:01:46.115598 26060 net.cpp:370] conv4_1/1x1_increase/hardswish -> conv4_1/1x1_increase/bn (in-place)
I1010 13:01:46.115631 26060 net.cpp:124] Setting up conv4_1/1x1_increase/hardswish
I1010 13:01:46.115636 26060 net.cpp:131] Top shape: 25 120 28 28 (2352000)
I1010 13:01:46.115640 26060 net.cpp:139] Memory required for data: 999806400
I1010 13:01:46.115645 26060 layer_factory.hpp:77] Creating layer conv4_1/1x1_increase/bn_fixed_point
I1010 13:01:46.115654 26060 net.cpp:86] Creating Layer conv4_1/1x1_increase/bn_fixed_point
I1010 13:01:46.115660 26060 net.cpp:409] conv4_1/1x1_increase/bn_fixed_point <- conv4_1/1x1_increase/bn
I1010 13:01:46.115669 26060 net.cpp:370] conv4_1/1x1_increase/bn_fixed_point -> conv4_1/1x1_increase/bn (in-place)
I1010 13:01:46.115701 26060 net.cpp:124] Setting up conv4_1/1x1_increase/bn_fixed_point
I1010 13:01:46.115706 26060 net.cpp:131] Top shape: 25 120 28 28 (2352000)
I1010 13:01:46.115710 26060 net.cpp:139] Memory required for data: 1009214400
I1010 13:01:46.115715 26060 layer_factory.hpp:77] Creating layer conv4_1/1x1_increase/slice
I1010 13:01:46.115720 26060 net.cpp:86] Creating Layer conv4_1/1x1_increase/slice
I1010 13:01:46.115725 26060 net.cpp:409] conv4_1/1x1_increase/slice <- conv4_1/1x1_increase/bn
I1010 13:01:46.115731 26060 net.cpp:383] conv4_1/1x1_increase/slice -> conv4_1/1x1_increase/split1
I1010 13:01:46.115737 26060 net.cpp:383] conv4_1/1x1_increase/slice -> conv4_1/1x1_increase/split2
I1010 13:01:46.115778 26060 net.cpp:124] Setting up conv4_1/1x1_increase/slice
I1010 13:01:46.115783 26060 net.cpp:131] Top shape: 25 60 28 28 (1176000)
I1010 13:01:46.115787 26060 net.cpp:131] Top shape: 25 60 28 28 (1176000)
I1010 13:01:46.115790 26060 net.cpp:139] Memory required for data: 1018622400
I1010 13:01:46.115794 26060 layer_factory.hpp:77] Creating layer conv4_1/3x3_dwconv/slice_0
I1010 13:01:46.115804 26060 net.cpp:86] Creating Layer conv4_1/3x3_dwconv/slice_0
I1010 13:01:46.115808 26060 net.cpp:409] conv4_1/3x3_dwconv/slice_0 <- conv4_1/1x1_increase/split1
I1010 13:01:46.115813 26060 net.cpp:383] conv4_1/3x3_dwconv/slice_0 -> conv4_1/3x3_dwconv/slice_0/bn
I1010 13:01:46.116341 26060 net.cpp:124] Setting up conv4_1/3x3_dwconv/slice_0
I1010 13:01:46.116353 26060 net.cpp:131] Top shape: 25 60 28 28 (1176000)
I1010 13:01:46.116355 26060 net.cpp:139] Memory required for data: 1023326400
I1010 13:01:46.116362 26060 layer_factory.hpp:77] Creating layer conv4_1/3x3_dwconv/slice_0/hardswish
I1010 13:01:46.116369 26060 net.cpp:86] Creating Layer conv4_1/3x3_dwconv/slice_0/hardswish
I1010 13:01:46.116372 26060 net.cpp:409] conv4_1/3x3_dwconv/slice_0/hardswish <- conv4_1/3x3_dwconv/slice_0/bn
I1010 13:01:46.116379 26060 net.cpp:370] conv4_1/3x3_dwconv/slice_0/hardswish -> conv4_1/3x3_dwconv/slice_0/bn (in-place)
I1010 13:01:46.116410 26060 net.cpp:124] Setting up conv4_1/3x3_dwconv/slice_0/hardswish
I1010 13:01:46.116415 26060 net.cpp:131] Top shape: 25 60 28 28 (1176000)
I1010 13:01:46.116418 26060 net.cpp:139] Memory required for data: 1028030400
I1010 13:01:46.116421 26060 layer_factory.hpp:77] Creating layer conv4_1/3x3_dwconv/slice_1
I1010 13:01:46.116432 26060 net.cpp:86] Creating Layer conv4_1/3x3_dwconv/slice_1
I1010 13:01:46.116436 26060 net.cpp:409] conv4_1/3x3_dwconv/slice_1 <- conv4_1/1x1_increase/split2
I1010 13:01:46.116454 26060 net.cpp:383] conv4_1/3x3_dwconv/slice_1 -> conv4_1/3x3_dwconv/slice_1/bn
I1010 13:01:46.117482 26060 net.cpp:124] Setting up conv4_1/3x3_dwconv/slice_1
I1010 13:01:46.117496 26060 net.cpp:131] Top shape: 25 60 28 28 (1176000)
I1010 13:01:46.117499 26060 net.cpp:139] Memory required for data: 1032734400
I1010 13:01:46.117506 26060 layer_factory.hpp:77] Creating layer conv4_1/3x3_dwconv/slice_1/hardswish
I1010 13:01:46.117514 26060 net.cpp:86] Creating Layer conv4_1/3x3_dwconv/slice_1/hardswish
I1010 13:01:46.117518 26060 net.cpp:409] conv4_1/3x3_dwconv/slice_1/hardswish <- conv4_1/3x3_dwconv/slice_1/bn
I1010 13:01:46.117523 26060 net.cpp:370] conv4_1/3x3_dwconv/slice_1/hardswish -> conv4_1/3x3_dwconv/slice_1/bn (in-place)
I1010 13:01:46.117556 26060 net.cpp:124] Setting up conv4_1/3x3_dwconv/slice_1/hardswish
I1010 13:01:46.117563 26060 net.cpp:131] Top shape: 25 60 28 28 (1176000)
I1010 13:01:46.117565 26060 net.cpp:139] Memory required for data: 1037438400
I1010 13:01:46.117570 26060 layer_factory.hpp:77] Creating layer conv4_1/3x3_dwconv/concat
I1010 13:01:46.117578 26060 net.cpp:86] Creating Layer conv4_1/3x3_dwconv/concat
I1010 13:01:46.117581 26060 net.cpp:409] conv4_1/3x3_dwconv/concat <- conv4_1/3x3_dwconv/slice_0/bn
I1010 13:01:46.117585 26060 net.cpp:409] conv4_1/3x3_dwconv/concat <- conv4_1/3x3_dwconv/slice_1/bn
I1010 13:01:46.117591 26060 net.cpp:383] conv4_1/3x3_dwconv/concat -> conv4_1/3x3_dwconv/concat
I1010 13:01:46.117619 26060 net.cpp:124] Setting up conv4_1/3x3_dwconv/concat
I1010 13:01:46.117624 26060 net.cpp:131] Top shape: 25 120 28 28 (2352000)
I1010 13:01:46.117627 26060 net.cpp:139] Memory required for data: 1046846400
I1010 13:01:46.117630 26060 layer_factory.hpp:77] Creating layer conv4_1/3x3_dwconv/concat_fixed_point
I1010 13:01:46.117637 26060 net.cpp:86] Creating Layer conv4_1/3x3_dwconv/concat_fixed_point
I1010 13:01:46.117640 26060 net.cpp:409] conv4_1/3x3_dwconv/concat_fixed_point <- conv4_1/3x3_dwconv/concat
I1010 13:01:46.117646 26060 net.cpp:370] conv4_1/3x3_dwconv/concat_fixed_point -> conv4_1/3x3_dwconv/concat (in-place)
I1010 13:01:46.117672 26060 net.cpp:124] Setting up conv4_1/3x3_dwconv/concat_fixed_point
I1010 13:01:46.117677 26060 net.cpp:131] Top shape: 25 120 28 28 (2352000)
I1010 13:01:46.117681 26060 net.cpp:139] Memory required for data: 1056254400
I1010 13:01:46.117684 26060 layer_factory.hpp:77] Creating layer conv4_1/3x3_dwconv/concat_conv4_1/3x3_dwconv/concat_fixed_point_0_split
I1010 13:01:46.117693 26060 net.cpp:86] Creating Layer conv4_1/3x3_dwconv/concat_conv4_1/3x3_dwconv/concat_fixed_point_0_split
I1010 13:01:46.117697 26060 net.cpp:409] conv4_1/3x3_dwconv/concat_conv4_1/3x3_dwconv/concat_fixed_point_0_split <- conv4_1/3x3_dwconv/concat
I1010 13:01:46.117702 26060 net.cpp:383] conv4_1/3x3_dwconv/concat_conv4_1/3x3_dwconv/concat_fixed_point_0_split -> conv4_1/3x3_dwconv/concat_conv4_1/3x3_dwconv/concat_fixed_point_0_split_0
I1010 13:01:46.117709 26060 net.cpp:383] conv4_1/3x3_dwconv/concat_conv4_1/3x3_dwconv/concat_fixed_point_0_split -> conv4_1/3x3_dwconv/concat_conv4_1/3x3_dwconv/concat_fixed_point_0_split_1
I1010 13:01:46.117748 26060 net.cpp:124] Setting up conv4_1/3x3_dwconv/concat_conv4_1/3x3_dwconv/concat_fixed_point_0_split
I1010 13:01:46.117753 26060 net.cpp:131] Top shape: 25 120 28 28 (2352000)
I1010 13:01:46.117758 26060 net.cpp:131] Top shape: 25 120 28 28 (2352000)
I1010 13:01:46.117760 26060 net.cpp:139] Memory required for data: 1075070400
I1010 13:01:46.117764 26060 layer_factory.hpp:77] Creating layer conv4_1/3x3_dwconv/SE_global_pool
I1010 13:01:46.117771 26060 net.cpp:86] Creating Layer conv4_1/3x3_dwconv/SE_global_pool
I1010 13:01:46.117775 26060 net.cpp:409] conv4_1/3x3_dwconv/SE_global_pool <- conv4_1/3x3_dwconv/concat_conv4_1/3x3_dwconv/concat_fixed_point_0_split_0
I1010 13:01:46.117781 26060 net.cpp:383] conv4_1/3x3_dwconv/SE_global_pool -> conv4_1/3x3_dwconv/SE_global_pool
I1010 13:01:46.117806 26060 net.cpp:124] Setting up conv4_1/3x3_dwconv/SE_global_pool
I1010 13:01:46.117825 26060 net.cpp:131] Top shape: 25 120 1 1 (3000)
I1010 13:01:46.117827 26060 net.cpp:139] Memory required for data: 1075082400
I1010 13:01:46.117831 26060 layer_factory.hpp:77] Creating layer conv4_1/3x3_dwconv/SE_bn
I1010 13:01:46.117838 26060 net.cpp:86] Creating Layer conv4_1/3x3_dwconv/SE_bn
I1010 13:01:46.117842 26060 net.cpp:409] conv4_1/3x3_dwconv/SE_bn <- conv4_1/3x3_dwconv/SE_global_pool
I1010 13:01:46.117848 26060 net.cpp:383] conv4_1/3x3_dwconv/SE_bn -> conv4_1/3x3_dwconv/SE_bn
I1010 13:01:46.117895 26060 layer_factory.hpp:77] Creating layer conv4_1/3x3_dwconv/SE_bn
I1010 13:01:46.118023 26060 net.cpp:124] Setting up conv4_1/3x3_dwconv/SE_bn
I1010 13:01:46.118029 26060 net.cpp:131] Top shape: 25 120 1 1 (3000)
I1010 13:01:46.118032 26060 net.cpp:139] Memory required for data: 1075094400
I1010 13:01:46.118038 26060 layer_factory.hpp:77] Creating layer conv4_1/3x3_dwconv/SE_fc1
I1010 13:01:46.118048 26060 net.cpp:86] Creating Layer conv4_1/3x3_dwconv/SE_fc1
I1010 13:01:46.118052 26060 net.cpp:409] conv4_1/3x3_dwconv/SE_fc1 <- conv4_1/3x3_dwconv/SE_bn
I1010 13:01:46.118058 26060 net.cpp:383] conv4_1/3x3_dwconv/SE_fc1 -> conv4_1/3x3_dwconv/SE_fc1
I1010 13:01:46.118471 26060 net.cpp:124] Setting up conv4_1/3x3_dwconv/SE_fc1
I1010 13:01:46.118481 26060 net.cpp:131] Top shape: 25 7 1 1 (175)
I1010 13:01:46.118485 26060 net.cpp:139] Memory required for data: 1075095100
I1010 13:01:46.118490 26060 layer_factory.hpp:77] Creating layer conv4_1/3x3_dwconv/SE_fc1/relu
I1010 13:01:46.118496 26060 net.cpp:86] Creating Layer conv4_1/3x3_dwconv/SE_fc1/relu
I1010 13:01:46.118500 26060 net.cpp:409] conv4_1/3x3_dwconv/SE_fc1/relu <- conv4_1/3x3_dwconv/SE_fc1
I1010 13:01:46.118506 26060 net.cpp:370] conv4_1/3x3_dwconv/SE_fc1/relu -> conv4_1/3x3_dwconv/SE_fc1 (in-place)
I1010 13:01:46.119086 26060 net.cpp:124] Setting up conv4_1/3x3_dwconv/SE_fc1/relu
I1010 13:01:46.119096 26060 net.cpp:131] Top shape: 25 7 1 1 (175)
I1010 13:01:46.119099 26060 net.cpp:139] Memory required for data: 1075095800
I1010 13:01:46.119102 26060 layer_factory.hpp:77] Creating layer conv4_1/3x3_dwconv/SE_fc2
I1010 13:01:46.119122 26060 net.cpp:86] Creating Layer conv4_1/3x3_dwconv/SE_fc2
I1010 13:01:46.119127 26060 net.cpp:409] conv4_1/3x3_dwconv/SE_fc2 <- conv4_1/3x3_dwconv/SE_fc1
I1010 13:01:46.119134 26060 net.cpp:383] conv4_1/3x3_dwconv/SE_fc2 -> conv4_1/3x3_dwconv/SE_fc2
I1010 13:01:46.119557 26060 net.cpp:124] Setting up conv4_1/3x3_dwconv/SE_fc2
I1010 13:01:46.119568 26060 net.cpp:131] Top shape: 25 120 1 1 (3000)
I1010 13:01:46.119571 26060 net.cpp:139] Memory required for data: 1075107800
I1010 13:01:46.119576 26060 layer_factory.hpp:77] Creating layer conv4_1/3x3_dwconv/SE_weights
I1010 13:01:46.119585 26060 net.cpp:86] Creating Layer conv4_1/3x3_dwconv/SE_weights
I1010 13:01:46.119588 26060 net.cpp:409] conv4_1/3x3_dwconv/SE_weights <- conv4_1/3x3_dwconv/SE_fc2
I1010 13:01:46.119594 26060 net.cpp:370] conv4_1/3x3_dwconv/SE_weights -> conv4_1/3x3_dwconv/SE_fc2 (in-place)
I1010 13:01:46.120656 26060 net.cpp:124] Setting up conv4_1/3x3_dwconv/SE_weights
I1010 13:01:46.120668 26060 net.cpp:131] Top shape: 25 120 1 1 (3000)
I1010 13:01:46.120672 26060 net.cpp:139] Memory required for data: 1075119800
I1010 13:01:46.120676 26060 layer_factory.hpp:77] Creating layer conv4_1/3x3_dwconv/SE_weights/reshape
I1010 13:01:46.120687 26060 net.cpp:86] Creating Layer conv4_1/3x3_dwconv/SE_weights/reshape
I1010 13:01:46.120692 26060 net.cpp:409] conv4_1/3x3_dwconv/SE_weights/reshape <- conv4_1/3x3_dwconv/SE_fc2
I1010 13:01:46.120698 26060 net.cpp:383] conv4_1/3x3_dwconv/SE_weights/reshape -> conv4_1/3x3_dwconv/SE_weights/reshape
I1010 13:01:46.120735 26060 net.cpp:124] Setting up conv4_1/3x3_dwconv/SE_weights/reshape
I1010 13:01:46.120741 26060 net.cpp:131] Top shape: 25 120 (3000)
I1010 13:01:46.120744 26060 net.cpp:139] Memory required for data: 1075131800
I1010 13:01:46.120748 26060 layer_factory.hpp:77] Creating layer conv4_1/3x3_dwconv/scale
I1010 13:01:46.120754 26060 net.cpp:86] Creating Layer conv4_1/3x3_dwconv/scale
I1010 13:01:46.120770 26060 net.cpp:409] conv4_1/3x3_dwconv/scale <- conv4_1/3x3_dwconv/concat_conv4_1/3x3_dwconv/concat_fixed_point_0_split_1
I1010 13:01:46.120775 26060 net.cpp:409] conv4_1/3x3_dwconv/scale <- conv4_1/3x3_dwconv/SE_weights/reshape
I1010 13:01:46.120782 26060 net.cpp:383] conv4_1/3x3_dwconv/scale -> conv4_1/3x3_dwconv/scale
I1010 13:01:46.120865 26060 net.cpp:124] Setting up conv4_1/3x3_dwconv/scale
I1010 13:01:46.120872 26060 net.cpp:131] Top shape: 25 120 28 28 (2352000)
I1010 13:01:46.120874 26060 net.cpp:139] Memory required for data: 1084539800
I1010 13:01:46.120877 26060 layer_factory.hpp:77] Creating layer conv4_1/3x3_dwconv/scale_fixed_point
I1010 13:01:46.120887 26060 net.cpp:86] Creating Layer conv4_1/3x3_dwconv/scale_fixed_point
I1010 13:01:46.120890 26060 net.cpp:409] conv4_1/3x3_dwconv/scale_fixed_point <- conv4_1/3x3_dwconv/scale
I1010 13:01:46.120895 26060 net.cpp:370] conv4_1/3x3_dwconv/scale_fixed_point -> conv4_1/3x3_dwconv/scale (in-place)
I1010 13:01:46.120923 26060 net.cpp:124] Setting up conv4_1/3x3_dwconv/scale_fixed_point
I1010 13:01:46.120929 26060 net.cpp:131] Top shape: 25 120 28 28 (2352000)
I1010 13:01:46.120931 26060 net.cpp:139] Memory required for data: 1093947800
I1010 13:01:46.120936 26060 layer_factory.hpp:77] Creating layer conv4_1/1x1_decrease
I1010 13:01:46.120944 26060 net.cpp:86] Creating Layer conv4_1/1x1_decrease
I1010 13:01:46.120949 26060 net.cpp:409] conv4_1/1x1_decrease <- conv4_1/3x3_dwconv/scale
I1010 13:01:46.120954 26060 net.cpp:383] conv4_1/1x1_decrease -> conv4_1/1x1_decrease/bn
I1010 13:01:46.121610 26060 net.cpp:124] Setting up conv4_1/1x1_decrease
I1010 13:01:46.121623 26060 net.cpp:131] Top shape: 25 40 28 28 (784000)
I1010 13:01:46.121625 26060 net.cpp:139] Memory required for data: 1097083800
I1010 13:01:46.121632 26060 layer_factory.hpp:77] Creating layer conv4_1/elt_sum
I1010 13:01:46.121639 26060 net.cpp:86] Creating Layer conv4_1/elt_sum
I1010 13:01:46.121642 26060 net.cpp:409] conv4_1/elt_sum <- conv4_0/1x1_decrease/bn_conv4_0/1x1_decrease/bn_fixed_point_0_split_1
I1010 13:01:46.121647 26060 net.cpp:409] conv4_1/elt_sum <- conv4_1/1x1_decrease/bn
I1010 13:01:46.121654 26060 net.cpp:383] conv4_1/elt_sum -> conv4_1/elt_sum
I1010 13:01:46.121685 26060 net.cpp:124] Setting up conv4_1/elt_sum
I1010 13:01:46.121691 26060 net.cpp:131] Top shape: 25 40 28 28 (784000)
I1010 13:01:46.121695 26060 net.cpp:139] Memory required for data: 1100219800
I1010 13:01:46.121697 26060 layer_factory.hpp:77] Creating layer conv4_1/elt_sum_fixed_point
I1010 13:01:46.121703 26060 net.cpp:86] Creating Layer conv4_1/elt_sum_fixed_point
I1010 13:01:46.121707 26060 net.cpp:409] conv4_1/elt_sum_fixed_point <- conv4_1/elt_sum
I1010 13:01:46.121712 26060 net.cpp:370] conv4_1/elt_sum_fixed_point -> conv4_1/elt_sum (in-place)
I1010 13:01:46.121739 26060 net.cpp:124] Setting up conv4_1/elt_sum_fixed_point
I1010 13:01:46.121744 26060 net.cpp:131] Top shape: 25 40 28 28 (784000)
I1010 13:01:46.121747 26060 net.cpp:139] Memory required for data: 1103355800
I1010 13:01:46.121752 26060 layer_factory.hpp:77] Creating layer conv4_1/elt_sum_conv4_1/elt_sum_fixed_point_0_split
I1010 13:01:46.121759 26060 net.cpp:86] Creating Layer conv4_1/elt_sum_conv4_1/elt_sum_fixed_point_0_split
I1010 13:01:46.121762 26060 net.cpp:409] conv4_1/elt_sum_conv4_1/elt_sum_fixed_point_0_split <- conv4_1/elt_sum
I1010 13:01:46.121768 26060 net.cpp:383] conv4_1/elt_sum_conv4_1/elt_sum_fixed_point_0_split -> conv4_1/elt_sum_conv4_1/elt_sum_fixed_point_0_split_0
I1010 13:01:46.121774 26060 net.cpp:383] conv4_1/elt_sum_conv4_1/elt_sum_fixed_point_0_split -> conv4_1/elt_sum_conv4_1/elt_sum_fixed_point_0_split_1
I1010 13:01:46.121814 26060 net.cpp:124] Setting up conv4_1/elt_sum_conv4_1/elt_sum_fixed_point_0_split
I1010 13:01:46.121820 26060 net.cpp:131] Top shape: 25 40 28 28 (784000)
I1010 13:01:46.121824 26060 net.cpp:131] Top shape: 25 40 28 28 (784000)
I1010 13:01:46.121826 26060 net.cpp:139] Memory required for data: 1109627800
I1010 13:01:46.121829 26060 layer_factory.hpp:77] Creating layer conv4_2/1x1_increase
I1010 13:01:46.121850 26060 net.cpp:86] Creating Layer conv4_2/1x1_increase
I1010 13:01:46.121855 26060 net.cpp:409] conv4_2/1x1_increase <- conv4_1/elt_sum_conv4_1/elt_sum_fixed_point_0_split_0
I1010 13:01:46.121861 26060 net.cpp:383] conv4_2/1x1_increase -> conv4_2/1x1_increase/bn
I1010 13:01:46.122529 26060 net.cpp:124] Setting up conv4_2/1x1_increase
I1010 13:01:46.122540 26060 net.cpp:131] Top shape: 25 120 28 28 (2352000)
I1010 13:01:46.122545 26060 net.cpp:139] Memory required for data: 1119035800
I1010 13:01:46.122551 26060 layer_factory.hpp:77] Creating layer conv4_2/1x1_increase/hardswish
I1010 13:01:46.122557 26060 net.cpp:86] Creating Layer conv4_2/1x1_increase/hardswish
I1010 13:01:46.122561 26060 net.cpp:409] conv4_2/1x1_increase/hardswish <- conv4_2/1x1_increase/bn
I1010 13:01:46.122567 26060 net.cpp:370] conv4_2/1x1_increase/hardswish -> conv4_2/1x1_increase/bn (in-place)
I1010 13:01:46.122598 26060 net.cpp:124] Setting up conv4_2/1x1_increase/hardswish
I1010 13:01:46.122603 26060 net.cpp:131] Top shape: 25 120 28 28 (2352000)
I1010 13:01:46.122606 26060 net.cpp:139] Memory required for data: 1128443800
I1010 13:01:46.122611 26060 layer_factory.hpp:77] Creating layer conv4_2/1x1_increase/bn_fixed_point
I1010 13:01:46.122617 26060 net.cpp:86] Creating Layer conv4_2/1x1_increase/bn_fixed_point
I1010 13:01:46.122620 26060 net.cpp:409] conv4_2/1x1_increase/bn_fixed_point <- conv4_2/1x1_increase/bn
I1010 13:01:46.122625 26060 net.cpp:370] conv4_2/1x1_increase/bn_fixed_point -> conv4_2/1x1_increase/bn (in-place)
I1010 13:01:46.122651 26060 net.cpp:124] Setting up conv4_2/1x1_increase/bn_fixed_point
I1010 13:01:46.122656 26060 net.cpp:131] Top shape: 25 120 28 28 (2352000)
I1010 13:01:46.122659 26060 net.cpp:139] Memory required for data: 1137851800
I1010 13:01:46.122670 26060 layer_factory.hpp:77] Creating layer conv4_2/1x1_increase/slice
I1010 13:01:46.122678 26060 net.cpp:86] Creating Layer conv4_2/1x1_increase/slice
I1010 13:01:46.122682 26060 net.cpp:409] conv4_2/1x1_increase/slice <- conv4_2/1x1_increase/bn
I1010 13:01:46.122687 26060 net.cpp:383] conv4_2/1x1_increase/slice -> conv4_2/1x1_increase/split1
I1010 13:01:46.122694 26060 net.cpp:383] conv4_2/1x1_increase/slice -> conv4_2/1x1_increase/split2
I1010 13:01:46.122736 26060 net.cpp:124] Setting up conv4_2/1x1_increase/slice
I1010 13:01:46.122741 26060 net.cpp:131] Top shape: 25 60 28 28 (1176000)
I1010 13:01:46.122745 26060 net.cpp:131] Top shape: 25 60 28 28 (1176000)
I1010 13:01:46.122748 26060 net.cpp:139] Memory required for data: 1147259800
I1010 13:01:46.122751 26060 layer_factory.hpp:77] Creating layer conv4_2/3x3_dwconv/slice_0
I1010 13:01:46.122761 26060 net.cpp:86] Creating Layer conv4_2/3x3_dwconv/slice_0
I1010 13:01:46.122766 26060 net.cpp:409] conv4_2/3x3_dwconv/slice_0 <- conv4_2/1x1_increase/split1
I1010 13:01:46.122771 26060 net.cpp:383] conv4_2/3x3_dwconv/slice_0 -> conv4_2/3x3_dwconv/slice_0/bn
I1010 13:01:46.123304 26060 net.cpp:124] Setting up conv4_2/3x3_dwconv/slice_0
I1010 13:01:46.123315 26060 net.cpp:131] Top shape: 25 60 28 28 (1176000)
I1010 13:01:46.123319 26060 net.cpp:139] Memory required for data: 1151963800
I1010 13:01:46.123325 26060 layer_factory.hpp:77] Creating layer conv4_2/3x3_dwconv/slice_0/hardswish
I1010 13:01:46.123332 26060 net.cpp:86] Creating Layer conv4_2/3x3_dwconv/slice_0/hardswish
I1010 13:01:46.123337 26060 net.cpp:409] conv4_2/3x3_dwconv/slice_0/hardswish <- conv4_2/3x3_dwconv/slice_0/bn
I1010 13:01:46.123342 26060 net.cpp:370] conv4_2/3x3_dwconv/slice_0/hardswish -> conv4_2/3x3_dwconv/slice_0/bn (in-place)
I1010 13:01:46.123374 26060 net.cpp:124] Setting up conv4_2/3x3_dwconv/slice_0/hardswish
I1010 13:01:46.123380 26060 net.cpp:131] Top shape: 25 60 28 28 (1176000)
I1010 13:01:46.123383 26060 net.cpp:139] Memory required for data: 1156667800
I1010 13:01:46.123386 26060 layer_factory.hpp:77] Creating layer conv4_2/3x3_dwconv/slice_1
I1010 13:01:46.123394 26060 net.cpp:86] Creating Layer conv4_2/3x3_dwconv/slice_1
I1010 13:01:46.123399 26060 net.cpp:409] conv4_2/3x3_dwconv/slice_1 <- conv4_2/1x1_increase/split2
I1010 13:01:46.123416 26060 net.cpp:383] conv4_2/3x3_dwconv/slice_1 -> conv4_2/3x3_dwconv/slice_1/bn
I1010 13:01:46.124505 26060 net.cpp:124] Setting up conv4_2/3x3_dwconv/slice_1
I1010 13:01:46.124517 26060 net.cpp:131] Top shape: 25 60 28 28 (1176000)
I1010 13:01:46.124521 26060 net.cpp:139] Memory required for data: 1161371800
I1010 13:01:46.124531 26060 layer_factory.hpp:77] Creating layer conv4_2/3x3_dwconv/slice_1/hardswish
I1010 13:01:46.124538 26060 net.cpp:86] Creating Layer conv4_2/3x3_dwconv/slice_1/hardswish
I1010 13:01:46.124542 26060 net.cpp:409] conv4_2/3x3_dwconv/slice_1/hardswish <- conv4_2/3x3_dwconv/slice_1/bn
I1010 13:01:46.124548 26060 net.cpp:370] conv4_2/3x3_dwconv/slice_1/hardswish -> conv4_2/3x3_dwconv/slice_1/bn (in-place)
I1010 13:01:46.124581 26060 net.cpp:124] Setting up conv4_2/3x3_dwconv/slice_1/hardswish
I1010 13:01:46.124588 26060 net.cpp:131] Top shape: 25 60 28 28 (1176000)
I1010 13:01:46.124590 26060 net.cpp:139] Memory required for data: 1166075800
I1010 13:01:46.124593 26060 layer_factory.hpp:77] Creating layer conv4_2/3x3_dwconv/concat
I1010 13:01:46.124600 26060 net.cpp:86] Creating Layer conv4_2/3x3_dwconv/concat
I1010 13:01:46.124603 26060 net.cpp:409] conv4_2/3x3_dwconv/concat <- conv4_2/3x3_dwconv/slice_0/bn
I1010 13:01:46.124608 26060 net.cpp:409] conv4_2/3x3_dwconv/concat <- conv4_2/3x3_dwconv/slice_1/bn
I1010 13:01:46.124614 26060 net.cpp:383] conv4_2/3x3_dwconv/concat -> conv4_2/3x3_dwconv/concat
I1010 13:01:46.124642 26060 net.cpp:124] Setting up conv4_2/3x3_dwconv/concat
I1010 13:01:46.124649 26060 net.cpp:131] Top shape: 25 120 28 28 (2352000)
I1010 13:01:46.124651 26060 net.cpp:139] Memory required for data: 1175483800
I1010 13:01:46.124655 26060 layer_factory.hpp:77] Creating layer conv4_2/3x3_dwconv/concat_fixed_point
I1010 13:01:46.124660 26060 net.cpp:86] Creating Layer conv4_2/3x3_dwconv/concat_fixed_point
I1010 13:01:46.124665 26060 net.cpp:409] conv4_2/3x3_dwconv/concat_fixed_point <- conv4_2/3x3_dwconv/concat
I1010 13:01:46.124670 26060 net.cpp:370] conv4_2/3x3_dwconv/concat_fixed_point -> conv4_2/3x3_dwconv/concat (in-place)
I1010 13:01:46.124696 26060 net.cpp:124] Setting up conv4_2/3x3_dwconv/concat_fixed_point
I1010 13:01:46.124701 26060 net.cpp:131] Top shape: 25 120 28 28 (2352000)
I1010 13:01:46.124703 26060 net.cpp:139] Memory required for data: 1184891800
I1010 13:01:46.124708 26060 layer_factory.hpp:77] Creating layer conv4_2/3x3_dwconv/concat_conv4_2/3x3_dwconv/concat_fixed_point_0_split
I1010 13:01:46.124713 26060 net.cpp:86] Creating Layer conv4_2/3x3_dwconv/concat_conv4_2/3x3_dwconv/concat_fixed_point_0_split
I1010 13:01:46.124717 26060 net.cpp:409] conv4_2/3x3_dwconv/concat_conv4_2/3x3_dwconv/concat_fixed_point_0_split <- conv4_2/3x3_dwconv/concat
I1010 13:01:46.124722 26060 net.cpp:383] conv4_2/3x3_dwconv/concat_conv4_2/3x3_dwconv/concat_fixed_point_0_split -> conv4_2/3x3_dwconv/concat_conv4_2/3x3_dwconv/concat_fixed_point_0_split_0
I1010 13:01:46.124729 26060 net.cpp:383] conv4_2/3x3_dwconv/concat_conv4_2/3x3_dwconv/concat_fixed_point_0_split -> conv4_2/3x3_dwconv/concat_conv4_2/3x3_dwconv/concat_fixed_point_0_split_1
I1010 13:01:46.124768 26060 net.cpp:124] Setting up conv4_2/3x3_dwconv/concat_conv4_2/3x3_dwconv/concat_fixed_point_0_split
I1010 13:01:46.124773 26060 net.cpp:131] Top shape: 25 120 28 28 (2352000)
I1010 13:01:46.124778 26060 net.cpp:131] Top shape: 25 120 28 28 (2352000)
I1010 13:01:46.124780 26060 net.cpp:139] Memory required for data: 1203707800
I1010 13:01:46.124784 26060 layer_factory.hpp:77] Creating layer conv4_2/3x3_dwconv/SE_global_pool
I1010 13:01:46.124790 26060 net.cpp:86] Creating Layer conv4_2/3x3_dwconv/SE_global_pool
I1010 13:01:46.124794 26060 net.cpp:409] conv4_2/3x3_dwconv/SE_global_pool <- conv4_2/3x3_dwconv/concat_conv4_2/3x3_dwconv/concat_fixed_point_0_split_0
I1010 13:01:46.124800 26060 net.cpp:383] conv4_2/3x3_dwconv/SE_global_pool -> conv4_2/3x3_dwconv/SE_global_pool
I1010 13:01:46.124825 26060 net.cpp:124] Setting up conv4_2/3x3_dwconv/SE_global_pool
I1010 13:01:46.124831 26060 net.cpp:131] Top shape: 25 120 1 1 (3000)
I1010 13:01:46.124846 26060 net.cpp:139] Memory required for data: 1203719800
I1010 13:01:46.124850 26060 layer_factory.hpp:77] Creating layer conv4_2/3x3_dwconv/SE_bn
I1010 13:01:46.124857 26060 net.cpp:86] Creating Layer conv4_2/3x3_dwconv/SE_bn
I1010 13:01:46.124861 26060 net.cpp:409] conv4_2/3x3_dwconv/SE_bn <- conv4_2/3x3_dwconv/SE_global_pool
I1010 13:01:46.124866 26060 net.cpp:383] conv4_2/3x3_dwconv/SE_bn -> conv4_2/3x3_dwconv/SE_bn
I1010 13:01:46.124914 26060 layer_factory.hpp:77] Creating layer conv4_2/3x3_dwconv/SE_bn
I1010 13:01:46.125044 26060 net.cpp:124] Setting up conv4_2/3x3_dwconv/SE_bn
I1010 13:01:46.125051 26060 net.cpp:131] Top shape: 25 120 1 1 (3000)
I1010 13:01:46.125054 26060 net.cpp:139] Memory required for data: 1203731800
I1010 13:01:46.125059 26060 layer_factory.hpp:77] Creating layer conv4_2/3x3_dwconv/SE_fc1
I1010 13:01:46.125070 26060 net.cpp:86] Creating Layer conv4_2/3x3_dwconv/SE_fc1
I1010 13:01:46.125073 26060 net.cpp:409] conv4_2/3x3_dwconv/SE_fc1 <- conv4_2/3x3_dwconv/SE_bn
I1010 13:01:46.125079 26060 net.cpp:383] conv4_2/3x3_dwconv/SE_fc1 -> conv4_2/3x3_dwconv/SE_fc1
I1010 13:01:46.125532 26060 net.cpp:124] Setting up conv4_2/3x3_dwconv/SE_fc1
I1010 13:01:46.125545 26060 net.cpp:131] Top shape: 25 7 1 1 (175)
I1010 13:01:46.125548 26060 net.cpp:139] Memory required for data: 1203732500
I1010 13:01:46.125553 26060 layer_factory.hpp:77] Creating layer conv4_2/3x3_dwconv/SE_fc1/relu
I1010 13:01:46.125562 26060 net.cpp:86] Creating Layer conv4_2/3x3_dwconv/SE_fc1/relu
I1010 13:01:46.125566 26060 net.cpp:409] conv4_2/3x3_dwconv/SE_fc1/relu <- conv4_2/3x3_dwconv/SE_fc1
I1010 13:01:46.125571 26060 net.cpp:370] conv4_2/3x3_dwconv/SE_fc1/relu -> conv4_2/3x3_dwconv/SE_fc1 (in-place)
I1010 13:01:46.126184 26060 net.cpp:124] Setting up conv4_2/3x3_dwconv/SE_fc1/relu
I1010 13:01:46.126195 26060 net.cpp:131] Top shape: 25 7 1 1 (175)
I1010 13:01:46.126199 26060 net.cpp:139] Memory required for data: 1203733200
I1010 13:01:46.126204 26060 layer_factory.hpp:77] Creating layer conv4_2/3x3_dwconv/SE_fc2
I1010 13:01:46.126215 26060 net.cpp:86] Creating Layer conv4_2/3x3_dwconv/SE_fc2
I1010 13:01:46.126219 26060 net.cpp:409] conv4_2/3x3_dwconv/SE_fc2 <- conv4_2/3x3_dwconv/SE_fc1
I1010 13:01:46.126225 26060 net.cpp:383] conv4_2/3x3_dwconv/SE_fc2 -> conv4_2/3x3_dwconv/SE_fc2
I1010 13:01:46.126662 26060 net.cpp:124] Setting up conv4_2/3x3_dwconv/SE_fc2
I1010 13:01:46.126672 26060 net.cpp:131] Top shape: 25 120 1 1 (3000)
I1010 13:01:46.126675 26060 net.cpp:139] Memory required for data: 1203745200
I1010 13:01:46.126682 26060 layer_factory.hpp:77] Creating layer conv4_2/3x3_dwconv/SE_weights
I1010 13:01:46.126688 26060 net.cpp:86] Creating Layer conv4_2/3x3_dwconv/SE_weights
I1010 13:01:46.126691 26060 net.cpp:409] conv4_2/3x3_dwconv/SE_weights <- conv4_2/3x3_dwconv/SE_fc2
I1010 13:01:46.126696 26060 net.cpp:370] conv4_2/3x3_dwconv/SE_weights -> conv4_2/3x3_dwconv/SE_fc2 (in-place)
I1010 13:01:46.127301 26060 net.cpp:124] Setting up conv4_2/3x3_dwconv/SE_weights
I1010 13:01:46.127311 26060 net.cpp:131] Top shape: 25 120 1 1 (3000)
I1010 13:01:46.127315 26060 net.cpp:139] Memory required for data: 1203757200
I1010 13:01:46.127318 26060 layer_factory.hpp:77] Creating layer conv4_2/3x3_dwconv/SE_weights/reshape
I1010 13:01:46.127326 26060 net.cpp:86] Creating Layer conv4_2/3x3_dwconv/SE_weights/reshape
I1010 13:01:46.127331 26060 net.cpp:409] conv4_2/3x3_dwconv/SE_weights/reshape <- conv4_2/3x3_dwconv/SE_fc2
I1010 13:01:46.127336 26060 net.cpp:383] conv4_2/3x3_dwconv/SE_weights/reshape -> conv4_2/3x3_dwconv/SE_weights/reshape
I1010 13:01:46.127372 26060 net.cpp:124] Setting up conv4_2/3x3_dwconv/SE_weights/reshape
I1010 13:01:46.127378 26060 net.cpp:131] Top shape: 25 120 (3000)
I1010 13:01:46.127382 26060 net.cpp:139] Memory required for data: 1203769200
I1010 13:01:46.127384 26060 layer_factory.hpp:77] Creating layer conv4_2/3x3_dwconv/scale
I1010 13:01:46.127393 26060 net.cpp:86] Creating Layer conv4_2/3x3_dwconv/scale
I1010 13:01:46.127398 26060 net.cpp:409] conv4_2/3x3_dwconv/scale <- conv4_2/3x3_dwconv/concat_conv4_2/3x3_dwconv/concat_fixed_point_0_split_1
I1010 13:01:46.127413 26060 net.cpp:409] conv4_2/3x3_dwconv/scale <- conv4_2/3x3_dwconv/SE_weights/reshape
I1010 13:01:46.127418 26060 net.cpp:383] conv4_2/3x3_dwconv/scale -> conv4_2/3x3_dwconv/scale
I1010 13:01:46.127502 26060 net.cpp:124] Setting up conv4_2/3x3_dwconv/scale
I1010 13:01:46.127508 26060 net.cpp:131] Top shape: 25 120 28 28 (2352000)
I1010 13:01:46.127511 26060 net.cpp:139] Memory required for data: 1213177200
I1010 13:01:46.127516 26060 layer_factory.hpp:77] Creating layer conv4_2/3x3_dwconv/scale_fixed_point
I1010 13:01:46.127522 26060 net.cpp:86] Creating Layer conv4_2/3x3_dwconv/scale_fixed_point
I1010 13:01:46.127526 26060 net.cpp:409] conv4_2/3x3_dwconv/scale_fixed_point <- conv4_2/3x3_dwconv/scale
I1010 13:01:46.127530 26060 net.cpp:370] conv4_2/3x3_dwconv/scale_fixed_point -> conv4_2/3x3_dwconv/scale (in-place)
I1010 13:01:46.127558 26060 net.cpp:124] Setting up conv4_2/3x3_dwconv/scale_fixed_point
I1010 13:01:46.127563 26060 net.cpp:131] Top shape: 25 120 28 28 (2352000)
I1010 13:01:46.127565 26060 net.cpp:139] Memory required for data: 1222585200
I1010 13:01:46.127570 26060 layer_factory.hpp:77] Creating layer conv4_2/1x1_decrease
I1010 13:01:46.127579 26060 net.cpp:86] Creating Layer conv4_2/1x1_decrease
I1010 13:01:46.127583 26060 net.cpp:409] conv4_2/1x1_decrease <- conv4_2/3x3_dwconv/scale
I1010 13:01:46.127590 26060 net.cpp:383] conv4_2/1x1_decrease -> conv4_2/1x1_decrease/bn
I1010 13:01:46.128262 26060 net.cpp:124] Setting up conv4_2/1x1_decrease
I1010 13:01:46.128273 26060 net.cpp:131] Top shape: 25 40 28 28 (784000)
I1010 13:01:46.128276 26060 net.cpp:139] Memory required for data: 1225721200
I1010 13:01:46.128283 26060 layer_factory.hpp:77] Creating layer conv4_2/elt_sum
I1010 13:01:46.128289 26060 net.cpp:86] Creating Layer conv4_2/elt_sum
I1010 13:01:46.128293 26060 net.cpp:409] conv4_2/elt_sum <- conv4_1/elt_sum_conv4_1/elt_sum_fixed_point_0_split_1
I1010 13:01:46.128298 26060 net.cpp:409] conv4_2/elt_sum <- conv4_2/1x1_decrease/bn
I1010 13:01:46.128305 26060 net.cpp:383] conv4_2/elt_sum -> conv4_2/elt_sum
I1010 13:01:46.128338 26060 net.cpp:124] Setting up conv4_2/elt_sum
I1010 13:01:46.128345 26060 net.cpp:131] Top shape: 25 40 28 28 (784000)
I1010 13:01:46.128348 26060 net.cpp:139] Memory required for data: 1228857200
I1010 13:01:46.128351 26060 layer_factory.hpp:77] Creating layer conv4_2/elt_sum_fixed_point
I1010 13:01:46.128357 26060 net.cpp:86] Creating Layer conv4_2/elt_sum_fixed_point
I1010 13:01:46.128361 26060 net.cpp:409] conv4_2/elt_sum_fixed_point <- conv4_2/elt_sum
I1010 13:01:46.128365 26060 net.cpp:370] conv4_2/elt_sum_fixed_point -> conv4_2/elt_sum (in-place)
I1010 13:01:46.128394 26060 net.cpp:124] Setting up conv4_2/elt_sum_fixed_point
I1010 13:01:46.128399 26060 net.cpp:131] Top shape: 25 40 28 28 (784000)
I1010 13:01:46.128402 26060 net.cpp:139] Memory required for data: 1231993200
I1010 13:01:46.128407 26060 layer_factory.hpp:77] Creating layer conv4_2/elt_sum_conv4_2/elt_sum_fixed_point_0_split
I1010 13:01:46.128412 26060 net.cpp:86] Creating Layer conv4_2/elt_sum_conv4_2/elt_sum_fixed_point_0_split
I1010 13:01:46.128415 26060 net.cpp:409] conv4_2/elt_sum_conv4_2/elt_sum_fixed_point_0_split <- conv4_2/elt_sum
I1010 13:01:46.128419 26060 net.cpp:383] conv4_2/elt_sum_conv4_2/elt_sum_fixed_point_0_split -> conv4_2/elt_sum_conv4_2/elt_sum_fixed_point_0_split_0
I1010 13:01:46.128425 26060 net.cpp:383] conv4_2/elt_sum_conv4_2/elt_sum_fixed_point_0_split -> conv4_2/elt_sum_conv4_2/elt_sum_fixed_point_0_split_1
I1010 13:01:46.128468 26060 net.cpp:124] Setting up conv4_2/elt_sum_conv4_2/elt_sum_fixed_point_0_split
I1010 13:01:46.128473 26060 net.cpp:131] Top shape: 25 40 28 28 (784000)
I1010 13:01:46.128477 26060 net.cpp:131] Top shape: 25 40 28 28 (784000)
I1010 13:01:46.128480 26060 net.cpp:139] Memory required for data: 1238265200
I1010 13:01:46.128482 26060 layer_factory.hpp:77] Creating layer conv4_3/1x1_increase
I1010 13:01:46.128491 26060 net.cpp:86] Creating Layer conv4_3/1x1_increase
I1010 13:01:46.128506 26060 net.cpp:409] conv4_3/1x1_increase <- conv4_2/elt_sum_conv4_2/elt_sum_fixed_point_0_split_0
I1010 13:01:46.128515 26060 net.cpp:383] conv4_3/1x1_increase -> conv4_3/1x1_increase/bn
I1010 13:01:46.129516 26060 net.cpp:124] Setting up conv4_3/1x1_increase
I1010 13:01:46.129529 26060 net.cpp:131] Top shape: 25 120 28 28 (2352000)
I1010 13:01:46.129532 26060 net.cpp:139] Memory required for data: 1247673200
I1010 13:01:46.129539 26060 layer_factory.hpp:77] Creating layer conv4_3/1x1_increase/hardswish
I1010 13:01:46.129546 26060 net.cpp:86] Creating Layer conv4_3/1x1_increase/hardswish
I1010 13:01:46.129549 26060 net.cpp:409] conv4_3/1x1_increase/hardswish <- conv4_3/1x1_increase/bn
I1010 13:01:46.129556 26060 net.cpp:370] conv4_3/1x1_increase/hardswish -> conv4_3/1x1_increase/bn (in-place)
I1010 13:01:46.129592 26060 net.cpp:124] Setting up conv4_3/1x1_increase/hardswish
I1010 13:01:46.129598 26060 net.cpp:131] Top shape: 25 120 28 28 (2352000)
I1010 13:01:46.129601 26060 net.cpp:139] Memory required for data: 1257081200
I1010 13:01:46.129604 26060 layer_factory.hpp:77] Creating layer conv4_3/1x1_increase/bn_fixed_point
I1010 13:01:46.129611 26060 net.cpp:86] Creating Layer conv4_3/1x1_increase/bn_fixed_point
I1010 13:01:46.129616 26060 net.cpp:409] conv4_3/1x1_increase/bn_fixed_point <- conv4_3/1x1_increase/bn
I1010 13:01:46.129621 26060 net.cpp:370] conv4_3/1x1_increase/bn_fixed_point -> conv4_3/1x1_increase/bn (in-place)
I1010 13:01:46.129649 26060 net.cpp:124] Setting up conv4_3/1x1_increase/bn_fixed_point
I1010 13:01:46.129657 26060 net.cpp:131] Top shape: 25 120 28 28 (2352000)
I1010 13:01:46.129659 26060 net.cpp:139] Memory required for data: 1266489200
I1010 13:01:46.129664 26060 layer_factory.hpp:77] Creating layer conv4_3/1x1_increase/slice
I1010 13:01:46.129670 26060 net.cpp:86] Creating Layer conv4_3/1x1_increase/slice
I1010 13:01:46.129673 26060 net.cpp:409] conv4_3/1x1_increase/slice <- conv4_3/1x1_increase/bn
I1010 13:01:46.129678 26060 net.cpp:383] conv4_3/1x1_increase/slice -> conv4_3/1x1_increase/split1
I1010 13:01:46.129686 26060 net.cpp:383] conv4_3/1x1_increase/slice -> conv4_3/1x1_increase/split2
I1010 13:01:46.129729 26060 net.cpp:124] Setting up conv4_3/1x1_increase/slice
I1010 13:01:46.129735 26060 net.cpp:131] Top shape: 25 60 28 28 (1176000)
I1010 13:01:46.129739 26060 net.cpp:131] Top shape: 25 60 28 28 (1176000)
I1010 13:01:46.129741 26060 net.cpp:139] Memory required for data: 1275897200
I1010 13:01:46.129745 26060 layer_factory.hpp:77] Creating layer conv4_3/3x3_dwconv/slice_0
I1010 13:01:46.129755 26060 net.cpp:86] Creating Layer conv4_3/3x3_dwconv/slice_0
I1010 13:01:46.129757 26060 net.cpp:409] conv4_3/3x3_dwconv/slice_0 <- conv4_3/1x1_increase/split1
I1010 13:01:46.129765 26060 net.cpp:383] conv4_3/3x3_dwconv/slice_0 -> conv4_3/3x3_dwconv/slice_0/bn
I1010 13:01:46.130316 26060 net.cpp:124] Setting up conv4_3/3x3_dwconv/slice_0
I1010 13:01:46.130327 26060 net.cpp:131] Top shape: 25 60 28 28 (1176000)
I1010 13:01:46.130331 26060 net.cpp:139] Memory required for data: 1280601200
I1010 13:01:46.130337 26060 layer_factory.hpp:77] Creating layer conv4_3/3x3_dwconv/slice_0/hardswish
I1010 13:01:46.130344 26060 net.cpp:86] Creating Layer conv4_3/3x3_dwconv/slice_0/hardswish
I1010 13:01:46.130348 26060 net.cpp:409] conv4_3/3x3_dwconv/slice_0/hardswish <- conv4_3/3x3_dwconv/slice_0/bn
I1010 13:01:46.130353 26060 net.cpp:370] conv4_3/3x3_dwconv/slice_0/hardswish -> conv4_3/3x3_dwconv/slice_0/bn (in-place)
I1010 13:01:46.130388 26060 net.cpp:124] Setting up conv4_3/3x3_dwconv/slice_0/hardswish
I1010 13:01:46.130393 26060 net.cpp:131] Top shape: 25 60 28 28 (1176000)
I1010 13:01:46.130396 26060 net.cpp:139] Memory required for data: 1285305200
I1010 13:01:46.130400 26060 layer_factory.hpp:77] Creating layer conv4_3/3x3_dwconv/slice_1
I1010 13:01:46.130410 26060 net.cpp:86] Creating Layer conv4_3/3x3_dwconv/slice_1
I1010 13:01:46.130414 26060 net.cpp:409] conv4_3/3x3_dwconv/slice_1 <- conv4_3/1x1_increase/split2
I1010 13:01:46.130422 26060 net.cpp:383] conv4_3/3x3_dwconv/slice_1 -> conv4_3/3x3_dwconv/slice_1/bn
I1010 13:01:46.131619 26060 net.cpp:124] Setting up conv4_3/3x3_dwconv/slice_1
I1010 13:01:46.131631 26060 net.cpp:131] Top shape: 25 60 28 28 (1176000)
I1010 13:01:46.131634 26060 net.cpp:139] Memory required for data: 1290009200
I1010 13:01:46.131641 26060 layer_factory.hpp:77] Creating layer conv4_3/3x3_dwconv/slice_1/hardswish
I1010 13:01:46.131649 26060 net.cpp:86] Creating Layer conv4_3/3x3_dwconv/slice_1/hardswish
I1010 13:01:46.131654 26060 net.cpp:409] conv4_3/3x3_dwconv/slice_1/hardswish <- conv4_3/3x3_dwconv/slice_1/bn
I1010 13:01:46.131659 26060 net.cpp:370] conv4_3/3x3_dwconv/slice_1/hardswish -> conv4_3/3x3_dwconv/slice_1/bn (in-place)
I1010 13:01:46.131693 26060 net.cpp:124] Setting up conv4_3/3x3_dwconv/slice_1/hardswish
I1010 13:01:46.131700 26060 net.cpp:131] Top shape: 25 60 28 28 (1176000)
I1010 13:01:46.131702 26060 net.cpp:139] Memory required for data: 1294713200
I1010 13:01:46.131705 26060 layer_factory.hpp:77] Creating layer conv4_3/3x3_dwconv/concat
I1010 13:01:46.131712 26060 net.cpp:86] Creating Layer conv4_3/3x3_dwconv/concat
I1010 13:01:46.131716 26060 net.cpp:409] conv4_3/3x3_dwconv/concat <- conv4_3/3x3_dwconv/slice_0/bn
I1010 13:01:46.131721 26060 net.cpp:409] conv4_3/3x3_dwconv/concat <- conv4_3/3x3_dwconv/slice_1/bn
I1010 13:01:46.131727 26060 net.cpp:383] conv4_3/3x3_dwconv/concat -> conv4_3/3x3_dwconv/concat
I1010 13:01:46.131755 26060 net.cpp:124] Setting up conv4_3/3x3_dwconv/concat
I1010 13:01:46.131760 26060 net.cpp:131] Top shape: 25 120 28 28 (2352000)
I1010 13:01:46.131763 26060 net.cpp:139] Memory required for data: 1304121200
I1010 13:01:46.131767 26060 layer_factory.hpp:77] Creating layer conv4_3/3x3_dwconv/concat_fixed_point
I1010 13:01:46.131774 26060 net.cpp:86] Creating Layer conv4_3/3x3_dwconv/concat_fixed_point
I1010 13:01:46.131778 26060 net.cpp:409] conv4_3/3x3_dwconv/concat_fixed_point <- conv4_3/3x3_dwconv/concat
I1010 13:01:46.131784 26060 net.cpp:370] conv4_3/3x3_dwconv/concat_fixed_point -> conv4_3/3x3_dwconv/concat (in-place)
I1010 13:01:46.131811 26060 net.cpp:124] Setting up conv4_3/3x3_dwconv/concat_fixed_point
I1010 13:01:46.131816 26060 net.cpp:131] Top shape: 25 120 28 28 (2352000)
I1010 13:01:46.131819 26060 net.cpp:139] Memory required for data: 1313529200
I1010 13:01:46.131824 26060 layer_factory.hpp:77] Creating layer conv4_3/3x3_dwconv/concat_conv4_3/3x3_dwconv/concat_fixed_point_0_split
I1010 13:01:46.131831 26060 net.cpp:86] Creating Layer conv4_3/3x3_dwconv/concat_conv4_3/3x3_dwconv/concat_fixed_point_0_split
I1010 13:01:46.131835 26060 net.cpp:409] conv4_3/3x3_dwconv/concat_conv4_3/3x3_dwconv/concat_fixed_point_0_split <- conv4_3/3x3_dwconv/concat
I1010 13:01:46.131839 26060 net.cpp:383] conv4_3/3x3_dwconv/concat_conv4_3/3x3_dwconv/concat_fixed_point_0_split -> conv4_3/3x3_dwconv/concat_conv4_3/3x3_dwconv/concat_fixed_point_0_split_0
I1010 13:01:46.131846 26060 net.cpp:383] conv4_3/3x3_dwconv/concat_conv4_3/3x3_dwconv/concat_fixed_point_0_split -> conv4_3/3x3_dwconv/concat_conv4_3/3x3_dwconv/concat_fixed_point_0_split_1
I1010 13:01:46.131891 26060 net.cpp:124] Setting up conv4_3/3x3_dwconv/concat_conv4_3/3x3_dwconv/concat_fixed_point_0_split
I1010 13:01:46.131896 26060 net.cpp:131] Top shape: 25 120 28 28 (2352000)
I1010 13:01:46.131899 26060 net.cpp:131] Top shape: 25 120 28 28 (2352000)
I1010 13:01:46.131902 26060 net.cpp:139] Memory required for data: 1332345200
I1010 13:01:46.131906 26060 layer_factory.hpp:77] Creating layer conv4_3/3x3_dwconv/SE_global_pool
I1010 13:01:46.131911 26060 net.cpp:86] Creating Layer conv4_3/3x3_dwconv/SE_global_pool
I1010 13:01:46.131914 26060 net.cpp:409] conv4_3/3x3_dwconv/SE_global_pool <- conv4_3/3x3_dwconv/concat_conv4_3/3x3_dwconv/concat_fixed_point_0_split_0
I1010 13:01:46.131922 26060 net.cpp:383] conv4_3/3x3_dwconv/SE_global_pool -> conv4_3/3x3_dwconv/SE_global_pool
I1010 13:01:46.131947 26060 net.cpp:124] Setting up conv4_3/3x3_dwconv/SE_global_pool
I1010 13:01:46.131952 26060 net.cpp:131] Top shape: 25 120 1 1 (3000)
I1010 13:01:46.131954 26060 net.cpp:139] Memory required for data: 1332357200
I1010 13:01:46.131969 26060 layer_factory.hpp:77] Creating layer conv4_3/3x3_dwconv/SE_bn
I1010 13:01:46.131980 26060 net.cpp:86] Creating Layer conv4_3/3x3_dwconv/SE_bn
I1010 13:01:46.131984 26060 net.cpp:409] conv4_3/3x3_dwconv/SE_bn <- conv4_3/3x3_dwconv/SE_global_pool
I1010 13:01:46.131990 26060 net.cpp:383] conv4_3/3x3_dwconv/SE_bn -> conv4_3/3x3_dwconv/SE_bn
I1010 13:01:46.132041 26060 layer_factory.hpp:77] Creating layer conv4_3/3x3_dwconv/SE_bn
I1010 13:01:46.132179 26060 net.cpp:124] Setting up conv4_3/3x3_dwconv/SE_bn
I1010 13:01:46.132185 26060 net.cpp:131] Top shape: 25 120 1 1 (3000)
I1010 13:01:46.132189 26060 net.cpp:139] Memory required for data: 1332369200
I1010 13:01:46.132194 26060 layer_factory.hpp:77] Creating layer conv4_3/3x3_dwconv/SE_fc1
I1010 13:01:46.132202 26060 net.cpp:86] Creating Layer conv4_3/3x3_dwconv/SE_fc1
I1010 13:01:46.132205 26060 net.cpp:409] conv4_3/3x3_dwconv/SE_fc1 <- conv4_3/3x3_dwconv/SE_bn
I1010 13:01:46.132213 26060 net.cpp:383] conv4_3/3x3_dwconv/SE_fc1 -> conv4_3/3x3_dwconv/SE_fc1
I1010 13:01:46.132627 26060 net.cpp:124] Setting up conv4_3/3x3_dwconv/SE_fc1
I1010 13:01:46.132637 26060 net.cpp:131] Top shape: 25 7 1 1 (175)
I1010 13:01:46.132640 26060 net.cpp:139] Memory required for data: 1332369900
I1010 13:01:46.132647 26060 layer_factory.hpp:77] Creating layer conv4_3/3x3_dwconv/SE_fc1/relu
I1010 13:01:46.132652 26060 net.cpp:86] Creating Layer conv4_3/3x3_dwconv/SE_fc1/relu
I1010 13:01:46.132656 26060 net.cpp:409] conv4_3/3x3_dwconv/SE_fc1/relu <- conv4_3/3x3_dwconv/SE_fc1
I1010 13:01:46.132661 26060 net.cpp:370] conv4_3/3x3_dwconv/SE_fc1/relu -> conv4_3/3x3_dwconv/SE_fc1 (in-place)
I1010 13:01:46.134037 26060 net.cpp:124] Setting up conv4_3/3x3_dwconv/SE_fc1/relu
I1010 13:01:46.134049 26060 net.cpp:131] Top shape: 25 7 1 1 (175)
I1010 13:01:46.134052 26060 net.cpp:139] Memory required for data: 1332370600
I1010 13:01:46.134057 26060 layer_factory.hpp:77] Creating layer conv4_3/3x3_dwconv/SE_fc2
I1010 13:01:46.134069 26060 net.cpp:86] Creating Layer conv4_3/3x3_dwconv/SE_fc2
I1010 13:01:46.134073 26060 net.cpp:409] conv4_3/3x3_dwconv/SE_fc2 <- conv4_3/3x3_dwconv/SE_fc1
I1010 13:01:46.134081 26060 net.cpp:383] conv4_3/3x3_dwconv/SE_fc2 -> conv4_3/3x3_dwconv/SE_fc2
I1010 13:01:46.134528 26060 net.cpp:124] Setting up conv4_3/3x3_dwconv/SE_fc2
I1010 13:01:46.134539 26060 net.cpp:131] Top shape: 25 120 1 1 (3000)
I1010 13:01:46.134542 26060 net.cpp:139] Memory required for data: 1332382600
I1010 13:01:46.134548 26060 layer_factory.hpp:77] Creating layer conv4_3/3x3_dwconv/SE_weights
I1010 13:01:46.134554 26060 net.cpp:86] Creating Layer conv4_3/3x3_dwconv/SE_weights
I1010 13:01:46.134558 26060 net.cpp:409] conv4_3/3x3_dwconv/SE_weights <- conv4_3/3x3_dwconv/SE_fc2
I1010 13:01:46.134563 26060 net.cpp:370] conv4_3/3x3_dwconv/SE_weights -> conv4_3/3x3_dwconv/SE_fc2 (in-place)
I1010 13:01:46.135193 26060 net.cpp:124] Setting up conv4_3/3x3_dwconv/SE_weights
I1010 13:01:46.135205 26060 net.cpp:131] Top shape: 25 120 1 1 (3000)
I1010 13:01:46.135210 26060 net.cpp:139] Memory required for data: 1332394600
I1010 13:01:46.135212 26060 layer_factory.hpp:77] Creating layer conv4_3/3x3_dwconv/SE_weights/reshape
I1010 13:01:46.135221 26060 net.cpp:86] Creating Layer conv4_3/3x3_dwconv/SE_weights/reshape
I1010 13:01:46.135224 26060 net.cpp:409] conv4_3/3x3_dwconv/SE_weights/reshape <- conv4_3/3x3_dwconv/SE_fc2
I1010 13:01:46.135231 26060 net.cpp:383] conv4_3/3x3_dwconv/SE_weights/reshape -> conv4_3/3x3_dwconv/SE_weights/reshape
I1010 13:01:46.135268 26060 net.cpp:124] Setting up conv4_3/3x3_dwconv/SE_weights/reshape
I1010 13:01:46.135274 26060 net.cpp:131] Top shape: 25 120 (3000)
I1010 13:01:46.135277 26060 net.cpp:139] Memory required for data: 1332406600
I1010 13:01:46.135282 26060 layer_factory.hpp:77] Creating layer conv4_3/3x3_dwconv/scale
I1010 13:01:46.135288 26060 net.cpp:86] Creating Layer conv4_3/3x3_dwconv/scale
I1010 13:01:46.135293 26060 net.cpp:409] conv4_3/3x3_dwconv/scale <- conv4_3/3x3_dwconv/concat_conv4_3/3x3_dwconv/concat_fixed_point_0_split_1
I1010 13:01:46.135309 26060 net.cpp:409] conv4_3/3x3_dwconv/scale <- conv4_3/3x3_dwconv/SE_weights/reshape
I1010 13:01:46.135315 26060 net.cpp:383] conv4_3/3x3_dwconv/scale -> conv4_3/3x3_dwconv/scale
I1010 13:01:46.135399 26060 net.cpp:124] Setting up conv4_3/3x3_dwconv/scale
I1010 13:01:46.135408 26060 net.cpp:131] Top shape: 25 120 28 28 (2352000)
I1010 13:01:46.135411 26060 net.cpp:139] Memory required for data: 1341814600
I1010 13:01:46.135414 26060 layer_factory.hpp:77] Creating layer conv4_3/3x3_dwconv/scale_fixed_point
I1010 13:01:46.135419 26060 net.cpp:86] Creating Layer conv4_3/3x3_dwconv/scale_fixed_point
I1010 13:01:46.135423 26060 net.cpp:409] conv4_3/3x3_dwconv/scale_fixed_point <- conv4_3/3x3_dwconv/scale
I1010 13:01:46.135430 26060 net.cpp:370] conv4_3/3x3_dwconv/scale_fixed_point -> conv4_3/3x3_dwconv/scale (in-place)
I1010 13:01:46.135457 26060 net.cpp:124] Setting up conv4_3/3x3_dwconv/scale_fixed_point
I1010 13:01:46.135462 26060 net.cpp:131] Top shape: 25 120 28 28 (2352000)
I1010 13:01:46.135464 26060 net.cpp:139] Memory required for data: 1351222600
I1010 13:01:46.135469 26060 layer_factory.hpp:77] Creating layer conv4_3/1x1_decrease
I1010 13:01:46.135484 26060 net.cpp:86] Creating Layer conv4_3/1x1_decrease
I1010 13:01:46.135488 26060 net.cpp:409] conv4_3/1x1_decrease <- conv4_3/3x3_dwconv/scale
I1010 13:01:46.135495 26060 net.cpp:383] conv4_3/1x1_decrease -> conv4_3/1x1_decrease/bn
I1010 13:01:46.136164 26060 net.cpp:124] Setting up conv4_3/1x1_decrease
I1010 13:01:46.136175 26060 net.cpp:131] Top shape: 25 40 28 28 (784000)
I1010 13:01:46.136178 26060 net.cpp:139] Memory required for data: 1354358600
I1010 13:01:46.136185 26060 layer_factory.hpp:77] Creating layer conv4_3/elt_sum
I1010 13:01:46.136193 26060 net.cpp:86] Creating Layer conv4_3/elt_sum
I1010 13:01:46.136198 26060 net.cpp:409] conv4_3/elt_sum <- conv4_2/elt_sum_conv4_2/elt_sum_fixed_point_0_split_1
I1010 13:01:46.136201 26060 net.cpp:409] conv4_3/elt_sum <- conv4_3/1x1_decrease/bn
I1010 13:01:46.136209 26060 net.cpp:383] conv4_3/elt_sum -> conv4_3/elt_sum
I1010 13:01:46.136245 26060 net.cpp:124] Setting up conv4_3/elt_sum
I1010 13:01:46.136250 26060 net.cpp:131] Top shape: 25 40 28 28 (784000)
I1010 13:01:46.136252 26060 net.cpp:139] Memory required for data: 1357494600
I1010 13:01:46.136255 26060 layer_factory.hpp:77] Creating layer conv4_3/elt_sum_fixed_point
I1010 13:01:46.136261 26060 net.cpp:86] Creating Layer conv4_3/elt_sum_fixed_point
I1010 13:01:46.136265 26060 net.cpp:409] conv4_3/elt_sum_fixed_point <- conv4_3/elt_sum
I1010 13:01:46.136270 26060 net.cpp:370] conv4_3/elt_sum_fixed_point -> conv4_3/elt_sum (in-place)
I1010 13:01:46.136298 26060 net.cpp:124] Setting up conv4_3/elt_sum_fixed_point
I1010 13:01:46.136307 26060 net.cpp:131] Top shape: 25 40 28 28 (784000)
I1010 13:01:46.136310 26060 net.cpp:139] Memory required for data: 1360630600
I1010 13:01:46.136314 26060 layer_factory.hpp:77] Creating layer conv5_0/1x1_increase
I1010 13:01:46.136322 26060 net.cpp:86] Creating Layer conv5_0/1x1_increase
I1010 13:01:46.136327 26060 net.cpp:409] conv5_0/1x1_increase <- conv4_3/elt_sum
I1010 13:01:46.136332 26060 net.cpp:383] conv5_0/1x1_increase -> conv5_0/1x1_increase/bn
I1010 13:01:46.137145 26060 net.cpp:124] Setting up conv5_0/1x1_increase
I1010 13:01:46.137154 26060 net.cpp:131] Top shape: 25 240 28 28 (4704000)
I1010 13:01:46.137157 26060 net.cpp:139] Memory required for data: 1379446600
I1010 13:01:46.137167 26060 layer_factory.hpp:77] Creating layer conv5_0/1x1_increase/hardswish
I1010 13:01:46.137174 26060 net.cpp:86] Creating Layer conv5_0/1x1_increase/hardswish
I1010 13:01:46.137177 26060 net.cpp:409] conv5_0/1x1_increase/hardswish <- conv5_0/1x1_increase/bn
I1010 13:01:46.137184 26060 net.cpp:370] conv5_0/1x1_increase/hardswish -> conv5_0/1x1_increase/bn (in-place)
I1010 13:01:46.137217 26060 net.cpp:124] Setting up conv5_0/1x1_increase/hardswish
I1010 13:01:46.137223 26060 net.cpp:131] Top shape: 25 240 28 28 (4704000)
I1010 13:01:46.137228 26060 net.cpp:139] Memory required for data: 1398262600
I1010 13:01:46.137241 26060 layer_factory.hpp:77] Creating layer conv5_0/1x1_increase/bn_fixed_point
I1010 13:01:46.137250 26060 net.cpp:86] Creating Layer conv5_0/1x1_increase/bn_fixed_point
I1010 13:01:46.137253 26060 net.cpp:409] conv5_0/1x1_increase/bn_fixed_point <- conv5_0/1x1_increase/bn
I1010 13:01:46.137259 26060 net.cpp:370] conv5_0/1x1_increase/bn_fixed_point -> conv5_0/1x1_increase/bn (in-place)
I1010 13:01:46.137291 26060 net.cpp:124] Setting up conv5_0/1x1_increase/bn_fixed_point
I1010 13:01:46.137296 26060 net.cpp:131] Top shape: 25 240 28 28 (4704000)
I1010 13:01:46.137300 26060 net.cpp:139] Memory required for data: 1417078600
I1010 13:01:46.137303 26060 layer_factory.hpp:77] Creating layer conv5_0/1x1_increase/slice
I1010 13:01:46.137316 26060 net.cpp:86] Creating Layer conv5_0/1x1_increase/slice
I1010 13:01:46.137320 26060 net.cpp:409] conv5_0/1x1_increase/slice <- conv5_0/1x1_increase/bn
I1010 13:01:46.137326 26060 net.cpp:383] conv5_0/1x1_increase/slice -> conv5_0/1x1_increase/split1
I1010 13:01:46.137333 26060 net.cpp:383] conv5_0/1x1_increase/slice -> conv5_0/1x1_increase/split2
I1010 13:01:46.137339 26060 net.cpp:383] conv5_0/1x1_increase/slice -> conv5_0/1x1_increase/split3
I1010 13:01:46.137405 26060 net.cpp:124] Setting up conv5_0/1x1_increase/slice
I1010 13:01:46.137413 26060 net.cpp:131] Top shape: 25 80 28 28 (1568000)
I1010 13:01:46.137416 26060 net.cpp:131] Top shape: 25 80 28 28 (1568000)
I1010 13:01:46.137420 26060 net.cpp:131] Top shape: 25 80 28 28 (1568000)
I1010 13:01:46.137423 26060 net.cpp:139] Memory required for data: 1435894600
I1010 13:01:46.137426 26060 layer_factory.hpp:77] Creating layer conv5_0/3x3_dwconv/slice_0
I1010 13:01:46.137434 26060 net.cpp:86] Creating Layer conv5_0/3x3_dwconv/slice_0
I1010 13:01:46.137437 26060 net.cpp:409] conv5_0/3x3_dwconv/slice_0 <- conv5_0/1x1_increase/split1
I1010 13:01:46.137444 26060 net.cpp:383] conv5_0/3x3_dwconv/slice_0 -> conv5_0/3x3_dwconv/slice_0/bn
I1010 13:01:46.138002 26060 net.cpp:124] Setting up conv5_0/3x3_dwconv/slice_0
I1010 13:01:46.138012 26060 net.cpp:131] Top shape: 25 80 14 14 (392000)
I1010 13:01:46.138015 26060 net.cpp:139] Memory required for data: 1437462600
I1010 13:01:46.138021 26060 layer_factory.hpp:77] Creating layer conv5_0/3x3_dwconv/slice_0/hardswish
I1010 13:01:46.138029 26060 net.cpp:86] Creating Layer conv5_0/3x3_dwconv/slice_0/hardswish
I1010 13:01:46.138034 26060 net.cpp:409] conv5_0/3x3_dwconv/slice_0/hardswish <- conv5_0/3x3_dwconv/slice_0/bn
I1010 13:01:46.138038 26060 net.cpp:370] conv5_0/3x3_dwconv/slice_0/hardswish -> conv5_0/3x3_dwconv/slice_0/bn (in-place)
I1010 13:01:46.138073 26060 net.cpp:124] Setting up conv5_0/3x3_dwconv/slice_0/hardswish
I1010 13:01:46.138079 26060 net.cpp:131] Top shape: 25 80 14 14 (392000)
I1010 13:01:46.138082 26060 net.cpp:139] Memory required for data: 1439030600
I1010 13:01:46.138087 26060 layer_factory.hpp:77] Creating layer conv5_0/3x3_dwconv/slice_1
I1010 13:01:46.138098 26060 net.cpp:86] Creating Layer conv5_0/3x3_dwconv/slice_1
I1010 13:01:46.138100 26060 net.cpp:409] conv5_0/3x3_dwconv/slice_1 <- conv5_0/1x1_increase/split2
I1010 13:01:46.138108 26060 net.cpp:383] conv5_0/3x3_dwconv/slice_1 -> conv5_0/3x3_dwconv/slice_1/bn
I1010 13:01:46.138712 26060 net.cpp:124] Setting up conv5_0/3x3_dwconv/slice_1
I1010 13:01:46.138723 26060 net.cpp:131] Top shape: 25 80 14 14 (392000)
I1010 13:01:46.138726 26060 net.cpp:139] Memory required for data: 1440598600
I1010 13:01:46.138732 26060 layer_factory.hpp:77] Creating layer conv5_0/3x3_dwconv/slice_1/hardswish
I1010 13:01:46.138741 26060 net.cpp:86] Creating Layer conv5_0/3x3_dwconv/slice_1/hardswish
I1010 13:01:46.138744 26060 net.cpp:409] conv5_0/3x3_dwconv/slice_1/hardswish <- conv5_0/3x3_dwconv/slice_1/bn
I1010 13:01:46.138751 26060 net.cpp:370] conv5_0/3x3_dwconv/slice_1/hardswish -> conv5_0/3x3_dwconv/slice_1/bn (in-place)
I1010 13:01:46.138785 26060 net.cpp:124] Setting up conv5_0/3x3_dwconv/slice_1/hardswish
I1010 13:01:46.138792 26060 net.cpp:131] Top shape: 25 80 14 14 (392000)
I1010 13:01:46.138794 26060 net.cpp:139] Memory required for data: 1442166600
I1010 13:01:46.138808 26060 layer_factory.hpp:77] Creating layer conv5_0/3x3_dwconv/slice_2
I1010 13:01:46.138819 26060 net.cpp:86] Creating Layer conv5_0/3x3_dwconv/slice_2
I1010 13:01:46.138823 26060 net.cpp:409] conv5_0/3x3_dwconv/slice_2 <- conv5_0/1x1_increase/split3
I1010 13:01:46.138829 26060 net.cpp:383] conv5_0/3x3_dwconv/slice_2 -> conv5_0/3x3_dwconv/slice_2/bn
I1010 13:01:46.139807 26060 net.cpp:124] Setting up conv5_0/3x3_dwconv/slice_2
I1010 13:01:46.139819 26060 net.cpp:131] Top shape: 25 80 14 14 (392000)
I1010 13:01:46.139823 26060 net.cpp:139] Memory required for data: 1443734600
I1010 13:01:46.139830 26060 layer_factory.hpp:77] Creating layer conv5_0/3x3_dwconv/slice_2/hardswish
I1010 13:01:46.139837 26060 net.cpp:86] Creating Layer conv5_0/3x3_dwconv/slice_2/hardswish
I1010 13:01:46.139844 26060 net.cpp:409] conv5_0/3x3_dwconv/slice_2/hardswish <- conv5_0/3x3_dwconv/slice_2/bn
I1010 13:01:46.139849 26060 net.cpp:370] conv5_0/3x3_dwconv/slice_2/hardswish -> conv5_0/3x3_dwconv/slice_2/bn (in-place)
I1010 13:01:46.139883 26060 net.cpp:124] Setting up conv5_0/3x3_dwconv/slice_2/hardswish
I1010 13:01:46.139889 26060 net.cpp:131] Top shape: 25 80 14 14 (392000)
I1010 13:01:46.139891 26060 net.cpp:139] Memory required for data: 1445302600
I1010 13:01:46.139895 26060 layer_factory.hpp:77] Creating layer conv5_0/3x3_dwconv/concat
I1010 13:01:46.139901 26060 net.cpp:86] Creating Layer conv5_0/3x3_dwconv/concat
I1010 13:01:46.139905 26060 net.cpp:409] conv5_0/3x3_dwconv/concat <- conv5_0/3x3_dwconv/slice_0/bn
I1010 13:01:46.139909 26060 net.cpp:409] conv5_0/3x3_dwconv/concat <- conv5_0/3x3_dwconv/slice_1/bn
I1010 13:01:46.139914 26060 net.cpp:409] conv5_0/3x3_dwconv/concat <- conv5_0/3x3_dwconv/slice_2/bn
I1010 13:01:46.139919 26060 net.cpp:383] conv5_0/3x3_dwconv/concat -> conv5_0/3x3_dwconv/concat
I1010 13:01:46.139948 26060 net.cpp:124] Setting up conv5_0/3x3_dwconv/concat
I1010 13:01:46.139953 26060 net.cpp:131] Top shape: 25 240 14 14 (1176000)
I1010 13:01:46.139956 26060 net.cpp:139] Memory required for data: 1450006600
I1010 13:01:46.139959 26060 layer_factory.hpp:77] Creating layer conv5_0/3x3_dwconv/concat_fixed_point
I1010 13:01:46.139966 26060 net.cpp:86] Creating Layer conv5_0/3x3_dwconv/concat_fixed_point
I1010 13:01:46.139971 26060 net.cpp:409] conv5_0/3x3_dwconv/concat_fixed_point <- conv5_0/3x3_dwconv/concat
I1010 13:01:46.139974 26060 net.cpp:370] conv5_0/3x3_dwconv/concat_fixed_point -> conv5_0/3x3_dwconv/concat (in-place)
I1010 13:01:46.140003 26060 net.cpp:124] Setting up conv5_0/3x3_dwconv/concat_fixed_point
I1010 13:01:46.140008 26060 net.cpp:131] Top shape: 25 240 14 14 (1176000)
I1010 13:01:46.140012 26060 net.cpp:139] Memory required for data: 1454710600
I1010 13:01:46.140015 26060 layer_factory.hpp:77] Creating layer conv5_0/3x3_dwconv/concat_conv5_0/3x3_dwconv/concat_fixed_point_0_split
I1010 13:01:46.140020 26060 net.cpp:86] Creating Layer conv5_0/3x3_dwconv/concat_conv5_0/3x3_dwconv/concat_fixed_point_0_split
I1010 13:01:46.140024 26060 net.cpp:409] conv5_0/3x3_dwconv/concat_conv5_0/3x3_dwconv/concat_fixed_point_0_split <- conv5_0/3x3_dwconv/concat
I1010 13:01:46.140030 26060 net.cpp:383] conv5_0/3x3_dwconv/concat_conv5_0/3x3_dwconv/concat_fixed_point_0_split -> conv5_0/3x3_dwconv/concat_conv5_0/3x3_dwconv/concat_fixed_point_0_split_0
I1010 13:01:46.140038 26060 net.cpp:383] conv5_0/3x3_dwconv/concat_conv5_0/3x3_dwconv/concat_fixed_point_0_split -> conv5_0/3x3_dwconv/concat_conv5_0/3x3_dwconv/concat_fixed_point_0_split_1
I1010 13:01:46.140079 26060 net.cpp:124] Setting up conv5_0/3x3_dwconv/concat_conv5_0/3x3_dwconv/concat_fixed_point_0_split
I1010 13:01:46.140084 26060 net.cpp:131] Top shape: 25 240 14 14 (1176000)
I1010 13:01:46.140089 26060 net.cpp:131] Top shape: 25 240 14 14 (1176000)
I1010 13:01:46.140091 26060 net.cpp:139] Memory required for data: 1464118600
I1010 13:01:46.140094 26060 layer_factory.hpp:77] Creating layer conv5_0/3x3_dwconv/SE_global_pool
I1010 13:01:46.140101 26060 net.cpp:86] Creating Layer conv5_0/3x3_dwconv/SE_global_pool
I1010 13:01:46.140116 26060 net.cpp:409] conv5_0/3x3_dwconv/SE_global_pool <- conv5_0/3x3_dwconv/concat_conv5_0/3x3_dwconv/concat_fixed_point_0_split_0
I1010 13:01:46.140123 26060 net.cpp:383] conv5_0/3x3_dwconv/SE_global_pool -> conv5_0/3x3_dwconv/SE_global_pool
I1010 13:01:46.140151 26060 net.cpp:124] Setting up conv5_0/3x3_dwconv/SE_global_pool
I1010 13:01:46.140157 26060 net.cpp:131] Top shape: 25 240 1 1 (6000)
I1010 13:01:46.140166 26060 net.cpp:139] Memory required for data: 1464142600
I1010 13:01:46.140169 26060 layer_factory.hpp:77] Creating layer conv5_0/3x3_dwconv/SE_bn
I1010 13:01:46.140179 26060 net.cpp:86] Creating Layer conv5_0/3x3_dwconv/SE_bn
I1010 13:01:46.140183 26060 net.cpp:409] conv5_0/3x3_dwconv/SE_bn <- conv5_0/3x3_dwconv/SE_global_pool
I1010 13:01:46.140189 26060 net.cpp:383] conv5_0/3x3_dwconv/SE_bn -> conv5_0/3x3_dwconv/SE_bn
I1010 13:01:46.140240 26060 layer_factory.hpp:77] Creating layer conv5_0/3x3_dwconv/SE_bn
I1010 13:01:46.140374 26060 net.cpp:124] Setting up conv5_0/3x3_dwconv/SE_bn
I1010 13:01:46.140381 26060 net.cpp:131] Top shape: 25 240 1 1 (6000)
I1010 13:01:46.140384 26060 net.cpp:139] Memory required for data: 1464166600
I1010 13:01:46.140389 26060 layer_factory.hpp:77] Creating layer conv5_0/3x3_dwconv/SE_fc1
I1010 13:01:46.140398 26060 net.cpp:86] Creating Layer conv5_0/3x3_dwconv/SE_fc1
I1010 13:01:46.140403 26060 net.cpp:409] conv5_0/3x3_dwconv/SE_fc1 <- conv5_0/3x3_dwconv/SE_bn
I1010 13:01:46.140409 26060 net.cpp:383] conv5_0/3x3_dwconv/SE_fc1 -> conv5_0/3x3_dwconv/SE_fc1
I1010 13:01:46.140908 26060 net.cpp:124] Setting up conv5_0/3x3_dwconv/SE_fc1
I1010 13:01:46.140916 26060 net.cpp:131] Top shape: 25 15 1 1 (375)
I1010 13:01:46.140920 26060 net.cpp:139] Memory required for data: 1464168100
I1010 13:01:46.140925 26060 layer_factory.hpp:77] Creating layer conv5_0/3x3_dwconv/SE_fc1/relu
I1010 13:01:46.140933 26060 net.cpp:86] Creating Layer conv5_0/3x3_dwconv/SE_fc1/relu
I1010 13:01:46.140936 26060 net.cpp:409] conv5_0/3x3_dwconv/SE_fc1/relu <- conv5_0/3x3_dwconv/SE_fc1
I1010 13:01:46.140941 26060 net.cpp:370] conv5_0/3x3_dwconv/SE_fc1/relu -> conv5_0/3x3_dwconv/SE_fc1 (in-place)
I1010 13:01:46.141561 26060 net.cpp:124] Setting up conv5_0/3x3_dwconv/SE_fc1/relu
I1010 13:01:46.141571 26060 net.cpp:131] Top shape: 25 15 1 1 (375)
I1010 13:01:46.141574 26060 net.cpp:139] Memory required for data: 1464169600
I1010 13:01:46.141578 26060 layer_factory.hpp:77] Creating layer conv5_0/3x3_dwconv/SE_fc2
I1010 13:01:46.141589 26060 net.cpp:86] Creating Layer conv5_0/3x3_dwconv/SE_fc2
I1010 13:01:46.141593 26060 net.cpp:409] conv5_0/3x3_dwconv/SE_fc2 <- conv5_0/3x3_dwconv/SE_fc1
I1010 13:01:46.141602 26060 net.cpp:383] conv5_0/3x3_dwconv/SE_fc2 -> conv5_0/3x3_dwconv/SE_fc2
I1010 13:01:46.142102 26060 net.cpp:124] Setting up conv5_0/3x3_dwconv/SE_fc2
I1010 13:01:46.142112 26060 net.cpp:131] Top shape: 25 240 1 1 (6000)
I1010 13:01:46.142114 26060 net.cpp:139] Memory required for data: 1464193600
I1010 13:01:46.142122 26060 layer_factory.hpp:77] Creating layer conv5_0/3x3_dwconv/SE_weights
I1010 13:01:46.142127 26060 net.cpp:86] Creating Layer conv5_0/3x3_dwconv/SE_weights
I1010 13:01:46.142132 26060 net.cpp:409] conv5_0/3x3_dwconv/SE_weights <- conv5_0/3x3_dwconv/SE_fc2
I1010 13:01:46.142136 26060 net.cpp:370] conv5_0/3x3_dwconv/SE_weights -> conv5_0/3x3_dwconv/SE_fc2 (in-place)
I1010 13:01:46.143532 26060 net.cpp:124] Setting up conv5_0/3x3_dwconv/SE_weights
I1010 13:01:46.143544 26060 net.cpp:131] Top shape: 25 240 1 1 (6000)
I1010 13:01:46.143548 26060 net.cpp:139] Memory required for data: 1464217600
I1010 13:01:46.143551 26060 layer_factory.hpp:77] Creating layer conv5_0/3x3_dwconv/SE_weights/reshape
I1010 13:01:46.143561 26060 net.cpp:86] Creating Layer conv5_0/3x3_dwconv/SE_weights/reshape
I1010 13:01:46.143565 26060 net.cpp:409] conv5_0/3x3_dwconv/SE_weights/reshape <- conv5_0/3x3_dwconv/SE_fc2
I1010 13:01:46.143571 26060 net.cpp:383] conv5_0/3x3_dwconv/SE_weights/reshape -> conv5_0/3x3_dwconv/SE_weights/reshape
I1010 13:01:46.143610 26060 net.cpp:124] Setting up conv5_0/3x3_dwconv/SE_weights/reshape
I1010 13:01:46.143628 26060 net.cpp:131] Top shape: 25 240 (6000)
I1010 13:01:46.143631 26060 net.cpp:139] Memory required for data: 1464241600
I1010 13:01:46.143635 26060 layer_factory.hpp:77] Creating layer conv5_0/3x3_dwconv/scale
I1010 13:01:46.143640 26060 net.cpp:86] Creating Layer conv5_0/3x3_dwconv/scale
I1010 13:01:46.143644 26060 net.cpp:409] conv5_0/3x3_dwconv/scale <- conv5_0/3x3_dwconv/concat_conv5_0/3x3_dwconv/concat_fixed_point_0_split_1
I1010 13:01:46.143651 26060 net.cpp:409] conv5_0/3x3_dwconv/scale <- conv5_0/3x3_dwconv/SE_weights/reshape
I1010 13:01:46.143656 26060 net.cpp:383] conv5_0/3x3_dwconv/scale -> conv5_0/3x3_dwconv/scale
I1010 13:01:46.143740 26060 net.cpp:124] Setting up conv5_0/3x3_dwconv/scale
I1010 13:01:46.143745 26060 net.cpp:131] Top shape: 25 240 14 14 (1176000)
I1010 13:01:46.143748 26060 net.cpp:139] Memory required for data: 1468945600
I1010 13:01:46.143752 26060 layer_factory.hpp:77] Creating layer conv5_0/3x3_dwconv/scale_fixed_point
I1010 13:01:46.143760 26060 net.cpp:86] Creating Layer conv5_0/3x3_dwconv/scale_fixed_point
I1010 13:01:46.143764 26060 net.cpp:409] conv5_0/3x3_dwconv/scale_fixed_point <- conv5_0/3x3_dwconv/scale
I1010 13:01:46.143769 26060 net.cpp:370] conv5_0/3x3_dwconv/scale_fixed_point -> conv5_0/3x3_dwconv/scale (in-place)
I1010 13:01:46.143801 26060 net.cpp:124] Setting up conv5_0/3x3_dwconv/scale_fixed_point
I1010 13:01:46.143807 26060 net.cpp:131] Top shape: 25 240 14 14 (1176000)
I1010 13:01:46.143810 26060 net.cpp:139] Memory required for data: 1473649600
I1010 13:01:46.143815 26060 layer_factory.hpp:77] Creating layer conv5_0/1x1_decrease
I1010 13:01:46.143826 26060 net.cpp:86] Creating Layer conv5_0/1x1_decrease
I1010 13:01:46.143829 26060 net.cpp:409] conv5_0/1x1_decrease <- conv5_0/3x3_dwconv/scale
I1010 13:01:46.143836 26060 net.cpp:383] conv5_0/1x1_decrease -> conv5_0/1x1_decrease/bn
I1010 13:01:46.146842 26060 net.cpp:124] Setting up conv5_0/1x1_decrease
I1010 13:01:46.146855 26060 net.cpp:131] Top shape: 25 80 14 14 (392000)
I1010 13:01:46.146859 26060 net.cpp:139] Memory required for data: 1475217600
I1010 13:01:46.146867 26060 layer_factory.hpp:77] Creating layer conv5_0/1x1_decrease/bn_fixed_point
I1010 13:01:46.146875 26060 net.cpp:86] Creating Layer conv5_0/1x1_decrease/bn_fixed_point
I1010 13:01:46.146879 26060 net.cpp:409] conv5_0/1x1_decrease/bn_fixed_point <- conv5_0/1x1_decrease/bn
I1010 13:01:46.146888 26060 net.cpp:370] conv5_0/1x1_decrease/bn_fixed_point -> conv5_0/1x1_decrease/bn (in-place)
I1010 13:01:46.146922 26060 net.cpp:124] Setting up conv5_0/1x1_decrease/bn_fixed_point
I1010 13:01:46.146929 26060 net.cpp:131] Top shape: 25 80 14 14 (392000)
I1010 13:01:46.146931 26060 net.cpp:139] Memory required for data: 1476785600
I1010 13:01:46.146935 26060 layer_factory.hpp:77] Creating layer conv5_0/1x1_decrease/bn_conv5_0/1x1_decrease/bn_fixed_point_0_split
I1010 13:01:46.146942 26060 net.cpp:86] Creating Layer conv5_0/1x1_decrease/bn_conv5_0/1x1_decrease/bn_fixed_point_0_split
I1010 13:01:46.146945 26060 net.cpp:409] conv5_0/1x1_decrease/bn_conv5_0/1x1_decrease/bn_fixed_point_0_split <- conv5_0/1x1_decrease/bn
I1010 13:01:46.146950 26060 net.cpp:383] conv5_0/1x1_decrease/bn_conv5_0/1x1_decrease/bn_fixed_point_0_split -> conv5_0/1x1_decrease/bn_conv5_0/1x1_decrease/bn_fixed_point_0_split_0
I1010 13:01:46.146958 26060 net.cpp:383] conv5_0/1x1_decrease/bn_conv5_0/1x1_decrease/bn_fixed_point_0_split -> conv5_0/1x1_decrease/bn_conv5_0/1x1_decrease/bn_fixed_point_0_split_1
I1010 13:01:46.147003 26060 net.cpp:124] Setting up conv5_0/1x1_decrease/bn_conv5_0/1x1_decrease/bn_fixed_point_0_split
I1010 13:01:46.147009 26060 net.cpp:131] Top shape: 25 80 14 14 (392000)
I1010 13:01:46.147013 26060 net.cpp:131] Top shape: 25 80 14 14 (392000)
I1010 13:01:46.147017 26060 net.cpp:139] Memory required for data: 1479921600
I1010 13:01:46.147019 26060 layer_factory.hpp:77] Creating layer conv5_1/1x1_increase
I1010 13:01:46.147035 26060 net.cpp:86] Creating Layer conv5_1/1x1_increase
I1010 13:01:46.147039 26060 net.cpp:409] conv5_1/1x1_increase <- conv5_0/1x1_decrease/bn_conv5_0/1x1_decrease/bn_fixed_point_0_split_0
I1010 13:01:46.147059 26060 net.cpp:383] conv5_1/1x1_increase -> conv5_1/1x1_increase/bn
I1010 13:01:46.148135 26060 net.cpp:124] Setting up conv5_1/1x1_increase
I1010 13:01:46.148146 26060 net.cpp:131] Top shape: 25 240 14 14 (1176000)
I1010 13:01:46.148149 26060 net.cpp:139] Memory required for data: 1484625600
I1010 13:01:46.148156 26060 layer_factory.hpp:77] Creating layer conv5_1/1x1_increase/hardswish
I1010 13:01:46.148169 26060 net.cpp:86] Creating Layer conv5_1/1x1_increase/hardswish
I1010 13:01:46.148174 26060 net.cpp:409] conv5_1/1x1_increase/hardswish <- conv5_1/1x1_increase/bn
I1010 13:01:46.148182 26060 net.cpp:370] conv5_1/1x1_increase/hardswish -> conv5_1/1x1_increase/bn (in-place)
I1010 13:01:46.148217 26060 net.cpp:124] Setting up conv5_1/1x1_increase/hardswish
I1010 13:01:46.148223 26060 net.cpp:131] Top shape: 25 240 14 14 (1176000)
I1010 13:01:46.148226 26060 net.cpp:139] Memory required for data: 1489329600
I1010 13:01:46.148229 26060 layer_factory.hpp:77] Creating layer conv5_1/1x1_increase/bn_fixed_point
I1010 13:01:46.148236 26060 net.cpp:86] Creating Layer conv5_1/1x1_increase/bn_fixed_point
I1010 13:01:46.148238 26060 net.cpp:409] conv5_1/1x1_increase/bn_fixed_point <- conv5_1/1x1_increase/bn
I1010 13:01:46.148245 26060 net.cpp:370] conv5_1/1x1_increase/bn_fixed_point -> conv5_1/1x1_increase/bn (in-place)
I1010 13:01:46.148272 26060 net.cpp:124] Setting up conv5_1/1x1_increase/bn_fixed_point
I1010 13:01:46.148279 26060 net.cpp:131] Top shape: 25 240 14 14 (1176000)
I1010 13:01:46.148283 26060 net.cpp:139] Memory required for data: 1494033600
I1010 13:01:46.148288 26060 layer_factory.hpp:77] Creating layer conv5_1/1x1_increase/slice
I1010 13:01:46.148293 26060 net.cpp:86] Creating Layer conv5_1/1x1_increase/slice
I1010 13:01:46.148296 26060 net.cpp:409] conv5_1/1x1_increase/slice <- conv5_1/1x1_increase/bn
I1010 13:01:46.148301 26060 net.cpp:383] conv5_1/1x1_increase/slice -> conv5_1/1x1_increase/split1
I1010 13:01:46.148308 26060 net.cpp:383] conv5_1/1x1_increase/slice -> conv5_1/1x1_increase/split2
I1010 13:01:46.148353 26060 net.cpp:124] Setting up conv5_1/1x1_increase/slice
I1010 13:01:46.148358 26060 net.cpp:131] Top shape: 25 120 14 14 (588000)
I1010 13:01:46.148362 26060 net.cpp:131] Top shape: 25 120 14 14 (588000)
I1010 13:01:46.148365 26060 net.cpp:139] Memory required for data: 1498737600
I1010 13:01:46.148368 26060 layer_factory.hpp:77] Creating layer conv5_1/3x3_dwconv/slice_0
I1010 13:01:46.148381 26060 net.cpp:86] Creating Layer conv5_1/3x3_dwconv/slice_0
I1010 13:01:46.148386 26060 net.cpp:409] conv5_1/3x3_dwconv/slice_0 <- conv5_1/1x1_increase/split1
I1010 13:01:46.148393 26060 net.cpp:383] conv5_1/3x3_dwconv/slice_0 -> conv5_1/3x3_dwconv/slice_0/bn
I1010 13:01:46.148963 26060 net.cpp:124] Setting up conv5_1/3x3_dwconv/slice_0
I1010 13:01:46.148973 26060 net.cpp:131] Top shape: 25 120 14 14 (588000)
I1010 13:01:46.148977 26060 net.cpp:139] Memory required for data: 1501089600
I1010 13:01:46.148983 26060 layer_factory.hpp:77] Creating layer conv5_1/3x3_dwconv/slice_0/hardswish
I1010 13:01:46.148993 26060 net.cpp:86] Creating Layer conv5_1/3x3_dwconv/slice_0/hardswish
I1010 13:01:46.148996 26060 net.cpp:409] conv5_1/3x3_dwconv/slice_0/hardswish <- conv5_1/3x3_dwconv/slice_0/bn
I1010 13:01:46.149001 26060 net.cpp:370] conv5_1/3x3_dwconv/slice_0/hardswish -> conv5_1/3x3_dwconv/slice_0/bn (in-place)
I1010 13:01:46.149036 26060 net.cpp:124] Setting up conv5_1/3x3_dwconv/slice_0/hardswish
I1010 13:01:46.149041 26060 net.cpp:131] Top shape: 25 120 14 14 (588000)
I1010 13:01:46.149045 26060 net.cpp:139] Memory required for data: 1503441600
I1010 13:01:46.149049 26060 layer_factory.hpp:77] Creating layer conv5_1/3x3_dwconv/slice_1
I1010 13:01:46.149058 26060 net.cpp:86] Creating Layer conv5_1/3x3_dwconv/slice_1
I1010 13:01:46.149061 26060 net.cpp:409] conv5_1/3x3_dwconv/slice_1 <- conv5_1/1x1_increase/split2
I1010 13:01:46.149067 26060 net.cpp:383] conv5_1/3x3_dwconv/slice_1 -> conv5_1/3x3_dwconv/slice_1/bn
I1010 13:01:46.150643 26060 net.cpp:124] Setting up conv5_1/3x3_dwconv/slice_1
I1010 13:01:46.150655 26060 net.cpp:131] Top shape: 25 120 14 14 (588000)
I1010 13:01:46.150660 26060 net.cpp:139] Memory required for data: 1505793600
I1010 13:01:46.150666 26060 layer_factory.hpp:77] Creating layer conv5_1/3x3_dwconv/slice_1/hardswish
I1010 13:01:46.150673 26060 net.cpp:86] Creating Layer conv5_1/3x3_dwconv/slice_1/hardswish
I1010 13:01:46.150677 26060 net.cpp:409] conv5_1/3x3_dwconv/slice_1/hardswish <- conv5_1/3x3_dwconv/slice_1/bn
I1010 13:01:46.150686 26060 net.cpp:370] conv5_1/3x3_dwconv/slice_1/hardswish -> conv5_1/3x3_dwconv/slice_1/bn (in-place)
I1010 13:01:46.150719 26060 net.cpp:124] Setting up conv5_1/3x3_dwconv/slice_1/hardswish
I1010 13:01:46.150724 26060 net.cpp:131] Top shape: 25 120 14 14 (588000)
I1010 13:01:46.150727 26060 net.cpp:139] Memory required for data: 1508145600
I1010 13:01:46.150732 26060 layer_factory.hpp:77] Creating layer conv5_1/3x3_dwconv/concat
I1010 13:01:46.150739 26060 net.cpp:86] Creating Layer conv5_1/3x3_dwconv/concat
I1010 13:01:46.150743 26060 net.cpp:409] conv5_1/3x3_dwconv/concat <- conv5_1/3x3_dwconv/slice_0/bn
I1010 13:01:46.150748 26060 net.cpp:409] conv5_1/3x3_dwconv/concat <- conv5_1/3x3_dwconv/slice_1/bn
I1010 13:01:46.150753 26060 net.cpp:383] conv5_1/3x3_dwconv/concat -> conv5_1/3x3_dwconv/concat
I1010 13:01:46.150782 26060 net.cpp:124] Setting up conv5_1/3x3_dwconv/concat
I1010 13:01:46.150787 26060 net.cpp:131] Top shape: 25 240 14 14 (1176000)
I1010 13:01:46.150790 26060 net.cpp:139] Memory required for data: 1512849600
I1010 13:01:46.150794 26060 layer_factory.hpp:77] Creating layer conv5_1/3x3_dwconv/concat_fixed_point
I1010 13:01:46.150799 26060 net.cpp:86] Creating Layer conv5_1/3x3_dwconv/concat_fixed_point
I1010 13:01:46.150804 26060 net.cpp:409] conv5_1/3x3_dwconv/concat_fixed_point <- conv5_1/3x3_dwconv/concat
I1010 13:01:46.150810 26060 net.cpp:370] conv5_1/3x3_dwconv/concat_fixed_point -> conv5_1/3x3_dwconv/concat (in-place)
I1010 13:01:46.150838 26060 net.cpp:124] Setting up conv5_1/3x3_dwconv/concat_fixed_point
I1010 13:01:46.150843 26060 net.cpp:131] Top shape: 25 240 14 14 (1176000)
I1010 13:01:46.150846 26060 net.cpp:139] Memory required for data: 1517553600
I1010 13:01:46.150851 26060 layer_factory.hpp:77] Creating layer conv5_1/3x3_dwconv/concat_conv5_1/3x3_dwconv/concat_fixed_point_0_split
I1010 13:01:46.150856 26060 net.cpp:86] Creating Layer conv5_1/3x3_dwconv/concat_conv5_1/3x3_dwconv/concat_fixed_point_0_split
I1010 13:01:46.150859 26060 net.cpp:409] conv5_1/3x3_dwconv/concat_conv5_1/3x3_dwconv/concat_fixed_point_0_split <- conv5_1/3x3_dwconv/concat
I1010 13:01:46.150864 26060 net.cpp:383] conv5_1/3x3_dwconv/concat_conv5_1/3x3_dwconv/concat_fixed_point_0_split -> conv5_1/3x3_dwconv/concat_conv5_1/3x3_dwconv/concat_fixed_point_0_split_0
I1010 13:01:46.150872 26060 net.cpp:383] conv5_1/3x3_dwconv/concat_conv5_1/3x3_dwconv/concat_fixed_point_0_split -> conv5_1/3x3_dwconv/concat_conv5_1/3x3_dwconv/concat_fixed_point_0_split_1
I1010 13:01:46.150915 26060 net.cpp:124] Setting up conv5_1/3x3_dwconv/concat_conv5_1/3x3_dwconv/concat_fixed_point_0_split
I1010 13:01:46.150920 26060 net.cpp:131] Top shape: 25 240 14 14 (1176000)
I1010 13:01:46.150924 26060 net.cpp:131] Top shape: 25 240 14 14 (1176000)
I1010 13:01:46.150928 26060 net.cpp:139] Memory required for data: 1526961600
I1010 13:01:46.150930 26060 layer_factory.hpp:77] Creating layer conv5_1/3x3_dwconv/SE_global_pool
I1010 13:01:46.150939 26060 net.cpp:86] Creating Layer conv5_1/3x3_dwconv/SE_global_pool
I1010 13:01:46.150943 26060 net.cpp:409] conv5_1/3x3_dwconv/SE_global_pool <- conv5_1/3x3_dwconv/concat_conv5_1/3x3_dwconv/concat_fixed_point_0_split_0
I1010 13:01:46.150949 26060 net.cpp:383] conv5_1/3x3_dwconv/SE_global_pool -> conv5_1/3x3_dwconv/SE_global_pool
I1010 13:01:46.150976 26060 net.cpp:124] Setting up conv5_1/3x3_dwconv/SE_global_pool
I1010 13:01:46.150982 26060 net.cpp:131] Top shape: 25 240 1 1 (6000)
I1010 13:01:46.150985 26060 net.cpp:139] Memory required for data: 1526985600
I1010 13:01:46.151001 26060 layer_factory.hpp:77] Creating layer conv5_1/3x3_dwconv/SE_bn
I1010 13:01:46.151010 26060 net.cpp:86] Creating Layer conv5_1/3x3_dwconv/SE_bn
I1010 13:01:46.151015 26060 net.cpp:409] conv5_1/3x3_dwconv/SE_bn <- conv5_1/3x3_dwconv/SE_global_pool
I1010 13:01:46.151019 26060 net.cpp:383] conv5_1/3x3_dwconv/SE_bn -> conv5_1/3x3_dwconv/SE_bn
I1010 13:01:46.151073 26060 layer_factory.hpp:77] Creating layer conv5_1/3x3_dwconv/SE_bn
I1010 13:01:46.151216 26060 net.cpp:124] Setting up conv5_1/3x3_dwconv/SE_bn
I1010 13:01:46.151222 26060 net.cpp:131] Top shape: 25 240 1 1 (6000)
I1010 13:01:46.151226 26060 net.cpp:139] Memory required for data: 1527009600
I1010 13:01:46.151232 26060 layer_factory.hpp:77] Creating layer conv5_1/3x3_dwconv/SE_fc1
I1010 13:01:46.151239 26060 net.cpp:86] Creating Layer conv5_1/3x3_dwconv/SE_fc1
I1010 13:01:46.151243 26060 net.cpp:409] conv5_1/3x3_dwconv/SE_fc1 <- conv5_1/3x3_dwconv/SE_bn
I1010 13:01:46.151249 26060 net.cpp:383] conv5_1/3x3_dwconv/SE_fc1 -> conv5_1/3x3_dwconv/SE_fc1
I1010 13:01:46.151751 26060 net.cpp:124] Setting up conv5_1/3x3_dwconv/SE_fc1
I1010 13:01:46.151760 26060 net.cpp:131] Top shape: 25 15 1 1 (375)
I1010 13:01:46.151763 26060 net.cpp:139] Memory required for data: 1527011100
I1010 13:01:46.151768 26060 layer_factory.hpp:77] Creating layer conv5_1/3x3_dwconv/SE_fc1/relu
I1010 13:01:46.151775 26060 net.cpp:86] Creating Layer conv5_1/3x3_dwconv/SE_fc1/relu
I1010 13:01:46.151779 26060 net.cpp:409] conv5_1/3x3_dwconv/SE_fc1/relu <- conv5_1/3x3_dwconv/SE_fc1
I1010 13:01:46.151785 26060 net.cpp:370] conv5_1/3x3_dwconv/SE_fc1/relu -> conv5_1/3x3_dwconv/SE_fc1 (in-place)
I1010 13:01:46.152480 26060 net.cpp:124] Setting up conv5_1/3x3_dwconv/SE_fc1/relu
I1010 13:01:46.152492 26060 net.cpp:131] Top shape: 25 15 1 1 (375)
I1010 13:01:46.152494 26060 net.cpp:139] Memory required for data: 1527012600
I1010 13:01:46.152498 26060 layer_factory.hpp:77] Creating layer conv5_1/3x3_dwconv/SE_fc2
I1010 13:01:46.152509 26060 net.cpp:86] Creating Layer conv5_1/3x3_dwconv/SE_fc2
I1010 13:01:46.152514 26060 net.cpp:409] conv5_1/3x3_dwconv/SE_fc2 <- conv5_1/3x3_dwconv/SE_fc1
I1010 13:01:46.152523 26060 net.cpp:383] conv5_1/3x3_dwconv/SE_fc2 -> conv5_1/3x3_dwconv/SE_fc2
I1010 13:01:46.153035 26060 net.cpp:124] Setting up conv5_1/3x3_dwconv/SE_fc2
I1010 13:01:46.153045 26060 net.cpp:131] Top shape: 25 240 1 1 (6000)
I1010 13:01:46.153048 26060 net.cpp:139] Memory required for data: 1527036600
I1010 13:01:46.153054 26060 layer_factory.hpp:77] Creating layer conv5_1/3x3_dwconv/SE_weights
I1010 13:01:46.153060 26060 net.cpp:86] Creating Layer conv5_1/3x3_dwconv/SE_weights
I1010 13:01:46.153064 26060 net.cpp:409] conv5_1/3x3_dwconv/SE_weights <- conv5_1/3x3_dwconv/SE_fc2
I1010 13:01:46.153071 26060 net.cpp:370] conv5_1/3x3_dwconv/SE_weights -> conv5_1/3x3_dwconv/SE_fc2 (in-place)
I1010 13:01:46.153695 26060 net.cpp:124] Setting up conv5_1/3x3_dwconv/SE_weights
I1010 13:01:46.153705 26060 net.cpp:131] Top shape: 25 240 1 1 (6000)
I1010 13:01:46.153709 26060 net.cpp:139] Memory required for data: 1527060600
I1010 13:01:46.153712 26060 layer_factory.hpp:77] Creating layer conv5_1/3x3_dwconv/SE_weights/reshape
I1010 13:01:46.153720 26060 net.cpp:86] Creating Layer conv5_1/3x3_dwconv/SE_weights/reshape
I1010 13:01:46.153724 26060 net.cpp:409] conv5_1/3x3_dwconv/SE_weights/reshape <- conv5_1/3x3_dwconv/SE_fc2
I1010 13:01:46.153736 26060 net.cpp:383] conv5_1/3x3_dwconv/SE_weights/reshape -> conv5_1/3x3_dwconv/SE_weights/reshape
I1010 13:01:46.153774 26060 net.cpp:124] Setting up conv5_1/3x3_dwconv/SE_weights/reshape
I1010 13:01:46.176195 26060 net.cpp:131] Top shape: 25 240 (6000)
I1010 13:01:46.176205 26060 net.cpp:139] Memory required for data: 1527084600
I1010 13:01:46.176210 26060 layer_factory.hpp:77] Creating layer conv5_1/3x3_dwconv/scale
I1010 13:01:46.176219 26060 net.cpp:86] Creating Layer conv5_1/3x3_dwconv/scale
I1010 13:01:46.176224 26060 net.cpp:409] conv5_1/3x3_dwconv/scale <- conv5_1/3x3_dwconv/concat_conv5_1/3x3_dwconv/concat_fixed_point_0_split_1
I1010 13:01:46.176231 26060 net.cpp:409] conv5_1/3x3_dwconv/scale <- conv5_1/3x3_dwconv/SE_weights/reshape
I1010 13:01:46.176256 26060 net.cpp:383] conv5_1/3x3_dwconv/scale -> conv5_1/3x3_dwconv/scale
I1010 13:01:46.176388 26060 net.cpp:124] Setting up conv5_1/3x3_dwconv/scale
I1010 13:01:46.176394 26060 net.cpp:131] Top shape: 25 240 14 14 (1176000)
I1010 13:01:46.176398 26060 net.cpp:139] Memory required for data: 1531788600
I1010 13:01:46.176400 26060 layer_factory.hpp:77] Creating layer conv5_1/3x3_dwconv/scale_fixed_point
I1010 13:01:46.176409 26060 net.cpp:86] Creating Layer conv5_1/3x3_dwconv/scale_fixed_point
I1010 13:01:46.176412 26060 net.cpp:409] conv5_1/3x3_dwconv/scale_fixed_point <- conv5_1/3x3_dwconv/scale
I1010 13:01:46.176419 26060 net.cpp:370] conv5_1/3x3_dwconv/scale_fixed_point -> conv5_1/3x3_dwconv/scale (in-place)
I1010 13:01:46.176452 26060 net.cpp:124] Setting up conv5_1/3x3_dwconv/scale_fixed_point
I1010 13:01:46.176458 26060 net.cpp:131] Top shape: 25 240 14 14 (1176000)
I1010 13:01:46.176460 26060 net.cpp:139] Memory required for data: 1536492600
I1010 13:01:46.176465 26060 layer_factory.hpp:77] Creating layer conv5_1/1x1_decrease
I1010 13:01:46.176477 26060 net.cpp:86] Creating Layer conv5_1/1x1_decrease
I1010 13:01:46.176481 26060 net.cpp:409] conv5_1/1x1_decrease <- conv5_1/3x3_dwconv/scale
I1010 13:01:46.176488 26060 net.cpp:383] conv5_1/1x1_decrease -> conv5_1/1x1_decrease/bn
I1010 13:01:46.177616 26060 net.cpp:124] Setting up conv5_1/1x1_decrease
I1010 13:01:46.177628 26060 net.cpp:131] Top shape: 25 80 14 14 (392000)
I1010 13:01:46.177631 26060 net.cpp:139] Memory required for data: 1538060600
I1010 13:01:46.177639 26060 layer_factory.hpp:77] Creating layer conv5_1/elt_sum
I1010 13:01:46.177649 26060 net.cpp:86] Creating Layer conv5_1/elt_sum
I1010 13:01:46.177654 26060 net.cpp:409] conv5_1/elt_sum <- conv5_0/1x1_decrease/bn_conv5_0/1x1_decrease/bn_fixed_point_0_split_1
I1010 13:01:46.177659 26060 net.cpp:409] conv5_1/elt_sum <- conv5_1/1x1_decrease/bn
I1010 13:01:46.177664 26060 net.cpp:383] conv5_1/elt_sum -> conv5_1/elt_sum
I1010 13:01:46.177703 26060 net.cpp:124] Setting up conv5_1/elt_sum
I1010 13:01:46.177709 26060 net.cpp:131] Top shape: 25 80 14 14 (392000)
I1010 13:01:46.177712 26060 net.cpp:139] Memory required for data: 1539628600
I1010 13:01:46.177716 26060 layer_factory.hpp:77] Creating layer conv5_1/elt_sum_fixed_point
I1010 13:01:46.177721 26060 net.cpp:86] Creating Layer conv5_1/elt_sum_fixed_point
I1010 13:01:46.177724 26060 net.cpp:409] conv5_1/elt_sum_fixed_point <- conv5_1/elt_sum
I1010 13:01:46.177731 26060 net.cpp:370] conv5_1/elt_sum_fixed_point -> conv5_1/elt_sum (in-place)
I1010 13:01:46.177762 26060 net.cpp:124] Setting up conv5_1/elt_sum_fixed_point
I1010 13:01:46.177767 26060 net.cpp:131] Top shape: 25 80 14 14 (392000)
I1010 13:01:46.177769 26060 net.cpp:139] Memory required for data: 1541196600
I1010 13:01:46.177775 26060 layer_factory.hpp:77] Creating layer conv5_1/elt_sum_conv5_1/elt_sum_fixed_point_0_split
I1010 13:01:46.177781 26060 net.cpp:86] Creating Layer conv5_1/elt_sum_conv5_1/elt_sum_fixed_point_0_split
I1010 13:01:46.177784 26060 net.cpp:409] conv5_1/elt_sum_conv5_1/elt_sum_fixed_point_0_split <- conv5_1/elt_sum
I1010 13:01:46.177788 26060 net.cpp:383] conv5_1/elt_sum_conv5_1/elt_sum_fixed_point_0_split -> conv5_1/elt_sum_conv5_1/elt_sum_fixed_point_0_split_0
I1010 13:01:46.177796 26060 net.cpp:383] conv5_1/elt_sum_conv5_1/elt_sum_fixed_point_0_split -> conv5_1/elt_sum_conv5_1/elt_sum_fixed_point_0_split_1
I1010 13:01:46.177840 26060 net.cpp:124] Setting up conv5_1/elt_sum_conv5_1/elt_sum_fixed_point_0_split
I1010 13:01:46.177847 26060 net.cpp:131] Top shape: 25 80 14 14 (392000)
I1010 13:01:46.177851 26060 net.cpp:131] Top shape: 25 80 14 14 (392000)
I1010 13:01:46.177855 26060 net.cpp:139] Memory required for data: 1544332600
I1010 13:01:46.177857 26060 layer_factory.hpp:77] Creating layer conv5_2/1x1_increase
I1010 13:01:46.177867 26060 net.cpp:86] Creating Layer conv5_2/1x1_increase
I1010 13:01:46.177871 26060 net.cpp:409] conv5_2/1x1_increase <- conv5_1/elt_sum_conv5_1/elt_sum_fixed_point_0_split_0
I1010 13:01:46.177889 26060 net.cpp:383] conv5_2/1x1_increase -> conv5_2/1x1_increase/bn
I1010 13:01:46.179481 26060 net.cpp:124] Setting up conv5_2/1x1_increase
I1010 13:01:46.179493 26060 net.cpp:131] Top shape: 25 240 14 14 (1176000)
I1010 13:01:46.179497 26060 net.cpp:139] Memory required for data: 1549036600
I1010 13:01:46.179517 26060 layer_factory.hpp:77] Creating layer conv5_2/1x1_increase/hardswish
I1010 13:01:46.179524 26060 net.cpp:86] Creating Layer conv5_2/1x1_increase/hardswish
I1010 13:01:46.179529 26060 net.cpp:409] conv5_2/1x1_increase/hardswish <- conv5_2/1x1_increase/bn
I1010 13:01:46.179536 26060 net.cpp:370] conv5_2/1x1_increase/hardswish -> conv5_2/1x1_increase/bn (in-place)
I1010 13:01:46.179574 26060 net.cpp:124] Setting up conv5_2/1x1_increase/hardswish
I1010 13:01:46.179580 26060 net.cpp:131] Top shape: 25 240 14 14 (1176000)
I1010 13:01:46.179584 26060 net.cpp:139] Memory required for data: 1553740600
I1010 13:01:46.179586 26060 layer_factory.hpp:77] Creating layer conv5_2/1x1_increase/bn_fixed_point
I1010 13:01:46.179592 26060 net.cpp:86] Creating Layer conv5_2/1x1_increase/bn_fixed_point
I1010 13:01:46.179595 26060 net.cpp:409] conv5_2/1x1_increase/bn_fixed_point <- conv5_2/1x1_increase/bn
I1010 13:01:46.179600 26060 net.cpp:370] conv5_2/1x1_increase/bn_fixed_point -> conv5_2/1x1_increase/bn (in-place)
I1010 13:01:46.179630 26060 net.cpp:124] Setting up conv5_2/1x1_increase/bn_fixed_point
I1010 13:01:46.179636 26060 net.cpp:131] Top shape: 25 240 14 14 (1176000)
I1010 13:01:46.179638 26060 net.cpp:139] Memory required for data: 1558444600
I1010 13:01:46.179643 26060 layer_factory.hpp:77] Creating layer conv5_2/1x1_increase/slice
I1010 13:01:46.179652 26060 net.cpp:86] Creating Layer conv5_2/1x1_increase/slice
I1010 13:01:46.179656 26060 net.cpp:409] conv5_2/1x1_increase/slice <- conv5_2/1x1_increase/bn
I1010 13:01:46.179661 26060 net.cpp:383] conv5_2/1x1_increase/slice -> conv5_2/1x1_increase/split1
I1010 13:01:46.179667 26060 net.cpp:383] conv5_2/1x1_increase/slice -> conv5_2/1x1_increase/split2
I1010 13:01:46.179714 26060 net.cpp:124] Setting up conv5_2/1x1_increase/slice
I1010 13:01:46.179720 26060 net.cpp:131] Top shape: 25 120 14 14 (588000)
I1010 13:01:46.179724 26060 net.cpp:131] Top shape: 25 120 14 14 (588000)
I1010 13:01:46.179726 26060 net.cpp:139] Memory required for data: 1563148600
I1010 13:01:46.179729 26060 layer_factory.hpp:77] Creating layer conv5_2/3x3_dwconv/slice_0
…
I1010 13:01:46.388442 26060 layer_factory.hpp:77] Creating layer conv7_1/3x3_dwconv/slice_2
I1010 13:01:46.388453 26060 net.cpp:86] Creating Layer conv7_1/3x3_dwconv/slice_2
I1010 13:01:46.388456 26060 net.cpp:409] conv7_1/3x3_dwconv/slice_2 <- conv7_1/1x1_increase/split3
I1010 13:01:46.388463 26060 net.cpp:383] conv7_1/3x3_dwconv/slice_2 -> conv7_1/3x3_dwconv/slice_2/bn
I1010 13:01:46.389803 26060 net.cpp:124] Setting up conv7_1/3x3_dwconv/slice_2
I1010 13:01:46.389816 26060 net.cpp:131] Top shape: 25 192 7 7 (235200)
I1010 13:01:46.389819 26060 net.cpp:139] Memory required for data: 2261179400
I1010 13:01:46.389827 26060 layer_factory.hpp:77] Creating layer conv7_1/3x3_dwconv/slice_2/hardswish
I1010 13:01:46.389837 26060 net.cpp:86] Creating Layer conv7_1/3x3_dwconv/slice_2/hardswish
I1010 13:01:46.389840 26060 net.cpp:409] conv7_1/3x3_dwconv/slice_2/hardswish <- conv7_1/3x3_dwconv/slice_2/bn
I1010 13:01:46.389847 26060 net.cpp:370] conv7_1/3x3_dwconv/slice_2/hardswish -> conv7_1/3x3_dwconv/slice_2/bn (in-place)
I1010 13:01:46.389883 26060 net.cpp:124] Setting up conv7_1/3x3_dwconv/slice_2/hardswish
I1010 13:01:46.389890 26060 net.cpp:131] Top shape: 25 192 7 7 (235200)
I1010 13:01:46.389894 26060 net.cpp:139] Memory required for data: 2262120200
I1010 13:01:46.389897 26060 layer_factory.hpp:77] Creating layer conv7_1/3x3_dwconv/concat
I1010 13:01:46.389902 26060 net.cpp:86] Creating Layer conv7_1/3x3_dwconv/concat
I1010 13:01:46.389906 26060 net.cpp:409] conv7_1/3x3_dwconv/concat <- conv7_1/3x3_dwconv/slice_0/bn
I1010 13:01:46.389910 26060 net.cpp:409] conv7_1/3x3_dwconv/concat <- conv7_1/3x3_dwconv/slice_1/bn
I1010 13:01:46.389914 26060 net.cpp:409] conv7_1/3x3_dwconv/concat <- conv7_1/3x3_dwconv/slice_2/bn
I1010 13:01:46.389921 26060 net.cpp:383] conv7_1/3x3_dwconv/concat -> conv7_1/3x3_dwconv/concat
I1010 13:01:46.389952 26060 net.cpp:124] Setting up conv7_1/3x3_dwconv/concat
I1010 13:01:46.389957 26060 net.cpp:131] Top shape: 25 576 7 7 (705600)
I1010 13:01:46.389961 26060 net.cpp:139] Memory required for data: 2264942600
I1010 13:01:46.389963 26060 layer_factory.hpp:77] Creating layer conv7_1/3x3_dwconv/concat_fixed_point
I1010 13:01:46.389972 26060 net.cpp:86] Creating Layer conv7_1/3x3_dwconv/concat_fixed_point
I1010 13:01:46.389976 26060 net.cpp:409] conv7_1/3x3_dwconv/concat_fixed_point <- conv7_1/3x3_dwconv/concat
I1010 13:01:46.389981 26060 net.cpp:370] conv7_1/3x3_dwconv/concat_fixed_point -> conv7_1/3x3_dwconv/concat (in-place)
I1010 13:01:46.390027 26060 net.cpp:124] Setting up conv7_1/3x3_dwconv/concat_fixed_point
I1010 13:01:46.390033 26060 net.cpp:131] Top shape: 25 576 7 7 (705600)
I1010 13:01:46.390035 26060 net.cpp:139] Memory required for data: 2267765000
I1010 13:01:46.390040 26060 layer_factory.hpp:77] Creating layer conv7_1/3x3_dwconv/concat_conv7_1/3x3_dwconv/concat_fixed_point_0_split
I1010 13:01:46.390046 26060 net.cpp:86] Creating Layer conv7_1/3x3_dwconv/concat_conv7_1/3x3_dwconv/concat_fixed_point_0_split
I1010 13:01:46.390049 26060 net.cpp:409] conv7_1/3x3_dwconv/concat_conv7_1/3x3_dwconv/concat_fixed_point_0_split <- conv7_1/3x3_dwconv/concat
I1010 13:01:46.390058 26060 net.cpp:383] conv7_1/3x3_dwconv/concat_conv7_1/3x3_dwconv/concat_fixed_point_0_split -> conv7_1/3x3_dwconv/concat_conv7_1/3x3_dwconv/concat_fixed_point_0_split_0
I1010 13:01:46.390064 26060 net.cpp:383] conv7_1/3x3_dwconv/concat_conv7_1/3x3_dwconv/concat_fixed_point_0_split -> conv7_1/3x3_dwconv/concat_conv7_1/3x3_dwconv/concat_fixed_point_0_split_1
I1010 13:01:46.390110 26060 net.cpp:124] Setting up conv7_1/3x3_dwconv/concat_conv7_1/3x3_dwconv/concat_fixed_point_0_split
I1010 13:01:46.390122 26060 net.cpp:131] Top shape: 25 576 7 7 (705600)
I1010 13:01:46.390126 26060 net.cpp:131] Top shape: 25 576 7 7 (705600)
I1010 13:01:46.390130 26060 net.cpp:139] Memory required for data: 2273409800
I1010 13:01:46.390133 26060 layer_factory.hpp:77] Creating layer conv7_1/3x3_dwconv/SE_global_pool
I1010 13:01:46.390139 26060 net.cpp:86] Creating Layer conv7_1/3x3_dwconv/SE_global_pool
I1010 13:01:46.390143 26060 net.cpp:409] conv7_1/3x3_dwconv/SE_global_pool <- conv7_1/3x3_dwconv/concat_conv7_1/3x3_dwconv/concat_fixed_point_0_split_0
I1010 13:01:46.390151 26060 net.cpp:383] conv7_1/3x3_dwconv/SE_global_pool -> conv7_1/3x3_dwconv/SE_global_pool
I1010 13:01:46.390184 26060 net.cpp:124] Setting up conv7_1/3x3_dwconv/SE_global_pool
I1010 13:01:46.390192 26060 net.cpp:131] Top shape: 25 576 1 1 (14400)
I1010 13:01:46.390193 26060 net.cpp:139] Memory required for data: 2273467400
I1010 13:01:46.390197 26060 layer_factory.hpp:77] Creating layer conv7_1/3x3_dwconv/SE_bn
I1010 13:01:46.390205 26060 net.cpp:86] Creating Layer conv7_1/3x3_dwconv/SE_bn
I1010 13:01:46.390209 26060 net.cpp:409] conv7_1/3x3_dwconv/SE_bn <- conv7_1/3x3_dwconv/SE_global_pool
I1010 13:01:46.390216 26060 net.cpp:383] conv7_1/3x3_dwconv/SE_bn -> conv7_1/3x3_dwconv/SE_bn
I1010 13:01:46.390274 26060 layer_factory.hpp:77] Creating layer conv7_1/3x3_dwconv/SE_bn
I1010 13:01:46.390425 26060 net.cpp:124] Setting up conv7_1/3x3_dwconv/SE_bn
I1010 13:01:46.390431 26060 net.cpp:131] Top shape: 25 576 1 1 (14400)
I1010 13:01:46.390434 26060 net.cpp:139] Memory required for data: 2273525000
I1010 13:01:46.390439 26060 layer_factory.hpp:77] Creating layer conv7_1/3x3_dwconv/SE_fc1
I1010 13:01:46.390449 26060 net.cpp:86] Creating Layer conv7_1/3x3_dwconv/SE_fc1
I1010 13:01:46.390452 26060 net.cpp:409] conv7_1/3x3_dwconv/SE_fc1 <- conv7_1/3x3_dwconv/SE_bn
I1010 13:01:46.390460 26060 net.cpp:383] conv7_1/3x3_dwconv/SE_fc1 -> conv7_1/3x3_dwconv/SE_fc1
I1010 13:01:46.391481 26060 net.cpp:124] Setting up conv7_1/3x3_dwconv/SE_fc1
I1010 13:01:46.391491 26060 net.cpp:131] Top shape: 25 36 1 1 (900)
I1010 13:01:46.391494 26060 net.cpp:139] Memory required for data: 2273528600
I1010 13:01:46.391500 26060 layer_factory.hpp:77] Creating layer conv7_1/3x3_dwconv/SE_fc1/relu
I1010 13:01:46.391507 26060 net.cpp:86] Creating Layer conv7_1/3x3_dwconv/SE_fc1/relu
I1010 13:01:46.391511 26060 net.cpp:409] conv7_1/3x3_dwconv/SE_fc1/relu <- conv7_1/3x3_dwconv/SE_fc1
I1010 13:01:46.391516 26060 net.cpp:370] conv7_1/3x3_dwconv/SE_fc1/relu -> conv7_1/3x3_dwconv/SE_fc1 (in-place)
I1010 13:01:46.392144 26060 net.cpp:124] Setting up conv7_1/3x3_dwconv/SE_fc1/relu
I1010 13:01:46.392154 26060 net.cpp:131] Top shape: 25 36 1 1 (900)
I1010 13:01:46.392158 26060 net.cpp:139] Memory required for data: 2273532200
I1010 13:01:46.392166 26060 layer_factory.hpp:77] Creating layer conv7_1/3x3_dwconv/SE_fc2
I1010 13:01:46.392179 26060 net.cpp:86] Creating Layer conv7_1/3x3_dwconv/SE_fc2
I1010 13:01:46.392196 26060 net.cpp:409] conv7_1/3x3_dwconv/SE_fc2 <- conv7_1/3x3_dwconv/SE_fc1
I1010 13:01:46.392204 26060 net.cpp:383] conv7_1/3x3_dwconv/SE_fc2 -> conv7_1/3x3_dwconv/SE_fc2
I1010 13:01:46.393225 26060 net.cpp:124] Setting up conv7_1/3x3_dwconv/SE_fc2
I1010 13:01:46.393236 26060 net.cpp:131] Top shape: 25 576 1 1 (14400)
I1010 13:01:46.393239 26060 net.cpp:139] Memory required for data: 2273589800
I1010 13:01:46.393245 26060 layer_factory.hpp:77] Creating layer conv7_1/3x3_dwconv/SE_weights
I1010 13:01:46.393254 26060 net.cpp:86] Creating Layer conv7_1/3x3_dwconv/SE_weights
I1010 13:01:46.393257 26060 net.cpp:409] conv7_1/3x3_dwconv/SE_weights <- conv7_1/3x3_dwconv/SE_fc2
I1010 13:01:46.393262 26060 net.cpp:370] conv7_1/3x3_dwconv/SE_weights -> conv7_1/3x3_dwconv/SE_fc2 (in-place)
I1010 13:01:46.393851 26060 net.cpp:124] Setting up conv7_1/3x3_dwconv/SE_weights
I1010 13:01:46.393862 26060 net.cpp:131] Top shape: 25 576 1 1 (14400)
I1010 13:01:46.393864 26060 net.cpp:139] Memory required for data: 2273647400
I1010 13:01:46.393868 26060 layer_factory.hpp:77] Creating layer conv7_1/3x3_dwconv/SE_weights/reshape
I1010 13:01:46.393875 26060 net.cpp:86] Creating Layer conv7_1/3x3_dwconv/SE_weights/reshape
I1010 13:01:46.393879 26060 net.cpp:409] conv7_1/3x3_dwconv/SE_weights/reshape <- conv7_1/3x3_dwconv/SE_fc2
I1010 13:01:46.393885 26060 net.cpp:383] conv7_1/3x3_dwconv/SE_weights/reshape -> conv7_1/3x3_dwconv/SE_weights/reshape
I1010 13:01:46.393926 26060 net.cpp:124] Setting up conv7_1/3x3_dwconv/SE_weights/reshape
I1010 13:01:46.393932 26060 net.cpp:131] Top shape: 25 576 (14400)
I1010 13:01:46.393935 26060 net.cpp:139] Memory required for data: 2273705000
I1010 13:01:46.393939 26060 layer_factory.hpp:77] Creating layer conv7_1/3x3_dwconv/scale
I1010 13:01:46.393949 26060 net.cpp:86] Creating Layer conv7_1/3x3_dwconv/scale
I1010 13:01:46.393952 26060 net.cpp:409] conv7_1/3x3_dwconv/scale <- conv7_1/3x3_dwconv/concat_conv7_1/3x3_dwconv/concat_fixed_point_0_split_1
I1010 13:01:46.393957 26060 net.cpp:409] conv7_1/3x3_dwconv/scale <- conv7_1/3x3_dwconv/SE_weights/reshape
I1010 13:01:46.393962 26060 net.cpp:383] conv7_1/3x3_dwconv/scale -> conv7_1/3x3_dwconv/scale
I1010 13:01:46.394050 26060 net.cpp:124] Setting up conv7_1/3x3_dwconv/scale
I1010 13:01:46.394059 26060 net.cpp:131] Top shape: 25 576 7 7 (705600)
I1010 13:01:46.394062 26060 net.cpp:139] Memory required for data: 2276527400
I1010 13:01:46.394065 26060 layer_factory.hpp:77] Creating layer conv7_1/3x3_dwconv/scale_fixed_point
I1010 13:01:46.394071 26060 net.cpp:86] Creating Layer conv7_1/3x3_dwconv/scale_fixed_point
I1010 13:01:46.394075 26060 net.cpp:409] conv7_1/3x3_dwconv/scale_fixed_point <- conv7_1/3x3_dwconv/scale
I1010 13:01:46.394080 26060 net.cpp:370] conv7_1/3x3_dwconv/scale_fixed_point -> conv7_1/3x3_dwconv/scale (in-place)
I1010 13:01:46.394112 26060 net.cpp:124] Setting up conv7_1/3x3_dwconv/scale_fixed_point
I1010 13:01:46.394117 26060 net.cpp:131] Top shape: 25 576 7 7 (705600)
I1010 13:01:46.394120 26060 net.cpp:139] Memory required for data: 2279349800
I1010 13:01:46.394124 26060 layer_factory.hpp:77] Creating layer conv7_1/1x1_decrease
I1010 13:01:46.394134 26060 net.cpp:86] Creating Layer conv7_1/1x1_decrease
I1010 13:01:46.394138 26060 net.cpp:409] conv7_1/1x1_decrease <- conv7_1/3x3_dwconv/scale
I1010 13:01:46.394145 26060 net.cpp:383] conv7_1/1x1_decrease -> conv7_1/1x1_decrease/bn
I1010 13:01:46.398154 26060 net.cpp:124] Setting up conv7_1/1x1_decrease
I1010 13:01:46.398170 26060 net.cpp:131] Top shape: 25 192 7 7 (235200)
I1010 13:01:46.398175 26060 net.cpp:139] Memory required for data: 2280290600
I1010 13:01:46.398181 26060 layer_factory.hpp:77] Creating layer conv7_1/elt_sum
I1010 13:01:46.398187 26060 net.cpp:86] Creating Layer conv7_1/elt_sum
I1010 13:01:46.398192 26060 net.cpp:409] conv7_1/elt_sum <- conv7_0/1x1_decrease/bn_conv7_0/1x1_decrease/bn_fixed_point_0_split_1
I1010 13:01:46.398197 26060 net.cpp:409] conv7_1/elt_sum <- conv7_1/1x1_decrease/bn
I1010 13:01:46.398205 26060 net.cpp:383] conv7_1/elt_sum -> conv7_1/elt_sum
I1010 13:01:46.398262 26060 net.cpp:124] Setting up conv7_1/elt_sum
I1010 13:01:46.398267 26060 net.cpp:131] Top shape: 25 192 7 7 (235200)
I1010 13:01:46.398270 26060 net.cpp:139] Memory required for data: 2281231400
I1010 13:01:46.398274 26060 layer_factory.hpp:77] Creating layer conv7_1/elt_sum_fixed_point
I1010 13:01:46.398283 26060 net.cpp:86] Creating Layer conv7_1/elt_sum_fixed_point
I1010 13:01:46.398288 26060 net.cpp:409] conv7_1/elt_sum_fixed_point <- conv7_1/elt_sum
I1010 13:01:46.398293 26060 net.cpp:370] conv7_1/elt_sum_fixed_point -> conv7_1/elt_sum (in-place)
I1010 13:01:46.398325 26060 net.cpp:124] Setting up conv7_1/elt_sum_fixed_point
I1010 13:01:46.398331 26060 net.cpp:131] Top shape: 25 192 7 7 (235200)
I1010 13:01:46.398334 26060 net.cpp:139] Memory required for data: 2282172200
I1010 13:01:46.398339 26060 layer_factory.hpp:77] Creating layer conv7_1/elt_sum_conv7_1/elt_sum_fixed_point_0_split
I1010 13:01:46.398345 26060 net.cpp:86] Creating Layer conv7_1/elt_sum_conv7_1/elt_sum_fixed_point_0_split
I1010 13:01:46.398350 26060 net.cpp:409] conv7_1/elt_sum_conv7_1/elt_sum_fixed_point_0_split <- conv7_1/elt_sum
I1010 13:01:46.398353 26060 net.cpp:383] conv7_1/elt_sum_conv7_1/elt_sum_fixed_point_0_split -> conv7_1/elt_sum_conv7_1/elt_sum_fixed_point_0_split_0
I1010 13:01:46.398360 26060 net.cpp:383] conv7_1/elt_sum_conv7_1/elt_sum_fixed_point_0_split -> conv7_1/elt_sum_conv7_1/elt_sum_fixed_point_0_split_1
I1010 13:01:46.398414 26060 net.cpp:124] Setting up conv7_1/elt_sum_conv7_1/elt_sum_fixed_point_0_split
I1010 13:01:46.398420 26060 net.cpp:131] Top shape: 25 192 7 7 (235200)
I1010 13:01:46.398424 26060 net.cpp:131] Top shape: 25 192 7 7 (235200)
I1010 13:01:46.398427 26060 net.cpp:139] Memory required for data: 2284053800
I1010 13:01:46.398430 26060 layer_factory.hpp:77] Creating layer conv7_2/1x1_increase
I1010 13:01:46.398440 26060 net.cpp:86] Creating Layer conv7_2/1x1_increase
I1010 13:01:46.398444 26060 net.cpp:409] conv7_2/1x1_increase <- conv7_1/elt_sum_conv7_1/elt_sum_fixed_point_0_split_0
I1010 13:01:46.398449 26060 net.cpp:383] conv7_2/1x1_increase -> conv7_2/1x1_increase/bn
I1010 13:01:46.402148 26060 net.cpp:124] Setting up conv7_2/1x1_increase
I1010 13:01:46.402161 26060 net.cpp:131] Top shape: 25 576 7 7 (705600)
I1010 13:01:46.402165 26060 net.cpp:139] Memory required for data: 2286876200
I1010 13:01:46.402173 26060 layer_factory.hpp:77] Creating layer conv7_2/1x1_increase/hardswish
I1010 13:01:46.402179 26060 net.cpp:86] Creating Layer conv7_2/1x1_increase/hardswish
I1010 13:01:46.402182 26060 net.cpp:409] conv7_2/1x1_increase/hardswish <- conv7_2/1x1_increase/bn
I1010 13:01:46.402187 26060 net.cpp:370] conv7_2/1x1_increase/hardswish -> conv7_2/1x1_increase/bn (in-place)
I1010 13:01:46.402225 26060 net.cpp:124] Setting up conv7_2/1x1_increase/hardswish
I1010 13:01:46.402231 26060 net.cpp:131] Top shape: 25 576 7 7 (705600)
I1010 13:01:46.402235 26060 net.cpp:139] Memory required for data: 2289698600
I1010 13:01:46.402240 26060 layer_factory.hpp:77] Creating layer conv7_2/1x1_increase/bn_fixed_point
I1010 13:01:46.402247 26060 net.cpp:86] Creating Layer conv7_2/1x1_increase/bn_fixed_point
I1010 13:01:46.402251 26060 net.cpp:409] conv7_2/1x1_increase/bn_fixed_point <- conv7_2/1x1_increase/bn
I1010 13:01:46.402256 26060 net.cpp:370] conv7_2/1x1_increase/bn_fixed_point -> conv7_2/1x1_increase/bn (in-place)
I1010 13:01:46.402288 26060 net.cpp:124] Setting up conv7_2/1x1_increase/bn_fixed_point
I1010 13:01:46.402293 26060 net.cpp:131] Top shape: 25 576 7 7 (705600)
I1010 13:01:46.402297 26060 net.cpp:139] Memory required for data: 2292521000
I1010 13:01:46.402300 26060 layer_factory.hpp:77] Creating layer conv7_2/1x1_increase/slice
I1010 13:01:46.402309 26060 net.cpp:86] Creating Layer conv7_2/1x1_increase/slice
I1010 13:01:46.402312 26060 net.cpp:409] conv7_2/1x1_increase/slice <- conv7_2/1x1_increase/bn
I1010 13:01:46.402318 26060 net.cpp:383] conv7_2/1x1_increase/slice -> conv7_2/1x1_increase/split1
I1010 13:01:46.402324 26060 net.cpp:383] conv7_2/1x1_increase/slice -> conv7_2/1x1_increase/split2
I1010 13:01:46.402343 26060 net.cpp:383] conv7_2/1x1_increase/slice -> conv7_2/1x1_increase/split3
I1010 13:01:46.402417 26060 net.cpp:124] Setting up conv7_2/1x1_increase/slice
I1010 13:01:46.402422 26060 net.cpp:131] Top shape: 25 192 7 7 (235200)
I1010 13:01:46.402426 26060 net.cpp:131] Top shape: 25 192 7 7 (235200)
I1010 13:01:46.402431 26060 net.cpp:131] Top shape: 25 192 7 7 (235200)
I1010 13:01:46.402432 26060 net.cpp:139] Memory required for data: 2295343400
I1010 13:01:46.402436 26060 layer_factory.hpp:77] Creating layer conv7_2/3x3_dwconv/slice_0
I1010 13:01:46.402446 26060 net.cpp:86] Creating Layer conv7_2/3x3_dwconv/slice_0
I1010 13:01:46.402451 26060 net.cpp:409] conv7_2/3x3_dwconv/slice_0 <- conv7_2/1x1_increase/split1
I1010 13:01:46.402456 26060 net.cpp:383] conv7_2/3x3_dwconv/slice_0 -> conv7_2/3x3_dwconv/slice_0/bn
I1010 13:01:46.403095 26060 net.cpp:124] Setting up conv7_2/3x3_dwconv/slice_0
I1010 13:01:46.403106 26060 net.cpp:131] Top shape: 25 192 7 7 (235200)
I1010 13:01:46.403110 26060 net.cpp:139] Memory required for data: 2296284200
I1010 13:01:46.403116 26060 layer_factory.hpp:77] Creating layer conv7_2/3x3_dwconv/slice_0/hardswish
I1010 13:01:46.403123 26060 net.cpp:86] Creating Layer conv7_2/3x3_dwconv/slice_0/hardswish
I1010 13:01:46.403127 26060 net.cpp:409] conv7_2/3x3_dwconv/slice_0/hardswish <- conv7_2/3x3_dwconv/slice_0/bn
I1010 13:01:46.403134 26060 net.cpp:370] conv7_2/3x3_dwconv/slice_0/hardswish -> conv7_2/3x3_dwconv/slice_0/bn (in-place)
I1010 13:01:46.403173 26060 net.cpp:124] Setting up conv7_2/3x3_dwconv/slice_0/hardswish
I1010 13:01:46.403187 26060 net.cpp:131] Top shape: 25 192 7 7 (235200)
I1010 13:01:46.403190 26060 net.cpp:139] Memory required for data: 2297225000
I1010 13:01:46.403194 26060 layer_factory.hpp:77] Creating layer conv7_2/3x3_dwconv/slice_1
I1010 13:01:46.403203 26060 net.cpp:86] Creating Layer conv7_2/3x3_dwconv/slice_1
I1010 13:01:46.403206 26060 net.cpp:409] conv7_2/3x3_dwconv/slice_1 <- conv7_2/1x1_increase/split2
I1010 13:01:46.403214 26060 net.cpp:383] conv7_2/3x3_dwconv/slice_1 -> conv7_2/3x3_dwconv/slice_1/bn
I1010 13:01:46.403937 26060 net.cpp:124] Setting up conv7_2/3x3_dwconv/slice_1
I1010 13:01:46.403946 26060 net.cpp:131] Top shape: 25 192 7 7 (235200)
I1010 13:01:46.403950 26060 net.cpp:139] Memory required for data: 2298165800
I1010 13:01:46.403956 26060 layer_factory.hpp:77] Creating layer conv7_2/3x3_dwconv/slice_1/hardswish
I1010 13:01:46.403964 26060 net.cpp:86] Creating Layer conv7_2/3x3_dwconv/slice_1/hardswish
I1010 13:01:46.403968 26060 net.cpp:409] conv7_2/3x3_dwconv/slice_1/hardswish <- conv7_2/3x3_dwconv/slice_1/bn
I1010 13:01:46.403973 26060 net.cpp:370] conv7_2/3x3_dwconv/slice_1/hardswish -> conv7_2/3x3_dwconv/slice_1/bn (in-place)
I1010 13:01:46.404011 26060 net.cpp:124] Setting up conv7_2/3x3_dwconv/slice_1/hardswish
I1010 13:01:46.404017 26060 net.cpp:131] Top shape: 25 192 7 7 (235200)
I1010 13:01:46.404021 26060 net.cpp:139] Memory required for data: 2299106600
I1010 13:01:46.404023 26060 layer_factory.hpp:77] Creating layer conv7_2/3x3_dwconv/slice_2
I1010 13:01:46.404033 26060 net.cpp:86] Creating Layer conv7_2/3x3_dwconv/slice_2
I1010 13:01:46.404037 26060 net.cpp:409] conv7_2/3x3_dwconv/slice_2 <- conv7_2/1x1_increase/split3
I1010 13:01:46.404045 26060 net.cpp:383] conv7_2/3x3_dwconv/slice_2 -> conv7_2/3x3_dwconv/slice_2/bn
I1010 13:01:46.405238 26060 net.cpp:124] Setting up conv7_2/3x3_dwconv/slice_2
I1010 13:01:46.405251 26060 net.cpp:131] Top shape: 25 192 7 7 (235200)
I1010 13:01:46.405253 26060 net.cpp:139] Memory required for data: 2300047400
I1010 13:01:46.405259 26060 layer_factory.hpp:77] Creating layer conv7_2/3x3_dwconv/slice_2/hardswish
I1010 13:01:46.405269 26060 net.cpp:86] Creating Layer conv7_2/3x3_dwconv/slice_2/hardswish
I1010 13:01:46.405273 26060 net.cpp:409] conv7_2/3x3_dwconv/slice_2/hardswish <- conv7_2/3x3_dwconv/slice_2/bn
I1010 13:01:46.405278 26060 net.cpp:370] conv7_2/3x3_dwconv/slice_2/hardswish -> conv7_2/3x3_dwconv/slice_2/bn (in-place)
I1010 13:01:46.405329 26060 net.cpp:124] Setting up conv7_2/3x3_dwconv/slice_2/hardswish
I1010 13:01:46.405336 26060 net.cpp:131] Top shape: 25 192 7 7 (235200)
I1010 13:01:46.405339 26060 net.cpp:139] Memory required for data: 2300988200
I1010 13:01:46.405342 26060 layer_factory.hpp:77] Creating layer conv7_2/3x3_dwconv/concat
I1010 13:01:46.405347 26060 net.cpp:86] Creating Layer conv7_2/3x3_dwconv/concat
I1010 13:01:46.405351 26060 net.cpp:409] conv7_2/3x3_dwconv/concat <- conv7_2/3x3_dwconv/slice_0/bn
I1010 13:01:46.405355 26060 net.cpp:409] conv7_2/3x3_dwconv/concat <- conv7_2/3x3_dwconv/slice_1/bn
I1010 13:01:46.405359 26060 net.cpp:409] conv7_2/3x3_dwconv/concat <- conv7_2/3x3_dwconv/slice_2/bn
I1010 13:01:46.405365 26060 net.cpp:383] conv7_2/3x3_dwconv/concat -> conv7_2/3x3_dwconv/concat
I1010 13:01:46.405396 26060 net.cpp:124] Setting up conv7_2/3x3_dwconv/concat
I1010 13:01:46.405405 26060 net.cpp:131] Top shape: 25 576 7 7 (705600)
I1010 13:01:46.405407 26060 net.cpp:139] Memory required for data: 2303810600
I1010 13:01:46.405411 26060 layer_factory.hpp:77] Creating layer conv7_2/3x3_dwconv/concat_fixed_point
I1010 13:01:46.405416 26060 net.cpp:86] Creating Layer conv7_2/3x3_dwconv/concat_fixed_point
I1010 13:01:46.405419 26060 net.cpp:409] conv7_2/3x3_dwconv/concat_fixed_point <- conv7_2/3x3_dwconv/concat
I1010 13:01:46.405423 26060 net.cpp:370] conv7_2/3x3_dwconv/concat_fixed_point -> conv7_2/3x3_dwconv/concat (in-place)
I1010 13:01:46.405454 26060 net.cpp:124] Setting up conv7_2/3x3_dwconv/concat_fixed_point
I1010 13:01:46.405459 26060 net.cpp:131] Top shape: 25 576 7 7 (705600)
I1010 13:01:46.405462 26060 net.cpp:139] Memory required for data: 2306633000
I1010 13:01:46.405467 26060 layer_factory.hpp:77] Creating layer conv7_2/3x3_dwconv/concat_conv7_2/3x3_dwconv/concat_fixed_point_0_split
I1010 13:01:46.405474 26060 net.cpp:86] Creating Layer conv7_2/3x3_dwconv/concat_conv7_2/3x3_dwconv/concat_fixed_point_0_split
I1010 13:01:46.405478 26060 net.cpp:409] conv7_2/3x3_dwconv/concat_conv7_2/3x3_dwconv/concat_fixed_point_0_split <- conv7_2/3x3_dwconv/concat
I1010 13:01:46.405483 26060 net.cpp:383] conv7_2/3x3_dwconv/concat_conv7_2/3x3_dwconv/concat_fixed_point_0_split -> conv7_2/3x3_dwconv/concat_conv7_2/3x3_dwconv/concat_fixed_point_0_split_0
I1010 13:01:46.405489 26060 net.cpp:383] conv7_2/3x3_dwconv/concat_conv7_2/3x3_dwconv/concat_fixed_point_0_split -> conv7_2/3x3_dwconv/concat_conv7_2/3x3_dwconv/concat_fixed_point_0_split_1
I1010 13:01:46.405541 26060 net.cpp:124] Setting up conv7_2/3x3_dwconv/concat_conv7_2/3x3_dwconv/concat_fixed_point_0_split
I1010 13:01:46.405547 26060 net.cpp:131] Top shape: 25 576 7 7 (705600)
I1010 13:01:46.405551 26060 net.cpp:131] Top shape: 25 576 7 7 (705600)
I1010 13:01:46.405555 26060 net.cpp:139] Memory required for data: 2312277800
I1010 13:01:46.405558 26060 layer_factory.hpp:77] Creating layer conv7_2/3x3_dwconv/SE_global_pool
I1010 13:01:46.405565 26060 net.cpp:86] Creating Layer conv7_2/3x3_dwconv/SE_global_pool
I1010 13:01:46.405568 26060 net.cpp:409] conv7_2/3x3_dwconv/SE_global_pool <- conv7_2/3x3_dwconv/concat_conv7_2/3x3_dwconv/concat_fixed_point_0_split_0
I1010 13:01:46.405575 26060 net.cpp:383] conv7_2/3x3_dwconv/SE_global_pool -> conv7_2/3x3_dwconv/SE_global_pool
I1010 13:01:46.405608 26060 net.cpp:124] Setting up conv7_2/3x3_dwconv/SE_global_pool
I1010 13:01:46.405613 26060 net.cpp:131] Top shape: 25 576 1 1 (14400)
I1010 13:01:46.405616 26060 net.cpp:139] Memory required for data: 2312335400
I1010 13:01:46.405619 26060 layer_factory.hpp:77] Creating layer conv7_2/3x3_dwconv/SE_bn
I1010 13:01:46.405625 26060 net.cpp:86] Creating Layer conv7_2/3x3_dwconv/SE_bn
I1010 13:01:46.405628 26060 net.cpp:409] conv7_2/3x3_dwconv/SE_bn <- conv7_2/3x3_dwconv/SE_global_pool
I1010 13:01:46.405637 26060 net.cpp:383] conv7_2/3x3_dwconv/SE_bn -> conv7_2/3x3_dwconv/SE_bn
I1010 13:01:46.405694 26060 layer_factory.hpp:77] Creating layer conv7_2/3x3_dwconv/SE_bn
I1010 13:01:46.405844 26060 net.cpp:124] Setting up conv7_2/3x3_dwconv/SE_bn
I1010 13:01:46.405850 26060 net.cpp:131] Top shape: 25 576 1 1 (14400)
I1010 13:01:46.405863 26060 net.cpp:139] Memory required for data: 2312393000
I1010 13:01:46.405869 26060 layer_factory.hpp:77] Creating layer conv7_2/3x3_dwconv/SE_fc1
I1010 13:01:46.405879 26060 net.cpp:86] Creating Layer conv7_2/3x3_dwconv/SE_fc1
I1010 13:01:46.405882 26060 net.cpp:409] conv7_2/3x3_dwconv/SE_fc1 <- conv7_2/3x3_dwconv/SE_bn
I1010 13:01:46.405889 26060 net.cpp:383] conv7_2/3x3_dwconv/SE_fc1 -> conv7_2/3x3_dwconv/SE_fc1
I1010 13:01:46.406911 26060 net.cpp:124] Setting up conv7_2/3x3_dwconv/SE_fc1
I1010 13:01:46.406922 26060 net.cpp:131] Top shape: 25 36 1 1 (900)
I1010 13:01:46.406925 26060 net.cpp:139] Memory required for data: 2312396600
I1010 13:01:46.406930 26060 layer_factory.hpp:77] Creating layer conv7_2/3x3_dwconv/SE_fc1/relu
I1010 13:01:46.406939 26060 net.cpp:86] Creating Layer conv7_2/3x3_dwconv/SE_fc1/relu
I1010 13:01:46.406942 26060 net.cpp:409] conv7_2/3x3_dwconv/SE_fc1/relu <- conv7_2/3x3_dwconv/SE_fc1
I1010 13:01:46.406947 26060 net.cpp:370] conv7_2/3x3_dwconv/SE_fc1/relu -> conv7_2/3x3_dwconv/SE_fc1 (in-place)
I1010 13:01:46.407613 26060 net.cpp:124] Setting up conv7_2/3x3_dwconv/SE_fc1/relu
I1010 13:01:46.407624 26060 net.cpp:131] Top shape: 25 36 1 1 (900)
I1010 13:01:46.407627 26060 net.cpp:139] Memory required for data: 2312400200
I1010 13:01:46.407632 26060 layer_factory.hpp:77] Creating layer conv7_2/3x3_dwconv/SE_fc2
I1010 13:01:46.407644 26060 net.cpp:86] Creating Layer conv7_2/3x3_dwconv/SE_fc2
I1010 13:01:46.407647 26060 net.cpp:409] conv7_2/3x3_dwconv/SE_fc2 <- conv7_2/3x3_dwconv/SE_fc1
I1010 13:01:46.407658 26060 net.cpp:383] conv7_2/3x3_dwconv/SE_fc2 -> conv7_2/3x3_dwconv/SE_fc2
I1010 13:01:46.408692 26060 net.cpp:124] Setting up conv7_2/3x3_dwconv/SE_fc2
I1010 13:01:46.408704 26060 net.cpp:131] Top shape: 25 576 1 1 (14400)
I1010 13:01:46.408706 26060 net.cpp:139] Memory required for data: 2312457800
I1010 13:01:46.408711 26060 layer_factory.hpp:77] Creating layer conv7_2/3x3_dwconv/SE_weights
I1010 13:01:46.408720 26060 net.cpp:86] Creating Layer conv7_2/3x3_dwconv/SE_weights
I1010 13:01:46.408723 26060 net.cpp:409] conv7_2/3x3_dwconv/SE_weights <- conv7_2/3x3_dwconv/SE_fc2
I1010 13:01:46.408735 26060 net.cpp:370] conv7_2/3x3_dwconv/SE_weights -> conv7_2/3x3_dwconv/SE_fc2 (in-place)
I1010 13:01:46.409859 26060 net.cpp:124] Setting up conv7_2/3x3_dwconv/SE_weights
I1010 13:01:46.409873 26060 net.cpp:131] Top shape: 25 576 1 1 (14400)
I1010 13:01:46.409876 26060 net.cpp:139] Memory required for data: 2312515400
I1010 13:01:46.409879 26060 layer_factory.hpp:77] Creating layer conv7_2/3x3_dwconv/SE_weights/reshape
I1010 13:01:46.409888 26060 net.cpp:86] Creating Layer conv7_2/3x3_dwconv/SE_weights/reshape
I1010 13:01:46.409891 26060 net.cpp:409] conv7_2/3x3_dwconv/SE_weights/reshape <- conv7_2/3x3_dwconv/SE_fc2
I1010 13:01:46.409900 26060 net.cpp:383] conv7_2/3x3_dwconv/SE_weights/reshape -> conv7_2/3x3_dwconv/SE_weights/reshape
I1010 13:01:46.409941 26060 net.cpp:124] Setting up conv7_2/3x3_dwconv/SE_weights/reshape
I1010 13:01:46.409947 26060 net.cpp:131] Top shape: 25 576 (14400)
I1010 13:01:46.409950 26060 net.cpp:139] Memory required for data: 2312573000
I1010 13:01:46.409953 26060 layer_factory.hpp:77] Creating layer conv7_2/3x3_dwconv/scale
I1010 13:01:46.409962 26060 net.cpp:86] Creating Layer conv7_2/3x3_dwconv/scale
I1010 13:01:46.409966 26060 net.cpp:409] conv7_2/3x3_dwconv/scale <- conv7_2/3x3_dwconv/concat_conv7_2/3x3_dwconv/concat_fixed_point_0_split_1
I1010 13:01:46.409971 26060 net.cpp:409] conv7_2/3x3_dwconv/scale <- conv7_2/3x3_dwconv/SE_weights/reshape
I1010 13:01:46.409978 26060 net.cpp:383] conv7_2/3x3_dwconv/scale -> conv7_2/3x3_dwconv/scale
I1010 13:01:46.410070 26060 net.cpp:124] Setting up conv7_2/3x3_dwconv/scale
I1010 13:01:46.410076 26060 net.cpp:131] Top shape: 25 576 7 7 (705600)
I1010 13:01:46.410079 26060 net.cpp:139] Memory required for data: 2315395400
I1010 13:01:46.410082 26060 layer_factory.hpp:77] Creating layer conv7_2/3x3_dwconv/scale_fixed_point
I1010 13:01:46.410089 26060 net.cpp:86] Creating Layer conv7_2/3x3_dwconv/scale_fixed_point
I1010 13:01:46.410106 26060 net.cpp:409] conv7_2/3x3_dwconv/scale_fixed_point <- conv7_2/3x3_dwconv/scale
I1010 13:01:46.410111 26060 net.cpp:370] conv7_2/3x3_dwconv/scale_fixed_point -> conv7_2/3x3_dwconv/scale (in-place)
I1010 13:01:46.410143 26060 net.cpp:124] Setting up conv7_2/3x3_dwconv/scale_fixed_point
I1010 13:01:46.410149 26060 net.cpp:131] Top shape: 25 576 7 7 (705600)
I1010 13:01:46.410152 26060 net.cpp:139] Memory required for data: 2318217800
I1010 13:01:46.410156 26060 layer_factory.hpp:77] Creating layer conv7_2/1x1_decrease
I1010 13:01:46.410174 26060 net.cpp:86] Creating Layer conv7_2/1x1_decrease
I1010 13:01:46.410179 26060 net.cpp:409] conv7_2/1x1_decrease <- conv7_2/3x3_dwconv/scale
I1010 13:01:46.410184 26060 net.cpp:383] conv7_2/1x1_decrease -> conv7_2/1x1_decrease/bn
I1010 13:01:46.415522 26060 net.cpp:124] Setting up conv7_2/1x1_decrease
I1010 13:01:46.415537 26060 net.cpp:131] Top shape: 25 192 7 7 (235200)
I1010 13:01:46.415540 26060 net.cpp:139] Memory required for data: 2319158600
I1010 13:01:46.415547 26060 layer_factory.hpp:77] Creating layer conv7_2/elt_sum
I1010 13:01:46.415556 26060 net.cpp:86] Creating Layer conv7_2/elt_sum
I1010 13:01:46.415561 26060 net.cpp:409] conv7_2/elt_sum <- conv7_1/elt_sum_conv7_1/elt_sum_fixed_point_0_split_1
I1010 13:01:46.415566 26060 net.cpp:409] conv7_2/elt_sum <- conv7_2/1x1_decrease/bn
I1010 13:01:46.415571 26060 net.cpp:383] conv7_2/elt_sum -> conv7_2/elt_sum
I1010 13:01:46.415612 26060 net.cpp:124] Setting up conv7_2/elt_sum
I1010 13:01:46.415618 26060 net.cpp:131] Top shape: 25 192 7 7 (235200)
I1010 13:01:46.415621 26060 net.cpp:139] Memory required for data: 2320099400
I1010 13:01:46.415623 26060 layer_factory.hpp:77] Creating layer conv7_2/elt_sum_fixed_point
I1010 13:01:46.415632 26060 net.cpp:86] Creating Layer conv7_2/elt_sum_fixed_point
I1010 13:01:46.415635 26060 net.cpp:409] conv7_2/elt_sum_fixed_point <- conv7_2/elt_sum
I1010 13:01:46.415640 26060 net.cpp:370] conv7_2/elt_sum_fixed_point -> conv7_2/elt_sum (in-place)
I1010 13:01:46.415674 26060 net.cpp:124] Setting up conv7_2/elt_sum_fixed_point
I1010 13:01:46.415679 26060 net.cpp:131] Top shape: 25 192 7 7 (235200)
I1010 13:01:46.415683 26060 net.cpp:139] Memory required for data: 2321040200
I1010 13:01:46.415686 26060 layer_factory.hpp:77] Creating layer conv8_0/1x1_increase
I1010 13:01:46.415697 26060 net.cpp:86] Creating Layer conv8_0/1x1_increase
I1010 13:01:46.415701 26060 net.cpp:409] conv8_0/1x1_increase <- conv7_2/elt_sum
I1010 13:01:46.415709 26060 net.cpp:383] conv8_0/1x1_increase -> conv8_0/1x1_increase/bn
I1010 13:01:46.422420 26060 net.cpp:124] Setting up conv8_0/1x1_increase
I1010 13:01:46.422431 26060 net.cpp:131] Top shape: 25 1152 7 7 (1411200)
I1010 13:01:46.422435 26060 net.cpp:139] Memory required for data: 2326685000
I1010 13:01:46.422441 26060 layer_factory.hpp:77] Creating layer conv8_0/1x1_increase/hardswish
I1010 13:01:46.422447 26060 net.cpp:86] Creating Layer conv8_0/1x1_increase/hardswish
I1010 13:01:46.422451 26060 net.cpp:409] conv8_0/1x1_increase/hardswish <- conv8_0/1x1_increase/bn
I1010 13:01:46.422462 26060 net.cpp:370] conv8_0/1x1_increase/hardswish -> conv8_0/1x1_increase/bn (in-place)
I1010 13:01:46.422499 26060 net.cpp:124] Setting up conv8_0/1x1_increase/hardswish
I1010 13:01:46.422505 26060 net.cpp:131] Top shape: 25 1152 7 7 (1411200)
I1010 13:01:46.422508 26060 net.cpp:139] Memory required for data: 2332329800
I1010 13:01:46.422511 26060 layer_factory.hpp:77] Creating layer conv8_0/1x1_increase/bn_fixed_point
I1010 13:01:46.422520 26060 net.cpp:86] Creating Layer conv8_0/1x1_increase/bn_fixed_point
I1010 13:01:46.422524 26060 net.cpp:409] conv8_0/1x1_increase/bn_fixed_point <- conv8_0/1x1_increase/bn
I1010 13:01:46.422528 26060 net.cpp:370] conv8_0/1x1_increase/bn_fixed_point -> conv8_0/1x1_increase/bn (in-place)
I1010 13:01:46.422561 26060 net.cpp:124] Setting up conv8_0/1x1_increase/bn_fixed_point
I1010 13:01:46.422566 26060 net.cpp:131] Top shape: 25 1152 7 7 (1411200)
I1010 13:01:46.422569 26060 net.cpp:139] Memory required for data: 2337974600
I1010 13:01:46.422586 26060 layer_factory.hpp:77] Creating layer conv8_0/1x1_increase/slice
I1010 13:01:46.422595 26060 net.cpp:86] Creating Layer conv8_0/1x1_increase/slice
I1010 13:01:46.422598 26060 net.cpp:409] conv8_0/1x1_increase/slice <- conv8_0/1x1_increase/bn
I1010 13:01:46.422605 26060 net.cpp:383] conv8_0/1x1_increase/slice -> conv8_0/1x1_increase/split1
I1010 13:01:46.422612 26060 net.cpp:383] conv8_0/1x1_increase/slice -> conv8_0/1x1_increase/split2
I1010 13:01:46.422618 26060 net.cpp:383] conv8_0/1x1_increase/slice -> conv8_0/1x1_increase/split3
I1010 13:01:46.422693 26060 net.cpp:124] Setting up conv8_0/1x1_increase/slice
I1010 13:01:46.422698 26060 net.cpp:131] Top shape: 25 384 7 7 (470400)
I1010 13:01:46.422703 26060 net.cpp:131] Top shape: 25 384 7 7 (470400)
I1010 13:01:46.422705 26060 net.cpp:131] Top shape: 25 384 7 7 (470400)
I1010 13:01:46.422708 26060 net.cpp:139] Memory required for data: 2343619400
I1010 13:01:46.422713 26060 layer_factory.hpp:77] Creating layer conv8_0/3x3_dwconv/slice_0
I1010 13:01:46.422722 26060 net.cpp:86] Creating Layer conv8_0/3x3_dwconv/slice_0
I1010 13:01:46.422726 26060 net.cpp:409] conv8_0/3x3_dwconv/slice_0 <- conv8_0/1x1_increase/split1
I1010 13:01:46.422734 26060 net.cpp:383] conv8_0/3x3_dwconv/slice_0 -> conv8_0/3x3_dwconv/slice_0/bn
I1010 13:01:46.423429 26060 net.cpp:124] Setting up conv8_0/3x3_dwconv/slice_0
I1010 13:01:46.423439 26060 net.cpp:131] Top shape: 25 384 7 7 (470400)
I1010 13:01:46.423444 26060 net.cpp:139] Memory required for data: 2345501000
I1010 13:01:46.423449 26060 layer_factory.hpp:77] Creating layer conv8_0/3x3_dwconv/slice_0/hardswish
I1010 13:01:46.423458 26060 net.cpp:86] Creating Layer conv8_0/3x3_dwconv/slice_0/hardswish
I1010 13:01:46.423462 26060 net.cpp:409] conv8_0/3x3_dwconv/slice_0/hardswish <- conv8_0/3x3_dwconv/slice_0/bn
I1010 13:01:46.423467 26060 net.cpp:370] conv8_0/3x3_dwconv/slice_0/hardswish -> conv8_0/3x3_dwconv/slice_0/bn (in-place)
I1010 13:01:46.423506 26060 net.cpp:124] Setting up conv8_0/3x3_dwconv/slice_0/hardswish
I1010 13:01:46.423511 26060 net.cpp:131] Top shape: 25 384 7 7 (470400)
I1010 13:01:46.423514 26060 net.cpp:139] Memory required for data: 2347382600
I1010 13:01:46.423517 26060 layer_factory.hpp:77] Creating layer conv8_0/3x3_dwconv/slice_1
I1010 13:01:46.423528 26060 net.cpp:86] Creating Layer conv8_0/3x3_dwconv/slice_1
I1010 13:01:46.423532 26060 net.cpp:409] conv8_0/3x3_dwconv/slice_1 <- conv8_0/1x1_increase/split2
I1010 13:01:46.423539 26060 net.cpp:383] conv8_0/3x3_dwconv/slice_1 -> conv8_0/3x3_dwconv/slice_1/bn
I1010 13:01:46.425004 26060 net.cpp:124] Setting up conv8_0/3x3_dwconv/slice_1
I1010 13:01:46.425015 26060 net.cpp:131] Top shape: 25 384 7 7 (470400)
I1010 13:01:46.425019 26060 net.cpp:139] Memory required for data: 2349264200
I1010 13:01:46.425027 26060 layer_factory.hpp:77] Creating layer conv8_0/3x3_dwconv/slice_1/hardswish
I1010 13:01:46.425034 26060 net.cpp:86] Creating Layer conv8_0/3x3_dwconv/slice_1/hardswish
I1010 13:01:46.425037 26060 net.cpp:409] conv8_0/3x3_dwconv/slice_1/hardswish <- conv8_0/3x3_dwconv/slice_1/bn
I1010 13:01:46.425045 26060 net.cpp:370] conv8_0/3x3_dwconv/slice_1/hardswish -> conv8_0/3x3_dwconv/slice_1/bn (in-place)
I1010 13:01:46.425081 26060 net.cpp:124] Setting up conv8_0/3x3_dwconv/slice_1/hardswish
I1010 13:01:46.425089 26060 net.cpp:131] Top shape: 25 384 7 7 (470400)
I1010 13:01:46.425093 26060 net.cpp:139] Memory required for data: 2351145800
I1010 13:01:46.425097 26060 layer_factory.hpp:77] Creating layer conv8_0/3x3_dwconv/slice_2
I1010 13:01:46.425105 26060 net.cpp:86] Creating Layer conv8_0/3x3_dwconv/slice_2
I1010 13:01:46.425109 26060 net.cpp:409] conv8_0/3x3_dwconv/slice_2 <- conv8_0/1x1_increase/split3
I1010 13:01:46.425117 26060 net.cpp:383] conv8_0/3x3_dwconv/slice_2 -> conv8_0/3x3_dwconv/slice_2/bn
I1010 13:01:46.427052 26060 net.cpp:124] Setting up conv8_0/3x3_dwconv/slice_2
I1010 13:01:46.427064 26060 net.cpp:131] Top shape: 25 384 7 7 (470400)
I1010 13:01:46.427068 26060 net.cpp:139] Memory required for data: 2353027400
I1010 13:01:46.427086 26060 layer_factory.hpp:77] Creating layer conv8_0/3x3_dwconv/slice_2/hardswish
I1010 13:01:46.427095 26060 net.cpp:86] Creating Layer conv8_0/3x3_dwconv/slice_2/hardswish
I1010 13:01:46.427100 26060 net.cpp:409] conv8_0/3x3_dwconv/slice_2/hardswish <- conv8_0/3x3_dwconv/slice_2/bn
I1010 13:01:46.427105 26060 net.cpp:370] conv8_0/3x3_dwconv/slice_2/hardswish -> conv8_0/3x3_dwconv/slice_2/bn (in-place)
I1010 13:01:46.427142 26060 net.cpp:124] Setting up conv8_0/3x3_dwconv/slice_2/hardswish
I1010 13:01:46.427148 26060 net.cpp:131] Top shape: 25 384 7 7 (470400)
I1010 13:01:46.427151 26060 net.cpp:139] Memory required for data: 2354909000
I1010 13:01:46.427155 26060 layer_factory.hpp:77] Creating layer conv8_0/3x3_dwconv/concat
I1010 13:01:46.427166 26060 net.cpp:86] Creating Layer conv8_0/3x3_dwconv/concat
I1010 13:01:46.427171 26060 net.cpp:409] conv8_0/3x3_dwconv/concat <- conv8_0/3x3_dwconv/slice_0/bn
I1010 13:01:46.427175 26060 net.cpp:409] conv8_0/3x3_dwconv/concat <- conv8_0/3x3_dwconv/slice_1/bn
I1010 13:01:46.427179 26060 net.cpp:409] conv8_0/3x3_dwconv/concat <- conv8_0/3x3_dwconv/slice_2/bn
I1010 13:01:46.427186 26060 net.cpp:383] conv8_0/3x3_dwconv/concat -> conv8_0/3x3_dwconv/concat
I1010 13:01:46.427218 26060 net.cpp:124] Setting up conv8_0/3x3_dwconv/concat
I1010 13:01:46.427223 26060 net.cpp:131] Top shape: 25 1152 7 7 (1411200)
I1010 13:01:46.427227 26060 net.cpp:139] Memory required for data: 2360553800
I1010 13:01:46.427229 26060 layer_factory.hpp:77] Creating layer conv8_0/3x3_dwconv/concat_fixed_point
I1010 13:01:46.427237 26060 net.cpp:86] Creating Layer conv8_0/3x3_dwconv/concat_fixed_point
I1010 13:01:46.427240 26060 net.cpp:409] conv8_0/3x3_dwconv/concat_fixed_point <- conv8_0/3x3_dwconv/concat
I1010 13:01:46.427245 26060 net.cpp:370] conv8_0/3x3_dwconv/concat_fixed_point -> conv8_0/3x3_dwconv/concat (in-place)
I1010 13:01:46.427276 26060 net.cpp:124] Setting up conv8_0/3x3_dwconv/concat_fixed_point
I1010 13:01:46.427281 26060 net.cpp:131] Top shape: 25 1152 7 7 (1411200)
I1010 13:01:46.427284 26060 net.cpp:139] Memory required for data: 2366198600
I1010 13:01:46.427289 26060 layer_factory.hpp:77] Creating layer conv8_0/3x3_dwconv/concat_conv8_0/3x3_dwconv/concat_fixed_point_0_split
I1010 13:01:46.427294 26060 net.cpp:86] Creating Layer conv8_0/3x3_dwconv/concat_conv8_0/3x3_dwconv/concat_fixed_point_0_split
I1010 13:01:46.427297 26060 net.cpp:409] conv8_0/3x3_dwconv/concat_conv8_0/3x3_dwconv/concat_fixed_point_0_split <- conv8_0/3x3_dwconv/concat
I1010 13:01:46.427304 26060 net.cpp:383] conv8_0/3x3_dwconv/concat_conv8_0/3x3_dwconv/concat_fixed_point_0_split -> conv8_0/3x3_dwconv/concat_conv8_0/3x3_dwconv/concat_fixed_point_0_split_0
I1010 13:01:46.427310 26060 net.cpp:383] conv8_0/3x3_dwconv/concat_conv8_0/3x3_dwconv/concat_fixed_point_0_split -> conv8_0/3x3_dwconv/concat_conv8_0/3x3_dwconv/concat_fixed_point_0_split_1
I1010 13:01:46.427358 26060 net.cpp:124] Setting up conv8_0/3x3_dwconv/concat_conv8_0/3x3_dwconv/concat_fixed_point_0_split
I1010 13:01:46.427366 26060 net.cpp:131] Top shape: 25 1152 7 7 (1411200)
I1010 13:01:46.427369 26060 net.cpp:131] Top shape: 25 1152 7 7 (1411200)
I1010 13:01:46.427372 26060 net.cpp:139] Memory required for data: 2377488200
I1010 13:01:46.427376 26060 layer_factory.hpp:77] Creating layer conv8_0/3x3_dwconv/SE_global_pool
I1010 13:01:46.427382 26060 net.cpp:86] Creating Layer conv8_0/3x3_dwconv/SE_global_pool
I1010 13:01:46.427386 26060 net.cpp:409] conv8_0/3x3_dwconv/SE_global_pool <- conv8_0/3x3_dwconv/concat_conv8_0/3x3_dwconv/concat_fixed_point_0_split_0
I1010 13:01:46.427392 26060 net.cpp:383] conv8_0/3x3_dwconv/SE_global_pool -> conv8_0/3x3_dwconv/SE_global_pool
I1010 13:01:46.427423 26060 net.cpp:124] Setting up conv8_0/3x3_dwconv/SE_global_pool
I1010 13:01:46.427428 26060 net.cpp:131] Top shape: 25 1152 1 1 (28800)
I1010 13:01:46.427430 26060 net.cpp:139] Memory required for data: 2377603400
I1010 13:01:46.427434 26060 layer_factory.hpp:77] Creating layer conv8_0/3x3_dwconv/SE_bn
I1010 13:01:46.427443 26060 net.cpp:86] Creating Layer conv8_0/3x3_dwconv/SE_bn
I1010 13:01:46.427456 26060 net.cpp:409] conv8_0/3x3_dwconv/SE_bn <- conv8_0/3x3_dwconv/SE_global_pool
I1010 13:01:46.427464 26060 net.cpp:383] conv8_0/3x3_dwconv/SE_bn -> conv8_0/3x3_dwconv/SE_bn
I1010 13:01:46.427515 26060 layer_factory.hpp:77] Creating layer conv8_0/3x3_dwconv/SE_bn
I1010 13:01:46.427660 26060 net.cpp:124] Setting up conv8_0/3x3_dwconv/SE_bn
I1010 13:01:46.427666 26060 net.cpp:131] Top shape: 25 1152 1 1 (28800)
I1010 13:01:46.427670 26060 net.cpp:139] Memory required for data: 2377718600
I1010 13:01:46.427675 26060 layer_factory.hpp:77] Creating layer conv8_0/3x3_dwconv/SE_fc1
I1010 13:01:46.427685 26060 net.cpp:86] Creating Layer conv8_0/3x3_dwconv/SE_fc1
I1010 13:01:46.427688 26060 net.cpp:409] conv8_0/3x3_dwconv/SE_fc1 <- conv8_0/3x3_dwconv/SE_bn
I1010 13:01:46.427695 26060 net.cpp:383] conv8_0/3x3_dwconv/SE_fc1 -> conv8_0/3x3_dwconv/SE_fc1
I1010 13:01:46.430447 26060 net.cpp:124] Setting up conv8_0/3x3_dwconv/SE_fc1
I1010 13:01:46.430459 26060 net.cpp:131] Top shape: 25 72 1 1 (1800)
I1010 13:01:46.430461 26060 net.cpp:139] Memory required for data: 2377725800
I1010 13:01:46.430466 26060 layer_factory.hpp:77] Creating layer conv8_0/3x3_dwconv/SE_fc1/relu
I1010 13:01:46.430474 26060 net.cpp:86] Creating Layer conv8_0/3x3_dwconv/SE_fc1/relu
I1010 13:01:46.430478 26060 net.cpp:409] conv8_0/3x3_dwconv/SE_fc1/relu <- conv8_0/3x3_dwconv/SE_fc1
I1010 13:01:46.430486 26060 net.cpp:370] conv8_0/3x3_dwconv/SE_fc1/relu -> conv8_0/3x3_dwconv/SE_fc1 (in-place)
I1010 13:01:46.431154 26060 net.cpp:124] Setting up conv8_0/3x3_dwconv/SE_fc1/relu
I1010 13:01:46.431170 26060 net.cpp:131] Top shape: 25 72 1 1 (1800)
I1010 13:01:46.431174 26060 net.cpp:139] Memory required for data: 2377733000
I1010 13:01:46.431179 26060 layer_factory.hpp:77] Creating layer conv8_0/3x3_dwconv/SE_fc2
I1010 13:01:46.431188 26060 net.cpp:86] Creating Layer conv8_0/3x3_dwconv/SE_fc2
I1010 13:01:46.431193 26060 net.cpp:409] conv8_0/3x3_dwconv/SE_fc2 <- conv8_0/3x3_dwconv/SE_fc1
I1010 13:01:46.431200 26060 net.cpp:383] conv8_0/3x3_dwconv/SE_fc2 -> conv8_0/3x3_dwconv/SE_fc2
I1010 13:01:46.434039 26060 net.cpp:124] Setting up conv8_0/3x3_dwconv/SE_fc2
I1010 13:01:46.434051 26060 net.cpp:131] Top shape: 25 1152 1 1 (28800)
I1010 13:01:46.434053 26060 net.cpp:139] Memory required for data: 2377848200
I1010 13:01:46.434059 26060 layer_factory.hpp:77] Creating layer conv8_0/3x3_dwconv/SE_weights
I1010 13:01:46.434065 26060 net.cpp:86] Creating Layer conv8_0/3x3_dwconv/SE_weights
I1010 13:01:46.434069 26060 net.cpp:409] conv8_0/3x3_dwconv/SE_weights <- conv8_0/3x3_dwconv/SE_fc2
I1010 13:01:46.434074 26060 net.cpp:370] conv8_0/3x3_dwconv/SE_weights -> conv8_0/3x3_dwconv/SE_fc2 (in-place)
I1010 13:01:46.434672 26060 net.cpp:124] Setting up conv8_0/3x3_dwconv/SE_weights
I1010 13:01:46.434682 26060 net.cpp:131] Top shape: 25 1152 1 1 (28800)
I1010 13:01:46.434685 26060 net.cpp:139] Memory required for data: 2377963400
I1010 13:01:46.434689 26060 layer_factory.hpp:77] Creating layer conv8_0/3x3_dwconv/SE_weights/reshape
I1010 13:01:46.434698 26060 net.cpp:86] Creating Layer conv8_0/3x3_dwconv/SE_weights/reshape
I1010 13:01:46.434703 26060 net.cpp:409] conv8_0/3x3_dwconv/SE_weights/reshape <- conv8_0/3x3_dwconv/SE_fc2
I1010 13:01:46.434708 26060 net.cpp:383] conv8_0/3x3_dwconv/SE_weights/reshape -> conv8_0/3x3_dwconv/SE_weights/reshape
I1010 13:01:46.434749 26060 net.cpp:124] Setting up conv8_0/3x3_dwconv/SE_weights/reshape
I1010 13:01:46.434754 26060 net.cpp:131] Top shape: 25 1152 (28800)
I1010 13:01:46.434757 26060 net.cpp:139] Memory required for data: 2378078600
I1010 13:01:46.434762 26060 layer_factory.hpp:77] Creating layer conv8_0/3x3_dwconv/scale
I1010 13:01:46.434767 26060 net.cpp:86] Creating Layer conv8_0/3x3_dwconv/scale
I1010 13:01:46.434772 26060 net.cpp:409] conv8_0/3x3_dwconv/scale <- conv8_0/3x3_dwconv/concat_conv8_0/3x3_dwconv/concat_fixed_point_0_split_1
I1010 13:01:46.434779 26060 net.cpp:409] conv8_0/3x3_dwconv/scale <- conv8_0/3x3_dwconv/SE_weights/reshape
I1010 13:01:46.434784 26060 net.cpp:383] conv8_0/3x3_dwconv/scale -> conv8_0/3x3_dwconv/scale
I1010 13:01:46.434888 26060 net.cpp:124] Setting up conv8_0/3x3_dwconv/scale
I1010 13:01:46.434895 26060 net.cpp:131] Top shape: 25 1152 7 7 (1411200)
I1010 13:01:46.434898 26060 net.cpp:139] Memory required for data: 2383723400
I1010 13:01:46.434902 26060 layer_factory.hpp:77] Creating layer conv8_0/3x3_dwconv/scale_fixed_point
I1010 13:01:46.434909 26060 net.cpp:86] Creating Layer conv8_0/3x3_dwconv/scale_fixed_point
I1010 13:01:46.434913 26060 net.cpp:409] conv8_0/3x3_dwconv/scale_fixed_point <- conv8_0/3x3_dwconv/scale
I1010 13:01:46.434919 26060 net.cpp:370] conv8_0/3x3_dwconv/scale_fixed_point -> conv8_0/3x3_dwconv/scale (in-place)
I1010 13:01:46.434950 26060 net.cpp:124] Setting up conv8_0/3x3_dwconv/scale_fixed_point
I1010 13:01:46.434955 26060 net.cpp:131] Top shape: 25 1152 7 7 (1411200)
I1010 13:01:46.434957 26060 net.cpp:139] Memory required for data: 2389368200
I1010 13:01:46.434962 26060 layer_factory.hpp:77] Creating layer conv8_0/1x1_decrease
I1010 13:01:46.434973 26060 net.cpp:86] Creating Layer conv8_0/1x1_decrease
I1010 13:01:46.434976 26060 net.cpp:409] conv8_0/1x1_decrease <- conv8_0/3x3_dwconv/scale
I1010 13:01:46.434983 26060 net.cpp:383] conv8_0/1x1_decrease -> conv8_0/1x1_decrease/bn
I1010 13:01:46.447625 26060 net.cpp:124] Setting up conv8_0/1x1_decrease
I1010 13:01:46.447645 26060 net.cpp:131] Top shape: 25 320 7 7 (392000)
I1010 13:01:46.447649 26060 net.cpp:139] Memory required for data: 2390936200
I1010 13:01:46.447659 26060 layer_factory.hpp:77] Creating layer conv8_0/1x1_decrease/bn_fixed_point
I1010 13:01:46.447666 26060 net.cpp:86] Creating Layer conv8_0/1x1_decrease/bn_fixed_point
I1010 13:01:46.447671 26060 net.cpp:409] conv8_0/1x1_decrease/bn_fixed_point <- conv8_0/1x1_decrease/bn
I1010 13:01:46.447685 26060 net.cpp:370] conv8_0/1x1_decrease/bn_fixed_point -> conv8_0/1x1_decrease/bn (in-place)
I1010 13:01:46.447727 26060 net.cpp:124] Setting up conv8_0/1x1_decrease/bn_fixed_point
I1010 13:01:46.447737 26060 net.cpp:131] Top shape: 25 320 7 7 (392000)
I1010 13:01:46.447741 26060 net.cpp:139] Memory required for data: 2392504200
I1010 13:01:46.447746 26060 layer_factory.hpp:77] Creating layer conv9/1x1
I1010 13:01:46.447754 26060 net.cpp:86] Creating Layer conv9/1x1
I1010 13:01:46.447758 26060 net.cpp:409] conv9/1x1 <- conv8_0/1x1_decrease/bn
I1010 13:01:46.447765 26060 net.cpp:383] conv9/1x1 -> conv9/1x1/bn
I1010 13:01:46.461458 26060 net.cpp:124] Setting up conv9/1x1
I1010 13:01:46.461478 26060 net.cpp:131] Top shape: 25 1280 7 7 (1568000)
I1010 13:01:46.461483 26060 net.cpp:139] Memory required for data: 2398776200
I1010 13:01:46.461490 26060 layer_factory.hpp:77] Creating layer conv9/1x1/relu
I1010 13:01:46.461500 26060 net.cpp:86] Creating Layer conv9/1x1/relu
I1010 13:01:46.461509 26060 net.cpp:409] conv9/1x1/relu <- conv9/1x1/bn
I1010 13:01:46.461515 26060 net.cpp:370] conv9/1x1/relu -> conv9/1x1/bn (in-place)
I1010 13:01:46.463065 26060 net.cpp:124] Setting up conv9/1x1/relu
I1010 13:01:46.463079 26060 net.cpp:131] Top shape: 25 1280 7 7 (1568000)
I1010 13:01:46.463083 26060 net.cpp:139] Memory required for data: 2405048200
I1010 13:01:46.463088 26060 layer_factory.hpp:77] Creating layer conv9/1x1/bn_fixed_point
I1010 13:01:46.463099 26060 net.cpp:86] Creating Layer conv9/1x1/bn_fixed_point
I1010 13:01:46.463104 26060 net.cpp:409] conv9/1x1/bn_fixed_point <- conv9/1x1/bn
I1010 13:01:46.463109 26060 net.cpp:370] conv9/1x1/bn_fixed_point -> conv9/1x1/bn (in-place)
I1010 13:01:46.463152 26060 net.cpp:124] Setting up conv9/1x1/bn_fixed_point
I1010 13:01:46.463163 26060 net.cpp:131] Top shape: 25 1280 7 7 (1568000)
I1010 13:01:46.463167 26060 net.cpp:139] Memory required for data: 2411320200
I1010 13:01:46.463172 26060 layer_factory.hpp:77] Creating layer avepool/7x7
I1010 13:01:46.463181 26060 net.cpp:86] Creating Layer avepool/7x7
I1010 13:01:46.463186 26060 net.cpp:409] avepool/7x7 <- conv9/1x1/bn
I1010 13:01:46.463197 26060 net.cpp:383] avepool/7x7 -> avepool/7x7
I1010 13:01:46.463838 26060 net.cpp:124] Setting up avepool/7x7
I1010 13:01:46.463871 26060 net.cpp:131] Top shape: 25 1280 1 1 (32000)
I1010 13:01:46.463876 26060 net.cpp:139] Memory required for data: 2411448200
I1010 13:01:46.463881 26060 layer_factory.hpp:77] Creating layer avepool/7x7_fixed_point
I1010 13:01:46.463891 26060 net.cpp:86] Creating Layer avepool/7x7_fixed_point
I1010 13:01:46.463898 26060 net.cpp:409] avepool/7x7_fixed_point <- avepool/7x7
I1010 13:01:46.463908 26060 net.cpp:370] avepool/7x7_fixed_point -> avepool/7x7 (in-place)
I1010 13:01:46.463953 26060 net.cpp:124] Setting up avepool/7x7_fixed_point
I1010 13:01:46.463963 26060 net.cpp:131] Top shape: 25 1280 1 1 (32000)
I1010 13:01:46.463968 26060 net.cpp:139] Memory required for data: 2411576200
I1010 13:01:46.463975 26060 layer_factory.hpp:77] Creating layer classifier
I1010 13:01:46.463994 26060 net.cpp:86] Creating Layer classifier
I1010 13:01:46.464000 26060 net.cpp:409] classifier <- avepool/7x7
I1010 13:01:46.464010 26060 net.cpp:383] classifier -> classifier
I1010 13:01:46.503366 26060 net.cpp:124] Setting up classifier
I1010 13:01:46.503388 26060 net.cpp:131] Top shape: 25 1000 1 1 (25000)
I1010 13:01:46.503392 26060 net.cpp:139] Memory required for data: 2411676200
I1010 13:01:46.503401 26060 layer_factory.hpp:77] Creating layer classifier_classifier_0_split
I1010 13:01:46.503410 26060 net.cpp:86] Creating Layer classifier_classifier_0_split
I1010 13:01:46.503415 26060 net.cpp:409] classifier_classifier_0_split <- classifier
I1010 13:01:46.503422 26060 net.cpp:383] classifier_classifier_0_split -> classifier_classifier_0_split_0
I1010 13:01:46.503433 26060 net.cpp:383] classifier_classifier_0_split -> classifier_classifier_0_split_1
I1010 13:01:46.503439 26060 net.cpp:383] classifier_classifier_0_split -> classifier_classifier_0_split_2
I1010 13:01:46.503520 26060 net.cpp:124] Setting up classifier_classifier_0_split
I1010 13:01:46.503525 26060 net.cpp:131] Top shape: 25 1000 1 1 (25000)
I1010 13:01:46.503530 26060 net.cpp:131] Top shape: 25 1000 1 1 (25000)
I1010 13:01:46.503533 26060 net.cpp:131] Top shape: 25 1000 1 1 (25000)
I1010 13:01:46.503536 26060 net.cpp:139] Memory required for data: 2411976200
I1010 13:01:46.503540 26060 layer_factory.hpp:77] Creating layer loss
I1010 13:01:46.503551 26060 net.cpp:86] Creating Layer loss
I1010 13:01:46.503556 26060 net.cpp:409] loss <- classifier_classifier_0_split_0
I1010 13:01:46.503562 26060 net.cpp:409] loss <- label_data_1_split_0
I1010 13:01:46.503567 26060 net.cpp:383] loss -> loss
…
