…
I0906 17:57:45.543434 36245 caffe.cpp:270] GPU device name: Graphics Device
I0906 17:57:47.026815 36245 net.cpp:53] Initializing net from parameters: 
state {
  phase: TEST
  level: 0
  stage: ""
}
layer {
  name: "data"
  type: "ImageData"
  top: "data"
  top: "label"
  include {
    phase: TEST
  }
  transform_param {
    crop_size: 224
    mean_value: 104
    mean_value: 117
    mean_value: 123
  }
  image_data_param {
    source: "file_lists/val.txt"
    batch_size: 50
    root_folder: "/share5/public/classification_data/imagenet1k/val/"
    short_edge: 256
  }
}
layer {
  name: "data_fixed_point"
  type: "Quantize"
  bottom: "data"
  top: "data"
  param {
    lr_mult: 0
    decay_mult: 0
  }
  quantize_param {
    precision: 8
    frozen: true
    positive: false
    tolerance: 1.3
  }
}
layer {
  name: "conv1/3x3_s2"
  type: "Convolution"
  bottom: "data"
  top: "conv1/3x3_s2/bn"
  param {
    lr_mult: 1
    decay_mult: 1
  }
  param {
    lr_mult: 2
    decay_mult: 0
  }
  convolution_param {
    num_output: 32
    bias_term: true
    pad: 1
    kernel_size: 3
    stride: 2
    weight_filler {
      type: "msra"
    }
    bias_filler {
      type: "constant"
      value: 0
    }
    engine: CAFFE
    fp16_accumulation: true
  }
  quantize_param {
    precision: 8
    channel_shared: false
  }
}
layer {
  name: "conv1/3x3_s2/relu"
  type: "ReLU"
  bottom: "conv1/3x3_s2/bn"
  top: "conv1/3x3_s2/bn"
}
layer {
  name: "conv1/3x3_s2/bn_fixed_point"
  type: "Quantize"
  bottom: "conv1/3x3_s2/bn"
  top: "conv1/3x3_s2/bn"
  param {
    lr_mult: 0
    decay_mult: 0
  }
  quantize_param {
    precision: 8
    frozen: true
    positive: true
    tolerance: 1.3
  }
}
layer {
  name: "conv2_0/3x3_dwconv"
  type: "Convolution"
  bottom: "conv1/3x3_s2/bn"
  top: "conv2_0/3x3_dwconv/bn"
  param {
    lr_mult: 1
    decay_mult: 1
  }
  param {
    lr_mult: 2
    decay_mult: 0
  }
  convolution_param {
    num_output: 32
    bias_term: true
    pad: 1
    kernel_size: 3
    group: 32
    stride: 1
    weight_filler {
      type: "msra"
    }
    bias_filler {
      type: "constant"
      value: 0
    }
    engine: CAFFE
    fp16_accumulation: true
  }
  quantize_param {
    precision: 8
    channel_shared: false
  }
}
layer {
  name: "conv2_0/3x3_dwconv/relu"
  type: "ReLU"
  bottom: "conv2_0/3x3_dwconv/bn"
  top: "conv2_0/3x3_dwconv/bn"
}
layer {
  name: "conv2_0/3x3_dwconv/bn_fixed_point"
  type: "Quantize"
  bottom: "conv2_0/3x3_dwconv/bn"
  top: "conv2_0/3x3_dwconv/bn"
  param {
    lr_mult: 0
    decay_mult: 0
  }
  quantize_param {
    precision: 8
    frozen: true
    positive: true
    tolerance: 1.3
  }
}
layer {
  name: "conv2_0/1x1_decrease"
  type: "Convolution"
  bottom: "conv2_0/3x3_dwconv/bn"
  top: "conv2_0/1x1_decrease/bn"
  param {
    lr_mult: 1
    decay_mult: 1
  }
  param {
    lr_mult: 2
    decay_mult: 0
  }
  convolution_param {
    num_output: 16
    bias_term: true
    kernel_size: 1
    stride: 1
    weight_filler {
      type: "msra"
    }
    bias_filler {
      type: "constant"
      value: 0
    }
    engine: CAFFE
    fp16_accumulation: true
  }
  quantize_param {
    precision: 8
    channel_shared: false
  }
}
layer {
  name: "conv2_0/1x1_decrease/bn_fixed_point"
  type: "Quantize"
  bottom: "conv2_0/1x1_decrease/bn"
  top: "conv2_0/1x1_decrease/bn"
  param {
    lr_mult: 0
    decay_mult: 0
  }
  quantize_param {
    precision: 8
    frozen: true
    positive: false
    tolerance: 1.3
  }
}
layer {
  name: "conv3_0/1x1_increase"
  type: "Convolution"
  bottom: "conv2_0/1x1_decrease/bn"
  top: "conv3_0/1x1_increase/bn"
  param {
    lr_mult: 1
    decay_mult: 1
  }
  param {
    lr_mult: 2
    decay_mult: 0
  }
  convolution_param {
    num_output: 48
    bias_term: true
    kernel_size: 1
    stride: 1
    weight_filler {
      type: "msra"
    }
    bias_filler {
      type: "constant"
      value: 0
    }
    engine: CAFFE
    fp16_accumulation: true
  }
  quantize_param {
    precision: 8
    channel_shared: false
  }
}
layer {
  name: "conv3_0/1x1_increase/relu"
  type: "ReLU"
  bottom: "conv3_0/1x1_increase/bn"
  top: "conv3_0/1x1_increase/bn"
}
layer {
  name: "conv3_0/1x1_increase/bn_fixed_point"
  type: "Quantize"
  bottom: "conv3_0/1x1_increase/bn"
  top: "conv3_0/1x1_increase/bn"
  param {
    lr_mult: 0
    decay_mult: 0
  }
  quantize_param {
    precision: 8
    frozen: true
    positive: true
    tolerance: 1.3
  }
}
layer {
  name: "conv3_0/3x3_dwconv"
  type: "Convolution"
  bottom: "conv3_0/1x1_increase/bn"
  top: "conv3_0/3x3_dwconv/bn"
  param {
    lr_mult: 1
    decay_mult: 1
  }
  param {
    lr_mult: 2
    decay_mult: 0
  }
  convolution_param {
    num_output: 48
    bias_term: true
    pad: 2
    kernel_size: 5
    group: 48
    stride: 2
    weight_filler {
      type: "msra"
    }
    bias_filler {
      type: "constant"
      value: 0
    }
    engine: CAFFE
    fp16_accumulation: true
  }
  quantize_param {
    precision: 8
    channel_shared: false
  }
}
layer {
  name: "conv3_0/3x3_dwconv/relu"
  type: "ReLU"
  bottom: "conv3_0/3x3_dwconv/bn"
  top: "conv3_0/3x3_dwconv/bn"
}
layer {
  name: "conv3_0/3x3_dwconv/bn_fixed_point"
  type: "Quantize"
  bottom: "conv3_0/3x3_dwconv/bn"
  top: "conv3_0/3x3_dwconv/bn"
  param {
    lr_mult: 0
    decay_mult: 0
  }
  quantize_param {
    precision: 8
    frozen: true
    positive: true
    tolerance: 1.3
  }
}
layer {
  name: "conv3_0/1x1_decrease"
  type: "Convolution"
  bottom: "conv3_0/3x3_dwconv/bn"
  top: "conv3_0/1x1_decrease/bn"
  param {
    lr_mult: 1
    decay_mult: 1
  }
  param {
    lr_mult: 2
    decay_mult: 0
  }
  convolution_param {
    num_output: 32
    bias_term: true
    kernel_size: 1
    stride: 1
    weight_filler {
      type: "msra"
    }
    bias_filler {
      type: "constant"
      value: 0
    }
    engine: CAFFE
    fp16_accumulation: true
  }
  quantize_param {
    precision: 8
    channel_shared: false
  }
}
layer {
  name: "conv3_0/1x1_decrease/bn_fixed_point"
  type: "Quantize"
  bottom: "conv3_0/1x1_decrease/bn"
  top: "conv3_0/1x1_decrease/bn"
  param {
    lr_mult: 0
    decay_mult: 0
  }
  quantize_param {
    precision: 8
    frozen: true
    positive: false
    tolerance: 1.3
  }
}
layer {
  name: "conv3_1/1x1_increase"
  type: "Convolution"
  bottom: "conv3_0/1x1_decrease/bn"
  top: "conv3_1/1x1_increase/bn"
  param {
    lr_mult: 1
    decay_mult: 1
  }
  param {
    lr_mult: 2
    decay_mult: 0
  }
  convolution_param {
    num_output: 96
    bias_term: true
    kernel_size: 1
    stride: 1
    weight_filler {
      type: "msra"
    }
    bias_filler {
      type: "constant"
      value: 0
    }
    engine: CAFFE
    fp16_accumulation: true
  }
  quantize_param {
    precision: 8
    channel_shared: false
  }
}
layer {
  name: "conv3_1/1x1_increase/relu"
  type: "ReLU"
  bottom: "conv3_1/1x1_increase/bn"
  top: "conv3_1/1x1_increase/bn"
}
layer {
  name: "conv3_1/1x1_increase/bn_fixed_point"
  type: "Quantize"
  bottom: "conv3_1/1x1_increase/bn"
  top: "conv3_1/1x1_increase/bn"
  param {
    lr_mult: 0
    decay_mult: 0
  }
  quantize_param {
    precision: 8
    frozen: true
    positive: true
    tolerance: 1.3
  }
}
layer {
  name: "conv3_1/3x3_dwconv"
  type: "Convolution"
  bottom: "conv3_1/1x1_increase/bn"
  top: "conv3_1/3x3_dwconv/bn"
  param {
    lr_mult: 1
    decay_mult: 1
  }
  param {
    lr_mult: 2
    decay_mult: 0
  }
  convolution_param {
    num_output: 96
    bias_term: true
    pad: 1
    kernel_size: 3
    group: 96
    stride: 1
    weight_filler {
      type: "msra"
    }
    bias_filler {
      type: "constant"
      value: 0
    }
    engine: CAFFE
    fp16_accumulation: true
  }
  quantize_param {
    precision: 8
    channel_shared: false
  }
}
layer {
  name: "conv3_1/3x3_dwconv/relu"
  type: "ReLU"
  bottom: "conv3_1/3x3_dwconv/bn"
  top: "conv3_1/3x3_dwconv/bn"
}
layer {
  name: "conv3_1/3x3_dwconv/bn_fixed_point"
  type: "Quantize"
  bottom: "conv3_1/3x3_dwconv/bn"
  top: "conv3_1/3x3_dwconv/bn"
  param {
    lr_mult: 0
    decay_mult: 0
  }
  quantize_param {
    precision: 8
    frozen: true
    positive: true
    tolerance: 1.3
  }
}
layer {
  name: "conv3_1/1x1_decrease"
  type: "Convolution"
  bottom: "conv3_1/3x3_dwconv/bn"
  top: "conv3_1/1x1_decrease/bn"
  param {
    lr_mult: 1
    decay_mult: 1
  }
  param {
    lr_mult: 2
    decay_mult: 0
  }
  convolution_param {
    num_output: 32
    bias_term: true
    kernel_size: 1
    stride: 1
    weight_filler {
      type: "msra"
    }
    bias_filler {
      type: "constant"
      value: 0
    }
    engine: CAFFE
    fp16_accumulation: true
  }
  quantize_param {
    precision: 8
    channel_shared: false
  }
}
layer {
  name: "conv3_1/elt_sum"
  type: "Eltwise"
  bottom: "conv3_0/1x1_decrease/bn"
  bottom: "conv3_1/1x1_decrease/bn"
  top: "conv3_1/elt_sum"
  eltwise_param {
    operation: SUM
  }
}
layer {
  name: "conv3_1/elt_sum_fixed_point"
  type: "Quantize"
  bottom: "conv3_1/elt_sum"
  top: "conv3_1/elt_sum"
  param {
    lr_mult: 0
    decay_mult: 0
  }
  quantize_param {
    precision: 8
    frozen: true
    positive: false
    tolerance: 1.3
  }
}
layer {
  name: "conv4_0/1x1_increase"
  type: "Convolution"
  bottom: "conv3_1/elt_sum"
  top: "conv4_0/1x1_increase/bn"
  param {
    lr_mult: 1
    decay_mult: 1
  }
  param {
    lr_mult: 2
    decay_mult: 0
  }
  convolution_param {
    num_output: 96
    bias_term: true
    kernel_size: 1
    stride: 1
    weight_filler {
      type: "msra"
    }
    bias_filler {
      type: "constant"
      value: 0
    }
    engine: CAFFE
    fp16_accumulation: true
  }
  quantize_param {
    precision: 8
    channel_shared: false
  }
}
layer {
  name: "conv4_0/1x1_increase/relu"
  type: "ReLU"
  bottom: "conv4_0/1x1_increase/bn"
  top: "conv4_0/1x1_increase/bn"
}
layer {
  name: "conv4_0/1x1_increase/bn_fixed_point"
  type: "Quantize"
  bottom: "conv4_0/1x1_increase/bn"
  top: "conv4_0/1x1_increase/bn"
  param {
    lr_mult: 0
    decay_mult: 0
  }
  quantize_param {
    precision: 8
    frozen: true
    positive: true
    tolerance: 1.3
  }
}
layer {
  name: "conv4_0/1x1_increase/slice"
  type: "Slice"
  bottom: "conv4_0/1x1_increase/bn"
  top: "conv4_0/1x1_increase/split1"
  top: "conv4_0/1x1_increase/split2"
  top: "conv4_0/1x1_increase/split3"
  slice_param {
    slice_point: 32
    slice_point: 64
  }
}
layer {
  name: "conv4_0/3x3_dwconv/slice_0"
  type: "Convolution"
  bottom: "conv4_0/1x1_increase/split1"
  top: "conv4_0/3x3_dwconv/slice_0/bn"
  param {
    lr_mult: 1
    decay_mult: 1
  }
  param {
    lr_mult: 2
    decay_mult: 0
  }
  convolution_param {
    num_output: 32
    bias_term: true
    pad: 1
    kernel_size: 3
    group: 32
    stride: 2
    weight_filler {
      type: "msra"
    }
    bias_filler {
      type: "constant"
      value: 0
    }
    engine: CAFFE
    fp16_accumulation: true
  }
  quantize_param {
    precision: 8
    channel_shared: false
  }
}
layer {
  name: "conv4_0/3x3_dwconv/slice_0/relu"
  type: "ReLU"
  bottom: "conv4_0/3x3_dwconv/slice_0/bn"
  top: "conv4_0/3x3_dwconv/slice_0/bn"
}
layer {
  name: "conv4_0/3x3_dwconv/slice_1"
  type: "Convolution"
  bottom: "conv4_0/1x1_increase/split2"
  top: "conv4_0/3x3_dwconv/slice_1/bn"
  param {
    lr_mult: 1
    decay_mult: 1
  }
  param {
    lr_mult: 2
    decay_mult: 0
  }
  convolution_param {
    num_output: 32
    bias_term: true
    pad: 2
    kernel_size: 5
    group: 32
    stride: 2
    weight_filler {
      type: "msra"
    }
    bias_filler {
      type: "constant"
      value: 0
    }
    engine: CAFFE
    fp16_accumulation: true
  }
  quantize_param {
    precision: 8
    channel_shared: false
  }
}
layer {
  name: "conv4_0/3x3_dwconv/slice_1/relu"
  type: "ReLU"
  bottom: "conv4_0/3x3_dwconv/slice_1/bn"
  top: "conv4_0/3x3_dwconv/slice_1/bn"
}
layer {
  name: "conv4_0/3x3_dwconv/slice_2"
  type: "Convolution"
  bottom: "conv4_0/1x1_increase/split3"
  top: "conv4_0/3x3_dwconv/slice_2/bn"
  param {
    lr_mult: 1
    decay_mult: 1
  }
  param {
    lr_mult: 2
    decay_mult: 0
  }
  convolution_param {
    num_output: 32
    bias_term: true
    pad: 3
    kernel_size: 7
    group: 32
    stride: 2
    weight_filler {
      type: "msra"
    }
    bias_filler {
      type: "constant"
      value: 0
    }
    engine: CAFFE
    fp16_accumulation: true
  }
  quantize_param {
    precision: 8
    channel_shared: false
  }
}
layer {
  name: "conv4_0/3x3_dwconv/slice_2/relu"
  type: "ReLU"
  bottom: "conv4_0/3x3_dwconv/slice_2/bn"
  top: "conv4_0/3x3_dwconv/slice_2/bn"
}
layer {
  name: "conv4_0/3x3_dwconv/concat"
  type: "Concat"
  bottom: "conv4_0/3x3_dwconv/slice_0/bn"
  bottom: "conv4_0/3x3_dwconv/slice_1/bn"
  bottom: "conv4_0/3x3_dwconv/slice_2/bn"
  top: "conv4_0/3x3_dwconv/concat"
}
layer {
  name: "conv4_0/3x3_dwconv/concat_fixed_point"
  type: "Quantize"
  bottom: "conv4_0/3x3_dwconv/concat"
  top: "conv4_0/3x3_dwconv/concat"
  param {
    lr_mult: 0
    decay_mult: 0
  }
  quantize_param {
    precision: 8
    frozen: true
    positive: true
    tolerance: 1.3
  }
}
layer {
  name: "conv4_0/3x3_dwconv/SE_global_pool"
  type: "Pooling"
  bottom: "conv4_0/3x3_dwconv/concat"
  top: "conv4_0/3x3_dwconv/SE_global_pool"
  pooling_param {
    pool: AVE
    engine: CAFFE
    global_pooling: true
  }
}
layer {
  name: "conv4_0/3x3_dwconv/SE_fc1"
  type: "Convolution"
  bottom: "conv4_0/3x3_dwconv/SE_global_pool"
  top: "conv4_0/3x3_dwconv/SE_fc1"
  param {
    lr_mult: 1
    decay_mult: 1
  }
  convolution_param {
    num_output: 6
    bias_term: false
    kernel_size: 1
    stride: 1
    weight_filler {
      type: "gaussian"
      std: 0.01
    }
    engine: CAFFE
    fp16_accumulation: true
  }
  quantize_param {
    precision: 8
    channel_shared: false
  }
}
layer {
  name: "conv4_0/3x3_dwconv/SE_fc1/relu"
  type: "ReLU"
  bottom: "conv4_0/3x3_dwconv/SE_fc1"
  top: "conv4_0/3x3_dwconv/SE_fc1"
}
layer {
  name: "conv4_0/3x3_dwconv/SE_fc2"
  type: "Convolution"
  bottom: "conv4_0/3x3_dwconv/SE_fc1"
  top: "conv4_0/3x3_dwconv/SE_fc2"
  param {
    lr_mult: 1
    decay_mult: 1
  }
  convolution_param {
    num_output: 96
    bias_term: false
    kernel_size: 1
    stride: 1
    weight_filler {
      type: "gaussian"
      std: 0.01
    }
    engine: CAFFE
    fp16_accumulation: true
  }
  quantize_param {
    precision: 8
    channel_shared: false
  }
}
layer {
  name: "conv4_0/3x3_dwconv/SE_weights"
  type: "Sigmoid"
  bottom: "conv4_0/3x3_dwconv/SE_fc2"
  top: "conv4_0/3x3_dwconv/SE_fc2"
}
layer {
  name: "conv4_0/3x3_dwconv/SE_weights/reshape"
  type: "Reshape"
  bottom: "conv4_0/3x3_dwconv/SE_fc2"
  top: "conv4_0/3x3_dwconv/SE_weights/reshape"
  reshape_param {
    shape {
      dim: 0
      dim: 0
    }
  }
}
layer {
  name: "conv4_0/3x3_dwconv/scale"
  type: "Scale"
  bottom: "conv4_0/3x3_dwconv/concat"
  bottom: "conv4_0/3x3_dwconv/SE_weights/reshape"
  top: "conv4_0/3x3_dwconv/scale"
  scale_param {
    axis: 0
    bias_term: false
  }
}
layer {
  name: "conv4_0/3x3_dwconv/scale_fixed_point"
  type: "Quantize"
  bottom: "conv4_0/3x3_dwconv/scale"
  top: "conv4_0/3x3_dwconv/scale"
  param {
    lr_mult: 0
    decay_mult: 0
  }
  quantize_param {
    precision: 8
    frozen: true
    positive: false
    tolerance: 1.3
  }
}
layer {
  name: "conv4_0/1x1_decrease"
  type: "Convolution"
  bottom: "conv4_0/3x3_dwconv/scale"
  top: "conv4_0/1x1_decrease/bn"
  param {
    lr_mult: 1
    decay_mult: 1
  }
  param {
    lr_mult: 2
    decay_mult: 0
  }
  convolution_param {
    num_output: 40
    bias_term: true
    kernel_size: 1
    stride: 1
    weight_filler {
      type: "msra"
    }
    bias_filler {
      type: "constant"
      value: 0
    }
    engine: CAFFE
    fp16_accumulation: true
  }
  quantize_param {
    precision: 8
    channel_shared: false
  }
}
layer {
  name: "conv4_0/1x1_decrease/bn_fixed_point"
  type: "Quantize"
  bottom: "conv4_0/1x1_decrease/bn"
  top: "conv4_0/1x1_decrease/bn"
  param {
    lr_mult: 0
    decay_mult: 0
  }
  quantize_param {
    precision: 8
    frozen: true
    positive: false
    tolerance: 1.3
  }
}
layer {
  name: "conv4_1/1x1_increase"
  type: "Convolution"
  bottom: "conv4_0/1x1_decrease/bn"
  top: "conv4_1/1x1_increase/bn"
  param {
    lr_mult: 1
    decay_mult: 1
  }
  param {
    lr_mult: 2
    decay_mult: 0
  }
  convolution_param {
    num_output: 120
    bias_term: true
    kernel_size: 1
    stride: 1
    weight_filler {
      type: "msra"
    }
    bias_filler {
      type: "constant"
      value: 0
    }
    engine: CAFFE
    fp16_accumulation: true
  }
  quantize_param {
    precision: 8
    channel_shared: false
  }
}
layer {
  name: "conv4_1/1x1_increase/relu"
  type: "ReLU"
  bottom: "conv4_1/1x1_increase/bn"
  top: "conv4_1/1x1_increase/bn"
}
layer {
  name: "conv4_1/1x1_increase/bn_fixed_point"
  type: "Quantize"
  bottom: "conv4_1/1x1_increase/bn"
  top: "conv4_1/1x1_increase/bn"
  param {
    lr_mult: 0
    decay_mult: 0
  }
  quantize_param {
    precision: 8
    frozen: true
    positive: true
    tolerance: 1.3
  }
}
layer {
  name: "conv4_1/1x1_increase/slice"
  type: "Slice"
  bottom: "conv4_1/1x1_increase/bn"
  top: "conv4_1/1x1_increase/split1"
  top: "conv4_1/1x1_increase/split2"
  slice_param {
    slice_point: 60
  }
}
layer {
  name: "conv4_1/3x3_dwconv/slice_0"
  type: "Convolution"
  bottom: "conv4_1/1x1_increase/split1"
  top: "conv4_1/3x3_dwconv/slice_0/bn"
  param {
    lr_mult: 1
    decay_mult: 1
  }
  param {
    lr_mult: 2
    decay_mult: 0
  }
  convolution_param {
    num_output: 60
    bias_term: true
    pad: 1
    kernel_size: 3
    group: 60
    stride: 1
    weight_filler {
      type: "msra"
    }
    bias_filler {
      type: "constant"
      value: 0
    }
    engine: CAFFE
    fp16_accumulation: true
  }
  quantize_param {
    precision: 8
    channel_shared: false
  }
}
layer {
  name: "conv4_1/3x3_dwconv/slice_0/relu"
  type: "ReLU"
  bottom: "conv4_1/3x3_dwconv/slice_0/bn"
  top: "conv4_1/3x3_dwconv/slice_0/bn"
}
layer {
  name: "conv4_1/3x3_dwconv/slice_1"
  type: "Convolution"
  bottom: "conv4_1/1x1_increase/split2"
  top: "conv4_1/3x3_dwconv/slice_1/bn"
  param {
    lr_mult: 1
    decay_mult: 1
  }
  param {
    lr_mult: 2
    decay_mult: 0
  }
  convolution_param {
    num_output: 60
    bias_term: true
    pad: 2
    kernel_size: 5
    group: 60
    stride: 1
    weight_filler {
      type: "msra"
    }
    bias_filler {
      type: "constant"
      value: 0
    }
    engine: CAFFE
    fp16_accumulation: true
  }
  quantize_param {
    precision: 8
    channel_shared: false
  }
}
layer {
  name: "conv4_1/3x3_dwconv/slice_1/relu"
  type: "ReLU"
  bottom: "conv4_1/3x3_dwconv/slice_1/bn"
  top: "conv4_1/3x3_dwconv/slice_1/bn"
}
layer {
  name: "conv4_1/3x3_dwconv/concat"
  type: "Concat"
  bottom: "conv4_1/3x3_dwconv/slice_0/bn"
  bottom: "conv4_1/3x3_dwconv/slice_1/bn"
  top: "conv4_1/3x3_dwconv/concat"
}
layer {
  name: "conv4_1/3x3_dwconv/concat_fixed_point"
  type: "Quantize"
  bottom: "conv4_1/3x3_dwconv/concat"
  top: "conv4_1/3x3_dwconv/concat"
  param {
    lr_mult: 0
    decay_mult: 0
  }
  quantize_param {
    precision: 8
    frozen: true
    positive: true
    tolerance: 1.3
  }
}
layer {
  name: "conv4_1/3x3_dwconv/SE_global_pool"
  type: "Pooling"
  bottom: "conv4_1/3x3_dwconv/concat"
  top: "conv4_1/3x3_dwconv/SE_global_pool"
  pooling_param {
    pool: AVE
    engine: CAFFE
    global_pooling: true
  }
}
layer {
  name: "conv4_1/3x3_dwconv/SE_fc1"
  type: "Convolution"
  bottom: "conv4_1/3x3_dwconv/SE_global_pool"
  top: "conv4_1/3x3_dwconv/SE_fc1"
  param {
    lr_mult: 1
    decay_mult: 1
  }
  convolution_param {
    num_output: 7
    bias_term: false
    kernel_size: 1
    stride: 1
    weight_filler {
      type: "gaussian"
      std: 0.01
    }
    engine: CAFFE
    fp16_accumulation: true
  }
  quantize_param {
    precision: 8
    channel_shared: false
  }
}
layer {
  name: "conv4_1/3x3_dwconv/SE_fc1/relu"
  type: "ReLU"
  bottom: "conv4_1/3x3_dwconv/SE_fc1"
  top: "conv4_1/3x3_dwconv/SE_fc1"
}
layer {
  name: "conv4_1/3x3_dwconv/SE_fc2"
  type: "Convolution"
  bottom: "conv4_1/3x3_dwconv/SE_fc1"
  top: "conv4_1/3x3_dwconv/SE_fc2"
  param {
    lr_mult: 1
    decay_mult: 1
  }
  convolution_param {
    num_output: 120
    bias_term: false
    kernel_size: 1
    stride: 1
    weight_filler {
      type: "gaussian"
      std: 0.01
    }
    engine: CAFFE
    fp16_accumulation: true
  }
  quantize_param {
    precision: 8
    channel_shared: false
  }
}
layer {
  name: "conv4_1/3x3_dwconv/SE_weights"
  type: "Sigmoid"
  bottom: "conv4_1/3x3_dwconv/SE_fc2"
  top: "conv4_1/3x3_dwconv/SE_fc2"
}
layer {
  name: "conv4_1/3x3_dwconv/SE_weights/reshape"
  type: "Reshape"
  bottom: "conv4_1/3x3_dwconv/SE_fc2"
  top: "conv4_1/3x3_dwconv/SE_weights/reshape"
  reshape_param {
    shape {
      dim: 0
      dim: 0
    }
  }
}
layer {
  name: "conv4_1/3x3_dwconv/scale"
  type: "Scale"
  bottom: "conv4_1/3x3_dwconv/concat"
  bottom: "conv4_1/3x3_dwconv/SE_weights/reshape"
  top: "conv4_1/3x3_dwconv/scale"
  scale_param {
    axis: 0
    bias_term: false
  }
}
layer {
  name: "conv4_1/3x3_dwconv/scale_fixed_point"
  type: "Quantize"
  bottom: "conv4_1/3x3_dwconv/scale"
  top: "conv4_1/3x3_dwconv/scale"
  param {
    lr_mult: 0
    decay_mult: 0
  }
  quantize_param {
    precision: 8
    frozen: true
    positive: false
    tolerance: 1.3
  }
}
layer {
  name: "conv4_1/1x1_decrease"
  type: "Convolution"
  bottom: "conv4_1/3x3_dwconv/scale"
  top: "conv4_1/1x1_decrease/bn"
  param {
    lr_mult: 1
    decay_mult: 1
  }
  param {
    lr_mult: 2
    decay_mult: 0
  }
  convolution_param {
    num_output: 40
    bias_term: true
    kernel_size: 1
    stride: 1
    weight_filler {
      type: "msra"
    }
    bias_filler {
      type: "constant"
      value: 0
    }
    engine: CAFFE
    fp16_accumulation: true
  }
  quantize_param {
    precision: 8
    channel_shared: false
  }
}
layer {
  name: "conv4_1/elt_sum"
  type: "Eltwise"
  bottom: "conv4_0/1x1_decrease/bn"
  bottom: "conv4_1/1x1_decrease/bn"
  top: "conv4_1/elt_sum"
  eltwise_param {
    operation: SUM
  }
}
layer {
  name: "conv4_1/elt_sum_fixed_point"
  type: "Quantize"
  bottom: "conv4_1/elt_sum"
  top: "conv4_1/elt_sum"
  param {
    lr_mult: 0
    decay_mult: 0
  }
  quantize_param {
    precision: 8
    frozen: true
    positive: false
    tolerance: 1.3
  }
}
layer {
  name: "conv4_2/1x1_increase"
  type: "Convolution"
  bottom: "conv4_1/elt_sum"
  top: "conv4_2/1x1_increase/bn"
  param {
    lr_mult: 1
    decay_mult: 1
  }
  param {
    lr_mult: 2
    decay_mult: 0
  }
  convolution_param {
    num_output: 120
    bias_term: true
    kernel_size: 1
    stride: 1
    weight_filler {
      type: "msra"
    }
    bias_filler {
      type: "constant"
      value: 0
    }
    engine: CAFFE
    fp16_accumulation: true
  }
  quantize_param {
    precision: 8
    channel_shared: false
  }
}
layer {
  name: "conv4_2/1x1_increase/relu"
  type: "ReLU"
  bottom: "conv4_2/1x1_increase/bn"
  top: "conv4_2/1x1_increase/bn"
}
layer {
  name: "conv4_2/1x1_increase/bn_fixed_point"
  type: "Quantize"
  bottom: "conv4_2/1x1_increase/bn"
  top: "conv4_2/1x1_increase/bn"
  param {
    lr_mult: 0
    decay_mult: 0
  }
  quantize_param {
    precision: 8
    frozen: true
    positive: true
    tolerance: 1.3
  }
}
layer {
  name: "conv4_2/1x1_increase/slice"
  type: "Slice"
  bottom: "conv4_2/1x1_increase/bn"
  top: "conv4_2/1x1_increase/split1"
  top: "conv4_2/1x1_increase/split2"
  slice_param {
    slice_point: 60
  }
}
layer {
  name: "conv4_2/3x3_dwconv/slice_0"
  type: "Convolution"
  bottom: "conv4_2/1x1_increase/split1"
  top: "conv4_2/3x3_dwconv/slice_0/bn"
  param {
    lr_mult: 1
    decay_mult: 1
  }
  param {
    lr_mult: 2
    decay_mult: 0
  }
  convolution_param {
    num_output: 60
    bias_term: true
    pad: 1
    kernel_size: 3
    group: 60
    stride: 1
    weight_filler {
      type: "msra"
    }
    bias_filler {
      type: "constant"
      value: 0
    }
    engine: CAFFE
    fp16_accumulation: true
  }
  quantize_param {
    precision: 8
    channel_shared: false
  }
}
layer {
  name: "conv4_2/3x3_dwconv/slice_0/relu"
  type: "ReLU"
  bottom: "conv4_2/3x3_dwconv/slice_0/bn"
  top: "conv4_2/3x3_dwconv/slice_0/bn"
}
layer {
  name: "conv4_2/3x3_dwconv/slice_1"
  type: "Convolution"
  bottom: "conv4_2/1x1_increase/split2"
  top: "conv4_2/3x3_dwconv/slice_1/bn"
  param {
    lr_mult: 1
    decay_mult: 1
  }
  param {
    lr_mult: 2
    decay_mult: 0
  }
  convolution_param {
    num_output: 60
    bias_term: true
    pad: 2
    kernel_size: 5
    group: 60
    stride: 1
    weight_filler {
      type: "msra"
    }
    bias_filler {
      type: "constant"
      value: 0
    }
    engine: CAFFE
    fp16_accumulation: true
  }
  quantize_param {
    precision: 8
    channel_shared: false
  }
}
layer {
  name: "conv4_2/3x3_dwconv/slice_1/relu"
  type: "ReLU"
  bottom: "conv4_2/3x3_dwconv/slice_1/bn"
  top: "conv4_2/3x3_dwconv/slice_1/bn"
}
layer {
  name: "conv4_2/3x3_dwconv/concat"
  type: "Concat"
  bottom: "conv4_2/3x3_dwconv/slice_0/bn"
  bottom: "conv4_2/3x3_dwconv/slice_1/bn"
  top: "conv4_2/3x3_dwconv/concat"
}
layer {
  name: "conv4_2/3x3_dwconv/concat_fixed_point"
  type: "Quantize"
  bottom: "conv4_2/3x3_dwconv/concat"
  top: "conv4_2/3x3_dwconv/concat"
  param {
    lr_mult: 0
    decay_mult: 0
  }
  quantize_param {
    precision: 8
    frozen: true
    positive: true
    tolerance: 1.3
  }
}
layer {
  name: "conv4_2/3x3_dwconv/SE_global_pool"
  type: "Pooling"
  bottom: "conv4_2/3x3_dwconv/concat"
  top: "conv4_2/3x3_dwconv/SE_global_pool"
  pooling_param {
    pool: AVE
    engine: CAFFE
    global_pooling: true
  }
}
layer {
  name: "conv4_2/3x3_dwconv/SE_fc1"
  type: "Convolution"
  bottom: "conv4_2/3x3_dwconv/SE_global_pool"
  top: "conv4_2/3x3_dwconv/SE_fc1"
  param {
    lr_mult: 1
    decay_mult: 1
  }
  convolution_param {
    num_output: 7
    bias_term: false
    kernel_size: 1
    stride: 1
    weight_filler {
      type: "gaussian"
      std: 0.01
    }
    engine: CAFFE
    fp16_accumulation: true
  }
  quantize_param {
    precision: 8
    channel_shared: false
  }
}
layer {
  name: "conv4_2/3x3_dwconv/SE_fc1/relu"
  type: "ReLU"
  bottom: "conv4_2/3x3_dwconv/SE_fc1"
  top: "conv4_2/3x3_dwconv/SE_fc1"
}
layer {
  name: "conv4_2/3x3_dwconv/SE_fc2"
  type: "Convolution"
  bottom: "conv4_2/3x3_dwconv/SE_fc1"
  top: "conv4_2/3x3_dwconv/SE_fc2"
  param {
    lr_mult: 1
    decay_mult: 1
  }
  convolution_param {
    num_output: 120
    bias_term: false
    kernel_size: 1
    stride: 1
    weight_filler {
      type: "gaussian"
      std: 0.01
    }
    engine: CAFFE
    fp16_accumulation: true
  }
  quantize_param {
    precision: 8
    channel_shared: false
  }
}
layer {
  name: "conv4_2/3x3_dwconv/SE_weights"
  type: "Sigmoid"
  bottom: "conv4_2/3x3_dwconv/SE_fc2"
  top: "conv4_2/3x3_dwconv/SE_fc2"
}
layer {
  name: "conv4_2/3x3_dwconv/SE_weights/reshape"
  type: "Reshape"
  bottom: "conv4_2/3x3_dwconv/SE_fc2"
  top: "conv4_2/3x3_dwconv/SE_weights/reshape"
  reshape_param {
    shape {
      dim: 0
      dim: 0
    }
  }
}
layer {
  name: "conv4_2/3x3_dwconv/scale"
  type: "Scale"
  bottom: "conv4_2/3x3_dwconv/concat"
  bottom: "conv4_2/3x3_dwconv/SE_weights/reshape"
  top: "conv4_2/3x3_dwconv/scale"
  scale_param {
    axis: 0
    bias_term: false
  }
}
layer {
  name: "conv4_2/3x3_dwconv/scale_fixed_point"
  type: "Quantize"
  bottom: "conv4_2/3x3_dwconv/scale"
  top: "conv4_2/3x3_dwconv/scale"
  param {
    lr_mult: 0
    decay_mult: 0
  }
  quantize_param {
    precision: 8
    frozen: true
    positive: false
    tolerance: 1.3
  }
}
layer {
  name: "conv4_2/1x1_decrease"
  type: "Convolution"
  bottom: "conv4_2/3x3_dwconv/scale"
  top: "conv4_2/1x1_decrease/bn"
  param {
    lr_mult: 1
    decay_mult: 1
  }
  param {
    lr_mult: 2
    decay_mult: 0
  }
  convolution_param {
    num_output: 40
    bias_term: true
    kernel_size: 1
    stride: 1
    weight_filler {
      type: "msra"
    }
    bias_filler {
      type: "constant"
      value: 0
    }
    engine: CAFFE
    fp16_accumulation: true
  }
  quantize_param {
    precision: 8
    channel_shared: false
  }
}
layer {
  name: "conv4_2/elt_sum"
  type: "Eltwise"
  bottom: "conv4_1/elt_sum"
  bottom: "conv4_2/1x1_decrease/bn"
  top: "conv4_2/elt_sum"
  eltwise_param {
    operation: SUM
  }
}
layer {
  name: "conv4_2/elt_sum_fixed_point"
  type: "Quantize"
  bottom: "conv4_2/elt_sum"
  top: "conv4_2/elt_sum"
  param {
    lr_mult: 0
    decay_mult: 0
  }
  quantize_param {
    precision: 8
    frozen: true
    positive: false
    tolerance: 1.3
  }
}
layer {
  name: "conv4_3/1x1_increase"
  type: "Convolution"
  bottom: "conv4_2/elt_sum"
  top: "conv4_3/1x1_increase/bn"
  param {
    lr_mult: 1
    decay_mult: 1
  }
  param {
    lr_mult: 2
    decay_mult: 0
  }
  convolution_param {
    num_output: 120
    bias_term: true
    kernel_size: 1
    stride: 1
    weight_filler {
      type: "msra"
    }
    bias_filler {
      type: "constant"
      value: 0
    }
    engine: CAFFE
    fp16_accumulation: true
  }
  quantize_param {
    precision: 8
    channel_shared: false
  }
}
layer {
  name: "conv4_3/1x1_increase/relu"
  type: "ReLU"
  bottom: "conv4_3/1x1_increase/bn"
  top: "conv4_3/1x1_increase/bn"
}
layer {
  name: "conv4_3/1x1_increase/bn_fixed_point"
  type: "Quantize"
  bottom: "conv4_3/1x1_increase/bn"
  top: "conv4_3/1x1_increase/bn"
  param {
    lr_mult: 0
    decay_mult: 0
  }
  quantize_param {
    precision: 8
    frozen: true
    positive: true
    tolerance: 1.3
  }
}
layer {
  name: "conv4_3/1x1_increase/slice"
  type: "Slice"
  bottom: "conv4_3/1x1_increase/bn"
  top: "conv4_3/1x1_increase/split1"
  top: "conv4_3/1x1_increase/split2"
  slice_param {
    slice_point: 60
  }
}
layer {
  name: "conv4_3/3x3_dwconv/slice_0"
  type: "Convolution"
  bottom: "conv4_3/1x1_increase/split1"
  top: "conv4_3/3x3_dwconv/slice_0/bn"
  param {
    lr_mult: 1
    decay_m
I0906 17:57:47.029799 36245 layer_factory.hpp:77] Creating layer data
I0906 17:57:47.029850 36245 net.cpp:86] Creating Layer data
I0906 17:57:47.030110 36245 net.cpp:382] data -> data
I0906 17:57:47.030165 36245 net.cpp:382] data -> label
I0906 17:57:47.030189 36245 image_data_layer.cpp:43] Opening file file_lists/val.txt
I0906 17:57:47.042145 36245 image_data_layer.cpp:68] A total of 50000 images.
I0906 17:57:47.078557 36245 image_data_layer.cpp:95] output data size: 50,3,224,224
I0906 17:57:47.171494 36245 net.cpp:124] Setting up data
I0906 17:57:47.171540 36245 net.cpp:131] Top shape: 50 3 224 224 (7526400)
I0906 17:57:47.171548 36245 net.cpp:131] Top shape: 50 (50)
I0906 17:57:47.171553 36245 net.cpp:139] Memory required for data: 30105800
I0906 17:57:47.171571 36245 layer_factory.hpp:77] Creating layer label_data_1_split
I0906 17:57:47.171600 36245 net.cpp:86] Creating Layer label_data_1_split
I0906 17:57:47.171608 36245 net.cpp:408] label_data_1_split <- label
I0906 17:57:47.171629 36245 net.cpp:382] label_data_1_split -> label_data_1_split_0
I0906 17:57:47.171643 36245 net.cpp:382] label_data_1_split -> label_data_1_split_1
I0906 17:57:47.171725 36245 net.cpp:124] Setting up label_data_1_split
I0906 17:57:47.171734 36245 net.cpp:131] Top shape: 50 (50)
I0906 17:57:47.171747 36245 net.cpp:131] Top shape: 50 (50)
I0906 17:57:47.171751 36245 net.cpp:139] Memory required for data: 30106200
I0906 17:57:47.171756 36245 layer_factory.hpp:77] Creating layer data_fixed_point
I0906 17:57:47.171769 36245 net.cpp:86] Creating Layer data_fixed_point
I0906 17:57:47.171774 36245 net.cpp:408] data_fixed_point <- data
I0906 17:57:47.171782 36245 net.cpp:369] data_fixed_point -> data (in-place)
I0906 17:57:47.171840 36245 net.cpp:124] Setting up data_fixed_point
I0906 17:57:47.171849 36245 net.cpp:131] Top shape: 50 3 224 224 (7526400)
I0906 17:57:47.171854 36245 net.cpp:139] Memory required for data: 60211800
I0906 17:57:47.171877 36245 layer_factory.hpp:77] Creating layer conv1/3x3_s2
I0906 17:57:47.171906 36245 net.cpp:86] Creating Layer conv1/3x3_s2
I0906 17:57:47.171912 36245 net.cpp:408] conv1/3x3_s2 <- data
I0906 17:57:47.171921 36245 net.cpp:382] conv1/3x3_s2 -> conv1/3x3_s2/bn
I0906 17:57:47.175725 36245 net.cpp:124] Setting up conv1/3x3_s2
I0906 17:57:47.175765 36245 net.cpp:131] Top shape: 50 32 112 112 (20070400)
I0906 17:57:47.175770 36245 net.cpp:139] Memory required for data: 140493400
I0906 17:57:47.175786 36245 layer_factory.hpp:77] Creating layer conv1/3x3_s2/relu
I0906 17:57:47.175802 36245 net.cpp:86] Creating Layer conv1/3x3_s2/relu
I0906 17:57:47.175808 36245 net.cpp:408] conv1/3x3_s2/relu <- conv1/3x3_s2/bn
I0906 17:57:47.175817 36245 net.cpp:369] conv1/3x3_s2/relu -> conv1/3x3_s2/bn (in-place)
I0906 17:57:49.223845 36245 net.cpp:124] Setting up conv1/3x3_s2/relu
I0906 17:57:49.223888 36245 net.cpp:131] Top shape: 50 32 112 112 (20070400)
I0906 17:57:49.223893 36245 net.cpp:139] Memory required for data: 220775000
I0906 17:57:49.223902 36245 layer_factory.hpp:77] Creating layer conv1/3x3_s2/bn_fixed_point
I0906 17:57:49.223922 36245 net.cpp:86] Creating Layer conv1/3x3_s2/bn_fixed_point
I0906 17:57:49.223929 36245 net.cpp:408] conv1/3x3_s2/bn_fixed_point <- conv1/3x3_s2/bn
I0906 17:57:49.223942 36245 net.cpp:369] conv1/3x3_s2/bn_fixed_point -> conv1/3x3_s2/bn (in-place)
I0906 17:57:49.223986 36245 net.cpp:124] Setting up conv1/3x3_s2/bn_fixed_point
I0906 17:57:49.223994 36245 net.cpp:131] Top shape: 50 32 112 112 (20070400)
I0906 17:57:49.223997 36245 net.cpp:139] Memory required for data: 301056600
I0906 17:57:49.224005 36245 layer_factory.hpp:77] Creating layer conv2_0/3x3_dwconv
I0906 17:57:49.224028 36245 net.cpp:86] Creating Layer conv2_0/3x3_dwconv
I0906 17:57:49.224035 36245 net.cpp:408] conv2_0/3x3_dwconv <- conv1/3x3_s2/bn
I0906 17:57:49.224040 36245 net.cpp:382] conv2_0/3x3_dwconv -> conv2_0/3x3_dwconv/bn
I0906 17:57:49.224838 36245 net.cpp:124] Setting up conv2_0/3x3_dwconv
I0906 17:57:49.224867 36245 net.cpp:131] Top shape: 50 32 112 112 (20070400)
I0906 17:57:49.224871 36245 net.cpp:139] Memory required for data: 381338200
I0906 17:57:49.224882 36245 layer_factory.hpp:77] Creating layer conv2_0/3x3_dwconv/relu
I0906 17:57:49.224891 36245 net.cpp:86] Creating Layer conv2_0/3x3_dwconv/relu
I0906 17:57:49.224895 36245 net.cpp:408] conv2_0/3x3_dwconv/relu <- conv2_0/3x3_dwconv/bn
I0906 17:57:49.224901 36245 net.cpp:369] conv2_0/3x3_dwconv/relu -> conv2_0/3x3_dwconv/bn (in-place)
I0906 17:57:49.225512 36245 net.cpp:124] Setting up conv2_0/3x3_dwconv/relu
I0906 17:57:49.225524 36245 net.cpp:131] Top shape: 50 32 112 112 (20070400)
I0906 17:57:49.225544 36245 net.cpp:139] Memory required for data: 461619800
I0906 17:57:49.225548 36245 layer_factory.hpp:77] Creating layer conv2_0/3x3_dwconv/bn_fixed_point
I0906 17:57:49.225558 36245 net.cpp:86] Creating Layer conv2_0/3x3_dwconv/bn_fixed_point
I0906 17:57:49.225562 36245 net.cpp:408] conv2_0/3x3_dwconv/bn_fixed_point <- conv2_0/3x3_dwconv/bn
I0906 17:57:49.225569 36245 net.cpp:369] conv2_0/3x3_dwconv/bn_fixed_point -> conv2_0/3x3_dwconv/bn (in-place)
I0906 17:57:49.225605 36245 net.cpp:124] Setting up conv2_0/3x3_dwconv/bn_fixed_point
I0906 17:57:49.225611 36245 net.cpp:131] Top shape: 50 32 112 112 (20070400)
I0906 17:57:49.225615 36245 net.cpp:139] Memory required for data: 541901400
I0906 17:57:49.225621 36245 layer_factory.hpp:77] Creating layer conv2_0/1x1_decrease
I0906 17:57:49.225637 36245 net.cpp:86] Creating Layer conv2_0/1x1_decrease
I0906 17:57:49.225642 36245 net.cpp:408] conv2_0/1x1_decrease <- conv2_0/3x3_dwconv/bn
I0906 17:57:49.225651 36245 net.cpp:382] conv2_0/1x1_decrease -> conv2_0/1x1_decrease/bn
I0906 17:57:49.226238 36245 net.cpp:124] Setting up conv2_0/1x1_decrease
I0906 17:57:49.226251 36245 net.cpp:131] Top shape: 50 16 112 112 (10035200)
I0906 17:57:49.226255 36245 net.cpp:139] Memory required for data: 582042200
I0906 17:57:49.226264 36245 layer_factory.hpp:77] Creating layer conv2_0/1x1_decrease/bn_fixed_point
I0906 17:57:49.226276 36245 net.cpp:86] Creating Layer conv2_0/1x1_decrease/bn_fixed_point
I0906 17:57:49.226281 36245 net.cpp:408] conv2_0/1x1_decrease/bn_fixed_point <- conv2_0/1x1_decrease/bn
I0906 17:57:49.226286 36245 net.cpp:369] conv2_0/1x1_decrease/bn_fixed_point -> conv2_0/1x1_decrease/bn (in-place)
I0906 17:57:49.226321 36245 net.cpp:124] Setting up conv2_0/1x1_decrease/bn_fixed_point
I0906 17:57:49.226327 36245 net.cpp:131] Top shape: 50 16 112 112 (10035200)
I0906 17:57:49.226331 36245 net.cpp:139] Memory required for data: 622183000
I0906 17:57:49.226336 36245 layer_factory.hpp:77] Creating layer conv3_0/1x1_increase
I0906 17:57:49.226351 36245 net.cpp:86] Creating Layer conv3_0/1x1_increase
I0906 17:57:49.226356 36245 net.cpp:408] conv3_0/1x1_increase <- conv2_0/1x1_decrease/bn
I0906 17:57:49.226382 36245 net.cpp:382] conv3_0/1x1_increase -> conv3_0/1x1_increase/bn
I0906 17:57:49.226930 36245 net.cpp:124] Setting up conv3_0/1x1_increase
I0906 17:57:49.226956 36245 net.cpp:131] Top shape: 50 48 112 112 (30105600)
I0906 17:57:49.226976 36245 net.cpp:139] Memory required for data: 742605400
I0906 17:57:49.226982 36245 layer_factory.hpp:77] Creating layer conv3_0/1x1_increase/relu
I0906 17:57:49.226991 36245 net.cpp:86] Creating Layer conv3_0/1x1_increase/relu
I0906 17:57:49.226995 36245 net.cpp:408] conv3_0/1x1_increase/relu <- conv3_0/1x1_increase/bn
I0906 17:57:49.227000 36245 net.cpp:369] conv3_0/1x1_increase/relu -> conv3_0/1x1_increase/bn (in-place)
I0906 17:57:49.227883 36245 net.cpp:124] Setting up conv3_0/1x1_increase/relu
I0906 17:57:49.227897 36245 net.cpp:131] Top shape: 50 48 112 112 (30105600)
I0906 17:57:49.227918 36245 net.cpp:139] Memory required for data: 863027800
I0906 17:57:49.227922 36245 layer_factory.hpp:77] Creating layer conv3_0/1x1_increase/bn_fixed_point
I0906 17:57:49.227932 36245 net.cpp:86] Creating Layer conv3_0/1x1_increase/bn_fixed_point
I0906 17:57:49.227936 36245 net.cpp:408] conv3_0/1x1_increase/bn_fixed_point <- conv3_0/1x1_increase/bn
I0906 17:57:49.227942 36245 net.cpp:369] conv3_0/1x1_increase/bn_fixed_point -> conv3_0/1x1_increase/bn (in-place)
I0906 17:57:49.227980 36245 net.cpp:124] Setting up conv3_0/1x1_increase/bn_fixed_point
I0906 17:57:49.227988 36245 net.cpp:131] Top shape: 50 48 112 112 (30105600)
I0906 17:57:49.227990 36245 net.cpp:139] Memory required for data: 983450200
I0906 17:57:49.227995 36245 layer_factory.hpp:77] Creating layer conv3_0/3x3_dwconv
I0906 17:57:49.228011 36245 net.cpp:86] Creating Layer conv3_0/3x3_dwconv
I0906 17:57:49.228032 36245 net.cpp:408] conv3_0/3x3_dwconv <- conv3_0/1x1_increase/bn
I0906 17:57:49.228039 36245 net.cpp:382] conv3_0/3x3_dwconv -> conv3_0/3x3_dwconv/bn
I0906 17:57:49.229934 36245 net.cpp:124] Setting up conv3_0/3x3_dwconv
I0906 17:57:49.229948 36245 net.cpp:131] Top shape: 50 48 56 56 (7526400)
I0906 17:57:49.229954 36245 net.cpp:139] Memory required for data: 1013555800
I0906 17:57:49.229976 36245 layer_factory.hpp:77] Creating layer conv3_0/3x3_dwconv/relu
I0906 17:57:49.229986 36245 net.cpp:86] Creating Layer conv3_0/3x3_dwconv/relu
I0906 17:57:49.229990 36245 net.cpp:408] conv3_0/3x3_dwconv/relu <- conv3_0/3x3_dwconv/bn
I0906 17:57:49.229995 36245 net.cpp:369] conv3_0/3x3_dwconv/relu -> conv3_0/3x3_dwconv/bn (in-place)
I0906 17:57:49.230631 36245 net.cpp:124] Setting up conv3_0/3x3_dwconv/relu
I0906 17:57:49.230643 36245 net.cpp:131] Top shape: 50 48 56 56 (7526400)
I0906 17:57:49.230646 36245 net.cpp:139] Memory required for data: 1043661400
I0906 17:57:49.230653 36245 layer_factory.hpp:77] Creating layer conv3_0/3x3_dwconv/bn_fixed_point
I0906 17:57:49.230679 36245 net.cpp:86] Creating Layer conv3_0/3x3_dwconv/bn_fixed_point
I0906 17:57:49.230681 36245 net.cpp:408] conv3_0/3x3_dwconv/bn_fixed_point <- conv3_0/3x3_dwconv/bn
I0906 17:57:49.230688 36245 net.cpp:369] conv3_0/3x3_dwconv/bn_fixed_point -> conv3_0/3x3_dwconv/bn (in-place)
I0906 17:57:49.230751 36245 net.cpp:124] Setting up conv3_0/3x3_dwconv/bn_fixed_point
I0906 17:57:49.230757 36245 net.cpp:131] Top shape: 50 48 56 56 (7526400)
I0906 17:57:49.230760 36245 net.cpp:139] Memory required for data: 1073767000
I0906 17:57:49.230767 36245 layer_factory.hpp:77] Creating layer conv3_0/1x1_decrease
I0906 17:57:49.230782 36245 net.cpp:86] Creating Layer conv3_0/1x1_decrease
I0906 17:57:49.230785 36245 net.cpp:408] conv3_0/1x1_decrease <- conv3_0/3x3_dwconv/bn
I0906 17:57:49.230792 36245 net.cpp:382] conv3_0/1x1_decrease -> conv3_0/1x1_decrease/bn
I0906 17:57:49.231575 36245 net.cpp:124] Setting up conv3_0/1x1_decrease
I0906 17:57:49.231590 36245 net.cpp:131] Top shape: 50 32 56 56 (5017600)
I0906 17:57:49.231593 36245 net.cpp:139] Memory required for data: 1093837400
I0906 17:57:49.231621 36245 layer_factory.hpp:77] Creating layer conv3_0/1x1_decrease/bn_fixed_point
I0906 17:57:49.231628 36245 net.cpp:86] Creating Layer conv3_0/1x1_decrease/bn_fixed_point
I0906 17:57:49.231645 36245 net.cpp:408] conv3_0/1x1_decrease/bn_fixed_point <- conv3_0/1x1_decrease/bn
I0906 17:57:49.231652 36245 net.cpp:369] conv3_0/1x1_decrease/bn_fixed_point -> conv3_0/1x1_decrease/bn (in-place)
I0906 17:57:49.231690 36245 net.cpp:124] Setting up conv3_0/1x1_decrease/bn_fixed_point
I0906 17:57:49.231698 36245 net.cpp:131] Top shape: 50 32 56 56 (5017600)
I0906 17:57:49.231701 36245 net.cpp:139] Memory required for data: 1113907800
I0906 17:57:49.231707 36245 layer_factory.hpp:77] Creating layer conv3_0/1x1_decrease/bn_conv3_0/1x1_decrease/bn_fixed_point_0_split
I0906 17:57:49.231717 36245 net.cpp:86] Creating Layer conv3_0/1x1_decrease/bn_conv3_0/1x1_decrease/bn_fixed_point_0_split
I0906 17:57:49.231721 36245 net.cpp:408] conv3_0/1x1_decrease/bn_conv3_0/1x1_decrease/bn_fixed_point_0_split <- conv3_0/1x1_decrease/bn
I0906 17:57:49.231726 36245 net.cpp:382] conv3_0/1x1_decrease/bn_conv3_0/1x1_decrease/bn_fixed_point_0_split -> conv3_0/1x1_decrease/bn_conv3_0/1x1_decrease/bn_fixed_point_0_split_0
I0906 17:57:49.231734 36245 net.cpp:382] conv3_0/1x1_decrease/bn_conv3_0/1x1_decrease/bn_fixed_point_0_split -> conv3_0/1x1_decrease/bn_conv3_0/1x1_decrease/bn_fixed_point_0_split_1
I0906 17:57:49.231775 36245 net.cpp:124] Setting up conv3_0/1x1_decrease/bn_conv3_0/1x1_decrease/bn_fixed_point_0_split
I0906 17:57:49.231781 36245 net.cpp:131] Top shape: 50 32 56 56 (5017600)
I0906 17:57:49.231784 36245 net.cpp:131] Top shape: 50 32 56 56 (5017600)
I0906 17:57:49.231788 36245 net.cpp:139] Memory required for data: 1154048600
I0906 17:57:49.231792 36245 layer_factory.hpp:77] Creating layer conv3_1/1x1_increase
I0906 17:57:49.231801 36245 net.cpp:86] Creating Layer conv3_1/1x1_increase
I0906 17:57:49.231806 36245 net.cpp:408] conv3_1/1x1_increase <- conv3_0/1x1_decrease/bn_conv3_0/1x1_decrease/bn_fixed_point_0_split_0
I0906 17:57:49.231813 36245 net.cpp:382] conv3_1/1x1_increase -> conv3_1/1x1_increase/bn
I0906 17:57:49.232581 36245 net.cpp:124] Setting up conv3_1/1x1_increase
I0906 17:57:49.232594 36245 net.cpp:131] Top shape: 50 96 56 56 (15052800)
I0906 17:57:49.232599 36245 net.cpp:139] Memory required for data: 1214259800
I0906 17:57:49.232605 36245 layer_factory.hpp:77] Creating layer conv3_1/1x1_increase/relu
I0906 17:57:49.232615 36245 net.cpp:86] Creating Layer conv3_1/1x1_increase/relu
I0906 17:57:49.232620 36245 net.cpp:408] conv3_1/1x1_increase/relu <- conv3_1/1x1_increase/bn
I0906 17:57:49.232625 36245 net.cpp:369] conv3_1/1x1_increase/relu -> conv3_1/1x1_increase/bn (in-place)
I0906 17:57:49.233234 36245 net.cpp:124] Setting up conv3_1/1x1_increase/relu
I0906 17:57:49.233247 36245 net.cpp:131] Top shape: 50 96 56 56 (15052800)
I0906 17:57:49.233250 36245 net.cpp:139] Memory required for data: 1274471000
I0906 17:57:49.233255 36245 layer_factory.hpp:77] Creating layer conv3_1/1x1_increase/bn_fixed_point
I0906 17:57:49.233264 36245 net.cpp:86] Creating Layer conv3_1/1x1_increase/bn_fixed_point
I0906 17:57:49.233269 36245 net.cpp:408] conv3_1/1x1_increase/bn_fixed_point <- conv3_1/1x1_increase/bn
I0906 17:57:49.233274 36245 net.cpp:369] conv3_1/1x1_increase/bn_fixed_point -> conv3_1/1x1_increase/bn (in-place)
I0906 17:57:49.233310 36245 net.cpp:124] Setting up conv3_1/1x1_increase/bn_fixed_point
I0906 17:57:49.233316 36245 net.cpp:131] Top shape: 50 96 56 56 (15052800)
I0906 17:57:49.233320 36245 net.cpp:139] Memory required for data: 1334682200
I0906 17:57:49.233327 36245 layer_factory.hpp:77] Creating layer conv3_1/3x3_dwconv
I0906 17:57:49.233355 36245 net.cpp:86] Creating Layer conv3_1/3x3_dwconv
I0906 17:57:49.233359 36245 net.cpp:408] conv3_1/3x3_dwconv <- conv3_1/1x1_increase/bn
I0906 17:57:49.233381 36245 net.cpp:382] conv3_1/3x3_dwconv -> conv3_1/3x3_dwconv/bn
I0906 17:57:49.234079 36245 net.cpp:124] Setting up conv3_1/3x3_dwconv
I0906 17:57:49.234092 36245 net.cpp:131] Top shape: 50 96 56 56 (15052800)
I0906 17:57:49.234097 36245 net.cpp:139] Memory required for data: 1394893400
I0906 17:57:49.234104 36245 layer_factory.hpp:77] Creating layer conv3_1/3x3_dwconv/relu
I0906 17:57:49.234123 36245 net.cpp:86] Creating Layer conv3_1/3x3_dwconv/relu
I0906 17:57:49.234129 36245 net.cpp:408] conv3_1/3x3_dwconv/relu <- conv3_1/3x3_dwconv/bn
I0906 17:57:49.234134 36245 net.cpp:369] conv3_1/3x3_dwconv/relu -> conv3_1/3x3_dwconv/bn (in-place)
I0906 17:57:49.234977 36245 net.cpp:124] Setting up conv3_1/3x3_dwconv/relu
I0906 17:57:49.234992 36245 net.cpp:131] Top shape: 50 96 56 56 (15052800)
I0906 17:57:49.234997 36245 net.cpp:139] Memory required for data: 1455104600
I0906 17:57:49.235000 36245 layer_factory.hpp:77] Creating layer conv3_1/3x3_dwconv/bn_fixed_point
I0906 17:57:49.235014 36245 net.cpp:86] Creating Layer conv3_1/3x3_dwconv/bn_fixed_point
I0906 17:57:49.235020 36245 net.cpp:408] conv3_1/3x3_dwconv/bn_fixed_point <- conv3_1/3x3_dwconv/bn
I0906 17:57:49.235025 36245 net.cpp:369] conv3_1/3x3_dwconv/bn_fixed_point -> conv3_1/3x3_dwconv/bn (in-place)
I0906 17:57:49.235060 36245 net.cpp:124] Setting up conv3_1/3x3_dwconv/bn_fixed_point
I0906 17:57:49.235067 36245 net.cpp:131] Top shape: 50 96 56 56 (15052800)
I0906 17:57:49.235071 36245 net.cpp:139] Memory required for data: 1515315800
I0906 17:57:49.235076 36245 layer_factory.hpp:77] Creating layer conv3_1/1x1_decrease
I0906 17:57:49.235088 36245 net.cpp:86] Creating Layer conv3_1/1x1_decrease
I0906 17:57:49.235092 36245 net.cpp:408] conv3_1/1x1_decrease <- conv3_1/3x3_dwconv/bn
I0906 17:57:49.235100 36245 net.cpp:382] conv3_1/1x1_decrease -> conv3_1/1x1_decrease/bn
I0906 17:57:49.235741 36245 net.cpp:124] Setting up conv3_1/1x1_decrease
I0906 17:57:49.235752 36245 net.cpp:131] Top shape: 50 32 56 56 (5017600)
I0906 17:57:49.235756 36245 net.cpp:139] Memory required for data: 1535386200
I0906 17:57:49.235779 36245 layer_factory.hpp:77] Creating layer conv3_1/elt_sum
I0906 17:57:49.235792 36245 net.cpp:86] Creating Layer conv3_1/elt_sum
I0906 17:57:49.235797 36245 net.cpp:408] conv3_1/elt_sum <- conv3_0/1x1_decrease/bn_conv3_0/1x1_decrease/bn_fixed_point_0_split_1
I0906 17:57:49.235802 36245 net.cpp:408] conv3_1/elt_sum <- conv3_1/1x1_decrease/bn
I0906 17:57:49.235808 36245 net.cpp:382] conv3_1/elt_sum -> conv3_1/elt_sum
I0906 17:57:49.235848 36245 net.cpp:124] Setting up conv3_1/elt_sum
I0906 17:57:49.235855 36245 net.cpp:131] Top shape: 50 32 56 56 (5017600)
I0906 17:57:49.235858 36245 net.cpp:139] Memory required for data: 1555456600
I0906 17:57:49.235863 36245 layer_factory.hpp:77] Creating layer conv3_1/elt_sum_fixed_point
I0906 17:57:49.235872 36245 net.cpp:86] Creating Layer conv3_1/elt_sum_fixed_point
I0906 17:57:49.235877 36245 net.cpp:408] conv3_1/elt_sum_fixed_point <- conv3_1/elt_sum
I0906 17:57:49.235882 36245 net.cpp:369] conv3_1/elt_sum_fixed_point -> conv3_1/elt_sum (in-place)
I0906 17:57:49.235910 36245 net.cpp:124] Setting up conv3_1/elt_sum_fixed_point
I0906 17:57:49.235916 36245 net.cpp:131] Top shape: 50 32 56 56 (5017600)
I0906 17:57:49.235919 36245 net.cpp:139] Memory required for data: 1575527000
I0906 17:57:49.235925 36245 layer_factory.hpp:77] Creating layer conv4_0/1x1_increase
I0906 17:57:49.235935 36245 net.cpp:86] Creating Layer conv4_0/1x1_increase
I0906 17:57:49.235939 36245 net.cpp:408] conv4_0/1x1_increase <- conv3_1/elt_sum
I0906 17:57:49.235947 36245 net.cpp:382] conv4_0/1x1_increase -> conv4_0/1x1_increase/bn
I0906 17:57:49.236542 36245 net.cpp:124] Setting up conv4_0/1x1_increase
I0906 17:57:49.236554 36245 net.cpp:131] Top shape: 50 96 56 56 (15052800)
I0906 17:57:49.236559 36245 net.cpp:139] Memory required for data: 1635738200
I0906 17:57:49.236567 36245 layer_factory.hpp:77] Creating layer conv4_0/1x1_increase/relu
I0906 17:57:49.236577 36245 net.cpp:86] Creating Layer conv4_0/1x1_increase/relu
I0906 17:57:49.236582 36245 net.cpp:408] conv4_0/1x1_increase/relu <- conv4_0/1x1_increase/bn
I0906 17:57:49.236588 36245 net.cpp:369] conv4_0/1x1_increase/relu -> conv4_0/1x1_increase/bn (in-place)
I0906 17:57:49.237184 36245 net.cpp:124] Setting up conv4_0/1x1_increase/relu
I0906 17:57:49.237195 36245 net.cpp:131] Top shape: 50 96 56 56 (15052800)
I0906 17:57:49.237200 36245 net.cpp:139] Memory required for data: 1695949400
I0906 17:57:49.237215 36245 layer_factory.hpp:77] Creating layer conv4_0/1x1_increase/bn_fixed_point
I0906 17:57:49.237224 36245 net.cpp:86] Creating Layer conv4_0/1x1_increase/bn_fixed_point
I0906 17:57:49.237228 36245 net.cpp:408] conv4_0/1x1_increase/bn_fixed_point <- conv4_0/1x1_increase/bn
I0906 17:57:49.237236 36245 net.cpp:369] conv4_0/1x1_increase/bn_fixed_point -> conv4_0/1x1_increase/bn (in-place)
I0906 17:57:49.237284 36245 net.cpp:124] Setting up conv4_0/1x1_increase/bn_fixed_point
I0906 17:57:49.237291 36245 net.cpp:131] Top shape: 50 96 56 56 (15052800)
I0906 17:57:49.237294 36245 net.cpp:139] Memory required for data: 1756160600
I0906 17:57:49.237300 36245 layer_factory.hpp:77] Creating layer conv4_0/1x1_increase/slice
I0906 17:57:49.237314 36245 net.cpp:86] Creating Layer conv4_0/1x1_increase/slice
I0906 17:57:49.237319 36245 net.cpp:408] conv4_0/1x1_increase/slice <- conv4_0/1x1_increase/bn
I0906 17:57:49.237326 36245 net.cpp:382] conv4_0/1x1_increase/slice -> conv4_0/1x1_increase/split1
I0906 17:57:49.237337 36245 net.cpp:382] conv4_0/1x1_increase/slice -> conv4_0/1x1_increase/split2
I0906 17:57:49.237344 36245 net.cpp:382] conv4_0/1x1_increase/slice -> conv4_0/1x1_increase/split3
I0906 17:57:49.237411 36245 net.cpp:124] Setting up conv4_0/1x1_increase/slice
I0906 17:57:49.237417 36245 net.cpp:131] Top shape: 50 32 56 56 (5017600)
I0906 17:57:49.237422 36245 net.cpp:131] Top shape: 50 32 56 56 (5017600)
I0906 17:57:49.237426 36245 net.cpp:131] Top shape: 50 32 56 56 (5017600)
I0906 17:57:49.237430 36245 net.cpp:139] Memory required for data: 1816371800
I0906 17:57:49.237434 36245 layer_factory.hpp:77] Creating layer conv4_0/3x3_dwconv/slice_0
I0906 17:57:49.237447 36245 net.cpp:86] Creating Layer conv4_0/3x3_dwconv/slice_0
I0906 17:57:49.237452 36245 net.cpp:408] conv4_0/3x3_dwconv/slice_0 <- conv4_0/1x1_increase/split1
I0906 17:57:49.237458 36245 net.cpp:382] conv4_0/3x3_dwconv/slice_0 -> conv4_0/3x3_dwconv/slice_0/bn
I0906 17:57:49.238005 36245 net.cpp:124] Setting up conv4_0/3x3_dwconv/slice_0
I0906 17:57:49.238021 36245 net.cpp:131] Top shape: 50 32 28 28 (1254400)
I0906 17:57:49.238026 36245 net.cpp:139] Memory required for data: 1821389400
I0906 17:57:49.238039 36245 layer_factory.hpp:77] Creating layer conv4_0/3x3_dwconv/slice_0/relu
I0906 17:57:49.238045 36245 net.cpp:86] Creating Layer conv4_0/3x3_dwconv/slice_0/relu
I0906 17:57:49.238049 36245 net.cpp:408] conv4_0/3x3_dwconv/slice_0/relu <- conv4_0/3x3_dwconv/slice_0/bn
I0906 17:57:49.238055 36245 net.cpp:369] conv4_0/3x3_dwconv/slice_0/relu -> conv4_0/3x3_dwconv/slice_0/bn (in-place)
I0906 17:57:49.238648 36245 net.cpp:124] Setting up conv4_0/3x3_dwconv/slice_0/relu
I0906 17:57:49.238659 36245 net.cpp:131] Top shape: 50 32 28 28 (1254400)
I0906 17:57:49.238664 36245 net.cpp:139] Memory required for data: 1826407000
I0906 17:57:49.238667 36245 layer_factory.hpp:77] Creating layer conv4_0/3x3_dwconv/slice_1
I0906 17:57:49.238693 36245 net.cpp:86] Creating Layer conv4_0/3x3_dwconv/slice_1
I0906 17:57:49.238698 36245 net.cpp:408] conv4_0/3x3_dwconv/slice_1 <- conv4_0/1x1_increase/split2
I0906 17:57:49.238708 36245 net.cpp:382] conv4_0/3x3_dwconv/slice_1 -> conv4_0/3x3_dwconv/slice_1/bn
I0906 17:57:49.239539 36245 net.cpp:124] Setting up conv4_0/3x3_dwconv/slice_1
I0906 17:57:49.239552 36245 net.cpp:131] Top shape: 50 32 28 28 (1254400)
I0906 17:57:49.239570 36245 net.cpp:139] Memory required for data: 1831424600
I0906 17:57:49.239578 36245 layer_factory.hpp:77] Creating layer conv4_0/3x3_dwconv/slice_1/relu
I0906 17:57:49.239584 36245 net.cpp:86] Creating Layer conv4_0/3x3_dwconv/slice_1/relu
I0906 17:57:49.239588 36245 net.cpp:408] conv4_0/3x3_dwconv/slice_1/relu <- conv4_0/3x3_dwconv/slice_1/bn
I0906 17:57:49.239596 36245 net.cpp:369] conv4_0/3x3_dwconv/slice_1/relu -> conv4_0/3x3_dwconv/slice_1/bn (in-place)
I0906 17:57:49.240253 36245 net.cpp:124] Setting up conv4_0/3x3_dwconv/slice_1/relu
I0906 17:57:49.240264 36245 net.cpp:131] Top shape: 50 32 28 28 (1254400)
I0906 17:57:49.240279 36245 net.cpp:139] Memory required for data: 1836442200
I0906 17:57:49.240296 36245 layer_factory.hpp:77] Creating layer conv4_0/3x3_dwconv/slice_2
I0906 17:57:49.240309 36245 net.cpp:86] Creating Layer conv4_0/3x3_dwconv/slice_2
I0906 17:57:49.240316 36245 net.cpp:408] conv4_0/3x3_dwconv/slice_2 <- conv4_0/1x1_increase/split3
I0906 17:57:49.240324 36245 net.cpp:382] conv4_0/3x3_dwconv/slice_2 -> conv4_0/3x3_dwconv/slice_2/bn
I0906 17:57:49.241094 36245 net.cpp:124] Setting up conv4_0/3x3_dwconv/slice_2
I0906 17:57:49.241108 36245 net.cpp:131] Top shape: 50 32 28 28 (1254400)
I0906 17:57:49.241111 36245 net.cpp:139] Memory required for data: 1841459800
I0906 17:57:49.241118 36245 layer_factory.hpp:77] Creating layer conv4_0/3x3_dwconv/slice_2/relu
I0906 17:57:49.241125 36245 net.cpp:86] Creating Layer conv4_0/3x3_dwconv/slice_2/relu
I0906 17:57:49.241128 36245 net.cpp:408] conv4_0/3x3_dwconv/slice_2/relu <- conv4_0/3x3_dwconv/slice_2/bn
I0906 17:57:49.241137 36245 net.cpp:369] conv4_0/3x3_dwconv/slice_2/relu -> conv4_0/3x3_dwconv/slice_2/bn (in-place)
I0906 17:57:49.241919 36245 net.cpp:124] Setting up conv4_0/3x3_dwconv/slice_2/relu
I0906 17:57:49.241935 36245 net.cpp:131] Top shape: 50 32 28 28 (1254400)
I0906 17:57:49.241940 36245 net.cpp:139] Memory required for data: 1846477400
I0906 17:57:49.241945 36245 layer_factory.hpp:77] Creating layer conv4_0/3x3_dwconv/concat
I0906 17:57:49.241971 36245 net.cpp:86] Creating Layer conv4_0/3x3_dwconv/concat
I0906 17:57:49.241977 36245 net.cpp:408] conv4_0/3x3_dwconv/concat <- conv4_0/3x3_dwconv/slice_0/bn
I0906 17:57:49.241982 36245 net.cpp:408] conv4_0/3x3_dwconv/concat <- conv4_0/3x3_dwconv/slice_1/bn
I0906 17:57:49.241987 36245 net.cpp:408] conv4_0/3x3_dwconv/concat <- conv4_0/3x3_dwconv/slice_2/bn
I0906 17:57:49.241997 36245 net.cpp:382] conv4_0/3x3_dwconv/concat -> conv4_0/3x3_dwconv/concat
I0906 17:57:49.242038 36245 net.cpp:124] Setting up conv4_0/3x3_dwconv/concat
I0906 17:57:49.242046 36245 net.cpp:131] Top shape: 50 96 28 28 (3763200)
I0906 17:57:49.242049 36245 net.cpp:139] Memory required for data: 1861530200
I0906 17:57:49.242053 36245 layer_factory.hpp:77] Creating layer conv4_0/3x3_dwconv/concat_fixed_point
I0906 17:57:49.242063 36245 net.cpp:86] Creating Layer conv4_0/3x3_dwconv/concat_fixed_point
I0906 17:57:49.242066 36245 net.cpp:408] conv4_0/3x3_dwconv/concat_fixed_point <- conv4_0/3x3_dwconv/concat
I0906 17:57:49.242071 36245 net.cpp:369] conv4_0/3x3_dwconv/concat_fixed_point -> conv4_0/3x3_dwconv/concat (in-place)
I0906 17:57:49.242100 36245 net.cpp:124] Setting up conv4_0/3x3_dwconv/concat_fixed_point
I0906 17:57:49.242107 36245 net.cpp:131] Top shape: 50 96 28 28 (3763200)
I0906 17:57:49.242110 36245 net.cpp:139] Memory required for data: 1876583000
I0906 17:57:49.242115 36245 layer_factory.hpp:77] Creating layer conv4_0/3x3_dwconv/concat_conv4_0/3x3_dwconv/concat_fixed_point_0_split
I0906 17:57:49.242121 36245 net.cpp:86] Creating Layer conv4_0/3x3_dwconv/concat_conv4_0/3x3_dwconv/concat_fixed_point_0_split
I0906 17:57:49.242125 36245 net.cpp:408] conv4_0/3x3_dwconv/concat_conv4_0/3x3_dwconv/concat_fixed_point_0_split <- conv4_0/3x3_dwconv/concat
I0906 17:57:49.242131 36245 net.cpp:382] conv4_0/3x3_dwconv/concat_conv4_0/3x3_dwconv/concat_fixed_point_0_split -> conv4_0/3x3_dwconv/concat_conv4_0/3x3_dwconv/concat_fixed_point_0_split_0
I0906 17:57:49.242138 36245 net.cpp:382] conv4_0/3x3_dwconv/concat_conv4_0/3x3_dwconv/concat_fixed_point_0_split -> conv4_0/3x3_dwconv/concat_conv4_0/3x3_dwconv/concat_fixed_point_0_split_1
I0906 17:57:49.242183 36245 net.cpp:124] Setting up conv4_0/3x3_dwconv/concat_conv4_0/3x3_dwconv/concat_fixed_point_0_split
I0906 17:57:49.242190 36245 net.cpp:131] Top shape: 50 96 28 28 (3763200)
I0906 17:57:49.242194 36245 net.cpp:131] Top shape: 50 96 28 28 (3763200)
I0906 17:57:49.242198 36245 net.cpp:139] Memory required for data: 1906688600
I0906 17:57:49.242202 36245 layer_factory.hpp:77] Creating layer conv4_0/3x3_dwconv/SE_global_pool
I0906 17:57:49.242213 36245 net.cpp:86] Creating Layer conv4_0/3x3_dwconv/SE_global_pool
I0906 17:57:49.242218 36245 net.cpp:408] conv4_0/3x3_dwconv/SE_global_pool <- conv4_0/3x3_dwconv/concat_conv4_0/3x3_dwconv/concat_fixed_point_0_split_0
I0906 17:57:49.242240 36245 net.cpp:382] conv4_0/3x3_dwconv/SE_global_pool -> conv4_0/3x3_dwconv/SE_global_pool
I0906 17:57:49.242287 36245 net.cpp:124] Setting up conv4_0/3x3_dwconv/SE_global_pool
I0906 17:57:49.242295 36245 net.cpp:131] Top shape: 50 96 1 1 (4800)
I0906 17:57:49.242298 36245 net.cpp:139] Memory required for data: 1906707800
I0906 17:57:49.242302 36245 layer_factory.hpp:77] Creating layer conv4_0/3x3_dwconv/SE_fc1
I0906 17:57:49.242316 36245 net.cpp:86] Creating Layer conv4_0/3x3_dwconv/SE_fc1
I0906 17:57:49.242321 36245 net.cpp:408] conv4_0/3x3_dwconv/SE_fc1 <- conv4_0/3x3_dwconv/SE_global_pool
I0906 17:57:49.242326 36245 net.cpp:382] conv4_0/3x3_dwconv/SE_fc1 -> conv4_0/3x3_dwconv/SE_fc1
I0906 17:57:49.242720 36245 net.cpp:124] Setting up conv4_0/3x3_dwconv/SE_fc1
I0906 17:57:49.242732 36245 net.cpp:131] Top shape: 50 6 1 1 (300)
I0906 17:57:49.242736 36245 net.cpp:139] Memory required for data: 1906709000
I0906 17:57:49.242743 36245 layer_factory.hpp:77] Creating layer conv4_0/3x3_dwconv/SE_fc1/relu
I0906 17:57:49.242750 36245 net.cpp:86] Creating Layer conv4_0/3x3_dwconv/SE_fc1/relu
I0906 17:57:49.242756 36245 net.cpp:408] conv4_0/3x3_dwconv/SE_fc1/relu <- conv4_0/3x3_dwconv/SE_fc1
I0906 17:57:49.242763 36245 net.cpp:369] conv4_0/3x3_dwconv/SE_fc1/relu -> conv4_0/3x3_dwconv/SE_fc1 (in-place)
I0906 17:57:49.243376 36245 net.cpp:124] Setting up conv4_0/3x3_dwconv/SE_fc1/relu
I0906 17:57:49.243387 36245 net.cpp:131] Top shape: 50 6 1 1 (300)
I0906 17:57:49.243393 36245 net.cpp:139] Memory required for data: 1906710200
I0906 17:57:49.243399 36245 layer_factory.hpp:77] Creating layer conv4_0/3x3_dwconv/SE_fc2
I0906 17:57:49.243409 36245 net.cpp:86] Creating Layer conv4_0/3x3_dwconv/SE_fc2
I0906 17:57:49.243413 36245 net.cpp:408] conv4_0/3x3_dwconv/SE_fc2 <- conv4_0/3x3_dwconv/SE_fc1
I0906 17:57:49.243420 36245 net.cpp:382] conv4_0/3x3_dwconv/SE_fc2 -> conv4_0/3x3_dwconv/SE_fc2
I0906 17:57:49.243819 36245 net.cpp:124] Setting up conv4_0/3x3_dwconv/SE_fc2
I0906 17:57:49.243830 36245 net.cpp:131] Top shape: 50 96 1 1 (4800)
I0906 17:57:49.243834 36245 net.cpp:139] Memory required for data: 1906729400
I0906 17:57:49.243840 36245 layer_factory.hpp:77] Creating layer conv4_0/3x3_dwconv/SE_weights
I0906 17:57:49.243851 36245 net.cpp:86] Creating Layer conv4_0/3x3_dwconv/SE_weights
I0906 17:57:49.243856 36245 net.cpp:408] conv4_0/3x3_dwconv/SE_weights <- conv4_0/3x3_dwconv/SE_fc2
I0906 17:57:49.243865 36245 net.cpp:369] conv4_0/3x3_dwconv/SE_weights -> conv4_0/3x3_dwconv/SE_fc2 (in-place)
I0906 17:57:49.244473 36245 net.cpp:124] Setting up conv4_0/3x3_dwconv/SE_weights
I0906 17:57:49.244485 36245 net.cpp:131] Top shape: 50 96 1 1 (4800)
I0906 17:57:49.244488 36245 net.cpp:139] Memory required for data: 1906748600
I0906 17:57:49.244493 36245 layer_factory.hpp:77] Creating layer conv4_0/3x3_dwconv/SE_weights/reshape
I0906 17:57:49.244503 36245 net.cpp:86] Creating Layer conv4_0/3x3_dwconv/SE_weights/reshape
I0906 17:57:49.244508 36245 net.cpp:408] conv4_0/3x3_dwconv/SE_weights/reshape <- conv4_0/3x3_dwconv/SE_fc2
I0906 17:57:49.244515 36245 net.cpp:382] conv4_0/3x3_dwconv/SE_weights/reshape -> conv4_0/3x3_dwconv/SE_weights/reshape
I0906 17:57:49.244565 36245 net.cpp:124] Setting up conv4_0/3x3_dwconv/SE_weights/reshape
I0906 17:57:49.244571 36245 net.cpp:131] Top shape: 50 96 (4800)
I0906 17:57:49.244575 36245 net.cpp:139] Memory required for data: 1906767800
I0906 17:57:49.244581 36245 layer_factory.hpp:77] Creating layer conv4_0/3x3_dwconv/scale
I0906 17:57:49.244593 36245 net.cpp:86] Creating Layer conv4_0/3x3_dwconv/scale
I0906 17:57:49.244599 36245 net.cpp:408] conv4_0/3x3_dwconv/scale <- conv4_0/3x3_dwconv/concat_conv4_0/3x3_dwconv/concat_fixed_point_0_split_1
I0906 17:57:49.244604 36245 net.cpp:408] conv4_0/3x3_dwconv/scale <- conv4_0/3x3_dwconv/SE_weights/reshape
I0906 17:57:49.244611 36245 net.cpp:382] conv4_0/3x3_dwconv/scale -> conv4_0/3x3_dwconv/scale
I0906 17:57:49.244700 36245 net.cpp:124] Setting up conv4_0/3x3_dwconv/scale
I0906 17:57:49.244720 36245 net.cpp:131] Top shape: 50 96 28 28 (3763200)
I0906 17:57:49.244724 36245 net.cpp:139] Memory required for data: 1921820600
I0906 17:57:49.244727 36245 layer_factory.hpp:77] Creating layer conv4_0/3x3_dwconv/scale_fixed_point
I0906 17:57:49.244733 36245 net.cpp:86] Creating Layer conv4_0/3x3_dwconv/scale_fixed_point
I0906 17:57:49.244738 36245 net.cpp:408] conv4_0/3x3_dwconv/scale_fixed_point <- conv4_0/3x3_dwconv/scale
I0906 17:57:49.244745 36245 net.cpp:369] conv4_0/3x3_dwconv/scale_fixed_point -> conv4_0/3x3_dwconv/scale (in-place)
I0906 17:57:49.244776 36245 net.cpp:124] Setting up conv4_0/3x3_dwconv/scale_fixed_point
I0906 17:57:49.244787 36245 net.cpp:131] Top shape: 50 96 28 28 (3763200)
I0906 17:57:49.244791 36245 net.cpp:139] Memory required for data: 1936873400
I0906 17:57:49.244796 36245 layer_factory.hpp:77] Creating layer conv4_0/1x1_decrease
I0906 17:57:49.244807 36245 net.cpp:86] Creating Layer conv4_0/1x1_decrease
I0906 17:57:49.244812 36245 net.cpp:408] conv4_0/1x1_decrease <- conv4_0/3x3_dwconv/scale
I0906 17:57:49.244818 36245 net.cpp:382] conv4_0/1x1_decrease -> conv4_0/1x1_decrease/bn
I0906 17:57:49.245486 36245 net.cpp:124] Setting up conv4_0/1x1_decrease
I0906 17:57:49.245498 36245 net.cpp:131] Top shape: 50 40 28 28 (1568000)
I0906 17:57:49.245517 36245 net.cpp:139] Memory required for data: 1943145400
I0906 17:57:49.245523 36245 layer_factory.hpp:77] Creating layer conv4_0/1x1_decrease/bn_fixed_point
I0906 17:57:49.245532 36245 net.cpp:86] Creating Layer conv4_0/1x1_decrease/bn_fixed_point
I0906 17:57:49.245537 36245 net.cpp:408] conv4_0/1x1_decrease/bn_fixed_point <- conv4_0/1x1_decrease/bn
I0906 17:57:49.245543 36245 net.cpp:369] conv4_0/1x1_decrease/bn_fixed_point -> conv4_0/1x1_decrease/bn (in-place)
I0906 17:57:49.245579 36245 net.cpp:124] Setting up conv4_0/1x1_decrease/bn_fixed_point
I0906 17:57:49.245585 36245 net.cpp:131] Top shape: 50 40 28 28 (1568000)
I0906 17:57:49.245590 36245 net.cpp:139] Memory required for data: 1949417400
I0906 17:57:49.245595 36245 layer_factory.hpp:77] Creating layer conv4_0/1x1_decrease/bn_conv4_0/1x1_decrease/bn_fixed_point_0_split
I0906 17:57:49.245601 36245 net.cpp:86] Creating Layer conv4_0/1x1_decrease/bn_conv4_0/1x1_decrease/bn_fixed_point_0_split
I0906 17:57:49.245606 36245 net.cpp:408] conv4_0/1x1_decrease/bn_conv4_0/1x1_decrease/bn_fixed_point_0_split <- conv4_0/1x1_decrease/bn
I0906 17:57:49.245613 36245 net.cpp:382] conv4_0/1x1_decrease/bn_conv4_0/1x1_decrease/bn_fixed_point_0_split -> conv4_0/1x1_decrease/bn_conv4_0/1x1_decrease/bn_fixed_point_0_split_0
I0906 17:57:49.245622 36245 net.cpp:382] conv4_0/1x1_decrease/bn_conv4_0/1x1_decrease/bn_fixed_point_0_split -> conv4_0/1x1_decrease/bn_conv4_0/1x1_decrease/bn_fixed_point_0_split_1
I0906 17:57:49.245671 36245 net.cpp:124] Setting up conv4_0/1x1_decrease/bn_conv4_0/1x1_decrease/bn_fixed_point_0_split
I0906 17:57:49.245678 36245 net.cpp:131] Top shape: 50 40 28 28 (1568000)
I0906 17:57:49.245682 36245 net.cpp:131] Top shape: 50 40 28 28 (1568000)
I0906 17:57:49.245685 36245 net.cpp:139] Memory required for data: 1961961400
I0906 17:57:49.245688 36245 layer_factory.hpp:77] Creating layer conv4_1/1x1_increase
I0906 17:57:49.245699 36245 net.cpp:86] Creating Layer conv4_1/1x1_increase
I0906 17:57:49.245703 36245 net.cpp:408] conv4_1/1x1_increase <- conv4_0/1x1_decrease/bn_conv4_0/1x1_decrease/bn_fixed_point_0_split_0
I0906 17:57:49.245712 36245 net.cpp:382] conv4_1/1x1_increase -> conv4_1/1x1_increase/bn
I0906 17:57:49.246395 36245 net.cpp:124] Setting up conv4_1/1x1_increase
I0906 17:57:49.246408 36245 net.cpp:131] Top shape: 50 120 28 28 (4704000)
I0906 17:57:49.246412 36245 net.cpp:139] Memory required for data: 1980777400
I0906 17:57:49.246418 36245 layer_factory.hpp:77] Creating layer conv4_1/1x1_increase/relu
I0906 17:57:49.246426 36245 net.cpp:86] Creating Layer conv4_1/1x1_increase/relu
I0906 17:57:49.246444 36245 net.cpp:408] conv4_1/1x1_increase/relu <- conv4_1/1x1_increase/bn
I0906 17:57:49.246450 36245 net.cpp:369] conv4_1/1x1_increase/relu -> conv4_1/1x1_increase/bn (in-place)
I0906 17:57:49.247320 36245 net.cpp:124] Setting up conv4_1/1x1_increase/relu
I0906 17:57:49.247350 36245 net.cpp:131] Top shape: 50 120 28 28 (4704000)
I0906 17:57:49.247354 36245 net.cpp:139] Memory required for data: 1999593400
I0906 17:57:49.247359 36245 layer_factory.hpp:77] Creating layer conv4_1/1x1_increase/bn_fixed_point
I0906 17:57:49.247367 36245 net.cpp:86] Creating Layer conv4_1/1x1_increase/bn_fixed_point
I0906 17:57:49.247387 36245 net.cpp:408] conv4_1/1x1_increase/bn_fixed_point <- conv4_1/1x1_increase/bn
I0906 17:57:49.247395 36245 net.cpp:369] conv4_1/1x1_increase/bn_fixed_point -> conv4_1/1x1_increase/bn (in-place)
I0906 17:57:49.247432 36245 net.cpp:124] Setting up conv4_1/1x1_increase/bn_fixed_point
I0906 17:57:49.247439 36245 net.cpp:131] Top shape: 50 120 28 28 (4704000)
I0906 17:57:49.247442 36245 net.cpp:139] Memory required for data: 2018409400
I0906 17:57:49.247447 36245 layer_factory.hpp:77] Creating layer conv4_1/1x1_increase/slice
I0906 17:57:49.247458 36245 net.cpp:86] Creating Layer conv4_1/1x1_increase/slice
I0906 17:57:49.247463 36245 net.cpp:408] conv4_1/1x1_increase/slice <- conv4_1/1x1_increase/bn
I0906 17:57:49.247478 36245 net.cpp:382] conv4_1/1x1_increase/slice -> conv4_1/1x1_increase/split1
I0906 17:57:49.247486 36245 net.cpp:382] conv4_1/1x1_increase/slice -> conv4_1/1x1_increase/split2
I0906 17:57:49.247532 36245 net.cpp:124] Setting up conv4_1/1x1_increase/slice
I0906 17:57:49.247539 36245 net.cpp:131] Top shape: 50 60 28 28 (2352000)
I0906 17:57:49.247545 36245 net.cpp:131] Top shape: 50 60 28 28 (2352000)
I0906 17:57:49.247547 36245 net.cpp:139] Memory required for data: 2037225400
I0906 17:57:49.247550 36245 layer_factory.hpp:77] Creating layer conv4_1/3x3_dwconv/slice_0
I0906 17:57:49.247561 36245 net.cpp:86] Creating Layer conv4_1/3x3_dwconv/slice_0
I0906 17:57:49.247567 36245 net.cpp:408] conv4_1/3x3_dwconv/slice_0 <- conv4_1/1x1_increase/split1
I0906 17:57:49.247575 36245 net.cpp:382] conv4_1/3x3_dwconv/slice_0 -> conv4_1/3x3_dwconv/slice_0/bn
I0906 17:57:49.248172 36245 net.cpp:124] Setting up conv4_1/3x3_dwconv/slice_0
I0906 17:57:49.248198 36245 net.cpp:131] Top shape: 50 60 28 28 (2352000)
I0906 17:57:49.248203 36245 net.cpp:139] Memory required for data: 2046633400
I0906 17:57:49.248210 36245 layer_factory.hpp:77] Creating layer conv4_1/3x3_dwconv/slice_0/relu
I0906 17:57:49.248217 36245 net.cpp:86] Creating Layer conv4_1/3x3_dwconv/slice_0/relu
I0906 17:57:49.248221 36245 net.cpp:408] conv4_1/3x3_dwconv/slice_0/relu <- conv4_1/3x3_dwconv/slice_0/bn
I0906 17:57:49.248226 36245 net.cpp:369] conv4_1/3x3_dwconv/slice_0/relu -> conv4_1/3x3_dwconv/slice_0/bn (in-place)
I0906 17:57:49.248839 36245 net.cpp:124] Setting up conv4_1/3x3_dwconv/slice_0/relu
I0906 17:57:49.248850 36245 net.cpp:131] Top shape: 50 60 28 28 (2352000)
I0906 17:57:49.248855 36245 net.cpp:139] Memory required for data: 2056041400
I0906 17:57:49.248865 36245 layer_factory.hpp:77] Creating layer conv4_1/3x3_dwconv/slice_1
I0906 17:57:49.248898 36245 net.cpp:86] Creating Layer conv4_1/3x3_dwconv/slice_1
I0906 17:57:49.248904 36245 net.cpp:408] conv4_1/3x3_dwconv/slice_1 <- conv4_1/1x1_increase/split2
I0906 17:57:49.248917 36245 net.cpp:382] conv4_1/3x3_dwconv/slice_1 -> conv4_1/3x3_dwconv/slice_1/bn
I0906 17:57:49.249737 36245 net.cpp:124] Setting up conv4_1/3x3_dwconv/slice_1
I0906 17:57:49.249752 36245 net.cpp:131] Top shape: 50 60 28 28 (2352000)
I0906 17:57:49.249755 36245 net.cpp:139] Memory required for data: 2065449400
I0906 17:57:49.249763 36245 layer_factory.hpp:77] Creating layer conv4_1/3x3_dwconv/slice_1/relu
I0906 17:57:49.249769 36245 net.cpp:86] Creating Layer conv4_1/3x3_dwconv/slice_1/relu
I0906 17:57:49.249775 36245 net.cpp:408] conv4_1/3x3_dwconv/slice_1/relu <- conv4_1/3x3_dwconv/slice_1/bn
I0906 17:57:49.249783 36245 net.cpp:369] conv4_1/3x3_dwconv/slice_1/relu -> conv4_1/3x3_dwconv/slice_1/bn (in-place)
I0906 17:57:49.250404 36245 net.cpp:124] Setting up conv4_1/3x3_dwconv/slice_1/relu
I0906 17:57:49.250428 36245 net.cpp:131] Top shape: 50 60 28 28 (2352000)
I0906 17:57:49.250444 36245 net.cpp:139] Memory required for data: 2074857400
I0906 17:57:49.250448 36245 layer_factory.hpp:77] Creating layer conv4_1/3x3_dwconv/concat
I0906 17:57:49.250455 36245 net.cpp:86] Creating Layer conv4_1/3x3_dwconv/concat
I0906 17:57:49.250459 36245 net.cpp:408] conv4_1/3x3_dwconv/concat <- conv4_1/3x3_dwconv/slice_0/bn
I0906 17:57:49.250464 36245 net.cpp:408] conv4_1/3x3_dwconv/concat <- conv4_1/3x3_dwconv/slice_1/bn
I0906 17:57:49.250469 36245 net.cpp:382] conv4_1/3x3_dwconv/concat -> conv4_1/3x3_dwconv/concat
I0906 17:57:49.250506 36245 net.cpp:124] Setting up conv4_1/3x3_dwconv/concat
I0906 17:57:49.250514 36245 net.cpp:131] Top shape: 50 120 28 28 (4704000)
I0906 17:57:49.250517 36245 net.cpp:139] Memory required for data: 2093673400
I0906 17:57:49.250520 36245 layer_factory.hpp:77] Creating layer conv4_1/3x3_dwconv/concat_fixed_point
I0906 17:57:49.250530 36245 net.cpp:86] Creating Layer conv4_1/3x3_dwconv/concat_fixed_point
I0906 17:57:49.250535 36245 net.cpp:408] conv4_1/3x3_dwconv/concat_fixed_point <- conv4_1/3x3_dwconv/concat
I0906 17:57:49.250540 36245 net.cpp:369] conv4_1/3x3_dwconv/concat_fixed_point -> conv4_1/3x3_dwconv/concat (in-place)
I0906 17:57:49.250571 36245 net.cpp:124] Setting up conv4_1/3x3_dwconv/concat_fixed_point
I0906 17:57:49.250577 36245 net.cpp:131] Top shape: 50 120 28 28 (4704000)
I0906 17:57:49.250581 36245 net.cpp:139] Memory required for data: 2112489400
I0906 17:57:49.250586 36245 layer_factory.hpp:77] Creating layer conv4_1/3x3_dwconv/concat_conv4_1/3x3_dwconv/concat_fixed_point_0_split
I0906 17:57:49.250591 36245 net.cpp:86] Creating Layer conv4_1/3x3_dwconv/concat_conv4_1/3x3_dwconv/concat_fixed_point_0_split
I0906 17:57:49.250596 36245 net.cpp:408] conv4_1/3x3_dwconv/concat_conv4_1/3x3_dwconv/concat_fixed_point_0_split <- conv4_1/3x3_dwconv/concat
I0906 17:57:49.250602 36245 net.cpp:382] conv4_1/3x3_dwconv/concat_conv4_1/3x3_dwconv/concat_fixed_point_0_split -> conv4_1/3x3_dwconv/concat_conv4_1/3x3_dwconv/concat_fixed_point_0_split_0
I0906 17:57:49.250608 36245 net.cpp:382] conv4_1/3x3_dwconv/concat_conv4_1/3x3_dwconv/concat_fixed_point_0_split -> conv4_1/3x3_dwconv/concat_conv4_1/3x3_dwconv/concat_fixed_point_0_split_1
I0906 17:57:49.250649 36245 net.cpp:124] Setting up conv4_1/3x3_dwconv/concat_conv4_1/3x3_dwconv/concat_fixed_point_0_split
I0906 17:57:49.250658 36245 net.cpp:131] Top shape: 50 120 28 28 (4704000)
I0906 17:57:49.250661 36245 net.cpp:131] Top shape: 50 120 28 28 (4704000)
I0906 17:57:49.250665 36245 net.cpp:139] Memory required for data: 2150121400
I0906 17:57:49.250669 36245 layer_factory.hpp:77] Creating layer conv4_1/3x3_dwconv/SE_global_pool
I0906 17:57:49.250679 36245 net.cpp:86] Creating Layer conv4_1/3x3_dwconv/SE_global_pool
I0906 17:57:49.250685 36245 net.cpp:408] conv4_1/3x3_dwconv/SE_global_pool <- conv4_1/3x3_dwconv/concat_conv4_1/3x3_dwconv/concat_fixed_point_0_split_0
I0906 17:57:49.250691 36245 net.cpp:382] conv4_1/3x3_dwconv/SE_global_pool -> conv4_1/3x3_dwconv/SE_global_pool
I0906 17:57:49.250720 36245 net.cpp:124] Setting up conv4_1/3x3_dwconv/SE_global_pool
I0906 17:57:49.250727 36245 net.cpp:131] Top shape: 50 120 1 1 (6000)
I0906 17:57:49.250730 36245 net.cpp:139] Memory required for data: 2150145400
I0906 17:57:49.250735 36245 layer_factory.hpp:77] Creating layer conv4_1/3x3_dwconv/SE_fc1
I0906 17:57:49.250746 36245 net.cpp:86] Creating Layer conv4_1/3x3_dwconv/SE_fc1
I0906 17:57:49.250751 36245 net.cpp:408] conv4_1/3x3_dwconv/SE_fc1 <- conv4_1/3x3_dwconv/SE_global_pool
I0906 17:57:49.250758 36245 net.cpp:382] conv4_1/3x3_dwconv/SE_fc1 -> conv4_1/3x3_dwconv/SE_fc1
I0906 17:57:49.251165 36245 net.cpp:124] Setting up conv4_1/3x3_dwconv/SE_fc1
I0906 17:57:49.251176 36245 net.cpp:131] Top shape: 50 7 1 1 (350)
I0906 17:57:49.251196 36245 net.cpp:139] Memory required for data: 2150146800
I0906 17:57:49.251201 36245 layer_factory.hpp:77] Creating layer conv4_1/3x3_dwconv/SE_fc1/relu
I0906 17:57:49.251207 36245 net.cpp:86] Creating Layer conv4_1/3x3_dwconv/SE_fc1/relu
I0906 17:57:49.251212 36245 net.cpp:408] conv4_1/3x3_dwconv/SE_fc1/relu <- conv4_1/3x3_dwconv/SE_fc1
I0906 17:57:49.251227 36245 net.cpp:369] conv4_1/3x3_dwconv/SE_fc1/relu -> conv4_1/3x3_dwconv/SE_fc1 (in-place)
I0906 17:57:49.252058 36245 net.cpp:124] Setting up conv4_1/3x3_dwconv/SE_fc1/relu
I0906 17:57:49.252075 36245 net.cpp:131] Top shape: 50 7 1 1 (350)
I0906 17:57:49.252097 36245 net.cpp:139] Memory required for data: 2150148200
I0906 17:57:49.252106 36245 layer_factory.hpp:77] Creating layer conv4_1/3x3_dwconv/SE_fc2
I0906 17:57:49.252116 36245 net.cpp:86] Creating Layer conv4_1/3x3_dwconv/SE_fc2
I0906 17:57:49.252120 36245 net.cpp:408] conv4_1/3x3_dwconv/SE_fc2 <- conv4_1/3x3_dwconv/SE_fc1
I0906 17:57:49.252130 36245 net.cpp:382] conv4_1/3x3_dwconv/SE_fc2 -> conv4_1/3x3_dwconv/SE_fc2
I0906 17:57:49.252558 36245 net.cpp:124] Setting up conv4_1/3x3_dwconv/SE_fc2
I0906 17:57:49.252570 36245 net.cpp:131] Top shape: 50 120 1 1 (6000)
I0906 17:57:49.252590 36245 net.cpp:139] Memory required for data: 2150172200
I0906 17:57:49.252596 36245 layer_factory.hpp:77] Creating layer conv4_1/3x3_dwconv/SE_weights
I0906 17:57:49.252602 36245 net.cpp:86] Creating Layer conv4_1/3x3_dwconv/SE_weights
I0906 17:57:49.252606 36245 net.cpp:408] conv4_1/3x3_dwconv/SE_weights <- conv4_1/3x3_dwconv/SE_fc2
I0906 17:57:49.252614 36245 net.cpp:369] conv4_1/3x3_dwconv/SE_weights -> conv4_1/3x3_dwconv/SE_fc2 (in-place)
I0906 17:57:49.253312 36245 net.cpp:124] Setting up conv4_1/3x3_dwconv/SE_weights
I0906 17:57:49.253325 36245 net.cpp:131] Top shape: 50 120 1 1 (6000)
I0906 17:57:49.253345 36245 net.cpp:139] Memory required for data: 2150196200
I0906 17:57:49.253348 36245 layer_factory.hpp:77] Creating layer conv4_1/3x3_dwconv/SE_weights/reshape
I0906 17:57:49.253358 36245 net.cpp:86] Creating Layer conv4_1/3x3_dwconv/SE_weights/reshape
I0906 17:57:49.253362 36245 net.cpp:408] conv4_1/3x3_dwconv/SE_weights/reshape <- conv4_1/3x3_dwconv/SE_fc2
I0906 17:57:49.253368 36245 net.cpp:382] conv4_1/3x3_dwconv/SE_weights/reshape -> conv4_1/3x3_dwconv/SE_weights/reshape
I0906 17:57:49.253404 36245 net.cpp:124] Setting up conv4_1/3x3_dwconv/SE_weights/reshape
I0906 17:57:49.253412 36245 net.cpp:131] Top shape: 50 120 (6000)
I0906 17:57:49.253417 36245 net.cpp:139] Memory required for data: 2150220200
I0906 17:57:49.253419 36245 layer_factory.hpp:77] Creating layer conv4_1/3x3_dwconv/scale
I0906 17:57:49.253427 36245 net.cpp:86] Creating Layer conv4_1/3x3_dwconv/scale
I0906 17:57:49.253432 36245 net.cpp:408] conv4_1/3x3_dwconv/scale <- conv4_1/3x3_dwconv/concat_conv4_1/3x3_dwconv/concat_fixed_point_0_split_1
I0906 17:57:49.253435 36245 net.cpp:408] conv4_1/3x3_dwconv/scale <- conv4_1/3x3_dwconv/SE_weights/reshape
I0906 17:57:49.253443 36245 net.cpp:382] conv4_1/3x3_dwconv/scale -> conv4_1/3x3_dwconv/scale
I0906 17:57:49.253521 36245 net.cpp:124] Setting up conv4_1/3x3_dwconv/scale
I0906 17:57:49.253528 36245 net.cpp:131] Top shape: 50 120 28 28 (4704000)
I0906 17:57:49.253531 36245 net.cpp:139] Memory required for data: 2169036200
I0906 17:57:49.253535 36245 layer_factory.hpp:77] Creating layer conv4_1/3x3_dwconv/scale_fixed_point
I0906 17:57:49.253542 36245 net.cpp:86] Creating Layer conv4_1/3x3_dwconv/scale_fixed_point
I0906 17:57:49.253545 36245 net.cpp:408] conv4_1/3x3_dwconv/scale_fixed_point <- conv4_1/3x3_dwconv/scale
I0906 17:57:49.253551 36245 net.cpp:369] conv4_1/3x3_dwconv/scale_fixed_point -> conv4_1/3x3_dwconv/scale (in-place)
I0906 17:57:49.253578 36245 net.cpp:124] Setting up conv4_1/3x3_dwconv/scale_fixed_point
I0906 17:57:49.253585 36245 net.cpp:131] Top shape: 50 120 28 28 (4704000)
I0906 17:57:49.253588 36245 net.cpp:139] Memory required for data: 2187852200
I0906 17:57:49.253593 36245 layer_factory.hpp:77] Creating layer conv4_1/1x1_decrease
I0906 17:57:49.253604 36245 net.cpp:86] Creating Layer conv4_1/1x1_decrease
I0906 17:57:49.253609 36245 net.cpp:408] conv4_1/1x1_decrease <- conv4_1/3x3_dwconv/scale
I0906 17:57:49.253620 36245 net.cpp:382] conv4_1/1x1_decrease -> conv4_1/1x1_decrease/bn
I0906 17:57:49.254418 36245 net.cpp:124] Setting up conv4_1/1x1_decrease
I0906 17:57:49.254441 36245 net.cpp:131] Top shape: 50 40 28 28 (1568000)
I0906 17:57:49.254459 36245 net.cpp:139] Memory required for data: 2194124200
I0906 17:57:49.254465 36245 layer_factory.hpp:77] Creating layer conv4_1/elt_sum
I0906 17:57:49.254472 36245 net.cpp:86] Creating Layer conv4_1/elt_sum
I0906 17:57:49.254477 36245 net.cpp:408] conv4_1/elt_sum <- conv4_0/1x1_decrease/bn_conv4_0/1x1_decrease/bn_fixed_point_0_split_1
I0906 17:57:49.254482 36245 net.cpp:408] conv4_1/elt_sum <- conv4_1/1x1_decrease/bn
I0906 17:57:49.254488 36245 net.cpp:382] conv4_1/elt_sum -> conv4_1/elt_sum
I0906 17:57:49.254520 36245 net.cpp:124] Setting up conv4_1/elt_sum
I0906 17:57:49.254528 36245 net.cpp:131] Top shape: 50 40 28 28 (1568000)
I0906 17:57:49.254530 36245 net.cpp:139] Memory required for data: 2200396200
I0906 17:57:49.254534 36245 layer_factory.hpp:77] Creating layer conv4_1/elt_sum_fixed_point
I0906 17:57:49.254542 36245 net.cpp:86] Creating Layer conv4_1/elt_sum_fixed_point
I0906 17:57:49.254549 36245 net.cpp:408] conv4_1/elt_sum_fixed_point <- conv4_1/elt_sum
I0906 17:57:49.254570 36245 net.cpp:369] conv4_1/elt_sum_fixed_point -> conv4_1/elt_sum (in-place)
I0906 17:57:49.254596 36245 net.cpp:124] Setting up conv4_1/elt_sum_fixed_point
I0906 17:57:49.254602 36245 net.cpp:131] Top shape: 50 40 28 28 (1568000)
I0906 17:57:49.254606 36245 net.cpp:139] Memory required for data: 2206668200
I0906 17:57:49.254611 36245 layer_factory.hpp:77] Creating layer conv4_1/elt_sum_conv4_1/elt_sum_fixed_point_0_split
I0906 17:57:49.254618 36245 net.cpp:86] Creating Layer conv4_1/elt_sum_conv4_1/elt_sum_fixed_point_0_split
I0906 17:57:49.254622 36245 net.cpp:408] conv4_1/elt_sum_conv4_1/elt_sum_fixed_point_0_split <- conv4_1/elt_sum
I0906 17:57:49.254627 36245 net.cpp:382] conv4_1/elt_sum_conv4_1/elt_sum_fixed_point_0_split -> conv4_1/elt_sum_conv4_1/elt_sum_fixed_point_0_split_0
I0906 17:57:49.254633 36245 net.cpp:382] conv4_1/elt_sum_conv4_1/elt_sum_fixed_point_0_split -> conv4_1/elt_sum_conv4_1/elt_sum_fixed_point_0_split_1
I0906 17:57:49.254674 36245 net.cpp:124] Setting up conv4_1/elt_sum_conv4_1/elt_sum_fixed_point_0_split
I0906 17:57:49.254681 36245 net.cpp:131] Top shape: 50 40 28 28 (1568000)
I0906 17:57:49.254685 36245 net.cpp:131] Top shape: 50 40 28 28 (1568000)
I0906 17:57:49.254688 36245 net.cpp:139] Memory required for data: 2219212200
I0906 17:57:49.254691 36245 layer_factory.hpp:77] Creating layer conv4_2/1x1_increase
I0906 17:57:49.254701 36245 net.cpp:86] Creating Layer conv4_2/1x1_increase
I0906 17:57:49.254706 36245 net.cpp:408] conv4_2/1x1_increase <- conv4_1/elt_sum_conv4_1/elt_sum_fixed_point_0_split_0
I0906 17:57:49.254714 36245 net.cpp:382] conv4_2/1x1_increase -> conv4_2/1x1_increase/bn
I0906 17:57:49.255458 36245 net.cpp:124] Setting up conv4_2/1x1_increase
I0906 17:57:49.255487 36245 net.cpp:131] Top shape: 50 120 28 28 (4704000)
I0906 17:57:49.255491 36245 net.cpp:139] Memory required for data: 2238028200
I0906 17:57:49.255497 36245 layer_factory.hpp:77] Creating layer conv4_2/1x1_increase/relu
I0906 17:57:49.255504 36245 net.cpp:86] Creating Layer conv4_2/1x1_increase/relu
I0906 17:57:49.255508 36245 net.cpp:408] conv4_2/1x1_increase/relu <- conv4_2/1x1_increase/bn
I0906 17:57:49.255513 36245 net.cpp:369] conv4_2/1x1_increase/relu -> conv4_2/1x1_increase/bn (in-place)
I0906 17:57:49.256168 36245 net.cpp:124] Setting up conv4_2/1x1_increase/relu
I0906 17:57:49.256178 36245 net.cpp:131] Top shape: 50 120 28 28 (4704000)
I0906 17:57:49.256197 36245 net.cpp:139] Memory required for data: 2256844200
I0906 17:57:49.256201 36245 layer_factory.hpp:77] Creating layer conv4_2/1x1_increase/bn_fixed_point
I0906 17:57:49.256208 36245 net.cpp:86] Creating Layer conv4_2/1x1_increase/bn_fixed_point
I0906 17:57:49.256212 36245 net.cpp:408] conv4_2/1x1_increase/bn_fixed_point <- conv4_2/1x1_increase/bn
I0906 17:57:49.256219 36245 net.cpp:369] conv4_2/1x1_increase/bn_fixed_point -> conv4_2/1x1_increase/bn (in-place)
I0906 17:57:49.256254 36245 net.cpp:124] Setting up conv4_2/1x1_increase/bn_fixed_point
I0906 17:57:49.256261 36245 net.cpp:131] Top shape: 50 120 28 28 (4704000)
I0906 17:57:49.256275 36245 net.cpp:139] Memory required for data: 2275660200
I0906 17:57:49.256280 36245 layer_factory.hpp:77] Creating layer conv4_2/1x1_increase/slice
I0906 17:57:49.256289 36245 net.cpp:86] Creating Layer conv4_2/1x1_increase/slice
I0906 17:57:49.256307 36245 net.cpp:408] conv4_2/1x1_increase/slice <- conv4_2/1x1_increase/bn
I0906 17:57:49.256314 36245 net.cpp:382] conv4_2/1x1_increase/slice -> conv4_2/1x1_increase/split1
I0906 17:57:49.256322 36245 net.cpp:382] conv4_2/1x1_increase/slice -> conv4_2/1x1_increase/split2
I0906 17:57:49.256367 36245 net.cpp:124] Setting up conv4_2/1x1_increase/slice
I0906 17:57:49.256374 36245 net.cpp:131] Top shape: 50 60 28 28 (2352000)
I0906 17:57:49.256378 36245 net.cpp:131] Top shape: 50 60 28 28 (2352000)
I0906 17:57:49.256382 36245 net.cpp:139] Memory required for data: 2294476200
I0906 17:57:49.256386 36245 layer_factory.hpp:77] Creating layer conv4_2/3x3_dwconv/slice_0
I0906 17:57:49.256397 36245 net.cpp:86] Creating Layer conv4_2/3x3_dwconv/slice_0
I0906 17:57:49.256402 36245 net.cpp:408] conv4_2/3x3_dwconv/slice_0 <- conv4_2/1x1_increase/split1
I0906 17:57:49.256408 36245 net.cpp:382] conv4_2/3x3_dwconv/slice_0 -> conv4_2/3x3_dwconv/slice_0/bn
I0906 17:57:49.256973 36245 net.cpp:124] Setting up conv4_2/3x3_dwconv/slice_0
I0906 17:57:49.256983 36245 net.cpp:131] Top shape: 50 60 28 28 (2352000)
I0906 17:57:49.257002 36245 net.cpp:139] Memory required for data: 2303884200
I0906 17:57:49.257028 36245 layer_factory.hpp:77] Creating layer conv4_2/3x3_dwconv/slice_0/relu
I0906 17:57:49.257036 36245 net.cpp:86] Creating Layer conv4_2/3x3_dwconv/slice_0/relu
I0906 17:57:49.257040 36245 net.cpp:408] conv4_2/3x3_dwconv/slice_0/relu <- conv4_2/3x3_dwconv/slice_0/bn
I0906 17:57:49.257047 36245 net.cpp:369] conv4_2/3x3_dwconv/slice_0/relu -> conv4_2/3x3_dwconv/slice_0/bn (in-place)
I0906 17:57:49.257668 36245 net.cpp:124] Setting up conv4_2/3x3_dwconv/slice_0/relu
I0906 17:57:49.257678 36245 net.cpp:131] Top shape: 50 60 28 28 (2352000)
I0906 17:57:49.257696 36245 net.cpp:139] Memory required for data: 2313292200
I0906 17:57:49.257701 36245 layer_factory.hpp:77] Creating layer conv4_2/3x3_dwconv/slice_1
I0906 17:57:49.257714 36245 net.cpp:86] Creating Layer conv4_2/3x3_dwconv/slice_1
I0906 17:57:49.257719 36245 net.cpp:408] conv4_2/3x3_dwconv/slice_1 <- conv4_2/1x1_increase/split2
I0906 17:57:49.257725 36245 net.cpp:382] conv4_2/3x3_dwconv/slice_1 -> conv4_2/3x3_dwconv/slice_1/bn
I0906 17:57:49.258561 36245 net.cpp:124] Setting up conv4_2/3x3_dwconv/slice_1
I0906 17:57:49.258574 36245 net.cpp:131] Top shape: 50 60 28 28 (2352000)
I0906 17:57:49.258579 36245 net.cpp:139] Memory required for data: 2322700200
I0906 17:57:49.258610 36245 layer_factory.hpp:77] Creating layer conv4_2/3x3_dwconv/slice_1/relu
I0906 17:57:49.258617 36245 net.cpp:86] Creating Layer conv4_2/3x3_dwconv/slice_1/relu
I0906 17:57:49.258621 36245 net.cpp:408] conv4_2/3x3_dwconv/slice_1/relu <- conv4_2/3x3_dwconv/slice_1/bn
I0906 17:57:49.258628 36245 net.cpp:369] conv4_2/3x3_dwconv/slice_1/relu -> conv4_2/3x3_dwconv/slice_1/bn (in-place)
I0906 17:57:49.259493 36245 net.cpp:124] Setting up conv4_2/3x3_dwconv/slice_1/relu
I0906 17:57:49.259521 36245 net.cpp:131] Top shape: 50 60 28 28 (2352000)
I0906 17:57:49.259526 36245 net.cpp:139] Memory required for data: 2332108200
I0906 17:57:49.259529 36245 layer_factory.hpp:77] Creating layer conv4_2/3x3_dwconv/concat
I0906 17:57:49.259536 36245 net.cpp:86] Creating Layer conv4_2/3x3_dwconv/concat
I0906 17:57:49.259542 36245 net.cpp:408] conv4_2/3x3_dwconv/concat <- conv4_2/3x3_dwconv/slice_0/bn
I0906 17:57:49.259562 36245 net.cpp:408] conv4_2/3x3_dwconv/concat <- conv4_2/3x3_dwconv/slice_1/bn
I0906 17:57:49.259582 36245 net.cpp:382] conv4_2/3x3_dwconv/concat -> conv4_2/3x3_dwconv/concat
I0906 17:57:49.259614 36245 net.cpp:124] Setting up conv4_2/3x3_dwconv/concat
I0906 17:57:49.259622 36245 net.cpp:131] Top shape: 50 120 28 28 (4704000)
I0906 17:57:49.259642 36245 net.cpp:139] Memory required for data: 2350924200
I0906 17:57:49.259660 36245 layer_factory.hpp:77] Creating layer conv4_2/3x3_dwconv/concat_fixed_point
I0906 17:57:49.259667 36245 net.cpp:86] Creating Layer conv4_2/3x3_dwconv/concat_fixed_point
I0906 17:57:49.259671 36245 net.cpp:408] conv4_2/3x3_dwconv/concat_fixed_point <- conv4_2/3x3_dwconv/concat
I0906 17:57:49.259678 36245 net.cpp:369] conv4_2/3x3_dwconv/concat_fixed_point -> conv4_2/3x3_dwconv/concat (in-place)
I0906 17:57:49.259711 36245 net.cpp:124] Setting up conv4_2/3x3_dwconv/concat_fixed_point
I0906 17:57:49.259717 36245 net.cpp:131] Top shape: 50 120 28 28 (4704000)
I0906 17:57:49.259721 36245 net.cpp:139] Memory required for data: 2369740200
I0906 17:57:49.259726 36245 layer_factory.hpp:77] Creating layer conv4_2/3x3_dwconv/concat_conv4_2/3x3_dwconv/concat_fixed_point_0_split
I0906 17:57:49.259733 36245 net.cpp:86] Creating Layer conv4_2/3x3_dwconv/concat_conv4_2/3x3_dwconv/concat_fixed_point_0_split
I0906 17:57:49.259737 36245 net.cpp:408] conv4_2/3x3_dwconv/concat_conv4_2/3x3_dwconv/concat_fixed_point_0_split <- conv4_2/3x3_dwconv/concat
I0906 17:57:49.259742 36245 net.cpp:382] conv4_2/3x3_dwconv/concat_conv4_2/3x3_dwconv/concat_fixed_point_0_split -> conv4_2/3x3_dwconv/concat_conv4_2/3x3_dwconv/concat_fixed_point_0_split_0
I0906 17:57:49.259748 36245 net.cpp:382] conv4_2/3x3_dwconv/concat_conv4_2/3x3_dwconv/concat_fixed_point_0_split -> conv4_2/3x3_dwconv/concat_conv4_2/3x3_dwconv/concat_fixed_point_0_split_1
I0906 17:57:49.259793 36245 net.cpp:124] Setting up conv4_2/3x3_dwconv/concat_conv4_2/3x3_dwconv/concat_fixed_point_0_split
I0906 17:57:49.259799 36245 net.cpp:131] Top shape: 50 120 28 28 (4704000)
I0906 17:57:49.259802 36245 net.cpp:131] Top shape: 50 120 28 28 (4704000)
I0906 17:57:49.259806 36245 net.cpp:139] Memory required for data: 2407372200
I0906 17:57:49.259809 36245 layer_factory.hpp:77] Creating layer conv4_2/3x3_dwconv/SE_global_pool
I0906 17:57:49.259815 36245 net.cpp:86] Creating Layer conv4_2/3x3_dwconv/SE_global_pool
I0906 17:57:49.259819 36245 net.cpp:408] conv4_2/3x3_dwconv/SE_global_pool <- conv4_2/3x3_dwconv/concat_conv4_2/3x3_dwconv/concat_fixed_point_0_split_0
I0906 17:57:49.259825 36245 net.cpp:382] conv4_2/3x3_dwconv/SE_global_pool -> conv4_2/3x3_dwconv/SE_global_pool
I0906 17:57:49.259852 36245 net.cpp:124] Setting up conv4_2/3x3_dwconv/SE_global_pool
I0906 17:57:49.259860 36245 net.cpp:131] Top shape: 50 120 1 1 (6000)
I0906 17:57:49.259862 36245 net.cpp:139] Memory required for data: 2407396200
I0906 17:57:49.259865 36245 layer_factory.hpp:77] Creating layer conv4_2/3x3_dwconv/SE_fc1
I0906 17:57:49.259876 36245 net.cpp:86] Creating Layer conv4_2/3x3_dwconv/SE_fc1
I0906 17:57:49.259879 36245 net.cpp:408] conv4_2/3x3_dwconv/SE_fc1 <- conv4_2/3x3_dwconv/SE_global_pool
I0906 17:57:49.259886 36245 net.cpp:382] conv4_2/3x3_dwconv/SE_fc1 -> conv4_2/3x3_dwconv/SE_fc1
I0906 17:57:49.260366 36245 net.cpp:124] Setting up conv4_2/3x3_dwconv/SE_fc1
I0906 17:57:49.260377 36245 net.cpp:131] Top shape: 50 7 1 1 (350)
I0906 17:57:49.260396 36245 net.cpp:139] Memory required for data: 2407397600
I0906 17:57:49.260402 36245 layer_factory.hpp:77] Creating layer conv4_2/3x3_dwconv/SE_fc1/relu
I0906 17:57:49.260408 36245 net.cpp:86] Creating Layer conv4_2/3x3_dwconv/SE_fc1/relu
I0906 17:57:49.260412 36245 net.cpp:408] conv4_2/3x3_dwconv/SE_fc1/relu <- conv4_2/3x3_dwconv/SE_fc1
I0906 17:57:49.260417 36245 net.cpp:369] conv4_2/3x3_dwconv/SE_fc1/relu -> conv4_2/3x3_dwconv/SE_fc1 (in-place)
I0906 17:57:49.260994 36245 net.cpp:124] Setting up conv4_2/3x3_dwconv/SE_fc1/relu
I0906 17:57:49.261004 36245 net.cpp:131] Top shape: 50 7 1 1 (350)
I0906 17:57:49.261029 36245 net.cpp:139] Memory required for data: 2407399000
I0906 17:57:49.261032 36245 layer_factory.hpp:77] Creating layer conv4_2/3x3_dwconv/SE_fc2
I0906 17:57:49.261042 36245 net.cpp:86] Creating Layer conv4_2/3x3_dwconv/SE_fc2
I0906 17:57:49.261047 36245 net.cpp:408] conv4_2/3x3_dwconv/SE_fc2 <- conv4_2/3x3_dwconv/SE_fc1
I0906 17:57:49.261054 36245 net.cpp:382] conv4_2/3x3_dwconv/SE_fc2 -> conv4_2/3x3_dwconv/SE_fc2
I0906 17:57:49.261451 36245 net.cpp:124] Setting up conv4_2/3x3_dwconv/SE_fc2
I0906 17:57:49.261472 36245 net.cpp:131] Top shape: 50 120 1 1 (6000)
I0906 17:57:49.261492 36245 net.cpp:139] Memory required for data: 2407423000
I0906 17:57:49.261497 36245 layer_factory.hpp:77] Creating layer conv4_2/3x3_dwconv/SE_weights
I0906 17:57:49.261502 36245 net.cpp:86] Creating Layer conv4_2/3x3_dwconv/SE_weights
I0906 17:57:49.261507 36245 net.cpp:408] conv4_2/3x3_dwconv/SE_weights <- conv4_2/3x3_dwconv/SE_fc2
I0906 17:57:49.261512 36245 net.cpp:369] conv4_2/3x3_dwconv/SE_weights -> conv4_2/3x3_dwconv/SE_fc2 (in-place)
I0906 17:57:49.262115 36245 net.cpp:124] Setting up conv4_2/3x3_dwconv/SE_weights
I0906 17:57:49.262125 36245 net.cpp:131] Top shape: 50 120 1 1 (6000)
I0906 17:57:49.262142 36245 net.cpp:139] Memory required for data: 2407447000
I0906 17:57:49.262146 36245 layer_factory.hpp:77] Creating layer conv4_2/3x3_dwconv/SE_weights/reshape
I0906 17:57:49.262167 36245 net.cpp:86] Creating Layer conv4_2/3x3_dwconv/SE_weights/reshape
I0906 17:57:49.262171 36245 net.cpp:408] conv4_2/3x3_dwconv/SE_weights/reshape <- conv4_2/3x3_dwconv/SE_fc2
I0906 17:57:49.262177 36245 net.cpp:382] conv4_2/3x3_dwconv/SE_weights/reshape -> conv4_2/3x3_dwconv/SE_weights/reshape
I0906 17:57:49.262213 36245 net.cpp:124] Setting up conv4_2/3x3_dwconv/SE_weights/reshape
I0906 17:57:49.262220 36245 net.cpp:131] Top shape: 50 120 (6000)
I0906 17:57:49.262223 36245 net.cpp:139] Memory required for data: 2407471000
I0906 17:57:49.262228 36245 layer_factory.hpp:77] Creating layer conv4_2/3x3_dwconv/scale
I0906 17:57:49.262238 36245 net.cpp:86] Creating Layer conv4_2/3x3_dwconv/scale
I0906 17:57:49.262241 36245 net.cpp:408] conv4_2/3x3_dwconv/scale <- conv4_2/3x3_dwconv/concat_conv4_2/3x3_dwconv/concat_fixed_point_0_split_1
I0906 17:57:49.262246 36245 net.cpp:408] conv4_2/3x3_dwconv/scale <- conv4_2/3x3_dwconv/SE_weights/reshape
I0906 17:57:49.262251 36245 net.cpp:382] conv4_2/3x3_dwconv/scale -> conv4_2/3x3_dwconv/scale
I0906 17:57:49.262332 36245 net.cpp:124] Setting up conv4_2/3x3_dwconv/scale
I0906 17:57:49.262339 36245 net.cpp:131] Top shape: 50 120 28 28 (4704000)
I0906 17:57:49.262342 36245 net.cpp:139] Memory required for data: 2426287000
I0906 17:57:49.262346 36245 layer_factory.hpp:77] Creating layer conv4_2/3x3_dwconv/scale_fixed_point
I0906 17:57:49.262353 36245 net.cpp:86] Creating Layer conv4_2/3x3_dwconv/scale_fixed_point
I0906 17:57:49.262357 36245 net.cpp:408] conv4_2/3x3_dwconv/scale_fixed_point <- conv4_2/3x3_dwconv/scale
I0906 17:57:49.262363 36245 net.cpp:369] conv4_2/3x3_dwconv/scale_fixed_point -> conv4_2/3x3_dwconv/scale (in-place)
I0906 17:57:49.262404 36245 net.cpp:124] Setting up conv4_2/3x3_dwconv/scale_fixed_point
I0906 17:57:49.262410 36245 net.cpp:131] Top shape: 50 120 28 28 (4704000)
I0906 17:57:49.262413 36245 net.cpp:139] Memory required for data: 2445103000
I0906 17:57:49.262418 36245 layer_factory.hpp:77] Creating layer conv4_2/1x1_decrease
I0906 17:57:49.262429 36245 net.cpp:86] Creating Layer conv4_2/1x1_decrease
I0906 17:57:49.262434 36245 net.cpp:408] conv4_2/1x1_decrease <- conv4_2/3x3_dwconv/scale
I0906 17:57:49.262439 36245 net.cpp:382] conv4_2/1x1_decrease -> conv4_2/1x1_decrease/bn
I0906 17:57:49.263200 36245 net.cpp:124] Setting up conv4_2/1x1_decrease
I0906 17:57:49.263211 36245 net.cpp:131] Top shape: 50 40 28 28 (1568000)
I0906 17:57:49.263214 36245 net.cpp:139] Memory required for data: 2451375000
I0906 17:57:49.263222 36245 layer_factory.hpp:77] Creating layer conv4_2/elt_sum
I0906 17:57:49.263242 36245 net.cpp:86] Creating Layer conv4_2/elt_sum
I0906 17:57:49.263245 36245 net.cpp:408] conv4_2/elt_sum <- conv4_1/elt_sum_conv4_1/elt_sum_fixed_point_0_split_1
I0906 17:57:49.263250 36245 net.cpp:408] conv4_2/elt_sum <- conv4_2/1x1_decrease/bn
I0906 17:57:49.263255 36245 net.cpp:382] conv4_2/elt_sum -> conv4_2/elt_sum
I0906 17:57:49.263288 36245 net.cpp:124] Setting up conv4_2/elt_sum
I0906 17:57:49.263293 36245 net.cpp:131] Top shape: 50 40 28 28 (1568000)
I0906 17:57:49.263296 36245 net.cpp:139] Memory required for data: 2457647000
I0906 17:57:49.263312 36245 layer_factory.hpp:77] Creating layer conv4_2/elt_sum_fixed_point
I0906 17:57:49.263320 36245 net.cpp:86] Creating Layer conv4_2/elt_sum_fixed_point
I0906 17:57:49.263325 36245 net.cpp:408] conv4_2/elt_sum_fixed_point <- conv4_2/elt_sum
I0906 17:57:49.263331 36245 net.cpp:369] conv4_2/elt_sum_fixed_point -> conv4_2/elt_sum (in-place)
I0906 17:57:49.263375 36245 net.cpp:124] Setting up conv4_2/elt_sum_fixed_point
I0906 17:57:49.263381 36245 net.cpp:131] Top shape: 50 40 28 28 (1568000)
I0906 17:57:49.263384 36245 net.cpp:139] Memory required for data: 2463919000
I0906 17:57:49.263391 36245 layer_factory.hpp:77] Creating layer conv4_2/elt_sum_conv4_2/elt_sum_fixed_point_0_split
I0906 17:57:49.263397 36245 net.cpp:86] Creating Layer conv4_2/elt_sum_conv4_2/elt_sum_fixed_point_0_split
I0906 17:57:49.263401 36245 net.cpp:408] conv4_2/elt_sum_conv4_2/elt_sum_fixed_point_0_split <- conv4_2/elt_sum
I0906 17:57:49.263406 36245 net.cpp:382] conv4_2/elt_sum_conv4_2/elt_sum_fixed_point_0_split -> conv4_2/elt_sum_conv4_2/elt_sum_fixed_point_0_split_0
I0906 17:57:49.263413 36245 net.cpp:382] conv4_2/elt_sum_conv4_2/elt_sum_fixed_point_0_split -> conv4_2/elt_sum_conv4_2/elt_sum_fixed_point_0_split_1
I0906 17:57:49.263453 36245 net.cpp:124] Setting up conv4_2/elt_sum_conv4_2/elt_sum_fixed_point_0_split
I0906 17:57:49.263459 36245 net.cpp:131] Top shape: 50 40 28 28 (1568000)
I0906 17:57:49.263463 36245 net.cpp:131] Top shape: 50 40 28 28 (1568000)
I0906 17:57:49.263466 36245 net.cpp:139] Memory required for data: 2476463000
I0906 17:57:49.263470 36245 layer_factory.hpp:77] Creating layer conv4_3/1x1_increase
I0906 17:57:49.263480 36245 net.cpp:86] Creating Layer conv4_3/1x1_increase
I0906 17:57:49.263484 36245 net.cpp:408] conv4_3/1x1_increase <- conv4_2/elt_sum_conv4_2/elt_sum_fixed_point_0_split_0
I0906 17:57:49.263492 36245 net.cpp:382] conv4_3/1x1_increase -> conv4_3/1x1_increase/bn
I0906 17:57:49.264423 36245 net.cpp:124] Setting up conv4_3/1x1_increase
I0906 17:57:49.264436 36245 net.cpp:131] Top shape: 50 120 28 28 (4704000)
I0906 17:57:49.264439 36245 net.cpp:139] Memory required for data: 2495279000
I0906 17:57:49.264446 36245 layer_factory.hpp:77] Creating layer conv4_3/1x1_increase/relu
I0906 17:57:49.264456 36245 net.cpp:86] Creating Layer conv4_3/1x1_increase/relu
I0906 17:57:49.264459 36245 net.cpp:408] conv4_3/1x1_increase/relu <- conv4_3/1x1_increase/bn
I0906 17:57:49.264464 36245 net.cpp:369] conv4_3/1x1_increase/relu -> conv4_3/1x1_increase/bn (in-place)
I0906 17:57:49.265377 36245 net.cpp:124] Setting up conv4_3/1x1_increase/relu
I0906 17:57:49.265408 36245 net.cpp:131] Top shape: 50 120 28 28 (4704000)
I0906 17:57:49.265413 36245 net.cpp:139] Memory required for data: 2514095000
I0906 17:57:49.265416 36245 layer_factory.hpp:77] Creating layer conv4_3/1x1_increase/bn_fixed_point
I0906 17:57:49.265424 36245 net.cpp:86] Creating Layer conv4_3/1x1_increase/bn_fixed_point
I0906 17:57:49.265427 36245 net.cpp:408] conv4_3/1x1_increase/bn_fixed_point <- conv4_3/1x1_increase/bn
I0906 17:57:49.265445 36245 net.cpp:369] conv4_3/1x1_increase/bn_fixed_point -> conv4_3/1x1_increase/bn (in-place)
I0906 17:57:49.265480 36245 net.cpp:124] Setting up conv4_3/1x1_increase/bn_fixed_point
I0906 17:57:49.265487 36245 net.cpp:131] Top shape: 50 120 28 28 (4704000)
I0906 17:57:49.265491 36245 net.cpp:139] Memory required for data: 2532911000
I0906 17:57:49.265496 36245 layer_factory.hpp:77] Creating layer conv4_3/1x1_increase/slice
I0906 17:57:49.265506 36245 net.cpp:86] Creating Layer conv4_3/1x1_increase/slice
I0906 17:57:49.265511 36245 net.cpp:408] conv4_3/1x1_increase/slice <- conv4_3/1x1_increase/bn
I0906 17:57:49.265516 36245 net.cpp:382] conv4_3/1x1_increase/slice -> conv4_3/1x1_increase/split1
I0906 17:57:49.265522 36245 net.cpp:382] conv4_3/1x1_increase/slice -> conv4_3/1x1_increase/split2
I0906 17:57:49.265571 36245 net.cpp:124] Setting up conv4_3/1x1_increase/slice
I0906 17:57:49.265578 36245 net.cpp:131] Top shape: 50 60 28 28 (2352000)
I0906 17:57:49.265581 36245 net.cpp:131] Top shape: 50 60 28 28 (2352000)
I0906 17:57:49.265597 36245 net.cpp:139] Memory required for data: 2551727000
I0906 17:57:49.265601 36245 layer_factory.hpp:77] Creating layer conv4_3/3x3_dwconv/slice_0
I0906 17:57:49.265614 36245 net.cpp:86] Creating Layer conv4_3/3x3_dwconv/slice_0
I0906 17:57:49.265619 36245 net.cpp:408] conv4_3/3x3_dwconv/slice_0 <- conv4_3/1x1_increase/split1
I0906 17:57:49.265626 36245 net.cpp:382] conv4_3/3x3_dwconv/slice_0 -> conv4_3/3x3_dwconv/slice_0/bn
I0906 17:57:49.266216 36245 net.cpp:124] Setting up conv4_3/3x3_dwconv/slice_0
I0906 17:57:49.266227 36245 net.cpp:131] Top shape: 50 60 28 28 (2352000)
I0906 17:57:49.266230 36245 net.cpp:139] Memory required for data: 2561135000
I0906 17:57:49.266238 36245 layer_factory.hpp:77] Creating layer conv4_3/3x3_dwconv/slice_0/relu
I0906 17:57:49.266247 36245 net.cpp:86] Creating Layer conv4_3/3x3_dwconv/slice_0/relu
I0906 17:57:49.266252 36245 net.cpp:408] conv4_3/3x3_dwconv/slice_0/relu <- conv4_3/3x3_dwconv/slice_0/bn
I0906 17:57:49.266258 36245 net.cpp:369] conv4_3/3x3_dwconv/slice_0/relu -> conv4_3/3x3_dwconv/slice_0/bn (in-place)
I0906 17:57:49.266875 36245 net.cpp:124] Setting up conv4_3/3x3_dwconv/slice_0/relu
I0906 17:57:49.266886 36245 net.cpp:131] Top shape: 50 60 28 28 (2352000)
I0906 17:57:49.266906 36245 net.cpp:139] Memory required for data: 2570543000
I0906 17:57:49.266909 36245 layer_factory.hpp:77] Creating layer conv4_3/3x3_dwconv/slice_1
I0906 17:57:49.266945 36245 net.cpp:86] Creating Layer conv4_3/3x3_dwconv/slice_1
I0906 17:57:49.266952 36245 net.cpp:408] conv4_3/3x3_dwconv/slice_1 <- conv4_3/1x1_increase/split2
I0906 17:57:49.266961 36245 net.cpp:382] conv4_3/3x3_dwconv/slice_1 -> conv4_3/3x3_dwconv/slice_1/bn
I0906 17:57:49.267786 36245 net.cpp:124] Setting up conv4_3/3x3_dwconv/slice_1
I0906 17:57:49.267797 36245 net.cpp:131] Top shape: 50 60 28 28 (2352000)
I0906 17:57:49.267802 36245 net.cpp:139] Memory required for data: 2579951000
I0906 17:57:49.267819 36245 layer_factory.hpp:77] Creating layer conv4_3/3x3_dwconv/slice_1/relu
I0906 17:57:49.267827 36245 net.cpp:86] Creating Layer conv4_3/3x3_dwconv/slice_1/relu
I0906 17:57:49.267832 36245 net.cpp:408] conv4_3/3x3_dwconv/slice_1/relu <- conv4_3/3x3_dwconv/slice_1/bn
I0906 17:57:49.267837 36245 net.cpp:369] conv4_3/3x3_dwconv/slice_1/relu -> conv4_3/3x3_dwconv/slice_1/bn (in-place)
I0906 17:57:49.268497 36245 net.cpp:124] Setting up conv4_3/3x3_dwconv/slice_1/relu
I0906 17:57:49.268508 36245 net.cpp:131] Top shape: 50 60 28 28 (2352000)
I0906 17:57:49.268528 36245 net.cpp:139] Memory required for data: 2589359000
I0906 17:57:49.268532 36245 layer_factory.hpp:77] Creating layer conv4_3/3x3_dwconv/concat
I0906 17:57:49.268537 36245 net.cpp:86] Creating Layer conv4_3/3x3_dwconv/concat
I0906 17:57:49.268541 36245 net.cpp:408] conv4_3/3x3_dwconv/concat <- conv4_3/3x3_dwconv/slice_0/bn
I0906 17:57:49.268545 36245 net.cpp:408] conv4_3/3x3_dwconv/concat <- conv4_3/3x3_dwconv/slice_1/bn
I0906 17:57:49.268564 36245 net.cpp:382] conv4_3/3x3_dwconv/concat -> conv4_3/3x3_dwconv/concat
I0906 17:57:49.268599 36245 net.cpp:124] Setting up conv4_3/3x3_dwconv/concat
I0906 17:57:49.268606 36245 net.cpp:131] Top shape: 50 120 28 28 (4704000)
I0906 17:57:49.268610 36245 net.cpp:139] Memory required for data: 2608175000
I0906 17:57:49.268613 36245 layer_factory.hpp:77] Creating layer conv4_3/3x3_dwconv/concat_fixed_point
I0906 17:57:49.268631 36245 net.cpp:86] Creating Layer conv4_3/3x3_dwconv/concat_fixed_point
I0906 17:57:49.268635 36245 net.cpp:408] conv4_3/3x3_dwconv/concat_fixed_point <- conv4_3/3x3_dwconv/concat
I0906 17:57:49.268641 36245 net.cpp:369] conv4_3/3x3_dwconv/concat_fixed_point -> conv4_3/3x3_dwconv/concat (in-place)
I0906 17:57:49.268671 36245 net.cpp:124] Setting up conv4_3/3x3_dwconv/concat_fixed_point
I0906 17:57:49.268677 36245 net.cpp:131] Top shape: 50 120 28 28 (4704000)
I0906 17:57:49.268680 36245 net.cpp:139] Memory required for data: 2626991000
I0906 17:57:49.268685 36245 layer_factory.hpp:77] Creating layer conv4_3/3x3_dwconv/concat_conv4_3/3x3_dwconv/concat_fixed_point_0_split
I0906 17:57:49.268704 36245 net.cpp:86] Creating Layer conv4_3/3x3_dwconv/concat_conv4_3/3x3_dwconv/concat_fixed_point_0_split
I0906 17:57:49.268709 36245 net.cpp:408] conv4_3/3x3_dwconv/concat_conv4_3/3x3_dwconv/concat_fixed_point_0_split <- conv4_3/3x3_dwconv/concat
I0906 17:57:49.268714 36245 net.cpp:382] conv4_3/3x3_dwconv/concat_conv4_3/3x3_dwconv/concat_fixed_point_0_split -> conv4_3/3x3_dwconv/concat_conv4_3/3x3_dwconv/concat_fixed_point_0_split_0
I0906 17:57:49.268721 36245 net.cpp:382] conv4_3/3x3_dwconv/concat_conv4_3/3x3_dwconv/concat_fixed_point_0_split -> conv4_3/3x3_dwconv/concat_conv4_3/3x3_dwconv/concat_fixed_point_0_split_1
I0906 17:57:49.268777 36245 net.cpp:124] Setting up conv4_3/3x3_dwconv/concat_conv4_3/3x3_dwconv/concat_fixed_point_0_split
I0906 17:57:49.268786 36245 net.cpp:131] Top shape: 50 120 28 28 (4704000)
I0906 17:57:49.268791 36245 net.cpp:131] Top shape: 50 120 28 28 (4704000)
I0906 17:57:49.268795 36245 net.cpp:139] Memory required for data: 2664623000
I0906 17:57:49.268797 36245 layer_factory.hpp:77] Creating layer conv4_3/3x3_dwconv/SE_global_pool
I0906 17:57:49.268805 36245 net.cpp:86] Creating Layer conv4_3/3x3_dwconv/SE_global_pool
I0906 17:57:49.268810 36245 net.cpp:408] conv4_3/3x3_dwconv/SE_global_pool <- conv4_3/3x3_dwconv/concat_conv4_3/3x3_dwconv/concat_fixed_point_0_split_0
I0906 17:57:49.268815 36245 net.cpp:382] conv4_3/3x3_dwconv/SE_global_pool -> conv4_3/3x3_dwconv/SE_global_pool
I0906 17:57:49.268857 36245 net.cpp:124] Setting up conv4_3/3x3_dwconv/SE_global_pool
I0906 17:57:49.268863 36245 net.cpp:131] Top shape: 50 120 1 1 (6000)
I0906 17:57:49.268867 36245 net.cpp:139] Memory required for data: 2664647000
I0906 17:57:49.268869 36245 layer_factory.hpp:77] Creating layer conv4_3/3x3_dwconv/SE_fc1
I0906 17:57:49.268880 36245 net.cpp:86] Creating Layer conv4_3/3x3_dwconv/SE_fc1
I0906 17:57:49.268884 36245 net.cpp:408] conv4_3/3x3_dwconv/SE_fc1 <- conv4_3/3x3_dwconv/SE_global_pool
I0906 17:57:49.268893 36245 net.cpp:382] conv4_3/3x3_dwconv/SE_fc1 -> conv4_3/3x3_dwconv/SE_fc1
I0906 17:57:49.269299 36245 net.cpp:124] Setting up conv4_3/3x3_dwconv/SE_fc1
I0906 17:57:49.269310 36245 net.cpp:131] Top shape: 50 7 1 1 (350)
I0906 17:57:49.269330 36245 net.cpp:139] Memory required for data: 2664648400
I0906 17:57:49.269335 36245 layer_factory.hpp:77] Creating layer conv4_3/3x3_dwconv/SE_fc1/relu
I0906 17:57:49.269342 36245 net.cpp:86] Creating Layer conv4_3/3x3_dwconv/SE_fc1/relu
I0906 17:57:49.269346 36245 net.cpp:408] conv4_3/3x3_dwconv/SE_fc1/relu <- conv4_3/3x3_dwconv/SE_fc1
I0906 17:57:49.269351 36245 net.cpp:369] conv4_3/3x3_dwconv/SE_fc1/relu -> conv4_3/3x3_dwconv/SE_fc1 (in-place)
I0906 17:57:49.270237 36245 net.cpp:124] Setting up conv4_3/3x3_dwconv/SE_fc1/relu
I0906 17:57:49.270251 36245 net.cpp:131] Top shape: 50 7 1 1 (350)
I0906 17:57:49.270272 36245 net.cpp:139] Memory required for data: 2664649800
I0906 17:57:49.270275 36245 layer_factory.hpp:77] Creating layer conv4_3/3x3_dwconv/SE_fc2
I0906 17:57:49.270288 36245 net.cpp:86] Creating Layer conv4_3/3x3_dwconv/SE_fc2
I0906 17:57:49.270293 36245 net.cpp:408] conv4_3/3x3_dwconv/SE_fc2 <- conv4_3/3x3_dwconv/SE_fc1
I0906 17:57:49.270303 36245 net.cpp:382] conv4_3/3x3_dwconv/SE_fc2 -> conv4_3/3x3_dwconv/SE_fc2
I0906 17:57:49.270743 36245 net.cpp:124] Setting up conv4_3/3x3_dwconv/SE_fc2
I0906 17:57:49.270754 36245 net.cpp:131] Top shape: 50 120 1 1 (6000)
I0906 17:57:49.270774 36245 net.cpp:139] Memory required for data: 2664673800
I0906 17:57:49.270779 36245 layer_factory.hpp:77] Creating layer conv4_3/3x3_dwconv/SE_weights
I0906 17:57:49.270786 36245 net.cpp:86] Creating Layer conv4_3/3x3_dwconv/SE_weights
I0906 17:57:49.270789 36245 net.cpp:408] conv4_3/3x3_dwconv/SE_weights <- conv4_3/3x3_dwconv/SE_fc2
I0906 17:57:49.270794 36245 net.cpp:369] conv4_3/3x3_dwconv/SE_weights -> conv4_3/3x3_dwconv/SE_fc2 (in-place)
I0906 17:57:49.271401 36245 net.cpp:124] Setting up conv4_3/3x3_dwconv/SE_weights
I0906 17:57:49.271412 36245 net.cpp:131] Top shape: 50 120 1 1 (6000)
I0906 17:57:49.271431 36245 net.cpp:139] Memory required for data: 2664697800
I0906 17:57:49.271446 36245 layer_factory.hpp:77] Creating layer conv4_3/3x3_dwconv/SE_weights/reshape
I0906 17:57:49.271468 36245 net.cpp:86] Creating Layer conv4_3/3x3_dwconv/SE_weights/reshape
I0906 17:57:49.271473 36245 net.cpp:408] conv4_3/3x3_dwconv/SE_weights/reshape <- conv4_3/3x3_dwconv/SE_fc2
I0906 17:57:49.271479 36245 net.cpp:382] conv4_3/3x3_dwconv/SE_weights/reshape -> conv4_3/3x3_dwconv/SE_weights/reshape
I0906 17:57:49.271517 36245 net.cpp:124] Setting up conv4_3/3x3_dwconv/SE_weights/reshape
I0906 17:57:49.271523 36245 net.cpp:131] Top shape: 50 120 (6000)
I0906 17:57:49.271528 36245 net.cpp:139] Memory required for data: 2664721800
I0906 17:57:49.271530 36245 layer_factory.hpp:77] Creating layer conv4_3/3x3_dwconv/scale
I0906 17:57:49.271538 36245 net.cpp:86] Creating Layer conv4_3/3x3_dwconv/scale
I0906 17:57:49.271543 36245 net.cpp:408] conv4_3/3x3_dwconv/scale <- conv4_3/3x3_dwconv/concat_conv4_3/3x3_dwconv/concat_fixed_point_0_split_1
I0906 17:57:49.271546 36245 net.cpp:408] conv4_3/3x3_dwconv/scale <- conv4_3/3x3_dwconv/SE_weights/reshape
I0906 17:57:49.271553 36245 net.cpp:382] conv4_3/3x3_dwconv/scale -> conv4_3/3x3_dwconv/scale
I0906 17:57:49.271636 36245 net.cpp:124] Setting up conv4_3/3x3_dwconv/scale
I0906 17:57:49.271643 36245 net.cpp:131] Top shape: 50 120 28 28 (4704000)
I0906 17:57:49.271646 36245 net.cpp:139] Memory required for data: 2683537800
I0906 17:57:49.271649 36245 layer_factory.hpp:77] Creating layer conv4_3/3x3_dwconv/scale_fixed_point
I0906 17:57:49.271657 36245 net.cpp:86] Creating Layer conv4_3/3x3_dwconv/scale_fixed_point
I0906 17:57:49.271661 36245 net.cpp:408] conv4_3/3x3_dwconv/scale_fixed_point <- conv4_3/3x3_dwconv/scale
I0906 17:57:49.271665 36245 net.cpp:369] conv4_3/3x3_dwconv/scale_fixed_point -> conv4_3/3x3_dwconv/scale (in-place)
I0906 17:57:49.271694 36245 net.cpp:124] Setting up conv4_3/3x3_dwconv/scale_fixed_point
I0906 17:57:49.271701 36245 net.cpp:131] Top shape: 50 120 28 28 (4704000)
I0906 17:57:49.271704 36245 net.cpp:139] Memory required for data: 2702353800
I0906 17:57:49.271709 36245 layer_factory.hpp:77] Creating layer conv4_3/1x1_decrease
I0906 17:57:49.271720 36245 net.cpp:86] Creating Layer conv4_3/1x1_decrease
I0906 17:57:49.271724 36245 net.cpp:408] conv4_3/1x1_decrease <- conv4_3/3x3_dwconv/scale
I0906 17:57:49.271736 36245 net.cpp:382] conv4_3/1x1_decrease -> conv4_3/1x1_decrease/bn
I0906 17:57:49.272428 36245 net.cpp:124] Setting up conv4_3/1x1_decrease
I0906 17:57:49.272439 36245 net.cpp:131] Top shape: 50 40 28 28 (1568000)
I0906 17:57:49.272459 36245 net.cpp:139] Memory required for data: 2708625800
I0906 17:57:49.272464 36245 layer_factory.hpp:77] Creating layer conv4_3/elt_sum
I0906 17:57:49.272472 36245 net.cpp:86] Creating Layer conv4_3/elt_sum
I0906 17:57:49.272476 36245 net.cpp:408] conv4_3/elt_sum <- conv4_2/elt_sum_conv4_2/elt_sum_fixed_point_0_split_1
I0906 17:57:49.272492 36245 net.cpp:408] conv4_3/elt_sum <- conv4_3/1x1_decrease/bn
I0906 17:57:49.272500 36245 net.cpp:382] conv4_3/elt_sum -> conv4_3/elt_sum
I0906 17:57:49.272534 36245 net.cpp:124] Setting up conv4_3/elt_sum
I0906 17:57:49.272541 36245 net.cpp:131] Top shape: 50 40 28 28 (1568000)
I0906 17:57:49.272544 36245 net.cpp:139] Memory required for data: 2714897800
I0906 17:57:49.272547 36245 layer_factory.hpp:77] Creating layer conv4_3/elt_sum_fixed_point
I0906 17:57:49.272552 36245 net.cpp:86] Creating Layer conv4_3/elt_sum_fixed_point
I0906 17:57:49.272557 36245 net.cpp:408] conv4_3/elt_sum_fixed_point <- conv4_3/elt_sum
I0906 17:57:49.272562 36245 net.cpp:369] conv4_3/elt_sum_fixed_point -> conv4_3/elt_sum (in-place)
I0906 17:57:49.272589 36245 net.cpp:124] Setting up conv4_3/elt_sum_fixed_point
I0906 17:57:49.272598 36245 net.cpp:131] Top shape: 50 40 28 28 (1568000)
I0906 17:57:49.272600 36245 net.cpp:139] Memory required for data: 2721169800
I0906 17:57:49.272604 36245 layer_factory.hpp:77] Creating layer conv5_0/1x1_increase
I0906 17:57:49.272615 36245 net.cpp:86] Creating Layer conv5_0/1x1_increase
I0906 17:57:49.272619 36245 net.cpp:408] conv5_0/1x1_increase <- conv4_3/elt_sum
I0906 17:57:49.272636 36245 net.cpp:382] conv5_0/1x1_increase -> conv5_0/1x1_increase/bn
I0906 17:57:49.273475 36245 net.cpp:124] Setting up conv5_0/1x1_increase
I0906 17:57:49.273488 36245 net.cpp:131] Top shape: 50 240 28 28 (9408000)
I0906 17:57:49.273491 36245 net.cpp:139] Memory required for data: 2758801800
I0906 17:57:49.273499 36245 layer_factory.hpp:77] Creating layer conv5_0/1x1_increase/relu
I0906 17:57:49.273505 36245 net.cpp:86] Creating Layer conv5_0/1x1_increase/relu
I0906 17:57:49.273509 36245 net.cpp:408] conv5_0/1x1_increase/relu <- conv5_0/1x1_increase/bn
I0906 17:57:49.273515 36245 net.cpp:369] conv5_0/1x1_increase/relu -> conv5_0/1x1_increase/bn (in-place)
I0906 17:57:49.274354 36245 net.cpp:124] Setting up conv5_0/1x1_increase/relu
I0906 17:57:49.274368 36245 net.cpp:131] Top shape: 50 240 28 28 (9408000)
I0906 17:57:49.274382 36245 net.cpp:139] Memory required for data: 2796433800
I0906 17:57:49.274386 36245 layer_factory.hpp:77] Creating layer conv5_0/1x1_increase/bn_fixed_point
I0906 17:57:49.274394 36245 net.cpp:86] Creating Layer conv5_0/1x1_increase/bn_fixed_point
I0906 17:57:49.274399 36245 net.cpp:408] conv5_0/1x1_increase/bn_fixed_point <- conv5_0/1x1_increase/bn
I0906 17:57:49.274405 36245 net.cpp:369] conv5_0/1x1_increase/bn_fixed_point -> conv5_0/1x1_increase/bn (in-place)
I0906 17:57:49.274439 36245 net.cpp:124] Setting up conv5_0/1x1_increase/bn_fixed_point
I0906 17:57:49.274444 36245 net.cpp:131] Top shape: 50 240 28 28 (9408000)
I0906 17:57:49.274447 36245 net.cpp:139] Memory required for data: 2834065800
I0906 17:57:49.274452 36245 layer_factory.hpp:77] Creating layer conv5_0/1x1_increase/slice
I0906 17:57:49.274458 36245 net.cpp:86] Creating Layer conv5_0/1x1_increase/slice
I0906 17:57:49.274464 36245 net.cpp:408] conv5_0/1x1_increase/slice <- conv5_0/1x1_increase/bn
I0906 17:57:49.274469 36245 net.cpp:382] conv5_0/1x1_increase/slice -> conv5_0/1x1_increase/split1
I0906 17:57:49.274477 36245 net.cpp:382] conv5_0/1x1_increase/slice -> conv5_0/1x1_increase/split2
I0906 17:57:49.274482 36245 net.cpp:382] conv5_0/1x1_increase/slice -> conv5_0/1x1_increase/split3
I0906 17:57:49.274543 36245 net.cpp:124] Setting up conv5_0/1x1_increase/slice
I0906 17:57:49.274549 36245 net.cpp:131] Top shape: 50 80 28 28 (3136000)
I0906 17:57:49.274554 36245 net.cpp:131] Top shape: 50 80 28 28 (3136000)
I0906 17:57:49.274556 36245 net.cpp:131] Top shape: 50 80 28 28 (3136000)
I0906 17:57:49.274559 36245 net.cpp:139] Memory required for data: 2871697800
I0906 17:57:49.274562 36245 layer_factory.hpp:77] Creating layer conv5_0/3x3_dwconv/slice_0
I0906 17:57:49.274574 36245 net.cpp:86] Creating Layer conv5_0/3x3_dwconv/slice_0
I0906 17:57:49.274577 36245 net.cpp:408] conv5_0/3x3_dwconv/slice_0 <- conv5_0/1x1_increase/split1
I0906 17:57:49.274585 36245 net.cpp:382] conv5_0/3x3_dwconv/slice_0 -> conv5_0/3x3_dwconv/slice_0/bn
I0906 17:57:49.275255 36245 net.cpp:124] Setting up conv5_0/3x3_dwconv/slice_0
I0906 17:57:49.275269 36245 net.cpp:131] Top shape: 50 80 14 14 (784000)
I0906 17:57:49.275287 36245 net.cpp:139] Memory required for data: 2874833800
I0906 17:57:49.275295 36245 layer_factory.hpp:77] Creating layer conv5_0/3x3_dwconv/slice_0/relu
I0906 17:57:49.275301 36245 net.cpp:86] Creating Layer conv5_0/3x3_dwconv/slice_0/relu
I0906 17:57:49.275305 36245 net.cpp:408] conv5_0/3x3_dwconv/slice_0/relu <- conv5_0/3x3_dwconv/slice_0/bn
I0906 17:57:49.275310 36245 net.cpp:369] conv5_0/3x3_dwconv/slice_0/relu -> conv5_0/3x3_dwconv/slice_0/bn (in-place)
I0906 17:57:49.275856 36245 net.cpp:124] Setting up conv5_0/3x3_dwconv/slice_0/relu
I0906 17:57:49.275866 36245 net.cpp:131] Top shape: 50 80 14 14 (784000)
I0906 17:57:49.275885 36245 net.cpp:139] Memory required for data: 2877969800
I0906 17:57:49.275889 36245 layer_factory.hpp:77] Creating layer conv5_0/3x3_dwconv/slice_1
I0906 17:57:49.275902 36245 net.cpp:86] Creating Layer conv5_0/3x3_dwconv/slice_1
I0906 17:57:49.275907 36245 net.cpp:408] conv5_0/3x3_dwconv/slice_1 <- conv5_0/1x1_increase/split2
I0906 17:57:49.275913 36245 net.cpp:382] conv5_0/3x3_dwconv/slice_1 -> conv5_0/3x3_dwconv/slice_1/bn
I0906 17:57:49.276587 36245 net.cpp:124] Setting up conv5_0/3x3_dwconv/slice_1
I0906 17:57:49.276597 36245 net.cpp:131] Top shape: 50 80 14 14 (784000)
I0906 17:57:49.276616 36245 net.cpp:139] Memory required for data: 2881105800
I0906 17:57:49.276623 36245 layer_factory.hpp:77] Creating layer conv5_0/3x3_dwconv/slice_1/relu
I0906 17:57:49.276635 36245 net.cpp:86] Creating Layer conv5_0/3x3_dwconv/slice_1/relu
I0906 17:57:49.276650 36245 net.cpp:408] conv5_0/3x3_dwconv/slice_1/relu <- conv5_0/3x3_dwconv/slice_1/bn
I0906 17:57:49.276655 36245 net.cpp:369] conv5_0/3x3_dwconv/slice_1/relu -> conv5_0/3x3_dwconv/slice_1/bn (in-place)
I0906 17:57:49.277467 36245 net.cpp:124] Setting up conv5_0/3x3_dwconv/slice_1/relu
I0906 17:57:49.277482 36245 net.cpp:131] Top shape: 50 80 14 14 (784000)
I0906 17:57:49.277501 36245 net.cpp:139] Memory required for data: 2884241800
I0906 17:57:49.277505 36245 layer_factory.hpp:77] Creating layer conv5_0/3x3_dwconv/slice_2
I0906 17:57:49.277518 36245 net.cpp:86] Creating Layer conv5_0/3x3_dwconv/slice_2
I0906 17:57:49.277534 36245 net.cpp:408] conv5_0/3x3_dwconv/slice_2 <- conv5_0/1x1_increase/split3
I0906 17:57:49.277554 36245 net.cpp:382] conv5_0/3x3_dwconv/slice_2 -> conv5_0/3x3_dwconv/slice_2/bn
I0906 17:57:49.278611 36245 net.cpp:124] Setting up conv5_0/3x3_dwconv/slice_2
I0906 17:57:49.278623 36245 net.cpp:131] Top shape: 50 80 14 14 (784000)
I0906 17:57:49.278643 36245 net.cpp:139] Memory required for data: 2887377800
I0906 17:57:49.278650 36245 layer_factory.hpp:77] Creating layer conv5_0/3x3_dwconv/slice_2/relu
I0906 17:57:49.278657 36245 net.cpp:86] Creating Layer conv5_0/3x3_dwconv/slice_2/relu
I0906 17:57:49.278661 36245 net.cpp:408] conv5_0/3x3_dwconv/slice_2/relu <- conv5_0/3x3_dwconv/slice_2/bn
I0906 17:57:49.278679 36245 net.cpp:369] conv5_0/3x3_dwconv/slice_2/relu -> conv5_0/3x3_dwconv/slice_2/bn (in-place)
I0906 17:57:49.279300 36245 net.cpp:124] Setting up conv5_0/3x3_dwconv/slice_2/relu
I0906 17:57:49.279326 36245 net.cpp:131] Top shape: 50 80 14 14 (784000)
I0906 17:57:49.279330 36245 net.cpp:139] Memory required for data: 2890513800
I0906 17:57:49.279351 36245 layer_factory.hpp:77] Creating layer conv5_0/3x3_dwconv/concat
I0906 17:57:49.279358 36245 net.cpp:86] Creating Layer conv5_0/3x3_dwconv/concat
I0906 17:57:49.279363 36245 net.cpp:408] conv5_0/3x3_dwconv/concat <- conv5_0/3x3_dwconv/slice_0/bn
I0906 17:57:49.279368 36245 net.cpp:408] conv5_0/3x3_dwconv/concat <- conv5_0/3x3_dwconv/slice_1/bn
I0906 17:57:49.279372 36245 net.cpp:408] conv5_0/3x3_dwconv/concat <- conv5_0/3x3_dwconv/slice_2/bn
I0906 17:57:49.279379 36245 net.cpp:382] conv5_0/3x3_dwconv/concat -> conv5_0/3x3_dwconv/concat
I0906 17:57:49.279417 36245 net.cpp:124] Setting up conv5_0/3x3_dwconv/concat
I0906 17:57:49.279424 36245 net.cpp:131] Top shape: 50 240 14 14 (2352000)
I0906 17:57:49.279428 36245 net.cpp:139] Memory required for data: 2899921800
I0906 17:57:49.279431 36245 layer_factory.hpp:77] Creating layer conv5_0/3x3_dwconv/concat_fixed_point
I0906 17:57:49.279439 36245 net.cpp:86] Creating Layer conv5_0/3x3_dwconv/concat_fixed_point
I0906 17:57:49.279443 36245 net.cpp:408] conv5_0/3x3_dwconv/concat_fixed_point <- conv5_0/3x3_dwconv/concat
I0906 17:57:49.279449 36245 net.cpp:369] conv5_0/3x3_dwconv/concat_fixed_point -> conv5_0/3x3_dwconv/concat (in-place)
I0906 17:57:49.279479 36245 net.cpp:124] Setting up conv5_0/3x3_dwconv/concat_fixed_point
I0906 17:57:49.279484 36245 net.cpp:131] Top shape: 50 240 14 14 (2352000)
I0906 17:57:49.279487 36245 net.cpp:139] Memory required for data: 2909329800
I0906 17:57:49.279492 36245 layer_factory.hpp:77] Creating layer conv5_0/3x3_dwconv/concat_conv5_0/3x3_dwconv/concat_fixed_point_0_split
I0906 17:57:49.279500 36245 net.cpp:86] Creating Layer conv5_0/3x3_dwconv/concat_conv5_0/3x3_dwconv/concat_fixed_point_0_split
I0906 17:57:49.279502 36245 net.cpp:408] conv5_0/3x3_dwconv/concat_conv5_0/3x3_dwconv/concat_fixed_point_0_split <- conv5_0/3x3_dwconv/concat
I0906 17:57:49.279510 36245 net.cpp:382] conv5_0/3x3_dwconv/concat_conv5_0/3x3_dwconv/concat_fixed_point_0_split -> conv5_0/3x3_dwconv/concat_conv5_0/3x3_dwconv/concat_fixed_point_0_split_0
I0906 17:57:49.279528 36245 net.cpp:382] conv5_0/3x3_dwconv/concat_conv5_0/3x3_dwconv/concat_fixed_point_0_split -> conv5_0/3x3_dwconv/concat_conv5_0/3x3_dwconv/concat_fixed_point_0_split_1
I0906 17:57:49.279577 36245 net.cpp:124] Setting up conv5_0/3x3_dwconv/concat_conv5_0/3x3_dwconv/concat_fixed_point_0_split
I0906 17:57:49.279583 36245 net.cpp:131] Top shape: 50 240 14 14 (2352000)
I0906 17:57:49.279587 36245 net.cpp:131] Top shape: 50 240 14 14 (2352000)
I0906 17:57:49.279590 36245 net.cpp:139] Memory required for data: 2928145800
I0906 17:57:49.279594 36245 layer_factory.hpp:77] Creating layer conv5_0/3x3_dwconv/SE_global_pool
I0906 17:57:49.279600 36245 net.cpp:86] Creating Layer conv5_0/3x3_dwconv/SE_global_pool
I0906 17:57:49.279604 36245 net.cpp:408] conv5_0/3x3_dwconv/SE_global_pool <- conv5_0/3x3_dwconv/concat_conv5_0/3x3_dwconv/concat_fixed_point_0_split_0
I0906 17:57:49.279610 36245 net.cpp:382] conv5_0/3x3_dwconv/SE_global_pool -> conv5_0/3x3_dwconv/SE_global_pool
I0906 17:57:49.279636 36245 net.cpp:124] Setting up conv5_0/3x3_dwconv/SE_global_pool
I0906 17:57:49.279642 36245 net.cpp:131] Top shape: 50 240 1 1 (12000)
I0906 17:57:49.279645 36245 net.cpp:139] Memory required for data: 2928193800
I0906 17:57:49.279649 36245 layer_factory.hpp:77] Creating layer conv5_0/3x3_dwconv/SE_fc1
I0906 17:57:49.279662 36245 net.cpp:86] Creating Layer conv5_0/3x3_dwconv/SE_fc1
I0906 17:57:49.279666 36245 net.cpp:408] conv5_0/3x3_dwconv/SE_fc1 <- conv5_0/3x3_dwconv/SE_global_pool
I0906 17:57:49.279686 36245 net.cpp:382] conv5_0/3x3_dwconv/SE_fc1 -> conv5_0/3x3_dwconv/SE_fc1
I0906 17:57:49.280176 36245 net.cpp:124] Setting up conv5_0/3x3_dwconv/SE_fc1
I0906 17:57:49.280189 36245 net.cpp:131] Top shape: 50 15 1 1 (750)
I0906 17:57:49.280191 36245 net.cpp:139] Memory required for data: 2928196800
I0906 17:57:49.280208 36245 layer_factory.hpp:77] Creating layer conv5_0/3x3_dwconv/SE_fc1/relu
I0906 17:57:49.280215 36245 net.cpp:86] Creating Layer conv5_0/3x3_dwconv/SE_fc1/relu
I0906 17:57:49.280217 36245 net.cpp:408] conv5_0/3x3_dwconv/SE_fc1/relu <- conv5_0/3x3_dwconv/SE_fc1
I0906 17:57:49.280223 36245 net.cpp:369] conv5_0/3x3_dwconv/SE_fc1/relu -> conv5_0/3x3_dwconv/SE_fc1 (in-place)
I0906 17:57:49.280789 36245 net.cpp:124] Setting up conv5_0/3x3_dwconv/SE_fc1/relu
I0906 17:57:49.280803 36245 net.cpp:131] Top shape: 50 15 1 1 (750)
I0906 17:57:49.280807 36245 net.cpp:139] Memory required for data: 2928199800
I0906 17:57:49.280822 36245 layer_factory.hpp:77] Creating layer conv5_0/3x3_dwconv/SE_fc2
I0906 17:57:49.280833 36245 net.cpp:86] Creating Layer conv5_0/3x3_dwconv/SE_fc2
I0906 17:57:49.280838 36245 net.cpp:408] conv5_0/3x3_dwconv/SE_fc2 <- conv5_0/3x3_dwconv/SE_fc1
I0906 17:57:49.280845 36245 net.cpp:382] conv5_0/3x3_dwconv/SE_fc2 -> conv5_0/3x3_dwconv/SE_fc2
I0906 17:57:49.281327 36245 net.cpp:124] Setting up conv5_0/3x3_dwconv/SE_fc2
I0906 17:57:49.281353 36245 net.cpp:131] Top shape: 50 240 1 1 (12000)
I0906 17:57:49.281358 36245 net.cpp:139] Memory required for data: 2928247800
I0906 17:57:49.281374 36245 layer_factory.hpp:77] Creating layer conv5_0/3x3_dwconv/SE_weights
I0906 17:57:49.281381 36245 net.cpp:86] Creating Layer conv5_0/3x3_dwconv/SE_weights
I0906 17:57:49.281385 36245 net.cpp:408] conv5_0/3x3_dwconv/SE_weights <- conv5_0/3x3_dwconv/SE_fc2
I0906 17:57:49.281394 36245 net.cpp:369] conv5_0/3x3_dwconv/SE_weights -> conv5_0/3x3_dwconv/SE_fc2 (in-place)
I0906 17:57:49.282392 36245 net.cpp:124] Setting up conv5_0/3x3_dwconv/SE_weights
I0906 17:57:49.282404 36245 net.cpp:131] Top shape: 50 240 1 1 (12000)
I0906 17:57:49.282423 36245 net.cpp:139] Memory required for data: 2928295800
I0906 17:57:49.282426 36245 layer_factory.hpp:77] Creating layer conv5_0/3x3_dwconv/SE_weights/reshape
I0906 17:57:49.282449 36245 net.cpp:86] Creating Layer conv5_0/3x3_dwconv/SE_weights/reshape
I0906 17:57:49.282454 36245 net.cpp:408] conv5_0/3x3_dwconv/SE_weights/reshape <- conv5_0/3x3_dwconv/SE_fc2
I0906 17:57:49.282480 36245 net.cpp:382] conv5_0/3x3_dwconv/SE_weights/reshape -> conv5_0/3x3_dwconv/SE_weights/reshape
I0906 17:57:49.282518 36245 net.cpp:124] Setting up conv5_0/3x3_dwconv/SE_weights/reshape
I0906 17:57:49.282526 36245 net.cpp:131] Top shape: 50 240 (12000)
I0906 17:57:49.282529 36245 net.cpp:139] Memory required for data: 2928343800
I0906 17:57:49.282533 36245 layer_factory.hpp:77] Creating layer conv5_0/3x3_dwconv/scale
I0906 17:57:49.282541 36245 net.cpp:86] Creating Layer conv5_0/3x3_dwconv/scale
I0906 17:57:49.282546 36245 net.cpp:408] conv5_0/3x3_dwconv/scale <- conv5_0/3x3_dwconv/concat_conv5_0/3x3_dwconv/concat_fixed_point_0_split_1
I0906 17:57:49.282550 36245 net.cpp:408] conv5_0/3x3_dwconv/scale <- conv5_0/3x3_dwconv/SE_weights/reshape
I0906 17:57:49.282555 36245 net.cpp:382] conv5_0/3x3_dwconv/scale -> conv5_0/3x3_dwconv/scale
I0906 17:57:49.282634 36245 net.cpp:124] Setting up conv5_0/3x3_dwconv/scale
I0906 17:57:49.282640 36245 net.cpp:131] Top shape: 50 240 14 14 (2352000)
I0906 17:57:49.282644 36245 net.cpp:139] Memory required for data: 2937751800
I0906 17:57:49.282647 36245 layer_factory.hpp:77] Creating layer conv5_0/3x3_dwconv/scale_fixed_point
I0906 17:57:49.282652 36245 net.cpp:86] Creating Layer conv5_0/3x3_dwconv/scale_fixed_point
I0906 17:57:49.282656 36245 net.cpp:408] conv5_0/3x3_dwconv/scale_fixed_point <- conv5_0/3x3_dwconv/scale
I0906 17:57:49.282662 36245 net.cpp:369] conv5_0/3x3_dwconv/scale_fixed_point -> conv5_0/3x3_dwconv/scale (in-place)
I0906 17:57:49.282688 36245 net.cpp:124] Setting up conv5_0/3x3_dwconv/scale_fixed_point
I0906 17:57:49.282696 36245 net.cpp:131] Top shape: 50 240 14 14 (2352000)
I0906 17:57:49.282699 36245 net.cpp:139] Memory required for data: 2947159800
I0906 17:57:49.282704 36245 layer_factory.hpp:77] Creating layer conv5_0/1x1_decrease
I0906 17:57:49.282716 36245 net.cpp:86] Creating Layer conv5_0/1x1_decrease
I0906 17:57:49.282721 36245 net.cpp:408] conv5_0/1x1_decrease <- conv5_0/3x3_dwconv/scale
I0906 17:57:49.282727 36245 net.cpp:382] conv5_0/1x1_decrease -> conv5_0/1x1_decrease/bn
I0906 17:57:49.284889 36245 net.cpp:124] Setting up conv5_0/1x1_decrease
I0906 17:57:49.284902 36245 net.cpp:131] Top shape: 50 80 14 14 (784000)
I0906 17:57:49.284919 36245 net.cpp:139] Memory required for data: 2950295800
I0906 17:57:49.284926 36245 layer_factory.hpp:77] Creating layer conv5_0/1x1_decrease/bn_fixed_point
I0906 17:57:49.284953 36245 net.cpp:86] Creating Layer conv5_0/1x1_decrease/bn_fixed_point
I0906 17:57:49.284957 36245 net.cpp:408] conv5_0/1x1_decrease/bn_fixed_point <- conv5_0/1x1_decrease/bn
I0906 17:57:49.284963 36245 net.cpp:369] conv5_0/1x1_decrease/bn_fixed_point -> conv5_0/1x1_decrease/bn (in-place)
I0906 17:57:49.285004 36245 net.cpp:124] Setting up conv5_0/1x1_decrease/bn_fixed_point
I0906 17:57:49.285015 36245 net.cpp:131] Top shape: 50 80 14 14 (784000)
I0906 17:57:49.285018 36245 net.cpp:139] Memory required for data: 2953431800
I0906 17:57:49.285023 36245 layer_factory.hpp:77] Creating layer conv5_0/1x1_decrease/bn_conv5_0/1x1_decrease/bn_fixed_point_0_split
I0906 17:57:49.285029 36245 net.cpp:86] Creating Layer conv5_0/1x1_decrease/bn_conv5_0/1x1_decrease/bn_fixed_point_0_split
I0906 17:57:49.285032 36245 net.cpp:408] conv5_0/1x1_decrease/bn_conv5_0/1x1_decrease/bn_fixed_point_0_split <- conv5_0/1x1_decrease/bn
I0906 17:57:49.285039 36245 net.cpp:382] conv5_0/1x1_decrease/bn_conv5_0/1x1_decrease/bn_fixed_point_0_split -> conv5_0/1x1_decrease/bn_conv5_0/1x1_decrease/bn_fixed_point_0_split_0
I0906 17:57:49.285046 36245 net.cpp:382] conv5_0/1x1_decrease/bn_conv5_0/1x1_decrease/bn_fixed_point_0_split -> conv5_0/1x1_decrease/bn_conv5_0/1x1_decrease/bn_fixed_point_0_split_1
I0906 17:57:49.285090 36245 net.cpp:124] Setting up conv5_0/1x1_decrease/bn_conv5_0/1x1_decrease/bn_fixed_point_0_split
I0906 17:57:49.285096 36245 net.cpp:131] Top shape: 50 80 14 14 (784000)
I0906 17:57:49.285100 36245 net.cpp:131] Top shape: 50 80 14 14 (784000)
I0906 17:57:49.285104 36245 net.cpp:139] Memory required for data: 2959703800
I0906 17:57:49.285116 36245 layer_factory.hpp:77] Creating layer conv5_1/1x1_increase
I0906 17:57:49.285127 36245 net.cpp:86] Creating Layer conv5_1/1x1_increase
I0906 17:57:49.285131 36245 net.cpp:408] conv5_1/1x1_increase <- conv5_0/1x1_decrease/bn_conv5_0/1x1_decrease/bn_fixed_point_0_split_0
I0906 17:57:49.285138 36245 net.cpp:382] conv5_1/1x1_increase -> conv5_1/1x1_increase/bn
I0906 17:57:49.286188 36245 net.cpp:124] Setting up conv5_1/1x1_increase
I0906 17:57:49.286200 36245 net.cpp:131] Top shape: 50 240 14 14 (2352000)
I0906 17:57:49.286202 36245 net.cpp:139] Memory required for data: 2969111800
I0906 17:57:49.286224 36245 layer_factory.hpp:77] Creating layer conv5_1/1x1_increase/relu
I0906 17:57:49.286231 36245 net.cpp:86] Creating Layer conv5_1/1x1_increase/relu
I0906 17:57:49.286237 36245 net.cpp:408] conv5_1/1x1_increase/relu <- conv5_1/1x1_increase/bn
I0906 17:57:49.286242 36245 net.cpp:369] conv5_1/1x1_increase/relu -> conv5_1/1x1_increase/bn (in-place)
I0906 17:57:49.286942 36245 net.cpp:124] Setting up conv5_1/1x1_increase/relu
I0906 17:57:49.286952 36245 net.cpp:131] Top shape: 50 240 14 14 (2352000)
I0906 17:57:49.286970 36245 net.cpp:139] Memory required for data: 2978519800
I0906 17:57:49.286974 36245 layer_factory.hpp:77] Creating layer conv5_1/1x1_increase/bn_fixed_point
I0906 17:57:49.286998 36245 net.cpp:86] Creating Layer conv5_1/1x1_increase/bn_fixed_point
I0906 17:57:49.287001 36245 net.cpp:408] conv5_1/1x1_increase/bn_fixed_point <- conv5_1/1x1_increase/bn
I0906 17:57:49.287014 36245 net.cpp:369] conv5_1/1x1_increase/bn_fixed_point -> conv5_1/1x1_increase/bn (in-place)
I0906 17:57:49.287050 36245 net.cpp:124] Setting up conv5_1/1x1_increase/bn_fixed_point
I0906 17:57:49.287055 36245 net.cpp:131] Top shape: 50 240 14 14 (2352000)
I0906 17:57:49.287058 36245 net.cpp:139] Memory required for data: 2987927800
I0906 17:57:49.287065 36245 layer_factory.hpp:77] Creating layer conv5_1/1x1_increase/slice
I0906 17:57:49.287073 36245 net.cpp:86] Creating Layer conv5_1/1x1_increase/slice
I0906 17:57:49.287077 36245 net.cpp:408] conv5_1/1x1_increase/slice <- conv5_1/1x1_increase/bn
I0906 17:57:49.287082 36245 net.cpp:382] conv5_1/1x1_increase/slice -> conv5_1/1x1_increase/split1
I0906 17:57:49.287091 36245 net.cpp:382] conv5_1/1x1_increase/slice -> conv5_1/1x1_increase/split2
I0906 17:57:49.287137 36245 net.cpp:124] Setting up conv5_1/1x1_increase/slice
I0906 17:57:49.287142 36245 net.cpp:131] Top shape: 50 120 14 14 (1176000)
I0906 17:57:49.287144 36245 net.cpp:131] Top shape: 50 120 14 14 (1176000)
I0906 17:57:49.287147 36245 net.cpp:139] Memory required for data: 2997335800
I0906 17:57:49.287150 36245 layer_factory.hpp:77] Creating layer conv5_1/3x3_dwconv/slice_0
I0906 17:57:49.287161 36245 net.cpp:86] Creating Layer conv5_1/3x3_dwconv/slice_0
I0906 17:57:49.287165 36245 net.cpp:408] conv5_1/3x3_dwconv/slice_0 <- conv5_1/1x1_increase/split1
I0906 17:57:49.287173 36245 net.cpp:382] conv5_1/3x3_dwconv/slice_0 -> conv5_1/3x3_dwconv/slice_0/bn
I0906 17:57:49.287776 36245 net.cpp:124] Setting up conv5_1/3x3_dwconv/slice_0
I0906 17:57:49.287787 36245 net.cpp:131] Top shape: 50 120 14 14 (1176000)
I0906 17:57:49.287806 36245 net.cpp:139] Memory required for data: 3002039800
I0906 17:57:49.287811 36245 layer_factory.hpp:77] Creating layer conv5_1/3x3_dwconv/slice_0/relu
I0906 17:57:49.287822 36245 net.cpp:86] Creating Layer conv5_1/3x3_dwconv/slice_0/relu
I0906 17:57:49.287825 36245 net.cpp:408] conv5_1/3x3_dwconv/slice_0/relu <- conv5_1/3x3_dwconv/slice_0/bn
I0906 17:57:49.287830 36245 net.cpp:369] conv5_1/3x3_dwconv/slice_0/relu -> conv5_1/3x3_dwconv/slice_0/bn (in-place)
I0906 17:57:49.288385 36245 net.cpp:124] Setting up conv5_1/3x3_dwconv/slice_0/relu
I0906 17:57:49.288395 36245 net.cpp:131] Top shape: 50 120 14 14 (1176000)
I0906 17:57:49.288414 36245 net.cpp:139] Memory required for data: 3006743800
I0906 17:57:49.288416 36245 layer_factory.hpp:77] Creating layer conv5_1/3x3_dwconv/slice_1
I0906 17:57:49.288441 36245 net.cpp:86] Creating Layer conv5_1/3x3_dwconv/slice_1
I0906 17:57:49.288446 36245 net.cpp:408] conv5_1/3x3_dwconv/slice_1 <- conv5_1/1x1_increase/split2
I0906 17:57:49.288465 36245 net.cpp:382] conv5_1/3x3_dwconv/slice_1 -> conv5_1/3x3_dwconv/slice_1/bn
I0906 17:57:49.289295 36245 net.cpp:124] Setting up conv5_1/3x3_dwconv/slice_1
I0906 17:57:49.289309 36245 net.cpp:131] Top shape: 50 120 14 14 (1176000)
I0906 17:57:49.289326 36245 net.cpp:139] Memory required for data: 3011447800
I0906 17:57:49.289341 36245 layer_factory.hpp:77] Creating layer conv5_1/3x3_dwconv/slice_1/relu
I0906 17:57:49.289363 36245 net.cpp:86] Creating Layer conv5_1/3x3_dwconv/slice_1/relu
I0906 17:57:49.289368 36245 net.cpp:408] conv5_1/3x3_dwconv/slice_1/relu <- conv5_1/3x3_dwconv/slice_1/bn
I0906 17:57:49.289373 36245 net.cpp:369] conv5_1/3x3_dwconv/slice_1/relu -> conv5_1/3x3_dwconv/slice_1/bn (in-place)
I0906 17:57:49.290217 36245 net.cpp:124] Setting up conv5_1/3x3_dwconv/slice_1/relu
I0906 17:57:49.290231 36245 net.cpp:131] Top shape: 50 120 14 14 (1176000)
I0906 17:57:49.290235 36245 net.cpp:139] Memory required for data: 3016151800
I0906 17:57:49.290239 36245 layer_factory.hpp:77] Creating layer conv5_1/3x3_dwconv/concat
I0906 17:57:49.290246 36245 net.cpp:86] Creating Layer conv5_1/3x3_dwconv/concat
I0906 17:57:49.290251 36245 net.cpp:408] conv5_1/3x3_dwconv/concat <- conv5_1/3x3_dwconv/slice_0/bn
I0906 17:57:49.290256 36245 net.cpp:408] conv5_1/3x3_dwconv/concat <- conv5_1/3x3_dwconv/slice_1/bn
I0906 17:57:49.290263 36245 net.cpp:382] conv5_1/3x3_dwconv/concat -> conv5_1/3x3_dwconv/concat
I0906 17:57:49.290300 36245 net.cpp:124] Setting up conv5_1/3x3_dwconv/concat
I0906 17:57:49.290307 36245 net.cpp:131] Top shape: 50 240 14 14 (2352000)
I0906 17:57:49.290310 36245 net.cpp:139] Memory required for data: 3025559800
I0906 17:57:49.290313 36245 layer_factory.hpp:77] Creating layer conv5_1/3x3_dwconv/concat_fixed_point
I0906 17:57:49.290324 36245 net.cpp:86] Creating Layer conv5_1/3x3_dwconv/concat_fixed_point
I0906 17:57:49.290330 36245 net.cpp:408] conv5_1/3x3_dwconv/concat_fixed_point <- conv5_1/3x3_dwconv/concat
I0906 17:57:49.290335 36245 net.cpp:369] conv5_1/3x3_dwconv/concat_fixed_point -> conv5_1/3x3_dwconv/concat (in-place)
I0906 17:57:49.290395 36245 net.cpp:124] Setting up conv5_1/3x3_dwconv/concat_fixed_point
I0906 17:57:49.290412 36245 net.cpp:131] Top shape: 50 240 14 14 (2352000)
I0906 17:57:49.290416 36245 net.cpp:139] Memory required for data: 3034967800
I0906 17:57:49.290419 36245 layer_factory.hpp:77] Creating layer conv5_1/3x3_dwconv/concat_conv5_1/3x3_dwconv/concat_fixed_point_0_split
I0906 17:57:49.290424 36245 net.cpp:86] Creating Layer conv5_1/3x3_dwconv/concat_conv5_1/3x3_dwconv/concat_fixed_point_0_split
I0906 17:57:49.290428 36245 net.cpp:408] conv5_1/3x3_dwconv/concat_conv5_1/3x3_dwconv/concat_fixed_point_0_split <- conv5_1/3x3_dwconv/concat
I0906 17:57:49.290436 36245 net.cpp:382] conv5_1/3x3_dwconv/concat_conv5_1/3x3_dwconv/concat_fixed_point_0_split -> conv5_1/3x3_dwconv/concat_conv5_1/3x3_dwconv/concat_fixed_point_0_split_0
I0906 17:57:49.290442 36245 net.cpp:382] conv5_1/3x3_dwconv/concat_conv5_1/3x3_dwconv/concat_fixed_point_0_split -> conv5_1/3x3_dwconv/concat_conv5_1/3x3_dwconv/concat_fixed_point_0_split_1
I0906 17:57:49.290485 36245 net.cpp:124] Setting up conv5_1/3x3_dwconv/concat_conv5_1/3x3_dwconv/concat_fixed_point_0_split
I0906 17:57:49.290491 36245 net.cpp:131] Top shape: 50 240 14 14 (2352000)
I0906 17:57:49.290495 36245 net.cpp:131] Top shape: 50 240 14 14 (2352000)
I0906 17:57:49.290498 36245 net.cpp:139] Memory required for data: 3053783800
I0906 17:57:49.290503 36245 layer_factory.hpp:77] Creating layer conv5_1/3x3_dwconv/SE_global_pool
I0906 17:57:49.290509 36245 net.cpp:86] Creating Layer conv5_1/3x3_dwconv/SE_global_pool
I0906 17:57:49.290513 36245 net.cpp:408] conv5_1/3x3_dwconv/SE_global_pool <- conv5_1/3x3_dwconv/concat_conv5_1/3x3_dwconv/concat_fixed_point_0_split_0
I0906 17:57:49.290520 36245 net.cpp:382] conv5_1/3x3_dwconv/SE_global_pool -> conv5_1/3x3_dwconv/SE_global_pool
I0906 17:57:49.290546 36245 net.cpp:124] Setting up conv5_1/3x3_dwconv/SE_global_pool
I0906 17:57:49.290552 36245 net.cpp:131] Top shape: 50 240 1 1 (12000)
I0906 17:57:49.290567 36245 net.cpp:139] Memory required for data: 3053831800
I0906 17:57:49.290570 36245 layer_factory.hpp:77] Creating layer conv5_1/3x3_dwconv/SE_fc1
I0906 17:57:49.290582 36245 net.cpp:86] Creating Layer conv5_1/3x3_dwconv/SE_fc1
I0906 17:57:49.290587 36245 net.cpp:408] conv5_1/3x3_dwconv/SE_fc1 <- conv5_1/3x3_dwconv/SE_global_pool
I0906 17:57:49.290592 36245 net.cpp:382] conv5_1/3x3_dwconv/SE_fc1 -> conv5_1/3x3_dwconv/SE_fc1
I0906 17:57:49.291049 36245 net.cpp:124] Setting up conv5_1/3x3_dwconv/SE_fc1
I0906 17:57:49.291060 36245 net.cpp:131] Top shape: 50 15 1 1 (750)
I0906 17:57:49.291064 36245 net.cpp:139] Memory required for data: 3053834800
I0906 17:57:49.291069 36245 layer_factory.hpp:77] Creating layer conv5_1/3x3_dwconv/SE_fc1/relu
I0906 17:57:49.291075 36245 net.cpp:86] Creating Layer conv5_1/3x3_dwconv/SE_fc1/relu
I0906 17:57:49.291079 36245 net.cpp:408] conv5_1/3x3_dwconv/SE_fc1/relu <- conv5_1/3x3_dwconv/SE_fc1
I0906 17:57:49.291085 36245 net.cpp:369] conv5_1/3x3_dwconv/SE_fc1/relu -> conv5_1/3x3_dwconv/SE_fc1 (in-place)
I0906 17:57:49.291728 36245 net.cpp:124] Setting up conv5_1/3x3_dwconv/SE_fc1/relu
I0906 17:57:49.291738 36245 net.cpp:131] Top shape: 50 15 1 1 (750)
I0906 17:57:49.291743 36245 net.cpp:139] Memory required for data: 3053837800
I0906 17:57:49.291746 36245 layer_factory.hpp:77] Creating layer conv5_1/3x3_dwconv/SE_fc2
I0906 17:57:49.291757 36245 net.cpp:86] Creating Layer conv5_1/3x3_dwconv/SE_fc2
I0906 17:57:49.291762 36245 net.cpp:408] conv5_1/3x3_dwconv/SE_fc2 <- conv5_1/3x3_dwconv/SE_fc1
I0906 17:57:49.291769 36245 net.cpp:382] conv5_1/3x3_dwconv/SE_fc2 -> conv5_1/3x3_dwconv/SE_fc2
I0906 17:57:49.292284 36245 net.cpp:124] Setting up conv5_1/3x3_dwconv/SE_fc2
I0906 17:57:49.292294 36245 net.cpp:131] Top shape: 50 240 1 1 (12000)
I0906 17:57:49.292315 36245 net.cpp:139] Memory required for data: 3053885800
I0906 17:57:49.292320 36245 layer_factory.hpp:77] Creating layer conv5_1/3x3_dwconv/SE_weights
I0906 17:57:49.292326 36245 net.cpp:86] Creating Layer conv5_1/3x3_dwconv/SE_weights
I0906 17:57:49.292330 36245 net.cpp:408] conv5_1/3x3_dwconv/SE_weights <- conv5_1/3x3_dwconv/SE_fc2
I0906 17:57:49.292351 36245 net.cpp:369] conv5_1/3x3_dwconv/SE_weights -> conv5_1/3x3_dwconv/SE_fc2 (in-place)
I0906 17:57:49.292948 36245 net.cpp:124] Setting up conv5_1/3x3_dwconv/SE_weights
I0906 17:57:49.292958 36245 net.cpp:131] Top shape: 50 240 1 1 (12000)
I0906 17:57:49.292976 36245 net.cpp:139] Memory required for data: 3053933800
I0906 17:57:49.292979 36245 layer_factory.hpp:77] Creating layer conv5_1/3x3_dwconv/SE_weights/reshape
I0906 17:57:49.292989 36245 net.cpp:86] Creating Layer conv5_1/3x3_dwconv/SE_weights/reshape
I0906 17:57:49.292994 36245 net.cpp:408] conv5_1/3x3_dwconv/SE_weights/reshape <- conv5_1/3x3_dwconv/SE_fc2
I0906 17:57:49.293018 36245 net.cpp:382] conv5_1/3x3_dwconv/SE_weights/reshape -> conv5_1/3x3_dwconv/SE_weights/reshape
I0906 17:57:49.293056 36245 net.cpp:124] Setting up conv5_1/3x3_dwconv/SE_weights/reshape
I0906 17:57:49.293063 36245 net.cpp:131] Top shape: 50 240 (12000)
I0906 17:57:49.293066 36245 net.cpp:139] Memory required for data: 3053981800
I0906 17:57:49.293069 36245 layer_factory.hpp:77] Creating layer conv5_1/3x3_dwconv/scale
I0906 17:57:49.293078 36245 net.cpp:86] Creating Layer conv5_1/3x3_dwconv/scale
I0906 17:57:49.293082 36245 net.cpp:408] conv5_1/3x3_dwconv/scale <- conv5_1/3x3_dwconv/concat_conv5_1/3x3_dwconv/concat_fixed_point_0_split_1
I0906 17:57:49.293087 36245 net.cpp:408] conv5_1/3x3_dwconv/scale <- conv5_1/3x3_dwconv/SE_weights/reshape
I0906 17:57:49.293092 36245 net.cpp:382] conv5_1/3x3_dwconv/scale -> conv5_1/3x3_dwconv/scale
I0906 17:57:49.293169 36245 net.cpp:124] Setting up conv5_1/3x3_dwconv/scale
I0906 17:57:49.293175 36245 net.cpp:131] Top shape: 50 240 14 14 (2352000)
I0906 17:57:49.293179 36245 net.cpp:139] Memory required for data: 3063389800
I0906 17:57:49.293182 36245 layer_factory.hpp:77] Creating layer conv5_1/3x3_dwconv/scale_fixed_point
I0906 17:57:49.293190 36245 net.cpp:86] Creating Layer conv5_1/3x3_dwconv/scale_fixed_point
I0906 17:57:49.293215 36245 net.cpp:408] conv5_1/3x3_dwconv/scale_fixed_point <- conv5_1/3x3_dwconv/scale
I0906 17:57:49.293220 36245 net.cpp:369] conv5_1/3x3_dwconv/scale_fixed_point -> conv5_1/3x3_dwconv/scale (in-place)
I0906 17:57:49.293252 36245 net.cpp:124] Setting up conv5_1/3x3_dwconv/scale_fixed_point
I0906 17:57:49.293258 36245 net.cpp:131] Top shape: 50 240 14 14 (2352000)
I0906 17:57:49.293262 36245 net.cpp:139] Memory required for data: 3072797800
I0906 17:57:49.293267 36245 layer_factory.hpp:77] Creating layer conv5_1/1x1_decrease
I0906 17:57:49.293277 36245 net.cpp:86] Creating Layer conv5_1/1x1_decrease
I0906 17:57:49.293282 36245 net.cpp:408] conv5_1/1x1_decrease <- conv5_1/3x3_dwconv/scale
I0906 17:57:49.293289 36245 net.cpp:382] conv5_1/1x1_decrease -> conv5_1/1x1_decrease/bn
I0906 17:57:49.294382 36245 net.cpp:124] Setting up conv5_1/1x1_decrease
I0906 17:57:49.294394 36245 net.cpp:131] Top shape: 50 80 14 14 (784000)
I0906 17:57:49.294399 36245 net.cpp:139] Memory required for data: 3075933800
I0906 17:57:49.294404 36245 layer_factory.hpp:77] Creating layer conv5_1/elt_sum
I0906 17:57:49.294414 36245 net.cpp:86] Creating Layer conv5_1/elt_sum
I0906 17:57:49.294418 36245 net.cpp:408] conv5_1/elt_sum <- conv5_0/1x1_decrease/bn_conv5_0/1x1_decrease/bn_fixed_point_0_split_1
I0906 17:57:49.294423 36245 net.cpp:408] conv5_1/elt_sum <- conv5_1/1x1_decrease/bn
I0906 17:57:49.294430 36245 net.cpp:382] conv5_1/elt_sum -> conv5_1/elt_sum
I0906 17:57:49.294464 36245 net.cpp:124] Setting up conv5_1/elt_sum
I0906 17:57:49.294471 36245 net.cpp:131] Top shape: 50 80 14 14 (784000)
I0906 17:57:49.294473 36245 net.cpp:139] Memory required for data: 3079069800
I0906 17:57:49.294476 36245 layer_factory.hpp:77] Creating layer conv5_1/elt_sum_fixed_point
I0906 17:57:49.294486 36245 net.cpp:86] Creating Layer conv5_1/elt_sum_fixed_point
I0906 17:57:49.294489 36245 net.cpp:408] conv5_1/elt_sum_fixed_point <- conv5_1/elt_sum
I0906 17:57:49.294493 36245 net.cpp:369] conv5_1/elt_sum_fixed_point -> conv5_1/elt_sum (in-place)
I0906 17:57:49.294523 36245 net.cpp:124] Setting up conv5_1/elt_sum_fixed_point
I0906 17:57:49.294528 36245 net.cpp:131] Top shape: 50 80 14 14 (784000)
I0906 17:57:49.294531 36245 net.cpp:139] Memory required for data: 3082205800
I0906 17:57:49.294536 36245 layer_factory.hpp:77] Creating layer conv5_1/elt_sum_conv5_1/elt_sum_fixed_point_0_split
I0906 17:57:49.294555 36245 net.cpp:86] Creating Layer conv5_1/elt_sum_conv5_1/elt_sum_fixed_point_0_split
I0906 17:57:49.294559 36245 net.cpp:408] conv5_1/elt_sum_conv5_1/elt_sum_fixed_point_0_split <- conv5_1/elt_sum
I0906 17:57:49.294572 36245 net.cpp:382] conv5_1/elt_sum_conv5_1/elt_sum_fixed_point_0_split -> conv5_1/elt_sum_conv5_1/elt_sum_fixed_point_0_split_0
I0906 17:57:49.294579 36245 net.cpp:382] conv5_1/elt_sum_conv5_1/elt_sum_fixed_point_0_split -> conv5_1/elt_sum_conv5_1/elt_sum_fixed_point_0_split_1
I0906 17:57:49.294625 36245 net.cpp:124] Setting up conv5_1/elt_sum_conv5_1/elt_sum_fixed_point_0_split
I0906 17:57:49.294631 36245 net.cpp:131] Top shape: 50 80 14 14 (784000)
I0906 17:57:49.294634 36245 net.cpp:131] Top shape: 50 80 14 14 (784000)
I0906 17:57:49.294637 36245 net.cpp:139] Memory required for data: 3088477800
I0906 17:57:49.294641 36245 layer_factory.hpp:77] Creating layer conv5_2/1x1_increase
I0906 17:57:49.294649 36245 net.cpp:86] Creating Layer conv5_2/1x1_increase
I0906 17:57:49.294653 36245 net.cpp:408] conv5_2/1x1_increase <- conv5_1/elt_sum_conv5_1/elt_sum_fixed_point_0_split_0
I0906 17:57:49.294661 36245 net.cpp:382] conv5_2/1x1_increase -> conv5_2/1x1_increase/bn
I0906 17:57:49.295756 36245 net.cpp:124] Setting up conv5_2/1x1_increase
I0906 17:57:49.295768 36245 net.cpp:131] Top shape: 50 240 14 14 (2352000)
I0906 17:57:49.295770 36245 net.cpp:139] Memory required for data: 3097885800
I0906 17:57:49.295778 36245 layer_factory.hpp:77] Creating layer conv5_2/1x1_increase/relu
I0906 17:57:49.295799 36245 net.cpp:86] Creating Layer conv5_2/1x1_increase/relu
I0906 17:57:49.295816 36245 net.cpp:408] conv5_2/1x1_increase/relu <- conv5_2/1x1_increase/bn
I0906 17:57:49.295825 36245 net.cpp:369] conv5_2/1x1_increase/relu -> conv5_2/1x1_increase/bn (in-place)
I0906 17:57:49.296438 36245 net.cpp:124] Setting up conv5_2/1x1_increase/relu
I0906 17:57:49.296449 36245 net.cpp:131] Top shape: 50 240 14 14 (2352000)
I0906 17:57:49.296453 36245 net.cpp:139] Memory required for data: 3107293800
I0906 17:57:49.296473 36245 layer_factory.hpp:77] Creating layer conv5_2/1x1_increase/bn_fixed_point
I0906 17:57:49.296479 36245 net.cpp:86] Creating Layer conv5_2/1x1_increase/bn_fixed_point
I0906 17:57:49.296483 36245 net.cpp:408] conv5_2/1x1_increase/bn_fixed_point <- conv5_2/1x1_increase/bn
I0906 17:57:49.296490 36245 net.cpp:369] conv5_2/1x1_increase/bn_fixed_point -> conv5_2/1x1_increase/bn (in-place)
I0906 17:57:49.296526 36245 net.cpp:124] Setting up conv5_2/1x1_increase/bn_fixed_point
I0906 17:57:49.296532 36245 net.cpp:131] Top shape: 50 240 14 14 (2352000)
I0906 17:57:49.296535 36245 net.cpp:139] Memory required for data: 3116701800
I0906 17:57:49.296541 36245 layer_factory.hpp:77] Creating layer conv5_2/1x1_increase/slice
I0906 17:57:49.296547 36245 net.cpp:86] Creating Layer conv5_2/1x1_increase/slice
I0906 17:57:49.296550 36245 net.cpp:408] conv5_2/1x1_increase/slice <- conv5_2/1x1_increase/bn
I0906 17:57:49.296557 36245 net.cpp:382] conv5_2/1x1_increase/slice -> conv5_2/1x1_increase/split1
I0906 17:57:49.296564 36245 net.cpp:382] conv5_2/1x1_increase/slice -> conv5_2/1x1_increase/split2
I0906 17:57:49.296609 36245 net.cpp:124] Setting up conv5_2/1x1_increase/slice
I0906 17:57:49.296615 36245 net.cpp:131] Top shape: 50 120 14 14 (1176000)
I0906 17:57:49.296619 36245 net.cpp:131] Top shape: 50 120 14 14 (1176000)
I0906 17:57:49.296622 36245 net.cpp:139] Memory required for data: 3126109800
I0906 17:57:49.296625 36245 layer_factory.hpp:77] Creating layer conv5_2/3x3_dwconv/slice_0
I0906 17:57:49.296638 36245 net.cpp:86] Creating Layer conv5_2/3x3_dwconv/slice_0
I0906 17:57:49.296643 36245 net.cpp:408] conv5_2/3x3_dwconv/slice_0 <- conv5_2/1x1_increase/split1
I0906 17:57:49.296648 36245 net.cpp:382] conv5_2/3x3_dwconv/slice_0 -> conv5_2/3x3_dwconv/slice_0/bn
I0906 17:57:49.297227 36245 net.cpp:124] Setting up conv5_2/3x3_dwconv/slice_0
I0906 17:57:49.297238 36245 net.cpp:131] Top shape: 50 120 14 14 (1176000)
I0906 17:57:49.297241 36245 net.cpp:139] Memory required for data: 3130813800
I0906 17:57:49.297262 36245 layer_factory.hpp:77] Creating layer conv5_2/3x3_dwconv/slice_0/relu
I0906 17:57:49.297271 36245 net.cpp:86] Creating Layer conv5_2/3x3_dwconv/slice_0/relu
I0906 17:57:49.297276 36245 net.cpp:408] conv5_2/3x3_dwconv/slice_0/relu <- conv5_2/3x3_dwconv/slice_0/bn
I0906 17:57:49.297281 36245 net.cpp:369] conv5_2/3x3_dwconv/slice_0/relu -> conv5_2/3x3_dwconv/slice_0/bn (in-place)
I0906 17:57:49.298095 36245 net.cpp:124] Setting up conv5_2/3x3_dwconv/slice_0/relu
I0906 17:57:49.298108 36245 net.cpp:131] Top shape: 50 120 14 14 (1176000)
I0906 17:57:49.298112 36245 net.cpp:139] Memory required for data: 3135517800
I0906 17:57:49.298131 36245 layer_factory.hpp:77] Creating layer conv5_2/3x3_dwconv/slice_1
I0906 17:57:49.298154 36245 net.cpp:86] Creating Layer conv5_2/3x3_dwconv/slice_1
I0906 17:57:49.298161 36245 net.cpp:408] conv5_2/3x3_dwconv/slice_1 <- conv5_2/1x1_increase/split2
I0906 17:57:49.298169 36245 net.cpp:382] conv5_2/3x3_dwconv/slice_1 -> conv5_2/3x3_dwconv/slice_1/bn
I0906 17:57:49.299036 36245 net.cpp:124] Setting up conv5_2/3x3_dwconv/slice_1
I0906 17:57:49.299062 36245 net.cpp:131] Top shape: 50 120 14 14 (1176000)
I0906 17:57:49.299064 36245 net.cpp:139] Memory required for data: 3140221800
I0906 17:57:49.299082 36245 layer_factory.hpp:77] Creating layer conv5_2/3x3_dwconv/slice_1/relu
I0906 17:57:49.299091 36245 net.cpp:86] Creating Layer conv5_2/3x3_dwconv/slice_1/relu
I0906 17:57:49.299095 36245 net.cpp:408] conv5_2/3x3_dwconv/slice_1/relu <- conv5_2/3x3_dwconv/slice_1/bn
I0906 17:57:49.299103 36245 net.cpp:369] conv5_2/3x3_dwconv/slice_1/relu -> conv5_2/3x3_dwconv/slice_1/bn (in-place)
I0906 17:57:49.299736 36245 net.cpp:124] Setting up conv5_2/3x3_dwconv/slice_1/relu
I0906 17:57:49.299765 36245 net.cpp:131] Top shape: 50 120 14 14 (1176000)
I0906 17:57:49.299782 36245 net.cpp:139] Memory required for data: 3144925800
I0906 17:57:49.299785 36245 layer_factory.hpp:77] Creating layer conv5_2/3x3_dwconv/concat
I0906 17:57:49.299791 36245 net.cpp:86] Creating Layer conv5_2/3x3_dwconv/concat
I0906 17:57:49.299795 36245 net.cpp:408] conv5_2/3x3_dwconv/concat <- conv5_2/3x3_dwconv/slice_0/bn
I0906 17:57:49.299800 36245 net.cpp:408] conv5_2/3x3_dwconv/concat <- conv5_2/3x3_dwconv/slice_1/bn
I0906 17:57:49.299806 36245 net.cpp:382] conv5_2/3x3_dwconv/concat -> conv5_2/3x3_dwconv/concat
I0906 17:57:49.299852 36245 net.cpp:124] Setting up conv5_2/3x3_dwconv/concat
I0906 17:57:49.299860 36245 net.cpp:131] Top shape: 50 240 14 14 (2352000)
I0906 17:57:49.299863 36245 net.cpp:139] Memory required for data: 3154333800
I0906 17:57:49.299866 36245 layer_factory.hpp:77] Creating layer conv5_2/3x3_dwconv/concat_fixed_point
I0906 17:57:49.299875 36245 net.cpp:86] Creating Layer conv5_2/3x3_dwconv/concat_fixed_point
I0906 17:57:49.299878 36245 net.cpp:408] conv5_2/3x3_dwconv/concat_fixed_point <- conv5_2/3x3_dwconv/concat
I0906 17:57:49.299883 36245 net.cpp:369] conv5_2/3x3_dwconv/concat_fixed_point -> conv5_2/3x3_dwconv/concat (in-place)
I0906 17:57:49.299922 36245 net.cpp:124] Setting up conv5_2/3x3_dwconv/concat_fixed_point
I0906 17:57:49.299929 36245 net.cpp:131] Top shape: 50 240 14 14 (2352000)
I0906 17:57:49.299932 36245 net.cpp:139] Memory required for data: 3163741800
I0906 17:57:49.299938 36245 layer_factory.hpp:77] Creating layer conv5_2/3x3_dwconv/concat_conv5_2/3x3_dwconv/concat_fixed_point_0_split
I0906 17:57:49.299944 36245 net.cpp:86] Creating Layer conv5_2/3x3_dwconv/concat_conv5_2/3x3_dwconv/concat_fixed_point_0_split
I0906 17:57:49.299948 36245 net.cpp:408] conv5_2/3x3_dwconv/concat_conv5_2/3x3_dwconv/concat_fixed_point_0_split <- conv5_2/3x3_dwconv/concat
I0906 17:57:49.299955 36245 net.cpp:382] conv5_2/3x3_dwconv/concat_conv5_2/3x3_dwconv/concat_fixed_point_0_split -> conv5_2/3x3_dwconv/concat_conv5_2/3x3_dwconv/concat_fixed_point_0_split_0
I0906 17:57:49.299962 36245 net.cpp:382] conv5_2/3x3_dwconv/concat_conv5_2/3x3_dwconv/concat_fixed_point_0_split -> conv5_2/3x3_dwconv/concat_conv5_2/3x3_dwconv/concat_fixed_point_0_split_1
I0906 17:57:49.300014 36245 net.cpp:124] Setting up conv5_2/3x3_dwconv/concat_conv5_2/3x3_dwconv/concat_fixed_point_0_split
…
I0906 17:57:49.425252 36245 net.cpp:86] Creating Layer conv7_3/3x3_dwconv/slice_0
I0906 17:57:49.425257 36245 net.cpp:408] conv7_3/3x3_dwconv/slice_0 <- conv7_3/1x1_increase/split1
I0906 17:57:49.425277 36245 net.cpp:382] conv7_3/3x3_dwconv/slice_0 -> conv7_3/3x3_dwconv/slice_0/bn
I0906 17:57:49.425961 36245 net.cpp:124] Setting up conv7_3/3x3_dwconv/slice_0
I0906 17:57:49.425973 36245 net.cpp:131] Top shape: 50 192 7 7 (470400)
I0906 17:57:49.425977 36245 net.cpp:139] Memory required for data: 4360233800
I0906 17:57:49.425984 36245 layer_factory.hpp:77] Creating layer conv7_3/3x3_dwconv/slice_0/relu
I0906 17:57:49.425990 36245 net.cpp:86] Creating Layer conv7_3/3x3_dwconv/slice_0/relu
I0906 17:57:49.425994 36245 net.cpp:408] conv7_3/3x3_dwconv/slice_0/relu <- conv7_3/3x3_dwconv/slice_0/bn
I0906 17:57:49.426000 36245 net.cpp:369] conv7_3/3x3_dwconv/slice_0/relu -> conv7_3/3x3_dwconv/slice_0/bn (in-place)
I0906 17:57:49.426910 36245 net.cpp:124] Setting up conv7_3/3x3_dwconv/slice_0/relu
I0906 17:57:49.426924 36245 net.cpp:131] Top shape: 50 192 7 7 (470400)
I0906 17:57:49.426944 36245 net.cpp:139] Memory required for data: 4362115400
I0906 17:57:49.426949 36245 layer_factory.hpp:77] Creating layer conv7_3/3x3_dwconv/slice_1
I0906 17:57:49.426962 36245 net.cpp:86] Creating Layer conv7_3/3x3_dwconv/slice_1
I0906 17:57:49.426966 36245 net.cpp:408] conv7_3/3x3_dwconv/slice_1 <- conv7_3/1x1_increase/split2
I0906 17:57:49.426975 36245 net.cpp:382] conv7_3/3x3_dwconv/slice_1 -> conv7_3/3x3_dwconv/slice_1/bn
I0906 17:57:49.427729 36245 net.cpp:124] Setting up conv7_3/3x3_dwconv/slice_1
I0906 17:57:49.427740 36245 net.cpp:131] Top shape: 50 192 7 7 (470400)
I0906 17:57:49.427759 36245 net.cpp:139] Memory required for data: 4363997000
I0906 17:57:49.427767 36245 layer_factory.hpp:77] Creating layer conv7_3/3x3_dwconv/slice_1/relu
I0906 17:57:49.427774 36245 net.cpp:86] Creating Layer conv7_3/3x3_dwconv/slice_1/relu
I0906 17:57:49.427778 36245 net.cpp:408] conv7_3/3x3_dwconv/slice_1/relu <- conv7_3/3x3_dwconv/slice_1/bn
I0906 17:57:49.427785 36245 net.cpp:369] conv7_3/3x3_dwconv/slice_1/relu -> conv7_3/3x3_dwconv/slice_1/bn (in-place)
I0906 17:57:49.428381 36245 net.cpp:124] Setting up conv7_3/3x3_dwconv/slice_1/relu
I0906 17:57:49.428392 36245 net.cpp:131] Top shape: 50 192 7 7 (470400)
I0906 17:57:49.428412 36245 net.cpp:139] Memory required for data: 4365878600
I0906 17:57:49.428416 36245 layer_factory.hpp:77] Creating layer conv7_3/3x3_dwconv/slice_2
I0906 17:57:49.428427 36245 net.cpp:86] Creating Layer conv7_3/3x3_dwconv/slice_2
I0906 17:57:49.428432 36245 net.cpp:408] conv7_3/3x3_dwconv/slice_2 <- conv7_3/1x1_increase/split3
I0906 17:57:49.428439 36245 net.cpp:382] conv7_3/3x3_dwconv/slice_2 -> conv7_3/3x3_dwconv/slice_2/bn
I0906 17:57:49.429510 36245 net.cpp:124] Setting up conv7_3/3x3_dwconv/slice_2
I0906 17:57:49.429524 36245 net.cpp:131] Top shape: 50 192 7 7 (470400)
I0906 17:57:49.429543 36245 net.cpp:139] Memory required for data: 4367760200
I0906 17:57:49.429550 36245 layer_factory.hpp:77] Creating layer conv7_3/3x3_dwconv/slice_2/relu
I0906 17:57:49.429560 36245 net.cpp:86] Creating Layer conv7_3/3x3_dwconv/slice_2/relu
I0906 17:57:49.429564 36245 net.cpp:408] conv7_3/3x3_dwconv/slice_2/relu <- conv7_3/3x3_dwconv/slice_2/bn
I0906 17:57:49.429570 36245 net.cpp:369] conv7_3/3x3_dwconv/slice_2/relu -> conv7_3/3x3_dwconv/slice_2/bn (in-place)
I0906 17:57:49.430187 36245 net.cpp:124] Setting up conv7_3/3x3_dwconv/slice_2/relu
I0906 17:57:49.430198 36245 net.cpp:131] Top shape: 50 192 7 7 (470400)
I0906 17:57:49.430202 36245 net.cpp:139] Memory required for data: 4369641800
I0906 17:57:49.430207 36245 layer_factory.hpp:77] Creating layer conv7_3/3x3_dwconv/concat
I0906 17:57:49.430224 36245 net.cpp:86] Creating Layer conv7_3/3x3_dwconv/concat
I0906 17:57:49.430228 36245 net.cpp:408] conv7_3/3x3_dwconv/concat <- conv7_3/3x3_dwconv/slice_0/bn
I0906 17:57:49.430233 36245 net.cpp:408] conv7_3/3x3_dwconv/concat <- conv7_3/3x3_dwconv/slice_1/bn
I0906 17:57:49.430238 36245 net.cpp:408] conv7_3/3x3_dwconv/concat <- conv7_3/3x3_dwconv/slice_2/bn
I0906 17:57:49.430243 36245 net.cpp:382] conv7_3/3x3_dwconv/concat -> conv7_3/3x3_dwconv/concat
I0906 17:57:49.430294 36245 net.cpp:124] Setting up conv7_3/3x3_dwconv/concat
I0906 17:57:49.430300 36245 net.cpp:131] Top shape: 50 576 7 7 (1411200)
I0906 17:57:49.430305 36245 net.cpp:139] Memory required for data: 4375286600
I0906 17:57:49.430308 36245 layer_factory.hpp:77] Creating layer conv7_3/3x3_dwconv/concat_fixed_point
I0906 17:57:49.430317 36245 net.cpp:86] Creating Layer conv7_3/3x3_dwconv/concat_fixed_point
I0906 17:57:49.430321 36245 net.cpp:408] conv7_3/3x3_dwconv/concat_fixed_point <- conv7_3/3x3_dwconv/concat
I0906 17:57:49.430327 36245 net.cpp:369] conv7_3/3x3_dwconv/concat_fixed_point -> conv7_3/3x3_dwconv/concat (in-place)
I0906 17:57:49.430377 36245 net.cpp:124] Setting up conv7_3/3x3_dwconv/concat_fixed_point
I0906 17:57:49.430382 36245 net.cpp:131] Top shape: 50 576 7 7 (1411200)
I0906 17:57:49.430387 36245 net.cpp:139] Memory required for data: 4380931400
I0906 17:57:49.430392 36245 layer_factory.hpp:77] Creating layer conv7_3/3x3_dwconv/concat_conv7_3/3x3_dwconv/concat_fixed_point_0_split
I0906 17:57:49.430398 36245 net.cpp:86] Creating Layer conv7_3/3x3_dwconv/concat_conv7_3/3x3_dwconv/concat_fixed_point_0_split
I0906 17:57:49.430402 36245 net.cpp:408] conv7_3/3x3_dwconv/concat_conv7_3/3x3_dwconv/concat_fixed_point_0_split <- conv7_3/3x3_dwconv/concat
I0906 17:57:49.430408 36245 net.cpp:382] conv7_3/3x3_dwconv/concat_conv7_3/3x3_dwconv/concat_fixed_point_0_split -> conv7_3/3x3_dwconv/concat_conv7_3/3x3_dwconv/concat_fixed_point_0_split_0
I0906 17:57:49.430416 36245 net.cpp:382] conv7_3/3x3_dwconv/concat_conv7_3/3x3_dwconv/concat_fixed_point_0_split -> conv7_3/3x3_dwconv/concat_conv7_3/3x3_dwconv/concat_fixed_point_0_split_1
I0906 17:57:49.430465 36245 net.cpp:124] Setting up conv7_3/3x3_dwconv/concat_conv7_3/3x3_dwconv/concat_fixed_point_0_split
I0906 17:57:49.430472 36245 net.cpp:131] Top shape: 50 576 7 7 (1411200)
I0906 17:57:49.430476 36245 net.cpp:131] Top shape: 50 576 7 7 (1411200)
I0906 17:57:49.430480 36245 net.cpp:139] Memory required for data: 4392221000
I0906 17:57:49.430482 36245 layer_factory.hpp:77] Creating layer conv7_3/3x3_dwconv/SE_global_pool
I0906 17:57:49.430492 36245 net.cpp:86] Creating Layer conv7_3/3x3_dwconv/SE_global_pool
I0906 17:57:49.430496 36245 net.cpp:408] conv7_3/3x3_dwconv/SE_global_pool <- conv7_3/3x3_dwconv/concat_conv7_3/3x3_dwconv/concat_fixed_point_0_split_0
I0906 17:57:49.430501 36245 net.cpp:382] conv7_3/3x3_dwconv/SE_global_pool -> conv7_3/3x3_dwconv/SE_global_pool
I0906 17:57:49.430534 36245 net.cpp:124] Setting up conv7_3/3x3_dwconv/SE_global_pool
I0906 17:57:49.430541 36245 net.cpp:131] Top shape: 50 576 1 1 (28800)
I0906 17:57:49.430544 36245 net.cpp:139] Memory required for data: 4392336200
I0906 17:57:49.430547 36245 layer_factory.hpp:77] Creating layer conv7_3/3x3_dwconv/SE_fc1
I0906 17:57:49.430559 36245 net.cpp:86] Creating Layer conv7_3/3x3_dwconv/SE_fc1
I0906 17:57:49.430564 36245 net.cpp:408] conv7_3/3x3_dwconv/SE_fc1 <- conv7_3/3x3_dwconv/SE_global_pool
I0906 17:57:49.430570 36245 net.cpp:382] conv7_3/3x3_dwconv/SE_fc1 -> conv7_3/3x3_dwconv/SE_fc1
I0906 17:57:49.431717 36245 net.cpp:124] Setting up conv7_3/3x3_dwconv/SE_fc1
I0906 17:57:49.431731 36245 net.cpp:131] Top shape: 50 36 1 1 (1800)
I0906 17:57:49.431752 36245 net.cpp:139] Memory required for data: 4392343400
I0906 17:57:49.431761 36245 layer_factory.hpp:77] Creating layer conv7_3/3x3_dwconv/SE_fc1/relu
I0906 17:57:49.431769 36245 net.cpp:86] Creating Layer conv7_3/3x3_dwconv/SE_fc1/relu
I0906 17:57:49.431773 36245 net.cpp:408] conv7_3/3x3_dwconv/SE_fc1/relu <- conv7_3/3x3_dwconv/SE_fc1
I0906 17:57:49.431779 36245 net.cpp:369] conv7_3/3x3_dwconv/SE_fc1/relu -> conv7_3/3x3_dwconv/SE_fc1 (in-place)
I0906 17:57:49.432760 36245 net.cpp:124] Setting up conv7_3/3x3_dwconv/SE_fc1/relu
I0906 17:57:49.432790 36245 net.cpp:131] Top shape: 50 36 1 1 (1800)
I0906 17:57:49.432795 36245 net.cpp:139] Memory required for data: 4392350600
I0906 17:57:49.432798 36245 layer_factory.hpp:77] Creating layer conv7_3/3x3_dwconv/SE_fc2
I0906 17:57:49.432811 36245 net.cpp:86] Creating Layer conv7_3/3x3_dwconv/SE_fc2
I0906 17:57:49.432826 36245 net.cpp:408] conv7_3/3x3_dwconv/SE_fc2 <- conv7_3/3x3_dwconv/SE_fc1
I0906 17:57:49.432834 36245 net.cpp:382] conv7_3/3x3_dwconv/SE_fc2 -> conv7_3/3x3_dwconv/SE_fc2
I0906 17:57:49.433938 36245 net.cpp:124] Setting up conv7_3/3x3_dwconv/SE_fc2
I0906 17:57:49.433950 36245 net.cpp:131] Top shape: 50 576 1 1 (28800)
I0906 17:57:49.433954 36245 net.cpp:139] Memory required for data: 4392465800
I0906 17:57:49.433960 36245 layer_factory.hpp:77] Creating layer conv7_3/3x3_dwconv/SE_weights
I0906 17:57:49.433966 36245 net.cpp:86] Creating Layer conv7_3/3x3_dwconv/SE_weights
I0906 17:57:49.433986 36245 net.cpp:408] conv7_3/3x3_dwconv/SE_weights <- conv7_3/3x3_dwconv/SE_fc2
I0906 17:57:49.433991 36245 net.cpp:369] conv7_3/3x3_dwconv/SE_weights -> conv7_3/3x3_dwconv/SE_fc2 (in-place)
I0906 17:57:49.434629 36245 net.cpp:124] Setting up conv7_3/3x3_dwconv/SE_weights
I0906 17:57:49.434641 36245 net.cpp:131] Top shape: 50 576 1 1 (28800)
I0906 17:57:49.434659 36245 net.cpp:139] Memory required for data: 4392581000
I0906 17:57:49.434664 36245 layer_factory.hpp:77] Creating layer conv7_3/3x3_dwconv/SE_weights/reshape
I0906 17:57:49.434672 36245 net.cpp:86] Creating Layer conv7_3/3x3_dwconv/SE_weights/reshape
I0906 17:57:49.434677 36245 net.cpp:408] conv7_3/3x3_dwconv/SE_weights/reshape <- conv7_3/3x3_dwconv/SE_fc2
I0906 17:57:49.434685 36245 net.cpp:382] conv7_3/3x3_dwconv/SE_weights/reshape -> conv7_3/3x3_dwconv/SE_weights/reshape
I0906 17:57:49.434726 36245 net.cpp:124] Setting up conv7_3/3x3_dwconv/SE_weights/reshape
I0906 17:57:49.434732 36245 net.cpp:131] Top shape: 50 576 (28800)
I0906 17:57:49.434736 36245 net.cpp:139] Memory required for data: 4392696200
I0906 17:57:49.434739 36245 layer_factory.hpp:77] Creating layer conv7_3/3x3_dwconv/scale
I0906 17:57:49.434749 36245 net.cpp:86] Creating Layer conv7_3/3x3_dwconv/scale
I0906 17:57:49.434753 36245 net.cpp:408] conv7_3/3x3_dwconv/scale <- conv7_3/3x3_dwconv/concat_conv7_3/3x3_dwconv/concat_fixed_point_0_split_1
I0906 17:57:49.434758 36245 net.cpp:408] conv7_3/3x3_dwconv/scale <- conv7_3/3x3_dwconv/SE_weights/reshape
I0906 17:57:49.434765 36245 net.cpp:382] conv7_3/3x3_dwconv/scale -> conv7_3/3x3_dwconv/scale
I0906 17:57:49.434855 36245 net.cpp:124] Setting up conv7_3/3x3_dwconv/scale
I0906 17:57:49.434862 36245 net.cpp:131] Top shape: 50 576 7 7 (1411200)
I0906 17:57:49.434865 36245 net.cpp:139] Memory required for data: 4398341000
I0906 17:57:49.434868 36245 layer_factory.hpp:77] Creating layer conv7_3/3x3_dwconv/scale_fixed_point
I0906 17:57:49.434877 36245 net.cpp:86] Creating Layer conv7_3/3x3_dwconv/scale_fixed_point
I0906 17:57:49.434881 36245 net.cpp:408] conv7_3/3x3_dwconv/scale_fixed_point <- conv7_3/3x3_dwconv/scale
I0906 17:57:49.434886 36245 net.cpp:369] conv7_3/3x3_dwconv/scale_fixed_point -> conv7_3/3x3_dwconv/scale (in-place)
I0906 17:57:49.434919 36245 net.cpp:124] Setting up conv7_3/3x3_dwconv/scale_fixed_point
I0906 17:57:49.434926 36245 net.cpp:131] Top shape: 50 576 7 7 (1411200)
I0906 17:57:49.434928 36245 net.cpp:139] Memory required for data: 4403985800
I0906 17:57:49.434934 36245 layer_factory.hpp:77] Creating layer conv7_3/1x1_decrease
I0906 17:57:49.434960 36245 net.cpp:86] Creating Layer conv7_3/1x1_decrease
I0906 17:57:49.434965 36245 net.cpp:408] conv7_3/1x1_decrease <- conv7_3/3x3_dwconv/scale
I0906 17:57:49.434988 36245 net.cpp:382] conv7_3/1x1_decrease -> conv7_3/1x1_decrease/bn
I0906 17:57:49.438745 36245 net.cpp:124] Setting up conv7_3/1x1_decrease
I0906 17:57:49.438756 36245 net.cpp:131] Top shape: 50 192 7 7 (470400)
I0906 17:57:49.438760 36245 net.cpp:139] Memory required for data: 4405867400
I0906 17:57:49.438767 36245 layer_factory.hpp:77] Creating layer conv7_3/elt_sum
I0906 17:57:49.438777 36245 net.cpp:86] Creating Layer conv7_3/elt_sum
I0906 17:57:49.438782 36245 net.cpp:408] conv7_3/elt_sum <- conv7_2/elt_sum_conv7_2/elt_sum_fixed_point_0_split_1
I0906 17:57:49.438786 36245 net.cpp:408] conv7_3/elt_sum <- conv7_3/1x1_decrease/bn
I0906 17:57:49.438793 36245 net.cpp:382] conv7_3/elt_sum -> conv7_3/elt_sum
I0906 17:57:49.438858 36245 net.cpp:124] Setting up conv7_3/elt_sum
I0906 17:57:49.438864 36245 net.cpp:131] Top shape: 50 192 7 7 (470400)
I0906 17:57:49.438868 36245 net.cpp:139] Memory required for data: 4407749000
I0906 17:57:49.438871 36245 layer_factory.hpp:77] Creating layer conv7_3/elt_sum_fixed_point
I0906 17:57:49.438879 36245 net.cpp:86] Creating Layer conv7_3/elt_sum_fixed_point
I0906 17:57:49.438884 36245 net.cpp:408] conv7_3/elt_sum_fixed_point <- conv7_3/elt_sum
I0906 17:57:49.438889 36245 net.cpp:369] conv7_3/elt_sum_fixed_point -> conv7_3/elt_sum (in-place)
I0906 17:57:49.438922 36245 net.cpp:124] Setting up conv7_3/elt_sum_fixed_point
I0906 17:57:49.438930 36245 net.cpp:131] Top shape: 50 192 7 7 (470400)
I0906 17:57:49.438932 36245 net.cpp:139] Memory required for data: 4409630600
I0906 17:57:49.438936 36245 layer_factory.hpp:77] Creating layer conv7_3/elt_sum_conv7_3/elt_sum_fixed_point_0_split
I0906 17:57:49.438942 36245 net.cpp:86] Creating Layer conv7_3/elt_sum_conv7_3/elt_sum_fixed_point_0_split
I0906 17:57:49.438946 36245 net.cpp:408] conv7_3/elt_sum_conv7_3/elt_sum_fixed_point_0_split <- conv7_3/elt_sum
I0906 17:57:49.438953 36245 net.cpp:382] conv7_3/elt_sum_conv7_3/elt_sum_fixed_point_0_split -> conv7_3/elt_sum_conv7_3/elt_sum_fixed_point_0_split_0
I0906 17:57:49.438959 36245 net.cpp:382] conv7_3/elt_sum_conv7_3/elt_sum_fixed_point_0_split -> conv7_3/elt_sum_conv7_3/elt_sum_fixed_point_0_split_1
I0906 17:57:49.439013 36245 net.cpp:124] Setting up conv7_3/elt_sum_conv7_3/elt_sum_fixed_point_0_split
I0906 17:57:49.439020 36245 net.cpp:131] Top shape: 50 192 7 7 (470400)
I0906 17:57:49.439024 36245 net.cpp:131] Top shape: 50 192 7 7 (470400)
I0906 17:57:49.439028 36245 net.cpp:139] Memory required for data: 4413393800
I0906 17:57:49.439031 36245 layer_factory.hpp:77] Creating layer conv7_4/1x1_increase
I0906 17:57:49.439043 36245 net.cpp:86] Creating Layer conv7_4/1x1_increase
I0906 17:57:49.439049 36245 net.cpp:408] conv7_4/1x1_increase <- conv7_3/elt_sum_conv7_3/elt_sum_fixed_point_0_split_0
I0906 17:57:49.439054 36245 net.cpp:382] conv7_4/1x1_increase -> conv7_4/1x1_increase/bn
I0906 17:57:49.442818 36245 net.cpp:124] Setting up conv7_4/1x1_increase
I0906 17:57:49.442831 36245 net.cpp:131] Top shape: 50 576 7 7 (1411200)
I0906 17:57:49.442849 36245 net.cpp:139] Memory required for data: 4419038600
I0906 17:57:49.442857 36245 layer_factory.hpp:77] Creating layer conv7_4/1x1_increase/relu
I0906 17:57:49.442864 36245 net.cpp:86] Creating Layer conv7_4/1x1_increase/relu
I0906 17:57:49.442869 36245 net.cpp:408] conv7_4/1x1_increase/relu <- conv7_4/1x1_increase/bn
I0906 17:57:49.442876 36245 net.cpp:369] conv7_4/1x1_increase/relu -> conv7_4/1x1_increase/bn (in-place)
I0906 17:57:49.443491 36245 net.cpp:124] Setting up conv7_4/1x1_increase/relu
I0906 17:57:49.443502 36245 net.cpp:131] Top shape: 50 576 7 7 (1411200)
I0906 17:57:49.443522 36245 net.cpp:139] Memory required for data: 4424683400
I0906 17:57:49.443526 36245 layer_factory.hpp:77] Creating layer conv7_4/1x1_increase/bn_fixed_point
I0906 17:57:49.443552 36245 net.cpp:86] Creating Layer conv7_4/1x1_increase/bn_fixed_point
I0906 17:57:49.443557 36245 net.cpp:408] conv7_4/1x1_increase/bn_fixed_point <- conv7_4/1x1_increase/bn
I0906 17:57:49.443564 36245 net.cpp:369] conv7_4/1x1_increase/bn_fixed_point -> conv7_4/1x1_increase/bn (in-place)
I0906 17:57:49.443603 36245 net.cpp:124] Setting up conv7_4/1x1_increase/bn_fixed_point
I0906 17:57:49.443608 36245 net.cpp:131] Top shape: 50 576 7 7 (1411200)
I0906 17:57:49.443611 36245 net.cpp:139] Memory required for data: 4430328200
I0906 17:57:49.443616 36245 layer_factory.hpp:77] Creating layer conv7_4/1x1_increase/slice
I0906 17:57:49.443625 36245 net.cpp:86] Creating Layer conv7_4/1x1_increase/slice
I0906 17:57:49.443629 36245 net.cpp:408] conv7_4/1x1_increase/slice <- conv7_4/1x1_increase/bn
I0906 17:57:49.443634 36245 net.cpp:382] conv7_4/1x1_increase/slice -> conv7_4/1x1_increase/split1
I0906 17:57:49.443641 36245 net.cpp:382] conv7_4/1x1_increase/slice -> conv7_4/1x1_increase/split2
I0906 17:57:49.443661 36245 net.cpp:382] conv7_4/1x1_increase/slice -> conv7_4/1x1_increase/split3
I0906 17:57:49.443732 36245 net.cpp:124] Setting up conv7_4/1x1_increase/slice
I0906 17:57:49.443738 36245 net.cpp:131] Top shape: 50 192 7 7 (470400)
I0906 17:57:49.443742 36245 net.cpp:131] Top shape: 50 192 7 7 (470400)
I0906 17:57:49.443747 36245 net.cpp:131] Top shape: 50 192 7 7 (470400)
I0906 17:57:49.443765 36245 net.cpp:139] Memory required for data: 4435973000
I0906 17:57:49.443768 36245 layer_factory.hpp:77] Creating layer conv7_4/3x3_dwconv/slice_0
I0906 17:57:49.443781 36245 net.cpp:86] Creating Layer conv7_4/3x3_dwconv/slice_0
I0906 17:57:49.443786 36245 net.cpp:408] conv7_4/3x3_dwconv/slice_0 <- conv7_4/1x1_increase/split1
I0906 17:57:49.443794 36245 net.cpp:382] conv7_4/3x3_dwconv/slice_0 -> conv7_4/3x3_dwconv/slice_0/bn
I0906 17:57:49.444468 36245 net.cpp:124] Setting up conv7_4/3x3_dwconv/slice_0
I0906 17:57:49.444480 36245 net.cpp:131] Top shape: 50 192 7 7 (470400)
I0906 17:57:49.444499 36245 net.cpp:139] Memory required for data: 4437854600
I0906 17:57:49.444506 36245 layer_factory.hpp:77] Creating layer conv7_4/3x3_dwconv/slice_0/relu
I0906 17:57:49.444512 36245 net.cpp:86] Creating Layer conv7_4/3x3_dwconv/slice_0/relu
I0906 17:57:49.444517 36245 net.cpp:408] conv7_4/3x3_dwconv/slice_0/relu <- conv7_4/3x3_dwconv/slice_0/bn
I0906 17:57:49.444525 36245 net.cpp:369] conv7_4/3x3_dwconv/slice_0/relu -> conv7_4/3x3_dwconv/slice_0/bn (in-place)
I0906 17:57:49.445145 36245 net.cpp:124] Setting up conv7_4/3x3_dwconv/slice_0/relu
I0906 17:57:49.445158 36245 net.cpp:131] Top shape: 50 192 7 7 (470400)
I0906 17:57:49.445161 36245 net.cpp:139] Memory required for data: 4439736200
I0906 17:57:49.445164 36245 layer_factory.hpp:77] Creating layer conv7_4/3x3_dwconv/slice_1
I0906 17:57:49.445175 36245 net.cpp:86] Creating Layer conv7_4/3x3_dwconv/slice_1
I0906 17:57:49.445180 36245 net.cpp:408] conv7_4/3x3_dwconv/slice_1 <- conv7_4/1x1_increase/split2
I0906 17:57:49.445188 36245 net.cpp:382] conv7_4/3x3_dwconv/slice_1 -> conv7_4/3x3_dwconv/slice_1/bn
I0906 17:57:49.445982 36245 net.cpp:124] Setting up conv7_4/3x3_dwconv/slice_1
I0906 17:57:49.445993 36245 net.cpp:131] Top shape: 50 192 7 7 (470400)
I0906 17:57:49.446017 36245 net.cpp:139] Memory required for data: 4441617800
I0906 17:57:49.446023 36245 layer_factory.hpp:77] Creating layer conv7_4/3x3_dwconv/slice_1/relu
I0906 17:57:49.446032 36245 net.cpp:86] Creating Layer conv7_4/3x3_dwconv/slice_1/relu
I0906 17:57:49.446035 36245 net.cpp:408] conv7_4/3x3_dwconv/slice_1/relu <- conv7_4/3x3_dwconv/slice_1/bn
I0906 17:57:49.446040 36245 net.cpp:369] conv7_4/3x3_dwconv/slice_1/relu -> conv7_4/3x3_dwconv/slice_1/bn (in-place)
I0906 17:57:49.446931 36245 net.cpp:124] Setting up conv7_4/3x3_dwconv/slice_1/relu
I0906 17:57:49.446944 36245 net.cpp:131] Top shape: 50 192 7 7 (470400)
I0906 17:57:49.446964 36245 net.cpp:139] Memory required for data: 4443499400
I0906 17:57:49.446969 36245 layer_factory.hpp:77] Creating layer conv7_4/3x3_dwconv/slice_2
I0906 17:57:49.446981 36245 net.cpp:86] Creating Layer conv7_4/3x3_dwconv/slice_2
I0906 17:57:49.446986 36245 net.cpp:408] conv7_4/3x3_dwconv/slice_2 <- conv7_4/1x1_increase/split3
I0906 17:57:49.446993 36245 net.cpp:382] conv7_4/3x3_dwconv/slice_2 -> conv7_4/3x3_dwconv/slice_2/bn
I0906 17:57:49.448110 36245 net.cpp:124] Setting up conv7_4/3x3_dwconv/slice_2
I0906 17:57:49.448123 36245 net.cpp:131] Top shape: 50 192 7 7 (470400)
I0906 17:57:49.448138 36245 net.cpp:139] Memory required for data: 4445381000
I0906 17:57:49.448145 36245 layer_factory.hpp:77] Creating layer conv7_4/3x3_dwconv/slice_2/relu
I0906 17:57:49.448153 36245 net.cpp:86] Creating Layer conv7_4/3x3_dwconv/slice_2/relu
I0906 17:57:49.448158 36245 net.cpp:408] conv7_4/3x3_dwconv/slice_2/relu <- conv7_4/3x3_dwconv/slice_2/bn
I0906 17:57:49.448163 36245 net.cpp:369] conv7_4/3x3_dwconv/slice_2/relu -> conv7_4/3x3_dwconv/slice_2/bn (in-place)
I0906 17:57:49.448762 36245 net.cpp:124] Setting up conv7_4/3x3_dwconv/slice_2/relu
I0906 17:57:49.448789 36245 net.cpp:131] Top shape: 50 192 7 7 (470400)
I0906 17:57:49.448804 36245 net.cpp:139] Memory required for data: 4447262600
I0906 17:57:49.448808 36245 layer_factory.hpp:77] Creating layer conv7_4/3x3_dwconv/concat
I0906 17:57:49.448815 36245 net.cpp:86] Creating Layer conv7_4/3x3_dwconv/concat
I0906 17:57:49.448819 36245 net.cpp:408] conv7_4/3x3_dwconv/concat <- conv7_4/3x3_dwconv/slice_0/bn
I0906 17:57:49.448824 36245 net.cpp:408] conv7_4/3x3_dwconv/concat <- conv7_4/3x3_dwconv/slice_1/bn
I0906 17:57:49.448829 36245 net.cpp:408] conv7_4/3x3_dwconv/concat <- conv7_4/3x3_dwconv/slice_2/bn
I0906 17:57:49.448834 36245 net.cpp:382] conv7_4/3x3_dwconv/concat -> conv7_4/3x3_dwconv/concat
I0906 17:57:49.448894 36245 net.cpp:124] Setting up conv7_4/3x3_dwconv/concat
I0906 17:57:49.448901 36245 net.cpp:131] Top shape: 50 576 7 7 (1411200)
I0906 17:57:49.448904 36245 net.cpp:139] Memory required for data: 4452907400
I0906 17:57:49.448907 36245 layer_factory.hpp:77] Creating layer conv7_4/3x3_dwconv/concat_fixed_point
I0906 17:57:49.448915 36245 net.cpp:86] Creating Layer conv7_4/3x3_dwconv/concat_fixed_point
I0906 17:57:49.448920 36245 net.cpp:408] conv7_4/3x3_dwconv/concat_fixed_point <- conv7_4/3x3_dwconv/concat
I0906 17:57:49.448925 36245 net.cpp:369] conv7_4/3x3_dwconv/concat_fixed_point -> conv7_4/3x3_dwconv/concat (in-place)
I0906 17:57:49.448959 36245 net.cpp:124] Setting up conv7_4/3x3_dwconv/concat_fixed_point
I0906 17:57:49.448966 36245 net.cpp:131] Top shape: 50 576 7 7 (1411200)
I0906 17:57:49.448969 36245 net.cpp:139] Memory required for data: 4458552200
I0906 17:57:49.448976 36245 layer_factory.hpp:77] Creating layer conv7_4/3x3_dwconv/concat_conv7_4/3x3_dwconv/concat_fixed_point_0_split
I0906 17:57:49.448982 36245 net.cpp:86] Creating Layer conv7_4/3x3_dwconv/concat_conv7_4/3x3_dwconv/concat_fixed_point_0_split
I0906 17:57:49.448984 36245 net.cpp:408] conv7_4/3x3_dwconv/concat_conv7_4/3x3_dwconv/concat_fixed_point_0_split <- conv7_4/3x3_dwconv/concat
I0906 17:57:49.448992 36245 net.cpp:382] conv7_4/3x3_dwconv/concat_conv7_4/3x3_dwconv/concat_fixed_point_0_split -> conv7_4/3x3_dwconv/concat_conv7_4/3x3_dwconv/concat_fixed_point_0_split_0
I0906 17:57:49.448998 36245 net.cpp:382] conv7_4/3x3_dwconv/concat_conv7_4/3x3_dwconv/concat_fixed_point_0_split -> conv7_4/3x3_dwconv/concat_conv7_4/3x3_dwconv/concat_fixed_point_0_split_1
I0906 17:57:49.449057 36245 net.cpp:124] Setting up conv7_4/3x3_dwconv/concat_conv7_4/3x3_dwconv/concat_fixed_point_0_split
I0906 17:57:49.449066 36245 net.cpp:131] Top shape: 50 576 7 7 (1411200)
I0906 17:57:49.449070 36245 net.cpp:131] Top shape: 50 576 7 7 (1411200)
I0906 17:57:49.449074 36245 net.cpp:139] Memory required for data: 4469841800
I0906 17:57:49.449077 36245 layer_factory.hpp:77] Creating layer conv7_4/3x3_dwconv/SE_global_pool
I0906 17:57:49.449084 36245 net.cpp:86] Creating Layer conv7_4/3x3_dwconv/SE_global_pool
I0906 17:57:49.449088 36245 net.cpp:408] conv7_4/3x3_dwconv/SE_global_pool <- conv7_4/3x3_dwconv/concat_conv7_4/3x3_dwconv/concat_fixed_point_0_split_0
I0906 17:57:49.449093 36245 net.cpp:382] conv7_4/3x3_dwconv/SE_global_pool -> conv7_4/3x3_dwconv/SE_global_pool
I0906 17:57:49.449126 36245 net.cpp:124] Setting up conv7_4/3x3_dwconv/SE_global_pool
I0906 17:57:49.449131 36245 net.cpp:131] Top shape: 50 576 1 1 (28800)
I0906 17:57:49.449134 36245 net.cpp:139] Memory required for data: 4469957000
I0906 17:57:49.449137 36245 layer_factory.hpp:77] Creating layer conv7_4/3x3_dwconv/SE_fc1
I0906 17:57:49.449151 36245 net.cpp:86] Creating Layer conv7_4/3x3_dwconv/SE_fc1
I0906 17:57:49.449154 36245 net.cpp:408] conv7_4/3x3_dwconv/SE_fc1 <- conv7_4/3x3_dwconv/SE_global_pool
I0906 17:57:49.449162 36245 net.cpp:382] conv7_4/3x3_dwconv/SE_fc1 -> conv7_4/3x3_dwconv/SE_fc1
I0906 17:57:49.450131 36245 net.cpp:124] Setting up conv7_4/3x3_dwconv/SE_fc1
I0906 17:57:49.450143 36245 net.cpp:131] Top shape: 50 36 1 1 (1800)
I0906 17:57:49.450146 36245 net.cpp:139] Memory required for data: 4469964200
I0906 17:57:49.450153 36245 layer_factory.hpp:77] Creating layer conv7_4/3x3_dwconv/SE_fc1/relu
I0906 17:57:49.450168 36245 net.cpp:86] Creating Layer conv7_4/3x3_dwconv/SE_fc1/relu
I0906 17:57:49.450173 36245 net.cpp:408] conv7_4/3x3_dwconv/SE_fc1/relu <- conv7_4/3x3_dwconv/SE_fc1
I0906 17:57:49.450181 36245 net.cpp:369] conv7_4/3x3_dwconv/SE_fc1/relu -> conv7_4/3x3_dwconv/SE_fc1 (in-place)
I0906 17:57:49.450942 36245 net.cpp:124] Setting up conv7_4/3x3_dwconv/SE_fc1/relu
I0906 17:57:49.450955 36245 net.cpp:131] Top shape: 50 36 1 1 (1800)
I0906 17:57:49.450974 36245 net.cpp:139] Memory required for data: 4469971400
I0906 17:57:49.450978 36245 layer_factory.hpp:77] Creating layer conv7_4/3x3_dwconv/SE_fc2
I0906 17:57:49.451000 36245 net.cpp:86] Creating Layer conv7_4/3x3_dwconv/SE_fc2
I0906 17:57:49.451005 36245 net.cpp:408] conv7_4/3x3_dwconv/SE_fc2 <- conv7_4/3x3_dwconv/SE_fc1
I0906 17:57:49.451020 36245 net.cpp:382] conv7_4/3x3_dwconv/SE_fc2 -> conv7_4/3x3_dwconv/SE_fc2
I0906 17:57:49.452021 36245 net.cpp:124] Setting up conv7_4/3x3_dwconv/SE_fc2
I0906 17:57:49.452033 36245 net.cpp:131] Top shape: 50 576 1 1 (28800)
I0906 17:57:49.452037 36245 net.cpp:139] Memory required for data: 4470086600
I0906 17:57:49.452042 36245 layer_factory.hpp:77] Creating layer conv7_4/3x3_dwconv/SE_weights
I0906 17:57:49.452051 36245 net.cpp:86] Creating Layer conv7_4/3x3_dwconv/SE_weights
I0906 17:57:49.452055 36245 net.cpp:408] conv7_4/3x3_dwconv/SE_weights <- conv7_4/3x3_dwconv/SE_fc2
I0906 17:57:49.452060 36245 net.cpp:369] conv7_4/3x3_dwconv/SE_weights -> conv7_4/3x3_dwconv/SE_fc2 (in-place)
I0906 17:57:49.452895 36245 net.cpp:124] Setting up conv7_4/3x3_dwconv/SE_weights
I0906 17:57:49.452908 36245 net.cpp:131] Top shape: 50 576 1 1 (28800)
I0906 17:57:49.452927 36245 net.cpp:139] Memory required for data: 4470201800
I0906 17:57:49.452931 36245 layer_factory.hpp:77] Creating layer conv7_4/3x3_dwconv/SE_weights/reshape
I0906 17:57:49.452955 36245 net.cpp:86] Creating Layer conv7_4/3x3_dwconv/SE_weights/reshape
I0906 17:57:49.452960 36245 net.cpp:408] conv7_4/3x3_dwconv/SE_weights/reshape <- conv7_4/3x3_dwconv/SE_fc2
I0906 17:57:49.452966 36245 net.cpp:382] conv7_4/3x3_dwconv/SE_weights/reshape -> conv7_4/3x3_dwconv/SE_weights/reshape
I0906 17:57:49.453027 36245 net.cpp:124] Setting up conv7_4/3x3_dwconv/SE_weights/reshape
I0906 17:57:49.453034 36245 net.cpp:131] Top shape: 50 576 (28800)
I0906 17:57:49.453037 36245 net.cpp:139] Memory required for data: 4470317000
I0906 17:57:49.453042 36245 layer_factory.hpp:77] Creating layer conv7_4/3x3_dwconv/scale
I0906 17:57:49.453047 36245 net.cpp:86] Creating Layer conv7_4/3x3_dwconv/scale
I0906 17:57:49.453068 36245 net.cpp:408] conv7_4/3x3_dwconv/scale <- conv7_4/3x3_dwconv/concat_conv7_4/3x3_dwconv/concat_fixed_point_0_split_1
I0906 17:57:49.453073 36245 net.cpp:408] conv7_4/3x3_dwconv/scale <- conv7_4/3x3_dwconv/SE_weights/reshape
I0906 17:57:49.453083 36245 net.cpp:382] conv7_4/3x3_dwconv/scale -> conv7_4/3x3_dwconv/scale
I0906 17:57:49.453183 36245 net.cpp:124] Setting up conv7_4/3x3_dwconv/scale
I0906 17:57:49.453191 36245 net.cpp:131] Top shape: 50 576 7 7 (1411200)
I0906 17:57:49.453193 36245 net.cpp:139] Memory required for data: 4475961800
I0906 17:57:49.453197 36245 layer_factory.hpp:77] Creating layer conv7_4/3x3_dwconv/scale_fixed_point
I0906 17:57:49.453205 36245 net.cpp:86] Creating Layer conv7_4/3x3_dwconv/scale_fixed_point
I0906 17:57:49.453210 36245 net.cpp:408] conv7_4/3x3_dwconv/scale_fixed_point <- conv7_4/3x3_dwconv/scale
I0906 17:57:49.453215 36245 net.cpp:369] conv7_4/3x3_dwconv/scale_fixed_point -> conv7_4/3x3_dwconv/scale (in-place)
I0906 17:57:49.453248 36245 net.cpp:124] Setting up conv7_4/3x3_dwconv/scale_fixed_point
I0906 17:57:49.453254 36245 net.cpp:131] Top shape: 50 576 7 7 (1411200)
I0906 17:57:49.453258 36245 net.cpp:139] Memory required for data: 4481606600
I0906 17:57:49.453263 36245 layer_factory.hpp:77] Creating layer conv7_4/1x1_decrease
I0906 17:57:49.453274 36245 net.cpp:86] Creating Layer conv7_4/1x1_decrease
I0906 17:57:49.453277 36245 net.cpp:408] conv7_4/1x1_decrease <- conv7_4/3x3_dwconv/scale
I0906 17:57:49.453284 36245 net.cpp:382] conv7_4/1x1_decrease -> conv7_4/1x1_decrease/bn
I0906 17:57:49.457947 36245 net.cpp:124] Setting up conv7_4/1x1_decrease
I0906 17:57:49.457960 36245 net.cpp:131] Top shape: 50 192 7 7 (470400)
I0906 17:57:49.457980 36245 net.cpp:139] Memory required for data: 4483488200
I0906 17:57:49.457988 36245 layer_factory.hpp:77] Creating layer conv7_4/elt_sum
I0906 17:57:49.457994 36245 net.cpp:86] Creating Layer conv7_4/elt_sum
I0906 17:57:49.457998 36245 net.cpp:408] conv7_4/elt_sum <- conv7_3/elt_sum_conv7_3/elt_sum_fixed_point_0_split_1
I0906 17:57:49.458024 36245 net.cpp:408] conv7_4/elt_sum <- conv7_4/1x1_decrease/bn
I0906 17:57:49.458032 36245 net.cpp:382] conv7_4/elt_sum -> conv7_4/elt_sum
I0906 17:57:49.458072 36245 net.cpp:124] Setting up conv7_4/elt_sum
I0906 17:57:49.458096 36245 net.cpp:131] Top shape: 50 192 7 7 (470400)
I0906 17:57:49.458099 36245 net.cpp:139] Memory required for data: 4485369800
I0906 17:57:49.458102 36245 layer_factory.hpp:77] Creating layer conv7_4/elt_sum_fixed_point
I0906 17:57:49.458109 36245 net.cpp:86] Creating Layer conv7_4/elt_sum_fixed_point
I0906 17:57:49.458113 36245 net.cpp:408] conv7_4/elt_sum_fixed_point <- conv7_4/elt_sum
I0906 17:57:49.458120 36245 net.cpp:369] conv7_4/elt_sum_fixed_point -> conv7_4/elt_sum (in-place)
I0906 17:57:49.458153 36245 net.cpp:124] Setting up conv7_4/elt_sum_fixed_point
I0906 17:57:49.458161 36245 net.cpp:131] Top shape: 50 192 7 7 (470400)
I0906 17:57:49.458164 36245 net.cpp:139] Memory required for data: 4487251400
I0906 17:57:49.458174 36245 layer_factory.hpp:77] Creating layer conv8_0/1x1_increase
I0906 17:57:49.458185 36245 net.cpp:86] Creating Layer conv8_0/1x1_increase
I0906 17:57:49.458190 36245 net.cpp:408] conv8_0/1x1_increase <- conv7_4/elt_sum
I0906 17:57:49.458196 36245 net.cpp:382] conv8_0/1x1_increase -> conv8_0/1x1_increase/bn
I0906 17:57:49.464627 36245 net.cpp:124] Setting up conv8_0/1x1_increase
I0906 17:57:49.464639 36245 net.cpp:131] Top shape: 50 1152 7 7 (2822400)
I0906 17:57:49.464658 36245 net.cpp:139] Memory required for data: 4498541000
I0906 17:57:49.464664 36245 layer_factory.hpp:77] Creating layer conv8_0/1x1_increase/relu
I0906 17:57:49.464671 36245 net.cpp:86] Creating Layer conv8_0/1x1_increase/relu
I0906 17:57:49.464691 36245 net.cpp:408] conv8_0/1x1_increase/relu <- conv8_0/1x1_increase/bn
I0906 17:57:49.464695 36245 net.cpp:369] conv8_0/1x1_increase/relu -> conv8_0/1x1_increase/bn (in-place)
I0906 17:57:49.465283 36245 net.cpp:124] Setting up conv8_0/1x1_increase/relu
I0906 17:57:49.465293 36245 net.cpp:131] Top shape: 50 1152 7 7 (2822400)
I0906 17:57:49.465313 36245 net.cpp:139] Memory required for data: 4509830600
I0906 17:57:49.465317 36245 layer_factory.hpp:77] Creating layer conv8_0/1x1_increase/bn_fixed_point
I0906 17:57:49.465324 36245 net.cpp:86] Creating Layer conv8_0/1x1_increase/bn_fixed_point
I0906 17:57:49.465328 36245 net.cpp:408] conv8_0/1x1_increase/bn_fixed_point <- conv8_0/1x1_increase/bn
I0906 17:57:49.465348 36245 net.cpp:369] conv8_0/1x1_increase/bn_fixed_point -> conv8_0/1x1_increase/bn (in-place)
I0906 17:57:49.465387 36245 net.cpp:124] Setting up conv8_0/1x1_increase/bn_fixed_point
I0906 17:57:49.465394 36245 net.cpp:131] Top shape: 50 1152 7 7 (2822400)
I0906 17:57:49.465399 36245 net.cpp:139] Memory required for data: 4521120200
I0906 17:57:49.465404 36245 layer_factory.hpp:77] Creating layer conv8_0/1x1_increase/slice
I0906 17:57:49.465412 36245 net.cpp:86] Creating Layer conv8_0/1x1_increase/slice
I0906 17:57:49.465415 36245 net.cpp:408] conv8_0/1x1_increase/slice <- conv8_0/1x1_increase/bn
I0906 17:57:49.465420 36245 net.cpp:382] conv8_0/1x1_increase/slice -> conv8_0/1x1_increase/split1
I0906 17:57:49.465427 36245 net.cpp:382] conv8_0/1x1_increase/slice -> conv8_0/1x1_increase/split2
I0906 17:57:49.465433 36245 net.cpp:382] conv8_0/1x1_increase/slice -> conv8_0/1x1_increase/split3
I0906 17:57:49.465500 36245 net.cpp:124] Setting up conv8_0/1x1_increase/slice
I0906 17:57:49.465507 36245 net.cpp:131] Top shape: 50 384 7 7 (940800)
I0906 17:57:49.465510 36245 net.cpp:131] Top shape: 50 384 7 7 (940800)
I0906 17:57:49.465526 36245 net.cpp:131] Top shape: 50 384 7 7 (940800)
I0906 17:57:49.465530 36245 net.cpp:139] Memory required for data: 4532409800
I0906 17:57:49.465533 36245 layer_factory.hpp:77] Creating layer conv8_0/3x3_dwconv/slice_0
I0906 17:57:49.465543 36245 net.cpp:86] Creating Layer conv8_0/3x3_dwconv/slice_0
I0906 17:57:49.465548 36245 net.cpp:408] conv8_0/3x3_dwconv/slice_0 <- conv8_0/1x1_increase/split1
I0906 17:57:49.465555 36245 net.cpp:382] conv8_0/3x3_dwconv/slice_0 -> conv8_0/3x3_dwconv/slice_0/bn
I0906 17:57:49.466243 36245 net.cpp:124] Setting up conv8_0/3x3_dwconv/slice_0
I0906 17:57:49.466253 36245 net.cpp:131] Top shape: 50 384 7 7 (940800)
I0906 17:57:49.466272 36245 net.cpp:139] Memory required for data: 4536173000
I0906 17:57:49.466279 36245 layer_factory.hpp:77] Creating layer conv8_0/3x3_dwconv/slice_0/relu
I0906 17:57:49.466285 36245 net.cpp:86] Creating Layer conv8_0/3x3_dwconv/slice_0/relu
I0906 17:57:49.466289 36245 net.cpp:408] conv8_0/3x3_dwconv/slice_0/relu <- conv8_0/3x3_dwconv/slice_0/bn
I0906 17:57:49.466311 36245 net.cpp:369] conv8_0/3x3_dwconv/slice_0/relu -> conv8_0/3x3_dwconv/slice_0/bn (in-place)
I0906 17:57:49.466913 36245 net.cpp:124] Setting up conv8_0/3x3_dwconv/slice_0/relu
I0906 17:57:49.466924 36245 net.cpp:131] Top shape: 50 384 7 7 (940800)
I0906 17:57:49.466944 36245 net.cpp:139] Memory required for data: 4539936200
I0906 17:57:49.466948 36245 layer_factory.hpp:77] Creating layer conv8_0/3x3_dwconv/slice_1
I0906 17:57:49.466958 36245 net.cpp:86] Creating Layer conv8_0/3x3_dwconv/slice_1
I0906 17:57:49.466962 36245 net.cpp:408] conv8_0/3x3_dwconv/slice_1 <- conv8_0/1x1_increase/split2
I0906 17:57:49.466984 36245 net.cpp:382] conv8_0/3x3_dwconv/slice_1 -> conv8_0/3x3_dwconv/slice_1/bn
I0906 17:57:49.468044 36245 net.cpp:124] Setting up conv8_0/3x3_dwconv/slice_1
I0906 17:57:49.468055 36245 net.cpp:131] Top shape: 50 384 7 7 (940800)
I0906 17:57:49.468075 36245 net.cpp:139] Memory required for data: 4543699400
I0906 17:57:49.468082 36245 layer_factory.hpp:77] Creating layer conv8_0/3x3_dwconv/slice_1/relu
I0906 17:57:49.468091 36245 net.cpp:86] Creating Layer conv8_0/3x3_dwconv/slice_1/relu
I0906 17:57:49.468094 36245 net.cpp:408] conv8_0/3x3_dwconv/slice_1/relu <- conv8_0/3x3_dwconv/slice_1/bn
I0906 17:57:49.468099 36245 net.cpp:369] conv8_0/3x3_dwconv/slice_1/relu -> conv8_0/3x3_dwconv/slice_1/bn (in-place)
I0906 17:57:49.468901 36245 net.cpp:124] Setting up conv8_0/3x3_dwconv/slice_1/relu
I0906 17:57:49.468914 36245 net.cpp:131] Top shape: 50 384 7 7 (940800)
I0906 17:57:49.468933 36245 net.cpp:139] Memory required for data: 4547462600
I0906 17:57:49.468937 36245 layer_factory.hpp:77] Creating layer conv8_0/3x3_dwconv/slice_2
I0906 17:57:49.468948 36245 net.cpp:86] Creating Layer conv8_0/3x3_dwconv/slice_2
I0906 17:57:49.468967 36245 net.cpp:408] conv8_0/3x3_dwconv/slice_2 <- conv8_0/1x1_increase/split3
I0906 17:57:49.468976 36245 net.cpp:382] conv8_0/3x3_dwconv/slice_2 -> conv8_0/3x3_dwconv/slice_2/bn
I0906 17:57:49.470376 36245 net.cpp:124] Setting up conv8_0/3x3_dwconv/slice_2
I0906 17:57:49.470389 36245 net.cpp:131] Top shape: 50 384 7 7 (940800)
I0906 17:57:49.470408 36245 net.cpp:139] Memory required for data: 4551225800
I0906 17:57:49.470417 36245 layer_factory.hpp:77] Creating layer conv8_0/3x3_dwconv/slice_2/relu
I0906 17:57:49.470422 36245 net.cpp:86] Creating Layer conv8_0/3x3_dwconv/slice_2/relu
I0906 17:57:49.470441 36245 net.cpp:408] conv8_0/3x3_dwconv/slice_2/relu <- conv8_0/3x3_dwconv/slice_2/bn
I0906 17:57:49.470446 36245 net.cpp:369] conv8_0/3x3_dwconv/slice_2/relu -> conv8_0/3x3_dwconv/slice_2/bn (in-place)
I0906 17:57:49.471048 36245 net.cpp:124] Setting up conv8_0/3x3_dwconv/slice_2/relu
I0906 17:57:49.471077 36245 net.cpp:131] Top shape: 50 384 7 7 (940800)
I0906 17:57:49.471081 36245 net.cpp:139] Memory required for data: 4554989000
I0906 17:57:49.471084 36245 layer_factory.hpp:77] Creating layer conv8_0/3x3_dwconv/concat
I0906 17:57:49.471092 36245 net.cpp:86] Creating Layer conv8_0/3x3_dwconv/concat
I0906 17:57:49.471096 36245 net.cpp:408] conv8_0/3x3_dwconv/concat <- conv8_0/3x3_dwconv/slice_0/bn
I0906 17:57:49.471128 36245 net.cpp:408] conv8_0/3x3_dwconv/concat <- conv8_0/3x3_dwconv/slice_1/bn
I0906 17:57:49.471133 36245 net.cpp:408] conv8_0/3x3_dwconv/concat <- conv8_0/3x3_dwconv/slice_2/bn
I0906 17:57:49.471138 36245 net.cpp:382] conv8_0/3x3_dwconv/concat -> conv8_0/3x3_dwconv/concat
I0906 17:57:49.471179 36245 net.cpp:124] Setting up conv8_0/3x3_dwconv/concat
I0906 17:57:49.471186 36245 net.cpp:131] Top shape: 50 1152 7 7 (2822400)
I0906 17:57:49.471189 36245 net.cpp:139] Memory required for data: 4566278600
I0906 17:57:49.471192 36245 layer_factory.hpp:77] Creating layer conv8_0/3x3_dwconv/concat_fixed_point
I0906 17:57:49.471200 36245 net.cpp:86] Creating Layer conv8_0/3x3_dwconv/concat_fixed_point
I0906 17:57:49.471204 36245 net.cpp:408] conv8_0/3x3_dwconv/concat_fixed_point <- conv8_0/3x3_dwconv/concat
I0906 17:57:49.471208 36245 net.cpp:369] conv8_0/3x3_dwconv/concat_fixed_point -> conv8_0/3x3_dwconv/concat (in-place)
I0906 17:57:49.471242 36245 net.cpp:124] Setting up conv8_0/3x3_dwconv/concat_fixed_point
I0906 17:57:49.471248 36245 net.cpp:131] Top shape: 50 1152 7 7 (2822400)
I0906 17:57:49.471251 36245 net.cpp:139] Memory required for data: 4577568200
I0906 17:57:49.471256 36245 layer_factory.hpp:77] Creating layer conv8_0/3x3_dwconv/concat_conv8_0/3x3_dwconv/concat_fixed_point_0_split
I0906 17:57:49.471262 36245 net.cpp:86] Creating Layer conv8_0/3x3_dwconv/concat_conv8_0/3x3_dwconv/concat_fixed_point_0_split
I0906 17:57:49.471266 36245 net.cpp:408] conv8_0/3x3_dwconv/concat_conv8_0/3x3_dwconv/concat_fixed_point_0_split <- conv8_0/3x3_dwconv/concat
I0906 17:57:49.471273 36245 net.cpp:382] conv8_0/3x3_dwconv/concat_conv8_0/3x3_dwconv/concat_fixed_point_0_split -> conv8_0/3x3_dwconv/concat_conv8_0/3x3_dwconv/concat_fixed_point_0_split_0
I0906 17:57:49.471279 36245 net.cpp:382] conv8_0/3x3_dwconv/concat_conv8_0/3x3_dwconv/concat_fixed_point_0_split -> conv8_0/3x3_dwconv/concat_conv8_0/3x3_dwconv/concat_fixed_point_0_split_1
I0906 17:57:49.471325 36245 net.cpp:124] Setting up conv8_0/3x3_dwconv/concat_conv8_0/3x3_dwconv/concat_fixed_point_0_split
I0906 17:57:49.471333 36245 net.cpp:131] Top shape: 50 1152 7 7 (2822400)
I0906 17:57:49.471338 36245 net.cpp:131] Top shape: 50 1152 7 7 (2822400)
I0906 17:57:49.471341 36245 net.cpp:139] Memory required for data: 4600147400
I0906 17:57:49.471343 36245 layer_factory.hpp:77] Creating layer conv8_0/3x3_dwconv/SE_global_pool
I0906 17:57:49.471351 36245 net.cpp:86] Creating Layer conv8_0/3x3_dwconv/SE_global_pool
I0906 17:57:49.471355 36245 net.cpp:408] conv8_0/3x3_dwconv/SE_global_pool <- conv8_0/3x3_dwconv/concat_conv8_0/3x3_dwconv/concat_fixed_point_0_split_0
I0906 17:57:49.471360 36245 net.cpp:382] conv8_0/3x3_dwconv/SE_global_pool -> conv8_0/3x3_dwconv/SE_global_pool
I0906 17:57:49.471390 36245 net.cpp:124] Setting up conv8_0/3x3_dwconv/SE_global_pool
I0906 17:57:49.471397 36245 net.cpp:131] Top shape: 50 1152 1 1 (57600)
I0906 17:57:49.471400 36245 net.cpp:139] Memory required for data: 4600377800
I0906 17:57:49.471405 36245 layer_factory.hpp:77] Creating layer conv8_0/3x3_dwconv/SE_fc1
I0906 17:57:49.471424 36245 net.cpp:86] Creating Layer conv8_0/3x3_dwconv/SE_fc1
I0906 17:57:49.471428 36245 net.cpp:408] conv8_0/3x3_dwconv/SE_fc1 <- conv8_0/3x3_dwconv/SE_global_pool
I0906 17:57:49.471436 36245 net.cpp:382] conv8_0/3x3_dwconv/SE_fc1 -> conv8_0/3x3_dwconv/SE_fc1
I0906 17:57:49.474149 36245 net.cpp:124] Setting up conv8_0/3x3_dwconv/SE_fc1
I0906 17:57:49.474161 36245 net.cpp:131] Top shape: 50 72 1 1 (3600)
I0906 17:57:49.474165 36245 net.cpp:139] Memory required for data: 4600392200
I0906 17:57:49.474170 36245 layer_factory.hpp:77] Creating layer conv8_0/3x3_dwconv/SE_fc1/relu
I0906 17:57:49.474176 36245 net.cpp:86] Creating Layer conv8_0/3x3_dwconv/SE_fc1/relu
I0906 17:57:49.474181 36245 net.cpp:408] conv8_0/3x3_dwconv/SE_fc1/relu <- conv8_0/3x3_dwconv/SE_fc1
I0906 17:57:49.474189 36245 net.cpp:369] conv8_0/3x3_dwconv/SE_fc1/relu -> conv8_0/3x3_dwconv/SE_fc1 (in-place)
I0906 17:57:49.474783 36245 net.cpp:124] Setting up conv8_0/3x3_dwconv/SE_fc1/relu
I0906 17:57:49.474803 36245 net.cpp:131] Top shape: 50 72 1 1 (3600)
I0906 17:57:49.474807 36245 net.cpp:139] Memory required for data: 4600406600
I0906 17:57:49.474812 36245 layer_factory.hpp:77] Creating layer conv8_0/3x3_dwconv/SE_fc2
I0906 17:57:49.474822 36245 net.cpp:86] Creating Layer conv8_0/3x3_dwconv/SE_fc2
I0906 17:57:49.474825 36245 net.cpp:408] conv8_0/3x3_dwconv/SE_fc2 <- conv8_0/3x3_dwconv/SE_fc1
I0906 17:57:49.474833 36245 net.cpp:382] conv8_0/3x3_dwconv/SE_fc2 -> conv8_0/3x3_dwconv/SE_fc2
I0906 17:57:49.477501 36245 net.cpp:124] Setting up conv8_0/3x3_dwconv/SE_fc2
I0906 17:57:49.477512 36245 net.cpp:131] Top shape: 50 1152 1 1 (57600)
I0906 17:57:49.477530 36245 net.cpp:139] Memory required for data: 4600637000
I0906 17:57:49.477536 36245 layer_factory.hpp:77] Creating layer conv8_0/3x3_dwconv/SE_weights
I0906 17:57:49.477555 36245 net.cpp:86] Creating Layer conv8_0/3x3_dwconv/SE_weights
I0906 17:57:49.477560 36245 net.cpp:408] conv8_0/3x3_dwconv/SE_weights <- conv8_0/3x3_dwconv/SE_fc2
I0906 17:57:49.477566 36245 net.cpp:369] conv8_0/3x3_dwconv/SE_weights -> conv8_0/3x3_dwconv/SE_fc2 (in-place)
I0906 17:57:49.478368 36245 net.cpp:124] Setting up conv8_0/3x3_dwconv/SE_weights
I0906 17:57:49.478382 36245 net.cpp:131] Top shape: 50 1152 1 1 (57600)
I0906 17:57:49.478402 36245 net.cpp:139] Memory required for data: 4600867400
I0906 17:57:49.478407 36245 layer_factory.hpp:77] Creating layer conv8_0/3x3_dwconv/SE_weights/reshape
I0906 17:57:49.478420 36245 net.cpp:86] Creating Layer conv8_0/3x3_dwconv/SE_weights/reshape
I0906 17:57:49.478440 36245 net.cpp:408] conv8_0/3x3_dwconv/SE_weights/reshape <- conv8_0/3x3_dwconv/SE_fc2
I0906 17:57:49.478446 36245 net.cpp:382] conv8_0/3x3_dwconv/SE_weights/reshape -> conv8_0/3x3_dwconv/SE_weights/reshape
I0906 17:57:49.478492 36245 net.cpp:124] Setting up conv8_0/3x3_dwconv/SE_weights/reshape
I0906 17:57:49.478497 36245 net.cpp:131] Top shape: 50 1152 (57600)
I0906 17:57:49.478500 36245 net.cpp:139] Memory required for data: 4601097800
I0906 17:57:49.478503 36245 layer_factory.hpp:77] Creating layer conv8_0/3x3_dwconv/scale
I0906 17:57:49.478509 36245 net.cpp:86] Creating Layer conv8_0/3x3_dwconv/scale
I0906 17:57:49.478513 36245 net.cpp:408] conv8_0/3x3_dwconv/scale <- conv8_0/3x3_dwconv/concat_conv8_0/3x3_dwconv/concat_fixed_point_0_split_1
I0906 17:57:49.478518 36245 net.cpp:408] conv8_0/3x3_dwconv/scale <- conv8_0/3x3_dwconv/SE_weights/reshape
I0906 17:57:49.478524 36245 net.cpp:382] conv8_0/3x3_dwconv/scale -> conv8_0/3x3_dwconv/scale
I0906 17:57:49.478628 36245 net.cpp:124] Setting up conv8_0/3x3_dwconv/scale
I0906 17:57:49.478634 36245 net.cpp:131] Top shape: 50 1152 7 7 (2822400)
I0906 17:57:49.478637 36245 net.cpp:139] Memory required for data: 4612387400
I0906 17:57:49.478641 36245 layer_factory.hpp:77] Creating layer conv8_0/3x3_dwconv/scale_fixed_point
I0906 17:57:49.478649 36245 net.cpp:86] Creating Layer conv8_0/3x3_dwconv/scale_fixed_point
I0906 17:57:49.478653 36245 net.cpp:408] conv8_0/3x3_dwconv/scale_fixed_point <- conv8_0/3x3_dwconv/scale
I0906 17:57:49.478657 36245 net.cpp:369] conv8_0/3x3_dwconv/scale_fixed_point -> conv8_0/3x3_dwconv/scale (in-place)
I0906 17:57:49.478690 36245 net.cpp:124] Setting up conv8_0/3x3_dwconv/scale_fixed_point
I0906 17:57:49.478696 36245 net.cpp:131] Top shape: 50 1152 7 7 (2822400)
I0906 17:57:49.478699 36245 net.cpp:139] Memory required for data: 4623677000
I0906 17:57:49.478704 36245 layer_factory.hpp:77] Creating layer conv8_0/1x1_decrease
I0906 17:57:49.478716 36245 net.cpp:86] Creating Layer conv8_0/1x1_decrease
I0906 17:57:49.478720 36245 net.cpp:408] conv8_0/1x1_decrease <- conv8_0/3x3_dwconv/scale
I0906 17:57:49.478729 36245 net.cpp:382] conv8_0/1x1_decrease -> conv8_0/1x1_decrease/bn
I0906 17:57:49.489599 36245 net.cpp:124] Setting up conv8_0/1x1_decrease
I0906 17:57:49.489612 36245 net.cpp:131] Top shape: 50 320 7 7 (784000)
I0906 17:57:49.489632 36245 net.cpp:139] Memory required for data: 4626813000
I0906 17:57:49.489639 36245 layer_factory.hpp:77] Creating layer conv8_0/1x1_decrease/bn_fixed_point
I0906 17:57:49.489672 36245 net.cpp:86] Creating Layer conv8_0/1x1_decrease/bn_fixed_point
I0906 17:57:49.489678 36245 net.cpp:408] conv8_0/1x1_decrease/bn_fixed_point <- conv8_0/1x1_decrease/bn
I0906 17:57:49.489686 36245 net.cpp:369] conv8_0/1x1_decrease/bn_fixed_point -> conv8_0/1x1_decrease/bn (in-place)
I0906 17:57:49.489723 36245 net.cpp:124] Setting up conv8_0/1x1_decrease/bn_fixed_point
I0906 17:57:49.489730 36245 net.cpp:131] Top shape: 50 320 7 7 (784000)
I0906 17:57:49.489733 36245 net.cpp:139] Memory required for data: 4629949000
I0906 17:57:49.489737 36245 layer_factory.hpp:77] Creating layer conv9/1x1
I0906 17:57:49.489751 36245 net.cpp:86] Creating Layer conv9/1x1
I0906 17:57:49.489755 36245 net.cpp:408] conv9/1x1 <- conv8_0/1x1_decrease/bn
I0906 17:57:49.489761 36245 net.cpp:382] conv9/1x1 -> conv9/1x1/bn
I0906 17:57:49.502192 36245 net.cpp:124] Setting up conv9/1x1
I0906 17:57:49.502224 36245 net.cpp:131] Top shape: 50 1280 7 7 (3136000)
I0906 17:57:49.502228 36245 net.cpp:139] Memory required for data: 4642493000
I0906 17:57:49.502236 36245 layer_factory.hpp:77] Creating layer conv9/1x1/relu
I0906 17:57:49.502261 36245 net.cpp:86] Creating Layer conv9/1x1/relu
I0906 17:57:49.502267 36245 net.cpp:408] conv9/1x1/relu <- conv9/1x1/bn
I0906 17:57:49.502272 36245 net.cpp:369] conv9/1x1/relu -> conv9/1x1/bn (in-place)
I0906 17:57:49.503223 36245 net.cpp:124] Setting up conv9/1x1/relu
I0906 17:57:49.503237 36245 net.cpp:131] Top shape: 50 1280 7 7 (3136000)
I0906 17:57:49.503244 36245 net.cpp:139] Memory required for data: 4655037000
I0906 17:57:49.503265 36245 layer_factory.hpp:77] Creating layer conv9/1x1/bn_fixed_point
I0906 17:57:49.503273 36245 net.cpp:86] Creating Layer conv9/1x1/bn_fixed_point
I0906 17:57:49.503278 36245 net.cpp:408] conv9/1x1/bn_fixed_point <- conv9/1x1/bn
I0906 17:57:49.503283 36245 net.cpp:369] conv9/1x1/bn_fixed_point -> conv9/1x1/bn (in-place)
I0906 17:57:49.503326 36245 net.cpp:124] Setting up conv9/1x1/bn_fixed_point
I0906 17:57:49.503334 36245 net.cpp:131] Top shape: 50 1280 7 7 (3136000)
I0906 17:57:49.503337 36245 net.cpp:139] Memory required for data: 4667581000
I0906 17:57:49.503357 36245 layer_factory.hpp:77] Creating layer avepool/7x7
I0906 17:57:49.503366 36245 net.cpp:86] Creating Layer avepool/7x7
I0906 17:57:49.503371 36245 net.cpp:408] avepool/7x7 <- conv9/1x1/bn
I0906 17:57:49.503376 36245 net.cpp:382] avepool/7x7 -> avepool/7x7
I0906 17:57:49.504004 36245 net.cpp:124] Setting up avepool/7x7
I0906 17:57:49.504019 36245 net.cpp:131] Top shape: 50 1280 1 1 (64000)
I0906 17:57:49.504038 36245 net.cpp:139] Memory required for data: 4667837000
I0906 17:57:49.504041 36245 layer_factory.hpp:77] Creating layer avepool/7x7_fixed_point
I0906 17:57:49.504050 36245 net.cpp:86] Creating Layer avepool/7x7_fixed_point
I0906 17:57:49.504070 36245 net.cpp:408] avepool/7x7_fixed_point <- avepool/7x7
I0906 17:57:49.504092 36245 net.cpp:369] avepool/7x7_fixed_point -> avepool/7x7 (in-place)
I0906 17:57:49.504129 36245 net.cpp:124] Setting up avepool/7x7_fixed_point
I0906 17:57:49.504137 36245 net.cpp:131] Top shape: 50 1280 1 1 (64000)
I0906 17:57:49.504139 36245 net.cpp:139] Memory required for data: 4668093000
I0906 17:57:49.504145 36245 layer_factory.hpp:77] Creating layer classifier
I0906 17:57:49.504156 36245 net.cpp:86] Creating Layer classifier
I0906 17:57:49.504160 36245 net.cpp:408] classifier <- avepool/7x7
I0906 17:57:49.504165 36245 net.cpp:382] classifier -> classifier
I0906 17:57:49.540858 36245 net.cpp:124] Setting up classifier
I0906 17:57:49.540900 36245 net.cpp:131] Top shape: 50 1000 1 1 (50000)
I0906 17:57:49.540905 36245 net.cpp:139] Memory required for data: 4668293000
I0906 17:57:49.540915 36245 layer_factory.hpp:77] Creating layer classifier_classifier_0_split
I0906 17:57:49.540925 36245 net.cpp:86] Creating Layer classifier_classifier_0_split
I0906 17:57:49.540930 36245 net.cpp:408] classifier_classifier_0_split <- classifier
I0906 17:57:49.540938 36245 net.cpp:382] classifier_classifier_0_split -> classifier_classifier_0_split_0
I0906 17:57:49.540969 36245 net.cpp:382] classifier_classifier_0_split -> classifier_classifier_0_split_1
I0906 17:57:49.541064 36245 net.cpp:124] Setting up classifier_classifier_0_split
I0906 17:57:49.541072 36245 net.cpp:131] Top shape: 50 1000 1 1 (50000)
I0906 17:57:49.541077 36245 net.cpp:131] Top shape: 50 1000 1 1 (50000)
I0906 17:57:49.541080 36245 net.cpp:139] Memory required for data: 4668693000
I0906 17:57:49.541083 36245 layer_factory.hpp:77] Creating layer top-1
I0906 17:57:49.541096 36245 net.cpp:86] Creating Layer top-1
I0906 17:57:49.541105 36245 net.cpp:408] top-1 <- classifier_classifier_0_split_0
I0906 17:57:49.541110 36245 net.cpp:408] top-1 <- label_data_1_split_0
I0906 17:57:49.541116 36245 net.cpp:382] top-1 -> top-1
…
