…
I0917 10:56:54.748208 26934 caffe.cpp:270] GPU device name: Graphics Device
I0917 10:56:55.565853 26934 net.cpp:53] Initializing net from parameters: 
state {
  phase: TEST
  level: 0
  stage: ""
}
layer {
  name: "data"
  type: "ImageData"
  top: "data"
  top: "label"
  include {
    phase: TEST
  }
  transform_param {
    crop_size: 224
    mean_value: 104
    mean_value: 117
    mean_value: 123
  }
  image_data_param {
    source: "file_lists/val.txt"
    batch_size: 25
    root_folder: "/share4/public/classification_data/imagenet1k/val/"
    short_edge: 256
  }
}
layer {
  name: "data_fixed_point"
  type: "Quantize"
  bottom: "data"
  top: "data"
  param {
    lr_mult: 0
    decay_mult: 0
  }
  quantize_param {
    precision: 8
    frozen: true
    positive: false
    tolerance: 1.5
  }
}
layer {
  name: "conv1/3x3_s2"
  type: "Convolution"
  bottom: "data"
  top: "conv1/3x3_s2/bn"
  param {
    lr_mult: 1
    decay_mult: 1
  }
  param {
    lr_mult: 2
    decay_mult: 0
  }
  convolution_param {
    num_output: 32
    bias_term: true
    pad: 1
    kernel_size: 3
    stride: 2
    weight_filler {
      type: "msra"
    }
    bias_filler {
      type: "constant"
      value: 0
    }
    engine: CAFFE
    fp16_accumulation: true
  }
  quantize_param {
    precision: 8
    channel_shared: false
  }
}
layer {
  name: "conv1/3x3_s2/relu"
  type: "ReLU"
  bottom: "conv1/3x3_s2/bn"
  top: "conv1/3x3_s2/bn"
}
layer {
  name: "conv1/3x3_s2/bn_fixed_point"
  type: "Quantize"
  bottom: "conv1/3x3_s2/bn"
  top: "conv1/3x3_s2/bn"
  param {
    lr_mult: 0
    decay_mult: 0
  }
  quantize_param {
    precision: 8
    frozen: true
    positive: true
    tolerance: 1.5
  }
}
layer {
  name: "conv2_0/3x3_dwconv"
  type: "Convolution"
  bottom: "conv1/3x3_s2/bn"
  top: "conv2_0/3x3_dwconv/bn"
  param {
    lr_mult: 1
    decay_mult: 1
  }
  param {
    lr_mult: 2
    decay_mult: 0
  }
  convolution_param {
    num_output: 32
    bias_term: true
    pad: 1
    kernel_size: 3
    group: 32
    stride: 1
    weight_filler {
      type: "msra"
    }
    bias_filler {
      type: "constant"
      value: 0
    }
    engine: CAFFE
    fp16_accumulation: true
  }
  quantize_param {
    precision: 8
    channel_shared: false
  }
}
layer {
  name: "conv2_0/3x3_dwconv/relu"
  type: "ReLU"
  bottom: "conv2_0/3x3_dwconv/bn"
  top: "conv2_0/3x3_dwconv/bn"
}
layer {
  name: "conv2_0/3x3_dwconv/bn_fixed_point"
  type: "Quantize"
  bottom: "conv2_0/3x3_dwconv/bn"
  top: "conv2_0/3x3_dwconv/bn"
  param {
    lr_mult: 0
    decay_mult: 0
  }
  quantize_param {
    precision: 8
    frozen: true
    positive: true
    tolerance: 1.5
  }
}
layer {
  name: "conv2_0/1x1_decrease"
  type: "Convolution"
  bottom: "conv2_0/3x3_dwconv/bn"
  top: "conv2_0/1x1_decrease/bn"
  param {
    lr_mult: 1
    decay_mult: 1
  }
  param {
    lr_mult: 2
    decay_mult: 0
  }
  convolution_param {
    num_output: 16
    bias_term: true
    kernel_size: 1
    stride: 1
    weight_filler {
      type: "msra"
    }
    bias_filler {
      type: "constant"
      value: 0
    }
    engine: CAFFE
    fp16_accumulation: true
  }
  quantize_param {
    precision: 8
    channel_shared: false
  }
}
layer {
  name: "conv2_0/1x1_decrease/bn_fixed_point"
  type: "Quantize"
  bottom: "conv2_0/1x1_decrease/bn"
  top: "conv2_0/1x1_decrease/bn"
  param {
    lr_mult: 0
    decay_mult: 0
  }
  quantize_param {
    precision: 8
    frozen: true
    positive: false
    tolerance: 1.5
  }
}
layer {
  name: "conv3_0/1x1_increase"
  type: "Convolution"
  bottom: "conv2_0/1x1_decrease/bn"
  top: "conv3_0/1x1_increase/bn"
  param {
    lr_mult: 1
    decay_mult: 1
  }
  param {
    lr_mult: 2
    decay_mult: 0
  }
  convolution_param {
    num_output: 48
    bias_term: true
    kernel_size: 1
    stride: 1
    weight_filler {
      type: "msra"
    }
    bias_filler {
      type: "constant"
      value: 0
    }
    engine: CAFFE
    fp16_accumulation: true
  }
  quantize_param {
    precision: 8
    channel_shared: false
  }
}
layer {
  name: "conv3_0/1x1_increase/relu"
  type: "ReLU"
  bottom: "conv3_0/1x1_increase/bn"
  top: "conv3_0/1x1_increase/bn"
}
layer {
  name: "conv3_0/1x1_increase/bn_fixed_point"
  type: "Quantize"
  bottom: "conv3_0/1x1_increase/bn"
  top: "conv3_0/1x1_increase/bn"
  param {
    lr_mult: 0
    decay_mult: 0
  }
  quantize_param {
    precision: 8
    frozen: true
    positive: true
    tolerance: 1.5
  }
}
layer {
  name: "conv3_0/3x3_dwconv"
  type: "Convolution"
  bottom: "conv3_0/1x1_increase/bn"
  top: "conv3_0/3x3_dwconv/bn"
  param {
    lr_mult: 1
    decay_mult: 1
  }
  param {
    lr_mult: 2
    decay_mult: 0
  }
  convolution_param {
    num_output: 48
    bias_term: true
    pad: 2
    kernel_size: 5
    group: 48
    stride: 2
    weight_filler {
      type: "msra"
    }
    bias_filler {
      type: "constant"
      value: 0
    }
    engine: CAFFE
    fp16_accumulation: true
  }
  quantize_param {
    precision: 8
    channel_shared: false
  }
}
layer {
  name: "conv3_0/3x3_dwconv/relu"
  type: "ReLU"
  bottom: "conv3_0/3x3_dwconv/bn"
  top: "conv3_0/3x3_dwconv/bn"
}
layer {
  name: "conv3_0/3x3_dwconv/bn_fixed_point"
  type: "Quantize"
  bottom: "conv3_0/3x3_dwconv/bn"
  top: "conv3_0/3x3_dwconv/bn"
  param {
    lr_mult: 0
    decay_mult: 0
  }
  quantize_param {
    precision: 8
    frozen: true
    positive: true
    tolerance: 1.5
  }
}
layer {
  name: "conv3_0/1x1_decrease"
  type: "Convolution"
  bottom: "conv3_0/3x3_dwconv/bn"
  top: "conv3_0/1x1_decrease/bn"
  param {
    lr_mult: 1
    decay_mult: 1
  }
  param {
    lr_mult: 2
    decay_mult: 0
  }
  convolution_param {
    num_output: 32
    bias_term: true
    kernel_size: 1
    stride: 1
    weight_filler {
      type: "msra"
    }
    bias_filler {
      type: "constant"
      value: 0
    }
    engine: CAFFE
    fp16_accumulation: true
  }
  quantize_param {
    precision: 8
    channel_shared: false
  }
}
layer {
  name: "conv3_0/1x1_decrease/bn_fixed_point"
  type: "Quantize"
  bottom: "conv3_0/1x1_decrease/bn"
  top: "conv3_0/1x1_decrease/bn"
  param {
    lr_mult: 0
    decay_mult: 0
  }
  quantize_param {
    precision: 8
    frozen: true
    positive: false
    tolerance: 1.5
  }
}
layer {
  name: "conv3_1/1x1_increase"
  type: "Convolution"
  bottom: "conv3_0/1x1_decrease/bn"
  top: "conv3_1/1x1_increase/bn"
  param {
    lr_mult: 1
    decay_mult: 1
  }
  param {
    lr_mult: 2
    decay_mult: 0
  }
  convolution_param {
    num_output: 96
    bias_term: true
    kernel_size: 1
    stride: 1
    weight_filler {
      type: "msra"
    }
    bias_filler {
      type: "constant"
      value: 0
    }
    engine: CAFFE
    fp16_accumulation: true
  }
  quantize_param {
    precision: 8
    channel_shared: false
  }
}
layer {
  name: "conv3_1/1x1_increase/relu"
  type: "ReLU"
  bottom: "conv3_1/1x1_increase/bn"
  top: "conv3_1/1x1_increase/bn"
}
layer {
  name: "conv3_1/1x1_increase/bn_fixed_point"
  type: "Quantize"
  bottom: "conv3_1/1x1_increase/bn"
  top: "conv3_1/1x1_increase/bn"
  param {
    lr_mult: 0
    decay_mult: 0
  }
  quantize_param {
    precision: 8
    frozen: true
    positive: true
    tolerance: 1.5
  }
}
layer {
  name: "conv3_1/3x3_dwconv"
  type: "Convolution"
  bottom: "conv3_1/1x1_increase/bn"
  top: "conv3_1/3x3_dwconv/bn"
  param {
    lr_mult: 1
    decay_mult: 1
  }
  param {
    lr_mult: 2
    decay_mult: 0
  }
  convolution_param {
    num_output: 96
    bias_term: true
    pad: 1
    kernel_size: 3
    group: 96
    stride: 1
    weight_filler {
      type: "msra"
    }
    bias_filler {
      type: "constant"
      value: 0
    }
    engine: CAFFE
    fp16_accumulation: true
  }
  quantize_param {
    precision: 8
    channel_shared: false
  }
}
layer {
  name: "conv3_1/3x3_dwconv/relu"
  type: "ReLU"
  bottom: "conv3_1/3x3_dwconv/bn"
  top: "conv3_1/3x3_dwconv/bn"
}
layer {
  name: "conv3_1/3x3_dwconv/bn_fixed_point"
  type: "Quantize"
  bottom: "conv3_1/3x3_dwconv/bn"
  top: "conv3_1/3x3_dwconv/bn"
  param {
    lr_mult: 0
    decay_mult: 0
  }
  quantize_param {
    precision: 8
    frozen: true
    positive: true
    tolerance: 1.5
  }
}
layer {
  name: "conv3_1/1x1_decrease"
  type: "Convolution"
  bottom: "conv3_1/3x3_dwconv/bn"
  top: "conv3_1/1x1_decrease/bn"
  param {
    lr_mult: 1
    decay_mult: 1
  }
  param {
    lr_mult: 2
    decay_mult: 0
  }
  convolution_param {
    num_output: 32
    bias_term: true
    kernel_size: 1
    stride: 1
    weight_filler {
      type: "msra"
    }
    bias_filler {
      type: "constant"
      value: 0
    }
    engine: CAFFE
    fp16_accumulation: true
  }
  quantize_param {
    precision: 8
    channel_shared: false
  }
}
layer {
  name: "conv3_1/elt_sum"
  type: "Eltwise"
  bottom: "conv3_0/1x1_decrease/bn"
  bottom: "conv3_1/1x1_decrease/bn"
  top: "conv3_1/elt_sum"
  eltwise_param {
    operation: SUM
  }
}
layer {
  name: "conv3_1/elt_sum_fixed_point"
  type: "Quantize"
  bottom: "conv3_1/elt_sum"
  top: "conv3_1/elt_sum"
  param {
    lr_mult: 0
    decay_mult: 0
  }
  quantize_param {
    precision: 8
    frozen: true
    positive: false
    tolerance: 1.5
  }
}
layer {
  name: "conv4_0/1x1_increase"
  type: "Convolution"
  bottom: "conv3_1/elt_sum"
  top: "conv4_0/1x1_increase/bn"
  param {
    lr_mult: 1
    decay_mult: 1
  }
  param {
    lr_mult: 2
    decay_mult: 0
  }
  convolution_param {
    num_output: 96
    bias_term: true
    kernel_size: 1
    stride: 1
    weight_filler {
      type: "msra"
    }
    bias_filler {
      type: "constant"
      value: 0
    }
    engine: CAFFE
    fp16_accumulation: true
  }
  quantize_param {
    precision: 8
    channel_shared: false
  }
}
layer {
  name: "conv4_0/1x1_increase/hardswish"
  type: "HardSwish"
  bottom: "conv4_0/1x1_increase/bn"
  top: "conv4_0/1x1_increase/bn"
}
layer {
  name: "conv4_0/1x1_increase/bn_fixed_point"
  type: "Quantize"
  bottom: "conv4_0/1x1_increase/bn"
  top: "conv4_0/1x1_increase/bn"
  param {
    lr_mult: 0
    decay_mult: 0
  }
  quantize_param {
    precision: 8
    frozen: true
    positive: false
    tolerance: 1.5
  }
}
layer {
  name: "conv4_0/1x1_increase/slice"
  type: "Slice"
  bottom: "conv4_0/1x1_increase/bn"
  top: "conv4_0/1x1_increase/split1"
  top: "conv4_0/1x1_increase/split2"
  top: "conv4_0/1x1_increase/split3"
  slice_param {
    slice_point: 32
    slice_point: 64
  }
}
layer {
  name: "conv4_0/3x3_dwconv/slice_0"
  type: "Convolution"
  bottom: "conv4_0/1x1_increase/split1"
  top: "conv4_0/3x3_dwconv/slice_0/bn"
  param {
    lr_mult: 1
    decay_mult: 1
  }
  param {
    lr_mult: 2
    decay_mult: 0
  }
  convolution_param {
    num_output: 32
    bias_term: true
    pad: 1
    kernel_size: 3
    group: 32
    stride: 2
    weight_filler {
      type: "msra"
    }
    bias_filler {
      type: "constant"
      value: 0
    }
    engine: CAFFE
    fp16_accumulation: true
  }
  quantize_param {
    precision: 8
    channel_shared: false
  }
}
layer {
  name: "conv4_0/3x3_dwconv/slice_0/hardswish"
  type: "HardSwish"
  bottom: "conv4_0/3x3_dwconv/slice_0/bn"
  top: "conv4_0/3x3_dwconv/slice_0/bn"
}
layer {
  name: "conv4_0/3x3_dwconv/slice_1"
  type: "Convolution"
  bottom: "conv4_0/1x1_increase/split2"
  top: "conv4_0/3x3_dwconv/slice_1/bn"
  param {
    lr_mult: 1
    decay_mult: 1
  }
  param {
    lr_mult: 2
    decay_mult: 0
  }
  convolution_param {
    num_output: 32
    bias_term: true
    pad: 2
    kernel_size: 5
    group: 32
    stride: 2
    weight_filler {
      type: "msra"
    }
    bias_filler {
      type: "constant"
      value: 0
    }
    engine: CAFFE
    fp16_accumulation: true
  }
  quantize_param {
    precision: 8
    channel_shared: false
  }
}
layer {
  name: "conv4_0/3x3_dwconv/slice_1/hardswish"
  type: "HardSwish"
  bottom: "conv4_0/3x3_dwconv/slice_1/bn"
  top: "conv4_0/3x3_dwconv/slice_1/bn"
}
layer {
  name: "conv4_0/3x3_dwconv/slice_2"
  type: "Convolution"
  bottom: "conv4_0/1x1_increase/split3"
  top: "conv4_0/3x3_dwconv/slice_2/bn"
  param {
    lr_mult: 1
    decay_mult: 1
  }
  param {
    lr_mult: 2
    decay_mult: 0
  }
  convolution_param {
    num_output: 32
    bias_term: true
    pad: 3
    kernel_size: 7
    group: 32
    stride: 2
    weight_filler {
      type: "msra"
    }
    bias_filler {
      type: "constant"
      value: 0
    }
    engine: CAFFE
    fp16_accumulation: true
  }
  quantize_param {
    precision: 8
    channel_shared: false
  }
}
layer {
  name: "conv4_0/3x3_dwconv/slice_2/hardswish"
  type: "HardSwish"
  bottom: "conv4_0/3x3_dwconv/slice_2/bn"
  top: "conv4_0/3x3_dwconv/slice_2/bn"
}
layer {
  name: "conv4_0/3x3_dwconv/concat"
  type: "Concat"
  bottom: "conv4_0/3x3_dwconv/slice_0/bn"
  bottom: "conv4_0/3x3_dwconv/slice_1/bn"
  bottom: "conv4_0/3x3_dwconv/slice_2/bn"
  top: "conv4_0/3x3_dwconv/concat"
}
layer {
  name: "conv4_0/3x3_dwconv/concat_fixed_point"
  type: "Quantize"
  bottom: "conv4_0/3x3_dwconv/concat"
  top: "conv4_0/3x3_dwconv/concat"
  param {
    lr_mult: 0
    decay_mult: 0
  }
  quantize_param {
    precision: 8
    frozen: true
    positive: false
    tolerance: 1.5
  }
}
layer {
  name: "conv4_0/3x3_dwconv/SE_global_pool"
  type: "Pooling"
  bottom: "conv4_0/3x3_dwconv/concat"
  top: "conv4_0/3x3_dwconv/SE_global_pool"
  pooling_param {
    pool: AVE
    engine: CAFFE
    global_pooling: true
  }
}
layer {
  name: "conv4_0/3x3_dwconv/SE_bn"
  type: "Scale"
  bottom: "conv4_0/3x3_dwconv/SE_global_pool"
  top: "conv4_0/3x3_dwconv/SE_bn"
  param {
    lr_mult: 1
    decay_mult: 0
  }
  param {
    lr_mult: 2
    decay_mult: 0
  }
  scale_param {
    axis: 1
    num_axes: 1
    bias_term: true
  }
}
layer {
  name: "conv4_0/3x3_dwconv/SE_fc1"
  type: "Convolution"
  bottom: "conv4_0/3x3_dwconv/SE_bn"
  top: "conv4_0/3x3_dwconv/SE_fc1"
  param {
    lr_mult: 1
    decay_mult: 1
  }
  convolution_param {
    num_output: 6
    bias_term: false
    kernel_size: 1
    stride: 1
    weight_filler {
      type: "gaussian"
      std: 0.01
    }
    engine: CAFFE
    fp16_accumulation: true
  }
  quantize_param {
    precision: 8
    channel_shared: false
  }
}
layer {
  name: "conv4_0/3x3_dwconv/SE_fc1/relu"
  type: "ReLU"
  bottom: "conv4_0/3x3_dwconv/SE_fc1"
  top: "conv4_0/3x3_dwconv/SE_fc1"
}
layer {
  name: "conv4_0/3x3_dwconv/SE_fc2"
  type: "Convolution"
  bottom: "conv4_0/3x3_dwconv/SE_fc1"
  top: "conv4_0/3x3_dwconv/SE_fc2"
  param {
    lr_mult: 1
    decay_mult: 1
  }
  convolution_param {
    num_output: 96
    bias_term: false
    kernel_size: 1
    stride: 1
    weight_filler {
      type: "gaussian"
      std: 0.01
    }
    engine: CAFFE
    fp16_accumulation: true
  }
  quantize_param {
    precision: 8
    channel_shared: false
  }
}
layer {
  name: "conv4_0/3x3_dwconv/SE_weights"
  type: "Sigmoid"
  bottom: "conv4_0/3x3_dwconv/SE_fc2"
  top: "conv4_0/3x3_dwconv/SE_fc2"
}
layer {
  name: "conv4_0/3x3_dwconv/SE_weights/reshape"
  type: "Reshape"
  bottom: "conv4_0/3x3_dwconv/SE_fc2"
  top: "conv4_0/3x3_dwconv/SE_weights/reshape"
  reshape_param {
    shape {
      dim: 0
      dim: 0
    }
  }
}
layer {
  name: "conv4_0/3x3_dwconv/scale"
  type: "Scale"
  bottom: "conv4_0/3x3_dwconv/concat"
  bottom: "conv4_0/3x3_dwconv/SE_weights/reshape"
  top: "conv4_0/3x3_dwconv/scale"
  scale_param {
    axis: 0
    bias_term: false
  }
}
layer {
  name: "conv4_0/3x3_dwconv/scale_fixed_point"
  type: "Quantize"
  bottom: "conv4_0/3x3_dwconv/scale"
  top: "conv4_0/3x3_dwconv/scale"
  param {
    lr_mult: 0
    decay_mult: 0
  }
  quantize_param {
    precision: 8
    frozen: true
    positive: false
    tolerance: 1.5
  }
}
layer {
  name: "conv4_0/1x1_decrease"
  type: "Convolution"
  bottom: "conv4_0/3x3_dwconv/scale"
  top: "conv4_0/1x1_decrease/bn"
  param {
    lr_mult: 1
    decay_mult: 1
  }
  param {
    lr_mult: 2
    decay_mult: 0
  }
  convolution_param {
    num_output: 40
    bias_term: true
    kernel_size: 1
    stride: 1
    weight_filler {
      type: "msra"
    }
    bias_filler {
      type: "constant"
      value: 0
    }
    engine: CAFFE
    fp16_accumulation: true
  }
  quantize_param {
    precision: 8
    channel_shared: false
  }
}
layer {
  name: "conv4_0/1x1_decrease/bn_fixed_point"
  type: "Quantize"
  bottom: "conv4_0/1x1_decrease/bn"
  top: "conv4_0/1x1_decrease/bn"
  param {
    lr_mult: 0
    decay_mult: 0
  }
  quantize_param {
    precision: 8
    frozen: true
    positive: false
    tolerance: 1.5
  }
}
layer {
  name: "conv4_1/1x1_increase"
  type: "Convolution"
  bottom: "conv4_0/1x1_decrease/bn"
  top: "conv4_1/1x1_increase/bn"
  param {
    lr_mult: 1
    decay_mult: 1
  }
  param {
    lr_mult: 2
    decay_mult: 0
  }
  convolution_param {
    num_output: 120
    bias_term: true
    kernel_size: 1
    stride: 1
    weight_filler {
      type: "msra"
    }
    bias_filler {
      type: "constant"
      value: 0
    }
    engine: CAFFE
    fp16_accumulation: true
  }
  quantize_param {
    precision: 8
    channel_shared: false
  }
}
layer {
  name: "conv4_1/1x1_increase/hardswish"
  type: "HardSwish"
  bottom: "conv4_1/1x1_increase/bn"
  top: "conv4_1/1x1_increase/bn"
}
layer {
  name: "conv4_1/1x1_increase/bn_fixed_point"
  type: "Quantize"
  bottom: "conv4_1/1x1_increase/bn"
  top: "conv4_1/1x1_increase/bn"
  param {
    lr_mult: 0
    decay_mult: 0
  }
  quantize_param {
    precision: 8
    frozen: true
    positive: false
    tolerance: 1.5
  }
}
layer {
  name: "conv4_1/1x1_increase/slice"
  type: "Slice"
  bottom: "conv4_1/1x1_increase/bn"
  top: "conv4_1/1x1_increase/split1"
  top: "conv4_1/1x1_increase/split2"
  slice_param {
    slice_point: 60
  }
}
layer {
  name: "conv4_1/3x3_dwconv/slice_0"
  type: "Convolution"
  bottom: "conv4_1/1x1_increase/split1"
  top: "conv4_1/3x3_dwconv/slice_0/bn"
  param {
    lr_mult: 1
    decay_mult: 1
  }
  param {
    lr_mult: 2
    decay_mult: 0
  }
  convolution_param {
    num_output: 60
    bias_term: true
    pad: 1
    kernel_size: 3
    group: 60
    stride: 1
    weight_filler {
      type: "msra"
    }
    bias_filler {
      type: "constant"
      value: 0
    }
    engine: CAFFE
    fp16_accumulation: true
  }
  quantize_param {
    precision: 8
    channel_shared: false
  }
}
layer {
  name: "conv4_1/3x3_dwconv/slice_0/hardswish"
  type: "HardSwish"
  bottom: "conv4_1/3x3_dwconv/slice_0/bn"
  top: "conv4_1/3x3_dwconv/slice_0/bn"
}
layer {
  name: "conv4_1/3x3_dwconv/slice_1"
  type: "Convolution"
  bottom: "conv4_1/1x1_increase/split2"
  top: "conv4_1/3x3_dwconv/slice_1/bn"
  param {
    lr_mult: 1
    decay_mult: 1
  }
  param {
    lr_mult: 2
    decay_mult: 0
  }
  convolution_param {
    num_output: 60
    bias_term: true
    pad: 2
    kernel_size: 5
    group: 60
    stride: 1
    weight_filler {
      type: "msra"
    }
    bias_filler {
      type: "constant"
      value: 0
    }
    engine: CAFFE
    fp16_accumulation: true
  }
  quantize_param {
    precision: 8
    channel_shared: false
  }
}
layer {
  name: "conv4_1/3x3_dwconv/slice_1/hardswish"
  type: "HardSwish"
  bottom: "conv4_1/3x3_dwconv/slice_1/bn"
  top: "conv4_1/3x3_dwconv/slice_1/bn"
}
layer {
  name: "conv4_1/3x3_dwconv/concat"
  type: "Concat"
  bottom: "conv4_1/3x3_dwconv/slice_0/bn"
  bottom: "conv4_1/3x3_dwconv/slice_1/bn"
  top: "conv4_1/3x3_dwconv/concat"
}
layer {
  name: "conv4_1/3x3_dwconv/concat_fixed_point"
  type: "Quantize"
  bottom: "conv4_1/3x3_dwconv/concat"
  top: "conv4_1/3x3_dwconv/concat"
  param {
    lr_mult: 0
    decay_mult: 0
  }
  quantize_param {
    precision: 8
    frozen: true
    positive: false
    tolerance: 1.5
  }
}
layer {
  name: "conv4_1/3x3_dwconv/SE_global_pool"
  type: "Pooling"
  bottom: "conv4_1/3x3_dwconv/concat"
  top: "conv4_1/3x3_dwconv/SE_global_pool"
  pooling_param {
    pool: AVE
    engine: CAFFE
    global_pooling: true
  }
}
layer {
  name: "conv4_1/3x3_dwconv/SE_bn"
  type: "Scale"
  bottom: "conv4_1/3x3_dwconv/SE_global_pool"
  top: "conv4_1/3x3_dwconv/SE_bn"
  param {
    lr_mult: 1
    decay_mult: 0
  }
  param {
    lr_mult: 2
    decay_mult: 0
  }
  scale_param {
    axis: 1
    num_axes: 1
    bias_term: true
  }
}
layer {
  name: "conv4_1/3x3_dwconv/SE_fc1"
  type: "Convolution"
  bottom: "conv4_1/3x3_dwconv/SE_bn"
  top: "conv4_1/3x3_dwconv/SE_fc1"
  param {
    lr_mult: 1
    decay_mult: 1
  }
  convolution_param {
    num_output: 7
    bias_term: false
    kernel_size: 1
    stride: 1
    weight_filler {
      type: "gaussian"
      std: 0.01
    }
    engine: CAFFE
    fp16_accumulation: true
  }
  quantize_param {
    precision: 8
    channel_shared: false
  }
}
layer {
  name: "conv4_1/3x3_dwconv/SE_fc1/relu"
  type: "ReLU"
  bottom: "conv4_1/3x3_dwconv/SE_fc1"
  top: "conv4_1/3x3_dwconv/SE_fc1"
}
layer {
  name: "conv4_1/3x3_dwconv/SE_fc2"
  type: "Convolution"
  bottom: "conv4_1/3x3_dwconv/SE_fc1"
  top: "conv4_1/3x3_dwconv/SE_fc2"
  param {
    lr_mult: 1
    decay_mult: 1
  }
  convolution_param {
    num_output: 120
    bias_term: false
    kernel_size: 1
    stride: 1
    weight_filler {
      type: "gaussian"
      std: 0.01
    }
    engine: CAFFE
    fp16_accumulation: true
  }
  quantize_param {
    precision: 8
    channel_shared: false
  }
}
layer {
  name: "conv4_1/3x3_dwconv/SE_weights"
  type: "Sigmoid"
  bottom: "conv4_1/3x3_dwconv/SE_fc2"
  top: "conv4_1/3x3_dwconv/SE_fc2"
}
layer {
  name: "conv4_1/3x3_dwconv/SE_weights/reshape"
  type: "Reshape"
  bottom: "conv4_1/3x3_dwconv/SE_fc2"
  top: "conv4_1/3x3_dwconv/SE_weights/reshape"
  reshape_param {
    shape {
      dim: 0
      dim: 0
    }
  }
}
layer {
  name: "conv4_1/3x3_dwconv/scale"
  type: "Scale"
  bottom: "conv4_1/3x3_dwconv/concat"
  bottom: "conv4_1/3x3_dwconv/SE_weights/reshape"
  top: "conv4_1/3x3_dwconv/scale"
  scale_param {
    axis: 0
    bias_term: false
  }
}
layer {
  name: "conv4_1/3x3_dwconv/scale_fixed_point"
  type: "Quantize"
  bottom: "conv4_1/3x3_dwconv/scale"
  top: "conv4_1/3x3_dwconv/scale"
  param {
    lr_mult: 0
    decay_mult: 0
  }
  quantize_param {
    precision: 8
    frozen: true
    positive: false
    tolerance: 1.5
  }
}
layer {
  name: "conv4_1/1x1_decrease"
  type: "Convolution"
  bottom: "conv4_1/3x3_dwconv/scale"
  top: "conv4_1/1x1_decrease/bn"
  param {
    lr_mult: 1
    decay_mult: 1
  }
  param {
    lr_mult: 2
    decay_mult: 0
  }
  convolution_param {
    num_output: 40
    bias_term: true
    kernel_size: 1
    stride: 1
    weight_filler {
      type: "msra"
    }
    bias_filler {
      type: "constant"
      value: 0
    }
    engine: CAFFE
    fp16_accumulation: true
  }
  quantize_param {
    precision: 8
    channel_shared: false
  }
}
layer {
  name: "conv4_1/elt_sum"
  type: "Eltwise"
  bottom: "conv4_0/1x1_decrease/bn"
  bottom: "conv4_1/1x1_decrease/bn"
  top: "conv4_1/elt_sum"
  eltwise_param {
    operation: SUM
  }
}
layer {
  name: "conv4_1/elt_sum_fixed_point"
  type: "Quantize"
  bottom: "conv4_1/elt_sum"
  top: "conv4_1/elt_sum"
  param {
    lr_mult: 0
    decay_mult: 0
  }
  quantize_param {
    precision: 8
    frozen: true
    positive: false
    tolerance: 1.5
  }
}
layer {
  name: "conv4_2/1x1_increase"
  type: "Convolution"
  bottom: "conv4_1/elt_sum"
  top: "conv4_2/1x1_increase/bn"
  param {
    lr_mult: 1
    decay_mult: 1
  }
  param {
    lr_mult: 2
    decay_mult: 0
  }
  convolution_param {
    num_output: 120
    bias_term: true
    kernel_size: 1
    stride: 1
    weight_filler {
      type: "msra"
    }
    bias_filler {
      type: "constant"
      value: 0
    }
    engine: CAFFE
    fp16_accumulation: true
  }
  quantize_param {
    precision: 8
    channel_shared: false
  }
}
layer {
  name: "conv4_2/1x1_increase/hardswish"
  type: "HardSwish"
  bottom: "conv4_2/1x1_increase/bn"
  top: "conv4_2/1x1_increase/bn"
}
layer {
  name: "conv4_2/1x1_increase/bn_fixed_point"
  type: "Quantize"
  bottom: "conv4_2/1x1_increase/bn"
  top: "conv4_2/1x1_increase/bn"
  param {
    lr_mult: 0
    decay_mult: 0
  }
  quantize_param {
    precision: 8
    frozen: true
    positive: false
    tolerance: 1.5
  }
}
layer {
  name: "conv4_2/1x1_increase/slice"
  type: "Slice"
  bottom: "conv4_2/1x1_increase/bn"
  top: "conv4_2/1x1_increase/split1"
  top: "conv4_2/1x1_increase/split2"
  slice_param {
    slice_point: 60
  }
}
layer {
  name: "conv4_2/3x3_dwconv/slice_0"
  type: "Convolution"
  bottom: "conv4_2/1x1_increase/split1"
  top: "conv4_2/3x3_dwconv/slice_0/bn"
  param {
    lr_mult: 1
    decay_mult: 1
  }
  param {
    lr_mult: 2
    decay_mult: 0
  }
  convolution_param {
    num_output: 60
    bias_term: true
    pad: 1
    kernel_size: 3
    group: 60
    stride: 1
    weight_filler {
      type: "msra"
    }
    bias_filler {
      type: "constant"
      value: 0
    }
    engine: CAFFE
    fp16_accumulation: true
  }
  quantize_param {
    precision: 8
    channel_shared: false
  }
}
layer {
  name: "conv4_2/3x3_dwconv/slice_0/hardswish"
  type: "HardSwish"
  bottom: "conv4_2/3x3_dwconv/slice_0/bn"
  top: "conv4_2/3x3_dwconv/slice_0/bn"
}
layer {
  name: "conv4_2/3x3_dwconv/slice_1"
  type: "Convolution"
  bottom: "conv4_2/1x1_increase/split2"
  top: "conv4_2/3x3_dwconv/slice_1/bn"
  param {
    lr_mult: 1
    decay_mult: 1
  }
  param {
    lr_mult: 2
    decay_mult: 0
  }
  convolution_param {
    num_output: 60
    bias_term: true
    pad: 2
    kernel_size: 5
    group: 60
    stride: 1
    weight_filler {
      type: "msra"
    }
    bias_filler {
      type: "constant"
      value: 0
    }
    engine: CAFFE
    fp16_accumulation: true
  }
  quantize_param {
    precision: 8
    channel_shared: false
  }
}
layer {
  name: "conv4_2/3x3_dwconv/slice_1/hardswish"
  type: "HardSwish"
  bottom: "conv4_2/3x3_dwconv/slice_1/bn"
  top: "conv4_2/3x3_dwconv/slice_1/bn"
}
layer {
  name: "conv4_2/3x3_dwconv/concat"
  type: "Concat"
  bottom: "conv4_2/3x3_dwconv/slice_0/bn"
  bottom: "conv4_2/3x3_dwconv/slice_1/bn"
  top: "conv4_2/3x3_dwconv/concat"
}
layer {
  name: "conv4_2/3x3_dwconv/concat_fixed_point"
  type: "Quantize"
  bottom: "conv4_2/3x3_dwconv/concat"
  top: "conv4_2/3x3_dwconv/concat"
  param {
    lr_mult: 0
    decay_mult: 0
  }
  quantize_param {
    precision: 8
    frozen: true
    positive: false
    tolerance: 1.5
  }
}
layer {
  name: "conv4_2/3x3_dwconv/SE_global_pool"
  type: "Pooling"
  bottom: "conv4_2/3x3_dwconv/concat"
  top: "conv4_2/3x3_dwconv/SE_global_pool"
  pooling_param {
    pool: AVE
    engine: CAFFE
    global_pooling: true
  }
}
layer {
  name: "conv4_2/3x3_dwconv/SE_bn"
  type: "Scale"
  bottom: "conv4_2/3x3_dwconv/SE_global_pool"
  top: "conv4_2/3x3_dwconv/SE_bn"
  param {
    lr_mult: 1
    decay_mult: 0
  }
  param {
    lr_mult: 2
    decay_mult: 0
  }
  scale_param {
    axis: 1
    num_axes: 1
    bias_term: true
  }
}
layer {
  name: "conv4_2/3x3_dwconv/SE_fc1"
  type: "Convolution"
  bottom: "conv4_2/3x3_dwconv/SE_bn"
  top: "conv4_2/3x3_dwconv/SE_fc1"
  param {
    lr_mult: 1
    decay_mult: 1
  }
  convolution_param {
    num_output: 7
    bias_term: false
    kernel_size: 1
    stride: 1
    weight_filler {
      type: "gaussian"
      std: 0.01
    }
    engine: CAFFE
    fp16_accumulation: true
  }
  quantize_param {
    precision: 8
    channel_shared: false
  }
}
layer {
  name: "conv4_2/3x3_dwconv/SE_fc1/relu"
  type: "ReLU"
  bottom: "conv4_2/3x3_dwconv/SE_fc1"
  top: "conv4_2/3x3_dwconv/SE_fc1"
}
layer {
  name: "conv4_2/3x3_dwconv/SE_fc2"
  type: "Convolution"
  bottom: "conv4_2/3x3_dwconv/SE_fc1"
  top: "conv4_2/3x3_dwconv/SE_fc2"
  param {
    lr_mult: 1
    decay_mult: 1
  }
  convolution_param {
    num_output: 120
    bias_term: false
    kernel_size: 1
    stride: 1
    weight_filler {
      type: "gaussian"
      std: 0.01
    }
    engine: CAFFE
    fp16_accumulation: true
  }
  quantize_param {
    precision: 8
    channel_shared: false
  }
}
layer {
  name: "conv4_2/3x3_dwconv/SE_weights"
  type: "Sigmoid"
  bottom: "conv4_2/3x3_dwconv/SE_fc2"
  top: "conv4_2/3x3_dwconv/SE_fc2"
}
layer {
  name: "conv4_2/3x3_dwconv/SE_weights/reshape"
  type: "Reshape"
  bottom: "conv4_2/3x3_dwconv/SE_fc2"
  top: "conv4_2/3x3_dwconv/SE_weights/reshape"
  reshape_param {
    shape {
      dim: 0
      dim: 0
    }
  }
}
layer {
  name: "conv4_2/3x3_dwconv/scale"
  type: "Scale"
  bottom: "conv4_2/3x3_dwconv/concat"
  bottom: "conv4_2/3x3_dwconv/SE_weights/reshape"
  top: "conv4_2/3x3_dwconv/scale"
  scale_param {
    axis: 0
    bias_term: false
  }
}
layer {
  name: "conv4_2/3x3_dwconv/scale_fixed_point"
  type: "Quantize"
  bottom: "conv4_2/3x3_dwconv/scale"
  top: "conv4_2/3x3_dwconv/scale"
  param {
    lr_mult: 0
    decay_mult: 0
  }
  quantize_param {
    precision: 8
    frozen: true
    positive: false
    tolerance: 1.5
  }
}
layer {
  name: "conv4_2/1x1_decrease"
  type: "Convolution"
  bottom: "conv4_2/3x3_dwconv/scale"
  top: "conv4_2/1x1_decrease/bn"
  param {
    lr_mult: 1
    decay_mult: 1
  }
  param {
    lr_mult: 2
    decay_mult: 0
  }
  convolution_param {
    num_output: 40
    bias_term: true
    kernel_size: 1
    stride: 1
    weight_filler {
      type: "msra"
    }
    bias_filler {
      type: "constant"
      value: 0
    }
    engine: CAFFE
    fp16_accumulation: true
  }
  quantize_param {
    precision: 8
    channel_shared: false
  }
}
layer {
  name: "conv4_2/elt_sum"
  type: "Eltwise"
  bottom: "conv4_1/elt_sum"
  bottom: "conv4_2/1x1_decrease/bn"
  top: "conv4_2/elt_sum"
  eltwise_param {
    operation: SUM
  }
}
layer {
  name: "conv4_2/elt_sum_fixed_point"
  type: "Quantize"
  bottom: "conv4_2/elt_sum"
  top: "conv4_2/elt_sum"
  param {
    lr_mult: 0
    decay_mult: 0
  }
  quantize_param {
    precision: 8
    frozen: true
    positive: false
    tolerance: 1.5
  }
}
layer {
  name: "conv4_3/1x1_increase"
  type: "Convolution"
  bottom: "conv4_2/elt_sum"
  top: "conv4_3/1x1_increase/bn"
  param {
    lr_mult: 1
    decay_mult: 1
  }
  param {
    lr_mult: 2
    decay_mult: 0
  }
  convolution_param {
    num_output: 120
    bias_term: true
    kernel_size: 1
    stride: 1
    weight_filler {
      type: "msra"
    }
   
I0917 10:56:55.568168 26934 layer_factory.hpp:77] Creating layer data
I0917 10:56:55.568224 26934 net.cpp:86] Creating Layer data
I0917 10:56:55.568238 26934 net.cpp:382] data -> data
I0917 10:56:55.568279 26934 net.cpp:382] data -> label
I0917 10:56:55.568305 26934 image_data_layer.cpp:43] Opening file file_lists/val.txt
I0917 10:56:55.581902 26934 image_data_layer.cpp:68] A total of 50000 images.
I0917 10:56:55.616607 26934 image_data_layer.cpp:95] output data size: 25,3,224,224
I0917 10:56:55.663141 26934 net.cpp:124] Setting up data
I0917 10:56:55.663246 26934 net.cpp:131] Top shape: 25 3 224 224 (3763200)
I0917 10:56:55.663256 26934 net.cpp:131] Top shape: 25 (25)
I0917 10:56:55.663262 26934 net.cpp:139] Memory required for data: 15052900
I0917 10:56:55.663275 26934 layer_factory.hpp:77] Creating layer label_data_1_split
I0917 10:56:55.663308 26934 net.cpp:86] Creating Layer label_data_1_split
I0917 10:56:55.663327 26934 net.cpp:408] label_data_1_split <- label
I0917 10:56:55.663350 26934 net.cpp:382] label_data_1_split -> label_data_1_split_0
I0917 10:56:55.663364 26934 net.cpp:382] label_data_1_split -> label_data_1_split_1
I0917 10:56:55.663374 26934 net.cpp:382] label_data_1_split -> label_data_1_split_2
I0917 10:56:55.663503 26934 net.cpp:124] Setting up label_data_1_split
I0917 10:56:55.663513 26934 net.cpp:131] Top shape: 25 (25)
I0917 10:56:55.663518 26934 net.cpp:131] Top shape: 25 (25)
I0917 10:56:55.663522 26934 net.cpp:131] Top shape: 25 (25)
I0917 10:56:55.663527 26934 net.cpp:139] Memory required for data: 15053200
I0917 10:56:55.663530 26934 layer_factory.hpp:77] Creating layer data_fixed_point
I0917 10:56:55.663547 26934 net.cpp:86] Creating Layer data_fixed_point
I0917 10:56:55.663552 26934 net.cpp:408] data_fixed_point <- data
I0917 10:56:55.663571 26934 net.cpp:369] data_fixed_point -> data (in-place)
I0917 10:56:55.663630 26934 net.cpp:124] Setting up data_fixed_point
I0917 10:56:55.663637 26934 net.cpp:131] Top shape: 25 3 224 224 (3763200)
I0917 10:56:55.663641 26934 net.cpp:139] Memory required for data: 30106000
I0917 10:56:55.663667 26934 layer_factory.hpp:77] Creating layer conv1/3x3_s2
I0917 10:56:55.663707 26934 net.cpp:86] Creating Layer conv1/3x3_s2
I0917 10:56:55.663712 26934 net.cpp:408] conv1/3x3_s2 <- data
I0917 10:56:55.663724 26934 net.cpp:382] conv1/3x3_s2 -> conv1/3x3_s2/bn
I0917 10:56:55.667795 26934 net.cpp:124] Setting up conv1/3x3_s2
I0917 10:56:55.667819 26934 net.cpp:131] Top shape: 25 32 112 112 (10035200)
I0917 10:56:55.667832 26934 net.cpp:139] Memory required for data: 70246800
I0917 10:56:55.667845 26934 layer_factory.hpp:77] Creating layer conv1/3x3_s2/relu
I0917 10:56:55.667855 26934 net.cpp:86] Creating Layer conv1/3x3_s2/relu
I0917 10:56:55.667889 26934 net.cpp:408] conv1/3x3_s2/relu <- conv1/3x3_s2/bn
I0917 10:56:55.667897 26934 net.cpp:369] conv1/3x3_s2/relu -> conv1/3x3_s2/bn (in-place)
I0917 10:56:56.489533 26934 net.cpp:124] Setting up conv1/3x3_s2/relu
I0917 10:56:56.489581 26934 net.cpp:131] Top shape: 25 32 112 112 (10035200)
I0917 10:56:56.489585 26934 net.cpp:139] Memory required for data: 110387600
I0917 10:56:56.489593 26934 layer_factory.hpp:77] Creating layer conv1/3x3_s2/bn_fixed_point
I0917 10:56:56.489631 26934 net.cpp:86] Creating Layer conv1/3x3_s2/bn_fixed_point
I0917 10:56:56.489639 26934 net.cpp:408] conv1/3x3_s2/bn_fixed_point <- conv1/3x3_s2/bn
I0917 10:56:56.489681 26934 net.cpp:369] conv1/3x3_s2/bn_fixed_point -> conv1/3x3_s2/bn (in-place)
I0917 10:56:56.489724 26934 net.cpp:124] Setting up conv1/3x3_s2/bn_fixed_point
I0917 10:56:56.489732 26934 net.cpp:131] Top shape: 25 32 112 112 (10035200)
I0917 10:56:56.489734 26934 net.cpp:139] Memory required for data: 150528400
I0917 10:56:56.489742 26934 layer_factory.hpp:77] Creating layer conv2_0/3x3_dwconv
I0917 10:56:56.489758 26934 net.cpp:86] Creating Layer conv2_0/3x3_dwconv
I0917 10:56:56.489763 26934 net.cpp:408] conv2_0/3x3_dwconv <- conv1/3x3_s2/bn
I0917 10:56:56.489768 26934 net.cpp:382] conv2_0/3x3_dwconv -> conv2_0/3x3_dwconv/bn
I0917 10:56:56.490499 26934 net.cpp:124] Setting up conv2_0/3x3_dwconv
I0917 10:56:56.490511 26934 net.cpp:131] Top shape: 25 32 112 112 (10035200)
I0917 10:56:56.490530 26934 net.cpp:139] Memory required for data: 190669200
I0917 10:56:56.490540 26934 layer_factory.hpp:77] Creating layer conv2_0/3x3_dwconv/relu
I0917 10:56:56.490550 26934 net.cpp:86] Creating Layer conv2_0/3x3_dwconv/relu
I0917 10:56:56.490555 26934 net.cpp:408] conv2_0/3x3_dwconv/relu <- conv2_0/3x3_dwconv/bn
I0917 10:56:56.490559 26934 net.cpp:369] conv2_0/3x3_dwconv/relu -> conv2_0/3x3_dwconv/bn (in-place)
I0917 10:56:56.491055 26934 net.cpp:124] Setting up conv2_0/3x3_dwconv/relu
I0917 10:56:56.491065 26934 net.cpp:131] Top shape: 25 32 112 112 (10035200)
I0917 10:56:56.491084 26934 net.cpp:139] Memory required for data: 230810000
I0917 10:56:56.491087 26934 layer_factory.hpp:77] Creating layer conv2_0/3x3_dwconv/bn_fixed_point
I0917 10:56:56.491096 26934 net.cpp:86] Creating Layer conv2_0/3x3_dwconv/bn_fixed_point
I0917 10:56:56.491102 26934 net.cpp:408] conv2_0/3x3_dwconv/bn_fixed_point <- conv2_0/3x3_dwconv/bn
I0917 10:56:56.491106 26934 net.cpp:369] conv2_0/3x3_dwconv/bn_fixed_point -> conv2_0/3x3_dwconv/bn (in-place)
I0917 10:56:56.491134 26934 net.cpp:124] Setting up conv2_0/3x3_dwconv/bn_fixed_point
I0917 10:56:56.491139 26934 net.cpp:131] Top shape: 25 32 112 112 (10035200)
I0917 10:56:56.491142 26934 net.cpp:139] Memory required for data: 270950800
I0917 10:56:56.491147 26934 layer_factory.hpp:77] Creating layer conv2_0/1x1_decrease
I0917 10:56:56.491156 26934 net.cpp:86] Creating Layer conv2_0/1x1_decrease
I0917 10:56:56.491163 26934 net.cpp:408] conv2_0/1x1_decrease <- conv2_0/3x3_dwconv/bn
I0917 10:56:56.491181 26934 net.cpp:382] conv2_0/1x1_decrease -> conv2_0/1x1_decrease/bn
I0917 10:56:56.491679 26934 net.cpp:124] Setting up conv2_0/1x1_decrease
I0917 10:56:56.491689 26934 net.cpp:131] Top shape: 25 16 112 112 (5017600)
I0917 10:56:56.491708 26934 net.cpp:139] Memory required for data: 291021200
I0917 10:56:56.491716 26934 layer_factory.hpp:77] Creating layer conv2_0/1x1_decrease/bn_fixed_point
I0917 10:56:56.491724 26934 net.cpp:86] Creating Layer conv2_0/1x1_decrease/bn_fixed_point
I0917 10:56:56.491727 26934 net.cpp:408] conv2_0/1x1_decrease/bn_fixed_point <- conv2_0/1x1_decrease/bn
I0917 10:56:56.491732 26934 net.cpp:369] conv2_0/1x1_decrease/bn_fixed_point -> conv2_0/1x1_decrease/bn (in-place)
I0917 10:56:56.491760 26934 net.cpp:124] Setting up conv2_0/1x1_decrease/bn_fixed_point
I0917 10:56:56.491767 26934 net.cpp:131] Top shape: 25 16 112 112 (5017600)
I0917 10:56:56.491770 26934 net.cpp:139] Memory required for data: 311091600
I0917 10:56:56.491791 26934 layer_factory.hpp:77] Creating layer conv3_0/1x1_increase
I0917 10:56:56.491823 26934 net.cpp:86] Creating Layer conv3_0/1x1_increase
I0917 10:56:56.491827 26934 net.cpp:408] conv3_0/1x1_increase <- conv2_0/1x1_decrease/bn
I0917 10:56:56.491832 26934 net.cpp:382] conv3_0/1x1_increase -> conv3_0/1x1_increase/bn
I0917 10:56:56.492365 26934 net.cpp:124] Setting up conv3_0/1x1_increase
I0917 10:56:56.492377 26934 net.cpp:131] Top shape: 25 48 112 112 (15052800)
I0917 10:56:56.492395 26934 net.cpp:139] Memory required for data: 371302800
I0917 10:56:56.492400 26934 layer_factory.hpp:77] Creating layer conv3_0/1x1_increase/relu
I0917 10:56:56.492408 26934 net.cpp:86] Creating Layer conv3_0/1x1_increase/relu
I0917 10:56:56.492411 26934 net.cpp:408] conv3_0/1x1_increase/relu <- conv3_0/1x1_increase/bn
I0917 10:56:56.492416 26934 net.cpp:369] conv3_0/1x1_increase/relu -> conv3_0/1x1_increase/bn (in-place)
I0917 10:56:56.493106 26934 net.cpp:124] Setting up conv3_0/1x1_increase/relu
I0917 10:56:56.493119 26934 net.cpp:131] Top shape: 25 48 112 112 (15052800)
I0917 10:56:56.493137 26934 net.cpp:139] Memory required for data: 431514000
I0917 10:56:56.493140 26934 layer_factory.hpp:77] Creating layer conv3_0/1x1_increase/bn_fixed_point
I0917 10:56:56.493147 26934 net.cpp:86] Creating Layer conv3_0/1x1_increase/bn_fixed_point
I0917 10:56:56.493150 26934 net.cpp:408] conv3_0/1x1_increase/bn_fixed_point <- conv3_0/1x1_increase/bn
I0917 10:56:56.493155 26934 net.cpp:369] conv3_0/1x1_increase/bn_fixed_point -> conv3_0/1x1_increase/bn (in-place)
I0917 10:56:56.493183 26934 net.cpp:124] Setting up conv3_0/1x1_increase/bn_fixed_point
I0917 10:56:56.493188 26934 net.cpp:131] Top shape: 25 48 112 112 (15052800)
I0917 10:56:56.493191 26934 net.cpp:139] Memory required for data: 491725200
I0917 10:56:56.493196 26934 layer_factory.hpp:77] Creating layer conv3_0/3x3_dwconv
I0917 10:56:56.493206 26934 net.cpp:86] Creating Layer conv3_0/3x3_dwconv
I0917 10:56:56.493211 26934 net.cpp:408] conv3_0/3x3_dwconv <- conv3_0/1x1_increase/bn
I0917 10:56:56.493230 26934 net.cpp:382] conv3_0/3x3_dwconv -> conv3_0/3x3_dwconv/bn
I0917 10:56:56.495570 26934 net.cpp:124] Setting up conv3_0/3x3_dwconv
I0917 10:56:56.495584 26934 net.cpp:131] Top shape: 25 48 56 56 (3763200)
I0917 10:56:56.495602 26934 net.cpp:139] Memory required for data: 506778000
I0917 10:56:56.495609 26934 layer_factory.hpp:77] Creating layer conv3_0/3x3_dwconv/relu
I0917 10:56:56.495617 26934 net.cpp:86] Creating Layer conv3_0/3x3_dwconv/relu
I0917 10:56:56.495622 26934 net.cpp:408] conv3_0/3x3_dwconv/relu <- conv3_0/3x3_dwconv/bn
I0917 10:56:56.495643 26934 net.cpp:369] conv3_0/3x3_dwconv/relu -> conv3_0/3x3_dwconv/bn (in-place)
I0917 10:56:56.496152 26934 net.cpp:124] Setting up conv3_0/3x3_dwconv/relu
I0917 10:56:56.496162 26934 net.cpp:131] Top shape: 25 48 56 56 (3763200)
I0917 10:56:56.496181 26934 net.cpp:139] Memory required for data: 521830800
I0917 10:56:56.496186 26934 layer_factory.hpp:77] Creating layer conv3_0/3x3_dwconv/bn_fixed_point
I0917 10:56:56.496193 26934 net.cpp:86] Creating Layer conv3_0/3x3_dwconv/bn_fixed_point
I0917 10:56:56.496197 26934 net.cpp:408] conv3_0/3x3_dwconv/bn_fixed_point <- conv3_0/3x3_dwconv/bn
I0917 10:56:56.496202 26934 net.cpp:369] conv3_0/3x3_dwconv/bn_fixed_point -> conv3_0/3x3_dwconv/bn (in-place)
I0917 10:56:56.496232 26934 net.cpp:124] Setting up conv3_0/3x3_dwconv/bn_fixed_point
I0917 10:56:56.496239 26934 net.cpp:131] Top shape: 25 48 56 56 (3763200)
I0917 10:56:56.496242 26934 net.cpp:139] Memory required for data: 536883600
I0917 10:56:56.496263 26934 layer_factory.hpp:77] Creating layer conv3_0/1x1_decrease
I0917 10:56:56.496273 26934 net.cpp:86] Creating Layer conv3_0/1x1_decrease
I0917 10:56:56.496276 26934 net.cpp:408] conv3_0/1x1_decrease <- conv3_0/3x3_dwconv/bn
I0917 10:56:56.496284 26934 net.cpp:382] conv3_0/1x1_decrease -> conv3_0/1x1_decrease/bn
I0917 10:56:56.496994 26934 net.cpp:124] Setting up conv3_0/1x1_decrease
I0917 10:56:56.497007 26934 net.cpp:131] Top shape: 25 32 56 56 (2508800)
I0917 10:56:56.497027 26934 net.cpp:139] Memory required for data: 546918800
I0917 10:56:56.497037 26934 layer_factory.hpp:77] Creating layer conv3_0/1x1_decrease/bn_fixed_point
I0917 10:56:56.497058 26934 net.cpp:86] Creating Layer conv3_0/1x1_decrease/bn_fixed_point
I0917 10:56:56.497062 26934 net.cpp:408] conv3_0/1x1_decrease/bn_fixed_point <- conv3_0/1x1_decrease/bn
I0917 10:56:56.497068 26934 net.cpp:369] conv3_0/1x1_decrease/bn_fixed_point -> conv3_0/1x1_decrease/bn (in-place)
I0917 10:56:56.497099 26934 net.cpp:124] Setting up conv3_0/1x1_decrease/bn_fixed_point
I0917 10:56:56.497107 26934 net.cpp:131] Top shape: 25 32 56 56 (2508800)
I0917 10:56:56.497108 26934 net.cpp:139] Memory required for data: 556954000
I0917 10:56:56.497114 26934 layer_factory.hpp:77] Creating layer conv3_0/1x1_decrease/bn_conv3_0/1x1_decrease/bn_fixed_point_0_split
I0917 10:56:56.497123 26934 net.cpp:86] Creating Layer conv3_0/1x1_decrease/bn_conv3_0/1x1_decrease/bn_fixed_point_0_split
I0917 10:56:56.497128 26934 net.cpp:408] conv3_0/1x1_decrease/bn_conv3_0/1x1_decrease/bn_fixed_point_0_split <- conv3_0/1x1_decrease/bn
I0917 10:56:56.497143 26934 net.cpp:382] conv3_0/1x1_decrease/bn_conv3_0/1x1_decrease/bn_fixed_point_0_split -> conv3_0/1x1_decrease/bn_conv3_0/1x1_decrease/bn_fixed_point_0_split_0
I0917 10:56:56.497164 26934 net.cpp:382] conv3_0/1x1_decrease/bn_conv3_0/1x1_decrease/bn_fixed_point_0_split -> conv3_0/1x1_decrease/bn_conv3_0/1x1_decrease/bn_fixed_point_0_split_1
I0917 10:56:56.497203 26934 net.cpp:124] Setting up conv3_0/1x1_decrease/bn_conv3_0/1x1_decrease/bn_fixed_point_0_split
I0917 10:56:56.497210 26934 net.cpp:131] Top shape: 25 32 56 56 (2508800)
I0917 10:56:56.497213 26934 net.cpp:131] Top shape: 25 32 56 56 (2508800)
I0917 10:56:56.497215 26934 net.cpp:139] Memory required for data: 577024400
I0917 10:56:56.497218 26934 layer_factory.hpp:77] Creating layer conv3_1/1x1_increase
I0917 10:56:56.497229 26934 net.cpp:86] Creating Layer conv3_1/1x1_increase
I0917 10:56:56.497234 26934 net.cpp:408] conv3_1/1x1_increase <- conv3_0/1x1_decrease/bn_conv3_0/1x1_decrease/bn_fixed_point_0_split_0
I0917 10:56:56.497241 26934 net.cpp:382] conv3_1/1x1_increase -> conv3_1/1x1_increase/bn
I0917 10:56:56.497828 26934 net.cpp:124] Setting up conv3_1/1x1_increase
I0917 10:56:56.497838 26934 net.cpp:131] Top shape: 25 96 56 56 (7526400)
I0917 10:56:56.497858 26934 net.cpp:139] Memory required for data: 607130000
I0917 10:56:56.497864 26934 layer_factory.hpp:77] Creating layer conv3_1/1x1_increase/relu
I0917 10:56:56.497871 26934 net.cpp:86] Creating Layer conv3_1/1x1_increase/relu
I0917 10:56:56.497874 26934 net.cpp:408] conv3_1/1x1_increase/relu <- conv3_1/1x1_increase/bn
I0917 10:56:56.497880 26934 net.cpp:369] conv3_1/1x1_increase/relu -> conv3_1/1x1_increase/bn (in-place)
I0917 10:56:56.498399 26934 net.cpp:124] Setting up conv3_1/1x1_increase/relu
I0917 10:56:56.498409 26934 net.cpp:131] Top shape: 25 96 56 56 (7526400)
I0917 10:56:56.498427 26934 net.cpp:139] Memory required for data: 637235600
I0917 10:56:56.498430 26934 layer_factory.hpp:77] Creating layer conv3_1/1x1_increase/bn_fixed_point
I0917 10:56:56.498438 26934 net.cpp:86] Creating Layer conv3_1/1x1_increase/bn_fixed_point
I0917 10:56:56.498441 26934 net.cpp:408] conv3_1/1x1_increase/bn_fixed_point <- conv3_1/1x1_increase/bn
I0917 10:56:56.498447 26934 net.cpp:369] conv3_1/1x1_increase/bn_fixed_point -> conv3_1/1x1_increase/bn (in-place)
I0917 10:56:56.498476 26934 net.cpp:124] Setting up conv3_1/1x1_increase/bn_fixed_point
I0917 10:56:56.498483 26934 net.cpp:131] Top shape: 25 96 56 56 (7526400)
I0917 10:56:56.498486 26934 net.cpp:139] Memory required for data: 667341200
I0917 10:56:56.498505 26934 layer_factory.hpp:77] Creating layer conv3_1/3x3_dwconv
I0917 10:56:56.498517 26934 net.cpp:86] Creating Layer conv3_1/3x3_dwconv
I0917 10:56:56.498519 26934 net.cpp:408] conv3_1/3x3_dwconv <- conv3_1/1x1_increase/bn
I0917 10:56:56.498526 26934 net.cpp:382] conv3_1/3x3_dwconv -> conv3_1/3x3_dwconv/bn
I0917 10:56:56.499202 26934 net.cpp:124] Setting up conv3_1/3x3_dwconv
I0917 10:56:56.499214 26934 net.cpp:131] Top shape: 25 96 56 56 (7526400)
I0917 10:56:56.499233 26934 net.cpp:139] Memory required for data: 697446800
I0917 10:56:56.499251 26934 layer_factory.hpp:77] Creating layer conv3_1/3x3_dwconv/relu
I0917 10:56:56.499259 26934 net.cpp:86] Creating Layer conv3_1/3x3_dwconv/relu
I0917 10:56:56.499263 26934 net.cpp:408] conv3_1/3x3_dwconv/relu <- conv3_1/3x3_dwconv/bn
I0917 10:56:56.499267 26934 net.cpp:369] conv3_1/3x3_dwconv/relu -> conv3_1/3x3_dwconv/bn (in-place)
I0917 10:56:56.499977 26934 net.cpp:124] Setting up conv3_1/3x3_dwconv/relu
I0917 10:56:56.499990 26934 net.cpp:131] Top shape: 25 96 56 56 (7526400)
I0917 10:56:56.500010 26934 net.cpp:139] Memory required for data: 727552400
I0917 10:56:56.500012 26934 layer_factory.hpp:77] Creating layer conv3_1/3x3_dwconv/bn_fixed_point
I0917 10:56:56.500020 26934 net.cpp:86] Creating Layer conv3_1/3x3_dwconv/bn_fixed_point
I0917 10:56:56.500025 26934 net.cpp:408] conv3_1/3x3_dwconv/bn_fixed_point <- conv3_1/3x3_dwconv/bn
I0917 10:56:56.500030 26934 net.cpp:369] conv3_1/3x3_dwconv/bn_fixed_point -> conv3_1/3x3_dwconv/bn (in-place)
I0917 10:56:56.500061 26934 net.cpp:124] Setting up conv3_1/3x3_dwconv/bn_fixed_point
I0917 10:56:56.500067 26934 net.cpp:131] Top shape: 25 96 56 56 (7526400)
I0917 10:56:56.500069 26934 net.cpp:139] Memory required for data: 757658000
I0917 10:56:56.500075 26934 layer_factory.hpp:77] Creating layer conv3_1/1x1_decrease
I0917 10:56:56.500087 26934 net.cpp:86] Creating Layer conv3_1/1x1_decrease
I0917 10:56:56.500090 26934 net.cpp:408] conv3_1/1x1_decrease <- conv3_1/3x3_dwconv/bn
I0917 10:56:56.500098 26934 net.cpp:382] conv3_1/1x1_decrease -> conv3_1/1x1_decrease/bn
I0917 10:56:56.500639 26934 net.cpp:124] Setting up conv3_1/1x1_decrease
I0917 10:56:56.500650 26934 net.cpp:131] Top shape: 25 32 56 56 (2508800)
I0917 10:56:56.500653 26934 net.cpp:139] Memory required for data: 767693200
I0917 10:56:56.500660 26934 layer_factory.hpp:77] Creating layer conv3_1/elt_sum
I0917 10:56:56.500689 26934 net.cpp:86] Creating Layer conv3_1/elt_sum
I0917 10:56:56.500694 26934 net.cpp:408] conv3_1/elt_sum <- conv3_0/1x1_decrease/bn_conv3_0/1x1_decrease/bn_fixed_point_0_split_1
I0917 10:56:56.500699 26934 net.cpp:408] conv3_1/elt_sum <- conv3_1/1x1_decrease/bn
I0917 10:56:56.500705 26934 net.cpp:382] conv3_1/elt_sum -> conv3_1/elt_sum
I0917 10:56:56.500741 26934 net.cpp:124] Setting up conv3_1/elt_sum
I0917 10:56:56.500747 26934 net.cpp:131] Top shape: 25 32 56 56 (2508800)
I0917 10:56:56.500751 26934 net.cpp:139] Memory required for data: 777728400
I0917 10:56:56.500753 26934 layer_factory.hpp:77] Creating layer conv3_1/elt_sum_fixed_point
I0917 10:56:56.500761 26934 net.cpp:86] Creating Layer conv3_1/elt_sum_fixed_point
I0917 10:56:56.500763 26934 net.cpp:408] conv3_1/elt_sum_fixed_point <- conv3_1/elt_sum
I0917 10:56:56.500769 26934 net.cpp:369] conv3_1/elt_sum_fixed_point -> conv3_1/elt_sum (in-place)
I0917 10:56:56.500794 26934 net.cpp:124] Setting up conv3_1/elt_sum_fixed_point
I0917 10:56:56.500799 26934 net.cpp:131] Top shape: 25 32 56 56 (2508800)
I0917 10:56:56.500802 26934 net.cpp:139] Memory required for data: 787763600
I0917 10:56:56.500810 26934 layer_factory.hpp:77] Creating layer conv4_0/1x1_increase
I0917 10:56:56.500823 26934 net.cpp:86] Creating Layer conv4_0/1x1_increase
I0917 10:56:56.500825 26934 net.cpp:408] conv4_0/1x1_increase <- conv3_1/elt_sum
I0917 10:56:56.500833 26934 net.cpp:382] conv4_0/1x1_increase -> conv4_0/1x1_increase/bn
I0917 10:56:56.501579 26934 net.cpp:124] Setting up conv4_0/1x1_increase
I0917 10:56:56.501590 26934 net.cpp:131] Top shape: 25 96 56 56 (7526400)
I0917 10:56:56.501610 26934 net.cpp:139] Memory required for data: 817869200
I0917 10:56:56.501617 26934 layer_factory.hpp:77] Creating layer conv4_0/1x1_increase/hardswish
I0917 10:56:56.501627 26934 net.cpp:86] Creating Layer conv4_0/1x1_increase/hardswish
I0917 10:56:56.501631 26934 net.cpp:408] conv4_0/1x1_increase/hardswish <- conv4_0/1x1_increase/bn
I0917 10:56:56.501636 26934 net.cpp:369] conv4_0/1x1_increase/hardswish -> conv4_0/1x1_increase/bn (in-place)
I0917 10:56:56.501665 26934 net.cpp:124] Setting up conv4_0/1x1_increase/hardswish
I0917 10:56:56.501683 26934 net.cpp:131] Top shape: 25 96 56 56 (7526400)
I0917 10:56:56.501686 26934 net.cpp:139] Memory required for data: 847974800
I0917 10:56:56.501689 26934 layer_factory.hpp:77] Creating layer conv4_0/1x1_increase/bn_fixed_point
I0917 10:56:56.501696 26934 net.cpp:86] Creating Layer conv4_0/1x1_increase/bn_fixed_point
I0917 10:56:56.501699 26934 net.cpp:408] conv4_0/1x1_increase/bn_fixed_point <- conv4_0/1x1_increase/bn
I0917 10:56:56.501705 26934 net.cpp:369] conv4_0/1x1_increase/bn_fixed_point -> conv4_0/1x1_increase/bn (in-place)
I0917 10:56:56.501732 26934 net.cpp:124] Setting up conv4_0/1x1_increase/bn_fixed_point
I0917 10:56:56.501737 26934 net.cpp:131] Top shape: 25 96 56 56 (7526400)
I0917 10:56:56.501740 26934 net.cpp:139] Memory required for data: 878080400
I0917 10:56:56.501744 26934 layer_factory.hpp:77] Creating layer conv4_0/1x1_increase/slice
I0917 10:56:56.501754 26934 net.cpp:86] Creating Layer conv4_0/1x1_increase/slice
I0917 10:56:56.501757 26934 net.cpp:408] conv4_0/1x1_increase/slice <- conv4_0/1x1_increase/bn
I0917 10:56:56.501762 26934 net.cpp:382] conv4_0/1x1_increase/slice -> conv4_0/1x1_increase/split1
I0917 10:56:56.501772 26934 net.cpp:382] conv4_0/1x1_increase/slice -> conv4_0/1x1_increase/split2
I0917 10:56:56.501778 26934 net.cpp:382] conv4_0/1x1_increase/slice -> conv4_0/1x1_increase/split3
I0917 10:56:56.501855 26934 net.cpp:124] Setting up conv4_0/1x1_increase/slice
I0917 10:56:56.501863 26934 net.cpp:131] Top shape: 25 32 56 56 (2508800)
I0917 10:56:56.501866 26934 net.cpp:131] Top shape: 25 32 56 56 (2508800)
I0917 10:56:56.501869 26934 net.cpp:131] Top shape: 25 32 56 56 (2508800)
I0917 10:56:56.501871 26934 net.cpp:139] Memory required for data: 908186000
I0917 10:56:56.501874 26934 layer_factory.hpp:77] Creating layer conv4_0/3x3_dwconv/slice_0
I0917 10:56:56.501884 26934 net.cpp:86] Creating Layer conv4_0/3x3_dwconv/slice_0
I0917 10:56:56.501904 26934 net.cpp:408] conv4_0/3x3_dwconv/slice_0 <- conv4_0/1x1_increase/split1
I0917 10:56:56.501910 26934 net.cpp:382] conv4_0/3x3_dwconv/slice_0 -> conv4_0/3x3_dwconv/slice_0/bn
I0917 10:56:56.502439 26934 net.cpp:124] Setting up conv4_0/3x3_dwconv/slice_0
I0917 10:56:56.502449 26934 net.cpp:131] Top shape: 25 32 28 28 (627200)
I0917 10:56:56.502467 26934 net.cpp:139] Memory required for data: 910694800
I0917 10:56:56.502478 26934 layer_factory.hpp:77] Creating layer conv4_0/3x3_dwconv/slice_0/hardswish
I0917 10:56:56.502485 26934 net.cpp:86] Creating Layer conv4_0/3x3_dwconv/slice_0/hardswish
I0917 10:56:56.502490 26934 net.cpp:408] conv4_0/3x3_dwconv/slice_0/hardswish <- conv4_0/3x3_dwconv/slice_0/bn
I0917 10:56:56.502496 26934 net.cpp:369] conv4_0/3x3_dwconv/slice_0/hardswish -> conv4_0/3x3_dwconv/slice_0/bn (in-place)
I0917 10:56:56.502524 26934 net.cpp:124] Setting up conv4_0/3x3_dwconv/slice_0/hardswish
I0917 10:56:56.502530 26934 net.cpp:131] Top shape: 25 32 28 28 (627200)
I0917 10:56:56.502533 26934 net.cpp:139] Memory required for data: 913203600
I0917 10:56:56.502535 26934 layer_factory.hpp:77] Creating layer conv4_0/3x3_dwconv/slice_1
I0917 10:56:56.502547 26934 net.cpp:86] Creating Layer conv4_0/3x3_dwconv/slice_1
I0917 10:56:56.502549 26934 net.cpp:408] conv4_0/3x3_dwconv/slice_1 <- conv4_0/1x1_increase/split2
I0917 10:56:56.502557 26934 net.cpp:382] conv4_0/3x3_dwconv/slice_1 -> conv4_0/3x3_dwconv/slice_1/bn
I0917 10:56:56.503304 26934 net.cpp:124] Setting up conv4_0/3x3_dwconv/slice_1
I0917 10:56:56.503316 26934 net.cpp:131] Top shape: 25 32 28 28 (627200)
I0917 10:56:56.503335 26934 net.cpp:139] Memory required for data: 915712400
I0917 10:56:56.503341 26934 layer_factory.hpp:77] Creating layer conv4_0/3x3_dwconv/slice_1/hardswish
I0917 10:56:56.503350 26934 net.cpp:86] Creating Layer conv4_0/3x3_dwconv/slice_1/hardswish
I0917 10:56:56.503353 26934 net.cpp:408] conv4_0/3x3_dwconv/slice_1/hardswish <- conv4_0/3x3_dwconv/slice_1/bn
I0917 10:56:56.503360 26934 net.cpp:369] conv4_0/3x3_dwconv/slice_1/hardswish -> conv4_0/3x3_dwconv/slice_1/bn (in-place)
I0917 10:56:56.503387 26934 net.cpp:124] Setting up conv4_0/3x3_dwconv/slice_1/hardswish
I0917 10:56:56.503404 26934 net.cpp:131] Top shape: 25 32 28 28 (627200)
I0917 10:56:56.503408 26934 net.cpp:139] Memory required for data: 918221200
I0917 10:56:56.503410 26934 layer_factory.hpp:77] Creating layer conv4_0/3x3_dwconv/slice_2
I0917 10:56:56.503422 26934 net.cpp:86] Creating Layer conv4_0/3x3_dwconv/slice_2
I0917 10:56:56.503425 26934 net.cpp:408] conv4_0/3x3_dwconv/slice_2 <- conv4_0/1x1_increase/split3
I0917 10:56:56.503433 26934 net.cpp:382] conv4_0/3x3_dwconv/slice_2 -> conv4_0/3x3_dwconv/slice_2/bn
I0917 10:56:56.504137 26934 net.cpp:124] Setting up conv4_0/3x3_dwconv/slice_2
I0917 10:56:56.504148 26934 net.cpp:131] Top shape: 25 32 28 28 (627200)
I0917 10:56:56.504168 26934 net.cpp:139] Memory required for data: 920730000
I0917 10:56:56.504174 26934 layer_factory.hpp:77] Creating layer conv4_0/3x3_dwconv/slice_2/hardswish
I0917 10:56:56.504180 26934 net.cpp:86] Creating Layer conv4_0/3x3_dwconv/slice_2/hardswish
I0917 10:56:56.504184 26934 net.cpp:408] conv4_0/3x3_dwconv/slice_2/hardswish <- conv4_0/3x3_dwconv/slice_2/bn
I0917 10:56:56.504190 26934 net.cpp:369] conv4_0/3x3_dwconv/slice_2/hardswish -> conv4_0/3x3_dwconv/slice_2/bn (in-place)
I0917 10:56:56.504218 26934 net.cpp:124] Setting up conv4_0/3x3_dwconv/slice_2/hardswish
I0917 10:56:56.504223 26934 net.cpp:131] Top shape: 25 32 28 28 (627200)
I0917 10:56:56.504226 26934 net.cpp:139] Memory required for data: 923238800
I0917 10:56:56.504228 26934 layer_factory.hpp:77] Creating layer conv4_0/3x3_dwconv/concat
I0917 10:56:56.504254 26934 net.cpp:86] Creating Layer conv4_0/3x3_dwconv/concat
I0917 10:56:56.504257 26934 net.cpp:408] conv4_0/3x3_dwconv/concat <- conv4_0/3x3_dwconv/slice_0/bn
I0917 10:56:56.504261 26934 net.cpp:408] conv4_0/3x3_dwconv/concat <- conv4_0/3x3_dwconv/slice_1/bn
I0917 10:56:56.504266 26934 net.cpp:408] conv4_0/3x3_dwconv/concat <- conv4_0/3x3_dwconv/slice_2/bn
I0917 10:56:56.504271 26934 net.cpp:382] conv4_0/3x3_dwconv/concat -> conv4_0/3x3_dwconv/concat
I0917 10:56:56.504300 26934 net.cpp:124] Setting up conv4_0/3x3_dwconv/concat
I0917 10:56:56.504305 26934 net.cpp:131] Top shape: 25 96 28 28 (1881600)
I0917 10:56:56.504308 26934 net.cpp:139] Memory required for data: 930765200
I0917 10:56:56.504312 26934 layer_factory.hpp:77] Creating layer conv4_0/3x3_dwconv/concat_fixed_point
I0917 10:56:56.504319 26934 net.cpp:86] Creating Layer conv4_0/3x3_dwconv/concat_fixed_point
I0917 10:56:56.504323 26934 net.cpp:408] conv4_0/3x3_dwconv/concat_fixed_point <- conv4_0/3x3_dwconv/concat
I0917 10:56:56.504328 26934 net.cpp:369] conv4_0/3x3_dwconv/concat_fixed_point -> conv4_0/3x3_dwconv/concat (in-place)
I0917 10:56:56.504354 26934 net.cpp:124] Setting up conv4_0/3x3_dwconv/concat_fixed_point
I0917 10:56:56.504359 26934 net.cpp:131] Top shape: 25 96 28 28 (1881600)
I0917 10:56:56.504361 26934 net.cpp:139] Memory required for data: 938291600
I0917 10:56:56.504365 26934 layer_factory.hpp:77] Creating layer conv4_0/3x3_dwconv/concat_conv4_0/3x3_dwconv/concat_fixed_point_0_split
I0917 10:56:56.504374 26934 net.cpp:86] Creating Layer conv4_0/3x3_dwconv/concat_conv4_0/3x3_dwconv/concat_fixed_point_0_split
I0917 10:56:56.504376 26934 net.cpp:408] conv4_0/3x3_dwconv/concat_conv4_0/3x3_dwconv/concat_fixed_point_0_split <- conv4_0/3x3_dwconv/concat
I0917 10:56:56.504381 26934 net.cpp:382] conv4_0/3x3_dwconv/concat_conv4_0/3x3_dwconv/concat_fixed_point_0_split -> conv4_0/3x3_dwconv/concat_conv4_0/3x3_dwconv/concat_fixed_point_0_split_0
I0917 10:56:56.504387 26934 net.cpp:382] conv4_0/3x3_dwconv/concat_conv4_0/3x3_dwconv/concat_fixed_point_0_split -> conv4_0/3x3_dwconv/concat_conv4_0/3x3_dwconv/concat_fixed_point_0_split_1
I0917 10:56:56.504438 26934 net.cpp:124] Setting up conv4_0/3x3_dwconv/concat_conv4_0/3x3_dwconv/concat_fixed_point_0_split
I0917 10:56:56.504446 26934 net.cpp:131] Top shape: 25 96 28 28 (1881600)
I0917 10:56:56.504448 26934 net.cpp:131] Top shape: 25 96 28 28 (1881600)
I0917 10:56:56.504451 26934 net.cpp:139] Memory required for data: 953344400
I0917 10:56:56.504453 26934 layer_factory.hpp:77] Creating layer conv4_0/3x3_dwconv/SE_global_pool
I0917 10:56:56.504477 26934 net.cpp:86] Creating Layer conv4_0/3x3_dwconv/SE_global_pool
I0917 10:56:56.504482 26934 net.cpp:408] conv4_0/3x3_dwconv/SE_global_pool <- conv4_0/3x3_dwconv/concat_conv4_0/3x3_dwconv/concat_fixed_point_0_split_0
I0917 10:56:56.504487 26934 net.cpp:382] conv4_0/3x3_dwconv/SE_global_pool -> conv4_0/3x3_dwconv/SE_global_pool
I0917 10:56:56.504525 26934 net.cpp:124] Setting up conv4_0/3x3_dwconv/SE_global_pool
I0917 10:56:56.504532 26934 net.cpp:131] Top shape: 25 96 1 1 (2400)
I0917 10:56:56.504550 26934 net.cpp:139] Memory required for data: 953354000
I0917 10:56:56.504552 26934 layer_factory.hpp:77] Creating layer conv4_0/3x3_dwconv/SE_bn
I0917 10:56:56.504564 26934 net.cpp:86] Creating Layer conv4_0/3x3_dwconv/SE_bn
I0917 10:56:56.504566 26934 net.cpp:408] conv4_0/3x3_dwconv/SE_bn <- conv4_0/3x3_dwconv/SE_global_pool
I0917 10:56:56.504573 26934 net.cpp:382] conv4_0/3x3_dwconv/SE_bn -> conv4_0/3x3_dwconv/SE_bn
I0917 10:56:56.504624 26934 layer_factory.hpp:77] Creating layer conv4_0/3x3_dwconv/SE_bn
I0917 10:56:56.504750 26934 net.cpp:124] Setting up conv4_0/3x3_dwconv/SE_bn
I0917 10:56:56.504757 26934 net.cpp:131] Top shape: 25 96 1 1 (2400)
I0917 10:56:56.504760 26934 net.cpp:139] Memory required for data: 953363600
I0917 10:56:56.504765 26934 layer_factory.hpp:77] Creating layer conv4_0/3x3_dwconv/SE_fc1
I0917 10:56:56.504775 26934 net.cpp:86] Creating Layer conv4_0/3x3_dwconv/SE_fc1
I0917 10:56:56.504778 26934 net.cpp:408] conv4_0/3x3_dwconv/SE_fc1 <- conv4_0/3x3_dwconv/SE_bn
I0917 10:56:56.504784 26934 net.cpp:382] conv4_0/3x3_dwconv/SE_fc1 -> conv4_0/3x3_dwconv/SE_fc1
I0917 10:56:56.505131 26934 net.cpp:124] Setting up conv4_0/3x3_dwconv/SE_fc1
I0917 10:56:56.505141 26934 net.cpp:131] Top shape: 25 6 1 1 (150)
I0917 10:56:56.505161 26934 net.cpp:139] Memory required for data: 953364200
I0917 10:56:56.505165 26934 layer_factory.hpp:77] Creating layer conv4_0/3x3_dwconv/SE_fc1/relu
I0917 10:56:56.505170 26934 net.cpp:86] Creating Layer conv4_0/3x3_dwconv/SE_fc1/relu
I0917 10:56:56.505173 26934 net.cpp:408] conv4_0/3x3_dwconv/SE_fc1/relu <- conv4_0/3x3_dwconv/SE_fc1
I0917 10:56:56.505178 26934 net.cpp:369] conv4_0/3x3_dwconv/SE_fc1/relu -> conv4_0/3x3_dwconv/SE_fc1 (in-place)
I0917 10:56:56.505647 26934 net.cpp:124] Setting up conv4_0/3x3_dwconv/SE_fc1/relu
I0917 10:56:56.505657 26934 net.cpp:131] Top shape: 25 6 1 1 (150)
I0917 10:56:56.505676 26934 net.cpp:139] Memory required for data: 953364800
I0917 10:56:56.505679 26934 layer_factory.hpp:77] Creating layer conv4_0/3x3_dwconv/SE_fc2
I0917 10:56:56.505688 26934 net.cpp:86] Creating Layer conv4_0/3x3_dwconv/SE_fc2
I0917 10:56:56.505692 26934 net.cpp:408] conv4_0/3x3_dwconv/SE_fc2 <- conv4_0/3x3_dwconv/SE_fc1
I0917 10:56:56.505699 26934 net.cpp:382] conv4_0/3x3_dwconv/SE_fc2 -> conv4_0/3x3_dwconv/SE_fc2
I0917 10:56:56.506068 26934 net.cpp:124] Setting up conv4_0/3x3_dwconv/SE_fc2
I0917 10:56:56.506078 26934 net.cpp:131] Top shape: 25 96 1 1 (2400)
I0917 10:56:56.506098 26934 net.cpp:139] Memory required for data: 953374400
I0917 10:56:56.506103 26934 layer_factory.hpp:77] Creating layer conv4_0/3x3_dwconv/SE_weights
I0917 10:56:56.506112 26934 net.cpp:86] Creating Layer conv4_0/3x3_dwconv/SE_weights
I0917 10:56:56.506115 26934 net.cpp:408] conv4_0/3x3_dwconv/SE_weights <- conv4_0/3x3_dwconv/SE_fc2
I0917 10:56:56.506120 26934 net.cpp:369] conv4_0/3x3_dwconv/SE_weights -> conv4_0/3x3_dwconv/SE_fc2 (in-place)
I0917 10:56:56.506599 26934 net.cpp:124] Setting up conv4_0/3x3_dwconv/SE_weights
I0917 10:56:56.506608 26934 net.cpp:131] Top shape: 25 96 1 1 (2400)
I0917 10:56:56.506626 26934 net.cpp:139] Memory required for data: 953384000
I0917 10:56:56.506631 26934 layer_factory.hpp:77] Creating layer conv4_0/3x3_dwconv/SE_weights/reshape
I0917 10:56:56.506641 26934 net.cpp:86] Creating Layer conv4_0/3x3_dwconv/SE_weights/reshape
I0917 10:56:56.506644 26934 net.cpp:408] conv4_0/3x3_dwconv/SE_weights/reshape <- conv4_0/3x3_dwconv/SE_fc2
I0917 10:56:56.506651 26934 net.cpp:382] conv4_0/3x3_dwconv/SE_weights/reshape -> conv4_0/3x3_dwconv/SE_weights/reshape
I0917 10:56:56.506705 26934 net.cpp:124] Setting up conv4_0/3x3_dwconv/SE_weights/reshape
I0917 10:56:56.506712 26934 net.cpp:131] Top shape: 25 96 (2400)
I0917 10:56:56.506714 26934 net.cpp:139] Memory required for data: 953393600
I0917 10:56:56.506717 26934 layer_factory.hpp:77] Creating layer conv4_0/3x3_dwconv/scale
I0917 10:56:56.506724 26934 net.cpp:86] Creating Layer conv4_0/3x3_dwconv/scale
I0917 10:56:56.506727 26934 net.cpp:408] conv4_0/3x3_dwconv/scale <- conv4_0/3x3_dwconv/concat_conv4_0/3x3_dwconv/concat_fixed_point_0_split_1
I0917 10:56:56.506731 26934 net.cpp:408] conv4_0/3x3_dwconv/scale <- conv4_0/3x3_dwconv/SE_weights/reshape
I0917 10:56:56.506737 26934 net.cpp:382] conv4_0/3x3_dwconv/scale -> conv4_0/3x3_dwconv/scale
I0917 10:56:56.506810 26934 net.cpp:124] Setting up conv4_0/3x3_dwconv/scale
I0917 10:56:56.506819 26934 net.cpp:131] Top shape: 25 96 28 28 (1881600)
I0917 10:56:56.506821 26934 net.cpp:139] Memory required for data: 960920000
I0917 10:56:56.506824 26934 layer_factory.hpp:77] Creating layer conv4_0/3x3_dwconv/scale_fixed_point
I0917 10:56:56.506831 26934 net.cpp:86] Creating Layer conv4_0/3x3_dwconv/scale_fixed_point
I0917 10:56:56.506834 26934 net.cpp:408] conv4_0/3x3_dwconv/scale_fixed_point <- conv4_0/3x3_dwconv/scale
I0917 10:56:56.506840 26934 net.cpp:369] conv4_0/3x3_dwconv/scale_fixed_point -> conv4_0/3x3_dwconv/scale (in-place)
I0917 10:56:56.506865 26934 net.cpp:124] Setting up conv4_0/3x3_dwconv/scale_fixed_point
I0917 10:56:56.506870 26934 net.cpp:131] Top shape: 25 96 28 28 (1881600)
I0917 10:56:56.506871 26934 net.cpp:139] Memory required for data: 968446400
I0917 10:56:56.506877 26934 layer_factory.hpp:77] Creating layer conv4_0/1x1_decrease
I0917 10:56:56.506886 26934 net.cpp:86] Creating Layer conv4_0/1x1_decrease
I0917 10:56:56.506891 26934 net.cpp:408] conv4_0/1x1_decrease <- conv4_0/3x3_dwconv/scale
I0917 10:56:56.506896 26934 net.cpp:382] conv4_0/1x1_decrease -> conv4_0/1x1_decrease/bn
I0917 10:56:56.507464 26934 net.cpp:124] Setting up conv4_0/1x1_decrease
I0917 10:56:56.507475 26934 net.cpp:131] Top shape: 25 40 28 28 (784000)
I0917 10:56:56.507493 26934 net.cpp:139] Memory required for data: 971582400
I0917 10:56:56.507499 26934 layer_factory.hpp:77] Creating layer conv4_0/1x1_decrease/bn_fixed_point
I0917 10:56:56.507506 26934 net.cpp:86] Creating Layer conv4_0/1x1_decrease/bn_fixed_point
I0917 10:56:56.507510 26934 net.cpp:408] conv4_0/1x1_decrease/bn_fixed_point <- conv4_0/1x1_decrease/bn
I0917 10:56:56.507516 26934 net.cpp:369] conv4_0/1x1_decrease/bn_fixed_point -> conv4_0/1x1_decrease/bn (in-place)
I0917 10:56:56.507545 26934 net.cpp:124] Setting up conv4_0/1x1_decrease/bn_fixed_point
I0917 10:56:56.507551 26934 net.cpp:131] Top shape: 25 40 28 28 (784000)
I0917 10:56:56.507553 26934 net.cpp:139] Memory required for data: 974718400
I0917 10:56:56.507557 26934 layer_factory.hpp:77] Creating layer conv4_0/1x1_decrease/bn_conv4_0/1x1_decrease/bn_fixed_point_0_split
I0917 10:56:56.507565 26934 net.cpp:86] Creating Layer conv4_0/1x1_decrease/bn_conv4_0/1x1_decrease/bn_fixed_point_0_split
I0917 10:56:56.507568 26934 net.cpp:408] conv4_0/1x1_decrease/bn_conv4_0/1x1_decrease/bn_fixed_point_0_split <- conv4_0/1x1_decrease/bn
I0917 10:56:56.507573 26934 net.cpp:382] conv4_0/1x1_decrease/bn_conv4_0/1x1_decrease/bn_fixed_point_0_split -> conv4_0/1x1_decrease/bn_conv4_0/1x1_decrease/bn_fixed_point_0_split_0
I0917 10:56:56.507580 26934 net.cpp:382] conv4_0/1x1_decrease/bn_conv4_0/1x1_decrease/bn_fixed_point_0_split -> conv4_0/1x1_decrease/bn_conv4_0/1x1_decrease/bn_fixed_point_0_split_1
I0917 10:56:56.507617 26934 net.cpp:124] Setting up conv4_0/1x1_decrease/bn_conv4_0/1x1_decrease/bn_fixed_point_0_split
I0917 10:56:56.507623 26934 net.cpp:131] Top shape: 25 40 28 28 (784000)
I0917 10:56:56.507627 26934 net.cpp:131] Top shape: 25 40 28 28 (784000)
I0917 10:56:56.507629 26934 net.cpp:139] Memory required for data: 980990400
I0917 10:56:56.507632 26934 layer_factory.hpp:77] Creating layer conv4_1/1x1_increase
I0917 10:56:56.507670 26934 net.cpp:86] Creating Layer conv4_1/1x1_increase
I0917 10:56:56.507674 26934 net.cpp:408] conv4_1/1x1_increase <- conv4_0/1x1_decrease/bn_conv4_0/1x1_decrease/bn_fixed_point_0_split_0
I0917 10:56:56.507681 26934 net.cpp:382] conv4_1/1x1_increase -> conv4_1/1x1_increase/bn
I0917 10:56:56.508332 26934 net.cpp:124] Setting up conv4_1/1x1_increase
I0917 10:56:56.508342 26934 net.cpp:131] Top shape: 25 120 28 28 (2352000)
I0917 10:56:56.508361 26934 net.cpp:139] Memory required for data: 990398400
I0917 10:56:56.508368 26934 layer_factory.hpp:77] Creating layer conv4_1/1x1_increase/hardswish
I0917 10:56:56.508375 26934 net.cpp:86] Creating Layer conv4_1/1x1_increase/hardswish
I0917 10:56:56.508379 26934 net.cpp:408] conv4_1/1x1_increase/hardswish <- conv4_1/1x1_increase/bn
I0917 10:56:56.508384 26934 net.cpp:369] conv4_1/1x1_increase/hardswish -> conv4_1/1x1_increase/bn (in-place)
I0917 10:56:56.508411 26934 net.cpp:124] Setting up conv4_1/1x1_increase/hardswish
I0917 10:56:56.508417 26934 net.cpp:131] Top shape: 25 120 28 28 (2352000)
I0917 10:56:56.508420 26934 net.cpp:139] Memory required for data: 999806400
I0917 10:56:56.508422 26934 layer_factory.hpp:77] Creating layer conv4_1/1x1_increase/bn_fixed_point
I0917 10:56:56.508430 26934 net.cpp:86] Creating Layer conv4_1/1x1_increase/bn_fixed_point
I0917 10:56:56.508435 26934 net.cpp:408] conv4_1/1x1_increase/bn_fixed_point <- conv4_1/1x1_increase/bn
I0917 10:56:56.508440 26934 net.cpp:369] conv4_1/1x1_increase/bn_fixed_point -> conv4_1/1x1_increase/bn (in-place)
I0917 10:56:56.508463 26934 net.cpp:124] Setting up conv4_1/1x1_increase/bn_fixed_point
I0917 10:56:56.508468 26934 net.cpp:131] Top shape: 25 120 28 28 (2352000)
I0917 10:56:56.508472 26934 net.cpp:139] Memory required for data: 1009214400
I0917 10:56:56.508476 26934 layer_factory.hpp:77] Creating layer conv4_1/1x1_increase/slice
I0917 10:56:56.508482 26934 net.cpp:86] Creating Layer conv4_1/1x1_increase/slice
I0917 10:56:56.508486 26934 net.cpp:408] conv4_1/1x1_increase/slice <- conv4_1/1x1_increase/bn
I0917 10:56:56.508489 26934 net.cpp:382] conv4_1/1x1_increase/slice -> conv4_1/1x1_increase/split1
I0917 10:56:56.508496 26934 net.cpp:382] conv4_1/1x1_increase/slice -> conv4_1/1x1_increase/split2
I0917 10:56:56.508533 26934 net.cpp:124] Setting up conv4_1/1x1_increase/slice
I0917 10:56:56.508538 26934 net.cpp:131] Top shape: 25 60 28 28 (1176000)
I0917 10:56:56.508541 26934 net.cpp:131] Top shape: 25 60 28 28 (1176000)
I0917 10:56:56.508544 26934 net.cpp:139] Memory required for data: 1018622400
I0917 10:56:56.508546 26934 layer_factory.hpp:77] Creating layer conv4_1/3x3_dwconv/slice_0
I0917 10:56:56.508558 26934 net.cpp:86] Creating Layer conv4_1/3x3_dwconv/slice_0
I0917 10:56:56.508561 26934 net.cpp:408] conv4_1/3x3_dwconv/slice_0 <- conv4_1/1x1_increase/split1
I0917 10:56:56.508567 26934 net.cpp:382] conv4_1/3x3_dwconv/slice_0 -> conv4_1/3x3_dwconv/slice_0/bn
I0917 10:56:56.509088 26934 net.cpp:124] Setting up conv4_1/3x3_dwconv/slice_0
I0917 10:56:56.509097 26934 net.cpp:131] Top shape: 25 60 28 28 (1176000)
I0917 10:56:56.509116 26934 net.cpp:139] Memory required for data: 1023326400
I0917 10:56:56.509122 26934 layer_factory.hpp:77] Creating layer conv4_1/3x3_dwconv/slice_0/hardswish
I0917 10:56:56.509137 26934 net.cpp:86] Creating Layer conv4_1/3x3_dwconv/slice_0/hardswish
I0917 10:56:56.509141 26934 net.cpp:408] conv4_1/3x3_dwconv/slice_0/hardswish <- conv4_1/3x3_dwconv/slice_0/bn
I0917 10:56:56.509146 26934 net.cpp:369] conv4_1/3x3_dwconv/slice_0/hardswish -> conv4_1/3x3_dwconv/slice_0/bn (in-place)
I0917 10:56:56.509173 26934 net.cpp:124] Setting up conv4_1/3x3_dwconv/slice_0/hardswish
I0917 10:56:56.509178 26934 net.cpp:131] Top shape: 25 60 28 28 (1176000)
I0917 10:56:56.509181 26934 net.cpp:139] Memory required for data: 1028030400
I0917 10:56:56.509184 26934 layer_factory.hpp:77] Creating layer conv4_1/3x3_dwconv/slice_1
I0917 10:56:56.509194 26934 net.cpp:86] Creating Layer conv4_1/3x3_dwconv/slice_1
I0917 10:56:56.509198 26934 net.cpp:408] conv4_1/3x3_dwconv/slice_1 <- conv4_1/1x1_increase/split2
I0917 10:56:56.509214 26934 net.cpp:382] conv4_1/3x3_dwconv/slice_1 -> conv4_1/3x3_dwconv/slice_1/bn
I0917 10:56:56.509956 26934 net.cpp:124] Setting up conv4_1/3x3_dwconv/slice_1
I0917 10:56:56.509968 26934 net.cpp:131] Top shape: 25 60 28 28 (1176000)
I0917 10:56:56.509987 26934 net.cpp:139] Memory required for data: 1032734400
I0917 10:56:56.509994 26934 layer_factory.hpp:77] Creating layer conv4_1/3x3_dwconv/slice_1/hardswish
I0917 10:56:56.510001 26934 net.cpp:86] Creating Layer conv4_1/3x3_dwconv/slice_1/hardswish
I0917 10:56:56.510005 26934 net.cpp:408] conv4_1/3x3_dwconv/slice_1/hardswish <- conv4_1/3x3_dwconv/slice_1/bn
I0917 10:56:56.510010 26934 net.cpp:369] conv4_1/3x3_dwconv/slice_1/hardswish -> conv4_1/3x3_dwconv/slice_1/bn (in-place)
I0917 10:56:56.510040 26934 net.cpp:124] Setting up conv4_1/3x3_dwconv/slice_1/hardswish
I0917 10:56:56.510046 26934 net.cpp:131] Top shape: 25 60 28 28 (1176000)
I0917 10:56:56.510048 26934 net.cpp:139] Memory required for data: 1037438400
I0917 10:56:56.510051 26934 layer_factory.hpp:77] Creating layer conv4_1/3x3_dwconv/concat
I0917 10:56:56.510057 26934 net.cpp:86] Creating Layer conv4_1/3x3_dwconv/concat
I0917 10:56:56.510061 26934 net.cpp:408] conv4_1/3x3_dwconv/concat <- conv4_1/3x3_dwconv/slice_0/bn
I0917 10:56:56.510064 26934 net.cpp:408] conv4_1/3x3_dwconv/concat <- conv4_1/3x3_dwconv/slice_1/bn
I0917 10:56:56.510069 26934 net.cpp:382] conv4_1/3x3_dwconv/concat -> conv4_1/3x3_dwconv/concat
I0917 10:56:56.510094 26934 net.cpp:124] Setting up conv4_1/3x3_dwconv/concat
I0917 10:56:56.510099 26934 net.cpp:131] Top shape: 25 120 28 28 (2352000)
I0917 10:56:56.510102 26934 net.cpp:139] Memory required for data: 1046846400
I0917 10:56:56.510104 26934 layer_factory.hpp:77] Creating layer conv4_1/3x3_dwconv/concat_fixed_point
I0917 10:56:56.510113 26934 net.cpp:86] Creating Layer conv4_1/3x3_dwconv/concat_fixed_point
I0917 10:56:56.510115 26934 net.cpp:408] conv4_1/3x3_dwconv/concat_fixed_point <- conv4_1/3x3_dwconv/concat
I0917 10:56:56.510120 26934 net.cpp:369] conv4_1/3x3_dwconv/concat_fixed_point -> conv4_1/3x3_dwconv/concat (in-place)
I0917 10:56:56.510143 26934 net.cpp:124] Setting up conv4_1/3x3_dwconv/concat_fixed_point
I0917 10:56:56.510149 26934 net.cpp:131] Top shape: 25 120 28 28 (2352000)
I0917 10:56:56.510150 26934 net.cpp:139] Memory required for data: 1056254400
I0917 10:56:56.510154 26934 layer_factory.hpp:77] Creating layer conv4_1/3x3_dwconv/concat_conv4_1/3x3_dwconv/concat_fixed_point_0_split
I0917 10:56:56.510164 26934 net.cpp:86] Creating Layer conv4_1/3x3_dwconv/concat_conv4_1/3x3_dwconv/concat_fixed_point_0_split
I0917 10:56:56.510166 26934 net.cpp:408] conv4_1/3x3_dwconv/concat_conv4_1/3x3_dwconv/concat_fixed_point_0_split <- conv4_1/3x3_dwconv/concat
I0917 10:56:56.510172 26934 net.cpp:382] conv4_1/3x3_dwconv/concat_conv4_1/3x3_dwconv/concat_fixed_point_0_split -> conv4_1/3x3_dwconv/concat_conv4_1/3x3_dwconv/concat_fixed_point_0_split_0
I0917 10:56:56.510179 26934 net.cpp:382] conv4_1/3x3_dwconv/concat_conv4_1/3x3_dwconv/concat_fixed_point_0_split -> conv4_1/3x3_dwconv/concat_conv4_1/3x3_dwconv/concat_fixed_point_0_split_1
I0917 10:56:56.510213 26934 net.cpp:124] Setting up conv4_1/3x3_dwconv/concat_conv4_1/3x3_dwconv/concat_fixed_point_0_split
I0917 10:56:56.510226 26934 net.cpp:131] Top shape: 25 120 28 28 (2352000)
I0917 10:56:56.510244 26934 net.cpp:131] Top shape: 25 120 28 28 (2352000)
I0917 10:56:56.510246 26934 net.cpp:139] Memory required for data: 1075070400
I0917 10:56:56.510249 26934 layer_factory.hpp:77] Creating layer conv4_1/3x3_dwconv/SE_global_pool
I0917 10:56:56.510257 26934 net.cpp:86] Creating Layer conv4_1/3x3_dwconv/SE_global_pool
I0917 10:56:56.510259 26934 net.cpp:408] conv4_1/3x3_dwconv/SE_global_pool <- conv4_1/3x3_dwconv/concat_conv4_1/3x3_dwconv/concat_fixed_point_0_split_0
I0917 10:56:56.510264 26934 net.cpp:382] conv4_1/3x3_dwconv/SE_global_pool -> conv4_1/3x3_dwconv/SE_global_pool
I0917 10:56:56.510288 26934 net.cpp:124] Setting up conv4_1/3x3_dwconv/SE_global_pool
I0917 10:56:56.510293 26934 net.cpp:131] Top shape: 25 120 1 1 (3000)
I0917 10:56:56.510305 26934 net.cpp:139] Memory required for data: 1075082400
I0917 10:56:56.510309 26934 layer_factory.hpp:77] Creating layer conv4_1/3x3_dwconv/SE_bn
I0917 10:56:56.510316 26934 net.cpp:86] Creating Layer conv4_1/3x3_dwconv/SE_bn
I0917 10:56:56.510319 26934 net.cpp:408] conv4_1/3x3_dwconv/SE_bn <- conv4_1/3x3_dwconv/SE_global_pool
I0917 10:56:56.510325 26934 net.cpp:382] conv4_1/3x3_dwconv/SE_bn -> conv4_1/3x3_dwconv/SE_bn
I0917 10:56:56.510370 26934 layer_factory.hpp:77] Creating layer conv4_1/3x3_dwconv/SE_bn
I0917 10:56:56.510478 26934 net.cpp:124] Setting up conv4_1/3x3_dwconv/SE_bn
I0917 10:56:56.510485 26934 net.cpp:131] Top shape: 25 120 1 1 (3000)
I0917 10:56:56.510488 26934 net.cpp:139] Memory required for data: 1075094400
I0917 10:56:56.510493 26934 layer_factory.hpp:77] Creating layer conv4_1/3x3_dwconv/SE_fc1
I0917 10:56:56.510501 26934 net.cpp:86] Creating Layer conv4_1/3x3_dwconv/SE_fc1
I0917 10:56:56.510505 26934 net.cpp:408] conv4_1/3x3_dwconv/SE_fc1 <- conv4_1/3x3_dwconv/SE_bn
I0917 10:56:56.510512 26934 net.cpp:382] conv4_1/3x3_dwconv/SE_fc1 -> conv4_1/3x3_dwconv/SE_fc1
I0917 10:56:56.510879 26934 net.cpp:124] Setting up conv4_1/3x3_dwconv/SE_fc1
I0917 10:56:56.510890 26934 net.cpp:131] Top shape: 25 7 1 1 (175)
I0917 10:56:56.510908 26934 net.cpp:139] Memory required for data: 1075095100
I0917 10:56:56.510913 26934 layer_factory.hpp:77] Creating layer conv4_1/3x3_dwconv/SE_fc1/relu
I0917 10:56:56.510921 26934 net.cpp:86] Creating Layer conv4_1/3x3_dwconv/SE_fc1/relu
I0917 10:56:56.510924 26934 net.cpp:408] conv4_1/3x3_dwconv/SE_fc1/relu <- conv4_1/3x3_dwconv/SE_fc1
I0917 10:56:56.510931 26934 net.cpp:369] conv4_1/3x3_dwconv/SE_fc1/relu -> conv4_1/3x3_dwconv/SE_fc1 (in-place)
I0917 10:56:56.511467 26934 net.cpp:124] Setting up conv4_1/3x3_dwconv/SE_fc1/relu
I0917 10:56:56.511477 26934 net.cpp:131] Top shape: 25 7 1 1 (175)
I0917 10:56:56.511497 26934 net.cpp:139] Memory required for data: 1075095800
I0917 10:56:56.511499 26934 layer_factory.hpp:77] Creating layer conv4_1/3x3_dwconv/SE_fc2
I0917 10:56:56.511517 26934 net.cpp:86] Creating Layer conv4_1/3x3_dwconv/SE_fc2
I0917 10:56:56.511520 26934 net.cpp:408] conv4_1/3x3_dwconv/SE_fc2 <- conv4_1/3x3_dwconv/SE_fc1
I0917 10:56:56.511528 26934 net.cpp:382] conv4_1/3x3_dwconv/SE_fc2 -> conv4_1/3x3_dwconv/SE_fc2
I0917 10:56:56.511898 26934 net.cpp:124] Setting up conv4_1/3x3_dwconv/SE_fc2
I0917 10:56:56.511909 26934 net.cpp:131] Top shape: 25 120 1 1 (3000)
I0917 10:56:56.511912 26934 net.cpp:139] Memory required for data: 1075107800
I0917 10:56:56.511932 26934 layer_factory.hpp:77] Creating layer conv4_1/3x3_dwconv/SE_weights
I0917 10:56:56.511937 26934 net.cpp:86] Creating Layer conv4_1/3x3_dwconv/SE_weights
I0917 10:56:56.511941 26934 net.cpp:408] conv4_1/3x3_dwconv/SE_weights <- conv4_1/3x3_dwconv/SE_fc2
I0917 10:56:56.511948 26934 net.cpp:369] conv4_1/3x3_dwconv/SE_weights -> conv4_1/3x3_dwconv/SE_fc2 (in-place)
I0917 10:56:56.512606 26934 net.cpp:124] Setting up conv4_1/3x3_dwconv/SE_weights
I0917 10:56:56.512619 26934 net.cpp:131] Top shape: 25 120 1 1 (3000)
I0917 10:56:56.512639 26934 net.cpp:139] Memory required for data: 1075119800
I0917 10:56:56.512642 26934 layer_factory.hpp:77] Creating layer conv4_1/3x3_dwconv/SE_weights/reshape
I0917 10:56:56.512651 26934 net.cpp:86] Creating Layer conv4_1/3x3_dwconv/SE_weights/reshape
I0917 10:56:56.512655 26934 net.cpp:408] conv4_1/3x3_dwconv/SE_weights/reshape <- conv4_1/3x3_dwconv/SE_fc2
I0917 10:56:56.512662 26934 net.cpp:382] conv4_1/3x3_dwconv/SE_weights/reshape -> conv4_1/3x3_dwconv/SE_weights/reshape
I0917 10:56:56.512694 26934 net.cpp:124] Setting up conv4_1/3x3_dwconv/SE_weights/reshape
I0917 10:56:56.512701 26934 net.cpp:131] Top shape: 25 120 (3000)
I0917 10:56:56.512703 26934 net.cpp:139] Memory required for data: 1075131800
I0917 10:56:56.512706 26934 layer_factory.hpp:77] Creating layer conv4_1/3x3_dwconv/scale
I0917 10:56:56.512713 26934 net.cpp:86] Creating Layer conv4_1/3x3_dwconv/scale
I0917 10:56:56.512717 26934 net.cpp:408] conv4_1/3x3_dwconv/scale <- conv4_1/3x3_dwconv/concat_conv4_1/3x3_dwconv/concat_fixed_point_0_split_1
I0917 10:56:56.512732 26934 net.cpp:408] conv4_1/3x3_dwconv/scale <- conv4_1/3x3_dwconv/SE_weights/reshape
I0917 10:56:56.512738 26934 net.cpp:382] conv4_1/3x3_dwconv/scale -> conv4_1/3x3_dwconv/scale
I0917 10:56:56.512816 26934 net.cpp:124] Setting up conv4_1/3x3_dwconv/scale
I0917 10:56:56.512825 26934 net.cpp:131] Top shape: 25 120 28 28 (2352000)
I0917 10:56:56.512827 26934 net.cpp:139] Memory required for data: 1084539800
I0917 10:56:56.512831 26934 layer_factory.hpp:77] Creating layer conv4_1/3x3_dwconv/scale_fixed_point
I0917 10:56:56.512840 26934 net.cpp:86] Creating Layer conv4_1/3x3_dwconv/scale_fixed_point
I0917 10:56:56.512845 26934 net.cpp:408] conv4_1/3x3_dwconv/scale_fixed_point <- conv4_1/3x3_dwconv/scale
I0917 10:56:56.512850 26934 net.cpp:369] conv4_1/3x3_dwconv/scale_fixed_point -> conv4_1/3x3_dwconv/scale (in-place)
I0917 10:56:56.512877 26934 net.cpp:124] Setting up conv4_1/3x3_dwconv/scale_fixed_point
I0917 10:56:56.512882 26934 net.cpp:131] Top shape: 25 120 28 28 (2352000)
I0917 10:56:56.512884 26934 net.cpp:139] Memory required for data: 1093947800
I0917 10:56:56.512904 26934 layer_factory.hpp:77] Creating layer conv4_1/1x1_decrease
I0917 10:56:56.512914 26934 net.cpp:86] Creating Layer conv4_1/1x1_decrease
I0917 10:56:56.512918 26934 net.cpp:408] conv4_1/1x1_decrease <- conv4_1/3x3_dwconv/scale
I0917 10:56:56.512924 26934 net.cpp:382] conv4_1/1x1_decrease -> conv4_1/1x1_decrease/bn
I0917 10:56:56.513523 26934 net.cpp:124] Setting up conv4_1/1x1_decrease
I0917 10:56:56.513535 26934 net.cpp:131] Top shape: 25 40 28 28 (784000)
I0917 10:56:56.513553 26934 net.cpp:139] Memory required for data: 1097083800
I0917 10:56:56.513558 26934 layer_factory.hpp:77] Creating layer conv4_1/elt_sum
I0917 10:56:56.513566 26934 net.cpp:86] Creating Layer conv4_1/elt_sum
I0917 10:56:56.513571 26934 net.cpp:408] conv4_1/elt_sum <- conv4_0/1x1_decrease/bn_conv4_0/1x1_decrease/bn_fixed_point_0_split_1
I0917 10:56:56.513576 26934 net.cpp:408] conv4_1/elt_sum <- conv4_1/1x1_decrease/bn
I0917 10:56:56.513581 26934 net.cpp:382] conv4_1/elt_sum -> conv4_1/elt_sum
I0917 10:56:56.513610 26934 net.cpp:124] Setting up conv4_1/elt_sum
I0917 10:56:56.513615 26934 net.cpp:131] Top shape: 25 40 28 28 (784000)
I0917 10:56:56.513618 26934 net.cpp:139] Memory required for data: 1100219800
I0917 10:56:56.513620 26934 layer_factory.hpp:77] Creating layer conv4_1/elt_sum_fixed_point
I0917 10:56:56.513628 26934 net.cpp:86] Creating Layer conv4_1/elt_sum_fixed_point
I0917 10:56:56.513630 26934 net.cpp:408] conv4_1/elt_sum_fixed_point <- conv4_1/elt_sum
I0917 10:56:56.513638 26934 net.cpp:369] conv4_1/elt_sum_fixed_point -> conv4_1/elt_sum (in-place)
I0917 10:56:56.513662 26934 net.cpp:124] Setting up conv4_1/elt_sum_fixed_point
I0917 10:56:56.513667 26934 net.cpp:131] Top shape: 25 40 28 28 (784000)
I0917 10:56:56.513669 26934 net.cpp:139] Memory required for data: 1103355800
I0917 10:56:56.513674 26934 layer_factory.hpp:77] Creating layer conv4_1/elt_sum_conv4_1/elt_sum_fixed_point_0_split
I0917 10:56:56.513679 26934 net.cpp:86] Creating Layer conv4_1/elt_sum_conv4_1/elt_sum_fixed_point_0_split
I0917 10:56:56.513684 26934 net.cpp:408] conv4_1/elt_sum_conv4_1/elt_sum_fixed_point_0_split <- conv4_1/elt_sum
I0917 10:56:56.513689 26934 net.cpp:382] conv4_1/elt_sum_conv4_1/elt_sum_fixed_point_0_split -> conv4_1/elt_sum_conv4_1/elt_sum_fixed_point_0_split_0
I0917 10:56:56.513695 26934 net.cpp:382] conv4_1/elt_sum_conv4_1/elt_sum_fixed_point_0_split -> conv4_1/elt_sum_conv4_1/elt_sum_fixed_point_0_split_1
I0917 10:56:56.513733 26934 net.cpp:124] Setting up conv4_1/elt_sum_conv4_1/elt_sum_fixed_point_0_split
I0917 10:56:56.513738 26934 net.cpp:131] Top shape: 25 40 28 28 (784000)
I0917 10:56:56.513742 26934 net.cpp:131] Top shape: 25 40 28 28 (784000)
I0917 10:56:56.513744 26934 net.cpp:139] Memory required for data: 1109627800
I0917 10:56:56.513747 26934 layer_factory.hpp:77] Creating layer conv4_2/1x1_increase
I0917 10:56:56.513757 26934 net.cpp:86] Creating Layer conv4_2/1x1_increase
I0917 10:56:56.513770 26934 net.cpp:408] conv4_2/1x1_increase <- conv4_1/elt_sum_conv4_1/elt_sum_fixed_point_0_split_0
I0917 10:56:56.513778 26934 net.cpp:382] conv4_2/1x1_increase -> conv4_2/1x1_increase/bn
I0917 10:56:56.514437 26934 net.cpp:124] Setting up conv4_2/1x1_increase
I0917 10:56:56.514448 26934 net.cpp:131] Top shape: 25 120 28 28 (2352000)
I0917 10:56:56.514463 26934 net.cpp:139] Memory required for data: 1119035800
I0917 10:56:56.514469 26934 layer_factory.hpp:77] Creating layer conv4_2/1x1_increase/hardswish
I0917 10:56:56.514477 26934 net.cpp:86] Creating Layer conv4_2/1x1_increase/hardswish
I0917 10:56:56.514480 26934 net.cpp:408] conv4_2/1x1_increase/hardswish <- conv4_2/1x1_increase/bn
I0917 10:56:56.514487 26934 net.cpp:369] conv4_2/1x1_increase/hardswish -> conv4_2/1x1_increase/bn (in-place)
I0917 10:56:56.514515 26934 net.cpp:124] Setting up conv4_2/1x1_increase/hardswish
I0917 10:56:56.514523 26934 net.cpp:131] Top shape: 25 120 28 28 (2352000)
I0917 10:56:56.514525 26934 net.cpp:139] Memory required for data: 1128443800
I0917 10:56:56.514528 26934 layer_factory.hpp:77] Creating layer conv4_2/1x1_increase/bn_fixed_point
I0917 10:56:56.514537 26934 net.cpp:86] Creating Layer conv4_2/1x1_increase/bn_fixed_point
I0917 10:56:56.514541 26934 net.cpp:408] conv4_2/1x1_increase/bn_fixed_point <- conv4_2/1x1_increase/bn
I0917 10:56:56.514547 26934 net.cpp:369] conv4_2/1x1_increase/bn_fixed_point -> conv4_2/1x1_increase/bn (in-place)
I0917 10:56:56.514572 26934 net.cpp:124] Setting up conv4_2/1x1_increase/bn_fixed_point
I0917 10:56:56.514580 26934 net.cpp:131] Top shape: 25 120 28 28 (2352000)
I0917 10:56:56.514582 26934 net.cpp:139] Memory required for data: 1137851800
I0917 10:56:56.514592 26934 layer_factory.hpp:77] Creating layer conv4_2/1x1_increase/slice
I0917 10:56:56.514600 26934 net.cpp:86] Creating Layer conv4_2/1x1_increase/slice
I0917 10:56:56.514603 26934 net.cpp:408] conv4_2/1x1_increase/slice <- conv4_2/1x1_increase/bn
I0917 10:56:56.514609 26934 net.cpp:382] conv4_2/1x1_increase/slice -> conv4_2/1x1_increase/split1
I0917 10:56:56.514616 26934 net.cpp:382] conv4_2/1x1_increase/slice -> conv4_2/1x1_increase/split2
I0917 10:56:56.514655 26934 net.cpp:124] Setting up conv4_2/1x1_increase/slice
I0917 10:56:56.514662 26934 net.cpp:131] Top shape: 25 60 28 28 (1176000)
I0917 10:56:56.514679 26934 net.cpp:131] Top shape: 25 60 28 28 (1176000)
I0917 10:56:56.514683 26934 net.cpp:139] Memory required for data: 1147259800
I0917 10:56:56.514685 26934 layer_factory.hpp:77] Creating layer conv4_2/3x3_dwconv/slice_0
I0917 10:56:56.514695 26934 net.cpp:86] Creating Layer conv4_2/3x3_dwconv/slice_0
I0917 10:56:56.514714 26934 net.cpp:408] conv4_2/3x3_dwconv/slice_0 <- conv4_2/1x1_increase/split1
I0917 10:56:56.514721 26934 net.cpp:382] conv4_2/3x3_dwconv/slice_0 -> conv4_2/3x3_dwconv/slice_0/bn
I0917 10:56:56.515233 26934 net.cpp:124] Setting up conv4_2/3x3_dwconv/slice_0
I0917 10:56:56.515244 26934 net.cpp:131] Top shape: 25 60 28 28 (1176000)
I0917 10:56:56.515247 26934 net.cpp:139] Memory required for data: 1151963800
I0917 10:56:56.515254 26934 layer_factory.hpp:77] Creating layer conv4_2/3x3_dwconv/slice_0/hardswish
I0917 10:56:56.515260 26934 net.cpp:86] Creating Layer conv4_2/3x3_dwconv/slice_0/hardswish
I0917 10:56:56.515264 26934 net.cpp:408] conv4_2/3x3_dwconv/slice_0/hardswish <- conv4_2/3x3_dwconv/slice_0/bn
I0917 10:56:56.515269 26934 net.cpp:369] conv4_2/3x3_dwconv/slice_0/hardswish -> conv4_2/3x3_dwconv/slice_0/bn (in-place)
I0917 10:56:56.515298 26934 net.cpp:124] Setting up conv4_2/3x3_dwconv/slice_0/hardswish
I0917 10:56:56.515305 26934 net.cpp:131] Top shape: 25 60 28 28 (1176000)
I0917 10:56:56.515307 26934 net.cpp:139] Memory required for data: 1156667800
I0917 10:56:56.515311 26934 layer_factory.hpp:77] Creating layer conv4_2/3x3_dwconv/slice_1
I0917 10:56:56.515321 26934 net.cpp:86] Creating Layer conv4_2/3x3_dwconv/slice_1
I0917 10:56:56.515326 26934 net.cpp:408] conv4_2/3x3_dwconv/slice_1 <- conv4_2/1x1_increase/split2
I0917 10:56:56.515333 26934 net.cpp:382] conv4_2/3x3_dwconv/slice_1 -> conv4_2/3x3_dwconv/slice_1/bn
I0917 10:56:56.516058 26934 net.cpp:124] Setting up conv4_2/3x3_dwconv/slice_1
I0917 10:56:56.516069 26934 net.cpp:131] Top shape: 25 60 28 28 (1176000)
I0917 10:56:56.516084 26934 net.cpp:139] Memory required for data: 1161371800
I0917 10:56:56.516090 26934 layer_factory.hpp:77] Creating layer conv4_2/3x3_dwconv/slice_1/hardswish
I0917 10:56:56.516099 26934 net.cpp:86] Creating Layer conv4_2/3x3_dwconv/slice_1/hardswish
I0917 10:56:56.516103 26934 net.cpp:408] conv4_2/3x3_dwconv/slice_1/hardswish <- conv4_2/3x3_dwconv/slice_1/bn
I0917 10:56:56.516108 26934 net.cpp:369] conv4_2/3x3_dwconv/slice_1/hardswish -> conv4_2/3x3_dwconv/slice_1/bn (in-place)
I0917 10:56:56.516136 26934 net.cpp:124] Setting up conv4_2/3x3_dwconv/slice_1/hardswish
I0917 10:56:56.516160 26934 net.cpp:131] Top shape: 25 60 28 28 (1176000)
I0917 10:56:56.516163 26934 net.cpp:139] Memory required for data: 1166075800
I0917 10:56:56.516166 26934 layer_factory.hpp:77] Creating layer conv4_2/3x3_dwconv/concat
I0917 10:56:56.516171 26934 net.cpp:86] Creating Layer conv4_2/3x3_dwconv/concat
I0917 10:56:56.516175 26934 net.cpp:408] conv4_2/3x3_dwconv/concat <- conv4_2/3x3_dwconv/slice_0/bn
I0917 10:56:56.516180 26934 net.cpp:408] conv4_2/3x3_dwconv/concat <- conv4_2/3x3_dwconv/slice_1/bn
I0917 10:56:56.516185 26934 net.cpp:382] conv4_2/3x3_dwconv/concat -> conv4_2/3x3_dwconv/concat
I0917 10:56:56.516211 26934 net.cpp:124] Setting up conv4_2/3x3_dwconv/concat
I0917 10:56:56.516217 26934 net.cpp:131] Top shape: 25 120 28 28 (2352000)
I0917 10:56:56.516221 26934 net.cpp:139] Memory required for data: 1175483800
I0917 10:56:56.516222 26934 layer_factory.hpp:77] Creating layer conv4_2/3x3_dwconv/concat_fixed_point
I0917 10:56:56.516229 26934 net.cpp:86] Creating Layer conv4_2/3x3_dwconv/concat_fixed_point
I0917 10:56:56.516233 26934 net.cpp:408] conv4_2/3x3_dwconv/concat_fixed_point <- conv4_2/3x3_dwconv/concat
I0917 10:56:56.516239 26934 net.cpp:369] conv4_2/3x3_dwconv/concat_fixed_point -> conv4_2/3x3_dwconv/concat (in-place)
I0917 10:56:56.516263 26934 net.cpp:124] Setting up conv4_2/3x3_dwconv/concat_fixed_point
I0917 10:56:56.516273 26934 net.cpp:131] Top shape: 25 120 28 28 (2352000)
I0917 10:56:56.516275 26934 net.cpp:139] Memory required for data: 1184891800
I0917 10:56:56.516280 26934 layer_factory.hpp:77] Creating layer conv4_2/3x3_dwconv/concat_conv4_2/3x3_dwconv/concat_fixed_point_0_split
I0917 10:56:56.516286 26934 net.cpp:86] Creating Layer conv4_2/3x3_dwconv/concat_conv4_2/3x3_dwconv/concat_fixed_point_0_split
I0917 10:56:56.516289 26934 net.cpp:408] conv4_2/3x3_dwconv/concat_conv4_2/3x3_dwconv/concat_fixed_point_0_split <- conv4_2/3x3_dwconv/concat
I0917 10:56:56.516295 26934 net.cpp:382] conv4_2/3x3_dwconv/concat_conv4_2/3x3_dwconv/concat_fixed_point_0_split -> conv4_2/3x3_dwconv/concat_conv4_2/3x3_dwconv/concat_fixed_point_0_split_0
I0917 10:56:56.516301 26934 net.cpp:382] conv4_2/3x3_dwconv/concat_conv4_2/3x3_dwconv/concat_fixed_point_0_split -> conv4_2/3x3_dwconv/concat_conv4_2/3x3_dwconv/concat_fixed_point_0_split_1
I0917 10:56:56.516352 26934 net.cpp:124] Setting up conv4_2/3x3_dwconv/concat_conv4_2/3x3_dwconv/concat_fixed_point_0_split
I0917 10:56:56.516360 26934 net.cpp:131] Top shape: 25 120 28 28 (2352000)
I0917 10:56:56.516363 26934 net.cpp:131] Top shape: 25 120 28 28 (2352000)
I0917 10:56:56.516366 26934 net.cpp:139] Memory required for data: 1203707800
I0917 10:56:56.516368 26934 layer_factory.hpp:77] Creating layer conv4_2/3x3_dwconv/SE_global_pool
I0917 10:56:56.516376 26934 net.cpp:86] Creating Layer conv4_2/3x3_dwconv/SE_global_pool
I0917 10:56:56.516378 26934 net.cpp:408] conv4_2/3x3_dwconv/SE_global_pool <- conv4_2/3x3_dwconv/concat_conv4_2/3x3_dwconv/concat_fixed_point_0_split_0
I0917 10:56:56.516383 26934 net.cpp:382] conv4_2/3x3_dwconv/SE_global_pool -> conv4_2/3x3_dwconv/SE_global_pool
I0917 10:56:56.516407 26934 net.cpp:124] Setting up conv4_2/3x3_dwconv/SE_global_pool
I0917 10:56:56.516413 26934 net.cpp:131] Top shape: 25 120 1 1 (3000)
I0917 10:56:56.516427 26934 net.cpp:139] Memory required for data: 1203719800
I0917 10:56:56.516429 26934 layer_factory.hpp:77] Creating layer conv4_2/3x3_dwconv/SE_bn
I0917 10:56:56.516435 26934 net.cpp:86] Creating Layer conv4_2/3x3_dwconv/SE_bn
I0917 10:56:56.516453 26934 net.cpp:408] conv4_2/3x3_dwconv/SE_bn <- conv4_2/3x3_dwconv/SE_global_pool
I0917 10:56:56.516460 26934 net.cpp:382] conv4_2/3x3_dwconv/SE_bn -> conv4_2/3x3_dwconv/SE_bn
I0917 10:56:56.516505 26934 layer_factory.hpp:77] Creating layer conv4_2/3x3_dwconv/SE_bn
I0917 10:56:56.516618 26934 net.cpp:124] Setting up conv4_2/3x3_dwconv/SE_bn
I0917 10:56:56.516625 26934 net.cpp:131] Top shape: 25 120 1 1 (3000)
I0917 10:56:56.516628 26934 net.cpp:139] Memory required for data: 1203731800
I0917 10:56:56.516633 26934 layer_factory.hpp:77] Creating layer conv4_2/3x3_dwconv/SE_fc1
I0917 10:56:56.516644 26934 net.cpp:86] Creating Layer conv4_2/3x3_dwconv/SE_fc1
I0917 10:56:56.516647 26934 net.cpp:408] conv4_2/3x3_dwconv/SE_fc1 <- conv4_2/3x3_dwconv/SE_bn
I0917 10:56:56.516654 26934 net.cpp:382] conv4_2/3x3_dwconv/SE_fc1 -> conv4_2/3x3_dwconv/SE_fc1
I0917 10:56:56.517006 26934 net.cpp:124] Setting up conv4_2/3x3_dwconv/SE_fc1
I0917 10:56:56.517016 26934 net.cpp:131] Top shape: 25 7 1 1 (175)
I0917 10:56:56.517030 26934 net.cpp:139] Memory required for data: 1203732500
I0917 10:56:56.517035 26934 layer_factory.hpp:77] Creating layer conv4_2/3x3_dwconv/SE_fc1/relu
I0917 10:56:56.517042 26934 net.cpp:86] Creating Layer conv4_2/3x3_dwconv/SE_fc1/relu
I0917 10:56:56.517046 26934 net.cpp:408] conv4_2/3x3_dwconv/SE_fc1/relu <- conv4_2/3x3_dwconv/SE_fc1
I0917 10:56:56.517051 26934 net.cpp:369] conv4_2/3x3_dwconv/SE_fc1/relu -> conv4_2/3x3_dwconv/SE_fc1 (in-place)
I0917 10:56:56.517515 26934 net.cpp:124] Setting up conv4_2/3x3_dwconv/SE_fc1/relu
I0917 10:56:56.517524 26934 net.cpp:131] Top shape: 25 7 1 1 (175)
I0917 10:56:56.517539 26934 net.cpp:139] Memory required for data: 1203733200
I0917 10:56:56.517541 26934 layer_factory.hpp:77] Creating layer conv4_2/3x3_dwconv/SE_fc2
I0917 10:56:56.517551 26934 net.cpp:86] Creating Layer conv4_2/3x3_dwconv/SE_fc2
I0917 10:56:56.517554 26934 net.cpp:408] conv4_2/3x3_dwconv/SE_fc2 <- conv4_2/3x3_dwconv/SE_fc1
I0917 10:56:56.517562 26934 net.cpp:382] conv4_2/3x3_dwconv/SE_fc2 -> conv4_2/3x3_dwconv/SE_fc2
I0917 10:56:56.517931 26934 net.cpp:124] Setting up conv4_2/3x3_dwconv/SE_fc2
I0917 10:56:56.517942 26934 net.cpp:131] Top shape: 25 120 1 1 (3000)
I0917 10:56:56.517956 26934 net.cpp:139] Memory required for data: 1203745200
I0917 10:56:56.517961 26934 layer_factory.hpp:77] Creating layer conv4_2/3x3_dwconv/SE_weights
I0917 10:56:56.517967 26934 net.cpp:86] Creating Layer conv4_2/3x3_dwconv/SE_weights
I0917 10:56:56.517971 26934 net.cpp:408] conv4_2/3x3_dwconv/SE_weights <- conv4_2/3x3_dwconv/SE_fc2
I0917 10:56:56.517976 26934 net.cpp:369] conv4_2/3x3_dwconv/SE_weights -> conv4_2/3x3_dwconv/SE_fc2 (in-place)
I0917 10:56:56.518471 26934 net.cpp:124] Setting up conv4_2/3x3_dwconv/SE_weights
I0917 10:56:56.518479 26934 net.cpp:131] Top shape: 25 120 1 1 (3000)
I0917 10:56:56.518493 26934 net.cpp:139] Memory required for data: 1203757200
I0917 10:56:56.518498 26934 layer_factory.hpp:77] Creating layer conv4_2/3x3_dwconv/SE_weights/reshape
I0917 10:56:56.518505 26934 net.cpp:86] Creating Layer conv4_2/3x3_dwconv/SE_weights/reshape
I0917 10:56:56.518512 26934 net.cpp:408] conv4_2/3x3_dwconv/SE_weights/reshape <- conv4_2/3x3_dwconv/SE_fc2
I0917 10:56:56.518519 26934 net.cpp:382] conv4_2/3x3_dwconv/SE_weights/reshape -> conv4_2/3x3_dwconv/SE_weights/reshape
I0917 10:56:56.518549 26934 net.cpp:124] Setting up conv4_2/3x3_dwconv/SE_weights/reshape
I0917 10:56:56.518554 26934 net.cpp:131] Top shape: 25 120 (3000)
I0917 10:56:56.518558 26934 net.cpp:139] Memory required for data: 1203769200
I0917 10:56:56.518559 26934 layer_factory.hpp:77] Creating layer conv4_2/3x3_dwconv/scale
I0917 10:56:56.518566 26934 net.cpp:86] Creating Layer conv4_2/3x3_dwconv/scale
I0917 10:56:56.518569 26934 net.cpp:408] conv4_2/3x3_dwconv/scale <- conv4_2/3x3_dwconv/concat_conv4_2/3x3_dwconv/concat_fixed_point_0_split_1
I0917 10:56:56.518584 26934 net.cpp:408] conv4_2/3x3_dwconv/scale <- conv4_2/3x3_dwconv/SE_weights/reshape
I0917 10:56:56.518590 26934 net.cpp:382] conv4_2/3x3_dwconv/scale -> conv4_2/3x3_dwconv/scale
I0917 10:56:56.518661 26934 net.cpp:124] Setting up conv4_2/3x3_dwconv/scale
I0917 10:56:56.518668 26934 net.cpp:131] Top shape: 25 120 28 28 (2352000)
I0917 10:56:56.518671 26934 net.cpp:139] Memory required for data: 1213177200
I0917 10:56:56.518673 26934 layer_factory.hpp:77] Creating layer conv4_2/3x3_dwconv/scale_fixed_point
I0917 10:56:56.518680 26934 net.cpp:86] Creating Layer conv4_2/3x3_dwconv/scale_fixed_point
I0917 10:56:56.518683 26934 net.cpp:408] conv4_2/3x3_dwconv/scale_fixed_point <- conv4_2/3x3_dwconv/scale
I0917 10:56:56.518689 26934 net.cpp:369] conv4_2/3x3_dwconv/scale_fixed_point -> conv4_2/3x3_dwconv/scale (in-place)
I0917 10:56:56.518713 26934 net.cpp:124] Setting up conv4_2/3x3_dwconv/scale_fixed_point
I0917 10:56:56.518718 26934 net.cpp:131] Top shape: 25 120 28 28 (2352000)
I0917 10:56:56.518721 26934 net.cpp:139] Memory required for data: 1222585200
I0917 10:56:56.518725 26934 layer_factory.hpp:77] Creating layer conv4_2/1x1_decrease
I0917 10:56:56.518734 26934 net.cpp:86] Creating Layer conv4_2/1x1_decrease
I0917 10:56:56.518738 26934 net.cpp:408] conv4_2/1x1_decrease <- conv4_2/3x3_dwconv/scale
I0917 10:56:56.518745 26934 net.cpp:382] conv4_2/1x1_decrease -> conv4_2/1x1_decrease/bn
I0917 10:56:56.519362 26934 net.cpp:124] Setting up conv4_2/1x1_decrease
I0917 10:56:56.519373 26934 net.cpp:131] Top shape: 25 40 28 28 (784000)
I0917 10:56:56.519387 26934 net.cpp:139] Memory required for data: 1225721200
I0917 10:56:56.519395 26934 layer_factory.hpp:77] Creating layer conv4_2/elt_sum
I0917 10:56:56.519402 26934 net.cpp:86] Creating Layer conv4_2/elt_sum
I0917 10:56:56.519407 26934 net.cpp:408] conv4_2/elt_sum <- conv4_1/elt_sum_conv4_1/elt_sum_fixed_point_0_split_1
I0917 10:56:56.519410 26934 net.cpp:408] conv4_2/elt_sum <- conv4_2/1x1_decrease/bn
I0917 10:56:56.519417 26934 net.cpp:382] conv4_2/elt_sum -> conv4_2/elt_sum
I0917 10:56:56.519460 26934 net.cpp:124] Setting up conv4_2/elt_sum
I0917 10:56:56.519466 26934 net.cpp:131] Top shape: 25 40 28 28 (784000)
I0917 10:56:56.519469 26934 net.cpp:139] Memory required for data: 1228857200
I0917 10:56:56.519472 26934 layer_factory.hpp:77] Creating layer conv4_2/elt_sum_fixed_point
I0917 10:56:56.519480 26934 net.cpp:86] Creating Layer conv4_2/elt_sum_fixed_point
I0917 10:56:56.519484 26934 net.cpp:408] conv4_2/elt_sum_fixed_point <- conv4_2/elt_sum
I0917 10:56:56.519488 26934 net.cpp:369] conv4_2/elt_sum_fixed_point -> conv4_2/elt_sum (in-place)
I0917 10:56:56.519513 26934 net.cpp:124] Setting up conv4_2/elt_sum_fixed_point
I0917 10:56:56.519518 26934 net.cpp:131] Top shape: 25 40 28 28 (784000)
I0917 10:56:56.519521 26934 net.cpp:139] Memory required for data: 1231993200
I0917 10:56:56.519526 26934 layer_factory.hpp:77] Creating layer conv4_2/elt_sum_conv4_2/elt_sum_fixed_point_0_split
I0917 10:56:56.519531 26934 net.cpp:86] Creating Layer conv4_2/elt_sum_conv4_2/elt_sum_fixed_point_0_split
I0917 10:56:56.519534 26934 net.cpp:408] conv4_2/elt_sum_conv4_2/elt_sum_fixed_point_0_split <- conv4_2/elt_sum
I0917 10:56:56.519539 26934 net.cpp:382] conv4_2/elt_sum_conv4_2/elt_sum_fixed_point_0_split -> conv4_2/elt_sum_conv4_2/elt_sum_fixed_point_0_split_0
I0917 10:56:56.519546 26934 net.cpp:382] conv4_2/elt_sum_conv4_2/elt_sum_fixed_point_0_split -> conv4_2/elt_sum_conv4_2/elt_sum_fixed_point_0_split_1
I0917 10:56:56.519582 26934 net.cpp:124] Setting up conv4_2/elt_sum_conv4_2/elt_sum_fixed_point_0_split
I0917 10:56:56.519589 26934 net.cpp:131] Top shape: 25 40 28 28 (784000)
I0917 10:56:56.519593 26934 net.cpp:131] Top shape: 25 40 28 28 (784000)
I0917 10:56:56.519595 26934 net.cpp:139] Memory required for data: 1238265200
I0917 10:56:56.519598 26934 layer_factory.hpp:77] Creating layer conv4_3/1x1_increase
I0917 10:56:56.519609 26934 net.cpp:86] Creating Layer conv4_3/1x1_increase
I0917 10:56:56.519613 26934 net.cpp:408] conv4_3/1x1_increase <- conv4_2/elt_sum_conv4_2/elt_sum_fixed_point_0_split_0
I0917 10:56:56.519644 26934 net.cpp:382] conv4_3/1x1_increase -> conv4_3/1x1_increase/bn
I0917 10:56:56.520516 26934 net.cpp:124] Setting up conv4_3/1x1_increase
I0917 10:56:56.520529 26934 net.cpp:131] Top shape: 25 120 28 28 (2352000)
I0917 10:56:56.520543 26934 net.cpp:139] Memory required for data: 1247673200
I0917 10:56:56.520550 26934 layer_factory.hpp:77] Creating layer conv4_3/1x1_increase/hardswish
I0917 10:56:56.520556 26934 net.cpp:86] Creating Layer conv4_3/1x1_increase/hardswish
I0917 10:56:56.520560 26934 net.cpp:408] conv4_3/1x1_increase/hardswish <- conv4_3/1x1_increase/bn
I0917 10:56:56.520565 26934 net.cpp:369] conv4_3/1x1_increase/hardswish -> conv4_3/1x1_increase/bn (in-place)
I0917 10:56:56.520594 26934 net.cpp:124] Setting up conv4_3/1x1_increase/hardswish
I0917 10:56:56.520601 26934 net.cpp:131] Top shape: 25 120 28 28 (2352000)
I0917 10:56:56.520604 26934 net.cpp:139] Memory required for data: 1257081200
I0917 10:56:56.520607 26934 layer_factory.hpp:77] Creating layer conv4_3/1x1_increase/bn_fixed_point
I0917 10:56:56.520615 26934 net.cpp:86] Creating Layer conv4_3/1x1_increase/bn_fixed_point
I0917 10:56:56.520618 26934 net.cpp:408] conv4_3/1x1_increase/bn_fixed_point <- conv4_3/1x1_increase/bn
I0917 10:56:56.520623 26934 net.cpp:369] conv4_3/1x1_increase/bn_fixed_point -> conv4_3/1x1_increase/bn (in-place)
I0917 10:56:56.520649 26934 net.cpp:124] Setting up conv4_3/1x1_increase/bn_fixed_point
I0917 10:56:56.520655 26934 net.cpp:131] Top shape: 25 120 28 28 (2352000)
I0917 10:56:56.520658 26934 net.cpp:139] Memory required for data: 1266489200
I0917 10:56:56.520663 26934 layer_factory.hpp:77] Creating layer conv4_3/1x1_increase/slice
I0917 10:56:56.520668 26934 net.cpp:86] Creating Layer conv4_3/1x1_increase/slice
I0917 10:56:56.520671 26934 net.cpp:408] conv4_3/1x1_increase/slice <- conv4_3/1x1_increase/bn
I0917 10:56:56.520678 26934 net.cpp:382] conv4_3/1x1_increase/slice -> conv4_3/1x1_increase/split1
I0917 10:56:56.520682 26934 net.cpp:382] conv4_3/1x1_increase/slice -> conv4_3/1x1_increase/split2
I0917 10:56:56.520722 26934 net.cpp:124] Setting up conv4_3/1x1_increase/slice
I0917 10:56:56.520730 26934 net.cpp:131] Top shape: 25 60 28 28 (1176000)
I0917 10:56:56.520732 26934 net.cpp:131] Top shape: 25 60 28 28 (1176000)
I0917 10:56:56.520735 26934 net.cpp:139] Memory required for data: 1275897200
I0917 10:56:56.520737 26934 layer_factory.hpp:77] Creating layer conv4_3/3x3_dwconv/slice_0
I0917 10:56:56.520750 26934 net.cpp:86] Creating Layer conv4_3/3x3_dwconv/slice_0
I0917 10:56:56.520752 26934 net.cpp:408] conv4_3/3x3_dwconv/slice_0 <- conv4_3/1x1_increase/split1
I0917 10:56:56.520759 26934 net.cpp:382] conv4_3/3x3_dwconv/slice_0 -> conv4_3/3x3_dwconv/slice_0/bn
I0917 10:56:56.521317 26934 net.cpp:124] Setting up conv4_3/3x3_dwconv/slice_0
I0917 10:56:56.521328 26934 net.cpp:131] Top shape: 25 60 28 28 (1176000)
I0917 10:56:56.521332 26934 net.cpp:139] Memory required for data: 1280601200
I0917 10:56:56.521337 26934 layer_factory.hpp:77] Creating layer conv4_3/3x3_dwconv/slice_0/hardswish
I0917 10:56:56.521345 26934 net.cpp:86] Creating Layer conv4_3/3x3_dwconv/slice_0/hardswish
I0917 10:56:56.521349 26934 net.cpp:408] conv4_3/3x3_dwconv/slice_0/hardswish <- conv4_3/3x3_dwconv/slice_0/bn
I0917 10:56:56.521354 26934 net.cpp:369] conv4_3/3x3_dwconv/slice_0/hardswish -> conv4_3/3x3_dwconv/slice_0/bn (in-place)
I0917 10:56:56.521383 26934 net.cpp:124] Setting up conv4_3/3x3_dwconv/slice_0/hardswish
I0917 10:56:56.521389 26934 net.cpp:131] Top shape: 25 60 28 28 (1176000)
I0917 10:56:56.521392 26934 net.cpp:139] Memory required for data: 1285305200
I0917 10:56:56.521395 26934 layer_factory.hpp:77] Creating layer conv4_3/3x3_dwconv/slice_1
I0917 10:56:56.521404 26934 net.cpp:86] Creating Layer conv4_3/3x3_dwconv/slice_1
I0917 10:56:56.521409 26934 net.cpp:408] conv4_3/3x3_dwconv/slice_1 <- conv4_3/1x1_increase/split2
I0917 10:56:56.521416 26934 net.cpp:382] conv4_3/3x3_dwconv/slice_1 -> conv4_3/3x3_dwconv/slice_1/bn
I0917 10:56:56.522161 26934 net.cpp:124] Setting up conv4_3/3x3_dwconv/slice_1
I0917 10:56:56.522172 26934 net.cpp:131] Top shape: 25 60 28 28 (1176000)
I0917 10:56:56.522176 26934 net.cpp:139] Memory required for data: 1290009200
I0917 10:56:56.522182 26934 layer_factory.hpp:77] Creating layer conv4_3/3x3_dwconv/slice_1/hardswish
I0917 10:56:56.522191 26934 net.cpp:86] Creating Layer conv4_3/3x3_dwconv/slice_1/hardswish
I0917 10:56:56.522194 26934 net.cpp:408] conv4_3/3x3_dwconv/slice_1/hardswish <- conv4_3/3x3_dwconv/slice_1/bn
I0917 10:56:56.522200 26934 net.cpp:369] conv4_3/3x3_dwconv/slice_1/hardswish -> conv4_3/3x3_dwconv/slice_1/bn (in-place)
I0917 10:56:56.522230 26934 net.cpp:124] Setting up conv4_3/3x3_dwconv/slice_1/hardswish
I0917 10:56:56.522236 26934 net.cpp:131] Top shape: 25 60 28 28 (1176000)
I0917 10:56:56.522239 26934 net.cpp:139] Memory required for data: 1294713200
I0917 10:56:56.522243 26934 layer_factory.hpp:77] Creating layer conv4_3/3x3_dwconv/concat
I0917 10:56:56.522248 26934 net.cpp:86] Creating Layer conv4_3/3x3_dwconv/concat
I0917 10:56:56.522253 26934 net.cpp:408] conv4_3/3x3_dwconv/concat <- conv4_3/3x3_dwconv/slice_0/bn
I0917 10:56:56.522256 26934 net.cpp:408] conv4_3/3x3_dwconv/concat <- conv4_3/3x3_dwconv/slice_1/bn
I0917 10:56:56.522261 26934 net.cpp:382] conv4_3/3x3_dwconv/concat -> conv4_3/3x3_dwconv/concat
I0917 10:56:56.522289 26934 net.cpp:124] Setting up conv4_3/3x3_dwconv/concat
I0917 10:56:56.522295 26934 net.cpp:131] Top shape: 25 120 28 28 (2352000)
I0917 10:56:56.522297 26934 net.cpp:139] Memory required for data: 1304121200
I0917 10:56:56.522300 26934 layer_factory.hpp:77] Creating layer conv4_3/3x3_dwconv/concat_fixed_point
I0917 10:56:56.522308 26934 net.cpp:86] Creating Layer conv4_3/3x3_dwconv/concat_fixed_point
I0917 10:56:56.522311 26934 net.cpp:408] conv4_3/3x3_dwconv/concat_fixed_point <- conv4_3/3x3_dwconv/concat
I0917 10:56:56.522317 26934 net.cpp:369] conv4_3/3x3_dwconv/concat_fixed_point -> conv4_3/3x3_dwconv/concat (in-place)
I0917 10:56:56.522341 26934 net.cpp:124] Setting up conv4_3/3x3_dwconv/concat_fixed_point
I0917 10:56:56.522348 26934 net.cpp:131] Top shape: 25 120 28 28 (2352000)
I0917 10:56:56.522351 26934 net.cpp:139] Memory required for data: 1313529200
I0917 10:56:56.522354 26934 layer_factory.hpp:77] Creating layer conv4_3/3x3_dwconv/concat_conv4_3/3x3_dwconv/concat_fixed_point_0_split
I0917 10:56:56.522361 26934 net.cpp:86] Creating Layer conv4_3/3x3_dwconv/concat_conv4_3/3x3_dwconv/concat_fixed_point_0_split
I0917 10:56:56.522364 26934 net.cpp:408] conv4_3/3x3_dwconv/concat_conv4_3/3x3_dwconv/concat_fixed_point_0_split <- conv4_3/3x3_dwconv/concat
I0917 10:56:56.522369 26934 net.cpp:382] conv4_3/3x3_dwconv/concat_conv4_3/3x3_dwconv/concat_fixed_point_0_split -> conv4_3/3x3_dwconv/concat_conv4_3/3x3_dwconv/concat_fixed_point_0_split_0
I0917 10:56:56.522375 26934 net.cpp:382] conv4_3/3x3_dwconv/concat_conv4_3/3x3_dwconv/concat_fixed_point_0_split -> conv4_3/3x3_dwconv/concat_conv4_3/3x3_dwconv/concat_fixed_point_0_split_1
I0917 10:56:56.522413 26934 net.cpp:124] Setting up conv4_3/3x3_dwconv/concat_conv4_3/3x3_dwconv/concat_fixed_point_0_split
I0917 10:56:56.522419 26934 net.cpp:131] Top shape: 25 120 28 28 (2352000)
I0917 10:56:56.522437 26934 net.cpp:131] Top shape: 25 120 28 28 (2352000)
I0917 10:56:56.522440 26934 net.cpp:139] Memory required for data: 1332345200
I0917 10:56:56.522442 26934 layer_factory.hpp:77] Creating layer conv4_3/3x3_dwconv/SE_global_pool
I0917 10:56:56.522449 26934 net.cpp:86] Creating Layer conv4_3/3x3_dwconv/SE_global_pool
I0917 10:56:56.522451 26934 net.cpp:408] conv4_3/3x3_dwconv/SE_global_pool <- conv4_3/3x3_dwconv/concat_conv4_3/3x3_dwconv/concat_fixed_point_0_split_0
I0917 10:56:56.522457 26934 net.cpp:382] conv4_3/3x3_dwconv/SE_global_pool -> conv4_3/3x3_dwconv/SE_global_pool
I0917 10:56:56.522480 26934 net.cpp:124] Setting up conv4_3/3x3_dwconv/SE_global_pool
I0917 10:56:56.522485 26934 net.cpp:131] Top shape: 25 120 1 1 (3000)
I0917 10:56:56.522488 26934 net.cpp:139] Memory required for data: 1332357200
I0917 10:56:56.522501 26934 layer_factory.hpp:77] Creating layer conv4_3/3x3_dwconv/SE_bn
I0917 10:56:56.522509 26934 net.cpp:86] Creating Layer conv4_3/3x3_dwconv/SE_bn
I0917 10:56:56.522513 26934 net.cpp:408] conv4_3/3x3_dwconv/SE_bn <- conv4_3/3x3_dwconv/SE_global_pool
I0917 10:56:56.522519 26934 net.cpp:382] conv4_3/3x3_dwconv/SE_bn -> conv4_3/3x3_dwconv/SE_bn
I0917 10:56:56.522580 26934 layer_factory.hpp:77] Creating layer conv4_3/3x3_dwconv/SE_bn
I0917 10:56:56.522696 26934 net.cpp:124] Setting up conv4_3/3x3_dwconv/SE_bn
I0917 10:56:56.522703 26934 net.cpp:131] Top shape: 25 120 1 1 (3000)
I0917 10:56:56.522706 26934 net.cpp:139] Memory required for data: 1332369200
I0917 10:56:56.522711 26934 layer_factory.hpp:77] Creating layer conv4_3/3x3_dwconv/SE_fc1
I0917 10:56:56.522722 26934 net.cpp:86] Creating Layer conv4_3/3x3_dwconv/SE_fc1
I0917 10:56:56.522724 26934 net.cpp:408] conv4_3/3x3_dwconv/SE_fc1 <- conv4_3/3x3_dwconv/SE_bn
I0917 10:56:56.522732 26934 net.cpp:382] conv4_3/3x3_dwconv/SE_fc1 -> conv4_3/3x3_dwconv/SE_fc1
I0917 10:56:56.523095 26934 net.cpp:124] Setting up conv4_3/3x3_dwconv/SE_fc1
I0917 10:56:56.523105 26934 net.cpp:131] Top shape: 25 7 1 1 (175)
I0917 10:56:56.523108 26934 net.cpp:139] Memory required for data: 1332369900
I0917 10:56:56.523113 26934 layer_factory.hpp:77] Creating layer conv4_3/3x3_dwconv/SE_fc1/relu
I0917 10:56:56.523118 26934 net.cpp:86] Creating Layer conv4_3/3x3_dwconv/SE_fc1/relu
I0917 10:56:56.523123 26934 net.cpp:408] conv4_3/3x3_dwconv/SE_fc1/relu <- conv4_3/3x3_dwconv/SE_fc1
I0917 10:56:56.523128 26934 net.cpp:369] conv4_3/3x3_dwconv/SE_fc1/relu -> conv4_3/3x3_dwconv/SE_fc1 (in-place)
I0917 10:56:56.523761 26934 net.cpp:124] Setting up conv4_3/3x3_dwconv/SE_fc1/relu
I0917 10:56:56.523773 26934 net.cpp:131] Top shape: 25 7 1 1 (175)
I0917 10:56:56.523777 26934 net.cpp:139] Memory required for data: 1332370600
I0917 10:56:56.523782 26934 layer_factory.hpp:77] Creating layer conv4_3/3x3_dwconv/SE_fc2
I0917 10:56:56.523792 26934 net.cpp:86] Creating Layer conv4_3/3x3_dwconv/SE_fc2
I0917 10:56:56.523797 26934 net.cpp:408] conv4_3/3x3_dwconv/SE_fc2 <- conv4_3/3x3_dwconv/SE_fc1
I0917 10:56:56.523806 26934 net.cpp:382] conv4_3/3x3_dwconv/SE_fc2 -> conv4_3/3x3_dwconv/SE_fc2
I0917 10:56:56.524155 26934 net.cpp:124] Setting up conv4_3/3x3_dwconv/SE_fc2
I0917 10:56:56.524166 26934 net.cpp:131] Top shape: 25 120 1 1 (3000)
I0917 10:56:56.524169 26934 net.cpp:139] Memory required for data: 1332382600
I0917 10:56:56.524173 26934 layer_factory.hpp:77] Creating layer conv4_3/3x3_dwconv/SE_weights
I0917 10:56:56.524180 26934 net.cpp:86] Creating Layer conv4_3/3x3_dwconv/SE_weights
I0917 10:56:56.524183 26934 net.cpp:408] conv4_3/3x3_dwconv/SE_weights <- conv4_3/3x3_dwconv/SE_fc2
I0917 10:56:56.524188 26934 net.cpp:369] conv4_3/3x3_dwconv/SE_weights -> conv4_3/3x3_dwconv/SE_fc2 (in-place)
I0917 10:56:56.524639 26934 net.cpp:124] Setting up conv4_3/3x3_dwconv/SE_weights
I0917 10:56:56.524648 26934 net.cpp:131] Top shape: 25 120 1 1 (3000)
I0917 10:56:56.524652 26934 net.cpp:139] Memory required for data: 1332394600
I0917 10:56:56.524655 26934 layer_factory.hpp:77] Creating layer conv4_3/3x3_dwconv/SE_weights/reshape
I0917 10:56:56.524662 26934 net.cpp:86] Creating Layer conv4_3/3x3_dwconv/SE_weights/reshape
I0917 10:56:56.524682 26934 net.cpp:408] conv4_3/3x3_dwconv/SE_weights/reshape <- conv4_3/3x3_dwconv/SE_fc2
I0917 10:56:56.524688 26934 net.cpp:382] conv4_3/3x3_dwconv/SE_weights/reshape -> conv4_3/3x3_dwconv/SE_weights/reshape
I0917 10:56:56.524719 26934 net.cpp:124] Setting up conv4_3/3x3_dwconv/SE_weights/reshape
I0917 10:56:56.524724 26934 net.cpp:131] Top shape: 25 120 (3000)
I0917 10:56:56.524727 26934 net.cpp:139] Memory required for data: 1332406600
I0917 10:56:56.524730 26934 layer_factory.hpp:77] Creating layer conv4_3/3x3_dwconv/scale
I0917 10:56:56.524737 26934 net.cpp:86] Creating Layer conv4_3/3x3_dwconv/scale
I0917 10:56:56.524740 26934 net.cpp:408] conv4_3/3x3_dwconv/scale <- conv4_3/3x3_dwconv/concat_conv4_3/3x3_dwconv/concat_fixed_point_0_split_1
I0917 10:56:56.524745 26934 net.cpp:408] conv4_3/3x3_dwconv/scale <- conv4_3/3x3_dwconv/SE_weights/reshape
I0917 10:56:56.524762 26934 net.cpp:382] conv4_3/3x3_dwconv/scale -> conv4_3/3x3_dwconv/scale
I0917 10:56:56.524842 26934 net.cpp:124] Setting up conv4_3/3x3_dwconv/scale
I0917 10:56:56.524848 26934 net.cpp:131] Top shape: 25 120 28 28 (2352000)
I0917 10:56:56.524850 26934 net.cpp:139] Memory required for data: 1341814600
I0917 10:56:56.524854 26934 layer_factory.hpp:77] Creating layer conv4_3/3x3_dwconv/scale_fixed_point
I0917 10:56:56.524863 26934 net.cpp:86] Creating Layer conv4_3/3x3_dwconv/scale_fixed_point
I0917 10:56:56.524865 26934 net.cpp:408] conv4_3/3x3_dwconv/scale_fixed_point <- conv4_3/3x3_dwconv/scale
I0917 10:56:56.524870 26934 net.cpp:369] conv4_3/3x3_dwconv/scale_fixed_point -> conv4_3/3x3_dwconv/scale (in-place)
I0917 10:56:56.524896 26934 net.cpp:124] Setting up conv4_3/3x3_dwconv/scale_fixed_point
I0917 10:56:56.524902 26934 net.cpp:131] Top shape: 25 120 28 28 (2352000)
I0917 10:56:56.524905 26934 net.cpp:139] Memory required for data: 1351222600
I0917 10:56:56.524909 26934 layer_factory.hpp:77] Creating layer conv4_3/1x1_decrease
I0917 10:56:56.524919 26934 net.cpp:86] Creating Layer conv4_3/1x1_decrease
I0917 10:56:56.524924 26934 net.cpp:408] conv4_3/1x1_decrease <- conv4_3/3x3_dwconv/scale
I0917 10:56:56.524930 26934 net.cpp:382] conv4_3/1x1_decrease -> conv4_3/1x1_decrease/bn
I0917 10:56:56.525537 26934 net.cpp:124] Setting up conv4_3/1x1_decrease
I0917 10:56:56.525547 26934 net.cpp:131] Top shape: 25 40 28 28 (784000)
I0917 10:56:56.525550 26934 net.cpp:139] Memory required for data: 1354358600
I0917 10:56:56.525557 26934 layer_factory.hpp:77] Creating layer conv4_3/elt_sum
I0917 10:56:56.525563 26934 net.cpp:86] Creating Layer conv4_3/elt_sum
I0917 10:56:56.525568 26934 net.cpp:408] conv4_3/elt_sum <- conv4_2/elt_sum_conv4_2/elt_sum_fixed_point_0_split_1
I0917 10:56:56.525571 26934 net.cpp:408] conv4_3/elt_sum <- conv4_3/1x1_decrease/bn
I0917 10:56:56.525576 26934 net.cpp:382] conv4_3/elt_sum -> conv4_3/elt_sum
I0917 10:56:56.525605 26934 net.cpp:124] Setting up conv4_3/elt_sum
I0917 10:56:56.525611 26934 net.cpp:131] Top shape: 25 40 28 28 (784000)
I0917 10:56:56.525614 26934 net.cpp:139] Memory required for data: 1357494600
I0917 10:56:56.525616 26934 layer_factory.hpp:77] Creating layer conv4_3/elt_sum_fixed_point
I0917 10:56:56.525625 26934 net.cpp:86] Creating Layer conv4_3/elt_sum_fixed_point
I0917 10:56:56.525629 26934 net.cpp:408] conv4_3/elt_sum_fixed_point <- conv4_3/elt_sum
I0917 10:56:56.525635 26934 net.cpp:369] conv4_3/elt_sum_fixed_point -> conv4_3/elt_sum (in-place)
I0917 10:56:56.525660 26934 net.cpp:124] Setting up conv4_3/elt_sum_fixed_point
I0917 10:56:56.525666 26934 net.cpp:131] Top shape: 25 40 28 28 (784000)
I0917 10:56:56.525668 26934 net.cpp:139] Memory required for data: 1360630600
I0917 10:56:56.525672 26934 layer_factory.hpp:77] Creating layer conv5_0/1x1_increase
I0917 10:56:56.525683 26934 net.cpp:86] Creating Layer conv5_0/1x1_increase
I0917 10:56:56.525686 26934 net.cpp:408] conv5_0/1x1_increase <- conv4_3/elt_sum
I0917 10:56:56.525693 26934 net.cpp:382] conv5_0/1x1_increase -> conv5_0/1x1_increase/bn
I0917 10:56:56.526443 26934 net.cpp:124] Setting up conv5_0/1x1_increase
I0917 10:56:56.526454 26934 net.cpp:131] Top shape: 25 240 28 28 (4704000)
I0917 10:56:56.526458 26934 net.cpp:139] Memory required for data: 1379446600
I0917 10:56:56.526463 26934 layer_factory.hpp:77] Creating layer conv5_0/1x1_increase/hardswish
I0917 10:56:56.526470 26934 net.cpp:86] Creating Layer conv5_0/1x1_increase/hardswish
I0917 10:56:56.526474 26934 net.cpp:408] conv5_0/1x1_increase/hardswish <- conv5_0/1x1_increase/bn
I0917 10:56:56.526480 26934 net.cpp:369] conv5_0/1x1_increase/hardswish -> conv5_0/1x1_increase/bn (in-place)
I0917 10:56:56.526510 26934 net.cpp:124] Setting up conv5_0/1x1_increase/hardswish
I0917 10:56:56.526531 26934 net.cpp:131] Top shape: 25 240 28 28 (4704000)
I0917 10:56:56.526535 26934 net.cpp:139] Memory required for data: 1398262600
I0917 10:56:56.526536 26934 layer_factory.hpp:77] Creating layer conv5_0/1x1_increase/bn_fixed_point
I0917 10:56:56.526554 26934 net.cpp:86] Creating Layer conv5_0/1x1_increase/bn_fixed_point
I0917 10:56:56.526558 26934 net.cpp:408] conv5_0/1x1_increase/bn_fixed_point <- conv5_0/1x1_increase/bn
I0917 10:56:56.526564 26934 net.cpp:369] conv5_0/1x1_increase/bn_fixed_point -> conv5_0/1x1_increase/bn (in-place)
I0917 10:56:56.526590 26934 net.cpp:124] Setting up conv5_0/1x1_increase/bn_fixed_point
I0917 10:56:56.526597 26934 net.cpp:131] Top shape: 25 240 28 28 (4704000)
I0917 10:56:56.526599 26934 net.cpp:139] Memory required for data: 1417078600
I0917 10:56:56.526604 26934 layer_factory.hpp:77] Creating layer conv5_0/1x1_increase/slice
I0917 10:56:56.526614 26934 net.cpp:86] Creating Layer conv5_0/1x1_increase/slice
I0917 10:56:56.526618 26934 net.cpp:408] conv5_0/1x1_increase/slice <- conv5_0/1x1_increase/bn
I0917 10:56:56.526624 26934 net.cpp:382] conv5_0/1x1_increase/slice -> conv5_0/1x1_increase/split1
I0917 10:56:56.526630 26934 net.cpp:382] conv5_0/1x1_increase/slice -> conv5_0/1x1_increase/split2
I0917 10:56:56.526636 26934 net.cpp:382] conv5_0/1x1_increase/slice -> conv5_0/1x1_increase/split3
I0917 10:56:56.526688 26934 net.cpp:124] Setting up conv5_0/1x1_increase/slice
I0917 10:56:56.526695 26934 net.cpp:131] Top shape: 25 80 28 28 (1568000)
I0917 10:56:56.526698 26934 net.cpp:131] Top shape: 25 80 28 28 (1568000)
I0917 10:56:56.526701 26934 net.cpp:131] Top shape: 25 80 28 28 (1568000)
I0917 10:56:56.526718 26934 net.cpp:139] Memory required for data: 1435894600
I0917 10:56:56.526721 26934 layer_factory.hpp:77] Creating layer conv5_0/3x3_dwconv/slice_0
I0917 10:56:56.526732 26934 net.cpp:86] Creating Layer conv5_0/3x3_dwconv/slice_0
I0917 10:56:56.526736 26934 net.cpp:408] conv5_0/3x3_dwconv/slice_0 <- conv5_0/1x1_increase/split1
I0917 10:56:56.526742 26934 net.cpp:382] conv5_0/3x3_dwconv/slice_0 -> conv5_0/3x3_dwconv/slice_0/bn
I0917 10:56:56.527254 26934 net.cpp:124] Setting up conv5_0/3x3_dwconv/slice_0
I0917 10:56:56.527266 26934 net.cpp:131] Top shape: 25 80 14 14 (392000)
I0917 10:56:56.527268 26934 net.cpp:139] Memory required for data: 1437462600
I0917 10:56:56.527274 26934 layer_factory.hpp:77] Creating layer conv5_0/3x3_dwconv/slice_0/hardswish
I0917 10:56:56.527282 26934 net.cpp:86] Creating Layer conv5_0/3x3_dwconv/slice_0/hardswish
I0917 10:56:56.527287 26934 net.cpp:408] conv5_0/3x3_dwconv/slice_0/hardswish <- conv5_0/3x3_dwconv/slice_0/bn
I0917 10:56:56.527292 26934 net.cpp:369] conv5_0/3x3_dwconv/slice_0/hardswish -> conv5_0/3x3_dwconv/slice_0/bn (in-place)
I0917 10:56:56.527319 26934 net.cpp:124] Setting up conv5_0/3x3_dwconv/slice_0/hardswish
I0917 10:56:56.527326 26934 net.cpp:131] Top shape: 25 80 14 14 (392000)
I0917 10:56:56.527329 26934 net.cpp:139] Memory required for data: 1439030600
I0917 10:56:56.527331 26934 layer_factory.hpp:77] Creating layer conv5_0/3x3_dwconv/slice_1
I0917 10:56:56.527341 26934 net.cpp:86] Creating Layer conv5_0/3x3_dwconv/slice_1
I0917 10:56:56.527345 26934 net.cpp:408] conv5_0/3x3_dwconv/slice_1 <- conv5_0/1x1_increase/split2
I0917 10:56:56.527354 26934 net.cpp:382] conv5_0/3x3_dwconv/slice_1 -> conv5_0/3x3_dwconv/slice_1/bn
I0917 10:56:56.527952 26934 net.cpp:124] Setting up conv5_0/3x3_dwconv/slice_1
I0917 10:56:56.527963 26934 net.cpp:131] Top shape: 25 80 14 14 (392000)
I0917 10:56:56.527966 26934 net.cpp:139] Memory required for data: 1440598600
I0917 10:56:56.527973 26934 layer_factory.hpp:77] Creating layer conv5_0/3x3_dwconv/slice_1/hardswish
I0917 10:56:56.527981 26934 net.cpp:86] Creating Layer conv5_0/3x3_dwconv/slice_1/hardswish
I0917 10:56:56.527984 26934 net.cpp:408] conv5_0/3x3_dwconv/slice_1/hardswish <- conv5_0/3x3_dwconv/slice_1/bn
I0917 10:56:56.527989 26934 net.cpp:369] conv5_0/3x3_dwconv/slice_1/hardswish -> conv5_0/3x3_dwconv/slice_1/bn (in-place)
I0917 10:56:56.528017 26934 net.cpp:124] Setting up conv5_0/3x3_dwconv/slice_1/hardswish
I0917 10:56:56.528023 26934 net.cpp:131] Top shape: 25 80 14 14 (392000)
I0917 10:56:56.528026 26934 net.cpp:139] Memory required for data: 1442166600
I0917 10:56:56.528039 26934 layer_factory.hpp:77] Creating layer conv5_0/3x3_dwconv/slice_2
I0917 10:56:56.528051 26934 net.cpp:86] Creating Layer conv5_0/3x3_dwconv/slice_2
I0917 10:56:56.528054 26934 net.cpp:408] conv5_0/3x3_dwconv/slice_2 <- conv5_0/1x1_increase/split3
I0917 10:56:56.528062 26934 net.cpp:382] conv5_0/3x3_dwconv/slice_2 -> conv5_0/3x3_dwconv/slice_2/bn
I0917 10:56:56.528842 26934 net.cpp:124] Setting up conv5_0/3x3_dwconv/slice_2
I0917 10:56:56.528853 26934 net.cpp:131] Top shape: 25 80 14 14 (392000)
I0917 10:56:56.528868 26934 net.cpp:139] Memory required for data: 1443734600
I0917 10:56:56.528875 26934 layer_factory.hpp:77] Creating layer conv5_0/3x3_dwconv/slice_2/hardswish
I0917 10:56:56.528882 26934 net.cpp:86] Creating Layer conv5_0/3x3_dwconv/slice_2/hardswish
I0917 10:56:56.528885 26934 net.cpp:408] conv5_0/3x3_dwconv/slice_2/hardswish <- conv5_0/3x3_dwconv/slice_2/bn
I0917 10:56:56.528892 26934 net.cpp:369] conv5_0/3x3_dwconv/slice_2/hardswish -> conv5_0/3x3_dwconv/slice_2/bn (in-place)
I0917 10:56:56.528921 26934 net.cpp:124] Setting up conv5_0/3x3_dwconv/slice_2/hardswish
I0917 10:56:56.528928 26934 net.cpp:131] Top shape: 25 80 14 14 (392000)
I0917 10:56:56.528930 26934 net.cpp:139] Memory required for data: 1445302600
I0917 10:56:56.528932 26934 layer_factory.hpp:77] Creating layer conv5_0/3x3_dwconv/concat
I0917 10:56:56.528940 26934 net.cpp:86] Creating Layer conv5_0/3x3_dwconv/concat
I0917 10:56:56.528944 26934 net.cpp:408] conv5_0/3x3_dwconv/concat <- conv5_0/3x3_dwconv/slice_0/bn
I0917 10:56:56.528947 26934 net.cpp:408] conv5_0/3x3_dwconv/concat <- conv5_0/3x3_dwconv/slice_1/bn
I0917 10:56:56.528951 26934 net.cpp:408] conv5_0/3x3_dwconv/concat <- conv5_0/3x3_dwconv/slice_2/bn
I0917 10:56:56.528957 26934 net.cpp:382] conv5_0/3x3_dwconv/concat -> conv5_0/3x3_dwconv/concat
I0917 10:56:56.528982 26934 net.cpp:124] Setting up conv5_0/3x3_dwconv/concat
I0917 10:56:56.528988 26934 net.cpp:131] Top shape: 25 240 14 14 (1176000)
I0917 10:56:56.528990 26934 net.cpp:139] Memory required for data: 1450006600
I0917 10:56:56.528995 26934 layer_factory.hpp:77] Creating layer conv5_0/3x3_dwconv/concat_fixed_point
I0917 10:56:56.529000 26934 net.cpp:86] Creating Layer conv5_0/3x3_dwconv/concat_fixed_point
I0917 10:56:56.529004 26934 net.cpp:408] conv5_0/3x3_dwconv/concat_fixed_point <- conv5_0/3x3_dwconv/concat
I0917 10:56:56.529009 26934 net.cpp:369] conv5_0/3x3_dwconv/concat_fixed_point -> conv5_0/3x3_dwconv/concat (in-place)
I0917 10:56:56.529033 26934 net.cpp:124] Setting up conv5_0/3x3_dwconv/concat_fixed_point
I0917 10:56:56.529038 26934 net.cpp:131] Top shape: 25 240 14 14 (1176000)
I0917 10:56:56.529042 26934 net.cpp:139] Memory required for data: 1454710600
I0917 10:56:56.529045 26934 layer_factory.hpp:77] Creating layer conv5_0/3x3_dwconv/concat_conv5_0/3x3_dwconv/concat_fixed_point_0_split
I0917 10:56:56.529052 26934 net.cpp:86] Creating Layer conv5_0/3x3_dwconv/concat_conv5_0/3x3_dwconv/concat_fixed_point_0_split
I0917 10:56:56.529054 26934 net.cpp:408] conv5_0/3x3_dwconv/concat_conv5_0/3x3_dwconv/concat_fixed_point_0_split <- conv5_0/3x3_dwconv/concat
I0917 10:56:56.529060 26934 net.cpp:382] conv5_0/3x3_dwconv/concat_conv5_0/3x3_dwconv/concat_fixed_point_0_split -> conv5_0/3x3_dwconv/concat_conv5_0/3x3_dwconv/concat_fixed_point_0_split_0
I0917 10:56:56.529067 26934 net.cpp:382] conv5_0/3x3_dwconv/concat_conv5_0/3x3_dwconv/concat_fixed_point_0_split -> conv5_0/3x3_dwconv/concat_conv5_0/3x3_dwconv/concat_fixed_point_0_split_1
I0917 10:56:56.529119 26934 net.cpp:124] Setting up conv5_0/3x3_dwconv/concat_conv5_0/3x3_dwconv/concat_fixed_point_0_split
I0917 10:56:56.529124 26934 net.cpp:131] Top shape: 25 240 14 14 (1176000)
I0917 10:56:56.529129 26934 net.cpp:131] Top shape: 25 240 14 14 (1176000)
I0917 10:56:56.529130 26934 net.cpp:139] Memory required for data: 1464118600
I0917 10:56:56.529134 26934 layer_factory.hpp:77] Creating layer conv5_0/3x3_dwconv/SE_global_pool
I0917 10:56:56.529140 26934 net.cpp:86] Creating Layer conv5_0/3x3_dwconv/SE_global_pool
I0917 10:56:56.529143 26934 net.cpp:408] conv5_0/3x3_dwconv/SE_global_pool <- conv5_0/3x3_dwconv/concat_conv5_0/3x3_dwconv/concat_fixed_point_0_split_0
I0917 10:56:56.529160 26934 net.cpp:382] conv5_0/3x3_dwconv/SE_global_pool -> conv5_0/3x3_dwconv/SE_global_pool
I0917 10:56:56.529186 26934 net.cpp:124] Setting up conv5_0/3x3_dwconv/SE_global_pool
I0917 10:56:56.529193 26934 net.cpp:131] Top shape: 25 240 1 1 (6000)
I0917 10:56:56.529196 26934 net.cpp:139] Memory required for data: 1464142600
I0917 10:56:56.529199 26934 layer_factory.hpp:77] Creating layer conv5_0/3x3_dwconv/SE_bn
I0917 10:56:56.529206 26934 net.cpp:86] Creating Layer conv5_0/3x3_dwconv/SE_bn
I0917 10:56:56.529209 26934 net.cpp:408] conv5_0/3x3_dwconv/SE_bn <- conv5_0/3x3_dwconv/SE_global_pool
I0917 10:56:56.529214 26934 net.cpp:382] conv5_0/3x3_dwconv/SE_bn -> conv5_0/3x3_dwconv/SE_bn
I0917 10:56:56.529258 26934 layer_factory.hpp:77] Creating layer conv5_0/3x3_dwconv/SE_bn
I0917 10:56:56.529367 26934 net.cpp:124] Setting up conv5_0/3x3_dwconv/SE_bn
I0917 10:56:56.529372 26934 net.cpp:131] Top shape: 25 240 1 1 (6000)
I0917 10:56:56.529374 26934 net.cpp:139] Memory required for data: 1464166600
I0917 10:56:56.529379 26934 layer_factory.hpp:77] Creating layer conv5_0/3x3_dwconv/SE_fc1
I0917 10:56:56.529389 26934 net.cpp:86] Creating Layer conv5_0/3x3_dwconv/SE_fc1
I0917 10:56:56.529392 26934 net.cpp:408] conv5_0/3x3_dwconv/SE_fc1 <- conv5_0/3x3_dwconv/SE_bn
I0917 10:56:56.529399 26934 net.cpp:382] conv5_0/3x3_dwconv/SE_fc1 -> conv5_0/3x3_dwconv/SE_fc1
I0917 10:56:56.529845 26934 net.cpp:124] Setting up conv5_0/3x3_dwconv/SE_fc1
I0917 10:56:56.529853 26934 net.cpp:131] Top shape: 25 15 1 1 (375)
I0917 10:56:56.529856 26934 net.cpp:139] Memory required for data: 1464168100
I0917 10:56:56.529860 26934 layer_factory.hpp:77] Creating layer conv5_0/3x3_dwconv/SE_fc1/relu
I0917 10:56:56.529867 26934 net.cpp:86] Creating Layer conv5_0/3x3_dwconv/SE_fc1/relu
I0917 10:56:56.529870 26934 net.cpp:408] conv5_0/3x3_dwconv/SE_fc1/relu <- conv5_0/3x3_dwconv/SE_fc1
I0917 10:56:56.529875 26934 net.cpp:369] conv5_0/3x3_dwconv/SE_fc1/relu -> conv5_0/3x3_dwconv/SE_fc1 (in-place)
I0917 10:56:56.530315 26934 net.cpp:124] Setting up conv5_0/3x3_dwconv/SE_fc1/relu
I0917 10:56:56.530323 26934 net.cpp:131] Top shape: 25 15 1 1 (375)
I0917 10:56:56.530326 26934 net.cpp:139] Memory required for data: 1464169600
I0917 10:56:56.530329 26934 layer_factory.hpp:77] Creating layer conv5_0/3x3_dwconv/SE_fc2
I0917 10:56:56.530339 26934 net.cpp:86] Creating Layer conv5_0/3x3_dwconv/SE_fc2
I0917 10:56:56.530341 26934 net.cpp:408] conv5_0/3x3_dwconv/SE_fc2 <- conv5_0/3x3_dwconv/SE_fc1
I0917 10:56:56.530349 26934 net.cpp:382] conv5_0/3x3_dwconv/SE_fc2 -> conv5_0/3x3_dwconv/SE_fc2
I0917 10:56:56.530740 26934 net.cpp:124] Setting up conv5_0/3x3_dwconv/SE_fc2
I0917 10:56:56.530748 26934 net.cpp:131] Top shape: 25 240 1 1 (6000)
I0917 10:56:56.530750 26934 net.cpp:139] Memory required for data: 1464193600
I0917 10:56:56.530756 26934 layer_factory.hpp:77] Creating layer conv5_0/3x3_dwconv/SE_weights
I0917 10:56:56.530761 26934 net.cpp:86] Creating Layer conv5_0/3x3_dwconv/SE_weights
I0917 10:56:56.530764 26934 net.cpp:408] conv5_0/3x3_dwconv/SE_weights <- conv5_0/3x3_dwconv/SE_fc2
I0917 10:56:56.530771 26934 net.cpp:369] conv5_0/3x3_dwconv/SE_weights -> conv5_0/3x3_dwconv/SE_fc2 (in-place)
I0917 10:56:56.531412 26934 net.cpp:124] Setting up conv5_0/3x3_dwconv/SE_weights
I0917 10:56:56.531424 26934 net.cpp:131] Top shape: 25 240 1 1 (6000)
I0917 10:56:56.531427 26934 net.cpp:139] Memory required for data: 1464217600
I0917 10:56:56.531430 26934 layer_factory.hpp:77] Creating layer conv5_0/3x3_dwconv/SE_weights/reshape
I0917 10:56:56.531437 26934 net.cpp:86] Creating Layer conv5_0/3x3_dwconv/SE_weights/reshape
I0917 10:56:56.531442 26934 net.cpp:408] conv5_0/3x3_dwconv/SE_weights/reshape <- conv5_0/3x3_dwconv/SE_fc2
I0917 10:56:56.531451 26934 net.cpp:382] conv5_0/3x3_dwconv/SE_weights/reshape -> conv5_0/3x3_dwconv/SE_weights/reshape
I0917 10:56:56.531482 26934 net.cpp:124] Setting up conv5_0/3x3_dwconv/SE_weights/reshape
I0917 10:56:56.531498 26934 net.cpp:131] Top shape: 25 240 (6000)
I0917 10:56:56.531502 26934 net.cpp:139] Memory required for data: 1464241600
I0917 10:56:56.531504 26934 layer_factory.hpp:77] Creating layer conv5_0/3x3_dwconv/scale
I0917 10:56:56.531512 26934 net.cpp:86] Creating Layer conv5_0/3x3_dwconv/scale
I0917 10:56:56.531515 26934 net.cpp:408] conv5_0/3x3_dwconv/scale <- conv5_0/3x3_dwconv/concat_conv5_0/3x3_dwconv/concat_fixed_point_0_split_1
I0917 10:56:56.531520 26934 net.cpp:408] conv5_0/3x3_dwconv/scale <- conv5_0/3x3_dwconv/SE_weights/reshape
I0917 10:56:56.531527 26934 net.cpp:382] conv5_0/3x3_dwconv/scale -> conv5_0/3x3_dwconv/scale
I0917 10:56:56.531607 26934 net.cpp:124] Setting up conv5_0/3x3_dwconv/scale
I0917 10:56:56.531612 26934 net.cpp:131] Top shape: 25 240 14 14 (1176000)
I0917 10:56:56.531615 26934 net.cpp:139] Memory required for data: 1468945600
I0917 10:56:56.531620 26934 layer_factory.hpp:77] Creating layer conv5_0/3x3_dwconv/scale_fixed_point
I0917 10:56:56.531626 26934 net.cpp:86] Creating Layer conv5_0/3x3_dwconv/scale_fixed_point
I0917 10:56:56.531630 26934 net.cpp:408] conv5_0/3x3_dwconv/scale_fixed_point <- conv5_0/3x3_dwconv/scale
I0917 10:56:56.531636 26934 net.cpp:369] conv5_0/3x3_dwconv/scale_fixed_point -> conv5_0/3x3_dwconv/scale (in-place)
I0917 10:56:56.531659 26934 net.cpp:124] Setting up conv5_0/3x3_dwconv/scale_fixed_point
I0917 10:56:56.531663 26934 net.cpp:131] Top shape: 25 240 14 14 (1176000)
I0917 10:56:56.531666 26934 net.cpp:139] Memory required for data: 1473649600
I0917 10:56:56.531671 26934 layer_factory.hpp:77] Creating layer conv5_0/1x1_decrease
I0917 10:56:56.531682 26934 net.cpp:86] Creating Layer conv5_0/1x1_decrease
I0917 10:56:56.531684 26934 net.cpp:408] conv5_0/1x1_decrease <- conv5_0/3x3_dwconv/scale
I0917 10:56:56.531692 26934 net.cpp:382] conv5_0/1x1_decrease -> conv5_0/1x1_decrease/bn
I0917 10:56:56.533967 26934 net.cpp:124] Setting up conv5_0/1x1_decrease
I0917 10:56:56.533980 26934 net.cpp:131] Top shape: 25 80 14 14 (392000)
I0917 10:56:56.533999 26934 net.cpp:139] Memory required for data: 1475217600
I0917 10:56:56.534006 26934 layer_factory.hpp:77] Creating layer conv5_0/1x1_decrease/bn_fixed_point
I0917 10:56:56.534014 26934 net.cpp:86] Creating Layer conv5_0/1x1_decrease/bn_fixed_point
I0917 10:56:56.534018 26934 net.cpp:408] conv5_0/1x1_decrease/bn_fixed_point <- conv5_0/1x1_decrease/bn
I0917 10:56:56.534024 26934 net.cpp:369] conv5_0/1x1_decrease/bn_fixed_point -> conv5_0/1x1_decrease/bn (in-place)
I0917 10:56:56.534056 26934 net.cpp:124] Setting up conv5_0/1x1_decrease/bn_fixed_point
I0917 10:56:56.534078 26934 net.cpp:131] Top shape: 25 80 14 14 (392000)
I0917 10:56:56.534081 26934 net.cpp:139] Memory required for data: 1476785600
I0917 10:56:56.534085 26934 layer_factory.hpp:77] Creating layer conv5_0/1x1_decrease/bn_conv5_0/1x1_decrease/bn_fixed_point_0_split
I0917 10:56:56.534091 26934 net.cpp:86] Creating Layer conv5_0/1x1_decrease/bn_conv5_0/1x1_decrease/bn_fixed_point_0_split
I0917 10:56:56.534094 26934 net.cpp:408] conv5_0/1x1_decrease/bn_conv5_0/1x1_decrease/bn_fixed_point_0_split <- conv5_0/1x1_decrease/bn
I0917 10:56:56.534101 26934 net.cpp:382] conv5_0/1x1_decrease/bn_conv5_0/1x1_decrease/bn_fixed_point_0_split -> conv5_0/1x1_decrease/bn_conv5_0/1x1_decrease/bn_fixed_point_0_split_0
I0917 10:56:56.534108 26934 net.cpp:382] conv5_0/1x1_decrease/bn_conv5_0/1x1_decrease/bn_fixed_point_0_split -> conv5_0/1x1_decrease/bn_conv5_0/1x1_decrease/bn_fixed_point_0_split_1
I0917 10:56:56.534149 26934 net.cpp:124] Setting up conv5_0/1x1_decrease/bn_conv5_0/1x1_decrease/bn_fixed_point_0_split
I0917 10:56:56.534163 26934 net.cpp:131] Top shape: 25 80 14 14 (392000)
I0917 10:56:56.534168 26934 net.cpp:131] Top shape: 25 80 14 14 (392000)
I0917 10:56:56.534170 26934 net.cpp:139] Memory required for data: 1479921600
I0917 10:56:56.534175 26934 layer_factory.hpp:77] Creating layer conv5_1/1x1_increase
I0917 10:56:56.534186 26934 net.cpp:86] Creating Layer conv5_1/1x1_increase
I0917 10:56:56.534190 26934 net.cpp:408] conv5_1/1x1_increase <- conv5_0/1x1_decrease/bn_conv5_0/1x1_decrease/bn_fixed_point_0_split_0
I0917 10:56:56.534209 26934 net.cpp:382] conv5_1/1x1_increase -> conv5_1/1x1_increase/bn
I0917 10:56:56.535250 26934 net.cpp:124] Setting up conv5_1/1x1_increase
I0917 10:56:56.535261 26934 net.cpp:131] Top shape: 25 240 14 14 (1176000)
I0917 10:56:56.535280 26934 net.cpp:139] Memory required for data: 1484625600
I0917 10:56:56.535286 26934 layer_factory.hpp:77] Creating layer conv5_1/1x1_increase/hardswish
I0917 10:56:56.535295 26934 net.cpp:86] Creating Layer conv5_1/1x1_increase/hardswish
I0917 10:56:56.535297 26934 net.cpp:408] conv5_1/1x1_increase/hardswish <- conv5_1/1x1_increase/bn
I0917 10:56:56.535303 26934 net.cpp:369] conv5_1/1x1_increase/hardswish -> conv5_1/1x1_increase/bn (in-place)
I0917 10:56:56.535347 26934 net.cpp:124] Setting up conv5_1/1x1_increase/hardswish
I0917 10:56:56.535353 26934 net.cpp:131] Top shape: 25 240 14 14 (1176000)
I0917 10:56:56.535356 26934 net.cpp:139] Memory required for data: 1489329600
I0917 10:56:56.535359 26934 layer_factory.hpp:77] Creating layer conv5_1/1x1_increase/bn_fixed_point
I0917 10:56:56.535365 26934 net.cpp:86] Creating Layer conv5_1/1x1_increase/bn_fixed_point
I0917 10:56:56.535368 26934 net.cpp:408] conv5_1/1x1_increase/bn_fixed_point <- conv5_1/1x1_increase/bn
I0917 10:56:56.535374 26934 net.cpp:369] conv5_1/1x1_increase/bn_fixed_point -> conv5_1/1x1_increase/bn (in-place)
I0917 10:56:56.535399 26934 net.cpp:124] Setting up conv5_1/1x1_increase/bn_fixed_point
I0917 10:56:56.535404 26934 net.cpp:131] Top shape: 25 240 14 14 (1176000)
I0917 10:56:56.535408 26934 net.cpp:139] Memory required for data: 1494033600
I0917 10:56:56.535410 26934 layer_factory.hpp:77] Creating layer conv5_1/1x1_increase/slice
I0917 10:56:56.535418 26934 net.cpp:86] Creating Layer conv5_1/1x1_increase/slice
I0917 10:56:56.535420 26934 net.cpp:408] conv5_1/1x1_increase/slice <- conv5_1/1x1_increase/bn
I0917 10:56:56.535426 26934 net.cpp:382] conv5_1/1x1_increase/slice -> conv5_1/1x1_increase/split1
I0917 10:56:56.535434 26934 net.cpp:382] conv5_1/1x1_increase/slice -> conv5_1/1x1_increase/split2
I0917 10:56:56.535473 26934 net.cpp:124] Setting up conv5_1/1x1_increase/slice
I0917 10:56:56.535485 26934 net.cpp:131] Top shape: 25 120 14 14 (588000)
I0917 10:56:56.535490 26934 net.cpp:131] Top shape: 25 120 14 14 (588000)
I0917 10:56:56.535491 26934 net.cpp:139] Memory required for data: 1498737600
I0917 10:56:56.535495 26934 layer_factory.hpp:77] Creating layer conv5_1/3x3_dwconv/slice_0
I0917 10:56:56.535507 26934 net.cpp:86] Creating Layer conv5_1/3x3_dwconv/slice_0
I0917 10:56:56.535526 26934 net.cpp:408] conv5_1/3x3_dwconv/slice_0 <- conv5_1/1x1_increase/split1
I0917 10:56:56.535533 26934 net.cpp:382] conv5_1/3x3_dwconv/slice_0 -> conv5_1/3x3_dwconv/slice_0/bn
I0917 10:56:56.536072 26934 net.cpp:124] Setting up conv5_1/3x3_dwconv/slice_0
I0917 10:56:56.536082 26934 net.cpp:131] Top shape: 25 120 14 14 (588000)
I0917 10:56:56.536103 26934 net.cpp:139] Memory required for data: 1501089600
I0917 10:56:56.536108 26934 layer_factory.hpp:77] Creating layer conv5_1/3x3_dwconv/slice_0/hardswish
I0917 10:56:56.536113 26934 net.cpp:86] Creating Layer conv5_1/3x3_dwconv/slice_0/hardswish
I0917 10:56:56.536118 26934 net.cpp:408] conv5_1/3x3_dwconv/slice_0/hardswish <- conv5_1/3x3_dwconv/slice_0/bn
I0917 10:56:56.536123 26934 net.cpp:369] conv5_1/3x3_dwconv/slice_0/hardswish -> conv5_1/3x3_dwconv/slice_0/bn (in-place)
I0917 10:56:56.536152 26934 net.cpp:124] Setting up conv5_1/3x3_dwconv/slice_0/hardswish
I0917 10:56:56.536159 26934 net.cpp:131] Top shape: 25 120 14 14 (588000)
I0917 10:56:56.536161 26934 net.cpp:139] Memory required for data: 1503441600
I0917 10:56:56.536164 26934 layer_factory.hpp:77] Creating layer conv5_1/3x3_dwconv/slice_1
I0917 10:56:56.536173 26934 net.cpp:86] Creating Layer conv5_1/3x3_dwconv/slice_1
I0917 10:56:56.536177 26934 net.cpp:408] conv5_1/3x3_dwconv/slice_1 <- conv5_1/1x1_increase/split2
I0917 10:56:56.536185 26934 net.cpp:382] conv5_1/3x3_dwconv/slice_1 -> conv5_1/3x3_dwconv/slice_1/bn
I0917 10:56:56.536978 26934 net.cpp:124] Setting up conv5_1/3x3_dwconv/slice_1
I0917 10:56:56.536999 26934 net.cpp:131] Top shape: 25 120 14 14 (588000)
I0917 10:56:56.537019 26934 net.cpp:139] Memory required for data: 1505793600
I0917 10:56:56.537025 26934 layer_factory.hpp:77] Creating layer conv5_1/3x3_dwconv/slice_1/hardswish
I0917 10:56:56.537035 26934 net.cpp:86] Creating Layer conv5_1/3x3_dwconv/slice_1/hardswish
I0917 10:56:56.537039 26934 net.cpp:408] conv5_1/3x3_dwconv/slice_1/hardswish <- conv5_1/3x3_dwconv/slice_1/bn
I0917 10:56:56.537045 26934 net.cpp:369] conv5_1/3x3_dwconv/slice_1/hardswish -> conv5_1/3x3_dwconv/slice_1/bn (in-place)
I0917 10:56:56.537075 26934 net.cpp:124] Setting up conv5_1/3x3_dwconv/slice_1/hardswish
I0917 10:56:56.537081 26934 net.cpp:131] Top shape: 25 120 14 14 (588000)
I0917 10:56:56.537084 26934 net.cpp:139] Memory required for data: 1508145600
I0917 10:56:56.537086 26934 layer_factory.hpp:77] Creating layer conv5_1/3x3_dwconv/concat
I0917 10:56:56.537092 26934 net.cpp:86] Creating Layer conv5_1/3x3_dwconv/concat
I0917 10:56:56.537096 26934 net.cpp:408] conv5_1/3x3_dwconv/concat <- conv5_1/3x3_dwconv/slice_0/bn
I0917 10:56:56.537099 26934 net.cpp:408] conv5_1/3x3_dwconv/concat <- conv5_1/3x3_dwconv/slice_1/bn
I0917 10:56:56.537106 26934 net.cpp:382] conv5_1/3x3_dwconv/concat -> conv5_1/3x3_dwconv/concat
I0917 10:56:56.537132 26934 net.cpp:124] Setting up conv5_1/3x3_dwconv/concat
I0917 10:56:56.537137 26934 net.cpp:131] Top shape: 25 240 14 14 (1176000)
I0917 10:56:56.537139 26934 net.cpp:139] Memory required for data: 1512849600
I0917 10:56:56.537142 26934 layer_factory.hpp:77] Creating layer conv5_1/3x3_dwconv/concat_fixed_point
I0917 10:56:56.537149 26934 net.cpp:86] Creating Layer conv5_1/3x3_dwconv/concat_fixed_point
I0917 10:56:56.537153 26934 net.cpp:408] conv5_1/3x3_dwconv/concat_fixed_point <- conv5_1/3x3_dwconv/concat
I0917 10:56:56.537158 26934 net.cpp:369] conv5_1/3x3_dwconv/concat_fixed_point -> conv5_1/3x3_dwconv/concat (in-place)
I0917 10:56:56.537183 26934 net.cpp:124] Setting up conv5_1/3x3_dwconv/concat_fixed_point
I0917 10:56:56.537187 26934 net.cpp:131] Top shape: 25 240 14 14 (1176000)
I0917 10:56:56.537190 26934 net.cpp:139] Memory required for data: 1517553600
I0917 10:56:56.537194 26934 layer_factory.hpp:77] Creating layer conv5_1/3x3_dwconv/concat_conv5_1/3x3_dwconv/concat_fixed_point_0_split
I0917 10:56:56.537199 26934 net.cpp:86] Creating Layer conv5_1/3x3_dwconv/concat_conv5_1/3x3_dwconv/concat_fixed_point_0_split
I0917 10:56:56.537202 26934 net.cpp:408] conv5_1/3x3_dwconv/concat_conv5_1/3x3_dwconv/concat_fixed_point_0_split <- conv5_1/3x3_dwconv/concat
I0917 10:56:56.537207 26934 net.cpp:382] conv5_1/3x3_dwconv/concat_conv5_1/3x3_dwconv/concat_fixed_point_0_split -> conv5_1/3x3_dwconv/concat_conv5_1/3x3_dwconv/concat_fixed_point_0_split_0
I0917 10:56:56.537214 26934 net.cpp:382] conv5_1/3x3_dwconv/concat_conv5_1/3x3_dwconv/concat_fixed_point_0_split -> conv5_1/3x3_dwconv/concat_conv5_1/3x3_dwconv/concat_fixed_point_0_split_1
I0917 10:56:56.537266 26934 net.cpp:124] Setting up conv5_1/3x3_dwconv/concat_conv5_1/3x3_dwconv/concat_fixed_point_0_split
I0917 10:56:56.537271 26934 net.cpp:131] Top shape: 25 240 14 14 (1176000)
I0917 10:56:56.537276 26934 net.cpp:131] Top shape: 25 240 14 14 (1176000)
I0917 10:56:56.537277 26934 net.cpp:139] Memory required for data: 1526961600
I0917 10:56:56.537281 26934 layer_factory.hpp:77] Creating layer conv5_1/3x3_dwconv/SE_global_pool
I0917 10:56:56.537288 26934 net.cpp:86] Creating Layer conv5_1/3x3_dwconv/SE_global_pool
I0917 10:56:56.537292 26934 net.cpp:408] conv5_1/3x3_dwconv/SE_global_pool <- conv5_1/3x3_dwconv/concat_conv5_1/3x3_dwconv/concat_fixed_point_0_split_0
I0917 10:56:56.537297 26934 net.cpp:382] conv5_1/3x3_dwconv/SE_global_pool -> conv5_1/3x3_dwconv/SE_global_pool
I0917 10:56:56.537324 26934 net.cpp:124] Setting up conv5_1/3x3_dwconv/SE_global_pool
I0917 10:56:56.537330 26934 net.cpp:131] Top shape: 25 240 1 1 (6000)
I0917 10:56:56.537333 26934 net.cpp:139] Memory required for data: 1526985600
I0917 10:56:56.537334 26934 layer_factory.hpp:77] Creating layer conv5_1/3x3_dwconv/SE_bn
I0917 10:56:56.537348 26934 net.cpp:86] Creating Layer conv5_1/3x3_dwconv/SE_bn
I0917 10:56:56.537350 26934 net.cpp:408] conv5_1/3x3_dwconv/SE_bn <- conv5_1/3x3_dwconv/SE_global_pool
I0917 10:56:56.537356 26934 net.cpp:382] conv5_1/3x3_dwconv/SE_bn -> conv5_1/3x3_dwconv/SE_bn
I0917 10:56:56.537400 26934 layer_factory.hpp:77] Creating layer conv5_1/3x3_dwconv/SE_bn
I0917 10:56:56.537516 26934 net.cpp:124] Setting up conv5_1/3x3_dwconv/SE_bn
I0917 10:56:56.537523 26934 net.cpp:131] Top shape: 25 240 1 1 (6000)
I0917 10:56:56.537525 26934 net.cpp:139] Memory required for data: 1527009600
I0917 10:56:56.537530 26934 layer_factory.hpp:77] Creating layer conv5_1/3x3_dwconv/SE_fc1
I0917 10:56:56.537540 26934 net.cpp:86] Creating Layer conv5_1/3x3_dwconv/SE_fc1
I0917 10:56:56.537544 26934 net.cpp:408] conv5_1/3x3_dwconv/SE_fc1 <- conv5_1/3x3_dwconv/SE_bn
I0917 10:56:56.537549 26934 net.cpp:382] conv5_1/3x3_dwconv/SE_fc1 -> conv5_1/3x3_dwconv/SE_fc1
I0917 10:56:56.537991 26934 net.cpp:124] Setting up conv5_1/3x3_dwconv/SE_fc1
I0917 10:56:56.538002 26934 net.cpp:131] Top shape: 25 15 1 1 (375)
I0917 10:56:56.538020 26934 net.cpp:139] Memory required for data: 1527011100
I0917 10:56:56.538024 26934 layer_factory.hpp:77] Creating layer conv5_1/3x3_dwconv/SE_fc1/relu
I0917 10:56:56.538031 26934 net.cpp:86] Creating Layer conv5_1/3x3_dwconv/SE_fc1/relu
I0917 10:56:56.538036 26934 net.cpp:408] conv5_1/3x3_dwconv/SE_fc1/relu <- conv5_1/3x3_dwconv/SE_fc1
I0917 10:56:56.538043 26934 net.cpp:369] conv5_1/3x3_dwconv/SE_fc1/relu -> conv5_1/3x3_dwconv/SE_fc1 (in-place)
I0917 10:56:56.538630 26934 net.cpp:124] Setting up conv5_1/3x3_dwconv/SE_fc1/relu
I0917 10:56:56.538640 26934 net.cpp:131] Top shape: 25 15 1 1 (375)
I0917 10:56:56.538658 26934 net.cpp:139] Memory required for data: 1527012600
I0917 10:56:56.538663 26934 layer_factory.hpp:77] Creating layer conv5_1/3x3_dwconv/SE_fc2
I0917 10:56:56.538673 26934 net.cpp:86] Creating Layer conv5_1/3x3_dwconv/SE_fc2
I0917 10:56:56.538676 26934 net.cpp:408] conv5_1/3x3_dwconv/SE_fc2 <- conv5_1/3x3_dwconv/SE_fc1
I0917 10:56:56.538684 26934 net.cpp:382] conv5_1/3x3_dwconv/SE_fc2 -> conv5_1/3x3_dwconv/SE_fc2
I0917 10:56:56.539116 26934 net.cpp:124] Setting up conv5_1/3x3_dwconv/SE_fc2
I0917 10:56:56.539126 26934 net.cpp:131] Top shape: 25 240 1 1 (6000)
I0917 10:56:56.539145 26934 net.cpp:139] Memory required for data: 1527036600
I0917 10:56:56.539150 26934 layer_factory.hpp:77] Creating layer conv5_1/3x3_dwconv/SE_weights
I0917 10:56:56.539155 26934 net.cpp:86] Creating Layer conv5_1/3x3_dwconv/SE_weights
I0917 10:56:56.539158 26934 net.cpp:408] conv5_1/3x3_dwconv/SE_weights <- conv5_1/3x3_dwconv/SE_fc2
I0917 10:56:56.539165 26934 net.cpp:369] conv5_1/3x3_dwconv/SE_weights -> conv5_1/3x3_dwconv/SE_fc2 (in-place)
I0917 10:56:56.539630 26934 net.cpp:124] Setting up conv5_1/3x3_dwconv/SE_weights
I0917 10:56:56.539639 26934 net.cpp:131] Top shape: 25 240 1 1 (6000)
I0917 10:56:56.539654 26934 net.cpp:139] Memory required for data: 1527060600
I0917 10:56:56.539656 26934 layer_factory.hpp:77] Creating layer conv5_1/3x3_dwconv/SE_weights/reshape
I0917 10:56:56.539664 26934 net.cpp:86] Creating Layer conv5_1/3x3_dwconv/SE_weights/reshape
I0917 10:56:56.539667 26934 net.cpp:408] conv5_1/3x3_dwconv/SE_weights/reshape <- conv5_1/3x3_dwconv/SE_fc2
I0917 10:56:56.539674 26934 net.cpp:382] conv5_1/3x3_dwconv/SE_weights/reshape -> conv5_1/3x3_dwconv/SE_weights/reshape
I0917 10:56:56.539705 26934 net.cpp:124] Setting up conv5_1/3x3_dwconv/SE_weights/reshape
I0917 10:56:56.539710 26934 net.cpp:131] Top shape: 25 240 (6000)
I0917 10:56:56.539713 26934 net.cpp:139] Memory required for data: 1527084600
I0917 10:56:56.539716 26934 layer_factory.hpp:77] Creating layer conv5_1/3x3_dwconv/scale
I0917 10:56:56.539723 26934 net.cpp:86] Creating Layer conv5_1/3x3_dwconv/scale
I0917 10:56:56.539726 26934 net.cpp:408] conv5_1/3x3_dwconv/scale <- conv5_1/3x3_dwconv/concat_conv5_1/3x3_dwconv/concat_fixed_point_0_split_1
I0917 10:56:56.539731 26934 net.cpp:408] conv5_1/3x3_dwconv/scale <- conv5_1/3x3_dwconv/SE_weights/reshape
I0917 10:56:56.539746 26934 net.cpp:382] conv5_1/3x3_dwconv/scale -> conv5_1/3x3_dwconv/scale
I0917 10:56:56.539824 26934 net.cpp:124] Setting up conv5_1/3x3_dwconv/scale
I0917 10:56:56.539830 26934 net.cpp:131] Top shape: 25 240 14 14 (1176000)
I0917 10:56:56.539834 26934 net.cpp:139] Memory required for data: 1531788600
I0917 10:56:56.539835 26934 layer_factory.hpp:77] Creating layer conv5_1/3x3_dwconv/scale_fixed_point
I0917 10:56:56.539842 26934 net.cpp:86] Creating Layer conv5_1/3x3_dwconv/scale_fixed_point
I0917 10:56:56.539845 26934 net.cpp:408] conv5_1/3x3_dwconv/scale_fixed_point <- conv5_1/3x3_dwconv/scale
I0917 10:56:56.539851 26934 net.cpp:369] conv5_1/3x3_dwconv/scale_fixed_point -> conv5_1/3x3_dwconv/scale (in-place)
I0917 10:56:56.539875 26934 net.cpp:124] Setting up conv5_1/3x3_dwconv/scale_fixed_point
I0917 10:56:56.539880 26934 net.cpp:131] Top shape: 25 240 14 14 (1176000)
I0917 10:56:56.539882 26934 net.cpp:139] Memory required for data: 1536492600
I0917 10:56:56.539886 26934 layer_factory.hpp:77] Creating layer conv5_1/1x1_decrease
I0917 10:56:56.539898 26934 net.cpp:86] Creating Layer conv5_1/1x1_decrease
I0917 10:56:56.539902 26934 net.cpp:408] conv5_1/1x1_decrease <- conv5_1/3x3_dwconv/scale
I0917 10:56:56.539908 26934 net.cpp:382] conv5_1/1x1_decrease -> conv5_1/1x1_decrease/bn
I0917 10:56:56.540860 26934 net.cpp:124] Setting up conv5_1/1x1_decrease
I0917 10:56:56.540870 26934 net.cpp:131] Top shape: 25 80 14 14 (392000)
I0917 10:56:56.540874 26934 net.cpp:139] Memory required for data: 1538060600
I0917 10:56:56.540891 26934 layer_factory.hpp:77] Creating layer conv5_1/elt_sum
I0917 10:56:56.540899 26934 net.cpp:86] Creating Layer conv5_1/elt_sum
I0917 10:56:56.540902 26934 net.cpp:408] conv5_1/elt_sum <- conv5_0/1x1_decrease/bn_conv5_0/1x1_decrease/bn_fixed_point_0_split_1
I0917 10:56:56.540906 26934 net.cpp:408] conv5_1/elt_sum <- conv5_1/1x1_decrease/bn
I0917 10:56:56.540911 26934 net.cpp:382] conv5_1/elt_sum -> conv5_1/elt_sum
I0917 10:56:56.540941 26934 net.cpp:124] Setting up conv5_1/elt_sum
I0917 10:56:56.540946 26934 net.cpp:131] Top shape: 25 80 14 14 (392000)
I0917 10:56:56.540949 26934 net.cpp:139] Memory required for data: 1539628600
I0917 10:56:56.540953 26934 layer_factory.hpp:77] Creating layer conv5_1/elt_sum_fixed_point
I0917 10:56:56.540961 26934 net.cpp:86] Creating Layer conv5_1/elt_sum_fixed_point
I0917 10:56:56.540963 26934 net.cpp:408] conv5_1/elt_sum_fixed_point <- conv5_1/elt_sum
I0917 10:56:56.540968 26934 net.cpp:369] conv5_1/elt_sum_fixed_point -> conv5_1/elt_sum (in-place)
I0917 10:56:56.540992 26934 net.cpp:124] Setting up conv5_1/elt_sum_fixed_point
I0917 10:56:56.540997 26934 net.cpp:131] Top shape: 25 80 14 14 (392000)
I0917 10:56:56.541000 26934 net.cpp:139] Memory required for data: 1541196600
I0917 10:56:56.541004 26934 layer_factory.hpp:77] Creating layer conv5_1/elt_sum_conv5_1/elt_sum_fixed_point_0_split
I0917 10:56:56.541010 26934 net.cpp:86] Creating Layer conv5_1/elt_sum_conv5_1/elt_sum_fixed_point_0_split
I0917 10:56:56.541013 26934 net.cpp:408] conv5_1/elt_sum_conv5_1/elt_sum_fixed_point_0_split <- conv5_1/elt_sum
I0917 10:56:56.541018 26934 net.cpp:382] conv5_1/elt_sum_conv5_1/elt_sum_fixed_point_0_split -> conv5_1/elt_sum_conv5_1/elt_sum_fixed_point_0_split_0
I0917 10:56:56.541025 26934 net.cpp:382] conv5_1/elt_sum_conv5_1/elt_sum_fixed_point_0_split -> conv5_1/elt_sum_conv5_1/elt_sum_fixed_point_0_split_1
I0917 10:56:56.541062 26934 net.cpp:124] Setting up conv5_1/elt_sum_conv5_1/elt_sum_fixed_point_0_split
I0917 10:56:56.541069 26934 net.cpp:131] Top shape: 25 80 14 14 (392000)
I0917 10:56:56.541072 26934 net.cpp:131] Top shape: 25 80 14 14 (392000)
I0917 10:56:56.541074 26934 net.cpp:139] Memory required for data: 1544332600
I0917 10:56:56.541079 26934 layer_factory.hpp:77] Creating layer conv5_2/1x1_increase
I0917 10:56:56.541090 26934 net.cpp:86] Creating Layer conv5_2/1x1_increase
I0917 10:56:56.541095 26934 net.cpp:408] conv5_2/1x1_increase <- conv5_1/elt_sum_conv5_1/elt_sum_fixed_point_0_split_0
I0917 10:56:56.541111 26934 net.cpp:382] conv5_2/1x1_increase -> conv5_2/1x1_increase/bn
I0917 10:56:56.542275 26934 net.cpp:124] Setting up conv5_2/1x1_increase
I0917 10:56:56.542287 26934 net.cpp:131] Top shape: 25 240 14 14 (1176000)
I0917 10:56:56.542302 26934 net.cpp:139] Memory required for data: 1549036600
I0917 10:56:56.542316 26934 layer_factory.hpp:77] Creating layer conv5_2/1x1_increase/hardswish
I0917 10:56:56.542323 26934 net.cpp:86] Creating Layer conv5_2/1x1_increase/hardswish
I0917 10:56:56.542327 26934 net.cpp:408] conv5_2/1x1_increase/hardswish <- conv5_2/1x1_increase/bn
I0917 10:56:56.542333 26934 net.cpp:369] conv5_2/1x1_increase/hardswish -> conv5_2/1x1_increase/bn (in-place)
I0917 10:56:56.542362 26934 net.cpp:124] Setting up conv5_2/1x1_increase/hardswish
I0917 10:56:56.542368 26934 net.cpp:131] Top shape: 25 240 14 14 (1176000)
I0917 10:56:56.542371 26934 net.cpp:139] Memory required for data: 1553740600
I0917 10:56:56.542376 26934 layer_factory.hpp:77] Creating layer conv5_2/1x1_increase/bn_fixed_point
I0917 10:56:56.542382 26934 net.cpp:86] Creating Layer conv5_2/1x1_increase/bn_fixed_point
I0917 10:56:56.542385 26934 net.cpp:408] conv5_2/1x1_increase/bn_fixed_point <- conv5_2/1x1_increase/bn
I0917 10:56:56.542392 26934 net.cpp:369] conv5_2/1x1_increase/bn_fixed_point -> conv5_2/1x1_increase/bn (in-place)
I0917 10:56:56.542416 26934 net.cpp:124] Setting up conv5_2/1x1_increase/bn_fixed_point
I0917 10:56:56.542423 26934 net.cpp:131] Top shape: 25 240 14 14 (1176000)
I0917 10:56:56.542424 26934 net.cpp:139] Memory required for data: 1558444600
I0917 10:56:56.542428 26934 layer_factory.hpp:77] Creating layer conv5_2/1x1_increase/slice
I0917 10:56:56.542435 26934 net.cpp:86] Creating Layer conv5_2/1x1_increase/slice
I0917 10:56:56.542438 26934 net.cpp:408] conv5_2/1x1_increase/slice <- conv5_2/1x1_increase/bn
I0917 10:56:56.542445 26934 net.cpp:382] conv5_2/1x1_increase/slice -> conv5_2/1x1_increase/split1
I0917 10:56:56.542451 26934 net.cpp:382] conv5_2/1x1_increase/slice -> conv5_2/1x1_increase/split2
I0917 10:56:56.542490 26934 net.cpp:124] Setting up conv5_2/1x1_increase/slice
I0917 10:56:56.542498 26934 net.cpp:131] Top shape: 25 120 14 14 (588000)
I0917 10:56:56.542502 26934 net.cpp:131] Top shape: 25 120 14 14 (588000)
I0917 10:56:56.542505 26934 net.cpp:139] Memory required for data: 1563148600
I0917 10:56:56.542507 26934 layer_factory.hpp:77] Creating layer conv5_2/3x3_dwconv/slice_0
…
I0917 10:56:56.630534 26934 layer_factory.hpp:77] Creating layer conv7_1/3x3_dwconv/slice_2
I0917 10:56:56.630545 26934 net.cpp:86] Creating Layer conv7_1/3x3_dwconv/slice_2
I0917 10:56:56.630549 26934 net.cpp:408] conv7_1/3x3_dwconv/slice_2 <- conv7_1/1x1_increase/split3
I0917 10:56:56.630556 26934 net.cpp:382] conv7_1/3x3_dwconv/slice_2 -> conv7_1/3x3_dwconv/slice_2/bn
I0917 10:56:56.631575 26934 net.cpp:124] Setting up conv7_1/3x3_dwconv/slice_2
I0917 10:56:56.631604 26934 net.cpp:131] Top shape: 25 192 7 7 (235200)
I0917 10:56:56.631608 26934 net.cpp:139] Memory required for data: 2261179400
I0917 10:56:56.631614 26934 layer_factory.hpp:77] Creating layer conv7_1/3x3_dwconv/slice_2/hardswish
I0917 10:56:56.631620 26934 net.cpp:86] Creating Layer conv7_1/3x3_dwconv/slice_2/hardswish
I0917 10:56:56.631624 26934 net.cpp:408] conv7_1/3x3_dwconv/slice_2/hardswish <- conv7_1/3x3_dwconv/slice_2/bn
I0917 10:56:56.631629 26934 net.cpp:369] conv7_1/3x3_dwconv/slice_2/hardswish -> conv7_1/3x3_dwconv/slice_2/bn (in-place)
I0917 10:56:56.631664 26934 net.cpp:124] Setting up conv7_1/3x3_dwconv/slice_2/hardswish
I0917 10:56:56.631669 26934 net.cpp:131] Top shape: 25 192 7 7 (235200)
I0917 10:56:56.631671 26934 net.cpp:139] Memory required for data: 2262120200
I0917 10:56:56.631675 26934 layer_factory.hpp:77] Creating layer conv7_1/3x3_dwconv/concat
I0917 10:56:56.631678 26934 net.cpp:86] Creating Layer conv7_1/3x3_dwconv/concat
I0917 10:56:56.631682 26934 net.cpp:408] conv7_1/3x3_dwconv/concat <- conv7_1/3x3_dwconv/slice_0/bn
I0917 10:56:56.631685 26934 net.cpp:408] conv7_1/3x3_dwconv/concat <- conv7_1/3x3_dwconv/slice_1/bn
I0917 10:56:56.631690 26934 net.cpp:408] conv7_1/3x3_dwconv/concat <- conv7_1/3x3_dwconv/slice_2/bn
I0917 10:56:56.631695 26934 net.cpp:382] conv7_1/3x3_dwconv/concat -> conv7_1/3x3_dwconv/concat
I0917 10:56:56.631721 26934 net.cpp:124] Setting up conv7_1/3x3_dwconv/concat
I0917 10:56:56.631726 26934 net.cpp:131] Top shape: 25 576 7 7 (705600)
I0917 10:56:56.631729 26934 net.cpp:139] Memory required for data: 2264942600
I0917 10:56:56.631731 26934 layer_factory.hpp:77] Creating layer conv7_1/3x3_dwconv/concat_fixed_point
I0917 10:56:56.631739 26934 net.cpp:86] Creating Layer conv7_1/3x3_dwconv/concat_fixed_point
I0917 10:56:56.631743 26934 net.cpp:408] conv7_1/3x3_dwconv/concat_fixed_point <- conv7_1/3x3_dwconv/concat
I0917 10:56:56.631749 26934 net.cpp:369] conv7_1/3x3_dwconv/concat_fixed_point -> conv7_1/3x3_dwconv/concat (in-place)
I0917 10:56:56.631774 26934 net.cpp:124] Setting up conv7_1/3x3_dwconv/concat_fixed_point
I0917 10:56:56.631789 26934 net.cpp:131] Top shape: 25 576 7 7 (705600)
I0917 10:56:56.631793 26934 net.cpp:139] Memory required for data: 2267765000
I0917 10:56:56.631796 26934 layer_factory.hpp:77] Creating layer conv7_1/3x3_dwconv/concat_conv7_1/3x3_dwconv/concat_fixed_point_0_split
I0917 10:56:56.631803 26934 net.cpp:86] Creating Layer conv7_1/3x3_dwconv/concat_conv7_1/3x3_dwconv/concat_fixed_point_0_split
I0917 10:56:56.631809 26934 net.cpp:408] conv7_1/3x3_dwconv/concat_conv7_1/3x3_dwconv/concat_fixed_point_0_split <- conv7_1/3x3_dwconv/concat
I0917 10:56:56.631816 26934 net.cpp:382] conv7_1/3x3_dwconv/concat_conv7_1/3x3_dwconv/concat_fixed_point_0_split -> conv7_1/3x3_dwconv/concat_conv7_1/3x3_dwconv/concat_fixed_point_0_split_0
I0917 10:56:56.631822 26934 net.cpp:382] conv7_1/3x3_dwconv/concat_conv7_1/3x3_dwconv/concat_fixed_point_0_split -> conv7_1/3x3_dwconv/concat_conv7_1/3x3_dwconv/concat_fixed_point_0_split_1
I0917 10:56:56.631883 26934 net.cpp:124] Setting up conv7_1/3x3_dwconv/concat_conv7_1/3x3_dwconv/concat_fixed_point_0_split
I0917 10:56:56.631889 26934 net.cpp:131] Top shape: 25 576 7 7 (705600)
I0917 10:56:56.631892 26934 net.cpp:131] Top shape: 25 576 7 7 (705600)
I0917 10:56:56.631894 26934 net.cpp:139] Memory required for data: 2273409800
I0917 10:56:56.631897 26934 layer_factory.hpp:77] Creating layer conv7_1/3x3_dwconv/SE_global_pool
I0917 10:56:56.631902 26934 net.cpp:86] Creating Layer conv7_1/3x3_dwconv/SE_global_pool
I0917 10:56:56.631906 26934 net.cpp:408] conv7_1/3x3_dwconv/SE_global_pool <- conv7_1/3x3_dwconv/concat_conv7_1/3x3_dwconv/concat_fixed_point_0_split_0
I0917 10:56:56.631912 26934 net.cpp:382] conv7_1/3x3_dwconv/SE_global_pool -> conv7_1/3x3_dwconv/SE_global_pool
I0917 10:56:56.631937 26934 net.cpp:124] Setting up conv7_1/3x3_dwconv/SE_global_pool
I0917 10:56:56.631942 26934 net.cpp:131] Top shape: 25 576 1 1 (14400)
I0917 10:56:56.631944 26934 net.cpp:139] Memory required for data: 2273467400
I0917 10:56:56.631947 26934 layer_factory.hpp:77] Creating layer conv7_1/3x3_dwconv/SE_bn
I0917 10:56:56.631954 26934 net.cpp:86] Creating Layer conv7_1/3x3_dwconv/SE_bn
I0917 10:56:56.631958 26934 net.cpp:408] conv7_1/3x3_dwconv/SE_bn <- conv7_1/3x3_dwconv/SE_global_pool
I0917 10:56:56.631964 26934 net.cpp:382] conv7_1/3x3_dwconv/SE_bn -> conv7_1/3x3_dwconv/SE_bn
I0917 10:56:56.632014 26934 layer_factory.hpp:77] Creating layer conv7_1/3x3_dwconv/SE_bn
I0917 10:56:56.632136 26934 net.cpp:124] Setting up conv7_1/3x3_dwconv/SE_bn
I0917 10:56:56.632143 26934 net.cpp:131] Top shape: 25 576 1 1 (14400)
I0917 10:56:56.632146 26934 net.cpp:139] Memory required for data: 2273525000
I0917 10:56:56.632151 26934 layer_factory.hpp:77] Creating layer conv7_1/3x3_dwconv/SE_fc1
I0917 10:56:56.632159 26934 net.cpp:86] Creating Layer conv7_1/3x3_dwconv/SE_fc1
I0917 10:56:56.632164 26934 net.cpp:408] conv7_1/3x3_dwconv/SE_fc1 <- conv7_1/3x3_dwconv/SE_bn
I0917 10:56:56.632169 26934 net.cpp:382] conv7_1/3x3_dwconv/SE_fc1 -> conv7_1/3x3_dwconv/SE_fc1
I0917 10:56:56.633046 26934 net.cpp:124] Setting up conv7_1/3x3_dwconv/SE_fc1
I0917 10:56:56.633057 26934 net.cpp:131] Top shape: 25 36 1 1 (900)
I0917 10:56:56.633060 26934 net.cpp:139] Memory required for data: 2273528600
I0917 10:56:56.633065 26934 layer_factory.hpp:77] Creating layer conv7_1/3x3_dwconv/SE_fc1/relu
I0917 10:56:56.633072 26934 net.cpp:86] Creating Layer conv7_1/3x3_dwconv/SE_fc1/relu
I0917 10:56:56.633076 26934 net.cpp:408] conv7_1/3x3_dwconv/SE_fc1/relu <- conv7_1/3x3_dwconv/SE_fc1
I0917 10:56:56.633081 26934 net.cpp:369] conv7_1/3x3_dwconv/SE_fc1/relu -> conv7_1/3x3_dwconv/SE_fc1 (in-place)
I0917 10:56:56.633751 26934 net.cpp:124] Setting up conv7_1/3x3_dwconv/SE_fc1/relu
I0917 10:56:56.633777 26934 net.cpp:131] Top shape: 25 36 1 1 (900)
I0917 10:56:56.633780 26934 net.cpp:139] Memory required for data: 2273532200
I0917 10:56:56.633795 26934 layer_factory.hpp:77] Creating layer conv7_1/3x3_dwconv/SE_fc2
I0917 10:56:56.633810 26934 net.cpp:86] Creating Layer conv7_1/3x3_dwconv/SE_fc2
I0917 10:56:56.633826 26934 net.cpp:408] conv7_1/3x3_dwconv/SE_fc2 <- conv7_1/3x3_dwconv/SE_fc1
I0917 10:56:56.633831 26934 net.cpp:382] conv7_1/3x3_dwconv/SE_fc2 -> conv7_1/3x3_dwconv/SE_fc2
I0917 10:56:56.634799 26934 net.cpp:124] Setting up conv7_1/3x3_dwconv/SE_fc2
I0917 10:56:56.634829 26934 net.cpp:131] Top shape: 25 576 1 1 (14400)
I0917 10:56:56.634833 26934 net.cpp:139] Memory required for data: 2273589800
I0917 10:56:56.634838 26934 layer_factory.hpp:77] Creating layer conv7_1/3x3_dwconv/SE_weights
I0917 10:56:56.634845 26934 net.cpp:86] Creating Layer conv7_1/3x3_dwconv/SE_weights
I0917 10:56:56.634850 26934 net.cpp:408] conv7_1/3x3_dwconv/SE_weights <- conv7_1/3x3_dwconv/SE_fc2
I0917 10:56:56.634855 26934 net.cpp:369] conv7_1/3x3_dwconv/SE_weights -> conv7_1/3x3_dwconv/SE_fc2 (in-place)
I0917 10:56:56.635473 26934 net.cpp:124] Setting up conv7_1/3x3_dwconv/SE_weights
I0917 10:56:56.635483 26934 net.cpp:131] Top shape: 25 576 1 1 (14400)
I0917 10:56:56.635485 26934 net.cpp:139] Memory required for data: 2273647400
I0917 10:56:56.635488 26934 layer_factory.hpp:77] Creating layer conv7_1/3x3_dwconv/SE_weights/reshape
I0917 10:56:56.635494 26934 net.cpp:86] Creating Layer conv7_1/3x3_dwconv/SE_weights/reshape
I0917 10:56:56.635499 26934 net.cpp:408] conv7_1/3x3_dwconv/SE_weights/reshape <- conv7_1/3x3_dwconv/SE_fc2
I0917 10:56:56.635504 26934 net.cpp:382] conv7_1/3x3_dwconv/SE_weights/reshape -> conv7_1/3x3_dwconv/SE_weights/reshape
I0917 10:56:56.635540 26934 net.cpp:124] Setting up conv7_1/3x3_dwconv/SE_weights/reshape
I0917 10:56:56.635545 26934 net.cpp:131] Top shape: 25 576 (14400)
I0917 10:56:56.635547 26934 net.cpp:139] Memory required for data: 2273705000
I0917 10:56:56.635550 26934 layer_factory.hpp:77] Creating layer conv7_1/3x3_dwconv/scale
I0917 10:56:56.635557 26934 net.cpp:86] Creating Layer conv7_1/3x3_dwconv/scale
I0917 10:56:56.635561 26934 net.cpp:408] conv7_1/3x3_dwconv/scale <- conv7_1/3x3_dwconv/concat_conv7_1/3x3_dwconv/concat_fixed_point_0_split_1
I0917 10:56:56.635565 26934 net.cpp:408] conv7_1/3x3_dwconv/scale <- conv7_1/3x3_dwconv/SE_weights/reshape
I0917 10:56:56.635571 26934 net.cpp:382] conv7_1/3x3_dwconv/scale -> conv7_1/3x3_dwconv/scale
I0917 10:56:56.635650 26934 net.cpp:124] Setting up conv7_1/3x3_dwconv/scale
I0917 10:56:56.635669 26934 net.cpp:131] Top shape: 25 576 7 7 (705600)
I0917 10:56:56.635673 26934 net.cpp:139] Memory required for data: 2276527400
I0917 10:56:56.635674 26934 layer_factory.hpp:77] Creating layer conv7_1/3x3_dwconv/scale_fixed_point
I0917 10:56:56.635681 26934 net.cpp:86] Creating Layer conv7_1/3x3_dwconv/scale_fixed_point
I0917 10:56:56.635684 26934 net.cpp:408] conv7_1/3x3_dwconv/scale_fixed_point <- conv7_1/3x3_dwconv/scale
I0917 10:56:56.635690 26934 net.cpp:369] conv7_1/3x3_dwconv/scale_fixed_point -> conv7_1/3x3_dwconv/scale (in-place)
I0917 10:56:56.635731 26934 net.cpp:124] Setting up conv7_1/3x3_dwconv/scale_fixed_point
I0917 10:56:56.635737 26934 net.cpp:131] Top shape: 25 576 7 7 (705600)
I0917 10:56:56.635740 26934 net.cpp:139] Memory required for data: 2279349800
I0917 10:56:56.635744 26934 layer_factory.hpp:77] Creating layer conv7_1/1x1_decrease
I0917 10:56:56.635753 26934 net.cpp:86] Creating Layer conv7_1/1x1_decrease
I0917 10:56:56.635756 26934 net.cpp:408] conv7_1/1x1_decrease <- conv7_1/3x3_dwconv/scale
I0917 10:56:56.635761 26934 net.cpp:382] conv7_1/1x1_decrease -> conv7_1/1x1_decrease/bn
I0917 10:56:56.639251 26934 net.cpp:124] Setting up conv7_1/1x1_decrease
I0917 10:56:56.639263 26934 net.cpp:131] Top shape: 25 192 7 7 (235200)
I0917 10:56:56.639277 26934 net.cpp:139] Memory required for data: 2280290600
I0917 10:56:56.639283 26934 layer_factory.hpp:77] Creating layer conv7_1/elt_sum
I0917 10:56:56.639292 26934 net.cpp:86] Creating Layer conv7_1/elt_sum
I0917 10:56:56.639297 26934 net.cpp:408] conv7_1/elt_sum <- conv7_0/1x1_decrease/bn_conv7_0/1x1_decrease/bn_fixed_point_0_split_1
I0917 10:56:56.639300 26934 net.cpp:408] conv7_1/elt_sum <- conv7_1/1x1_decrease/bn
I0917 10:56:56.639319 26934 net.cpp:382] conv7_1/elt_sum -> conv7_1/elt_sum
I0917 10:56:56.639374 26934 net.cpp:124] Setting up conv7_1/elt_sum
I0917 10:56:56.639379 26934 net.cpp:131] Top shape: 25 192 7 7 (235200)
I0917 10:56:56.639381 26934 net.cpp:139] Memory required for data: 2281231400
I0917 10:56:56.639385 26934 layer_factory.hpp:77] Creating layer conv7_1/elt_sum_fixed_point
I0917 10:56:56.639391 26934 net.cpp:86] Creating Layer conv7_1/elt_sum_fixed_point
I0917 10:56:56.639394 26934 net.cpp:408] conv7_1/elt_sum_fixed_point <- conv7_1/elt_sum
I0917 10:56:56.639400 26934 net.cpp:369] conv7_1/elt_sum_fixed_point -> conv7_1/elt_sum (in-place)
I0917 10:56:56.639430 26934 net.cpp:124] Setting up conv7_1/elt_sum_fixed_point
I0917 10:56:56.639436 26934 net.cpp:131] Top shape: 25 192 7 7 (235200)
I0917 10:56:56.639437 26934 net.cpp:139] Memory required for data: 2282172200
I0917 10:56:56.639441 26934 layer_factory.hpp:77] Creating layer conv7_1/elt_sum_conv7_1/elt_sum_fixed_point_0_split
I0917 10:56:56.639446 26934 net.cpp:86] Creating Layer conv7_1/elt_sum_conv7_1/elt_sum_fixed_point_0_split
I0917 10:56:56.639449 26934 net.cpp:408] conv7_1/elt_sum_conv7_1/elt_sum_fixed_point_0_split <- conv7_1/elt_sum
I0917 10:56:56.639453 26934 net.cpp:382] conv7_1/elt_sum_conv7_1/elt_sum_fixed_point_0_split -> conv7_1/elt_sum_conv7_1/elt_sum_fixed_point_0_split_0
I0917 10:56:56.639461 26934 net.cpp:382] conv7_1/elt_sum_conv7_1/elt_sum_fixed_point_0_split -> conv7_1/elt_sum_conv7_1/elt_sum_fixed_point_0_split_1
I0917 10:56:56.639503 26934 net.cpp:124] Setting up conv7_1/elt_sum_conv7_1/elt_sum_fixed_point_0_split
I0917 10:56:56.639508 26934 net.cpp:131] Top shape: 25 192 7 7 (235200)
I0917 10:56:56.639513 26934 net.cpp:131] Top shape: 25 192 7 7 (235200)
I0917 10:56:56.639514 26934 net.cpp:139] Memory required for data: 2284053800
I0917 10:56:56.639518 26934 layer_factory.hpp:77] Creating layer conv7_2/1x1_increase
I0917 10:56:56.639528 26934 net.cpp:86] Creating Layer conv7_2/1x1_increase
I0917 10:56:56.639533 26934 net.cpp:408] conv7_2/1x1_increase <- conv7_1/elt_sum_conv7_1/elt_sum_fixed_point_0_split_0
I0917 10:56:56.639539 26934 net.cpp:382] conv7_2/1x1_increase -> conv7_2/1x1_increase/bn
I0917 10:56:56.642894 26934 net.cpp:124] Setting up conv7_2/1x1_increase
I0917 10:56:56.642904 26934 net.cpp:131] Top shape: 25 576 7 7 (705600)
I0917 10:56:56.642907 26934 net.cpp:139] Memory required for data: 2286876200
I0917 10:56:56.642930 26934 layer_factory.hpp:77] Creating layer conv7_2/1x1_increase/hardswish
I0917 10:56:56.642937 26934 net.cpp:86] Creating Layer conv7_2/1x1_increase/hardswish
I0917 10:56:56.642942 26934 net.cpp:408] conv7_2/1x1_increase/hardswish <- conv7_2/1x1_increase/bn
I0917 10:56:56.642946 26934 net.cpp:369] conv7_2/1x1_increase/hardswish -> conv7_2/1x1_increase/bn (in-place)
I0917 10:56:56.642995 26934 net.cpp:124] Setting up conv7_2/1x1_increase/hardswish
I0917 10:56:56.643002 26934 net.cpp:131] Top shape: 25 576 7 7 (705600)
I0917 10:56:56.643003 26934 net.cpp:139] Memory required for data: 2289698600
I0917 10:56:56.643007 26934 layer_factory.hpp:77] Creating layer conv7_2/1x1_increase/bn_fixed_point
I0917 10:56:56.643013 26934 net.cpp:86] Creating Layer conv7_2/1x1_increase/bn_fixed_point
I0917 10:56:56.643015 26934 net.cpp:408] conv7_2/1x1_increase/bn_fixed_point <- conv7_2/1x1_increase/bn
I0917 10:56:56.643021 26934 net.cpp:369] conv7_2/1x1_increase/bn_fixed_point -> conv7_2/1x1_increase/bn (in-place)
I0917 10:56:56.643050 26934 net.cpp:124] Setting up conv7_2/1x1_increase/bn_fixed_point
I0917 10:56:56.643055 26934 net.cpp:131] Top shape: 25 576 7 7 (705600)
I0917 10:56:56.643057 26934 net.cpp:139] Memory required for data: 2292521000
I0917 10:56:56.643061 26934 layer_factory.hpp:77] Creating layer conv7_2/1x1_increase/slice
I0917 10:56:56.643066 26934 net.cpp:86] Creating Layer conv7_2/1x1_increase/slice
I0917 10:56:56.643069 26934 net.cpp:408] conv7_2/1x1_increase/slice <- conv7_2/1x1_increase/bn
I0917 10:56:56.643074 26934 net.cpp:382] conv7_2/1x1_increase/slice -> conv7_2/1x1_increase/split1
I0917 10:56:56.643081 26934 net.cpp:382] conv7_2/1x1_increase/slice -> conv7_2/1x1_increase/split2
I0917 10:56:56.643097 26934 net.cpp:382] conv7_2/1x1_increase/slice -> conv7_2/1x1_increase/split3
I0917 10:56:56.643172 26934 net.cpp:124] Setting up conv7_2/1x1_increase/slice
I0917 10:56:56.643179 26934 net.cpp:131] Top shape: 25 192 7 7 (235200)
I0917 10:56:56.643183 26934 net.cpp:131] Top shape: 25 192 7 7 (235200)
I0917 10:56:56.643187 26934 net.cpp:131] Top shape: 25 192 7 7 (235200)
I0917 10:56:56.643188 26934 net.cpp:139] Memory required for data: 2295343400
I0917 10:56:56.643190 26934 layer_factory.hpp:77] Creating layer conv7_2/3x3_dwconv/slice_0
I0917 10:56:56.643199 26934 net.cpp:86] Creating Layer conv7_2/3x3_dwconv/slice_0
I0917 10:56:56.643203 26934 net.cpp:408] conv7_2/3x3_dwconv/slice_0 <- conv7_2/1x1_increase/split1
I0917 10:56:56.643210 26934 net.cpp:382] conv7_2/3x3_dwconv/slice_0 -> conv7_2/3x3_dwconv/slice_0/bn
I0917 10:56:56.643765 26934 net.cpp:124] Setting up conv7_2/3x3_dwconv/slice_0
I0917 10:56:56.643774 26934 net.cpp:131] Top shape: 25 192 7 7 (235200)
I0917 10:56:56.643793 26934 net.cpp:139] Memory required for data: 2296284200
I0917 10:56:56.643800 26934 layer_factory.hpp:77] Creating layer conv7_2/3x3_dwconv/slice_0/hardswish
I0917 10:56:56.643810 26934 net.cpp:86] Creating Layer conv7_2/3x3_dwconv/slice_0/hardswish
I0917 10:56:56.643813 26934 net.cpp:408] conv7_2/3x3_dwconv/slice_0/hardswish <- conv7_2/3x3_dwconv/slice_0/bn
I0917 10:56:56.643818 26934 net.cpp:369] conv7_2/3x3_dwconv/slice_0/hardswish -> conv7_2/3x3_dwconv/slice_0/bn (in-place)
I0917 10:56:56.643851 26934 net.cpp:124] Setting up conv7_2/3x3_dwconv/slice_0/hardswish
I0917 10:56:56.643857 26934 net.cpp:131] Top shape: 25 192 7 7 (235200)
I0917 10:56:56.643859 26934 net.cpp:139] Memory required for data: 2297225000
I0917 10:56:56.643862 26934 layer_factory.hpp:77] Creating layer conv7_2/3x3_dwconv/slice_1
I0917 10:56:56.643872 26934 net.cpp:86] Creating Layer conv7_2/3x3_dwconv/slice_1
I0917 10:56:56.643874 26934 net.cpp:408] conv7_2/3x3_dwconv/slice_1 <- conv7_2/1x1_increase/split2
I0917 10:56:56.643882 26934 net.cpp:382] conv7_2/3x3_dwconv/slice_1 -> conv7_2/3x3_dwconv/slice_1/bn
I0917 10:56:56.644546 26934 net.cpp:124] Setting up conv7_2/3x3_dwconv/slice_1
I0917 10:56:56.644557 26934 net.cpp:131] Top shape: 25 192 7 7 (235200)
I0917 10:56:56.644572 26934 net.cpp:139] Memory required for data: 2298165800
I0917 10:56:56.644577 26934 layer_factory.hpp:77] Creating layer conv7_2/3x3_dwconv/slice_1/hardswish
I0917 10:56:56.644584 26934 net.cpp:86] Creating Layer conv7_2/3x3_dwconv/slice_1/hardswish
I0917 10:56:56.644587 26934 net.cpp:408] conv7_2/3x3_dwconv/slice_1/hardswish <- conv7_2/3x3_dwconv/slice_1/bn
I0917 10:56:56.644593 26934 net.cpp:369] conv7_2/3x3_dwconv/slice_1/hardswish -> conv7_2/3x3_dwconv/slice_1/bn (in-place)
I0917 10:56:56.644625 26934 net.cpp:124] Setting up conv7_2/3x3_dwconv/slice_1/hardswish
I0917 10:56:56.644630 26934 net.cpp:131] Top shape: 25 192 7 7 (235200)
I0917 10:56:56.644634 26934 net.cpp:139] Memory required for data: 2299106600
I0917 10:56:56.644636 26934 layer_factory.hpp:77] Creating layer conv7_2/3x3_dwconv/slice_2
I0917 10:56:56.644646 26934 net.cpp:86] Creating Layer conv7_2/3x3_dwconv/slice_2
I0917 10:56:56.644650 26934 net.cpp:408] conv7_2/3x3_dwconv/slice_2 <- conv7_2/1x1_increase/split3
I0917 10:56:56.644657 26934 net.cpp:382] conv7_2/3x3_dwconv/slice_2 -> conv7_2/3x3_dwconv/slice_2/bn
I0917 10:56:56.645673 26934 net.cpp:124] Setting up conv7_2/3x3_dwconv/slice_2
I0917 10:56:56.645684 26934 net.cpp:131] Top shape: 25 192 7 7 (235200)
I0917 10:56:56.645699 26934 net.cpp:139] Memory required for data: 2300047400
I0917 10:56:56.645704 26934 layer_factory.hpp:77] Creating layer conv7_2/3x3_dwconv/slice_2/hardswish
I0917 10:56:56.645712 26934 net.cpp:86] Creating Layer conv7_2/3x3_dwconv/slice_2/hardswish
I0917 10:56:56.645715 26934 net.cpp:408] conv7_2/3x3_dwconv/slice_2/hardswish <- conv7_2/3x3_dwconv/slice_2/bn
I0917 10:56:56.645720 26934 net.cpp:369] conv7_2/3x3_dwconv/slice_2/hardswish -> conv7_2/3x3_dwconv/slice_2/bn (in-place)
I0917 10:56:56.645754 26934 net.cpp:124] Setting up conv7_2/3x3_dwconv/slice_2/hardswish
I0917 10:56:56.645771 26934 net.cpp:131] Top shape: 25 192 7 7 (235200)
I0917 10:56:56.645773 26934 net.cpp:139] Memory required for data: 2300988200
I0917 10:56:56.645776 26934 layer_factory.hpp:77] Creating layer conv7_2/3x3_dwconv/concat
I0917 10:56:56.645781 26934 net.cpp:86] Creating Layer conv7_2/3x3_dwconv/concat
I0917 10:56:56.645786 26934 net.cpp:408] conv7_2/3x3_dwconv/concat <- conv7_2/3x3_dwconv/slice_0/bn
I0917 10:56:56.645789 26934 net.cpp:408] conv7_2/3x3_dwconv/concat <- conv7_2/3x3_dwconv/slice_1/bn
I0917 10:56:56.645792 26934 net.cpp:408] conv7_2/3x3_dwconv/concat <- conv7_2/3x3_dwconv/slice_2/bn
I0917 10:56:56.645799 26934 net.cpp:382] conv7_2/3x3_dwconv/concat -> conv7_2/3x3_dwconv/concat
I0917 10:56:56.645833 26934 net.cpp:124] Setting up conv7_2/3x3_dwconv/concat
I0917 10:56:56.645840 26934 net.cpp:131] Top shape: 25 576 7 7 (705600)
I0917 10:56:56.645843 26934 net.cpp:139] Memory required for data: 2303810600
I0917 10:56:56.645845 26934 layer_factory.hpp:77] Creating layer conv7_2/3x3_dwconv/concat_fixed_point
I0917 10:56:56.645851 26934 net.cpp:86] Creating Layer conv7_2/3x3_dwconv/concat_fixed_point
I0917 10:56:56.645854 26934 net.cpp:408] conv7_2/3x3_dwconv/concat_fixed_point <- conv7_2/3x3_dwconv/concat
I0917 10:56:56.645859 26934 net.cpp:369] conv7_2/3x3_dwconv/concat_fixed_point -> conv7_2/3x3_dwconv/concat (in-place)
I0917 10:56:56.645886 26934 net.cpp:124] Setting up conv7_2/3x3_dwconv/concat_fixed_point
I0917 10:56:56.645891 26934 net.cpp:131] Top shape: 25 576 7 7 (705600)
I0917 10:56:56.645893 26934 net.cpp:139] Memory required for data: 2306633000
I0917 10:56:56.645898 26934 layer_factory.hpp:77] Creating layer conv7_2/3x3_dwconv/concat_conv7_2/3x3_dwconv/concat_fixed_point_0_split
I0917 10:56:56.645905 26934 net.cpp:86] Creating Layer conv7_2/3x3_dwconv/concat_conv7_2/3x3_dwconv/concat_fixed_point_0_split
I0917 10:56:56.645908 26934 net.cpp:408] conv7_2/3x3_dwconv/concat_conv7_2/3x3_dwconv/concat_fixed_point_0_split <- conv7_2/3x3_dwconv/concat
I0917 10:56:56.645912 26934 net.cpp:382] conv7_2/3x3_dwconv/concat_conv7_2/3x3_dwconv/concat_fixed_point_0_split -> conv7_2/3x3_dwconv/concat_conv7_2/3x3_dwconv/concat_fixed_point_0_split_0
I0917 10:56:56.645917 26934 net.cpp:382] conv7_2/3x3_dwconv/concat_conv7_2/3x3_dwconv/concat_fixed_point_0_split -> conv7_2/3x3_dwconv/concat_conv7_2/3x3_dwconv/concat_fixed_point_0_split_1
I0917 10:56:56.645974 26934 net.cpp:124] Setting up conv7_2/3x3_dwconv/concat_conv7_2/3x3_dwconv/concat_fixed_point_0_split
I0917 10:56:56.645979 26934 net.cpp:131] Top shape: 25 576 7 7 (705600)
I0917 10:56:56.645982 26934 net.cpp:131] Top shape: 25 576 7 7 (705600)
I0917 10:56:56.645985 26934 net.cpp:139] Memory required for data: 2312277800
I0917 10:56:56.645987 26934 layer_factory.hpp:77] Creating layer conv7_2/3x3_dwconv/SE_global_pool
I0917 10:56:56.645992 26934 net.cpp:86] Creating Layer conv7_2/3x3_dwconv/SE_global_pool
I0917 10:56:56.645995 26934 net.cpp:408] conv7_2/3x3_dwconv/SE_global_pool <- conv7_2/3x3_dwconv/concat_conv7_2/3x3_dwconv/concat_fixed_point_0_split_0
I0917 10:56:56.646001 26934 net.cpp:382] conv7_2/3x3_dwconv/SE_global_pool -> conv7_2/3x3_dwconv/SE_global_pool
I0917 10:56:56.646029 26934 net.cpp:124] Setting up conv7_2/3x3_dwconv/SE_global_pool
I0917 10:56:56.646034 26934 net.cpp:131] Top shape: 25 576 1 1 (14400)
I0917 10:56:56.646036 26934 net.cpp:139] Memory required for data: 2312335400
I0917 10:56:56.646039 26934 layer_factory.hpp:77] Creating layer conv7_2/3x3_dwconv/SE_bn
I0917 10:56:56.646045 26934 net.cpp:86] Creating Layer conv7_2/3x3_dwconv/SE_bn
I0917 10:56:56.646049 26934 net.cpp:408] conv7_2/3x3_dwconv/SE_bn <- conv7_2/3x3_dwconv/SE_global_pool
I0917 10:56:56.646054 26934 net.cpp:382] conv7_2/3x3_dwconv/SE_bn -> conv7_2/3x3_dwconv/SE_bn
I0917 10:56:56.646102 26934 layer_factory.hpp:77] Creating layer conv7_2/3x3_dwconv/SE_bn
I0917 10:56:56.646231 26934 net.cpp:124] Setting up conv7_2/3x3_dwconv/SE_bn
I0917 10:56:56.646239 26934 net.cpp:131] Top shape: 25 576 1 1 (14400)
I0917 10:56:56.646250 26934 net.cpp:139] Memory required for data: 2312393000
I0917 10:56:56.646255 26934 layer_factory.hpp:77] Creating layer conv7_2/3x3_dwconv/SE_fc1
I0917 10:56:56.646265 26934 net.cpp:86] Creating Layer conv7_2/3x3_dwconv/SE_fc1
I0917 10:56:56.646268 26934 net.cpp:408] conv7_2/3x3_dwconv/SE_fc1 <- conv7_2/3x3_dwconv/SE_bn
I0917 10:56:56.646275 26934 net.cpp:382] conv7_2/3x3_dwconv/SE_fc1 -> conv7_2/3x3_dwconv/SE_fc1
I0917 10:56:56.647119 26934 net.cpp:124] Setting up conv7_2/3x3_dwconv/SE_fc1
I0917 10:56:56.647130 26934 net.cpp:131] Top shape: 25 36 1 1 (900)
I0917 10:56:56.647133 26934 net.cpp:139] Memory required for data: 2312396600
I0917 10:56:56.647137 26934 layer_factory.hpp:77] Creating layer conv7_2/3x3_dwconv/SE_fc1/relu
I0917 10:56:56.647143 26934 net.cpp:86] Creating Layer conv7_2/3x3_dwconv/SE_fc1/relu
I0917 10:56:56.647147 26934 net.cpp:408] conv7_2/3x3_dwconv/SE_fc1/relu <- conv7_2/3x3_dwconv/SE_fc1
I0917 10:56:56.647151 26934 net.cpp:369] conv7_2/3x3_dwconv/SE_fc1/relu -> conv7_2/3x3_dwconv/SE_fc1 (in-place)
I0917 10:56:56.647716 26934 net.cpp:124] Setting up conv7_2/3x3_dwconv/SE_fc1/relu
I0917 10:56:56.647727 26934 net.cpp:131] Top shape: 25 36 1 1 (900)
I0917 10:56:56.647744 26934 net.cpp:139] Memory required for data: 2312400200
I0917 10:56:56.647748 26934 layer_factory.hpp:77] Creating layer conv7_2/3x3_dwconv/SE_fc2
I0917 10:56:56.647758 26934 net.cpp:86] Creating Layer conv7_2/3x3_dwconv/SE_fc2
I0917 10:56:56.647763 26934 net.cpp:408] conv7_2/3x3_dwconv/SE_fc2 <- conv7_2/3x3_dwconv/SE_fc1
I0917 10:56:56.647770 26934 net.cpp:382] conv7_2/3x3_dwconv/SE_fc2 -> conv7_2/3x3_dwconv/SE_fc2
I0917 10:56:56.648752 26934 net.cpp:124] Setting up conv7_2/3x3_dwconv/SE_fc2
I0917 10:56:56.648763 26934 net.cpp:131] Top shape: 25 576 1 1 (14400)
I0917 10:56:56.648766 26934 net.cpp:139] Memory required for data: 2312457800
I0917 10:56:56.648772 26934 layer_factory.hpp:77] Creating layer conv7_2/3x3_dwconv/SE_weights
I0917 10:56:56.648777 26934 net.cpp:86] Creating Layer conv7_2/3x3_dwconv/SE_weights
I0917 10:56:56.648782 26934 net.cpp:408] conv7_2/3x3_dwconv/SE_weights <- conv7_2/3x3_dwconv/SE_fc2
I0917 10:56:56.648785 26934 net.cpp:369] conv7_2/3x3_dwconv/SE_weights -> conv7_2/3x3_dwconv/SE_fc2 (in-place)
I0917 10:56:56.649520 26934 net.cpp:124] Setting up conv7_2/3x3_dwconv/SE_weights
I0917 10:56:56.649533 26934 net.cpp:131] Top shape: 25 576 1 1 (14400)
I0917 10:56:56.649536 26934 net.cpp:139] Memory required for data: 2312515400
I0917 10:56:56.649540 26934 layer_factory.hpp:77] Creating layer conv7_2/3x3_dwconv/SE_weights/reshape
I0917 10:56:56.649549 26934 net.cpp:86] Creating Layer conv7_2/3x3_dwconv/SE_weights/reshape
I0917 10:56:56.649552 26934 net.cpp:408] conv7_2/3x3_dwconv/SE_weights/reshape <- conv7_2/3x3_dwconv/SE_fc2
I0917 10:56:56.649559 26934 net.cpp:382] conv7_2/3x3_dwconv/SE_weights/reshape -> conv7_2/3x3_dwconv/SE_weights/reshape
I0917 10:56:56.649595 26934 net.cpp:124] Setting up conv7_2/3x3_dwconv/SE_weights/reshape
I0917 10:56:56.649601 26934 net.cpp:131] Top shape: 25 576 (14400)
I0917 10:56:56.649605 26934 net.cpp:139] Memory required for data: 2312573000
I0917 10:56:56.649607 26934 layer_factory.hpp:77] Creating layer conv7_2/3x3_dwconv/scale
I0917 10:56:56.649613 26934 net.cpp:86] Creating Layer conv7_2/3x3_dwconv/scale
I0917 10:56:56.649617 26934 net.cpp:408] conv7_2/3x3_dwconv/scale <- conv7_2/3x3_dwconv/concat_conv7_2/3x3_dwconv/concat_fixed_point_0_split_1
I0917 10:56:56.649621 26934 net.cpp:408] conv7_2/3x3_dwconv/scale <- conv7_2/3x3_dwconv/SE_weights/reshape
I0917 10:56:56.649629 26934 net.cpp:382] conv7_2/3x3_dwconv/scale -> conv7_2/3x3_dwconv/scale
I0917 10:56:56.649706 26934 net.cpp:124] Setting up conv7_2/3x3_dwconv/scale
I0917 10:56:56.649713 26934 net.cpp:131] Top shape: 25 576 7 7 (705600)
I0917 10:56:56.649730 26934 net.cpp:139] Memory required for data: 2315395400
I0917 10:56:56.649734 26934 layer_factory.hpp:77] Creating layer conv7_2/3x3_dwconv/scale_fixed_point
I0917 10:56:56.649740 26934 net.cpp:86] Creating Layer conv7_2/3x3_dwconv/scale_fixed_point
I0917 10:56:56.649760 26934 net.cpp:408] conv7_2/3x3_dwconv/scale_fixed_point <- conv7_2/3x3_dwconv/scale
I0917 10:56:56.649765 26934 net.cpp:369] conv7_2/3x3_dwconv/scale_fixed_point -> conv7_2/3x3_dwconv/scale (in-place)
I0917 10:56:56.649796 26934 net.cpp:124] Setting up conv7_2/3x3_dwconv/scale_fixed_point
I0917 10:56:56.649802 26934 net.cpp:131] Top shape: 25 576 7 7 (705600)
I0917 10:56:56.649809 26934 net.cpp:139] Memory required for data: 2318217800
I0917 10:56:56.649813 26934 layer_factory.hpp:77] Creating layer conv7_2/1x1_decrease
I0917 10:56:56.649823 26934 net.cpp:86] Creating Layer conv7_2/1x1_decrease
I0917 10:56:56.649827 26934 net.cpp:408] conv7_2/1x1_decrease <- conv7_2/3x3_dwconv/scale
I0917 10:56:56.649833 26934 net.cpp:382] conv7_2/1x1_decrease -> conv7_2/1x1_decrease/bn
I0917 10:56:56.654204 26934 net.cpp:124] Setting up conv7_2/1x1_decrease
I0917 10:56:56.654232 26934 net.cpp:131] Top shape: 25 192 7 7 (235200)
I0917 10:56:56.654235 26934 net.cpp:139] Memory required for data: 2319158600
I0917 10:56:56.654242 26934 layer_factory.hpp:77] Creating layer conv7_2/elt_sum
I0917 10:56:56.654249 26934 net.cpp:86] Creating Layer conv7_2/elt_sum
I0917 10:56:56.654253 26934 net.cpp:408] conv7_2/elt_sum <- conv7_1/elt_sum_conv7_1/elt_sum_fixed_point_0_split_1
I0917 10:56:56.654258 26934 net.cpp:408] conv7_2/elt_sum <- conv7_2/1x1_decrease/bn
I0917 10:56:56.654263 26934 net.cpp:382] conv7_2/elt_sum -> conv7_2/elt_sum
I0917 10:56:56.654299 26934 net.cpp:124] Setting up conv7_2/elt_sum
I0917 10:56:56.654305 26934 net.cpp:131] Top shape: 25 192 7 7 (235200)
I0917 10:56:56.654307 26934 net.cpp:139] Memory required for data: 2320099400
I0917 10:56:56.654310 26934 layer_factory.hpp:77] Creating layer conv7_2/elt_sum_fixed_point
I0917 10:56:56.654315 26934 net.cpp:86] Creating Layer conv7_2/elt_sum_fixed_point
I0917 10:56:56.654319 26934 net.cpp:408] conv7_2/elt_sum_fixed_point <- conv7_2/elt_sum
I0917 10:56:56.654325 26934 net.cpp:369] conv7_2/elt_sum_fixed_point -> conv7_2/elt_sum (in-place)
I0917 10:56:56.654352 26934 net.cpp:124] Setting up conv7_2/elt_sum_fixed_point
I0917 10:56:56.654357 26934 net.cpp:131] Top shape: 25 192 7 7 (235200)
I0917 10:56:56.654361 26934 net.cpp:139] Memory required for data: 2321040200
I0917 10:56:56.654363 26934 layer_factory.hpp:77] Creating layer conv8_0/1x1_increase
I0917 10:56:56.654373 26934 net.cpp:86] Creating Layer conv8_0/1x1_increase
I0917 10:56:56.654376 26934 net.cpp:408] conv8_0/1x1_increase <- conv7_2/elt_sum
I0917 10:56:56.654387 26934 net.cpp:382] conv8_0/1x1_increase -> conv8_0/1x1_increase/bn
I0917 10:56:56.659999 26934 net.cpp:124] Setting up conv8_0/1x1_increase
I0917 10:56:56.660012 26934 net.cpp:131] Top shape: 25 1152 7 7 (1411200)
I0917 10:56:56.660032 26934 net.cpp:139] Memory required for data: 2326685000
I0917 10:56:56.660038 26934 layer_factory.hpp:77] Creating layer conv8_0/1x1_increase/hardswish
I0917 10:56:56.660045 26934 net.cpp:86] Creating Layer conv8_0/1x1_increase/hardswish
I0917 10:56:56.660048 26934 net.cpp:408] conv8_0/1x1_increase/hardswish <- conv8_0/1x1_increase/bn
I0917 10:56:56.660053 26934 net.cpp:369] conv8_0/1x1_increase/hardswish -> conv8_0/1x1_increase/bn (in-place)
I0917 10:56:56.660117 26934 net.cpp:124] Setting up conv8_0/1x1_increase/hardswish
I0917 10:56:56.660123 26934 net.cpp:131] Top shape: 25 1152 7 7 (1411200)
I0917 10:56:56.660126 26934 net.cpp:139] Memory required for data: 2332329800
I0917 10:56:56.660128 26934 layer_factory.hpp:77] Creating layer conv8_0/1x1_increase/bn_fixed_point
I0917 10:56:56.660133 26934 net.cpp:86] Creating Layer conv8_0/1x1_increase/bn_fixed_point
I0917 10:56:56.660136 26934 net.cpp:408] conv8_0/1x1_increase/bn_fixed_point <- conv8_0/1x1_increase/bn
I0917 10:56:56.660142 26934 net.cpp:369] conv8_0/1x1_increase/bn_fixed_point -> conv8_0/1x1_increase/bn (in-place)
I0917 10:56:56.660169 26934 net.cpp:124] Setting up conv8_0/1x1_increase/bn_fixed_point
I0917 10:56:56.660174 26934 net.cpp:131] Top shape: 25 1152 7 7 (1411200)
I0917 10:56:56.660176 26934 net.cpp:139] Memory required for data: 2337974600
I0917 10:56:56.660207 26934 layer_factory.hpp:77] Creating layer conv8_0/1x1_increase/slice
I0917 10:56:56.660215 26934 net.cpp:86] Creating Layer conv8_0/1x1_increase/slice
I0917 10:56:56.660219 26934 net.cpp:408] conv8_0/1x1_increase/slice <- conv8_0/1x1_increase/bn
I0917 10:56:56.660225 26934 net.cpp:382] conv8_0/1x1_increase/slice -> conv8_0/1x1_increase/split1
I0917 10:56:56.660231 26934 net.cpp:382] conv8_0/1x1_increase/slice -> conv8_0/1x1_increase/split2
I0917 10:56:56.660236 26934 net.cpp:382] conv8_0/1x1_increase/slice -> conv8_0/1x1_increase/split3
I0917 10:56:56.660310 26934 net.cpp:124] Setting up conv8_0/1x1_increase/slice
I0917 10:56:56.660315 26934 net.cpp:131] Top shape: 25 384 7 7 (470400)
I0917 10:56:56.660320 26934 net.cpp:131] Top shape: 25 384 7 7 (470400)
I0917 10:56:56.660322 26934 net.cpp:131] Top shape: 25 384 7 7 (470400)
I0917 10:56:56.660324 26934 net.cpp:139] Memory required for data: 2343619400
I0917 10:56:56.660326 26934 layer_factory.hpp:77] Creating layer conv8_0/3x3_dwconv/slice_0
I0917 10:56:56.660338 26934 net.cpp:86] Creating Layer conv8_0/3x3_dwconv/slice_0
I0917 10:56:56.660341 26934 net.cpp:408] conv8_0/3x3_dwconv/slice_0 <- conv8_0/1x1_increase/split1
I0917 10:56:56.660347 26934 net.cpp:382] conv8_0/3x3_dwconv/slice_0 -> conv8_0/3x3_dwconv/slice_0/bn
I0917 10:56:56.660950 26934 net.cpp:124] Setting up conv8_0/3x3_dwconv/slice_0
I0917 10:56:56.660960 26934 net.cpp:131] Top shape: 25 384 7 7 (470400)
I0917 10:56:56.660979 26934 net.cpp:139] Memory required for data: 2345501000
I0917 10:56:56.660985 26934 layer_factory.hpp:77] Creating layer conv8_0/3x3_dwconv/slice_0/hardswish
I0917 10:56:56.660993 26934 net.cpp:86] Creating Layer conv8_0/3x3_dwconv/slice_0/hardswish
I0917 10:56:56.660997 26934 net.cpp:408] conv8_0/3x3_dwconv/slice_0/hardswish <- conv8_0/3x3_dwconv/slice_0/bn
I0917 10:56:56.661002 26934 net.cpp:369] conv8_0/3x3_dwconv/slice_0/hardswish -> conv8_0/3x3_dwconv/slice_0/bn (in-place)
I0917 10:56:56.661036 26934 net.cpp:124] Setting up conv8_0/3x3_dwconv/slice_0/hardswish
I0917 10:56:56.661042 26934 net.cpp:131] Top shape: 25 384 7 7 (470400)
I0917 10:56:56.661044 26934 net.cpp:139] Memory required for data: 2347382600
I0917 10:56:56.661047 26934 layer_factory.hpp:77] Creating layer conv8_0/3x3_dwconv/slice_1
I0917 10:56:56.661057 26934 net.cpp:86] Creating Layer conv8_0/3x3_dwconv/slice_1
I0917 10:56:56.661062 26934 net.cpp:408] conv8_0/3x3_dwconv/slice_1 <- conv8_0/1x1_increase/split2
I0917 10:56:56.661068 26934 net.cpp:382] conv8_0/3x3_dwconv/slice_1 -> conv8_0/3x3_dwconv/slice_1/bn
I0917 10:56:56.662088 26934 net.cpp:124] Setting up conv8_0/3x3_dwconv/slice_1
I0917 10:56:56.662101 26934 net.cpp:131] Top shape: 25 384 7 7 (470400)
I0917 10:56:56.662119 26934 net.cpp:139] Memory required for data: 2349264200
I0917 10:56:56.662127 26934 layer_factory.hpp:77] Creating layer conv8_0/3x3_dwconv/slice_1/hardswish
I0917 10:56:56.662132 26934 net.cpp:86] Creating Layer conv8_0/3x3_dwconv/slice_1/hardswish
I0917 10:56:56.662137 26934 net.cpp:408] conv8_0/3x3_dwconv/slice_1/hardswish <- conv8_0/3x3_dwconv/slice_1/bn
I0917 10:56:56.662144 26934 net.cpp:369] conv8_0/3x3_dwconv/slice_1/hardswish -> conv8_0/3x3_dwconv/slice_1/bn (in-place)
I0917 10:56:56.662178 26934 net.cpp:124] Setting up conv8_0/3x3_dwconv/slice_1/hardswish
I0917 10:56:56.662183 26934 net.cpp:131] Top shape: 25 384 7 7 (470400)
I0917 10:56:56.662185 26934 net.cpp:139] Memory required for data: 2351145800
I0917 10:56:56.662189 26934 layer_factory.hpp:77] Creating layer conv8_0/3x3_dwconv/slice_2
I0917 10:56:56.662200 26934 net.cpp:86] Creating Layer conv8_0/3x3_dwconv/slice_2
I0917 10:56:56.662204 26934 net.cpp:408] conv8_0/3x3_dwconv/slice_2 <- conv8_0/1x1_increase/split3
I0917 10:56:56.662210 26934 net.cpp:382] conv8_0/3x3_dwconv/slice_2 -> conv8_0/3x3_dwconv/slice_2/bn
I0917 10:56:56.663491 26934 net.cpp:124] Setting up conv8_0/3x3_dwconv/slice_2
I0917 10:56:56.663504 26934 net.cpp:131] Top shape: 25 384 7 7 (470400)
I0917 10:56:56.663523 26934 net.cpp:139] Memory required for data: 2353027400
I0917 10:56:56.663530 26934 layer_factory.hpp:77] Creating layer conv8_0/3x3_dwconv/slice_2/hardswish
I0917 10:56:56.663547 26934 net.cpp:86] Creating Layer conv8_0/3x3_dwconv/slice_2/hardswish
I0917 10:56:56.663552 26934 net.cpp:408] conv8_0/3x3_dwconv/slice_2/hardswish <- conv8_0/3x3_dwconv/slice_2/bn
I0917 10:56:56.663556 26934 net.cpp:369] conv8_0/3x3_dwconv/slice_2/hardswish -> conv8_0/3x3_dwconv/slice_2/bn (in-place)
I0917 10:56:56.663591 26934 net.cpp:124] Setting up conv8_0/3x3_dwconv/slice_2/hardswish
I0917 10:56:56.663597 26934 net.cpp:131] Top shape: 25 384 7 7 (470400)
I0917 10:56:56.663599 26934 net.cpp:139] Memory required for data: 2354909000
I0917 10:56:56.663602 26934 layer_factory.hpp:77] Creating layer conv8_0/3x3_dwconv/concat
I0917 10:56:56.663607 26934 net.cpp:86] Creating Layer conv8_0/3x3_dwconv/concat
I0917 10:56:56.663610 26934 net.cpp:408] conv8_0/3x3_dwconv/concat <- conv8_0/3x3_dwconv/slice_0/bn
I0917 10:56:56.663614 26934 net.cpp:408] conv8_0/3x3_dwconv/concat <- conv8_0/3x3_dwconv/slice_1/bn
I0917 10:56:56.663617 26934 net.cpp:408] conv8_0/3x3_dwconv/concat <- conv8_0/3x3_dwconv/slice_2/bn
I0917 10:56:56.663623 26934 net.cpp:382] conv8_0/3x3_dwconv/concat -> conv8_0/3x3_dwconv/concat
I0917 10:56:56.663650 26934 net.cpp:124] Setting up conv8_0/3x3_dwconv/concat
I0917 10:56:56.663655 26934 net.cpp:131] Top shape: 25 1152 7 7 (1411200)
I0917 10:56:56.663657 26934 net.cpp:139] Memory required for data: 2360553800
I0917 10:56:56.663661 26934 layer_factory.hpp:77] Creating layer conv8_0/3x3_dwconv/concat_fixed_point
I0917 10:56:56.663667 26934 net.cpp:86] Creating Layer conv8_0/3x3_dwconv/concat_fixed_point
I0917 10:56:56.663671 26934 net.cpp:408] conv8_0/3x3_dwconv/concat_fixed_point <- conv8_0/3x3_dwconv/concat
I0917 10:56:56.663676 26934 net.cpp:369] conv8_0/3x3_dwconv/concat_fixed_point -> conv8_0/3x3_dwconv/concat (in-place)
I0917 10:56:56.663718 26934 net.cpp:124] Setting up conv8_0/3x3_dwconv/concat_fixed_point
I0917 10:56:56.663723 26934 net.cpp:131] Top shape: 25 1152 7 7 (1411200)
I0917 10:56:56.663727 26934 net.cpp:139] Memory required for data: 2366198600
I0917 10:56:56.663729 26934 layer_factory.hpp:77] Creating layer conv8_0/3x3_dwconv/concat_conv8_0/3x3_dwconv/concat_fixed_point_0_split
I0917 10:56:56.663736 26934 net.cpp:86] Creating Layer conv8_0/3x3_dwconv/concat_conv8_0/3x3_dwconv/concat_fixed_point_0_split
I0917 10:56:56.663739 26934 net.cpp:408] conv8_0/3x3_dwconv/concat_conv8_0/3x3_dwconv/concat_fixed_point_0_split <- conv8_0/3x3_dwconv/concat
I0917 10:56:56.663744 26934 net.cpp:382] conv8_0/3x3_dwconv/concat_conv8_0/3x3_dwconv/concat_fixed_point_0_split -> conv8_0/3x3_dwconv/concat_conv8_0/3x3_dwconv/concat_fixed_point_0_split_0
I0917 10:56:56.663764 26934 net.cpp:382] conv8_0/3x3_dwconv/concat_conv8_0/3x3_dwconv/concat_fixed_point_0_split -> conv8_0/3x3_dwconv/concat_conv8_0/3x3_dwconv/concat_fixed_point_0_split_1
I0917 10:56:56.663813 26934 net.cpp:124] Setting up conv8_0/3x3_dwconv/concat_conv8_0/3x3_dwconv/concat_fixed_point_0_split
I0917 10:56:56.663820 26934 net.cpp:131] Top shape: 25 1152 7 7 (1411200)
I0917 10:56:56.663825 26934 net.cpp:131] Top shape: 25 1152 7 7 (1411200)
I0917 10:56:56.663826 26934 net.cpp:139] Memory required for data: 2377488200
I0917 10:56:56.663830 26934 layer_factory.hpp:77] Creating layer conv8_0/3x3_dwconv/SE_global_pool
I0917 10:56:56.663836 26934 net.cpp:86] Creating Layer conv8_0/3x3_dwconv/SE_global_pool
I0917 10:56:56.663839 26934 net.cpp:408] conv8_0/3x3_dwconv/SE_global_pool <- conv8_0/3x3_dwconv/concat_conv8_0/3x3_dwconv/concat_fixed_point_0_split_0
I0917 10:56:56.663846 26934 net.cpp:382] conv8_0/3x3_dwconv/SE_global_pool -> conv8_0/3x3_dwconv/SE_global_pool
I0917 10:56:56.663873 26934 net.cpp:124] Setting up conv8_0/3x3_dwconv/SE_global_pool
I0917 10:56:56.663878 26934 net.cpp:131] Top shape: 25 1152 1 1 (28800)
I0917 10:56:56.663880 26934 net.cpp:139] Memory required for data: 2377603400
I0917 10:56:56.663883 26934 layer_factory.hpp:77] Creating layer conv8_0/3x3_dwconv/SE_bn
I0917 10:56:56.663892 26934 net.cpp:86] Creating Layer conv8_0/3x3_dwconv/SE_bn
I0917 10:56:56.663902 26934 net.cpp:408] conv8_0/3x3_dwconv/SE_bn <- conv8_0/3x3_dwconv/SE_global_pool
I0917 10:56:56.663910 26934 net.cpp:382] conv8_0/3x3_dwconv/SE_bn -> conv8_0/3x3_dwconv/SE_bn
I0917 10:56:56.663954 26934 layer_factory.hpp:77] Creating layer conv8_0/3x3_dwconv/SE_bn
I0917 10:56:56.664089 26934 net.cpp:124] Setting up conv8_0/3x3_dwconv/SE_bn
I0917 10:56:56.664096 26934 net.cpp:131] Top shape: 25 1152 1 1 (28800)
I0917 10:56:56.664099 26934 net.cpp:139] Memory required for data: 2377718600
I0917 10:56:56.664104 26934 layer_factory.hpp:77] Creating layer conv8_0/3x3_dwconv/SE_fc1
I0917 10:56:56.664113 26934 net.cpp:86] Creating Layer conv8_0/3x3_dwconv/SE_fc1
I0917 10:56:56.664116 26934 net.cpp:408] conv8_0/3x3_dwconv/SE_fc1 <- conv8_0/3x3_dwconv/SE_bn
I0917 10:56:56.664120 26934 net.cpp:382] conv8_0/3x3_dwconv/SE_fc1 -> conv8_0/3x3_dwconv/SE_fc1
I0917 10:56:56.666388 26934 net.cpp:124] Setting up conv8_0/3x3_dwconv/SE_fc1
I0917 10:56:56.666397 26934 net.cpp:131] Top shape: 25 72 1 1 (1800)
I0917 10:56:56.666416 26934 net.cpp:139] Memory required for data: 2377725800
I0917 10:56:56.666420 26934 layer_factory.hpp:77] Creating layer conv8_0/3x3_dwconv/SE_fc1/relu
I0917 10:56:56.666427 26934 net.cpp:86] Creating Layer conv8_0/3x3_dwconv/SE_fc1/relu
I0917 10:56:56.666431 26934 net.cpp:408] conv8_0/3x3_dwconv/SE_fc1/relu <- conv8_0/3x3_dwconv/SE_fc1
I0917 10:56:56.666437 26934 net.cpp:369] conv8_0/3x3_dwconv/SE_fc1/relu -> conv8_0/3x3_dwconv/SE_fc1 (in-place)
I0917 10:56:56.667038 26934 net.cpp:124] Setting up conv8_0/3x3_dwconv/SE_fc1/relu
I0917 10:56:56.667048 26934 net.cpp:131] Top shape: 25 72 1 1 (1800)
I0917 10:56:56.667068 26934 net.cpp:139] Memory required for data: 2377733000
I0917 10:56:56.667070 26934 layer_factory.hpp:77] Creating layer conv8_0/3x3_dwconv/SE_fc2
I0917 10:56:56.667079 26934 net.cpp:86] Creating Layer conv8_0/3x3_dwconv/SE_fc2
I0917 10:56:56.667084 26934 net.cpp:408] conv8_0/3x3_dwconv/SE_fc2 <- conv8_0/3x3_dwconv/SE_fc1
I0917 10:56:56.667090 26934 net.cpp:382] conv8_0/3x3_dwconv/SE_fc2 -> conv8_0/3x3_dwconv/SE_fc2
I0917 10:56:56.669523 26934 net.cpp:124] Setting up conv8_0/3x3_dwconv/SE_fc2
I0917 10:56:56.669533 26934 net.cpp:131] Top shape: 25 1152 1 1 (28800)
I0917 10:56:56.669553 26934 net.cpp:139] Memory required for data: 2377848200
I0917 10:56:56.669557 26934 layer_factory.hpp:77] Creating layer conv8_0/3x3_dwconv/SE_weights
I0917 10:56:56.669561 26934 net.cpp:86] Creating Layer conv8_0/3x3_dwconv/SE_weights
I0917 10:56:56.669565 26934 net.cpp:408] conv8_0/3x3_dwconv/SE_weights <- conv8_0/3x3_dwconv/SE_fc2
I0917 10:56:56.669570 26934 net.cpp:369] conv8_0/3x3_dwconv/SE_weights -> conv8_0/3x3_dwconv/SE_fc2 (in-place)
I0917 10:56:56.670147 26934 net.cpp:124] Setting up conv8_0/3x3_dwconv/SE_weights
I0917 10:56:56.670157 26934 net.cpp:131] Top shape: 25 1152 1 1 (28800)
I0917 10:56:56.670176 26934 net.cpp:139] Memory required for data: 2377963400
I0917 10:56:56.670178 26934 layer_factory.hpp:77] Creating layer conv8_0/3x3_dwconv/SE_weights/reshape
I0917 10:56:56.670187 26934 net.cpp:86] Creating Layer conv8_0/3x3_dwconv/SE_weights/reshape
I0917 10:56:56.670192 26934 net.cpp:408] conv8_0/3x3_dwconv/SE_weights/reshape <- conv8_0/3x3_dwconv/SE_fc2
I0917 10:56:56.670199 26934 net.cpp:382] conv8_0/3x3_dwconv/SE_weights/reshape -> conv8_0/3x3_dwconv/SE_weights/reshape
I0917 10:56:56.670233 26934 net.cpp:124] Setting up conv8_0/3x3_dwconv/SE_weights/reshape
I0917 10:56:56.670238 26934 net.cpp:131] Top shape: 25 1152 (28800)
I0917 10:56:56.670239 26934 net.cpp:139] Memory required for data: 2378078600
I0917 10:56:56.670243 26934 layer_factory.hpp:77] Creating layer conv8_0/3x3_dwconv/scale
I0917 10:56:56.670250 26934 net.cpp:86] Creating Layer conv8_0/3x3_dwconv/scale
I0917 10:56:56.670253 26934 net.cpp:408] conv8_0/3x3_dwconv/scale <- conv8_0/3x3_dwconv/concat_conv8_0/3x3_dwconv/concat_fixed_point_0_split_1
I0917 10:56:56.670258 26934 net.cpp:408] conv8_0/3x3_dwconv/scale <- conv8_0/3x3_dwconv/SE_weights/reshape
I0917 10:56:56.670262 26934 net.cpp:382] conv8_0/3x3_dwconv/scale -> conv8_0/3x3_dwconv/scale
I0917 10:56:56.670351 26934 net.cpp:124] Setting up conv8_0/3x3_dwconv/scale
I0917 10:56:56.670358 26934 net.cpp:131] Top shape: 25 1152 7 7 (1411200)
I0917 10:56:56.670361 26934 net.cpp:139] Memory required for data: 2383723400
I0917 10:56:56.670363 26934 layer_factory.hpp:77] Creating layer conv8_0/3x3_dwconv/scale_fixed_point
I0917 10:56:56.670370 26934 net.cpp:86] Creating Layer conv8_0/3x3_dwconv/scale_fixed_point
I0917 10:56:56.670373 26934 net.cpp:408] conv8_0/3x3_dwconv/scale_fixed_point <- conv8_0/3x3_dwconv/scale
I0917 10:56:56.670379 26934 net.cpp:369] conv8_0/3x3_dwconv/scale_fixed_point -> conv8_0/3x3_dwconv/scale (in-place)
I0917 10:56:56.670404 26934 net.cpp:124] Setting up conv8_0/3x3_dwconv/scale_fixed_point
I0917 10:56:56.670409 26934 net.cpp:131] Top shape: 25 1152 7 7 (1411200)
I0917 10:56:56.670413 26934 net.cpp:139] Memory required for data: 2389368200
I0917 10:56:56.670416 26934 layer_factory.hpp:77] Creating layer conv8_0/1x1_decrease
I0917 10:56:56.670439 26934 net.cpp:86] Creating Layer conv8_0/1x1_decrease
I0917 10:56:56.670444 26934 net.cpp:408] conv8_0/1x1_decrease <- conv8_0/3x3_dwconv/scale
I0917 10:56:56.670449 26934 net.cpp:382] conv8_0/1x1_decrease -> conv8_0/1x1_decrease/bn
I0917 10:56:56.680291 26934 net.cpp:124] Setting up conv8_0/1x1_decrease
I0917 10:56:56.680303 26934 net.cpp:131] Top shape: 25 320 7 7 (392000)
I0917 10:56:56.680322 26934 net.cpp:139] Memory required for data: 2390936200
I0917 10:56:56.680330 26934 layer_factory.hpp:77] Creating layer conv8_0/1x1_decrease/bn_fixed_point
I0917 10:56:56.680337 26934 net.cpp:86] Creating Layer conv8_0/1x1_decrease/bn_fixed_point
I0917 10:56:56.680341 26934 net.cpp:408] conv8_0/1x1_decrease/bn_fixed_point <- conv8_0/1x1_decrease/bn
I0917 10:56:56.680346 26934 net.cpp:369] conv8_0/1x1_decrease/bn_fixed_point -> conv8_0/1x1_decrease/bn (in-place)
I0917 10:56:56.680397 26934 net.cpp:124] Setting up conv8_0/1x1_decrease/bn_fixed_point
I0917 10:56:56.680402 26934 net.cpp:131] Top shape: 25 320 7 7 (392000)
I0917 10:56:56.680404 26934 net.cpp:139] Memory required for data: 2392504200
I0917 10:56:56.680409 26934 layer_factory.hpp:77] Creating layer conv9/1x1
I0917 10:56:56.680420 26934 net.cpp:86] Creating Layer conv9/1x1
I0917 10:56:56.680424 26934 net.cpp:408] conv9/1x1 <- conv8_0/1x1_decrease/bn
I0917 10:56:56.680431 26934 net.cpp:382] conv9/1x1 -> conv9/1x1/bn
I0917 10:56:56.690996 26934 net.cpp:124] Setting up conv9/1x1
I0917 10:56:56.691009 26934 net.cpp:131] Top shape: 25 1280 7 7 (1568000)
I0917 10:56:56.691028 26934 net.cpp:139] Memory required for data: 2398776200
I0917 10:56:56.691033 26934 layer_factory.hpp:77] Creating layer conv9/1x1/relu
I0917 10:56:56.691040 26934 net.cpp:86] Creating Layer conv9/1x1/relu
I0917 10:56:56.691045 26934 net.cpp:408] conv9/1x1/relu <- conv9/1x1/bn
I0917 10:56:56.691051 26934 net.cpp:369] conv9/1x1/relu -> conv9/1x1/bn (in-place)
I0917 10:56:56.691826 26934 net.cpp:124] Setting up conv9/1x1/relu
I0917 10:56:56.691840 26934 net.cpp:131] Top shape: 25 1280 7 7 (1568000)
I0917 10:56:56.691859 26934 net.cpp:139] Memory required for data: 2405048200
I0917 10:56:56.691862 26934 layer_factory.hpp:77] Creating layer conv9/1x1/bn_fixed_point
I0917 10:56:56.691869 26934 net.cpp:86] Creating Layer conv9/1x1/bn_fixed_point
I0917 10:56:56.691874 26934 net.cpp:408] conv9/1x1/bn_fixed_point <- conv9/1x1/bn
I0917 10:56:56.691880 26934 net.cpp:369] conv9/1x1/bn_fixed_point -> conv9/1x1/bn (in-place)
I0917 10:56:56.691913 26934 net.cpp:124] Setting up conv9/1x1/bn_fixed_point
I0917 10:56:56.691918 26934 net.cpp:131] Top shape: 25 1280 7 7 (1568000)
I0917 10:56:56.691920 26934 net.cpp:139] Memory required for data: 2411320200
I0917 10:56:56.691924 26934 layer_factory.hpp:77] Creating layer avepool/7x7
I0917 10:56:56.691934 26934 net.cpp:86] Creating Layer avepool/7x7
I0917 10:56:56.691937 26934 net.cpp:408] avepool/7x7 <- conv9/1x1/bn
I0917 10:56:56.691943 26934 net.cpp:382] avepool/7x7 -> avepool/7x7
I0917 10:56:56.692535 26934 net.cpp:124] Setting up avepool/7x7
I0917 10:56:56.692548 26934 net.cpp:131] Top shape: 25 1280 1 1 (32000)
I0917 10:56:56.692576 26934 net.cpp:139] Memory required for data: 2411448200
I0917 10:56:56.692580 26934 layer_factory.hpp:77] Creating layer avepool/7x7_fixed_point
I0917 10:56:56.692586 26934 net.cpp:86] Creating Layer avepool/7x7_fixed_point
I0917 10:56:56.692589 26934 net.cpp:408] avepool/7x7_fixed_point <- avepool/7x7
I0917 10:56:56.692595 26934 net.cpp:369] avepool/7x7_fixed_point -> avepool/7x7 (in-place)
I0917 10:56:56.692649 26934 net.cpp:124] Setting up avepool/7x7_fixed_point
I0917 10:56:56.692656 26934 net.cpp:131] Top shape: 25 1280 1 1 (32000)
I0917 10:56:56.692657 26934 net.cpp:139] Memory required for data: 2411576200
I0917 10:56:56.692662 26934 layer_factory.hpp:77] Creating layer classifier
I0917 10:56:56.692670 26934 net.cpp:86] Creating Layer classifier
I0917 10:56:56.692673 26934 net.cpp:408] classifier <- avepool/7x7
I0917 10:56:56.692680 26934 net.cpp:382] classifier -> classifier
I0917 10:56:56.727015 26934 net.cpp:124] Setting up classifier
I0917 10:56:56.727047 26934 net.cpp:131] Top shape: 25 1000 1 1 (25000)
I0917 10:56:56.727051 26934 net.cpp:139] Memory required for data: 2411676200
I0917 10:56:56.727058 26934 layer_factory.hpp:77] Creating layer classifier_classifier_0_split
I0917 10:56:56.727066 26934 net.cpp:86] Creating Layer classifier_classifier_0_split
I0917 10:56:56.727069 26934 net.cpp:408] classifier_classifier_0_split <- classifier
I0917 10:56:56.727077 26934 net.cpp:382] classifier_classifier_0_split -> classifier_classifier_0_split_0
I0917 10:56:56.727085 26934 net.cpp:382] classifier_classifier_0_split -> classifier_classifier_0_split_1
I0917 10:56:56.727107 26934 net.cpp:382] classifier_classifier_0_split -> classifier_classifier_0_split_2
I0917 10:56:56.727190 26934 net.cpp:124] Setting up classifier_classifier_0_split
I0917 10:56:56.727196 26934 net.cpp:131] Top shape: 25 1000 1 1 (25000)
I0917 10:56:56.727200 26934 net.cpp:131] Top shape: 25 1000 1 1 (25000)
I0917 10:56:56.727205 26934 net.cpp:131] Top shape: 25 1000 1 1 (25000)
I0917 10:56:56.727206 26934 net.cpp:139] Memory required for data: 2411976200
I0917 10:56:56.727210 26934 layer_factory.hpp:77] Creating layer loss
I0917 10:56:56.727221 26934 net.cpp:86] Creating Layer loss
I0917 10:56:56.727224 26934 net.cpp:408] loss <- classifier_classifier_0_split_0
I0917 10:56:56.727229 26934 net.cpp:408] loss <- label_data_1_split_0
I0917 10:56:56.727236 26934 net.cpp:382] loss -> loss
…
