…
I0918 10:29:09.943584 30897 caffe.cpp:270] GPU device name: Graphics Device
I0918 10:29:10.745023 30897 net.cpp:53] Initializing net from parameters: 
state {
  phase: TEST
  level: 0
  stage: ""
}
layer {
  name: "data"
  type: "ImageData"
  top: "data"
  top: "label"
  include {
    phase: TEST
  }
  transform_param {
    crop_size: 224
    mean_value: 104
    mean_value: 117
    mean_value: 123
  }
  image_data_param {
    source: "file_lists/val.txt"
    batch_size: 25
    root_folder: "/share4/public/classification_data/imagenet1k/val/"
    short_edge: 256
  }
}
layer {
  name: "data_fixed_point"
  type: "Quantize"
  bottom: "data"
  top: "data"
  param {
    lr_mult: 0
    decay_mult: 0
  }
  quantize_param {
    precision: 8
    frozen: true
    positive: false
    tolerance: 1.5
  }
}
layer {
  name: "conv1/3x3_s2"
  type: "Convolution"
  bottom: "data"
  top: "conv1/3x3_s2/bn"
  param {
    lr_mult: 1
    decay_mult: 1
  }
  param {
    lr_mult: 2
    decay_mult: 0
  }
  convolution_param {
    num_output: 32
    bias_term: true
    pad: 1
    kernel_size: 3
    stride: 2
    weight_filler {
      type: "msra"
    }
    bias_filler {
      type: "constant"
      value: 0
    }
    engine: CAFFE
    fp16_accumulation: true
  }
  quantize_param {
    precision: 8
    channel_shared: false
  }
}
layer {
  name: "conv1/3x3_s2/relu"
  type: "ReLU"
  bottom: "conv1/3x3_s2/bn"
  top: "conv1/3x3_s2/bn"
}
layer {
  name: "conv1/3x3_s2/bn_fixed_point"
  type: "Quantize"
  bottom: "conv1/3x3_s2/bn"
  top: "conv1/3x3_s2/bn"
  param {
    lr_mult: 0
    decay_mult: 0
  }
  quantize_param {
    precision: 8
    frozen: true
    positive: true
    tolerance: 1.5
  }
}
layer {
  name: "conv2_0/3x3_dwconv"
  type: "Convolution"
  bottom: "conv1/3x3_s2/bn"
  top: "conv2_0/3x3_dwconv/bn"
  param {
    lr_mult: 1
    decay_mult: 1
  }
  param {
    lr_mult: 2
    decay_mult: 0
  }
  convolution_param {
    num_output: 32
    bias_term: true
    pad: 1
    kernel_size: 3
    group: 32
    stride: 1
    weight_filler {
      type: "msra"
    }
    bias_filler {
      type: "constant"
      value: 0
    }
    engine: CAFFE
    fp16_accumulation: true
  }
  quantize_param {
    precision: 8
    channel_shared: false
  }
}
layer {
  name: "conv2_0/3x3_dwconv/relu"
  type: "ReLU"
  bottom: "conv2_0/3x3_dwconv/bn"
  top: "conv2_0/3x3_dwconv/bn"
}
layer {
  name: "conv2_0/3x3_dwconv/bn_fixed_point"
  type: "Quantize"
  bottom: "conv2_0/3x3_dwconv/bn"
  top: "conv2_0/3x3_dwconv/bn"
  param {
    lr_mult: 0
    decay_mult: 0
  }
  quantize_param {
    precision: 8
    frozen: true
    positive: true
    tolerance: 1.5
  }
}
layer {
  name: "conv2_0/1x1_decrease"
  type: "Convolution"
  bottom: "conv2_0/3x3_dwconv/bn"
  top: "conv2_0/1x1_decrease/bn"
  param {
    lr_mult: 1
    decay_mult: 1
  }
  param {
    lr_mult: 2
    decay_mult: 0
  }
  convolution_param {
    num_output: 16
    bias_term: true
    kernel_size: 1
    stride: 1
    weight_filler {
      type: "msra"
    }
    bias_filler {
      type: "constant"
      value: 0
    }
    engine: CAFFE
    fp16_accumulation: true
  }
  quantize_param {
    precision: 8
    channel_shared: false
  }
}
layer {
  name: "conv2_0/1x1_decrease/bn_fixed_point"
  type: "Quantize"
  bottom: "conv2_0/1x1_decrease/bn"
  top: "conv2_0/1x1_decrease/bn"
  param {
    lr_mult: 0
    decay_mult: 0
  }
  quantize_param {
    precision: 8
    frozen: true
    positive: false
    tolerance: 1.5
  }
}
layer {
  name: "conv3_0/1x1_increase"
  type: "Convolution"
  bottom: "conv2_0/1x1_decrease/bn"
  top: "conv3_0/1x1_increase/bn"
  param {
    lr_mult: 1
    decay_mult: 1
  }
  param {
    lr_mult: 2
    decay_mult: 0
  }
  convolution_param {
    num_output: 48
    bias_term: true
    kernel_size: 1
    stride: 1
    weight_filler {
      type: "msra"
    }
    bias_filler {
      type: "constant"
      value: 0
    }
    engine: CAFFE
    fp16_accumulation: true
  }
  quantize_param {
    precision: 8
    channel_shared: false
  }
}
layer {
  name: "conv3_0/1x1_increase/relu"
  type: "ReLU"
  bottom: "conv3_0/1x1_increase/bn"
  top: "conv3_0/1x1_increase/bn"
}
layer {
  name: "conv3_0/1x1_increase/bn_fixed_point"
  type: "Quantize"
  bottom: "conv3_0/1x1_increase/bn"
  top: "conv3_0/1x1_increase/bn"
  param {
    lr_mult: 0
    decay_mult: 0
  }
  quantize_param {
    precision: 8
    frozen: true
    positive: true
    tolerance: 1.5
  }
}
layer {
  name: "conv3_0/3x3_dwconv"
  type: "Convolution"
  bottom: "conv3_0/1x1_increase/bn"
  top: "conv3_0/3x3_dwconv/bn"
  param {
    lr_mult: 1
    decay_mult: 1
  }
  param {
    lr_mult: 2
    decay_mult: 0
  }
  convolution_param {
    num_output: 48
    bias_term: true
    pad: 2
    kernel_size: 5
    group: 48
    stride: 2
    weight_filler {
      type: "msra"
    }
    bias_filler {
      type: "constant"
      value: 0
    }
    engine: CAFFE
    fp16_accumulation: true
  }
  quantize_param {
    precision: 8
    channel_shared: false
  }
}
layer {
  name: "conv3_0/3x3_dwconv/relu"
  type: "ReLU"
  bottom: "conv3_0/3x3_dwconv/bn"
  top: "conv3_0/3x3_dwconv/bn"
}
layer {
  name: "conv3_0/3x3_dwconv/bn_fixed_point"
  type: "Quantize"
  bottom: "conv3_0/3x3_dwconv/bn"
  top: "conv3_0/3x3_dwconv/bn"
  param {
    lr_mult: 0
    decay_mult: 0
  }
  quantize_param {
    precision: 8
    frozen: true
    positive: true
    tolerance: 1.5
  }
}
layer {
  name: "conv3_0/1x1_decrease"
  type: "Convolution"
  bottom: "conv3_0/3x3_dwconv/bn"
  top: "conv3_0/1x1_decrease/bn"
  param {
    lr_mult: 1
    decay_mult: 1
  }
  param {
    lr_mult: 2
    decay_mult: 0
  }
  convolution_param {
    num_output: 32
    bias_term: true
    kernel_size: 1
    stride: 1
    weight_filler {
      type: "msra"
    }
    bias_filler {
      type: "constant"
      value: 0
    }
    engine: CAFFE
    fp16_accumulation: true
  }
  quantize_param {
    precision: 8
    channel_shared: false
  }
}
layer {
  name: "conv3_0/1x1_decrease/bn_fixed_point"
  type: "Quantize"
  bottom: "conv3_0/1x1_decrease/bn"
  top: "conv3_0/1x1_decrease/bn"
  param {
    lr_mult: 0
    decay_mult: 0
  }
  quantize_param {
    precision: 8
    frozen: true
    positive: false
    tolerance: 1.5
  }
}
layer {
  name: "conv3_1/1x1_increase"
  type: "Convolution"
  bottom: "conv3_0/1x1_decrease/bn"
  top: "conv3_1/1x1_increase/bn"
  param {
    lr_mult: 1
    decay_mult: 1
  }
  param {
    lr_mult: 2
    decay_mult: 0
  }
  convolution_param {
    num_output: 96
    bias_term: true
    kernel_size: 1
    stride: 1
    weight_filler {
      type: "msra"
    }
    bias_filler {
      type: "constant"
      value: 0
    }
    engine: CAFFE
    fp16_accumulation: true
  }
  quantize_param {
    precision: 8
    channel_shared: false
  }
}
layer {
  name: "conv3_1/1x1_increase/relu"
  type: "ReLU"
  bottom: "conv3_1/1x1_increase/bn"
  top: "conv3_1/1x1_increase/bn"
}
layer {
  name: "conv3_1/1x1_increase/bn_fixed_point"
  type: "Quantize"
  bottom: "conv3_1/1x1_increase/bn"
  top: "conv3_1/1x1_increase/bn"
  param {
    lr_mult: 0
    decay_mult: 0
  }
  quantize_param {
    precision: 8
    frozen: true
    positive: true
    tolerance: 1.5
  }
}
layer {
  name: "conv3_1/3x3_dwconv"
  type: "Convolution"
  bottom: "conv3_1/1x1_increase/bn"
  top: "conv3_1/3x3_dwconv/bn"
  param {
    lr_mult: 1
    decay_mult: 1
  }
  param {
    lr_mult: 2
    decay_mult: 0
  }
  convolution_param {
    num_output: 96
    bias_term: true
    pad: 1
    kernel_size: 3
    group: 96
    stride: 1
    weight_filler {
      type: "msra"
    }
    bias_filler {
      type: "constant"
      value: 0
    }
    engine: CAFFE
    fp16_accumulation: true
  }
  quantize_param {
    precision: 8
    channel_shared: false
  }
}
layer {
  name: "conv3_1/3x3_dwconv/relu"
  type: "ReLU"
  bottom: "conv3_1/3x3_dwconv/bn"
  top: "conv3_1/3x3_dwconv/bn"
}
layer {
  name: "conv3_1/3x3_dwconv/bn_fixed_point"
  type: "Quantize"
  bottom: "conv3_1/3x3_dwconv/bn"
  top: "conv3_1/3x3_dwconv/bn"
  param {
    lr_mult: 0
    decay_mult: 0
  }
  quantize_param {
    precision: 8
    frozen: true
    positive: true
    tolerance: 1.5
  }
}
layer {
  name: "conv3_1/1x1_decrease"
  type: "Convolution"
  bottom: "conv3_1/3x3_dwconv/bn"
  top: "conv3_1/1x1_decrease/bn"
  param {
    lr_mult: 1
    decay_mult: 1
  }
  param {
    lr_mult: 2
    decay_mult: 0
  }
  convolution_param {
    num_output: 32
    bias_term: true
    kernel_size: 1
    stride: 1
    weight_filler {
      type: "msra"
    }
    bias_filler {
      type: "constant"
      value: 0
    }
    engine: CAFFE
    fp16_accumulation: true
  }
  quantize_param {
    precision: 8
    channel_shared: false
  }
}
layer {
  name: "conv3_1/elt_sum"
  type: "Eltwise"
  bottom: "conv3_0/1x1_decrease/bn"
  bottom: "conv3_1/1x1_decrease/bn"
  top: "conv3_1/elt_sum"
  eltwise_param {
    operation: SUM
  }
}
layer {
  name: "conv3_1/elt_sum_fixed_point"
  type: "Quantize"
  bottom: "conv3_1/elt_sum"
  top: "conv3_1/elt_sum"
  param {
    lr_mult: 0
    decay_mult: 0
  }
  quantize_param {
    precision: 8
    frozen: true
    positive: false
    tolerance: 1.5
  }
}
layer {
  name: "conv4_0/1x1_increase"
  type: "Convolution"
  bottom: "conv3_1/elt_sum"
  top: "conv4_0/1x1_increase/bn"
  param {
    lr_mult: 1
    decay_mult: 1
  }
  param {
    lr_mult: 2
    decay_mult: 0
  }
  convolution_param {
    num_output: 96
    bias_term: true
    kernel_size: 1
    stride: 1
    weight_filler {
      type: "msra"
    }
    bias_filler {
      type: "constant"
      value: 0
    }
    engine: CAFFE
    fp16_accumulation: true
  }
  quantize_param {
    precision: 8
    channel_shared: false
  }
}
layer {
  name: "conv4_0/1x1_increase/hardswish"
  type: "HardSwish"
  bottom: "conv4_0/1x1_increase/bn"
  top: "conv4_0/1x1_increase/bn"
}
layer {
  name: "conv4_0/1x1_increase/bn_fixed_point"
  type: "Quantize"
  bottom: "conv4_0/1x1_increase/bn"
  top: "conv4_0/1x1_increase/bn"
  param {
    lr_mult: 0
    decay_mult: 0
  }
  quantize_param {
    precision: 8
    frozen: true
    positive: false
    tolerance: 1.5
  }
}
layer {
  name: "conv4_0/1x1_increase/slice"
  type: "Slice"
  bottom: "conv4_0/1x1_increase/bn"
  top: "conv4_0/1x1_increase/split1"
  top: "conv4_0/1x1_increase/split2"
  top: "conv4_0/1x1_increase/split3"
  slice_param {
    slice_point: 32
    slice_point: 64
  }
}
layer {
  name: "conv4_0/3x3_dwconv/slice_0"
  type: "Convolution"
  bottom: "conv4_0/1x1_increase/split1"
  top: "conv4_0/3x3_dwconv/slice_0/bn"
  param {
    lr_mult: 1
    decay_mult: 1
  }
  param {
    lr_mult: 2
    decay_mult: 0
  }
  convolution_param {
    num_output: 32
    bias_term: true
    pad: 1
    kernel_size: 3
    group: 32
    stride: 2
    weight_filler {
      type: "msra"
    }
    bias_filler {
      type: "constant"
      value: 0
    }
    engine: CAFFE
    fp16_accumulation: true
  }
  quantize_param {
    precision: 8
    channel_shared: false
  }
}
layer {
  name: "conv4_0/3x3_dwconv/slice_0/hardswish"
  type: "HardSwish"
  bottom: "conv4_0/3x3_dwconv/slice_0/bn"
  top: "conv4_0/3x3_dwconv/slice_0/bn"
}
layer {
  name: "conv4_0/3x3_dwconv/slice_1"
  type: "Convolution"
  bottom: "conv4_0/1x1_increase/split2"
  top: "conv4_0/3x3_dwconv/slice_1/bn"
  param {
    lr_mult: 1
    decay_mult: 1
  }
  param {
    lr_mult: 2
    decay_mult: 0
  }
  convolution_param {
    num_output: 32
    bias_term: true
    pad: 2
    kernel_size: 5
    group: 32
    stride: 2
    weight_filler {
      type: "msra"
    }
    bias_filler {
      type: "constant"
      value: 0
    }
    engine: CAFFE
    fp16_accumulation: true
  }
  quantize_param {
    precision: 8
    channel_shared: false
  }
}
layer {
  name: "conv4_0/3x3_dwconv/slice_1/hardswish"
  type: "HardSwish"
  bottom: "conv4_0/3x3_dwconv/slice_1/bn"
  top: "conv4_0/3x3_dwconv/slice_1/bn"
}
layer {
  name: "conv4_0/3x3_dwconv/slice_2"
  type: "Convolution"
  bottom: "conv4_0/1x1_increase/split3"
  top: "conv4_0/3x3_dwconv/slice_2/bn"
  param {
    lr_mult: 1
    decay_mult: 1
  }
  param {
    lr_mult: 2
    decay_mult: 0
  }
  convolution_param {
    num_output: 32
    bias_term: true
    pad: 3
    kernel_size: 7
    group: 32
    stride: 2
    weight_filler {
      type: "msra"
    }
    bias_filler {
      type: "constant"
      value: 0
    }
    engine: CAFFE
    fp16_accumulation: true
  }
  quantize_param {
    precision: 8
    channel_shared: false
  }
}
layer {
  name: "conv4_0/3x3_dwconv/slice_2/hardswish"
  type: "HardSwish"
  bottom: "conv4_0/3x3_dwconv/slice_2/bn"
  top: "conv4_0/3x3_dwconv/slice_2/bn"
}
layer {
  name: "conv4_0/3x3_dwconv/concat"
  type: "Concat"
  bottom: "conv4_0/3x3_dwconv/slice_0/bn"
  bottom: "conv4_0/3x3_dwconv/slice_1/bn"
  bottom: "conv4_0/3x3_dwconv/slice_2/bn"
  top: "conv4_0/3x3_dwconv/concat"
}
layer {
  name: "conv4_0/3x3_dwconv/concat_fixed_point"
  type: "Quantize"
  bottom: "conv4_0/3x3_dwconv/concat"
  top: "conv4_0/3x3_dwconv/concat"
  param {
    lr_mult: 0
    decay_mult: 0
  }
  quantize_param {
    precision: 8
    frozen: true
    positive: false
    tolerance: 1.5
  }
}
layer {
  name: "conv4_0/3x3_dwconv/SE_global_pool"
  type: "Pooling"
  bottom: "conv4_0/3x3_dwconv/concat"
  top: "conv4_0/3x3_dwconv/SE_global_pool"
  pooling_param {
    pool: AVE
    engine: CAFFE
    global_pooling: true
  }
}
layer {
  name: "conv4_0/3x3_dwconv/SE_bn"
  type: "Scale"
  bottom: "conv4_0/3x3_dwconv/SE_global_pool"
  top: "conv4_0/3x3_dwconv/SE_bn"
  param {
    lr_mult: 1
    decay_mult: 0
  }
  param {
    lr_mult: 2
    decay_mult: 0
  }
  scale_param {
    axis: 1
    num_axes: 1
    bias_term: true
  }
}
layer {
  name: "conv4_0/3x3_dwconv/SE_fc1"
  type: "Convolution"
  bottom: "conv4_0/3x3_dwconv/SE_bn"
  top: "conv4_0/3x3_dwconv/SE_fc1"
  param {
    lr_mult: 1
    decay_mult: 1
  }
  convolution_param {
    num_output: 6
    bias_term: false
    kernel_size: 1
    stride: 1
    weight_filler {
      type: "gaussian"
      std: 0.01
    }
    engine: CAFFE
    fp16_accumulation: true
  }
  quantize_param {
    precision: 8
    channel_shared: false
  }
}
layer {
  name: "conv4_0/3x3_dwconv/SE_fc1/relu"
  type: "ReLU"
  bottom: "conv4_0/3x3_dwconv/SE_fc1"
  top: "conv4_0/3x3_dwconv/SE_fc1"
}
layer {
  name: "conv4_0/3x3_dwconv/SE_fc2"
  type: "Convolution"
  bottom: "conv4_0/3x3_dwconv/SE_fc1"
  top: "conv4_0/3x3_dwconv/SE_fc2"
  param {
    lr_mult: 1
    decay_mult: 1
  }
  convolution_param {
    num_output: 96
    bias_term: false
    kernel_size: 1
    stride: 1
    weight_filler {
      type: "gaussian"
      std: 0.01
    }
    engine: CAFFE
    fp16_accumulation: true
  }
  quantize_param {
    precision: 8
    channel_shared: false
  }
}
layer {
  name: "conv4_0/3x3_dwconv/SE_weights"
  type: "Sigmoid"
  bottom: "conv4_0/3x3_dwconv/SE_fc2"
  top: "conv4_0/3x3_dwconv/SE_fc2"
}
layer {
  name: "conv4_0/3x3_dwconv/SE_weights/reshape"
  type: "Reshape"
  bottom: "conv4_0/3x3_dwconv/SE_fc2"
  top: "conv4_0/3x3_dwconv/SE_weights/reshape"
  reshape_param {
    shape {
      dim: 0
      dim: 0
    }
  }
}
layer {
  name: "conv4_0/3x3_dwconv/scale"
  type: "Scale"
  bottom: "conv4_0/3x3_dwconv/concat"
  bottom: "conv4_0/3x3_dwconv/SE_weights/reshape"
  top: "conv4_0/3x3_dwconv/scale"
  scale_param {
    axis: 0
    bias_term: false
  }
}
layer {
  name: "conv4_0/3x3_dwconv/scale_fixed_point"
  type: "Quantize"
  bottom: "conv4_0/3x3_dwconv/scale"
  top: "conv4_0/3x3_dwconv/scale"
  param {
    lr_mult: 0
    decay_mult: 0
  }
  quantize_param {
    precision: 8
    frozen: true
    positive: false
    tolerance: 1.5
  }
}
layer {
  name: "conv4_0/1x1_decrease"
  type: "Convolution"
  bottom: "conv4_0/3x3_dwconv/scale"
  top: "conv4_0/1x1_decrease/bn"
  param {
    lr_mult: 1
    decay_mult: 1
  }
  param {
    lr_mult: 2
    decay_mult: 0
  }
  convolution_param {
    num_output: 40
    bias_term: true
    kernel_size: 1
    stride: 1
    weight_filler {
      type: "msra"
    }
    bias_filler {
      type: "constant"
      value: 0
    }
    engine: CAFFE
    fp16_accumulation: true
  }
  quantize_param {
    precision: 8
    channel_shared: false
  }
}
layer {
  name: "conv4_0/1x1_decrease/bn_fixed_point"
  type: "Quantize"
  bottom: "conv4_0/1x1_decrease/bn"
  top: "conv4_0/1x1_decrease/bn"
  param {
    lr_mult: 0
    decay_mult: 0
  }
  quantize_param {
    precision: 8
    frozen: true
    positive: false
    tolerance: 1.5
  }
}
layer {
  name: "conv4_1/1x1_increase"
  type: "Convolution"
  bottom: "conv4_0/1x1_decrease/bn"
  top: "conv4_1/1x1_increase/bn"
  param {
    lr_mult: 1
    decay_mult: 1
  }
  param {
    lr_mult: 2
    decay_mult: 0
  }
  convolution_param {
    num_output: 120
    bias_term: true
    kernel_size: 1
    stride: 1
    weight_filler {
      type: "msra"
    }
    bias_filler {
      type: "constant"
      value: 0
    }
    engine: CAFFE
    fp16_accumulation: true
  }
  quantize_param {
    precision: 8
    channel_shared: false
  }
}
layer {
  name: "conv4_1/1x1_increase/hardswish"
  type: "HardSwish"
  bottom: "conv4_1/1x1_increase/bn"
  top: "conv4_1/1x1_increase/bn"
}
layer {
  name: "conv4_1/1x1_increase/bn_fixed_point"
  type: "Quantize"
  bottom: "conv4_1/1x1_increase/bn"
  top: "conv4_1/1x1_increase/bn"
  param {
    lr_mult: 0
    decay_mult: 0
  }
  quantize_param {
    precision: 8
    frozen: true
    positive: false
    tolerance: 1.5
  }
}
layer {
  name: "conv4_1/1x1_increase/slice"
  type: "Slice"
  bottom: "conv4_1/1x1_increase/bn"
  top: "conv4_1/1x1_increase/split1"
  top: "conv4_1/1x1_increase/split2"
  slice_param {
    slice_point: 60
  }
}
layer {
  name: "conv4_1/3x3_dwconv/slice_0"
  type: "Convolution"
  bottom: "conv4_1/1x1_increase/split1"
  top: "conv4_1/3x3_dwconv/slice_0/bn"
  param {
    lr_mult: 1
    decay_mult: 1
  }
  param {
    lr_mult: 2
    decay_mult: 0
  }
  convolution_param {
    num_output: 60
    bias_term: true
    pad: 1
    kernel_size: 3
    group: 60
    stride: 1
    weight_filler {
      type: "msra"
    }
    bias_filler {
      type: "constant"
      value: 0
    }
    engine: CAFFE
    fp16_accumulation: true
  }
  quantize_param {
    precision: 8
    channel_shared: false
  }
}
layer {
  name: "conv4_1/3x3_dwconv/slice_0/hardswish"
  type: "HardSwish"
  bottom: "conv4_1/3x3_dwconv/slice_0/bn"
  top: "conv4_1/3x3_dwconv/slice_0/bn"
}
layer {
  name: "conv4_1/3x3_dwconv/slice_1"
  type: "Convolution"
  bottom: "conv4_1/1x1_increase/split2"
  top: "conv4_1/3x3_dwconv/slice_1/bn"
  param {
    lr_mult: 1
    decay_mult: 1
  }
  param {
    lr_mult: 2
    decay_mult: 0
  }
  convolution_param {
    num_output: 60
    bias_term: true
    pad: 2
    kernel_size: 5
    group: 60
    stride: 1
    weight_filler {
      type: "msra"
    }
    bias_filler {
      type: "constant"
      value: 0
    }
    engine: CAFFE
    fp16_accumulation: true
  }
  quantize_param {
    precision: 8
    channel_shared: false
  }
}
layer {
  name: "conv4_1/3x3_dwconv/slice_1/hardswish"
  type: "HardSwish"
  bottom: "conv4_1/3x3_dwconv/slice_1/bn"
  top: "conv4_1/3x3_dwconv/slice_1/bn"
}
layer {
  name: "conv4_1/3x3_dwconv/concat"
  type: "Concat"
  bottom: "conv4_1/3x3_dwconv/slice_0/bn"
  bottom: "conv4_1/3x3_dwconv/slice_1/bn"
  top: "conv4_1/3x3_dwconv/concat"
}
layer {
  name: "conv4_1/3x3_dwconv/concat_fixed_point"
  type: "Quantize"
  bottom: "conv4_1/3x3_dwconv/concat"
  top: "conv4_1/3x3_dwconv/concat"
  param {
    lr_mult: 0
    decay_mult: 0
  }
  quantize_param {
    precision: 8
    frozen: true
    positive: false
    tolerance: 1.5
  }
}
layer {
  name: "conv4_1/3x3_dwconv/SE_global_pool"
  type: "Pooling"
  bottom: "conv4_1/3x3_dwconv/concat"
  top: "conv4_1/3x3_dwconv/SE_global_pool"
  pooling_param {
    pool: AVE
    engine: CAFFE
    global_pooling: true
  }
}
layer {
  name: "conv4_1/3x3_dwconv/SE_bn"
  type: "Scale"
  bottom: "conv4_1/3x3_dwconv/SE_global_pool"
  top: "conv4_1/3x3_dwconv/SE_bn"
  param {
    lr_mult: 1
    decay_mult: 0
  }
  param {
    lr_mult: 2
    decay_mult: 0
  }
  scale_param {
    axis: 1
    num_axes: 1
    bias_term: true
  }
}
layer {
  name: "conv4_1/3x3_dwconv/SE_fc1"
  type: "Convolution"
  bottom: "conv4_1/3x3_dwconv/SE_bn"
  top: "conv4_1/3x3_dwconv/SE_fc1"
  param {
    lr_mult: 1
    decay_mult: 1
  }
  convolution_param {
    num_output: 7
    bias_term: false
    kernel_size: 1
    stride: 1
    weight_filler {
      type: "gaussian"
      std: 0.01
    }
    engine: CAFFE
    fp16_accumulation: true
  }
  quantize_param {
    precision: 8
    channel_shared: false
  }
}
layer {
  name: "conv4_1/3x3_dwconv/SE_fc1/relu"
  type: "ReLU"
  bottom: "conv4_1/3x3_dwconv/SE_fc1"
  top: "conv4_1/3x3_dwconv/SE_fc1"
}
layer {
  name: "conv4_1/3x3_dwconv/SE_fc2"
  type: "Convolution"
  bottom: "conv4_1/3x3_dwconv/SE_fc1"
  top: "conv4_1/3x3_dwconv/SE_fc2"
  param {
    lr_mult: 1
    decay_mult: 1
  }
  convolution_param {
    num_output: 120
    bias_term: false
    kernel_size: 1
    stride: 1
    weight_filler {
      type: "gaussian"
      std: 0.01
    }
    engine: CAFFE
    fp16_accumulation: true
  }
  quantize_param {
    precision: 8
    channel_shared: false
  }
}
layer {
  name: "conv4_1/3x3_dwconv/SE_weights"
  type: "Sigmoid"
  bottom: "conv4_1/3x3_dwconv/SE_fc2"
  top: "conv4_1/3x3_dwconv/SE_fc2"
}
layer {
  name: "conv4_1/3x3_dwconv/SE_weights/reshape"
  type: "Reshape"
  bottom: "conv4_1/3x3_dwconv/SE_fc2"
  top: "conv4_1/3x3_dwconv/SE_weights/reshape"
  reshape_param {
    shape {
      dim: 0
      dim: 0
    }
  }
}
layer {
  name: "conv4_1/3x3_dwconv/scale"
  type: "Scale"
  bottom: "conv4_1/3x3_dwconv/concat"
  bottom: "conv4_1/3x3_dwconv/SE_weights/reshape"
  top: "conv4_1/3x3_dwconv/scale"
  scale_param {
    axis: 0
    bias_term: false
  }
}
layer {
  name: "conv4_1/3x3_dwconv/scale_fixed_point"
  type: "Quantize"
  bottom: "conv4_1/3x3_dwconv/scale"
  top: "conv4_1/3x3_dwconv/scale"
  param {
    lr_mult: 0
    decay_mult: 0
  }
  quantize_param {
    precision: 8
    frozen: true
    positive: false
    tolerance: 1.5
  }
}
layer {
  name: "conv4_1/1x1_decrease"
  type: "Convolution"
  bottom: "conv4_1/3x3_dwconv/scale"
  top: "conv4_1/1x1_decrease/bn"
  param {
    lr_mult: 1
    decay_mult: 1
  }
  param {
    lr_mult: 2
    decay_mult: 0
  }
  convolution_param {
    num_output: 40
    bias_term: true
    kernel_size: 1
    stride: 1
    weight_filler {
      type: "msra"
    }
    bias_filler {
      type: "constant"
      value: 0
    }
    engine: CAFFE
    fp16_accumulation: true
  }
  quantize_param {
    precision: 8
    channel_shared: false
  }
}
layer {
  name: "conv4_1/elt_sum"
  type: "Eltwise"
  bottom: "conv4_0/1x1_decrease/bn"
  bottom: "conv4_1/1x1_decrease/bn"
  top: "conv4_1/elt_sum"
  eltwise_param {
    operation: SUM
  }
}
layer {
  name: "conv4_1/elt_sum_fixed_point"
  type: "Quantize"
  bottom: "conv4_1/elt_sum"
  top: "conv4_1/elt_sum"
  param {
    lr_mult: 0
    decay_mult: 0
  }
  quantize_param {
    precision: 8
    frozen: true
    positive: false
    tolerance: 1.5
  }
}
layer {
  name: "conv4_2/1x1_increase"
  type: "Convolution"
  bottom: "conv4_1/elt_sum"
  top: "conv4_2/1x1_increase/bn"
  param {
    lr_mult: 1
    decay_mult: 1
  }
  param {
    lr_mult: 2
    decay_mult: 0
  }
  convolution_param {
    num_output: 120
    bias_term: true
    kernel_size: 1
    stride: 1
    weight_filler {
      type: "msra"
    }
    bias_filler {
      type: "constant"
      value: 0
    }
    engine: CAFFE
    fp16_accumulation: true
  }
  quantize_param {
    precision: 8
    channel_shared: false
  }
}
layer {
  name: "conv4_2/1x1_increase/hardswish"
  type: "HardSwish"
  bottom: "conv4_2/1x1_increase/bn"
  top: "conv4_2/1x1_increase/bn"
}
layer {
  name: "conv4_2/1x1_increase/bn_fixed_point"
  type: "Quantize"
  bottom: "conv4_2/1x1_increase/bn"
  top: "conv4_2/1x1_increase/bn"
  param {
    lr_mult: 0
    decay_mult: 0
  }
  quantize_param {
    precision: 8
    frozen: true
    positive: false
    tolerance: 1.5
  }
}
layer {
  name: "conv4_2/1x1_increase/slice"
  type: "Slice"
  bottom: "conv4_2/1x1_increase/bn"
  top: "conv4_2/1x1_increase/split1"
  top: "conv4_2/1x1_increase/split2"
  slice_param {
    slice_point: 60
  }
}
layer {
  name: "conv4_2/3x3_dwconv/slice_0"
  type: "Convolution"
  bottom: "conv4_2/1x1_increase/split1"
  top: "conv4_2/3x3_dwconv/slice_0/bn"
  param {
    lr_mult: 1
    decay_mult: 1
  }
  param {
    lr_mult: 2
    decay_mult: 0
  }
  convolution_param {
    num_output: 60
    bias_term: true
    pad: 1
    kernel_size: 3
    group: 60
    stride: 1
    weight_filler {
      type: "msra"
    }
    bias_filler {
      type: "constant"
      value: 0
    }
    engine: CAFFE
    fp16_accumulation: true
  }
  quantize_param {
    precision: 8
    channel_shared: false
  }
}
layer {
  name: "conv4_2/3x3_dwconv/slice_0/hardswish"
  type: "HardSwish"
  bottom: "conv4_2/3x3_dwconv/slice_0/bn"
  top: "conv4_2/3x3_dwconv/slice_0/bn"
}
layer {
  name: "conv4_2/3x3_dwconv/slice_1"
  type: "Convolution"
  bottom: "conv4_2/1x1_increase/split2"
  top: "conv4_2/3x3_dwconv/slice_1/bn"
  param {
    lr_mult: 1
    decay_mult: 1
  }
  param {
    lr_mult: 2
    decay_mult: 0
  }
  convolution_param {
    num_output: 60
    bias_term: true
    pad: 2
    kernel_size: 5
    group: 60
    stride: 1
    weight_filler {
      type: "msra"
    }
    bias_filler {
      type: "constant"
      value: 0
    }
    engine: CAFFE
    fp16_accumulation: true
  }
  quantize_param {
    precision: 8
    channel_shared: false
  }
}
layer {
  name: "conv4_2/3x3_dwconv/slice_1/hardswish"
  type: "HardSwish"
  bottom: "conv4_2/3x3_dwconv/slice_1/bn"
  top: "conv4_2/3x3_dwconv/slice_1/bn"
}
layer {
  name: "conv4_2/3x3_dwconv/concat"
  type: "Concat"
  bottom: "conv4_2/3x3_dwconv/slice_0/bn"
  bottom: "conv4_2/3x3_dwconv/slice_1/bn"
  top: "conv4_2/3x3_dwconv/concat"
}
layer {
  name: "conv4_2/3x3_dwconv/concat_fixed_point"
  type: "Quantize"
  bottom: "conv4_2/3x3_dwconv/concat"
  top: "conv4_2/3x3_dwconv/concat"
  param {
    lr_mult: 0
    decay_mult: 0
  }
  quantize_param {
    precision: 8
    frozen: true
    positive: false
    tolerance: 1.5
  }
}
layer {
  name: "conv4_2/3x3_dwconv/SE_global_pool"
  type: "Pooling"
  bottom: "conv4_2/3x3_dwconv/concat"
  top: "conv4_2/3x3_dwconv/SE_global_pool"
  pooling_param {
    pool: AVE
    engine: CAFFE
    global_pooling: true
  }
}
layer {
  name: "conv4_2/3x3_dwconv/SE_bn"
  type: "Scale"
  bottom: "conv4_2/3x3_dwconv/SE_global_pool"
  top: "conv4_2/3x3_dwconv/SE_bn"
  param {
    lr_mult: 1
    decay_mult: 0
  }
  param {
    lr_mult: 2
    decay_mult: 0
  }
  scale_param {
    axis: 1
    num_axes: 1
    bias_term: true
  }
}
layer {
  name: "conv4_2/3x3_dwconv/SE_fc1"
  type: "Convolution"
  bottom: "conv4_2/3x3_dwconv/SE_bn"
  top: "conv4_2/3x3_dwconv/SE_fc1"
  param {
    lr_mult: 1
    decay_mult: 1
  }
  convolution_param {
    num_output: 7
    bias_term: false
    kernel_size: 1
    stride: 1
    weight_filler {
      type: "gaussian"
      std: 0.01
    }
    engine: CAFFE
    fp16_accumulation: true
  }
  quantize_param {
    precision: 8
    channel_shared: false
  }
}
layer {
  name: "conv4_2/3x3_dwconv/SE_fc1/relu"
  type: "ReLU"
  bottom: "conv4_2/3x3_dwconv/SE_fc1"
  top: "conv4_2/3x3_dwconv/SE_fc1"
}
layer {
  name: "conv4_2/3x3_dwconv/SE_fc2"
  type: "Convolution"
  bottom: "conv4_2/3x3_dwconv/SE_fc1"
  top: "conv4_2/3x3_dwconv/SE_fc2"
  param {
    lr_mult: 1
    decay_mult: 1
  }
  convolution_param {
    num_output: 120
    bias_term: false
    kernel_size: 1
    stride: 1
    weight_filler {
      type: "gaussian"
      std: 0.01
    }
    engine: CAFFE
    fp16_accumulation: true
  }
  quantize_param {
    precision: 8
    channel_shared: false
  }
}
layer {
  name: "conv4_2/3x3_dwconv/SE_weights"
  type: "Sigmoid"
  bottom: "conv4_2/3x3_dwconv/SE_fc2"
  top: "conv4_2/3x3_dwconv/SE_fc2"
}
layer {
  name: "conv4_2/3x3_dwconv/SE_weights/reshape"
  type: "Reshape"
  bottom: "conv4_2/3x3_dwconv/SE_fc2"
  top: "conv4_2/3x3_dwconv/SE_weights/reshape"
  reshape_param {
    shape {
      dim: 0
      dim: 0
    }
  }
}
layer {
  name: "conv4_2/3x3_dwconv/scale"
  type: "Scale"
  bottom: "conv4_2/3x3_dwconv/concat"
  bottom: "conv4_2/3x3_dwconv/SE_weights/reshape"
  top: "conv4_2/3x3_dwconv/scale"
  scale_param {
    axis: 0
    bias_term: false
  }
}
layer {
  name: "conv4_2/3x3_dwconv/scale_fixed_point"
  type: "Quantize"
  bottom: "conv4_2/3x3_dwconv/scale"
  top: "conv4_2/3x3_dwconv/scale"
  param {
    lr_mult: 0
    decay_mult: 0
  }
  quantize_param {
    precision: 8
    frozen: true
    positive: false
    tolerance: 1.5
  }
}
layer {
  name: "conv4_2/1x1_decrease"
  type: "Convolution"
  bottom: "conv4_2/3x3_dwconv/scale"
  top: "conv4_2/1x1_decrease/bn"
  param {
    lr_mult: 1
    decay_mult: 1
  }
  param {
    lr_mult: 2
    decay_mult: 0
  }
  convolution_param {
    num_output: 40
    bias_term: true
    kernel_size: 1
    stride: 1
    weight_filler {
      type: "msra"
    }
    bias_filler {
      type: "constant"
      value: 0
    }
    engine: CAFFE
    fp16_accumulation: true
  }
  quantize_param {
    precision: 8
    channel_shared: false
  }
}
layer {
  name: "conv4_2/elt_sum"
  type: "Eltwise"
  bottom: "conv4_1/elt_sum"
  bottom: "conv4_2/1x1_decrease/bn"
  top: "conv4_2/elt_sum"
  eltwise_param {
    operation: SUM
  }
}
layer {
  name: "conv4_2/elt_sum_fixed_point"
  type: "Quantize"
  bottom: "conv4_2/elt_sum"
  top: "conv4_2/elt_sum"
  param {
    lr_mult: 0
    decay_mult: 0
  }
  quantize_param {
    precision: 8
    frozen: true
    positive: false
    tolerance: 1.5
  }
}
layer {
  name: "conv4_3/1x1_increase"
  type: "Convolution"
  bottom: "conv4_2/elt_sum"
  top: "conv4_3/1x1_increase/bn"
  param {
    lr_mult: 1
    decay_mult: 1
  }
  param {
    lr_mult: 2
    decay_mult: 0
  }
  convolution_param {
    num_output: 120
    bias_term: true
    kernel_size: 1
    stride: 1
    weight_filler {
      type: "msra"
    }
   
I0918 10:29:10.747231 30897 layer_factory.hpp:77] Creating layer data
I0918 10:29:10.747280 30897 net.cpp:86] Creating Layer data
I0918 10:29:10.747293 30897 net.cpp:382] data -> data
I0918 10:29:10.747331 30897 net.cpp:382] data -> label
I0918 10:29:10.747354 30897 image_data_layer.cpp:43] Opening file file_lists/val.txt
I0918 10:29:10.760548 30897 image_data_layer.cpp:68] A total of 50000 images.
I0918 10:29:10.798391 30897 image_data_layer.cpp:95] output data size: 25,3,224,224
I0918 10:29:10.845043 30897 net.cpp:124] Setting up data
I0918 10:29:10.845111 30897 net.cpp:131] Top shape: 25 3 224 224 (3763200)
I0918 10:29:10.845120 30897 net.cpp:131] Top shape: 25 (25)
I0918 10:29:10.845125 30897 net.cpp:139] Memory required for data: 15052900
I0918 10:29:10.845136 30897 layer_factory.hpp:77] Creating layer label_data_1_split
I0918 10:29:10.845167 30897 net.cpp:86] Creating Layer label_data_1_split
I0918 10:29:10.845175 30897 net.cpp:408] label_data_1_split <- label
I0918 10:29:10.845199 30897 net.cpp:382] label_data_1_split -> label_data_1_split_0
I0918 10:29:10.845213 30897 net.cpp:382] label_data_1_split -> label_data_1_split_1
I0918 10:29:10.845221 30897 net.cpp:382] label_data_1_split -> label_data_1_split_2
I0918 10:29:10.845374 30897 net.cpp:124] Setting up label_data_1_split
I0918 10:29:10.845386 30897 net.cpp:131] Top shape: 25 (25)
I0918 10:29:10.845391 30897 net.cpp:131] Top shape: 25 (25)
I0918 10:29:10.845396 30897 net.cpp:131] Top shape: 25 (25)
I0918 10:29:10.845399 30897 net.cpp:139] Memory required for data: 15053200
I0918 10:29:10.845403 30897 layer_factory.hpp:77] Creating layer data_fixed_point
I0918 10:29:10.845418 30897 net.cpp:86] Creating Layer data_fixed_point
I0918 10:29:10.845423 30897 net.cpp:408] data_fixed_point <- data
I0918 10:29:10.845430 30897 net.cpp:369] data_fixed_point -> data (in-place)
I0918 10:29:10.845541 30897 net.cpp:124] Setting up data_fixed_point
I0918 10:29:10.845551 30897 net.cpp:131] Top shape: 25 3 224 224 (3763200)
I0918 10:29:10.845554 30897 net.cpp:139] Memory required for data: 30106000
I0918 10:29:10.845592 30897 layer_factory.hpp:77] Creating layer conv1/3x3_s2
I0918 10:29:10.845626 30897 net.cpp:86] Creating Layer conv1/3x3_s2
I0918 10:29:10.845633 30897 net.cpp:408] conv1/3x3_s2 <- data
I0918 10:29:10.845649 30897 net.cpp:382] conv1/3x3_s2 -> conv1/3x3_s2/bn
I0918 10:29:10.849983 30897 net.cpp:124] Setting up conv1/3x3_s2
I0918 10:29:10.850001 30897 net.cpp:131] Top shape: 25 32 112 112 (10035200)
I0918 10:29:10.850005 30897 net.cpp:139] Memory required for data: 70246800
I0918 10:29:10.850019 30897 layer_factory.hpp:77] Creating layer conv1/3x3_s2/relu
I0918 10:29:10.850034 30897 net.cpp:86] Creating Layer conv1/3x3_s2/relu
I0918 10:29:10.850064 30897 net.cpp:408] conv1/3x3_s2/relu <- conv1/3x3_s2/bn
I0918 10:29:10.850072 30897 net.cpp:369] conv1/3x3_s2/relu -> conv1/3x3_s2/bn (in-place)
I0918 10:29:11.879525 30897 net.cpp:124] Setting up conv1/3x3_s2/relu
I0918 10:29:11.879588 30897 net.cpp:131] Top shape: 25 32 112 112 (10035200)
I0918 10:29:11.879595 30897 net.cpp:139] Memory required for data: 110387600
I0918 10:29:11.879607 30897 layer_factory.hpp:77] Creating layer conv1/3x3_s2/bn_fixed_point
I0918 10:29:11.879637 30897 net.cpp:86] Creating Layer conv1/3x3_s2/bn_fixed_point
I0918 10:29:11.879659 30897 net.cpp:408] conv1/3x3_s2/bn_fixed_point <- conv1/3x3_s2/bn
I0918 10:29:11.879676 30897 net.cpp:369] conv1/3x3_s2/bn_fixed_point -> conv1/3x3_s2/bn (in-place)
I0918 10:29:11.879740 30897 net.cpp:124] Setting up conv1/3x3_s2/bn_fixed_point
I0918 10:29:11.879751 30897 net.cpp:131] Top shape: 25 32 112 112 (10035200)
I0918 10:29:11.879757 30897 net.cpp:139] Memory required for data: 150528400
I0918 10:29:11.879770 30897 layer_factory.hpp:77] Creating layer conv2_0/3x3_dwconv
I0918 10:29:11.879792 30897 net.cpp:86] Creating Layer conv2_0/3x3_dwconv
I0918 10:29:11.879799 30897 net.cpp:408] conv2_0/3x3_dwconv <- conv1/3x3_s2/bn
I0918 10:29:11.879817 30897 net.cpp:382] conv2_0/3x3_dwconv -> conv2_0/3x3_dwconv/bn
I0918 10:29:11.881031 30897 net.cpp:124] Setting up conv2_0/3x3_dwconv
I0918 10:29:11.881054 30897 net.cpp:131] Top shape: 25 32 112 112 (10035200)
I0918 10:29:11.881070 30897 net.cpp:139] Memory required for data: 190669200
I0918 10:29:11.881086 30897 layer_factory.hpp:77] Creating layer conv2_0/3x3_dwconv/relu
I0918 10:29:11.881099 30897 net.cpp:86] Creating Layer conv2_0/3x3_dwconv/relu
I0918 10:29:11.881106 30897 net.cpp:408] conv2_0/3x3_dwconv/relu <- conv2_0/3x3_dwconv/bn
I0918 10:29:11.881116 30897 net.cpp:369] conv2_0/3x3_dwconv/relu -> conv2_0/3x3_dwconv/bn (in-place)
I0918 10:29:11.882104 30897 net.cpp:124] Setting up conv2_0/3x3_dwconv/relu
I0918 10:29:11.882123 30897 net.cpp:131] Top shape: 25 32 112 112 (10035200)
I0918 10:29:11.882129 30897 net.cpp:139] Memory required for data: 230810000
I0918 10:29:11.882135 30897 layer_factory.hpp:77] Creating layer conv2_0/3x3_dwconv/bn_fixed_point
I0918 10:29:11.882153 30897 net.cpp:86] Creating Layer conv2_0/3x3_dwconv/bn_fixed_point
I0918 10:29:11.882160 30897 net.cpp:408] conv2_0/3x3_dwconv/bn_fixed_point <- conv2_0/3x3_dwconv/bn
I0918 10:29:11.882170 30897 net.cpp:369] conv2_0/3x3_dwconv/bn_fixed_point -> conv2_0/3x3_dwconv/bn (in-place)
I0918 10:29:11.882227 30897 net.cpp:124] Setting up conv2_0/3x3_dwconv/bn_fixed_point
I0918 10:29:11.882236 30897 net.cpp:131] Top shape: 25 32 112 112 (10035200)
I0918 10:29:11.882241 30897 net.cpp:139] Memory required for data: 270950800
I0918 10:29:11.882249 30897 layer_factory.hpp:77] Creating layer conv2_0/1x1_decrease
I0918 10:29:11.882266 30897 net.cpp:86] Creating Layer conv2_0/1x1_decrease
I0918 10:29:11.882282 30897 net.cpp:408] conv2_0/1x1_decrease <- conv2_0/3x3_dwconv/bn
I0918 10:29:11.882292 30897 net.cpp:382] conv2_0/1x1_decrease -> conv2_0/1x1_decrease/bn
I0918 10:29:11.883147 30897 net.cpp:124] Setting up conv2_0/1x1_decrease
I0918 10:29:11.883165 30897 net.cpp:131] Top shape: 25 16 112 112 (5017600)
I0918 10:29:11.883179 30897 net.cpp:139] Memory required for data: 291021200
I0918 10:29:11.883205 30897 layer_factory.hpp:77] Creating layer conv2_0/1x1_decrease/bn_fixed_point
I0918 10:29:11.883219 30897 net.cpp:86] Creating Layer conv2_0/1x1_decrease/bn_fixed_point
I0918 10:29:11.883226 30897 net.cpp:408] conv2_0/1x1_decrease/bn_fixed_point <- conv2_0/1x1_decrease/bn
I0918 10:29:11.883235 30897 net.cpp:369] conv2_0/1x1_decrease/bn_fixed_point -> conv2_0/1x1_decrease/bn (in-place)
I0918 10:29:11.883291 30897 net.cpp:124] Setting up conv2_0/1x1_decrease/bn_fixed_point
I0918 10:29:11.883301 30897 net.cpp:131] Top shape: 25 16 112 112 (5017600)
I0918 10:29:11.883307 30897 net.cpp:139] Memory required for data: 311091600
I0918 10:29:11.883314 30897 layer_factory.hpp:77] Creating layer conv3_0/1x1_increase
I0918 10:29:11.883363 30897 net.cpp:86] Creating Layer conv3_0/1x1_increase
I0918 10:29:11.883370 30897 net.cpp:408] conv3_0/1x1_increase <- conv2_0/1x1_decrease/bn
I0918 10:29:11.883379 30897 net.cpp:382] conv3_0/1x1_increase -> conv3_0/1x1_increase/bn
I0918 10:29:11.884261 30897 net.cpp:124] Setting up conv3_0/1x1_increase
I0918 10:29:11.884280 30897 net.cpp:131] Top shape: 25 48 112 112 (15052800)
I0918 10:29:11.884286 30897 net.cpp:139] Memory required for data: 371302800
I0918 10:29:11.884300 30897 layer_factory.hpp:77] Creating layer conv3_0/1x1_increase/relu
I0918 10:29:11.884310 30897 net.cpp:86] Creating Layer conv3_0/1x1_increase/relu
I0918 10:29:11.884316 30897 net.cpp:408] conv3_0/1x1_increase/relu <- conv3_0/1x1_increase/bn
I0918 10:29:11.884325 30897 net.cpp:369] conv3_0/1x1_increase/relu -> conv3_0/1x1_increase/bn (in-place)
I0918 10:29:11.885553 30897 net.cpp:124] Setting up conv3_0/1x1_increase/relu
I0918 10:29:11.885576 30897 net.cpp:131] Top shape: 25 48 112 112 (15052800)
I0918 10:29:11.885581 30897 net.cpp:139] Memory required for data: 431514000
I0918 10:29:11.885587 30897 layer_factory.hpp:77] Creating layer conv3_0/1x1_increase/bn_fixed_point
I0918 10:29:11.885601 30897 net.cpp:86] Creating Layer conv3_0/1x1_increase/bn_fixed_point
I0918 10:29:11.885607 30897 net.cpp:408] conv3_0/1x1_increase/bn_fixed_point <- conv3_0/1x1_increase/bn
I0918 10:29:11.885617 30897 net.cpp:369] conv3_0/1x1_increase/bn_fixed_point -> conv3_0/1x1_increase/bn (in-place)
I0918 10:29:11.885668 30897 net.cpp:124] Setting up conv3_0/1x1_increase/bn_fixed_point
I0918 10:29:11.885676 30897 net.cpp:131] Top shape: 25 48 112 112 (15052800)
I0918 10:29:11.885681 30897 net.cpp:139] Memory required for data: 491725200
I0918 10:29:11.885689 30897 layer_factory.hpp:77] Creating layer conv3_0/3x3_dwconv
I0918 10:29:11.885705 30897 net.cpp:86] Creating Layer conv3_0/3x3_dwconv
I0918 10:29:11.885711 30897 net.cpp:408] conv3_0/3x3_dwconv <- conv3_0/1x1_increase/bn
I0918 10:29:11.885721 30897 net.cpp:382] conv3_0/3x3_dwconv -> conv3_0/3x3_dwconv/bn
I0918 10:29:11.888522 30897 net.cpp:124] Setting up conv3_0/3x3_dwconv
I0918 10:29:11.888545 30897 net.cpp:131] Top shape: 25 48 56 56 (3763200)
I0918 10:29:11.888552 30897 net.cpp:139] Memory required for data: 506778000
I0918 10:29:11.888567 30897 layer_factory.hpp:77] Creating layer conv3_0/3x3_dwconv/relu
I0918 10:29:11.888581 30897 net.cpp:86] Creating Layer conv3_0/3x3_dwconv/relu
I0918 10:29:11.888588 30897 net.cpp:408] conv3_0/3x3_dwconv/relu <- conv3_0/3x3_dwconv/bn
I0918 10:29:11.888597 30897 net.cpp:369] conv3_0/3x3_dwconv/relu -> conv3_0/3x3_dwconv/bn (in-place)
I0918 10:29:11.889462 30897 net.cpp:124] Setting up conv3_0/3x3_dwconv/relu
I0918 10:29:11.889479 30897 net.cpp:131] Top shape: 25 48 56 56 (3763200)
I0918 10:29:11.889485 30897 net.cpp:139] Memory required for data: 521830800
I0918 10:29:11.889492 30897 layer_factory.hpp:77] Creating layer conv3_0/3x3_dwconv/bn_fixed_point
I0918 10:29:11.889503 30897 net.cpp:86] Creating Layer conv3_0/3x3_dwconv/bn_fixed_point
I0918 10:29:11.889509 30897 net.cpp:408] conv3_0/3x3_dwconv/bn_fixed_point <- conv3_0/3x3_dwconv/bn
I0918 10:29:11.889518 30897 net.cpp:369] conv3_0/3x3_dwconv/bn_fixed_point -> conv3_0/3x3_dwconv/bn (in-place)
I0918 10:29:11.889569 30897 net.cpp:124] Setting up conv3_0/3x3_dwconv/bn_fixed_point
I0918 10:29:11.889577 30897 net.cpp:131] Top shape: 25 48 56 56 (3763200)
I0918 10:29:11.889582 30897 net.cpp:139] Memory required for data: 536883600
I0918 10:29:11.889590 30897 layer_factory.hpp:77] Creating layer conv3_0/1x1_decrease
I0918 10:29:11.889607 30897 net.cpp:86] Creating Layer conv3_0/1x1_decrease
I0918 10:29:11.889613 30897 net.cpp:408] conv3_0/1x1_decrease <- conv3_0/3x3_dwconv/bn
I0918 10:29:11.889622 30897 net.cpp:382] conv3_0/1x1_decrease -> conv3_0/1x1_decrease/bn
I0918 10:29:11.890780 30897 net.cpp:124] Setting up conv3_0/1x1_decrease
I0918 10:29:11.890801 30897 net.cpp:131] Top shape: 25 32 56 56 (2508800)
I0918 10:29:11.890813 30897 net.cpp:139] Memory required for data: 546918800
I0918 10:29:11.890830 30897 layer_factory.hpp:77] Creating layer conv3_0/1x1_decrease/bn_fixed_point
I0918 10:29:11.890866 30897 net.cpp:86] Creating Layer conv3_0/1x1_decrease/bn_fixed_point
I0918 10:29:11.890872 30897 net.cpp:408] conv3_0/1x1_decrease/bn_fixed_point <- conv3_0/1x1_decrease/bn
I0918 10:29:11.890882 30897 net.cpp:369] conv3_0/1x1_decrease/bn_fixed_point -> conv3_0/1x1_decrease/bn (in-place)
I0918 10:29:11.890938 30897 net.cpp:124] Setting up conv3_0/1x1_decrease/bn_fixed_point
I0918 10:29:11.890947 30897 net.cpp:131] Top shape: 25 32 56 56 (2508800)
I0918 10:29:11.890952 30897 net.cpp:139] Memory required for data: 556954000
I0918 10:29:11.890959 30897 layer_factory.hpp:77] Creating layer conv3_0/1x1_decrease/bn_conv3_0/1x1_decrease/bn_fixed_point_0_split
I0918 10:29:11.890969 30897 net.cpp:86] Creating Layer conv3_0/1x1_decrease/bn_conv3_0/1x1_decrease/bn_fixed_point_0_split
I0918 10:29:11.890974 30897 net.cpp:408] conv3_0/1x1_decrease/bn_conv3_0/1x1_decrease/bn_fixed_point_0_split <- conv3_0/1x1_decrease/bn
I0918 10:29:11.890982 30897 net.cpp:382] conv3_0/1x1_decrease/bn_conv3_0/1x1_decrease/bn_fixed_point_0_split -> conv3_0/1x1_decrease/bn_conv3_0/1x1_decrease/bn_fixed_point_0_split_0
I0918 10:29:11.890993 30897 net.cpp:382] conv3_0/1x1_decrease/bn_conv3_0/1x1_decrease/bn_fixed_point_0_split -> conv3_0/1x1_decrease/bn_conv3_0/1x1_decrease/bn_fixed_point_0_split_1
I0918 10:29:11.891063 30897 net.cpp:124] Setting up conv3_0/1x1_decrease/bn_conv3_0/1x1_decrease/bn_fixed_point_0_split
I0918 10:29:11.891072 30897 net.cpp:131] Top shape: 25 32 56 56 (2508800)
I0918 10:29:11.891078 30897 net.cpp:131] Top shape: 25 32 56 56 (2508800)
I0918 10:29:11.891083 30897 net.cpp:139] Memory required for data: 577024400
I0918 10:29:11.891088 30897 layer_factory.hpp:77] Creating layer conv3_1/1x1_increase
I0918 10:29:11.891103 30897 net.cpp:86] Creating Layer conv3_1/1x1_increase
I0918 10:29:11.891108 30897 net.cpp:408] conv3_1/1x1_increase <- conv3_0/1x1_decrease/bn_conv3_0/1x1_decrease/bn_fixed_point_0_split_0
I0918 10:29:11.891117 30897 net.cpp:382] conv3_1/1x1_increase -> conv3_1/1x1_increase/bn
I0918 10:29:11.892068 30897 net.cpp:124] Setting up conv3_1/1x1_increase
I0918 10:29:11.892086 30897 net.cpp:131] Top shape: 25 96 56 56 (7526400)
I0918 10:29:11.892092 30897 net.cpp:139] Memory required for data: 607130000
I0918 10:29:11.892103 30897 layer_factory.hpp:77] Creating layer conv3_1/1x1_increase/relu
I0918 10:29:11.892113 30897 net.cpp:86] Creating Layer conv3_1/1x1_increase/relu
I0918 10:29:11.892120 30897 net.cpp:408] conv3_1/1x1_increase/relu <- conv3_1/1x1_increase/bn
I0918 10:29:11.892129 30897 net.cpp:369] conv3_1/1x1_increase/relu -> conv3_1/1x1_increase/bn (in-place)
I0918 10:29:11.892997 30897 net.cpp:124] Setting up conv3_1/1x1_increase/relu
I0918 10:29:11.893014 30897 net.cpp:131] Top shape: 25 96 56 56 (7526400)
I0918 10:29:11.893020 30897 net.cpp:139] Memory required for data: 637235600
I0918 10:29:11.893028 30897 layer_factory.hpp:77] Creating layer conv3_1/1x1_increase/bn_fixed_point
I0918 10:29:11.893040 30897 net.cpp:86] Creating Layer conv3_1/1x1_increase/bn_fixed_point
I0918 10:29:11.893048 30897 net.cpp:408] conv3_1/1x1_increase/bn_fixed_point <- conv3_1/1x1_increase/bn
I0918 10:29:11.893056 30897 net.cpp:369] conv3_1/1x1_increase/bn_fixed_point -> conv3_1/1x1_increase/bn (in-place)
I0918 10:29:11.893107 30897 net.cpp:124] Setting up conv3_1/1x1_increase/bn_fixed_point
I0918 10:29:11.893115 30897 net.cpp:131] Top shape: 25 96 56 56 (7526400)
I0918 10:29:11.893121 30897 net.cpp:139] Memory required for data: 667341200
I0918 10:29:11.893127 30897 layer_factory.hpp:77] Creating layer conv3_1/3x3_dwconv
I0918 10:29:11.893141 30897 net.cpp:86] Creating Layer conv3_1/3x3_dwconv
I0918 10:29:11.893147 30897 net.cpp:408] conv3_1/3x3_dwconv <- conv3_1/1x1_increase/bn
I0918 10:29:11.893157 30897 net.cpp:382] conv3_1/3x3_dwconv -> conv3_1/3x3_dwconv/bn
I0918 10:29:11.894279 30897 net.cpp:124] Setting up conv3_1/3x3_dwconv
I0918 10:29:11.894299 30897 net.cpp:131] Top shape: 25 96 56 56 (7526400)
I0918 10:29:11.894305 30897 net.cpp:139] Memory required for data: 697446800
I0918 10:29:11.894336 30897 layer_factory.hpp:77] Creating layer conv3_1/3x3_dwconv/relu
I0918 10:29:11.894351 30897 net.cpp:86] Creating Layer conv3_1/3x3_dwconv/relu
I0918 10:29:11.894358 30897 net.cpp:408] conv3_1/3x3_dwconv/relu <- conv3_1/3x3_dwconv/bn
I0918 10:29:11.894367 30897 net.cpp:369] conv3_1/3x3_dwconv/relu -> conv3_1/3x3_dwconv/bn (in-place)
I0918 10:29:11.895505 30897 net.cpp:124] Setting up conv3_1/3x3_dwconv/relu
I0918 10:29:11.895527 30897 net.cpp:131] Top shape: 25 96 56 56 (7526400)
I0918 10:29:11.895534 30897 net.cpp:139] Memory required for data: 727552400
I0918 10:29:11.895539 30897 layer_factory.hpp:77] Creating layer conv3_1/3x3_dwconv/bn_fixed_point
I0918 10:29:11.895555 30897 net.cpp:86] Creating Layer conv3_1/3x3_dwconv/bn_fixed_point
I0918 10:29:11.895561 30897 net.cpp:408] conv3_1/3x3_dwconv/bn_fixed_point <- conv3_1/3x3_dwconv/bn
I0918 10:29:11.895571 30897 net.cpp:369] conv3_1/3x3_dwconv/bn_fixed_point -> conv3_1/3x3_dwconv/bn (in-place)
I0918 10:29:11.895622 30897 net.cpp:124] Setting up conv3_1/3x3_dwconv/bn_fixed_point
I0918 10:29:11.895632 30897 net.cpp:131] Top shape: 25 96 56 56 (7526400)
I0918 10:29:11.895637 30897 net.cpp:139] Memory required for data: 757658000
I0918 10:29:11.895644 30897 layer_factory.hpp:77] Creating layer conv3_1/1x1_decrease
I0918 10:29:11.895658 30897 net.cpp:86] Creating Layer conv3_1/1x1_decrease
I0918 10:29:11.895663 30897 net.cpp:408] conv3_1/1x1_decrease <- conv3_1/3x3_dwconv/bn
I0918 10:29:11.895673 30897 net.cpp:382] conv3_1/1x1_decrease -> conv3_1/1x1_decrease/bn
I0918 10:29:11.896621 30897 net.cpp:124] Setting up conv3_1/1x1_decrease
I0918 10:29:11.896639 30897 net.cpp:131] Top shape: 25 32 56 56 (2508800)
I0918 10:29:11.896646 30897 net.cpp:139] Memory required for data: 767693200
I0918 10:29:11.896656 30897 layer_factory.hpp:77] Creating layer conv3_1/elt_sum
I0918 10:29:11.896675 30897 net.cpp:86] Creating Layer conv3_1/elt_sum
I0918 10:29:11.896682 30897 net.cpp:408] conv3_1/elt_sum <- conv3_0/1x1_decrease/bn_conv3_0/1x1_decrease/bn_fixed_point_0_split_1
I0918 10:29:11.896690 30897 net.cpp:408] conv3_1/elt_sum <- conv3_1/1x1_decrease/bn
I0918 10:29:11.896699 30897 net.cpp:382] conv3_1/elt_sum -> conv3_1/elt_sum
I0918 10:29:11.896759 30897 net.cpp:124] Setting up conv3_1/elt_sum
I0918 10:29:11.896770 30897 net.cpp:131] Top shape: 25 32 56 56 (2508800)
I0918 10:29:11.896775 30897 net.cpp:139] Memory required for data: 777728400
I0918 10:29:11.896781 30897 layer_factory.hpp:77] Creating layer conv3_1/elt_sum_fixed_point
I0918 10:29:11.896790 30897 net.cpp:86] Creating Layer conv3_1/elt_sum_fixed_point
I0918 10:29:11.896796 30897 net.cpp:408] conv3_1/elt_sum_fixed_point <- conv3_1/elt_sum
I0918 10:29:11.896811 30897 net.cpp:369] conv3_1/elt_sum_fixed_point -> conv3_1/elt_sum (in-place)
I0918 10:29:11.896854 30897 net.cpp:124] Setting up conv3_1/elt_sum_fixed_point
I0918 10:29:11.896864 30897 net.cpp:131] Top shape: 25 32 56 56 (2508800)
I0918 10:29:11.896869 30897 net.cpp:139] Memory required for data: 787763600
I0918 10:29:11.896889 30897 layer_factory.hpp:77] Creating layer conv4_0/1x1_increase
I0918 10:29:11.896903 30897 net.cpp:86] Creating Layer conv4_0/1x1_increase
I0918 10:29:11.896914 30897 net.cpp:408] conv4_0/1x1_increase <- conv3_1/elt_sum
I0918 10:29:11.896924 30897 net.cpp:382] conv4_0/1x1_increase -> conv4_0/1x1_increase/bn
I0918 10:29:11.898147 30897 net.cpp:124] Setting up conv4_0/1x1_increase
I0918 10:29:11.898167 30897 net.cpp:131] Top shape: 25 96 56 56 (7526400)
I0918 10:29:11.898174 30897 net.cpp:139] Memory required for data: 817869200
I0918 10:29:11.898183 30897 layer_factory.hpp:77] Creating layer conv4_0/1x1_increase/hardswish
I0918 10:29:11.898197 30897 net.cpp:86] Creating Layer conv4_0/1x1_increase/hardswish
I0918 10:29:11.898205 30897 net.cpp:408] conv4_0/1x1_increase/hardswish <- conv4_0/1x1_increase/bn
I0918 10:29:11.898213 30897 net.cpp:369] conv4_0/1x1_increase/hardswish -> conv4_0/1x1_increase/bn (in-place)
I0918 10:29:11.898262 30897 net.cpp:124] Setting up conv4_0/1x1_increase/hardswish
I0918 10:29:11.898288 30897 net.cpp:131] Top shape: 25 96 56 56 (7526400)
I0918 10:29:11.898293 30897 net.cpp:139] Memory required for data: 847974800
I0918 10:29:11.898298 30897 layer_factory.hpp:77] Creating layer conv4_0/1x1_increase/bn_fixed_point
I0918 10:29:11.898308 30897 net.cpp:86] Creating Layer conv4_0/1x1_increase/bn_fixed_point
I0918 10:29:11.898313 30897 net.cpp:408] conv4_0/1x1_increase/bn_fixed_point <- conv4_0/1x1_increase/bn
I0918 10:29:11.898320 30897 net.cpp:369] conv4_0/1x1_increase/bn_fixed_point -> conv4_0/1x1_increase/bn (in-place)
I0918 10:29:11.898362 30897 net.cpp:124] Setting up conv4_0/1x1_increase/bn_fixed_point
I0918 10:29:11.898371 30897 net.cpp:131] Top shape: 25 96 56 56 (7526400)
I0918 10:29:11.898376 30897 net.cpp:139] Memory required for data: 878080400
I0918 10:29:11.898383 30897 layer_factory.hpp:77] Creating layer conv4_0/1x1_increase/slice
I0918 10:29:11.898416 30897 net.cpp:86] Creating Layer conv4_0/1x1_increase/slice
I0918 10:29:11.898422 30897 net.cpp:408] conv4_0/1x1_increase/slice <- conv4_0/1x1_increase/bn
I0918 10:29:11.898429 30897 net.cpp:382] conv4_0/1x1_increase/slice -> conv4_0/1x1_increase/split1
I0918 10:29:11.898443 30897 net.cpp:382] conv4_0/1x1_increase/slice -> conv4_0/1x1_increase/split2
I0918 10:29:11.898453 30897 net.cpp:382] conv4_0/1x1_increase/slice -> conv4_0/1x1_increase/split3
I0918 10:29:11.898543 30897 net.cpp:124] Setting up conv4_0/1x1_increase/slice
I0918 10:29:11.898553 30897 net.cpp:131] Top shape: 25 32 56 56 (2508800)
I0918 10:29:11.898560 30897 net.cpp:131] Top shape: 25 32 56 56 (2508800)
I0918 10:29:11.898566 30897 net.cpp:131] Top shape: 25 32 56 56 (2508800)
I0918 10:29:11.898569 30897 net.cpp:139] Memory required for data: 908186000
I0918 10:29:11.898574 30897 layer_factory.hpp:77] Creating layer conv4_0/3x3_dwconv/slice_0
I0918 10:29:11.898587 30897 net.cpp:86] Creating Layer conv4_0/3x3_dwconv/slice_0
I0918 10:29:11.898593 30897 net.cpp:408] conv4_0/3x3_dwconv/slice_0 <- conv4_0/1x1_increase/split1
I0918 10:29:11.898602 30897 net.cpp:382] conv4_0/3x3_dwconv/slice_0 -> conv4_0/3x3_dwconv/slice_0/bn
I0918 10:29:11.902321 30897 net.cpp:124] Setting up conv4_0/3x3_dwconv/slice_0
I0918 10:29:11.902340 30897 net.cpp:131] Top shape: 25 32 28 28 (627200)
I0918 10:29:11.902346 30897 net.cpp:139] Memory required for data: 910694800
I0918 10:29:11.902365 30897 layer_factory.hpp:77] Creating layer conv4_0/3x3_dwconv/slice_0/hardswish
I0918 10:29:11.902375 30897 net.cpp:86] Creating Layer conv4_0/3x3_dwconv/slice_0/hardswish
I0918 10:29:11.902381 30897 net.cpp:408] conv4_0/3x3_dwconv/slice_0/hardswish <- conv4_0/3x3_dwconv/slice_0/bn
I0918 10:29:11.902390 30897 net.cpp:369] conv4_0/3x3_dwconv/slice_0/hardswish -> conv4_0/3x3_dwconv/slice_0/bn (in-place)
I0918 10:29:11.902437 30897 net.cpp:124] Setting up conv4_0/3x3_dwconv/slice_0/hardswish
I0918 10:29:11.902446 30897 net.cpp:131] Top shape: 25 32 28 28 (627200)
I0918 10:29:11.902451 30897 net.cpp:139] Memory required for data: 913203600
I0918 10:29:11.902454 30897 layer_factory.hpp:77] Creating layer conv4_0/3x3_dwconv/slice_1
I0918 10:29:11.902472 30897 net.cpp:86] Creating Layer conv4_0/3x3_dwconv/slice_1
I0918 10:29:11.902477 30897 net.cpp:408] conv4_0/3x3_dwconv/slice_1 <- conv4_0/1x1_increase/split2
I0918 10:29:11.902487 30897 net.cpp:382] conv4_0/3x3_dwconv/slice_1 -> conv4_0/3x3_dwconv/slice_1/bn
I0918 10:29:11.903604 30897 net.cpp:124] Setting up conv4_0/3x3_dwconv/slice_1
I0918 10:29:11.903623 30897 net.cpp:131] Top shape: 25 32 28 28 (627200)
I0918 10:29:11.903630 30897 net.cpp:139] Memory required for data: 915712400
I0918 10:29:11.903640 30897 layer_factory.hpp:77] Creating layer conv4_0/3x3_dwconv/slice_1/hardswish
I0918 10:29:11.903650 30897 net.cpp:86] Creating Layer conv4_0/3x3_dwconv/slice_1/hardswish
I0918 10:29:11.903656 30897 net.cpp:408] conv4_0/3x3_dwconv/slice_1/hardswish <- conv4_0/3x3_dwconv/slice_1/bn
I0918 10:29:11.903664 30897 net.cpp:369] conv4_0/3x3_dwconv/slice_1/hardswish -> conv4_0/3x3_dwconv/slice_1/bn (in-place)
I0918 10:29:11.903713 30897 net.cpp:124] Setting up conv4_0/3x3_dwconv/slice_1/hardswish
I0918 10:29:11.903740 30897 net.cpp:131] Top shape: 25 32 28 28 (627200)
I0918 10:29:11.903745 30897 net.cpp:139] Memory required for data: 918221200
I0918 10:29:11.903750 30897 layer_factory.hpp:77] Creating layer conv4_0/3x3_dwconv/slice_2
I0918 10:29:11.903767 30897 net.cpp:86] Creating Layer conv4_0/3x3_dwconv/slice_2
I0918 10:29:11.903774 30897 net.cpp:408] conv4_0/3x3_dwconv/slice_2 <- conv4_0/1x1_increase/split3
I0918 10:29:11.903784 30897 net.cpp:382] conv4_0/3x3_dwconv/slice_2 -> conv4_0/3x3_dwconv/slice_2/bn
I0918 10:29:11.904932 30897 net.cpp:124] Setting up conv4_0/3x3_dwconv/slice_2
I0918 10:29:11.904950 30897 net.cpp:131] Top shape: 25 32 28 28 (627200)
I0918 10:29:11.904956 30897 net.cpp:139] Memory required for data: 920730000
I0918 10:29:11.904968 30897 layer_factory.hpp:77] Creating layer conv4_0/3x3_dwconv/slice_2/hardswish
I0918 10:29:11.904976 30897 net.cpp:86] Creating Layer conv4_0/3x3_dwconv/slice_2/hardswish
I0918 10:29:11.904983 30897 net.cpp:408] conv4_0/3x3_dwconv/slice_2/hardswish <- conv4_0/3x3_dwconv/slice_2/bn
I0918 10:29:11.904991 30897 net.cpp:369] conv4_0/3x3_dwconv/slice_2/hardswish -> conv4_0/3x3_dwconv/slice_2/bn (in-place)
I0918 10:29:11.905040 30897 net.cpp:124] Setting up conv4_0/3x3_dwconv/slice_2/hardswish
I0918 10:29:11.905047 30897 net.cpp:131] Top shape: 25 32 28 28 (627200)
I0918 10:29:11.905052 30897 net.cpp:139] Memory required for data: 923238800
I0918 10:29:11.905057 30897 layer_factory.hpp:77] Creating layer conv4_0/3x3_dwconv/concat
I0918 10:29:11.905069 30897 net.cpp:86] Creating Layer conv4_0/3x3_dwconv/concat
I0918 10:29:11.905076 30897 net.cpp:408] conv4_0/3x3_dwconv/concat <- conv4_0/3x3_dwconv/slice_0/bn
I0918 10:29:11.905083 30897 net.cpp:408] conv4_0/3x3_dwconv/concat <- conv4_0/3x3_dwconv/slice_1/bn
I0918 10:29:11.905091 30897 net.cpp:408] conv4_0/3x3_dwconv/concat <- conv4_0/3x3_dwconv/slice_2/bn
I0918 10:29:11.905099 30897 net.cpp:382] conv4_0/3x3_dwconv/concat -> conv4_0/3x3_dwconv/concat
I0918 10:29:11.905144 30897 net.cpp:124] Setting up conv4_0/3x3_dwconv/concat
I0918 10:29:11.905154 30897 net.cpp:131] Top shape: 25 96 28 28 (1881600)
I0918 10:29:11.905159 30897 net.cpp:139] Memory required for data: 930765200
I0918 10:29:11.905166 30897 layer_factory.hpp:77] Creating layer conv4_0/3x3_dwconv/concat_fixed_point
I0918 10:29:11.905175 30897 net.cpp:86] Creating Layer conv4_0/3x3_dwconv/concat_fixed_point
I0918 10:29:11.905181 30897 net.cpp:408] conv4_0/3x3_dwconv/concat_fixed_point <- conv4_0/3x3_dwconv/concat
I0918 10:29:11.905189 30897 net.cpp:369] conv4_0/3x3_dwconv/concat_fixed_point -> conv4_0/3x3_dwconv/concat (in-place)
I0918 10:29:11.905236 30897 net.cpp:124] Setting up conv4_0/3x3_dwconv/concat_fixed_point
I0918 10:29:11.905246 30897 net.cpp:131] Top shape: 25 96 28 28 (1881600)
I0918 10:29:11.905249 30897 net.cpp:139] Memory required for data: 938291600
I0918 10:29:11.905256 30897 layer_factory.hpp:77] Creating layer conv4_0/3x3_dwconv/concat_conv4_0/3x3_dwconv/concat_fixed_point_0_split
I0918 10:29:11.905264 30897 net.cpp:86] Creating Layer conv4_0/3x3_dwconv/concat_conv4_0/3x3_dwconv/concat_fixed_point_0_split
I0918 10:29:11.905269 30897 net.cpp:408] conv4_0/3x3_dwconv/concat_conv4_0/3x3_dwconv/concat_fixed_point_0_split <- conv4_0/3x3_dwconv/concat
I0918 10:29:11.905277 30897 net.cpp:382] conv4_0/3x3_dwconv/concat_conv4_0/3x3_dwconv/concat_fixed_point_0_split -> conv4_0/3x3_dwconv/concat_conv4_0/3x3_dwconv/concat_fixed_point_0_split_0
I0918 10:29:11.905285 30897 net.cpp:382] conv4_0/3x3_dwconv/concat_conv4_0/3x3_dwconv/concat_fixed_point_0_split -> conv4_0/3x3_dwconv/concat_conv4_0/3x3_dwconv/concat_fixed_point_0_split_1
I0918 10:29:11.905344 30897 net.cpp:124] Setting up conv4_0/3x3_dwconv/concat_conv4_0/3x3_dwconv/concat_fixed_point_0_split
I0918 10:29:11.905352 30897 net.cpp:131] Top shape: 25 96 28 28 (1881600)
I0918 10:29:11.905359 30897 net.cpp:131] Top shape: 25 96 28 28 (1881600)
I0918 10:29:11.905364 30897 net.cpp:139] Memory required for data: 953344400
I0918 10:29:11.905369 30897 layer_factory.hpp:77] Creating layer conv4_0/3x3_dwconv/SE_global_pool
I0918 10:29:11.905400 30897 net.cpp:86] Creating Layer conv4_0/3x3_dwconv/SE_global_pool
I0918 10:29:11.905407 30897 net.cpp:408] conv4_0/3x3_dwconv/SE_global_pool <- conv4_0/3x3_dwconv/concat_conv4_0/3x3_dwconv/concat_fixed_point_0_split_0
I0918 10:29:11.905416 30897 net.cpp:382] conv4_0/3x3_dwconv/SE_global_pool -> conv4_0/3x3_dwconv/SE_global_pool
I0918 10:29:11.905475 30897 net.cpp:124] Setting up conv4_0/3x3_dwconv/SE_global_pool
I0918 10:29:11.905486 30897 net.cpp:131] Top shape: 25 96 1 1 (2400)
I0918 10:29:11.905491 30897 net.cpp:139] Memory required for data: 953354000
I0918 10:29:11.905495 30897 layer_factory.hpp:77] Creating layer conv4_0/3x3_dwconv/SE_bn
I0918 10:29:11.905513 30897 net.cpp:86] Creating Layer conv4_0/3x3_dwconv/SE_bn
I0918 10:29:11.905517 30897 net.cpp:408] conv4_0/3x3_dwconv/SE_bn <- conv4_0/3x3_dwconv/SE_global_pool
I0918 10:29:11.905527 30897 net.cpp:382] conv4_0/3x3_dwconv/SE_bn -> conv4_0/3x3_dwconv/SE_bn
I0918 10:29:11.905616 30897 layer_factory.hpp:77] Creating layer conv4_0/3x3_dwconv/SE_bn
I0918 10:29:11.905846 30897 net.cpp:124] Setting up conv4_0/3x3_dwconv/SE_bn
I0918 10:29:11.905858 30897 net.cpp:131] Top shape: 25 96 1 1 (2400)
I0918 10:29:11.905864 30897 net.cpp:139] Memory required for data: 953363600
I0918 10:29:11.905872 30897 layer_factory.hpp:77] Creating layer conv4_0/3x3_dwconv/SE_fc1
I0918 10:29:11.905885 30897 net.cpp:86] Creating Layer conv4_0/3x3_dwconv/SE_fc1
I0918 10:29:11.905890 30897 net.cpp:408] conv4_0/3x3_dwconv/SE_fc1 <- conv4_0/3x3_dwconv/SE_bn
I0918 10:29:11.905900 30897 net.cpp:382] conv4_0/3x3_dwconv/SE_fc1 -> conv4_0/3x3_dwconv/SE_fc1
I0918 10:29:11.906499 30897 net.cpp:124] Setting up conv4_0/3x3_dwconv/SE_fc1
I0918 10:29:11.906515 30897 net.cpp:131] Top shape: 25 6 1 1 (150)
I0918 10:29:11.906522 30897 net.cpp:139] Memory required for data: 953364200
I0918 10:29:11.906528 30897 layer_factory.hpp:77] Creating layer conv4_0/3x3_dwconv/SE_fc1/relu
I0918 10:29:11.906539 30897 net.cpp:86] Creating Layer conv4_0/3x3_dwconv/SE_fc1/relu
I0918 10:29:11.906545 30897 net.cpp:408] conv4_0/3x3_dwconv/SE_fc1/relu <- conv4_0/3x3_dwconv/SE_fc1
I0918 10:29:11.906553 30897 net.cpp:369] conv4_0/3x3_dwconv/SE_fc1/relu -> conv4_0/3x3_dwconv/SE_fc1 (in-place)
I0918 10:29:11.907459 30897 net.cpp:124] Setting up conv4_0/3x3_dwconv/SE_fc1/relu
I0918 10:29:11.907475 30897 net.cpp:131] Top shape: 25 6 1 1 (150)
I0918 10:29:11.907480 30897 net.cpp:139] Memory required for data: 953364800
I0918 10:29:11.907485 30897 layer_factory.hpp:77] Creating layer conv4_0/3x3_dwconv/SE_fc2
I0918 10:29:11.907500 30897 net.cpp:86] Creating Layer conv4_0/3x3_dwconv/SE_fc2
I0918 10:29:11.907506 30897 net.cpp:408] conv4_0/3x3_dwconv/SE_fc2 <- conv4_0/3x3_dwconv/SE_fc1
I0918 10:29:11.907518 30897 net.cpp:382] conv4_0/3x3_dwconv/SE_fc2 -> conv4_0/3x3_dwconv/SE_fc2
I0918 10:29:11.908151 30897 net.cpp:124] Setting up conv4_0/3x3_dwconv/SE_fc2
I0918 10:29:11.908169 30897 net.cpp:131] Top shape: 25 96 1 1 (2400)
I0918 10:29:11.908174 30897 net.cpp:139] Memory required for data: 953374400
I0918 10:29:11.908181 30897 layer_factory.hpp:77] Creating layer conv4_0/3x3_dwconv/SE_weights
I0918 10:29:11.908196 30897 net.cpp:86] Creating Layer conv4_0/3x3_dwconv/SE_weights
I0918 10:29:11.908202 30897 net.cpp:408] conv4_0/3x3_dwconv/SE_weights <- conv4_0/3x3_dwconv/SE_fc2
I0918 10:29:11.908210 30897 net.cpp:369] conv4_0/3x3_dwconv/SE_weights -> conv4_0/3x3_dwconv/SE_fc2 (in-place)
I0918 10:29:11.909183 30897 net.cpp:124] Setting up conv4_0/3x3_dwconv/SE_weights
I0918 10:29:11.909199 30897 net.cpp:131] Top shape: 25 96 1 1 (2400)
I0918 10:29:11.909204 30897 net.cpp:139] Memory required for data: 953384000
I0918 10:29:11.909209 30897 layer_factory.hpp:77] Creating layer conv4_0/3x3_dwconv/SE_weights/reshape
I0918 10:29:11.909224 30897 net.cpp:86] Creating Layer conv4_0/3x3_dwconv/SE_weights/reshape
I0918 10:29:11.909229 30897 net.cpp:408] conv4_0/3x3_dwconv/SE_weights/reshape <- conv4_0/3x3_dwconv/SE_fc2
I0918 10:29:11.909241 30897 net.cpp:382] conv4_0/3x3_dwconv/SE_weights/reshape -> conv4_0/3x3_dwconv/SE_weights/reshape
I0918 10:29:11.909323 30897 net.cpp:124] Setting up conv4_0/3x3_dwconv/SE_weights/reshape
I0918 10:29:11.909337 30897 net.cpp:131] Top shape: 25 96 (2400)
I0918 10:29:11.909340 30897 net.cpp:139] Memory required for data: 953393600
I0918 10:29:11.909344 30897 layer_factory.hpp:77] Creating layer conv4_0/3x3_dwconv/scale
I0918 10:29:11.909356 30897 net.cpp:86] Creating Layer conv4_0/3x3_dwconv/scale
I0918 10:29:11.909363 30897 net.cpp:408] conv4_0/3x3_dwconv/scale <- conv4_0/3x3_dwconv/concat_conv4_0/3x3_dwconv/concat_fixed_point_0_split_1
I0918 10:29:11.909368 30897 net.cpp:408] conv4_0/3x3_dwconv/scale <- conv4_0/3x3_dwconv/SE_weights/reshape
I0918 10:29:11.909379 30897 net.cpp:382] conv4_0/3x3_dwconv/scale -> conv4_0/3x3_dwconv/scale
I0918 10:29:11.909509 30897 net.cpp:124] Setting up conv4_0/3x3_dwconv/scale
I0918 10:29:11.909521 30897 net.cpp:131] Top shape: 25 96 28 28 (1881600)
I0918 10:29:11.909526 30897 net.cpp:139] Memory required for data: 960920000
I0918 10:29:11.909530 30897 layer_factory.hpp:77] Creating layer conv4_0/3x3_dwconv/scale_fixed_point
I0918 10:29:11.909540 30897 net.cpp:86] Creating Layer conv4_0/3x3_dwconv/scale_fixed_point
I0918 10:29:11.909545 30897 net.cpp:408] conv4_0/3x3_dwconv/scale_fixed_point <- conv4_0/3x3_dwconv/scale
I0918 10:29:11.909551 30897 net.cpp:369] conv4_0/3x3_dwconv/scale_fixed_point -> conv4_0/3x3_dwconv/scale (in-place)
I0918 10:29:11.909592 30897 net.cpp:124] Setting up conv4_0/3x3_dwconv/scale_fixed_point
I0918 10:29:11.909601 30897 net.cpp:131] Top shape: 25 96 28 28 (1881600)
I0918 10:29:11.909605 30897 net.cpp:139] Memory required for data: 968446400
I0918 10:29:11.909612 30897 layer_factory.hpp:77] Creating layer conv4_0/1x1_decrease
I0918 10:29:11.909628 30897 net.cpp:86] Creating Layer conv4_0/1x1_decrease
I0918 10:29:11.909633 30897 net.cpp:408] conv4_0/1x1_decrease <- conv4_0/3x3_dwconv/scale
I0918 10:29:11.909646 30897 net.cpp:382] conv4_0/1x1_decrease -> conv4_0/1x1_decrease/bn
I0918 10:29:11.910637 30897 net.cpp:124] Setting up conv4_0/1x1_decrease
I0918 10:29:11.910653 30897 net.cpp:131] Top shape: 25 40 28 28 (784000)
I0918 10:29:11.910658 30897 net.cpp:139] Memory required for data: 971582400
I0918 10:29:11.910667 30897 layer_factory.hpp:77] Creating layer conv4_0/1x1_decrease/bn_fixed_point
I0918 10:29:11.910677 30897 net.cpp:86] Creating Layer conv4_0/1x1_decrease/bn_fixed_point
I0918 10:29:11.910683 30897 net.cpp:408] conv4_0/1x1_decrease/bn_fixed_point <- conv4_0/1x1_decrease/bn
I0918 10:29:11.910693 30897 net.cpp:369] conv4_0/1x1_decrease/bn_fixed_point -> conv4_0/1x1_decrease/bn (in-place)
I0918 10:29:11.910738 30897 net.cpp:124] Setting up conv4_0/1x1_decrease/bn_fixed_point
I0918 10:29:11.910746 30897 net.cpp:131] Top shape: 25 40 28 28 (784000)
I0918 10:29:11.910750 30897 net.cpp:139] Memory required for data: 974718400
I0918 10:29:11.910756 30897 layer_factory.hpp:77] Creating layer conv4_0/1x1_decrease/bn_conv4_0/1x1_decrease/bn_fixed_point_0_split
I0918 10:29:11.910766 30897 net.cpp:86] Creating Layer conv4_0/1x1_decrease/bn_conv4_0/1x1_decrease/bn_fixed_point_0_split
I0918 10:29:11.910771 30897 net.cpp:408] conv4_0/1x1_decrease/bn_conv4_0/1x1_decrease/bn_fixed_point_0_split <- conv4_0/1x1_decrease/bn
I0918 10:29:11.910784 30897 net.cpp:382] conv4_0/1x1_decrease/bn_conv4_0/1x1_decrease/bn_fixed_point_0_split -> conv4_0/1x1_decrease/bn_conv4_0/1x1_decrease/bn_fixed_point_0_split_0
I0918 10:29:11.910794 30897 net.cpp:382] conv4_0/1x1_decrease/bn_conv4_0/1x1_decrease/bn_fixed_point_0_split -> conv4_0/1x1_decrease/bn_conv4_0/1x1_decrease/bn_fixed_point_0_split_1
I0918 10:29:11.910864 30897 net.cpp:124] Setting up conv4_0/1x1_decrease/bn_conv4_0/1x1_decrease/bn_fixed_point_0_split
I0918 10:29:11.910876 30897 net.cpp:131] Top shape: 25 40 28 28 (784000)
I0918 10:29:11.910881 30897 net.cpp:131] Top shape: 25 40 28 28 (784000)
I0918 10:29:11.910885 30897 net.cpp:139] Memory required for data: 980990400
I0918 10:29:11.910890 30897 layer_factory.hpp:77] Creating layer conv4_1/1x1_increase
I0918 10:29:11.910934 30897 net.cpp:86] Creating Layer conv4_1/1x1_increase
I0918 10:29:11.910941 30897 net.cpp:408] conv4_1/1x1_increase <- conv4_0/1x1_decrease/bn_conv4_0/1x1_decrease/bn_fixed_point_0_split_0
I0918 10:29:11.910953 30897 net.cpp:382] conv4_1/1x1_increase -> conv4_1/1x1_increase/bn
I0918 10:29:11.911963 30897 net.cpp:124] Setting up conv4_1/1x1_increase
I0918 10:29:11.911979 30897 net.cpp:131] Top shape: 25 120 28 28 (2352000)
I0918 10:29:11.911984 30897 net.cpp:139] Memory required for data: 990398400
I0918 10:29:11.911993 30897 layer_factory.hpp:77] Creating layer conv4_1/1x1_increase/hardswish
I0918 10:29:11.912001 30897 net.cpp:86] Creating Layer conv4_1/1x1_increase/hardswish
I0918 10:29:11.912009 30897 net.cpp:408] conv4_1/1x1_increase/hardswish <- conv4_1/1x1_increase/bn
I0918 10:29:11.912017 30897 net.cpp:369] conv4_1/1x1_increase/hardswish -> conv4_1/1x1_increase/bn (in-place)
I0918 10:29:11.912061 30897 net.cpp:124] Setting up conv4_1/1x1_increase/hardswish
I0918 10:29:11.912072 30897 net.cpp:131] Top shape: 25 120 28 28 (2352000)
I0918 10:29:11.912076 30897 net.cpp:139] Memory required for data: 999806400
I0918 10:29:11.912081 30897 layer_factory.hpp:77] Creating layer conv4_1/1x1_increase/bn_fixed_point
I0918 10:29:11.912092 30897 net.cpp:86] Creating Layer conv4_1/1x1_increase/bn_fixed_point
I0918 10:29:11.912097 30897 net.cpp:408] conv4_1/1x1_increase/bn_fixed_point <- conv4_1/1x1_increase/bn
I0918 10:29:11.912106 30897 net.cpp:369] conv4_1/1x1_increase/bn_fixed_point -> conv4_1/1x1_increase/bn (in-place)
I0918 10:29:11.912143 30897 net.cpp:124] Setting up conv4_1/1x1_increase/bn_fixed_point
I0918 10:29:11.912153 30897 net.cpp:131] Top shape: 25 120 28 28 (2352000)
I0918 10:29:11.912156 30897 net.cpp:139] Memory required for data: 1009214400
I0918 10:29:11.912163 30897 layer_factory.hpp:77] Creating layer conv4_1/1x1_increase/slice
I0918 10:29:11.912174 30897 net.cpp:86] Creating Layer conv4_1/1x1_increase/slice
I0918 10:29:11.912179 30897 net.cpp:408] conv4_1/1x1_increase/slice <- conv4_1/1x1_increase/bn
I0918 10:29:11.912186 30897 net.cpp:382] conv4_1/1x1_increase/slice -> conv4_1/1x1_increase/split1
I0918 10:29:11.912196 30897 net.cpp:382] conv4_1/1x1_increase/slice -> conv4_1/1x1_increase/split2
I0918 10:29:11.912267 30897 net.cpp:124] Setting up conv4_1/1x1_increase/slice
I0918 10:29:11.912276 30897 net.cpp:131] Top shape: 25 60 28 28 (1176000)
I0918 10:29:11.912282 30897 net.cpp:131] Top shape: 25 60 28 28 (1176000)
I0918 10:29:11.912286 30897 net.cpp:139] Memory required for data: 1018622400
I0918 10:29:11.912292 30897 layer_factory.hpp:77] Creating layer conv4_1/3x3_dwconv/slice_0
I0918 10:29:11.912307 30897 net.cpp:86] Creating Layer conv4_1/3x3_dwconv/slice_0
I0918 10:29:11.912313 30897 net.cpp:408] conv4_1/3x3_dwconv/slice_0 <- conv4_1/1x1_increase/split1
I0918 10:29:11.912328 30897 net.cpp:382] conv4_1/3x3_dwconv/slice_0 -> conv4_1/3x3_dwconv/slice_0/bn
I0918 10:29:11.913162 30897 net.cpp:124] Setting up conv4_1/3x3_dwconv/slice_0
I0918 10:29:11.913180 30897 net.cpp:131] Top shape: 25 60 28 28 (1176000)
I0918 10:29:11.913197 30897 net.cpp:139] Memory required for data: 1023326400
I0918 10:29:11.913205 30897 layer_factory.hpp:77] Creating layer conv4_1/3x3_dwconv/slice_0/hardswish
I0918 10:29:11.913215 30897 net.cpp:86] Creating Layer conv4_1/3x3_dwconv/slice_0/hardswish
I0918 10:29:11.913220 30897 net.cpp:408] conv4_1/3x3_dwconv/slice_0/hardswish <- conv4_1/3x3_dwconv/slice_0/bn
I0918 10:29:11.913228 30897 net.cpp:369] conv4_1/3x3_dwconv/slice_0/hardswish -> conv4_1/3x3_dwconv/slice_0/bn (in-place)
I0918 10:29:11.913287 30897 net.cpp:124] Setting up conv4_1/3x3_dwconv/slice_0/hardswish
I0918 10:29:11.913297 30897 net.cpp:131] Top shape: 25 60 28 28 (1176000)
I0918 10:29:11.913302 30897 net.cpp:139] Memory required for data: 1028030400
I0918 10:29:11.913306 30897 layer_factory.hpp:77] Creating layer conv4_1/3x3_dwconv/slice_1
I0918 10:29:11.913321 30897 net.cpp:86] Creating Layer conv4_1/3x3_dwconv/slice_1
I0918 10:29:11.913327 30897 net.cpp:408] conv4_1/3x3_dwconv/slice_1 <- conv4_1/1x1_increase/split2
I0918 10:29:11.913353 30897 net.cpp:382] conv4_1/3x3_dwconv/slice_1 -> conv4_1/3x3_dwconv/slice_1/bn
I0918 10:29:11.914480 30897 net.cpp:124] Setting up conv4_1/3x3_dwconv/slice_1
I0918 10:29:11.914499 30897 net.cpp:131] Top shape: 25 60 28 28 (1176000)
I0918 10:29:11.914503 30897 net.cpp:139] Memory required for data: 1032734400
I0918 10:29:11.914513 30897 layer_factory.hpp:77] Creating layer conv4_1/3x3_dwconv/slice_1/hardswish
I0918 10:29:11.914525 30897 net.cpp:86] Creating Layer conv4_1/3x3_dwconv/slice_1/hardswish
I0918 10:29:11.914530 30897 net.cpp:408] conv4_1/3x3_dwconv/slice_1/hardswish <- conv4_1/3x3_dwconv/slice_1/bn
I0918 10:29:11.914541 30897 net.cpp:369] conv4_1/3x3_dwconv/slice_1/hardswish -> conv4_1/3x3_dwconv/slice_1/bn (in-place)
I0918 10:29:11.914587 30897 net.cpp:124] Setting up conv4_1/3x3_dwconv/slice_1/hardswish
I0918 10:29:11.914598 30897 net.cpp:131] Top shape: 25 60 28 28 (1176000)
I0918 10:29:11.914603 30897 net.cpp:139] Memory required for data: 1037438400
I0918 10:29:11.914609 30897 layer_factory.hpp:77] Creating layer conv4_1/3x3_dwconv/concat
I0918 10:29:11.914616 30897 net.cpp:86] Creating Layer conv4_1/3x3_dwconv/concat
I0918 10:29:11.914621 30897 net.cpp:408] conv4_1/3x3_dwconv/concat <- conv4_1/3x3_dwconv/slice_0/bn
I0918 10:29:11.914628 30897 net.cpp:408] conv4_1/3x3_dwconv/concat <- conv4_1/3x3_dwconv/slice_1/bn
I0918 10:29:11.914634 30897 net.cpp:382] conv4_1/3x3_dwconv/concat -> conv4_1/3x3_dwconv/concat
I0918 10:29:11.914674 30897 net.cpp:124] Setting up conv4_1/3x3_dwconv/concat
I0918 10:29:11.914683 30897 net.cpp:131] Top shape: 25 120 28 28 (2352000)
I0918 10:29:11.914687 30897 net.cpp:139] Memory required for data: 1046846400
I0918 10:29:11.914691 30897 layer_factory.hpp:77] Creating layer conv4_1/3x3_dwconv/concat_fixed_point
I0918 10:29:11.914702 30897 net.cpp:86] Creating Layer conv4_1/3x3_dwconv/concat_fixed_point
I0918 10:29:11.914707 30897 net.cpp:408] conv4_1/3x3_dwconv/concat_fixed_point <- conv4_1/3x3_dwconv/concat
I0918 10:29:11.914714 30897 net.cpp:369] conv4_1/3x3_dwconv/concat_fixed_point -> conv4_1/3x3_dwconv/concat (in-place)
I0918 10:29:11.914753 30897 net.cpp:124] Setting up conv4_1/3x3_dwconv/concat_fixed_point
I0918 10:29:11.914762 30897 net.cpp:131] Top shape: 25 120 28 28 (2352000)
I0918 10:29:11.914767 30897 net.cpp:139] Memory required for data: 1056254400
I0918 10:29:11.914772 30897 layer_factory.hpp:77] Creating layer conv4_1/3x3_dwconv/concat_conv4_1/3x3_dwconv/concat_fixed_point_0_split
I0918 10:29:11.914784 30897 net.cpp:86] Creating Layer conv4_1/3x3_dwconv/concat_conv4_1/3x3_dwconv/concat_fixed_point_0_split
I0918 10:29:11.914789 30897 net.cpp:408] conv4_1/3x3_dwconv/concat_conv4_1/3x3_dwconv/concat_fixed_point_0_split <- conv4_1/3x3_dwconv/concat
I0918 10:29:11.914798 30897 net.cpp:382] conv4_1/3x3_dwconv/concat_conv4_1/3x3_dwconv/concat_fixed_point_0_split -> conv4_1/3x3_dwconv/concat_conv4_1/3x3_dwconv/concat_fixed_point_0_split_0
I0918 10:29:11.914814 30897 net.cpp:382] conv4_1/3x3_dwconv/concat_conv4_1/3x3_dwconv/concat_fixed_point_0_split -> conv4_1/3x3_dwconv/concat_conv4_1/3x3_dwconv/concat_fixed_point_0_split_1
I0918 10:29:11.914875 30897 net.cpp:124] Setting up conv4_1/3x3_dwconv/concat_conv4_1/3x3_dwconv/concat_fixed_point_0_split
I0918 10:29:11.914885 30897 net.cpp:131] Top shape: 25 120 28 28 (2352000)
I0918 10:29:11.914891 30897 net.cpp:131] Top shape: 25 120 28 28 (2352000)
I0918 10:29:11.914896 30897 net.cpp:139] Memory required for data: 1075070400
I0918 10:29:11.914902 30897 layer_factory.hpp:77] Creating layer conv4_1/3x3_dwconv/SE_global_pool
I0918 10:29:11.914912 30897 net.cpp:86] Creating Layer conv4_1/3x3_dwconv/SE_global_pool
I0918 10:29:11.914917 30897 net.cpp:408] conv4_1/3x3_dwconv/SE_global_pool <- conv4_1/3x3_dwconv/concat_conv4_1/3x3_dwconv/concat_fixed_point_0_split_0
I0918 10:29:11.914924 30897 net.cpp:382] conv4_1/3x3_dwconv/SE_global_pool -> conv4_1/3x3_dwconv/SE_global_pool
I0918 10:29:11.914963 30897 net.cpp:124] Setting up conv4_1/3x3_dwconv/SE_global_pool
I0918 10:29:11.914971 30897 net.cpp:131] Top shape: 25 120 1 1 (3000)
I0918 10:29:11.914994 30897 net.cpp:139] Memory required for data: 1075082400
I0918 10:29:11.914999 30897 layer_factory.hpp:77] Creating layer conv4_1/3x3_dwconv/SE_bn
I0918 10:29:11.915012 30897 net.cpp:86] Creating Layer conv4_1/3x3_dwconv/SE_bn
I0918 10:29:11.915017 30897 net.cpp:408] conv4_1/3x3_dwconv/SE_bn <- conv4_1/3x3_dwconv/SE_global_pool
I0918 10:29:11.915025 30897 net.cpp:382] conv4_1/3x3_dwconv/SE_bn -> conv4_1/3x3_dwconv/SE_bn
I0918 10:29:11.915099 30897 layer_factory.hpp:77] Creating layer conv4_1/3x3_dwconv/SE_bn
I0918 10:29:11.915293 30897 net.cpp:124] Setting up conv4_1/3x3_dwconv/SE_bn
I0918 10:29:11.915303 30897 net.cpp:131] Top shape: 25 120 1 1 (3000)
I0918 10:29:11.915308 30897 net.cpp:139] Memory required for data: 1075094400
I0918 10:29:11.915318 30897 layer_factory.hpp:77] Creating layer conv4_1/3x3_dwconv/SE_fc1
I0918 10:29:11.915329 30897 net.cpp:86] Creating Layer conv4_1/3x3_dwconv/SE_fc1
I0918 10:29:11.915335 30897 net.cpp:408] conv4_1/3x3_dwconv/SE_fc1 <- conv4_1/3x3_dwconv/SE_bn
I0918 10:29:11.915343 30897 net.cpp:382] conv4_1/3x3_dwconv/SE_fc1 -> conv4_1/3x3_dwconv/SE_fc1
I0918 10:29:11.915932 30897 net.cpp:124] Setting up conv4_1/3x3_dwconv/SE_fc1
I0918 10:29:11.915949 30897 net.cpp:131] Top shape: 25 7 1 1 (175)
I0918 10:29:11.915954 30897 net.cpp:139] Memory required for data: 1075095100
I0918 10:29:11.915961 30897 layer_factory.hpp:77] Creating layer conv4_1/3x3_dwconv/SE_fc1/relu
I0918 10:29:11.915971 30897 net.cpp:86] Creating Layer conv4_1/3x3_dwconv/SE_fc1/relu
I0918 10:29:11.915977 30897 net.cpp:408] conv4_1/3x3_dwconv/SE_fc1/relu <- conv4_1/3x3_dwconv/SE_fc1
I0918 10:29:11.915987 30897 net.cpp:369] conv4_1/3x3_dwconv/SE_fc1/relu -> conv4_1/3x3_dwconv/SE_fc1 (in-place)
I0918 10:29:11.917011 30897 net.cpp:124] Setting up conv4_1/3x3_dwconv/SE_fc1/relu
I0918 10:29:11.917039 30897 net.cpp:131] Top shape: 25 7 1 1 (175)
I0918 10:29:11.917044 30897 net.cpp:139] Memory required for data: 1075095800
I0918 10:29:11.917049 30897 layer_factory.hpp:77] Creating layer conv4_1/3x3_dwconv/SE_fc2
I0918 10:29:11.917068 30897 net.cpp:86] Creating Layer conv4_1/3x3_dwconv/SE_fc2
I0918 10:29:11.917073 30897 net.cpp:408] conv4_1/3x3_dwconv/SE_fc2 <- conv4_1/3x3_dwconv/SE_fc1
I0918 10:29:11.917085 30897 net.cpp:382] conv4_1/3x3_dwconv/SE_fc2 -> conv4_1/3x3_dwconv/SE_fc2
I0918 10:29:11.917685 30897 net.cpp:124] Setting up conv4_1/3x3_dwconv/SE_fc2
I0918 10:29:11.917701 30897 net.cpp:131] Top shape: 25 120 1 1 (3000)
I0918 10:29:11.917706 30897 net.cpp:139] Memory required for data: 1075107800
I0918 10:29:11.917716 30897 layer_factory.hpp:77] Creating layer conv4_1/3x3_dwconv/SE_weights
I0918 10:29:11.917726 30897 net.cpp:86] Creating Layer conv4_1/3x3_dwconv/SE_weights
I0918 10:29:11.917732 30897 net.cpp:408] conv4_1/3x3_dwconv/SE_weights <- conv4_1/3x3_dwconv/SE_fc2
I0918 10:29:11.917740 30897 net.cpp:369] conv4_1/3x3_dwconv/SE_weights -> conv4_1/3x3_dwconv/SE_fc2 (in-place)
I0918 10:29:11.918893 30897 net.cpp:124] Setting up conv4_1/3x3_dwconv/SE_weights
I0918 10:29:11.918912 30897 net.cpp:131] Top shape: 25 120 1 1 (3000)
I0918 10:29:11.918917 30897 net.cpp:139] Memory required for data: 1075119800
I0918 10:29:11.918923 30897 layer_factory.hpp:77] Creating layer conv4_1/3x3_dwconv/SE_weights/reshape
I0918 10:29:11.918938 30897 net.cpp:86] Creating Layer conv4_1/3x3_dwconv/SE_weights/reshape
I0918 10:29:11.918944 30897 net.cpp:408] conv4_1/3x3_dwconv/SE_weights/reshape <- conv4_1/3x3_dwconv/SE_fc2
I0918 10:29:11.918953 30897 net.cpp:382] conv4_1/3x3_dwconv/SE_weights/reshape -> conv4_1/3x3_dwconv/SE_weights/reshape
I0918 10:29:11.919003 30897 net.cpp:124] Setting up conv4_1/3x3_dwconv/SE_weights/reshape
I0918 10:29:11.919011 30897 net.cpp:131] Top shape: 25 120 (3000)
I0918 10:29:11.919016 30897 net.cpp:139] Memory required for data: 1075131800
I0918 10:29:11.919020 30897 layer_factory.hpp:77] Creating layer conv4_1/3x3_dwconv/scale
I0918 10:29:11.919028 30897 net.cpp:86] Creating Layer conv4_1/3x3_dwconv/scale
I0918 10:29:11.919034 30897 net.cpp:408] conv4_1/3x3_dwconv/scale <- conv4_1/3x3_dwconv/concat_conv4_1/3x3_dwconv/concat_fixed_point_0_split_1
I0918 10:29:11.919057 30897 net.cpp:408] conv4_1/3x3_dwconv/scale <- conv4_1/3x3_dwconv/SE_weights/reshape
I0918 10:29:11.919066 30897 net.cpp:382] conv4_1/3x3_dwconv/scale -> conv4_1/3x3_dwconv/scale
I0918 10:29:11.919184 30897 net.cpp:124] Setting up conv4_1/3x3_dwconv/scale
I0918 10:29:11.919194 30897 net.cpp:131] Top shape: 25 120 28 28 (2352000)
I0918 10:29:11.919198 30897 net.cpp:139] Memory required for data: 1084539800
I0918 10:29:11.919203 30897 layer_factory.hpp:77] Creating layer conv4_1/3x3_dwconv/scale_fixed_point
I0918 10:29:11.919214 30897 net.cpp:86] Creating Layer conv4_1/3x3_dwconv/scale_fixed_point
I0918 10:29:11.919219 30897 net.cpp:408] conv4_1/3x3_dwconv/scale_fixed_point <- conv4_1/3x3_dwconv/scale
I0918 10:29:11.919229 30897 net.cpp:369] conv4_1/3x3_dwconv/scale_fixed_point -> conv4_1/3x3_dwconv/scale (in-place)
I0918 10:29:11.919263 30897 net.cpp:124] Setting up conv4_1/3x3_dwconv/scale_fixed_point
I0918 10:29:11.919279 30897 net.cpp:131] Top shape: 25 120 28 28 (2352000)
I0918 10:29:11.919283 30897 net.cpp:139] Memory required for data: 1093947800
I0918 10:29:11.919291 30897 layer_factory.hpp:77] Creating layer conv4_1/1x1_decrease
I0918 10:29:11.919304 30897 net.cpp:86] Creating Layer conv4_1/1x1_decrease
I0918 10:29:11.919312 30897 net.cpp:408] conv4_1/1x1_decrease <- conv4_1/3x3_dwconv/scale
I0918 10:29:11.919320 30897 net.cpp:382] conv4_1/1x1_decrease -> conv4_1/1x1_decrease/bn
I0918 10:29:11.920262 30897 net.cpp:124] Setting up conv4_1/1x1_decrease
I0918 10:29:11.920277 30897 net.cpp:131] Top shape: 25 40 28 28 (784000)
I0918 10:29:11.920282 30897 net.cpp:139] Memory required for data: 1097083800
I0918 10:29:11.920291 30897 layer_factory.hpp:77] Creating layer conv4_1/elt_sum
I0918 10:29:11.920300 30897 net.cpp:86] Creating Layer conv4_1/elt_sum
I0918 10:29:11.920305 30897 net.cpp:408] conv4_1/elt_sum <- conv4_0/1x1_decrease/bn_conv4_0/1x1_decrease/bn_fixed_point_0_split_1
I0918 10:29:11.920312 30897 net.cpp:408] conv4_1/elt_sum <- conv4_1/1x1_decrease/bn
I0918 10:29:11.920322 30897 net.cpp:382] conv4_1/elt_sum -> conv4_1/elt_sum
I0918 10:29:11.920368 30897 net.cpp:124] Setting up conv4_1/elt_sum
I0918 10:29:11.920377 30897 net.cpp:131] Top shape: 25 40 28 28 (784000)
I0918 10:29:11.920382 30897 net.cpp:139] Memory required for data: 1100219800
I0918 10:29:11.920385 30897 layer_factory.hpp:77] Creating layer conv4_1/elt_sum_fixed_point
I0918 10:29:11.920395 30897 net.cpp:86] Creating Layer conv4_1/elt_sum_fixed_point
I0918 10:29:11.920400 30897 net.cpp:408] conv4_1/elt_sum_fixed_point <- conv4_1/elt_sum
I0918 10:29:11.920409 30897 net.cpp:369] conv4_1/elt_sum_fixed_point -> conv4_1/elt_sum (in-place)
I0918 10:29:11.920445 30897 net.cpp:124] Setting up conv4_1/elt_sum_fixed_point
I0918 10:29:11.920456 30897 net.cpp:131] Top shape: 25 40 28 28 (784000)
I0918 10:29:11.920460 30897 net.cpp:139] Memory required for data: 1103355800
I0918 10:29:11.920466 30897 layer_factory.hpp:77] Creating layer conv4_1/elt_sum_conv4_1/elt_sum_fixed_point_0_split
I0918 10:29:11.920472 30897 net.cpp:86] Creating Layer conv4_1/elt_sum_conv4_1/elt_sum_fixed_point_0_split
I0918 10:29:11.920477 30897 net.cpp:408] conv4_1/elt_sum_conv4_1/elt_sum_fixed_point_0_split <- conv4_1/elt_sum
I0918 10:29:11.920485 30897 net.cpp:382] conv4_1/elt_sum_conv4_1/elt_sum_fixed_point_0_split -> conv4_1/elt_sum_conv4_1/elt_sum_fixed_point_0_split_0
I0918 10:29:11.920492 30897 net.cpp:382] conv4_1/elt_sum_conv4_1/elt_sum_fixed_point_0_split -> conv4_1/elt_sum_conv4_1/elt_sum_fixed_point_0_split_1
I0918 10:29:11.920552 30897 net.cpp:124] Setting up conv4_1/elt_sum_conv4_1/elt_sum_fixed_point_0_split
I0918 10:29:11.920559 30897 net.cpp:131] Top shape: 25 40 28 28 (784000)
I0918 10:29:11.920565 30897 net.cpp:131] Top shape: 25 40 28 28 (784000)
I0918 10:29:11.920569 30897 net.cpp:139] Memory required for data: 1109627800
I0918 10:29:11.920573 30897 layer_factory.hpp:77] Creating layer conv4_2/1x1_increase
I0918 10:29:11.920588 30897 net.cpp:86] Creating Layer conv4_2/1x1_increase
I0918 10:29:11.920606 30897 net.cpp:408] conv4_2/1x1_increase <- conv4_1/elt_sum_conv4_1/elt_sum_fixed_point_0_split_0
I0918 10:29:11.920617 30897 net.cpp:382] conv4_2/1x1_increase -> conv4_2/1x1_increase/bn
I0918 10:29:11.921593 30897 net.cpp:124] Setting up conv4_2/1x1_increase
I0918 10:29:11.921609 30897 net.cpp:131] Top shape: 25 120 28 28 (2352000)
I0918 10:29:11.921614 30897 net.cpp:139] Memory required for data: 1119035800
I0918 10:29:11.921622 30897 layer_factory.hpp:77] Creating layer conv4_2/1x1_increase/hardswish
I0918 10:29:11.921631 30897 net.cpp:86] Creating Layer conv4_2/1x1_increase/hardswish
I0918 10:29:11.921636 30897 net.cpp:408] conv4_2/1x1_increase/hardswish <- conv4_2/1x1_increase/bn
I0918 10:29:11.921646 30897 net.cpp:369] conv4_2/1x1_increase/hardswish -> conv4_2/1x1_increase/bn (in-place)
I0918 10:29:11.921689 30897 net.cpp:124] Setting up conv4_2/1x1_increase/hardswish
I0918 10:29:11.921699 30897 net.cpp:131] Top shape: 25 120 28 28 (2352000)
I0918 10:29:11.921702 30897 net.cpp:139] Memory required for data: 1128443800
I0918 10:29:11.921708 30897 layer_factory.hpp:77] Creating layer conv4_2/1x1_increase/bn_fixed_point
I0918 10:29:11.921720 30897 net.cpp:86] Creating Layer conv4_2/1x1_increase/bn_fixed_point
I0918 10:29:11.921725 30897 net.cpp:408] conv4_2/1x1_increase/bn_fixed_point <- conv4_2/1x1_increase/bn
I0918 10:29:11.921730 30897 net.cpp:369] conv4_2/1x1_increase/bn_fixed_point -> conv4_2/1x1_increase/bn (in-place)
I0918 10:29:11.921769 30897 net.cpp:124] Setting up conv4_2/1x1_increase/bn_fixed_point
I0918 10:29:11.921777 30897 net.cpp:131] Top shape: 25 120 28 28 (2352000)
I0918 10:29:11.921782 30897 net.cpp:139] Memory required for data: 1137851800
I0918 10:29:11.921797 30897 layer_factory.hpp:77] Creating layer conv4_2/1x1_increase/slice
I0918 10:29:11.921810 30897 net.cpp:86] Creating Layer conv4_2/1x1_increase/slice
I0918 10:29:11.921816 30897 net.cpp:408] conv4_2/1x1_increase/slice <- conv4_2/1x1_increase/bn
I0918 10:29:11.921829 30897 net.cpp:382] conv4_2/1x1_increase/slice -> conv4_2/1x1_increase/split1
I0918 10:29:11.921839 30897 net.cpp:382] conv4_2/1x1_increase/slice -> conv4_2/1x1_increase/split2
I0918 10:29:11.921902 30897 net.cpp:124] Setting up conv4_2/1x1_increase/slice
I0918 10:29:11.921911 30897 net.cpp:131] Top shape: 25 60 28 28 (1176000)
I0918 10:29:11.921916 30897 net.cpp:131] Top shape: 25 60 28 28 (1176000)
I0918 10:29:11.921921 30897 net.cpp:139] Memory required for data: 1147259800
I0918 10:29:11.921924 30897 layer_factory.hpp:77] Creating layer conv4_2/3x3_dwconv/slice_0
I0918 10:29:11.921941 30897 net.cpp:86] Creating Layer conv4_2/3x3_dwconv/slice_0
I0918 10:29:11.921947 30897 net.cpp:408] conv4_2/3x3_dwconv/slice_0 <- conv4_2/1x1_increase/split1
I0918 10:29:11.921954 30897 net.cpp:382] conv4_2/3x3_dwconv/slice_0 -> conv4_2/3x3_dwconv/slice_0/bn
I0918 10:29:11.922719 30897 net.cpp:124] Setting up conv4_2/3x3_dwconv/slice_0
I0918 10:29:11.922734 30897 net.cpp:131] Top shape: 25 60 28 28 (1176000)
I0918 10:29:11.922739 30897 net.cpp:139] Memory required for data: 1151963800
I0918 10:29:11.922747 30897 layer_factory.hpp:77] Creating layer conv4_2/3x3_dwconv/slice_0/hardswish
I0918 10:29:11.922755 30897 net.cpp:86] Creating Layer conv4_2/3x3_dwconv/slice_0/hardswish
I0918 10:29:11.922761 30897 net.cpp:408] conv4_2/3x3_dwconv/slice_0/hardswish <- conv4_2/3x3_dwconv/slice_0/bn
I0918 10:29:11.922771 30897 net.cpp:369] conv4_2/3x3_dwconv/slice_0/hardswish -> conv4_2/3x3_dwconv/slice_0/bn (in-place)
I0918 10:29:11.922821 30897 net.cpp:124] Setting up conv4_2/3x3_dwconv/slice_0/hardswish
I0918 10:29:11.922829 30897 net.cpp:131] Top shape: 25 60 28 28 (1176000)
I0918 10:29:11.922834 30897 net.cpp:139] Memory required for data: 1156667800
I0918 10:29:11.922840 30897 layer_factory.hpp:77] Creating layer conv4_2/3x3_dwconv/slice_1
I0918 10:29:11.922857 30897 net.cpp:86] Creating Layer conv4_2/3x3_dwconv/slice_1
I0918 10:29:11.922863 30897 net.cpp:408] conv4_2/3x3_dwconv/slice_1 <- conv4_2/1x1_increase/split2
I0918 10:29:11.922871 30897 net.cpp:382] conv4_2/3x3_dwconv/slice_1 -> conv4_2/3x3_dwconv/slice_1/bn
I0918 10:29:11.923990 30897 net.cpp:124] Setting up conv4_2/3x3_dwconv/slice_1
I0918 10:29:11.924007 30897 net.cpp:131] Top shape: 25 60 28 28 (1176000)
I0918 10:29:11.924012 30897 net.cpp:139] Memory required for data: 1161371800
I0918 10:29:11.924022 30897 layer_factory.hpp:77] Creating layer conv4_2/3x3_dwconv/slice_1/hardswish
I0918 10:29:11.924032 30897 net.cpp:86] Creating Layer conv4_2/3x3_dwconv/slice_1/hardswish
I0918 10:29:11.924038 30897 net.cpp:408] conv4_2/3x3_dwconv/slice_1/hardswish <- conv4_2/3x3_dwconv/slice_1/bn
I0918 10:29:11.924047 30897 net.cpp:369] conv4_2/3x3_dwconv/slice_1/hardswish -> conv4_2/3x3_dwconv/slice_1/bn (in-place)
I0918 10:29:11.924093 30897 net.cpp:124] Setting up conv4_2/3x3_dwconv/slice_1/hardswish
I0918 10:29:11.924110 30897 net.cpp:131] Top shape: 25 60 28 28 (1176000)
I0918 10:29:11.924116 30897 net.cpp:139] Memory required for data: 1166075800
I0918 10:29:11.924120 30897 layer_factory.hpp:77] Creating layer conv4_2/3x3_dwconv/concat
I0918 10:29:11.924127 30897 net.cpp:86] Creating Layer conv4_2/3x3_dwconv/concat
I0918 10:29:11.924132 30897 net.cpp:408] conv4_2/3x3_dwconv/concat <- conv4_2/3x3_dwconv/slice_0/bn
I0918 10:29:11.924139 30897 net.cpp:408] conv4_2/3x3_dwconv/concat <- conv4_2/3x3_dwconv/slice_1/bn
I0918 10:29:11.924145 30897 net.cpp:382] conv4_2/3x3_dwconv/concat -> conv4_2/3x3_dwconv/concat
I0918 10:29:11.924185 30897 net.cpp:124] Setting up conv4_2/3x3_dwconv/concat
I0918 10:29:11.924194 30897 net.cpp:131] Top shape: 25 120 28 28 (2352000)
I0918 10:29:11.924198 30897 net.cpp:139] Memory required for data: 1175483800
I0918 10:29:11.924203 30897 layer_factory.hpp:77] Creating layer conv4_2/3x3_dwconv/concat_fixed_point
I0918 10:29:11.924213 30897 net.cpp:86] Creating Layer conv4_2/3x3_dwconv/concat_fixed_point
I0918 10:29:11.924218 30897 net.cpp:408] conv4_2/3x3_dwconv/concat_fixed_point <- conv4_2/3x3_dwconv/concat
I0918 10:29:11.924224 30897 net.cpp:369] conv4_2/3x3_dwconv/concat_fixed_point -> conv4_2/3x3_dwconv/concat (in-place)
I0918 10:29:11.924268 30897 net.cpp:124] Setting up conv4_2/3x3_dwconv/concat_fixed_point
I0918 10:29:11.924275 30897 net.cpp:131] Top shape: 25 120 28 28 (2352000)
I0918 10:29:11.924279 30897 net.cpp:139] Memory required for data: 1184891800
I0918 10:29:11.924285 30897 layer_factory.hpp:77] Creating layer conv4_2/3x3_dwconv/concat_conv4_2/3x3_dwconv/concat_fixed_point_0_split
I0918 10:29:11.924293 30897 net.cpp:86] Creating Layer conv4_2/3x3_dwconv/concat_conv4_2/3x3_dwconv/concat_fixed_point_0_split
I0918 10:29:11.924296 30897 net.cpp:408] conv4_2/3x3_dwconv/concat_conv4_2/3x3_dwconv/concat_fixed_point_0_split <- conv4_2/3x3_dwconv/concat
I0918 10:29:11.924305 30897 net.cpp:382] conv4_2/3x3_dwconv/concat_conv4_2/3x3_dwconv/concat_fixed_point_0_split -> conv4_2/3x3_dwconv/concat_conv4_2/3x3_dwconv/concat_fixed_point_0_split_0
I0918 10:29:11.924314 30897 net.cpp:382] conv4_2/3x3_dwconv/concat_conv4_2/3x3_dwconv/concat_fixed_point_0_split -> conv4_2/3x3_dwconv/concat_conv4_2/3x3_dwconv/concat_fixed_point_0_split_1
I0918 10:29:11.924373 30897 net.cpp:124] Setting up conv4_2/3x3_dwconv/concat_conv4_2/3x3_dwconv/concat_fixed_point_0_split
I0918 10:29:11.924383 30897 net.cpp:131] Top shape: 25 120 28 28 (2352000)
I0918 10:29:11.924389 30897 net.cpp:131] Top shape: 25 120 28 28 (2352000)
I0918 10:29:11.924393 30897 net.cpp:139] Memory required for data: 1203707800
I0918 10:29:11.924397 30897 layer_factory.hpp:77] Creating layer conv4_2/3x3_dwconv/SE_global_pool
I0918 10:29:11.924407 30897 net.cpp:86] Creating Layer conv4_2/3x3_dwconv/SE_global_pool
I0918 10:29:11.924412 30897 net.cpp:408] conv4_2/3x3_dwconv/SE_global_pool <- conv4_2/3x3_dwconv/concat_conv4_2/3x3_dwconv/concat_fixed_point_0_split_0
I0918 10:29:11.924418 30897 net.cpp:382] conv4_2/3x3_dwconv/SE_global_pool -> conv4_2/3x3_dwconv/SE_global_pool
I0918 10:29:11.924455 30897 net.cpp:124] Setting up conv4_2/3x3_dwconv/SE_global_pool
I0918 10:29:11.924464 30897 net.cpp:131] Top shape: 25 120 1 1 (3000)
I0918 10:29:11.924484 30897 net.cpp:139] Memory required for data: 1203719800
I0918 10:29:11.924489 30897 layer_factory.hpp:77] Creating layer conv4_2/3x3_dwconv/SE_bn
I0918 10:29:11.924500 30897 net.cpp:86] Creating Layer conv4_2/3x3_dwconv/SE_bn
I0918 10:29:11.924506 30897 net.cpp:408] conv4_2/3x3_dwconv/SE_bn <- conv4_2/3x3_dwconv/SE_global_pool
I0918 10:29:11.924513 30897 net.cpp:382] conv4_2/3x3_dwconv/SE_bn -> conv4_2/3x3_dwconv/SE_bn
I0918 10:29:11.924597 30897 layer_factory.hpp:77] Creating layer conv4_2/3x3_dwconv/SE_bn
I0918 10:29:11.924782 30897 net.cpp:124] Setting up conv4_2/3x3_dwconv/SE_bn
I0918 10:29:11.924793 30897 net.cpp:131] Top shape: 25 120 1 1 (3000)
I0918 10:29:11.924796 30897 net.cpp:139] Memory required for data: 1203731800
I0918 10:29:11.924810 30897 layer_factory.hpp:77] Creating layer conv4_2/3x3_dwconv/SE_fc1
I0918 10:29:11.924825 30897 net.cpp:86] Creating Layer conv4_2/3x3_dwconv/SE_fc1
I0918 10:29:11.924831 30897 net.cpp:408] conv4_2/3x3_dwconv/SE_fc1 <- conv4_2/3x3_dwconv/SE_bn
I0918 10:29:11.924839 30897 net.cpp:382] conv4_2/3x3_dwconv/SE_fc1 -> conv4_2/3x3_dwconv/SE_fc1
I0918 10:29:11.925403 30897 net.cpp:124] Setting up conv4_2/3x3_dwconv/SE_fc1
I0918 10:29:11.925420 30897 net.cpp:131] Top shape: 25 7 1 1 (175)
I0918 10:29:11.925424 30897 net.cpp:139] Memory required for data: 1203732500
I0918 10:29:11.925431 30897 layer_factory.hpp:77] Creating layer conv4_2/3x3_dwconv/SE_fc1/relu
I0918 10:29:11.925443 30897 net.cpp:86] Creating Layer conv4_2/3x3_dwconv/SE_fc1/relu
I0918 10:29:11.925448 30897 net.cpp:408] conv4_2/3x3_dwconv/SE_fc1/relu <- conv4_2/3x3_dwconv/SE_fc1
I0918 10:29:11.925457 30897 net.cpp:369] conv4_2/3x3_dwconv/SE_fc1/relu -> conv4_2/3x3_dwconv/SE_fc1 (in-place)
I0918 10:29:11.926327 30897 net.cpp:124] Setting up conv4_2/3x3_dwconv/SE_fc1/relu
I0918 10:29:11.926343 30897 net.cpp:131] Top shape: 25 7 1 1 (175)
I0918 10:29:11.926348 30897 net.cpp:139] Memory required for data: 1203733200
I0918 10:29:11.926353 30897 layer_factory.hpp:77] Creating layer conv4_2/3x3_dwconv/SE_fc2
I0918 10:29:11.926367 30897 net.cpp:86] Creating Layer conv4_2/3x3_dwconv/SE_fc2
I0918 10:29:11.926373 30897 net.cpp:408] conv4_2/3x3_dwconv/SE_fc2 <- conv4_2/3x3_dwconv/SE_fc1
I0918 10:29:11.926381 30897 net.cpp:382] conv4_2/3x3_dwconv/SE_fc2 -> conv4_2/3x3_dwconv/SE_fc2
I0918 10:29:11.926975 30897 net.cpp:124] Setting up conv4_2/3x3_dwconv/SE_fc2
I0918 10:29:11.926991 30897 net.cpp:131] Top shape: 25 120 1 1 (3000)
I0918 10:29:11.926996 30897 net.cpp:139] Memory required for data: 1203745200
I0918 10:29:11.927003 30897 layer_factory.hpp:77] Creating layer conv4_2/3x3_dwconv/SE_weights
I0918 10:29:11.927011 30897 net.cpp:86] Creating Layer conv4_2/3x3_dwconv/SE_weights
I0918 10:29:11.927016 30897 net.cpp:408] conv4_2/3x3_dwconv/SE_weights <- conv4_2/3x3_dwconv/SE_fc2
I0918 10:29:11.927024 30897 net.cpp:369] conv4_2/3x3_dwconv/SE_weights -> conv4_2/3x3_dwconv/SE_fc2 (in-place)
I0918 10:29:11.927883 30897 net.cpp:124] Setting up conv4_2/3x3_dwconv/SE_weights
I0918 10:29:11.927897 30897 net.cpp:131] Top shape: 25 120 1 1 (3000)
I0918 10:29:11.927902 30897 net.cpp:139] Memory required for data: 1203757200
I0918 10:29:11.927908 30897 layer_factory.hpp:77] Creating layer conv4_2/3x3_dwconv/SE_weights/reshape
I0918 10:29:11.927922 30897 net.cpp:86] Creating Layer conv4_2/3x3_dwconv/SE_weights/reshape
I0918 10:29:11.927927 30897 net.cpp:408] conv4_2/3x3_dwconv/SE_weights/reshape <- conv4_2/3x3_dwconv/SE_fc2
I0918 10:29:11.927937 30897 net.cpp:382] conv4_2/3x3_dwconv/SE_weights/reshape -> conv4_2/3x3_dwconv/SE_weights/reshape
I0918 10:29:11.927984 30897 net.cpp:124] Setting up conv4_2/3x3_dwconv/SE_weights/reshape
I0918 10:29:11.927992 30897 net.cpp:131] Top shape: 25 120 (3000)
I0918 10:29:11.928007 30897 net.cpp:139] Memory required for data: 1203769200
I0918 10:29:11.928012 30897 layer_factory.hpp:77] Creating layer conv4_2/3x3_dwconv/scale
I0918 10:29:11.928022 30897 net.cpp:86] Creating Layer conv4_2/3x3_dwconv/scale
I0918 10:29:11.928027 30897 net.cpp:408] conv4_2/3x3_dwconv/scale <- conv4_2/3x3_dwconv/concat_conv4_2/3x3_dwconv/concat_fixed_point_0_split_1
I0918 10:29:11.928048 30897 net.cpp:408] conv4_2/3x3_dwconv/scale <- conv4_2/3x3_dwconv/SE_weights/reshape
I0918 10:29:11.928056 30897 net.cpp:382] conv4_2/3x3_dwconv/scale -> conv4_2/3x3_dwconv/scale
I0918 10:29:11.928169 30897 net.cpp:124] Setting up conv4_2/3x3_dwconv/scale
I0918 10:29:11.928179 30897 net.cpp:131] Top shape: 25 120 28 28 (2352000)
I0918 10:29:11.928182 30897 net.cpp:139] Memory required for data: 1213177200
I0918 10:29:11.928186 30897 layer_factory.hpp:77] Creating layer conv4_2/3x3_dwconv/scale_fixed_point
I0918 10:29:11.928196 30897 net.cpp:86] Creating Layer conv4_2/3x3_dwconv/scale_fixed_point
I0918 10:29:11.928200 30897 net.cpp:408] conv4_2/3x3_dwconv/scale_fixed_point <- conv4_2/3x3_dwconv/scale
I0918 10:29:11.928210 30897 net.cpp:369] conv4_2/3x3_dwconv/scale_fixed_point -> conv4_2/3x3_dwconv/scale (in-place)
I0918 10:29:11.928242 30897 net.cpp:124] Setting up conv4_2/3x3_dwconv/scale_fixed_point
I0918 10:29:11.928251 30897 net.cpp:131] Top shape: 25 120 28 28 (2352000)
I0918 10:29:11.928253 30897 net.cpp:139] Memory required for data: 1222585200
I0918 10:29:11.928259 30897 layer_factory.hpp:77] Creating layer conv4_2/1x1_decrease
I0918 10:29:11.928277 30897 net.cpp:86] Creating Layer conv4_2/1x1_decrease
I0918 10:29:11.928280 30897 net.cpp:408] conv4_2/1x1_decrease <- conv4_2/3x3_dwconv/scale
I0918 10:29:11.928288 30897 net.cpp:382] conv4_2/1x1_decrease -> conv4_2/1x1_decrease/bn
I0918 10:29:11.929186 30897 net.cpp:124] Setting up conv4_2/1x1_decrease
I0918 10:29:11.929201 30897 net.cpp:131] Top shape: 25 40 28 28 (784000)
I0918 10:29:11.929206 30897 net.cpp:139] Memory required for data: 1225721200
I0918 10:29:11.929214 30897 layer_factory.hpp:77] Creating layer conv4_2/elt_sum
I0918 10:29:11.929230 30897 net.cpp:86] Creating Layer conv4_2/elt_sum
I0918 10:29:11.929236 30897 net.cpp:408] conv4_2/elt_sum <- conv4_1/elt_sum_conv4_1/elt_sum_fixed_point_0_split_1
I0918 10:29:11.929242 30897 net.cpp:408] conv4_2/elt_sum <- conv4_2/1x1_decrease/bn
I0918 10:29:11.929250 30897 net.cpp:382] conv4_2/elt_sum -> conv4_2/elt_sum
I0918 10:29:11.929298 30897 net.cpp:124] Setting up conv4_2/elt_sum
I0918 10:29:11.929306 30897 net.cpp:131] Top shape: 25 40 28 28 (784000)
I0918 10:29:11.929309 30897 net.cpp:139] Memory required for data: 1228857200
I0918 10:29:11.929313 30897 layer_factory.hpp:77] Creating layer conv4_2/elt_sum_fixed_point
I0918 10:29:11.929322 30897 net.cpp:86] Creating Layer conv4_2/elt_sum_fixed_point
I0918 10:29:11.929327 30897 net.cpp:408] conv4_2/elt_sum_fixed_point <- conv4_2/elt_sum
I0918 10:29:11.929334 30897 net.cpp:369] conv4_2/elt_sum_fixed_point -> conv4_2/elt_sum (in-place)
I0918 10:29:11.929371 30897 net.cpp:124] Setting up conv4_2/elt_sum_fixed_point
I0918 10:29:11.929379 30897 net.cpp:131] Top shape: 25 40 28 28 (784000)
I0918 10:29:11.929383 30897 net.cpp:139] Memory required for data: 1231993200
I0918 10:29:11.929389 30897 layer_factory.hpp:77] Creating layer conv4_2/elt_sum_conv4_2/elt_sum_fixed_point_0_split
I0918 10:29:11.929395 30897 net.cpp:86] Creating Layer conv4_2/elt_sum_conv4_2/elt_sum_fixed_point_0_split
I0918 10:29:11.929400 30897 net.cpp:408] conv4_2/elt_sum_conv4_2/elt_sum_fixed_point_0_split <- conv4_2/elt_sum
I0918 10:29:11.929406 30897 net.cpp:382] conv4_2/elt_sum_conv4_2/elt_sum_fixed_point_0_split -> conv4_2/elt_sum_conv4_2/elt_sum_fixed_point_0_split_0
I0918 10:29:11.929417 30897 net.cpp:382] conv4_2/elt_sum_conv4_2/elt_sum_fixed_point_0_split -> conv4_2/elt_sum_conv4_2/elt_sum_fixed_point_0_split_1
I0918 10:29:11.929472 30897 net.cpp:124] Setting up conv4_2/elt_sum_conv4_2/elt_sum_fixed_point_0_split
I0918 10:29:11.929481 30897 net.cpp:131] Top shape: 25 40 28 28 (784000)
I0918 10:29:11.929486 30897 net.cpp:131] Top shape: 25 40 28 28 (784000)
I0918 10:29:11.929489 30897 net.cpp:139] Memory required for data: 1238265200
I0918 10:29:11.929494 30897 layer_factory.hpp:77] Creating layer conv4_3/1x1_increase
I0918 10:29:11.929509 30897 net.cpp:86] Creating Layer conv4_3/1x1_increase
I0918 10:29:11.929514 30897 net.cpp:408] conv4_3/1x1_increase <- conv4_2/elt_sum_conv4_2/elt_sum_fixed_point_0_split_0
I0918 10:29:11.929535 30897 net.cpp:382] conv4_3/1x1_increase -> conv4_3/1x1_increase/bn
I0918 10:29:11.930688 30897 net.cpp:124] Setting up conv4_3/1x1_increase
I0918 10:29:11.930706 30897 net.cpp:131] Top shape: 25 120 28 28 (2352000)
I0918 10:29:11.930713 30897 net.cpp:139] Memory required for data: 1247673200
I0918 10:29:11.930722 30897 layer_factory.hpp:77] Creating layer conv4_3/1x1_increase/hardswish
I0918 10:29:11.930732 30897 net.cpp:86] Creating Layer conv4_3/1x1_increase/hardswish
I0918 10:29:11.930737 30897 net.cpp:408] conv4_3/1x1_increase/hardswish <- conv4_3/1x1_increase/bn
I0918 10:29:11.930744 30897 net.cpp:369] conv4_3/1x1_increase/hardswish -> conv4_3/1x1_increase/bn (in-place)
I0918 10:29:11.930790 30897 net.cpp:124] Setting up conv4_3/1x1_increase/hardswish
I0918 10:29:11.930799 30897 net.cpp:131] Top shape: 25 120 28 28 (2352000)
I0918 10:29:11.930809 30897 net.cpp:139] Memory required for data: 1257081200
I0918 10:29:11.930814 30897 layer_factory.hpp:77] Creating layer conv4_3/1x1_increase/bn_fixed_point
I0918 10:29:11.930824 30897 net.cpp:86] Creating Layer conv4_3/1x1_increase/bn_fixed_point
I0918 10:29:11.930829 30897 net.cpp:408] conv4_3/1x1_increase/bn_fixed_point <- conv4_3/1x1_increase/bn
I0918 10:29:11.930835 30897 net.cpp:369] conv4_3/1x1_increase/bn_fixed_point -> conv4_3/1x1_increase/bn (in-place)
I0918 10:29:11.930873 30897 net.cpp:124] Setting up conv4_3/1x1_increase/bn_fixed_point
I0918 10:29:11.930881 30897 net.cpp:131] Top shape: 25 120 28 28 (2352000)
I0918 10:29:11.930886 30897 net.cpp:139] Memory required for data: 1266489200
I0918 10:29:11.930891 30897 layer_factory.hpp:77] Creating layer conv4_3/1x1_increase/slice
I0918 10:29:11.930900 30897 net.cpp:86] Creating Layer conv4_3/1x1_increase/slice
I0918 10:29:11.930904 30897 net.cpp:408] conv4_3/1x1_increase/slice <- conv4_3/1x1_increase/bn
I0918 10:29:11.930912 30897 net.cpp:382] conv4_3/1x1_increase/slice -> conv4_3/1x1_increase/split1
I0918 10:29:11.930919 30897 net.cpp:382] conv4_3/1x1_increase/slice -> conv4_3/1x1_increase/split2
I0918 10:29:11.930982 30897 net.cpp:124] Setting up conv4_3/1x1_increase/slice
I0918 10:29:11.930990 30897 net.cpp:131] Top shape: 25 60 28 28 (1176000)
I0918 10:29:11.930995 30897 net.cpp:131] Top shape: 25 60 28 28 (1176000)
I0918 10:29:11.930999 30897 net.cpp:139] Memory required for data: 1275897200
I0918 10:29:11.931005 30897 layer_factory.hpp:77] Creating layer conv4_3/3x3_dwconv/slice_0
I0918 10:29:11.931020 30897 net.cpp:86] Creating Layer conv4_3/3x3_dwconv/slice_0
I0918 10:29:11.931025 30897 net.cpp:408] conv4_3/3x3_dwconv/slice_0 <- conv4_3/1x1_increase/split1
I0918 10:29:11.931035 30897 net.cpp:382] conv4_3/3x3_dwconv/slice_0 -> conv4_3/3x3_dwconv/slice_0/bn
I0918 10:29:11.931789 30897 net.cpp:124] Setting up conv4_3/3x3_dwconv/slice_0
I0918 10:29:11.931808 30897 net.cpp:131] Top shape: 25 60 28 28 (1176000)
I0918 10:29:11.931813 30897 net.cpp:139] Memory required for data: 1280601200
I0918 10:29:11.931821 30897 layer_factory.hpp:77] Creating layer conv4_3/3x3_dwconv/slice_0/hardswish
I0918 10:29:11.931833 30897 net.cpp:86] Creating Layer conv4_3/3x3_dwconv/slice_0/hardswish
I0918 10:29:11.931838 30897 net.cpp:408] conv4_3/3x3_dwconv/slice_0/hardswish <- conv4_3/3x3_dwconv/slice_0/bn
I0918 10:29:11.931845 30897 net.cpp:369] conv4_3/3x3_dwconv/slice_0/hardswish -> conv4_3/3x3_dwconv/slice_0/bn (in-place)
I0918 10:29:11.931890 30897 net.cpp:124] Setting up conv4_3/3x3_dwconv/slice_0/hardswish
I0918 10:29:11.931898 30897 net.cpp:131] Top shape: 25 60 28 28 (1176000)
I0918 10:29:11.931902 30897 net.cpp:139] Memory required for data: 1285305200
I0918 10:29:11.931906 30897 layer_factory.hpp:77] Creating layer conv4_3/3x3_dwconv/slice_1
I0918 10:29:11.931921 30897 net.cpp:86] Creating Layer conv4_3/3x3_dwconv/slice_1
I0918 10:29:11.931926 30897 net.cpp:408] conv4_3/3x3_dwconv/slice_1 <- conv4_3/1x1_increase/split2
I0918 10:29:11.931936 30897 net.cpp:382] conv4_3/3x3_dwconv/slice_1 -> conv4_3/3x3_dwconv/slice_1/bn
I0918 10:29:11.932976 30897 net.cpp:124] Setting up conv4_3/3x3_dwconv/slice_1
I0918 10:29:11.932992 30897 net.cpp:131] Top shape: 25 60 28 28 (1176000)
I0918 10:29:11.932996 30897 net.cpp:139] Memory required for data: 1290009200
I0918 10:29:11.933007 30897 layer_factory.hpp:77] Creating layer conv4_3/3x3_dwconv/slice_1/hardswish
I0918 10:29:11.933018 30897 net.cpp:86] Creating Layer conv4_3/3x3_dwconv/slice_1/hardswish
I0918 10:29:11.933024 30897 net.cpp:408] conv4_3/3x3_dwconv/slice_1/hardswish <- conv4_3/3x3_dwconv/slice_1/bn
I0918 10:29:11.933032 30897 net.cpp:369] conv4_3/3x3_dwconv/slice_1/hardswish -> conv4_3/3x3_dwconv/slice_1/bn (in-place)
I0918 10:29:11.933079 30897 net.cpp:124] Setting up conv4_3/3x3_dwconv/slice_1/hardswish
I0918 10:29:11.933086 30897 net.cpp:131] Top shape: 25 60 28 28 (1176000)
I0918 10:29:11.933091 30897 net.cpp:139] Memory required for data: 1294713200
I0918 10:29:11.933095 30897 layer_factory.hpp:77] Creating layer conv4_3/3x3_dwconv/concat
I0918 10:29:11.933102 30897 net.cpp:86] Creating Layer conv4_3/3x3_dwconv/concat
I0918 10:29:11.933107 30897 net.cpp:408] conv4_3/3x3_dwconv/concat <- conv4_3/3x3_dwconv/slice_0/bn
I0918 10:29:11.933112 30897 net.cpp:408] conv4_3/3x3_dwconv/concat <- conv4_3/3x3_dwconv/slice_1/bn
I0918 10:29:11.933121 30897 net.cpp:382] conv4_3/3x3_dwconv/concat -> conv4_3/3x3_dwconv/concat
I0918 10:29:11.933157 30897 net.cpp:124] Setting up conv4_3/3x3_dwconv/concat
I0918 10:29:11.933164 30897 net.cpp:131] Top shape: 25 120 28 28 (2352000)
I0918 10:29:11.933168 30897 net.cpp:139] Memory required for data: 1304121200
I0918 10:29:11.933172 30897 layer_factory.hpp:77] Creating layer conv4_3/3x3_dwconv/concat_fixed_point
I0918 10:29:11.933183 30897 net.cpp:86] Creating Layer conv4_3/3x3_dwconv/concat_fixed_point
I0918 10:29:11.933188 30897 net.cpp:408] conv4_3/3x3_dwconv/concat_fixed_point <- conv4_3/3x3_dwconv/concat
I0918 10:29:11.933197 30897 net.cpp:369] conv4_3/3x3_dwconv/concat_fixed_point -> conv4_3/3x3_dwconv/concat (in-place)
I0918 10:29:11.933230 30897 net.cpp:124] Setting up conv4_3/3x3_dwconv/concat_fixed_point
I0918 10:29:11.933238 30897 net.cpp:131] Top shape: 25 120 28 28 (2352000)
I0918 10:29:11.933241 30897 net.cpp:139] Memory required for data: 1313529200
I0918 10:29:11.933248 30897 layer_factory.hpp:77] Creating layer conv4_3/3x3_dwconv/concat_conv4_3/3x3_dwconv/concat_fixed_point_0_split
I0918 10:29:11.933254 30897 net.cpp:86] Creating Layer conv4_3/3x3_dwconv/concat_conv4_3/3x3_dwconv/concat_fixed_point_0_split
I0918 10:29:11.933259 30897 net.cpp:408] conv4_3/3x3_dwconv/concat_conv4_3/3x3_dwconv/concat_fixed_point_0_split <- conv4_3/3x3_dwconv/concat
I0918 10:29:11.933267 30897 net.cpp:382] conv4_3/3x3_dwconv/concat_conv4_3/3x3_dwconv/concat_fixed_point_0_split -> conv4_3/3x3_dwconv/concat_conv4_3/3x3_dwconv/concat_fixed_point_0_split_0
I0918 10:29:11.933276 30897 net.cpp:382] conv4_3/3x3_dwconv/concat_conv4_3/3x3_dwconv/concat_fixed_point_0_split -> conv4_3/3x3_dwconv/concat_conv4_3/3x3_dwconv/concat_fixed_point_0_split_1
I0918 10:29:11.933331 30897 net.cpp:124] Setting up conv4_3/3x3_dwconv/concat_conv4_3/3x3_dwconv/concat_fixed_point_0_split
I0918 10:29:11.933339 30897 net.cpp:131] Top shape: 25 120 28 28 (2352000)
I0918 10:29:11.933344 30897 net.cpp:131] Top shape: 25 120 28 28 (2352000)
I0918 10:29:11.933348 30897 net.cpp:139] Memory required for data: 1332345200
I0918 10:29:11.933353 30897 layer_factory.hpp:77] Creating layer conv4_3/3x3_dwconv/SE_global_pool
I0918 10:29:11.933367 30897 net.cpp:86] Creating Layer conv4_3/3x3_dwconv/SE_global_pool
I0918 10:29:11.933372 30897 net.cpp:408] conv4_3/3x3_dwconv/SE_global_pool <- conv4_3/3x3_dwconv/concat_conv4_3/3x3_dwconv/concat_fixed_point_0_split_0
I0918 10:29:11.933380 30897 net.cpp:382] conv4_3/3x3_dwconv/SE_global_pool -> conv4_3/3x3_dwconv/SE_global_pool
I0918 10:29:11.933413 30897 net.cpp:124] Setting up conv4_3/3x3_dwconv/SE_global_pool
I0918 10:29:11.933420 30897 net.cpp:131] Top shape: 25 120 1 1 (3000)
I0918 10:29:11.933424 30897 net.cpp:139] Memory required for data: 1332357200
I0918 10:29:11.933441 30897 layer_factory.hpp:77] Creating layer conv4_3/3x3_dwconv/SE_bn
I0918 10:29:11.933454 30897 net.cpp:86] Creating Layer conv4_3/3x3_dwconv/SE_bn
I0918 10:29:11.933459 30897 net.cpp:408] conv4_3/3x3_dwconv/SE_bn <- conv4_3/3x3_dwconv/SE_global_pool
I0918 10:29:11.933470 30897 net.cpp:382] conv4_3/3x3_dwconv/SE_bn -> conv4_3/3x3_dwconv/SE_bn
I0918 10:29:11.933537 30897 layer_factory.hpp:77] Creating layer conv4_3/3x3_dwconv/SE_bn
I0918 10:29:11.933709 30897 net.cpp:124] Setting up conv4_3/3x3_dwconv/SE_bn
I0918 10:29:11.933718 30897 net.cpp:131] Top shape: 25 120 1 1 (3000)
I0918 10:29:11.933722 30897 net.cpp:139] Memory required for data: 1332369200
I0918 10:29:11.933730 30897 layer_factory.hpp:77] Creating layer conv4_3/3x3_dwconv/SE_fc1
I0918 10:29:11.933743 30897 net.cpp:86] Creating Layer conv4_3/3x3_dwconv/SE_fc1
I0918 10:29:11.933748 30897 net.cpp:408] conv4_3/3x3_dwconv/SE_fc1 <- conv4_3/3x3_dwconv/SE_bn
I0918 10:29:11.933761 30897 net.cpp:382] conv4_3/3x3_dwconv/SE_fc1 -> conv4_3/3x3_dwconv/SE_fc1
I0918 10:29:11.934300 30897 net.cpp:124] Setting up conv4_3/3x3_dwconv/SE_fc1
I0918 10:29:11.934315 30897 net.cpp:131] Top shape: 25 7 1 1 (175)
I0918 10:29:11.934320 30897 net.cpp:139] Memory required for data: 1332369900
I0918 10:29:11.934326 30897 layer_factory.hpp:77] Creating layer conv4_3/3x3_dwconv/SE_fc1/relu
I0918 10:29:11.934334 30897 net.cpp:86] Creating Layer conv4_3/3x3_dwconv/SE_fc1/relu
I0918 10:29:11.934340 30897 net.cpp:408] conv4_3/3x3_dwconv/SE_fc1/relu <- conv4_3/3x3_dwconv/SE_fc1
I0918 10:29:11.934350 30897 net.cpp:369] conv4_3/3x3_dwconv/SE_fc1/relu -> conv4_3/3x3_dwconv/SE_fc1 (in-place)
I0918 10:29:11.935426 30897 net.cpp:124] Setting up conv4_3/3x3_dwconv/SE_fc1/relu
I0918 10:29:11.935444 30897 net.cpp:131] Top shape: 25 7 1 1 (175)
I0918 10:29:11.935449 30897 net.cpp:139] Memory required for data: 1332370600
I0918 10:29:11.935456 30897 layer_factory.hpp:77] Creating layer conv4_3/3x3_dwconv/SE_fc2
I0918 10:29:11.935480 30897 net.cpp:86] Creating Layer conv4_3/3x3_dwconv/SE_fc2
I0918 10:29:11.935487 30897 net.cpp:408] conv4_3/3x3_dwconv/SE_fc2 <- conv4_3/3x3_dwconv/SE_fc1
I0918 10:29:11.935497 30897 net.cpp:382] conv4_3/3x3_dwconv/SE_fc2 -> conv4_3/3x3_dwconv/SE_fc2
I0918 10:29:11.936074 30897 net.cpp:124] Setting up conv4_3/3x3_dwconv/SE_fc2
I0918 10:29:11.936089 30897 net.cpp:131] Top shape: 25 120 1 1 (3000)
I0918 10:29:11.936094 30897 net.cpp:139] Memory required for data: 1332382600
I0918 10:29:11.936100 30897 layer_factory.hpp:77] Creating layer conv4_3/3x3_dwconv/SE_weights
I0918 10:29:11.936110 30897 net.cpp:86] Creating Layer conv4_3/3x3_dwconv/SE_weights
I0918 10:29:11.936115 30897 net.cpp:408] conv4_3/3x3_dwconv/SE_weights <- conv4_3/3x3_dwconv/SE_fc2
I0918 10:29:11.936122 30897 net.cpp:369] conv4_3/3x3_dwconv/SE_weights -> conv4_3/3x3_dwconv/SE_fc2 (in-place)
I0918 10:29:11.936954 30897 net.cpp:124] Setting up conv4_3/3x3_dwconv/SE_weights
I0918 10:29:11.936971 30897 net.cpp:131] Top shape: 25 120 1 1 (3000)
I0918 10:29:11.936975 30897 net.cpp:139] Memory required for data: 1332394600
I0918 10:29:11.936980 30897 layer_factory.hpp:77] Creating layer conv4_3/3x3_dwconv/SE_weights/reshape
I0918 10:29:11.936988 30897 net.cpp:86] Creating Layer conv4_3/3x3_dwconv/SE_weights/reshape
I0918 10:29:11.936993 30897 net.cpp:408] conv4_3/3x3_dwconv/SE_weights/reshape <- conv4_3/3x3_dwconv/SE_fc2
I0918 10:29:11.937001 30897 net.cpp:382] conv4_3/3x3_dwconv/SE_weights/reshape -> conv4_3/3x3_dwconv/SE_weights/reshape
I0918 10:29:11.937048 30897 net.cpp:124] Setting up conv4_3/3x3_dwconv/SE_weights/reshape
I0918 10:29:11.937057 30897 net.cpp:131] Top shape: 25 120 (3000)
I0918 10:29:11.937060 30897 net.cpp:139] Memory required for data: 1332406600
I0918 10:29:11.937064 30897 layer_factory.hpp:77] Creating layer conv4_3/3x3_dwconv/scale
I0918 10:29:11.937077 30897 net.cpp:86] Creating Layer conv4_3/3x3_dwconv/scale
I0918 10:29:11.937081 30897 net.cpp:408] conv4_3/3x3_dwconv/scale <- conv4_3/3x3_dwconv/concat_conv4_3/3x3_dwconv/concat_fixed_point_0_split_1
I0918 10:29:11.937088 30897 net.cpp:408] conv4_3/3x3_dwconv/scale <- conv4_3/3x3_dwconv/SE_weights/reshape
I0918 10:29:11.937108 30897 net.cpp:382] conv4_3/3x3_dwconv/scale -> conv4_3/3x3_dwconv/scale
I0918 10:29:11.937218 30897 net.cpp:124] Setting up conv4_3/3x3_dwconv/scale
I0918 10:29:11.937230 30897 net.cpp:131] Top shape: 25 120 28 28 (2352000)
I0918 10:29:11.937234 30897 net.cpp:139] Memory required for data: 1341814600
I0918 10:29:11.937238 30897 layer_factory.hpp:77] Creating layer conv4_3/3x3_dwconv/scale_fixed_point
I0918 10:29:11.937247 30897 net.cpp:86] Creating Layer conv4_3/3x3_dwconv/scale_fixed_point
I0918 10:29:11.937252 30897 net.cpp:408] conv4_3/3x3_dwconv/scale_fixed_point <- conv4_3/3x3_dwconv/scale
I0918 10:29:11.937261 30897 net.cpp:369] conv4_3/3x3_dwconv/scale_fixed_point -> conv4_3/3x3_dwconv/scale (in-place)
I0918 10:29:11.937296 30897 net.cpp:124] Setting up conv4_3/3x3_dwconv/scale_fixed_point
I0918 10:29:11.937304 30897 net.cpp:131] Top shape: 25 120 28 28 (2352000)
I0918 10:29:11.937309 30897 net.cpp:139] Memory required for data: 1351222600
I0918 10:29:11.937314 30897 layer_factory.hpp:77] Creating layer conv4_3/1x1_decrease
I0918 10:29:11.937327 30897 net.cpp:86] Creating Layer conv4_3/1x1_decrease
I0918 10:29:11.937333 30897 net.cpp:408] conv4_3/1x1_decrease <- conv4_3/3x3_dwconv/scale
I0918 10:29:11.937343 30897 net.cpp:382] conv4_3/1x1_decrease -> conv4_3/1x1_decrease/bn
I0918 10:29:11.938251 30897 net.cpp:124] Setting up conv4_3/1x1_decrease
I0918 10:29:11.938266 30897 net.cpp:131] Top shape: 25 40 28 28 (784000)
I0918 10:29:11.938271 30897 net.cpp:139] Memory required for data: 1354358600
I0918 10:29:11.938278 30897 layer_factory.hpp:77] Creating layer conv4_3/elt_sum
I0918 10:29:11.938292 30897 net.cpp:86] Creating Layer conv4_3/elt_sum
I0918 10:29:11.938297 30897 net.cpp:408] conv4_3/elt_sum <- conv4_2/elt_sum_conv4_2/elt_sum_fixed_point_0_split_1
I0918 10:29:11.938302 30897 net.cpp:408] conv4_3/elt_sum <- conv4_3/1x1_decrease/bn
I0918 10:29:11.938309 30897 net.cpp:382] conv4_3/elt_sum -> conv4_3/elt_sum
I0918 10:29:11.938352 30897 net.cpp:124] Setting up conv4_3/elt_sum
I0918 10:29:11.938361 30897 net.cpp:131] Top shape: 25 40 28 28 (784000)
I0918 10:29:11.938365 30897 net.cpp:139] Memory required for data: 1357494600
I0918 10:29:11.938369 30897 layer_factory.hpp:77] Creating layer conv4_3/elt_sum_fixed_point
I0918 10:29:11.938376 30897 net.cpp:86] Creating Layer conv4_3/elt_sum_fixed_point
I0918 10:29:11.938382 30897 net.cpp:408] conv4_3/elt_sum_fixed_point <- conv4_3/elt_sum
I0918 10:29:11.938390 30897 net.cpp:369] conv4_3/elt_sum_fixed_point -> conv4_3/elt_sum (in-place)
I0918 10:29:11.938422 30897 net.cpp:124] Setting up conv4_3/elt_sum_fixed_point
I0918 10:29:11.938429 30897 net.cpp:131] Top shape: 25 40 28 28 (784000)
I0918 10:29:11.938433 30897 net.cpp:139] Memory required for data: 1360630600
I0918 10:29:11.938438 30897 layer_factory.hpp:77] Creating layer conv5_0/1x1_increase
I0918 10:29:11.938453 30897 net.cpp:86] Creating Layer conv5_0/1x1_increase
I0918 10:29:11.938457 30897 net.cpp:408] conv5_0/1x1_increase <- conv4_3/elt_sum
I0918 10:29:11.938464 30897 net.cpp:382] conv5_0/1x1_increase -> conv5_0/1x1_increase/bn
I0918 10:29:11.939553 30897 net.cpp:124] Setting up conv5_0/1x1_increase
I0918 10:29:11.939568 30897 net.cpp:131] Top shape: 25 240 28 28 (4704000)
I0918 10:29:11.939572 30897 net.cpp:139] Memory required for data: 1379446600
I0918 10:29:11.939580 30897 layer_factory.hpp:77] Creating layer conv5_0/1x1_increase/hardswish
I0918 10:29:11.939590 30897 net.cpp:86] Creating Layer conv5_0/1x1_increase/hardswish
I0918 10:29:11.939595 30897 net.cpp:408] conv5_0/1x1_increase/hardswish <- conv5_0/1x1_increase/bn
I0918 10:29:11.939602 30897 net.cpp:369] conv5_0/1x1_increase/hardswish -> conv5_0/1x1_increase/bn (in-place)
I0918 10:29:11.939641 30897 net.cpp:124] Setting up conv5_0/1x1_increase/hardswish
I0918 10:29:11.939648 30897 net.cpp:131] Top shape: 25 240 28 28 (4704000)
I0918 10:29:11.939652 30897 net.cpp:139] Memory required for data: 1398262600
I0918 10:29:11.939656 30897 layer_factory.hpp:77] Creating layer conv5_0/1x1_increase/bn_fixed_point
I0918 10:29:11.939680 30897 net.cpp:86] Creating Layer conv5_0/1x1_increase/bn_fixed_point
I0918 10:29:11.939685 30897 net.cpp:408] conv5_0/1x1_increase/bn_fixed_point <- conv5_0/1x1_increase/bn
I0918 10:29:11.939694 30897 net.cpp:369] conv5_0/1x1_increase/bn_fixed_point -> conv5_0/1x1_increase/bn (in-place)
I0918 10:29:11.939729 30897 net.cpp:124] Setting up conv5_0/1x1_increase/bn_fixed_point
I0918 10:29:11.939738 30897 net.cpp:131] Top shape: 25 240 28 28 (4704000)
I0918 10:29:11.939741 30897 net.cpp:139] Memory required for data: 1417078600
I0918 10:29:11.939747 30897 layer_factory.hpp:77] Creating layer conv5_0/1x1_increase/slice
I0918 10:29:11.939761 30897 net.cpp:86] Creating Layer conv5_0/1x1_increase/slice
I0918 10:29:11.939766 30897 net.cpp:408] conv5_0/1x1_increase/slice <- conv5_0/1x1_increase/bn
I0918 10:29:11.939774 30897 net.cpp:382] conv5_0/1x1_increase/slice -> conv5_0/1x1_increase/split1
I0918 10:29:11.939781 30897 net.cpp:382] conv5_0/1x1_increase/slice -> conv5_0/1x1_increase/split2
I0918 10:29:11.939790 30897 net.cpp:382] conv5_0/1x1_increase/slice -> conv5_0/1x1_increase/split3
I0918 10:29:11.939885 30897 net.cpp:124] Setting up conv5_0/1x1_increase/slice
I0918 10:29:11.939895 30897 net.cpp:131] Top shape: 25 80 28 28 (1568000)
I0918 10:29:11.939899 30897 net.cpp:131] Top shape: 25 80 28 28 (1568000)
I0918 10:29:11.939904 30897 net.cpp:131] Top shape: 25 80 28 28 (1568000)
I0918 10:29:11.939908 30897 net.cpp:139] Memory required for data: 1435894600
I0918 10:29:11.939913 30897 layer_factory.hpp:77] Creating layer conv5_0/3x3_dwconv/slice_0
I0918 10:29:11.939929 30897 net.cpp:86] Creating Layer conv5_0/3x3_dwconv/slice_0
I0918 10:29:11.939934 30897 net.cpp:408] conv5_0/3x3_dwconv/slice_0 <- conv5_0/1x1_increase/split1
I0918 10:29:11.939944 30897 net.cpp:382] conv5_0/3x3_dwconv/slice_0 -> conv5_0/3x3_dwconv/slice_0/bn
I0918 10:29:11.940681 30897 net.cpp:124] Setting up conv5_0/3x3_dwconv/slice_0
I0918 10:29:11.940696 30897 net.cpp:131] Top shape: 25 80 14 14 (392000)
I0918 10:29:11.940699 30897 net.cpp:139] Memory required for data: 1437462600
I0918 10:29:11.940707 30897 layer_factory.hpp:77] Creating layer conv5_0/3x3_dwconv/slice_0/hardswish
I0918 10:29:11.940719 30897 net.cpp:86] Creating Layer conv5_0/3x3_dwconv/slice_0/hardswish
I0918 10:29:11.940726 30897 net.cpp:408] conv5_0/3x3_dwconv/slice_0/hardswish <- conv5_0/3x3_dwconv/slice_0/bn
I0918 10:29:11.940733 30897 net.cpp:369] conv5_0/3x3_dwconv/slice_0/hardswish -> conv5_0/3x3_dwconv/slice_0/bn (in-place)
I0918 10:29:11.940773 30897 net.cpp:124] Setting up conv5_0/3x3_dwconv/slice_0/hardswish
I0918 10:29:11.940784 30897 net.cpp:131] Top shape: 25 80 14 14 (392000)
I0918 10:29:11.940788 30897 net.cpp:139] Memory required for data: 1439030600
I0918 10:29:11.940793 30897 layer_factory.hpp:77] Creating layer conv5_0/3x3_dwconv/slice_1
I0918 10:29:11.940824 30897 net.cpp:86] Creating Layer conv5_0/3x3_dwconv/slice_1
I0918 10:29:11.940830 30897 net.cpp:408] conv5_0/3x3_dwconv/slice_1 <- conv5_0/1x1_increase/split2
I0918 10:29:11.940840 30897 net.cpp:382] conv5_0/3x3_dwconv/slice_1 -> conv5_0/3x3_dwconv/slice_1/bn
I0918 10:29:11.941639 30897 net.cpp:124] Setting up conv5_0/3x3_dwconv/slice_1
I0918 10:29:11.941653 30897 net.cpp:131] Top shape: 25 80 14 14 (392000)
I0918 10:29:11.941658 30897 net.cpp:139] Memory required for data: 1440598600
I0918 10:29:11.941665 30897 layer_factory.hpp:77] Creating layer conv5_0/3x3_dwconv/slice_1/hardswish
I0918 10:29:11.941673 30897 net.cpp:86] Creating Layer conv5_0/3x3_dwconv/slice_1/hardswish
I0918 10:29:11.941679 30897 net.cpp:408] conv5_0/3x3_dwconv/slice_1/hardswish <- conv5_0/3x3_dwconv/slice_1/bn
I0918 10:29:11.941687 30897 net.cpp:369] conv5_0/3x3_dwconv/slice_1/hardswish -> conv5_0/3x3_dwconv/slice_1/bn (in-place)
I0918 10:29:11.941728 30897 net.cpp:124] Setting up conv5_0/3x3_dwconv/slice_1/hardswish
I0918 10:29:11.941738 30897 net.cpp:131] Top shape: 25 80 14 14 (392000)
I0918 10:29:11.941743 30897 net.cpp:139] Memory required for data: 1442166600
I0918 10:29:11.941759 30897 layer_factory.hpp:77] Creating layer conv5_0/3x3_dwconv/slice_2
I0918 10:29:11.941773 30897 net.cpp:86] Creating Layer conv5_0/3x3_dwconv/slice_2
I0918 10:29:11.941778 30897 net.cpp:408] conv5_0/3x3_dwconv/slice_2 <- conv5_0/1x1_increase/split3
I0918 10:29:11.941787 30897 net.cpp:382] conv5_0/3x3_dwconv/slice_2 -> conv5_0/3x3_dwconv/slice_2/bn
I0918 10:29:11.942881 30897 net.cpp:124] Setting up conv5_0/3x3_dwconv/slice_2
I0918 10:29:11.942898 30897 net.cpp:131] Top shape: 25 80 14 14 (392000)
I0918 10:29:11.942901 30897 net.cpp:139] Memory required for data: 1443734600
I0918 10:29:11.942911 30897 layer_factory.hpp:77] Creating layer conv5_0/3x3_dwconv/slice_2/hardswish
I0918 10:29:11.942920 30897 net.cpp:86] Creating Layer conv5_0/3x3_dwconv/slice_2/hardswish
I0918 10:29:11.942926 30897 net.cpp:408] conv5_0/3x3_dwconv/slice_2/hardswish <- conv5_0/3x3_dwconv/slice_2/bn
I0918 10:29:11.942935 30897 net.cpp:369] conv5_0/3x3_dwconv/slice_2/hardswish -> conv5_0/3x3_dwconv/slice_2/bn (in-place)
I0918 10:29:11.942977 30897 net.cpp:124] Setting up conv5_0/3x3_dwconv/slice_2/hardswish
I0918 10:29:11.942986 30897 net.cpp:131] Top shape: 25 80 14 14 (392000)
I0918 10:29:11.942989 30897 net.cpp:139] Memory required for data: 1445302600
I0918 10:29:11.942994 30897 layer_factory.hpp:77] Creating layer conv5_0/3x3_dwconv/concat
I0918 10:29:11.943003 30897 net.cpp:86] Creating Layer conv5_0/3x3_dwconv/concat
I0918 10:29:11.943008 30897 net.cpp:408] conv5_0/3x3_dwconv/concat <- conv5_0/3x3_dwconv/slice_0/bn
I0918 10:29:11.943013 30897 net.cpp:408] conv5_0/3x3_dwconv/concat <- conv5_0/3x3_dwconv/slice_1/bn
I0918 10:29:11.943019 30897 net.cpp:408] conv5_0/3x3_dwconv/concat <- conv5_0/3x3_dwconv/slice_2/bn
I0918 10:29:11.943024 30897 net.cpp:382] conv5_0/3x3_dwconv/concat -> conv5_0/3x3_dwconv/concat
I0918 10:29:11.943061 30897 net.cpp:124] Setting up conv5_0/3x3_dwconv/concat
I0918 10:29:11.943069 30897 net.cpp:131] Top shape: 25 240 14 14 (1176000)
I0918 10:29:11.943073 30897 net.cpp:139] Memory required for data: 1450006600
I0918 10:29:11.943078 30897 layer_factory.hpp:77] Creating layer conv5_0/3x3_dwconv/concat_fixed_point
I0918 10:29:11.943086 30897 net.cpp:86] Creating Layer conv5_0/3x3_dwconv/concat_fixed_point
I0918 10:29:11.943091 30897 net.cpp:408] conv5_0/3x3_dwconv/concat_fixed_point <- conv5_0/3x3_dwconv/concat
I0918 10:29:11.943096 30897 net.cpp:369] conv5_0/3x3_dwconv/concat_fixed_point -> conv5_0/3x3_dwconv/concat (in-place)
I0918 10:29:11.943131 30897 net.cpp:124] Setting up conv5_0/3x3_dwconv/concat_fixed_point
I0918 10:29:11.943140 30897 net.cpp:131] Top shape: 25 240 14 14 (1176000)
I0918 10:29:11.943143 30897 net.cpp:139] Memory required for data: 1454710600
I0918 10:29:11.943148 30897 layer_factory.hpp:77] Creating layer conv5_0/3x3_dwconv/concat_conv5_0/3x3_dwconv/concat_fixed_point_0_split
I0918 10:29:11.943154 30897 net.cpp:86] Creating Layer conv5_0/3x3_dwconv/concat_conv5_0/3x3_dwconv/concat_fixed_point_0_split
I0918 10:29:11.943159 30897 net.cpp:408] conv5_0/3x3_dwconv/concat_conv5_0/3x3_dwconv/concat_fixed_point_0_split <- conv5_0/3x3_dwconv/concat
I0918 10:29:11.943167 30897 net.cpp:382] conv5_0/3x3_dwconv/concat_conv5_0/3x3_dwconv/concat_fixed_point_0_split -> conv5_0/3x3_dwconv/concat_conv5_0/3x3_dwconv/concat_fixed_point_0_split_0
I0918 10:29:11.943174 30897 net.cpp:382] conv5_0/3x3_dwconv/concat_conv5_0/3x3_dwconv/concat_fixed_point_0_split -> conv5_0/3x3_dwconv/concat_conv5_0/3x3_dwconv/concat_fixed_point_0_split_1
I0918 10:29:11.943228 30897 net.cpp:124] Setting up conv5_0/3x3_dwconv/concat_conv5_0/3x3_dwconv/concat_fixed_point_0_split
I0918 10:29:11.943235 30897 net.cpp:131] Top shape: 25 240 14 14 (1176000)
I0918 10:29:11.943241 30897 net.cpp:131] Top shape: 25 240 14 14 (1176000)
I0918 10:29:11.943244 30897 net.cpp:139] Memory required for data: 1464118600
I0918 10:29:11.943248 30897 layer_factory.hpp:77] Creating layer conv5_0/3x3_dwconv/SE_global_pool
I0918 10:29:11.943259 30897 net.cpp:86] Creating Layer conv5_0/3x3_dwconv/SE_global_pool
I0918 10:29:11.943264 30897 net.cpp:408] conv5_0/3x3_dwconv/SE_global_pool <- conv5_0/3x3_dwconv/concat_conv5_0/3x3_dwconv/concat_fixed_point_0_split_0
I0918 10:29:11.943285 30897 net.cpp:382] conv5_0/3x3_dwconv/SE_global_pool -> conv5_0/3x3_dwconv/SE_global_pool
I0918 10:29:11.943320 30897 net.cpp:124] Setting up conv5_0/3x3_dwconv/SE_global_pool
I0918 10:29:11.943328 30897 net.cpp:131] Top shape: 25 240 1 1 (6000)
I0918 10:29:11.943332 30897 net.cpp:139] Memory required for data: 1464142600
I0918 10:29:11.943336 30897 layer_factory.hpp:77] Creating layer conv5_0/3x3_dwconv/SE_bn
I0918 10:29:11.943346 30897 net.cpp:86] Creating Layer conv5_0/3x3_dwconv/SE_bn
I0918 10:29:11.943351 30897 net.cpp:408] conv5_0/3x3_dwconv/SE_bn <- conv5_0/3x3_dwconv/SE_global_pool
I0918 10:29:11.943367 30897 net.cpp:382] conv5_0/3x3_dwconv/SE_bn -> conv5_0/3x3_dwconv/SE_bn
I0918 10:29:11.943425 30897 layer_factory.hpp:77] Creating layer conv5_0/3x3_dwconv/SE_bn
I0918 10:29:11.943591 30897 net.cpp:124] Setting up conv5_0/3x3_dwconv/SE_bn
I0918 10:29:11.943600 30897 net.cpp:131] Top shape: 25 240 1 1 (6000)
I0918 10:29:11.943603 30897 net.cpp:139] Memory required for data: 1464166600
I0918 10:29:11.943610 30897 layer_factory.hpp:77] Creating layer conv5_0/3x3_dwconv/SE_fc1
I0918 10:29:11.943621 30897 net.cpp:86] Creating Layer conv5_0/3x3_dwconv/SE_fc1
I0918 10:29:11.943626 30897 net.cpp:408] conv5_0/3x3_dwconv/SE_fc1 <- conv5_0/3x3_dwconv/SE_bn
I0918 10:29:11.943635 30897 net.cpp:382] conv5_0/3x3_dwconv/SE_fc1 -> conv5_0/3x3_dwconv/SE_fc1
I0918 10:29:11.944255 30897 net.cpp:124] Setting up conv5_0/3x3_dwconv/SE_fc1
I0918 10:29:11.944269 30897 net.cpp:131] Top shape: 25 15 1 1 (375)
I0918 10:29:11.944274 30897 net.cpp:139] Memory required for data: 1464168100
I0918 10:29:11.944280 30897 layer_factory.hpp:77] Creating layer conv5_0/3x3_dwconv/SE_fc1/relu
I0918 10:29:11.944289 30897 net.cpp:86] Creating Layer conv5_0/3x3_dwconv/SE_fc1/relu
I0918 10:29:11.944295 30897 net.cpp:408] conv5_0/3x3_dwconv/SE_fc1/relu <- conv5_0/3x3_dwconv/SE_fc1
I0918 10:29:11.944303 30897 net.cpp:369] conv5_0/3x3_dwconv/SE_fc1/relu -> conv5_0/3x3_dwconv/SE_fc1 (in-place)
I0918 10:29:11.945088 30897 net.cpp:124] Setting up conv5_0/3x3_dwconv/SE_fc1/relu
I0918 10:29:11.945102 30897 net.cpp:131] Top shape: 25 15 1 1 (375)
I0918 10:29:11.945106 30897 net.cpp:139] Memory required for data: 1464169600
I0918 10:29:11.945112 30897 layer_factory.hpp:77] Creating layer conv5_0/3x3_dwconv/SE_fc2
I0918 10:29:11.945130 30897 net.cpp:86] Creating Layer conv5_0/3x3_dwconv/SE_fc2
I0918 10:29:11.945135 30897 net.cpp:408] conv5_0/3x3_dwconv/SE_fc2 <- conv5_0/3x3_dwconv/SE_fc1
I0918 10:29:11.945145 30897 net.cpp:382] conv5_0/3x3_dwconv/SE_fc2 -> conv5_0/3x3_dwconv/SE_fc2
I0918 10:29:11.945761 30897 net.cpp:124] Setting up conv5_0/3x3_dwconv/SE_fc2
I0918 10:29:11.945775 30897 net.cpp:131] Top shape: 25 240 1 1 (6000)
I0918 10:29:11.945780 30897 net.cpp:139] Memory required for data: 1464193600
I0918 10:29:11.945786 30897 layer_factory.hpp:77] Creating layer conv5_0/3x3_dwconv/SE_weights
I0918 10:29:11.945793 30897 net.cpp:86] Creating Layer conv5_0/3x3_dwconv/SE_weights
I0918 10:29:11.945798 30897 net.cpp:408] conv5_0/3x3_dwconv/SE_weights <- conv5_0/3x3_dwconv/SE_fc2
I0918 10:29:11.945811 30897 net.cpp:369] conv5_0/3x3_dwconv/SE_weights -> conv5_0/3x3_dwconv/SE_fc2 (in-place)
I0918 10:29:11.947257 30897 net.cpp:124] Setting up conv5_0/3x3_dwconv/SE_weights
I0918 10:29:11.947274 30897 net.cpp:131] Top shape: 25 240 1 1 (6000)
I0918 10:29:11.947278 30897 net.cpp:139] Memory required for data: 1464217600
I0918 10:29:11.947283 30897 layer_factory.hpp:77] Creating layer conv5_0/3x3_dwconv/SE_weights/reshape
I0918 10:29:11.947295 30897 net.cpp:86] Creating Layer conv5_0/3x3_dwconv/SE_weights/reshape
I0918 10:29:11.947300 30897 net.cpp:408] conv5_0/3x3_dwconv/SE_weights/reshape <- conv5_0/3x3_dwconv/SE_fc2
I0918 10:29:11.947309 30897 net.cpp:382] conv5_0/3x3_dwconv/SE_weights/reshape -> conv5_0/3x3_dwconv/SE_weights/reshape
I0918 10:29:11.947361 30897 net.cpp:124] Setting up conv5_0/3x3_dwconv/SE_weights/reshape
I0918 10:29:11.947382 30897 net.cpp:131] Top shape: 25 240 (6000)
I0918 10:29:11.947387 30897 net.cpp:139] Memory required for data: 1464241600
I0918 10:29:11.947391 30897 layer_factory.hpp:77] Creating layer conv5_0/3x3_dwconv/scale
I0918 10:29:11.947402 30897 net.cpp:86] Creating Layer conv5_0/3x3_dwconv/scale
I0918 10:29:11.947407 30897 net.cpp:408] conv5_0/3x3_dwconv/scale <- conv5_0/3x3_dwconv/concat_conv5_0/3x3_dwconv/concat_fixed_point_0_split_1
I0918 10:29:11.947413 30897 net.cpp:408] conv5_0/3x3_dwconv/scale <- conv5_0/3x3_dwconv/SE_weights/reshape
I0918 10:29:11.947419 30897 net.cpp:382] conv5_0/3x3_dwconv/scale -> conv5_0/3x3_dwconv/scale
I0918 10:29:11.947523 30897 net.cpp:124] Setting up conv5_0/3x3_dwconv/scale
I0918 10:29:11.947531 30897 net.cpp:131] Top shape: 25 240 14 14 (1176000)
I0918 10:29:11.947535 30897 net.cpp:139] Memory required for data: 1468945600
I0918 10:29:11.947540 30897 layer_factory.hpp:77] Creating layer conv5_0/3x3_dwconv/scale_fixed_point
I0918 10:29:11.947549 30897 net.cpp:86] Creating Layer conv5_0/3x3_dwconv/scale_fixed_point
I0918 10:29:11.947554 30897 net.cpp:408] conv5_0/3x3_dwconv/scale_fixed_point <- conv5_0/3x3_dwconv/scale
I0918 10:29:11.947559 30897 net.cpp:369] conv5_0/3x3_dwconv/scale_fixed_point -> conv5_0/3x3_dwconv/scale (in-place)
I0918 10:29:11.947594 30897 net.cpp:124] Setting up conv5_0/3x3_dwconv/scale_fixed_point
I0918 10:29:11.947602 30897 net.cpp:131] Top shape: 25 240 14 14 (1176000)
I0918 10:29:11.947607 30897 net.cpp:139] Memory required for data: 1473649600
I0918 10:29:11.947612 30897 layer_factory.hpp:77] Creating layer conv5_0/1x1_decrease
I0918 10:29:11.947626 30897 net.cpp:86] Creating Layer conv5_0/1x1_decrease
I0918 10:29:11.947631 30897 net.cpp:408] conv5_0/1x1_decrease <- conv5_0/3x3_dwconv/scale
I0918 10:29:11.947640 30897 net.cpp:382] conv5_0/1x1_decrease -> conv5_0/1x1_decrease/bn
I0918 10:29:11.950358 30897 net.cpp:124] Setting up conv5_0/1x1_decrease
I0918 10:29:11.950376 30897 net.cpp:131] Top shape: 25 80 14 14 (392000)
I0918 10:29:11.950379 30897 net.cpp:139] Memory required for data: 1475217600
I0918 10:29:11.950387 30897 layer_factory.hpp:77] Creating layer conv5_0/1x1_decrease/bn_fixed_point
I0918 10:29:11.950395 30897 net.cpp:86] Creating Layer conv5_0/1x1_decrease/bn_fixed_point
I0918 10:29:11.950400 30897 net.cpp:408] conv5_0/1x1_decrease/bn_fixed_point <- conv5_0/1x1_decrease/bn
I0918 10:29:11.950410 30897 net.cpp:369] conv5_0/1x1_decrease/bn_fixed_point -> conv5_0/1x1_decrease/bn (in-place)
I0918 10:29:11.950455 30897 net.cpp:124] Setting up conv5_0/1x1_decrease/bn_fixed_point
I0918 10:29:11.950462 30897 net.cpp:131] Top shape: 25 80 14 14 (392000)
I0918 10:29:11.950465 30897 net.cpp:139] Memory required for data: 1476785600
I0918 10:29:11.950471 30897 layer_factory.hpp:77] Creating layer conv5_0/1x1_decrease/bn_conv5_0/1x1_decrease/bn_fixed_point_0_split
I0918 10:29:11.950479 30897 net.cpp:86] Creating Layer conv5_0/1x1_decrease/bn_conv5_0/1x1_decrease/bn_fixed_point_0_split
I0918 10:29:11.950482 30897 net.cpp:408] conv5_0/1x1_decrease/bn_conv5_0/1x1_decrease/bn_fixed_point_0_split <- conv5_0/1x1_decrease/bn
I0918 10:29:11.950489 30897 net.cpp:382] conv5_0/1x1_decrease/bn_conv5_0/1x1_decrease/bn_fixed_point_0_split -> conv5_0/1x1_decrease/bn_conv5_0/1x1_decrease/bn_fixed_point_0_split_0
I0918 10:29:11.950497 30897 net.cpp:382] conv5_0/1x1_decrease/bn_conv5_0/1x1_decrease/bn_fixed_point_0_split -> conv5_0/1x1_decrease/bn_conv5_0/1x1_decrease/bn_fixed_point_0_split_1
I0918 10:29:11.950551 30897 net.cpp:124] Setting up conv5_0/1x1_decrease/bn_conv5_0/1x1_decrease/bn_fixed_point_0_split
I0918 10:29:11.950559 30897 net.cpp:131] Top shape: 25 80 14 14 (392000)
I0918 10:29:11.950564 30897 net.cpp:131] Top shape: 25 80 14 14 (392000)
I0918 10:29:11.950568 30897 net.cpp:139] Memory required for data: 1479921600
I0918 10:29:11.950572 30897 layer_factory.hpp:77] Creating layer conv5_1/1x1_increase
I0918 10:29:11.950587 30897 net.cpp:86] Creating Layer conv5_1/1x1_increase
I0918 10:29:11.950592 30897 net.cpp:408] conv5_1/1x1_increase <- conv5_0/1x1_decrease/bn_conv5_0/1x1_decrease/bn_fixed_point_0_split_0
I0918 10:29:11.950613 30897 net.cpp:382] conv5_1/1x1_increase -> conv5_1/1x1_increase/bn
I0918 10:29:11.951951 30897 net.cpp:124] Setting up conv5_1/1x1_increase
I0918 10:29:11.951966 30897 net.cpp:131] Top shape: 25 240 14 14 (1176000)
I0918 10:29:11.951969 30897 net.cpp:139] Memory required for data: 1484625600
I0918 10:29:11.951977 30897 layer_factory.hpp:77] Creating layer conv5_1/1x1_increase/hardswish
I0918 10:29:11.951987 30897 net.cpp:86] Creating Layer conv5_1/1x1_increase/hardswish
I0918 10:29:11.951993 30897 net.cpp:408] conv5_1/1x1_increase/hardswish <- conv5_1/1x1_increase/bn
I0918 10:29:11.951999 30897 net.cpp:369] conv5_1/1x1_increase/hardswish -> conv5_1/1x1_increase/bn (in-place)
I0918 10:29:11.952042 30897 net.cpp:124] Setting up conv5_1/1x1_increase/hardswish
I0918 10:29:11.952049 30897 net.cpp:131] Top shape: 25 240 14 14 (1176000)
I0918 10:29:11.952054 30897 net.cpp:139] Memory required for data: 1489329600
I0918 10:29:11.952056 30897 layer_factory.hpp:77] Creating layer conv5_1/1x1_increase/bn_fixed_point
I0918 10:29:11.952064 30897 net.cpp:86] Creating Layer conv5_1/1x1_increase/bn_fixed_point
I0918 10:29:11.952067 30897 net.cpp:408] conv5_1/1x1_increase/bn_fixed_point <- conv5_1/1x1_increase/bn
I0918 10:29:11.952075 30897 net.cpp:369] conv5_1/1x1_increase/bn_fixed_point -> conv5_1/1x1_increase/bn (in-place)
I0918 10:29:11.952108 30897 net.cpp:124] Setting up conv5_1/1x1_increase/bn_fixed_point
I0918 10:29:11.952122 30897 net.cpp:131] Top shape: 25 240 14 14 (1176000)
I0918 10:29:11.952126 30897 net.cpp:139] Memory required for data: 1494033600
I0918 10:29:11.952131 30897 layer_factory.hpp:77] Creating layer conv5_1/1x1_increase/slice
I0918 10:29:11.952138 30897 net.cpp:86] Creating Layer conv5_1/1x1_increase/slice
I0918 10:29:11.952142 30897 net.cpp:408] conv5_1/1x1_increase/slice <- conv5_1/1x1_increase/bn
I0918 10:29:11.952149 30897 net.cpp:382] conv5_1/1x1_increase/slice -> conv5_1/1x1_increase/split1
I0918 10:29:11.952157 30897 net.cpp:382] conv5_1/1x1_increase/slice -> conv5_1/1x1_increase/split2
I0918 10:29:11.952211 30897 net.cpp:124] Setting up conv5_1/1x1_increase/slice
I0918 10:29:11.952219 30897 net.cpp:131] Top shape: 25 120 14 14 (588000)
I0918 10:29:11.952224 30897 net.cpp:131] Top shape: 25 120 14 14 (588000)
I0918 10:29:11.952226 30897 net.cpp:139] Memory required for data: 1498737600
I0918 10:29:11.952230 30897 layer_factory.hpp:77] Creating layer conv5_1/3x3_dwconv/slice_0
I0918 10:29:11.952245 30897 net.cpp:86] Creating Layer conv5_1/3x3_dwconv/slice_0
I0918 10:29:11.952250 30897 net.cpp:408] conv5_1/3x3_dwconv/slice_0 <- conv5_1/1x1_increase/split1
I0918 10:29:11.952257 30897 net.cpp:382] conv5_1/3x3_dwconv/slice_0 -> conv5_1/3x3_dwconv/slice_0/bn
I0918 10:29:11.953001 30897 net.cpp:124] Setting up conv5_1/3x3_dwconv/slice_0
I0918 10:29:11.953014 30897 net.cpp:131] Top shape: 25 120 14 14 (588000)
I0918 10:29:11.953018 30897 net.cpp:139] Memory required for data: 1501089600
I0918 10:29:11.953025 30897 layer_factory.hpp:77] Creating layer conv5_1/3x3_dwconv/slice_0/hardswish
I0918 10:29:11.953033 30897 net.cpp:86] Creating Layer conv5_1/3x3_dwconv/slice_0/hardswish
I0918 10:29:11.953037 30897 net.cpp:408] conv5_1/3x3_dwconv/slice_0/hardswish <- conv5_1/3x3_dwconv/slice_0/bn
I0918 10:29:11.953047 30897 net.cpp:369] conv5_1/3x3_dwconv/slice_0/hardswish -> conv5_1/3x3_dwconv/slice_0/bn (in-place)
I0918 10:29:11.953086 30897 net.cpp:124] Setting up conv5_1/3x3_dwconv/slice_0/hardswish
I0918 10:29:11.953092 30897 net.cpp:131] Top shape: 25 120 14 14 (588000)
I0918 10:29:11.953096 30897 net.cpp:139] Memory required for data: 1503441600
I0918 10:29:11.953099 30897 layer_factory.hpp:77] Creating layer conv5_1/3x3_dwconv/slice_1
I0918 10:29:11.953115 30897 net.cpp:86] Creating Layer conv5_1/3x3_dwconv/slice_1
I0918 10:29:11.953120 30897 net.cpp:408] conv5_1/3x3_dwconv/slice_1 <- conv5_1/1x1_increase/split2
I0918 10:29:11.953128 30897 net.cpp:382] conv5_1/3x3_dwconv/slice_1 -> conv5_1/3x3_dwconv/slice_1/bn
I0918 10:29:11.954151 30897 net.cpp:124] Setting up conv5_1/3x3_dwconv/slice_1
I0918 10:29:11.954180 30897 net.cpp:131] Top shape: 25 120 14 14 (588000)
I0918 10:29:11.954185 30897 net.cpp:139] Memory required for data: 1505793600
I0918 10:29:11.954195 30897 layer_factory.hpp:77] Creating layer conv5_1/3x3_dwconv/slice_1/hardswish
I0918 10:29:11.954202 30897 net.cpp:86] Creating Layer conv5_1/3x3_dwconv/slice_1/hardswish
I0918 10:29:11.954207 30897 net.cpp:408] conv5_1/3x3_dwconv/slice_1/hardswish <- conv5_1/3x3_dwconv/slice_1/bn
I0918 10:29:11.954216 30897 net.cpp:369] conv5_1/3x3_dwconv/slice_1/hardswish -> conv5_1/3x3_dwconv/slice_1/bn (in-place)
I0918 10:29:11.954260 30897 net.cpp:124] Setting up conv5_1/3x3_dwconv/slice_1/hardswish
I0918 10:29:11.954267 30897 net.cpp:131] Top shape: 25 120 14 14 (588000)
I0918 10:29:11.954272 30897 net.cpp:139] Memory required for data: 1508145600
I0918 10:29:11.954274 30897 layer_factory.hpp:77] Creating layer conv5_1/3x3_dwconv/concat
I0918 10:29:11.954283 30897 net.cpp:86] Creating Layer conv5_1/3x3_dwconv/concat
I0918 10:29:11.954288 30897 net.cpp:408] conv5_1/3x3_dwconv/concat <- conv5_1/3x3_dwconv/slice_0/bn
I0918 10:29:11.954293 30897 net.cpp:408] conv5_1/3x3_dwconv/concat <- conv5_1/3x3_dwconv/slice_1/bn
I0918 10:29:11.954298 30897 net.cpp:382] conv5_1/3x3_dwconv/concat -> conv5_1/3x3_dwconv/concat
I0918 10:29:11.954334 30897 net.cpp:124] Setting up conv5_1/3x3_dwconv/concat
I0918 10:29:11.954339 30897 net.cpp:131] Top shape: 25 240 14 14 (1176000)
I0918 10:29:11.954344 30897 net.cpp:139] Memory required for data: 1512849600
I0918 10:29:11.954346 30897 layer_factory.hpp:77] Creating layer conv5_1/3x3_dwconv/concat_fixed_point
I0918 10:29:11.954355 30897 net.cpp:86] Creating Layer conv5_1/3x3_dwconv/concat_fixed_point
I0918 10:29:11.954358 30897 net.cpp:408] conv5_1/3x3_dwconv/concat_fixed_point <- conv5_1/3x3_dwconv/concat
I0918 10:29:11.954366 30897 net.cpp:369] conv5_1/3x3_dwconv/concat_fixed_point -> conv5_1/3x3_dwconv/concat (in-place)
I0918 10:29:11.954396 30897 net.cpp:124] Setting up conv5_1/3x3_dwconv/concat_fixed_point
I0918 10:29:11.954402 30897 net.cpp:131] Top shape: 25 240 14 14 (1176000)
I0918 10:29:11.954406 30897 net.cpp:139] Memory required for data: 1517553600
I0918 10:29:11.954411 30897 layer_factory.hpp:77] Creating layer conv5_1/3x3_dwconv/concat_conv5_1/3x3_dwconv/concat_fixed_point_0_split
I0918 10:29:11.954427 30897 net.cpp:86] Creating Layer conv5_1/3x3_dwconv/concat_conv5_1/3x3_dwconv/concat_fixed_point_0_split
I0918 10:29:11.954430 30897 net.cpp:408] conv5_1/3x3_dwconv/concat_conv5_1/3x3_dwconv/concat_fixed_point_0_split <- conv5_1/3x3_dwconv/concat
I0918 10:29:11.954437 30897 net.cpp:382] conv5_1/3x3_dwconv/concat_conv5_1/3x3_dwconv/concat_fixed_point_0_split -> conv5_1/3x3_dwconv/concat_conv5_1/3x3_dwconv/concat_fixed_point_0_split_0
I0918 10:29:11.954455 30897 net.cpp:382] conv5_1/3x3_dwconv/concat_conv5_1/3x3_dwconv/concat_fixed_point_0_split -> conv5_1/3x3_dwconv/concat_conv5_1/3x3_dwconv/concat_fixed_point_0_split_1
I0918 10:29:11.954504 30897 net.cpp:124] Setting up conv5_1/3x3_dwconv/concat_conv5_1/3x3_dwconv/concat_fixed_point_0_split
I0918 10:29:11.954512 30897 net.cpp:131] Top shape: 25 240 14 14 (1176000)
I0918 10:29:11.954517 30897 net.cpp:131] Top shape: 25 240 14 14 (1176000)
I0918 10:29:11.954520 30897 net.cpp:139] Memory required for data: 1526961600
I0918 10:29:11.954524 30897 layer_factory.hpp:77] Creating layer conv5_1/3x3_dwconv/SE_global_pool
I0918 10:29:11.954533 30897 net.cpp:86] Creating Layer conv5_1/3x3_dwconv/SE_global_pool
I0918 10:29:11.954538 30897 net.cpp:408] conv5_1/3x3_dwconv/SE_global_pool <- conv5_1/3x3_dwconv/concat_conv5_1/3x3_dwconv/concat_fixed_point_0_split_0
I0918 10:29:11.954545 30897 net.cpp:382] conv5_1/3x3_dwconv/SE_global_pool -> conv5_1/3x3_dwconv/SE_global_pool
I0918 10:29:11.954576 30897 net.cpp:124] Setting up conv5_1/3x3_dwconv/SE_global_pool
I0918 10:29:11.954583 30897 net.cpp:131] Top shape: 25 240 1 1 (6000)
I0918 10:29:11.954587 30897 net.cpp:139] Memory required for data: 1526985600
I0918 10:29:11.954591 30897 layer_factory.hpp:77] Creating layer conv5_1/3x3_dwconv/SE_bn
I0918 10:29:11.954608 30897 net.cpp:86] Creating Layer conv5_1/3x3_dwconv/SE_bn
I0918 10:29:11.954612 30897 net.cpp:408] conv5_1/3x3_dwconv/SE_bn <- conv5_1/3x3_dwconv/SE_global_pool
I0918 10:29:11.954618 30897 net.cpp:382] conv5_1/3x3_dwconv/SE_bn -> conv5_1/3x3_dwconv/SE_bn
I0918 10:29:11.954679 30897 layer_factory.hpp:77] Creating layer conv5_1/3x3_dwconv/SE_bn
I0918 10:29:11.954849 30897 net.cpp:124] Setting up conv5_1/3x3_dwconv/SE_bn
I0918 10:29:11.954857 30897 net.cpp:131] Top shape: 25 240 1 1 (6000)
I0918 10:29:11.954860 30897 net.cpp:139] Memory required for data: 1527009600
I0918 10:29:11.954867 30897 layer_factory.hpp:77] Creating layer conv5_1/3x3_dwconv/SE_fc1
I0918 10:29:11.954879 30897 net.cpp:86] Creating Layer conv5_1/3x3_dwconv/SE_fc1
I0918 10:29:11.954883 30897 net.cpp:408] conv5_1/3x3_dwconv/SE_fc1 <- conv5_1/3x3_dwconv/SE_bn
I0918 10:29:11.954900 30897 net.cpp:382] conv5_1/3x3_dwconv/SE_fc1 -> conv5_1/3x3_dwconv/SE_fc1
I0918 10:29:11.955493 30897 net.cpp:124] Setting up conv5_1/3x3_dwconv/SE_fc1
I0918 10:29:11.955507 30897 net.cpp:131] Top shape: 25 15 1 1 (375)
I0918 10:29:11.955512 30897 net.cpp:139] Memory required for data: 1527011100
I0918 10:29:11.955524 30897 layer_factory.hpp:77] Creating layer conv5_1/3x3_dwconv/SE_fc1/relu
I0918 10:29:11.955530 30897 net.cpp:86] Creating Layer conv5_1/3x3_dwconv/SE_fc1/relu
I0918 10:29:11.955535 30897 net.cpp:408] conv5_1/3x3_dwconv/SE_fc1/relu <- conv5_1/3x3_dwconv/SE_fc1
I0918 10:29:11.955544 30897 net.cpp:369] conv5_1/3x3_dwconv/SE_fc1/relu -> conv5_1/3x3_dwconv/SE_fc1 (in-place)
I0918 10:29:11.956415 30897 net.cpp:124] Setting up conv5_1/3x3_dwconv/SE_fc1/relu
I0918 10:29:11.956429 30897 net.cpp:131] Top shape: 25 15 1 1 (375)
I0918 10:29:11.956444 30897 net.cpp:139] Memory required for data: 1527012600
I0918 10:29:11.956449 30897 layer_factory.hpp:77] Creating layer conv5_1/3x3_dwconv/SE_fc2
I0918 10:29:11.956460 30897 net.cpp:86] Creating Layer conv5_1/3x3_dwconv/SE_fc2
I0918 10:29:11.956465 30897 net.cpp:408] conv5_1/3x3_dwconv/SE_fc2 <- conv5_1/3x3_dwconv/SE_fc1
I0918 10:29:11.956475 30897 net.cpp:382] conv5_1/3x3_dwconv/SE_fc2 -> conv5_1/3x3_dwconv/SE_fc2
I0918 10:29:11.957073 30897 net.cpp:124] Setting up conv5_1/3x3_dwconv/SE_fc2
I0918 10:29:11.957087 30897 net.cpp:131] Top shape: 25 240 1 1 (6000)
I0918 10:29:11.957092 30897 net.cpp:139] Memory required for data: 1527036600
I0918 10:29:11.957101 30897 layer_factory.hpp:77] Creating layer conv5_1/3x3_dwconv/SE_weights
I0918 10:29:11.957110 30897 net.cpp:86] Creating Layer conv5_1/3x3_dwconv/SE_weights
I0918 10:29:11.957115 30897 net.cpp:408] conv5_1/3x3_dwconv/SE_weights <- conv5_1/3x3_dwconv/SE_fc2
I0918 10:29:11.957123 30897 net.cpp:369] conv5_1/3x3_dwconv/SE_weights -> conv5_1/3x3_dwconv/SE_fc2 (in-place)
I0918 10:29:11.957906 30897 net.cpp:124] Setting up conv5_1/3x3_dwconv/SE_weights
I0918 10:29:11.957919 30897 net.cpp:131] Top shape: 25 240 1 1 (6000)
I0918 10:29:11.957924 30897 net.cpp:139] Memory required for data: 1527060600
I0918 10:29:11.957928 30897 layer_factory.hpp:77] Creating layer conv5_1/3x3_dwconv/SE_weights/reshape
I0918 10:29:11.957940 30897 net.cpp:86] Creating Layer conv5_1/3x3_dwconv/SE_weights/reshape
I0918 10:29:11.957945 30897 net.cpp:408] conv5_1/3x3_dwconv/SE_weights/reshape <- conv5_1/3x3_dwconv/SE_fc2
I0918 10:29:11.957955 30897 net.cpp:382] conv5_1/3x3_dwconv/SE_weights/reshape -> conv5_1/3x3_dwconv/SE_weights/reshape
I0918 10:29:11.957998 30897 net.cpp:124] Setting up conv5_1/3x3_dwconv/SE_weights/reshape
I0918 10:29:11.958003 30897 net.cpp:131] Top shape: 25 240 (6000)
I0918 10:29:11.958007 30897 net.cpp:139] Memory required for data: 1527084600
I0918 10:29:11.958010 30897 layer_factory.hpp:77] Creating layer conv5_1/3x3_dwconv/scale
I0918 10:29:11.958020 30897 net.cpp:86] Creating Layer conv5_1/3x3_dwconv/scale
I0918 10:29:11.958035 30897 net.cpp:408] conv5_1/3x3_dwconv/scale <- conv5_1/3x3_dwconv/concat_conv5_1/3x3_dwconv/concat_fixed_point_0_split_1
I0918 10:29:11.958040 30897 net.cpp:408] conv5_1/3x3_dwconv/scale <- conv5_1/3x3_dwconv/SE_weights/reshape
I0918 10:29:11.958062 30897 net.cpp:382] conv5_1/3x3_dwconv/scale -> conv5_1/3x3_dwconv/scale
I0918 10:29:11.958159 30897 net.cpp:124] Setting up conv5_1/3x3_dwconv/scale
I0918 10:29:11.958168 30897 net.cpp:131] Top shape: 25 240 14 14 (1176000)
I0918 10:29:11.958171 30897 net.cpp:139] Memory required for data: 1531788600
I0918 10:29:11.958174 30897 layer_factory.hpp:77] Creating layer conv5_1/3x3_dwconv/scale_fixed_point
I0918 10:29:11.958184 30897 net.cpp:86] Creating Layer conv5_1/3x3_dwconv/scale_fixed_point
I0918 10:29:11.958189 30897 net.cpp:408] conv5_1/3x3_dwconv/scale_fixed_point <- conv5_1/3x3_dwconv/scale
I0918 10:29:11.958194 30897 net.cpp:369] conv5_1/3x3_dwconv/scale_fixed_point -> conv5_1/3x3_dwconv/scale (in-place)
I0918 10:29:11.958227 30897 net.cpp:124] Setting up conv5_1/3x3_dwconv/scale_fixed_point
I0918 10:29:11.958235 30897 net.cpp:131] Top shape: 25 240 14 14 (1176000)
I0918 10:29:11.958237 30897 net.cpp:139] Memory required for data: 1536492600
I0918 10:29:11.958243 30897 layer_factory.hpp:77] Creating layer conv5_1/1x1_decrease
I0918 10:29:11.958254 30897 net.cpp:86] Creating Layer conv5_1/1x1_decrease
I0918 10:29:11.958258 30897 net.cpp:408] conv5_1/1x1_decrease <- conv5_1/3x3_dwconv/scale
I0918 10:29:11.958266 30897 net.cpp:382] conv5_1/1x1_decrease -> conv5_1/1x1_decrease/bn
I0918 10:29:11.959533 30897 net.cpp:124] Setting up conv5_1/1x1_decrease
I0918 10:29:11.959547 30897 net.cpp:131] Top shape: 25 80 14 14 (392000)
I0918 10:29:11.959549 30897 net.cpp:139] Memory required for data: 1538060600
I0918 10:29:11.959564 30897 layer_factory.hpp:77] Creating layer conv5_1/elt_sum
I0918 10:29:11.959573 30897 net.cpp:86] Creating Layer conv5_1/elt_sum
I0918 10:29:11.959578 30897 net.cpp:408] conv5_1/elt_sum <- conv5_0/1x1_decrease/bn_conv5_0/1x1_decrease/bn_fixed_point_0_split_1
I0918 10:29:11.959584 30897 net.cpp:408] conv5_1/elt_sum <- conv5_1/1x1_decrease/bn
I0918 10:29:11.959590 30897 net.cpp:382] conv5_1/elt_sum -> conv5_1/elt_sum
I0918 10:29:11.959632 30897 net.cpp:124] Setting up conv5_1/elt_sum
I0918 10:29:11.959638 30897 net.cpp:131] Top shape: 25 80 14 14 (392000)
I0918 10:29:11.959642 30897 net.cpp:139] Memory required for data: 1539628600
I0918 10:29:11.959645 30897 layer_factory.hpp:77] Creating layer conv5_1/elt_sum_fixed_point
I0918 10:29:11.959653 30897 net.cpp:86] Creating Layer conv5_1/elt_sum_fixed_point
I0918 10:29:11.959657 30897 net.cpp:408] conv5_1/elt_sum_fixed_point <- conv5_1/elt_sum
I0918 10:29:11.959667 30897 net.cpp:369] conv5_1/elt_sum_fixed_point -> conv5_1/elt_sum (in-place)
I0918 10:29:11.959700 30897 net.cpp:124] Setting up conv5_1/elt_sum_fixed_point
I0918 10:29:11.959707 30897 net.cpp:131] Top shape: 25 80 14 14 (392000)
I0918 10:29:11.959709 30897 net.cpp:139] Memory required for data: 1541196600
I0918 10:29:11.959714 30897 layer_factory.hpp:77] Creating layer conv5_1/elt_sum_conv5_1/elt_sum_fixed_point_0_split
I0918 10:29:11.959720 30897 net.cpp:86] Creating Layer conv5_1/elt_sum_conv5_1/elt_sum_fixed_point_0_split
I0918 10:29:11.959723 30897 net.cpp:408] conv5_1/elt_sum_conv5_1/elt_sum_fixed_point_0_split <- conv5_1/elt_sum
I0918 10:29:11.959731 30897 net.cpp:382] conv5_1/elt_sum_conv5_1/elt_sum_fixed_point_0_split -> conv5_1/elt_sum_conv5_1/elt_sum_fixed_point_0_split_0
I0918 10:29:11.959738 30897 net.cpp:382] conv5_1/elt_sum_conv5_1/elt_sum_fixed_point_0_split -> conv5_1/elt_sum_conv5_1/elt_sum_fixed_point_0_split_1
I0918 10:29:11.959787 30897 net.cpp:124] Setting up conv5_1/elt_sum_conv5_1/elt_sum_fixed_point_0_split
I0918 10:29:11.959794 30897 net.cpp:131] Top shape: 25 80 14 14 (392000)
I0918 10:29:11.959798 30897 net.cpp:131] Top shape: 25 80 14 14 (392000)
I0918 10:29:11.959802 30897 net.cpp:139] Memory required for data: 1544332600
I0918 10:29:11.959810 30897 layer_factory.hpp:77] Creating layer conv5_2/1x1_increase
I0918 10:29:11.959830 30897 net.cpp:86] Creating Layer conv5_2/1x1_increase
I0918 10:29:11.959833 30897 net.cpp:408] conv5_2/1x1_increase <- conv5_1/elt_sum_conv5_1/elt_sum_fixed_point_0_split_0
I0918 10:29:11.959863 30897 net.cpp:382] conv5_2/1x1_increase -> conv5_2/1x1_increase/bn
I0918 10:29:11.961364 30897 net.cpp:124] Setting up conv5_2/1x1_increase
I0918 10:29:11.961380 30897 net.cpp:131] Top shape: 25 240 14 14 (1176000)
I0918 10:29:11.961383 30897 net.cpp:139] Memory required for data: 1549036600
I0918 10:29:11.961408 30897 layer_factory.hpp:77] Creating layer conv5_2/1x1_increase/hardswish
I0918 10:29:11.961416 30897 net.cpp:86] Creating Layer conv5_2/1x1_increase/hardswish
I0918 10:29:11.961421 30897 net.cpp:408] conv5_2/1x1_increase/hardswish <- conv5_2/1x1_increase/bn
I0918 10:29:11.961431 30897 net.cpp:369] conv5_2/1x1_increase/hardswish -> conv5_2/1x1_increase/bn (in-place)
I0918 10:29:11.961473 30897 net.cpp:124] Setting up conv5_2/1x1_increase/hardswish
I0918 10:29:11.961483 30897 net.cpp:131] Top shape: 25 240 14 14 (1176000)
I0918 10:29:11.961485 30897 net.cpp:139] Memory required for data: 1553740600
I0918 10:29:11.961489 30897 layer_factory.hpp:77] Creating layer conv5_2/1x1_increase/bn_fixed_point
I0918 10:29:11.961498 30897 net.cpp:86] Creating Layer conv5_2/1x1_increase/bn_fixed_point
I0918 10:29:11.961501 30897 net.cpp:408] conv5_2/1x1_increase/bn_fixed_point <- conv5_2/1x1_increase/bn
I0918 10:29:11.961509 30897 net.cpp:369] conv5_2/1x1_increase/bn_fixed_point -> conv5_2/1x1_increase/bn (in-place)
I0918 10:29:11.961541 30897 net.cpp:124] Setting up conv5_2/1x1_increase/bn_fixed_point
I0918 10:29:11.961549 30897 net.cpp:131] Top shape: 25 240 14 14 (1176000)
I0918 10:29:11.961552 30897 net.cpp:139] Memory required for data: 1558444600
I0918 10:29:11.961557 30897 layer_factory.hpp:77] Creating layer conv5_2/1x1_increase/slice
I0918 10:29:11.961567 30897 net.cpp:86] Creating Layer conv5_2/1x1_increase/slice
I0918 10:29:11.961571 30897 net.cpp:408] conv5_2/1x1_increase/slice <- conv5_2/1x1_increase/bn
I0918 10:29:11.961576 30897 net.cpp:382] conv5_2/1x1_increase/slice -> conv5_2/1x1_increase/split1
I0918 10:29:11.961586 30897 net.cpp:382] conv5_2/1x1_increase/slice -> conv5_2/1x1_increase/split2
I0918 10:29:11.961637 30897 net.cpp:124] Setting up conv5_2/1x1_increase/slice
I0918 10:29:11.961644 30897 net.cpp:131] Top shape: 25 120 14 14 (588000)
I0918 10:29:11.961648 30897 net.cpp:131] Top shape: 25 120 14 14 (588000)
I0918 10:29:11.961652 30897 net.cpp:139] Memory required for data: 1563148600
I0918 10:29:11.961655 30897 layer_factory.hpp:77] Creating layer conv5_2/3x3_dwconv/slice_0
…
I0918 10:29:12.065443 30897 layer_factory.hpp:77] Creating layer conv7_1/3x3_dwconv/slice_2
I0918 10:29:12.065455 30897 net.cpp:86] Creating Layer conv7_1/3x3_dwconv/slice_2
I0918 10:29:12.065459 30897 net.cpp:408] conv7_1/3x3_dwconv/slice_2 <- conv7_1/1x1_increase/split3
I0918 10:29:12.065467 30897 net.cpp:382] conv7_1/3x3_dwconv/slice_2 -> conv7_1/3x3_dwconv/slice_2/bn
I0918 10:29:12.066651 30897 net.cpp:124] Setting up conv7_1/3x3_dwconv/slice_2
I0918 10:29:12.066665 30897 net.cpp:131] Top shape: 25 192 7 7 (235200)
I0918 10:29:12.066668 30897 net.cpp:139] Memory required for data: 2261179400
I0918 10:29:12.066682 30897 layer_factory.hpp:77] Creating layer conv7_1/3x3_dwconv/slice_2/hardswish
I0918 10:29:12.066691 30897 net.cpp:86] Creating Layer conv7_1/3x3_dwconv/slice_2/hardswish
I0918 10:29:12.066695 30897 net.cpp:408] conv7_1/3x3_dwconv/slice_2/hardswish <- conv7_1/3x3_dwconv/slice_2/bn
I0918 10:29:12.066701 30897 net.cpp:369] conv7_1/3x3_dwconv/slice_2/hardswish -> conv7_1/3x3_dwconv/slice_2/bn (in-place)
I0918 10:29:12.066740 30897 net.cpp:124] Setting up conv7_1/3x3_dwconv/slice_2/hardswish
I0918 10:29:12.066745 30897 net.cpp:131] Top shape: 25 192 7 7 (235200)
I0918 10:29:12.066749 30897 net.cpp:139] Memory required for data: 2262120200
I0918 10:29:12.066752 30897 layer_factory.hpp:77] Creating layer conv7_1/3x3_dwconv/concat
I0918 10:29:12.066761 30897 net.cpp:86] Creating Layer conv7_1/3x3_dwconv/concat
I0918 10:29:12.066764 30897 net.cpp:408] conv7_1/3x3_dwconv/concat <- conv7_1/3x3_dwconv/slice_0/bn
I0918 10:29:12.066769 30897 net.cpp:408] conv7_1/3x3_dwconv/concat <- conv7_1/3x3_dwconv/slice_1/bn
I0918 10:29:12.066774 30897 net.cpp:408] conv7_1/3x3_dwconv/concat <- conv7_1/3x3_dwconv/slice_2/bn
I0918 10:29:12.066781 30897 net.cpp:382] conv7_1/3x3_dwconv/concat -> conv7_1/3x3_dwconv/concat
I0918 10:29:12.066818 30897 net.cpp:124] Setting up conv7_1/3x3_dwconv/concat
I0918 10:29:12.066825 30897 net.cpp:131] Top shape: 25 576 7 7 (705600)
I0918 10:29:12.066828 30897 net.cpp:139] Memory required for data: 2264942600
I0918 10:29:12.066831 30897 layer_factory.hpp:77] Creating layer conv7_1/3x3_dwconv/concat_fixed_point
I0918 10:29:12.066839 30897 net.cpp:86] Creating Layer conv7_1/3x3_dwconv/concat_fixed_point
I0918 10:29:12.066843 30897 net.cpp:408] conv7_1/3x3_dwconv/concat_fixed_point <- conv7_1/3x3_dwconv/concat
I0918 10:29:12.066848 30897 net.cpp:369] conv7_1/3x3_dwconv/concat_fixed_point -> conv7_1/3x3_dwconv/concat (in-place)
I0918 10:29:12.066882 30897 net.cpp:124] Setting up conv7_1/3x3_dwconv/concat_fixed_point
I0918 10:29:12.066900 30897 net.cpp:131] Top shape: 25 576 7 7 (705600)
I0918 10:29:12.066903 30897 net.cpp:139] Memory required for data: 2267765000
I0918 10:29:12.066918 30897 layer_factory.hpp:77] Creating layer conv7_1/3x3_dwconv/concat_conv7_1/3x3_dwconv/concat_fixed_point_0_split
I0918 10:29:12.066926 30897 net.cpp:86] Creating Layer conv7_1/3x3_dwconv/concat_conv7_1/3x3_dwconv/concat_fixed_point_0_split
I0918 10:29:12.066929 30897 net.cpp:408] conv7_1/3x3_dwconv/concat_conv7_1/3x3_dwconv/concat_fixed_point_0_split <- conv7_1/3x3_dwconv/concat
I0918 10:29:12.066936 30897 net.cpp:382] conv7_1/3x3_dwconv/concat_conv7_1/3x3_dwconv/concat_fixed_point_0_split -> conv7_1/3x3_dwconv/concat_conv7_1/3x3_dwconv/concat_fixed_point_0_split_0
I0918 10:29:12.066943 30897 net.cpp:382] conv7_1/3x3_dwconv/concat_conv7_1/3x3_dwconv/concat_fixed_point_0_split -> conv7_1/3x3_dwconv/concat_conv7_1/3x3_dwconv/concat_fixed_point_0_split_1
I0918 10:29:12.067005 30897 net.cpp:124] Setting up conv7_1/3x3_dwconv/concat_conv7_1/3x3_dwconv/concat_fixed_point_0_split
I0918 10:29:12.067011 30897 net.cpp:131] Top shape: 25 576 7 7 (705600)
I0918 10:29:12.067015 30897 net.cpp:131] Top shape: 25 576 7 7 (705600)
I0918 10:29:12.067018 30897 net.cpp:139] Memory required for data: 2273409800
I0918 10:29:12.067021 30897 layer_factory.hpp:77] Creating layer conv7_1/3x3_dwconv/SE_global_pool
I0918 10:29:12.067030 30897 net.cpp:86] Creating Layer conv7_1/3x3_dwconv/SE_global_pool
I0918 10:29:12.067034 30897 net.cpp:408] conv7_1/3x3_dwconv/SE_global_pool <- conv7_1/3x3_dwconv/concat_conv7_1/3x3_dwconv/concat_fixed_point_0_split_0
I0918 10:29:12.067041 30897 net.cpp:382] conv7_1/3x3_dwconv/SE_global_pool -> conv7_1/3x3_dwconv/SE_global_pool
I0918 10:29:12.067070 30897 net.cpp:124] Setting up conv7_1/3x3_dwconv/SE_global_pool
I0918 10:29:12.067076 30897 net.cpp:131] Top shape: 25 576 1 1 (14400)
I0918 10:29:12.067080 30897 net.cpp:139] Memory required for data: 2273467400
I0918 10:29:12.067082 30897 layer_factory.hpp:77] Creating layer conv7_1/3x3_dwconv/SE_bn
I0918 10:29:12.067092 30897 net.cpp:86] Creating Layer conv7_1/3x3_dwconv/SE_bn
I0918 10:29:12.067096 30897 net.cpp:408] conv7_1/3x3_dwconv/SE_bn <- conv7_1/3x3_dwconv/SE_global_pool
I0918 10:29:12.067103 30897 net.cpp:382] conv7_1/3x3_dwconv/SE_bn -> conv7_1/3x3_dwconv/SE_bn
I0918 10:29:12.067162 30897 layer_factory.hpp:77] Creating layer conv7_1/3x3_dwconv/SE_bn
I0918 10:29:12.067319 30897 net.cpp:124] Setting up conv7_1/3x3_dwconv/SE_bn
I0918 10:29:12.067328 30897 net.cpp:131] Top shape: 25 576 1 1 (14400)
I0918 10:29:12.067332 30897 net.cpp:139] Memory required for data: 2273525000
I0918 10:29:12.067337 30897 layer_factory.hpp:77] Creating layer conv7_1/3x3_dwconv/SE_fc1
I0918 10:29:12.067346 30897 net.cpp:86] Creating Layer conv7_1/3x3_dwconv/SE_fc1
I0918 10:29:12.067350 30897 net.cpp:408] conv7_1/3x3_dwconv/SE_fc1 <- conv7_1/3x3_dwconv/SE_bn
I0918 10:29:12.067359 30897 net.cpp:382] conv7_1/3x3_dwconv/SE_fc1 -> conv7_1/3x3_dwconv/SE_fc1
I0918 10:29:12.068435 30897 net.cpp:124] Setting up conv7_1/3x3_dwconv/SE_fc1
I0918 10:29:12.068449 30897 net.cpp:131] Top shape: 25 36 1 1 (900)
I0918 10:29:12.068452 30897 net.cpp:139] Memory required for data: 2273528600
I0918 10:29:12.068459 30897 layer_factory.hpp:77] Creating layer conv7_1/3x3_dwconv/SE_fc1/relu
I0918 10:29:12.068465 30897 net.cpp:86] Creating Layer conv7_1/3x3_dwconv/SE_fc1/relu
I0918 10:29:12.068470 30897 net.cpp:408] conv7_1/3x3_dwconv/SE_fc1/relu <- conv7_1/3x3_dwconv/SE_fc1
I0918 10:29:12.068475 30897 net.cpp:369] conv7_1/3x3_dwconv/SE_fc1/relu -> conv7_1/3x3_dwconv/SE_fc1 (in-place)
I0918 10:29:12.069180 30897 net.cpp:124] Setting up conv7_1/3x3_dwconv/SE_fc1/relu
I0918 10:29:12.069192 30897 net.cpp:131] Top shape: 25 36 1 1 (900)
I0918 10:29:12.069196 30897 net.cpp:139] Memory required for data: 2273532200
I0918 10:29:12.069200 30897 layer_factory.hpp:77] Creating layer conv7_1/3x3_dwconv/SE_fc2
I0918 10:29:12.069211 30897 net.cpp:86] Creating Layer conv7_1/3x3_dwconv/SE_fc2
I0918 10:29:12.069226 30897 net.cpp:408] conv7_1/3x3_dwconv/SE_fc2 <- conv7_1/3x3_dwconv/SE_fc1
I0918 10:29:12.069236 30897 net.cpp:382] conv7_1/3x3_dwconv/SE_fc2 -> conv7_1/3x3_dwconv/SE_fc2
I0918 10:29:12.070328 30897 net.cpp:124] Setting up conv7_1/3x3_dwconv/SE_fc2
I0918 10:29:12.070340 30897 net.cpp:131] Top shape: 25 576 1 1 (14400)
I0918 10:29:12.070344 30897 net.cpp:139] Memory required for data: 2273589800
I0918 10:29:12.070349 30897 layer_factory.hpp:77] Creating layer conv7_1/3x3_dwconv/SE_weights
I0918 10:29:12.070361 30897 net.cpp:86] Creating Layer conv7_1/3x3_dwconv/SE_weights
I0918 10:29:12.070365 30897 net.cpp:408] conv7_1/3x3_dwconv/SE_weights <- conv7_1/3x3_dwconv/SE_fc2
I0918 10:29:12.070371 30897 net.cpp:369] conv7_1/3x3_dwconv/SE_weights -> conv7_1/3x3_dwconv/SE_fc2 (in-place)
I0918 10:29:12.071033 30897 net.cpp:124] Setting up conv7_1/3x3_dwconv/SE_weights
I0918 10:29:12.071048 30897 net.cpp:131] Top shape: 25 576 1 1 (14400)
I0918 10:29:12.071061 30897 net.cpp:139] Memory required for data: 2273647400
I0918 10:29:12.071065 30897 layer_factory.hpp:77] Creating layer conv7_1/3x3_dwconv/SE_weights/reshape
I0918 10:29:12.071074 30897 net.cpp:86] Creating Layer conv7_1/3x3_dwconv/SE_weights/reshape
I0918 10:29:12.071079 30897 net.cpp:408] conv7_1/3x3_dwconv/SE_weights/reshape <- conv7_1/3x3_dwconv/SE_fc2
I0918 10:29:12.071085 30897 net.cpp:382] conv7_1/3x3_dwconv/SE_weights/reshape -> conv7_1/3x3_dwconv/SE_weights/reshape
I0918 10:29:12.071141 30897 net.cpp:124] Setting up conv7_1/3x3_dwconv/SE_weights/reshape
I0918 10:29:12.071146 30897 net.cpp:131] Top shape: 25 576 (14400)
I0918 10:29:12.071149 30897 net.cpp:139] Memory required for data: 2273705000
I0918 10:29:12.071152 30897 layer_factory.hpp:77] Creating layer conv7_1/3x3_dwconv/scale
I0918 10:29:12.071161 30897 net.cpp:86] Creating Layer conv7_1/3x3_dwconv/scale
I0918 10:29:12.071166 30897 net.cpp:408] conv7_1/3x3_dwconv/scale <- conv7_1/3x3_dwconv/concat_conv7_1/3x3_dwconv/concat_fixed_point_0_split_1
I0918 10:29:12.071171 30897 net.cpp:408] conv7_1/3x3_dwconv/scale <- conv7_1/3x3_dwconv/SE_weights/reshape
I0918 10:29:12.071177 30897 net.cpp:382] conv7_1/3x3_dwconv/scale -> conv7_1/3x3_dwconv/scale
I0918 10:29:12.071267 30897 net.cpp:124] Setting up conv7_1/3x3_dwconv/scale
I0918 10:29:12.071276 30897 net.cpp:131] Top shape: 25 576 7 7 (705600)
I0918 10:29:12.071280 30897 net.cpp:139] Memory required for data: 2276527400
I0918 10:29:12.071282 30897 layer_factory.hpp:77] Creating layer conv7_1/3x3_dwconv/scale_fixed_point
I0918 10:29:12.071290 30897 net.cpp:86] Creating Layer conv7_1/3x3_dwconv/scale_fixed_point
I0918 10:29:12.071295 30897 net.cpp:408] conv7_1/3x3_dwconv/scale_fixed_point <- conv7_1/3x3_dwconv/scale
I0918 10:29:12.071300 30897 net.cpp:369] conv7_1/3x3_dwconv/scale_fixed_point -> conv7_1/3x3_dwconv/scale (in-place)
I0918 10:29:12.071346 30897 net.cpp:124] Setting up conv7_1/3x3_dwconv/scale_fixed_point
I0918 10:29:12.071352 30897 net.cpp:131] Top shape: 25 576 7 7 (705600)
I0918 10:29:12.071355 30897 net.cpp:139] Memory required for data: 2279349800
I0918 10:29:12.071360 30897 layer_factory.hpp:77] Creating layer conv7_1/1x1_decrease
I0918 10:29:12.071372 30897 net.cpp:86] Creating Layer conv7_1/1x1_decrease
I0918 10:29:12.071377 30897 net.cpp:408] conv7_1/1x1_decrease <- conv7_1/3x3_dwconv/scale
I0918 10:29:12.071384 30897 net.cpp:382] conv7_1/1x1_decrease -> conv7_1/1x1_decrease/bn
I0918 10:29:12.075668 30897 net.cpp:124] Setting up conv7_1/1x1_decrease
I0918 10:29:12.075683 30897 net.cpp:131] Top shape: 25 192 7 7 (235200)
I0918 10:29:12.075687 30897 net.cpp:139] Memory required for data: 2280290600
I0918 10:29:12.075695 30897 layer_factory.hpp:77] Creating layer conv7_1/elt_sum
I0918 10:29:12.075703 30897 net.cpp:86] Creating Layer conv7_1/elt_sum
I0918 10:29:12.075709 30897 net.cpp:408] conv7_1/elt_sum <- conv7_0/1x1_decrease/bn_conv7_0/1x1_decrease/bn_fixed_point_0_split_1
I0918 10:29:12.075714 30897 net.cpp:408] conv7_1/elt_sum <- conv7_1/1x1_decrease/bn
I0918 10:29:12.075722 30897 net.cpp:382] conv7_1/elt_sum -> conv7_1/elt_sum
I0918 10:29:12.075784 30897 net.cpp:124] Setting up conv7_1/elt_sum
I0918 10:29:12.075791 30897 net.cpp:131] Top shape: 25 192 7 7 (235200)
I0918 10:29:12.075794 30897 net.cpp:139] Memory required for data: 2281231400
I0918 10:29:12.075798 30897 layer_factory.hpp:77] Creating layer conv7_1/elt_sum_fixed_point
I0918 10:29:12.075809 30897 net.cpp:86] Creating Layer conv7_1/elt_sum_fixed_point
I0918 10:29:12.075814 30897 net.cpp:408] conv7_1/elt_sum_fixed_point <- conv7_1/elt_sum
I0918 10:29:12.075821 30897 net.cpp:369] conv7_1/elt_sum_fixed_point -> conv7_1/elt_sum (in-place)
I0918 10:29:12.075855 30897 net.cpp:124] Setting up conv7_1/elt_sum_fixed_point
I0918 10:29:12.075863 30897 net.cpp:131] Top shape: 25 192 7 7 (235200)
I0918 10:29:12.075867 30897 net.cpp:139] Memory required for data: 2282172200
I0918 10:29:12.075871 30897 layer_factory.hpp:77] Creating layer conv7_1/elt_sum_conv7_1/elt_sum_fixed_point_0_split
I0918 10:29:12.075876 30897 net.cpp:86] Creating Layer conv7_1/elt_sum_conv7_1/elt_sum_fixed_point_0_split
I0918 10:29:12.075881 30897 net.cpp:408] conv7_1/elt_sum_conv7_1/elt_sum_fixed_point_0_split <- conv7_1/elt_sum
I0918 10:29:12.075886 30897 net.cpp:382] conv7_1/elt_sum_conv7_1/elt_sum_fixed_point_0_split -> conv7_1/elt_sum_conv7_1/elt_sum_fixed_point_0_split_0
I0918 10:29:12.075891 30897 net.cpp:382] conv7_1/elt_sum_conv7_1/elt_sum_fixed_point_0_split -> conv7_1/elt_sum_conv7_1/elt_sum_fixed_point_0_split_1
I0918 10:29:12.075947 30897 net.cpp:124] Setting up conv7_1/elt_sum_conv7_1/elt_sum_fixed_point_0_split
I0918 10:29:12.075953 30897 net.cpp:131] Top shape: 25 192 7 7 (235200)
I0918 10:29:12.075958 30897 net.cpp:131] Top shape: 25 192 7 7 (235200)
I0918 10:29:12.075960 30897 net.cpp:139] Memory required for data: 2284053800
I0918 10:29:12.075964 30897 layer_factory.hpp:77] Creating layer conv7_2/1x1_increase
I0918 10:29:12.075975 30897 net.cpp:86] Creating Layer conv7_2/1x1_increase
I0918 10:29:12.075980 30897 net.cpp:408] conv7_2/1x1_increase <- conv7_1/elt_sum_conv7_1/elt_sum_fixed_point_0_split_0
I0918 10:29:12.075989 30897 net.cpp:382] conv7_2/1x1_increase -> conv7_2/1x1_increase/bn
I0918 10:29:12.079960 30897 net.cpp:124] Setting up conv7_2/1x1_increase
I0918 10:29:12.079973 30897 net.cpp:131] Top shape: 25 576 7 7 (705600)
I0918 10:29:12.079977 30897 net.cpp:139] Memory required for data: 2286876200
I0918 10:29:12.079983 30897 layer_factory.hpp:77] Creating layer conv7_2/1x1_increase/hardswish
I0918 10:29:12.079995 30897 net.cpp:86] Creating Layer conv7_2/1x1_increase/hardswish
I0918 10:29:12.079999 30897 net.cpp:408] conv7_2/1x1_increase/hardswish <- conv7_2/1x1_increase/bn
I0918 10:29:12.080008 30897 net.cpp:369] conv7_2/1x1_increase/hardswish -> conv7_2/1x1_increase/bn (in-place)
I0918 10:29:12.080047 30897 net.cpp:124] Setting up conv7_2/1x1_increase/hardswish
I0918 10:29:12.080054 30897 net.cpp:131] Top shape: 25 576 7 7 (705600)
I0918 10:29:12.080057 30897 net.cpp:139] Memory required for data: 2289698600
I0918 10:29:12.080060 30897 layer_factory.hpp:77] Creating layer conv7_2/1x1_increase/bn_fixed_point
I0918 10:29:12.080067 30897 net.cpp:86] Creating Layer conv7_2/1x1_increase/bn_fixed_point
I0918 10:29:12.080071 30897 net.cpp:408] conv7_2/1x1_increase/bn_fixed_point <- conv7_2/1x1_increase/bn
I0918 10:29:12.080078 30897 net.cpp:369] conv7_2/1x1_increase/bn_fixed_point -> conv7_2/1x1_increase/bn (in-place)
I0918 10:29:12.080108 30897 net.cpp:124] Setting up conv7_2/1x1_increase/bn_fixed_point
I0918 10:29:12.080116 30897 net.cpp:131] Top shape: 25 576 7 7 (705600)
I0918 10:29:12.080119 30897 net.cpp:139] Memory required for data: 2292521000
I0918 10:29:12.080123 30897 layer_factory.hpp:77] Creating layer conv7_2/1x1_increase/slice
I0918 10:29:12.080130 30897 net.cpp:86] Creating Layer conv7_2/1x1_increase/slice
I0918 10:29:12.080133 30897 net.cpp:408] conv7_2/1x1_increase/slice <- conv7_2/1x1_increase/bn
I0918 10:29:12.080138 30897 net.cpp:382] conv7_2/1x1_increase/slice -> conv7_2/1x1_increase/split1
I0918 10:29:12.080145 30897 net.cpp:382] conv7_2/1x1_increase/slice -> conv7_2/1x1_increase/split2
I0918 10:29:12.080165 30897 net.cpp:382] conv7_2/1x1_increase/slice -> conv7_2/1x1_increase/split3
I0918 10:29:12.080246 30897 net.cpp:124] Setting up conv7_2/1x1_increase/slice
I0918 10:29:12.080252 30897 net.cpp:131] Top shape: 25 192 7 7 (235200)
I0918 10:29:12.080256 30897 net.cpp:131] Top shape: 25 192 7 7 (235200)
I0918 10:29:12.080260 30897 net.cpp:131] Top shape: 25 192 7 7 (235200)
I0918 10:29:12.080263 30897 net.cpp:139] Memory required for data: 2295343400
I0918 10:29:12.080267 30897 layer_factory.hpp:77] Creating layer conv7_2/3x3_dwconv/slice_0
I0918 10:29:12.080279 30897 net.cpp:86] Creating Layer conv7_2/3x3_dwconv/slice_0
I0918 10:29:12.080284 30897 net.cpp:408] conv7_2/3x3_dwconv/slice_0 <- conv7_2/1x1_increase/split1
I0918 10:29:12.080293 30897 net.cpp:382] conv7_2/3x3_dwconv/slice_0 -> conv7_2/3x3_dwconv/slice_0/bn
I0918 10:29:12.080999 30897 net.cpp:124] Setting up conv7_2/3x3_dwconv/slice_0
I0918 10:29:12.081012 30897 net.cpp:131] Top shape: 25 192 7 7 (235200)
I0918 10:29:12.081015 30897 net.cpp:139] Memory required for data: 2296284200
I0918 10:29:12.081028 30897 layer_factory.hpp:77] Creating layer conv7_2/3x3_dwconv/slice_0/hardswish
I0918 10:29:12.081035 30897 net.cpp:86] Creating Layer conv7_2/3x3_dwconv/slice_0/hardswish
I0918 10:29:12.081039 30897 net.cpp:408] conv7_2/3x3_dwconv/slice_0/hardswish <- conv7_2/3x3_dwconv/slice_0/bn
I0918 10:29:12.081048 30897 net.cpp:369] conv7_2/3x3_dwconv/slice_0/hardswish -> conv7_2/3x3_dwconv/slice_0/bn (in-place)
I0918 10:29:12.081089 30897 net.cpp:124] Setting up conv7_2/3x3_dwconv/slice_0/hardswish
I0918 10:29:12.081095 30897 net.cpp:131] Top shape: 25 192 7 7 (235200)
I0918 10:29:12.081099 30897 net.cpp:139] Memory required for data: 2297225000
I0918 10:29:12.081102 30897 layer_factory.hpp:77] Creating layer conv7_2/3x3_dwconv/slice_1
I0918 10:29:12.081115 30897 net.cpp:86] Creating Layer conv7_2/3x3_dwconv/slice_1
I0918 10:29:12.081118 30897 net.cpp:408] conv7_2/3x3_dwconv/slice_1 <- conv7_2/1x1_increase/split2
I0918 10:29:12.081127 30897 net.cpp:382] conv7_2/3x3_dwconv/slice_1 -> conv7_2/3x3_dwconv/slice_1/bn
I0918 10:29:12.081946 30897 net.cpp:124] Setting up conv7_2/3x3_dwconv/slice_1
I0918 10:29:12.081959 30897 net.cpp:131] Top shape: 25 192 7 7 (235200)
I0918 10:29:12.081962 30897 net.cpp:139] Memory required for data: 2298165800
I0918 10:29:12.081969 30897 layer_factory.hpp:77] Creating layer conv7_2/3x3_dwconv/slice_1/hardswish
I0918 10:29:12.081979 30897 net.cpp:86] Creating Layer conv7_2/3x3_dwconv/slice_1/hardswish
I0918 10:29:12.081984 30897 net.cpp:408] conv7_2/3x3_dwconv/slice_1/hardswish <- conv7_2/3x3_dwconv/slice_1/bn
I0918 10:29:12.081988 30897 net.cpp:369] conv7_2/3x3_dwconv/slice_1/hardswish -> conv7_2/3x3_dwconv/slice_1/bn (in-place)
I0918 10:29:12.082028 30897 net.cpp:124] Setting up conv7_2/3x3_dwconv/slice_1/hardswish
I0918 10:29:12.082036 30897 net.cpp:131] Top shape: 25 192 7 7 (235200)
I0918 10:29:12.082038 30897 net.cpp:139] Memory required for data: 2299106600
I0918 10:29:12.082042 30897 layer_factory.hpp:77] Creating layer conv7_2/3x3_dwconv/slice_2
I0918 10:29:12.082053 30897 net.cpp:86] Creating Layer conv7_2/3x3_dwconv/slice_2
I0918 10:29:12.082057 30897 net.cpp:408] conv7_2/3x3_dwconv/slice_2 <- conv7_2/1x1_increase/split3
I0918 10:29:12.082065 30897 net.cpp:382] conv7_2/3x3_dwconv/slice_2 -> conv7_2/3x3_dwconv/slice_2/bn
I0918 10:29:12.083226 30897 net.cpp:124] Setting up conv7_2/3x3_dwconv/slice_2
I0918 10:29:12.083240 30897 net.cpp:131] Top shape: 25 192 7 7 (235200)
I0918 10:29:12.083243 30897 net.cpp:139] Memory required for data: 2300047400
I0918 10:29:12.083250 30897 layer_factory.hpp:77] Creating layer conv7_2/3x3_dwconv/slice_2/hardswish
I0918 10:29:12.083258 30897 net.cpp:86] Creating Layer conv7_2/3x3_dwconv/slice_2/hardswish
I0918 10:29:12.083263 30897 net.cpp:408] conv7_2/3x3_dwconv/slice_2/hardswish <- conv7_2/3x3_dwconv/slice_2/bn
I0918 10:29:12.083271 30897 net.cpp:369] conv7_2/3x3_dwconv/slice_2/hardswish -> conv7_2/3x3_dwconv/slice_2/bn (in-place)
I0918 10:29:12.083323 30897 net.cpp:124] Setting up conv7_2/3x3_dwconv/slice_2/hardswish
I0918 10:29:12.083341 30897 net.cpp:131] Top shape: 25 192 7 7 (235200)
I0918 10:29:12.083345 30897 net.cpp:139] Memory required for data: 2300988200
I0918 10:29:12.083349 30897 layer_factory.hpp:77] Creating layer conv7_2/3x3_dwconv/concat
I0918 10:29:12.083354 30897 net.cpp:86] Creating Layer conv7_2/3x3_dwconv/concat
I0918 10:29:12.083359 30897 net.cpp:408] conv7_2/3x3_dwconv/concat <- conv7_2/3x3_dwconv/slice_0/bn
I0918 10:29:12.083364 30897 net.cpp:408] conv7_2/3x3_dwconv/concat <- conv7_2/3x3_dwconv/slice_1/bn
I0918 10:29:12.083367 30897 net.cpp:408] conv7_2/3x3_dwconv/concat <- conv7_2/3x3_dwconv/slice_2/bn
I0918 10:29:12.083372 30897 net.cpp:382] conv7_2/3x3_dwconv/concat -> conv7_2/3x3_dwconv/concat
I0918 10:29:12.083410 30897 net.cpp:124] Setting up conv7_2/3x3_dwconv/concat
I0918 10:29:12.083415 30897 net.cpp:131] Top shape: 25 576 7 7 (705600)
I0918 10:29:12.083420 30897 net.cpp:139] Memory required for data: 2303810600
I0918 10:29:12.083423 30897 layer_factory.hpp:77] Creating layer conv7_2/3x3_dwconv/concat_fixed_point
I0918 10:29:12.083431 30897 net.cpp:86] Creating Layer conv7_2/3x3_dwconv/concat_fixed_point
I0918 10:29:12.083434 30897 net.cpp:408] conv7_2/3x3_dwconv/concat_fixed_point <- conv7_2/3x3_dwconv/concat
I0918 10:29:12.083439 30897 net.cpp:369] conv7_2/3x3_dwconv/concat_fixed_point -> conv7_2/3x3_dwconv/concat (in-place)
I0918 10:29:12.083472 30897 net.cpp:124] Setting up conv7_2/3x3_dwconv/concat_fixed_point
I0918 10:29:12.083477 30897 net.cpp:131] Top shape: 25 576 7 7 (705600)
I0918 10:29:12.083480 30897 net.cpp:139] Memory required for data: 2306633000
I0918 10:29:12.083484 30897 layer_factory.hpp:77] Creating layer conv7_2/3x3_dwconv/concat_conv7_2/3x3_dwconv/concat_fixed_point_0_split
I0918 10:29:12.083501 30897 net.cpp:86] Creating Layer conv7_2/3x3_dwconv/concat_conv7_2/3x3_dwconv/concat_fixed_point_0_split
I0918 10:29:12.083505 30897 net.cpp:408] conv7_2/3x3_dwconv/concat_conv7_2/3x3_dwconv/concat_fixed_point_0_split <- conv7_2/3x3_dwconv/concat
I0918 10:29:12.083510 30897 net.cpp:382] conv7_2/3x3_dwconv/concat_conv7_2/3x3_dwconv/concat_fixed_point_0_split -> conv7_2/3x3_dwconv/concat_conv7_2/3x3_dwconv/concat_fixed_point_0_split_0
I0918 10:29:12.083518 30897 net.cpp:382] conv7_2/3x3_dwconv/concat_conv7_2/3x3_dwconv/concat_fixed_point_0_split -> conv7_2/3x3_dwconv/concat_conv7_2/3x3_dwconv/concat_fixed_point_0_split_1
I0918 10:29:12.083568 30897 net.cpp:124] Setting up conv7_2/3x3_dwconv/concat_conv7_2/3x3_dwconv/concat_fixed_point_0_split
I0918 10:29:12.083573 30897 net.cpp:131] Top shape: 25 576 7 7 (705600)
I0918 10:29:12.083578 30897 net.cpp:131] Top shape: 25 576 7 7 (705600)
I0918 10:29:12.083581 30897 net.cpp:139] Memory required for data: 2312277800
I0918 10:29:12.083583 30897 layer_factory.hpp:77] Creating layer conv7_2/3x3_dwconv/SE_global_pool
I0918 10:29:12.083590 30897 net.cpp:86] Creating Layer conv7_2/3x3_dwconv/SE_global_pool
I0918 10:29:12.083595 30897 net.cpp:408] conv7_2/3x3_dwconv/SE_global_pool <- conv7_2/3x3_dwconv/concat_conv7_2/3x3_dwconv/concat_fixed_point_0_split_0
I0918 10:29:12.083601 30897 net.cpp:382] conv7_2/3x3_dwconv/SE_global_pool -> conv7_2/3x3_dwconv/SE_global_pool
I0918 10:29:12.083631 30897 net.cpp:124] Setting up conv7_2/3x3_dwconv/SE_global_pool
I0918 10:29:12.083639 30897 net.cpp:131] Top shape: 25 576 1 1 (14400)
I0918 10:29:12.083642 30897 net.cpp:139] Memory required for data: 2312335400
I0918 10:29:12.083645 30897 layer_factory.hpp:77] Creating layer conv7_2/3x3_dwconv/SE_bn
I0918 10:29:12.083652 30897 net.cpp:86] Creating Layer conv7_2/3x3_dwconv/SE_bn
I0918 10:29:12.083657 30897 net.cpp:408] conv7_2/3x3_dwconv/SE_bn <- conv7_2/3x3_dwconv/SE_global_pool
I0918 10:29:12.083664 30897 net.cpp:382] conv7_2/3x3_dwconv/SE_bn -> conv7_2/3x3_dwconv/SE_bn
I0918 10:29:12.083722 30897 layer_factory.hpp:77] Creating layer conv7_2/3x3_dwconv/SE_bn
I0918 10:29:12.083887 30897 net.cpp:124] Setting up conv7_2/3x3_dwconv/SE_bn
I0918 10:29:12.083896 30897 net.cpp:131] Top shape: 25 576 1 1 (14400)
I0918 10:29:12.083909 30897 net.cpp:139] Memory required for data: 2312393000
I0918 10:29:12.083917 30897 layer_factory.hpp:77] Creating layer conv7_2/3x3_dwconv/SE_fc1
I0918 10:29:12.083928 30897 net.cpp:86] Creating Layer conv7_2/3x3_dwconv/SE_fc1
I0918 10:29:12.083933 30897 net.cpp:408] conv7_2/3x3_dwconv/SE_fc1 <- conv7_2/3x3_dwconv/SE_bn
I0918 10:29:12.083940 30897 net.cpp:382] conv7_2/3x3_dwconv/SE_fc1 -> conv7_2/3x3_dwconv/SE_fc1
I0918 10:29:12.085038 30897 net.cpp:124] Setting up conv7_2/3x3_dwconv/SE_fc1
I0918 10:29:12.085052 30897 net.cpp:131] Top shape: 25 36 1 1 (900)
I0918 10:29:12.085055 30897 net.cpp:139] Memory required for data: 2312396600
I0918 10:29:12.085062 30897 layer_factory.hpp:77] Creating layer conv7_2/3x3_dwconv/SE_fc1/relu
I0918 10:29:12.085073 30897 net.cpp:86] Creating Layer conv7_2/3x3_dwconv/SE_fc1/relu
I0918 10:29:12.085078 30897 net.cpp:408] conv7_2/3x3_dwconv/SE_fc1/relu <- conv7_2/3x3_dwconv/SE_fc1
I0918 10:29:12.085083 30897 net.cpp:369] conv7_2/3x3_dwconv/SE_fc1/relu -> conv7_2/3x3_dwconv/SE_fc1 (in-place)
I0918 10:29:12.085796 30897 net.cpp:124] Setting up conv7_2/3x3_dwconv/SE_fc1/relu
I0918 10:29:12.085822 30897 net.cpp:131] Top shape: 25 36 1 1 (900)
I0918 10:29:12.085827 30897 net.cpp:139] Memory required for data: 2312400200
I0918 10:29:12.085830 30897 layer_factory.hpp:77] Creating layer conv7_2/3x3_dwconv/SE_fc2
I0918 10:29:12.085841 30897 net.cpp:86] Creating Layer conv7_2/3x3_dwconv/SE_fc2
I0918 10:29:12.085846 30897 net.cpp:408] conv7_2/3x3_dwconv/SE_fc2 <- conv7_2/3x3_dwconv/SE_fc1
I0918 10:29:12.085856 30897 net.cpp:382] conv7_2/3x3_dwconv/SE_fc2 -> conv7_2/3x3_dwconv/SE_fc2
I0918 10:29:12.086937 30897 net.cpp:124] Setting up conv7_2/3x3_dwconv/SE_fc2
I0918 10:29:12.086951 30897 net.cpp:131] Top shape: 25 576 1 1 (14400)
I0918 10:29:12.086953 30897 net.cpp:139] Memory required for data: 2312457800
I0918 10:29:12.086959 30897 layer_factory.hpp:77] Creating layer conv7_2/3x3_dwconv/SE_weights
I0918 10:29:12.086967 30897 net.cpp:86] Creating Layer conv7_2/3x3_dwconv/SE_weights
I0918 10:29:12.086971 30897 net.cpp:408] conv7_2/3x3_dwconv/SE_weights <- conv7_2/3x3_dwconv/SE_fc2
I0918 10:29:12.086979 30897 net.cpp:369] conv7_2/3x3_dwconv/SE_weights -> conv7_2/3x3_dwconv/SE_fc2 (in-place)
I0918 10:29:12.087843 30897 net.cpp:124] Setting up conv7_2/3x3_dwconv/SE_weights
I0918 10:29:12.087858 30897 net.cpp:131] Top shape: 25 576 1 1 (14400)
I0918 10:29:12.087862 30897 net.cpp:139] Memory required for data: 2312515400
I0918 10:29:12.087873 30897 layer_factory.hpp:77] Creating layer conv7_2/3x3_dwconv/SE_weights/reshape
I0918 10:29:12.087880 30897 net.cpp:86] Creating Layer conv7_2/3x3_dwconv/SE_weights/reshape
I0918 10:29:12.087885 30897 net.cpp:408] conv7_2/3x3_dwconv/SE_weights/reshape <- conv7_2/3x3_dwconv/SE_fc2
I0918 10:29:12.087901 30897 net.cpp:382] conv7_2/3x3_dwconv/SE_weights/reshape -> conv7_2/3x3_dwconv/SE_weights/reshape
I0918 10:29:12.087944 30897 net.cpp:124] Setting up conv7_2/3x3_dwconv/SE_weights/reshape
I0918 10:29:12.087949 30897 net.cpp:131] Top shape: 25 576 (14400)
I0918 10:29:12.087952 30897 net.cpp:139] Memory required for data: 2312573000
I0918 10:29:12.087956 30897 layer_factory.hpp:77] Creating layer conv7_2/3x3_dwconv/scale
I0918 10:29:12.087967 30897 net.cpp:86] Creating Layer conv7_2/3x3_dwconv/scale
I0918 10:29:12.087971 30897 net.cpp:408] conv7_2/3x3_dwconv/scale <- conv7_2/3x3_dwconv/concat_conv7_2/3x3_dwconv/concat_fixed_point_0_split_1
I0918 10:29:12.087976 30897 net.cpp:408] conv7_2/3x3_dwconv/scale <- conv7_2/3x3_dwconv/SE_weights/reshape
I0918 10:29:12.087985 30897 net.cpp:382] conv7_2/3x3_dwconv/scale -> conv7_2/3x3_dwconv/scale
I0918 10:29:12.088083 30897 net.cpp:124] Setting up conv7_2/3x3_dwconv/scale
I0918 10:29:12.088091 30897 net.cpp:131] Top shape: 25 576 7 7 (705600)
I0918 10:29:12.088094 30897 net.cpp:139] Memory required for data: 2315395400
I0918 10:29:12.088097 30897 layer_factory.hpp:77] Creating layer conv7_2/3x3_dwconv/scale_fixed_point
I0918 10:29:12.088104 30897 net.cpp:86] Creating Layer conv7_2/3x3_dwconv/scale_fixed_point
I0918 10:29:12.088132 30897 net.cpp:408] conv7_2/3x3_dwconv/scale_fixed_point <- conv7_2/3x3_dwconv/scale
I0918 10:29:12.088138 30897 net.cpp:369] conv7_2/3x3_dwconv/scale_fixed_point -> conv7_2/3x3_dwconv/scale (in-place)
I0918 10:29:12.088173 30897 net.cpp:124] Setting up conv7_2/3x3_dwconv/scale_fixed_point
I0918 10:29:12.088179 30897 net.cpp:131] Top shape: 25 576 7 7 (705600)
I0918 10:29:12.088182 30897 net.cpp:139] Memory required for data: 2318217800
I0918 10:29:12.088187 30897 layer_factory.hpp:77] Creating layer conv7_2/1x1_decrease
I0918 10:29:12.088202 30897 net.cpp:86] Creating Layer conv7_2/1x1_decrease
I0918 10:29:12.088207 30897 net.cpp:408] conv7_2/1x1_decrease <- conv7_2/3x3_dwconv/scale
I0918 10:29:12.088212 30897 net.cpp:382] conv7_2/1x1_decrease -> conv7_2/1x1_decrease/bn
I0918 10:29:12.093433 30897 net.cpp:124] Setting up conv7_2/1x1_decrease
I0918 10:29:12.093448 30897 net.cpp:131] Top shape: 25 192 7 7 (235200)
I0918 10:29:12.093451 30897 net.cpp:139] Memory required for data: 2319158600
I0918 10:29:12.093459 30897 layer_factory.hpp:77] Creating layer conv7_2/elt_sum
I0918 10:29:12.093466 30897 net.cpp:86] Creating Layer conv7_2/elt_sum
I0918 10:29:12.093470 30897 net.cpp:408] conv7_2/elt_sum <- conv7_1/elt_sum_conv7_1/elt_sum_fixed_point_0_split_1
I0918 10:29:12.093475 30897 net.cpp:408] conv7_2/elt_sum <- conv7_2/1x1_decrease/bn
I0918 10:29:12.093485 30897 net.cpp:382] conv7_2/elt_sum -> conv7_2/elt_sum
I0918 10:29:12.093525 30897 net.cpp:124] Setting up conv7_2/elt_sum
I0918 10:29:12.093535 30897 net.cpp:131] Top shape: 25 192 7 7 (235200)
I0918 10:29:12.093538 30897 net.cpp:139] Memory required for data: 2320099400
I0918 10:29:12.093541 30897 layer_factory.hpp:77] Creating layer conv7_2/elt_sum_fixed_point
I0918 10:29:12.093547 30897 net.cpp:86] Creating Layer conv7_2/elt_sum_fixed_point
I0918 10:29:12.093551 30897 net.cpp:408] conv7_2/elt_sum_fixed_point <- conv7_2/elt_sum
I0918 10:29:12.093556 30897 net.cpp:369] conv7_2/elt_sum_fixed_point -> conv7_2/elt_sum (in-place)
I0918 10:29:12.093590 30897 net.cpp:124] Setting up conv7_2/elt_sum_fixed_point
I0918 10:29:12.093595 30897 net.cpp:131] Top shape: 25 192 7 7 (235200)
I0918 10:29:12.093598 30897 net.cpp:139] Memory required for data: 2321040200
I0918 10:29:12.093603 30897 layer_factory.hpp:77] Creating layer conv8_0/1x1_increase
I0918 10:29:12.093616 30897 net.cpp:86] Creating Layer conv8_0/1x1_increase
I0918 10:29:12.093619 30897 net.cpp:408] conv8_0/1x1_increase <- conv7_2/elt_sum
I0918 10:29:12.093627 30897 net.cpp:382] conv8_0/1x1_increase -> conv8_0/1x1_increase/bn
I0918 10:29:12.100955 30897 net.cpp:124] Setting up conv8_0/1x1_increase
I0918 10:29:12.100968 30897 net.cpp:131] Top shape: 25 1152 7 7 (1411200)
I0918 10:29:12.100971 30897 net.cpp:139] Memory required for data: 2326685000
I0918 10:29:12.100980 30897 layer_factory.hpp:77] Creating layer conv8_0/1x1_increase/hardswish
I0918 10:29:12.100988 30897 net.cpp:86] Creating Layer conv8_0/1x1_increase/hardswish
I0918 10:29:12.100992 30897 net.cpp:408] conv8_0/1x1_increase/hardswish <- conv8_0/1x1_increase/bn
I0918 10:29:12.100998 30897 net.cpp:369] conv8_0/1x1_increase/hardswish -> conv8_0/1x1_increase/bn (in-place)
I0918 10:29:12.101037 30897 net.cpp:124] Setting up conv8_0/1x1_increase/hardswish
I0918 10:29:12.101042 30897 net.cpp:131] Top shape: 25 1152 7 7 (1411200)
I0918 10:29:12.101045 30897 net.cpp:139] Memory required for data: 2332329800
I0918 10:29:12.101049 30897 layer_factory.hpp:77] Creating layer conv8_0/1x1_increase/bn_fixed_point
I0918 10:29:12.101058 30897 net.cpp:86] Creating Layer conv8_0/1x1_increase/bn_fixed_point
I0918 10:29:12.101061 30897 net.cpp:408] conv8_0/1x1_increase/bn_fixed_point <- conv8_0/1x1_increase/bn
I0918 10:29:12.101068 30897 net.cpp:369] conv8_0/1x1_increase/bn_fixed_point -> conv8_0/1x1_increase/bn (in-place)
I0918 10:29:12.101099 30897 net.cpp:124] Setting up conv8_0/1x1_increase/bn_fixed_point
I0918 10:29:12.101104 30897 net.cpp:131] Top shape: 25 1152 7 7 (1411200)
I0918 10:29:12.101107 30897 net.cpp:139] Memory required for data: 2337974600
I0918 10:29:12.101125 30897 layer_factory.hpp:77] Creating layer conv8_0/1x1_increase/slice
I0918 10:29:12.101135 30897 net.cpp:86] Creating Layer conv8_0/1x1_increase/slice
I0918 10:29:12.101138 30897 net.cpp:408] conv8_0/1x1_increase/slice <- conv8_0/1x1_increase/bn
I0918 10:29:12.101145 30897 net.cpp:382] conv8_0/1x1_increase/slice -> conv8_0/1x1_increase/split1
I0918 10:29:12.101152 30897 net.cpp:382] conv8_0/1x1_increase/slice -> conv8_0/1x1_increase/split2
I0918 10:29:12.101159 30897 net.cpp:382] conv8_0/1x1_increase/slice -> conv8_0/1x1_increase/split3
I0918 10:29:12.101248 30897 net.cpp:124] Setting up conv8_0/1x1_increase/slice
I0918 10:29:12.101254 30897 net.cpp:131] Top shape: 25 384 7 7 (470400)
I0918 10:29:12.101258 30897 net.cpp:131] Top shape: 25 384 7 7 (470400)
I0918 10:29:12.101263 30897 net.cpp:131] Top shape: 25 384 7 7 (470400)
I0918 10:29:12.101265 30897 net.cpp:139] Memory required for data: 2343619400
I0918 10:29:12.101269 30897 layer_factory.hpp:77] Creating layer conv8_0/3x3_dwconv/slice_0
I0918 10:29:12.101280 30897 net.cpp:86] Creating Layer conv8_0/3x3_dwconv/slice_0
I0918 10:29:12.101284 30897 net.cpp:408] conv8_0/3x3_dwconv/slice_0 <- conv8_0/1x1_increase/split1
I0918 10:29:12.101300 30897 net.cpp:382] conv8_0/3x3_dwconv/slice_0 -> conv8_0/3x3_dwconv/slice_0/bn
I0918 10:29:12.102080 30897 net.cpp:124] Setting up conv8_0/3x3_dwconv/slice_0
I0918 10:29:12.102093 30897 net.cpp:131] Top shape: 25 384 7 7 (470400)
I0918 10:29:12.102097 30897 net.cpp:139] Memory required for data: 2345501000
I0918 10:29:12.102110 30897 layer_factory.hpp:77] Creating layer conv8_0/3x3_dwconv/slice_0/hardswish
I0918 10:29:12.102118 30897 net.cpp:86] Creating Layer conv8_0/3x3_dwconv/slice_0/hardswish
I0918 10:29:12.102121 30897 net.cpp:408] conv8_0/3x3_dwconv/slice_0/hardswish <- conv8_0/3x3_dwconv/slice_0/bn
I0918 10:29:12.102130 30897 net.cpp:369] conv8_0/3x3_dwconv/slice_0/hardswish -> conv8_0/3x3_dwconv/slice_0/bn (in-place)
I0918 10:29:12.102167 30897 net.cpp:124] Setting up conv8_0/3x3_dwconv/slice_0/hardswish
I0918 10:29:12.102177 30897 net.cpp:131] Top shape: 25 384 7 7 (470400)
I0918 10:29:12.102181 30897 net.cpp:139] Memory required for data: 2347382600
I0918 10:29:12.102185 30897 layer_factory.hpp:77] Creating layer conv8_0/3x3_dwconv/slice_1
I0918 10:29:12.102196 30897 net.cpp:86] Creating Layer conv8_0/3x3_dwconv/slice_1
I0918 10:29:12.102200 30897 net.cpp:408] conv8_0/3x3_dwconv/slice_1 <- conv8_0/1x1_increase/split2
I0918 10:29:12.102207 30897 net.cpp:382] conv8_0/3x3_dwconv/slice_1 -> conv8_0/3x3_dwconv/slice_1/bn
I0918 10:29:12.103374 30897 net.cpp:124] Setting up conv8_0/3x3_dwconv/slice_1
I0918 10:29:12.103387 30897 net.cpp:131] Top shape: 25 384 7 7 (470400)
I0918 10:29:12.103391 30897 net.cpp:139] Memory required for data: 2349264200
I0918 10:29:12.103399 30897 layer_factory.hpp:77] Creating layer conv8_0/3x3_dwconv/slice_1/hardswish
I0918 10:29:12.103405 30897 net.cpp:86] Creating Layer conv8_0/3x3_dwconv/slice_1/hardswish
I0918 10:29:12.103410 30897 net.cpp:408] conv8_0/3x3_dwconv/slice_1/hardswish <- conv8_0/3x3_dwconv/slice_1/bn
I0918 10:29:12.103417 30897 net.cpp:369] conv8_0/3x3_dwconv/slice_1/hardswish -> conv8_0/3x3_dwconv/slice_1/bn (in-place)
I0918 10:29:12.103457 30897 net.cpp:124] Setting up conv8_0/3x3_dwconv/slice_1/hardswish
I0918 10:29:12.103463 30897 net.cpp:131] Top shape: 25 384 7 7 (470400)
I0918 10:29:12.103466 30897 net.cpp:139] Memory required for data: 2351145800
I0918 10:29:12.103471 30897 layer_factory.hpp:77] Creating layer conv8_0/3x3_dwconv/slice_2
I0918 10:29:12.103484 30897 net.cpp:86] Creating Layer conv8_0/3x3_dwconv/slice_2
I0918 10:29:12.103489 30897 net.cpp:408] conv8_0/3x3_dwconv/slice_2 <- conv8_0/1x1_increase/split3
I0918 10:29:12.103495 30897 net.cpp:382] conv8_0/3x3_dwconv/slice_2 -> conv8_0/3x3_dwconv/slice_2/bn
I0918 10:29:12.104936 30897 net.cpp:124] Setting up conv8_0/3x3_dwconv/slice_2
I0918 10:29:12.104950 30897 net.cpp:131] Top shape: 25 384 7 7 (470400)
I0918 10:29:12.104954 30897 net.cpp:139] Memory required for data: 2353027400
I0918 10:29:12.104961 30897 layer_factory.hpp:77] Creating layer conv8_0/3x3_dwconv/slice_2/hardswish
I0918 10:29:12.104984 30897 net.cpp:86] Creating Layer conv8_0/3x3_dwconv/slice_2/hardswish
I0918 10:29:12.104988 30897 net.cpp:408] conv8_0/3x3_dwconv/slice_2/hardswish <- conv8_0/3x3_dwconv/slice_2/bn
I0918 10:29:12.104995 30897 net.cpp:369] conv8_0/3x3_dwconv/slice_2/hardswish -> conv8_0/3x3_dwconv/slice_2/bn (in-place)
I0918 10:29:12.105037 30897 net.cpp:124] Setting up conv8_0/3x3_dwconv/slice_2/hardswish
I0918 10:29:12.105043 30897 net.cpp:131] Top shape: 25 384 7 7 (470400)
I0918 10:29:12.105047 30897 net.cpp:139] Memory required for data: 2354909000
I0918 10:29:12.105051 30897 layer_factory.hpp:77] Creating layer conv8_0/3x3_dwconv/concat
I0918 10:29:12.105058 30897 net.cpp:86] Creating Layer conv8_0/3x3_dwconv/concat
I0918 10:29:12.105062 30897 net.cpp:408] conv8_0/3x3_dwconv/concat <- conv8_0/3x3_dwconv/slice_0/bn
I0918 10:29:12.105067 30897 net.cpp:408] conv8_0/3x3_dwconv/concat <- conv8_0/3x3_dwconv/slice_1/bn
I0918 10:29:12.105070 30897 net.cpp:408] conv8_0/3x3_dwconv/concat <- conv8_0/3x3_dwconv/slice_2/bn
I0918 10:29:12.105077 30897 net.cpp:382] conv8_0/3x3_dwconv/concat -> conv8_0/3x3_dwconv/concat
I0918 10:29:12.105108 30897 net.cpp:124] Setting up conv8_0/3x3_dwconv/concat
I0918 10:29:12.105114 30897 net.cpp:131] Top shape: 25 1152 7 7 (1411200)
I0918 10:29:12.105118 30897 net.cpp:139] Memory required for data: 2360553800
I0918 10:29:12.105120 30897 layer_factory.hpp:77] Creating layer conv8_0/3x3_dwconv/concat_fixed_point
I0918 10:29:12.105129 30897 net.cpp:86] Creating Layer conv8_0/3x3_dwconv/concat_fixed_point
I0918 10:29:12.105132 30897 net.cpp:408] conv8_0/3x3_dwconv/concat_fixed_point <- conv8_0/3x3_dwconv/concat
I0918 10:29:12.105137 30897 net.cpp:369] conv8_0/3x3_dwconv/concat_fixed_point -> conv8_0/3x3_dwconv/concat (in-place)
I0918 10:29:12.105168 30897 net.cpp:124] Setting up conv8_0/3x3_dwconv/concat_fixed_point
I0918 10:29:12.105175 30897 net.cpp:131] Top shape: 25 1152 7 7 (1411200)
I0918 10:29:12.105177 30897 net.cpp:139] Memory required for data: 2366198600
I0918 10:29:12.105181 30897 layer_factory.hpp:77] Creating layer conv8_0/3x3_dwconv/concat_conv8_0/3x3_dwconv/concat_fixed_point_0_split
I0918 10:29:12.105187 30897 net.cpp:86] Creating Layer conv8_0/3x3_dwconv/concat_conv8_0/3x3_dwconv/concat_fixed_point_0_split
I0918 10:29:12.105191 30897 net.cpp:408] conv8_0/3x3_dwconv/concat_conv8_0/3x3_dwconv/concat_fixed_point_0_split <- conv8_0/3x3_dwconv/concat
I0918 10:29:12.105198 30897 net.cpp:382] conv8_0/3x3_dwconv/concat_conv8_0/3x3_dwconv/concat_fixed_point_0_split -> conv8_0/3x3_dwconv/concat_conv8_0/3x3_dwconv/concat_fixed_point_0_split_0
I0918 10:29:12.105206 30897 net.cpp:382] conv8_0/3x3_dwconv/concat_conv8_0/3x3_dwconv/concat_fixed_point_0_split -> conv8_0/3x3_dwconv/concat_conv8_0/3x3_dwconv/concat_fixed_point_0_split_1
I0918 10:29:12.105254 30897 net.cpp:124] Setting up conv8_0/3x3_dwconv/concat_conv8_0/3x3_dwconv/concat_fixed_point_0_split
I0918 10:29:12.105262 30897 net.cpp:131] Top shape: 25 1152 7 7 (1411200)
I0918 10:29:12.105267 30897 net.cpp:131] Top shape: 25 1152 7 7 (1411200)
I0918 10:29:12.105269 30897 net.cpp:139] Memory required for data: 2377488200
I0918 10:29:12.105273 30897 layer_factory.hpp:77] Creating layer conv8_0/3x3_dwconv/SE_global_pool
I0918 10:29:12.105281 30897 net.cpp:86] Creating Layer conv8_0/3x3_dwconv/SE_global_pool
I0918 10:29:12.105285 30897 net.cpp:408] conv8_0/3x3_dwconv/SE_global_pool <- conv8_0/3x3_dwconv/concat_conv8_0/3x3_dwconv/concat_fixed_point_0_split_0
I0918 10:29:12.105293 30897 net.cpp:382] conv8_0/3x3_dwconv/SE_global_pool -> conv8_0/3x3_dwconv/SE_global_pool
I0918 10:29:12.105322 30897 net.cpp:124] Setting up conv8_0/3x3_dwconv/SE_global_pool
I0918 10:29:12.105327 30897 net.cpp:131] Top shape: 25 1152 1 1 (28800)
I0918 10:29:12.105330 30897 net.cpp:139] Memory required for data: 2377603400
I0918 10:29:12.105334 30897 layer_factory.hpp:77] Creating layer conv8_0/3x3_dwconv/SE_bn
I0918 10:29:12.105343 30897 net.cpp:86] Creating Layer conv8_0/3x3_dwconv/SE_bn
I0918 10:29:12.105353 30897 net.cpp:408] conv8_0/3x3_dwconv/SE_bn <- conv8_0/3x3_dwconv/SE_global_pool
I0918 10:29:12.105361 30897 net.cpp:382] conv8_0/3x3_dwconv/SE_bn -> conv8_0/3x3_dwconv/SE_bn
I0918 10:29:12.105412 30897 layer_factory.hpp:77] Creating layer conv8_0/3x3_dwconv/SE_bn
I0918 10:29:12.105573 30897 net.cpp:124] Setting up conv8_0/3x3_dwconv/SE_bn
I0918 10:29:12.105581 30897 net.cpp:131] Top shape: 25 1152 1 1 (28800)
I0918 10:29:12.105584 30897 net.cpp:139] Memory required for data: 2377718600
I0918 10:29:12.105590 30897 layer_factory.hpp:77] Creating layer conv8_0/3x3_dwconv/SE_fc1
I0918 10:29:12.105602 30897 net.cpp:86] Creating Layer conv8_0/3x3_dwconv/SE_fc1
I0918 10:29:12.105607 30897 net.cpp:408] conv8_0/3x3_dwconv/SE_fc1 <- conv8_0/3x3_dwconv/SE_bn
I0918 10:29:12.105613 30897 net.cpp:382] conv8_0/3x3_dwconv/SE_fc1 -> conv8_0/3x3_dwconv/SE_fc1
I0918 10:29:12.108626 30897 net.cpp:124] Setting up conv8_0/3x3_dwconv/SE_fc1
I0918 10:29:12.108639 30897 net.cpp:131] Top shape: 25 72 1 1 (1800)
I0918 10:29:12.108644 30897 net.cpp:139] Memory required for data: 2377725800
I0918 10:29:12.108649 30897 layer_factory.hpp:77] Creating layer conv8_0/3x3_dwconv/SE_fc1/relu
I0918 10:29:12.108659 30897 net.cpp:86] Creating Layer conv8_0/3x3_dwconv/SE_fc1/relu
I0918 10:29:12.108662 30897 net.cpp:408] conv8_0/3x3_dwconv/SE_fc1/relu <- conv8_0/3x3_dwconv/SE_fc1
I0918 10:29:12.108669 30897 net.cpp:369] conv8_0/3x3_dwconv/SE_fc1/relu -> conv8_0/3x3_dwconv/SE_fc1 (in-place)
I0918 10:29:12.109406 30897 net.cpp:124] Setting up conv8_0/3x3_dwconv/SE_fc1/relu
I0918 10:29:12.109418 30897 net.cpp:131] Top shape: 25 72 1 1 (1800)
I0918 10:29:12.109421 30897 net.cpp:139] Memory required for data: 2377733000
I0918 10:29:12.109428 30897 layer_factory.hpp:77] Creating layer conv8_0/3x3_dwconv/SE_fc2
I0918 10:29:12.109441 30897 net.cpp:86] Creating Layer conv8_0/3x3_dwconv/SE_fc2
I0918 10:29:12.109447 30897 net.cpp:408] conv8_0/3x3_dwconv/SE_fc2 <- conv8_0/3x3_dwconv/SE_fc1
I0918 10:29:12.109452 30897 net.cpp:382] conv8_0/3x3_dwconv/SE_fc2 -> conv8_0/3x3_dwconv/SE_fc2
I0918 10:29:12.112536 30897 net.cpp:124] Setting up conv8_0/3x3_dwconv/SE_fc2
I0918 10:29:12.112550 30897 net.cpp:131] Top shape: 25 1152 1 1 (28800)
I0918 10:29:12.112553 30897 net.cpp:139] Memory required for data: 2377848200
I0918 10:29:12.112558 30897 layer_factory.hpp:77] Creating layer conv8_0/3x3_dwconv/SE_weights
I0918 10:29:12.112566 30897 net.cpp:86] Creating Layer conv8_0/3x3_dwconv/SE_weights
I0918 10:29:12.112571 30897 net.cpp:408] conv8_0/3x3_dwconv/SE_weights <- conv8_0/3x3_dwconv/SE_fc2
I0918 10:29:12.112576 30897 net.cpp:369] conv8_0/3x3_dwconv/SE_weights -> conv8_0/3x3_dwconv/SE_fc2 (in-place)
I0918 10:29:12.113234 30897 net.cpp:124] Setting up conv8_0/3x3_dwconv/SE_weights
I0918 10:29:12.113245 30897 net.cpp:131] Top shape: 25 1152 1 1 (28800)
I0918 10:29:12.113248 30897 net.cpp:139] Memory required for data: 2377963400
I0918 10:29:12.113252 30897 layer_factory.hpp:77] Creating layer conv8_0/3x3_dwconv/SE_weights/reshape
I0918 10:29:12.113268 30897 net.cpp:86] Creating Layer conv8_0/3x3_dwconv/SE_weights/reshape
I0918 10:29:12.113273 30897 net.cpp:408] conv8_0/3x3_dwconv/SE_weights/reshape <- conv8_0/3x3_dwconv/SE_fc2
I0918 10:29:12.113281 30897 net.cpp:382] conv8_0/3x3_dwconv/SE_weights/reshape -> conv8_0/3x3_dwconv/SE_weights/reshape
I0918 10:29:12.113322 30897 net.cpp:124] Setting up conv8_0/3x3_dwconv/SE_weights/reshape
I0918 10:29:12.113327 30897 net.cpp:131] Top shape: 25 1152 (28800)
I0918 10:29:12.113330 30897 net.cpp:139] Memory required for data: 2378078600
I0918 10:29:12.113334 30897 layer_factory.hpp:77] Creating layer conv8_0/3x3_dwconv/scale
I0918 10:29:12.113343 30897 net.cpp:86] Creating Layer conv8_0/3x3_dwconv/scale
I0918 10:29:12.113346 30897 net.cpp:408] conv8_0/3x3_dwconv/scale <- conv8_0/3x3_dwconv/concat_conv8_0/3x3_dwconv/concat_fixed_point_0_split_1
I0918 10:29:12.113351 30897 net.cpp:408] conv8_0/3x3_dwconv/scale <- conv8_0/3x3_dwconv/SE_weights/reshape
I0918 10:29:12.113368 30897 net.cpp:382] conv8_0/3x3_dwconv/scale -> conv8_0/3x3_dwconv/scale
I0918 10:29:12.113503 30897 net.cpp:124] Setting up conv8_0/3x3_dwconv/scale
I0918 10:29:12.113510 30897 net.cpp:131] Top shape: 25 1152 7 7 (1411200)
I0918 10:29:12.113513 30897 net.cpp:139] Memory required for data: 2383723400
I0918 10:29:12.113517 30897 layer_factory.hpp:77] Creating layer conv8_0/3x3_dwconv/scale_fixed_point
I0918 10:29:12.113524 30897 net.cpp:86] Creating Layer conv8_0/3x3_dwconv/scale_fixed_point
I0918 10:29:12.113528 30897 net.cpp:408] conv8_0/3x3_dwconv/scale_fixed_point <- conv8_0/3x3_dwconv/scale
I0918 10:29:12.113535 30897 net.cpp:369] conv8_0/3x3_dwconv/scale_fixed_point -> conv8_0/3x3_dwconv/scale (in-place)
I0918 10:29:12.113566 30897 net.cpp:124] Setting up conv8_0/3x3_dwconv/scale_fixed_point
I0918 10:29:12.113572 30897 net.cpp:131] Top shape: 25 1152 7 7 (1411200)
I0918 10:29:12.113574 30897 net.cpp:139] Memory required for data: 2389368200
I0918 10:29:12.113579 30897 layer_factory.hpp:77] Creating layer conv8_0/1x1_decrease
I0918 10:29:12.113593 30897 net.cpp:86] Creating Layer conv8_0/1x1_decrease
I0918 10:29:12.113597 30897 net.cpp:408] conv8_0/1x1_decrease <- conv8_0/3x3_dwconv/scale
I0918 10:29:12.113603 30897 net.cpp:382] conv8_0/1x1_decrease -> conv8_0/1x1_decrease/bn
I0918 10:29:12.126685 30897 net.cpp:124] Setting up conv8_0/1x1_decrease
I0918 10:29:12.126700 30897 net.cpp:131] Top shape: 25 320 7 7 (392000)
I0918 10:29:12.126704 30897 net.cpp:139] Memory required for data: 2390936200
I0918 10:29:12.126713 30897 layer_factory.hpp:77] Creating layer conv8_0/1x1_decrease/bn_fixed_point
I0918 10:29:12.126720 30897 net.cpp:86] Creating Layer conv8_0/1x1_decrease/bn_fixed_point
I0918 10:29:12.126734 30897 net.cpp:408] conv8_0/1x1_decrease/bn_fixed_point <- conv8_0/1x1_decrease/bn
I0918 10:29:12.126741 30897 net.cpp:369] conv8_0/1x1_decrease/bn_fixed_point -> conv8_0/1x1_decrease/bn (in-place)
I0918 10:29:12.126782 30897 net.cpp:124] Setting up conv8_0/1x1_decrease/bn_fixed_point
I0918 10:29:12.126790 30897 net.cpp:131] Top shape: 25 320 7 7 (392000)
I0918 10:29:12.126792 30897 net.cpp:139] Memory required for data: 2392504200
I0918 10:29:12.126796 30897 layer_factory.hpp:77] Creating layer conv9/1x1
I0918 10:29:12.126817 30897 net.cpp:86] Creating Layer conv9/1x1
I0918 10:29:12.126821 30897 net.cpp:408] conv9/1x1 <- conv8_0/1x1_decrease/bn
I0918 10:29:12.126828 30897 net.cpp:382] conv9/1x1 -> conv9/1x1/bn
I0918 10:29:12.141088 30897 net.cpp:124] Setting up conv9/1x1
I0918 10:29:12.141103 30897 net.cpp:131] Top shape: 25 1280 7 7 (1568000)
I0918 10:29:12.141106 30897 net.cpp:139] Memory required for data: 2398776200
I0918 10:29:12.141113 30897 layer_factory.hpp:77] Creating layer conv9/1x1/relu
I0918 10:29:12.141120 30897 net.cpp:86] Creating Layer conv9/1x1/relu
I0918 10:29:12.141124 30897 net.cpp:408] conv9/1x1/relu <- conv9/1x1/bn
I0918 10:29:12.141139 30897 net.cpp:369] conv9/1x1/relu -> conv9/1x1/bn (in-place)
I0918 10:29:12.142032 30897 net.cpp:124] Setting up conv9/1x1/relu
I0918 10:29:12.142047 30897 net.cpp:131] Top shape: 25 1280 7 7 (1568000)
I0918 10:29:12.142051 30897 net.cpp:139] Memory required for data: 2405048200
I0918 10:29:12.142061 30897 layer_factory.hpp:77] Creating layer conv9/1x1/bn_fixed_point
I0918 10:29:12.142072 30897 net.cpp:86] Creating Layer conv9/1x1/bn_fixed_point
I0918 10:29:12.142077 30897 net.cpp:408] conv9/1x1/bn_fixed_point <- conv9/1x1/bn
I0918 10:29:12.142086 30897 net.cpp:369] conv9/1x1/bn_fixed_point -> conv9/1x1/bn (in-place)
I0918 10:29:12.142127 30897 net.cpp:124] Setting up conv9/1x1/bn_fixed_point
I0918 10:29:12.142132 30897 net.cpp:131] Top shape: 25 1280 7 7 (1568000)
I0918 10:29:12.142135 30897 net.cpp:139] Memory required for data: 2411320200
I0918 10:29:12.142140 30897 layer_factory.hpp:77] Creating layer avepool/7x7
I0918 10:29:12.142150 30897 net.cpp:86] Creating Layer avepool/7x7
I0918 10:29:12.142154 30897 net.cpp:408] avepool/7x7 <- conv9/1x1/bn
I0918 10:29:12.142161 30897 net.cpp:382] avepool/7x7 -> avepool/7x7
I0918 10:29:12.142877 30897 net.cpp:124] Setting up avepool/7x7
I0918 10:29:12.142889 30897 net.cpp:131] Top shape: 25 1280 1 1 (32000)
I0918 10:29:12.142920 30897 net.cpp:139] Memory required for data: 2411448200
I0918 10:29:12.142925 30897 layer_factory.hpp:77] Creating layer avepool/7x7_fixed_point
I0918 10:29:12.142935 30897 net.cpp:86] Creating Layer avepool/7x7_fixed_point
I0918 10:29:12.142938 30897 net.cpp:408] avepool/7x7_fixed_point <- avepool/7x7
I0918 10:29:12.142944 30897 net.cpp:369] avepool/7x7_fixed_point -> avepool/7x7 (in-place)
I0918 10:29:12.142987 30897 net.cpp:124] Setting up avepool/7x7_fixed_point
I0918 10:29:12.142993 30897 net.cpp:131] Top shape: 25 1280 1 1 (32000)
I0918 10:29:12.142997 30897 net.cpp:139] Memory required for data: 2411576200
I0918 10:29:12.143002 30897 layer_factory.hpp:77] Creating layer classifier
I0918 10:29:12.143024 30897 net.cpp:86] Creating Layer classifier
I0918 10:29:12.143028 30897 net.cpp:408] classifier <- avepool/7x7
I0918 10:29:12.143035 30897 net.cpp:382] classifier -> classifier
I0918 10:29:12.185009 30897 net.cpp:124] Setting up classifier
I0918 10:29:12.185025 30897 net.cpp:131] Top shape: 25 1000 1 1 (25000)
I0918 10:29:12.185029 30897 net.cpp:139] Memory required for data: 2411676200
I0918 10:29:12.185037 30897 layer_factory.hpp:77] Creating layer classifier_classifier_0_split
I0918 10:29:12.185045 30897 net.cpp:86] Creating Layer classifier_classifier_0_split
I0918 10:29:12.185050 30897 net.cpp:408] classifier_classifier_0_split <- classifier
I0918 10:29:12.185065 30897 net.cpp:382] classifier_classifier_0_split -> classifier_classifier_0_split_0
I0918 10:29:12.185073 30897 net.cpp:382] classifier_classifier_0_split -> classifier_classifier_0_split_1
I0918 10:29:12.185079 30897 net.cpp:382] classifier_classifier_0_split -> classifier_classifier_0_split_2
I0918 10:29:12.185161 30897 net.cpp:124] Setting up classifier_classifier_0_split
I0918 10:29:12.185168 30897 net.cpp:131] Top shape: 25 1000 1 1 (25000)
I0918 10:29:12.185173 30897 net.cpp:131] Top shape: 25 1000 1 1 (25000)
I0918 10:29:12.185178 30897 net.cpp:131] Top shape: 25 1000 1 1 (25000)
I0918 10:29:12.185180 30897 net.cpp:139] Memory required for data: 2411976200
I0918 10:29:12.185184 30897 layer_factory.hpp:77] Creating layer loss
I0918 10:29:12.185199 30897 net.cpp:86] Creating Layer loss
I0918 10:29:12.185202 30897 net.cpp:408] loss <- classifier_classifier_0_split_0
I0918 10:29:12.185209 30897 net.cpp:408] loss <- label_data_1_split_0
I0918 10:29:12.185214 30897 net.cpp:382] loss -> loss
…
